bestclf/adult/a01.pth (torch, 47870 bytes, 15 tensors)

fc1.weight f4 [45, 95]
0	0x3d83e54f	0.064402215
1	0x3bc0da5d	0.005885406
2	0x3df00ed1	0.11721576
3	0x3d7d82cb	0.061892312
4	0x3d98a93f	0.07454156
5	0x3c99d2c9	0.018777268
6	0xbd355c62	-0.044277556
7	0xbcf45ff8	-0.029830918
8	0x3c18a8d5	0.009317596
9	0xbda4408a	-0.08020122
10	0xbdbab064	-0.09115675
11	0xbd87303b	-0.06600996
12	0xbd157d0e	-0.036496215
13	0x3c9ab382	0.018884424
14	0xbd01f5c0	-0.031728506
15	0xbd8043c0	-0.06262922
16	0xbdaa9c38	-0.083305776
17	0xbd96c130	-0.07361066
18	0xbda46f82	-0.08029081
19	0xbc65f456	-0.014035305
20	0x3c1eccb2	0.009692358
21	0x3dc68244	0.09692815
22	0x3d130096	0.03588923
23	0x3966212e	0.0002194687
24	0xbc17254a	-0.009225199
25	0x3dca3088	0.09872538
26	0x3dba2810	0.090896726
27	0x3d0bc110	0.034119666
28	0x3da236e3	0.07920625
29	0x3c846c48	0.016164914
30	0x3ce0dfc5	0.027450452
31	0x3cf57600	0.029963493
32	0x3c5ed08d	0.013599527
33	0xbc4fd0b5	-0.012684037
34	0xbc74a10a	-0.014930973
35	0x3b1bfa06	0.0023800149
36	0xbde82288	-0.11334711
37	0xbdd3f9ee	-0.10350405
38	0xba50c1d5	-0.00079634535
39	0xbda5fbd2	-0.081046715
40	0xbc1cb3ab	-0.009564321
41	0x3d0cad4c	0.034344956
42	0x3c963142	0.018334035
43	0xbb82cab7	-0.0039914506
44	0x3cddb2f6	0.027062874
45	0xbd382724	-0.044959202
46	0xbd28d004	-0.041214004
47	0xbd4ddbf3	-0.050258588
48	0xbdc035f0	-0.09385288
49	0xbda7fe82	-0.082028404
50	0xbab3fe14	-0.0013732337
51	0xbb7cb2c8	-0.003855871
52	0xbc519319	-0.0127914185
53	0xbceed52a	-0.029154379
54	0x3cd0cc3c	0.025488012
55	0x3d95f8b9	0.07322831
56	0xbcf0d704	-0.029399402
57	0xbd91ccc5	-0.07119135
58	0x3bf47d1e	0.007461204
59	0xbc38c393	-0.011277097
60	0xbcf6db60	-0.030133903
61	0x3bdcf357	0.0067428756
62	0x3bbf2526	0.005833286
63	0xbc7f0403	-0.015564921
64	0x3d3005c9	0.042974267
65	0xbcec6132	-0.02885494
66	0xbc36749c	-0.0111362
67	0xbc06ff79	-0.00823962
68	0xba4dbf60	-0.00078486465
69	0x3a8a213e	0.0010538471
70	0x3b200d08	0.002442183
71	0x3b8fb2d4	0.0043853316
72	0xbd1cbc97	-0.03826579
73	0x3cb2db9f	0.02183324
74	0x3c0b34c3	0.008496466
75	0x3d2371c8	0.039903432
76	0xbcc2ff25	-0.023803303
77	0x3c961430	0.018320173
78	0xbc9a61ee	-0.018845525
79	0xbcf5b92e	-0.029995527
80	0xbc60c70b	-0.013719331
81	0xbc267316	-0.010159275
82	0xbc3e8cf4	-0.0116302855
83	0x3dc2b967	0.09508019
84	0xbc46ddc8	-0.012137838
85	0x3c0a016f	0.008423193
86	0xbd22f00c	-0.039779708
87	0xbbbaa7e1	-0.0056962823
88	0xbd5eb009	-0.0543671
89	0x3d01b5b5	0.03166743
90	0x3b258237	0.0025254616
91	0xbc8b23eb	-0.0169849
92	0x3ce3d289	0.027810352
93	0xbd6601b8	-0.056153983
94	0xbc00c8f2	-0.007860409
95	0xbbe03cc0	-0.0068431795
96	0xbd3c63a9	-0.04599348
97	0xbd5805ff	-0.052740093
98	0xbe1410d1	-0.1445954
99	0xbb1f25db	-0.0024284038
100	0xbce3145f	-0.027719675
101	0x3e26b039	0.16278161
102	0xbcbc5e87	-0.022994293
103	0x3d637c09	0.05553821
104	0x3d1e8a54	0.03870614
105	0xbca71fc5	-0.020400891
106	0x3c33e435	0.010979702
107	0x3d1288d7	0.035775032
108	0x3d5880ef	0.052857336
109	0x3d4b06f1	0.049567167
110	0x3db00f70	0.085966945
111	0xbc3b2e64	-0.011424635
112	0xbdd98ed9	-0.10622949
113	0x3d2247c8	0.039619237
114	0x3ced5c12	0.028974567
115	0x3d08daef	0.033411916
116	0xbd9cb961	-0.07652546
117	0xbd05fcf1	-0.032711927
118	0xbd33e0d1	-0.043915574
119	0xbca66ac6	-0.020314585
120	0xbd981ccd	-0.07427368
121	0xb9d7fdbf	-0.0004119705
122	0xbd0fa4e5	-0.035069365
123	0xbde45d66	-0.11150627
124	0xbc5d390a	-0.013502369
125	0xbd23c313	-0.03998096
126	0x3b5aa4f3	0.0033362478
127	0x3c15f505	0.0091526555
128	0x3c579f44	0.0131605305
129	0x3b825894	0.0039778445
130	0xbd90d10a	-0.07071121
131	0x3d4aeebe	0.04954409
132	0x3caada4d	0.020856047
133	0x3d4d89d7	0.050180282
134	0x3d67c0f7	0.05658051
135	0xba187cd8	-0.0005816943
136	0xbd165a77	-0.036707368
137	0xbe48935d	-0.19587465
138	0xbd58d9fc	-0.05294226
139	0x3bec3948	0.007208977
140	0x3c4dc51a	0.0125592
141	0x3d93117c	0.07181069
142	0x3dfaac61	0.1223991
143	0x3db94656	0.09046619
144	0x3d6ac273	0.057314347
145	0xbdac7f47	-0.08422714
146	0xbd3dcea0	-0.04633963
147	0x3d0f19c0	0.034936666
148	0xbcd7701f	-0.02629858
149	0x395fe883	0.00021353555
150	0xbd2179e3	-0.03942288
151	0xbcae7172	-0.02129433
152	0xbc89a91f	-0.016804276
153	0x3cf8d8e6	0.030376863
154	0x3c960a9b	0.018315604
155	0xbc3ea4e1	-0.01163599
156	0x3d31dc51	0.043423
157	0xbd367716	-0.044547163
158	0x3b0ff956	0.0021968684
159	0x3c0f9ea1	0.008765847
160	0x3c5de6ea	0.013543824
161	0xbcbad0b3	-0.022804594
162	0x3a6f9d4b	0.0009140565
163	0x3a63b125	0.00086857594
164	0xbba08de7	-0.0048997286
165	0x3c0f50cc	0.008747291
166	0xbbba6205	-0.0056879544
167	0x3d1703b0	0.03686875
168	0xbbf6af13	-0.0075281947
169	0x3c80ad91	0.015707763
170	0x3a15d8c9	0.00057162024
171	0xbc896e4a	-0.016776223
172	0xbc8022c7	-0.015641583
173	0xbb9e1791	-0.0048245867
174	0xbdb24a09	-0.08705527
175	0xbb6acdb0	-0.0035828166
176	0x3c41a33c	0.011818703
177	0xbd0d1c68	-0.03445092
178	0xbcb93abd	-0.022611016
179	0xbc79c505	-0.015244727
180	0xbd032a54	-0.03202279
181	0xbce92e30	-0.028464407
182	0x3c329950	0.01090081
183	0x3d019851	0.0316394
184	0x3c4795ba	0.012181694
185	0x3ca7ea77	0.020497544
186	0x3ca7e13e	0.020493146
187	0x3dc13492	0.09433855
188	0x3c728c12	0.014803903
189	0xbc8cd9bc	-0.017193668
190	0xbc3c70c5	-0.011501496
191	0x3cba7516	0.022760909
192	0xbca8c499	-0.020601558
193	0xbda8c27b	-0.08240219
194	0x3c2d5bd3	0.010580975
195	0xbdd2c4a2	-0.10291411
196	0x3cc384eb	0.023867091
197	0xbc8a5add	-0.01688903
198	0x3dad8deb	0.08474334
199	0x3a295c01	0.0006460548
200	0x3dc4a7fe	0.096023545
201	0x3d0dd4d3	0.034626793
202	0xbd89674e	-0.06709157
203	0x3bb2880e	0.005448348
204	0x3d23e43e	0.04001259
205	0x3c31840e	0.010834707
206	0x3d4ee5b3	0.050512027
207	0xbde8ddf3	-0.113704585
208	0x3a8cdda2	0.0010747204
209	0xbcf3bb45	-0.029752383
210	0x3d42bb26	0.04754176
211	0xbd92d852	-0.07170166
212	0x3cb03831	0.02151117
213	0x3d698585	0.0570121
214	0x37715f69	1.4386934e-05
215	0xbb07b4e3	-0.0020707182
216	0x3c00f2dd	0.007870403
217	0xbd0f1cfb	-0.034939747
218	0xbdb7a5d4	-0.08967176
219	0xbd5344a1	-0.05157912
220	0x3acbffe7	0.0015563936
221	0x3bf7800b	0.0075531057
222	0x3c25bb58	0.010115467
223	0x3b6f0cb4	0.0036476078
224	0xbce7db96	-0.028302949
225	0xbdace6d6	-0.08442466
226	0x3d7882c7	0.060671594
227	0xbce52e87	-0.027976288
228	0x3d38fc32	0.045162387
229	0x3c399431	0.0113268355
230	0xbb8e3d9d	-0.004340841
231	0xbd810007	-0.06298833
232	0xbdc6c055	-0.09704653
233	0xbd654a9d	-0.05597936
234	0xbc71ce65	-0.014758681
235	0xbcc1a263	-0.023637002
236	0x3d8e2fd3	0.069427155
237	0x3da8d384	0.082434684
238	0x3d2faa5e	0.042887084
239	0x3d9aec48	0.07564598
240	0xbd397753	-0.045279812
241	0xbc6d66b8	-0.014489822
242	0x3d00d791	0.03145558
243	0xbd36cff0	-0.0446319
244	0x3d69d2a0	0.057085633
245	0x3aade42f	0.0013266857
246	0xbcb40bd8	-0.021978304
247	0x3c5a2328	0.013314046
248	0xbb9c308d	-0.00476653
249	0x3a403d34	0.0007333339
250	0x3c3ec77d	0.011644241
251	0xbbc1b8c1	-0.005911917
252	0xbc8f23b8	-0.017473087
253	0x3cea4bc5	0.028600583
254	0x3d53a7e4	0.051673785
255	0x3be041ca	0.00684378

fc1.bias f4 [45]
0	0xbe07607f	-0.13220404
1	0x3dd4ef83	0.10397246
2	0x3dc00446	0.09375815
3	0x3e025b03	0.1273003
4	0x3d1c1c12	0.038112707
5	0x3dbf065c	0.09327385
6	0xbc521493	-0.012822288
7	0x3a739a4b	0.0009292706
8	0xbd5ce44f	-0.05392867
9	0x3e2954fc	0.16536325
10	0x3d07dddf	0.033170577
11	0xbdc4d1d0	-0.09610331
12	0x3ddea9a0	0.10872197
13	0x3dbb50ca	0.09146269
14	0xbdd6f193	-0.104952954
15	0xbcf94ba5	-0.030431578
16	0xbbe57843	-0.0070028617
17	0xbc873ff0	-0.01650998
18	0xbcac3dc5	-0.021025548
19	0x3d798532	0.06091804
20	0xbd11fc92	-0.03564126
21	0x3db7527d	0.0895128
22	0xbe0d0acc	-0.1377365
23	0xbd87d375	-0.06632129
24	0xbe1aa305	-0.1510125
25	0x3d6f6fbc	0.058456168
26	0xbe0d45c6	-0.13796148
27	0xbc829e07	-0.015944494
28	0xbdf94b0e	-0.12172519
29	0x3d7cba57	0.061701145
30	0xbdac2528	-0.084055245
31	0xbd5ea280	-0.05435419
32	0xbdfe58c3	-0.12419274
33	0x3dc2de11	0.09515012
34	0xbdbcf48d	-0.09226332
35	0x3d86c209	0.06579978
36	0xbdd7da80	-0.105397224
37	0xbdca97b5	-0.09892217
38	0xbe0ce2ee	-0.13758442
39	0x3d9bec14	0.07613388
40	0x3d734291	0.059389655
41	0xbe026832	-0.1273506
42	0x3dc83665	0.09776
43	0x3c879449	0.0165502
44	0xbd54b553	-0.051930737

fc2.weight f4 [45, 45]
0	0x3d242c6c	0.040081427
1	0xbd68adcb	-0.056806367
2	0xbd32ad85	-0.043622512
3	0xbd52fc6e	-0.051510267
4	0xbd36f9cb	-0.044671815
5	0xbc8df196	-0.017327111
6	0xba26b559	-0.00063594204
7	0xbcd0ef31	-0.02550468
8	0x3d4a9053	0.049454045
9	0xbd89083f	-0.06691026
10	0xbd0da4f3	-0.034581136
11	0x3d8830f5	0.06649963
12	0xbd4511c4	-0.048112646
13	0xbdbaf086	-0.091279075
14	0x3d61c8b7	0.055123057
15	0x3b2e5363	0.0026599995
16	0xbda04046	-0.07824759
17	0xbd67b992	-0.056573458
18	0xbc946b7e	-0.018117663
19	0xbd5db300	-0.054125786
20	0x3bfddb04	0.007747056
21	0xbcca50c6	-0.024696719
22	0x3d67f93a	0.056634165
23	0x3d8613da	0.06546755
24	0x3d0a2d42	0.033734567
25	0xbd4a2f32	-0.049361415
26	0x3d0e3a18	0.03472337
27	0xbb2db4be	-0.0026505436
28	0x3d883311	0.06650365
29	0xbc6c6b67	-0.014429904
30	0x3d62f20c	0.055406615
31	0xbacb50dc	-0.0015511769
32	0x3d3f2209	0.046663318
33	0xbd5f1347	-0.054461744
34	0x3d914c43	0.07094624
35	0xbd57c3be	-0.05267691
36	0x3d111842	0.035423525
37	0x3d990691	0.074719556
38	0x3d0cd547	0.034383085
39	0xbd54311c	-0.051804647
40	0xbd09a64d	-0.033605862
41	0x3d53055d	0.051518787
42	0x3d1204d4	0.035649136
43	0xbb3a97da	-0.0028471858
44	0x3d53fd7f	0.051755425
45	0xbda3493b	-0.07972952
46	0x3d9b0adc	0.07570431
47	0x3d910e50	0.07082808
48	0x3ccda961	0.02510518
49	0x3d1a6203	0.037691128
50	0x3d632835	0.055458266
51	0xb9e3fdc8	-0.00043485896
52	0x3d26e91b	0.04074965
53	0xbdad2efa	-0.08456226
54	0x3d8e7dba	0.06957574
55	0x3d85ab47	0.06526809
56	0xbd97cb47	-0.07411819
57	0x3d8d465a	0.06898184
58	0x3dc6f1ab	0.09714063
59	0xbdaa0977	-0.083025865
60	0xba8f77c2	-0.0010945725
61	0x3d6dc274	0.058046773
62	0x3da7beab	0.08190664
63	0x3d89e504	0.067331344
64	0x3d5b3d81	0.05352545
65	0xbb4804d1	-0.003052045
66	0x3cc1dda3	0.023665255
67	0xbd9f2b69	-0.07771952
68	0xbd9ef7c2	-0.077621
69	0xbd984515	-0.07435051
70	0x3d24f37c	0.040271267
71	0xbd9dfb99	-0.07714004
72	0xbabe5ea2	-0.0014524052
73	0xbd9bfdba	-0.07616754
74	0x3d8c5202	0.06851579
75	0xbd32ae0a	-0.043623008
76	0xbb79103a	-0.0038004057
77	0xbdae1e0f	-0.08501827
78	0x3d85f889	0.06541545
79	0xbd8661e2	-0.065616384
80	0x3d8a49ff	0.06752395
81	0xbdae0bd5	-0.084983505
82	0xbdb48a59	-0.0881545
83	0xbd9c0802	-0.07618715
84	0x3de19664	0.11015013
85	0x3da1a557	0.07892864
86	0xbd93fb5f	-0.072256796
87	0x3cbde144	0.023178704
88	0xbb4278e9	-0.002967412
89	0xbd9c51d1	-0.07632793
90	0x3cf0485f	0.029331384
91	0xbd854ffb	-0.06509396
92	0xbd8b74c9	-0.068093844
93	0xbda92dcc	-0.08260688
94	0xbd9730dd	-0.07382367
95	0xbd040abe	-0.032236807
96	0xbb14bb71	-0.0022694732
97	0xbda87f2d	-0.08227382
98	0x3d602ff2	0.054733224
99	0xbd9f47af	-0.077773444
100	0xbd8c5821	-0.06852747
101	0x3d540aaa	0.051767983
102	0xbd978a54	-0.07399431
103	0xbddc5808	-0.10758978
104	0x3d4fa31a	0.050692655
105	0xb989fa5d	-0.0002631721
106	0xbda054b0	-0.07828653
107	0xbd89ea8b	-0.06734189
108	0xbd803638	-0.062603414
109	0xbd8ccdbf	-0.068751805
110	0xba9db7d9	-0.001203294
111	0xbd6a5d32	-0.057217784
112	0x3cdf1369	0.027230935
113	0x3da2edfa	0.07955547
114	0x3cb29168	0.02179785
115	0xbd546317	-0.051852312
116	0x3d2b5674	0.041830495
117	0xba80742c	-0.0009800247
118	0x3d6e58c4	0.058190122
119	0xbd32428e	-0.043520503
120	0x3d403286	0.046923183
121	0xbb519e7a	-0.0031985329
122	0x3cc1e548	0.0236689
123	0xbd916fe2	-0.07101418
124	0x3d89842f	0.06714665
125	0xbd985c73	-0.07439508
126	0x3d5f3dd2	0.054502316
127	0x3d8069ef	0.06270205
128	0x3ce3d360	0.027810752
129	0xbdb1558a	-0.086588934
130	0xbda972b3	-0.0827383
131	0x3d509665	0.050924677
132	0x3c22bda4	0.009932909
133	0xba90203b	-0.0010995934
134	0x3d7f9ed6	0.062407337
135	0x3d1f6dc4	0.03892304
136	0xbcd266a0	-0.025683701
137	0xbb887b7e	-0.004165112
138	0xbd53f964	-0.05175151
139	0xbd1ffae3	-0.039057624
140	0x3c0ab965	0.008467053
141	0xb97c81bb	-0.00024080921
142	0xbd53104d	-0.051529218
143	0x3d3bff77	0.045897927
144	0xbd414601	-0.0471859
145	0x3a743032	0.0009315043
146	0x3d3268c4	0.043556944
147	0xbd1c8771	-0.038215104
148	0xbceca33c	-0.02888643
149	0x3d2d736d	0.042346407
150	0x3c1a45c2	0.009416046
151	0x3c8abab2	0.016934726
152	0x3cbeeab6	0.023305278
153	0xbd1a6aa7	-0.037699368
154	0xbd6e7049	-0.058212552
155	0x3a7e6ea6	0.0009705819
156	0xbdbca51d	-0.0921118
157	0x3d803f93	0.06262126
158	0x3d92c417	0.071663074
159	0x3d1c021a	0.03808794
160	0xbdb5d452	-0.088783875
161	0x3d1b0a1b	0.037851434
162	0xbccb96f2	-0.02485225
163	0x3d2ad651	0.041708294
164	0xbc8ffdb0	-0.017577022
165	0x3dbf116e	0.09329496
166	0xbd0d7d4d	-0.034543324
167	0x3d596844	0.05307795
168	0xbd6c7fdf	-0.057739135
169	0x3d10c028	0.035339504
170	0xbd257fbf	-0.04040503
171	0x3d2513df	0.040302154
172	0x3d3579e1	0.044305686
173	0x3d2734bc	0.040821776
174	0xbd46141b	-0.048359018
175	0xbd174505	-0.036931057
176	0x3d14298b	0.03617243
177	0xbb640c68	-0.0034797434
178	0x3883bd60	6.2818406e-05
179	0x3d6b59c7	0.057458665
180	0xbdaee3f4	-0.08539572
181	0x3d7ddbfe	0.06197738
182	0x3d115397	0.035480108
183	0x3dea0444	0.11426595
184	0x3d991008	0.07473761
185	0xbd62d5b3	-0.05537958
186	0xba167511	-0.000573949
187	0x3ce0d6c1	0.027446153
188	0xbd9eabf3	-0.077476405
189	0x3d9a311d	0.07528899
190	0x3dc711dc	0.09720203
191	0xbda5dbb1	-0.080985434
192	0x3dee9143	0.116488
193	0x3d6d01b7	0.057862964
194	0xbda4270a	-0.080152586
195	0x3ad50519	0.001625213
196	0x3ca1834f	0.019715933
197	0x3c7dcd60	0.01549086
198	0x3d7dba43	0.06194521
199	0x3dd92803	0.10603335
200	0xbbc4475c	-0.005989952
201	0x3d91ee4d	0.071255304
202	0xbd59a1b3	-0.053132724
203	0xbd2b36af	-0.041800197
204	0xbdb35c35	-0.087578215
205	0xbc18981d	-0.00931361
206	0xbda4ed4d	-0.08053074
207	0x3c249def	0.01004742
208	0xbd9695e3	-0.073528074
209	0xbd2f5ce5	-0.0428132
210	0xbd1f19fa	-0.038843133
211	0xbd18c081	-0.03729296
212	0xbddf8538	-0.10914081
213	0x3dcf36e0	0.101178885
214	0xbd41ff94	-0.04736288
215	0x3d35c958	0.04438147
216	0xbda77d3d	-0.08178184
217	0xbdb2643a	-0.08710523
218	0xbd9698fd	-0.07353399
219	0x3d5c8ca9	0.05384508
220	0x3dc29b54	0.09502283
221	0xbd91a60e	-0.071117505
222	0x3c514f2b	0.012775223
223	0xbb5f8dff	-0.0034111736
224	0xbdef8228	-0.11694747
225	0x3d84b4fe	0.06479834
226	0xbd5c1f34	-0.053740695
227	0xbd361cfc	-0.044461235
228	0xbd97dfa9	-0.07415707
229	0xbd3c3af0	-0.045954645
230	0x3dfa8ca7	0.122338586
231	0xbb3aeb96	-0.0028521768
232	0x3c35698a	0.011072526
233	0x3d9b38e1	0.07579208
234	0xbd59492d	-0.0530483
235	0xbd5fae81	-0.05460978
236	0x3d97d062	0.07412793
237	0xbd6166a0	-0.05502951
238	0xbda413d3	-0.08011594
239	0x3d903204	0.0704079
240	0xbba11503	-0.004915835
241	0xbd15f1d5	-0.036607582
242	0xbd32b343	-0.04362799
243	0xbd9664b9	-0.0734343
244	0xbd8e8bbb	-0.06960245
245	0xbc284281	-0.010269762
246	0xbce70540	-0.028200746
247	0x3d74bc05	0.059749622
248	0x3de371b4	0.111056715
249	0x3d81c085	0.06335548
250	0xbd0c4a3d	-0.034250487
251	0x3d5cde0c	0.053922698
252	0xbbb47e37	-0.00550821
253	0x3d8e0ed6	0.069364235
254	0xbce1700b	-0.027519247
255	0x3e090fe1	0.13384964

fc2.bias f4 [45]
0	0x3d83c095	0.064332165
1	0x3e6f6954	0.23380023
2	0x3d80bacf	0.06285631
3	0x3d9360d8	0.07196206
4	0x3e5412f3	0.20710354
5	0xbc92b868	-0.017910197
6	0x3e5b7ec7	0.2143508
7	0x3d1aed99	0.037824247
8	0x3e46f6ff	0.19430159
9	0x3d5d526c	0.05403368
10	0x3d90af53	0.070646904
11	0x3e22782c	0.15866154
12	0x3d73616b	0.059419077
13	0x3decebc2	0.11568405
14	0x3d77a60f	0.0604611
15	0x3e19cec1	0.15020277
16	0x3e6f4e97	0.23369823
17	0x3d74b92c	0.059746906
18	0x3d22d92f	0.039757904
19	0x3e55d671	0.20882584
20	0x3cc45b17	0.023969216
21	0x3dd76523	0.10517337
22	0x3e1fd044	0.15606791
23	0x3d563250	0.052294075
24	0x3ceb3933	0.028713798
25	0x3e5f9293	0.21833257
26	0x3e69b9bb	0.22824757
27	0x3df33e4f	0.11877119
28	0x3e4f7ea2	0.2026315
29	0x3e38147e	0.17976567
30	0x3d2292e6	0.039690875
31	0x3d0559d6	0.032556377
32	0x3d6addf0	0.057340562
33	0x3d000c49	0.031261716
34	0x3e482a38	0.19547355
35	0x3d68ddee	0.056852274
36	0x3e637bc7	0.22215186
37	0x3d819d98	0.06328887
38	0xbbf96116	-0.0076104505
39	0x3d5ee08d	0.054413367
40	0x3dab1821	0.083542116
41	0x3de0f20d	0.109836675
42	0x3d6e9cd8	0.058255047
43	0x3d637f1f	0.055541154
44	0x3da320a6	0.079652116

out.weight f4 [1, 45]
0	0x3e7116cd	0.23543854
1	0xbe45e6e7	-0.19326364
2	0x3e9f0fc7	0.31066725
3	0x3dfa8498	0.122323215
4	0xbe3df8c0	-0.18551922
5	0x3e85ce62	0.2613402
6	0xbe544c5f	-0.20732258
7	0x3ea56990	0.323071
8	0xbe292751	-0.16518904
9	0x3e8d5919	0.2760704
10	0x3e315c47	0.17320357
11	0xbe6b5234	-0.22980577
12	0x3e4936be	0.19649789
13	0xbe5a61f0	-0.21326423
14	0x3e9df8ee	0.3085398
15	0xbe84892e	-0.2588591
16	0xbe627a12	-0.22116879
17	0x3e4cdd42	0.20006278
18	0x3ddb5868	0.107102215
19	0xbe539815	-0.20663483
20	0x3dde42b0	0.108525634
21	0xbe48ab11	-0.19596507
22	0xbe66f5b7	-0.2255467
23	0x3e3d4b24	0.18485695
24	0x3e010a76	0.12601647
25	0xbe57f836	-0.21090779
26	0xbe25a3b6	-0.16175732
27	0xbe7240d2	-0.2365754
28	0xbe58f5e3	-0.21187548
29	0xbe31714a	-0.17328373
30	0x3e1c71ed	0.15277834
31	0x3e99ed39	0.300638
32	0x3e9877da	0.2977894
33	0x3e3bf5c8	0.18355477
34	0xbe428a2a	-0.18998018
35	0x3e8fa90d	0.28058663
36	0xbe8b43e9	-0.2720025
37	0x3e9816b5	0.29704824
38	0x3e5ff9c5	0.21872623
39	0x3e9d36be	0.30705827
40	0x3dee3100	0.1163044
41	0xbe68184d	-0.2266552
42	0x3df34599	0.11878509
43	0x3ea22a05	0.31672683
44	0x3def1c2f	0.116752975

sep_conn.weight f4 [45, 95]
0	0x3cd4255e	0.025896724
1	0xbb33f5b6	-0.0027459688
2	0x3db3d371	0.087805636
3	0xbc2ebfd6	-0.010665854
4	0x3d8c7adb	0.0685937
5	0xbcccbffa	-0.024993885
6	0x3d7c4f5a	0.061599113
7	0xbd81cb23	-0.063375734
8	0x3d641667	0.055685427
9	0xbb070222	-0.0020600636
10	0xbd868ddf	-0.065700285
11	0x3b8d0205	0.0043032193
12	0xbd2b528c	-0.04182677
13	0x3dbe7709	0.09300048
14	0xbd40304e	-0.046921067
15	0xbd4f3de1	-0.05059612
16	0xbba4609b	-0.005016399
17	0xbdae016a	-0.084963635
18	0x3dbb29b8	0.091388166
19	0x3ce963d2	0.02848998
20	0x3dc0d09a	0.094147876
21	0xbdbeec83	-0.09322455
22	0x3db299cd	0.087207414
23	0x3b1a2389	0.0023519716
24	0x3be0c1e4	0.006859051
25	0x3dce807a	0.10083099
26	0x3ba1724e	0.0049269563
27	0xbd369e68	-0.04458466
28	0xbd498755	-0.04920133
29	0xbdaaff7a	-0.083495095
30	0xbc97f1bd	-0.018547887
31	0xbdb3f6ef	-0.08787333
32	0xbd7a439a	-0.061099626
33	0x3d9dd078	0.07705778
34	0x3dae5084	0.08511451
35	0x3db1fbe2	0.08690621
36	0x3da8b33d	0.08237312
37	0xbc7a0d5a	-0.015261972
38	0x3d970dd9	0.07375688
39	0x3da78fd0	0.08181727
40	0xbdb79572	-0.08964051
41	0xbdb71ab5	-0.08940641
42	0xbd9e1d73	-0.07720461
43	0x3d99d4db	0.07511302
44	0x3d53782b	0.051628273
45	0xbdc981fe	-0.09839247
46	0xbd334f94	-0.043777063
47	0x3dce4d48	0.10073334
48	0x3ba72b4d	0.0051015974
49	0x3d0d9682	0.034567364
50	0xbd014d5f	-0.031567927
51	0xbd5fa03b	-0.054596167
52	0x3d636d2e	0.055524044
53	0xbc97301c	-0.018455558
54	0xbd3f0dea	-0.04664413
55	0xbb0eb6ae	-0.0021776366
56	0xbd58a960	-0.052895904
57	0x3d8b4904	0.06801036
58	0x3bdd78e5	0.0067587965
59	0x3d3680fd	0.044556607
60	0x3d2d25ff	0.042272564
61	0x3d90aef4	0.0706462
62	0xbd862a04	-0.065509826
63	0x3d41d453	0.04732163
64	0x3cf49962	0.029858295
65	0x3d8f3d4e	0.06994115
66	0x3db41f81	0.087950714
67	0x3dc741a8	0.0972932
68	0xbd2db4bf	-0.0424087
69	0xbd4f18ba	-0.05056069
70	0x3da7f447	0.08200889
71	0x3d151b5f	0.036403056
72	0xbc3747f0	-0.011186585
73	0xbcd9b91e	-0.026577529
74	0xbd85f032	-0.06539954
75	0x3d0f3484	0.034962192
76	0xbccc9ff1	-0.02497861
77	0xbda46f52	-0.08029045
78	0xbc3458df	-0.011007517
79	0xbc5a18de	-0.013311593
80	0x3cd95092	0.026527677
81	0xbda46c1a	-0.08028431
82	0x3d39655f	0.04526269
83	0x3d3ae683	0.04562999
84	0x3d1ba68c	0.03800063
85	0x3d93be55	0.07214037
86	0xbd466f02	-0.04844571
87	0x3d35a75a	0.044349052
88	0x3db8961e	0.090130076
89	0x3d5ec7fb	0.054389935
90	0x3ceea951	0.02913347
91	0x3c5dd6ed	0.013540012
92	0x3cbd04db	0.023073604
93	0xbdbcfdde	-0.09228109
94	0x3d0d1532	0.03444404
95	0x3c5ae766	0.013360834
96	0xbc97e4dc	-0.018541746
97	0x3c581015	0.013187428
98	0x3d7bd2c2	0.06148029
99	0xbdaa87f4	-0.08326712
100	0x3da34589	0.07972247
101	0xbdbc7621	-0.09202219
102	0xbd0030c3	-0.031296503
103	0x3db681b2	0.08911456
104	0xbdad0349	-0.08447892
105	0x3b404ada	0.002934149
106	0x3c7e559c	0.015523341
107	0x3d2cc20a	0.042177238
108	0x3d433a75	0.04766317
109	0x3cb15f5d	0.021651918
110	0xbc119233	-0.008884954
111	0x3dbe1e3d	0.09283111
112	0x3d53d816	0.051719747
113	0x3d77d52a	0.060506023
114	0x3cf2775b	0.029597929
115	0x3d09c4bc	0.033634886
116	0xbd96fec9	-0.07372815
117	0xbd3396f6	-0.04384514
118	0x3cb342f5	0.021882514
119	0x3c4b5bd5	0.012412031
120	0xbd9eb2b1	-0.077489264
121	0x3d695f4f	0.05697566
122	0xbd439186	-0.047746204
123	0xbda90f89	-0.08254916
124	0xbd6d0880	-0.057869434
125	0xbd366aa2	-0.044535287
126	0x3c87a3ee	0.01655766
127	0x3d940c9f	0.0722897
128	0xbd90cc02	-0.070701614
129	0x3ceb4e0f	0.028723745
130	0x3c8ffaea	0.0175757
131	0xbd4224e7	-0.047398474
132	0xbc129728	-0.008947171
133	0xbda374a4	-0.07981232
134	0xbbcabc24	-0.006186979
135	0x3d4d0800	0.050056458
136	0x3d69edeb	0.057111662
137	0x3dc04644	0.09388402
138	0xba2e9127	-0.00066592026
139	0x3d9e7d50	0.07738745
140	0x3dcf4f27	0.10122519
141	0xbd9aff36	-0.07568209
142	0x3d9fab16	0.07796304
143	0x3d66a3ed	0.056308676
144	0xbd7598bc	-0.059960112
145	0xbd19cd9c	-0.0375496
146	0x3d7db3b0	0.06193894
147	0x3db34b7e	0.08754633
148	0x3d8d2b50	0.06893027
149	0xbc9b20f4	-0.018936612
150	0x3d861768	0.06547433
151	0x3d0b5920	0.034020543
152	0xbd662d28	-0.056195408
153	0xbd9b14b1	-0.07572306
154	0xbd611547	-0.054951932
155	0x3db02858	0.08601445
156	0x3c832c73	0.016012406
157	0xbdb9e853	-0.090775155
158	0xbaeb9a65	-0.001797509
159	0x3d6d8656	0.05798944
160	0xbd2fc255	-0.04290994
161	0xbccb5817	-0.024822278
162	0x3dd0cba6	0.10195093
163	0xbcc508d0	-0.024052054
164	0xbc55798e	-0.013029469
165	0x3d817e2d	0.06322894
166	0x3d46e261	0.048555735
167	0x3dc5830c	0.09644136
168	0x3dbe8f5d	0.09304688
169	0x3d221a5c	0.03957592
170	0xbc9b623b	-0.018967738
171	0xbd7fc863	-0.062446963
172	0xbb84d84f	-0.0040541063
173	0xbca7910d	-0.020454908
174	0x3d0c30b6	0.034226142
175	0xbd91e7c8	-0.07124287
176	0xbd410d39	-0.04713175
177	0x3d7bf759	0.061515186
178	0xbdb1b2a1	-0.08676649
179	0x3dbc3e42	0.09191562
180	0x3d14ad94	0.03629835
181	0xbdc6f017	-0.09713762
182	0xbd419302	-0.04725934
183	0x3d94f102	0.07272531
184	0xbdc5914f	-0.09646856
185	0xbd453702	-0.048148163
186	0xbcd333b9	-0.0257815
187	0xbc72d43b	-0.0148211075
188	0x3c03fbe1	0.008055658
189	0xbdb80a9c	-0.089863986
190	0x3ca0d689	0.019633548
191	0x3dc3628e	0.09540282
192	0x3d8405e3	0.06446435
193	0xbc780dda	-0.015140021
194	0xbc981484	-0.01856447
195	0x3d235ae0	0.039881587
196	0x3db916ca	0.0903755
197	0x3d55e4cc	0.05222015
198	0x3d2fb37b	0.042895775
199	0xbc2853c2	-0.010273876
200	0x3dc17a7d	0.09447191
201	0xbd4abd3e	-0.04949688
202	0x3a882f27	0.0010390029
203	0xbba10da8	-0.004914958
204	0x3dc06f3a	0.09396215
205	0x3d2e6075	0.042572457
206	0xbcb0997a	-0.021557558
207	0x3d86c890	0.06581223
208	0xbd3a5207	-0.045488384
209	0xbc6e269c	-0.014535572
210	0xbda37cbe	-0.07982777
211	0x3bafcb1a	0.0053647878
212	0xbdb3f332	-0.0878662
213	0x3db5da7c	0.08879563
214	0x3db07e07	0.08617788
215	0x3c383c7b	0.011244888
216	0xbdb3db70	-0.08782089
217	0xbd2df37d	-0.042468537
218	0xbd6ad972	-0.05733628
219	0x3d85f715	0.06541268
220	0xbdc633c7	-0.096778445
221	0x3dc3934b	0.09549578
222	0xbda1263e	-0.07868622
223	0x3dabc071	0.08386315
224	0x3d18bcb7	0.037289347
225	0xbdb96131	-0.09051741
226	0x3da211b8	0.07913536
227	0xbd2ea5de	-0.042638652
228	0xbd4da452	-0.050205536
229	0x3dc0271c	0.093824595
230	0x3d77049f	0.06030714
231	0xbcd43825	-0.025905678
232	0xbba013ef	-0.004885189
233	0x3d3dc1a3	0.046327244
234	0xbdacfe0f	-0.08446895
235	0xbcc789b1	-0.024357649
236	0xbcca7af0	-0.024716824
237	0xbd8abe72	-0.06774606
238	0x3daf668a	0.0856448
239	0xbd8172e8	-0.06320745
240	0x3d0804b1	0.0332076
241	0xbdc75e27	-0.09734755
242	0x3c58fce1	0.013243885
243	0xbb86ad49	-0.0041100127
244	0x3d86e28f	0.06586181
245	0x3da323ca	0.079658106
246	0x3a924971	0.0011160803
247	0x3da7d2db	0.08194514
248	0xbacada19	-0.0015476375
249	0xbd9bdd44	-0.076105624
250	0x3d3fc590	0.04681927
251	0x3d6be5e4	0.057592288
252	0xbd988337	-0.07446902
253	0xbdb946a2	-0.09046675
254	0xbd847d99	-0.06469268
255	0x3db3675d	0.08759949

sep_conn.bias f4 [45]
0	0x3ce6dfd7	0.028182907
1	0xbc4cc708	-0.012498625
2	0x3dce0f02	0.10061456
3	0x3db53835	0.08848611
4	0xbd355267	-0.044268038
5	0x3dac8a82	0.08424856
6	0xbbf3a505	-0.0074354433
7	0xbdb65961	-0.089037664
8	0xbd70fc0a	-0.058834113
9	0x3db77734	0.08958283
10	0xbd3e6f14	-0.04649265
11	0x3d8c0eb6	0.068387434
12	0x3d99146a	0.07474597
13	0xbd12da80	-0.03585291
14	0x3d0356b2	0.0320651
15	0xbce07cca	-0.027403254
16	0x3bcfe493	0.006344387
17	0xbd56d235	-0.052446563
18	0xbdc6e31b	-0.09711286
19	0xbd1d40f4	-0.038392022
20	0x3d8e0fff	0.06936645
21	0xbd4f9644	-0.050680414
22	0xbc90b076	-0.017662268
23	0xbdb5373a	-0.08848424
24	0xbc743ac3	-0.014906588
25	0xbbe5c250	-0.0070116892
26	0x3cd271b0	0.025688976
27	0x3d02831a	0.03186331
28	0xbd56e56f	-0.0524649
29	0xbd562355	-0.05227979
30	0xbd9f4b5b	-0.07778045
31	0x3d6a241a	0.057163335
32	0xbccaddd8	-0.024763986
33	0x3c47da4f	0.012198045
34	0xbd924280	-0.0714159
35	0xbcc27557	-0.023737593
36	0xbda15324	-0.07877186
37	0x3d37d7e5	0.044883627
38	0xbcd262ae	-0.02568182
39	0x3b90b7fa	0.004416463
40	0xbd77812d	-0.060425926
41	0xbbbd4a4a	-0.005776678
42	0x3dccb86e	0.09996115
43	0x3dad1121	0.08450533
44	0xbd1f38d6	-0.038872562

bn.weight f4 [45]
0	0x3f800000	1.0
1	0x3f800000	1.0
2	0x3f800000	1.0
3	0x3f800000	1.0
4	0x3f800000	1.0
5	0x3f800000	1.0
6	0x3f800000	1.0
7	0x3f800000	1.0
8	0x3f800000	1.0
9	0x3f800000	1.0
10	0x3f800000	1.0
11	0x3f800000	1.0
12	0x3f800000	1.0
13	0x3f800000	1.0
14	0x3f800000	1.0
15	0x3f800000	1.0
16	0x3f800000	1.0
17	0x3f800000	1.0
18	0x3f800000	1.0
19	0x3f800000	1.0
20	0x3f800000	1.0
21	0x3f800000	1.0
22	0x3f800000	1.0
23	0x3f800000	1.0
24	0x3f800000	1.0
25	0x3f800000	1.0
26	0x3f800000	1.0
27	0x3f800000	1.0
28	0x3f800000	1.0
29	0x3f800000	1.0
30	0x3f800000	1.0
31	0x3f800000	1.0
32	0x3f800000	1.0
33	0x3f800000	1.0
34	0x3f800000	1.0
35	0x3f800000	1.0
36	0x3f800000	1.0
37	0x3f800000	1.0
38	0x3f800000	1.0
39	0x3f800000	1.0
40	0x3f800000	1.0
41	0x3f800000	1.0
42	0x3f800000	1.0
43	0x3f800000	1.0
44	0x3f800000	1.0

bn.bias f4 [45]
0	0x00000000	0.0
1	0x00000000	0.0
2	0x00000000	0.0
3	0x00000000	0.0
4	0x00000000	0.0
5	0x00000000	0.0
6	0x00000000	0.0
7	0x00000000	0.0
8	0x00000000	0.0
9	0x00000000	0.0
10	0x00000000	0.0
11	0x00000000	0.0
12	0x00000000	0.0
13	0x00000000	0.0
14	0x00000000	0.0
15	0x00000000	0.0
16	0x00000000	0.0
17	0x00000000	0.0
18	0x00000000	0.0
19	0x00000000	0.0
20	0x00000000	0.0
21	0x00000000	0.0
22	0x00000000	0.0
23	0x00000000	0.0
24	0x00000000	0.0
25	0x00000000	0.0
26	0x00000000	0.0
27	0x00000000	0.0
28	0x00000000	0.0
29	0x00000000	0.0
30	0x00000000	0.0
31	0x00000000	0.0
32	0x00000000	0.0
33	0x00000000	0.0
34	0x00000000	0.0
35	0x00000000	0.0
36	0x00000000	0.0
37	0x00000000	0.0
38	0x00000000	0.0
39	0x00000000	0.0
40	0x00000000	0.0
41	0x00000000	0.0
42	0x00000000	0.0
43	0x00000000	0.0
44	0x00000000	0.0

bn.running_mean f4 [45]
0	0x00000000	0.0
1	0x00000000	0.0
2	0x00000000	0.0
3	0x00000000	0.0
4	0x00000000	0.0
5	0x00000000	0.0
6	0x00000000	0.0
7	0x00000000	0.0
8	0x00000000	0.0
9	0x00000000	0.0
10	0x00000000	0.0
11	0x00000000	0.0
12	0x00000000	0.0
13	0x00000000	0.0
14	0x00000000	0.0
15	0x00000000	0.0
16	0x00000000	0.0
17	0x00000000	0.0
18	0x00000000	0.0
19	0x00000000	0.0
20	0x00000000	0.0
21	0x00000000	0.0
22	0x00000000	0.0
23	0x00000000	0.0
24	0x00000000	0.0
25	0x00000000	0.0
26	0x00000000	0.0
27	0x00000000	0.0
28	0x00000000	0.0
29	0x00000000	0.0
30	0x00000000	0.0
31	0x00000000	0.0
32	0x00000000	0.0
33	0x00000000	0.0
34	0x00000000	0.0
35	0x00000000	0.0
36	0x00000000	0.0
37	0x00000000	0.0
38	0x00000000	0.0
39	0x00000000	0.0
40	0x00000000	0.0
41	0x00000000	0.0
42	0x00000000	0.0
43	0x00000000	0.0
44	0x00000000	0.0

bn.running_var f4 [45]
0	0x3f800000	1.0
1	0x3f800000	1.0
2	0x3f800000	1.0
3	0x3f800000	1.0
4	0x3f800000	1.0
5	0x3f800000	1.0
6	0x3f800000	1.0
7	0x3f800000	1.0
8	0x3f800000	1.0
9	0x3f800000	1.0
10	0x3f800000	1.0
11	0x3f800000	1.0
12	0x3f800000	1.0
13	0x3f800000	1.0
14	0x3f800000	1.0
15	0x3f800000	1.0
16	0x3f800000	1.0
17	0x3f800000	1.0
18	0x3f800000	1.0
19	0x3f800000	1.0
20	0x3f800000	1.0
21	0x3f800000	1.0
22	0x3f800000	1.0
23	0x3f800000	1.0
24	0x3f800000	1.0
25	0x3f800000	1.0
26	0x3f800000	1.0
27	0x3f800000	1.0
28	0x3f800000	1.0
29	0x3f800000	1.0
30	0x3f800000	1.0
31	0x3f800000	1.0
32	0x3f800000	1.0
33	0x3f800000	1.0
34	0x3f800000	1.0
35	0x3f800000	1.0
36	0x3f800000	1.0
37	0x3f800000	1.0
38	0x3f800000	1.0
39	0x3f800000	1.0
40	0x3f800000	1.0
41	0x3f800000	1.0
42	0x3f800000	1.0
43	0x3f800000	1.0
44	0x3f800000	1.0

net.0.weight f4 [45, 95]
0	0x3d83e54f	0.064402215
1	0x3bc0da5d	0.005885406
2	0x3df00ed1	0.11721576
3	0x3d7d82cb	0.061892312
4	0x3d98a93f	0.07454156
5	0x3c99d2c9	0.018777268
6	0xbd355c62	-0.044277556
7	0xbcf45ff8	-0.029830918
8	0x3c18a8d5	0.009317596
9	0xbda4408a	-0.08020122
10	0xbdbab064	-0.09115675
11	0xbd87303b	-0.06600996
12	0xbd157d0e	-0.036496215
13	0x3c9ab382	0.018884424
14	0xbd01f5c0	-0.031728506
15	0xbd8043c0	-0.06262922
16	0xbdaa9c38	-0.083305776
17	0xbd96c130	-0.07361066
18	0xbda46f82	-0.08029081
19	0xbc65f456	-0.014035305
20	0x3c1eccb2	0.009692358
21	0x3dc68244	0.09692815
22	0x3d130096	0.03588923
23	0x3966212e	0.0002194687
24	0xbc17254a	-0.009225199
25	0x3dca3088	0.09872538
26	0x3dba2810	0.090896726
27	0x3d0bc110	0.034119666
28	0x3da236e3	0.07920625
29	0x3c846c48	0.016164914
30	0x3ce0dfc5	0.027450452
31	0x3cf57600	0.029963493
32	0x3c5ed08d	0.013599527
33	0xbc4fd0b5	-0.012684037
34	0xbc74a10a	-0.014930973
35	0x3b1bfa06	0.0023800149
36	0xbde82288	-0.11334711
37	0xbdd3f9ee	-0.10350405
38	0xba50c1d5	-0.00079634535
39	0xbda5fbd2	-0.081046715
40	0xbc1cb3ab	-0.009564321
41	0x3d0cad4c	0.034344956
42	0x3c963142	0.018334035
43	0xbb82cab7	-0.0039914506
44	0x3cddb2f6	0.027062874
45	0xbd382724	-0.044959202
46	0xbd28d004	-0.041214004
47	0xbd4ddbf3	-0.050258588
48	0xbdc035f0	-0.09385288
49	0xbda7fe82	-0.082028404
50	0xbab3fe14	-0.0013732337
51	0xbb7cb2c8	-0.003855871
52	0xbc519319	-0.0127914185
53	0xbceed52a	-0.029154379
54	0x3cd0cc3c	0.025488012
55	0x3d95f8b9	0.07322831
56	0xbcf0d704	-0.029399402
57	0xbd91ccc5	-0.07119135
58	0x3bf47d1e	0.007461204
59	0xbc38c393	-0.011277097
60	0xbcf6db60	-0.030133903
61	0x3bdcf357	0.0067428756
62	0x3bbf2526	0.005833286
63	0xbc7f0403	-0.015564921
64	0x3d3005c9	0.042974267
65	0xbcec6132	-0.02885494
66	0xbc36749c	-0.0111362
67	0xbc06ff79	-0.00823962
68	0xba4dbf60	-0.00078486465
69	0x3a8a213e	0.0010538471
70	0x3b200d08	0.002442183
71	0x3b8fb2d4	0.0043853316
72	0xbd1cbc97	-0.03826579
73	0x3cb2db9f	0.02183324
74	0x3c0b34c3	0.008496466
75	0x3d2371c8	0.039903432
76	0xbcc2ff25	-0.023803303
77	0x3c961430	0.018320173
78	0xbc9a61ee	-0.018845525
79	0xbcf5b92e	-0.029995527
80	0xbc60c70b	-0.013719331
81	0xbc267316	-0.010159275
82	0xbc3e8cf4	-0.0116302855
83	0x3dc2b967	0.09508019
84	0xbc46ddc8	-0.012137838
85	0x3c0a016f	0.008423193
86	0xbd22f00c	-0.039779708
87	0xbbbaa7e1	-0.0056962823
88	0xbd5eb009	-0.0543671
89	0x3d01b5b5	0.03166743
90	0x3b258237	0.0025254616
91	0xbc8b23eb	-0.0169849
92	0x3ce3d289	0.027810352
93	0xbd6601b8	-0.056153983
94	0xbc00c8f2	-0.007860409
95	0xbbe03cc0	-0.0068431795
96	0xbd3c63a9	-0.04599348
97	0xbd5805ff	-0.052740093
98	0xbe1410d1	-0.1445954
99	0xbb1f25db	-0.0024284038
100	0xbce3145f	-0.027719675
101	0x3e26b039	0.16278161
102	0xbcbc5e87	-0.022994293
103	0x3d637c09	0.05553821
104	0x3d1e8a54	0.03870614
105	0xbca71fc5	-0.020400891
106	0x3c33e435	0.010979702
107	0x3d1288d7	0.035775032
108	0x3d5880ef	0.052857336
109	0x3d4b06f1	0.049567167
110	0x3db00f70	0.085966945
111	0xbc3b2e64	-0.011424635
112	0xbdd98ed9	-0.10622949
113	0x3d2247c8	0.039619237
114	0x3ced5c12	0.028974567
115	0x3d08daef	0.033411916
116	0xbd9cb961	-0.07652546
117	0xbd05fcf1	-0.032711927
118	0xbd33e0d1	-0.043915574
119	0xbca66ac6	-0.020314585
120	0xbd981ccd	-0.07427368
121	0xb9d7fdbf	-0.0004119705
122	0xbd0fa4e5	-0.035069365
123	0xbde45d66	-0.11150627
124	0xbc5d390a	-0.013502369
125	0xbd23c313	-0.03998096
126	0x3b5aa4f3	0.0033362478
127	0x3c15f505	0.0091526555
128	0x3c579f44	0.0131605305
129	0x3b825894	0.0039778445
130	0xbd90d10a	-0.07071121
131	0x3d4aeebe	0.04954409
132	0x3caada4d	0.020856047
133	0x3d4d89d7	0.050180282
134	0x3d67c0f7	0.05658051
135	0xba187cd8	-0.0005816943
136	0xbd165a77	-0.036707368
137	0xbe48935d	-0.19587465
138	0xbd58d9fc	-0.05294226
139	0x3bec3948	0.007208977
140	0x3c4dc51a	0.0125592
141	0x3d93117c	0.07181069
142	0x3dfaac61	0.1223991
143	0x3db94656	0.09046619
144	0x3d6ac273	0.057314347
145	0xbdac7f47	-0.08422714
146	0xbd3dcea0	-0.04633963
147	0x3d0f19c0	0.034936666
148	0xbcd7701f	-0.02629858
149	0x395fe883	0.00021353555
150	0xbd2179e3	-0.03942288
151	0xbcae7172	-0.02129433
152	0xbc89a91f	-0.016804276
153	0x3cf8d8e6	0.030376863
154	0x3c960a9b	0.018315604
155	0xbc3ea4e1	-0.01163599
156	0x3d31dc51	0.043423
157	0xbd367716	-0.044547163
158	0x3b0ff956	0.0021968684
159	0x3c0f9ea1	0.008765847
160	0x3c5de6ea	0.013543824
161	0xbcbad0b3	-0.022804594
162	0x3a6f9d4b	0.0009140565
163	0x3a63b125	0.00086857594
164	0xbba08de7	-0.0048997286
165	0x3c0f50cc	0.008747291
166	0xbbba6205	-0.0056879544
167	0x3d1703b0	0.03686875
168	0xbbf6af13	-0.0075281947
169	0x3c80ad91	0.015707763
170	0x3a15d8c9	0.00057162024
171	0xbc896e4a	-0.016776223
172	0xbc8022c7	-0.015641583
173	0xbb9e1791	-0.0048245867
174	0xbdb24a09	-0.08705527
175	0xbb6acdb0	-0.0035828166
176	0x3c41a33c	0.011818703
177	0xbd0d1c68	-0.03445092
178	0xbcb93abd	-0.022611016
179	0xbc79c505	-0.015244727
180	0xbd032a54	-0.03202279
181	0xbce92e30	-0.028464407
182	0x3c329950	0.01090081
183	0x3d019851	0.0316394
184	0x3c4795ba	0.012181694
185	0x3ca7ea77	0.020497544
186	0x3ca7e13e	0.020493146
187	0x3dc13492	0.09433855
188	0x3c728c12	0.014803903
189	0xbc8cd9bc	-0.017193668
190	0xbc3c70c5	-0.011501496
191	0x3cba7516	0.022760909
192	0xbca8c499	-0.020601558
193	0xbda8c27b	-0.08240219
194	0x3c2d5bd3	0.010580975
195	0xbdd2c4a2	-0.10291411
196	0x3cc384eb	0.023867091
197	0xbc8a5add	-0.01688903
198	0x3dad8deb	0.08474334
199	0x3a295c01	0.0006460548
200	0x3dc4a7fe	0.096023545
201	0x3d0dd4d3	0.034626793
202	0xbd89674e	-0.06709157
203	0x3bb2880e	0.005448348
204	0x3d23e43e	0.04001259
205	0x3c31840e	0.010834707
206	0x3d4ee5b3	0.050512027
207	0xbde8ddf3	-0.113704585
208	0x3a8cdda2	0.0010747204
209	0xbcf3bb45	-0.029752383
210	0x3d42bb26	0.04754176
211	0xbd92d852	-0.07170166
212	0x3cb03831	0.02151117
213	0x3d698585	0.0570121
214	0x37715f69	1.4386934e-05
215	0xbb07b4e3	-0.0020707182
216	0x3c00f2dd	0.007870403
217	0xbd0f1cfb	-0.034939747
218	0xbdb7a5d4	-0.08967176
219	0xbd5344a1	-0.05157912
220	0x3acbffe7	0.0015563936
221	0x3bf7800b	0.0075531057
222	0x3c25bb58	0.010115467
223	0x3b6f0cb4	0.0036476078
224	0xbce7db96	-0.028302949
225	0xbdace6d6	-0.08442466
226	0x3d7882c7	0.060671594
227	0xbce52e87	-0.027976288
228	0x3d38fc32	0.045162387
229	0x3c399431	0.0113268355
230	0xbb8e3d9d	-0.004340841
231	0xbd810007	-0.06298833
232	0xbdc6c055	-0.09704653
233	0xbd654a9d	-0.05597936
234	0xbc71ce65	-0.014758681
235	0xbcc1a263	-0.023637002
236	0x3d8e2fd3	0.069427155
237	0x3da8d384	0.082434684
238	0x3d2faa5e	0.042887084
239	0x3d9aec48	0.07564598
240	0xbd397753	-0.045279812
241	0xbc6d66b8	-0.014489822
242	0x3d00d791	0.03145558
243	0xbd36cff0	-0.0446319
244	0x3d69d2a0	0.057085633
245	0x3aade42f	0.0013266857
246	0xbcb40bd8	-0.021978304
247	0x3c5a2328	0.013314046
248	0xbb9c308d	-0.00476653
249	0x3a403d34	0.0007333339
250	0x3c3ec77d	0.011644241
251	0xbbc1b8c1	-0.005911917
252	0xbc8f23b8	-0.017473087
253	0x3cea4bc5	0.028600583
254	0x3d53a7e4	0.051673785
255	0x3be041ca	0.00684378

net.0.bias f4 [45]
0	0xbe07607f	-0.13220404
1	0x3dd4ef83	0.10397246
2	0x3dc00446	0.09375815
3	0x3e025b03	0.1273003
4	0x3d1c1c12	0.038112707
5	0x3dbf065c	0.09327385
6	0xbc521493	-0.012822288
7	0x3a739a4b	0.0009292706
8	0xbd5ce44f	-0.05392867
9	0x3e2954fc	0.16536325
10	0x3d07dddf	0.033170577
11	0xbdc4d1d0	-0.09610331
12	0x3ddea9a0	0.10872197
13	0x3dbb50ca	0.09146269
14	0xbdd6f193	-0.104952954
15	0xbcf94ba5	-0.030431578
16	0xbbe57843	-0.0070028617
17	0xbc873ff0	-0.01650998
18	0xbcac3dc5	-0.021025548
19	0x3d798532	0.06091804
20	0xbd11fc92	-0.03564126
21	0x3db7527d	0.0895128
22	0xbe0d0acc	-0.1377365
23	0xbd87d375	-0.06632129
24	0xbe1aa305	-0.1510125
25	0x3d6f6fbc	0.058456168
26	0xbe0d45c6	-0.13796148
27	0xbc829e07	-0.015944494
28	0xbdf94b0e	-0.12172519
29	0x3d7cba57	0.061701145
30	0xbdac2528	-0.084055245
31	0xbd5ea280	-0.05435419
32	0xbdfe58c3	-0.12419274
33	0x3dc2de11	0.09515012
34	0xbdbcf48d	-0.09226332
35	0x3d86c209	0.06579978
36	0xbdd7da80	-0.105397224
37	0xbdca97b5	-0.09892217
38	0xbe0ce2ee	-0.13758442
39	0x3d9bec14	0.07613388
40	0x3d734291	0.059389655
41	0xbe026832	-0.1273506
42	0x3dc83665	0.09776
43	0x3c879449	0.0165502
44	0xbd54b553	-0.051930737

net.3.weight f4 [45, 45]
0	0x3d242c6c	0.040081427
1	0xbd68adcb	-0.056806367
2	0xbd32ad85	-0.043622512
3	0xbd52fc6e	-0.051510267
4	0xbd36f9cb	-0.044671815
5	0xbc8df196	-0.017327111
6	0xba26b559	-0.00063594204
7	0xbcd0ef31	-0.02550468
8	0x3d4a9053	0.049454045
9	0xbd89083f	-0.06691026
10	0xbd0da4f3	-0.034581136
11	0x3d8830f5	0.06649963
12	0xbd4511c4	-0.048112646
13	0xbdbaf086	-0.091279075
14	0x3d61c8b7	0.055123057
15	0x3b2e5363	0.0026599995
16	0xbda04046	-0.07824759
17	0xbd67b992	-0.056573458
18	0xbc946b7e	-0.018117663
19	0xbd5db300	-0.054125786
20	0x3bfddb04	0.007747056
21	0xbcca50c6	-0.024696719
22	0x3d67f93a	0.056634165
23	0x3d8613da	0.06546755
24	0x3d0a2d42	0.033734567
25	0xbd4a2f32	-0.049361415
26	0x3d0e3a18	0.03472337
27	0xbb2db4be	-0.0026505436
28	0x3d883311	0.06650365
29	0xbc6c6b67	-0.014429904
30	0x3d62f20c	0.055406615
31	0xbacb50dc	-0.0015511769
32	0x3d3f2209	0.046663318
33	0xbd5f1347	-0.054461744
34	0x3d914c43	0.07094624
35	0xbd57c3be	-0.05267691
36	0x3d111842	0.035423525
37	0x3d990691	0.074719556
38	0x3d0cd547	0.034383085
39	0xbd54311c	-0.051804647
40	0xbd09a64d	-0.033605862
41	0x3d53055d	0.051518787
42	0x3d1204d4	0.035649136
43	0xbb3a97da	-0.0028471858
44	0x3d53fd7f	0.051755425
45	0xbda3493b	-0.07972952
46	0x3d9b0adc	0.07570431
47	0x3d910e50	0.07082808
48	0x3ccda961	0.02510518
49	0x3d1a6203	0.037691128
50	0x3d632835	0.055458266
51	0xb9e3fdc8	-0.00043485896
52	0x3d26e91b	0.04074965
53	0xbdad2efa	-0.08456226
54	0x3d8e7dba	0.06957574
55	0x3d85ab47	0.06526809
56	0xbd97cb47	-0.07411819
57	0x3d8d465a	0.06898184
58	0x3dc6f1ab	0.09714063
59	0xbdaa0977	-0.083025865
60	0xba8f77c2	-0.0010945725
61	0x3d6dc274	0.058046773
62	0x3da7beab	0.08190664
63	0x3d89e504	0.067331344
64	0x3d5b3d81	0.05352545
65	0xbb4804d1	-0.003052045
66	0x3cc1dda3	0.023665255
67	0xbd9f2b69	-0.07771952
68	0xbd9ef7c2	-0.077621
69	0xbd984515	-0.07435051
70	0x3d24f37c	0.040271267
71	0xbd9dfb99	-0.07714004
72	0xbabe5ea2	-0.0014524052
73	0xbd9bfdba	-0.07616754
74	0x3d8c5202	0.06851579
75	0xbd32ae0a	-0.043623008
76	0xbb79103a	-0.0038004057
77	0xbdae1e0f	-0.08501827
78	0x3d85f889	0.06541545
79	0xbd8661e2	-0.065616384
80	0x3d8a49ff	0.06752395
81	0xbdae0bd5	-0.084983505
82	0xbdb48a59	-0.0881545
83	0xbd9c0802	-0.07618715
84	0x3de19664	0.11015013
85	0x3da1a557	0.07892864
86	0xbd93fb5f	-0.072256796
87	0x3cbde144	0.023178704
88	0xbb4278e9	-0.002967412
89	0xbd9c51d1	-0.07632793
90	0x3cf0485f	0.029331384
91	0xbd854ffb	-0.06509396
92	0xbd8b74c9	-0.068093844
93	0xbda92dcc	-0.08260688
94	0xbd9730dd	-0.07382367
95	0xbd040abe	-0.032236807
96	0xbb14bb71	-0.0022694732
97	0xbda87f2d	-0.08227382
98	0x3d602ff2	0.054733224
99	0xbd9f47af	-0.077773444
100	0xbd8c5821	-0.06852747
101	0x3d540aaa	0.051767983
102	0xbd978a54	-0.07399431
103	0xbddc5808	-0.10758978
104	0x3d4fa31a	0.050692655
105	0xb989fa5d	-0.0002631721
106	0xbda054b0	-0.07828653
107	0xbd89ea8b	-0.06734189
108	0xbd803638	-0.062603414
109	0xbd8ccdbf	-0.068751805
110	0xba9db7d9	-0.001203294
111	0xbd6a5d32	-0.057217784
112	0x3cdf1369	0.027230935
113	0x3da2edfa	0.07955547
114	0x3cb29168	0.02179785
115	0xbd546317	-0.051852312
116	0x3d2b5674	0.041830495
117	0xba80742c	-0.0009800247
118	0x3d6e58c4	0.058190122
119	0xbd32428e	-0.043520503
120	0x3d403286	0.046923183
121	0xbb519e7a	-0.0031985329
122	0x3cc1e548	0.0236689
123	0xbd916fe2	-0.07101418
124	0x3d89842f	0.06714665
125	0xbd985c73	-0.07439508
126	0x3d5f3dd2	0.054502316
127	0x3d8069ef	0.06270205
128	0x3ce3d360	0.027810752
129	0xbdb1558a	-0.086588934
130	0xbda972b3	-0.0827383
131	0x3d509665	0.050924677
132	0x3c22bda4	0.009932909
133	0xba90203b	-0.0010995934
134	0x3d7f9ed6	0.062407337
135	0x3d1f6dc4	0.03892304
136	0xbcd266a0	-0.025683701
137	0xbb887b7e	-0.004165112
138	0xbd53f964	-0.05175151
139	0xbd1ffae3	-0.039057624
140	0x3c0ab965	0.008467053
141	0xb97c81bb	-0.00024080921
142	0xbd53104d	-0.051529218
143	0x3d3bff77	0.045897927
144	0xbd414601	-0.0471859
145	0x3a743032	0.0009315043
146	0x3d3268c4	0.043556944
147	0xbd1c8771	-0.038215104
148	0xbceca33c	-0.02888643
149	0x3d2d736d	0.042346407
150	0x3c1a45c2	0.009416046
151	0x3c8abab2	0.016934726
152	0x3cbeeab6	0.023305278
153	0xbd1a6aa7	-0.037699368
154	0xbd6e7049	-0.058212552
155	0x3a7e6ea6	0.0009705819
156	0xbdbca51d	-0.0921118
157	0x3d803f93	0.06262126
158	0x3d92c417	0.071663074
159	0x3d1c021a	0.03808794
160	0xbdb5d452	-0.088783875
161	0x3d1b0a1b	0.037851434
162	0xbccb96f2	-0.02485225
163	0x3d2ad651	0.041708294
164	0xbc8ffdb0	-0.017577022
165	0x3dbf116e	0.09329496
166	0xbd0d7d4d	-0.034543324
167	0x3d596844	0.05307795
168	0xbd6c7fdf	-0.057739135
169	0x3d10c028	0.035339504
170	0xbd257fbf	-0.04040503
171	0x3d2513df	0.040302154
172	0x3d3579e1	0.044305686
173	0x3d2734bc	0.040821776
174	0xbd46141b	-0.048359018
175	0xbd174505	-0.036931057
176	0x3d14298b	0.03617243
177	0xbb640c68	-0.0034797434
178	0x3883bd60	6.2818406e-05
179	0x3d6b59c7	0.057458665
180	0xbdaee3f4	-0.08539572
181	0x3d7ddbfe	0.06197738
182	0x3d115397	0.035480108
183	0x3dea0444	0.11426595
184	0x3d991008	0.07473761
185	0xbd62d5b3	-0.05537958
186	0xba167511	-0.000573949
187	0x3ce0d6c1	0.027446153
188	0xbd9eabf3	-0.077476405
189	0x3d9a311d	0.07528899
190	0x3dc711dc	0.09720203
191	0xbda5dbb1	-0.080985434
192	0x3dee9143	0.116488
193	0x3d6d01b7	0.057862964
194	0xbda4270a	-0.080152586
195	0x3ad50519	0.001625213
196	0x3ca1834f	0.019715933
197	0x3c7dcd60	0.01549086
198	0x3d7dba43	0.06194521
199	0x3dd92803	0.10603335
200	0xbbc4475c	-0.005989952
201	0x3d91ee4d	0.071255304
202	0xbd59a1b3	-0.053132724
203	0xbd2b36af	-0.041800197
204	0xbdb35c35	-0.087578215
205	0xbc18981d	-0.00931361
206	0xbda4ed4d	-0.08053074
207	0x3c249def	0.01004742
208	0xbd9695e3	-0.073528074
209	0xbd2f5ce5	-0.0428132
210	0xbd1f19fa	-0.038843133
211	0xbd18c081	-0.03729296
212	0xbddf8538	-0.10914081
213	0x3dcf36e0	0.101178885
214	0xbd41ff94	-0.04736288
215	0x3d35c958	0.04438147
216	0xbda77d3d	-0.08178184
217	0xbdb2643a	-0.08710523
218	0xbd9698fd	-0.07353399
219	0x3d5c8ca9	0.05384508
220	0x3dc29b54	0.09502283
221	0xbd91a60e	-0.071117505
222	0x3c514f2b	0.012775223
223	0xbb5f8dff	-0.0034111736
224	0xbdef8228	-0.11694747
225	0x3d84b4fe	0.06479834
226	0xbd5c1f34	-0.053740695
227	0xbd361cfc	-0.044461235
228	0xbd97dfa9	-0.07415707
229	0xbd3c3af0	-0.045954645
230	0x3dfa8ca7	0.122338586
231	0xbb3aeb96	-0.0028521768
232	0x3c35698a	0.011072526
233	0x3d9b38e1	0.07579208
234	0xbd59492d	-0.0530483
235	0xbd5fae81	-0.05460978
236	0x3d97d062	0.07412793
237	0xbd6166a0	-0.05502951
238	0xbda413d3	-0.08011594
239	0x3d903204	0.0704079
240	0xbba11503	-0.004915835
241	0xbd15f1d5	-0.036607582
242	0xbd32b343	-0.04362799
243	0xbd9664b9	-0.0734343
244	0xbd8e8bbb	-0.06960245
245	0xbc284281	-0.010269762
246	0xbce70540	-0.028200746
247	0x3d74bc05	0.059749622
248	0x3de371b4	0.111056715
249	0x3d81c085	0.06335548
250	0xbd0c4a3d	-0.034250487
251	0x3d5cde0c	0.053922698
252	0xbbb47e37	-0.00550821
253	0x3d8e0ed6	0.069364235
254	0xbce1700b	-0.027519247
255	0x3e090fe1	0.13384964

net.3.bias f4 [45]
0	0x3d83c095	0.064332165
1	0x3e6f6954	0.23380023
2	0x3d80bacf	0.06285631
3	0x3d9360d8	0.07196206
4	0x3e5412f3	0.20710354
5	0xbc92b868	-0.017910197
6	0x3e5b7ec7	0.2143508
7	0x3d1aed99	0.037824247
8	0x3e46f6ff	0.19430159
9	0x3d5d526c	0.05403368
10	0x3d90af53	0.070646904
11	0x3e22782c	0.15866154
12	0x3d73616b	0.059419077
13	0x3decebc2	0.11568405
14	0x3d77a60f	0.0604611
15	0x3e19cec1	0.15020277
16	0x3e6f4e97	0.23369823
17	0x3d74b92c	0.059746906
18	0x3d22d92f	0.039757904
19	0x3e55d671	0.20882584
20	0x3cc45b17	0.023969216
21	0x3dd76523	0.10517337
22	0x3e1fd044	0.15606791
23	0x3d563250	0.052294075
24	0x3ceb3933	0.028713798
25	0x3e5f9293	0.21833257
26	0x3e69b9bb	0.22824757
27	0x3df33e4f	0.11877119
28	0x3e4f7ea2	0.2026315
29	0x3e38147e	0.17976567
30	0x3d2292e6	0.039690875
31	0x3d0559d6	0.032556377
32	0x3d6addf0	0.057340562
33	0x3d000c49	0.031261716
34	0x3e482a38	0.19547355
35	0x3d68ddee	0.056852274
36	0x3e637bc7	0.22215186
37	0x3d819d98	0.06328887
38	0xbbf96116	-0.0076104505
39	0x3d5ee08d	0.054413367
40	0x3dab1821	0.083542116
41	0x3de0f20d	0.109836675
42	0x3d6e9cd8	0.058255047
43	0x3d637f1f	0.055541154
44	0x3da320a6	0.079652116
