bestclf/adult/a02.pth (torch, 47870 bytes, 15 tensors)

fc1.weight f4 [45, 95]
0.059367616 0.03359263 0.11091018 0.14491741 0.012671149 0.03424071 -0.048634008 -0.0384109
-0.04744604 0.0387136 -0.056439016 -0.062423162 0.035827372 -0.02119386 -0.00948079 -0.025497386
-0.047960017 -0.033156455 -0.0421148 -0.041570462 0.004361876 0.10969567 0.063312754 0.0032907897
-0.00542764 0.034740537 0.017425764 0.03226834 0.063948505 -0.04834833 0.023463614 -0.023284273
-0.017029662 0.022739103 -0.021688718 -0.018339071 -0.021480303 -0.025926404 -0.031236386 -0.092959344
-0.0133936815 0.04491887 0.046602767 -0.036046363 0.074232295 -0.05471188 -0.0088836895 -0.059542373
-0.08429878 -0.06971705 0.047302615 0.0043853847 0.031119626 -0.04387785 -0.002689574 0.074523605
-0.025798937 -0.0110480515 -0.015247821 -0.0042102183 -0.038029514 -0.010548439 -0.010935081 -0.011036264
0.062137164 -0.03646204 -0.02176513 -0.011838229 -0.00028624883 0.00030750327 0.00053928647 -0.02492566
0.020863647 0.031751994 0.0062058577 0.035106886 0.04577365 0.011197809 -0.007699866 -0.016372697
0.004424425 -0.009853679 0.0048827184 0.051079694 -0.0013965525 -0.015751185 -0.0020915992 -0.00445372
-0.009632202 0.014454065 -0.01784399 -0.039090313 0.0042510405 -0.035444852 0.022521866 0.006766171
0.009553008 -0.034774754 -0.17359842 -0.05479362 0.0072224215 0.109995544 -0.032116435 0.0074479203
0.09490086 -0.014785261 0.029820438 -0.04221874 0.031171925 0.042317174 0.026634341 -0.016916387
-0.0028799141 0.01295245 0.0046408144 0.051720385 -0.076048456 -0.024899941 0.006075624 0.0056447843
-0.027286563 -0.03663586 -0.03031704 -0.0752759 -0.04382765 -0.05548858 0.0040138196 -0.021955395
-0.023804806 0.05016805 -0.047465857 0.035003506 0.04479711 0.03928749 0.03134592 -0.015942069
-0.075531654 -0.18620214 -0.057302967 -0.0063252673 -0.015689075 0.036383267 0.12147333 0.06711682
0.0024114063 -0.0070133745 -0.0048861755 -0.0054488042 -0.058932077 0.0004516798 -0.007476508 -0.036671348
-0.00519785 0.016044546 0.0029085944 -0.008204764 0.011313878 -0.04864808 -0.012271555 0.009941271
0.046135746 -0.035594683 -0.03476154 0.0026625874 -0.0055123996 0.0027338434 -0.0063988906 -0.015322179
-0.038068898 -0.008316488 -0.03311301 -0.021815822 0.04846195 -0.024953363 0.035303935 -0.0019999116
0.0112763615 -0.0022735833 0.034209453 0.034278367 -0.024688687 -0.0036707723 -0.0102531845 0.023393493
-0.00067148043 0.04214971 0.0064586927 0.04034421 0.011141504 -0.0124325855 0.065561876 0.048679437
-0.030748049 -0.11311826 0.018303828 -0.017444244 0.07078307 -0.029566523 0.0043316395 -0.055853732
0.07710816 0.025853314 -0.10219079 0.08961364 0.057774767 -0.03584889 -0.047667053 -0.013039188
-0.012766913 -0.036054377 0.03990243 -0.08723138 0.0663926 0.01802682 -0.014894263 -0.022939907
0.11086388 -0.018927298 -0.14651982 -0.018216517 0.012277702 -0.026097136 -0.010337302 -0.027583687
-0.08474213 -0.021427132 0.08990847 -0.0303615 0.018358182 -0.06756779 -0.034617748 0.02752147
-0.13145918 -0.020367106 -0.05441098 -0.07899719 0.05951134 0.039704744 0.059544165 0.08451377
-0.035752736 0.005529741 0.0152993165 -0.06974753 0.006284897 0.015012 0.030953782 -0.019787937
0.034295052 0.03858714 -0.006842678 -0.01894676 -0.016970929 -0.027026128 0.019780181 0.013585207
00000000: 752b 733d 6d98 093d e024 e33d 3b65 143e
00000010: a79a 4f3c fd3f 0c3d 7434 47bd bf54 1dbd
00000020: c756 42bd 2792 1e3d 992c 67bd 6eaf 7fbd
00000030: b9bf 123d bf9e adbc 5155 1bbc e5df d0bc
00000040: b971 44bd 10cf 07bd 9280 2cbd ca45 2abd
00000050: 11ee 8e3b 20a8 e03d 1eaa 813d 4aaa 573b
00000060: 58da b1bb 184c 0e3d 7ac0 8e3c cf2b 043d
00000070: 6ff7 823d e608 46bd c436 c03c a9be bebc
00000080: ca81 8bbc 5b47 ba3c 8aac b1bc d23b 96bc
00000090: 76f7 afbc 9c63 d4bc 73e3 ffbc 7861 bebd
000000a0: 2c71 5bbc d9fc 373d 8be2 3e3d 5aa5 13bd
000000b0: 1a07 983d 9019 60bd e58c 11bc b4e2 73bd
000000c0: d7a4 acbd d0c7 8ebd 63c0 413d 46b3 8f3b
000000d0: 96ee fe3c 43b9 33bd 9043 30bb d59f 983d
000000e0: 4b58 d3bc e302 35bc ffd1 79bc dff5 89bb
000000f0: d6c4 1bbd 5cd3 2cbc 0e29 33bc 72d1 34bc
00000100: 8a83 7e3d 3859 15bd c94c b2bc 22f5 41bc
00000110: ab13 96b9 6438 a139 e75e 0d3a e630 ccbc
00000120: 3dea aa3c 610e 023d 825a cb3b 3dcc 0f3d
00000130: 277d 3b3d 0477 373c 284f fcbb 0920 86bc
00000140: c4fa 903b 5371 21bc 36ff 9f3b f138 513d
00000150: 870c b7ba a108 81bc 3613 09bb 83f0 91bb
00000160: 62d0 1dbc bed0 6c3c 8f2d 92bc 2a1d 20bd
00000170: 504c 8b3b 9f2e 11bd c77f b83c c2b6 dd3b
00000180: 3884 1c3c f96f 0ebd c9c3 31be 466f 60bd
00000190: 10aa ec3b 5845 e13d 868c 03bd af0d f43b
000001a0: 625b c23d e13d 72bc fe49 f43c 8fed 2cbd
000001b0: 445c ff3c c654 2d3d 4330 da3c 3c94 8abc
000001c0: f1bc 3cbb 8336 543c f911 983b c1d8 533d
000001d0: 4bbf 9bbd f6fa cbbc 0716 c73b e2f7 b83b
000001e0: 1288 dfbc 7c0f 16bd 715b f8bc 402a 9abd
000001f0: 9f84 33bd fe47 63bd 5c86 833b cddb b3bc
00000200: 4c02 c3bc 037d 4d3d 8f6b 42bd d65f 0f3d
00000210: 2d7d 373d ebeb 203d 9464 003d f198 82bc
00000220: 57b0 9abd c6ab 3ebe 84b6 6abd 3044 cfbb
00000230: 6086 80bc 9f06 153d 02c7 f83d 8b74 893d
00000240: af08 1e3b 73d0 e5bb 361c a0bb e28b b2bb
00000250: c362 71bd 70cf ec39 7ffd f4bb b234 16bd
00000260: ba52 aabb da6f 833c 1e9e 3e3b 466d 06bc
00000270: d85d 393c 3643 47bd a20e 49bc b6e0 223c
00000280: d6f8 3c3d bbcb 11bd 1e62 0ebd ce7e 2e3b
00000290: 5ca1 b4bb 482a 333b c9ad d1bb e009 7bbc
000002a0: 22ee 1bbd e141 08bc 82a1 07bd 18b7 b2bc
000002b0: 0a80 463d ff6a ccbc dc9a 103d f310 03bb
000002c0: 7dc0 383c 6600 15bb 361f 0c3d 7967 0c3d
000002d0: ee3f cabc 5791 70bb f9fc 27bc b6a3 bf3c
000002e0: 4a06 30ba 2da5 2c3d 71a3 d33b f83f 253d
000002f0: db8a 363c 0bb2 4bbc 4e45 863d 1764 473d
00000300: 55e3 fbbc 8caa e7bd e9f1 953c 3be7 8ebc
00000310: b7f6 903d 7e35 f2bc 6df0 8d3b e2c6 64bd
00000320: e2ea 9d3d 54ca d33c 6849 d1bd 5b87 b73d
00000330: 3ca5 6c3d 49d6 12bd 873e 43bd 52a2 55bc
00000340: 502c 51bc c1ad 13bd bb70 233d 5ea6 b2bd
00000350: d8f8 873d fbac 933c 1107 74bc 79ec bbbc
00000360: 9a0c e33d 6c0d 9bbc 4b09 16be ce3a 95bc
00000370: 6a28 493c a9c9 d5bc ca5d 29bc 2ff7 e1bc
00000380: 488d adbd f487 afbc ef21 b83d aeb8 f8bc
00000390: e663 963c fb60 8abd 57cb 0dbd b574 e13c
000003a0: 3c9d 06be ebd8 a6bc 0cde 5ebd 47c9 a1bd
000003b0: 2ac2 733d 71a1 223d 95e4 733d 8e15 ad3d
000003c0: 7671 12bd d432 b53b fca9 7a3c cbd7 8ebd
000003d0: 8af1 cd3b e4f4 753c c992 fd3c 501a a2bc
000003e0: f878 0c3d 8d0d 1e3d 8b38 e0bb 3c36 9bbc
000003f0: 9e06 8bbc e665 ddbc 0c0a a23c 7d94 5e3c

fc1.bias f4 [45]
-0.08363287 0.08803369 0.044932723 0.11852447 0.029036984 0.06945795 -0.004420724 -0.0028027454
-0.056083184 0.1458389 0.022057459 -0.036556244 0.10001963 -0.0007406862 -0.012217356 -0.02325438
-0.01300606 -0.030096764 -0.025846466 0.058439728 -0.033639006 0.08423354 -0.13792184 -0.06591701
-0.12990537 0.07062326 0.005765359 -0.008188856 -0.084041394 0.053882997 -0.08209465 -0.08173106
-0.09774206 0.084810585 -0.08590193 0.06220596 -0.07363349 -0.08613323 -0.07034593 0.042363334
0.057225652 -0.09411528 -0.045144875 0.016821405 -0.0534121
00000000: b647 abbd 024b b43d 600b 383d f5bc f23d
00000010: f8de ed3c f83f 8e3d b9db 90bb 44ae 37bb
00000020: 7bb7 65bd cb56 153e d8b1 b43c 00bc 15bd
00000030: 17d7 cc3d 9c2a 42ba 4e2b 48bc f87f bebc
00000040: 5f17 55bc 7d8d f6bc f8bb d3bc 7f5e 6f3d
00000050: 0ec9 09bd a282 ac3d 623b 0dbe 7fff 86bd
00000060: ea05 05be eea2 903d 56eb bc3b 8d2a 06bc
00000070: e51d acbd 6bb4 5c3d 3d21 a8bd 9d62 a7bd
00000080: fd2c c8bd 2cb1 ad3d 5aed afbd adcb 7e3d
00000090: 28cd 96bd 9e66 b0bd 8711 90bd 2d85 2d3d
000000a0: 7265 6a3d 83bf c0bd d5e9 38bd 0bcd 893c
000000b0: a5c6 5abd

fc2.weight f4 [45, 45]
0.052912425 -0.084224924 -0.048722018 -0.045908626 -0.030577175 0.013383324 -3.2150427e-05 -0.017823437
0.04596409 -0.06833071 -0.034514453 0.06878864 -0.060255207 -0.0019639654 0.00045919337 -0.0007273232
-0.0065027424 -0.006013071 -0.043087937 -0.066139735 -0.0053389524 -0.0063763172 0.06324013 0.08558604
0.066982865 -0.056073412 0.014956764 0.0003355508 0.029906739 -0.03254945 0.079543695 0.060336616
0.05443472 -0.059516992 0.07780838 -0.044673968 0.044020467 0.032902297 0.05098992 -0.06343165
-0.06166682 0.08416256 0.06639033 -0.004029931 0.057659786 -0.07504553 0.049121674 0.06362144
0.013404228 0.01158145 0.023337336 -6.5930864e-05 0.019257335 -0.079797596 0.05456813 0.060034357
-0.047384124 0.030726992 0.00065544184 -0.00021165407 0.00070670334 0.010680607 0.009401335 0.036900137
0.038988806 0.0016564853 0.0112029975 -0.07294351 -0.079175346 -0.08991049 0.044731896 0.030231496
-7.998133e-05 -0.048303295 0.034318764 -0.052919693 -0.06990332 -0.07291431 0.04157455 -0.0709026
0.04956534 -0.07580942 -0.06944102 -0.05737564 0.07387225 0.047992058 -0.0808233 -0.06433147
0.0013170458 -0.076180674 0.04761097 -0.084869996 -0.049341414 -0.07621175 -0.03690408 0.013467023
0.0006203077 -0.01584097 0.035795745 -0.084374964 -0.04336221 0.07686915 -0.066269584 -0.00060586137
-0.00045280805 0.00023090388 -0.0094432365 -0.006827904 -0.056936495 -0.07306616 -0.0017169111 -0.02313818
0.07151991 0.084927626 0.05499228 -0.06536378 0.019537054 -0.000679835 0.021506548 -0.045263227
0.07016972 0.04324218 0.029333513 -0.057032943 0.055251006 -0.06980275 0.015599904 0.03278656
0.051909775 -0.0709375 -0.08035608 0.07594862 0.06323261 -0.0063415705 0.05224839 0.037120234
-0.036080923 -0.016244028 -0.055638224 -0.040952843 0.011692016 -0.00013076242 -0.046596333 0.059028856
-0.04836869 -0.009942322 0.03368274 -0.046495505 0.00028209641 0.0005789817 0.0077024596 0.022371335
0.029487787 -0.04516331 -0.06376789 0.0002767119 -0.08653743 0.06415097 0.07689296 0.044474937
-0.08378511 0.0006610322 -0.015786864 0.0313679 -0.025850536 0.08512332 0.0036977117 0.05247989
-0.05261424 0.04201223 -0.04316011 0.034375202 0.036779758 0.04135222 -0.032738645 -0.039446913
0.04839621 0.03960176 -0.0012747959 0.051696613 -0.07357523 0.04840853 0.056912173 0.08430942
0.04578552 -0.05674932 -6.162674e-05 0.014322552 -0.08859516 0.059547376 0.08265518 -0.03456936
0.076436915 0.0058487216 -0.0005526156 0.0021135486 0.006445778 -0.014761776 0.036054954 0.07389142
-0.0024639873 0.04681611 -0.05135694 -0.053345878 -0.0872796 0.0018076142 0.0295087 0.005389811
-0.057666983 -0.0433474 -0.036117535 -0.08404372 -0.089417614 0.066228345 -0.050868426 0.045672607
-0.06840437 -0.075379886 -0.06396123 0.037938356 0.057045806 -0.069648765 -0.056153692 0.00085567735
-0.08877549 0.0468403 -0.056567367 -0.05184575 -0.0637611 -0.027488617 0.13656676 -0.0004828201
0.017935136 0.078297935 -0.051730826 -0.032205712 0.058998607 -0.05571731 -0.00269623 -0.0008582174
-0.0026155175 -0.008144502 -0.0068053836 -0.05428847 -0.067283705 -0.007670635 -0.010421022 0.06913891
0.11083733 0.07785177 -0.045737598 0.072185665 -0.0018961102 0.03831319 -0.015150315 0.12748069
00000000: b3ba 583d 1e7e acbd bd90 47bd af0a 3cbd
00000010: fc7c fabc bb45 5b3c 42d9 06b8 7502 92bc
00000020: d744 3c3d f9f0 8bbd 075f 0dbd 0fe1 8c3d
00000030: 2ace 76bd dfb5 00bb e4bf f039 d5a9 3eba
00000040: f514 d5bb 4c09 c5bb fa7c 30bd 4574 87bd
00000050: 61f2 aebb 6df0 d0bb 0b84 813d bc47 af3d
00000060: 502e 893d 3cad 65bd 370d 753c deec af39
00000070: fafe f43c 9252 05bd cee7 a23d 8723 773d
00000080: f1f6 5e3d 17c8 73bd 005a 9f3d 0dfc 36bd
00000090: ce4e 343d 8fc4 063d ceda 503d 74e8 81bd
000000a0: 5996 7cbd 6c5d ac3d a7f7 873d 830d 84bb
000000b0: ab2c 6c3d 79b1 99bd cf33 493d f54b 823d
000000c0: 689d 5b3c 1fc0 3d3c f12d bf3c 5d44 8ab8
000000d0: 8fc1 9d3c ec6c a3bd d582 5f3d 96e6 753d
000000e0: db15 42bd 2cb7 fb3c f5d1 2b3a 75ef 5db9
000000f0: 0f42 393a b6fd 2e3c 0f08 1a3c 9924 173d
00000100: bab2 1f3d 6c1e d93a c78c 373c 6863 95bd
00000110: af26 a2bd fe22 b8bd cb38 373d 0ba8 f73c
00000120: a6bb a7b8 add9 45bd d591 0c3d 52c2 58bd
00000130: 7929 8fbd 1954 95bd 134a 2a3d 6235 91bd
00000140: 0705 4b3d f841 9bbd 1837 8ebd b802 6bbd
00000150: 564a 973d 5293 443d b086 a5bd 38c0 83bd
00000160: b9a0 ac3a 9d04 9cbd b803 433d 52d0 adbd
00000170: 391a 4abd e814 9cbd bc28 17bd caa4 5c3c
00000180: 259c 223a ecc4 81bc 8f9e 123d c8cc acbd
00000190: 939c 31bd 936d 9d3d 59b8 87bd abd2 1eba
000001a0: de66 edb9 ca1e 7239 ceb7 1abc 9cbc dfbb
000001b0: 3e36 69bd b6a3 95bd fa09 e1ba 488c bdbc
000001c0: 0879 923d 89ee ad3d 963f 613d 72dd 85bd
000001d0: 2c0c a03c f436 32ba 802e b03c ef65 39bd
000001e0: 24b5 8f3d b61e 313d d64c f03c 609b 69bd
000001f0: e14e 623d bff4 8ebd bd96 7f3c 334b 063d
00000200: 589f 543d ae47 91bd ba91 a4bd f38a 9b3d
00000210: 1980 813d f3cc cfbb 6802 563d 630b 183d
00000220: 97c9 13bd 3212 85bc e8e4 63bd 2bbe 27bd
00000230: df8f 3f3c 451d 09b9 ccdb 3ebd 3ec8 713d
00000240: 3f1e 46bd 1fe5 22bc eaf6 093d 1272 3ebd
00000250: 57e6 9339 cec6 173a ea64 fc3b 1744 b73c
00000260: 5f90 f13c 2afd 38bd bd98 82bd a413 9139
00000270: 893a b1bd 9561 833d 0e7a 9d3d 5a2b 363d
00000280: 8797 abbd 1f49 2d3a 7453 81bc a17b 003d
00000290: 81c4 d3bc 2355 ae3d 4f55 723b 27f5 563d
000002a0: 0882 57bd 0415 2c3d a8c8 30bd 03cd 0c3d
000002b0: 5fa6 163d f260 293d f518 06bd 1693 21bd
000002c0: 1b3b 463d 7535 223d 0d17 a7ba d4bf 533d
000002d0: 9cae 96bd 0648 463d bd1c 693d 6baa ac3d
000002e0: 9989 3b3d fa71 68bd 9b3d 81b8 23a9 6a3c
000002f0: 6171 b5bd f3e7 733d 1e47 a93d 9a98 0dbd
00000300: f58a 9c3d a2a6 bf3b 68dd 10ba 7683 0a3b
00000310: 1b37 d33b 60db 71bc 5cae 133d 6354 973d
00000320: d97a 21bb 40c2 3f3d a85b 52bd 3581 5abd
00000330: a6bf b2bd 78ed ec3a 3bbc f13c 039d b03b
00000340: 3734 6cbd 0b8d 31bd fbef 13bd 1d1f acbd
00000350: 9520 b7bd baa2 873d 695b 50bd 3313 3b3d
00000360: 9717 8cbd c560 9abd 1bfe 82bd 4065 1b3d
00000370: dda8 693d 03a4 8ebd 6a01 66bd 894f 603a
00000380: edcf b5bd 9ddb 3f3d 2fb3 67bd 365c 54bd
00000390: 2e95 82bd cf2f e1bc 28d8 0b3e 0423 fdb9
000003a0: b5ec 923c ab5a a03d b4e3 53bd 23ea 03bd
000003b0: 86a8 713d d637 64bd 3cb3 30bb fff9 60ba
000003c0: 1a69 2bbb 8470 05bc b2ff debb 965d 5ebd
000003d0: 0acc 89bd f359 fbbb efbc 2abc b398 8d3d
000003e0: affe e23d c070 9f3d 5957 3bbd 14d6 933d
000003f0: e786 f8ba 4bee 1c3d 0739 78bc 4c8a 023e

fc2.bias f4 [45]
0.048315514 0.17055105 0.050353006 0.07149394 0.18403628 -0.0054487567 0.17740297 0.035933886
0.16469802 0.046996407 0.07038078 0.11613163 -0.007796157 0.11003449 0.053283516 0.1252512
0.188879 0.05916357 0.15361878 0.1647234 0.023902817 0.0897299 0.13315271 0.04936698
0.028153447 0.18989484 0.19609623 0.10420341 0.15365647 0.14845479 -0.023614783 -0.10586212
0.047673635 0.028476348 0.17326711 0.047290742 0.18314785 0.048013676 -0.0006678098 0.044437684
0.0832792 0.09711762 0.053845532 0.06730465 0.073828936
00000000: 7de6 453d efa4 2e3e f43e 4e3d 6a6b 923d
00000010: 0274 3c3e 7c8b b2bb 20a9 353e 692f 133d
00000020: 99a6 283e 4e7f 403d cc23 903d 6cd6 ed3d
00000030: e876 ffbb c359 e13d d13f 5a3d da41 003e
00000040: 7f69 413e 8055 723d 3e4e 1d3e 40ad 283e
00000050: d7cf c33c 4fc4 b73d 2f59 083e 0835 4a3d
00000060: 0fa2 e63c cb73 423e 73cd 483e 9968 d53d
00000070: 1f58 1d3e 8804 183e ca73 c1bc 3dce d8bd
00000080: 6e45 433d 3b47 e93c ef6c 313e f0b3 413d
00000090: 1c8b 3b3e fda9 443d f50f 2fba 4a04 363d
000000a0: 498e aa3d 9ae5 c63d 228d 5c3d 05d7 893d
000000b0: a033 973d

out.weight f4 [1, 45]
0.23879862 -0.1655873 0.27344468 0.12796156 -0.1640825 0.25647426 -0.17957214 0.27408648
-0.15012695 0.2476318 0.17800394 -0.1816786 0.008436487 -0.19659105 0.2835463 -0.22557949
-0.18503255 0.20119843 -0.238159 -0.19130807 0.1045546 -0.17096615 -0.20960937 0.18166555
0.11312905 -0.18301514 -0.1412634 -0.20718524 -0.19348258 -0.15845503 0.019598115 0.07873993
0.27694464 0.16963317 -0.16907474 0.26723644 -0.25223675 0.26920325 0.20851538 0.2792878
0.122367814 -0.196318 0.11009509 0.3100312 0.11521854
00000000: a087 743e b88f 29be f100 8c3e 5b08 033e
00000010: 3e05 28be 9850 833e c2e1 37be 1055 8c3e
00000020: e1ba 19be 3193 7d3e aa46 363e f409 3abe
00000030: 3139 0a3c 2a4f 49be fb2c 913e 4ffe 66be
00000040: 2c79 3dbe f606 4e3e f4df 73be 43e6 43be
00000050: b920 d63d c011 2fbe d7a3 56be 8906 3a3e
00000060: 34b0 e73d 5268 3bbe 5aa7 10be 5e28 54be
00000070: 4c20 46be 0942 22be 3a8c a03c 6742 a13d
00000080: b0cb 8d3e 51b4 2d3e ee21 2dbe 37d3 883e
00000090: 2d25 81be 02d5 893e 0e85 553e cffe 8e3e
000000a0: fa9b fa3d 9607 49be 8979 e13d 69bc 9e3e
000000b0: b3f7 eb3d

sep_conn.weight f4 [45, 95]
0.025896724 -0.0027459688 0.087805636 -0.010665854 0.0685937 -0.024993885 0.061599113 -0.063375734
0.055685427 -0.0020600636 -0.065700285 0.0043032193 -0.04182677 0.09300048 -0.046921067 -0.05059612
-0.005016399 -0.084963635 0.091388166 0.02848998 0.094147876 -0.09322455 0.087207414 0.0023519716
0.006859051 0.10083099 0.0049269563 -0.04458466 -0.04920133 -0.083495095 -0.018547887 -0.08787333
-0.061099626 0.07705778 0.08511451 0.08690621 0.08237312 -0.015261972 0.07375688 0.08181727
-0.08964051 -0.08940641 -0.07720461 0.07511302 0.051628273 -0.09839247 -0.043777063 0.10073334
0.0051015974 0.034567364 -0.031567927 -0.054596167 0.055524044 -0.018455558 -0.04664413 -0.0021776366
-0.052895904 0.06801036 0.0067587965 0.044556607 0.042272564 0.0706462 -0.065509826 0.04732163
0.029858295 0.06994115 0.087950714 0.0972932 -0.0424087 -0.05056069 0.08200889 0.036403056
-0.011186585 -0.026577529 -0.06539954 0.034962192 -0.02497861 -0.08029045 -0.011007517 -0.013311593
0.026527677 -0.08028431 0.04526269 0.04562999 0.03800063 0.07214037 -0.04844571 0.044349052
0.090130076 0.054389935 0.02913347 0.013540012 0.023073604 -0.09228109 0.03444404 0.013360834
-0.018541746 0.013187428 0.06148029 -0.08326712 0.07972247 -0.09202219 -0.031296503 0.08911456
-0.08447892 0.002934149 0.015523341 0.042177238 0.04766317 0.021651918 -0.008884954 0.09283111
0.051719747 0.060506023 0.029597929 0.033634886 -0.07372815 -0.04384514 0.021882514 0.012412031
-0.077489264 0.05697566 -0.047746204 -0.08254916 -0.057869434 -0.044535287 0.01655766 0.0722897
-0.070701614 0.028723745 0.0175757 -0.047398474 -0.008947171 -0.07981232 -0.006186979 0.050056458
0.057111662 0.09388402 -0.00066592026 0.07738745 0.10122519 -0.07568209 0.07796304 0.056308676
-0.059960112 -0.0375496 0.06193894 0.08754633 0.06893027 -0.018936612 0.06547433 0.034020543
-0.056195408 -0.07572306 -0.054951932 0.08601445 0.016012406 -0.090775155 -0.001797509 0.05798944
-0.04290994 -0.024822278 0.10195093 -0.024052054 -0.013029469 0.06322894 0.048555735 0.09644136
0.09304688 0.03957592 -0.018967738 -0.062446963 -0.0040541063 -0.020454908 0.034226142 -0.07124287
-0.04713175 0.061515186 -0.08676649 0.09191562 0.03629835 -0.09713762 -0.04725934 0.07272531
-0.09646856 -0.048148163 -0.0257815 -0.0148211075 0.008055658 -0.089863986 0.019633548 0.09540282
0.06446435 -0.015140021 -0.01856447 0.039881587 0.0903755 0.05222015 0.042895775 -0.010273876
0.09447191 -0.04949688 0.0010390029 -0.004914958 0.09396215 0.042572457 -0.021557558 0.06581223
-0.045488384 -0.014535572 -0.07982777 0.0053647878 -0.0878662 0.08879563 0.08617788 0.011244888
-0.08782089 -0.042468537 -0.05733628 0.06541268 -0.096778445 0.09549578 -0.07868622 0.08386315
0.037289347 -0.09051741 0.07913536 -0.042638652 -0.050205536 0.093824595 0.06030714 -0.025905678
-0.004885189 0.046327244 -0.08446895 -0.024357649 -0.024716824 -0.06774606 0.0856448 -0.06320745
0.0332076 -0.09734755 0.013243885 -0.0041100127 0.06586181 0.079658106 0.0011160803 0.08194514
-0.0015476375 -0.076105624 0.04681927 0.057592288 -0.07446902 -0.09046675 -0.06469268 0.08759949
00000000: 5e25 d43c b6f5 33bb 71d3 b33d d6bf 2ebc
00000010: db7a 8c3d fabf ccbc 5a4f 7c3d 23cb 81bd
00000020: 6716 643d 2202 07bb df8d 86bd 0502 8d3b
00000030: 8c52 2bbd 0977 be3d 4e30 40bd e13d 4fbd
00000040: 9b60 a4bb 6a01 aebd b829 bb3d d263 e93c
00000050: 9ad0 c03d 83ec bebd cd99 b23d 8923 1a3b
00000060: e4c1 e03b 7a80 ce3d 4e72 a13b 689e 36bd
00000070: 5587 49bd 7aff aabd bdf1 97bc eff6 b3bd
00000080: 9a43 7abd 78d0 9d3d 8450 ae3d e2fb b13d
00000090: 3db3 a83d 5a0d 7abc d90d 973d d08f a73d
000000a0: 7295 b7bd b51a b7bd 731d 9ebd dbd4 993d
000000b0: 2b78 533d fe81 c9bd 944f 33bd 484d ce3d
000000c0: 4d2b a73b 8296 0d3d 5f4d 01bd 3ba0 5fbd
000000d0: 2e6d 633d 1c30 97bc ea0d 3fbd aeb6 0ebb
000000e0: 60a9 58bd 0449 8b3d e578 dd3b fd80 363d
000000f0: ff25 2d3d f4ae 903d 042a 86bd 53d4 413d
00000100: 6299 f43c 4e3d 8f3d 811f b43d a841 c73d
00000110: bfb4 2dbd ba18 4fbd 47f4 a73d 5f1b 153d
00000120: f047 37bc 1eb9 d9bc 32f0 85bd 8434 0f3d
00000130: f19f ccbc 526f a4bd df58 34bc de18 5abc
00000140: 9250 d93c 1a6c a4bd 5f65 393d 83e6 3a3d
00000150: 8ca6 1b3d 55be 933d 026f 46bd 5aa7 353d
00000160: 1e96 b83d fbc7 5e3d 51a9 ee3c edd6 5d3c
00000170: db04 bd3c defd bcbd 3215 0d3d 66e7 5a3c
00000180: dce4 97bc 1510 583c c2d2 7b3d f487 aabd
00000190: 8945 a33d 2176 bcbd c330 00bd b281 b63d
000001a0: 4903 adbd da4a 403b 9c55 7e3c 0ac2 2c3d
000001b0: 753a 433d 5d5f b13c 3392 11bc 3d1e be3d
000001c0: 16d8 533d 2ad5 773d 5b77 f23c bcc4 093d
000001d0: c9fe 96bd f696 33bd f542 b33c d55b 4b3c
000001e0: b1b2 9ebd 4f5f 693d 8691 43bd 890f a9bd
000001f0: 8008 6dbd a26a 36bd eea3 873c 9f0c 943d
00000200: 02cc 90bd 0f4e eb3c eafa 8f3c e724 42bd
00000210: 2897 12bc a474 a3bd 24bc cabb 0008 4d3d
00000220: ebed 693d 4446 c03d 2791 2eba 507d 9e3d
00000230: 274f cf3d 36ff 9abd 16ab 9f3d eda3 663d
00000240: bc98 75bd 9ccd 19bd b0b3 7d3d 7e4b b33d
00000250: 502b 8d3d f420 9bbc 6817 863d 2059 0b3d
00000260: 282d 66bd b114 9bbd 4715 61bd 5828 b03d
00000270: 732c 833c 53e8 b9bd 659a ebba 5686 6d3d
00000280: 55c2 2fbd 1758 cbbc a6cb d03d d008 c5bc
00000290: 8e79 55bc 2d7e 813d 61e2 463d 0c83 c53d
000002a0: 5d8f be3d 5c1a 223d 3b62 9bbc 63c8 7fbd
000002b0: 4fd8 84bb 0d91 a7bc b630 0c3d c8e7 91bd
000002c0: 390d 41bd 59f7 7b3d a1b2 b1bd 423e bc3d
000002d0: 94ad 143d 17f0 c6bd 0293 41bd 02f1 943d
000002e0: 4f91 c5bd 0237 45bd b933 d3bc 3bd4 72bc
000002f0: e1fb 033c 9c0a b8bd 89d6 a03c 8e62 c33d
00000300: e305 843d da0d 78bc 8414 98bc e05a 233d
00000310: ca16 b93d cce4 553d 7bb3 2f3d c253 28bc
00000320: 7d7a c13d 3ebd 4abd 272f 883a a80d a1bb
00000330: 3a6f c03d 7560 2e3d 7a99 b0bc 90c8 863d
00000340: 0752 3abd 9c26 6ebc be7c a3bd 1acb af3b
00000350: 32f3 b3bd 7cda b53d 077e b03d 7b3c 383c
00000360: 70db b3bd 7df3 2dbd 72d9 6abd 15f7 853d
00000370: c733 c6bd 4b93 c33d 3e26 a1bd 71c0 ab3d
00000380: b7bc 183d 3161 b9bd b811 a23d dea5 2ebd
00000390: 52a4 4dbd 1c27 c03d 9f04 773d 2538 d4bc
000003a0: ef13 a0bb a3c1 3d3d 0ffe acbd b189 c7bc
000003b0: f07a cabc 72be 8abd 8a66 af3d e872 81bd
000003c0: b104 083d 275e c7bd e1fc 583c 49ad 86bb
000003d0: 8fe2 863d ca23 a33d 7149 923a dbd2 a73d
000003e0: 19da caba 44dd 9bbd 90c5 3f3d e4e5 6b3d
000003f0: 3783 98bd a246 b9bd 997d 84bd 5d67 b33d

sep_conn.bias f4 [45]
0.028182907 -0.012498625 0.10061456 0.08848611 -0.044268038 0.08424856 -0.0074354433 -0.089037664
-0.058834113 0.08958283 -0.04649265 0.068387434 0.07474597 -0.03585291 0.0320651 -0.027403254
0.006344387 -0.052446563 -0.09711286 -0.038392022 0.06936645 -0.050680414 -0.017662268 -0.08848424
-0.014906588 -0.0070116892 0.025688976 0.03186331 -0.0524649 -0.05227979 -0.07778045 0.057163335
-0.024763986 0.012198045 -0.0714159 -0.023737593 -0.07877186 0.044883627 -0.02568182 0.004416463
-0.060425926 -0.005776678 0.09996115 0.08450533 -0.038872562
00000000: d7df e63c 08c7 4cbc 020f ce3d 3538 b53d
00000010: 6752 35bd 828a ac3d 05a5 f3bb 6159 b6bd
00000020: 0afc 70bd 3477 b73d 146f 3ebd b60e 8c3d
00000030: 6a14 993d 80da 12bd b256 033d ca7c e0bc
00000040: 93e4 cf3b 35d2 56bd 1be3 c6bd f440 1dbd
00000050: ff0f 8e3d 4496 4fbd 76b0 90bc 3a37 b5bd
00000060: c33a 74bc 50c2 e5bb b071 d23c 1a83 023d
00000070: 6fe5 56bd 5523 56bd 5b4b 9fbd 1a24 6a3d
00000080: d8dd cabc 4fda 473c 8042 92bd 5775 c2bc
00000090: 2453 a1bd e5d7 373d ae62 d2bc fab7 903b
000000a0: 2d81 77bd 4a4a bdbb 6eb8 cc3d 2111 ad3d
000000b0: d638 1fbd

bn.weight f4 [45]
1.0 1.0 1.0 1.0 1.0 1.0 1.0 1.0
1.0 1.0 1.0 1.0 1.0 1.0 1.0 1.0
1.0 1.0 1.0 1.0 1.0 1.0 1.0 1.0
1.0 1.0 1.0 1.0 1.0 1.0 1.0 1.0
1.0 1.0 1.0 1.0 1.0 1.0 1.0 1.0
1.0 1.0 1.0 1.0 1.0
00000000: 0000 803f 0000 803f 0000 803f 0000 803f
00000010: 0000 803f 0000 803f 0000 803f 0000 803f
00000020: 0000 803f 0000 803f 0000 803f 0000 803f
00000030: 0000 803f 0000 803f 0000 803f 0000 803f
00000040: 0000 803f 0000 803f 0000 803f 0000 803f
00000050: 0000 803f 0000 803f 0000 803f 0000 803f
00000060: 0000 803f 0000 803f 0000 803f 0000 803f
00000070: 0000 803f 0000 803f 0000 803f 0000 803f
00000080: 0000 803f 0000 803f 0000 803f 0000 803f
00000090: 0000 803f 0000 803f 0000 803f 0000 803f
000000a0: 0000 803f 0000 803f 0000 803f 0000 803f
000000b0: 0000 803f

bn.bias f4 [45]
0.0 0.0 0.0 0.0 0.0 0.0 0.0 0.0
0.0 0.0 0.0 0.0 0.0 0.0 0.0 0.0
0.0 0.0 0.0 0.0 0.0 0.0 0.0 0.0
0.0 0.0 0.0 0.0 0.0 0.0 0.0 0.0
0.0 0.0 0.0 0.0 0.0 0.0 0.0 0.0
0.0 0.0 0.0 0.0 0.0
00000000: 0000 0000 0000 0000 0000 0000 0000 0000
00000010: 0000 0000 0000 0000 0000 0000 0000 0000
00000020: 0000 0000 0000 0000 0000 0000 0000 0000
00000030: 0000 0000 0000 0000 0000 0000 0000 0000
00000040: 0000 0000 0000 0000 0000 0000 0000 0000
00000050: 0000 0000 0000 0000 0000 0000 0000 0000
00000060: 0000 0000 0000 0000 0000 0000 0000 0000
00000070: 0000 0000 0000 0000 0000 0000 0000 0000
00000080: 0000 0000 0000 0000 0000 0000 0000 0000
00000090: 0000 0000 0000 0000 0000 0000 0000 0000
000000a0: 0000 0000 0000 0000 0000 0000 0000 0000
000000b0: 0000 0000

bn.running_mean f4 [45]
0.0 0.0 0.0 0.0 0.0 0.0 0.0 0.0
0.0 0.0 0.0 0.0 0.0 0.0 0.0 0.0
0.0 0.0 0.0 0.0 0.0 0.0 0.0 0.0
0.0 0.0 0.0 0.0 0.0 0.0 0.0 0.0
0.0 0.0 0.0 0.0 0.0 0.0 0.0 0.0
0.0 0.0 0.0 0.0 0.0
00000000: 0000 0000 0000 0000 0000 0000 0000 0000
00000010: 0000 0000 0000 0000 0000 0000 0000 0000
00000020: 0000 0000 0000 0000 0000 0000 0000 0000
00000030: 0000 0000 0000 0000 0000 0000 0000 0000
00000040: 0000 0000 0000 0000 0000 0000 0000 0000
00000050: 0000 0000 0000 0000 0000 0000 0000 0000
00000060: 0000 0000 0000 0000 0000 0000 0000 0000
00000070: 0000 0000 0000 0000 0000 0000 0000 0000
00000080: 0000 0000 0000 0000 0000 0000 0000 0000
00000090: 0000 0000 0000 0000 0000 0000 0000 0000
000000a0: 0000 0000 0000 0000 0000 0000 0000 0000
000000b0: 0000 0000

bn.running_var f4 [45]
1.0 1.0 1.0 1.0 1.0 1.0 1.0 1.0
1.0 1.0 1.0 1.0 1.0 1.0 1.0 1.0
1.0 1.0 1.0 1.0 1.0 1.0 1.0 1.0
1.0 1.0 1.0 1.0 1.0 1.0 1.0 1.0
1.0 1.0 1.0 1.0 1.0 1.0 1.0 1.0
1.0 1.0 1.0 1.0 1.0
00000000: 0000 803f 0000 803f 0000 803f 0000 803f
00000010: 0000 803f 0000 803f 0000 803f 0000 803f
00000020: 0000 803f 0000 803f 0000 803f 0000 803f
00000030: 0000 803f 0000 803f 0000 803f 0000 803f
00000040: 0000 803f 0000 803f 0000 803f 0000 803f
00000050: 0000 803f 0000 803f 0000 803f 0000 803f
00000060: 0000 803f 0000 803f 0000 803f 0000 803f
00000070: 0000 803f 0000 803f 0000 803f 0000 803f
00000080: 0000 803f 0000 803f 0000 803f 0000 803f
00000090: 0000 803f 0000 803f 0000 803f 0000 803f
000000a0: 0000 803f 0000 803f 0000 803f 0000 803f
000000b0: 0000 803f

net.0.weight f4 [45, 95]
0.059367616 0.03359263 0.11091018 0.14491741 0.012671149 0.03424071 -0.048634008 -0.0384109
-0.04744604 0.0387136 -0.056439016 -0.062423162 0.035827372 -0.02119386 -0.00948079 -0.025497386
-0.047960017 -0.033156455 -0.0421148 -0.041570462 0.004361876 0.10969567 0.063312754 0.0032907897
-0.00542764 0.034740537 0.017425764 0.03226834 0.063948505 -0.04834833 0.023463614 -0.023284273
-0.017029662 0.022739103 -0.021688718 -0.018339071 -0.021480303 -0.025926404 -0.031236386 -0.092959344
-0.0133936815 0.04491887 0.046602767 -0.036046363 0.074232295 -0.05471188 -0.0088836895 -0.059542373
-0.08429878 -0.06971705 0.047302615 0.0043853847 0.031119626 -0.04387785 -0.002689574 0.074523605
-0.025798937 -0.0110480515 -0.015247821 -0.0042102183 -0.038029514 -0.010548439 -0.010935081 -0.011036264
0.062137164 -0.03646204 -0.02176513 -0.011838229 -0.00028624883 0.00030750327 0.00053928647 -0.02492566
0.020863647 0.031751994 0.0062058577 0.035106886 0.04577365 0.011197809 -0.007699866 -0.016372697
0.004424425 -0.009853679 0.0048827184 0.051079694 -0.0013965525 -0.015751185 -0.0020915992 -0.00445372
-0.009632202 0.014454065 -0.01784399 -0.039090313 0.0042510405 -0.035444852 0.022521866 0.006766171
0.009553008 -0.034774754 -0.17359842 -0.05479362 0.0072224215 0.109995544 -0.032116435 0.0074479203
0.09490086 -0.014785261 0.029820438 -0.04221874 0.031171925 0.042317174 0.026634341 -0.016916387
-0.0028799141 0.01295245 0.0046408144 0.051720385 -0.076048456 -0.024899941 0.006075624 0.0056447843
-0.027286563 -0.03663586 -0.03031704 -0.0752759 -0.04382765 -0.05548858 0.0040138196 -0.021955395
-0.023804806 0.05016805 -0.047465857 0.035003506 0.04479711 0.03928749 0.03134592 -0.015942069
-0.075531654 -0.18620214 -0.057302967 -0.0063252673 -0.015689075 0.036383267 0.12147333 0.06711682
0.0024114063 -0.0070133745 -0.0048861755 -0.0054488042 -0.058932077 0.0004516798 -0.007476508 -0.036671348
-0.00519785 0.016044546 0.0029085944 -0.008204764 0.011313878 -0.04864808 -0.012271555 0.009941271
0.046135746 -0.035594683 -0.03476154 0.0026625874 -0.0055123996 0.0027338434 -0.0063988906 -0.015322179
-0.038068898 -0.008316488 -0.03311301 -0.021815822 0.04846195 -0.024953363 0.035303935 -0.0019999116
0.0112763615 -0.0022735833 0.034209453 0.034278367 -0.024688687 -0.0036707723 -0.0102531845 0.023393493
-0.00067148043 0.04214971 0.0064586927 0.04034421 0.011141504 -0.0124325855 0.065561876 0.048679437
-0.030748049 -0.11311826 0.018303828 -0.017444244 0.07078307 -0.029566523 0.0043316395 -0.055853732
0.07710816 0.025853314 -0.10219079 0.08961364 0.057774767 -0.03584889 -0.047667053 -0.013039188
-0.012766913 -0.036054377 0.03990243 -0.08723138 0.0663926 0.01802682 -0.014894263 -0.022939907
0.11086388 -0.018927298 -0.14651982 -0.018216517 0.012277702 -0.026097136 -0.010337302 -0.027583687
-0.08474213 -0.021427132 0.08990847 -0.0303615 0.018358182 -0.06756779 -0.034617748 0.02752147
-0.13145918 -0.020367106 -0.05441098 -0.07899719 0.05951134 0.039704744 0.059544165 0.08451377
-0.035752736 0.005529741 0.0152993165 -0.06974753 0.006284897 0.015012 0.030953782 -0.019787937
0.034295052 0.03858714 -0.006842678 -0.01894676 -0.016970929 -0.027026128 0.019780181 0.013585207
00000000: 752b 733d 6d98 093d e024 e33d 3b65 143e
00000010: a79a 4f3c fd3f 0c3d 7434 47bd bf54 1dbd
00000020: c756 42bd 2792 1e3d 992c 67bd 6eaf 7fbd
00000030: b9bf 123d bf9e adbc 5155 1bbc e5df d0bc
00000040: b971 44bd 10cf 07bd 9280 2cbd ca45 2abd
00000050: 11ee 8e3b 20a8 e03d 1eaa 813d 4aaa 573b
00000060: 58da b1bb 184c 0e3d 7ac0 8e3c cf2b 043d
00000070: 6ff7 823d e608 46bd c436 c03c a9be bebc
00000080: ca81 8bbc 5b47 ba3c 8aac b1bc d23b 96bc
00000090: 76f7 afbc 9c63 d4bc 73e3 ffbc 7861 bebd
000000a0: 2c71 5bbc d9fc 373d 8be2 3e3d 5aa5 13bd
000000b0: 1a07 983d 9019 60bd e58c 11bc b4e2 73bd
000000c0: d7a4 acbd d0c7 8ebd 63c0 413d 46b3 8f3b
000000d0: 96ee fe3c 43b9 33bd 9043 30bb d59f 983d
000000e0: 4b58 d3bc e302 35bc ffd1 79bc dff5 89bb
000000f0: d6c4 1bbd 5cd3 2cbc 0e29 33bc 72d1 34bc
00000100: 8a83 7e3d 3859 15bd c94c b2bc 22f5 41bc
00000110: ab13 96b9 6438 a139 e75e 0d3a e630 ccbc
00000120: 3dea aa3c 610e 023d 825a cb3b 3dcc 0f3d
00000130: 277d 3b3d 0477 373c 284f fcbb 0920 86bc
00000140: c4fa 903b 5371 21bc 36ff 9f3b f138 513d
00000150: 870c b7ba a108 81bc 3613 09bb 83f0 91bb
00000160: 62d0 1dbc bed0 6c3c 8f2d 92bc 2a1d 20bd
00000170: 504c 8b3b 9f2e 11bd c77f b83c c2b6 dd3b
00000180: 3884 1c3c f96f 0ebd c9c3 31be 466f 60bd
00000190: 10aa ec3b 5845 e13d 868c 03bd af0d f43b
000001a0: 625b c23d e13d 72bc fe49 f43c 8fed 2cbd
000001b0: 445c ff3c c654 2d3d 4330 da3c 3c94 8abc
000001c0: f1bc 3cbb 8336 543c f911 983b c1d8 533d
000001d0: 4bbf 9bbd f6fa cbbc 0716 c73b e2f7 b83b
000001e0: 1288 dfbc 7c0f 16bd 715b f8bc 402a 9abd
000001f0: 9f84 33bd fe47 63bd 5c86 833b cddb b3bc
00000200: 4c02 c3bc 037d 4d3d 8f6b 42bd d65f 0f3d
00000210: 2d7d 373d ebeb 203d 9464 003d f198 82bc
00000220: 57b0 9abd c6ab 3ebe 84b6 6abd 3044 cfbb
00000230: 6086 80bc 9f06 153d 02c7 f83d 8b74 893d
00000240: af08 1e3b 73d0 e5bb 361c a0bb e28b b2bb
00000250: c362 71bd 70cf ec39 7ffd f4bb b234 16bd
00000260: ba52 aabb da6f 833c 1e9e 3e3b 466d 06bc
00000270: d85d 393c 3643 47bd a20e 49bc b6e0 223c
00000280: d6f8 3c3d bbcb 11bd 1e62 0ebd ce7e 2e3b
00000290: 5ca1 b4bb 482a 333b c9ad d1bb e009 7bbc
000002a0: 22ee 1bbd e141 08bc 82a1 07bd 18b7 b2bc
000002b0: 0a80 463d ff6a ccbc dc9a 103d f310 03bb
000002c0: 7dc0 383c 6600 15bb 361f 0c3d 7967 0c3d
000002d0: ee3f cabc 5791 70bb f9fc 27bc b6a3 bf3c
000002e0: 4a06 30ba 2da5 2c3d 71a3 d33b f83f 253d
000002f0: db8a 363c 0bb2 4bbc 4e45 863d 1764 473d
00000300: 55e3 fbbc 8caa e7bd e9f1 953c 3be7 8ebc
00000310: b7f6 903d 7e35 f2bc 6df0 8d3b e2c6 64bd
00000320: e2ea 9d3d 54ca d33c 6849 d1bd 5b87 b73d
00000330: 3ca5 6c3d 49d6 12bd 873e 43bd 52a2 55bc
00000340: 502c 51bc c1ad 13bd bb70 233d 5ea6 b2bd
00000350: d8f8 873d fbac 933c 1107 74bc 79ec bbbc
00000360: 9a0c e33d 6c0d 9bbc 4b09 16be ce3a 95bc
00000370: 6a28 493c a9c9 d5bc ca5d 29bc 2ff7 e1bc
00000380: 488d adbd f487 afbc ef21 b83d aeb8 f8bc
00000390: e663 963c fb60 8abd 57cb 0dbd b574 e13c
000003a0: 3c9d 06be ebd8 a6bc 0cde 5ebd 47c9 a1bd
000003b0: 2ac2 733d 71a1 223d 95e4 733d 8e15 ad3d
000003c0: 7671 12bd d432 b53b fca9 7a3c cbd7 8ebd
000003d0: 8af1 cd3b e4f4 753c c992 fd3c 501a a2bc
000003e0: f878 0c3d 8d0d 1e3d 8b38 e0bb 3c36 9bbc
000003f0: 9e06 8bbc e665 ddbc 0c0a a23c 7d94 5e3c

net.0.bias f4 [45]
-0.08363287 0.08803369 0.044932723 0.11852447 0.029036984 0.06945795 -0.004420724 -0.0028027454
-0.056083184 0.1458389 0.022057459 -0.036556244 0.10001963 -0.0007406862 -0.012217356 -0.02325438
-0.01300606 -0.030096764 -0.025846466 0.058439728 -0.033639006 0.08423354 -0.13792184 -0.06591701
-0.12990537 0.07062326 0.005765359 -0.008188856 -0.084041394 0.053882997 -0.08209465 -0.08173106
-0.09774206 0.084810585 -0.08590193 0.06220596 -0.07363349 -0.08613323 -0.07034593 0.042363334
0.057225652 -0.09411528 -0.045144875 0.016821405 -0.0534121
00000000: b647 abbd 024b b43d 600b 383d f5bc f23d
00000010: f8de ed3c f83f 8e3d b9db 90bb 44ae 37bb
00000020: 7bb7 65bd cb56 153e d8b1 b43c 00bc 15bd
00000030: 17d7 cc3d 9c2a 42ba 4e2b 48bc f87f bebc
00000040: 5f17 55bc 7d8d f6bc f8bb d3bc 7f5e 6f3d
00000050: 0ec9 09bd a282 ac3d 623b 0dbe 7fff 86bd
00000060: ea05 05be eea2 903d 56eb bc3b 8d2a 06bc
00000070: e51d acbd 6bb4 5c3d 3d21 a8bd 9d62 a7bd
00000080: fd2c c8bd 2cb1 ad3d 5aed afbd adcb 7e3d
00000090: 28cd 96bd 9e66 b0bd 8711 90bd 2d85 2d3d
000000a0: 7265 6a3d 83bf c0bd d5e9 38bd 0bcd 893c
000000b0: a5c6 5abd

net.3.weight f4 [45, 45]
0.052912425 -0.084224924 -0.048722018 -0.045908626 -0.030577175 0.013383324 -3.2150427e-05 -0.017823437
0.04596409 -0.06833071 -0.034514453 0.06878864 -0.060255207 -0.0019639654 0.00045919337 -0.0007273232
-0.0065027424 -0.006013071 -0.043087937 -0.066139735 -0.0053389524 -0.0063763172 0.06324013 0.08558604
0.066982865 -0.056073412 0.014956764 0.0003355508 0.029906739 -0.03254945 0.079543695 0.060336616
0.05443472 -0.059516992 0.07780838 -0.044673968 0.044020467 0.032902297 0.05098992 -0.06343165
-0.06166682 0.08416256 0.06639033 -0.004029931 0.057659786 -0.07504553 0.049121674 0.06362144
0.013404228 0.01158145 0.023337336 -6.5930864e-05 0.019257335 -0.079797596 0.05456813 0.060034357
-0.047384124 0.030726992 0.00065544184 -0.00021165407 0.00070670334 0.010680607 0.009401335 0.036900137
0.038988806 0.0016564853 0.0112029975 -0.07294351 -0.079175346 -0.08991049 0.044731896 0.030231496
-7.998133e-05 -0.048303295 0.034318764 -0.052919693 -0.06990332 -0.07291431 0.04157455 -0.0709026
0.04956534 -0.07580942 -0.06944102 -0.05737564 0.07387225 0.047992058 -0.0808233 -0.06433147
0.0013170458 -0.076180674 0.04761097 -0.084869996 -0.049341414 -0.07621175 -0.03690408 0.013467023
0.0006203077 -0.01584097 0.035795745 -0.084374964 -0.04336221 0.07686915 -0.066269584 -0.00060586137
-0.00045280805 0.00023090388 -0.0094432365 -0.006827904 -0.056936495 -0.07306616 -0.0017169111 -0.02313818
0.07151991 0.084927626 0.05499228 -0.06536378 0.019537054 -0.000679835 0.021506548 -0.045263227
0.07016972 0.04324218 0.029333513 -0.057032943 0.055251006 -0.06980275 0.015599904 0.03278656
0.051909775 -0.0709375 -0.08035608 0.07594862 0.06323261 -0.0063415705 0.05224839 0.037120234
-0.036080923 -0.016244028 -0.055638224 -0.040952843 0.011692016 -0.00013076242 -0.046596333 0.059028856
-0.04836869 -0.009942322 0.03368274 -0.046495505 0.00028209641 0.0005789817 0.0077024596 0.022371335
0.029487787 -0.04516331 -0.06376789 0.0002767119 -0.08653743 0.06415097 0.07689296 0.044474937
-0.08378511 0.0006610322 -0.015786864 0.0313679 -0.025850536 0.08512332 0.0036977117 0.05247989
-0.05261424 0.04201223 -0.04316011 0.034375202 0.036779758 0.04135222 -0.032738645 -0.039446913
0.04839621 0.03960176 -0.0012747959 0.051696613 -0.07357523 0.04840853 0.056912173 0.08430942
0.04578552 -0.05674932 -6.162674e-05 0.014322552 -0.08859516 0.059547376 0.08265518 -0.03456936
0.076436915 0.0058487216 -0.0005526156 0.0021135486 0.006445778 -0.014761776 0.036054954 0.07389142
-0.0024639873 0.04681611 -0.05135694 -0.053345878 -0.0872796 0.0018076142 0.0295087 0.005389811
-0.057666983 -0.0433474 -0.036117535 -0.08404372 -0.089417614 0.066228345 -0.050868426 0.045672607
-0.06840437 -0.075379886 -0.06396123 0.037938356 0.057045806 -0.069648765 -0.056153692 0.00085567735
-0.08877549 0.0468403 -0.056567367 -0.05184575 -0.0637611 -0.027488617 0.13656676 -0.0004828201
0.017935136 0.078297935 -0.051730826 -0.032205712 0.058998607 -0.05571731 -0.00269623 -0.0008582174
-0.0026155175 -0.008144502 -0.0068053836 -0.05428847 -0.067283705 -0.007670635 -0.010421022 0.06913891
0.11083733 0.07785177 -0.045737598 0.072185665 -0.0018961102 0.03831319 -0.015150315 0.12748069
00000000: b3ba 583d 1e7e acbd bd90 47bd af0a 3cbd
00000010: fc7c fabc bb45 5b3c 42d9 06b8 7502 92bc
00000020: d744 3c3d f9f0 8bbd 075f 0dbd 0fe1 8c3d
00000030: 2ace 76bd dfb5 00bb e4bf f039 d5a9 3eba
00000040: f514 d5bb 4c09 c5bb fa7c 30bd 4574 87bd
00000050: 61f2 aebb 6df0 d0bb 0b84 813d bc47 af3d
00000060: 502e 893d 3cad 65bd 370d 753c deec af39
00000070: fafe f43c 9252 05bd cee7 a23d 8723 773d
00000080: f1f6 5e3d 17c8 73bd 005a 9f3d 0dfc 36bd
00000090: ce4e 343d 8fc4 063d ceda 503d 74e8 81bd
000000a0: 5996 7cbd 6c5d ac3d a7f7 873d 830d 84bb
000000b0: ab2c 6c3d 79b1 99bd cf33 493d f54b 823d
000000c0: 689d 5b3c 1fc0 3d3c f12d bf3c 5d44 8ab8
000000d0: 8fc1 9d3c ec6c a3bd d582 5f3d 96e6 753d
000000e0: db15 42bd 2cb7 fb3c f5d1 2b3a 75ef 5db9
000000f0: 0f42 393a b6fd 2e3c 0f08 1a3c 9924 173d
00000100: bab2 1f3d 6c1e d93a c78c 373c 6863 95bd
00000110: af26 a2bd fe22 b8bd cb38 373d 0ba8 f73c
00000120: a6bb a7b8 add9 45bd d591 0c3d 52c2 58bd
00000130: 7929 8fbd 1954 95bd 134a 2a3d 6235 91bd
00000140: 0705 4b3d f841 9bbd 1837 8ebd b802 6bbd
00000150: 564a 973d 5293 443d b086 a5bd 38c0 83bd
00000160: b9a0 ac3a 9d04 9cbd b803 433d 52d0 adbd
00000170: 391a 4abd e814 9cbd bc28 17bd caa4 5c3c
00000180: 259c 223a ecc4 81bc 8f9e 123d c8cc acbd
00000190: 939c 31bd 936d 9d3d 59b8 87bd abd2 1eba
000001a0: de66 edb9 ca1e 7239 ceb7 1abc 9cbc dfbb
000001b0: 3e36 69bd b6a3 95bd fa09 e1ba 488c bdbc
000001c0: 0879 923d 89ee ad3d 963f 613d 72dd 85bd
000001d0: 2c0c a03c f436 32ba 802e b03c ef65 39bd
000001e0: 24b5 8f3d b61e 313d d64c f03c 609b 69bd
000001f0: e14e 623d bff4 8ebd bd96 7f3c 334b 063d
00000200: 589f 543d ae47 91bd ba91 a4bd f38a 9b3d
00000210: 1980 813d f3cc cfbb 6802 563d 630b 183d
00000220: 97c9 13bd 3212 85bc e8e4 63bd 2bbe 27bd
00000230: df8f 3f3c 451d 09b9 ccdb 3ebd 3ec8 713d
00000240: 3f1e 46bd 1fe5 22bc eaf6 093d 1272 3ebd
00000250: 57e6 9339 cec6 173a ea64 fc3b 1744 b73c
00000260: 5f90 f13c 2afd 38bd bd98 82bd a413 9139
00000270: 893a b1bd 9561 833d 0e7a 9d3d 5a2b 363d
00000280: 8797 abbd 1f49 2d3a 7453 81bc a17b 003d
00000290: 81c4 d3bc 2355 ae3d 4f55 723b 27f5 563d
000002a0: 0882 57bd 0415 2c3d a8c8 30bd 03cd 0c3d
000002b0: 5fa6 163d f260 293d f518 06bd 1693 21bd
000002c0: 1b3b 463d 7535 223d 0d17 a7ba d4bf 533d
000002d0: 9cae 96bd 0648 463d bd1c 693d 6baa ac3d
000002e0: 9989 3b3d fa71 68bd 9b3d 81b8 23a9 6a3c
000002f0: 6171 b5bd f3e7 733d 1e47 a93d 9a98 0dbd
00000300: f58a 9c3d a2a6 bf3b 68dd 10ba 7683 0a3b
00000310: 1b37 d33b 60db 71bc 5cae 133d 6354 973d
00000320: d97a 21bb 40c2 3f3d a85b 52bd 3581 5abd
00000330: a6bf b2bd 78ed ec3a 3bbc f13c 039d b03b
00000340: 3734 6cbd 0b8d 31bd fbef 13bd 1d1f acbd
00000350: 9520 b7bd baa2 873d 695b 50bd 3313 3b3d
00000360: 9717 8cbd c560 9abd 1bfe 82bd 4065 1b3d
00000370: dda8 693d 03a4 8ebd 6a01 66bd 894f 603a
00000380: edcf b5bd 9ddb 3f3d 2fb3 67bd 365c 54bd
00000390: 2e95 82bd cf2f e1bc 28d8 0b3e 0423 fdb9
000003a0: b5ec 923c ab5a a03d b4e3 53bd 23ea 03bd
000003b0: 86a8 713d d637 64bd 3cb3 30bb fff9 60ba
000003c0: 1a69 2bbb 8470 05bc b2ff debb 965d 5ebd
000003d0: 0acc 89bd f359 fbbb efbc 2abc b398 8d3d
000003e0: affe e23d c070 9f3d 5957 3bbd 14d6 933d
000003f0: e786 f8ba 4bee 1c3d 0739 78bc 4c8a 023e

net.3.bias f4 [45]
0.048315514 0.17055105 0.050353006 0.07149394 0.18403628 -0.0054487567 0.17740297 0.035933886
0.16469802 0.046996407 0.07038078 0.11613163 -0.007796157 0.11003449 0.053283516 0.1252512
0.188879 0.05916357 0.15361878 0.1647234 0.023902817 0.0897299 0.13315271 0.04936698
0.028153447 0.18989484 0.19609623 0.10420341 0.15365647 0.14845479 -0.023614783 -0.10586212
0.047673635 0.028476348 0.17326711 0.047290742 0.18314785 0.048013676 -0.0006678098 0.044437684
0.0832792 0.09711762 0.053845532 0.06730465 0.073828936
00000000: 7de6 453d efa4 2e3e f43e 4e3d 6a6b 923d
00000010: 0274 3c3e 7c8b b2bb 20a9 353e 692f 133d
00000020: 99a6 283e 4e7f 403d cc23 903d 6cd6 ed3d
00000030: e876 ffbb c359 e13d d13f 5a3d da41 003e
00000040: 7f69 413e 8055 723d 3e4e 1d3e 40ad 283e
00000050: d7cf c33c 4fc4 b73d 2f59 083e 0835 4a3d
00000060: 0fa2 e63c cb73 423e 73cd 483e 9968 d53d
00000070: 1f58 1d3e 8804 183e ca73 c1bc 3dce d8bd
00000080: 6e45 433d 3b47 e93c ef6c 313e f0b3 413d
00000090: 1c8b 3b3e fda9 443d f50f 2fba 4a04 363d
000000a0: 498e aa3d 9ae5 c63d 228d 5c3d 05d7 893d
000000b0: a033 973d
