bestclf/adult/a03.pth (torch, 47870 bytes, 15 tensors)

fc1.weight f4 [45, 95]
0	0x3c680d80	0.014163375
1	0x3c8eda61	0.017438116
2	0x3dc76c3c	0.09737441
3	0x3db066c9	0.08613355
4	0x3db48622	0.08814646
5	0x3cd4d5c9	0.025980847
6	0xbd452f3d	-0.048140753
7	0xb8cc1f5c	-9.733319e-05
8	0xbcb26835	-0.021778205
9	0x3d2e22bc	0.042513594
10	0xbddbb9e2	-0.10728814
11	0xbcbcaeca	-0.023032565
12	0x3c828d51	0.015936526
13	0xbba5fe44	-0.005065711
14	0xbc6847c8	-0.01417727
15	0xbcb48e15	-0.022040406
16	0xbcb872cc	-0.022515677
17	0x3c3eb1e8	0.011639096
18	0xbd19f44a	-0.037586488
19	0x3a564a80	0.00081745535
20	0xbabe8445	-0.0014535269
21	0x3dc286d7	0.09498375
22	0xbd0fd433	-0.03511448
23	0x3cf72c05	0.030172357
24	0x3c81194b	0.015759131
25	0x3d79a980	0.060952663
26	0x3d045215	0.032304842
27	0x3c70c71d	0.01469591
28	0x3d09d1c5	0.033647317
29	0x3c7add1e	0.0153115075
30	0x3b03d747	0.002011733
31	0xbb50119d	-0.003174878
32	0xbc8daeef	-0.017295329
33	0x3c000dd0	0.007815793
34	0x3b985cdf	0.004649743
35	0x3ce873b9	0.028375493
36	0xbd392ebc	-0.045210585
37	0xbc88fe12	-0.016722713
38	0xbb1a3863	-0.0023532144
39	0xbd6981c0	-0.057008505
40	0xbc93e946	-0.01805557
41	0x3d7760e9	0.060395155
42	0xbd4d1d43	-0.050076734
43	0xb89187ef	-6.9394584e-05
44	0x3d9b964a	0.07597025
45	0xbd948b16	-0.07253091
46	0xbb87a478	-0.0041394792
47	0xbd222873	-0.039589357
48	0xbd93eede	-0.07223295
49	0xbd078962	-0.033090003
50	0x3d5c3b33	0.053767394
51	0xbcf08ac2	-0.02936304
52	0xbd21c7cf	-0.039497193
53	0xbc69432f	-0.014237209
54	0x3cbbc2fe	0.022920128
55	0x3cc32a50	0.023823887
56	0xbd291435	-0.041279037
57	0xbca5e504	-0.020250805
58	0x3bb5820c	0.0055391844
59	0x3c9565e6	0.018237066
60	0xbc386d18	-0.011256479
61	0x3ca49c4d	0.020094061
62	0x3d0032a0	0.03129828
63	0xbbb3602c	-0.005474111
64	0x3c823bd4	0.015897669
65	0xbd08bc46	-0.033382677
66	0x3c186960	0.009302467
67	0xbc88e5a6	-0.016711067
68	0xba578cea	-0.0008222597
69	0xbac069b9	-0.0014679945
70	0xbc1f63b8	-0.009728365
71	0xbc95342e	-0.018213358
72	0xbcd4b5b4	-0.025965549
73	0x3b6692ef	0.0035182794
74	0x3ccb6316	0.024827521
75	0x3b64eda0	0.0034931675
76	0x3c50a2eb	0.012734155
77	0x3ba672b5	0.005079592
78	0x3c1d95f3	0.00961827
79	0xbca822c9	-0.0205244
80	0x3c66346e	0.014050586
81	0xbbc053df	-0.005869373
82	0x3b824053	0.003974953
83	0x3d5fa9c5	0.054605264
84	0xbbfdf6f6	-0.0077503873
85	0x3c26b773	0.010175574
86	0xbd291c3e	-0.0412867
87	0xbc7a0c69	-0.015261748
88	0xbbb03297	-0.0053771245
89	0x3cf4bfa6	0.029876541
90	0xbbed6c24	-0.0072455574
91	0xbbeb176c	-0.007174423
92	0xbc760eae	-0.015018148
93	0xbc9681d8	-0.018372461
94	0x3c474760	0.012163013
95	0xbc057df1	-0.008147703
96	0xbcb80c5c	-0.02246683
97	0xbce3813c	-0.027771585
98	0xbe12254d	-0.14272042
99	0xbbd39062	-0.0064564208
100	0x3b8b2225	0.0042460137
101	0x3db645cc	0.089000314
102	0xbbfa0be9	-0.0076308143
103	0x3ccf2fe7	0.025291396
104	0x3cc78cda	0.024359155
105	0x3cb16c04	0.021657951
106	0x3aa80ebc	0.0012821774
107	0x3c60212f	0.013679787
108	0x3d5f6fa1	0.054549817
109	0x3c3ab9da	0.0113968495
110	0x3d29b70a	0.041434325
111	0x3c8836d6	0.01662771
112	0xbc7a73b7	-0.015286378
113	0xbd15b833	-0.03655262
114	0xbc01063e	-0.007875023
115	0x3ce21f8b	0.027602931
116	0xbd769150	-0.060197175
117	0xbd7322a3	-0.059359204
118	0x3ccd24da	0.025041986
119	0xbc6a7a44	-0.014311377
120	0xbd4558d2	-0.04818041
121	0xbd246f37	-0.040145125
122	0xbc4d796e	-0.012541158
123	0xbda9d5b6	-0.08292715
124	0xbc9ccbd3	-0.01914016
125	0xbd1b9d37	-0.03799173
126	0x3c2c8f71	0.010532246
127	0x3ccc2bba	0.024923194
128	0xbca7064b	-0.020388743
129	0x3c606943	0.013696971
130	0xbd9fd7c7	-0.07804828
131	0x3d1fea13	0.03904159
132	0x3d48e13f	0.049042936
133	0x3d78e96d	0.060769487
134	0x3d631785	0.05544235
135	0x3b22c0e1	0.0024834203
136	0xbc379acf	-0.011206343
137	0xbdb00c87	-0.085961394
138	0xbd321e0c	-0.043485686
139	0x3c53edf4	0.01293515
140	0x3d893ca8	0.067010224
141	0x3d640b7a	0.055675007
142	0x3e07ba05	0.13254555
143	0x3d85622c	0.065128654
144	0x3d4e4705	0.0503607
145	0x3c114e10	0.008868709
146	0x39c49806	0.000374973
147	0x3d6c1c64	0.057644263
148	0xbbc2dbe3	-0.0059466227
149	0xbb839ef3	-0.004016751
150	0x3d4f0cd5	0.050549347
151	0x3d2609e8	0.04053679
152	0xbae67772	-0.0017583205
153	0x3d014a0a	0.03156475
154	0xbbb0585d	-0.0053816275
155	0xbb88c2f8	-0.0041736327
156	0xbb9b674e	-0.0047425395
157	0x3c2dccb9	0.010607892
158	0x3bc925cb	0.0061385385
159	0xbc77ffb5	-0.015136649
160	0x3d1c1f09	0.038115535
161	0xbd4d3078	-0.05009505
162	0x3cdb2969	0.026753144
163	0x3b22fe38	0.0024870764
164	0x3c3d88b8	0.011568241
165	0xbbdd1ffb	-0.006748197
166	0x3caedb1d	0.021344716
167	0x3b847fbd	0.004043548
168	0x3ce6cb88	0.028173223
169	0xbcf2714c	-0.02959504
170	0x3b9cdf51	0.0047873636
171	0x3a58bdc7	0.0008268025
172	0xba6235ba	-0.00086292217
173	0xbb26eb9b	-0.0025470022
174	0x3d3d6207	0.046236064
175	0x3c4335b5	0.01191466
176	0x3cc11e63	0.02357406
177	0xbb2d9596	-0.0026486865
178	0x3babca1d	0.0052425996
179	0xbc0458c6	-0.008077806
180	0xbc54431f	-0.012955456
181	0x3d4a900f	0.04945379
182	0xbc4d59cb	-0.012533615
183	0x3bc59d41	0.006030709
184	0xbc0c9511	-0.008580462
185	0xbc0fa0e2	-0.008766385
186	0x3c45d6b5	0.012075116
187	0x3d446532	0.04794807
188	0x3cf0823a	0.029358972
189	0x3aab52f0	0.0013070982
190	0x3c5d30d1	0.013500408
191	0xbc7609e5	-0.0150170075
192	0x3cf6c617	0.030123753
193	0xbd0b3f73	-0.033996057
194	0x3b118290	0.0022203065
195	0xba43e01d	-0.0007472055
196	0x3c8dd512	0.017313514
197	0xbcc2cc45	-0.023779044
198	0x3cdd5415	0.027017632
199	0x3b740c57	0.00372388
200	0x3ce8ed34	0.02843342
201	0x3bd0af5d	0.006368561
202	0xbbf21164	-0.007387327
203	0x3c7e86a3	0.01553503
204	0xba6ef91b	-0.0009116099
205	0xbc048d4f	-0.008090331
206	0xbc86c39a	-0.016450692
207	0xbae48b22	-0.0017436484
208	0x3d34be47	0.044126775
209	0xbcdd680e	-0.027027156
210	0x3c933353	0.01796881
211	0xbd251035	-0.04029866
212	0xbbf6650c	-0.00751937
213	0x3d3b3d1e	0.045712583
214	0xba41fddc	-0.0007400194
215	0x3bf5c12a	0.0074998336
216	0xbb629902	-0.0034576063
217	0x3a973f87	0.0011539318
218	0xbd0176c3	-0.0316074
219	0xbc362aa8	-0.0111185685
220	0x3d2de9ab	0.04245917
221	0xbcd62f54	-0.026145615
222	0xbc5b6eca	-0.013393113
223	0xbc1ddf6a	-0.009635786
224	0xbbfb14c9	-0.00766239
225	0xbd166530	-0.036717594
226	0x3c73e5e4	0.014886353
227	0xbcc72aaa	-0.024312336
228	0x3d2bd21e	0.04194843
229	0xbd49d386	-0.04927399
230	0x3c5a0b70	0.013308391
231	0x3b914ea0	0.0044344217
232	0xbd16f0e9	-0.036850844
233	0xbb6d204f	-0.0036182588
234	0x3c73a63f	0.014871179
235	0x3c0750ec	0.008259039
236	0xbb926857	-0.0044680047
237	0x3cff3c72	0.031156752
238	0x3d24b20e	0.04020887
239	0xb883e621	-6.2894316e-05
240	0xbc21c885	-0.009874468
241	0x3c8912b6	0.016732555
242	0x3be3af3e	0.0069483807
243	0xbb4b5dbc	-0.0031031212
244	0xbb84d012	-0.004053124
245	0x3c9f0512	0.019411597
246	0x3cb3be49	0.021941321
247	0x3b40fbf2	0.0029447046
248	0x3c23d443	0.009999338
249	0xbc246db4	-0.010035921
250	0xba0e79f1	-0.0005435041
251	0xbc9aa6fb	-0.01887845
252	0x3b1f5b8a	0.0024316036
253	0x3bd4763f	0.0064838226
254	0xbc289164	-0.01028857
255	0x3b41f929	0.0029597974

fc1.bias f4 [45]
0	0xbd5ad574	-0.05342622
1	0x3dcf2f76	0.10116474
2	0x3c55564f	0.013021066
3	0x3ddcf7aa	0.10789426
4	0x3cf513aa	0.029916603
5	0x3d5ce580	0.053929806
6	0xbc82317a	-0.015892733
7	0xbcacde86	-0.021102201
8	0xbc540101	-0.0129396925
9	0x3de98ae1	0.11403442
10	0x3c3c9124	0.011509214
11	0xbd493237	-0.049120154
12	0x3dbd6ec0	0.092496395
13	0xbd05e1a1	-0.03268588
14	0xbc869813	-0.016429937
15	0xbd0eead1	-0.034891907
16	0xbc8495ba	-0.016184676
17	0xbd1ef2ab	-0.038805645
18	0xbd10e5a1	-0.03537524
19	0x3d802ebe	0.06258915
20	0xbd196228	-0.037447125
21	0x3d9a89c8	0.07545811
22	0xbdf6b7cd	-0.12046776
23	0xbd3b7f28	-0.045775563
24	0xbd9ec829	-0.07753021
25	0x3d68814e	0.05676394
26	0x3ca6723a	0.02031814
27	0xbc60573b	-0.013692672
28	0xbd3305b5	-0.043706615
29	0x3d54307f	0.051804062
30	0xbd9006b7	-0.07032531
31	0xbd877011	-0.06613172
32	0xbdb68033	-0.08911171
33	0x3d8f79a8	0.07005626
34	0xbda3cc51	-0.07997955
35	0x3d5f22a3	0.05447639
36	0xbcf2150f	-0.029551057
37	0xbd8f87f0	-0.0700835
38	0xbd0b3d10	-0.03399378
39	0x3cdf5f28	0.027267054
40	0x3d43b9ff	0.0477848
41	0xbb3d5b67	-0.0028893591
42	0xbcee072b	-0.029056152
43	0x3cb57069	0.022148328
44	0xbd8362da	-0.06415339

fc2.weight f4 [45, 45]
0	0x3ac95bf5	0.0015362488
1	0xbb365953	-0.0027824237
2	0x3a7a5a2c	0.000955018
3	0xba9217a4	-0.0011145961
4	0xba3ff7cf	-0.0007322998
5	0xba09c4d6	-0.0005255466
6	0x3a3058e3	0.00067271123
7	0xbae8c8cb	-0.0017760036
8	0x39ffacd8	0.0004876617
9	0xbb22b448	-0.0024826694
10	0xba463ff7	-0.0007562632
11	0x3ab1398c	0.0013521179
12	0xba3d40cf	-0.0007219435
13	0x3b0a9fe6	0.0021152436
14	0x3a4a7040	0.0007722415
15	0xb8aa9879	-8.134632e-05
16	0xb8e002dd	-0.00010681686
17	0xba6b7b66	-0.00089829264
18	0x3698f8e8	4.5589295e-06
19	0xbb2a927a	-0.0026027248
20	0xb9996ce8	-0.00029263576
21	0xba2ff2a2	-0.00067118753
22	0x3ab708b2	0.0013964383
23	0x3b3d43fa	0.0028879629
24	0x3a8720c5	0.0010309449
25	0xba71703d	-0.0009210145
26	0x3a01b72c	0.0004948254
27	0x3a43264e	0.00074443675
28	0x3a0866f3	0.0005203329
29	0xba8a6fc9	-0.0010561879
30	0x3ada835e	0.001667123
31	0x38dbf8ec	0.00010489099
32	0x3af28222	0.0018501917
33	0xb9cfb519	-0.00039617045
34	0x3b107fb7	0.002204878
35	0xba5540a6	-0.00081349385
36	0x3aac13d3	0.0013128467
37	0x3b123ffd	0.0022315972
38	0x3adc2343	0.0016795177
39	0x3a8c6996	0.0010712619
40	0xba4b6b30	-0.00077598076
41	0xbab1a7a8	-0.0013553994
42	0x3ada77b0	0.001666775
43	0xba8758af	-0.0010326112
44	0x3a96e714	0.0011512958
45	0xbd78e15d	-0.0607618
46	0x3d66b89a	0.056328394
47	0x3d0a8b1c	0.03382407
48	0x3ca67562	0.020319644
49	0x3d2aaa42	0.041666277
50	0x3c609117	0.013706467
51	0x3a35fdda	0.0006942429
52	0x3d221abf	0.03957629
53	0xbd73cd1d	-0.059521783
54	0x3d67a461	0.05655325
55	0x3d8a3e55	0.0675017
56	0x3b85de7f	0.0040853615
57	0x3d36bff8	0.04461667
58	0xbd1bcba4	-0.038036004
59	0x3ac5c47d	0.0015088465
60	0x3a6a9d47	0.0008949828
61	0x3b8734d7	0.004126172
62	0xbaba7a22	-0.0014227072
63	0x3d4d60af	0.050141033
64	0x3d2f44c3	0.042790186
65	0x3b758dd4	0.003746857
66	0x3d110f02	0.035414703
67	0xbd8666d3	-0.06562581
68	0xbd580224	-0.052736416
69	0xbd81ab6f	-0.063315265
70	0x3d061742	0.032737024
71	0x3c764b3a	0.015032584
72	0x3a325bc8	0.00068038376
73	0xbd2e5c76	-0.042568646
74	0x3ce6d753	0.028178846
75	0xbd336620	-0.043798566
76	0xbd788822	-0.0606767
77	0xbd844acd	-0.064595796
78	0x3cf07bf0	0.029355973
79	0xbd7dcf64	-0.06196536
80	0x3d1dc47e	0.038517468
81	0xbd15c8d5	-0.03656848
82	0xbd6ff1e8	-0.05858031
83	0xbcb7fe07	-0.022459997
84	0x3c21ed97	0.009883306
85	0x3d454c15	0.04816826
86	0x38852bd7	6.3501e-05
87	0xbd6dfb8d	-0.058101226
88	0x3b7de34f	0.0038740223
89	0xbd821c39	-0.06353039
90	0x3c822b7e	0.01588988
91	0xbc692f90	-0.014232531
92	0xbb5e738c	-0.0033943383
93	0xbc5179d2	-0.012785392
94	0xbc7f29bb	-0.015573914
95	0x3c08771d	0.00832918
96	0xb9458337	-0.00018836265
97	0xbc07b7f1	-0.008283601
98	0x3c7b0da4	0.015323076
99	0xbc575e2d	-0.013145012
100	0xbc482f53	-0.012218314
101	0x3b34a27c	0.0027562669
102	0xbc2caa36	-0.010538628
103	0x3c235a85	0.009970312
104	0x39c82539	0.00038174706
105	0x3a8b36f0	0.0010621231
106	0xbaec0782	-0.0018007609
107	0xba83ab26	-0.0010045513
108	0xbb8306d9	-0.003998619
109	0xbca946f9	-0.020663725
110	0xbad37667	-0.0016133309
111	0xbca7870b	-0.020450136
112	0x3c7a71ea	0.015285948
113	0x3c87215e	0.016495403
114	0x3c753362	0.014965864
115	0xbb854189	-0.0040666503
116	0xbb18e6ca	-0.002333092
117	0xba05ec0b	-0.00051087205
118	0x3c6e66dc	0.014550891
119	0xbc431d31	-0.011908815
120	0x3c5e2d0a	0.013560543
121	0x3c5d4d57	0.013507209
122	0x3c299efc	0.010352846
123	0xbc2a1cfb	-0.010382886
124	0x3c741c84	0.014899377
125	0xbc98daed	-0.01865908
126	0x3c3e1fcc	0.011604261
127	0x3c42e2ca	0.011894891
128	0x3b921497	0.004458021
129	0xb9986706	-0.00029068458
130	0xbc78fe22	-0.015197309
131	0x3a910600	0.001106441
132	0x3c835179	0.01603006
133	0xba304ca2	-0.00067252864
134	0x3c68b353	0.0142029105
135	0x3d0b5fac	0.034026787
136	0xbd30a09b	-0.043121915
137	0x3cb2234e	0.02174535
138	0xbd6b53db	-0.057453018
139	0xbd71bd86	-0.059018634
140	0x3cb41af6	0.021985512
141	0xbaab22fc	-0.0013056691
142	0xbd3725d6	-0.044713818
143	0x3d349556	0.04408773
144	0xbd3511e2	-0.044206508
145	0xb9801486	-0.00024429354
146	0xba94f0ac	-0.001136323
147	0xbd4d61f5	-0.050142247
148	0x3d25cc4f	0.040478047
149	0x3ab390ce	0.0013699771
150	0x3c8490bc	0.016182296
151	0x3d0fd9b0	0.035119712
152	0x3d25da91	0.040491644
153	0xbd3bd7a5	-0.04585995
154	0xbd8e3e29	-0.0694545
155	0x3b4291ca	0.0029688948
156	0xbdd5a081	-0.10431004
157	0x3d8e2cae	0.06942116
158	0x3d688779	0.05676982
159	0x3d14b1bb	0.03630231
160	0xbdcb46f8	-0.099256456
161	0xbc05df2b	-0.008170883
162	0xbd0f0066	-0.03491249
163	0x3cc14b08	0.023595348
164	0xbccf67f5	-0.025318125
165	0x3dd4714d	0.10373173
166	0xbb1883e2	-0.0023271968
167	0x3da4fc8c	0.08055982
168	0xbd850f70	-0.06497085
169	0x3d3cc23c	0.046083674
170	0xbd14d8bb	-0.036339503
171	0x3c4760b2	0.01216905
172	0x3d04f4a3	0.032459866
173	0x3c044421	0.008072884
174	0xbcbcb8d9	-0.023037361
175	0xbd15d600	-0.03658104
176	0xba777c4a	-0.0009440823
177	0x3cfcf3d9	0.030877994
178	0xba984701	-0.001161784
179	0x3d34943c	0.04408668
180	0xbd706762	-0.058692344
181	0x3d19b0d1	0.03752214
182	0x3cbc5b44	0.022992738
183	0x3da7bf99	0.08190841
184	0x3d271494	0.04079111
185	0xbd9d127c	-0.07669541
186	0xbab6c787	-0.0013944962
187	0xbb2f6ddb	-0.002676836
188	0xbd6e1451	-0.058124844
189	0x3d60037d	0.054690827
190	0x3db3dddb	0.0878255
191	0x3adcb40c	0.0016838326
192	0x3d6ae48f	0.057346877
193	0xbd3c13d5	-0.04591735
194	0xb96ee2c2	-0.00022781923
195	0x3ba8f19f	0.0051557566
196	0x3ba4d7ea	0.005030622
197	0xbcd98adf	-0.026555477
198	0x3cb05549	0.021525042
199	0x3d5cec50	0.053936303
200	0xbbb4b38f	-0.005514569
201	0x3d339044	0.043838754
202	0xbd4808d6	-0.04883655
203	0xbd198bf4	-0.037486985
204	0xbd846b0a	-0.064657286
205	0xbca47b60	-0.020078361
206	0x3c3968ae	0.0113164615
207	0x3c87a632	0.01655874
208	0xbd0b38a5	-0.033989567
209	0xbd82e7f3	-0.06391897
210	0xbd09d35a	-0.033648826
211	0xbdb845b1	-0.089976676
212	0xbdc1e481	-0.09467412
213	0x3d3df024	0.046371594
214	0xbd613f1b	-0.054991823
215	0x3cbe35b9	0.023218976
216	0xbd16357d	-0.036672104
217	0xbd828f71	-0.063750155
218	0xbc6be4ff	-0.014397859
219	0xbb342646	-0.0027488633
220	0x3d453bcc	0.04815273
221	0xbad3b700	-0.0016152561
222	0xbd0b7e37	-0.034055915
223	0x3b653d67	0.0034979226
224	0xbd59b42d	-0.053150345
225	0x3d8e8d22	0.06960513
226	0xbd8c31bd	-0.06845424
227	0xbca4c43b	-0.020113101
228	0xbd579a2d	-0.052637268
229	0xbd26abcf	-0.040691193
230	0x3e0bd867	0.1365677
231	0xbb19cc9c	-0.0023467904
232	0x3cb66fc4	0.02227009
233	0x3db570fb	0.0885944
234	0xbcb02924	-0.021503992
235	0xbd47aa0e	-0.04874616
236	0xbba00b90	-0.004884191
237	0xbd08e95a	-0.033425666
238	0x3ded7f83	0.115965866
239	0xbb3d9515	-0.002892797
240	0xbabda36b	-0.0014468258
241	0xbc038982	-0.00802839
242	0xbb525f4d	-0.003210026
243	0xbd1bade1	-0.03800762
244	0xbd897412	-0.06711592
245	0xbba5ef19	-0.005063903
246	0xbcbcc3a8	-0.023042515
247	0x3d672701	0.05643368
248	0x3dbe31ea	0.09286864
249	0x3d9251c7	0.07144504
250	0xbcafb241	-0.021447303
251	0x3aa070b4	0.0012240619
252	0xbb43310f	-0.002978388
253	0x3d92991c	0.071581095
254	0xbc65f123	-0.014034542
255	0x3e09419b	0.13403933

fc2.bias f4 [45]
0	0xbc08f3ee	-0.008358939
1	0x3e188da3	0.1489778
2	0x3c3a5d8f	0.011374845
3	0x3d99407d	0.07483003
4	0x3e2b68e4	0.16739231
5	0xbd414729	-0.047187004
6	0x3e21b19c	0.15790409
7	0x3cbdacf6	0.023153763
8	0x3e14fa3e	0.14548585
9	0x3d0feabc	0.03513597
10	0x3d921bed	0.07134233
11	0xbcc07b7f	-0.023496388
12	0xbc13a01a	-0.009010339
13	0x3da0e7b1	0.07856692
14	0x3c37baa0	0.011213928
15	0x3d1372dc	0.03599821
16	0x3e3939fc	0.18088526
17	0x3d6abe29	0.057310257
18	0x3b1533bd	0.0022766434
19	0x3e09d444	0.13459879
20	0x3cac8a95	0.021062175
21	0x3d8bae89	0.06820399
22	0x3da8975e	0.08231996
23	0x3d4f7e38	0.05065748
24	0x3cbe84fc	0.023256771
25	0x3e376079	0.17907895
26	0x3e3b2819	0.18277015
27	0x3d981c6d	0.07427297
28	0x3df807a7	0.121108346
29	0x3deb1126	0.1147788
30	0xbcd2f6f6	-0.025752526
31	0xbd563fd9	-0.052306984
32	0x3d026a0f	0.031839427
33	0xbacf494d	-0.0015814692
34	0x3e1550a8	0.14581549
35	0x3d0997b9	0.03359196
36	0x3e25a19b	0.16174929
37	0x3cf60f83	0.030036693
38	0xbcd2ce3c	-0.025733106
39	0xbb6fa16c	-0.003656472
40	0x3daf7aff	0.085683815
41	0x3d937e61	0.07201839
42	0x3d5c0101	0.053711895
43	0x3d112886	0.035439037
44	0x3da10126	0.07861547

out.weight f4 [1, 45]
0	0x3c8dda27	0.017315937
1	0xbdf82a1c	-0.12117407
2	0x3d38b91e	0.045098417
3	0x3def8ba9	0.1169656
4	0xbe0c318d	-0.13690777
5	0x3e63f44b	0.22261159
6	0xbe177829	-0.14791931
7	0x3e5c5938	0.21518409
8	0xbe0085bd	-0.12551017
9	0x3e43b49a	0.19111863
10	0x3e12c230	0.14331889
11	0x3d1dc009	0.038513217
12	0x39be10c1	0.00036252107
13	0xbe17810b	-0.1479532
14	0x3e7140f2	0.23559931
15	0xbdafa235	-0.085758604
16	0xbe057d4f	-0.13036083
17	0x3e2c1984	0.16806608
18	0x3bf82696	0.007572959
19	0xbe1138ce	-0.14181826
20	0x3da6b655	0.08140246
21	0xbe1c9218	-0.15290105
22	0xbdd852ad	-0.10562644
23	0x3e0fb576	0.14034066
24	0x3dbf589a	0.09343071
25	0xbe238638	-0.15969169
26	0xbdfa3e21	-0.122188814
27	0xbe264bde	-0.16239879
28	0xbe01d545	-0.12679012
29	0xbe056841	-0.13028051
30	0x3bdc98eb	0.0067320964
31	0x3de85dfc	0.11346051
32	0x3e6012c9	0.21882166
33	0x3d98951a	0.07450314
34	0xbe03636b	-0.12830894
35	0x3e72c513	0.2370799
36	0xbe41a9fc	-0.189125
37	0x3e66ddd4	0.22545558
38	0x3e2fd0c5	0.17169483
39	0x3e665492	0.22493199
40	0x3dcd3365	0.10019568
41	0xbe1c2783	-0.15249448
42	0x3d29631b	0.04135428
43	0x3e84800e	0.25878948
44	0x3dc5c67e	0.09657

sep_conn.weight f4 [45, 95]
0	0x3cd4255e	0.025896724
1	0xbb33f5b6	-0.0027459688
2	0x3db3d371	0.087805636
3	0xbc2ebfd6	-0.010665854
4	0x3d8c7adb	0.0685937
5	0xbcccbffa	-0.024993885
6	0x3d7c4f5a	0.061599113
7	0xbd81cb23	-0.063375734
8	0x3d641667	0.055685427
9	0xbb070222	-0.0020600636
10	0xbd868ddf	-0.065700285
11	0x3b8d0205	0.0043032193
12	0xbd2b528c	-0.04182677
13	0x3dbe7709	0.09300048
14	0xbd40304e	-0.046921067
15	0xbd4f3de1	-0.05059612
16	0xbba4609b	-0.005016399
17	0xbdae016a	-0.084963635
18	0x3dbb29b8	0.091388166
19	0x3ce963d2	0.02848998
20	0x3dc0d09a	0.094147876
21	0xbdbeec83	-0.09322455
22	0x3db299cd	0.087207414
23	0x3b1a2389	0.0023519716
24	0x3be0c1e4	0.006859051
25	0x3dce807a	0.10083099
26	0x3ba1724e	0.0049269563
27	0xbd369e68	-0.04458466
28	0xbd498755	-0.04920133
29	0xbdaaff7a	-0.083495095
30	0xbc97f1bd	-0.018547887
31	0xbdb3f6ef	-0.08787333
32	0xbd7a439a	-0.061099626
33	0x3d9dd078	0.07705778
34	0x3dae5084	0.08511451
35	0x3db1fbe2	0.08690621
36	0x3da8b33d	0.08237312
37	0xbc7a0d5a	-0.015261972
38	0x3d970dd9	0.07375688
39	0x3da78fd0	0.08181727
40	0xbdb79572	-0.08964051
41	0xbdb71ab5	-0.08940641
42	0xbd9e1d73	-0.07720461
43	0x3d99d4db	0.07511302
44	0x3d53782b	0.051628273
45	0xbdc981fe	-0.09839247
46	0xbd334f94	-0.043777063
47	0x3dce4d48	0.10073334
48	0x3ba72b4d	0.0051015974
49	0x3d0d9682	0.034567364
50	0xbd014d5f	-0.031567927
51	0xbd5fa03b	-0.054596167
52	0x3d636d2e	0.055524044
53	0xbc97301c	-0.018455558
54	0xbd3f0dea	-0.04664413
55	0xbb0eb6ae	-0.0021776366
56	0xbd58a960	-0.052895904
57	0x3d8b4904	0.06801036
58	0x3bdd78e5	0.0067587965
59	0x3d3680fd	0.044556607
60	0x3d2d25ff	0.042272564
61	0x3d90aef4	0.0706462
62	0xbd862a04	-0.065509826
63	0x3d41d453	0.04732163
64	0x3cf49962	0.029858295
65	0x3d8f3d4e	0.06994115
66	0x3db41f81	0.087950714
67	0x3dc741a8	0.0972932
68	0xbd2db4bf	-0.0424087
69	0xbd4f18ba	-0.05056069
70	0x3da7f447	0.08200889
71	0x3d151b5f	0.036403056
72	0xbc3747f0	-0.011186585
73	0xbcd9b91e	-0.026577529
74	0xbd85f032	-0.06539954
75	0x3d0f3484	0.034962192
76	0xbccc9ff1	-0.02497861
77	0xbda46f52	-0.08029045
78	0xbc3458df	-0.011007517
79	0xbc5a18de	-0.013311593
80	0x3cd95092	0.026527677
81	0xbda46c1a	-0.08028431
82	0x3d39655f	0.04526269
83	0x3d3ae683	0.04562999
84	0x3d1ba68c	0.03800063
85	0x3d93be55	0.07214037
86	0xbd466f02	-0.04844571
87	0x3d35a75a	0.044349052
88	0x3db8961e	0.090130076
89	0x3d5ec7fb	0.054389935
90	0x3ceea951	0.02913347
91	0x3c5dd6ed	0.013540012
92	0x3cbd04db	0.023073604
93	0xbdbcfdde	-0.09228109
94	0x3d0d1532	0.03444404
95	0x3c5ae766	0.013360834
96	0xbc97e4dc	-0.018541746
97	0x3c581015	0.013187428
98	0x3d7bd2c2	0.06148029
99	0xbdaa87f4	-0.08326712
100	0x3da34589	0.07972247
101	0xbdbc7621	-0.09202219
102	0xbd0030c3	-0.031296503
103	0x3db681b2	0.08911456
104	0xbdad0349	-0.08447892
105	0x3b404ada	0.002934149
106	0x3c7e559c	0.015523341
107	0x3d2cc20a	0.042177238
108	0x3d433a75	0.04766317
109	0x3cb15f5d	0.021651918
110	0xbc119233	-0.008884954
111	0x3dbe1e3d	0.09283111
112	0x3d53d816	0.051719747
113	0x3d77d52a	0.060506023
114	0x3cf2775b	0.029597929
115	0x3d09c4bc	0.033634886
116	0xbd96fec9	-0.07372815
117	0xbd3396f6	-0.04384514
118	0x3cb342f5	0.021882514
119	0x3c4b5bd5	0.012412031
120	0xbd9eb2b1	-0.077489264
121	0x3d695f4f	0.05697566
122	0xbd439186	-0.047746204
123	0xbda90f89	-0.08254916
124	0xbd6d0880	-0.057869434
125	0xbd366aa2	-0.044535287
126	0x3c87a3ee	0.01655766
127	0x3d940c9f	0.0722897
128	0xbd90cc02	-0.070701614
129	0x3ceb4e0f	0.028723745
130	0x3c8ffaea	0.0175757
131	0xbd4224e7	-0.047398474
132	0xbc129728	-0.008947171
133	0xbda374a4	-0.07981232
134	0xbbcabc24	-0.006186979
135	0x3d4d0800	0.050056458
136	0x3d69edeb	0.057111662
137	0x3dc04644	0.09388402
138	0xba2e9127	-0.00066592026
139	0x3d9e7d50	0.07738745
140	0x3dcf4f27	0.10122519
141	0xbd9aff36	-0.07568209
142	0x3d9fab16	0.07796304
143	0x3d66a3ed	0.056308676
144	0xbd7598bc	-0.059960112
145	0xbd19cd9c	-0.0375496
146	0x3d7db3b0	0.06193894
147	0x3db34b7e	0.08754633
148	0x3d8d2b50	0.06893027
149	0xbc9b20f4	-0.018936612
150	0x3d861768	0.06547433
151	0x3d0b5920	0.034020543
152	0xbd662d28	-0.056195408
153	0xbd9b14b1	-0.07572306
154	0xbd611547	-0.054951932
155	0x3db02858	0.08601445
156	0x3c832c73	0.016012406
157	0xbdb9e853	-0.090775155
158	0xbaeb9a65	-0.001797509
159	0x3d6d8656	0.05798944
160	0xbd2fc255	-0.04290994
161	0xbccb5817	-0.024822278
162	0x3dd0cba6	0.10195093
163	0xbcc508d0	-0.024052054
164	0xbc55798e	-0.013029469
165	0x3d817e2d	0.06322894
166	0x3d46e261	0.048555735
167	0x3dc5830c	0.09644136
168	0x3dbe8f5d	0.09304688
169	0x3d221a5c	0.03957592
170	0xbc9b623b	-0.018967738
171	0xbd7fc863	-0.062446963
172	0xbb84d84f	-0.0040541063
173	0xbca7910d	-0.020454908
174	0x3d0c30b6	0.034226142
175	0xbd91e7c8	-0.07124287
176	0xbd410d39	-0.04713175
177	0x3d7bf759	0.061515186
178	0xbdb1b2a1	-0.08676649
179	0x3dbc3e42	0.09191562
180	0x3d14ad94	0.03629835
181	0xbdc6f017	-0.09713762
182	0xbd419302	-0.04725934
183	0x3d94f102	0.07272531
184	0xbdc5914f	-0.09646856
185	0xbd453702	-0.048148163
186	0xbcd333b9	-0.0257815
187	0xbc72d43b	-0.0148211075
188	0x3c03fbe1	0.008055658
189	0xbdb80a9c	-0.089863986
190	0x3ca0d689	0.019633548
191	0x3dc3628e	0.09540282
192	0x3d8405e3	0.06446435
193	0xbc780dda	-0.015140021
194	0xbc981484	-0.01856447
195	0x3d235ae0	0.039881587
196	0x3db916ca	0.0903755
197	0x3d55e4cc	0.05222015
198	0x3d2fb37b	0.042895775
199	0xbc2853c2	-0.010273876
200	0x3dc17a7d	0.09447191
201	0xbd4abd3e	-0.04949688
202	0x3a882f27	0.0010390029
203	0xbba10da8	-0.004914958
204	0x3dc06f3a	0.09396215
205	0x3d2e6075	0.042572457
206	0xbcb0997a	-0.021557558
207	0x3d86c890	0.06581223
208	0xbd3a5207	-0.045488384
209	0xbc6e269c	-0.014535572
210	0xbda37cbe	-0.07982777
211	0x3bafcb1a	0.0053647878
212	0xbdb3f332	-0.0878662
213	0x3db5da7c	0.08879563
214	0x3db07e07	0.08617788
215	0x3c383c7b	0.011244888
216	0xbdb3db70	-0.08782089
217	0xbd2df37d	-0.042468537
218	0xbd6ad972	-0.05733628
219	0x3d85f715	0.06541268
220	0xbdc633c7	-0.096778445
221	0x3dc3934b	0.09549578
222	0xbda1263e	-0.07868622
223	0x3dabc071	0.08386315
224	0x3d18bcb7	0.037289347
225	0xbdb96131	-0.09051741
226	0x3da211b8	0.07913536
227	0xbd2ea5de	-0.042638652
228	0xbd4da452	-0.050205536
229	0x3dc0271c	0.093824595
230	0x3d77049f	0.06030714
231	0xbcd43825	-0.025905678
232	0xbba013ef	-0.004885189
233	0x3d3dc1a3	0.046327244
234	0xbdacfe0f	-0.08446895
235	0xbcc789b1	-0.024357649
236	0xbcca7af0	-0.024716824
237	0xbd8abe72	-0.06774606
238	0x3daf668a	0.0856448
239	0xbd8172e8	-0.06320745
240	0x3d0804b1	0.0332076
241	0xbdc75e27	-0.09734755
242	0x3c58fce1	0.013243885
243	0xbb86ad49	-0.0041100127
244	0x3d86e28f	0.06586181
245	0x3da323ca	0.079658106
246	0x3a924971	0.0011160803
247	0x3da7d2db	0.08194514
248	0xbacada19	-0.0015476375
249	0xbd9bdd44	-0.076105624
250	0x3d3fc590	0.04681927
251	0x3d6be5e4	0.057592288
252	0xbd988337	-0.07446902
253	0xbdb946a2	-0.09046675
254	0xbd847d99	-0.06469268
255	0x3db3675d	0.08759949

sep_conn.bias f4 [45]
0	0x3ce6dfd7	0.028182907
1	0xbc4cc708	-0.012498625
2	0x3dce0f02	0.10061456
3	0x3db53835	0.08848611
4	0xbd355267	-0.044268038
5	0x3dac8a82	0.08424856
6	0xbbf3a505	-0.0074354433
7	0xbdb65961	-0.089037664
8	0xbd70fc0a	-0.058834113
9	0x3db77734	0.08958283
10	0xbd3e6f14	-0.04649265
11	0x3d8c0eb6	0.068387434
12	0x3d99146a	0.07474597
13	0xbd12da80	-0.03585291
14	0x3d0356b2	0.0320651
15	0xbce07cca	-0.027403254
16	0x3bcfe493	0.006344387
17	0xbd56d235	-0.052446563
18	0xbdc6e31b	-0.09711286
19	0xbd1d40f4	-0.038392022
20	0x3d8e0fff	0.06936645
21	0xbd4f9644	-0.050680414
22	0xbc90b076	-0.017662268
23	0xbdb5373a	-0.08848424
24	0xbc743ac3	-0.014906588
25	0xbbe5c250	-0.0070116892
26	0x3cd271b0	0.025688976
27	0x3d02831a	0.03186331
28	0xbd56e56f	-0.0524649
29	0xbd562355	-0.05227979
30	0xbd9f4b5b	-0.07778045
31	0x3d6a241a	0.057163335
32	0xbccaddd8	-0.024763986
33	0x3c47da4f	0.012198045
34	0xbd924280	-0.0714159
35	0xbcc27557	-0.023737593
36	0xbda15324	-0.07877186
37	0x3d37d7e5	0.044883627
38	0xbcd262ae	-0.02568182
39	0x3b90b7fa	0.004416463
40	0xbd77812d	-0.060425926
41	0xbbbd4a4a	-0.005776678
42	0x3dccb86e	0.09996115
43	0x3dad1121	0.08450533
44	0xbd1f38d6	-0.038872562

bn.weight f4 [45]
0	0x3f800000	1.0
1	0x3f800000	1.0
2	0x3f800000	1.0
3	0x3f800000	1.0
4	0x3f800000	1.0
5	0x3f800000	1.0
6	0x3f800000	1.0
7	0x3f800000	1.0
8	0x3f800000	1.0
9	0x3f800000	1.0
10	0x3f800000	1.0
11	0x3f800000	1.0
12	0x3f800000	1.0
13	0x3f800000	1.0
14	0x3f800000	1.0
15	0x3f800000	1.0
16	0x3f800000	1.0
17	0x3f800000	1.0
18	0x3f800000	1.0
19	0x3f800000	1.0
20	0x3f800000	1.0
21	0x3f800000	1.0
22	0x3f800000	1.0
23	0x3f800000	1.0
24	0x3f800000	1.0
25	0x3f800000	1.0
26	0x3f800000	1.0
27	0x3f800000	1.0
28	0x3f800000	1.0
29	0x3f800000	1.0
30	0x3f800000	1.0
31	0x3f800000	1.0
32	0x3f800000	1.0
33	0x3f800000	1.0
34	0x3f800000	1.0
35	0x3f800000	1.0
36	0x3f800000	1.0
37	0x3f800000	1.0
38	0x3f800000	1.0
39	0x3f800000	1.0
40	0x3f800000	1.0
41	0x3f800000	1.0
42	0x3f800000	1.0
43	0x3f800000	1.0
44	0x3f800000	1.0

bn.bias f4 [45]
0	0x00000000	0.0
1	0x00000000	0.0
2	0x00000000	0.0
3	0x00000000	0.0
4	0x00000000	0.0
5	0x00000000	0.0
6	0x00000000	0.0
7	0x00000000	0.0
8	0x00000000	0.0
9	0x00000000	0.0
10	0x00000000	0.0
11	0x00000000	0.0
12	0x00000000	0.0
13	0x00000000	0.0
14	0x00000000	0.0
15	0x00000000	0.0
16	0x00000000	0.0
17	0x00000000	0.0
18	0x00000000	0.0
19	0x00000000	0.0
20	0x00000000	0.0
21	0x00000000	0.0
22	0x00000000	0.0
23	0x00000000	0.0
24	0x00000000	0.0
25	0x00000000	0.0
26	0x00000000	0.0
27	0x00000000	0.0
28	0x00000000	0.0
29	0x00000000	0.0
30	0x00000000	0.0
31	0x00000000	0.0
32	0x00000000	0.0
33	0x00000000	0.0
34	0x00000000	0.0
35	0x00000000	0.0
36	0x00000000	0.0
37	0x00000000	0.0
38	0x00000000	0.0
39	0x00000000	0.0
40	0x00000000	0.0
41	0x00000000	0.0
42	0x00000000	0.0
43	0x00000000	0.0
44	0x00000000	0.0

bn.running_mean f4 [45]
0	0x00000000	0.0
1	0x00000000	0.0
2	0x00000000	0.0
3	0x00000000	0.0
4	0x00000000	0.0
5	0x00000000	0.0
6	0x00000000	0.0
7	0x00000000	0.0
8	0x00000000	0.0
9	0x00000000	0.0
10	0x00000000	0.0
11	0x00000000	0.0
12	0x00000000	0.0
13	0x00000000	0.0
14	0x00000000	0.0
15	0x00000000	0.0
16	0x00000000	0.0
17	0x00000000	0.0
18	0x00000000	0.0
19	0x00000000	0.0
20	0x00000000	0.0
21	0x00000000	0.0
22	0x00000000	0.0
23	0x00000000	0.0
24	0x00000000	0.0
25	0x00000000	0.0
26	0x00000000	0.0
27	0x00000000	0.0
28	0x00000000	0.0
29	0x00000000	0.0
30	0x00000000	0.0
31	0x00000000	0.0
32	0x00000000	0.0
33	0x00000000	0.0
34	0x00000000	0.0
35	0x00000000	0.0
36	0x00000000	0.0
37	0x00000000	0.0
38	0x00000000	0.0
39	0x00000000	0.0
40	0x00000000	0.0
41	0x00000000	0.0
42	0x00000000	0.0
43	0x00000000	0.0
44	0x00000000	0.0

bn.running_var f4 [45]
0	0x3f800000	1.0
1	0x3f800000	1.0
2	0x3f800000	1.0
3	0x3f800000	1.0
4	0x3f800000	1.0
5	0x3f800000	1.0
6	0x3f800000	1.0
7	0x3f800000	1.0
8	0x3f800000	1.0
9	0x3f800000	1.0
10	0x3f800000	1.0
11	0x3f800000	1.0
12	0x3f800000	1.0
13	0x3f800000	1.0
14	0x3f800000	1.0
15	0x3f800000	1.0
16	0x3f800000	1.0
17	0x3f800000	1.0
18	0x3f800000	1.0
19	0x3f800000	1.0
20	0x3f800000	1.0
21	0x3f800000	1.0
22	0x3f800000	1.0
23	0x3f800000	1.0
24	0x3f800000	1.0
25	0x3f800000	1.0
26	0x3f800000	1.0
27	0x3f800000	1.0
28	0x3f800000	1.0
29	0x3f800000	1.0
30	0x3f800000	1.0
31	0x3f800000	1.0
32	0x3f800000	1.0
33	0x3f800000	1.0
34	0x3f800000	1.0
35	0x3f800000	1.0
36	0x3f800000	1.0
37	0x3f800000	1.0
38	0x3f800000	1.0
39	0x3f800000	1.0
40	0x3f800000	1.0
41	0x3f800000	1.0
42	0x3f800000	1.0
43	0x3f800000	1.0
44	0x3f800000	1.0

net.0.weight f4 [45, 95]
0	0x3c680d80	0.014163375
1	0x3c8eda61	0.017438116
2	0x3dc76c3c	0.09737441
3	0x3db066c9	0.08613355
4	0x3db48622	0.08814646
5	0x3cd4d5c9	0.025980847
6	0xbd452f3d	-0.048140753
7	0xb8cc1f5c	-9.733319e-05
8	0xbcb26835	-0.021778205
9	0x3d2e22bc	0.042513594
10	0xbddbb9e2	-0.10728814
11	0xbcbcaeca	-0.023032565
12	0x3c828d51	0.015936526
13	0xbba5fe44	-0.005065711
14	0xbc6847c8	-0.01417727
15	0xbcb48e15	-0.022040406
16	0xbcb872cc	-0.022515677
17	0x3c3eb1e8	0.011639096
18	0xbd19f44a	-0.037586488
19	0x3a564a80	0.00081745535
20	0xbabe8445	-0.0014535269
21	0x3dc286d7	0.09498375
22	0xbd0fd433	-0.03511448
23	0x3cf72c05	0.030172357
24	0x3c81194b	0.015759131
25	0x3d79a980	0.060952663
26	0x3d045215	0.032304842
27	0x3c70c71d	0.01469591
28	0x3d09d1c5	0.033647317
29	0x3c7add1e	0.0153115075
30	0x3b03d747	0.002011733
31	0xbb50119d	-0.003174878
32	0xbc8daeef	-0.017295329
33	0x3c000dd0	0.007815793
34	0x3b985cdf	0.004649743
35	0x3ce873b9	0.028375493
36	0xbd392ebc	-0.045210585
37	0xbc88fe12	-0.016722713
38	0xbb1a3863	-0.0023532144
39	0xbd6981c0	-0.057008505
40	0xbc93e946	-0.01805557
41	0x3d7760e9	0.060395155
42	0xbd4d1d43	-0.050076734
43	0xb89187ef	-6.9394584e-05
44	0x3d9b964a	0.07597025
45	0xbd948b16	-0.07253091
46	0xbb87a478	-0.0041394792
47	0xbd222873	-0.039589357
48	0xbd93eede	-0.07223295
49	0xbd078962	-0.033090003
50	0x3d5c3b33	0.053767394
51	0xbcf08ac2	-0.02936304
52	0xbd21c7cf	-0.039497193
53	0xbc69432f	-0.014237209
54	0x3cbbc2fe	0.022920128
55	0x3cc32a50	0.023823887
56	0xbd291435	-0.041279037
57	0xbca5e504	-0.020250805
58	0x3bb5820c	0.0055391844
59	0x3c9565e6	0.018237066
60	0xbc386d18	-0.011256479
61	0x3ca49c4d	0.020094061
62	0x3d0032a0	0.03129828
63	0xbbb3602c	-0.005474111
64	0x3c823bd4	0.015897669
65	0xbd08bc46	-0.033382677
66	0x3c186960	0.009302467
67	0xbc88e5a6	-0.016711067
68	0xba578cea	-0.0008222597
69	0xbac069b9	-0.0014679945
70	0xbc1f63b8	-0.009728365
71	0xbc95342e	-0.018213358
72	0xbcd4b5b4	-0.025965549
73	0x3b6692ef	0.0035182794
74	0x3ccb6316	0.024827521
75	0x3b64eda0	0.0034931675
76	0x3c50a2eb	0.012734155
77	0x3ba672b5	0.005079592
78	0x3c1d95f3	0.00961827
79	0xbca822c9	-0.0205244
80	0x3c66346e	0.014050586
81	0xbbc053df	-0.005869373
82	0x3b824053	0.003974953
83	0x3d5fa9c5	0.054605264
84	0xbbfdf6f6	-0.0077503873
85	0x3c26b773	0.010175574
86	0xbd291c3e	-0.0412867
87	0xbc7a0c69	-0.015261748
88	0xbbb03297	-0.0053771245
89	0x3cf4bfa6	0.029876541
90	0xbbed6c24	-0.0072455574
91	0xbbeb176c	-0.007174423
92	0xbc760eae	-0.015018148
93	0xbc9681d8	-0.018372461
94	0x3c474760	0.012163013
95	0xbc057df1	-0.008147703
96	0xbcb80c5c	-0.02246683
97	0xbce3813c	-0.027771585
98	0xbe12254d	-0.14272042
99	0xbbd39062	-0.0064564208
100	0x3b8b2225	0.0042460137
101	0x3db645cc	0.089000314
102	0xbbfa0be9	-0.0076308143
103	0x3ccf2fe7	0.025291396
104	0x3cc78cda	0.024359155
105	0x3cb16c04	0.021657951
106	0x3aa80ebc	0.0012821774
107	0x3c60212f	0.013679787
108	0x3d5f6fa1	0.054549817
109	0x3c3ab9da	0.0113968495
110	0x3d29b70a	0.041434325
111	0x3c8836d6	0.01662771
112	0xbc7a73b7	-0.015286378
113	0xbd15b833	-0.03655262
114	0xbc01063e	-0.007875023
115	0x3ce21f8b	0.027602931
116	0xbd769150	-0.060197175
117	0xbd7322a3	-0.059359204
118	0x3ccd24da	0.025041986
119	0xbc6a7a44	-0.014311377
120	0xbd4558d2	-0.04818041
121	0xbd246f37	-0.040145125
122	0xbc4d796e	-0.012541158
123	0xbda9d5b6	-0.08292715
124	0xbc9ccbd3	-0.01914016
125	0xbd1b9d37	-0.03799173
126	0x3c2c8f71	0.010532246
127	0x3ccc2bba	0.024923194
128	0xbca7064b	-0.020388743
129	0x3c606943	0.013696971
130	0xbd9fd7c7	-0.07804828
131	0x3d1fea13	0.03904159
132	0x3d48e13f	0.049042936
133	0x3d78e96d	0.060769487
134	0x3d631785	0.05544235
135	0x3b22c0e1	0.0024834203
136	0xbc379acf	-0.011206343
137	0xbdb00c87	-0.085961394
138	0xbd321e0c	-0.043485686
139	0x3c53edf4	0.01293515
140	0x3d893ca8	0.067010224
141	0x3d640b7a	0.055675007
142	0x3e07ba05	0.13254555
143	0x3d85622c	0.065128654
144	0x3d4e4705	0.0503607
145	0x3c114e10	0.008868709
146	0x39c49806	0.000374973
147	0x3d6c1c64	0.057644263
148	0xbbc2dbe3	-0.0059466227
149	0xbb839ef3	-0.004016751
150	0x3d4f0cd5	0.050549347
151	0x3d2609e8	0.04053679
152	0xbae67772	-0.0017583205
153	0x3d014a0a	0.03156475
154	0xbbb0585d	-0.0053816275
155	0xbb88c2f8	-0.0041736327
156	0xbb9b674e	-0.0047425395
157	0x3c2dccb9	0.010607892
158	0x3bc925cb	0.0061385385
159	0xbc77ffb5	-0.015136649
160	0x3d1c1f09	0.038115535
161	0xbd4d3078	-0.05009505
162	0x3cdb2969	0.026753144
163	0x3b22fe38	0.0024870764
164	0x3c3d88b8	0.011568241
165	0xbbdd1ffb	-0.006748197
166	0x3caedb1d	0.021344716
167	0x3b847fbd	0.004043548
168	0x3ce6cb88	0.028173223
169	0xbcf2714c	-0.02959504
170	0x3b9cdf51	0.0047873636
171	0x3a58bdc7	0.0008268025
172	0xba6235ba	-0.00086292217
173	0xbb26eb9b	-0.0025470022
174	0x3d3d6207	0.046236064
175	0x3c4335b5	0.01191466
176	0x3cc11e63	0.02357406
177	0xbb2d9596	-0.0026486865
178	0x3babca1d	0.0052425996
179	0xbc0458c6	-0.008077806
180	0xbc54431f	-0.012955456
181	0x3d4a900f	0.04945379
182	0xbc4d59cb	-0.012533615
183	0x3bc59d41	0.006030709
184	0xbc0c9511	-0.008580462
185	0xbc0fa0e2	-0.008766385
186	0x3c45d6b5	0.012075116
187	0x3d446532	0.04794807
188	0x3cf0823a	0.029358972
189	0x3aab52f0	0.0013070982
190	0x3c5d30d1	0.013500408
191	0xbc7609e5	-0.0150170075
192	0x3cf6c617	0.030123753
193	0xbd0b3f73	-0.033996057
194	0x3b118290	0.0022203065
195	0xba43e01d	-0.0007472055
196	0x3c8dd512	0.017313514
197	0xbcc2cc45	-0.023779044
198	0x3cdd5415	0.027017632
199	0x3b740c57	0.00372388
200	0x3ce8ed34	0.02843342
201	0x3bd0af5d	0.006368561
202	0xbbf21164	-0.007387327
203	0x3c7e86a3	0.01553503
204	0xba6ef91b	-0.0009116099
205	0xbc048d4f	-0.008090331
206	0xbc86c39a	-0.016450692
207	0xbae48b22	-0.0017436484
208	0x3d34be47	0.044126775
209	0xbcdd680e	-0.027027156
210	0x3c933353	0.01796881
211	0xbd251035	-0.04029866
212	0xbbf6650c	-0.00751937
213	0x3d3b3d1e	0.045712583
214	0xba41fddc	-0.0007400194
215	0x3bf5c12a	0.0074998336
216	0xbb629902	-0.0034576063
217	0x3a973f87	0.0011539318
218	0xbd0176c3	-0.0316074
219	0xbc362aa8	-0.0111185685
220	0x3d2de9ab	0.04245917
221	0xbcd62f54	-0.026145615
222	0xbc5b6eca	-0.013393113
223	0xbc1ddf6a	-0.009635786
224	0xbbfb14c9	-0.00766239
225	0xbd166530	-0.036717594
226	0x3c73e5e4	0.014886353
227	0xbcc72aaa	-0.024312336
228	0x3d2bd21e	0.04194843
229	0xbd49d386	-0.04927399
230	0x3c5a0b70	0.013308391
231	0x3b914ea0	0.0044344217
232	0xbd16f0e9	-0.036850844
233	0xbb6d204f	-0.0036182588
234	0x3c73a63f	0.014871179
235	0x3c0750ec	0.008259039
236	0xbb926857	-0.0044680047
237	0x3cff3c72	0.031156752
238	0x3d24b20e	0.04020887
239	0xb883e621	-6.2894316e-05
240	0xbc21c885	-0.009874468
241	0x3c8912b6	0.016732555
242	0x3be3af3e	0.0069483807
243	0xbb4b5dbc	-0.0031031212
244	0xbb84d012	-0.004053124
245	0x3c9f0512	0.019411597
246	0x3cb3be49	0.021941321
247	0x3b40fbf2	0.0029447046
248	0x3c23d443	0.009999338
249	0xbc246db4	-0.010035921
250	0xba0e79f1	-0.0005435041
251	0xbc9aa6fb	-0.01887845
252	0x3b1f5b8a	0.0024316036
253	0x3bd4763f	0.0064838226
254	0xbc289164	-0.01028857
255	0x3b41f929	0.0029597974

net.0.bias f4 [45]
0	0xbd5ad574	-0.05342622
1	0x3dcf2f76	0.10116474
2	0x3c55564f	0.013021066
3	0x3ddcf7aa	0.10789426
4	0x3cf513aa	0.029916603
5	0x3d5ce580	0.053929806
6	0xbc82317a	-0.015892733
7	0xbcacde86	-0.021102201
8	0xbc540101	-0.0129396925
9	0x3de98ae1	0.11403442
10	0x3c3c9124	0.011509214
11	0xbd493237	-0.049120154
12	0x3dbd6ec0	0.092496395
13	0xbd05e1a1	-0.03268588
14	0xbc869813	-0.016429937
15	0xbd0eead1	-0.034891907
16	0xbc8495ba	-0.016184676
17	0xbd1ef2ab	-0.038805645
18	0xbd10e5a1	-0.03537524
19	0x3d802ebe	0.06258915
20	0xbd196228	-0.037447125
21	0x3d9a89c8	0.07545811
22	0xbdf6b7cd	-0.12046776
23	0xbd3b7f28	-0.045775563
24	0xbd9ec829	-0.07753021
25	0x3d68814e	0.05676394
26	0x3ca6723a	0.02031814
27	0xbc60573b	-0.013692672
28	0xbd3305b5	-0.043706615
29	0x3d54307f	0.051804062
30	0xbd9006b7	-0.07032531
31	0xbd877011	-0.06613172
32	0xbdb68033	-0.08911171
33	0x3d8f79a8	0.07005626
34	0xbda3cc51	-0.07997955
35	0x3d5f22a3	0.05447639
36	0xbcf2150f	-0.029551057
37	0xbd8f87f0	-0.0700835
38	0xbd0b3d10	-0.03399378
39	0x3cdf5f28	0.027267054
40	0x3d43b9ff	0.0477848
41	0xbb3d5b67	-0.0028893591
42	0xbcee072b	-0.029056152
43	0x3cb57069	0.022148328
44	0xbd8362da	-0.06415339

net.3.weight f4 [45, 45]
0	0x3ac95bf5	0.0015362488
1	0xbb365953	-0.0027824237
2	0x3a7a5a2c	0.000955018
3	0xba9217a4	-0.0011145961
4	0xba3ff7cf	-0.0007322998
5	0xba09c4d6	-0.0005255466
6	0x3a3058e3	0.00067271123
7	0xbae8c8cb	-0.0017760036
8	0x39ffacd8	0.0004876617
9	0xbb22b448	-0.0024826694
10	0xba463ff7	-0.0007562632
11	0x3ab1398c	0.0013521179
12	0xba3d40cf	-0.0007219435
13	0x3b0a9fe6	0.0021152436
14	0x3a4a7040	0.0007722415
15	0xb8aa9879	-8.134632e-05
16	0xb8e002dd	-0.00010681686
17	0xba6b7b66	-0.00089829264
18	0x3698f8e8	4.5589295e-06
19	0xbb2a927a	-0.0026027248
20	0xb9996ce8	-0.00029263576
21	0xba2ff2a2	-0.00067118753
22	0x3ab708b2	0.0013964383
23	0x3b3d43fa	0.0028879629
24	0x3a8720c5	0.0010309449
25	0xba71703d	-0.0009210145
26	0x3a01b72c	0.0004948254
27	0x3a43264e	0.00074443675
28	0x3a0866f3	0.0005203329
29	0xba8a6fc9	-0.0010561879
30	0x3ada835e	0.001667123
31	0x38dbf8ec	0.00010489099
32	0x3af28222	0.0018501917
33	0xb9cfb519	-0.00039617045
34	0x3b107fb7	0.002204878
35	0xba5540a6	-0.00081349385
36	0x3aac13d3	0.0013128467
37	0x3b123ffd	0.0022315972
38	0x3adc2343	0.0016795177
39	0x3a8c6996	0.0010712619
40	0xba4b6b30	-0.00077598076
41	0xbab1a7a8	-0.0013553994
42	0x3ada77b0	0.001666775
43	0xba8758af	-0.0010326112
44	0x3a96e714	0.0011512958
45	0xbd78e15d	-0.0607618
46	0x3d66b89a	0.056328394
47	0x3d0a8b1c	0.03382407
48	0x3ca67562	0.020319644
49	0x3d2aaa42	0.041666277
50	0x3c609117	0.013706467
51	0x3a35fdda	0.0006942429
52	0x3d221abf	0.03957629
53	0xbd73cd1d	-0.059521783
54	0x3d67a461	0.05655325
55	0x3d8a3e55	0.0675017
56	0x3b85de7f	0.0040853615
57	0x3d36bff8	0.04461667
58	0xbd1bcba4	-0.038036004
59	0x3ac5c47d	0.0015088465
60	0x3a6a9d47	0.0008949828
61	0x3b8734d7	0.004126172
62	0xbaba7a22	-0.0014227072
63	0x3d4d60af	0.050141033
64	0x3d2f44c3	0.042790186
65	0x3b758dd4	0.003746857
66	0x3d110f02	0.035414703
67	0xbd8666d3	-0.06562581
68	0xbd580224	-0.052736416
69	0xbd81ab6f	-0.063315265
70	0x3d061742	0.032737024
71	0x3c764b3a	0.015032584
72	0x3a325bc8	0.00068038376
73	0xbd2e5c76	-0.042568646
74	0x3ce6d753	0.028178846
75	0xbd336620	-0.043798566
76	0xbd788822	-0.0606767
77	0xbd844acd	-0.064595796
78	0x3cf07bf0	0.029355973
79	0xbd7dcf64	-0.06196536
80	0x3d1dc47e	0.038517468
81	0xbd15c8d5	-0.03656848
82	0xbd6ff1e8	-0.05858031
83	0xbcb7fe07	-0.022459997
84	0x3c21ed97	0.009883306
85	0x3d454c15	0.04816826
86	0x38852bd7	6.3501e-05
87	0xbd6dfb8d	-0.058101226
88	0x3b7de34f	0.0038740223
89	0xbd821c39	-0.06353039
90	0x3c822b7e	0.01588988
91	0xbc692f90	-0.014232531
92	0xbb5e738c	-0.0033943383
93	0xbc5179d2	-0.012785392
94	0xbc7f29bb	-0.015573914
95	0x3c08771d	0.00832918
96	0xb9458337	-0.00018836265
97	0xbc07b7f1	-0.008283601
98	0x3c7b0da4	0.015323076
99	0xbc575e2d	-0.013145012
100	0xbc482f53	-0.012218314
101	0x3b34a27c	0.0027562669
102	0xbc2caa36	-0.010538628
103	0x3c235a85	0.009970312
104	0x39c82539	0.00038174706
105	0x3a8b36f0	0.0010621231
106	0xbaec0782	-0.0018007609
107	0xba83ab26	-0.0010045513
108	0xbb8306d9	-0.003998619
109	0xbca946f9	-0.020663725
110	0xbad37667	-0.0016133309
111	0xbca7870b	-0.020450136
112	0x3c7a71ea	0.015285948
113	0x3c87215e	0.016495403
114	0x3c753362	0.014965864
115	0xbb854189	-0.0040666503
116	0xbb18e6ca	-0.002333092
117	0xba05ec0b	-0.00051087205
118	0x3c6e66dc	0.014550891
119	0xbc431d31	-0.011908815
120	0x3c5e2d0a	0.013560543
121	0x3c5d4d57	0.013507209
122	0x3c299efc	0.010352846
123	0xbc2a1cfb	-0.010382886
124	0x3c741c84	0.014899377
125	0xbc98daed	-0.01865908
126	0x3c3e1fcc	0.011604261
127	0x3c42e2ca	0.011894891
128	0x3b921497	0.004458021
129	0xb9986706	-0.00029068458
130	0xbc78fe22	-0.015197309
131	0x3a910600	0.001106441
132	0x3c835179	0.01603006
133	0xba304ca2	-0.00067252864
134	0x3c68b353	0.0142029105
135	0x3d0b5fac	0.034026787
136	0xbd30a09b	-0.043121915
137	0x3cb2234e	0.02174535
138	0xbd6b53db	-0.057453018
139	0xbd71bd86	-0.059018634
140	0x3cb41af6	0.021985512
141	0xbaab22fc	-0.0013056691
142	0xbd3725d6	-0.044713818
143	0x3d349556	0.04408773
144	0xbd3511e2	-0.044206508
145	0xb9801486	-0.00024429354
146	0xba94f0ac	-0.001136323
147	0xbd4d61f5	-0.050142247
148	0x3d25cc4f	0.040478047
149	0x3ab390ce	0.0013699771
150	0x3c8490bc	0.016182296
151	0x3d0fd9b0	0.035119712
152	0x3d25da91	0.040491644
153	0xbd3bd7a5	-0.04585995
154	0xbd8e3e29	-0.0694545
155	0x3b4291ca	0.0029688948
156	0xbdd5a081	-0.10431004
157	0x3d8e2cae	0.06942116
158	0x3d688779	0.05676982
159	0x3d14b1bb	0.03630231
160	0xbdcb46f8	-0.099256456
161	0xbc05df2b	-0.008170883
162	0xbd0f0066	-0.03491249
163	0x3cc14b08	0.023595348
164	0xbccf67f5	-0.025318125
165	0x3dd4714d	0.10373173
166	0xbb1883e2	-0.0023271968
167	0x3da4fc8c	0.08055982
168	0xbd850f70	-0.06497085
169	0x3d3cc23c	0.046083674
170	0xbd14d8bb	-0.036339503
171	0x3c4760b2	0.01216905
172	0x3d04f4a3	0.032459866
173	0x3c044421	0.008072884
174	0xbcbcb8d9	-0.023037361
175	0xbd15d600	-0.03658104
176	0xba777c4a	-0.0009440823
177	0x3cfcf3d9	0.030877994
178	0xba984701	-0.001161784
179	0x3d34943c	0.04408668
180	0xbd706762	-0.058692344
181	0x3d19b0d1	0.03752214
182	0x3cbc5b44	0.022992738
183	0x3da7bf99	0.08190841
184	0x3d271494	0.04079111
185	0xbd9d127c	-0.07669541
186	0xbab6c787	-0.0013944962
187	0xbb2f6ddb	-0.002676836
188	0xbd6e1451	-0.058124844
189	0x3d60037d	0.054690827
190	0x3db3dddb	0.0878255
191	0x3adcb40c	0.0016838326
192	0x3d6ae48f	0.057346877
193	0xbd3c13d5	-0.04591735
194	0xb96ee2c2	-0.00022781923
195	0x3ba8f19f	0.0051557566
196	0x3ba4d7ea	0.005030622
197	0xbcd98adf	-0.026555477
198	0x3cb05549	0.021525042
199	0x3d5cec50	0.053936303
200	0xbbb4b38f	-0.005514569
201	0x3d339044	0.043838754
202	0xbd4808d6	-0.04883655
203	0xbd198bf4	-0.037486985
204	0xbd846b0a	-0.064657286
205	0xbca47b60	-0.020078361
206	0x3c3968ae	0.0113164615
207	0x3c87a632	0.01655874
208	0xbd0b38a5	-0.033989567
209	0xbd82e7f3	-0.06391897
210	0xbd09d35a	-0.033648826
211	0xbdb845b1	-0.089976676
212	0xbdc1e481	-0.09467412
213	0x3d3df024	0.046371594
214	0xbd613f1b	-0.054991823
215	0x3cbe35b9	0.023218976
216	0xbd16357d	-0.036672104
217	0xbd828f71	-0.063750155
218	0xbc6be4ff	-0.014397859
219	0xbb342646	-0.0027488633
220	0x3d453bcc	0.04815273
221	0xbad3b700	-0.0016152561
222	0xbd0b7e37	-0.034055915
223	0x3b653d67	0.0034979226
224	0xbd59b42d	-0.053150345
225	0x3d8e8d22	0.06960513
226	0xbd8c31bd	-0.06845424
227	0xbca4c43b	-0.020113101
228	0xbd579a2d	-0.052637268
229	0xbd26abcf	-0.040691193
230	0x3e0bd867	0.1365677
231	0xbb19cc9c	-0.0023467904
232	0x3cb66fc4	0.02227009
233	0x3db570fb	0.0885944
234	0xbcb02924	-0.021503992
235	0xbd47aa0e	-0.04874616
236	0xbba00b90	-0.004884191
237	0xbd08e95a	-0.033425666
238	0x3ded7f83	0.115965866
239	0xbb3d9515	-0.002892797
240	0xbabda36b	-0.0014468258
241	0xbc038982	-0.00802839
242	0xbb525f4d	-0.003210026
243	0xbd1bade1	-0.03800762
244	0xbd897412	-0.06711592
245	0xbba5ef19	-0.005063903
246	0xbcbcc3a8	-0.023042515
247	0x3d672701	0.05643368
248	0x3dbe31ea	0.09286864
249	0x3d9251c7	0.07144504
250	0xbcafb241	-0.021447303
251	0x3aa070b4	0.0012240619
252	0xbb43310f	-0.002978388
253	0x3d92991c	0.071581095
254	0xbc65f123	-0.014034542
255	0x3e09419b	0.13403933

net.3.bias f4 [45]
0	0xbc08f3ee	-0.008358939
1	0x3e188da3	0.1489778
2	0x3c3a5d8f	0.011374845
3	0x3d99407d	0.07483003
4	0x3e2b68e4	0.16739231
5	0xbd414729	-0.047187004
6	0x3e21b19c	0.15790409
7	0x3cbdacf6	0.023153763
8	0x3e14fa3e	0.14548585
9	0x3d0feabc	0.03513597
10	0x3d921bed	0.07134233
11	0xbcc07b7f	-0.023496388
12	0xbc13a01a	-0.009010339
13	0x3da0e7b1	0.07856692
14	0x3c37baa0	0.011213928
15	0x3d1372dc	0.03599821
16	0x3e3939fc	0.18088526
17	0x3d6abe29	0.057310257
18	0x3b1533bd	0.0022766434
19	0x3e09d444	0.13459879
20	0x3cac8a95	0.021062175
21	0x3d8bae89	0.06820399
22	0x3da8975e	0.08231996
23	0x3d4f7e38	0.05065748
24	0x3cbe84fc	0.023256771
25	0x3e376079	0.17907895
26	0x3e3b2819	0.18277015
27	0x3d981c6d	0.07427297
28	0x3df807a7	0.121108346
29	0x3deb1126	0.1147788
30	0xbcd2f6f6	-0.025752526
31	0xbd563fd9	-0.052306984
32	0x3d026a0f	0.031839427
33	0xbacf494d	-0.0015814692
34	0x3e1550a8	0.14581549
35	0x3d0997b9	0.03359196
36	0x3e25a19b	0.16174929
37	0x3cf60f83	0.030036693
38	0xbcd2ce3c	-0.025733106
39	0xbb6fa16c	-0.003656472
40	0x3daf7aff	0.085683815
41	0x3d937e61	0.07201839
42	0x3d5c0101	0.053711895
43	0x3d112886	0.035439037
44	0x3da10126	0.07861547
