bestclf/adult/a04.pth (torch, 47870 bytes, 15 tensors)

fc1.weight f4 [45, 95]
0	0x3d0157bb	0.031577807
1	0x3bd2c100	0.006431699
2	0x3ced0ae3	0.028935855
3	0x3c29b1a5	0.010357295
4	0x3ce1acd0	0.027548224
5	0x3cc23a4a	0.023709435
6	0x3b0098e5	0.0019622382
7	0x3cbe3c35	0.023222068
8	0xbb6fdce9	-0.0036600179
9	0xbc16e9ce	-0.009211017
10	0xb8818cfa	-6.177458e-05
11	0xbbb997be	-0.005663841
12	0xbb8e2bc3	-0.004338713
13	0xbc2ace8e	-0.010425223
14	0xbbae9be1	-0.005328641
15	0x3b877635	0.0041339644
16	0x3b7ef1c9	0.003890144
17	0xbbaddec3	-0.0053060963
18	0xbbadadf3	-0.0053002774
19	0xbc3d9055	-0.011570056
20	0x3beefe80	0.0072935224
21	0x3bff87f6	0.00779819
22	0xbba24b6c	-0.0049528386
23	0x3c6bf2b5	0.014401128
24	0xbac9b7ce	-0.0015389861
25	0x3cccd79c	0.025005154
26	0x3c8a0c89	0.01685168
27	0xbc208df9	-0.009799474
28	0x3d3121cb	0.043245118
29	0x3c3a127a	0.011356944
30	0xbb53741a	-0.0032265247
31	0xbb4771ba	-0.0030432777
32	0xbaec155f	-0.001801174
33	0xbb0af220	-0.0021201447
34	0xbacb8ee8	-0.001553026
35	0x3cb97fde	0.02264398
36	0xbc08d12a	-0.00835065
37	0xba8f74c9	-0.0010944839
38	0x3bfb82bc	0.007675497
39	0xbc0ea37d	-0.008705971
40	0xbbe4b6f1	-0.006979816
41	0x3c8fa4ea	0.017534692
42	0x3bdec655	0.0067985454
43	0xbc0b452a	-0.008500377
44	0x3c7c035f	0.015381663
45	0x3c736f35	0.014858057
46	0xbc49a4c0	-0.012307346
47	0x3c012955	0.0078833895
48	0xbc97c546	-0.018526684
49	0xbbb166f4	-0.0054138843
50	0xbc3d4a45	-0.011553352
51	0x394e2190	0.00019658194
52	0x3c0205c4	0.007935945
53	0x3b10d71e	0.0022100876
54	0x3cb7215f	0.02235478
55	0x3bd7dd38	0.0065876506
56	0x3a018da7	0.00049420673
57	0xbb50fd97	-0.0031889433
58	0x3c25cfd4	0.010120351
59	0xbbcc28f1	-0.0062304665
60	0x3c1c40be	0.00953692
61	0x3bbbf5fe	0.0057361117
62	0x3b903207	0.004400495
63	0xbc0476d9	-0.008084976
64	0xbb4217bc	-0.0029616198
65	0xbb2b3571	-0.0026124383
66	0x387d77c7	6.0431452e-05
67	0xbb98fe90	-0.004669018
68	0xbbef145e	-0.007296129
69	0x3c1bf609	0.009519109
70	0x3c09809c	0.008392479
71	0xbb7a0fa7	-0.0038156302
72	0xbbc6da88	-0.0060685314
73	0xb915d644	-0.00014289567
74	0x3b08609f	0.0020809544
75	0xbbefab36	-0.007314111
76	0xbb2a547e	-0.0025990303
77	0x3c247b3b	0.010039146
78	0x3a75459e	0.0009356382
79	0x3b902733	0.004399204
80	0xbb825387	-0.0039772424
81	0xbb94fdc3	-0.0045468523
82	0x3a29885b	0.0006467157
83	0xba5e61fb	-0.0008483228
84	0x3b346117	0.002752369
85	0x3b8f9bbc	0.0043825787
86	0xbc5e0fe1	-0.0135535905
87	0x3b8667de	0.0041017374
88	0x3b842edb	0.004033906
89	0x3c54b436	0.012982419
90	0xbbeca87e	-0.0072222343
91	0xba8e914f	-0.0010877046
92	0x3cbb6272	0.02287409
93	0xba9b82eb	-0.0011864578
94	0xb9c27e5c	-0.0003709671
95	0x3cc890ca	0.024483103
96	0x3b9de569	0.0048186076
97	0xbcc87911	-0.024471791
98	0xbd399f7d	-0.045318116
99	0xbb04de71	-0.0020274187
100	0xbbe8b05f	-0.007101103
101	0x3cae9a3f	0.021313785
102	0xbbf35604	-0.0074260253
103	0x3d0f8c40	0.035045862
104	0x3d311f40	0.043242693
105	0x3c9f67bf	0.01945865
106	0x3c093e12	0.008376615
107	0xbc4e8ab9	-0.012606316
108	0x3d912c76	0.070885584
109	0x3cd55b52	0.026044521
110	0x3d2a0f8c	0.041518733
111	0xba9d63c9	-0.0012007888
112	0xbbbb4125	-0.005714553
113	0xbd386ecd	-0.045027543
114	0x3d533629	0.051565323
115	0xbc292dd3	-0.010325867
116	0xbd5169e9	-0.051126394
117	0xbd4c62ee	-0.049899034
118	0x3cdbdf8a	0.02683999
119	0x3ba19bd9	0.0049319086
120	0xbc234d27	-0.009967125
121	0x3c66375c	0.014051285
122	0x3bd3b36f	0.006460599
123	0xbd8768e7	-0.066118054
124	0xbc4b4155	-0.012405713
125	0xbd700dbe	-0.058606856
126	0x3ca26ca4	0.019827195
127	0x3d077c33	0.03307743
128	0xbc351caf	-0.011054202
129	0x3cdc374f	0.026881842
130	0xbc9beb96	-0.019033235
131	0x3cddecc1	0.027090432
132	0x3b2a47b9	0.0025982691
133	0x3daaa0b5	0.08331434
134	0x3d1d7b11	0.038447443
135	0xbb8ce51e	-0.004299774
136	0xbd3436d9	-0.04399762
137	0xbd082108	-0.033234626
138	0xbd87ad48	-0.06624848
139	0x3ba7b010	0.005117424
140	0x3c8ef337	0.017449958
141	0xbb61e96b	-0.0034471403
142	0x3e09b52f	0.13448022
143	0x3d1cb691	0.038260046
144	0x3d445445	0.04793193
145	0xbc66c97c	-0.014086124
146	0x3d446121	0.04794419
147	0x3cdd92db	0.027047565
148	0x3cf65938	0.03007184
149	0xbbfc311d	-0.0076962844
150	0x3c204a61	0.009783358
151	0x3d22b02f	0.039718803
152	0x3b371327	0.0027935
153	0x3c1560a5	0.00911728
154	0x3b34c906	0.002758564
155	0x3b6d3e8e	0.0036200616
156	0x3b58fffa	0.0033111558
157	0xbc48cc89	-0.012255796
158	0x3be5ac58	0.0070090704
159	0xbcb6a501	-0.022295477
160	0x3c3178db	0.010832037
161	0xbc7d88bb	-0.015474494
162	0x3d07921c	0.033098325
163	0xbbaaae3b	-0.005208758
164	0xbbb3a4be	-0.0054822853
165	0x3a9d25b6	0.0011989388
166	0xbb8b683c	-0.004254369
167	0x3c9591b3	0.018257951
168	0x3c0c13da	0.008549655
169	0xbbe11cc4	-0.006869884
170	0x3c5c5f57	0.013450465
171	0x3c1b8c71	0.009493933
172	0x3bc518db	0.006014926
173	0xbbd6b683	-0.006552519
174	0x3d7625c1	0.0600946
175	0xbbe12645	-0.006871017
176	0xbb1b2702	-0.0023674374
177	0xbbc49b50	-0.00599996
178	0xbc9c7acb	-0.019101521
179	0x3c28ab95	0.010294815
180	0xbc191c8c	-0.009345185
181	0x3c920fd4	0.017829813
182	0xba874822	-0.001032118
183	0x3c3c780e	0.011503233
184	0xbbc3b796	-0.005972813
185	0x3c22c14d	0.009933782
186	0x3c1ab6b4	0.009442974
187	0x3d711fbc	0.058868155
188	0x3c845f5d	0.016158754
189	0x3c325db0	0.010886595
190	0x3b2da0f4	0.002649364
191	0xbb0553f3	-0.0020344227
192	0xbc2d6ff0	-0.01058577
193	0xbb46c477	-0.0030329505
194	0x3b328df6	0.002724526
195	0xbb4680d2	-0.0030289185
196	0xbb0c120a	-0.0021373057
197	0x3c601251	0.013676242
198	0xbc030b85	-0.007998352
199	0xbafe868d	-0.0019418761
200	0xbbe0d4ec	-0.0068613198
201	0xba999665	-0.0011717795
202	0x3ab0b23e	0.0013480855
203	0x3b80193e	0.003909259
204	0x3a0925f4	0.0005231791
205	0x3b5f8d72	0.0034111408
206	0xbab8ef8b	-0.0014109475
207	0xbaca5bec	-0.0015438772
208	0x3a5a242b	0.00083214295
209	0x3b73a763	0.0037178628
210	0xbbbd8c50	-0.005784549
211	0x3b90f7b6	0.0044240607
212	0x3a2f6ff2	0.00066924014
213	0x3b8cf680	0.004301846
214	0x3c001e7f	0.007819771
215	0xbc025711	-0.007955329
216	0xb9ddb59a	-0.00042287708
217	0xbc16dd3d	-0.009208021
218	0xbbb64861	-0.0055628275
219	0x3b8be14e	0.004268802
220	0x3c565318	0.0130813345
221	0xbb4708c8	-0.0030370224
222	0xbacab4c0	-0.0015465245
223	0xbbe505be	-0.00698921
224	0x3a8652ff	0.0010248123
225	0x3b529fcf	0.003213871
226	0xbb3d49eb	-0.002888317
227	0xbbef3e82	-0.0073011527
228	0xbbc130f3	-0.005895728
229	0xbb6d138e	-0.0036174986
230	0x3c16cfde	0.009204833
231	0xbc007661	-0.007840724
232	0x3b35f1a6	0.0027762442
233	0x3b560201	0.0032655003
234	0xbb71c410	-0.0036890544
235	0x37f3b28a	2.9050996e-05
236	0xbb52473b	-0.0032085914
237	0xbb6e6cf2	-0.0036380854
238	0x3bb66997	0.0055667865
239	0xbb3eeedd	-0.0029134073
240	0x3bf406a0	0.007447079
241	0x3b3adcf3	0.0028513044
242	0x3a3c20c8	0.00071765156
243	0xbb598dc7	-0.0033196078
244	0xbc23ecc4	-0.01000518
245	0x3aab1f53	0.00130556
246	0xbae515d5	-0.001747782
247	0x3adcb269	0.0016837838
248	0xbb1e7d8b	-0.0024183716
249	0xbb960d86	-0.004579249
250	0x3b426fc5	0.002966867
251	0xba87a175	-0.00103478
252	0xbbd06234	-0.006359363
253	0x3a864a9e	0.0010245626
254	0xb81dc5c9	-3.761592e-05
255	0x3c09523a	0.008381421

fc1.bias f4 [45]
0	0x3cef2237	0.02919112
1	0x3d9173bd	0.071021535
2	0xbc48b201	-0.012249471
3	0x3dd2d073	0.10293665
4	0x3cd93046	0.026512276
5	0x3c851cf3	0.016249156
6	0xbc996cc2	-0.018728618
7	0xbd1d0a74	-0.038340047
8	0x3c45e86e	0.012079341
9	0x3d21015d	0.03930794
10	0x39e2f266	0.0004328668
11	0xbd2cad41	-0.042157415
12	0x3da9d392	0.08292307
13	0xb9bc95e3	-0.0003596983
14	0xbca34d40	-0.019934297
15	0xbd147768	-0.036246687
16	0xbc7d7c99	-0.015471601
17	0xbd15e21a	-0.03659258
18	0xbd21c55e	-0.039494865
19	0x3d395609	0.045248065
20	0xbd20796f	-0.039178308
21	0x3d7206c0	0.05908847
22	0xbdc7c656	-0.097546265
23	0xbc40ca76	-0.01176702
24	0xbd05c539	-0.03265879
25	0x3d6f3c42	0.058407076
26	0x3c062aaf	0.0081888875
27	0xbbe5fc0e	-0.0070185727
28	0x3bc69212	0.0060598934
29	0x3d389306	0.045062087
30	0xbd4f0d1a	-0.050549604
31	0xbd4caf60	-0.049971938
32	0xbd5b5e46	-0.053556703
33	0x3d4c4391	0.049869124
34	0x3c8f01cf	0.017456917
35	0xbc59358d	-0.013257396
36	0xbba841a0	-0.0051347762
37	0xbd0a9b84	-0.033839718
38	0x3c5f213f	0.013618766
39	0x3ca5dc27	0.020246578
40	0x3ca677a4	0.020320721
41	0x3ca61099	0.020271586
42	0xbc1b2533	-0.009469318
43	0x3cb261f7	0.021775229
44	0x39af7a62	0.00033469783

fc2.weight f4 [45, 45]
0	0x3be6ab7f	0.007039487
1	0x3c01f210	0.007931247
2	0xbbea85f6	-0.0071570827
3	0x3b5a4c91	0.0033309797
4	0xba51d2dd	-0.00080041384
5	0x3bf601a8	0.0075075217
6	0xbc14e7ae	-0.00908844
7	0x3bae47be	0.005318611
8	0x3c5cc64f	0.013475015
9	0xbb6519e6	-0.0034958064
10	0xbc3b149e	-0.01141849
11	0xbc1d529b	-0.009602214
12	0x3b006847	0.0019593404
13	0x3baa3728	0.0051945634
14	0xbc1bb4e6	-0.009503579
15	0xba7622f8	-0.0009389366
16	0x3ba5b6a9	0.005057175
17	0x3c17e155	0.009270032
18	0xbc02b3f5	-0.007977475
19	0x3bf538c1	0.0074835722
20	0xbabce418	-0.0014411239
21	0x3abb43d7	0.0014287186
22	0x3c07ce54	0.008288939
23	0x3c0207b1	0.007936404
24	0x3bc24fa2	0.005929903
25	0xbb140612	-0.0022586626
26	0x3b777a0a	0.003776195
27	0xbc240bed	-0.010012609
28	0xbbc9f404	-0.006163122
29	0xbb8dd6db	-0.0043285913
30	0x3bf28dce	0.0074021583
31	0x3c513531	0.0127690295
32	0xbbdf56cf	-0.0068157683
33	0x3b1ba42c	0.0023748977
34	0xbbffc11a	-0.007805002
35	0xbb982e5f	-0.0046441997
36	0xbaea3513	-0.00178686
37	0x3c2f8d52	0.010714846
38	0x3ac98ce2	0.0015377069
39	0xbbd74bb7	-0.006570305
40	0xb9285973	-0.00016055051
41	0x3c08e348	0.008354969
42	0x3bbfacbb	0.0058494485
43	0x3c1930b7	0.009349993
44	0xbaf73db2	-0.0018862991
45	0xbb4e246e	-0.003145482
46	0x3d330fd3	0.043716263
47	0x3c12a83e	0.008951245
48	0x3cef1a51	0.029187353
49	0x3cb427a0	0.02199155
50	0xbc9afa0e	-0.018918063
51	0x3b4b2e13	0.0031002804
52	0x3d170f41	0.03687978
53	0xbcf6327c	-0.03005337
54	0x3c553a4e	0.013014389
55	0x3d69457f	0.056951042
56	0xbbd782f2	-0.006576889
57	0x3cfd221c	0.030900054
58	0xbc8b0fd8	-0.016975328
59	0xbada827e	-0.001667097
60	0x3a10edab	0.00055285793
61	0xbb4df30e	-0.003142539
62	0xbcd40ab8	-0.025884017
63	0x3d3bccf9	0.045849774
64	0x3d343aa4	0.044001237
65	0xbb61bdec	-0.0034445478
66	0x3d34fa5d	0.044184078
67	0xbd38fadb	-0.04516111
68	0xbd2c1c95	-0.042019445
69	0xbc9b3261	-0.018944921
70	0x3c1bf143	0.0095179705
71	0xba9e45c7	-0.0012075239
72	0x3a54b4c8	0.00081140967
73	0xbc770379	-0.015076512
74	0x3d002378	0.031283826
75	0xbcd52f9f	-0.026023684
76	0xbd365790	-0.0445171
77	0xbd4788aa	-0.048714317
78	0x3d450c5b	0.048107486
79	0xbc1a9f35	-0.009437372
80	0xbb42a788	-0.0029701907
81	0x38a1b7d0	7.711316e-05
82	0xbd3af2c4	-0.045641676
83	0xb9ba0153	-0.0003547767
84	0xbd32cbb4	-0.043651298
85	0x3cd0de71	0.025496693
86	0xb98daa88	-0.0002702067
87	0xbba71ead	-0.0051000924
88	0x3b7af5d1	0.003829349
89	0x3c2b3d92	0.010451691
90	0x3d06b204	0.032884613
91	0xbd2ca160	-0.042146087
92	0x3b757ae1	0.0037457275
93	0xbd3d1251	-0.046160046
94	0xbd3935f6	-0.045217477
95	0x3d431cbb	0.04763482
96	0x3ca15c3d	0.019697303
97	0xbcc0daf3	-0.023541903
98	0x3d1ec0b1	0.038757984
99	0xbaf1813b	-0.0018425355
100	0xbd42b22a	-0.04753319
101	0x3bcbadef	0.006215803
102	0xbcd2e687	-0.02574469
103	0x3c9e6aaa	0.01933797
104	0xbaa32499	-0.001244682
105	0xbc18d856	-0.009328922
106	0x3b607d7e	0.0034254487
107	0x3c1c4382	0.0095375795
108	0xbd0916ea	-0.03346912
109	0xbd10685b	-0.03525577
110	0x3bdb038d	0.006683773
111	0xbd137f9d	-0.036010373
112	0x3d39cd41	0.04536176
113	0x3d8220d1	0.063539155
114	0x3d3722a9	0.04471079
115	0xbc3c531e	-0.011494426
116	0x3c1259e8	0.008932568
117	0xbb750b1f	-0.0037390662
118	0x3c3ec65e	0.011643974
119	0x3bde515a	0.0067846
120	0x3d5d5624	0.05403723
121	0x3d8c260e	0.06843196
122	0x3d57b050	0.05265838
123	0xbd233d39	-0.03985331
124	0x3c659d59	0.014014565
125	0x3b3f3c03	0.0029180057
126	0xbbdcfc55	-0.0067439475
127	0x3d6ca56a	0.05777494
128	0x3c2087a3	0.009797963
129	0x3d4488da	0.047982074
130	0xbcc423f3	-0.023942923
131	0xbc38d270	-0.011280641
132	0x3c5e1e22	0.013556989
133	0x3bb6dde6	0.0055806516
134	0x3bca30b6	0.0061703576
135	0x3c03c359	0.00804218
136	0xbca9d61d	-0.02073198
137	0x3d16dca1	0.036831502
138	0xbd7bd2fa	-0.0614805
139	0xbd8e4d42	-0.069483295
140	0x3d0a9323	0.033831727
141	0x3bf72e52	0.0075433636
142	0xbc9c189a	-0.0190547
143	0x3d2d4ce0	0.04230964
144	0xbc8bb6e6	-0.017054986
145	0x3bcfc85c	0.0063410234
146	0xbb403472	-0.0029328135
147	0xbd095817	-0.033531275
148	0x3c86e91a	0.016468573
149	0xbb0360b6	-0.0020046658
150	0x3cc88e52	0.024481926
151	0x3d3b852b	0.045781296
152	0x3d5d5b14	0.054041937
153	0xbd1cb117	-0.038254824
154	0xbd8cdfa4	-0.068785936
155	0x3bf563ef	0.0074887197
156	0xbd97f6b5	-0.074201025
157	0x3d99027f	0.07471179
158	0x3d8c07f1	0.06837452
159	0x3cc52758	0.024066612
160	0xbdd9a4a2	-0.10627104
161	0x3b93f9b9	0.0045158532
162	0xbd1f944e	-0.038959794
163	0x3bdc5646	0.006724152
164	0xbd148868	-0.0362629
165	0x3df87ebd	0.121335484
166	0x3afdb089	0.001935498
167	0x3ddbd1fd	0.107334115
168	0xbd49a062	-0.04922522
169	0x3c1e2893	0.009653228
170	0x3b4915f8	0.003068326
171	0xba57d84b	-0.0008233829
172	0x3d615a1c	0.055017576
173	0x39b39869	0.00034255095
174	0x3c649133	0.013950634
175	0xbc91936d	-0.017770493
176	0xbc23c7ab	-0.009996335
177	0x3c98fc7e	0.018675085
178	0x3a2aeb28	0.00065200264
179	0xbbbe9800	-0.0058164597
180	0xbb97b1da	-0.004629356
181	0x3d47c1fd	0.048768986
182	0x3b1bf62a	0.0023797848
183	0x3d85db15	0.06535927
184	0x3d594010	0.05303961
185	0xbdae7c5f	-0.08519816
186	0x3ba2a53a	0.004963544
187	0x3bc980b5	0.0061493763
188	0xbcb2b2a4	-0.021813698
189	0x3cce6eda	0.025199343
190	0x3da29717	0.07938974
191	0x3ab0202b	0.0013437321
192	0x3d2f6acf	0.04282647
193	0xbcd25ae5	-0.025678108
194	0xbb2c20ec	-0.002626474
195	0x3c1c58c0	0.009542644
196	0x3b265136	0.0025377995
197	0xbd2463ac	-0.040134117
198	0x3c202bb2	0.009776043
199	0x3d8c99c4	0.06865266
200	0xbc6b9fa1	-0.01438132
201	0x3d3a44a6	0.045475625
202	0xbd3cf3ae	-0.04613083
203	0xbccb7427	-0.02483566
204	0xbceb2162	-0.028702442
205	0xbcead124	-0.02866418
206	0xbb171cc1	-0.002305791
207	0x3c4764fd	0.012170074
208	0xbc94519a	-0.018105317
209	0xbd4e413b	-0.050355177
210	0xbcff5112	-0.031166587
211	0xbdb8bd2a	-0.09020455
212	0xbdbbca1d	-0.091694094
213	0x3d3d2e2e	0.04618662
214	0xbc2767d1	-0.010217623
215	0xbb486d5e	-0.0030582766
216	0xbaab9378	-0.0013090214
217	0xbd96845a	-0.07349463
218	0xbb8b28be	-0.0042468
219	0xbd9f939b	-0.077918254
220	0x3cc00474	0.023439623
221	0x3b7640a6	0.0037575155
222	0xbaee29dc	-0.0018170434
223	0x3c2dc7bb	0.0106067015
224	0x3c2e867e	0.010652183
225	0x3d7320b7	0.05935737
226	0xbd8adcd6	-0.06780402
227	0xbb8e9c9d	-0.004352166
228	0xbd5d770b	-0.054068606
229	0xbd97b8c1	-0.07408286
230	0x3e05c3bc	0.13062948
231	0x3c50e99e	0.012751011
232	0x3c454573	0.012040484
233	0x3dc8ae0d	0.097988226
234	0xb808eeb8	-3.264725e-05
235	0xbd3dcfd6	-0.046340786
236	0xbb52132b	-0.0032054882
237	0xbd41de20	-0.047330976
238	0x3d7d0218	0.061769575
239	0xbb0c6c10	-0.0021426715
240	0xbab55428	-0.0013834285
241	0xba95fa5f	-0.0011442414
242	0x3cd8b37e	0.026452776
243	0xbd0bddd5	-0.034147102
244	0xbd8a7111	-0.06759847
245	0x3c092316	0.008370182
246	0xbd055117	-0.032548036
247	0x3d71c027	0.05902114
248	0x3dd4da26	0.10393171
249	0x3d48873e	0.048957102
250	0xbb95dd8a	-0.0045735287
251	0xb8adcab9	-8.287043e-05
252	0x3aafd321	0.0013414362
253	0x3cacf81b	0.0211144
254	0xbcb5aa66	-0.022175979
255	0x3e0c106e	0.13678142

fc2.bias f4 [45]
0	0x3b340449	0.0027468374
1	0x3dd448aa	0.10365422
2	0x3d2b028f	0.041750487
3	0x3d94e2f2	0.07269849
4	0x3e13c8cc	0.14432067
5	0xbd3d8917	-0.046273317
6	0x3e0303f2	0.12794474
7	0x3c5fc485	0.013657694
8	0x3def2e8c	0.116788
9	0x3c88a2c2	0.016679171
10	0x3d97bf22	0.074095026
11	0x3c92f01d	0.01793676
12	0xbc2af784	-0.010434989
13	0xbd1408f6	-0.03614136
14	0xbd3e1986	-0.04641106
15	0xbd2007da	-0.039069988
16	0x3e152104	0.14563376
17	0x3d75e104	0.060029045
18	0x3c2bb51f	0.010480194
19	0x3db2d87a	0.08732696
20	0x3cb0d4e6	0.021585893
21	0x3d4f6ac9	0.050638948
22	0xbcf31b7e	-0.029676195
23	0x3d43558a	0.047689
24	0x3cc83550	0.024439484
25	0x3e1dcee3	0.15410952
26	0x3e137c46	0.14402875
27	0x3d2185f8	0.039434403
28	0x3d6148e6	0.055001162
29	0x3da65c7b	0.08123108
30	0xbc9fcfae	-0.01950821
31	0xbb95ce81	-0.0045717363
32	0xbc1fab32	-0.009745406
33	0xbc4f5ca9	-0.012656369
34	0x3df11714	0.1177198
35	0xbcc173d1	-0.023614796
36	0x3df15d50	0.11785376
37	0x3c75f395	0.015011688
38	0xbcec0689	-0.02881171
39	0xbd95459b	-0.07288667
40	0x3db34f42	0.087553516
41	0xbd73d64a	-0.059530534
42	0x3d6f3614	0.058401182
43	0xbc956f04	-0.018241413
44	0x3da88c92	0.08229937

out.weight f4 [1, 45]
0	0x3c5a8e0a	0.013339529
1	0xbda2a1bb	-0.07941004
2	0x3e129d2a	0.14317766
3	0x3dde26fc	0.108472794
4	0xbe058d86	-0.13042268
5	0x3e540a28	0.20707
6	0xbdf1ee9a	-0.11813088
7	0x3dff957a	0.12479682
8	0xbdd257d0	-0.10270655
9	0x3db7d3a7	0.08975916
10	0x3e04ef72	0.12981966
11	0x3d3c7839	0.04601309
12	0xbc37cb6b	-0.011217932
13	0xbd6b51c3	-0.05745102
14	0x3d58e212	0.052949972
15	0xbc6c1447	-0.014409131
16	0xbdbd0913	-0.092302464
17	0x3e18146c	0.1485154
18	0x3d534df9	0.051588032
19	0xbdb71481	-0.08939458
20	0x3da6022f	0.08105885
21	0xbe232e11	-0.15935542
22	0xbcc1e352	-0.023667965
23	0x3de9af1e	0.11410354
24	0x3db7d531	0.0897621
25	0xbe032156	-0.12805685
26	0xbdcb27ab	-0.099196754
27	0xbdf037b1	-0.11729372
28	0xbd45de9f	-0.04830801
29	0xbdccd55a	-0.10001631
30	0x3c30cc6d	0.010790926
31	0x3d60c79a	0.054877855
32	0x3da35dfc	0.079769105
33	0x3c9f832c	0.019471727
34	0xbde1f916	-0.110338375
35	0x3ce6e213	0.028183972
36	0xbe0e8d00	-0.13920975
37	0x3e274595	0.16335137
38	0x3e227e9e	0.15868613
39	0x3d35861e	0.044317357
40	0x3dbd9945	0.092577495
41	0xbd29d25a	-0.041460373
42	0x3cf4dddf	0.029890953
43	0x3ad815a6	0.0016485944
44	0x3dba178e	0.09086524

sep_conn.weight f4 [45, 95]
0	0x3cd4255e	0.025896724
1	0xbb33f5b6	-0.0027459688
2	0x3db3d371	0.087805636
3	0xbc2ebfd6	-0.010665854
4	0x3d8c7adb	0.0685937
5	0xbcccbffa	-0.024993885
6	0x3d7c4f5a	0.061599113
7	0xbd81cb23	-0.063375734
8	0x3d641667	0.055685427
9	0xbb070222	-0.0020600636
10	0xbd868ddf	-0.065700285
11	0x3b8d0205	0.0043032193
12	0xbd2b528c	-0.04182677
13	0x3dbe7709	0.09300048
14	0xbd40304e	-0.046921067
15	0xbd4f3de1	-0.05059612
16	0xbba4609b	-0.005016399
17	0xbdae016a	-0.084963635
18	0x3dbb29b8	0.091388166
19	0x3ce963d2	0.02848998
20	0x3dc0d09a	0.094147876
21	0xbdbeec83	-0.09322455
22	0x3db299cd	0.087207414
23	0x3b1a2389	0.0023519716
24	0x3be0c1e4	0.006859051
25	0x3dce807a	0.10083099
26	0x3ba1724e	0.0049269563
27	0xbd369e68	-0.04458466
28	0xbd498755	-0.04920133
29	0xbdaaff7a	-0.083495095
30	0xbc97f1bd	-0.018547887
31	0xbdb3f6ef	-0.08787333
32	0xbd7a439a	-0.061099626
33	0x3d9dd078	0.07705778
34	0x3dae5084	0.08511451
35	0x3db1fbe2	0.08690621
36	0x3da8b33d	0.08237312
37	0xbc7a0d5a	-0.015261972
38	0x3d970dd9	0.07375688
39	0x3da78fd0	0.08181727
40	0xbdb79572	-0.08964051
41	0xbdb71ab5	-0.08940641
42	0xbd9e1d73	-0.07720461
43	0x3d99d4db	0.07511302
44	0x3d53782b	0.051628273
45	0xbdc981fe	-0.09839247
46	0xbd334f94	-0.043777063
47	0x3dce4d48	0.10073334
48	0x3ba72b4d	0.0051015974
49	0x3d0d9682	0.034567364
50	0xbd014d5f	-0.031567927
51	0xbd5fa03b	-0.054596167
52	0x3d636d2e	0.055524044
53	0xbc97301c	-0.018455558
54	0xbd3f0dea	-0.04664413
55	0xbb0eb6ae	-0.0021776366
56	0xbd58a960	-0.052895904
57	0x3d8b4904	0.06801036
58	0x3bdd78e5	0.0067587965
59	0x3d3680fd	0.044556607
60	0x3d2d25ff	0.042272564
61	0x3d90aef4	0.0706462
62	0xbd862a04	-0.065509826
63	0x3d41d453	0.04732163
64	0x3cf49962	0.029858295
65	0x3d8f3d4e	0.06994115
66	0x3db41f81	0.087950714
67	0x3dc741a8	0.0972932
68	0xbd2db4bf	-0.0424087
69	0xbd4f18ba	-0.05056069
70	0x3da7f447	0.08200889
71	0x3d151b5f	0.036403056
72	0xbc3747f0	-0.011186585
73	0xbcd9b91e	-0.026577529
74	0xbd85f032	-0.06539954
75	0x3d0f3484	0.034962192
76	0xbccc9ff1	-0.02497861
77	0xbda46f52	-0.08029045
78	0xbc3458df	-0.011007517
79	0xbc5a18de	-0.013311593
80	0x3cd95092	0.026527677
81	0xbda46c1a	-0.08028431
82	0x3d39655f	0.04526269
83	0x3d3ae683	0.04562999
84	0x3d1ba68c	0.03800063
85	0x3d93be55	0.07214037
86	0xbd466f02	-0.04844571
87	0x3d35a75a	0.044349052
88	0x3db8961e	0.090130076
89	0x3d5ec7fb	0.054389935
90	0x3ceea951	0.02913347
91	0x3c5dd6ed	0.013540012
92	0x3cbd04db	0.023073604
93	0xbdbcfdde	-0.09228109
94	0x3d0d1532	0.03444404
95	0x3c5ae766	0.013360834
96	0xbc97e4dc	-0.018541746
97	0x3c581015	0.013187428
98	0x3d7bd2c2	0.06148029
99	0xbdaa87f4	-0.08326712
100	0x3da34589	0.07972247
101	0xbdbc7621	-0.09202219
102	0xbd0030c3	-0.031296503
103	0x3db681b2	0.08911456
104	0xbdad0349	-0.08447892
105	0x3b404ada	0.002934149
106	0x3c7e559c	0.015523341
107	0x3d2cc20a	0.042177238
108	0x3d433a75	0.04766317
109	0x3cb15f5d	0.021651918
110	0xbc119233	-0.008884954
111	0x3dbe1e3d	0.09283111
112	0x3d53d816	0.051719747
113	0x3d77d52a	0.060506023
114	0x3cf2775b	0.029597929
115	0x3d09c4bc	0.033634886
116	0xbd96fec9	-0.07372815
117	0xbd3396f6	-0.04384514
118	0x3cb342f5	0.021882514
119	0x3c4b5bd5	0.012412031
120	0xbd9eb2b1	-0.077489264
121	0x3d695f4f	0.05697566
122	0xbd439186	-0.047746204
123	0xbda90f89	-0.08254916
124	0xbd6d0880	-0.057869434
125	0xbd366aa2	-0.044535287
126	0x3c87a3ee	0.01655766
127	0x3d940c9f	0.0722897
128	0xbd90cc02	-0.070701614
129	0x3ceb4e0f	0.028723745
130	0x3c8ffaea	0.0175757
131	0xbd4224e7	-0.047398474
132	0xbc129728	-0.008947171
133	0xbda374a4	-0.07981232
134	0xbbcabc24	-0.006186979
135	0x3d4d0800	0.050056458
136	0x3d69edeb	0.057111662
137	0x3dc04644	0.09388402
138	0xba2e9127	-0.00066592026
139	0x3d9e7d50	0.07738745
140	0x3dcf4f27	0.10122519
141	0xbd9aff36	-0.07568209
142	0x3d9fab16	0.07796304
143	0x3d66a3ed	0.056308676
144	0xbd7598bc	-0.059960112
145	0xbd19cd9c	-0.0375496
146	0x3d7db3b0	0.06193894
147	0x3db34b7e	0.08754633
148	0x3d8d2b50	0.06893027
149	0xbc9b20f4	-0.018936612
150	0x3d861768	0.06547433
151	0x3d0b5920	0.034020543
152	0xbd662d28	-0.056195408
153	0xbd9b14b1	-0.07572306
154	0xbd611547	-0.054951932
155	0x3db02858	0.08601445
156	0x3c832c73	0.016012406
157	0xbdb9e853	-0.090775155
158	0xbaeb9a65	-0.001797509
159	0x3d6d8656	0.05798944
160	0xbd2fc255	-0.04290994
161	0xbccb5817	-0.024822278
162	0x3dd0cba6	0.10195093
163	0xbcc508d0	-0.024052054
164	0xbc55798e	-0.013029469
165	0x3d817e2d	0.06322894
166	0x3d46e261	0.048555735
167	0x3dc5830c	0.09644136
168	0x3dbe8f5d	0.09304688
169	0x3d221a5c	0.03957592
170	0xbc9b623b	-0.018967738
171	0xbd7fc863	-0.062446963
172	0xbb84d84f	-0.0040541063
173	0xbca7910d	-0.020454908
174	0x3d0c30b6	0.034226142
175	0xbd91e7c8	-0.07124287
176	0xbd410d39	-0.04713175
177	0x3d7bf759	0.061515186
178	0xbdb1b2a1	-0.08676649
179	0x3dbc3e42	0.09191562
180	0x3d14ad94	0.03629835
181	0xbdc6f017	-0.09713762
182	0xbd419302	-0.04725934
183	0x3d94f102	0.07272531
184	0xbdc5914f	-0.09646856
185	0xbd453702	-0.048148163
186	0xbcd333b9	-0.0257815
187	0xbc72d43b	-0.0148211075
188	0x3c03fbe1	0.008055658
189	0xbdb80a9c	-0.089863986
190	0x3ca0d689	0.019633548
191	0x3dc3628e	0.09540282
192	0x3d8405e3	0.06446435
193	0xbc780dda	-0.015140021
194	0xbc981484	-0.01856447
195	0x3d235ae0	0.039881587
196	0x3db916ca	0.0903755
197	0x3d55e4cc	0.05222015
198	0x3d2fb37b	0.042895775
199	0xbc2853c2	-0.010273876
200	0x3dc17a7d	0.09447191
201	0xbd4abd3e	-0.04949688
202	0x3a882f27	0.0010390029
203	0xbba10da8	-0.004914958
204	0x3dc06f3a	0.09396215
205	0x3d2e6075	0.042572457
206	0xbcb0997a	-0.021557558
207	0x3d86c890	0.06581223
208	0xbd3a5207	-0.045488384
209	0xbc6e269c	-0.014535572
210	0xbda37cbe	-0.07982777
211	0x3bafcb1a	0.0053647878
212	0xbdb3f332	-0.0878662
213	0x3db5da7c	0.08879563
214	0x3db07e07	0.08617788
215	0x3c383c7b	0.011244888
216	0xbdb3db70	-0.08782089
217	0xbd2df37d	-0.042468537
218	0xbd6ad972	-0.05733628
219	0x3d85f715	0.06541268
220	0xbdc633c7	-0.096778445
221	0x3dc3934b	0.09549578
222	0xbda1263e	-0.07868622
223	0x3dabc071	0.08386315
224	0x3d18bcb7	0.037289347
225	0xbdb96131	-0.09051741
226	0x3da211b8	0.07913536
227	0xbd2ea5de	-0.042638652
228	0xbd4da452	-0.050205536
229	0x3dc0271c	0.093824595
230	0x3d77049f	0.06030714
231	0xbcd43825	-0.025905678
232	0xbba013ef	-0.004885189
233	0x3d3dc1a3	0.046327244
234	0xbdacfe0f	-0.08446895
235	0xbcc789b1	-0.024357649
236	0xbcca7af0	-0.024716824
237	0xbd8abe72	-0.06774606
238	0x3daf668a	0.0856448
239	0xbd8172e8	-0.06320745
240	0x3d0804b1	0.0332076
241	0xbdc75e27	-0.09734755
242	0x3c58fce1	0.013243885
243	0xbb86ad49	-0.0041100127
244	0x3d86e28f	0.06586181
245	0x3da323ca	0.079658106
246	0x3a924971	0.0011160803
247	0x3da7d2db	0.08194514
248	0xbacada19	-0.0015476375
249	0xbd9bdd44	-0.076105624
250	0x3d3fc590	0.04681927
251	0x3d6be5e4	0.057592288
252	0xbd988337	-0.07446902
253	0xbdb946a2	-0.09046675
254	0xbd847d99	-0.06469268
255	0x3db3675d	0.08759949

sep_conn.bias f4 [45]
0	0x3ce6dfd7	0.028182907
1	0xbc4cc708	-0.012498625
2	0x3dce0f02	0.10061456
3	0x3db53835	0.08848611
4	0xbd355267	-0.044268038
5	0x3dac8a82	0.08424856
6	0xbbf3a505	-0.0074354433
7	0xbdb65961	-0.089037664
8	0xbd70fc0a	-0.058834113
9	0x3db77734	0.08958283
10	0xbd3e6f14	-0.04649265
11	0x3d8c0eb6	0.068387434
12	0x3d99146a	0.07474597
13	0xbd12da80	-0.03585291
14	0x3d0356b2	0.0320651
15	0xbce07cca	-0.027403254
16	0x3bcfe493	0.006344387
17	0xbd56d235	-0.052446563
18	0xbdc6e31b	-0.09711286
19	0xbd1d40f4	-0.038392022
20	0x3d8e0fff	0.06936645
21	0xbd4f9644	-0.050680414
22	0xbc90b076	-0.017662268
23	0xbdb5373a	-0.08848424
24	0xbc743ac3	-0.014906588
25	0xbbe5c250	-0.0070116892
26	0x3cd271b0	0.025688976
27	0x3d02831a	0.03186331
28	0xbd56e56f	-0.0524649
29	0xbd562355	-0.05227979
30	0xbd9f4b5b	-0.07778045
31	0x3d6a241a	0.057163335
32	0xbccaddd8	-0.024763986
33	0x3c47da4f	0.012198045
34	0xbd924280	-0.0714159
35	0xbcc27557	-0.023737593
36	0xbda15324	-0.07877186
37	0x3d37d7e5	0.044883627
38	0xbcd262ae	-0.02568182
39	0x3b90b7fa	0.004416463
40	0xbd77812d	-0.060425926
41	0xbbbd4a4a	-0.005776678
42	0x3dccb86e	0.09996115
43	0x3dad1121	0.08450533
44	0xbd1f38d6	-0.038872562

bn.weight f4 [45]
0	0x3f800000	1.0
1	0x3f800000	1.0
2	0x3f800000	1.0
3	0x3f800000	1.0
4	0x3f800000	1.0
5	0x3f800000	1.0
6	0x3f800000	1.0
7	0x3f800000	1.0
8	0x3f800000	1.0
9	0x3f800000	1.0
10	0x3f800000	1.0
11	0x3f800000	1.0
12	0x3f800000	1.0
13	0x3f800000	1.0
14	0x3f800000	1.0
15	0x3f800000	1.0
16	0x3f800000	1.0
17	0x3f800000	1.0
18	0x3f800000	1.0
19	0x3f800000	1.0
20	0x3f800000	1.0
21	0x3f800000	1.0
22	0x3f800000	1.0
23	0x3f800000	1.0
24	0x3f800000	1.0
25	0x3f800000	1.0
26	0x3f800000	1.0
27	0x3f800000	1.0
28	0x3f800000	1.0
29	0x3f800000	1.0
30	0x3f800000	1.0
31	0x3f800000	1.0
32	0x3f800000	1.0
33	0x3f800000	1.0
34	0x3f800000	1.0
35	0x3f800000	1.0
36	0x3f800000	1.0
37	0x3f800000	1.0
38	0x3f800000	1.0
39	0x3f800000	1.0
40	0x3f800000	1.0
41	0x3f800000	1.0
42	0x3f800000	1.0
43	0x3f800000	1.0
44	0x3f800000	1.0

bn.bias f4 [45]
0	0x00000000	0.0
1	0x00000000	0.0
2	0x00000000	0.0
3	0x00000000	0.0
4	0x00000000	0.0
5	0x00000000	0.0
6	0x00000000	0.0
7	0x00000000	0.0
8	0x00000000	0.0
9	0x00000000	0.0
10	0x00000000	0.0
11	0x00000000	0.0
12	0x00000000	0.0
13	0x00000000	0.0
14	0x00000000	0.0
15	0x00000000	0.0
16	0x00000000	0.0
17	0x00000000	0.0
18	0x00000000	0.0
19	0x00000000	0.0
20	0x00000000	0.0
21	0x00000000	0.0
22	0x00000000	0.0
23	0x00000000	0.0
24	0x00000000	0.0
25	0x00000000	0.0
26	0x00000000	0.0
27	0x00000000	0.0
28	0x00000000	0.0
29	0x00000000	0.0
30	0x00000000	0.0
31	0x00000000	0.0
32	0x00000000	0.0
33	0x00000000	0.0
34	0x00000000	0.0
35	0x00000000	0.0
36	0x00000000	0.0
37	0x00000000	0.0
38	0x00000000	0.0
39	0x00000000	0.0
40	0x00000000	0.0
41	0x00000000	0.0
42	0x00000000	0.0
43	0x00000000	0.0
44	0x00000000	0.0

bn.running_mean f4 [45]
0	0x00000000	0.0
1	0x00000000	0.0
2	0x00000000	0.0
3	0x00000000	0.0
4	0x00000000	0.0
5	0x00000000	0.0
6	0x00000000	0.0
7	0x00000000	0.0
8	0x00000000	0.0
9	0x00000000	0.0
10	0x00000000	0.0
11	0x00000000	0.0
12	0x00000000	0.0
13	0x00000000	0.0
14	0x00000000	0.0
15	0x00000000	0.0
16	0x00000000	0.0
17	0x00000000	0.0
18	0x00000000	0.0
19	0x00000000	0.0
20	0x00000000	0.0
21	0x00000000	0.0
22	0x00000000	0.0
23	0x00000000	0.0
24	0x00000000	0.0
25	0x00000000	0.0
26	0x00000000	0.0
27	0x00000000	0.0
28	0x00000000	0.0
29	0x00000000	0.0
30	0x00000000	0.0
31	0x00000000	0.0
32	0x00000000	0.0
33	0x00000000	0.0
34	0x00000000	0.0
35	0x00000000	0.0
36	0x00000000	0.0
37	0x00000000	0.0
38	0x00000000	0.0
39	0x00000000	0.0
40	0x00000000	0.0
41	0x00000000	0.0
42	0x00000000	0.0
43	0x00000000	0.0
44	0x00000000	0.0

bn.running_var f4 [45]
0	0x3f800000	1.0
1	0x3f800000	1.0
2	0x3f800000	1.0
3	0x3f800000	1.0
4	0x3f800000	1.0
5	0x3f800000	1.0
6	0x3f800000	1.0
7	0x3f800000	1.0
8	0x3f800000	1.0
9	0x3f800000	1.0
10	0x3f800000	1.0
11	0x3f800000	1.0
12	0x3f800000	1.0
13	0x3f800000	1.0
14	0x3f800000	1.0
15	0x3f800000	1.0
16	0x3f800000	1.0
17	0x3f800000	1.0
18	0x3f800000	1.0
19	0x3f800000	1.0
20	0x3f800000	1.0
21	0x3f800000	1.0
22	0x3f800000	1.0
23	0x3f800000	1.0
24	0x3f800000	1.0
25	0x3f800000	1.0
26	0x3f800000	1.0
27	0x3f800000	1.0
28	0x3f800000	1.0
29	0x3f800000	1.0
30	0x3f800000	1.0
31	0x3f800000	1.0
32	0x3f800000	1.0
33	0x3f800000	1.0
34	0x3f800000	1.0
35	0x3f800000	1.0
36	0x3f800000	1.0
37	0x3f800000	1.0
38	0x3f800000	1.0
39	0x3f800000	1.0
40	0x3f800000	1.0
41	0x3f800000	1.0
42	0x3f800000	1.0
43	0x3f800000	1.0
44	0x3f800000	1.0

net.0.weight f4 [45, 95]
0	0x3d0157bb	0.031577807
1	0x3bd2c100	0.006431699
2	0x3ced0ae3	0.028935855
3	0x3c29b1a5	0.010357295
4	0x3ce1acd0	0.027548224
5	0x3cc23a4a	0.023709435
6	0x3b0098e5	0.0019622382
7	0x3cbe3c35	0.023222068
8	0xbb6fdce9	-0.0036600179
9	0xbc16e9ce	-0.009211017
10	0xb8818cfa	-6.177458e-05
11	0xbbb997be	-0.005663841
12	0xbb8e2bc3	-0.004338713
13	0xbc2ace8e	-0.010425223
14	0xbbae9be1	-0.005328641
15	0x3b877635	0.0041339644
16	0x3b7ef1c9	0.003890144
17	0xbbaddec3	-0.0053060963
18	0xbbadadf3	-0.0053002774
19	0xbc3d9055	-0.011570056
20	0x3beefe80	0.0072935224
21	0x3bff87f6	0.00779819
22	0xbba24b6c	-0.0049528386
23	0x3c6bf2b5	0.014401128
24	0xbac9b7ce	-0.0015389861
25	0x3cccd79c	0.025005154
26	0x3c8a0c89	0.01685168
27	0xbc208df9	-0.009799474
28	0x3d3121cb	0.043245118
29	0x3c3a127a	0.011356944
30	0xbb53741a	-0.0032265247
31	0xbb4771ba	-0.0030432777
32	0xbaec155f	-0.001801174
33	0xbb0af220	-0.0021201447
34	0xbacb8ee8	-0.001553026
35	0x3cb97fde	0.02264398
36	0xbc08d12a	-0.00835065
37	0xba8f74c9	-0.0010944839
38	0x3bfb82bc	0.007675497
39	0xbc0ea37d	-0.008705971
40	0xbbe4b6f1	-0.006979816
41	0x3c8fa4ea	0.017534692
42	0x3bdec655	0.0067985454
43	0xbc0b452a	-0.008500377
44	0x3c7c035f	0.015381663
45	0x3c736f35	0.014858057
46	0xbc49a4c0	-0.012307346
47	0x3c012955	0.0078833895
48	0xbc97c546	-0.018526684
49	0xbbb166f4	-0.0054138843
50	0xbc3d4a45	-0.011553352
51	0x394e2190	0.00019658194
52	0x3c0205c4	0.007935945
53	0x3b10d71e	0.0022100876
54	0x3cb7215f	0.02235478
55	0x3bd7dd38	0.0065876506
56	0x3a018da7	0.00049420673
57	0xbb50fd97	-0.0031889433
58	0x3c25cfd4	0.010120351
59	0xbbcc28f1	-0.0062304665
60	0x3c1c40be	0.00953692
61	0x3bbbf5fe	0.0057361117
62	0x3b903207	0.004400495
63	0xbc0476d9	-0.008084976
64	0xbb4217bc	-0.0029616198
65	0xbb2b3571	-0.0026124383
66	0x387d77c7	6.0431452e-05
67	0xbb98fe90	-0.004669018
68	0xbbef145e	-0.007296129
69	0x3c1bf609	0.009519109
70	0x3c09809c	0.008392479
71	0xbb7a0fa7	-0.0038156302
72	0xbbc6da88	-0.0060685314
73	0xb915d644	-0.00014289567
74	0x3b08609f	0.0020809544
75	0xbbefab36	-0.007314111
76	0xbb2a547e	-0.0025990303
77	0x3c247b3b	0.010039146
78	0x3a75459e	0.0009356382
79	0x3b902733	0.004399204
80	0xbb825387	-0.0039772424
81	0xbb94fdc3	-0.0045468523
82	0x3a29885b	0.0006467157
83	0xba5e61fb	-0.0008483228
84	0x3b346117	0.002752369
85	0x3b8f9bbc	0.0043825787
86	0xbc5e0fe1	-0.0135535905
87	0x3b8667de	0.0041017374
88	0x3b842edb	0.004033906
89	0x3c54b436	0.012982419
90	0xbbeca87e	-0.0072222343
91	0xba8e914f	-0.0010877046
92	0x3cbb6272	0.02287409
93	0xba9b82eb	-0.0011864578
94	0xb9c27e5c	-0.0003709671
95	0x3cc890ca	0.024483103
96	0x3b9de569	0.0048186076
97	0xbcc87911	-0.024471791
98	0xbd399f7d	-0.045318116
99	0xbb04de71	-0.0020274187
100	0xbbe8b05f	-0.007101103
101	0x3cae9a3f	0.021313785
102	0xbbf35604	-0.0074260253
103	0x3d0f8c40	0.035045862
104	0x3d311f40	0.043242693
105	0x3c9f67bf	0.01945865
106	0x3c093e12	0.008376615
107	0xbc4e8ab9	-0.012606316
108	0x3d912c76	0.070885584
109	0x3cd55b52	0.026044521
110	0x3d2a0f8c	0.041518733
111	0xba9d63c9	-0.0012007888
112	0xbbbb4125	-0.005714553
113	0xbd386ecd	-0.045027543
114	0x3d533629	0.051565323
115	0xbc292dd3	-0.010325867
116	0xbd5169e9	-0.051126394
117	0xbd4c62ee	-0.049899034
118	0x3cdbdf8a	0.02683999
119	0x3ba19bd9	0.0049319086
120	0xbc234d27	-0.009967125
121	0x3c66375c	0.014051285
122	0x3bd3b36f	0.006460599
123	0xbd8768e7	-0.066118054
124	0xbc4b4155	-0.012405713
125	0xbd700dbe	-0.058606856
126	0x3ca26ca4	0.019827195
127	0x3d077c33	0.03307743
128	0xbc351caf	-0.011054202
129	0x3cdc374f	0.026881842
130	0xbc9beb96	-0.019033235
131	0x3cddecc1	0.027090432
132	0x3b2a47b9	0.0025982691
133	0x3daaa0b5	0.08331434
134	0x3d1d7b11	0.038447443
135	0xbb8ce51e	-0.004299774
136	0xbd3436d9	-0.04399762
137	0xbd082108	-0.033234626
138	0xbd87ad48	-0.06624848
139	0x3ba7b010	0.005117424
140	0x3c8ef337	0.017449958
141	0xbb61e96b	-0.0034471403
142	0x3e09b52f	0.13448022
143	0x3d1cb691	0.038260046
144	0x3d445445	0.04793193
145	0xbc66c97c	-0.014086124
146	0x3d446121	0.04794419
147	0x3cdd92db	0.027047565
148	0x3cf65938	0.03007184
149	0xbbfc311d	-0.0076962844
150	0x3c204a61	0.009783358
151	0x3d22b02f	0.039718803
152	0x3b371327	0.0027935
153	0x3c1560a5	0.00911728
154	0x3b34c906	0.002758564
155	0x3b6d3e8e	0.0036200616
156	0x3b58fffa	0.0033111558
157	0xbc48cc89	-0.012255796
158	0x3be5ac58	0.0070090704
159	0xbcb6a501	-0.022295477
160	0x3c3178db	0.010832037
161	0xbc7d88bb	-0.015474494
162	0x3d07921c	0.033098325
163	0xbbaaae3b	-0.005208758
164	0xbbb3a4be	-0.0054822853
165	0x3a9d25b6	0.0011989388
166	0xbb8b683c	-0.004254369
167	0x3c9591b3	0.018257951
168	0x3c0c13da	0.008549655
169	0xbbe11cc4	-0.006869884
170	0x3c5c5f57	0.013450465
171	0x3c1b8c71	0.009493933
172	0x3bc518db	0.006014926
173	0xbbd6b683	-0.006552519
174	0x3d7625c1	0.0600946
175	0xbbe12645	-0.006871017
176	0xbb1b2702	-0.0023674374
177	0xbbc49b50	-0.00599996
178	0xbc9c7acb	-0.019101521
179	0x3c28ab95	0.010294815
180	0xbc191c8c	-0.009345185
181	0x3c920fd4	0.017829813
182	0xba874822	-0.001032118
183	0x3c3c780e	0.011503233
184	0xbbc3b796	-0.005972813
185	0x3c22c14d	0.009933782
186	0x3c1ab6b4	0.009442974
187	0x3d711fbc	0.058868155
188	0x3c845f5d	0.016158754
189	0x3c325db0	0.010886595
190	0x3b2da0f4	0.002649364
191	0xbb0553f3	-0.0020344227
192	0xbc2d6ff0	-0.01058577
193	0xbb46c477	-0.0030329505
194	0x3b328df6	0.002724526
195	0xbb4680d2	-0.0030289185
196	0xbb0c120a	-0.0021373057
197	0x3c601251	0.013676242
198	0xbc030b85	-0.007998352
199	0xbafe868d	-0.0019418761
200	0xbbe0d4ec	-0.0068613198
201	0xba999665	-0.0011717795
202	0x3ab0b23e	0.0013480855
203	0x3b80193e	0.003909259
204	0x3a0925f4	0.0005231791
205	0x3b5f8d72	0.0034111408
206	0xbab8ef8b	-0.0014109475
207	0xbaca5bec	-0.0015438772
208	0x3a5a242b	0.00083214295
209	0x3b73a763	0.0037178628
210	0xbbbd8c50	-0.005784549
211	0x3b90f7b6	0.0044240607
212	0x3a2f6ff2	0.00066924014
213	0x3b8cf680	0.004301846
214	0x3c001e7f	0.007819771
215	0xbc025711	-0.007955329
216	0xb9ddb59a	-0.00042287708
217	0xbc16dd3d	-0.009208021
218	0xbbb64861	-0.0055628275
219	0x3b8be14e	0.004268802
220	0x3c565318	0.0130813345
221	0xbb4708c8	-0.0030370224
222	0xbacab4c0	-0.0015465245
223	0xbbe505be	-0.00698921
224	0x3a8652ff	0.0010248123
225	0x3b529fcf	0.003213871
226	0xbb3d49eb	-0.002888317
227	0xbbef3e82	-0.0073011527
228	0xbbc130f3	-0.005895728
229	0xbb6d138e	-0.0036174986
230	0x3c16cfde	0.009204833
231	0xbc007661	-0.007840724
232	0x3b35f1a6	0.0027762442
233	0x3b560201	0.0032655003
234	0xbb71c410	-0.0036890544
235	0x37f3b28a	2.9050996e-05
236	0xbb52473b	-0.0032085914
237	0xbb6e6cf2	-0.0036380854
238	0x3bb66997	0.0055667865
239	0xbb3eeedd	-0.0029134073
240	0x3bf406a0	0.007447079
241	0x3b3adcf3	0.0028513044
242	0x3a3c20c8	0.00071765156
243	0xbb598dc7	-0.0033196078
244	0xbc23ecc4	-0.01000518
245	0x3aab1f53	0.00130556
246	0xbae515d5	-0.001747782
247	0x3adcb269	0.0016837838
248	0xbb1e7d8b	-0.0024183716
249	0xbb960d86	-0.004579249
250	0x3b426fc5	0.002966867
251	0xba87a175	-0.00103478
252	0xbbd06234	-0.006359363
253	0x3a864a9e	0.0010245626
254	0xb81dc5c9	-3.761592e-05
255	0x3c09523a	0.008381421

net.0.bias f4 [45]
0	0x3cef2237	0.02919112
1	0x3d9173bd	0.071021535
2	0xbc48b201	-0.012249471
3	0x3dd2d073	0.10293665
4	0x3cd93046	0.026512276
5	0x3c851cf3	0.016249156
6	0xbc996cc2	-0.018728618
7	0xbd1d0a74	-0.038340047
8	0x3c45e86e	0.012079341
9	0x3d21015d	0.03930794
10	0x39e2f266	0.0004328668
11	0xbd2cad41	-0.042157415
12	0x3da9d392	0.08292307
13	0xb9bc95e3	-0.0003596983
14	0xbca34d40	-0.019934297
15	0xbd147768	-0.036246687
16	0xbc7d7c99	-0.015471601
17	0xbd15e21a	-0.03659258
18	0xbd21c55e	-0.039494865
19	0x3d395609	0.045248065
20	0xbd20796f	-0.039178308
21	0x3d7206c0	0.05908847
22	0xbdc7c656	-0.097546265
23	0xbc40ca76	-0.01176702
24	0xbd05c539	-0.03265879
25	0x3d6f3c42	0.058407076
26	0x3c062aaf	0.0081888875
27	0xbbe5fc0e	-0.0070185727
28	0x3bc69212	0.0060598934
29	0x3d389306	0.045062087
30	0xbd4f0d1a	-0.050549604
31	0xbd4caf60	-0.049971938
32	0xbd5b5e46	-0.053556703
33	0x3d4c4391	0.049869124
34	0x3c8f01cf	0.017456917
35	0xbc59358d	-0.013257396
36	0xbba841a0	-0.0051347762
37	0xbd0a9b84	-0.033839718
38	0x3c5f213f	0.013618766
39	0x3ca5dc27	0.020246578
40	0x3ca677a4	0.020320721
41	0x3ca61099	0.020271586
42	0xbc1b2533	-0.009469318
43	0x3cb261f7	0.021775229
44	0x39af7a62	0.00033469783

net.3.weight f4 [45, 45]
0	0x3be6ab7f	0.007039487
1	0x3c01f210	0.007931247
2	0xbbea85f6	-0.0071570827
3	0x3b5a4c91	0.0033309797
4	0xba51d2dd	-0.00080041384
5	0x3bf601a8	0.0075075217
6	0xbc14e7ae	-0.00908844
7	0x3bae47be	0.005318611
8	0x3c5cc64f	0.013475015
9	0xbb6519e6	-0.0034958064
10	0xbc3b149e	-0.01141849
11	0xbc1d529b	-0.009602214
12	0x3b006847	0.0019593404
13	0x3baa3728	0.0051945634
14	0xbc1bb4e6	-0.009503579
15	0xba7622f8	-0.0009389366
16	0x3ba5b6a9	0.005057175
17	0x3c17e155	0.009270032
18	0xbc02b3f5	-0.007977475
19	0x3bf538c1	0.0074835722
20	0xbabce418	-0.0014411239
21	0x3abb43d7	0.0014287186
22	0x3c07ce54	0.008288939
23	0x3c0207b1	0.007936404
24	0x3bc24fa2	0.005929903
25	0xbb140612	-0.0022586626
26	0x3b777a0a	0.003776195
27	0xbc240bed	-0.010012609
28	0xbbc9f404	-0.006163122
29	0xbb8dd6db	-0.0043285913
30	0x3bf28dce	0.0074021583
31	0x3c513531	0.0127690295
32	0xbbdf56cf	-0.0068157683
33	0x3b1ba42c	0.0023748977
34	0xbbffc11a	-0.007805002
35	0xbb982e5f	-0.0046441997
36	0xbaea3513	-0.00178686
37	0x3c2f8d52	0.010714846
38	0x3ac98ce2	0.0015377069
39	0xbbd74bb7	-0.006570305
40	0xb9285973	-0.00016055051
41	0x3c08e348	0.008354969
42	0x3bbfacbb	0.0058494485
43	0x3c1930b7	0.009349993
44	0xbaf73db2	-0.0018862991
45	0xbb4e246e	-0.003145482
46	0x3d330fd3	0.043716263
47	0x3c12a83e	0.008951245
48	0x3cef1a51	0.029187353
49	0x3cb427a0	0.02199155
50	0xbc9afa0e	-0.018918063
51	0x3b4b2e13	0.0031002804
52	0x3d170f41	0.03687978
53	0xbcf6327c	-0.03005337
54	0x3c553a4e	0.013014389
55	0x3d69457f	0.056951042
56	0xbbd782f2	-0.006576889
57	0x3cfd221c	0.030900054
58	0xbc8b0fd8	-0.016975328
59	0xbada827e	-0.001667097
60	0x3a10edab	0.00055285793
61	0xbb4df30e	-0.003142539
62	0xbcd40ab8	-0.025884017
63	0x3d3bccf9	0.045849774
64	0x3d343aa4	0.044001237
65	0xbb61bdec	-0.0034445478
66	0x3d34fa5d	0.044184078
67	0xbd38fadb	-0.04516111
68	0xbd2c1c95	-0.042019445
69	0xbc9b3261	-0.018944921
70	0x3c1bf143	0.0095179705
71	0xba9e45c7	-0.0012075239
72	0x3a54b4c8	0.00081140967
73	0xbc770379	-0.015076512
74	0x3d002378	0.031283826
75	0xbcd52f9f	-0.026023684
76	0xbd365790	-0.0445171
77	0xbd4788aa	-0.048714317
78	0x3d450c5b	0.048107486
79	0xbc1a9f35	-0.009437372
80	0xbb42a788	-0.0029701907
81	0x38a1b7d0	7.711316e-05
82	0xbd3af2c4	-0.045641676
83	0xb9ba0153	-0.0003547767
84	0xbd32cbb4	-0.043651298
85	0x3cd0de71	0.025496693
86	0xb98daa88	-0.0002702067
87	0xbba71ead	-0.0051000924
88	0x3b7af5d1	0.003829349
89	0x3c2b3d92	0.010451691
90	0x3d06b204	0.032884613
91	0xbd2ca160	-0.042146087
92	0x3b757ae1	0.0037457275
93	0xbd3d1251	-0.046160046
94	0xbd3935f6	-0.045217477
95	0x3d431cbb	0.04763482
96	0x3ca15c3d	0.019697303
97	0xbcc0daf3	-0.023541903
98	0x3d1ec0b1	0.038757984
99	0xbaf1813b	-0.0018425355
100	0xbd42b22a	-0.04753319
101	0x3bcbadef	0.006215803
102	0xbcd2e687	-0.02574469
103	0x3c9e6aaa	0.01933797
104	0xbaa32499	-0.001244682
105	0xbc18d856	-0.009328922
106	0x3b607d7e	0.0034254487
107	0x3c1c4382	0.0095375795
108	0xbd0916ea	-0.03346912
109	0xbd10685b	-0.03525577
110	0x3bdb038d	0.006683773
111	0xbd137f9d	-0.036010373
112	0x3d39cd41	0.04536176
113	0x3d8220d1	0.063539155
114	0x3d3722a9	0.04471079
115	0xbc3c531e	-0.011494426
116	0x3c1259e8	0.008932568
117	0xbb750b1f	-0.0037390662
118	0x3c3ec65e	0.011643974
119	0x3bde515a	0.0067846
120	0x3d5d5624	0.05403723
121	0x3d8c260e	0.06843196
122	0x3d57b050	0.05265838
123	0xbd233d39	-0.03985331
124	0x3c659d59	0.014014565
125	0x3b3f3c03	0.0029180057
126	0xbbdcfc55	-0.0067439475
127	0x3d6ca56a	0.05777494
128	0x3c2087a3	0.009797963
129	0x3d4488da	0.047982074
130	0xbcc423f3	-0.023942923
131	0xbc38d270	-0.011280641
132	0x3c5e1e22	0.013556989
133	0x3bb6dde6	0.0055806516
134	0x3bca30b6	0.0061703576
135	0x3c03c359	0.00804218
136	0xbca9d61d	-0.02073198
137	0x3d16dca1	0.036831502
138	0xbd7bd2fa	-0.0614805
139	0xbd8e4d42	-0.069483295
140	0x3d0a9323	0.033831727
141	0x3bf72e52	0.0075433636
142	0xbc9c189a	-0.0190547
143	0x3d2d4ce0	0.04230964
144	0xbc8bb6e6	-0.017054986
145	0x3bcfc85c	0.0063410234
146	0xbb403472	-0.0029328135
147	0xbd095817	-0.033531275
148	0x3c86e91a	0.016468573
149	0xbb0360b6	-0.0020046658
150	0x3cc88e52	0.024481926
151	0x3d3b852b	0.045781296
152	0x3d5d5b14	0.054041937
153	0xbd1cb117	-0.038254824
154	0xbd8cdfa4	-0.068785936
155	0x3bf563ef	0.0074887197
156	0xbd97f6b5	-0.074201025
157	0x3d99027f	0.07471179
158	0x3d8c07f1	0.06837452
159	0x3cc52758	0.024066612
160	0xbdd9a4a2	-0.10627104
161	0x3b93f9b9	0.0045158532
162	0xbd1f944e	-0.038959794
163	0x3bdc5646	0.006724152
164	0xbd148868	-0.0362629
165	0x3df87ebd	0.121335484
166	0x3afdb089	0.001935498
167	0x3ddbd1fd	0.107334115
168	0xbd49a062	-0.04922522
169	0x3c1e2893	0.009653228
170	0x3b4915f8	0.003068326
171	0xba57d84b	-0.0008233829
172	0x3d615a1c	0.055017576
173	0x39b39869	0.00034255095
174	0x3c649133	0.013950634
175	0xbc91936d	-0.017770493
176	0xbc23c7ab	-0.009996335
177	0x3c98fc7e	0.018675085
178	0x3a2aeb28	0.00065200264
179	0xbbbe9800	-0.0058164597
180	0xbb97b1da	-0.004629356
181	0x3d47c1fd	0.048768986
182	0x3b1bf62a	0.0023797848
183	0x3d85db15	0.06535927
184	0x3d594010	0.05303961
185	0xbdae7c5f	-0.08519816
186	0x3ba2a53a	0.004963544
187	0x3bc980b5	0.0061493763
188	0xbcb2b2a4	-0.021813698
189	0x3cce6eda	0.025199343
190	0x3da29717	0.07938974
191	0x3ab0202b	0.0013437321
192	0x3d2f6acf	0.04282647
193	0xbcd25ae5	-0.025678108
194	0xbb2c20ec	-0.002626474
195	0x3c1c58c0	0.009542644
196	0x3b265136	0.0025377995
197	0xbd2463ac	-0.040134117
198	0x3c202bb2	0.009776043
199	0x3d8c99c4	0.06865266
200	0xbc6b9fa1	-0.01438132
201	0x3d3a44a6	0.045475625
202	0xbd3cf3ae	-0.04613083
203	0xbccb7427	-0.02483566
204	0xbceb2162	-0.028702442
205	0xbcead124	-0.02866418
206	0xbb171cc1	-0.002305791
207	0x3c4764fd	0.012170074
208	0xbc94519a	-0.018105317
209	0xbd4e413b	-0.050355177
210	0xbcff5112	-0.031166587
211	0xbdb8bd2a	-0.09020455
212	0xbdbbca1d	-0.091694094
213	0x3d3d2e2e	0.04618662
214	0xbc2767d1	-0.010217623
215	0xbb486d5e	-0.0030582766
216	0xbaab9378	-0.0013090214
217	0xbd96845a	-0.07349463
218	0xbb8b28be	-0.0042468
219	0xbd9f939b	-0.077918254
220	0x3cc00474	0.023439623
221	0x3b7640a6	0.0037575155
222	0xbaee29dc	-0.0018170434
223	0x3c2dc7bb	0.0106067015
224	0x3c2e867e	0.010652183
225	0x3d7320b7	0.05935737
226	0xbd8adcd6	-0.06780402
227	0xbb8e9c9d	-0.004352166
228	0xbd5d770b	-0.054068606
229	0xbd97b8c1	-0.07408286
230	0x3e05c3bc	0.13062948
231	0x3c50e99e	0.012751011
232	0x3c454573	0.012040484
233	0x3dc8ae0d	0.097988226
234	0xb808eeb8	-3.264725e-05
235	0xbd3dcfd6	-0.046340786
236	0xbb52132b	-0.0032054882
237	0xbd41de20	-0.047330976
238	0x3d7d0218	0.061769575
239	0xbb0c6c10	-0.0021426715
240	0xbab55428	-0.0013834285
241	0xba95fa5f	-0.0011442414
242	0x3cd8b37e	0.026452776
243	0xbd0bddd5	-0.034147102
244	0xbd8a7111	-0.06759847
245	0x3c092316	0.008370182
246	0xbd055117	-0.032548036
247	0x3d71c027	0.05902114
248	0x3dd4da26	0.10393171
249	0x3d48873e	0.048957102
250	0xbb95dd8a	-0.0045735287
251	0xb8adcab9	-8.287043e-05
252	0x3aafd321	0.0013414362
253	0x3cacf81b	0.0211144
254	0xbcb5aa66	-0.022175979
255	0x3e0c106e	0.13678142

net.3.bias f4 [45]
0	0x3b340449	0.0027468374
1	0x3dd448aa	0.10365422
2	0x3d2b028f	0.041750487
3	0x3d94e2f2	0.07269849
4	0x3e13c8cc	0.14432067
5	0xbd3d8917	-0.046273317
6	0x3e0303f2	0.12794474
7	0x3c5fc485	0.013657694
8	0x3def2e8c	0.116788
9	0x3c88a2c2	0.016679171
10	0x3d97bf22	0.074095026
11	0x3c92f01d	0.01793676
12	0xbc2af784	-0.010434989
13	0xbd1408f6	-0.03614136
14	0xbd3e1986	-0.04641106
15	0xbd2007da	-0.039069988
16	0x3e152104	0.14563376
17	0x3d75e104	0.060029045
18	0x3c2bb51f	0.010480194
19	0x3db2d87a	0.08732696
20	0x3cb0d4e6	0.021585893
21	0x3d4f6ac9	0.050638948
22	0xbcf31b7e	-0.029676195
23	0x3d43558a	0.047689
24	0x3cc83550	0.024439484
25	0x3e1dcee3	0.15410952
26	0x3e137c46	0.14402875
27	0x3d2185f8	0.039434403
28	0x3d6148e6	0.055001162
29	0x3da65c7b	0.08123108
30	0xbc9fcfae	-0.01950821
31	0xbb95ce81	-0.0045717363
32	0xbc1fab32	-0.009745406
33	0xbc4f5ca9	-0.012656369
34	0x3df11714	0.1177198
35	0xbcc173d1	-0.023614796
36	0x3df15d50	0.11785376
37	0x3c75f395	0.015011688
38	0xbcec0689	-0.02881171
39	0xbd95459b	-0.07288667
40	0x3db34f42	0.087553516
41	0xbd73d64a	-0.059530534
42	0x3d6f3614	0.058401182
43	0xbc956f04	-0.018241413
44	0x3da88c92	0.08229937
