bestclf/german/g01.pth (torch, 46462 bytes, 23 tensors)

fc1.weight f4 [64, 45]
0	0xbdade9bc	-0.08491847
1	0xbdd489d5	-0.10377852
2	0xbd4b4582	-0.049626835
3	0x3e11cdfd	0.14238735
4	0xbd7c4304	-0.06158735
5	0x3d6be8b8	0.057594985
6	0x3e0e4312	0.13892773
7	0x3d625d0c	0.055264518
8	0x3e19d93f	0.15024279
9	0x3e04a719	0.12954368
10	0xbdcceef3	-0.100065134
11	0xbe639e73	-0.22228412
12	0x3dc96853	0.098343514
13	0xbc05bf4e	-0.008163286
14	0xbd96c8f8	-0.073625505
15	0xbdaedcae	-0.08538185
16	0xbdeeef3d	-0.11666725
17	0x3e67f31a	0.2265133
18	0xbe3c3010	-0.1837771
19	0xbe9180b3	-0.28418502
20	0x3cffc5ff	0.031222342
21	0xbdaa5188	-0.08316332
22	0xbe6eabe7	-0.23307763
23	0x3e85e7e3	0.26153478
24	0xbcaa55df	-0.0207929
25	0xbc88a6c9	-0.016681092
26	0xbe0a2438	-0.13490379
27	0x3e8d1bfb	0.2756041
28	0xbd32e889	-0.043678794
29	0xbdea1352	-0.11429466
30	0x3e33fed6	0.17577681
31	0x3d6622b1	0.056185428
32	0xbdc86a33	-0.09785881
33	0xbd642a0d	-0.055704165
34	0xbe417b3f	-0.18894671
35	0xbe1d45e0	-0.15358686
36	0x3d544fd2	0.051833935
37	0xbc69a122	-0.014259608
38	0xbe849d9d	-0.259015
39	0x3e6291e5	0.22125967
40	0x3e2db4a8	0.16963446
41	0x3df39289	0.11893184
42	0xbe9e52b4	-0.30922472
43	0x3e12c28b	0.14332025
44	0x3c799f8c	0.015235793
45	0x3e169323	0.14704566
46	0xbb909bd9	-0.0044131097
47	0xbe670169	-0.22559132
48	0xbd5f186a	-0.054466642
49	0xbdede436	-0.116157934
50	0xbe7bd82a	-0.24594179
51	0xbe8e7562	-0.2782393
52	0x3ccd8091	0.02508572
53	0x3e085ca2	0.13316587
54	0xbe9ecc83	-0.31015405
55	0x3df680bd	0.12036274
56	0x3e52c85b	0.20584242
57	0x3e94eafa	0.29085523
58	0xbe9f6358	-0.3113048
59	0xbd0d56ae	-0.034506492
60	0xbd9f504c	-0.07778987
61	0xbcd1f8e9	-0.025631385
62	0xba96d186	-0.0011506535
63	0x3d3e2d21	0.046429757
64	0xbdd97107	-0.106172614
65	0x3da1a830	0.07893407
66	0xbd469d71	-0.04848999
67	0xbdcc308a	-0.099701956
68	0x3e2736c2	0.16329482
69	0xbd82f4fd	-0.06394384
70	0xbe2ed246	-0.170724
71	0x3dea3b9f	0.11437153
72	0xbadd82ab	-0.0016899904
73	0x3d5d6a12	0.054056235
74	0xbda831bb	-0.0821261
75	0x3debbb78	0.11510366
76	0xbe81e137	-0.25367138
77	0xbdd96931	-0.10615767
78	0xbddc0ca4	-0.107445985
79	0x3e1ec472	0.15504625
80	0xbe4108fa	-0.1885108
81	0x3d7c67aa	0.0616223
82	0x3e29c6e8	0.16579783
83	0x3dbc4ff0	0.09194934
84	0xbd638c53	-0.055553745
85	0xbdbcef4b	-0.09225329
86	0xbd1fe01b	-0.039032083
87	0xbe3c14b9	-0.1836728
88	0x3ea48046	0.32129115
89	0xbec300b8	-0.38086486
90	0xbe24deef	-0.16100667
91	0x3df663a8	0.12030727
92	0x3e8c6fe1	0.27429107
93	0xbe57cf3c	-0.21075147
94	0xbe8ab6fe	-0.27092737
95	0x3e40c234	0.18824083
96	0xbe731d7a	-0.23741713
97	0xbe1cb8d6	-0.15304884
98	0xbd9522d4	-0.072820336
99	0x3c87558b	0.016520282
100	0x3d0e36a4	0.034720078
101	0xbe1e7789	-0.15475287
102	0x3b74c8fd	0.0037351244
103	0xbb99ebbd	-0.0046972916
104	0xbe6fe341	-0.23426534
105	0x3d016b96	0.031596743
106	0x3e510412	0.20411709
107	0x3bbf3460	0.005835101
108	0x3e35cfe0	0.1775508
109	0xbd8f3c12	-0.069938794
110	0xbe366ef6	-0.17815766
111	0x3dc3b2d7	0.09555595
112	0xbdc9671d	-0.098341204
113	0xbdccdc06	-0.10002904
114	0xbe5989f9	-0.21244039
115	0xbe0a7bc2	-0.13523772
116	0xbe8dc48b	-0.27689013
117	0x3e8d3e91	0.27586797
118	0xbeaeaeed	-0.34117833
119	0xbe0f0082	-0.13965037
120	0xbe3bde8d	-0.18346615
121	0xbd0bf46d	-0.03416865
122	0xbde61351	-0.11234153
123	0x3e21fd2a	0.1581923
124	0x3d55664e	0.05209952
125	0xbe8950c5	-0.26819435
126	0xbe049d9c	-0.12950748
127	0xbc42948d	-0.011876238
128	0x3d3efd7c	0.04662846
129	0xbd8b5e2e	-0.06805073
130	0xbf1e9147	-0.61940426
131	0x3d0abf4d	0.033873845
132	0x3dcad49d	0.09903834
133	0xbdde82aa	-0.10864766
134	0xbe0c3a18	-0.13694036
135	0xbc596d0f	-0.0132706305
136	0xbe33422e	-0.17505714
137	0x3bd9047b	0.0066228486
138	0xbb98fd19	-0.0046688435
139	0x3c2ec23e	0.010666428
140	0xbe85f1c9	-0.2616103
141	0x3c5f1a74	0.013617147
142	0x3d861e4a	0.06548746
143	0xbd0e2cd9	-0.03471074
144	0x3e007c04	0.12547308
145	0xbc261577	-0.010136954
146	0xbd0f75de	-0.035024516
147	0x3d67f1f7	0.05662724
148	0x3d81f4c0	0.063455105
149	0x3bf4c5f6	0.007469888
150	0xbecf34b4	-0.40469897
151	0xbddbdca0	-0.1073544
152	0x3cb86c70	0.022512645
153	0x3d78c4a0	0.06073439
154	0x3d811ad8	0.06303948
155	0x3d0b04bc	0.033940062
156	0x3d13a27a	0.03604362
157	0xbd632986	-0.05545952
158	0x3e915cc6	0.28391093
159	0x3d950847	0.072769694
160	0xbe89cb9b	-0.2691315
161	0xbe0b94b3	-0.13630943
162	0xbc789aa4	-0.015173588
163	0x3e276d81	0.16350366
164	0xbde02ef1	-0.10946453
165	0x3e911348	0.28335023
166	0xbe378251	-0.17920806
167	0xbd176eba	-0.03697083
168	0xbe288ad2	-0.16459206
169	0xbd98aad2	-0.074544564
170	0x3e1e0287	0.15430652
171	0xbd8fb11c	-0.07016203
172	0xbe9aef50	-0.30260706
173	0xbe0a8170	-0.13525939
174	0x3d881f3c	0.066465825
175	0xbd454619	-0.048162553
176	0x3eb62580	0.35575485
177	0xbe3c93ab	-0.18415706
178	0xbdbfee9b	-0.09371682
179	0xbe7b416c	-0.24536675
180	0xbea983e6	-0.33108443
181	0x3ca98431	0.020692917
182	0xbea7cb1e	-0.32772154
183	0x3d8a3309	0.067480154
184	0xbe7a5bb0	-0.24449039
185	0x3d6e4803	0.058174144
186	0xbe37375f	-0.17892216
187	0x3dd0fbef	0.102043025
188	0xbe8b1ef0	-0.2717204
189	0xbea45ec8	-0.32103562
190	0xbd783b2e	-0.060603313
191	0x3c94238f	0.018083362
192	0xbdf98bfb	-0.12184902
193	0x3dee1196	0.11624448
194	0x3e320fce	0.17388842
195	0xbd8411e3	-0.06448724
196	0xbd8742ea	-0.0660456
197	0xbd98ace3	-0.074548505
198	0x3e964592	0.29349953
199	0x3d27f77c	0.041007504
200	0xbdf99134	-0.121858984
201	0x3d0268f4	0.031838372
202	0x3e28ba91	0.1647742
203	0x3e8352c2	0.25649077
204	0xbde643ad	-0.11243377
205	0xbdb8ea69	-0.09029085
206	0x3dc12a5d	0.09431908
207	0x3e3e28d4	0.18570262
208	0x3df598eb	0.119920574
209	0x3d7d9f42	0.06191946
210	0x3e5f4b7b	0.21806137
211	0x3dd17812	0.1022798
212	0xbd4231ce	-0.04741078
213	0x3dd566c8	0.104199946
214	0x3e477f35	0.1948212
215	0xbe5e2cf0	-0.2169683
216	0xbe015ab5	-0.12632258
217	0x3d05b446	0.032642625
218	0x3e45527c	0.19269747
219	0x3d11b448	0.03557232
220	0xbeb0bb45	-0.34517875
221	0xbdc25aed	-0.09489999
222	0xbdb0fe8d	-0.08642302
223	0x3c4e9f45	0.012611215
224	0xbdb430d4	-0.08798376
225	0x3da3d5fe	0.079998
226	0xbc32d2c3	-0.010914507
227	0x3dab6083	0.083680175
228	0x3d21b860	0.039482474
229	0xbe66a3f9	-0.22523488
230	0xbdcfaa03	-0.10139849
231	0x3e3d1f6f	0.18469022
232	0xbd8719c3	-0.065967105
233	0x3dd43c3c	0.10363051
234	0xbbb87190	-0.005628772
235	0xbda6d4d2	-0.08146061
236	0x3e91e85a	0.28497583
237	0x3e2d49dc	0.16922706
238	0xbe40a0fa	-0.18811408
239	0xbd856aca	-0.06514509
240	0xbe55db88	-0.20884526
241	0xbd444ebd	-0.047926653
242	0x3de995cd	0.11405525
243	0xbc52902a	-0.012851754
244	0x3d208a76	0.039194547
245	0xbde929c8	-0.11384922
246	0xbd5f847a	-0.0545697
247	0xbe0e0fc8	-0.13873208
248	0x3e22d80c	0.15902728
249	0x3e0ee8ab	0.13955943
250	0x3e5dd9bc	0.2166509
251	0xbd0c7f45	-0.03430106
252	0xbd35d37a	-0.044391133
253	0x3cddf061	0.02709216
254	0x3ae073b0	0.0017124321
255	0x3d1ba0da	0.037995197

fc1.bias f4 [64]
0	0x3514b062	5.539097e-07
1	0x38867faf	6.413401e-05
2	0x368d7263	4.215444e-06
3	0xb78ca04a	-1.6763941e-05
4	0x35f1f429	1.8026959e-06
5	0xb4d81ed1	-4.0255557e-07
6	0xb522b6de	-6.061581e-07
7	0x3601a6e2	1.9319637e-06
8	0xb59995a8	-1.1442944e-06
9	0x34db0226	4.0793492e-07
10	0x34d5ad60	3.980049e-07
11	0x342aec24	1.5918391e-07
12	0x35fbf2fc	1.8771675e-06
13	0x3494a145	2.7684487e-07
14	0x35339d83	6.6911906e-07
15	0xb5d14e60	-1.5594524e-06
16	0x35ae5f5f	1.2991767e-06
17	0x36c6b812	5.9222884e-06
18	0xb5544beb	-7.908663e-07
19	0x36808f98	3.831414e-06
20	0x35f795b3	1.8446502e-06
21	0xb6de70d4	-6.6292505e-06
22	0x348169d8	2.4105134e-07
23	0xb4c2d193	-3.62878e-07
24	0x3609c367	2.052833e-06
25	0x35b50df3	1.3489611e-06
26	0xb68f2d10	-4.266978e-06
27	0xb3934bf6	-6.859038e-08
28	0x372164aa	9.6197855e-06
29	0xb600f209	-1.921437e-06
30	0x35bc214b	1.4016781e-06
31	0x35b96abf	1.3814641e-06
32	0x36fe2309	7.5738685e-06
33	0xb5a2fa9a	-1.2142875e-06
34	0xb6436189	-2.9114037e-06
35	0x36831150	3.9061197e-06
36	0x35558cc2	7.9553513e-07
37	0xb692e37f	-4.377623e-06
38	0xb385442b	-6.205695e-08
39	0x35c51b6d	1.4685626e-06
40	0xb81bde47	-3.716189e-05
41	0x370dc609	8.450364e-06
42	0xb60daee6	-2.1112442e-06
43	0x37b33698	2.1363885e-05
44	0xb58ec09e	-1.0635883e-06
45	0xb7508c29	-1.24304e-05
46	0xb669f97f	-3.4864931e-06
47	0xb4dfb04e	-4.1665265e-07
48	0xb4bb1616	-3.4847534e-07
49	0x354fa4a5	7.73531e-07
50	0x3601b7ac	1.932941e-06
51	0x34d5db12	3.9833736e-07
52	0x34bd34d5	3.5242434e-07
53	0x3680017a	3.814869e-06
54	0xb60faaf2	-2.1408164e-06
55	0x35009918	4.7906497e-07
56	0xb61850f0	-2.2696877e-06
57	0x34c31067	3.6333515e-07
58	0x3539f08b	6.9267907e-07
59	0xb610156b	-2.147014e-06
60	0xb61b5c5d	-2.3150562e-06
61	0x3580a3d5	9.584425e-07
62	0xb48c1b6b	-2.609698e-07
63	0xb63e4bb2	-2.8356267e-06

fc2.weight f4 [64, 64]
0	0xbe3e2a41	-0.18570806
1	0xbc4247dc	-0.011857953
2	0xbdf3d5b3	-0.11905994
3	0xbd105259	-0.035234783
4	0x3bed24dc	0.00723706
5	0xbdbdf96d	-0.0927609
6	0x3e0043ad	0.12525816
7	0xbd0df0ed	-0.034653593
8	0xbc2ac369	-0.010422566
9	0xbd4a3eb8	-0.04937622
10	0xbc86449d	-0.01639014
11	0xbc21df18	-0.00987985
12	0x3d8dbf50	0.069212556
13	0x3e093232	0.13398054
14	0x3dd6c8e8	0.104875386
15	0xbe02f380	-0.127882
16	0xbcc6deb0	-0.024276108
17	0xbd9ccd14	-0.07656303
18	0x3e982592	0.29716164
19	0x3ea7e621	0.32792762
20	0x3d815107	0.06314283
21	0xbdaa9137	-0.08328479
22	0x3d61e26e	0.05514758
23	0xbe3033a1	-0.17207195
24	0x3e46c67b	0.19411652
25	0xbdcde95d	-0.10054276
26	0xbdd4453e	-0.103647694
27	0x3e1d2754	0.15347034
28	0x3dcee1f1	0.10101689
29	0xbe197229	-0.14984955
30	0x3e81a139	0.25318316
31	0xbde0a7f6	-0.10969536
32	0xbadedc5c	-0.0017002928
33	0xbdd9f8a9	-0.10643131
34	0xbcfdfb33	-0.03100357
35	0x3c832468	0.01600857
36	0x3d676851	0.05649597
37	0x3d818eb2	0.06326045
38	0x3cc5ddbf	0.024153588
39	0x3d925b1f	0.07146286
40	0xbc964b52	-0.018346462
41	0xbe10a3a5	-0.14124925
42	0x3d8dabf6	0.069175646
43	0xbdc1946e	-0.09452139
44	0xbdea103d	-0.114288785
45	0xbdbedaec	-0.093191
46	0xbcfbe01c	-0.030746512
47	0xbd212158	-0.03933844
48	0xbcb0894e	-0.021549847
49	0x3da19f58	0.078917205
50	0x3e2e690a	0.17032257
51	0x3dd9fffe	0.1064453
52	0xbd9833ef	-0.074317805
53	0xbe048338	-0.12940681
54	0xbd8ead27	-0.0696662
55	0x3ba54bd5	0.0050444403
56	0xbd89aebd	-0.06722782
57	0x3cecb480	0.028894663
58	0x3d37eca1	0.0449034
59	0x3e1e6df1	0.15471627
60	0x3d04fc7f	0.03246736
61	0xbda0d203	-0.078525566
62	0xbdc97b9e	-0.09838031
63	0x3c825c84	0.015913256
64	0xbe089ffe	-0.13342282
65	0xbe3f5569	-0.18684925
66	0xbe08d6ad	-0.13363142
67	0xbb550956	-0.0032506785
68	0xbc15d592	-0.009145157
69	0x3bc44279	0.0059893695
70	0x3d9fe01a	0.07806416
71	0x3d950ca7	0.07277804
72	0x3de774cf	0.11301576
73	0xbe69cb30	-0.22831416
74	0xbcff290f	-0.031147508
75	0x3df6ca00	0.12050247
76	0x3db03d07	0.0860539
77	0x3df99017	0.12185686
78	0x3b9de9ad	0.004819116
79	0xbce23ede	-0.027617868
80	0xbdde77de	-0.108627066
81	0xbd707ba4	-0.058711663
82	0x3e1f5630	0.15560222
83	0x3e7c12e9	0.24616589
84	0x3d2dba72	0.042414136
85	0x3d9aa721	0.075514086
86	0x3cc33e08	0.02383329
87	0xbd79e1a0	-0.06100619
88	0xbd985026	-0.07437162
89	0xbdf3f91f	-0.119127505
90	0xbd89f001	-0.0673523
91	0x3dcede24	0.10100964
92	0x3dd44af3	0.10365858
93	0xbd2126f6	-0.039343797
94	0x3dbc905f	0.09207224
95	0xbd3e3645	-0.046438474
96	0x3d9ae908	0.075639784
97	0xbe186852	-0.14883545
98	0xbe13b121	-0.14423038
99	0xbe003fa4	-0.12524277
100	0x3e31a274	0.17347127
101	0xbcca276f	-0.024677007
102	0x3c1c8b14	0.009554643
103	0xbd8abade	-0.06773923
104	0x3e264198	0.1623596
105	0xbd4e7fdc	-0.050414905
106	0x3e2d13f1	0.16902138
107	0xbe2903be	-0.16505334
108	0x3ce4f1c3	0.027947312
109	0xbda2b2c0	-0.0794425
110	0xbdf703b4	-0.12061253
111	0xbe4dd45b	-0.20100538
112	0x3da5913e	0.080843434
113	0x3dd7bd38	0.105341375
114	0xbe27db2a	-0.16392198
115	0xbd9469da	-0.07246752
116	0xbdd8d201	-0.1058693
117	0xbe23f9fe	-0.16013333
118	0x3d1749ce	0.03693562
119	0x3c450ba8	0.012026705
120	0x3d75f9da	0.06005273
121	0x3d8d917d	0.06912515
122	0xbe458015	-0.1928714
123	0x3c9f19b7	0.019421441
124	0x3e055d17	0.13023792
125	0xbe12e76d	-0.14346094
126	0xbe80549d	-0.25064555
127	0xbc9792d4	-0.01850263
128	0xbe182b75	-0.14860328
129	0xbe45560b	-0.19271104
130	0xbdb2fbda	-0.08739443
131	0xbd9a4fd3	-0.075347565
132	0x3dd93e70	0.10607612
133	0xbe08c9bc	-0.13358206
134	0xbdcaf6fb	-0.09910389
135	0xbd1b43c7	-0.037906434
136	0x3dc31755	0.095259346
137	0xbe1c3fd9	-0.15258731
138	0xbd819f85	-0.06329254
139	0xbdd2ad7f	-0.10286998
140	0x3da3b49e	0.07993434
141	0x3e501c25	0.20323236
142	0xbc3d3cde	-0.011550156
143	0x3d085385	0.033282775
144	0xbc1093e3	-0.008824321
145	0xbdc82286	-0.0977221
146	0x3c8f9d91	0.017531188
147	0xbcbaaec1	-0.022788407
148	0xbc1b08ed	-0.009462577
149	0x3e45ba38	0.19309318
150	0x3def7e06	0.11693959
151	0xbdca4987	-0.098773055
152	0xbbe8ddeb	-0.007106533
153	0xbd5018e0	-0.050804973
154	0xbdf26177	-0.11834996
155	0xbc1cc5fc	-0.0095686875
156	0x3d985c38	0.07439464
157	0xbd91f387	-0.07126527
158	0xbd8d78bd	-0.069077946
159	0xbdb049ec	-0.086078495
160	0x3db70044	0.089355975
161	0xbe150152	-0.14551285
162	0xbd9ec1ce	-0.07751809
163	0x3da49b15	0.08037392
164	0xbcbdf60b	-0.023188611
165	0xbd1018d2	-0.03517992
166	0xbdc75dd3	-0.097346924
167	0xbd5b5f43	-0.053557646
168	0xbd8cee61	-0.06881405
169	0xbd8102a2	-0.0629933
170	0x3c7da642	0.0154815335
171	0x3d594d2b	0.05305211
172	0x3c676998	0.014124297
173	0xbda6dab9	-0.08147187
174	0xbdf6e3f2	-0.12055196
175	0xbe3f1478	-0.18660152
176	0x3d97e4d1	0.0741669
177	0x3d9366e6	0.07197361
178	0xbe19a660	-0.15004873
179	0xbc196c1d	-0.009364155
180	0xbdfb0f3a	-0.122587636
181	0xbde8be34	-0.11364403
182	0x3b9dac3f	0.004811793
183	0x3d64bf0c	0.05584626
184	0xbe34f7d3	-0.17672662
185	0xbd66661d	-0.056249727
186	0xbe0bab96	-0.13639674
187	0x3db37089	0.08761699
188	0x3db3f98d	0.087878324
189	0xbdef8760	-0.116957426
190	0xbe26146c	-0.16218728
191	0xbd15491d	-0.03644668
192	0xbd2edb42	-0.04268957
193	0xbd5ca94d	-0.053872395
194	0xbd2c7557	-0.04210409
195	0x3a9fa06b	0.0012178546
196	0xbca672b5	-0.020318368
197	0x3bb2ec5d	0.0054603056
198	0x3d1be13b	0.038056593
199	0x3bec3657	0.0072086263
200	0x3b856d69	0.0040718806
201	0x3dea1883	0.114304565
202	0xbca0eecb	-0.019645115
203	0x3da8c8e4	0.08241442
204	0x3ce2fa5d	0.027707273
205	0x3df5daed	0.120046474
206	0xbd3f399b	-0.046685796
207	0xbdfe8a46	-0.12428717
208	0xbd87da98	-0.0663349
209	0xbdd77c6f	-0.10521781
210	0x3ebf9cac	0.3742422
211	0x3d19d0eb	0.037552755
212	0x3caf93eb	0.021432837
213	0x3cc17164	0.02361364
214	0xbca8cb90	-0.020604879
215	0xbc8ed95b	-0.017437628
216	0x3e84800e	0.25878948
217	0x3d8d8f53	0.069121026
218	0x3c8e2dda	0.017355848
219	0x3e40a5cd	0.18813248
220	0x3c002d8e	0.007823361
221	0x3d1d6dbd	0.038434733
222	0x3e57e6ca	0.21084133
223	0xbc4bd585	-0.012441044
224	0x3b4dab84	0.003138275
225	0xbaa42156	-0.0012522142
226	0xbcc1f45e	-0.023676094
227	0x3d8087c0	0.06275892
228	0x3d168994	0.0367523
229	0x3da357e2	0.07975747
230	0x3e2283ea	0.15870634
231	0x3d4f0b91	0.05054814
232	0x3d9b420f	0.07580959
233	0x3cecdd11	0.028914006
234	0x3d16f811	0.03685767
235	0x3ce75c00	0.028242111
236	0x3c0f5943	0.008749309
237	0xbc14cbd0	-0.009081796
238	0xbd198205	-0.037477512
239	0x3eab713d	0.3348483
240	0x3d0e1536	0.034688197
241	0x3c07c856	0.00828751
242	0x3d23a429	0.039951477
243	0xbdb39c8f	-0.087700956
244	0xbd46edcd	-0.04856663
245	0xbd2e4944	-0.04255034
246	0x3b7f3b48	0.0038945246
247	0xbda7bdda	-0.08190508
248	0xbc446c4a	-0.011988709
249	0x3de352ef	0.11099803
250	0xbcca682f	-0.024707882
251	0x3da0764c	0.07835063
252	0xbcb482fb	-0.022035113
253	0xbd6aa951	-0.05729038
254	0xbd0fec4b	-0.035137456
255	0xbc8b4c3f	-0.01700413

fc2.bias f4 [64]
0	0x32e63b57	2.6802509e-08
1	0x358cc2c9	1.0487503e-06
2	0xb50109ed	-4.807069e-07
3	0xb4ea0356	-4.3588324e-07
4	0xb38d10cd	-6.56888e-08
5	0xb43acd6b	-1.739733e-07
6	0xb5030cc9	-4.881991e-07
7	0xb35ad578	-5.095123e-08
8	0x346a3486	2.1812056e-07
9	0x35ba654b	1.388756e-06
10	0xb3ed14a0	-1.1039924e-07
11	0xb5885ab6	-1.015919e-06
12	0x351339ee	5.4846066e-07
13	0x358380e3	9.797772e-07
14	0x35511ec9	7.7903366e-07
15	0xb6158629	-2.2280822e-06
16	0xb56ad120	-8.747611e-07
17	0x33ad0d7b	8.058392e-08
18	0xb4be7e4c	-3.548215e-07
19	0xb57a8794	-9.332955e-07
20	0x35281279	6.261176e-07
21	0xb48bc809	-2.6036312e-07
22	0xb55cd2d9	-8.226321e-07
23	0x346f83b1	2.2306519e-07
24	0xb4d88efa	-4.0337164e-07
25	0x35f9e935	1.8619818e-06
26	0xb562e3fe	-8.4523333e-07
27	0xb454b764	-1.9810756e-07
28	0x348f14ca	2.6650952e-07
29	0x3514cb1e	5.542987e-07
30	0x340eb03c	1.3288894e-07
31	0xb51dfd3e	-5.8855574e-07
32	0x354ae311	7.558129e-07
33	0xb474cb24	-2.2798173e-07
34	0xb2803c6c	-1.4928638e-08
35	0x33c86790	9.332064e-08
36	0xb5faa5a8	-1.8674664e-06
37	0x35015949	4.818617e-07
38	0x36836d68	3.916841e-06
39	0xb41d8455	-1.4669907e-07
40	0x35aa91ec	1.2708456e-06
41	0xb51fd8ac	-5.9547415e-07
42	0xb48a9c2c	-2.5818133e-07
43	0xb3d3cd00	-9.8627424e-08
44	0x3477cc05	2.307789e-07
45	0xb4f89797	-4.6303896e-07
46	0x34a9031b	3.1480963e-07
47	0xb636e7be	-2.7255005e-06
48	0x356255d9	8.4316486e-07
49	0x34369059	1.7002584e-07
50	0xb4854d2c	-2.482933e-07
51	0x34c66105	3.6950965e-07
52	0xb502b35e	-4.868979e-07
53	0x354607ae	7.3771923e-07
54	0x354fb73f	7.738017e-07
55	0x368d9507	4.2194765e-06
56	0xb43fc60f	-1.7860314e-07
57	0xb4da814b	-4.0699737e-07
58	0xb720ecd5	-9.591885e-06
59	0x32be1b39	2.213129e-08
60	0x35c3139b	1.4534338e-06
61	0x34b4d102	3.3679686e-07
62	0x366975fc	3.4788382e-06
63	0x3484a2c7	2.4705352e-07

out.weight f4 [1, 64]
0	0xbf4f7008	-0.8103032
1	0xbf567521	-0.83772475
2	0xbf474de2	-0.77853215
3	0xbf3fdbaa	-0.74944556
4	0xbf333c0c	-0.700135
5	0x3f26dd7e	0.6518172
6	0x3f07b03e	0.530033
7	0xbf611c2f	-0.8793363
8	0x3f1b1221	0.6057454
9	0xbf281f82	-0.6567308
10	0xbf3dfef3	-0.74217147
11	0xbf237fc7	-0.6386685
12	0xbf59acb6	-0.8502916
13	0x3f183a41	0.5946389
14	0xbf594fb7	-0.8488726
15	0x3f398d5b	0.72481316
16	0xbf21e80d	-0.63244706
17	0x3f10f2ec	0.5662067
18	0xbf0e0fd7	-0.5549292
19	0x3f2098ab	0.6273295
20	0xbf3b78e7	-0.7323136
21	0xbf434df6	-0.76290834
22	0xbf3b5b5b	-0.7318627
23	0xbf4535cb	-0.77035207
24	0x3f22a288	0.63529253
25	0xbf41c4ac	-0.7569072
26	0xbf492877	-0.7857737
27	0x3f26786b	0.65027493
28	0x3f2054be	0.62629306
29	0xbf60a270	-0.8774786
30	0x3f161f16	0.58641183
31	0x3f22b72a	0.63560736
32	0xbf2f8f02	-0.6857759
33	0xbf765d3d	-0.9623602
34	0x3f37270f	0.71543974
35	0x3f3caa67	0.73697513
36	0xbf570a47	-0.84000057
37	0xbf4c83b6	-0.79888475
38	0x3f073b7a	0.5282513
39	0xbf31f4c7	-0.69514126
40	0xbf08d667	-0.5345215
41	0x3f220e6f	0.63303274
42	0x3f245b44	0.6420176
43	0x3f1ea21a	0.619661
44	0xbf277466	-0.65411985
45	0x3f17a448	0.5923505
46	0xbf23853b	-0.6387517
47	0xbf2cd7a1	-0.67516524
48	0xbf489fbe	-0.7836875
49	0xbf0f6f40	-0.5602913
50	0xbf27e8a6	-0.6558937
51	0x3f44552c	0.7669246
52	0xbf0cbd9f	-0.5497684
53	0x3efdc907	0.49567434
54	0x3f05d444	0.52277017
55	0xbf3b76b1	-0.73227984
56	0xbf4916fd	-0.785507
57	0xbf51b99d	-0.8192385
58	0x3f09a811	0.53772074
59	0xbf390f8d	-0.72289354
60	0xbf3267ce	-0.69689643
61	0x3f26593e	0.6497992
62	0xbf3d7054	-0.73999524
63	0xbf609ef1	-0.87742525

sep_conn.weight f4 [64, 45]
0	0xbe03a5f6	-0.12856278
1	0xbca0468b	-0.019564888
2	0xbd1f3a84	-0.038874164
3	0xba919af5	-0.0011108803
4	0x3df6d6a4	0.12052658
5	0xbde05438	-0.109535635
6	0x3def428b	0.11682614
7	0xbdf1e893	-0.11811938
8	0xbdc9a178	-0.09845251
9	0x3d1e858f	0.03870159
10	0xbd914272	-0.070927516
11	0x3d413a39	0.047174666
12	0x3d4002d0	0.046877682
13	0xbd24511e	-0.040116422
14	0x3d853d86	0.06505875
15	0x3debf7ab	0.11521848
16	0x3d334adb	0.04377256
17	0xbd109fec	-0.035308763
18	0xbcbe178c	-0.023204587
19	0xbe15fc73	-0.14647083
20	0x3e0a326e	0.134958
21	0xbe0a3000	-0.13494873
22	0xbd1d398b	-0.038384955
23	0xbdadd308	-0.08487517
24	0x3d3982bb	0.04529069
25	0x3d58c793	0.052924704
26	0x3e09ceb8	0.13457763
27	0xbd6d4e47	-0.05793598
28	0xbda5e9b4	-0.08101216
29	0x3c7aa4f1	0.015298114
30	0xbcfdd948	-0.030987397
31	0xbcdcbfec	-0.026946984
32	0xbd71a3c3	-0.058994066
33	0xbcef711c	-0.02922874
34	0x3cac84fd	0.021059508
35	0xbd4d8a50	-0.050180733
36	0xbdc238dd	-0.09483502
37	0x3dedfd39	0.11620564
38	0xbc124aef	-0.008928998
39	0x3cc37d7a	0.023863543
40	0xbd87238d	-0.06598578
41	0x3dd2b6dc	0.10288784
42	0xbcaabf08	-0.020843044
43	0xbda59b69	-0.08086283
44	0xbda85e58	-0.0822112
45	0xbbc70922	-0.0060740868
46	0x3dbd0d5b	0.09231063
47	0x3e048ea6	0.12945041
48	0xbddfeee3	-0.10934236
49	0xbd63c3bf	-0.0556066
50	0x3d682290	0.056673586
51	0x3dea44bc	0.11438891
52	0xbd8ab409	-0.0677262
53	0x3c0cb26f	0.008587464
54	0x3d91e293	0.07123294
55	0xbd83741b	-0.0641863
56	0xbd91b329	-0.0711425
57	0x3deaa1b7	0.11456626
58	0x3e0892c1	0.13337232
59	0xbd5da5e7	-0.054113295
60	0x3b413e2c	0.002948652
61	0xbd57a2be	-0.052645437
62	0xbca3c8c6	-0.019993197
63	0x3dfa84ad	0.12232337
64	0x3e0fdfb4	0.1405018
65	0x3de541be	0.1119418
66	0x3e1056e8	0.14095652
67	0x3d802e92	0.062588826
68	0xbdca5eee	-0.09881388
69	0x3c4415dd	0.011968103
70	0x3dd09c2c	0.101860374
71	0xbdfedc69	-0.12444384
72	0xbe015194	-0.12628776
73	0x3ce7c3cb	0.028291604
74	0xbc9d18ba	-0.01917683
75	0x3d728e58	0.05921778
76	0x3de6a169	0.11261255
77	0xbd53737b	-0.051623803
78	0x3e109c89	0.14122213
79	0xbd8fd7f6	-0.07023613
80	0x3c77aa97	0.015116355
81	0xbd84291b	-0.06453153
82	0xbe00630d	-0.12537785
83	0xbd1254a9	-0.03572527
84	0xbe06939f	-0.1314225
85	0xbdb7cd99	-0.089747615
86	0xbd8fbd98	-0.07018584
87	0xbbc3c05f	-0.00597386
88	0xbd25a8ee	-0.040444307
89	0x3dc91f29	0.098203965
90	0xbe043e7b	-0.1291446
91	0xbd7f0a6e	-0.062265806
92	0xbdfc6691	-0.123242505
93	0xbd1e7a6b	-0.038690966
94	0xbd3204a6	-0.043461464
95	0xbdd8d516	-0.10587518
96	0x3e013b62	0.12620309
97	0xbbf8c59a	-0.0075919153
98	0xbd7a4432	-0.061100192
99	0xbe170e2a	-0.14751497
100	0x3bef6d02	0.007306696
101	0xbdbbf984	-0.09178451
102	0x3dcc72b6	0.09982817
103	0xbdf8dc5d	-0.12151406
104	0xbd89d102	-0.06729318
105	0x3df030c5	0.11728052
106	0xbb87d860	-0.004145667
107	0x3de410f3	0.11136045
108	0xbe10a1cd	-0.14124222
109	0xbd19aa53	-0.03751595
110	0xbdb4a03a	-0.08819623
111	0x3d43d872	0.04781384
112	0x3bfaddf6	0.0076558543
113	0xbdbbfe87	-0.091794066
114	0xbe0f2997	-0.13980709
115	0x3d8ca92f	0.06868207
116	0xbd894562	-0.06702687
117	0xbda9516f	-0.08267485
118	0x3dc0fee0	0.094236135
119	0x3dc343ac	0.09534392
120	0xbe0dea39	-0.1385888
121	0xbd96a30d	-0.07355318
122	0xbe11bb19	-0.14231528
123	0xbc0a3895	-0.008436342
124	0xbdea300f	-0.11434948
125	0x3ddc0d22	0.107446924
126	0x3d87710f	0.06613361
127	0x3dd220e0	0.10260177
128	0xbcb0115b	-0.02149265
129	0xbc21ea37	-0.009882501
130	0x3dc24069	0.094849415
131	0x3df1d319	0.11807842
132	0x3e01af30	0.12664485
133	0x3d301d3e	0.042996638
134	0x3dfd5f89	0.123717375
135	0xbd903705	-0.07041744
136	0x3dd5ddb2	0.10442676
137	0xbc90a5cf	-0.017657189
138	0xbca83c62	-0.020536605
139	0x3d95e06c	0.07318196
140	0x3acc1e3a	0.0015572973
141	0x3df1b7a7	0.11802607
142	0x3d92982e	0.07157932
143	0xbdf7b3dc	-0.12094852
144	0xbdbed7ea	-0.09318526
145	0x3d11144f	0.03541976
146	0xbd5df244	-0.05418612
147	0xba16c0bf	-0.00057507673
148	0x3d79f12e	0.061021022
149	0x3de55f31	0.11199797
150	0x3ddfc756	0.10926692
151	0xbce6e852	-0.02818695
152	0xbcd250fa	-0.025673378
153	0xbd3ee3f2	-0.046604104
154	0x3d68ef09	0.056868587
155	0xbd1c4009	-0.038147006
156	0x3e14cdf3	0.14531688
157	0xbd8d4bee	-0.06899248
158	0x3de3a738	0.11115879
159	0x3ca85711	0.020549329
160	0xbdc72ab1	-0.097249396
161	0xbd39de00	-0.04537773
162	0x3dc3fa19	0.09569187
163	0xbd666042	-0.056244142
164	0xbceae884	-0.028675325
165	0x3c530df6	0.0128817465
166	0x3e0ec45b	0.13942091
167	0xbd06f193	-0.032945227
168	0xbde6f6e9	-0.11277563
169	0x3e113b03	0.14182667
170	0x3c9d5228	0.019204214
171	0xbb983166	-0.0046445606
172	0xbdd38654	-0.103283554
173	0xbdf3c619	-0.119030185
174	0x3d642c8b	0.055706542
175	0xbdab6cf3	-0.0837039
176	0x3e11c495	0.14235146
177	0x3da0f5fb	0.07859417
178	0x3e06ff1e	0.13183257
179	0x3d98a3d4	0.07453123
180	0x3e026d24	0.12736946
181	0x3b24f57c	0.0025170734
182	0x3d718770	0.058967054
183	0xbdcb06b1	-0.09913386
184	0xbcc03a1e	-0.023465212
185	0x3c79d1c8	0.01524777
186	0x3dabc0c4	0.083863765
187	0xbb4f8fd5	-0.0031671424
188	0xbdf56a5e	-0.119831786
189	0xbe1897b2	-0.14901617
190	0x3d7d212d	0.061799217
191	0xbdc795ea	-0.09745391
192	0xbdf02a60	-0.117268324
193	0xbe16bc1c	-0.14720196
194	0xbe049e73	-0.12951069
195	0xbc6b5c45	-0.0143652605
196	0xbcd38c30	-0.025823683
197	0x3dd723cf	0.10504877
198	0xbe16dbad	-0.14732237
199	0xbdbf6045	-0.09344534
200	0xbdb54393	-0.088507794
201	0x3e0d978a	0.13827339
202	0xbd6e3958	-0.058160156
203	0x3c80fd95	0.015745917
204	0x3d3e38f1	0.046441022
205	0x3e07ccd9	0.13261737
206	0x3d984d59	0.07436628
207	0xbe097ece	-0.13427278
208	0xbddaa18a	-0.106753424
209	0xbd4a1b64	-0.049342528
210	0xbc418fdd	-0.011814085
211	0x3dbd51bb	0.092441045
212	0x3ccd2750	0.02504316
213	0xbd5fa351	-0.05459911
214	0xbe11ac93	-0.14225988
215	0xbc948da1	-0.01813394
216	0xbd9d649f	-0.076852076
217	0xbcd47543	-0.025934821
218	0xbac6825f	-0.0015145055
219	0xbd06962d	-0.032858063
220	0xbcc9d76f	-0.02463886
221	0xbd623767	-0.055228617
222	0xbde29227	-0.110630326
223	0x3d13e6b0	0.036108673
224	0xbd74fddf	-0.059812423
225	0xbd93a4d1	-0.072091706
226	0x3e02f3e7	0.12788354
227	0x3cbdb66e	0.023158278
228	0x3df3c71f	0.11903214
229	0x3c13ea78	0.00902807
230	0x3d5c7470	0.05382198
231	0xbd071f52	-0.032988854
232	0x3d8426af	0.06452691
233	0xbdc692dd	-0.09695981
234	0xbd60cc5c	-0.054882392
235	0x3db5c3a0	0.08875203
236	0x3c439c13	0.011939066
237	0xbe170c27	-0.1475073
238	0x3d8065a9	0.0626939
239	0xbdcb107e	-0.09915255
240	0x3d2f7c90	0.0428434
241	0xbd4ebb98	-0.050471872
242	0xbdb70198	-0.08935851
243	0xbddbdebe	-0.10735844
244	0xbd80f679	-0.06297011
245	0xbd3203a0	-0.04346049
246	0x3d6558d9	0.055992935
247	0xbdf50199	-0.11963195
248	0xbd5f59a8	-0.054528862
249	0xbdd380af	-0.10327279
250	0xbe00cfe4	-0.12579304
251	0x3cb2ab55	0.021810213
252	0xbdbc35f0	-0.09189975
253	0xbd3afb44	-0.04564978
254	0x3ce3aeb1	0.02779326
255	0x3d1b6b4a	0.037944116

sep_conn.bias f4 [64]
0	0xbe06e0de	-0.13171718
1	0x3d62ce52	0.055372544
2	0xbdb2acb1	-0.087243445
3	0xbe097874	-0.13424855
4	0x3dbd456f	0.09241759
5	0xbe147656	-0.14498267
6	0x3cb8906a	0.0225298
7	0xbd7fa6ce	-0.062414937
8	0x3db594f5	0.08866302
9	0x3dc28a2c	0.094990104
10	0x3dbee1ee	0.093204364
11	0xbe0499b4	-0.12949258
12	0xbdca9a2b	-0.098926865
13	0x3dc34652	0.09534897
14	0xbdaacc3e	-0.08339737
15	0x3da845a8	0.08216411
16	0x3e129e96	0.14318308
17	0xbd0eb10a	-0.034836806
18	0x3e11384e	0.14181635
19	0xbd680f0e	-0.056654982
20	0x3be67b93	0.007033774
21	0x3dbd6663	0.09248044
22	0x3e048d5b	0.12944548
23	0x3caa2472	0.020769332
24	0xbc8a10ac	-0.016853653
25	0x3c12a2aa	0.008949915
26	0x3b7fd1aa	0.0039034882
27	0xbe0740d9	-0.13208331
28	0x3d54c6bb	0.051947337
29	0x3de70a56	0.11281268
30	0x3dd59f86	0.10430817
31	0xbd88a168	-0.06671411
32	0x3def9c8b	0.1169978
33	0x3bc75b6c	0.0060838964
34	0x3d1d3e2e	0.038389377
35	0x3d9b97d3	0.075973175
36	0xbcac51b6	-0.021035057
37	0x3d6cd080	0.05781603
38	0x3d6f7849	0.058464322
39	0xbd1f5c94	-0.03890665
40	0xbe055513	-0.13020734
41	0x3d8264f5	0.06366912
42	0x3e107da3	0.14110427
43	0x3dfa5e3a	0.122250035
44	0xbd85f5a2	-0.06540991
45	0xbdc4d73f	-0.096113674
46	0xbe142a62	-0.14469293
47	0xbdf88942	-0.12135555
48	0xbc93536d	-0.017984116
49	0x3daa2fcf	0.083099
50	0xbd90eafa	-0.07076068
51	0xbd5fa964	-0.054604903
52	0xbde6a631	-0.11262167
53	0xbd16b63c	-0.036794886
54	0x3dbe4a99	0.09291572
55	0xbe04d434	-0.12971574
56	0xbca9f750	-0.02074781
57	0xbe1387a3	-0.1440721
58	0x3c89009d	0.016723925
59	0xbe17812d	-0.1479537
60	0xbd144b89	-0.03620485
61	0x3dce954d	0.100870706
62	0xbdc728a2	-0.09724547
63	0xbc9a863e	-0.01886284

bn.weight f4 [64]
0	0x3f7a1046	0.9768108
1	0x3f8fe42a	1.1241505
2	0x3f876914	1.0578942
3	0x3f5fbadc	0.873945
4	0x3f5a3cf1	0.8524924
5	0x3f3471b0	0.70485973
6	0x3f2fb435	0.6863435
7	0x3f509ccb	0.8148925
8	0x3f3167c9	0.6929899
9	0x3f563f60	0.8369045
10	0x3f6792ed	0.90458566
11	0x3f4d895f	0.80287737
12	0x3f61fd83	0.88277453
13	0x3f5dde13	0.86666983
14	0x3f6454b4	0.89191747
15	0x3f4e9ffa	0.80712855
16	0x3f3b38a9	0.7313333
17	0x3f55911e	0.83424556
18	0x3f4b3040	0.793705
19	0x3f541038	0.8283725
20	0x3f5e6d4e	0.86885536
21	0x3f52d0a5	0.82349616
22	0x3f42325b	0.75858086
23	0x3f56a846	0.83850515
24	0x3f4ff9c4	0.8124049
25	0x3f573c22	0.8407613
26	0x3f54aaa5	0.8307288
27	0x3f35c801	0.71008307
28	0x3f51263b	0.8169896
29	0x3f60df1a	0.87840426
30	0x3f3dc3fd	0.7412718
31	0x3f473e24	0.77829194
32	0x3f461bd3	0.77386206
33	0x3f7a83c2	0.97857296
34	0x3f4593a1	0.7717839
35	0x3f6678d2	0.9002811
36	0x3f6c927e	0.9241103
37	0x3f5ce358	0.862844
38	0x3f35b556	0.7097982
39	0x3f340478	0.7031932
40	0x3f360257	0.7109732
41	0x3f497dad	0.7870739
42	0x3f434611	0.7627879
43	0x3f57c8c6	0.8429073
44	0x3f3f816d	0.74806863
45	0x3f314414	0.69244504
46	0x3f56d5d0	0.8392
47	0x3f7f83d2	0.99810517
48	0x3f647995	0.8924802
49	0x3f479685	0.7796405
50	0x3f517b35	0.81828624
51	0x3f5bebc0	0.859066
52	0x3f344d6e	0.7043065
53	0x3f3aecc0	0.730175
54	0x3f4936bb	0.7859914
55	0x3f472be3	0.7780134
56	0x3f68bebe	0.9091605
57	0x3f415153	0.75514716
58	0x3f33059e	0.69930446
59	0x3f4e2ebb	0.80540055
60	0x3f3b55ef	0.73178
61	0x3f2505e7	0.6446213
62	0x3f603be6	0.875914
63	0x3f67c67a	0.90537226

bn.bias f4 [64]
0	0xbec01a26	-0.3751995
1	0xbeb7f332	-0.3592773
2	0xbf48eac3	-0.7848322
3	0xbecf0b54	-0.4043833
4	0xbf0c3f6e	-0.54784286
5	0xbf1bf891	-0.6092616
6	0xbf3350c3	-0.7004511
7	0xbee814eb	-0.4532846
8	0xbf25fcf4	-0.648391
9	0xbebca9d0	-0.36848307
10	0xbf082f58	-0.5319724
11	0xbf130828	-0.5743432
12	0xbe6842d0	-0.22681737
13	0xbf414c0f	-0.7550668
14	0xbeb136bb	-0.3461207
15	0xbf070bbd	-0.52752286
16	0xbf0b6f4c	-0.544667
17	0xbf52a3f1	-0.82281405
18	0xbf3d2115	-0.73878604
19	0xbf43b7a3	-0.7645208
20	0xbe8cdefa	-0.27513868
21	0xbf1e293b	-0.6178166
22	0xbebfca0b	-0.37458834
23	0xbf23b623	-0.63949794
24	0xbf201733	-0.625354
25	0xbf0463e0	-0.517149
26	0xbef63c62	-0.48092943
27	0xbf2efd17	-0.68354934
28	0xbf35f957	-0.7108359
29	0xbe8fff73	-0.2812458
30	0xbf32cd2a	-0.69844306
31	0xbf10ff8b	-0.5663993
32	0xbf08c4f4	-0.53425527
33	0xbeb05466	-0.3443939
34	0xbf353357	-0.70781463
35	0xbf2fadb7	-0.6862444
36	0xbeeffc1d	-0.46872035
37	0xbf00e26a	-0.5034548
38	0xbeea80c5	-0.45801368
39	0xbe8ac407	-0.27102682
40	0xbf1e662b	-0.61874646
41	0xbf3a22d5	-0.727094
42	0xbf095b4e	-0.53654945
43	0xbf249246	-0.64285696
44	0xbebc54da	-0.36783487
45	0xbe8e14a6	-0.27750129
46	0xbec313d4	-0.38101065
47	0xbf137b88	-0.5761037
48	0xbe929d22	-0.28635508
49	0xbf1c83ca	-0.61138594
50	0xbea3e995	-0.32014146
51	0xbec16436	-0.37771767
52	0xbf134957	-0.5753378
53	0xbf1a4c2e	-0.6027249
54	0xbf22d3e2	-0.6360456
55	0xbf1b9d25	-0.6078666
56	0xbf05d481	-0.5227738
57	0xbdfbf333	-0.12302246
58	0xbeda2d62	-0.4261275
59	0xbed13cb6	-0.4086663
60	0xbf22978a	-0.6351248
61	0xbf104941	-0.56361777
62	0xbe986fc5	-0.29772773
63	0xbed55a37	-0.4167039

bn.running_mean f4 [64]
0	0x3d9d4d31	0.07680739
1	0xbebd281a	-0.36944658
2	0xbf1b99b4	-0.6078141
3	0xbc12ecc1	-0.008967579
4	0xbe37d84c	-0.17953604
5	0x3de82539	0.11335225
6	0xbea35742	-0.3190251
7	0x3ed3ef8d	0.413937
8	0x3c82cacb	0.01596584
9	0x3e5274bd	0.20552345
10	0xbe0f5fa2	-0.14001325
11	0xbd6f0452	-0.05835373
12	0xbd9bbded	-0.07604585
13	0x3e411a55	0.18857701
14	0x3d1e1dd3	0.03860266
15	0xbe3ce08c	-0.18445033
16	0x3e3e16b5	0.1856335
17	0x3d28fad6	0.04125484
18	0x3e207675	0.15670188
19	0x3e793910	0.24338174
20	0x3dad46c0	0.0846076
21	0x3d62f5bc	0.05541013
22	0xbd580e6d	-0.052748132
23	0x3f10fc42	0.56634915
24	0x3e78277d	0.24233814
25	0xbd769d7a	-0.060208775
26	0xbe131b89	-0.14365973
27	0x3e0a0ec7	0.134822
28	0xbdeca8b2	-0.115556136
29	0x3e450992	0.19241932
30	0xbea7ff99	-0.32812193
31	0x3e1f23fe	0.15541074
32	0x3e81f671	0.25383332
33	0x3e883d41	0.26609233
34	0xbddda2a8	-0.1082204
35	0x3d8b2eab	0.067960106
36	0xbe37645e	-0.17909381
37	0x3d44b5d1	0.048024956
38	0xbc52a703	-0.0128572015
39	0x3d622ca1	0.055218343
40	0x3e5633ac	0.20918149
41	0x3ecfb5d9	0.40568426
42	0x3df7b096	0.12094228
43	0x3cfb3ee0	0.03066963
44	0x3df53f53	0.11974969
45	0xbe07c05e	-0.13256976
46	0x3e575420	0.21028185
47	0x3d051afe	0.032496445
48	0xbda8cc54	-0.082420975
49	0xbeb95fd1	-0.36205915
50	0x3e29e5ec	0.16591614
51	0x3dad91e8	0.08475095
52	0x3de74028	0.11291534
53	0x3e98e079	0.2985876
54	0x3e800378	0.25002646
55	0xbd905dd8	-0.07049149
56	0xbe51b3ca	-0.2047874
57	0x3e8365d6	0.25663632
58	0x3d3aaf23	0.04557718
59	0x3dc18e9b	0.09451028
60	0xbefa98b7	-0.48944637
61	0x3c71d375	0.014759888
62	0xbda842f6	-0.08215897
63	0xbda97ab9	-0.082753606

bn.running_var f4 [64]
0	0x3df181aa	0.117923096
1	0x3e2cdcd1	0.1688111
2	0x3e083066	0.13299713
3	0x3df97267	0.12180024
4	0x3ddab1b7	0.10678428
5	0x3dc1ca1d	0.09462378
6	0x3dabbea6	0.08385973
7	0x3dd163c3	0.10224106
8	0x3dcb6a86	0.09932427
9	0x3dd8d6d1	0.10587848
10	0x3ddf8e81	0.10915852
11	0x3dd003a8	0.101569474
12	0x3e0500e9	0.12988628
13	0x3e00d593	0.12581472
14	0x3e15c367	0.14625321
15	0x3df5ad64	0.11995962
16	0x3dc0789c	0.093980044
17	0x3dd8391d	0.105577685
18	0x3dc16d93	0.09444728
19	0x3dc65899	0.096848674
20	0x3dca5625	0.09879712
21	0x3ddb29fb	0.107013665
22	0x3db0f65d	0.0864074
23	0x3db6cb34	0.08925477
24	0x3dc14afd	0.09438131
25	0x3deea2ca	0.11652143
26	0x3dc34c37	0.09536021
27	0x3db58f61	0.08865238
28	0x3dc2c4e0	0.09510207
29	0x3deda4be	0.11603688
30	0x3dd5228e	0.104069814
31	0x3dac79c0	0.084216595
32	0x3df3b3fc	0.11899564
33	0x3e138680	0.14406776
34	0x3db0bafa	0.08629413
35	0x3dd59ddc	0.104305
36	0x3de07e1c	0.109615535
37	0x3dc8f24e	0.09811841
38	0x3dd56126	0.1041892
39	0x3dc17d51	0.0944773
40	0x3da13e35	0.07873193
41	0x3d97bbfb	0.07408901
42	0x3dc4b339	0.096044965
43	0x3dd659c8	0.10466343
44	0x3dc88eeb	0.097928844
45	0x3dbe1e72	0.09283151
46	0x3db97b54	0.09056726
47	0x3e04f01f	0.12982224
48	0x3e098862	0.13430932
49	0x3de011fb	0.109409295
50	0x3dcd2a34	0.10017815
51	0x3e010022	0.12597707
52	0x3d816cbf	0.0631957
53	0x3d988571	0.07447327
54	0x3dd8e8ef	0.105913036
55	0x3dbae8b5	0.091264166
56	0x3de44625	0.111461915
57	0x3e07f48b	0.1327688
58	0x3db41901	0.087938316
59	0x3dc0628d	0.09393797
60	0x3db926c3	0.09040596
61	0x3daabc9e	0.08336757
62	0x3e06db32	0.13169554
63	0x3e0d77d1	0.13815238

net.0.weight f4 [64, 45]
0	0xbdade9bc	-0.08491847
1	0xbdd489d5	-0.10377852
2	0xbd4b4582	-0.049626835
3	0x3e11cdfd	0.14238735
4	0xbd7c4304	-0.06158735
5	0x3d6be8b8	0.057594985
6	0x3e0e4312	0.13892773
7	0x3d625d0c	0.055264518
8	0x3e19d93f	0.15024279
9	0x3e04a719	0.12954368
10	0xbdcceef3	-0.100065134
11	0xbe639e73	-0.22228412
12	0x3dc96853	0.098343514
13	0xbc05bf4e	-0.008163286
14	0xbd96c8f8	-0.073625505
15	0xbdaedcae	-0.08538185
16	0xbdeeef3d	-0.11666725
17	0x3e67f31a	0.2265133
18	0xbe3c3010	-0.1837771
19	0xbe9180b3	-0.28418502
20	0x3cffc5ff	0.031222342
21	0xbdaa5188	-0.08316332
22	0xbe6eabe7	-0.23307763
23	0x3e85e7e3	0.26153478
24	0xbcaa55df	-0.0207929
25	0xbc88a6c9	-0.016681092
26	0xbe0a2438	-0.13490379
27	0x3e8d1bfb	0.2756041
28	0xbd32e889	-0.043678794
29	0xbdea1352	-0.11429466
30	0x3e33fed6	0.17577681
31	0x3d6622b1	0.056185428
32	0xbdc86a33	-0.09785881
33	0xbd642a0d	-0.055704165
34	0xbe417b3f	-0.18894671
35	0xbe1d45e0	-0.15358686
36	0x3d544fd2	0.051833935
37	0xbc69a122	-0.014259608
38	0xbe849d9d	-0.259015
39	0x3e6291e5	0.22125967
40	0x3e2db4a8	0.16963446
41	0x3df39289	0.11893184
42	0xbe9e52b4	-0.30922472
43	0x3e12c28b	0.14332025
44	0x3c799f8c	0.015235793
45	0x3e169323	0.14704566
46	0xbb909bd9	-0.0044131097
47	0xbe670169	-0.22559132
48	0xbd5f186a	-0.054466642
49	0xbdede436	-0.116157934
50	0xbe7bd82a	-0.24594179
51	0xbe8e7562	-0.2782393
52	0x3ccd8091	0.02508572
53	0x3e085ca2	0.13316587
54	0xbe9ecc83	-0.31015405
55	0x3df680bd	0.12036274
56	0x3e52c85b	0.20584242
57	0x3e94eafa	0.29085523
58	0xbe9f6358	-0.3113048
59	0xbd0d56ae	-0.034506492
60	0xbd9f504c	-0.07778987
61	0xbcd1f8e9	-0.025631385
62	0xba96d186	-0.0011506535
63	0x3d3e2d21	0.046429757
64	0xbdd97107	-0.106172614
65	0x3da1a830	0.07893407
66	0xbd469d71	-0.04848999
67	0xbdcc308a	-0.099701956
68	0x3e2736c2	0.16329482
69	0xbd82f4fd	-0.06394384
70	0xbe2ed246	-0.170724
71	0x3dea3b9f	0.11437153
72	0xbadd82ab	-0.0016899904
73	0x3d5d6a12	0.054056235
74	0xbda831bb	-0.0821261
75	0x3debbb78	0.11510366
76	0xbe81e137	-0.25367138
77	0xbdd96931	-0.10615767
78	0xbddc0ca4	-0.107445985
79	0x3e1ec472	0.15504625
80	0xbe4108fa	-0.1885108
81	0x3d7c67aa	0.0616223
82	0x3e29c6e8	0.16579783
83	0x3dbc4ff0	0.09194934
84	0xbd638c53	-0.055553745
85	0xbdbcef4b	-0.09225329
86	0xbd1fe01b	-0.039032083
87	0xbe3c14b9	-0.1836728
88	0x3ea48046	0.32129115
89	0xbec300b8	-0.38086486
90	0xbe24deef	-0.16100667
91	0x3df663a8	0.12030727
92	0x3e8c6fe1	0.27429107
93	0xbe57cf3c	-0.21075147
94	0xbe8ab6fe	-0.27092737
95	0x3e40c234	0.18824083
96	0xbe731d7a	-0.23741713
97	0xbe1cb8d6	-0.15304884
98	0xbd9522d4	-0.072820336
99	0x3c87558b	0.016520282
100	0x3d0e36a4	0.034720078
101	0xbe1e7789	-0.15475287
102	0x3b74c8fd	0.0037351244
103	0xbb99ebbd	-0.0046972916
104	0xbe6fe341	-0.23426534
105	0x3d016b96	0.031596743
106	0x3e510412	0.20411709
107	0x3bbf3460	0.005835101
108	0x3e35cfe0	0.1775508
109	0xbd8f3c12	-0.069938794
110	0xbe366ef6	-0.17815766
111	0x3dc3b2d7	0.09555595
112	0xbdc9671d	-0.098341204
113	0xbdccdc06	-0.10002904
114	0xbe5989f9	-0.21244039
115	0xbe0a7bc2	-0.13523772
116	0xbe8dc48b	-0.27689013
117	0x3e8d3e91	0.27586797
118	0xbeaeaeed	-0.34117833
119	0xbe0f0082	-0.13965037
120	0xbe3bde8d	-0.18346615
121	0xbd0bf46d	-0.03416865
122	0xbde61351	-0.11234153
123	0x3e21fd2a	0.1581923
124	0x3d55664e	0.05209952
125	0xbe8950c5	-0.26819435
126	0xbe049d9c	-0.12950748
127	0xbc42948d	-0.011876238
128	0x3d3efd7c	0.04662846
129	0xbd8b5e2e	-0.06805073
130	0xbf1e9147	-0.61940426
131	0x3d0abf4d	0.033873845
132	0x3dcad49d	0.09903834
133	0xbdde82aa	-0.10864766
134	0xbe0c3a18	-0.13694036
135	0xbc596d0f	-0.0132706305
136	0xbe33422e	-0.17505714
137	0x3bd9047b	0.0066228486
138	0xbb98fd19	-0.0046688435
139	0x3c2ec23e	0.010666428
140	0xbe85f1c9	-0.2616103
141	0x3c5f1a74	0.013617147
142	0x3d861e4a	0.06548746
143	0xbd0e2cd9	-0.03471074
144	0x3e007c04	0.12547308
145	0xbc261577	-0.010136954
146	0xbd0f75de	-0.035024516
147	0x3d67f1f7	0.05662724
148	0x3d81f4c0	0.063455105
149	0x3bf4c5f6	0.007469888
150	0xbecf34b4	-0.40469897
151	0xbddbdca0	-0.1073544
152	0x3cb86c70	0.022512645
153	0x3d78c4a0	0.06073439
154	0x3d811ad8	0.06303948
155	0x3d0b04bc	0.033940062
156	0x3d13a27a	0.03604362
157	0xbd632986	-0.05545952
158	0x3e915cc6	0.28391093
159	0x3d950847	0.072769694
160	0xbe89cb9b	-0.2691315
161	0xbe0b94b3	-0.13630943
162	0xbc789aa4	-0.015173588
163	0x3e276d81	0.16350366
164	0xbde02ef1	-0.10946453
165	0x3e911348	0.28335023
166	0xbe378251	-0.17920806
167	0xbd176eba	-0.03697083
168	0xbe288ad2	-0.16459206
169	0xbd98aad2	-0.074544564
170	0x3e1e0287	0.15430652
171	0xbd8fb11c	-0.07016203
172	0xbe9aef50	-0.30260706
173	0xbe0a8170	-0.13525939
174	0x3d881f3c	0.066465825
175	0xbd454619	-0.048162553
176	0x3eb62580	0.35575485
177	0xbe3c93ab	-0.18415706
178	0xbdbfee9b	-0.09371682
179	0xbe7b416c	-0.24536675
180	0xbea983e6	-0.33108443
181	0x3ca98431	0.020692917
182	0xbea7cb1e	-0.32772154
183	0x3d8a3309	0.067480154
184	0xbe7a5bb0	-0.24449039
185	0x3d6e4803	0.058174144
186	0xbe37375f	-0.17892216
187	0x3dd0fbef	0.102043025
188	0xbe8b1ef0	-0.2717204
189	0xbea45ec8	-0.32103562
190	0xbd783b2e	-0.060603313
191	0x3c94238f	0.018083362
192	0xbdf98bfb	-0.12184902
193	0x3dee1196	0.11624448
194	0x3e320fce	0.17388842
195	0xbd8411e3	-0.06448724
196	0xbd8742ea	-0.0660456
197	0xbd98ace3	-0.074548505
198	0x3e964592	0.29349953
199	0x3d27f77c	0.041007504
200	0xbdf99134	-0.121858984
201	0x3d0268f4	0.031838372
202	0x3e28ba91	0.1647742
203	0x3e8352c2	0.25649077
204	0xbde643ad	-0.11243377
205	0xbdb8ea69	-0.09029085
206	0x3dc12a5d	0.09431908
207	0x3e3e28d4	0.18570262
208	0x3df598eb	0.119920574
209	0x3d7d9f42	0.06191946
210	0x3e5f4b7b	0.21806137
211	0x3dd17812	0.1022798
212	0xbd4231ce	-0.04741078
213	0x3dd566c8	0.104199946
214	0x3e477f35	0.1948212
215	0xbe5e2cf0	-0.2169683
216	0xbe015ab5	-0.12632258
217	0x3d05b446	0.032642625
218	0x3e45527c	0.19269747
219	0x3d11b448	0.03557232
220	0xbeb0bb45	-0.34517875
221	0xbdc25aed	-0.09489999
222	0xbdb0fe8d	-0.08642302
223	0x3c4e9f45	0.012611215
224	0xbdb430d4	-0.08798376
225	0x3da3d5fe	0.079998
226	0xbc32d2c3	-0.010914507
227	0x3dab6083	0.083680175
228	0x3d21b860	0.039482474
229	0xbe66a3f9	-0.22523488
230	0xbdcfaa03	-0.10139849
231	0x3e3d1f6f	0.18469022
232	0xbd8719c3	-0.065967105
233	0x3dd43c3c	0.10363051
234	0xbbb87190	-0.005628772
235	0xbda6d4d2	-0.08146061
236	0x3e91e85a	0.28497583
237	0x3e2d49dc	0.16922706
238	0xbe40a0fa	-0.18811408
239	0xbd856aca	-0.06514509
240	0xbe55db88	-0.20884526
241	0xbd444ebd	-0.047926653
242	0x3de995cd	0.11405525
243	0xbc52902a	-0.012851754
244	0x3d208a76	0.039194547
245	0xbde929c8	-0.11384922
246	0xbd5f847a	-0.0545697
247	0xbe0e0fc8	-0.13873208
248	0x3e22d80c	0.15902728
249	0x3e0ee8ab	0.13955943
250	0x3e5dd9bc	0.2166509
251	0xbd0c7f45	-0.03430106
252	0xbd35d37a	-0.044391133
253	0x3cddf061	0.02709216
254	0x3ae073b0	0.0017124321
255	0x3d1ba0da	0.037995197

net.0.bias f4 [64]
0	0x3514b062	5.539097e-07
1	0x38867faf	6.413401e-05
2	0x368d7263	4.215444e-06
3	0xb78ca04a	-1.6763941e-05
4	0x35f1f429	1.8026959e-06
5	0xb4d81ed1	-4.0255557e-07
6	0xb522b6de	-6.061581e-07
7	0x3601a6e2	1.9319637e-06
8	0xb59995a8	-1.1442944e-06
9	0x34db0226	4.0793492e-07
10	0x34d5ad60	3.980049e-07
11	0x342aec24	1.5918391e-07
12	0x35fbf2fc	1.8771675e-06
13	0x3494a145	2.7684487e-07
14	0x35339d83	6.6911906e-07
15	0xb5d14e60	-1.5594524e-06
16	0x35ae5f5f	1.2991767e-06
17	0x36c6b812	5.9222884e-06
18	0xb5544beb	-7.908663e-07
19	0x36808f98	3.831414e-06
20	0x35f795b3	1.8446502e-06
21	0xb6de70d4	-6.6292505e-06
22	0x348169d8	2.4105134e-07
23	0xb4c2d193	-3.62878e-07
24	0x3609c367	2.052833e-06
25	0x35b50df3	1.3489611e-06
26	0xb68f2d10	-4.266978e-06
27	0xb3934bf6	-6.859038e-08
28	0x372164aa	9.6197855e-06
29	0xb600f209	-1.921437e-06
30	0x35bc214b	1.4016781e-06
31	0x35b96abf	1.3814641e-06
32	0x36fe2309	7.5738685e-06
33	0xb5a2fa9a	-1.2142875e-06
34	0xb6436189	-2.9114037e-06
35	0x36831150	3.9061197e-06
36	0x35558cc2	7.9553513e-07
37	0xb692e37f	-4.377623e-06
38	0xb385442b	-6.205695e-08
39	0x35c51b6d	1.4685626e-06
40	0xb81bde47	-3.716189e-05
41	0x370dc609	8.450364e-06
42	0xb60daee6	-2.1112442e-06
43	0x37b33698	2.1363885e-05
44	0xb58ec09e	-1.0635883e-06
45	0xb7508c29	-1.24304e-05
46	0xb669f97f	-3.4864931e-06
47	0xb4dfb04e	-4.1665265e-07
48	0xb4bb1616	-3.4847534e-07
49	0x354fa4a5	7.73531e-07
50	0x3601b7ac	1.932941e-06
51	0x34d5db12	3.9833736e-07
52	0x34bd34d5	3.5242434e-07
53	0x3680017a	3.814869e-06
54	0xb60faaf2	-2.1408164e-06
55	0x35009918	4.7906497e-07
56	0xb61850f0	-2.2696877e-06
57	0x34c31067	3.6333515e-07
58	0x3539f08b	6.9267907e-07
59	0xb610156b	-2.147014e-06
60	0xb61b5c5d	-2.3150562e-06
61	0x3580a3d5	9.584425e-07
62	0xb48c1b6b	-2.609698e-07
63	0xb63e4bb2	-2.8356267e-06

net.1.weight f4 [64]
0	0x3f7a1046	0.9768108
1	0x3f8fe42a	1.1241505
2	0x3f876914	1.0578942
3	0x3f5fbadc	0.873945
4	0x3f5a3cf1	0.8524924
5	0x3f3471b0	0.70485973
6	0x3f2fb435	0.6863435
7	0x3f509ccb	0.8148925
8	0x3f3167c9	0.6929899
9	0x3f563f60	0.8369045
10	0x3f6792ed	0.90458566
11	0x3f4d895f	0.80287737
12	0x3f61fd83	0.88277453
13	0x3f5dde13	0.86666983
14	0x3f6454b4	0.89191747
15	0x3f4e9ffa	0.80712855
16	0x3f3b38a9	0.7313333
17	0x3f55911e	0.83424556
18	0x3f4b3040	0.793705
19	0x3f541038	0.8283725
20	0x3f5e6d4e	0.86885536
21	0x3f52d0a5	0.82349616
22	0x3f42325b	0.75858086
23	0x3f56a846	0.83850515
24	0x3f4ff9c4	0.8124049
25	0x3f573c22	0.8407613
26	0x3f54aaa5	0.8307288
27	0x3f35c801	0.71008307
28	0x3f51263b	0.8169896
29	0x3f60df1a	0.87840426
30	0x3f3dc3fd	0.7412718
31	0x3f473e24	0.77829194
32	0x3f461bd3	0.77386206
33	0x3f7a83c2	0.97857296
34	0x3f4593a1	0.7717839
35	0x3f6678d2	0.9002811
36	0x3f6c927e	0.9241103
37	0x3f5ce358	0.862844
38	0x3f35b556	0.7097982
39	0x3f340478	0.7031932
40	0x3f360257	0.7109732
41	0x3f497dad	0.7870739
42	0x3f434611	0.7627879
43	0x3f57c8c6	0.8429073
44	0x3f3f816d	0.74806863
45	0x3f314414	0.69244504
46	0x3f56d5d0	0.8392
47	0x3f7f83d2	0.99810517
48	0x3f647995	0.8924802
49	0x3f479685	0.7796405
50	0x3f517b35	0.81828624
51	0x3f5bebc0	0.859066
52	0x3f344d6e	0.7043065
53	0x3f3aecc0	0.730175
54	0x3f4936bb	0.7859914
55	0x3f472be3	0.7780134
56	0x3f68bebe	0.9091605
57	0x3f415153	0.75514716
58	0x3f33059e	0.69930446
59	0x3f4e2ebb	0.80540055
60	0x3f3b55ef	0.73178
61	0x3f2505e7	0.6446213
62	0x3f603be6	0.875914
63	0x3f67c67a	0.90537226

net.1.bias f4 [64]
0	0xbec01a26	-0.3751995
1	0xbeb7f332	-0.3592773
2	0xbf48eac3	-0.7848322
3	0xbecf0b54	-0.4043833
4	0xbf0c3f6e	-0.54784286
5	0xbf1bf891	-0.6092616
6	0xbf3350c3	-0.7004511
7	0xbee814eb	-0.4532846
8	0xbf25fcf4	-0.648391
9	0xbebca9d0	-0.36848307
10	0xbf082f58	-0.5319724
11	0xbf130828	-0.5743432
12	0xbe6842d0	-0.22681737
13	0xbf414c0f	-0.7550668
14	0xbeb136bb	-0.3461207
15	0xbf070bbd	-0.52752286
16	0xbf0b6f4c	-0.544667
17	0xbf52a3f1	-0.82281405
18	0xbf3d2115	-0.73878604
19	0xbf43b7a3	-0.7645208
20	0xbe8cdefa	-0.27513868
21	0xbf1e293b	-0.6178166
22	0xbebfca0b	-0.37458834
23	0xbf23b623	-0.63949794
24	0xbf201733	-0.625354
25	0xbf0463e0	-0.517149
26	0xbef63c62	-0.48092943
27	0xbf2efd17	-0.68354934
28	0xbf35f957	-0.7108359
29	0xbe8fff73	-0.2812458
30	0xbf32cd2a	-0.69844306
31	0xbf10ff8b	-0.5663993
32	0xbf08c4f4	-0.53425527
33	0xbeb05466	-0.3443939
34	0xbf353357	-0.70781463
35	0xbf2fadb7	-0.6862444
36	0xbeeffc1d	-0.46872035
37	0xbf00e26a	-0.5034548
38	0xbeea80c5	-0.45801368
39	0xbe8ac407	-0.27102682
40	0xbf1e662b	-0.61874646
41	0xbf3a22d5	-0.727094
42	0xbf095b4e	-0.53654945
43	0xbf249246	-0.64285696
44	0xbebc54da	-0.36783487
45	0xbe8e14a6	-0.27750129
46	0xbec313d4	-0.38101065
47	0xbf137b88	-0.5761037
48	0xbe929d22	-0.28635508
49	0xbf1c83ca	-0.61138594
50	0xbea3e995	-0.32014146
51	0xbec16436	-0.37771767
52	0xbf134957	-0.5753378
53	0xbf1a4c2e	-0.6027249
54	0xbf22d3e2	-0.6360456
55	0xbf1b9d25	-0.6078666
56	0xbf05d481	-0.5227738
57	0xbdfbf333	-0.12302246
58	0xbeda2d62	-0.4261275
59	0xbed13cb6	-0.4086663
60	0xbf22978a	-0.6351248
61	0xbf104941	-0.56361777
62	0xbe986fc5	-0.29772773
63	0xbed55a37	-0.4167039

net.1.running_mean f4 [64]
0	0x3d9d4d31	0.07680739
1	0xbebd281a	-0.36944658
2	0xbf1b99b4	-0.6078141
3	0xbc12ecc1	-0.008967579
4	0xbe37d84c	-0.17953604
5	0x3de82539	0.11335225
6	0xbea35742	-0.3190251
7	0x3ed3ef8d	0.413937
8	0x3c82cacb	0.01596584
9	0x3e5274bd	0.20552345
10	0xbe0f5fa2	-0.14001325
11	0xbd6f0452	-0.05835373
12	0xbd9bbded	-0.07604585
13	0x3e411a55	0.18857701
14	0x3d1e1dd3	0.03860266
15	0xbe3ce08c	-0.18445033
16	0x3e3e16b5	0.1856335
17	0x3d28fad6	0.04125484
18	0x3e207675	0.15670188
19	0x3e793910	0.24338174
20	0x3dad46c0	0.0846076
21	0x3d62f5bc	0.05541013
22	0xbd580e6d	-0.052748132
23	0x3f10fc42	0.56634915
24	0x3e78277d	0.24233814
25	0xbd769d7a	-0.060208775
26	0xbe131b89	-0.14365973
27	0x3e0a0ec7	0.134822
28	0xbdeca8b2	-0.115556136
29	0x3e450992	0.19241932
30	0xbea7ff99	-0.32812193
31	0x3e1f23fe	0.15541074
32	0x3e81f671	0.25383332
33	0x3e883d41	0.26609233
34	0xbddda2a8	-0.1082204
35	0x3d8b2eab	0.067960106
36	0xbe37645e	-0.17909381
37	0x3d44b5d1	0.048024956
38	0xbc52a703	-0.0128572015
39	0x3d622ca1	0.055218343
40	0x3e5633ac	0.20918149
41	0x3ecfb5d9	0.40568426
42	0x3df7b096	0.12094228
43	0x3cfb3ee0	0.03066963
44	0x3df53f53	0.11974969
45	0xbe07c05e	-0.13256976
46	0x3e575420	0.21028185
47	0x3d051afe	0.032496445
48	0xbda8cc54	-0.082420975
49	0xbeb95fd1	-0.36205915
50	0x3e29e5ec	0.16591614
51	0x3dad91e8	0.08475095
52	0x3de74028	0.11291534
53	0x3e98e079	0.2985876
54	0x3e800378	0.25002646
55	0xbd905dd8	-0.07049149
56	0xbe51b3ca	-0.2047874
57	0x3e8365d6	0.25663632
58	0x3d3aaf23	0.04557718
59	0x3dc18e9b	0.09451028
60	0xbefa98b7	-0.48944637
61	0x3c71d375	0.014759888
62	0xbda842f6	-0.08215897
63	0xbda97ab9	-0.082753606

net.1.running_var f4 [64]
0	0x3df181aa	0.117923096
1	0x3e2cdcd1	0.1688111
2	0x3e083066	0.13299713
3	0x3df97267	0.12180024
4	0x3ddab1b7	0.10678428
5	0x3dc1ca1d	0.09462378
6	0x3dabbea6	0.08385973
7	0x3dd163c3	0.10224106
8	0x3dcb6a86	0.09932427
9	0x3dd8d6d1	0.10587848
10	0x3ddf8e81	0.10915852
11	0x3dd003a8	0.101569474
12	0x3e0500e9	0.12988628
13	0x3e00d593	0.12581472
14	0x3e15c367	0.14625321
15	0x3df5ad64	0.11995962
16	0x3dc0789c	0.093980044
17	0x3dd8391d	0.105577685
18	0x3dc16d93	0.09444728
19	0x3dc65899	0.096848674
20	0x3dca5625	0.09879712
21	0x3ddb29fb	0.107013665
22	0x3db0f65d	0.0864074
23	0x3db6cb34	0.08925477
24	0x3dc14afd	0.09438131
25	0x3deea2ca	0.11652143
26	0x3dc34c37	0.09536021
27	0x3db58f61	0.08865238
28	0x3dc2c4e0	0.09510207
29	0x3deda4be	0.11603688
30	0x3dd5228e	0.104069814
31	0x3dac79c0	0.084216595
32	0x3df3b3fc	0.11899564
33	0x3e138680	0.14406776
34	0x3db0bafa	0.08629413
35	0x3dd59ddc	0.104305
36	0x3de07e1c	0.109615535
37	0x3dc8f24e	0.09811841
38	0x3dd56126	0.1041892
39	0x3dc17d51	0.0944773
40	0x3da13e35	0.07873193
41	0x3d97bbfb	0.07408901
42	0x3dc4b339	0.096044965
43	0x3dd659c8	0.10466343
44	0x3dc88eeb	0.097928844
45	0x3dbe1e72	0.09283151
46	0x3db97b54	0.09056726
47	0x3e04f01f	0.12982224
48	0x3e098862	0.13430932
49	0x3de011fb	0.109409295
50	0x3dcd2a34	0.10017815
51	0x3e010022	0.12597707
52	0x3d816cbf	0.0631957
53	0x3d988571	0.07447327
54	0x3dd8e8ef	0.105913036
55	0x3dbae8b5	0.091264166
56	0x3de44625	0.111461915
57	0x3e07f48b	0.1327688
58	0x3db41901	0.087938316
59	0x3dc0628d	0.09393797
60	0x3db926c3	0.09040596
61	0x3daabc9e	0.08336757
62	0x3e06db32	0.13169554
63	0x3e0d77d1	0.13815238
