bestclf/german/g02.pth (torch, 46462 bytes, 23 tensors)

fc1.weight f4 [64, 45]
000000 fb c5 8e 3d 69 bf f6 bd 78 cd 76 bd 85 13 05 3e
       0.069713555 -0.12048227 -0.060254544 0.12995727
000010 25 bf de bd 92 29 27 bd 49 31 14 3e f6 3a 52 bc
       -0.10876302 -0.04081113 0.14471926 -0.01283144
000020 e0 61 17 3b d7 21 0c bb c2 0a 57 bd 4f 9e 7b bd
       0.002309911 -0.0021382475 -0.052500494 -0.06143027
000030 c8 3f 2c 3d 88 7e f5 bc d1 c7 28 3d 23 e6 fa bd
       0.042053014 -0.029967561 0.041206185 -0.12250926
000040 5a be 4a 3d de ef 01 3e cb c2 3a bd f3 d2 b4 bd
       0.04949794 0.12689158 -0.045595925 -0.08829298
000050 45 15 44 ba a4 f4 b3 3c 45 08 bd 3d ca 02 a6 3d
       -0.0007479976 0.02196724 0.09230093 0.08106001
000060 5d a5 6a bd 13 50 10 3d 2a ea c2 bd e2 09 14 3e
       -0.05728661 0.035232615 -0.095173195 0.14456895
000070 df 0a ba bd f3 f4 19 3d 11 8d 41 bc 33 d1 e5 3d
       -0.09084105 0.037587117 -0.011813418 0.11221542
000080 e8 81 b9 bd 3d 21 90 bd 73 c1 95 bd 8f 29 be bd
       -0.09057981 -0.0703759 -0.07312288 -0.092852704
000090 74 81 0b 3e a6 fe fd bd 47 47 0a bb 72 5c 01 be
       0.13623601 -0.12402086 -0.0021099614 -0.12632921
0000a0 d3 26 04 3e e8 be a5 bc f8 a4 f4 bd a2 ed e8 3d
       0.12905435 -0.020232633 -0.11945528 0.1137345
0000b0 91 14 8b 3b 33 08 c5 bc aa 2f 20 3d 42 69 f2 bd
       0.004244395 -0.024051761 0.039107956 -0.118364826
0000c0 8c 31 da bd 8c 8e 98 3c 86 b0 0b 3e fc 47 d3 bd
       -0.106539816 0.01862266 0.13641557 -0.10316464
0000d0 e8 7d f4 3c 75 52 3d bd 23 a0 02 be 8e 96 bd 3d
       0.029845193 -0.046221215 -0.127564 0.09257232
0000e0 bf 5e 98 3d 38 b9 32 3d 5d 51 0c be c9 ec 04 3e
       0.074399464 0.04363367 -0.13702913 0.12980951
0000f0 80 d3 17 be 44 04 73 3c 7d 08 af bd 32 42 a2 bd
       -0.14826775 0.01483256 -0.08546541 -0.07922782
000100 6d 37 04 3e 1e 06 30 bd 6f 0e ef bd 65 d9 72 bd
       0.12911768 -0.042974584 -0.11672675 -0.059289355
000110 7d 48 fc 3d c7 23 11 be 18 02 07 be 91 7d 14 3d
       0.123185135 -0.14173804 -0.13184392 0.036252562
000120 18 76 cc 3d fb c0 ca 3d 25 19 ca 3d a6 57 dd 3d
       0.09983462 0.09900089 0.09868077 0.10807733
000130 da 62 39 3c 44 7d 03 be c5 69 ac bd 25 a3 f7 bd
       0.011315072 -0.12840754 -0.084186114 -0.12091664
000140 c8 e4 e8 3d 60 d7 a3 bd 5b 85 f5 3d 11 d1 0a 3e
       0.113717616 -0.08000064 0.11988326 0.13556315
000150 c6 94 d7 3c 63 92 ba bd 58 df 6b 3b e4 ca ee 3c
       0.026316058 -0.09109952 0.0035991278 0.02914948
000160 2a b9 85 3d fa 02 02 be 2f e1 86 bd 31 f7 c4 3d
       0.06529458 -0.12696448 -0.06585919 0.096174605
000170 97 69 ca bd b7 4c bd bd ad b3 30 bd de f3 e2 3d
       -0.09883421 -0.09243148 -0.043140102 0.1108167
000180 4a 8e 15 be 05 a4 3a bd 7b 5b b1 bd 83 06 8a bd
       -0.1460506 -0.045566577 -0.08660027 -0.06739523
000190 c4 0e 5c bb a9 70 81 3c 53 99 b0 bd d2 21 b6 bc
       -0.0033578137 0.01580079 -0.08622994 -0.022232924
0001a0 81 3d 8f bd fa ca a5 bd ae 54 34 bd 08 70 f7 3c
       -0.06994153 -0.08095355 -0.04402607 0.030204788
0001b0 22 16 87 bd 47 df 26 3d 12 3a d2 bd d3 b5 f8 3d
       -0.065960184 0.040740278 -0.10264982 0.12144055
0001c0 28 02 c6 bc 3a e7 b1 3d dd ad c1 3d eb 99 d0 3c
       -0.02417095 0.08686681 0.0945699 0.025464019
0001d0 7a ac 05 be b0 21 b7 bd e2 d3 ba bb 7b d3 07 3e
       -0.13054076 -0.08941972 -0.005701528 0.13264267
0001e0 2e 52 67 bd c8 53 0d 3d f4 ee 03 bd ce 71 ce bd
       -0.056474857 0.03450373 -0.032210305 -0.100803
0001f0 bf 64 72 3d b7 c6 d8 bd 6f b7 9f 3d 1a e4 22 3c
       0.05917811 -0.10584777 0.07798659 0.009942079
000200 4d b8 e5 bd 04 f8 1a bd fc b9 10 be 2e c0 aa 3d
       -0.11216793 -0.037834182 -0.14133447 0.083374366
000210 33 aa fa 3d db c0 14 3e e2 39 17 3e a8 12 48 bc
       0.12239494 0.14526694 0.14768174 -0.012211479
000220 70 0a cd bd 55 5e ff 3d 17 9e 9a 3d 3d b1 9a bd
       -0.100117564 0.12469164 0.075496845 -0.07553337
000230 ee ad d5 bd b4 5a 62 3d a4 41 2f bd d7 21 92 bb
       -0.10433565 0.055262282 -0.04278721 -0.0044596004
000240 a1 24 3a bd 0e dc 9b bd 92 68 ff bc 3d 2f 26 3d
       -0.04544509 -0.076103315 -0.031177793 0.040572394
000250 7a c6 a7 3c fe b5 34 bd fc 09 00 be 36 c9 d4 bd
       0.020480383 -0.044118874 -0.12503809 -0.103899404
000260 2b 27 cc bc b1 8c 21 bd 60 ef 11 3e cd e9 cd bd
       -0.02492102 -0.039440814 0.1425147 -0.100543596
000270 f6 d7 06 be dc b3 74 bd 06 f1 bb 3d 5b 27 cd bd
       -0.1316832 -0.05974184 0.09176831 -0.10017272
000280 e4 66 58 ba 8a 0e 97 3b 6e c8 fd bd 4d 7b 85 bd
       -0.0008255078 0.0046098875 -0.123917446 -0.065176584
000290 ba 28 07 3e 07 57 72 3d 28 00 a1 bd 37 bb f2 bd
       0.1319913 0.059165027 -0.07861358 -0.11852115
0002a0 fa ef e7 bd a6 e5 b3 bd 01 4c 12 be 4c 6f d2 bd
       -0.11325069 -0.08784036 -0.14286806 -0.102751344
0002b0 84 e5 e5 3d 87 03 df 3d 7b 5f 86 bd 2b 87 62 bd
       0.11225417 0.10889345 -0.0656118 -0.055304687
0002c0 64 dc e2 3d 24 ae 84 bd 65 d0 d4 bd 83 fc 0b be
       0.110771924 -0.06478527 -0.103913106 -0.13670544
0002d0 3f 96 c7 bd db 1f c8 bd 89 d1 3f bd 13 f8 b8 bd
       -0.09745454 -0.09771701 -0.046830688 -0.090316914
0002e0 6a 51 53 bd 97 f2 01 bd 77 22 4c bd eb 73 98 3d
       -0.051591314 -0.031725492 -0.049837556 0.074439846
0002f0 98 47 17 be 96 79 01 be fd 5f 8e bd e5 17 03 3e
       -0.14773405 -0.12644038 -0.06951902 0.12802084
000300 56 50 be 3d 2b ba 8b 3d e0 ca d4 bd d3 64 64 3d
       0.092926666 0.06822618 -0.10390258 0.055760216
000310 dc 55 67 3d 40 5d e5 bd a0 f5 1d 3e bc 6d 24 3d
       0.056478366 -0.11199427 0.1542573 0.040143713
000320 c7 f8 f9 3d 07 a2 dc bc 30 24 0f 3d 9e 0a 97 3d
       0.12205654 -0.02693273 0.03494662 0.07375072
000330 6d 33 4f bd ae 5a e3 bd b8 d8 e8 3b b9 0d a5 bb
       -0.050586153 -0.1110128 0.007105913 -0.0050370363
000340 e5 3d 59 ba 79 ae 34 3c 68 3f f0 3d 40 e2 86 3d
       -0.0008287116 0.011027926 0.11730844 0.065861225
000350 76 16 c0 bd a4 ae f9 3c 08 44 06 be 0b 8c e4 3d
       -0.09379284 0.030478783 -0.1311189 0.111595236
000360 41 4d 3f 3d 61 df 04 3e 78 34 89 bd ef f3 b5 3d
       0.046704534 0.12975837 -0.06699461 0.08884417
000370 3a ec 13 3e 87 a6 03 3e 05 9d be bd 68 3b f0 3d
       0.14445582 0.12856494 -0.09307293 0.11730081
000380 56 72 ee 3b 98 e1 e2 bc 01 d6 a2 bd ad ce df 3d
       0.0072768135 -0.027695462 -0.07950974 0.10928092
000390 ec f4 15 3e f3 7f 8c bd e5 48 15 be 7d fb 13 3e
       0.14644212 -0.06860342 -0.14578588 0.14451404
0003a0 b4 fe 7e 3d f0 e8 f3 bd c1 f0 e0 3d 97 a0 95 3c
       0.062254623 -0.11909664 0.1098342 0.018265052
0003b0 05 06 f9 3d 19 f4 f8 3d c4 42 ff bc c1 8d 76 bd
       0.12159351 0.12155933 -0.031159766 -0.06019378
0003c0 71 88 ed bd 7f 5b bc bd f5 d6 e7 bc ed fd d2 3d
       -0.1159829 -0.09197139 -0.028300742 0.10302339
0003d0 dd de 9d 3d 65 a5 da 3d 0a 34 1c bd f0 73 d6 bd
       0.077085234 0.10676078 -0.038135566 -0.10471332
0003e0 e2 16 89 bd 21 d4 74 bd 42 86 81 3d 22 ee 8e 3b
       -0.06693818 -0.059772614 0.06324436 0.0043618837
0003f0 36 fd cf 3d 4a 65 21 3d 08 91 92 3c 45 d1 e7 bd
       0.10155718 0.039403237 0.017891422 -0.11319212

fc1.bias f4 [64]
000000 3a b9 67 bc 41 49 4e b8 cb 92 07 bd e6 69 03 b9
       -0.014143283 -4.918245e-05 -0.033098977 -0.00012532584
000010 94 0b 44 3d bb d8 b8 3d 31 60 8f bd b1 e3 21 bd
       0.047862604 0.09025713 -0.07000769 -0.039523784
000020 fa ae f3 bd a1 62 60 bd 64 04 1c 3d 65 d8 d6 bb
       -0.118986085 -0.05478156 0.038090125 -0.006556558
000030 61 c1 5a 3c 38 ca 63 bb cc 93 fa bd bd e5 c1 3c
       0.013351769 -0.0034757983 -0.12235221 0.023669118
000040 a9 7b 95 bd 73 6d 98 3a 4f e0 d3 bd e1 d1 fe 3c
       -0.07298977 0.0011629298 -0.10345518 0.031105937
000050 d6 ca 11 3d 56 2d 4e 3b f5 21 e6 3d c8 9e 77 bc
       0.03559383 0.0031460128 0.112369455 -0.01511354
000060 52 49 42 bd 47 7a c9 bd c7 78 74 3b 09 da ba 3d
       -0.047433205 -0.09837776 0.0037303434 0.09123618
000070 ba 37 1f bb 6f a9 bc bd cd 08 ed bd 07 64 c1 bd
       -0.002429469 -0.092120044 -0.11573944 -0.09442907
000080 c7 0d d4 ba 59 7e 90 3d a8 47 88 3d b2 63 1c bc
       -0.0016178422 0.07055349 0.06654292 -0.009545254
000090 d9 44 53 3d 58 0f 55 bb 8c 0f c0 bb f8 c6 40 bd
       0.05157933 -0.0032510366 -0.0058612283 -0.04706475
0000a0 d4 5a 8c b8 9c a9 a3 ba ee 99 95 3d 96 ab ad 3a
       -6.692638e-05 -0.0012486461 0.073047504 0.0013249989
0000b0 c1 18 60 3d 3d e3 b8 ba a0 66 e8 3d 50 8b e4 bd
       0.054711107 -0.0014105808 0.11347699 -0.11159384
0000c0 e4 e6 bf bd 4a f4 ad bd d8 78 dc bc 93 49 8c bb
       -0.09370211 -0.0849386 -0.026913092 -0.0042812317
0000d0 58 7e 1f 3d 87 ea 9e bc e5 91 f7 3d 37 1c a0 3d
       0.03893885 -0.01939894 0.12088374 0.078178816
0000e0 e0 a3 fd 3c 5e 4c cb 3c ca 08 14 3d 3c 7c 91 bc
       0.03096193 0.024816688 0.036141194 -0.017759435
0000f0 87 7d b1 3d 37 3c 93 3d 12 29 4f 3d 14 77 83 3c
       0.086665206 0.071892194 0.050576277 0.016047992

fc2.weight f4 [64, 64]
000000 3c d0 25 bc 3a 85 a7 bc 67 b3 b7 3a b7 8e 37 bb
       -0.010120448 -0.02044927 0.0014015258 -0.0028008649
000010 c9 52 59 3d 9d d2 64 bd c7 7d 49 3d 12 fa 2e 3d
       0.053057466 -0.05586492 0.049192216 0.042718954
000020 cd 32 3a 3d 33 fa 85 3d 07 61 1d 3d 32 a3 62 3d
       0.045458604 0.06541862 0.03842261 0.055331416
000030 78 7b 8a 3c 08 17 62 bc 86 b4 42 bd ad d8 26 3d
       0.016904578 -0.013799436 -0.04753544 0.040733982
000040 e6 6f 69 bb c5 dd be bd 3a 5e 4c 3d d7 ef a2 3d
       -0.0035619675 -0.09319643 0.04989455 0.07955902
000050 25 5c 9f bd 73 5c 28 3b 96 d0 94 bd 42 43 b5 3d
       -0.07781247 0.002568987 -0.07266347 0.08850719
000060 ee ea 44 bd 22 37 4e bd 25 b2 9f 3d cc 83 83 bd
       -0.04807561 -0.050345547 0.0779765 -0.06421623
000070 78 13 45 bd 61 70 c2 3d 8d a6 bc 3b d6 d1 02 bd
       -0.04811427 0.09494091 0.005757159 -0.031938396
000080 42 92 47 bd 50 16 d4 3d 8d 58 91 3c b1 1d 0b bd
       -0.048723467 0.10355818 0.01774242 -0.033963863
000090 e2 ab 3d bd 9f 3f 9f bc b5 ef 33 bd 4b 01 c7 3d
       -0.0463065 -0.019439517 -0.043929774 0.097170435
0000a0 f6 b2 c9 bc 8b 79 35 3c 9f b6 54 3d 58 0c 5c bc
       -0.024621468 0.011076341 0.051931974 -0.013430677
0000b0 b8 50 35 bd d8 3e c0 b9 99 15 7d bd 77 10 86 3d
       -0.044266433 -0.00036667916 -0.061788175 0.06546109
0000c0 90 1c 0b 3d 3f fb 19 3c 24 a8 30 ba 0e 85 05 bd
       0.033962786 0.009398281 -0.0006738922 -0.032597594
0000d0 5a 07 58 3d 3f 9c b9 bc 48 e4 40 bd 32 c6 be 3d
       0.052741386 -0.022657512 -0.047092706 0.093151465
0000e0 94 03 9b bd 07 61 a8 bd f5 e0 fc 3c 12 b0 06 bd
       -0.07569042 -0.082216315 0.030868987 -0.032882757
0000f0 62 cf 67 bd f0 9e 5e bd 8c 68 15 3d df a9 98 bd
       -0.05659426 -0.054350793 0.036476657 -0.07454275
000100 71 12 ac bd d2 a5 12 bc 54 57 89 3d ec 1c 70 bb
       -0.08401955 -0.008950667 0.0670611 -0.0036638333
000110 56 d0 42 3d 95 6f f0 bc 29 d6 ba 3c 44 03 b9 3d
       0.047561966 -0.029350081 0.022807198 0.09033826
000120 59 68 f0 bc 64 0c ca bd c1 da b4 3d 5e ed 98 bd
       -0.029346632 -0.098656446 0.088307865 -0.07467149
000130 a5 3e 8e bd 20 7e 4b b9 07 a6 86 bd cf b2 a5 3d
       -0.06945542 -0.00019406574 -0.06574636 0.08090746
000140 f6 7f 90 3d b0 e7 61 3d 59 cb 3e bb e3 ac 92 3d
       0.070556566 0.055152595 -0.0029112904 0.07161882
000150 5d 14 96 3d 7f b1 80 bd c3 b9 f6 3d 00 e4 1e bb
       0.07328103 -0.06283855 0.1204715 -0.0024244785
000160 55 26 88 bd 28 49 85 3c 5a 1b da 3c 0e f4 07 3d
       -0.06647936 0.016270235 0.02662437 0.033191733
000170 1f 88 38 bd e5 43 02 3d 44 9b 1b 3d 68 c1 a5 3d
       -0.04505169 0.03180303 0.03798987 0.0809353
000180 a5 9f 96 3b 6d 96 13 bd e9 0d e6 3d 4d d7 a8 bd
       0.004596668 -0.03603213 0.11233122 -0.0824419
000190 d7 53 9a bd cd 58 eb bc f1 83 41 3d db ff 05 be
       -0.075355224 -0.028728867 0.04724497 -0.13085882
0001a0 00 a1 04 3e 79 a6 10 bc fd 6c 09 bd 56 36 ab bd
       0.12952042 -0.008828753 -0.033551205 -0.08359973
0001b0 2e 34 dd 3d c0 3d cc bc 13 c6 ab bd ac 29 b1 bc
       0.10800968 -0.024931788 -0.08387389 -0.021626316
0001c0 30 0b 82 3d b0 24 be 3d 0d 12 5a 3d 74 8f 8a bc
       0.0634979 0.09284341 0.05323987 -0.016914107
0001d0 68 70 b4 bc bc 25 ba bd 20 87 ff bc 1c ba 2c bd
       -0.022026256 -0.090892285 -0.031192362 -0.042169675
0001e0 29 8e 4e 3d 65 38 04 3e af 2e d4 bd 09 8f ff 3d
       0.050428543 0.12912138 -0.10360467 0.12478454
0001f0 dd 83 02 3e d9 a8 db 3c 2e 26 69 3d 0c fe 78 3d
       0.12745614 0.026813911 0.056921177 0.060789153
000200 9e 45 db bd a2 87 0e bd 7c d5 cb bd c6 91 08 bc
       -0.10706638 -0.03479732 -0.09952828 -0.008335536
000210 1c ad 9c 3d 0c a3 88 3c 1f 84 db bb 64 48 d0 bd
       0.076502055 0.01667931 -0.0066990997 -0.101700574
000220 0b 6c bb 3d 50 d8 9a 3d 94 23 9e 3c 35 33 da bd
       0.09151467 0.075607896 0.019304074 -0.10654298
000230 2a 07 ae bd b7 99 8a bd 69 f2 dd 3d 52 2c be bc
       -0.0849746 -0.067676 0.10837252 -0.023214493
000240 82 db 74 bc 42 99 74 3c d9 78 04 bb 66 26 78 bd
       -0.014944913 0.014929118 -0.0020213632 -0.060583495
000250 59 19 c4 3d 36 57 cc bd 42 61 62 bc 4f 34 a1 3d
       0.09575147 -0.09977572 -0.013817133 0.07871305
000260 dc 2f 6d 3d 64 07 8f 3d 51 1d 8a bd 81 dc d0 bd
       0.05790697 0.069838315 -0.06743873 -0.10198308
000270 e7 ae bb 3d b5 0a 1b bc 2c 13 3a 3d ee 28 11 bd
       0.09164219 -0.009463002 0.04542844 -0.035439424
000280 78 39 7d 3d c3 a8 86 3d de e3 f5 3d b0 43 c1 bd
       0.061822385 0.065751575 0.12006353 -0.094367385
000290 39 20 56 bd 35 08 bb 3c c7 d2 09 3d 4d cd b9 bd
       -0.052276824 0.022831062 0.03364828 -0.09072361
0002a0 99 6c d1 bd d0 61 ea bd 93 dd 2f 3a 70 98 2e 3b
       -0.102257915 -0.114444375 0.00067087373 0.0026641153
0002b0 6a 36 c1 bd e7 5c 70 3b 97 eb 3a bd cf 78 d1 bd
       -0.09434207 0.0036676468 -0.045634832 -0.102281205
0002c0 89 6e 47 bd e3 fc 61 3c fd 6f d4 bd 0c 3e 11 ba
       -0.0486894 0.013793203 -0.103729226 -0.0005540557
0002d0 0a 37 c2 bd 81 16 bb bc 4c e1 c7 bd e8 b8 71 3d
       -0.09483154 -0.02283788 -0.09759769 0.05901423
0002e0 ff e4 c9 3d 12 fd f6 bd 4a e7 ad bd 76 0d a0 3d
       0.09858131 -0.12059988 -0.084913805 0.078150675
0002f0 0b 07 07 3e b9 54 c1 3d 08 18 e3 3d 03 e2 3d 3d
       0.1318628 0.09439988 0.11088568 0.04635812
000300 1f 74 1e bd 62 04 43 bd 92 b5 ca 3d 7c 7c a1 bd
       -0.03868496 -0.0476116 0.09897913 -0.07885072
000310 e8 25 1e 3c 67 93 ba bc 9a a8 bf bd 8f a4 0d 3d
       0.009652592 -0.022775365 -0.0935833 0.034580763
000320 b0 19 99 bc 33 47 df 3d 1f 76 17 bd ff 18 ce bc
       -0.018689007 0.10902252 -0.036977883 -0.025158403
000330 96 3f b9 bd 2f e1 d2 3d 1b 40 c4 bc 83 75 e7 bd
       -0.09045331 0.102968566 -0.02395635 -0.113017105
000340 c7 62 ae bd ac f4 3a 3c ba 25 dd bd d3 ce 40 3c
       -0.08514934 0.011410873 -0.107982114 0.011768061
000350 ed 1d c9 bd ca 25 ec bc 5c e5 cc 3d 54 28 77 3d
       -0.09820161 -0.028826613 0.10004684 0.060341194
000360 e5 1f 2b 3d 24 39 00 3d 04 58 c1 3c 71 90 14 3c
       0.041778464 0.031304494 0.02360154 0.009067641
000370 6f e3 bf bd d8 74 d2 bd f8 db 99 3d ef 7d 35 3d
       -0.093695514 -0.102761924 0.07512659 0.044309553
000380 15 7c 08 3e 22 3b 37 bd 6d c4 37 bd 68 bb d4 3d
       0.13328584 -0.044734128 -0.04486506 0.103873074
000390 c1 90 d0 3b 1f 5f 29 bd e0 ef 72 3d 5a 38 a6 3d
       0.0063649123 -0.04135048 0.059310794 0.08116217
0003a0 c7 02 c3 3b fe 6c c9 3c 26 e0 c5 3d b5 47 bc bb
       0.005951259 0.024588104 0.096618935 -0.005745853
0003b0 03 0b fa bd 54 91 98 3d bd 2b fa bd 7b 3b db bd
       -0.122091316 0.07449594 -0.12215374 -0.107047044
0003c0 4a e4 01 3e 39 f4 90 bd bd b9 7b bd 1c 74 6e 3d
       0.12684742 -0.07077832 -0.06145643 0.0582162
0003d0 2d d6 b9 bd fa e8 e8 3d 44 18 99 3d 59 fb d0 3d
       -0.09074054 0.11372562 0.074753314 0.10204191
0003e0 6a e1 3a 3d 18 03 a6 3d a5 38 88 3d ed 12 d4 3d
       0.045625128 0.08106059 0.06651429 0.10355172
0003f0 5c 23 d1 bc 0b c7 de 3d a5 d9 94 3d b3 b5 98 3d
       -0.025529556 0.10877808 0.07268075 0.074565314

fc2.bias f4 [64]
000000 da 28 96 3d f4 96 8c bd cb ae a1 3c dc d1 83 3d
       0.073320106 -0.068647295 0.019736668 0.06436512
000010 4f 0b 5c bc 10 94 8f bd fe b5 31 bd 88 91 56 3d
       -0.013430431 -0.070106626 -0.043386452 0.052384883
000020 37 ae ca bc a0 4f f3 bc e4 93 b7 3d 49 bf 84 3b
       -0.024741275 -0.029701054 0.08963755 0.0040511233
000030 f2 75 e5 3c 6d 97 ae 3b be 55 05 3d 3c 79 22 bc
       0.028010342 0.00532811 0.032552473 -0.0099166
000040 50 f6 fb 3a 45 ad ae 3d 1f 11 cb 3c aa de 62 3d
       0.0019223187 0.08529142 0.024788437 0.05538813
000050 73 76 01 bc a5 45 eb bc ef da 9b 3d dd d2 82 3b
       -0.007901776 -0.028719733 0.07610118 0.003992422
000060 db 42 26 bc be e6 c7 bd 8a 74 a3 3d 20 6d a9 3d
       -0.0101477755 -0.097608075 0.079812124 0.08272767
000070 9d c5 40 3d 9b c1 3b bd 5b 7b 86 3d 41 64 c0 bd
       0.04706346 -0.045838933 0.06566497 -0.09394122
000080 7c 91 8d 3b 05 9a a9 bd d3 32 c7 bb e6 d0 2f 3b
       0.0043203216 -0.0828133 -0.0060790568 0.0026827394
000090 c7 b4 85 3c 8d 74 9e bd 8d 77 78 bb 1c 1a 0d bd
       0.016321553 -0.07737074 -0.0037913055 -0.034448728
0000a0 c0 c2 75 3b 9a d5 86 bd fb 5b a2 3d ef 63 33 3d
       0.0037500113 -0.0658371 0.079277 0.043796476
0000b0 d5 28 91 bd 9b 1e 8d 3b 77 65 55 bd e9 c8 89 bb
       -0.07087866 0.004306627 -0.052098718 -0.0042048586
0000c0 1c 52 e7 bc a2 8d f1 bc 4e 6b d6 3c 81 81 51 bd
       -0.028237395 -0.029486481 0.026174214 -0.051148895
0000d0 7e b7 98 3a 5f 13 02 3d 34 68 0f 3c 7a 6e 28 3a
       0.0011651365 0.031756755 0.008752871 0.00064251537
0000e0 7c 6d 2f bd 9e 0d 7d bd 2d 52 95 b9 4c bc 98 3d
       -0.04282902 -0.061780564 -0.0002848072 0.0745779
0000f0 e9 36 ca 39 c5 c4 4a bd a0 c2 d2 39 ee 51 bb bb
       0.00038569354 -0.04950406 0.00040199328 -0.005716554

out.weight f4 [1, 64]
000000 4f 41 14 3c 01 8a 88 bd 1e e7 6d bd 4f e3 87 bd
       0.009048774 -0.06666947 -0.05808174 -0.066351525
000010 38 be 0b bd c1 88 05 3d ca 09 d4 3d 7e 9b b8 bd
       -0.034116954 0.03260112 0.103534296 -0.09014033
000020 27 a5 73 39 59 f9 c1 bd 5b 41 8b bd d3 5c 7c bb
       0.0002323581 -0.094713874 -0.06799575 -0.0038507476
000030 0b ef d2 bc 95 4c aa 3c c6 67 a0 bd 9e a4 a0 3c
       -0.02574875 0.02078847 -0.07832293 0.019609746
000040 46 af 18 bd f4 96 b9 3c 36 7f bb bb 56 d9 85 3d
       -0.03727653 0.022654988 -0.005721952 0.06535594
000050 61 fd f5 bd 88 c7 2f bd 43 b4 b5 bd 14 1c 6c bc
       -0.12011219 -0.042914897 -0.08872273 -0.014410991
000060 ba 6d 9a 3c 2b ac 85 bd 1b 3d cb bd 20 29 a6 3d
       0.01885115 -0.06526979 -0.09923764 0.08113313
000070 49 24 d3 3d 51 b9 01 be f8 26 18 3d 0e 31 02 3d
       0.10309655 -0.12668349 0.03714654 0.031785063
000080 5d bf 43 bd a2 c3 44 bd 94 b0 db 3d 5a 36 9e 3c
       -0.04778992 -0.048038132 0.10727039 0.019313026
000090 7a 46 b1 bd e4 1f 8f bd f5 cd a0 3c cd ac 7e bd
       -0.086560205 -0.069885045 0.019629458 -0.062176514
0000a0 9c f1 14 bd ab d2 a9 3d 5b 10 5c 3d a3 35 d0 3d
       -0.03636323 0.08292135 0.053726535 0.101664804
0000b0 a2 5d 2f bc f3 a9 c4 3d 16 fe d0 bc 9f da b5 bc
       -0.010703476 0.09602728 -0.025511783 -0.022198973
0000c0 d7 71 a9 bc 66 53 30 bd dc 0e a2 bc dd a9 ae 3d
       -0.020684166 -0.043048285 -0.019782476 0.085284926
0000d0 76 09 18 bd 0c 5f cd 3d 8f 5c 2e 3d d3 b9 c8 bd
       -0.037118398 0.100278944 0.04256874 -0.09801068
0000e0 e9 0a ec bd 43 55 13 3c 22 84 98 3d 56 28 37 bd
       -0.115255184 0.008992496 0.07447077 -0.0447162
0000f0 3e 94 93 bd e0 80 4d 3d cb d5 6f bd b2 20 04 be
       -0.07206009 0.050171733 -0.0585535 -0.12903097

sep_conn.weight f4 [64, 45]
000000 f6 a5 03 be 8b 46 a0 bc 84 3a 1f bd f5 9a 91 ba
       -0.12856278 -0.019564888 -0.038874164 -0.0011108803
000010 a4 d6 f6 3d 38 54 e0 bd 8b 42 ef 3d 93 e8 f1 bd
       0.12052658 -0.109535635 0.11682614 -0.11811938
000020 78 a1 c9 bd 8f 85 1e 3d 72 42 91 bd 39 3a 41 3d
       -0.09845251 0.03870159 -0.070927516 0.047174666
000030 d0 02 40 3d 1e 51 24 bd 86 3d 85 3d ab f7 eb 3d
       0.046877682 -0.040116422 0.06505875 0.11521848
000040 db 4a 33 3d ec 9f 10 bd 8c 17 be bc 73 fc 15 be
       0.04377256 -0.035308763 -0.023204587 -0.14647083
000050 6e 32 0a 3e 00 30 0a be 8b 39 1d bd 08 d3 ad bd
       0.134958 -0.13494873 -0.038384955 -0.08487517
000060 bb 82 39 3d 93 c7 58 3d b8 ce 09 3e 47 4e 6d bd
       0.04529069 0.052924704 0.13457763 -0.05793598
000070 b4 e9 a5 bd f1 a4 7a 3c 48 d9 fd bc ec bf dc bc
       -0.08101216 0.015298114 -0.030987397 -0.026946984
000080 c3 a3 71 bd 1c 71 ef bc fd 84 ac 3c 50 8a 4d bd
       -0.058994066 -0.02922874 0.021059508 -0.050180733
000090 dd 38 c2 bd 39 fd ed 3d ef 4a 12 bc 7a 7d c3 3c
       -0.09483502 0.11620564 -0.008928998 0.023863543
0000a0 8d 23 87 bd dc b6 d2 3d 08 bf aa bc 69 9b a5 bd
       -0.06598578 0.10288784 -0.020843044 -0.08086283
0000b0 58 5e a8 bd 22 09 c7 bb 5b 0d bd 3d a6 8e 04 3e
       -0.0822112 -0.0060740868 0.09231063 0.12945041
0000c0 e3 ee df bd bf c3 63 bd 90 22 68 3d bc 44 ea 3d
       -0.10934236 -0.0556066 0.056673586 0.11438891
0000d0 09 b4 8a bd 6f b2 0c 3c 93 e2 91 3d 1b 74 83 bd
       -0.0677262 0.008587464 0.07123294 -0.0641863
0000e0 29 b3 91 bd b7 a1 ea 3d c1 92 08 3e e7 a5 5d bd
       -0.0711425 0.11456626 0.13337232 -0.054113295
0000f0 2c 3e 41 3b be a2 57 bd c6 c8 a3 bc ad 84 fa 3d
       0.002948652 -0.052645437 -0.019993197 0.12232337
000100 b4 df 0f 3e be 41 e5 3d e8 56 10 3e 92 2e 80 3d
       0.1405018 0.1119418 0.14095652 0.062588826
000110 ee 5e ca bd dd 15 44 3c 2c 9c d0 3d 69 dc fe bd
       -0.09881388 0.011968103 0.101860374 -0.12444384
000120 94 51 01 be cb c3 e7 3c ba 18 9d bc 58 8e 72 3d
       -0.12628776 0.028291604 -0.01917683 0.05921778
000130 69 a1 e6 3d 7b 73 53 bd 89 9c 10 3e f6 d7 8f bd
       0.11261255 -0.051623803 0.14122213 -0.07023613
000140 97 aa 77 3c 1b 29 84 bd 0d 63 00 be a9 54 12 bd
       0.015116355 -0.06453153 -0.12537785 -0.03572527
000150 9f 93 06 be 99 cd b7 bd 98 bd 8f bd 5f c0 c3 bb
       -0.1314225 -0.089747615 -0.07018584 -0.00597386
000160 ee a8 25 bd 29 1f c9 3d 7b 3e 04 be 6e 0a 7f bd
       -0.040444307 0.098203965 -0.1291446 -0.062265806
000170 91 66 fc bd 6b 7a 1e bd a6 04 32 bd 16 d5 d8 bd
       -0.123242505 -0.038690966 -0.043461464 -0.10587518
000180 62 3b 01 3e 9a c5 f8 bb 32 44 7a bd 2a 0e 17 be
       0.12620309 -0.0075919153 -0.061100192 -0.14751497
000190 02 6d ef 3b 84 f9 bb bd b6 72 cc 3d 5d dc f8 bd
       0.007306696 -0.09178451 0.09982817 -0.12151406
0001a0 02 d1 89 bd c5 30 f0 3d 60 d8 87 bb f3 10 e4 3d
       -0.06729318 0.11728052 -0.004145667 0.11136045
0001b0 cd a1 10 be 53 aa 19 bd 3a a0 b4 bd 72 d8 43 3d
       -0.14124222 -0.03751595 -0.08819623 0.04781384
0001c0 f6 dd fa 3b 87 fe bb bd 97 29 0f be 2f a9 8c 3d
       0.0076558543 -0.091794066 -0.13980709 0.06868207
0001d0 62 45 89 bd 6f 51 a9 bd e0 fe c0 3d ac 43 c3 3d
       -0.06702687 -0.08267485 0.094236135 0.09534392
0001e0 39 ea 0d be 0d a3 96 bd 19 bb 11 be 95 38 0a bc
       -0.1385888 -0.07355318 -0.14231528 -0.008436342
0001f0 0f 30 ea bd 22 0d dc 3d 0f 71 87 3d e0 20 d2 3d
       -0.11434948 0.107446924 0.06613361 0.10260177
000200 5b 11 b0 bc 37 ea 21 bc 69 40 c2 3d 19 d3 f1 3d
       -0.02149265 -0.009882501 0.094849415 0.11807842
000210 30 af 01 3e 3e 1d 30 3d 89 5f fd 3d 05 37 90 bd
       0.12664485 0.042996638 0.123717375 -0.07041744
000220 b2 dd d5 3d cf a5 90 bc 62 3c a8 bc 6c e0 95 3d
       0.10442676 -0.017657189 -0.020536605 0.07318196
000230 3a 1e cc 3a a7 b7 f1 3d 2e 98 92 3d dc b3 f7 bd
       0.0015572973 0.11802607 0.07157932 -0.12094852
000240 ea d7 be bd 4f 14 11 3d 44 f2 5d bd bf c0 16 ba
       -0.09318526 0.03541976 -0.05418612 -0.00057507673
000250 2e f1 79 3d 31 5f e5 3d 56 c7 df 3d 52 e8 e6 bc
       0.061021022 0.11199797 0.10926692 -0.02818695
000260 fa 50 d2 bc f2 e3 3e bd 09 ef 68 3d 09 40 1c bd
       -0.025673378 -0.046604104 0.056868587 -0.038147006
000270 f3 cd 14 3e ee 4b 8d bd 38 a7 e3 3d 11 57 a8 3c
       0.14531688 -0.06899248 0.11115879 0.020549329
000280 b1 2a c7 bd 00 de 39 bd 19 fa c3 3d 42 60 66 bd
       -0.097249396 -0.04537773 0.09569187 -0.056244142
000290 84 e8 ea bc f6 0d 53 3c 5b c4 0e 3e 93 f1 06 bd
       -0.028675325 0.0128817465 0.13942091 -0.032945227
0002a0 e9 f6 e6 bd 03 3b 11 3e 28 52 9d 3c 66 31 98 bb
       -0.11277563 0.14182667 0.019204214 -0.0046445606
0002b0 54 86 d3 bd 19 c6 f3 bd 8b 2c 64 3d f3 6c ab bd
       -0.103283554 -0.119030185 0.055706542 -0.0837039
0002c0 95 c4 11 3e fb f5 a0 3d 1e ff 06 3e d4 a3 98 3d
       0.14235146 0.07859417 0.13183257 0.07453123
0002d0 24 6d 02 3e 7c f5 24 3b 70 87 71 3d b1 06 cb bd
       0.12736946 0.0025170734 0.058967054 -0.09913386
0002e0 1e 3a c0 bc c8 d1 79 3c c4 c0 ab 3d d5 8f 4f bb
       -0.023465212 0.01524777 0.083863765 -0.0031671424
0002f0 5e 6a f5 bd b2 97 18 be 2d 21 7d 3d ea 95 c7 bd
       -0.119831786 -0.14901617 0.061799217 -0.09745391
000300 60 2a f0 bd 1c bc 16 be 73 9e 04 be 45 5c 6b bc
       -0.117268324 -0.14720196 -0.12951069 -0.0143652605
000310 30 8c d3 bc cf 23 d7 3d ad db 16 be 45 60 bf bd
       -0.025823683 0.10504877 -0.14732237 -0.09344534
000320 93 43 b5 bd 8a 97 0d 3e 58 39 6e bd 95 fd 80 3c
       -0.088507794 0.13827339 -0.058160156 0.015745917
000330 f1 38 3e 3d d9 cc 07 3e 59 4d 98 3d ce 7e 09 be
       0.046441022 0.13261737 0.07436628 -0.13427278
000340 8a a1 da bd 64 1b 4a bd dd 8f 41 bc bb 51 bd 3d
       -0.106753424 -0.049342528 -0.011814085 0.092441045
000350 50 27 cd 3c 51 a3 5f bd 93 ac 11 be a1 8d 94 bc
       0.02504316 -0.05459911 -0.14225988 -0.01813394
000360 9f 64 9d bd 43 75 d4 bc 5f 82 c6 ba 2d 96 06 bd
       -0.076852076 -0.025934821 -0.0015145055 -0.032858063
000370 6f d7 c9 bc 67 37 62 bd 27 92 e2 bd b0 e6 13 3d
       -0.02463886 -0.055228617 -0.110630326 0.036108673
000380 df fd 74 bd d1 a4 93 bd e7 f3 02 3e 6e b6 bd 3c
       -0.059812423 -0.072091706 0.12788354 0.023158278
000390 1f c7 f3 3d 78 ea 13 3c 70 74 5c 3d 52 1f 07 bd
       0.11903214 0.00902807 0.05382198 -0.032988854
0003a0 af 26 84 3d dd 92 c6 bd 5c cc 60 bd a0 c3 b5 3d
       0.06452691 -0.09695981 -0.054882392 0.08875203
0003b0 13 9c 43 3c 27 0c 17 be a9 65 80 3d 7e 10 cb bd
       0.011939066 -0.1475073 0.0626939 -0.09915255
0003c0 90 7c 2f 3d 98 bb 4e bd 98 01 b7 bd be de db bd
       0.0428434 -0.050471872 -0.08935851 -0.10735844
0003d0 79 f6 80 bd a0 03 32 bd d9 58 65 3d 99 01 f5 bd
       -0.06297011 -0.04346049 0.055992935 -0.11963195
0003e0 a8 59 5f bd af 80 d3 bd e4 cf 00 be 55 ab b2 3c
       -0.054528862 -0.10327279 -0.12579304 0.021810213
0003f0 f0 35 bc bd 44 fb 3a bd b1 ae e3 3c 4a 6b 1b 3d
       -0.09189975 -0.04564978 0.02779326 0.037944116

sep_conn.bias f4 [64]
000000 de e0 06 be 52 ce 62 3d b1 ac b2 bd 74 78 09 be
       -0.13171718 0.055372544 -0.087243445 -0.13424855
000010 6f 45 bd 3d 56 76 14 be 6a 90 b8 3c ce a6 7f bd
       0.09241759 -0.14498267 0.0225298 -0.062414937
000020 f5 94 b5 3d 2c 8a c2 3d ee e1 be 3d b4 99 04 be
       0.08866302 0.094990104 0.093204364 -0.12949258
000030 2b 9a ca bd 52 46 c3 3d 3e cc aa bd a8 45 a8 3d
       -0.098926865 0.09534897 -0.08339737 0.08216411
000040 96 9e 12 3e 0a b1 0e bd 4e 38 11 3e 0e 0f 68 bd
       0.14318308 -0.034836806 0.14181635 -0.056654982
000050 93 7b e6 3b 63 66 bd 3d 5b 8d 04 3e 72 24 aa 3c
       0.007033774 0.09248044 0.12944548 0.020769332
000060 ac 10 8a bc aa a2 12 3c aa d1 7f 3b d9 40 07 be
       -0.016853653 0.008949915 0.0039034882 -0.13208331
000070 bb c6 54 3d 56 0a e7 3d 86 9f d5 3d 68 a1 88 bd
       0.051947337 0.11281268 0.10430817 -0.06671411
000080 8b 9c ef 3d 6c 5b c7 3b 2e 3e 1d 3d d3 97 9b 3d
       0.1169978 0.0060838964 0.038389377 0.075973175
000090 b6 51 ac bc 80 d0 6c 3d 49 78 6f 3d 94 5c 1f bd
       -0.021035057 0.05781603 0.058464322 -0.03890665
0000a0 13 55 05 be f5 64 82 3d a3 7d 10 3e 3a 5e fa 3d
       -0.13020734 0.06366912 0.14110427 0.122250035
0000b0 a2 f5 85 bd 3f d7 c4 bd 62 2a 14 be 42 89 f8 bd
       -0.06540991 -0.096113674 -0.14469293 -0.12135555
0000c0 6d 53 93 bc cf 2f aa 3d fa ea 90 bd 64 a9 5f bd
       -0.017984116 0.083099 -0.07076068 -0.054604903
0000d0 31 a6 e6 bd 3c b6 16 bd 99 4a be 3d 34 d4 04 be
       -0.11262167 -0.036794886 0.09291572 -0.12971574
0000e0 50 f7 a9 bc a3 87 13 be 9d 00 89 3c 2d 81 17 be
       -0.02074781 -0.1440721 0.016723925 -0.1479537
0000f0 89 4b 14 bd 4d 95 ce 3d a2 28 c7 bd 3e 86 9a bc
       -0.03620485 0.100870706 -0.09724547 -0.01886284

bn.weight f4 [64]
000000 81 4b 7a 3f 79 23 7c 3f 36 18 7b 3f 52 9c 7b 3f
       0.9777146 0.98491627 0.9808382 0.982854
000010 11 e1 79 3f af 3e 7a 3f 38 a4 7a 3f 8f 75 79 3f
       0.9760905 0.977519 0.9790683 0.97445005
000020 42 c1 79 3f a2 8b 80 3f 76 09 7e 3f 16 f8 79 3f
       0.97560513 1.0042613 0.99233186 0.97644174
000030 22 19 7a 3f 2d 4e 7a 3f 04 62 7a 3f 60 43 7a 3f
       0.976946 0.97775537 0.9780581 0.97759056
000040 ba 9e 79 3f 00 c5 79 3f 27 fc 79 3f f2 a3 79 3f
       0.9750782 0.97566223 0.9765038 0.97515786
000050 b6 cd 7f 3f ed b0 79 3f f1 0b 7c 3f 85 49 7a 3f
       0.99923265 0.9753559 0.9845572 0.9776843
000060 1c 00 7a 3f 8b 8d 7a 3f a2 06 7c 3f 45 39 7a 3f
       0.97656417 0.9787223 0.9844762 0.97743636
000070 62 b3 7a 3f ba aa 7e 3f 76 1e 7c 3f 8d 73 7a 3f
       0.97929966 0.9947926 0.9848398 0.97832566
000080 e3 d2 7a 3f da ec 79 3f 57 2c 7b 3f b9 ee 79 3f
       0.9797804 0.9762703 0.9811453 0.97629887
000090 5e 24 7a 3f df 31 7a 3f 0a 0e 7a 3f 35 e7 7a 3f
       0.9771174 0.9773235 0.9767767 0.98009044
0000a0 05 fb 79 3f dc 42 7e 3f e3 67 79 3f ec 2f 7a 3f
       0.9764865 0.9932077 0.97424144 0.9772937
0000b0 f7 fd 7a 3f 38 be 7a 3f f6 10 7b 3f 38 4b 79 3f
       0.9804377 0.979465 0.98072755 0.973804
0000c0 43 65 7a 3f ad 50 7b 3f 36 ad 79 3f 58 e4 7a 3f
       0.97810763 0.98169976 0.97529924 0.98004675
0000d0 ff b4 7d 3f ce 8a 7a 3f 86 45 7a 3f 19 79 7b 3f
       0.99104303 0.9786805 0.97762334 0.98231655
0000e0 0f 33 80 3f 33 32 7a 3f 99 88 7a 3f da 63 7a 3f
       1.0015582 0.9773285 0.9786468 0.9780861
0000f0 d5 13 7a 3f 11 04 7b 3f ca d1 7d 3f 0b 2c 7d 3f
       0.9768651 0.9805308 0.9914824 0.9889533

bn.bias f4 [64]
000000 2c 7c 1f bc d8 ec a5 3c d5 11 85 3c 82 28 8f 3c
       -0.009734195 0.020254537 0.016243855 0.01747537
000010 17 d9 21 3c f2 a3 3a bc 0a 9f 9f bc c2 55 56 3c
       0.009878418 -0.011391627 -0.019485015 0.01308197
000020 de a4 85 bc f9 25 b6 3c 72 82 b0 3c d7 c5 81 bc
       -0.016313966 0.022234904 0.021546576 -0.015841408
000030 62 82 a9 3c 0d b0 86 bc ea dc 83 3c aa 24 91 bc
       0.020692054 -0.01644137 0.016096551 -0.017717678
000040 e3 4a 87 3c 35 22 a2 bc 04 a5 95 3c 31 c1 ac bc
       0.016515201 -0.019791702 0.018267162 -0.021088215
000050 1f 25 a8 3c 85 b4 5f 3c 46 a2 67 3c 58 ee 6d 3b
       0.020525513 0.013653879 0.01413781 0.0036305394
000060 67 af 8d bc b6 48 ba 3c 96 19 60 3c 25 35 9f bc
       -0.017295552 0.02273975 0.013677975 -0.019434521
000070 25 68 a7 bc 38 92 80 3c 15 b3 6d bc 55 1c 90 bc
       -0.020435402 0.015694723 -0.0145080285 -0.017591635
000080 0c 36 82 3c a9 22 4c 3c 67 55 78 bc 01 55 49 bc
       0.015894912 0.0124594355 -0.01515708 -0.012288333
000090 55 eb 46 3c 63 be 80 3c ab 11 74 bc 4b 8f 49 3c
       0.0121410685 0.015715783 -0.0148967905 0.01230223
0000a0 e6 4a 87 3c b6 a6 85 bb d9 8f 9f bc 76 48 a3 bc
       0.016515207 -0.0040787114 -0.019477772 -0.019932013
0000b0 09 69 4a 3c d4 9e 8a bc 51 a7 63 3c 05 05 25 3c
       0.012354144 -0.016921438 0.013894872 0.0100719975
0000c0 e5 ed 80 3c b1 be 76 3c 61 b9 cc 3b 40 7a 8b bc
       0.015738437 0.015060113 0.006247685 -0.017026067
0000d0 b7 b4 57 3c 3b c0 a8 bc 22 bb 9b bc c3 fe 6a 3c
       0.013165644 -0.020599475 -0.01901013 0.0143429665
0000e0 67 3b 77 3c ea c8 e8 bb 65 5d a0 bc 7d c3 88 3c
       0.015089846 -0.007104029 -0.019575784 0.016694779
0000f0 b9 0c 24 3c b6 b9 5c bc 29 63 a7 3c 90 d9 92 3c
       0.010012799 -0.013472011 0.020433025 0.017926008

bn.running_mean f4 [64]
000000 90 7c 97 3d 18 de a5 bd 1c dc 90 bd 40 26 27 3a
       0.07396805 -0.08099002 -0.070732325 0.0006376244
000010 f9 23 2e be 2a 57 15 3e 2b 32 01 3e aa b1 8a be
       -0.1700591 0.14584032 0.12616794 -0.27088672
000020 a0 a9 d6 bd cc 55 f2 bb 1d 95 85 3d 34 b3 fb 3d
       -0.10481572 -0.0073954817 0.06522582 0.1229004
000030 13 d6 19 3d af 7b 41 3e 33 78 5d 3e a3 e7 76 3d
       0.037557673 0.18894838 0.21627884 0.0602795
000040 89 7f 1b be 97 35 0a be 13 28 88 3c f9 c0 18 3d
       -0.1518537 -0.13497005 0.016620671 0.037293408
000050 ea 05 53 bc 61 e1 e5 3c eb 7a 5f be 86 14 f4 3d
       -0.012879828 0.02806157 -0.21824233 0.11917977
000060 46 94 df 3d fc 07 67 be 13 cc 8b bd eb 02 b6 3e
       0.10916953 -0.2256164 -0.068260334 0.355491
000070 43 eb 87 3e cc 42 27 be df 37 a5 be 54 89 8e 3c
       0.26546678 -0.16334075 -0.3226919 0.017399468
000080 95 d8 16 3e 2f 77 70 be 90 12 52 be 86 7c 45 3e
       0.14731057 -0.23482965 -0.20514894 0.19285783
000090 b9 66 aa 3c 07 f6 fb bc 9f 5a 3b 3e 57 60 7c bd
       0.020800935 -0.030756963 0.18296288 -0.061615314
0000a0 48 82 9e bd d3 5a 2e 3e 84 08 5b 3e 88 bc 0c be
       -0.07739693 0.17026834 0.21389967 -0.13743794
0000b0 3c 3e 8d 3d 04 5f 6c bd 2c 3a c5 3d db b1 26 be
       0.06896636 -0.0577078 0.09630236 -0.16278784
0000c0 b2 fc 2b 3d 1c 6d 14 3d be 47 43 be e6 80 de 3d
       0.041989036 0.036236867 -0.19070336 0.10864429
0000d0 39 c9 69 bd 84 9f 49 3e f8 40 62 3e 3d 64 0e 3e
       -0.057076667 0.19689757 0.22095096 0.13905425
0000e0 39 87 25 3d 0d 8e 5e 3c f6 35 ab bb ea 5f c1 3d
       0.04041216 0.013583672 -0.0052249385 0.09442122
0000f0 8e 21 ac 3e 7b 9e c9 3d 26 86 01 3d d6 b2 98 3d
       0.3361935 0.09844681 0.031622075 0.07455985

bn.running_var f4 [64]
000000 33 21 a7 3d 80 75 ed 3d 1d 8d 04 3e e9 e6 0a 3e
       0.08160629 0.11594677 0.12944455 0.13564648
000010 17 8f e9 3d f9 59 eb 3d 71 0b 1c 3e 81 b2 09 3e
       0.11404245 0.1149177 0.1523874 0.13447
000020 f9 7f c1 3d f2 74 02 3e d4 ff 1f 3e 02 ae f1 3d
       0.09448237 0.12739924 0.15624934 0.118007675
000030 df e9 e7 3d 84 0c f2 3d 16 26 2e 3e 69 21 09 3e
       0.11323904 0.118187934 0.17006716 0.13391651
000040 8a 7f 09 3e 00 30 fa 3d 3b 89 9b 3d b1 bd 19 3e
       0.13427559 0.122161865 0.07594534 0.15013768
000050 97 38 3b 3e 7b 0b cd 3d fb 0a 04 3e 59 b2 10 3e
       0.18283306 0.10011955 0.12894814 0.14130534
000060 57 fc 27 3e 29 2c 13 3e 9a 11 e5 3d 51 01 2e 3e
       0.16404854 0.14372315 0.11184998 0.1699269
000070 99 c5 c3 3d e7 eb 0a 3e 32 c4 03 3e 80 fd e6 3d
       0.09559173 0.13566552 0.12867811 0.1127882
000080 73 38 02 3e 49 bc 03 3e 11 4e 7c 3e 11 72 db 3d
       0.12716846 0.12864794 0.24639155 0.10715116
000090 6f 47 1b 3e 51 68 f4 3d aa 7b 02 3e 40 49 fc 3d
       0.15163969 0.11933959 0.12742487 0.12318659
0000a0 b6 34 0b 3e 1b 86 b7 3d f5 c2 12 3e a7 46 16 3e
       0.13594326 0.089611255 0.14332183 0.14675389
0000b0 5f 15 a1 3d 68 30 11 3e fe 44 c4 3d fd cd b3 3d
       0.07865404 0.14178622 0.09583472 0.087795235
0000c0 17 00 cc 3d be a9 06 3e 17 fe b4 3d bd 12 fe 3d
       0.09960955 0.13150689 0.08837526 0.12405918
0000d0 cb b8 fc 3d fc fc 19 3e 10 3e ef 3d 9f 43 1f 3e
       0.12339934 0.15037912 0.11681759 0.15553139
0000e0 41 1e d4 3d 52 39 e6 3d 76 0a 2e 3e 93 d9 de 3d
       0.10357333 0.11241402 0.16996178 0.10881343
0000f0 cf 06 2f 3e fc 43 24 3e 30 ec db 3d 91 ca ea 3d
       0.17092441 0.16041559 0.107384086 0.11464418

net.0.weight f4 [64, 45]
000000 fb c5 8e 3d 69 bf f6 bd 78 cd 76 bd 85 13 05 3e
       0.069713555 -0.12048227 -0.060254544 0.12995727
000010 25 bf de bd 92 29 27 bd 49 31 14 3e f6 3a 52 bc
       -0.10876302 -0.04081113 0.14471926 -0.01283144
000020 e0 61 17 3b d7 21 0c bb c2 0a 57 bd 4f 9e 7b bd
       0.002309911 -0.0021382475 -0.052500494 -0.06143027
000030 c8 3f 2c 3d 88 7e f5 bc d1 c7 28 3d 23 e6 fa bd
       0.042053014 -0.029967561 0.041206185 -0.12250926
000040 5a be 4a 3d de ef 01 3e cb c2 3a bd f3 d2 b4 bd
       0.04949794 0.12689158 -0.045595925 -0.08829298
000050 45 15 44 ba a4 f4 b3 3c 45 08 bd 3d ca 02 a6 3d
       -0.0007479976 0.02196724 0.09230093 0.08106001
000060 5d a5 6a bd 13 50 10 3d 2a ea c2 bd e2 09 14 3e
       -0.05728661 0.035232615 -0.095173195 0.14456895
000070 df 0a ba bd f3 f4 19 3d 11 8d 41 bc 33 d1 e5 3d
       -0.09084105 0.037587117 -0.011813418 0.11221542
000080 e8 81 b9 bd 3d 21 90 bd 73 c1 95 bd 8f 29 be bd
       -0.09057981 -0.0703759 -0.07312288 -0.092852704
000090 74 81 0b 3e a6 fe fd bd 47 47 0a bb 72 5c 01 be
       0.13623601 -0.12402086 -0.0021099614 -0.12632921
0000a0 d3 26 04 3e e8 be a5 bc f8 a4 f4 bd a2 ed e8 3d
       0.12905435 -0.020232633 -0.11945528 0.1137345
0000b0 91 14 8b 3b 33 08 c5 bc aa 2f 20 3d 42 69 f2 bd
       0.004244395 -0.024051761 0.039107956 -0.118364826
0000c0 8c 31 da bd 8c 8e 98 3c 86 b0 0b 3e fc 47 d3 bd
       -0.106539816 0.01862266 0.13641557 -0.10316464
0000d0 e8 7d f4 3c 75 52 3d bd 23 a0 02 be 8e 96 bd 3d
       0.029845193 -0.046221215 -0.127564 0.09257232
0000e0 bf 5e 98 3d 38 b9 32 3d 5d 51 0c be c9 ec 04 3e
       0.074399464 0.04363367 -0.13702913 0.12980951
0000f0 80 d3 17 be 44 04 73 3c 7d 08 af bd 32 42 a2 bd
       -0.14826775 0.01483256 -0.08546541 -0.07922782
000100 6d 37 04 3e 1e 06 30 bd 6f 0e ef bd 65 d9 72 bd
       0.12911768 -0.042974584 -0.11672675 -0.059289355
000110 7d 48 fc 3d c7 23 11 be 18 02 07 be 91 7d 14 3d
       0.123185135 -0.14173804 -0.13184392 0.036252562
000120 18 76 cc 3d fb c0 ca 3d 25 19 ca 3d a6 57 dd 3d
       0.09983462 0.09900089 0.09868077 0.10807733
000130 da 62 39 3c 44 7d 03 be c5 69 ac bd 25 a3 f7 bd
       0.011315072 -0.12840754 -0.084186114 -0.12091664
000140 c8 e4 e8 3d 60 d7 a3 bd 5b 85 f5 3d 11 d1 0a 3e
       0.113717616 -0.08000064 0.11988326 0.13556315
000150 c6 94 d7 3c 63 92 ba bd 58 df 6b 3b e4 ca ee 3c
       0.026316058 -0.09109952 0.0035991278 0.02914948
000160 2a b9 85 3d fa 02 02 be 2f e1 86 bd 31 f7 c4 3d
       0.06529458 -0.12696448 -0.06585919 0.096174605
000170 97 69 ca bd b7 4c bd bd ad b3 30 bd de f3 e2 3d
       -0.09883421 -0.09243148 -0.043140102 0.1108167
000180 4a 8e 15 be 05 a4 3a bd 7b 5b b1 bd 83 06 8a bd
       -0.1460506 -0.045566577 -0.08660027 -0.06739523
000190 c4 0e 5c bb a9 70 81 3c 53 99 b0 bd d2 21 b6 bc
       -0.0033578137 0.01580079 -0.08622994 -0.022232924
0001a0 81 3d 8f bd fa ca a5 bd ae 54 34 bd 08 70 f7 3c
       -0.06994153 -0.08095355 -0.04402607 0.030204788
0001b0 22 16 87 bd 47 df 26 3d 12 3a d2 bd d3 b5 f8 3d
       -0.065960184 0.040740278 -0.10264982 0.12144055
0001c0 28 02 c6 bc 3a e7 b1 3d dd ad c1 3d eb 99 d0 3c
       -0.02417095 0.08686681 0.0945699 0.025464019
0001d0 7a ac 05 be b0 21 b7 bd e2 d3 ba bb 7b d3 07 3e
       -0.13054076 -0.08941972 -0.005701528 0.13264267
0001e0 2e 52 67 bd c8 53 0d 3d f4 ee 03 bd ce 71 ce bd
       -0.056474857 0.03450373 -0.032210305 -0.100803
0001f0 bf 64 72 3d b7 c6 d8 bd 6f b7 9f 3d 1a e4 22 3c
       0.05917811 -0.10584777 0.07798659 0.009942079
000200 4d b8 e5 bd 04 f8 1a bd fc b9 10 be 2e c0 aa 3d
       -0.11216793 -0.037834182 -0.14133447 0.083374366
000210 33 aa fa 3d db c0 14 3e e2 39 17 3e a8 12 48 bc
       0.12239494 0.14526694 0.14768174 -0.012211479
000220 70 0a cd bd 55 5e ff 3d 17 9e 9a 3d 3d b1 9a bd
       -0.100117564 0.12469164 0.075496845 -0.07553337
000230 ee ad d5 bd b4 5a 62 3d a4 41 2f bd d7 21 92 bb
       -0.10433565 0.055262282 -0.04278721 -0.0044596004
000240 a1 24 3a bd 0e dc 9b bd 92 68 ff bc 3d 2f 26 3d
       -0.04544509 -0.076103315 -0.031177793 0.040572394
000250 7a c6 a7 3c fe b5 34 bd fc 09 00 be 36 c9 d4 bd
       0.020480383 -0.044118874 -0.12503809 -0.103899404
000260 2b 27 cc bc b1 8c 21 bd 60 ef 11 3e cd e9 cd bd
       -0.02492102 -0.039440814 0.1425147 -0.100543596
000270 f6 d7 06 be dc b3 74 bd 06 f1 bb 3d 5b 27 cd bd
       -0.1316832 -0.05974184 0.09176831 -0.10017272
000280 e4 66 58 ba 8a 0e 97 3b 6e c8 fd bd 4d 7b 85 bd
       -0.0008255078 0.0046098875 -0.123917446 -0.065176584
000290 ba 28 07 3e 07 57 72 3d 28 00 a1 bd 37 bb f2 bd
       0.1319913 0.059165027 -0.07861358 -0.11852115
0002a0 fa ef e7 bd a6 e5 b3 bd 01 4c 12 be 4c 6f d2 bd
       -0.11325069 -0.08784036 -0.14286806 -0.102751344
0002b0 84 e5 e5 3d 87 03 df 3d 7b 5f 86 bd 2b 87 62 bd
       0.11225417 0.10889345 -0.0656118 -0.055304687
0002c0 64 dc e2 3d 24 ae 84 bd 65 d0 d4 bd 83 fc 0b be
       0.110771924 -0.06478527 -0.103913106 -0.13670544
0002d0 3f 96 c7 bd db 1f c8 bd 89 d1 3f bd 13 f8 b8 bd
       -0.09745454 -0.09771701 -0.046830688 -0.090316914
0002e0 6a 51 53 bd 97 f2 01 bd 77 22 4c bd eb 73 98 3d
       -0.051591314 -0.031725492 -0.049837556 0.074439846
0002f0 98 47 17 be 96 79 01 be fd 5f 8e bd e5 17 03 3e
       -0.14773405 -0.12644038 -0.06951902 0.12802084
000300 56 50 be 3d 2b ba 8b 3d e0 ca d4 bd d3 64 64 3d
       0.092926666 0.06822618 -0.10390258 0.055760216
000310 dc 55 67 3d 40 5d e5 bd a0 f5 1d 3e bc 6d 24 3d
       0.056478366 -0.11199427 0.1542573 0.040143713
000320 c7 f8 f9 3d 07 a2 dc bc 30 24 0f 3d 9e 0a 97 3d
       0.12205654 -0.02693273 0.03494662 0.07375072
000330 6d 33 4f bd ae 5a e3 bd b8 d8 e8 3b b9 0d a5 bb
       -0.050586153 -0.1110128 0.007105913 -0.0050370363
000340 e5 3d 59 ba 79 ae 34 3c 68 3f f0 3d 40 e2 86 3d
       -0.0008287116 0.011027926 0.11730844 0.065861225
000350 76 16 c0 bd a4 ae f9 3c 08 44 06 be 0b 8c e4 3d
       -0.09379284 0.030478783 -0.1311189 0.111595236
000360 41 4d 3f 3d 61 df 04 3e 78 34 89 bd ef f3 b5 3d
       0.046704534 0.12975837 -0.06699461 0.08884417
000370 3a ec 13 3e 87 a6 03 3e 05 9d be bd 68 3b f0 3d
       0.14445582 0.12856494 -0.09307293 0.11730081
000380 56 72 ee 3b 98 e1 e2 bc 01 d6 a2 bd ad ce df 3d
       0.0072768135 -0.027695462 -0.07950974 0.10928092
000390 ec f4 15 3e f3 7f 8c bd e5 48 15 be 7d fb 13 3e
       0.14644212 -0.06860342 -0.14578588 0.14451404
0003a0 b4 fe 7e 3d f0 e8 f3 bd c1 f0 e0 3d 97 a0 95 3c
       0.062254623 -0.11909664 0.1098342 0.018265052
0003b0 05 06 f9 3d 19 f4 f8 3d c4 42 ff bc c1 8d 76 bd
       0.12159351 0.12155933 -0.031159766 -0.06019378
0003c0 71 88 ed bd 7f 5b bc bd f5 d6 e7 bc ed fd d2 3d
       -0.1159829 -0.09197139 -0.028300742 0.10302339
0003d0 dd de 9d 3d 65 a5 da 3d 0a 34 1c bd f0 73 d6 bd
       0.077085234 0.10676078 -0.038135566 -0.10471332
0003e0 e2 16 89 bd 21 d4 74 bd 42 86 81 3d 22 ee 8e 3b
       -0.06693818 -0.059772614 0.06324436 0.0043618837
0003f0 36 fd cf 3d 4a 65 21 3d 08 91 92 3c 45 d1 e7 bd
       0.10155718 0.039403237 0.017891422 -0.11319212

net.0.bias f4 [64]
000000 3a b9 67 bc 41 49 4e b8 cb 92 07 bd e6 69 03 b9
       -0.014143283 -4.918245e-05 -0.033098977 -0.00012532584
000010 94 0b 44 3d bb d8 b8 3d 31 60 8f bd b1 e3 21 bd
       0.047862604 0.09025713 -0.07000769 -0.039523784
000020 fa ae f3 bd a1 62 60 bd 64 04 1c 3d 65 d8 d6 bb
       -0.118986085 -0.05478156 0.038090125 -0.006556558
000030 61 c1 5a 3c 38 ca 63 bb cc 93 fa bd bd e5 c1 3c
       0.013351769 -0.0034757983 -0.12235221 0.023669118
000040 a9 7b 95 bd 73 6d 98 3a 4f e0 d3 bd e1 d1 fe 3c
       -0.07298977 0.0011629298 -0.10345518 0.031105937
000050 d6 ca 11 3d 56 2d 4e 3b f5 21 e6 3d c8 9e 77 bc
       0.03559383 0.0031460128 0.112369455 -0.01511354
000060 52 49 42 bd 47 7a c9 bd c7 78 74 3b 09 da ba 3d
       -0.047433205 -0.09837776 0.0037303434 0.09123618
000070 ba 37 1f bb 6f a9 bc bd cd 08 ed bd 07 64 c1 bd
       -0.002429469 -0.092120044 -0.11573944 -0.09442907
000080 c7 0d d4 ba 59 7e 90 3d a8 47 88 3d b2 63 1c bc
       -0.0016178422 0.07055349 0.06654292 -0.009545254
000090 d9 44 53 3d 58 0f 55 bb 8c 0f c0 bb f8 c6 40 bd
       0.05157933 -0.0032510366 -0.0058612283 -0.04706475
0000a0 d4 5a 8c b8 9c a9 a3 ba ee 99 95 3d 96 ab ad 3a
       -6.692638e-05 -0.0012486461 0.073047504 0.0013249989
0000b0 c1 18 60 3d 3d e3 b8 ba a0 66 e8 3d 50 8b e4 bd
       0.054711107 -0.0014105808 0.11347699 -0.11159384
0000c0 e4 e6 bf bd 4a f4 ad bd d8 78 dc bc 93 49 8c bb
       -0.09370211 -0.0849386 -0.026913092 -0.0042812317
0000d0 58 7e 1f 3d 87 ea 9e bc e5 91 f7 3d 37 1c a0 3d
       0.03893885 -0.01939894 0.12088374 0.078178816
0000e0 e0 a3 fd 3c 5e 4c cb 3c ca 08 14 3d 3c 7c 91 bc
       0.03096193 0.024816688 0.036141194 -0.017759435
0000f0 87 7d b1 3d 37 3c 93 3d 12 29 4f 3d 14 77 83 3c
       0.086665206 0.071892194 0.050576277 0.016047992

net.1.weight f4 [64]
000000 81 4b 7a 3f 79 23 7c 3f 36 18 7b 3f 52 9c 7b 3f
       0.9777146 0.98491627 0.9808382 0.982854
000010 11 e1 79 3f af 3e 7a 3f 38 a4 7a 3f 8f 75 79 3f
       0.9760905 0.977519 0.9790683 0.97445005
000020 42 c1 79 3f a2 8b 80 3f 76 09 7e 3f 16 f8 79 3f
       0.97560513 1.0042613 0.99233186 0.97644174
000030 22 19 7a 3f 2d 4e 7a 3f 04 62 7a 3f 60 43 7a 3f
       0.976946 0.97775537 0.9780581 0.97759056
000040 ba 9e 79 3f 00 c5 79 3f 27 fc 79 3f f2 a3 79 3f
       0.9750782 0.97566223 0.9765038 0.97515786
000050 b6 cd 7f 3f ed b0 79 3f f1 0b 7c 3f 85 49 7a 3f
       0.99923265 0.9753559 0.9845572 0.9776843
000060 1c 00 7a 3f 8b 8d 7a 3f a2 06 7c 3f 45 39 7a 3f
       0.97656417 0.9787223 0.9844762 0.97743636
000070 62 b3 7a 3f ba aa 7e 3f 76 1e 7c 3f 8d 73 7a 3f
       0.97929966 0.9947926 0.9848398 0.97832566
000080 e3 d2 7a 3f da ec 79 3f 57 2c 7b 3f b9 ee 79 3f
       0.9797804 0.9762703 0.9811453 0.97629887
000090 5e 24 7a 3f df 31 7a 3f 0a 0e 7a 3f 35 e7 7a 3f
       0.9771174 0.9773235 0.9767767 0.98009044
0000a0 05 fb 79 3f dc 42 7e 3f e3 67 79 3f ec 2f 7a 3f
       0.9764865 0.9932077 0.97424144 0.9772937
0000b0 f7 fd 7a 3f 38 be 7a 3f f6 10 7b 3f 38 4b 79 3f
       0.9804377 0.979465 0.98072755 0.973804
0000c0 43 65 7a 3f ad 50 7b 3f 36 ad 79 3f 58 e4 7a 3f
       0.97810763 0.98169976 0.97529924 0.98004675
0000d0 ff b4 7d 3f ce 8a 7a 3f 86 45 7a 3f 19 79 7b 3f
       0.99104303 0.9786805 0.97762334 0.98231655
0000e0 0f 33 80 3f 33 32 7a 3f 99 88 7a 3f da 63 7a 3f
       1.0015582 0.9773285 0.9786468 0.9780861
0000f0 d5 13 7a 3f 11 04 7b 3f ca d1 7d 3f 0b 2c 7d 3f
       0.9768651 0.9805308 0.9914824 0.9889533

net.1.bias f4 [64]
000000 2c 7c 1f bc d8 ec a5 3c d5 11 85 3c 82 28 8f 3c
       -0.009734195 0.020254537 0.016243855 0.01747537
000010 17 d9 21 3c f2 a3 3a bc 0a 9f 9f bc c2 55 56 3c
       0.009878418 -0.011391627 -0.019485015 0.01308197
000020 de a4 85 bc f9 25 b6 3c 72 82 b0 3c d7 c5 81 bc
       -0.016313966 0.022234904 0.021546576 -0.015841408
000030 62 82 a9 3c 0d b0 86 bc ea dc 83 3c aa 24 91 bc
       0.020692054 -0.01644137 0.016096551 -0.017717678
000040 e3 4a 87 3c 35 22 a2 bc 04 a5 95 3c 31 c1 ac bc
       0.016515201 -0.019791702 0.018267162 -0.021088215
000050 1f 25 a8 3c 85 b4 5f 3c 46 a2 67 3c 58 ee 6d 3b
       0.020525513 0.013653879 0.01413781 0.0036305394
000060 67 af 8d bc b6 48 ba 3c 96 19 60 3c 25 35 9f bc
       -0.017295552 0.02273975 0.013677975 -0.019434521
000070 25 68 a7 bc 38 92 80 3c 15 b3 6d bc 55 1c 90 bc
       -0.020435402 0.015694723 -0.0145080285 -0.017591635
000080 0c 36 82 3c a9 22 4c 3c 67 55 78 bc 01 55 49 bc
       0.015894912 0.0124594355 -0.01515708 -0.012288333
000090 55 eb 46 3c 63 be 80 3c ab 11 74 bc 4b 8f 49 3c
       0.0121410685 0.015715783 -0.0148967905 0.01230223
0000a0 e6 4a 87 3c b6 a6 85 bb d9 8f 9f bc 76 48 a3 bc
       0.016515207 -0.0040787114 -0.019477772 -0.019932013
0000b0 09 69 4a 3c d4 9e 8a bc 51 a7 63 3c 05 05 25 3c
       0.012354144 -0.016921438 0.013894872 0.0100719975
0000c0 e5 ed 80 3c b1 be 76 3c 61 b9 cc 3b 40 7a 8b bc
       0.015738437 0.015060113 0.006247685 -0.017026067
0000d0 b7 b4 57 3c 3b c0 a8 bc 22 bb 9b bc c3 fe 6a 3c
       0.013165644 -0.020599475 -0.01901013 0.0143429665
0000e0 67 3b 77 3c ea c8 e8 bb 65 5d a0 bc 7d c3 88 3c
       0.015089846 -0.007104029 -0.019575784 0.016694779
0000f0 b9 0c 24 3c b6 b9 5c bc 29 63 a7 3c 90 d9 92 3c
       0.010012799 -0.013472011 0.020433025 0.017926008

net.1.running_mean f4 [64]
000000 90 7c 97 3d 18 de a5 bd 1c dc 90 bd 40 26 27 3a
       0.07396805 -0.08099002 -0.070732325 0.0006376244
000010 f9 23 2e be 2a 57 15 3e 2b 32 01 3e aa b1 8a be
       -0.1700591 0.14584032 0.12616794 -0.27088672
000020 a0 a9 d6 bd cc 55 f2 bb 1d 95 85 3d 34 b3 fb 3d
       -0.10481572 -0.0073954817 0.06522582 0.1229004
000030 13 d6 19 3d af 7b 41 3e 33 78 5d 3e a3 e7 76 3d
       0.037557673 0.18894838 0.21627884 0.0602795
000040 89 7f 1b be 97 35 0a be 13 28 88 3c f9 c0 18 3d
       -0.1518537 -0.13497005 0.016620671 0.037293408
000050 ea 05 53 bc 61 e1 e5 3c eb 7a 5f be 86 14 f4 3d
       -0.012879828 0.02806157 -0.21824233 0.11917977
000060 46 94 df 3d fc 07 67 be 13 cc 8b bd eb 02 b6 3e
       0.10916953 -0.2256164 -0.068260334 0.355491
000070 43 eb 87 3e cc 42 27 be df 37 a5 be 54 89 8e 3c
       0.26546678 -0.16334075 -0.3226919 0.017399468
000080 95 d8 16 3e 2f 77 70 be 90 12 52 be 86 7c 45 3e
       0.14731057 -0.23482965 -0.20514894 0.19285783
000090 b9 66 aa 3c 07 f6 fb bc 9f 5a 3b 3e 57 60 7c bd
       0.020800935 -0.030756963 0.18296288 -0.061615314
0000a0 48 82 9e bd d3 5a 2e 3e 84 08 5b 3e 88 bc 0c be
       -0.07739693 0.17026834 0.21389967 -0.13743794
0000b0 3c 3e 8d 3d 04 5f 6c bd 2c 3a c5 3d db b1 26 be
       0.06896636 -0.0577078 0.09630236 -0.16278784
0000c0 b2 fc 2b 3d 1c 6d 14 3d be 47 43 be e6 80 de 3d
       0.041989036 0.036236867 -0.19070336 0.10864429
0000d0 39 c9 69 bd 84 9f 49 3e f8 40 62 3e 3d 64 0e 3e
       -0.057076667 0.19689757 0.22095096 0.13905425
0000e0 39 87 25 3d 0d 8e 5e 3c f6 35 ab bb ea 5f c1 3d
       0.04041216 0.013583672 -0.0052249385 0.09442122
0000f0 8e 21 ac 3e 7b 9e c9 3d 26 86 01 3d d6 b2 98 3d
       0.3361935 0.09844681 0.031622075 0.07455985
