bestclf/german/g03.pth (torch, 46462 bytes, 23 tensors)

fc1.weight f4 [64, 45]
0	0x3d8cdd41	0.06878138
1	0xbe015488	-0.12629902
2	0xbcff2c7d	-0.031149143
3	0x3e0ae224	0.13562828
4	0xbdffa350	-0.12482321
5	0xbd4a94bc	-0.04945825
6	0x3e0d9280	0.13825417
7	0xbc65d47f	-0.014027714
8	0xbc71c341	-0.014756025
9	0x3bff56c0	0.007792324
10	0xbd7f892c	-0.062386677
11	0xbd0b154c	-0.033955857
12	0x3cf85990	0.030316144
13	0xbd05ee63	-0.032698046
14	0x3c5e5bac	0.013571661
15	0xbdf56d16	-0.11983697
16	0x3d79cc72	0.06098599
17	0x3ddf3a6b	0.10899814
18	0xbd57dc28	-0.05270019
19	0xbdb850a9	-0.0899976
20	0xbab8255f	-0.0014049223
21	0x3ce2cfb5	0.027686933
22	0x3da8174f	0.08207571
23	0x3d8575ea	0.06516631
24	0xbcf0cb8e	-0.029393937
25	0x3d01acec	0.03165905
26	0xbd9ea358	-0.07745999
27	0x3dfd4124	0.1236594
28	0xbda46aba	-0.08028169
29	0x3d00d00f	0.03144842
30	0x3c7dbe78	0.015487306
31	0x3dcdb661	0.10044552
32	0xbdb55efa	-0.08856006
33	0xbd9e28ce	-0.077226266
34	0xbd825684	-0.06364158
35	0xbdb1616e	-0.08661161
36	0x3df8ed0e	0.121545896
37	0xbe056636	-0.13027272
38	0x3b086395	0.0020811309
39	0xbddc5933	-0.10759201
40	0x3e071c53	0.13194399
41	0xbd05ce41	-0.032667402
42	0xbdf7ef0a	-0.1210614
43	0x3df340c2	0.11877586
44	0xbb208981	-0.0024496021
45	0xbd011b67	-0.031520274
46	0x3d319338	0.04335329
47	0xbdc33930	-0.09532392
48	0xbde6d66b	-0.11271366
49	0x3cc8a279	0.024491535
50	0x3de59689	0.11210353
51	0xbdd9905f	-0.1062324
52	0x3d1a9011	0.03773505
53	0xbd074415	-0.033023912
54	0xbe0ab599	-0.13545837
55	0x3dc7edb6	0.09762137
56	0x3da528fc	0.08064458
57	0x3d31c4be	0.04340052
58	0xbdf6adc0	-0.12044859
59	0x3e0bbd34	0.13646394
60	0xbe164efa	-0.14678565
61	0x3c1d5905	0.009603743
62	0xbd90aeff	-0.07064628
63	0xbd8519ea	-0.06499083
64	0x3de56881	0.11201573
65	0xbd0dccbc	-0.034619078
66	0xbde15710	-0.11002934
67	0xbd62719d	-0.05528413
68	0x3dd52774	0.10407916
69	0xbe0c6be0	-0.13713026
70	0xbdf1f760	-0.11814761
71	0x3cde44ca	0.02713241
72	0x3d923d56	0.07140605
73	0x3de1954b	0.110148035
74	0x3dc252c2	0.09488441
75	0x3da979a6	0.08275156
76	0x3c5187df	0.012788742
77	0xbdd551ae	-0.1041597
78	0xbd80c8e4	-0.06288317
79	0xbde88ec6	-0.11355357
80	0x3ddf14cb	0.10892638
81	0xbdbf07d8	-0.09327668
82	0x3e0ab0ac	0.13543957
83	0x3e050cc2	0.12993148
84	0x3ce0016b	0.027344426
85	0xbda943f0	-0.08264911
86	0x3c866305	0.016404638
87	0x3d20e156	0.039277397
88	0x3d3364b4	0.04379721
89	0xbdecc2ae	-0.1156057
90	0xbd2d2b41	-0.04227758
91	0x3db84b27	0.08998709
92	0xbda752f3	-0.08170118
93	0xbdc896f8	-0.0979442
94	0xbd3d542f	-0.04622286
95	0x3df37fe9	0.11889631
96	0xbe14d35d	-0.14533754
97	0xbcf827c3	-0.030292397
98	0xbda36ac2	-0.07979347
99	0xbd637b40	-0.055537462
100	0x3ba69e5e	0.005084797
101	0x3c129ffe	0.008949278
102	0xbd91435d	-0.07092927
103	0xbc4e7a25	-0.012602364
104	0xbd58af40	-0.052901506
105	0xbda331dd	-0.07968495
106	0xbcdc6c5f	-0.026907144
107	0x3c4275fd	0.011868951
108	0xbd6a4ae3	-0.057200324
109	0x3d33df9f	0.043914434
110	0xbdb63f48	-0.08898789
111	0x3deaa44d	0.11457119
112	0xbd014f4b	-0.03156976
113	0x3d9a8065	0.075440206
114	0x3dc02133	0.09381332
115	0x3ca9fd6f	0.02075073
116	0xbdfb1d1b	-0.12261411
117	0xbd964b03	-0.07338526
118	0x3a9bede0	0.0011896454
119	0x3e041f54	0.12902576
120	0xbce0e7ac	-0.02745422
121	0x3ca413c1	0.02002895
122	0xbd44635d	-0.047946323
123	0xbd9e6e0f	-0.07735836
124	0x3d4ef5ed	0.0505275
125	0xbdd131f2	-0.102146044
126	0x3d78295b	0.060586315
127	0x3c1b0d90	0.009463683
128	0xbdcf99a2	-0.10136725
129	0xbd0c1cab	-0.034207027
130	0xbdfbe4ed	-0.122995235
131	0x3d90d871	0.07072533
132	0x3dcc5779	0.099776216
133	0x3e179a4a	0.1480495
134	0x3e13a146	0.1441699
135	0xbc8ce382	-0.017198328
136	0xbdbd78c0	-0.09251547
137	0x3dcf9101	0.10135079
138	0x3db8017a	0.08984657
139	0xbd95ef9a	-0.07321091
140	0xbddbad0c	-0.107263654
141	0x3d2e0486	0.042484783
142	0xbd579d44	-0.052640215
143	0x3a6e60a2	0.0009093379
144	0xbd9216aa	-0.07133229
145	0xbd8dec28	-0.06929809
146	0xbd4161f5	-0.04721256
147	0x3d63a9c9	0.05558184
148	0x3ccc1dfd	0.024916643
149	0xbcf34a86	-0.029698621
150	0xbdf16a18	-0.11787814
151	0xbdb47c3a	-0.08812757
152	0xbc0623dd	-0.008187261
153	0xbd2e4893	-0.04254968
154	0x3e1324ba	0.14369479
155	0xbdb9df35	-0.090757765
156	0xbdf81b83	-0.121146224
157	0xbd3bffbc	-0.045898184
158	0x3da2012d	0.079103805
159	0xbdbc6b03	-0.09200098
160	0xbc8b2794	-0.016986646
161	0xbcc8cea7	-0.024512602
162	0xbddfd966	-0.10930137
163	0xbd948d53	-0.07253518
164	0x3dfe113e	0.124056324
165	0x3d20f076	0.03929182
166	0xbdaa7434	-0.08322945
167	0xbdc76a72	-0.097371
168	0xbdb2db5f	-0.08733248
169	0xbdbdeace	-0.09273301
170	0xbdc0f103	-0.09420969
171	0xbd9b95ce	-0.07596932
172	0x3e0697c7	0.13143836
173	0x3df2f935	0.11863939
174	0xbd7f03d7	-0.06225952
175	0xbdc0775c	-0.09397766
176	0x3defd254	0.11710039
177	0xbd47ca5b	-0.048776966
178	0xbdc48df3	-0.09597387
179	0xbdfb62bc	-0.122746915
180	0xbda69355	-0.0813357
181	0xbda3557d	-0.0797529
182	0xbd81cff2	-0.063384905
183	0xbd9b518b	-0.075839125
184	0xbd8eebab	-0.06978544
185	0xbcfcce58	-0.030860111
186	0xbd5732e1	-0.052538756
187	0x3d88eee2	0.06686188
188	0xbe06553e	-0.13118455
189	0xbde89a64	-0.11357573
190	0xbd641caf	-0.055691417
191	0x3df88f6c	0.121367306
192	0x3dec2f0b	0.1153241
193	0x3deb65f8	0.11494058
194	0xbdacb9a3	-0.08433845
195	0x3d304606	0.04303553
196	0x3d35c996	0.0443817
197	0xbdf2f641	-0.118633755
198	0x3e2f1b88	0.17100346
199	0x3d458c20	0.048229337
200	0x3e06146c	0.13093728
201	0xbc48cb56	-0.01225551
202	0x3c09be8f	0.008407249
203	0x3d0857e8	0.03328696
204	0xbd34ee17	-0.044172373
205	0xbde08cd2	-0.10964359
206	0x3cd5e9f1	0.026112529
207	0x3c8059ef	0.015667884
208	0xbc3b7e76	-0.011443725
209	0x3c1ceb68	0.00957761
210	0x3dd67006	0.104705855
211	0x3da42bf5	0.08016197
212	0xbd82997a	-0.063769296
213	0x3d847adb	0.06468745
214	0xbe06c172	-0.13159731
215	0x3dd4ff22	0.10400225
216	0x3c5b0424	0.013367686
217	0x3e259926	0.16171703
218	0xbd91c115	-0.071169056
219	0x3de04adf	0.109517805
220	0x3dee9b26	0.11650686
221	0x3e05b6c7	0.13058005
222	0xbdc3a3fa	-0.095527604
223	0x3dcad229	0.09903366
224	0x3c913b48	0.017728463
225	0xbc4e97c1	-0.012609423
226	0xbd8d0dec	-0.06887421
227	0x3df7e8a7	0.12104922
228	0x3e1d208d	0.15344448
229	0xbdaf5e35	-0.085628904
230	0xbe092da7	-0.13396321
231	0x3e0ce98a	0.13760963
232	0x3d372959	0.044717167
233	0xbe005d4b	-0.12535588
234	0x3defdaff	0.11711692
235	0x3d0f7a16	0.03502854
236	0x3dd1d97f	0.10246562
237	0x3de2c13a	0.11072011
238	0xbd076ab8	-0.03306076
239	0xbd8e3d00	-0.069452286
240	0xbdcdbfcb	-0.10046347
241	0xbd9ab5b5	-0.07554189
242	0xbd0777b5	-0.033073146
243	0x3de262ac	0.110539764
244	0x3dba5ef2	0.09100141
245	0x3dd0cd6a	0.101954296
246	0xbc985eb3	-0.018599844
247	0xbddeb002	-0.108734146
248	0xbd488b8e	-0.048961215
249	0xbd338865	-0.043831248
250	0x3d663dca	0.05621127
251	0x3cd1565b	0.025553873
252	0x3da471eb	0.08029541
253	0x3cf3e7a3	0.029773539
254	0x3cc820f8	0.024429783
255	0xbdaed3a6	-0.085364625

fc1.bias f4 [64]
0	0x3ab9fed8	0.0014190329
1	0xb6eab18a	-6.9944117e-06
2	0xbc564c19	-0.0130796665
3	0x391660c7	0.00014341167
4	0x3cd7a057	0.026321573
5	0x3d88de4c	0.06683025
6	0xbd4174eb	-0.047230642
7	0xbc997624	-0.018733092
8	0xbdc28a9c	-0.09499094
9	0xbd0632ff	-0.032763477
10	0x3c8efbf5	0.017454127
11	0x3ba244b9	0.00495204
12	0xbaf76cf6	-0.0018877077
13	0xbafb2fb9	-0.0019164003
14	0xbdc9550e	-0.09830676
15	0x3bad4664	0.005287932
16	0xbd4d3260	-0.05009687
17	0xb9eeb335	-0.00045528417
18	0xbda349fc	-0.07973096
19	0x3c3a56db	0.011373247
20	0x3c79dad3	0.015249926
21	0xbaf836dd	-0.0018937249
22	0x3db5359b	0.08848115
23	0x3a572f85	0.000820868
24	0xbcd461e5	-0.025925586
25	0xbd991b5b	-0.07475921
26	0x3abcc5bd	0.0014402192
27	0x3d8ad298	0.06778449
28	0x3bb3d025	0.0054874592
29	0xbd8c9683	-0.06864645
30	0xbdbbff28	-0.091795266
31	0xbd9133f9	-0.07089991
32	0x3a60e614	0.0008579206
33	0x3d439a4b	0.047754567
34	0x3d33dceb	0.043911856
35	0x3b7c66d4	0.0038513439
36	0x3cf3dd8d	0.02976873
37	0x3bb43b60	0.005500242
38	0x3ba841fc	0.005134819
39	0xbcd199f5	-0.025586108
40	0x37eb6208	2.8059832e-05
41	0xbb8cf166	-0.004301238
42	0x3d4d6c96	0.050152384
43	0x37c6c2a9	2.3694085e-05
44	0x3d05edb8	0.03269741
45	0x39c51296	0.00037588616
46	0x3db7707b	0.08957001
47	0xbdb3a5eb	-0.08771881
48	0xbd8fbfd9	-0.07019014
49	0xbd7c8a28	-0.061655194
50	0xbc011799	-0.007879161
51	0x398440b1	0.000252252
52	0x3c952d89	0.01821019
53	0xbb083ce4	-0.0020788247
54	0x3dc65e7d	0.09685991
55	0x3d61b3dd	0.05510317
56	0x3c385685	0.011251097
57	0x3bcae272	0.006191545
58	0x3c80dd92	0.015730653
59	0xba7270af	-0.00092483585
60	0x3d81b4f9	0.06333346
61	0x3d48df22	0.04904092
62	0x3cec37c7	0.02883519
63	0xb9694319	-0.00022245607

fc2.weight f4 [64, 64]
0	0xbbb70464	-0.00558524
1	0xbc541e67	-0.012946702
2	0xbc47fab2	-0.0122057665
3	0x3c043a72	0.008070575
4	0x3d1f6c8c	0.038921878
5	0xbd3a6cc2	-0.045513876
6	0x3ce2634f	0.027635245
7	0x3cb0b5f7	0.021571143
8	0x3d01dfb6	0.031707488
9	0x3d4326d7	0.047644462
10	0x3d2229b6	0.03959056
11	0x3ced43a7	0.028962923
12	0x3c8da42a	0.017290194
13	0x3bc57ca6	0.006026822
14	0xbd465c02	-0.04842759
15	0x3d5465b1	0.051854793
16	0x3bf4c679	0.007469949
17	0xbd99651d	-0.07489989
18	0x3d0cbc3f	0.034359213
19	0x3d8fc2e2	0.07019593
20	0xbdaf54de	-0.08561109
21	0x3bbe96f8	0.0058163367
22	0xbd5d893a	-0.054085948
23	0x3da705a5	0.081553735
24	0xbcda9c68	-0.026685908
25	0xbcfb3c43	-0.030668383
26	0x3d7eef6b	0.062240046
27	0xbd49d1e6	-0.04927244
28	0xbd087a78	-0.03331992
29	0x3d8df636	0.06931727
30	0xbc3c89c3	-0.011507454
31	0xbd00804d	-0.031372357
32	0xbd56d9e6	-0.052453898
33	0x3ddebec0	0.108762264
34	0x3cdce2be	0.026963588
35	0xbd1ab688	-0.03777173
36	0xbd05af13	-0.032637667
37	0x3b20ec17	0.0024554783
38	0xbd236346	-0.039889596
39	0x3d9a43d7	0.07532471
40	0xbc7e0cb4	-0.015505958
41	0x3c560404	0.013062481
42	0x3d5a6e83	0.05332805
43	0xbc513f5e	-0.012771456
44	0xbccce3c8	-0.025010958
45	0x3b9bc954	0.004754225
46	0xbd32ae52	-0.043623276
47	0x3d393338	0.04521486
48	0x3bc27202	0.005934001
49	0xbbbc0310	-0.0057376698
50	0x3b4484f1	0.0029986466
51	0xbd18d1ad	-0.037309337
52	0x3d496667	0.049169924
53	0xbb923d6e	-0.0044628894
54	0xbd2987df	-0.041389342
55	0x3d863215	0.06552521
56	0xbd8df784	-0.069319755
57	0xbd7c49df	-0.061593886
58	0x3c4c1cb7	0.012458018
59	0xbd3df179	-0.046372864
60	0xbd60d52b	-0.054890793
61	0xbd650630	-0.055914104
62	0x3d1e6366	0.038669012
63	0xbd5ec141	-0.05438352
64	0xbd8c0c01	-0.06838227
65	0xbbd7ef77	-0.0065898257
66	0x3d50a068	0.050934225
67	0x3c7821d3	0.015144783
68	0x3d3dead9	0.046366546
69	0xbba4bd60	-0.005027458
70	0x3cddf4a6	0.027094197
71	0x3db33c1a	0.08751698
72	0xbc3a7ddf	-0.011382549
73	0xbdb42646	-0.087963626
74	0x3d8f2914	0.06990257
75	0xbd75e69c	-0.06003438
76	0xbd82e12e	-0.06390606
77	0x3ba990aa	0.005174716
78	0xbd4c67c2	-0.04990364
79	0x3d937f52	0.07202019
80	0x3d99d333	0.07510986
81	0x3d39a631	0.045324508
82	0x3bb08330	0.0053867325
83	0x3d8716f8	0.06596178
84	0x3da28887	0.07936197
85	0xbd47c9da	-0.048776485
86	0x3ddd1aee	0.10796152
87	0xbc4c3efa	-0.012466187
88	0xbd9091d8	-0.070590675
89	0x3c63dde9	0.013907888
90	0x3cf96ed8	0.030448362
91	0x3d30ec8a	0.04319433
92	0xbd4e5fa4	-0.05038418
93	0x3d09e597	0.03366622
94	0x3d2df1fd	0.042467106
95	0x3db45e47	0.088070445
96	0x3c42e3dd	0.011895147
97	0xbd2ae8fa	-0.04172609
98	0x3dd95032	0.10610999
99	0xbd8003f6	-0.062507555
100	0xbdc94a42	-0.09828617
101	0xbca99d20	-0.020704806
102	0x3d011789	0.031516585
103	0xbe0d8b82	-0.1382275
104	0x3deec26b	0.11658176
105	0xbc23bc52	-0.0099936295
106	0xbd4863c5	-0.048923273
107	0xbd952e69	-0.07284243
108	0x3dc4e90f	0.09614765
109	0xbcedd622	-0.02903277
110	0xbd7f46a4	-0.062323228
111	0xbca14320	-0.019685328
112	0x3d94f277	0.07272809
113	0x3dabf5c7	0.08396488
114	0x3d3fa782	0.046790607
115	0xbcc78454	-0.024355091
116	0xbcc86b96	-0.024465363
117	0xbd9699a8	-0.07353526
118	0xbd328b45	-0.04358985
119	0xbcb0a1bb	-0.021561494
120	0x3cf099be	0.029370185
121	0x3e060805	0.13088997
122	0xbdb5d9e0	-0.08879447
123	0x3e00c2ad	0.12574263
124	0x3e14ef54	0.14544421
125	0x3cd1332a	0.025537092
126	0x3d3c1f9d	0.045928586
127	0x3d991d0a	0.07476242
128	0xbdbfaa8c	-0.09358701
129	0xbc2b76ce	-0.010465337
130	0xbdc549ea	-0.096332386
131	0x3bd5fc27	0.006530303
132	0x3dcabc31	0.09899176
133	0xbb47fd90	-0.0030516125
134	0x3b35790d	0.002769056
135	0xbdad8f5c	-0.08474609
136	0x3dba0d1a	0.0908453
137	0x3d8801ea	0.0664099
138	0x3c216579	0.009850853
139	0xbda26076	-0.07928555
140	0xbd888f17	-0.06667917
141	0xbd506449	-0.05087689
142	0x3dc3c522	0.095590845
143	0xbcced582	-0.025248293
144	0xbc02c94d	-0.007982564
145	0x3b4b53b5	0.0031025235
146	0x3b9343a8	0.0044941492
147	0xbd696589	-0.056981597
148	0x3dbf8261	0.0935104
149	0xbda6b3c4	-0.08139756
150	0x3be1344d	0.00687269
151	0x3d684b84	0.056712642
152	0x3d33a220	0.043855786
153	0x3da6a35e	0.081366286
154	0xbd5799a4	-0.052636757
155	0xbd9d9ea5	-0.07696275
156	0x3dca42a5	0.09875993
157	0xbcb19793	-0.021678722
158	0x3d4cec80	0.05003023
159	0xbc3f4c7f	-0.011675953
160	0x3d569f82	0.052398212
161	0x3d808b0e	0.062765226
162	0x3dfa3aea	0.12218268
163	0xbd904f02	-0.070463195
164	0xbd88c97d	-0.06679056
165	0x3d268084	0.040649906
166	0x3c9f9128	0.019478396
167	0xbd86d831	-0.06584204
168	0xbdcc1bbd	-0.09966228
169	0xbde1a788	-0.11018282
170	0xbc6fa123	-0.01462582
171	0x3c7b633f	0.015343486
172	0xbd9a9492	-0.07547869
173	0x3c81ab6d	0.015828812
174	0xbd453a2c	-0.04815118
175	0xbdca7d13	-0.09887137
176	0xbd0dc4a3	-0.034611356
177	0x3c913565	0.017725656
178	0xbdf6d481	-0.12052251
179	0xbb0aa240	-0.0021153837
180	0xbdcae5fa	-0.09907146
181	0xbb9d4f84	-0.0048007388
182	0xbdd0646f	-0.10175406
183	0x3d81f3f3	0.06345358
184	0x3db1884e	0.08668576
185	0xbdd674be	-0.104714856
186	0xbda85ef2	-0.082212344
187	0x3dbf315d	0.09335587
188	0x3e139452	0.14412048
189	0x3d9f057b	0.07764717
190	0x3dbd4958	0.09242505
191	0x3d7fc524	0.062443867
192	0xbd332dc4	-0.043744817
193	0xbcf96bbc	-0.03044688
194	0x3dbc1384	0.0918341
195	0xbd857c57	-0.065178566
196	0x3c377f54	0.011199791
197	0xbce71bb6	-0.028211456
198	0xbd92d681	-0.071698196
199	0x3c774d82	0.015094163
200	0xbc11ab99	-0.00889101
201	0x3dd3194d	0.1030756
202	0xbce3a8f9	-0.027790533
203	0xbcd3fe7a	-0.02587818
204	0xbd9acb5a	-0.075583175
205	0x3db61f67	0.08892708
206	0xbc5311b2	-0.012882637
207	0xbde3d66e	-0.111248836
208	0xbd9c0834	-0.07618752
209	0x3cb84383	0.02249313
210	0xbdb70da3	-0.08938148
211	0x3c125b0f	0.008932843
212	0xbddaf9aa	-0.10692151
213	0xbcf53c65	-0.029936025
214	0x3d9f4c51	0.07778228
215	0x3d32673e	0.04355549
216	0x3c871314	0.01648859
217	0x3d033446	0.032032274
218	0x3cd007e1	0.025394382
219	0x3c3d1382	0.011540296
220	0xbdd7db9f	-0.10539936
221	0xbda1def9	-0.07903857
222	0x3db06633	0.08613243
223	0x3d44cf3a	0.04804919
224	0x3e0f0bb5	0.1396931
225	0xbd5a5fc7	-0.053313997
226	0xbce70c55	-0.028204123
227	0x3da75314	0.08170143
228	0xbb18460e	-0.0023235115
229	0xbcefa5c1	-0.029253842
230	0x3d361ab7	0.04445907
231	0x3dc04fa5	0.09390191
232	0xbbf47158	-0.0074598007
233	0x3cc2c6f6	0.023776513
234	0x3da1c694	0.07899204
235	0xbc4e46f3	-0.012590158
236	0xbdee80cb	-0.11645659
237	0x3d9da5ad	0.07697616
238	0xbdbd5890	-0.092454076
239	0xbdca87c5	-0.09889177
240	0x3e0a276d	0.13491602
241	0xbdb2727b	-0.08713242
242	0xbd9948f5	-0.074846186
243	0x3d606519	0.054783914
244	0xbdb84c19	-0.089988895
245	0x3de6fa64	0.11278227
246	0x3d6f613d	0.058442343
247	0x3e017ec2	0.1264601
248	0x3ccc1b4e	0.024915364
249	0x3da4d5b3	0.080485724
250	0x3d91dfec	0.07122788
251	0x3deafeca	0.114743784
252	0xbc59a59c	-0.013284113
253	0x3dd729e0	0.10506034
254	0x3d82d2fd	0.06387899
255	0x3dafae37	0.08578151

fc2.bias f4 [64]
0	0x3d4e7fd7	0.050414886
1	0xbd3c1ceb	-0.045926016
2	0x3b1836b3	0.0023225963
3	0x3d2b58f4	0.04183288
4	0x3af16d2e	0.0018419379
5	0xbd41d87c	-0.047325596
6	0xbcb6058e	-0.022219446
7	0x3cfa0530	0.030520052
8	0xbbc8ec63	-0.006131695
9	0xbc26e700	-0.010186911
10	0x3d87a1cc	0.06622657
11	0xbae6d96d	-0.0017612405
12	0x3c0fd7ad	0.008779448
13	0xbbac21e1	-0.005253062
14	0x3c4e96d6	0.012609204
15	0x3b7171f7	0.003684161
16	0xbbb2577f	-0.0054425593
17	0x3d7df1a7	0.061998036
18	0x3bca263e	0.0061691096
19	0x3d088830	0.033333004
20	0x3b93f028	0.004514713
21	0xbc197879	-0.009367102
22	0x3d597b3a	0.053096034
23	0x3a59a139	0.0008301917
24	0x3b6a6e40	0.003577128
25	0xbd9790af	-0.07400643
26	0x3d682cdd	0.05668341
27	0x3d73bf96	0.059508882
28	0x3cd19788	0.025584951
29	0xbcc85fa1	-0.024459662
30	0x3d306d6d	0.043073107
31	0xbd903a43	-0.070423625
32	0xba229911	-0.0006202618
33	0xbd7416b7	-0.059591975
34	0x3ba67ee3	0.005081044
35	0x3b468c6f	0.0030296107
36	0xb83614ad	-4.3411437e-05
37	0xbd5e80de	-0.054322116
38	0x3afdd8ad	0.0019366943
39	0xbc697669	-0.014249423
40	0x3ab772af	0.001399597
41	0xbd3119c5	-0.043237466
42	0x3d660dc1	0.05616546
43	0x3cb91440	0.022592664
44	0xbd44e1cb	-0.048066895
45	0xbbb1996a	-0.0054198997
46	0xbcf7d536	-0.030253034
47	0x3ac60d3c	0.0015110145
48	0xbc12eaa2	-0.008967074
49	0xbc23f424	-0.010006938
50	0x3bee871d	0.0072792904
51	0xbcf094b5	-0.029367784
52	0xbbae3157	-0.0053159404
53	0x3c436c01	0.011927606
54	0xbb8936d4	-0.004187444
55	0x3a1d7255	0.00060061115
56	0xbcb1dfa5	-0.021713087
57	0xbd214607	-0.039373424
58	0xba059368	-0.00050955126
59	0x3d53767e	0.051626675
60	0x3b9cf964	0.004790472
61	0xbce41073	-0.027839875
62	0xb8f5e8b3	-0.00011725854
63	0x3ba95f40	0.0051688254

out.weight f4 [1, 64]
0	0x3cdbf1f1	0.026848765
1	0xbda15f79	-0.07879538
2	0xbd692dc6	-0.05692842
3	0xbd88f529	-0.066873856
4	0xbd0e65a6	-0.03476491
5	0x3d3af068	0.045639426
6	0x3de2946d	0.11063466
7	0xbdbc1cf9	-0.091852136
8	0x3b993c9d	0.004676415
9	0xbdcd61d5	-0.100284256
10	0xbd849cb1	-0.06475199
11	0x3bed12ea	0.0072349207
12	0x3b59c186	0.0033226921
13	0x3cd6df95	0.02622966
14	0xbd4f4c3d	-0.050609816
15	0x3d393080	0.04521227
16	0xbd418798	-0.047248453
17	0x3d19a635	0.037512023
18	0x3bbb87eb	0.00572299
19	0x3d98a590	0.074534535
20	0xbdf39039	-0.11892743
21	0xbd240ef8	-0.040053338
22	0xbd8c5fb8	-0.068541944
23	0x3c8bded1	0.01707402
24	0x3c7ec9f9	0.015551084
25	0xbd3aab4a	-0.04557351
26	0xbdc0f551	-0.094217904
27	0x3db0af13	0.08627143
28	0x3deb597a	0.11491676
29	0xbdd701c6	-0.10498385
30	0x3d51b1fd	0.051195133
31	0x3d34eb68	0.044169813
32	0xbd2b4b68	-0.04181996
33	0xbd39f453	-0.04539902
34	0x3de80c1f	0.11330437
35	0x3d061e60	0.03274381
36	0xbd6a7ace	-0.057246022
37	0xbd749ba9	-0.05971876
38	0x3cc36965	0.023853967
39	0xbd90dbd5	-0.0707318
40	0xbd300f8a	-0.04298357
41	0x3da0018a	0.078127936
42	0x3d5b10b4	0.053482726
43	0x3dc9468c	0.09827909
44	0xbc1aabf5	-0.009440412
45	0x3dec60f0	0.11541927
46	0xbcf101bc	-0.029419772
47	0xbc9e5864	-0.019329257
48	0xbc9fe97c	-0.019520514
49	0xbd1812e5	-0.037127394
50	0xbcd8bf1f	-0.026458321
51	0x3da16dca	0.07882269
52	0xbcbab06d	-0.022789204
53	0x3db781ed	0.08960328
54	0x3d5738b3	0.052544307
55	0xbdc58bec	-0.096458286
56	0xbdd0c573	-0.101939104
57	0x3cc4afa7	0.024009539
58	0x3d988ce4	0.07448748
59	0xbd1c210a	-0.038117446
60	0xbd545ec5	-0.05184819
61	0x3d8c59f1	0.068530925
62	0xbd5e7a66	-0.054315947
63	0xbdc00649	-0.09376199

sep_conn.weight f4 [64, 45]
0	0xbe03a5f6	-0.12856278
1	0xbca0468b	-0.019564888
2	0xbd1f3a84	-0.038874164
3	0xba919af5	-0.0011108803
4	0x3df6d6a4	0.12052658
5	0xbde05438	-0.109535635
6	0x3def428b	0.11682614
7	0xbdf1e893	-0.11811938
8	0xbdc9a178	-0.09845251
9	0x3d1e858f	0.03870159
10	0xbd914272	-0.070927516
11	0x3d413a39	0.047174666
12	0x3d4002d0	0.046877682
13	0xbd24511e	-0.040116422
14	0x3d853d86	0.06505875
15	0x3debf7ab	0.11521848
16	0x3d334adb	0.04377256
17	0xbd109fec	-0.035308763
18	0xbcbe178c	-0.023204587
19	0xbe15fc73	-0.14647083
20	0x3e0a326e	0.134958
21	0xbe0a3000	-0.13494873
22	0xbd1d398b	-0.038384955
23	0xbdadd308	-0.08487517
24	0x3d3982bb	0.04529069
25	0x3d58c793	0.052924704
26	0x3e09ceb8	0.13457763
27	0xbd6d4e47	-0.05793598
28	0xbda5e9b4	-0.08101216
29	0x3c7aa4f1	0.015298114
30	0xbcfdd948	-0.030987397
31	0xbcdcbfec	-0.026946984
32	0xbd71a3c3	-0.058994066
33	0xbcef711c	-0.02922874
34	0x3cac84fd	0.021059508
35	0xbd4d8a50	-0.050180733
36	0xbdc238dd	-0.09483502
37	0x3dedfd39	0.11620564
38	0xbc124aef	-0.008928998
39	0x3cc37d7a	0.023863543
40	0xbd87238d	-0.06598578
41	0x3dd2b6dc	0.10288784
42	0xbcaabf08	-0.020843044
43	0xbda59b69	-0.08086283
44	0xbda85e58	-0.0822112
45	0xbbc70922	-0.0060740868
46	0x3dbd0d5b	0.09231063
47	0x3e048ea6	0.12945041
48	0xbddfeee3	-0.10934236
49	0xbd63c3bf	-0.0556066
50	0x3d682290	0.056673586
51	0x3dea44bc	0.11438891
52	0xbd8ab409	-0.0677262
53	0x3c0cb26f	0.008587464
54	0x3d91e293	0.07123294
55	0xbd83741b	-0.0641863
56	0xbd91b329	-0.0711425
57	0x3deaa1b7	0.11456626
58	0x3e0892c1	0.13337232
59	0xbd5da5e7	-0.054113295
60	0x3b413e2c	0.002948652
61	0xbd57a2be	-0.052645437
62	0xbca3c8c6	-0.019993197
63	0x3dfa84ad	0.12232337
64	0x3e0fdfb4	0.1405018
65	0x3de541be	0.1119418
66	0x3e1056e8	0.14095652
67	0x3d802e92	0.062588826
68	0xbdca5eee	-0.09881388
69	0x3c4415dd	0.011968103
70	0x3dd09c2c	0.101860374
71	0xbdfedc69	-0.12444384
72	0xbe015194	-0.12628776
73	0x3ce7c3cb	0.028291604
74	0xbc9d18ba	-0.01917683
75	0x3d728e58	0.05921778
76	0x3de6a169	0.11261255
77	0xbd53737b	-0.051623803
78	0x3e109c89	0.14122213
79	0xbd8fd7f6	-0.07023613
80	0x3c77aa97	0.015116355
81	0xbd84291b	-0.06453153
82	0xbe00630d	-0.12537785
83	0xbd1254a9	-0.03572527
84	0xbe06939f	-0.1314225
85	0xbdb7cd99	-0.089747615
86	0xbd8fbd98	-0.07018584
87	0xbbc3c05f	-0.00597386
88	0xbd25a8ee	-0.040444307
89	0x3dc91f29	0.098203965
90	0xbe043e7b	-0.1291446
91	0xbd7f0a6e	-0.062265806
92	0xbdfc6691	-0.123242505
93	0xbd1e7a6b	-0.038690966
94	0xbd3204a6	-0.043461464
95	0xbdd8d516	-0.10587518
96	0x3e013b62	0.12620309
97	0xbbf8c59a	-0.0075919153
98	0xbd7a4432	-0.061100192
99	0xbe170e2a	-0.14751497
100	0x3bef6d02	0.007306696
101	0xbdbbf984	-0.09178451
102	0x3dcc72b6	0.09982817
103	0xbdf8dc5d	-0.12151406
104	0xbd89d102	-0.06729318
105	0x3df030c5	0.11728052
106	0xbb87d860	-0.004145667
107	0x3de410f3	0.11136045
108	0xbe10a1cd	-0.14124222
109	0xbd19aa53	-0.03751595
110	0xbdb4a03a	-0.08819623
111	0x3d43d872	0.04781384
112	0x3bfaddf6	0.0076558543
113	0xbdbbfe87	-0.091794066
114	0xbe0f2997	-0.13980709
115	0x3d8ca92f	0.06868207
116	0xbd894562	-0.06702687
117	0xbda9516f	-0.08267485
118	0x3dc0fee0	0.094236135
119	0x3dc343ac	0.09534392
120	0xbe0dea39	-0.1385888
121	0xbd96a30d	-0.07355318
122	0xbe11bb19	-0.14231528
123	0xbc0a3895	-0.008436342
124	0xbdea300f	-0.11434948
125	0x3ddc0d22	0.107446924
126	0x3d87710f	0.06613361
127	0x3dd220e0	0.10260177
128	0xbcb0115b	-0.02149265
129	0xbc21ea37	-0.009882501
130	0x3dc24069	0.094849415
131	0x3df1d319	0.11807842
132	0x3e01af30	0.12664485
133	0x3d301d3e	0.042996638
134	0x3dfd5f89	0.123717375
135	0xbd903705	-0.07041744
136	0x3dd5ddb2	0.10442676
137	0xbc90a5cf	-0.017657189
138	0xbca83c62	-0.020536605
139	0x3d95e06c	0.07318196
140	0x3acc1e3a	0.0015572973
141	0x3df1b7a7	0.11802607
142	0x3d92982e	0.07157932
143	0xbdf7b3dc	-0.12094852
144	0xbdbed7ea	-0.09318526
145	0x3d11144f	0.03541976
146	0xbd5df244	-0.05418612
147	0xba16c0bf	-0.00057507673
148	0x3d79f12e	0.061021022
149	0x3de55f31	0.11199797
150	0x3ddfc756	0.10926692
151	0xbce6e852	-0.02818695
152	0xbcd250fa	-0.025673378
153	0xbd3ee3f2	-0.046604104
154	0x3d68ef09	0.056868587
155	0xbd1c4009	-0.038147006
156	0x3e14cdf3	0.14531688
157	0xbd8d4bee	-0.06899248
158	0x3de3a738	0.11115879
159	0x3ca85711	0.020549329
160	0xbdc72ab1	-0.097249396
161	0xbd39de00	-0.04537773
162	0x3dc3fa19	0.09569187
163	0xbd666042	-0.056244142
164	0xbceae884	-0.028675325
165	0x3c530df6	0.0128817465
166	0x3e0ec45b	0.13942091
167	0xbd06f193	-0.032945227
168	0xbde6f6e9	-0.11277563
169	0x3e113b03	0.14182667
170	0x3c9d5228	0.019204214
171	0xbb983166	-0.0046445606
172	0xbdd38654	-0.103283554
173	0xbdf3c619	-0.119030185
174	0x3d642c8b	0.055706542
175	0xbdab6cf3	-0.0837039
176	0x3e11c495	0.14235146
177	0x3da0f5fb	0.07859417
178	0x3e06ff1e	0.13183257
179	0x3d98a3d4	0.07453123
180	0x3e026d24	0.12736946
181	0x3b24f57c	0.0025170734
182	0x3d718770	0.058967054
183	0xbdcb06b1	-0.09913386
184	0xbcc03a1e	-0.023465212
185	0x3c79d1c8	0.01524777
186	0x3dabc0c4	0.083863765
187	0xbb4f8fd5	-0.0031671424
188	0xbdf56a5e	-0.119831786
189	0xbe1897b2	-0.14901617
190	0x3d7d212d	0.061799217
191	0xbdc795ea	-0.09745391
192	0xbdf02a60	-0.117268324
193	0xbe16bc1c	-0.14720196
194	0xbe049e73	-0.12951069
195	0xbc6b5c45	-0.0143652605
196	0xbcd38c30	-0.025823683
197	0x3dd723cf	0.10504877
198	0xbe16dbad	-0.14732237
199	0xbdbf6045	-0.09344534
200	0xbdb54393	-0.088507794
201	0x3e0d978a	0.13827339
202	0xbd6e3958	-0.058160156
203	0x3c80fd95	0.015745917
204	0x3d3e38f1	0.046441022
205	0x3e07ccd9	0.13261737
206	0x3d984d59	0.07436628
207	0xbe097ece	-0.13427278
208	0xbddaa18a	-0.106753424
209	0xbd4a1b64	-0.049342528
210	0xbc418fdd	-0.011814085
211	0x3dbd51bb	0.092441045
212	0x3ccd2750	0.02504316
213	0xbd5fa351	-0.05459911
214	0xbe11ac93	-0.14225988
215	0xbc948da1	-0.01813394
216	0xbd9d649f	-0.076852076
217	0xbcd47543	-0.025934821
218	0xbac6825f	-0.0015145055
219	0xbd06962d	-0.032858063
220	0xbcc9d76f	-0.02463886
221	0xbd623767	-0.055228617
222	0xbde29227	-0.110630326
223	0x3d13e6b0	0.036108673
224	0xbd74fddf	-0.059812423
225	0xbd93a4d1	-0.072091706
226	0x3e02f3e7	0.12788354
227	0x3cbdb66e	0.023158278
228	0x3df3c71f	0.11903214
229	0x3c13ea78	0.00902807
230	0x3d5c7470	0.05382198
231	0xbd071f52	-0.032988854
232	0x3d8426af	0.06452691
233	0xbdc692dd	-0.09695981
234	0xbd60cc5c	-0.054882392
235	0x3db5c3a0	0.08875203
236	0x3c439c13	0.011939066
237	0xbe170c27	-0.1475073
238	0x3d8065a9	0.0626939
239	0xbdcb107e	-0.09915255
240	0x3d2f7c90	0.0428434
241	0xbd4ebb98	-0.050471872
242	0xbdb70198	-0.08935851
243	0xbddbdebe	-0.10735844
244	0xbd80f679	-0.06297011
245	0xbd3203a0	-0.04346049
246	0x3d6558d9	0.055992935
247	0xbdf50199	-0.11963195
248	0xbd5f59a8	-0.054528862
249	0xbdd380af	-0.10327279
250	0xbe00cfe4	-0.12579304
251	0x3cb2ab55	0.021810213
252	0xbdbc35f0	-0.09189975
253	0xbd3afb44	-0.04564978
254	0x3ce3aeb1	0.02779326
255	0x3d1b6b4a	0.037944116

sep_conn.bias f4 [64]
0	0xbe06e0de	-0.13171718
1	0x3d62ce52	0.055372544
2	0xbdb2acb1	-0.087243445
3	0xbe097874	-0.13424855
4	0x3dbd456f	0.09241759
5	0xbe147656	-0.14498267
6	0x3cb8906a	0.0225298
7	0xbd7fa6ce	-0.062414937
8	0x3db594f5	0.08866302
9	0x3dc28a2c	0.094990104
10	0x3dbee1ee	0.093204364
11	0xbe0499b4	-0.12949258
12	0xbdca9a2b	-0.098926865
13	0x3dc34652	0.09534897
14	0xbdaacc3e	-0.08339737
15	0x3da845a8	0.08216411
16	0x3e129e96	0.14318308
17	0xbd0eb10a	-0.034836806
18	0x3e11384e	0.14181635
19	0xbd680f0e	-0.056654982
20	0x3be67b93	0.007033774
21	0x3dbd6663	0.09248044
22	0x3e048d5b	0.12944548
23	0x3caa2472	0.020769332
24	0xbc8a10ac	-0.016853653
25	0x3c12a2aa	0.008949915
26	0x3b7fd1aa	0.0039034882
27	0xbe0740d9	-0.13208331
28	0x3d54c6bb	0.051947337
29	0x3de70a56	0.11281268
30	0x3dd59f86	0.10430817
31	0xbd88a168	-0.06671411
32	0x3def9c8b	0.1169978
33	0x3bc75b6c	0.0060838964
34	0x3d1d3e2e	0.038389377
35	0x3d9b97d3	0.075973175
36	0xbcac51b6	-0.021035057
37	0x3d6cd080	0.05781603
38	0x3d6f7849	0.058464322
39	0xbd1f5c94	-0.03890665
40	0xbe055513	-0.13020734
41	0x3d8264f5	0.06366912
42	0x3e107da3	0.14110427
43	0x3dfa5e3a	0.122250035
44	0xbd85f5a2	-0.06540991
45	0xbdc4d73f	-0.096113674
46	0xbe142a62	-0.14469293
47	0xbdf88942	-0.12135555
48	0xbc93536d	-0.017984116
49	0x3daa2fcf	0.083099
50	0xbd90eafa	-0.07076068
51	0xbd5fa964	-0.054604903
52	0xbde6a631	-0.11262167
53	0xbd16b63c	-0.036794886
54	0x3dbe4a99	0.09291572
55	0xbe04d434	-0.12971574
56	0xbca9f750	-0.02074781
57	0xbe1387a3	-0.1440721
58	0x3c89009d	0.016723925
59	0xbe17812d	-0.1479537
60	0xbd144b89	-0.03620485
61	0x3dce954d	0.100870706
62	0xbdc728a2	-0.09724547
63	0xbc9a863e	-0.01886284

bn.weight f4 [64]
0	0x3f734089	0.9502035
1	0x3f7360be	0.9506949
2	0x3f73b476	0.95197237
3	0x3f72e3a1	0.94878584
4	0x3f73952e	0.95149505
5	0x3f73ff08	0.9531102
6	0x3f764a2a	0.96206915
7	0x3f743ca9	0.9540506
8	0x3f74093d	0.95326596
9	0x3f73b868	0.95203257
10	0x3f735883	0.95056933
11	0x3f73718d	0.9509514
12	0x3f731372	0.94951546
13	0x3f73ddfe	0.9526061
14	0x3f74050d	0.95320207
15	0x3f73807e	0.9511794
16	0x3f731905	0.9496005
17	0x3f73f88d	0.95301133
18	0x3f733903	0.9500887
19	0x3f7377e1	0.95104796
20	0x3f74f13a	0.9568058
21	0x3f734491	0.950265
22	0x3f72a3cd	0.9478119
23	0x3f72fdd4	0.9491856
24	0x3f74503b	0.9543492
25	0x3f733af7	0.9501185
26	0x3f751d50	0.9574785
27	0x3f74e2f3	0.956588
28	0x3f779c4d	0.9672287
29	0x3f74b4a5	0.9558814
30	0x3f734886	0.95032537
31	0x3f7466cf	0.95469373
32	0x3f73ac68	0.95184946
33	0x3f739cae	0.9516095
34	0x3f759262	0.9592649
35	0x3f7386a3	0.95127314
36	0x3f738d22	0.95137227
37	0x3f74126b	0.95340604
38	0x3f75485c	0.95813537
39	0x3f73ab24	0.95183015
40	0x3f72abb6	0.9479326
41	0x3f75b041	0.9597207
42	0x3f747bae	0.9550122
43	0x3f75e688	0.9605489
44	0x3f732f4f	0.9499406
45	0x3f773498	0.96564627
46	0x3f734f1c	0.95042586
47	0x3f72b67c	0.948097
48	0x3f74b8f5	0.9559472
49	0x3f72f0cc	0.94898677
50	0x3f73b433	0.9519684
51	0x3f756559	0.9585777
52	0x3f72dcbd	0.9486807
53	0x3f75759f	0.958826
54	0x3f75154f	0.9573564
55	0x3f753f50	0.9579973
56	0x3f7549f2	0.95815957
57	0x3f73a72a	0.9517695
58	0x3f74e611	0.95663553
59	0x3f73a527	0.9517388
60	0x3f73eb93	0.9528133
61	0x3f73e935	0.9527772
62	0x3f734a51	0.9503527
63	0x3f745dfa	0.95455897

bn.bias f4 [64]
0	0xbcd8c60b	-0.026461622
1	0x3c9e8bb9	0.019353734
2	0xbb1aec97	-0.0023639554
3	0x3c0deefe	0.008662937
4	0x3932cac0	0.00017050933
5	0xbc7d5124	-0.01546124
6	0xbcd8ef44	-0.026481278
7	0xbaa9fe83	-0.0012969527
8	0xbcce7dd1	-0.025206478
9	0x3c3acbf6	0.011401167
10	0x3cb3897e	0.021916147
11	0xbcdea273	-0.027177071
12	0x3cb1a96e	0.021687236
13	0xbca2e09e	-0.019882496
14	0xbae443a3	-0.0017415177
15	0xbcd949cd	-0.026524449
16	0x3cbae766	0.022815417
17	0xbca76e0d	-0.020438218
18	0x3d1d9b4a	0.038478173
19	0xbcb0052b	-0.02148684
20	0x3c8babf8	0.017049775
21	0xbc8ff393	-0.0175722
22	0xbb75e77b	-0.0037522006
23	0xbc7bf4fb	-0.015378232
24	0xbccbcd08	-0.02487804
25	0x3c82dcf3	0.015974497
26	0xbc01fa43	-0.007933202
27	0xbcc61004	-0.024177559
28	0xbcd10ae6	-0.025517892
29	0xbc13b4da	-0.009015286
30	0xbca6d36f	-0.020364491
31	0xbc8107c6	-0.015750777
32	0x3c389bc3	0.011267605
33	0x3b59c54e	0.0033229175
34	0xbbebebf5	-0.007199759
35	0xbbbfdb6a	-0.0058550136
36	0xbb1ba8fc	-0.0023751846
37	0xbc069ce4	-0.008216117
38	0xbcdd9eef	-0.027053325
39	0x3c1efbc5	0.009703581
40	0xbb00679d	-0.0019593008
41	0x39979906	0.00028914976
42	0xbcc4ba8d	-0.024014736
43	0xbca3f363	-0.020013517
44	0x3b8b6449	0.0042538983
45	0xbc71b372	-0.014752256
46	0x3c987af8	0.018613324
47	0x3c4fc66f	0.012681588
48	0x3c1e14a8	0.0096484795
49	0x380c7b98	3.3493707e-05
50	0x3c742787	0.014902002
51	0xbcb9449f	-0.022615729
52	0xbbe9ea83	-0.0071385517
53	0xbcecebd5	-0.028921047
54	0xbc966c30	-0.018362135
55	0xbb39ee45	-0.002837078
56	0x3ae7ae29	0.0017675805
57	0xbc103b3c	-0.008803185
58	0xbcec1c4c	-0.028822087
59	0x3b011600	0.001969695
60	0xbc8f794a	-0.01751389
61	0xbc68270d	-0.014169467
62	0x3c726537	0.014794639
63	0x3ba3da84	0.0050004143

bn.running_mean f4 [64]
0	0x3d4e2dcd	0.050336648
1	0xbd3dedb4	-0.04636927
2	0xbca298d1	-0.01984826
3	0x3b240025	0.00250245
4	0xbe037675	-0.12838157
5	0x3e25d0b5	0.16192897
6	0x3e10eaf1	0.14152123
7	0xbe71f600	-0.23628998
8	0xbc892732	-0.016742323
9	0x3c04d432	0.008107232
10	0x3dadb72f	0.08482205
11	0x3e02ae1f	0.12761734
12	0x3d1b7b91	0.03795964
13	0x3e306b64	0.17228466
14	0x3e65e433	0.22450332
15	0x3d4cd940	0.050011873
16	0xbe333a81	-0.17502786
17	0xbde958ea	-0.11393912
18	0xbbfab83e	-0.007651358
19	0x3ae30924	0.001732145
20	0xbc642a9c	-0.0139261745
21	0x3d9705b5	0.073741354
22	0xbe87ea3c	-0.26545894
23	0x3dd65aec	0.10466561
24	0x3dd59728	0.104292214
25	0xbe596a42	-0.2123194
26	0xbdc60e81	-0.09670735
27	0x3e9f60f0	0.31128645
28	0x3e69320e	0.22773
29	0xbe3701d4	-0.17871791
30	0xbe9d6ffd	-0.30749503
31	0x3d9d370b	0.07676514
32	0x3dd89748	0.105757296
33	0xbe6b52e6	-0.22980842
34	0xbe5b01f5	-0.21387465
35	0x3e2ad8cf	0.16684268
36	0xbcb4eb3f	-0.02208483
37	0x3bb35cb1	0.005473696
38	0x3e483162	0.19550088
39	0xbcf64313	-0.03006128
40	0xbd93f86a	-0.072251156
41	0x3e22b35e	0.15888736
42	0x3e35469e	0.1770272
43	0xbe2cf1e1	-0.16889144
44	0x3d639563	0.05556239
45	0xbd8d3c89	-0.06896312
46	0x3dfa2bdd	0.122153975
47	0xbdb7c90b	-0.08973893
48	0x3db61c27	0.088920884
49	0x3d18bc75	0.0372891
50	0xbe355075	-0.17706473
51	0x3e018c7b	0.12651245
52	0xbdb0ec09	-0.0863877
53	0x3e57f5f8	0.21089923
54	0x3e5337c1	0.20626737
55	0x3e17503b	0.14776699
56	0x3d48e462	0.049045928
57	0x3c5e0359	0.013550603
58	0xbca122b5	-0.01966987
59	0x3df6617a	0.12030311
60	0x3e95afa5	0.2923557
61	0x3de8b294	0.11362186
62	0x3c25f802	0.01012993
63	0x3d790ca8	0.060803086

bn.running_var f4 [64]
0	0x3d72840b	0.059207957
1	0x3dc88f5a	0.09792967
2	0x3df4a82e	0.1194614
3	0x3e0152d0	0.12629247
4	0x3dadc3a7	0.08484583
5	0x3dd0d8a8	0.10197574
6	0x3e122058	0.1427015
7	0x3df4c2cd	0.11951218
8	0x3d8b27f3	0.06794729
9	0x3ddec959	0.10878248
10	0x3e0a4c51	0.13505675
11	0x3d8efdef	0.06982028
12	0x3d918f2b	0.07107385
13	0x3dca0cd8	0.09865731
14	0x3e09a249	0.13440813
15	0x3de40d85	0.11135391
16	0x3dd179fd	0.102283455
17	0x3dcdba89	0.100453444
18	0x3d3e91bb	0.0465257
19	0x3e02611b	0.12732355
20	0x3e1df767	0.15426408
21	0x3daf8598	0.08570403
22	0x3dfac958	0.122454345
23	0x3dc0248b	0.0938197
24	0x3e09faaa	0.13474527
25	0x3df81784	0.1211386
26	0x3dd62f59	0.104582496
27	0x3e15dcfd	0.14635082
28	0x3db630bd	0.08896015
29	0x3dfa01f3	0.12207403
30	0x3de08e8a	0.10964687
31	0x3dc58ad4	0.0964562
32	0x3dd50e2e	0.10403095
33	0x3dd156f7	0.10221665
34	0x3e66714b	0.22504155
35	0x3daec086	0.08532815
36	0x3e1aa1a7	0.15100728
37	0x3dd306f5	0.10304061
38	0x3dd3c168	0.10339624
39	0x3dce210a	0.100648955
40	0x3de72835	0.11286966
41	0x3da454dc	0.08023998
42	0x3e08b447	0.1335002
43	0x3e176028	0.14782774
44	0x3d69e683	0.0571046
45	0x3e04a434	0.12953264
46	0x3d9293aa	0.07157071
47	0x3d87bc31	0.066276915
48	0x3d8cb506	0.06870465
49	0x3ddaaa3a	0.106769994
50	0x3d819d60	0.06328845
51	0x3de99508	0.114053786
52	0x3dca45ed	0.098766185
53	0x3e215e6e	0.15758678
54	0x3dd646d9	0.10462732
55	0x3e0b78cc	0.13620299
56	0x3dc11149	0.09427125
57	0x3dbb2f94	0.09139934
58	0x3e175d9a	0.147818
59	0x3dd15af7	0.10222428
60	0x3e1b9b63	0.15195994
61	0x3e0bda4a	0.1365749
62	0x3dd21801	0.10258485
63	0x3dcf13a2	0.101111665

net.0.weight f4 [64, 45]
0	0x3d8cdd41	0.06878138
1	0xbe015488	-0.12629902
2	0xbcff2c7d	-0.031149143
3	0x3e0ae224	0.13562828
4	0xbdffa350	-0.12482321
5	0xbd4a94bc	-0.04945825
6	0x3e0d9280	0.13825417
7	0xbc65d47f	-0.014027714
8	0xbc71c341	-0.014756025
9	0x3bff56c0	0.007792324
10	0xbd7f892c	-0.062386677
11	0xbd0b154c	-0.033955857
12	0x3cf85990	0.030316144
13	0xbd05ee63	-0.032698046
14	0x3c5e5bac	0.013571661
15	0xbdf56d16	-0.11983697
16	0x3d79cc72	0.06098599
17	0x3ddf3a6b	0.10899814
18	0xbd57dc28	-0.05270019
19	0xbdb850a9	-0.0899976
20	0xbab8255f	-0.0014049223
21	0x3ce2cfb5	0.027686933
22	0x3da8174f	0.08207571
23	0x3d8575ea	0.06516631
24	0xbcf0cb8e	-0.029393937
25	0x3d01acec	0.03165905
26	0xbd9ea358	-0.07745999
27	0x3dfd4124	0.1236594
28	0xbda46aba	-0.08028169
29	0x3d00d00f	0.03144842
30	0x3c7dbe78	0.015487306
31	0x3dcdb661	0.10044552
32	0xbdb55efa	-0.08856006
33	0xbd9e28ce	-0.077226266
34	0xbd825684	-0.06364158
35	0xbdb1616e	-0.08661161
36	0x3df8ed0e	0.121545896
37	0xbe056636	-0.13027272
38	0x3b086395	0.0020811309
39	0xbddc5933	-0.10759201
40	0x3e071c53	0.13194399
41	0xbd05ce41	-0.032667402
42	0xbdf7ef0a	-0.1210614
43	0x3df340c2	0.11877586
44	0xbb208981	-0.0024496021
45	0xbd011b67	-0.031520274
46	0x3d319338	0.04335329
47	0xbdc33930	-0.09532392
48	0xbde6d66b	-0.11271366
49	0x3cc8a279	0.024491535
50	0x3de59689	0.11210353
51	0xbdd9905f	-0.1062324
52	0x3d1a9011	0.03773505
53	0xbd074415	-0.033023912
54	0xbe0ab599	-0.13545837
55	0x3dc7edb6	0.09762137
56	0x3da528fc	0.08064458
57	0x3d31c4be	0.04340052
58	0xbdf6adc0	-0.12044859
59	0x3e0bbd34	0.13646394
60	0xbe164efa	-0.14678565
61	0x3c1d5905	0.009603743
62	0xbd90aeff	-0.07064628
63	0xbd8519ea	-0.06499083
64	0x3de56881	0.11201573
65	0xbd0dccbc	-0.034619078
66	0xbde15710	-0.11002934
67	0xbd62719d	-0.05528413
68	0x3dd52774	0.10407916
69	0xbe0c6be0	-0.13713026
70	0xbdf1f760	-0.11814761
71	0x3cde44ca	0.02713241
72	0x3d923d56	0.07140605
73	0x3de1954b	0.110148035
74	0x3dc252c2	0.09488441
75	0x3da979a6	0.08275156
76	0x3c5187df	0.012788742
77	0xbdd551ae	-0.1041597
78	0xbd80c8e4	-0.06288317
79	0xbde88ec6	-0.11355357
80	0x3ddf14cb	0.10892638
81	0xbdbf07d8	-0.09327668
82	0x3e0ab0ac	0.13543957
83	0x3e050cc2	0.12993148
84	0x3ce0016b	0.027344426
85	0xbda943f0	-0.08264911
86	0x3c866305	0.016404638
87	0x3d20e156	0.039277397
88	0x3d3364b4	0.04379721
89	0xbdecc2ae	-0.1156057
90	0xbd2d2b41	-0.04227758
91	0x3db84b27	0.08998709
92	0xbda752f3	-0.08170118
93	0xbdc896f8	-0.0979442
94	0xbd3d542f	-0.04622286
95	0x3df37fe9	0.11889631
96	0xbe14d35d	-0.14533754
97	0xbcf827c3	-0.030292397
98	0xbda36ac2	-0.07979347
99	0xbd637b40	-0.055537462
100	0x3ba69e5e	0.005084797
101	0x3c129ffe	0.008949278
102	0xbd91435d	-0.07092927
103	0xbc4e7a25	-0.012602364
104	0xbd58af40	-0.052901506
105	0xbda331dd	-0.07968495
106	0xbcdc6c5f	-0.026907144
107	0x3c4275fd	0.011868951
108	0xbd6a4ae3	-0.057200324
109	0x3d33df9f	0.043914434
110	0xbdb63f48	-0.08898789
111	0x3deaa44d	0.11457119
112	0xbd014f4b	-0.03156976
113	0x3d9a8065	0.075440206
114	0x3dc02133	0.09381332
115	0x3ca9fd6f	0.02075073
116	0xbdfb1d1b	-0.12261411
117	0xbd964b03	-0.07338526
118	0x3a9bede0	0.0011896454
119	0x3e041f54	0.12902576
120	0xbce0e7ac	-0.02745422
121	0x3ca413c1	0.02002895
122	0xbd44635d	-0.047946323
123	0xbd9e6e0f	-0.07735836
124	0x3d4ef5ed	0.0505275
125	0xbdd131f2	-0.102146044
126	0x3d78295b	0.060586315
127	0x3c1b0d90	0.009463683
128	0xbdcf99a2	-0.10136725
129	0xbd0c1cab	-0.034207027
130	0xbdfbe4ed	-0.122995235
131	0x3d90d871	0.07072533
132	0x3dcc5779	0.099776216
133	0x3e179a4a	0.1480495
134	0x3e13a146	0.1441699
135	0xbc8ce382	-0.017198328
136	0xbdbd78c0	-0.09251547
137	0x3dcf9101	0.10135079
138	0x3db8017a	0.08984657
139	0xbd95ef9a	-0.07321091
140	0xbddbad0c	-0.107263654
141	0x3d2e0486	0.042484783
142	0xbd579d44	-0.052640215
143	0x3a6e60a2	0.0009093379
144	0xbd9216aa	-0.07133229
145	0xbd8dec28	-0.06929809
146	0xbd4161f5	-0.04721256
147	0x3d63a9c9	0.05558184
148	0x3ccc1dfd	0.024916643
149	0xbcf34a86	-0.029698621
150	0xbdf16a18	-0.11787814
151	0xbdb47c3a	-0.08812757
152	0xbc0623dd	-0.008187261
153	0xbd2e4893	-0.04254968
154	0x3e1324ba	0.14369479
155	0xbdb9df35	-0.090757765
156	0xbdf81b83	-0.121146224
157	0xbd3bffbc	-0.045898184
158	0x3da2012d	0.079103805
159	0xbdbc6b03	-0.09200098
160	0xbc8b2794	-0.016986646
161	0xbcc8cea7	-0.024512602
162	0xbddfd966	-0.10930137
163	0xbd948d53	-0.07253518
164	0x3dfe113e	0.124056324
165	0x3d20f076	0.03929182
166	0xbdaa7434	-0.08322945
167	0xbdc76a72	-0.097371
168	0xbdb2db5f	-0.08733248
169	0xbdbdeace	-0.09273301
170	0xbdc0f103	-0.09420969
171	0xbd9b95ce	-0.07596932
172	0x3e0697c7	0.13143836
173	0x3df2f935	0.11863939
174	0xbd7f03d7	-0.06225952
175	0xbdc0775c	-0.09397766
176	0x3defd254	0.11710039
177	0xbd47ca5b	-0.048776966
178	0xbdc48df3	-0.09597387
179	0xbdfb62bc	-0.122746915
180	0xbda69355	-0.0813357
181	0xbda3557d	-0.0797529
182	0xbd81cff2	-0.063384905
183	0xbd9b518b	-0.075839125
184	0xbd8eebab	-0.06978544
185	0xbcfcce58	-0.030860111
186	0xbd5732e1	-0.052538756
187	0x3d88eee2	0.06686188
188	0xbe06553e	-0.13118455
189	0xbde89a64	-0.11357573
190	0xbd641caf	-0.055691417
191	0x3df88f6c	0.121367306
192	0x3dec2f0b	0.1153241
193	0x3deb65f8	0.11494058
194	0xbdacb9a3	-0.08433845
195	0x3d304606	0.04303553
196	0x3d35c996	0.0443817
197	0xbdf2f641	-0.118633755
198	0x3e2f1b88	0.17100346
199	0x3d458c20	0.048229337
200	0x3e06146c	0.13093728
201	0xbc48cb56	-0.01225551
202	0x3c09be8f	0.008407249
203	0x3d0857e8	0.03328696
204	0xbd34ee17	-0.044172373
205	0xbde08cd2	-0.10964359
206	0x3cd5e9f1	0.026112529
207	0x3c8059ef	0.015667884
208	0xbc3b7e76	-0.011443725
209	0x3c1ceb68	0.00957761
210	0x3dd67006	0.104705855
211	0x3da42bf5	0.08016197
212	0xbd82997a	-0.063769296
213	0x3d847adb	0.06468745
214	0xbe06c172	-0.13159731
215	0x3dd4ff22	0.10400225
216	0x3c5b0424	0.013367686
217	0x3e259926	0.16171703
218	0xbd91c115	-0.071169056
219	0x3de04adf	0.109517805
220	0x3dee9b26	0.11650686
221	0x3e05b6c7	0.13058005
222	0xbdc3a3fa	-0.095527604
223	0x3dcad229	0.09903366
224	0x3c913b48	0.017728463
225	0xbc4e97c1	-0.012609423
226	0xbd8d0dec	-0.06887421
227	0x3df7e8a7	0.12104922
228	0x3e1d208d	0.15344448
229	0xbdaf5e35	-0.085628904
230	0xbe092da7	-0.13396321
231	0x3e0ce98a	0.13760963
232	0x3d372959	0.044717167
233	0xbe005d4b	-0.12535588
234	0x3defdaff	0.11711692
235	0x3d0f7a16	0.03502854
236	0x3dd1d97f	0.10246562
237	0x3de2c13a	0.11072011
238	0xbd076ab8	-0.03306076
239	0xbd8e3d00	-0.069452286
240	0xbdcdbfcb	-0.10046347
241	0xbd9ab5b5	-0.07554189
242	0xbd0777b5	-0.033073146
243	0x3de262ac	0.110539764
244	0x3dba5ef2	0.09100141
245	0x3dd0cd6a	0.101954296
246	0xbc985eb3	-0.018599844
247	0xbddeb002	-0.108734146
248	0xbd488b8e	-0.048961215
249	0xbd338865	-0.043831248
250	0x3d663dca	0.05621127
251	0x3cd1565b	0.025553873
252	0x3da471eb	0.08029541
253	0x3cf3e7a3	0.029773539
254	0x3cc820f8	0.024429783
255	0xbdaed3a6	-0.085364625

net.0.bias f4 [64]
0	0x3ab9fed8	0.0014190329
1	0xb6eab18a	-6.9944117e-06
2	0xbc564c19	-0.0130796665
3	0x391660c7	0.00014341167
4	0x3cd7a057	0.026321573
5	0x3d88de4c	0.06683025
6	0xbd4174eb	-0.047230642
7	0xbc997624	-0.018733092
8	0xbdc28a9c	-0.09499094
9	0xbd0632ff	-0.032763477
10	0x3c8efbf5	0.017454127
11	0x3ba244b9	0.00495204
12	0xbaf76cf6	-0.0018877077
13	0xbafb2fb9	-0.0019164003
14	0xbdc9550e	-0.09830676
15	0x3bad4664	0.005287932
16	0xbd4d3260	-0.05009687
17	0xb9eeb335	-0.00045528417
18	0xbda349fc	-0.07973096
19	0x3c3a56db	0.011373247
20	0x3c79dad3	0.015249926
21	0xbaf836dd	-0.0018937249
22	0x3db5359b	0.08848115
23	0x3a572f85	0.000820868
24	0xbcd461e5	-0.025925586
25	0xbd991b5b	-0.07475921
26	0x3abcc5bd	0.0014402192
27	0x3d8ad298	0.06778449
28	0x3bb3d025	0.0054874592
29	0xbd8c9683	-0.06864645
30	0xbdbbff28	-0.091795266
31	0xbd9133f9	-0.07089991
32	0x3a60e614	0.0008579206
33	0x3d439a4b	0.047754567
34	0x3d33dceb	0.043911856
35	0x3b7c66d4	0.0038513439
36	0x3cf3dd8d	0.02976873
37	0x3bb43b60	0.005500242
38	0x3ba841fc	0.005134819
39	0xbcd199f5	-0.025586108
40	0x37eb6208	2.8059832e-05
41	0xbb8cf166	-0.004301238
42	0x3d4d6c96	0.050152384
43	0x37c6c2a9	2.3694085e-05
44	0x3d05edb8	0.03269741
45	0x39c51296	0.00037588616
46	0x3db7707b	0.08957001
47	0xbdb3a5eb	-0.08771881
48	0xbd8fbfd9	-0.07019014
49	0xbd7c8a28	-0.061655194
50	0xbc011799	-0.007879161
51	0x398440b1	0.000252252
52	0x3c952d89	0.01821019
53	0xbb083ce4	-0.0020788247
54	0x3dc65e7d	0.09685991
55	0x3d61b3dd	0.05510317
56	0x3c385685	0.011251097
57	0x3bcae272	0.006191545
58	0x3c80dd92	0.015730653
59	0xba7270af	-0.00092483585
60	0x3d81b4f9	0.06333346
61	0x3d48df22	0.04904092
62	0x3cec37c7	0.02883519
63	0xb9694319	-0.00022245607

net.1.weight f4 [64]
0	0x3f734089	0.9502035
1	0x3f7360be	0.9506949
2	0x3f73b476	0.95197237
3	0x3f72e3a1	0.94878584
4	0x3f73952e	0.95149505
5	0x3f73ff08	0.9531102
6	0x3f764a2a	0.96206915
7	0x3f743ca9	0.9540506
8	0x3f74093d	0.95326596
9	0x3f73b868	0.95203257
10	0x3f735883	0.95056933
11	0x3f73718d	0.9509514
12	0x3f731372	0.94951546
13	0x3f73ddfe	0.9526061
14	0x3f74050d	0.95320207
15	0x3f73807e	0.9511794
16	0x3f731905	0.9496005
17	0x3f73f88d	0.95301133
18	0x3f733903	0.9500887
19	0x3f7377e1	0.95104796
20	0x3f74f13a	0.9568058
21	0x3f734491	0.950265
22	0x3f72a3cd	0.9478119
23	0x3f72fdd4	0.9491856
24	0x3f74503b	0.9543492
25	0x3f733af7	0.9501185
26	0x3f751d50	0.9574785
27	0x3f74e2f3	0.956588
28	0x3f779c4d	0.9672287
29	0x3f74b4a5	0.9558814
30	0x3f734886	0.95032537
31	0x3f7466cf	0.95469373
32	0x3f73ac68	0.95184946
33	0x3f739cae	0.9516095
34	0x3f759262	0.9592649
35	0x3f7386a3	0.95127314
36	0x3f738d22	0.95137227
37	0x3f74126b	0.95340604
38	0x3f75485c	0.95813537
39	0x3f73ab24	0.95183015
40	0x3f72abb6	0.9479326
41	0x3f75b041	0.9597207
42	0x3f747bae	0.9550122
43	0x3f75e688	0.9605489
44	0x3f732f4f	0.9499406
45	0x3f773498	0.96564627
46	0x3f734f1c	0.95042586
47	0x3f72b67c	0.948097
48	0x3f74b8f5	0.9559472
49	0x3f72f0cc	0.94898677
50	0x3f73b433	0.9519684
51	0x3f756559	0.9585777
52	0x3f72dcbd	0.9486807
53	0x3f75759f	0.958826
54	0x3f75154f	0.9573564
55	0x3f753f50	0.9579973
56	0x3f7549f2	0.95815957
57	0x3f73a72a	0.9517695
58	0x3f74e611	0.95663553
59	0x3f73a527	0.9517388
60	0x3f73eb93	0.9528133
61	0x3f73e935	0.9527772
62	0x3f734a51	0.9503527
63	0x3f745dfa	0.95455897

net.1.bias f4 [64]
0	0xbcd8c60b	-0.026461622
1	0x3c9e8bb9	0.019353734
2	0xbb1aec97	-0.0023639554
3	0x3c0deefe	0.008662937
4	0x3932cac0	0.00017050933
5	0xbc7d5124	-0.01546124
6	0xbcd8ef44	-0.026481278
7	0xbaa9fe83	-0.0012969527
8	0xbcce7dd1	-0.025206478
9	0x3c3acbf6	0.011401167
10	0x3cb3897e	0.021916147
11	0xbcdea273	-0.027177071
12	0x3cb1a96e	0.021687236
13	0xbca2e09e	-0.019882496
14	0xbae443a3	-0.0017415177
15	0xbcd949cd	-0.026524449
16	0x3cbae766	0.022815417
17	0xbca76e0d	-0.020438218
18	0x3d1d9b4a	0.038478173
19	0xbcb0052b	-0.02148684
20	0x3c8babf8	0.017049775
21	0xbc8ff393	-0.0175722
22	0xbb75e77b	-0.0037522006
23	0xbc7bf4fb	-0.015378232
24	0xbccbcd08	-0.02487804
25	0x3c82dcf3	0.015974497
26	0xbc01fa43	-0.007933202
27	0xbcc61004	-0.024177559
28	0xbcd10ae6	-0.025517892
29	0xbc13b4da	-0.009015286
30	0xbca6d36f	-0.020364491
31	0xbc8107c6	-0.015750777
32	0x3c389bc3	0.011267605
33	0x3b59c54e	0.0033229175
34	0xbbebebf5	-0.007199759
35	0xbbbfdb6a	-0.0058550136
36	0xbb1ba8fc	-0.0023751846
37	0xbc069ce4	-0.008216117
38	0xbcdd9eef	-0.027053325
39	0x3c1efbc5	0.009703581
40	0xbb00679d	-0.0019593008
41	0x39979906	0.00028914976
42	0xbcc4ba8d	-0.024014736
43	0xbca3f363	-0.020013517
44	0x3b8b6449	0.0042538983
45	0xbc71b372	-0.014752256
46	0x3c987af8	0.018613324
47	0x3c4fc66f	0.012681588
48	0x3c1e14a8	0.0096484795
49	0x380c7b98	3.3493707e-05
50	0x3c742787	0.014902002
51	0xbcb9449f	-0.022615729
52	0xbbe9ea83	-0.0071385517
53	0xbcecebd5	-0.028921047
54	0xbc966c30	-0.018362135
55	0xbb39ee45	-0.002837078
56	0x3ae7ae29	0.0017675805
57	0xbc103b3c	-0.008803185
58	0xbcec1c4c	-0.028822087
59	0x3b011600	0.001969695
60	0xbc8f794a	-0.01751389
61	0xbc68270d	-0.014169467
62	0x3c726537	0.014794639
63	0x3ba3da84	0.0050004143

net.1.running_mean f4 [64]
0	0x3d4e2dcd	0.050336648
1	0xbd3dedb4	-0.04636927
2	0xbca298d1	-0.01984826
3	0x3b240025	0.00250245
4	0xbe037675	-0.12838157
5	0x3e25d0b5	0.16192897
6	0x3e10eaf1	0.14152123
7	0xbe71f600	-0.23628998
8	0xbc892732	-0.016742323
9	0x3c04d432	0.008107232
10	0x3dadb72f	0.08482205
11	0x3e02ae1f	0.12761734
12	0x3d1b7b91	0.03795964
13	0x3e306b64	0.17228466
14	0x3e65e433	0.22450332
15	0x3d4cd940	0.050011873
16	0xbe333a81	-0.17502786
17	0xbde958ea	-0.11393912
18	0xbbfab83e	-0.007651358
19	0x3ae30924	0.001732145
20	0xbc642a9c	-0.0139261745
21	0x3d9705b5	0.073741354
22	0xbe87ea3c	-0.26545894
23	0x3dd65aec	0.10466561
24	0x3dd59728	0.104292214
25	0xbe596a42	-0.2123194
26	0xbdc60e81	-0.09670735
27	0x3e9f60f0	0.31128645
28	0x3e69320e	0.22773
29	0xbe3701d4	-0.17871791
30	0xbe9d6ffd	-0.30749503
31	0x3d9d370b	0.07676514
32	0x3dd89748	0.105757296
33	0xbe6b52e6	-0.22980842
34	0xbe5b01f5	-0.21387465
35	0x3e2ad8cf	0.16684268
36	0xbcb4eb3f	-0.02208483
37	0x3bb35cb1	0.005473696
38	0x3e483162	0.19550088
39	0xbcf64313	-0.03006128
40	0xbd93f86a	-0.072251156
41	0x3e22b35e	0.15888736
42	0x3e35469e	0.1770272
43	0xbe2cf1e1	-0.16889144
44	0x3d639563	0.05556239
45	0xbd8d3c89	-0.06896312
46	0x3dfa2bdd	0.122153975
47	0xbdb7c90b	-0.08973893
48	0x3db61c27	0.088920884
49	0x3d18bc75	0.0372891
50	0xbe355075	-0.17706473
51	0x3e018c7b	0.12651245
52	0xbdb0ec09	-0.0863877
53	0x3e57f5f8	0.21089923
54	0x3e5337c1	0.20626737
55	0x3e17503b	0.14776699
56	0x3d48e462	0.049045928
57	0x3c5e0359	0.013550603
58	0xbca122b5	-0.01966987
59	0x3df6617a	0.12030311
60	0x3e95afa5	0.2923557
61	0x3de8b294	0.11362186
62	0x3c25f802	0.01012993
63	0x3d790ca8	0.060803086

net.1.running_var f4 [64]
0	0x3d72840b	0.059207957
1	0x3dc88f5a	0.09792967
2	0x3df4a82e	0.1194614
3	0x3e0152d0	0.12629247
4	0x3dadc3a7	0.08484583
5	0x3dd0d8a8	0.10197574
6	0x3e122058	0.1427015
7	0x3df4c2cd	0.11951218
8	0x3d8b27f3	0.06794729
9	0x3ddec959	0.10878248
10	0x3e0a4c51	0.13505675
11	0x3d8efdef	0.06982028
12	0x3d918f2b	0.07107385
13	0x3dca0cd8	0.09865731
14	0x3e09a249	0.13440813
15	0x3de40d85	0.11135391
16	0x3dd179fd	0.102283455
17	0x3dcdba89	0.100453444
18	0x3d3e91bb	0.0465257
19	0x3e02611b	0.12732355
20	0x3e1df767	0.15426408
21	0x3daf8598	0.08570403
22	0x3dfac958	0.122454345
23	0x3dc0248b	0.0938197
24	0x3e09faaa	0.13474527
25	0x3df81784	0.1211386
26	0x3dd62f59	0.104582496
27	0x3e15dcfd	0.14635082
28	0x3db630bd	0.08896015
29	0x3dfa01f3	0.12207403
30	0x3de08e8a	0.10964687
31	0x3dc58ad4	0.0964562
32	0x3dd50e2e	0.10403095
33	0x3dd156f7	0.10221665
34	0x3e66714b	0.22504155
35	0x3daec086	0.08532815
36	0x3e1aa1a7	0.15100728
37	0x3dd306f5	0.10304061
38	0x3dd3c168	0.10339624
39	0x3dce210a	0.100648955
40	0x3de72835	0.11286966
41	0x3da454dc	0.08023998
42	0x3e08b447	0.1335002
43	0x3e176028	0.14782774
44	0x3d69e683	0.0571046
45	0x3e04a434	0.12953264
46	0x3d9293aa	0.07157071
47	0x3d87bc31	0.066276915
48	0x3d8cb506	0.06870465
49	0x3ddaaa3a	0.106769994
50	0x3d819d60	0.06328845
51	0x3de99508	0.114053786
52	0x3dca45ed	0.098766185
53	0x3e215e6e	0.15758678
54	0x3dd646d9	0.10462732
55	0x3e0b78cc	0.13620299
56	0x3dc11149	0.09427125
57	0x3dbb2f94	0.09139934
58	0x3e175d9a	0.147818
59	0x3dd15af7	0.10222428
60	0x3e1b9b63	0.15195994
61	0x3e0bda4a	0.1365749
62	0x3dd21801	0.10258485
63	0x3dcf13a2	0.101111665
