bestclf/german/g04.pth (torch, 46462 bytes, 23 tensors)

fc1.weight f4 [64, 45]
00000000: 5778 8f3d 93e1 e4bd 6323 56bd bbf5 e93d
00000010: eec6 04be e5a1 0dbd 9179 003e 6bd8 f3bc
00000020: b0f0 5c3c 5f20 a7bc 98de 00bd 6339 80bd
00000030: 55b3 303d 219f 27bd d3dc 793c 48bd 10be
00000040: 45b7 423d 0a36 f73d 3a30 0cbd 2b5a b7bd
00000050: 8984 ff3b 7ff4 6c3c 0a43 e53d e0b6 b13d
00000060: 252e 4ebd 8bc8 1f3d fc0e d2bd e918 073e
00000070: e282 ccbd b1d3 793d ac93 1ebc 58b8 c63d
00000080: ff79 a0bd 7865 78bd a6dc babd 9633 c8bd
00000090: 80d3 e43d fd52 fabd 1fa5 96bb a0cb f6bd
000000a0: f868 fd3d 0370 5bbc 363b e2bd b358 f33d
000000b0: 0b94 4d3c f770 c1bc 5971 123d be07 f6bd
000000c0: fc60 eebd 2585 af3c accc 0e3e 3d69 d0bd
000000d0: 6d3a 093d 56a6 1cbd ae92 fbbd 6934 bf3d
000000e0: a25f 8e3d a719 0b3d c05d fdbd 9fcb 013e
000000f0: 3671 11be 7f4a 5c3c 6fe5 bfbd 6740 a1bd
00000100: a8c9 003e 6731 1dbd 7d0f cebd cf2c 84bd
00000110: 7a7a f03d d0bb 13be 95f2 0cbe 2414 023d
00000120: 4f16 d43d 1bb4 c63d f62d c03d c32e ea3d
00000130: 2cff 9a3c 6c87 06be 2a55 a4bd eef6 e4bd
00000140: 743e ee3d f444 99bd 265c e83d 8ef3 f23d
00000150: 35f6 f73c 7149 c5bd f1ae 093b c2a8 6a3c
00000160: c47b 893d 4064 fabd aa46 70bd a9e6 ca3d
00000170: 6cf9 c2bd fda5 c9bd 8b97 15bd 3b9e ef3d
00000180: de9b 19be b489 0dbd b942 b7bd 5cc0 8abd
00000190: 784b 843b c936 503c 74aa aebd 6085 cabc
000001a0: fbcc 93bd 6bf4 a9bd f1cf 13bd 020f 8c3c
000001b0: 4a43 96bd a8db 133d 8497 c3bd 3160 e93d
000001c0: 95a9 e0bc ac31 bd3d 8768 d53d 4713 ef3c
000001d0: 88be e9bd 8535 bcbd 6b1d 3bbc 4b92 033e
000001e0: 901a 0ebd 2c59 143d 752a 47bd 42fb babd
000001f0: 9ad4 643d 8c5a d4bd eea4 8f3d a180 9f3c
00000200: 38b0 f4bd 7c03 4fbd 3673 06be c95e af3d
00000210: 8156 de3d da42 1a3e b546 0e3e a609 c3bb
00000220: 1d37 c4bd 7f0b 063e 44cf a23d 99ae 88bd
00000230: 6e41 d9bd 8bbc 873d 0af5 20bd f417 fa3a
00000240: 39ca 30bd 7a12 99bd d1b3 1ebd 2373 073d
00000250: 795b 2a3d 102a 3cbd 1eea 00be b421 babd
00000260: 6417 08bd 1eac 5cbd 217e 0b3e 5391 b7bd
00000270: 78df fbbd 0b2d 8dbd 49a3 c03d a61c ccbd
00000280: c1e1 f53b 5795 ae3a 2b0f 04be 92b3 84bd
00000290: 1f90 0a3e 29a8 703d 353c 5ebd 8646 ecbd
000002a0: c352 f3bd 4045 bbbd d5e8 01be d26f d5bd
000002b0: 345e 003e fe2a d53d 0792 9bbd 8010 96bd
000002c0: cf46 d93d d56b 8ebd 0103 acbd 5f45 02be
000002d0: 6c0a a1bd 2faf c6bd 9149 25bd d42a cbbd
000002e0: 6d93 76bd c0ef e2bc 394e 52bd 9afa b03d
000002f0: 04f6 0abe c1ac f6bd 026d a9bd 46b9 cf3d
00000300: c66a d53d efcc c63d 5380 c2bd cbfc 323d
00000310: b71d 803d efc9 f8bd 0018 193e ad42 1d3d
00000320: caa2 033e 8b1f 9fbc 67e5 9a3c b30b 953d
00000330: 36fc 5fbd 4a0d d8bd 3412 f73b d2dd e1bb
00000340: d403 89bc 7f41 843c ba0c fd3d 2c11 883d
00000350: 957a aebd 7c92 3c3d b074 00be 5bf0 e93d
00000360: 8370 303d ce40 113e 2743 6abd f269 ae3d
00000370: 41f1 093e af95 013e 7a48 bdbd ee66 f13d
00000380: 1439 c03b b835 19bd 62a4 a7bd c124 f43d
00000390: 5f29 0b3e ce31 98bd d6ec 0cbe b022 ff3d
000003a0: 1b17 313d e140 ecbd 6357 df3d d05b 083d
000003b0: 27a0 f13d b404 fe3d 149d 0cbd 57ae 6fbd
000003c0: a1df efbd 381b c2bd b99b bfbc aee2 e33d
000003d0: 31f5 843d cdb6 ca3d a319 2dbd 4a74 c8bd
000003e0: f38b 96bd d1ea 7ebd 87dc 823d de8d b13a
000003f0: 640d d83d bb08 413d 6a14 043d a763 eebd
0.07005375 -0.11175837 -0.05227984 0.114238225 -0.1296651 -0.034578223 0.12546374 -0.029766282
0.013485119 -0.020401178 -0.031462282 -0.06260946 0.043139774 -0.04092324 0.0152504025 -0.14134705
0.04753806 0.12070854 -0.03422568 -0.08952745 0.007797782 0.014462589 0.11194427 0.08677459
-0.050336976 0.039009612 -0.10256764 0.13193096 -0.099859014 0.0609929 -0.009678762 0.097031295
-0.07835769 -0.060643643 -0.091241166 -0.09775464 0.11173153 -0.1222286 -0.0045973207 -0.12050557
0.12373537 -0.013393405 -0.1104645 0.118821524 0.012547503 -0.023613436 0.035752628 -0.120131955
-0.11639592 0.021425793 0.13945264 -0.101763226 0.033502985 -0.038244568 -0.12283836 0.09336168
0.06951834 0.03396001 -0.12371397 0.12675332 -0.14203343 0.013445496 -0.09369933 -0.07873612
0.12576926 -0.038377192 -0.10061548 -0.06453859 0.117421106 -0.14427114 -0.13764413 0.03175749
0.103558175 0.09702321 0.09383766 0.114347 0.018920504 -0.13137597 -0.08024056 -0.111799106
0.11633006 -0.07483855 0.11345701 0.118628606 0.030268768 -0.096331485 0.0021008814 0.014322462
0.067130595 -0.122261524 -0.05866114 0.09907276 -0.0952023 -0.09846113 -0.036521476 0.11700102
-0.15000865 -0.034555152 -0.08948273 -0.06774971 0.004037317 0.012708374 -0.08528605 -0.024721801
-0.07216831 -0.08298572 -0.03608698 0.017097 -0.07337053 0.036098152 -0.09550384 0.113953
-0.027424613 0.0923799 0.10420328 0.029183997 -0.11413294 -0.091898955 -0.011420588 0.12848775
-0.0346933 0.036217853 -0.048624475 -0.09129955 0.055866815 -0.10368833 0.0701388 0.019470515
-0.119476736 -0.050540432 -0.13129887 0.08563001 0.10856343 0.15064564 0.1389416 -0.005952078
-0.095808245 0.13090323 0.07949689 -0.06673927 -0.10608183 0.066277586 -0.039296187 0.0019080625
-0.043161605 -0.07474227 -0.038745705 0.033068787 0.04159114 -0.04593855 -0.12589309 -0.090884596
-0.033225432 -0.05387508 0.13622333 -0.08963265 -0.12298483 -0.06893357 0.09406144 -0.09966402
0.0075037186 0.0013319653 -0.12896411 -0.06479563 0.1353154 0.05875412 -0.054256637 -0.11536889
-0.1188102 -0.09144068 -0.12686475 -0.10421719 0.12535936 0.10408591 -0.07596212 -0.07327366
0.10609209 -0.06954161 -0.083990104 -0.12721775 -0.07863316 -0.09701382 -0.04035336 -0.09920278
-0.06019919 -0.027702212 -0.05134413 0.086415485 -0.1357041 -0.12044669 -0.08272745 0.1014276
0.10420756 0.09707057 -0.09497132 0.043698113 0.06255668 -0.12147891 0.14950562 0.038393665
0.12855068 -0.01942422 0.018908216 0.07277622 -0.054683886 -0.1054941 0.007540012 -0.006892898
-0.016725458 0.016144512 0.12355943 0.066439 -0.085194744 0.046038136 -0.12544513 0.11422797
0.04307605 0.14184877 -0.057192948 0.08516301 0.13470937 0.12654756 -0.092423394 0.117872104
0.0058661792 -0.037404746 -0.081856504 0.11921073 0.1359 -0.074313745 -0.1376222 0.12457788
0.043234926 -0.11535812 0.109053396 0.033290684 0.11798125 0.12403241 -0.03432949 -0.058515873
-0.11712576 -0.09477848 -0.023389684 0.1112722 0.06492079 0.09898148 -0.042260777 -0.097878054
-0.07350912 -0.062235657 0.063897185 0.0013546308 0.10549429 0.047127467 0.03224603 -0.11640101

fc1.bias f4 [64]
00000000: 26e4 a1bc 5060 26b9 a349 20bd f133 9439
00000010: 1d57 5d3d 29dd c53d 8c43 9cbd 9de5 3abd
00000020: 6868 00be 67dd 79bd 40f7 343d 26d1 40bc
00000030: a427 9b3c 678e c9b9 1fdc 03be e115 f23c
00000040: e064 a2bd 9bf2 413b 0af4 e0bd fb03 183d
00000050: 44a1 2a3d f5ab 713b 353e f33d 1b21 aabc
00000060: 9d91 5bbd 8c88 d6bd 5d58 5f3a b3df c73d
00000070: dccd ecbb 3fb0 c9bd f227 fabd ab6d cebd
00000080: d441 52bb d262 9d3d a923 953d 74fc 74bc
00000090: feaa 6c3d c88b 05bc c684 34bc 5b0c 5abd
000000a0: 056b 44b8 5be6 393b 3883 a23d 1564 1e3a
000000b0: 1993 793d 617d 71b9 df83 f53d dba6 f1bd
000000c0: a7ef ccbd 55f1 babd b393 06bd 9aab 16bb
000000d0: 437a 383d 424c cebc 9e5a 023e a80e ad3d
000000e0: f66a 173d bdab fb3c b6e5 2c3d 317f c0bc
000000f0: 137d be3d 5123 a03d 5b88 683d 190b b23c
-0.01976211 -0.00015866873 -0.039132725 0.0002826746 0.054038156 0.096613236 -0.07630071 -0.045629133
-0.12539828 -0.06100216 0.04418111 -0.011768615 0.0189398 -0.00038443806 -0.12876938 0.029551448
-0.07929397 0.0029594067 -0.10984047 0.03711317 0.0416577 0.0036876176 0.118770994 -0.020767739
-0.053605665 -0.10475263 0.0008519942 0.09759464 -0.007226689 -0.098480694 -0.1221465 -0.10079511
-0.0032082694 0.07684864 0.07282192 -0.014952768 0.05778026 -0.008151002 -0.011017984 -0.05323444
-4.682971e-05 0.0028366062 0.07935184 0.0006042135 0.0609313 -0.00023030258 0.11988043 -0.11799403
-0.100066476 -0.09128062 -0.0328557 -0.0022990466 0.045038473 -0.025182847 0.1272988 0.08450061
0.03696724 0.03072154 0.042211257 -0.02349815 0.093012 0.07819236 0.056770664 0.021733807

fc2.weight f4 [64, 64]
00000000: 245e b1bc c287 b5bc 7a90 cf3b 8442 e83a
00000010: 0cd7 2b3d 857b 7dbd d371 573d c600 503d
00000020: bc5d fb3c ea6b 8d3d d27a 6e3d 59ca 583d
00000030: c37c cc3c e96e 683b 77dd 26bd 2895 0f3d
00000040: 31df edbb 5cf5 c4bd c51c 6f3d 7b41 ab3d
00000050: 4388 9cbd 1827 293c 1206 9ebd 0906 c43d
00000060: 4cff 59bd 8f70 12bd 0092 a83d a033 89bd
00000070: 8a14 b7bc a74b b93d a4ca bfbb e2ca 19bd
00000080: 702c 42bd 23c5 d23d 6034 77bb 706c f3bc
00000090: e947 3dbd d3dd 96bc 5ebe 48bd 197a ca3d
000000a0: 2ce2 98bc 0607 63bc effb 7f3d 5166 1c3b
000000b0: af89 45bd 3ef5 b0ba 82ca 8ebd 0a1b 8c3d
000000c0: 6113 d13c 14cb 503c ef71 de3b ab17 0ebd
000000d0: 8215 ff3c 40ba 93bc 5692 57bd 1ea2 b63d
000000e0: 426a 9ebd cf6b adbd 848e 013d 5dda a7bc
000000f0: 21d2 7ebd a132 50bd 29be 223d b005 4dbd
00000100: cb97 8ebd 626c 9e3a b127 883d e28d 063a
00000110: c7b0 593d d806 eebc b1fc 0f3d bd79 a53d
00000120: 6f13 f8bc 9e8c bfbd 429e a03d 45de 87bd
00000130: 012e a0bd 5be2 8cbc 3ef3 83bd b383 ad3d
00000140: a59a 963d 9019 5b3d 51f6 a1bc bd8b 853d
00000150: f4f9 833d 98bc 88bd 45cf e33d e52a dbbb
00000160: db99 aabd c11d 94ba fc8e 043d 1ec3 163d
00000170: 63fd 71bd 03db 123d f3f6 483d a511 ae3d
00000180: d9e9 f9bb 6668 fabc c798 f53d 7759 9bbd
00000190: b7d2 8fbd a89a 15bd 7280 4c3d 4075 f7bd
000001a0: 86b3 003e 4739 123c 7e9d 19bd cf52 abbd
000001b0: 27b4 e63d 6b2c c4bc 2f46 86bd 437c 9fbc
000001c0: 1e1a 8f3d 39c3 ac3d aede 2b3d 50f8 91bc
000001d0: 7f14 86bc fda6 c4bd 3053 0cbd 499a cbbc
000001e0: d851 3b3d 8266 ff3d 385c cabd 5aa1 e73d
000001f0: 85a6 023e 45b5 dd3c 9bed 593d b6ae 3b3d
00000200: b790 c8bd 522a b3bc 7075 cebd c9b7 7dbc
00000210: 8568 ab3d 0509 983c 1996 cbbb c374 e2bd
00000220: 3a67 c73d 70b9 a13d f921 3c3c 4ba8 cfbd
00000230: f9b5 bfbd dd91 aabd 35b7 d03d d66d 87bc
00000240: deb5 00bc 2e51 b93c 39d9 b3bc 889c 59bd
00000250: a564 bb3d c722 cabd 29e1 dfbc 04bb 9b3d
00000260: 7818 3d3d 8e6a 573d fd80 80bd b391 d4bd
00000270: 9a83 8c3d 7cd5 b339 4697 703d a008 c5bc
00000280: e93f 6f3d 0baf 953d 0141 f93d 83c5 bfbd
00000290: 20ea 61bd ebb2 b13c 2060 053d 83d0 a9bd
000002a0: b6f6 d0bd b859 b1bd 4fd4 b8bb 217f cbbb
000002b0: 3239 bbbd 7c27 8d3b 535f bcbc 177b d8bd
000002c0: 6dd4 63bd 3a7b 253c 7f45 eabd 57fc 073b
000002d0: 5a1f b3bd 7ba2 c4bc c718 b9bd 883a 983d
000002e0: b643 bc3d a072 eabd 54ef a3bd ff18 923d
000002f0: f01f 073e 6a4c b53d 3096 e13d 57b0 153d
00000300: c154 bcbc 7e57 0ebd d149 c83d 2206 94bd
00000310: 85be a33c 11a6 6fbc fae8 c0bd 0651 173d
00000320: a5c5 abbc aa2f e03d 3e00 17bd 4958 87bc
00000330: 1dc9 a2bd 8b85 c33d 3af6 60bc 8720 ddbd
00000340: dec5 99bd c2f3 0c3d 1901 f0bd 2a74 643b
00000350: d7d5 d1bd e951 c1bc 32e6 aa3d 1ae9 6f3d
00000360: 8d26 0f3d 3227 1e3c 1f0a ac3c f0ff 83ba
00000370: 1900 cfbd 3a63 d3bd bc97 a13d f09c 4d3d
00000380: f343 013e e202 1ebd 715c 0ebd 458a c73d
00000390: cc5f be3b 606b 2dbd 692a 833d 54b0 c33d
000003a0: 89b7 353c 06f3 243d 5de6 c13d 0e0f 1ebc
000003b0: 6946 d5bd 30bf b13d 63c3 d3bd 0b18 dcbd
000003c0: 2db1 f63d 57b1 6cbd 6611 a3bd 391f 753d
000003d0: fe40 babd e6ac ef3d 7a10 943d f57e d13d
000003e0: 3f7a 533d 9078 a33d 6a41 733d e5e7 d93d
000003f0: 7f8c e9bc 87c4 e33d 64af a23d 3479 923d
-0.021651335 -0.022159461 0.0063343616 0.0017720019 0.04195313 -0.061885376 0.052598786 0.050781988
0.030684344 0.069053486 0.0582226 0.05292735 0.024961835 0.0035466498 -0.04073855 0.035054356
-0.0072592725 -0.09617111 0.058377046 0.08362099 -0.07643177 0.010324262 -0.077160016 0.095714636
-0.053221986 -0.035751875 0.08230972 -0.066993 -0.022348661 0.09047633 -0.005853014 -0.037547
-0.04740566 0.10291507 -0.0037720427 -0.029714793 -0.046211157 -0.01841632 -0.049009673 0.098865695
-0.018662535 -0.013856655 0.062496122 0.0023864696 -0.04822701 -0.0013500822 -0.06972219 0.06841095
0.025521936 0.01274373 0.0067884843 -0.03469054 0.031138185 -0.018033147 -0.05262979 0.0891764
-0.07735111 -0.084678285 0.031630054 -0.020489866 -0.062212113 -0.050829533 0.039732132 -0.050054252
-0.06962546 0.0012086744 0.066481955 0.00051328365 0.053147104 -0.029055998 0.035153095 0.0807986
-0.030282704 -0.093529925 0.07842685 -0.066341914 -0.078212745 -0.017197778 -0.06442879 0.08472385
0.07353715 0.053491175 -0.019770773 0.065207936 0.06444159 -0.066765964 0.11123518 -0.006688463
-0.08330127 -0.0011300371 0.032362923 0.036807172 -0.05907954 0.035853397 0.049063634 0.08499459
-0.0076267538 -0.03056736 0.119920306 -0.075854234 -0.070226125 -0.036524445 0.049927182 -0.120829105
0.12568483 0.008924789 -0.037503712 -0.08365404 0.1126483 -0.023946961 -0.06556355 -0.019468432
0.06987403 0.08435673 0.04196041 -0.0178186 -0.016367195 -0.09602163 -0.03425902 -0.024853842
0.04573235 0.12470724 -0.098808706 0.11310072 0.12758835 0.027063975 0.053205114 0.045820914
-0.09793227 -0.021870766 -0.10080993 -0.015485712 0.08369545 0.018558988 -0.0062129614 -0.11057427
0.09736486 0.078966975 0.011482709 -0.10139521 -0.093608804 -0.083286025 0.10191194 -0.016531866
-0.0078558605 0.022621717 -0.021954166 -0.053127795 0.09150056 -0.098699145 -0.027329044 0.0760403
0.046165913 0.052591853 -0.062746026 -0.103793524 0.068610385 0.000343006 0.058738016 -0.024051964
0.05841056 0.073087774 0.12170602 -0.09363844 -0.05515492 0.02169176 0.032562375 -0.082917236
-0.102033064 -0.086596906 -0.0056405435 -0.0062102233 -0.091417685 0.0043076854 -0.022994673 -0.105703525
-0.055622507 0.01010018 -0.114390366 0.0020749772 -0.08746214 -0.024003258 -0.09037929 0.07433039
0.09192602 -0.11447644 -0.080046326 0.07133674 0.13195777 0.088524655 0.11014974 0.036545124
-0.022989633 -0.034751408 0.09779704 -0.07227732 0.019988308 -0.014626996 -0.09419437 0.036942504
-0.020968268 0.10946591 -0.036865465 -0.01652159 -0.079485156 0.09546956 -0.01373058 -0.1079722
-0.07508443 0.034412153 -0.11718959 0.0034859278 -0.10245865 -0.023598628 0.083446875 0.058571912
0.034948874 0.0096529 0.02100092 -0.0010070782 -0.101074405 -0.1032166 0.07890269 0.050198495
0.12623577 -0.038576968 -0.034756128 0.0974317 0.0058097597 -0.04233873 0.064045735 0.09555116
0.0110911215 0.040270828 0.094677664 -0.009647144 -0.1041382 0.08679044 -0.103400014 -0.10746773
0.12045512 -0.057786312 -0.07962303 0.05984423 -0.090944275 0.117029 0.07229705 0.10229293
0.051630255 0.0798198 0.059388556 0.106399335 -0.028509377 0.11121469 0.07943609 0.07152024

fc2.bias f4 [64]
00000000: ae12 a33d 7c77 99bd ed22 d13c e2a8 903d
00000010: 1cd3 9bbc 9f77 9cbd cbdc 4abd 0ffd 6f3d
00000020: 820a fbbc a62d 12bd 7d97 c43d b648 623b
00000030: 5a25 0b3d a709 2b3c 2d05 1e3d 9f67 7bbc
00000040: 0de4 d93b d7aa bb3d 5a6f fb3c 155d 7c3d
00000050: f36b 58bc 0119 0ebd d4c9 a83d f85b b83a
00000060: 2265 7fbc 26f4 d4bd b669 b03d e466 b63d
00000070: 0a0b 5a3d 39fd 54bd 6855 933d 576d cdbd
00000080: ce5b 293b ea93 b6bd 7061 38bc abdc 65ba
00000090: 695b b43c a665 abbd 2daf 6cbb 6ee2 25bd
000000a0: fa6c 693a 02b0 93bd 4a50 af3d 5b8e 4c3d
000000b0: f40d 9ebd a8b8 183c 20cf 6ebd 7a6f 55bb
000000c0: 4217 0cbd 4a49 11bd 7d7f 033d bee4 6abd
000000d0: 833c bd3b cdb7 1a3d 933f 673c 053c 953a
000000e0: 5c8f 48bd 9157 8bbd 55f6 97ba 76a8 a53d
000000f0: 3e82 80bb 7d1c 64bd 2347 c7b9 56f3 31bc
0.07962547 -0.07493493 0.02552935 0.07063462 -0.019021563 -0.076400034 -0.04952697 0.058590945
-0.030644659 -0.035688065 0.095992066 0.0034528202 0.033971168 0.010439313 0.038579155 -0.015344529
0.0066495 0.091634445 0.030692745 0.061612207 -0.013209331 -0.034691814 0.08241621 0.0014065495
-0.015588077 -0.1039813 0.08613913 0.089063436 0.053233184 -0.051999304 0.07194024 -0.100306205
0.0025842073 -0.08914931 -0.0112537 -0.0008768539 0.022016244 -0.08368997 -0.0036115155 -0.040499143
0.00089044834 -0.07211305 0.08560236 0.04994045 -0.07717505 0.009321369 -0.058303 -0.0032567666
-0.034201868 -0.035470285 0.032104004 -0.05734705 0.005775036 0.037772942 0.014114278 0.0011385685
-0.048964843 -0.06803811 -0.0011593798 0.08088772 -0.003921776 -0.05569123 -0.0003800924 -0.010861238

out.weight f4 [1, 64]
00000000: b922 703c 260f 72bd cf89 1bbd 5bca 44bd
00000010: c810 89bc c797 473d a104 e63d 0fbb c2bd
00000020: 60bb bf3b 70f6 8dbd a6ce 45bd 7355 3439
00000030: 3f70 cd3a 1a39 023d 3b45 76bd 6b4f 193d
00000040: f97b bbbc b07d b83c a633 d73b 57f5 a93d
00000050: 0d0a b5bd 4fc0 b4bc df84 81bd b711 71bb
00000060: d127 f23c 86ee 1dbd c388 92bd 0de4 ba3d
00000070: 7e4c e33d 1891 dbbd ad1c 6d3d 7c7d 2b3d
00000080: 59b2 8dbc f796 0dbd 3716 cb3d 3600 ff3c
00000090: 9f98 94bd 5372 45bd 159c 023d 7117 4dbd
000000a0: ba4e b1bc 6cd7 ac3d 8ac5 773d d258 dd3d
000000b0: a8c2 91bb 6595 e13d 889f 81bc b313 16bc
000000c0: 3575 cfbb 78d3 9dbc 325c 3ebc ebed a93d
000000d0: a5af cfbc 4cf7 d03d 7b56 813d 4761 98bd
000000e0: 10a4 bebd a54b 363c 3e12 bd3d 681f 02bd
000000f0: a1c5 72bd facb 4f3d f41d 1bbd 6073 d9bd
0.014656716 -0.059096478 -0.03797322 -0.048044544 -0.016731635 0.04872873 0.11231352 -0.09508335
0.0058511943 -0.0693177 -0.04829278 0.0001719797 0.0015673711 0.031792738 -0.060124617 0.037429255
-0.022886263 0.02252087 0.0065674363 0.08298748 -0.08839808 -0.022064356 -0.06324171 -0.003678424
0.029560002 -0.03855755 -0.071549915 0.091255285 0.11098574 -0.10721034 0.057888675 0.041867718
-0.017296957 -0.0345678 0.099163465 0.03112803 -0.07255673 -0.04820473 0.031887133 -0.050071184
-0.021643985 0.08439526 0.060491122 0.10807957 -0.0044482537 0.11014823 -0.01582314 -0.00915997
-0.006331111 -0.019265875 -0.011618661 0.082973324 -0.025352309 0.10203418 0.06315323 -0.07440429
-0.09308636 0.0111264335 0.09231995 -0.031768233 -0.059270505 0.050731637 -0.037870362 -0.10617709

sep_conn.weight f4 [64, 45]
00000000: f6a5 03be 8b46 a0bc 843a 1fbd f59a 91ba
00000010: a4d6 f63d 3854 e0bd 8b42 ef3d 93e8 f1bd
00000020: 78a1 c9bd 8f85 1e3d 7242 91bd 393a 413d
00000030: d002 403d 1e51 24bd 863d 853d abf7 eb3d
00000040: db4a 333d ec9f 10bd 8c17 bebc 73fc 15be
00000050: 6e32 0a3e 0030 0abe 8b39 1dbd 08d3 adbd
00000060: bb82 393d 93c7 583d b8ce 093e 474e 6dbd
00000070: b4e9 a5bd f1a4 7a3c 48d9 fdbc ecbf dcbc
00000080: c3a3 71bd 1c71 efbc fd84 ac3c 508a 4dbd
00000090: dd38 c2bd 39fd ed3d ef4a 12bc 7a7d c33c
000000a0: 8d23 87bd dcb6 d23d 08bf aabc 699b a5bd
000000b0: 585e a8bd 2209 c7bb 5b0d bd3d a68e 043e
000000c0: e3ee dfbd bfc3 63bd 9022 683d bc44 ea3d
000000d0: 09b4 8abd 6fb2 0c3c 93e2 913d 1b74 83bd
000000e0: 29b3 91bd b7a1 ea3d c192 083e e7a5 5dbd
000000f0: 2c3e 413b bea2 57bd c6c8 a3bc ad84 fa3d
00000100: b4df 0f3e be41 e53d e856 103e 922e 803d
00000110: ee5e cabd dd15 443c 2c9c d03d 69dc febd
00000120: 9451 01be cbc3 e73c ba18 9dbc 588e 723d
00000130: 69a1 e63d 7b73 53bd 899c 103e f6d7 8fbd
00000140: 97aa 773c 1b29 84bd 0d63 00be a954 12bd
00000150: 9f93 06be 99cd b7bd 98bd 8fbd 5fc0 c3bb
00000160: eea8 25bd 291f c93d 7b3e 04be 6e0a 7fbd
00000170: 9166 fcbd 6b7a 1ebd a604 32bd 16d5 d8bd
00000180: 623b 013e 9ac5 f8bb 3244 7abd 2a0e 17be
00000190: 026d ef3b 84f9 bbbd b672 cc3d 5ddc f8bd
000001a0: 02d1 89bd c530 f03d 60d8 87bb f310 e43d
000001b0: cda1 10be 53aa 19bd 3aa0 b4bd 72d8 433d
000001c0: f6dd fa3b 87fe bbbd 9729 0fbe 2fa9 8c3d
000001d0: 6245 89bd 6f51 a9bd e0fe c03d ac43 c33d
000001e0: 39ea 0dbe 0da3 96bd 19bb 11be 9538 0abc
000001f0: 0f30 eabd 220d dc3d 0f71 873d e020 d23d
00000200: 5b11 b0bc 37ea 21bc 6940 c23d 19d3 f13d
00000210: 30af 013e 3e1d 303d 895f fd3d 0537 90bd
00000220: b2dd d53d cfa5 90bc 623c a8bc 6ce0 953d
00000230: 3a1e cc3a a7b7 f13d 2e98 923d dcb3 f7bd
00000240: ead7 bebd 4f14 113d 44f2 5dbd bfc0 16ba
00000250: 2ef1 793d 315f e53d 56c7 df3d 52e8 e6bc
00000260: fa50 d2bc f2e3 3ebd 09ef 683d 0940 1cbd
00000270: f3cd 143e ee4b 8dbd 38a7 e33d 1157 a83c
00000280: b12a c7bd 00de 39bd 19fa c33d 4260 66bd
00000290: 84e8 eabc f60d 533c 5bc4 0e3e 93f1 06bd
000002a0: e9f6 e6bd 033b 113e 2852 9d3c 6631 98bb
000002b0: 5486 d3bd 19c6 f3bd 8b2c 643d f36c abbd
000002c0: 95c4 113e fbf5 a03d 1eff 063e d4a3 983d
000002d0: 246d 023e 7cf5 243b 7087 713d b106 cbbd
000002e0: 1e3a c0bc c8d1 793c c4c0 ab3d d58f 4fbb
000002f0: 5e6a f5bd b297 18be 2d21 7d3d ea95 c7bd
00000300: 602a f0bd 1cbc 16be 739e 04be 455c 6bbc
00000310: 308c d3bc cf23 d73d addb 16be 4560 bfbd
00000320: 9343 b5bd 8a97 0d3e 5839 6ebd 95fd 803c
00000330: f138 3e3d d9cc 073e 594d 983d ce7e 09be
00000340: 8aa1 dabd 641b 4abd dd8f 41bc bb51 bd3d
00000350: 5027 cd3c 51a3 5fbd 93ac 11be a18d 94bc
00000360: 9f64 9dbd 4375 d4bc 5f82 c6ba 2d96 06bd
00000370: 6fd7 c9bc 6737 62bd 2792 e2bd b0e6 133d
00000380: dffd 74bd d1a4 93bd e7f3 023e 6eb6 bd3c
00000390: 1fc7 f33d 78ea 133c 7074 5c3d 521f 07bd
000003a0: af26 843d dd92 c6bd 5ccc 60bd a0c3 b53d
000003b0: 139c 433c 270c 17be a965 803d 7e10 cbbd
000003c0: 907c 2f3d 98bb 4ebd 9801 b7bd bede dbbd
000003d0: 79f6 80bd a003 32bd d958 653d 9901 f5bd
000003e0: a859 5fbd af80 d3bd e4cf 00be 55ab b23c
000003f0: f035 bcbd 44fb 3abd b1ae e33c 4a6b 1b3d
-0.12856278 -0.019564888 -0.038874164 -0.0011108803 0.12052658 -0.109535635 0.11682614 -0.11811938
-0.09845251 0.03870159 -0.070927516 0.047174666 0.046877682 -0.040116422 0.06505875 0.11521848
0.04377256 -0.035308763 -0.023204587 -0.14647083 0.134958 -0.13494873 -0.038384955 -0.08487517
0.04529069 0.052924704 0.13457763 -0.05793598 -0.08101216 0.015298114 -0.030987397 -0.026946984
-0.058994066 -0.02922874 0.021059508 -0.050180733 -0.09483502 0.11620564 -0.008928998 0.023863543
-0.06598578 0.10288784 -0.020843044 -0.08086283 -0.0822112 -0.0060740868 0.09231063 0.12945041
-0.10934236 -0.0556066 0.056673586 0.11438891 -0.0677262 0.008587464 0.07123294 -0.0641863
-0.0711425 0.11456626 0.13337232 -0.054113295 0.002948652 -0.052645437 -0.019993197 0.12232337
0.1405018 0.1119418 0.14095652 0.062588826 -0.09881388 0.011968103 0.101860374 -0.12444384
-0.12628776 0.028291604 -0.01917683 0.05921778 0.11261255 -0.051623803 0.14122213 -0.07023613
0.015116355 -0.06453153 -0.12537785 -0.03572527 -0.1314225 -0.089747615 -0.07018584 -0.00597386
-0.040444307 0.098203965 -0.1291446 -0.062265806 -0.123242505 -0.038690966 -0.043461464 -0.10587518
0.12620309 -0.0075919153 -0.061100192 -0.14751497 0.007306696 -0.09178451 0.09982817 -0.12151406
-0.06729318 0.11728052 -0.004145667 0.11136045 -0.14124222 -0.03751595 -0.08819623 0.04781384
0.0076558543 -0.091794066 -0.13980709 0.06868207 -0.06702687 -0.08267485 0.094236135 0.09534392
-0.1385888 -0.07355318 -0.14231528 -0.008436342 -0.11434948 0.107446924 0.06613361 0.10260177
-0.02149265 -0.009882501 0.094849415 0.11807842 0.12664485 0.042996638 0.123717375 -0.07041744
0.10442676 -0.017657189 -0.020536605 0.07318196 0.0015572973 0.11802607 0.07157932 -0.12094852
-0.09318526 0.03541976 -0.05418612 -0.00057507673 0.061021022 0.11199797 0.10926692 -0.02818695
-0.025673378 -0.046604104 0.056868587 -0.038147006 0.14531688 -0.06899248 0.11115879 0.020549329
-0.097249396 -0.04537773 0.09569187 -0.056244142 -0.028675325 0.0128817465 0.13942091 -0.032945227
-0.11277563 0.14182667 0.019204214 -0.0046445606 -0.103283554 -0.119030185 0.055706542 -0.0837039
0.14235146 0.07859417 0.13183257 0.07453123 0.12736946 0.0025170734 0.058967054 -0.09913386
-0.023465212 0.01524777 0.083863765 -0.0031671424 -0.119831786 -0.14901617 0.061799217 -0.09745391
-0.117268324 -0.14720196 -0.12951069 -0.0143652605 -0.025823683 0.10504877 -0.14732237 -0.09344534
-0.088507794 0.13827339 -0.058160156 0.015745917 0.046441022 0.13261737 0.07436628 -0.13427278
-0.106753424 -0.049342528 -0.011814085 0.092441045 0.02504316 -0.05459911 -0.14225988 -0.01813394
-0.076852076 -0.025934821 -0.0015145055 -0.032858063 -0.02463886 -0.055228617 -0.110630326 0.036108673
-0.059812423 -0.072091706 0.12788354 0.023158278 0.11903214 0.00902807 0.05382198 -0.032988854
0.06452691 -0.09695981 -0.054882392 0.08875203 0.011939066 -0.1475073 0.0626939 -0.09915255
0.0428434 -0.050471872 -0.08935851 -0.10735844 -0.06297011 -0.04346049 0.055992935 -0.11963195
-0.054528862 -0.10327279 -0.12579304 0.021810213 -0.09189975 -0.04564978 0.02779326 0.037944116

sep_conn.bias f4 [64]
00000000: dee0 06be 52ce 623d b1ac b2bd 7478 09be
00000010: 6f45 bd3d 5676 14be 6a90 b83c cea6 7fbd
00000020: f594 b53d 2c8a c23d eee1 be3d b499 04be
00000030: 2b9a cabd 5246 c33d 3ecc aabd a845 a83d
00000040: 969e 123e 0ab1 0ebd 4e38 113e 0e0f 68bd
00000050: 937b e63b 6366 bd3d 5b8d 043e 7224 aa3c
00000060: ac10 8abc aaa2 123c aad1 7f3b d940 07be
00000070: bbc6 543d 560a e73d 869f d53d 68a1 88bd
00000080: 8b9c ef3d 6c5b c73b 2e3e 1d3d d397 9b3d
00000090: b651 acbc 80d0 6c3d 4978 6f3d 945c 1fbd
000000a0: 1355 05be f564 823d a37d 103e 3a5e fa3d
000000b0: a2f5 85bd 3fd7 c4bd 622a 14be 4289 f8bd
000000c0: 6d53 93bc cf2f aa3d faea 90bd 64a9 5fbd
000000d0: 31a6 e6bd 3cb6 16bd 994a be3d 34d4 04be
000000e0: 50f7 a9bc a387 13be 9d00 893c 2d81 17be
000000f0: 894b 14bd 4d95 ce3d a228 c7bd 3e86 9abc
-0.13171718 0.055372544 -0.087243445 -0.13424855 0.09241759 -0.14498267 0.0225298 -0.062414937
0.08866302 0.094990104 0.093204364 -0.12949258 -0.098926865 0.09534897 -0.08339737 0.08216411
0.14318308 -0.034836806 0.14181635 -0.056654982 0.007033774 0.09248044 0.12944548 0.020769332
-0.016853653 0.008949915 0.0039034882 -0.13208331 0.051947337 0.11281268 0.10430817 -0.06671411
0.1169978 0.0060838964 0.038389377 0.075973175 -0.021035057 0.05781603 0.058464322 -0.03890665
-0.13020734 0.06366912 0.14110427 0.122250035 -0.06540991 -0.096113674 -0.14469293 -0.12135555
-0.017984116 0.083099 -0.07076068 -0.054604903 -0.11262167 -0.036794886 0.09291572 -0.12971574
-0.02074781 -0.1440721 0.016723925 -0.1479537 -0.03620485 0.100870706 -0.09724547 -0.01886284

bn.weight f4 [64]
00000000: e300 7b3f b4f3 7a3f 33f0 7a3f 2f08 7b3f
00000010: 30fd 7a3f d4d8 7a3f 0947 7b3f 6316 7b3f
00000020: 01fa 7a3f 0203 7b3f 91f5 7a3f edfa 7a3f
00000030: 81e2 7a3f 81e0 7a3f c313 7b3f cdff 7a3f
00000040: 70d4 7a3f d504 7b3f 53df 7a3f bfe4 7a3f
00000050: 784c 7b3f 41fe 7a3f 360b 7b3f f0ee 7a3f
00000060: bc43 7b3f 9016 7b3f 520c 7b3f f1df 7a3f
00000070: 0774 7b3f d617 7b3f 3b1e 7b3f 85f4 7a3f
00000080: 8b0d 7b3f e214 7b3f 6717 7b3f 9ff2 7a3f
00000090: 79df 7a3f 70f6 7a3f 0b28 7b3f 9fdc 7a3f
000000a0: d7d5 7a3f 0972 7b3f 3108 7b3f 6127 7b3f
000000b0: f4f4 7a3f e8aa 7b3f edcc 7a3f bdde 7a3f
000000c0: a216 7b3f 72ed 7a3f bee2 7a3f ac09 7b3f
000000d0: 27d5 7a3f 8c0a 7b3f 3d25 7b3f 0f35 7b3f
000000e0: 5150 7b3f 62df 7a3f 7928 7b3f 2d0b 7b3f
000000f0: baf5 7a3f 5ff8 7a3f 3ef0 7a3f 7730 7b3f
0.9804823 0.9802811 0.98022765 0.9805936 0.98042583 0.97987103 0.98155266 0.98081034
0.98037726 0.98051465 0.98030955 0.9803913 0.9800187 0.97998816 0.9807703 0.9804657
0.97980404 0.9805425 0.97997016 0.9800529 0.9816356 0.9804421 0.9806398 0.9802084
0.9815023 0.980813 0.98065674 0.9799796 0.9822392 0.98083246 0.98093003 0.9802936
0.9806754 0.9807874 0.98082584 0.9802646 0.9799724 0.98032284 0.98107976 0.9799289
0.97982544 0.9822088 0.98059374 0.9810696 0.9803002 0.9830766 0.9796894 0.9799612
0.9808141 0.9801856 0.9800223 0.98061633 0.97981495 0.9806297 0.98103696 0.98127836
0.9816943 0.97997105 0.9810863 0.9806393 0.980312 0.98035234 0.9802283 0.98120826

bn.bias f4 [64]
00000000: 470a 69bc 7ac0 db3b 361c d8bb fdf4 763b
00000010: 89d0 d03b 2cee d13b 4096 26bc 7f77 39bc
00000020: 9e48 56bc 997b 34bc 8070 3d3c abe7 3cbc
00000030: 3772 eb3b f5f8 603a 1ad3 58bc e8e1 3bbb
00000040: 0a5c e63b ea01 1cbc 89ab 383c e87a 9ebb
00000050: d2d0 24bc 33b0 77bb 2b95 0dbc 7754 f6b9
00000060: 2476 273c b7ba 34bc f434 863b ac2d fdbb
00000070: 74ae 31bc 61e6 e0ba 363c 71bc 7fcd 32bb
00000080: 8bf5 a93b 8a52 f1bb c993 4ebb 3bc3 11bb
00000090: 4335 25bc bd56 25bc 77a4 37bc d462 48bb
000000a0: be73 5e3b 889d fd3a 24b1 1cbc 67b4 28bc
000000b0: 7955 38ba 34b8 02bb 0d4c 643c a2ca 143b
000000c0: 7199 293c 3940 e53a 7102 3f3a f464 52bc
000000d0: b7b7 1a3c 6f4c 70bc 2272 fdbb 49fd 05bc
000000e0: 5708 15bb c378 d63b c13e 8ebb 3c57 66bb
000000f0: e49a 56bc 0549 35bc a3bf 623b 73e8 0fbc
-0.014223642 0.0067062946 -0.00659516 0.0037682645 0.0063725156 0.006406566 -0.010167658 -0.011319994
-0.013078837 -0.011015796 0.011562467 -0.011529843 0.0071852463 0.00085820194 -0.013233924 -0.0028668586
0.007030015 -0.009521941 0.011271366 -0.004836429 -0.010059552 -0.0037794232 -0.008641521 -0.00046983708
0.010221038 -0.011030844 0.004095668 -0.007726392 -0.0108448155 -0.0017158502 -0.014723828 -0.002728313
0.0051867417 -0.0073645758 -0.0031521192 -0.002224161 -0.010083499 -0.010091481 -0.011208645 -0.0030576484
0.00339435 0.0019349316 -0.009563718 -0.0102969175 -0.00070317794 -0.001994622 0.013934148 0.0022703786
0.010351525 0.0017490453 0.00072864356 -0.012841452 0.009443215 -0.014666661 -0.007734553 -0.008178064
-0.0022740567 0.0065451576 -0.004340977 -0.003514721 -0.013098452 -0.0110647725 0.0034599088 -0.008783448

bn.running_mean f4 [64]
00000000: 580b 8f3d 3897 b4bd 61d0 a3bd c32f 243d
00000010: fe3f 23be 9a19 123e ae9c e73d 5d43 84be
00000020: 1b69 c8bd 3d0a 38bb 7808 8c3d 15ff c13d
00000030: d4cf 8f3d 6df1 423e 27a0 733e ead2 8d3d
00000040: 2e8f 0bbe 597e 11be 31e6 0d3b 470c 2d3d
00000050: eea9 663c 710f ae3c 2875 3dbe cebd df3d
00000060: 94eb c43d 1364 68be 9a94 66bd a41a c03e
00000070: f96d 8d3e 1446 29be 1f07 a1be fe68 533c
00000080: 8154 043e 4958 74be ae6e 3cbe 8772 2a3e
00000090: 5e1a fb3c 7206 a3bc 1b15 363e f165 4cbd
000000a0: 1c2b 6abd 8164 1f3e 9e56 613e 9097 0abe
000000b0: 8f83 893d e4a1 69bd 7988 c33d b070 1dbe
000000c0: 1be2 103d d61b 243d cb35 37be 9849 e93d
000000d0: 390e 03bd 0fa4 313e 30cc 593e c707 163e
000000e0: 11e4 5a3d 984e 823b ac48 90bc 7348 c73d
000000f0: 0567 b13e cc61 ec3d 3856 093d ffaf a33d
0.069845855 -0.08817905 -0.079987295 0.04008461 -0.1594238 0.14267579 0.11309181 -0.25832644
-0.09785672 -0.0028082274 0.06837553 0.09472481 0.07022062 0.19037409 0.23791562 0.06924994
-0.13628837 -0.14208354 0.0021652097 0.042248037 0.0140786 0.021247597 -0.18501723 0.10924874
0.096152455 -0.22694425 -0.05629406 0.37520325 0.27622965 -0.16530639 -0.31450745 0.01290345
0.1292286 -0.23861803 -0.18401596 0.16645251 0.030652221 -0.019900534 0.17781489 -0.049901906
-0.05717002 0.15565683 0.22005698 -0.13534379 0.06714546 -0.057039157 0.095475145 -0.15375018
0.03537188 0.04006561 -0.17891614 0.1139099 -0.031995986 0.1734774 0.21269298 0.14651404
0.053440157 0.0039766543 -0.017612778 0.097306155 0.3464891 0.11542091 0.03352949 0.07992553

bn.running_var f4 [64]
00000000: db58 a13d 9877 e43d 99cb 0a3e fa09 043e
00000010: 2ddf d53d a9e9 e33d 8cac 1d3e 2f6a 053e
00000020: 77c1 bb3d 37af f73d 8b35 243e da1e e33d
00000030: 4f8f ba3d a851 ed3d 4239 1a3e 2f46 f73d
00000040: 3f52 fa3d f821 e73d 8f56 a23d 7f9d 053e
00000050: cdc7 213e ea26 d73d 5647 f33d f144 023e
00000060: 42b5 213e 7604 0b3e 62a0 e63d 5529 183e
00000070: f392 b33d 3989 013e c7c2 f63d f407 df3d
00000080: 36bf fb3d 3825 e83d 3753 643e 83cd eb3d
00000090: 58c0 163e eef8 f53d 8a82 fb3d 24e4 e93d
000000a0: 42a4 e53d 83ea ae3d 4cab 023e f51c 1d3e
000000b0: e21d 9b3d ab3f 073e 7eb4 b23d cef7 b63d
000000c0: 0b4e b73d 1b95 ec3d e40a ae3d 8b6f de3d
000000d0: 057f e83d dfb7 203e fb7b e93d d4b8 0a3e
000000e0: 2c75 cf3d fbbf e13d 9aa3 273e bd16 df3d
000000f0: a530 213e 6343 183e cd8b d33d 55ca d83d
0.07878276 0.11155623 0.13554229 0.12894431 0.10442958 0.111285515 0.15397853 0.13028787
0.0916776 0.120939665 0.1603605 0.11089869 0.09109365 0.1158784 0.15060905 0.12073933
0.122227184 0.11285776 0.07926666 0.13048361 0.15798874 0.10505469 0.118788406 0.12721612
0.157918 0.1357592 0.11261059 0.14859517 0.08768263 0.12650003 0.120488696 0.10890189
0.1229233 0.11335224 0.22297369 0.115138076 0.14721811 0.1201037 0.12280758 0.114204675
0.1121297 0.08540823 0.12760657 0.15343077 0.07574059 0.13207881 0.087258324 0.08933984
0.089504324 0.11551877 0.08498171 0.10861119 0.11352352 0.15695141 0.114006005 0.13547069
0.10129771 0.110229455 0.16371003 0.10893009 0.15741213 0.14869456 0.10329399 0.10585467

net.0.weight f4 [64, 45]
00000000: 5778 8f3d 93e1 e4bd 6323 56bd bbf5 e93d
00000010: eec6 04be e5a1 0dbd 9179 003e 6bd8 f3bc
00000020: b0f0 5c3c 5f20 a7bc 98de 00bd 6339 80bd
00000030: 55b3 303d 219f 27bd d3dc 793c 48bd 10be
00000040: 45b7 423d 0a36 f73d 3a30 0cbd 2b5a b7bd
00000050: 8984 ff3b 7ff4 6c3c 0a43 e53d e0b6 b13d
00000060: 252e 4ebd 8bc8 1f3d fc0e d2bd e918 073e
00000070: e282 ccbd b1d3 793d ac93 1ebc 58b8 c63d
00000080: ff79 a0bd 7865 78bd a6dc babd 9633 c8bd
00000090: 80d3 e43d fd52 fabd 1fa5 96bb a0cb f6bd
000000a0: f868 fd3d 0370 5bbc 363b e2bd b358 f33d
000000b0: 0b94 4d3c f770 c1bc 5971 123d be07 f6bd
000000c0: fc60 eebd 2585 af3c accc 0e3e 3d69 d0bd
000000d0: 6d3a 093d 56a6 1cbd ae92 fbbd 6934 bf3d
000000e0: a25f 8e3d a719 0b3d c05d fdbd 9fcb 013e
000000f0: 3671 11be 7f4a 5c3c 6fe5 bfbd 6740 a1bd
00000100: a8c9 003e 6731 1dbd 7d0f cebd cf2c 84bd
00000110: 7a7a f03d d0bb 13be 95f2 0cbe 2414 023d
00000120: 4f16 d43d 1bb4 c63d f62d c03d c32e ea3d
00000130: 2cff 9a3c 6c87 06be 2a55 a4bd eef6 e4bd
00000140: 743e ee3d f444 99bd 265c e83d 8ef3 f23d
00000150: 35f6 f73c 7149 c5bd f1ae 093b c2a8 6a3c
00000160: c47b 893d 4064 fabd aa46 70bd a9e6 ca3d
00000170: 6cf9 c2bd fda5 c9bd 8b97 15bd 3b9e ef3d
00000180: de9b 19be b489 0dbd b942 b7bd 5cc0 8abd
00000190: 784b 843b c936 503c 74aa aebd 6085 cabc
000001a0: fbcc 93bd 6bf4 a9bd f1cf 13bd 020f 8c3c
000001b0: 4a43 96bd a8db 133d 8497 c3bd 3160 e93d
000001c0: 95a9 e0bc ac31 bd3d 8768 d53d 4713 ef3c
000001d0: 88be e9bd 8535 bcbd 6b1d 3bbc 4b92 033e
000001e0: 901a 0ebd 2c59 143d 752a 47bd 42fb babd
000001f0: 9ad4 643d 8c5a d4bd eea4 8f3d a180 9f3c
00000200: 38b0 f4bd 7c03 4fbd 3673 06be c95e af3d
00000210: 8156 de3d da42 1a3e b546 0e3e a609 c3bb
00000220: 1d37 c4bd 7f0b 063e 44cf a23d 99ae 88bd
00000230: 6e41 d9bd 8bbc 873d 0af5 20bd f417 fa3a
00000240: 39ca 30bd 7a12 99bd d1b3 1ebd 2373 073d
00000250: 795b 2a3d 102a 3cbd 1eea 00be b421 babd
00000260: 6417 08bd 1eac 5cbd 217e 0b3e 5391 b7bd
00000270: 78df fbbd 0b2d 8dbd 49a3 c03d a61c ccbd
00000280: c1e1 f53b 5795 ae3a 2b0f 04be 92b3 84bd
00000290: 1f90 0a3e 29a8 703d 353c 5ebd 8646 ecbd
000002a0: c352 f3bd 4045 bbbd d5e8 01be d26f d5bd
000002b0: 345e 003e fe2a d53d 0792 9bbd 8010 96bd
000002c0: cf46 d93d d56b 8ebd 0103 acbd 5f45 02be
000002d0: 6c0a a1bd 2faf c6bd 9149 25bd d42a cbbd
000002e0: 6d93 76bd c0ef e2bc 394e 52bd 9afa b03d
000002f0: 04f6 0abe c1ac f6bd 026d a9bd 46b9 cf3d
00000300: c66a d53d efcc c63d 5380 c2bd cbfc 323d
00000310: b71d 803d efc9 f8bd 0018 193e ad42 1d3d
00000320: caa2 033e 8b1f 9fbc 67e5 9a3c b30b 953d
00000330: 36fc 5fbd 4a0d d8bd 3412 f73b d2dd e1bb
00000340: d403 89bc 7f41 843c ba0c fd3d 2c11 883d
00000350: 957a aebd 7c92 3c3d b074 00be 5bf0 e93d
00000360: 8370 303d ce40 113e 2743 6abd f269 ae3d
00000370: 41f1 093e af95 013e 7a48 bdbd ee66 f13d
00000380: 1439 c03b b835 19bd 62a4 a7bd c124 f43d
00000390: 5f29 0b3e ce31 98bd d6ec 0cbe b022 ff3d
000003a0: 1b17 313d e140 ecbd 6357 df3d d05b 083d
000003b0: 27a0 f13d b404 fe3d 149d 0cbd 57ae 6fbd
000003c0: a1df efbd 381b c2bd b99b bfbc aee2 e33d
000003d0: 31f5 843d cdb6 ca3d a319 2dbd 4a74 c8bd
000003e0: f38b 96bd d1ea 7ebd 87dc 823d de8d b13a
000003f0: 640d d83d bb08 413d 6a14 043d a763 eebd
0.07005375 -0.11175837 -0.05227984 0.114238225 -0.1296651 -0.034578223 0.12546374 -0.029766282
0.013485119 -0.020401178 -0.031462282 -0.06260946 0.043139774 -0.04092324 0.0152504025 -0.14134705
0.04753806 0.12070854 -0.03422568 -0.08952745 0.007797782 0.014462589 0.11194427 0.08677459
-0.050336976 0.039009612 -0.10256764 0.13193096 -0.099859014 0.0609929 -0.009678762 0.097031295
-0.07835769 -0.060643643 -0.091241166 -0.09775464 0.11173153 -0.1222286 -0.0045973207 -0.12050557
0.12373537 -0.013393405 -0.1104645 0.118821524 0.012547503 -0.023613436 0.035752628 -0.120131955
-0.11639592 0.021425793 0.13945264 -0.101763226 0.033502985 -0.038244568 -0.12283836 0.09336168
0.06951834 0.03396001 -0.12371397 0.12675332 -0.14203343 0.013445496 -0.09369933 -0.07873612
0.12576926 -0.038377192 -0.10061548 -0.06453859 0.117421106 -0.14427114 -0.13764413 0.03175749
0.103558175 0.09702321 0.09383766 0.114347 0.018920504 -0.13137597 -0.08024056 -0.111799106
0.11633006 -0.07483855 0.11345701 0.118628606 0.030268768 -0.096331485 0.0021008814 0.014322462
0.067130595 -0.122261524 -0.05866114 0.09907276 -0.0952023 -0.09846113 -0.036521476 0.11700102
-0.15000865 -0.034555152 -0.08948273 -0.06774971 0.004037317 0.012708374 -0.08528605 -0.024721801
-0.07216831 -0.08298572 -0.03608698 0.017097 -0.07337053 0.036098152 -0.09550384 0.113953
-0.027424613 0.0923799 0.10420328 0.029183997 -0.11413294 -0.091898955 -0.011420588 0.12848775
-0.0346933 0.036217853 -0.048624475 -0.09129955 0.055866815 -0.10368833 0.0701388 0.019470515
-0.119476736 -0.050540432 -0.13129887 0.08563001 0.10856343 0.15064564 0.1389416 -0.005952078
-0.095808245 0.13090323 0.07949689 -0.06673927 -0.10608183 0.066277586 -0.039296187 0.0019080625
-0.043161605 -0.07474227 -0.038745705 0.033068787 0.04159114 -0.04593855 -0.12589309 -0.090884596
-0.033225432 -0.05387508 0.13622333 -0.08963265 -0.12298483 -0.06893357 0.09406144 -0.09966402
0.0075037186 0.0013319653 -0.12896411 -0.06479563 0.1353154 0.05875412 -0.054256637 -0.11536889
-0.1188102 -0.09144068 -0.12686475 -0.10421719 0.12535936 0.10408591 -0.07596212 -0.07327366
0.10609209 -0.06954161 -0.083990104 -0.12721775 -0.07863316 -0.09701382 -0.04035336 -0.09920278
-0.06019919 -0.027702212 -0.05134413 0.086415485 -0.1357041 -0.12044669 -0.08272745 0.1014276
0.10420756 0.09707057 -0.09497132 0.043698113 0.06255668 -0.12147891 0.14950562 0.038393665
0.12855068 -0.01942422 0.018908216 0.07277622 -0.054683886 -0.1054941 0.007540012 -0.006892898
-0.016725458 0.016144512 0.12355943 0.066439 -0.085194744 0.046038136 -0.12544513 0.11422797
0.04307605 0.14184877 -0.057192948 0.08516301 0.13470937 0.12654756 -0.092423394 0.117872104
0.0058661792 -0.037404746 -0.081856504 0.11921073 0.1359 -0.074313745 -0.1376222 0.12457788
0.043234926 -0.11535812 0.109053396 0.033290684 0.11798125 0.12403241 -0.03432949 -0.058515873
-0.11712576 -0.09477848 -0.023389684 0.1112722 0.06492079 0.09898148 -0.042260777 -0.097878054
-0.07350912 -0.062235657 0.063897185 0.0013546308 0.10549429 0.047127467 0.03224603 -0.11640101

net.0.bias f4 [64]
00000000: 26e4 a1bc 5060 26b9 a349 20bd f133 9439
00000010: 1d57 5d3d 29dd c53d 8c43 9cbd 9de5 3abd
00000020: 6868 00be 67dd 79bd 40f7 343d 26d1 40bc
00000030: a427 9b3c 678e c9b9 1fdc 03be e115 f23c
00000040: e064 a2bd 9bf2 413b 0af4 e0bd fb03 183d
00000050: 44a1 2a3d f5ab 713b 353e f33d 1b21 aabc
00000060: 9d91 5bbd 8c88 d6bd 5d58 5f3a b3df c73d
00000070: dccd ecbb 3fb0 c9bd f227 fabd ab6d cebd
00000080: d441 52bb d262 9d3d a923 953d 74fc 74bc
00000090: feaa 6c3d c88b 05bc c684 34bc 5b0c 5abd
000000a0: 056b 44b8 5be6 393b 3883 a23d 1564 1e3a
000000b0: 1993 793d 617d 71b9 df83 f53d dba6 f1bd
000000c0: a7ef ccbd 55f1 babd b393 06bd 9aab 16bb
000000d0: 437a 383d 424c cebc 9e5a 023e a80e ad3d
000000e0: f66a 173d bdab fb3c b6e5 2c3d 317f c0bc
000000f0: 137d be3d 5123 a03d 5b88 683d 190b b23c
-0.01976211 -0.00015866873 -0.039132725 0.0002826746 0.054038156 0.096613236 -0.07630071 -0.045629133
-0.12539828 -0.06100216 0.04418111 -0.011768615 0.0189398 -0.00038443806 -0.12876938 0.029551448
-0.07929397 0.0029594067 -0.10984047 0.03711317 0.0416577 0.0036876176 0.118770994 -0.020767739
-0.053605665 -0.10475263 0.0008519942 0.09759464 -0.007226689 -0.098480694 -0.1221465 -0.10079511
-0.0032082694 0.07684864 0.07282192 -0.014952768 0.05778026 -0.008151002 -0.011017984 -0.05323444
-4.682971e-05 0.0028366062 0.07935184 0.0006042135 0.0609313 -0.00023030258 0.11988043 -0.11799403
-0.100066476 -0.09128062 -0.0328557 -0.0022990466 0.045038473 -0.025182847 0.1272988 0.08450061
0.03696724 0.03072154 0.042211257 -0.02349815 0.093012 0.07819236 0.056770664 0.021733807

net.1.weight f4 [64]
00000000: e300 7b3f b4f3 7a3f 33f0 7a3f 2f08 7b3f
00000010: 30fd 7a3f d4d8 7a3f 0947 7b3f 6316 7b3f
00000020: 01fa 7a3f 0203 7b3f 91f5 7a3f edfa 7a3f
00000030: 81e2 7a3f 81e0 7a3f c313 7b3f cdff 7a3f
00000040: 70d4 7a3f d504 7b3f 53df 7a3f bfe4 7a3f
00000050: 784c 7b3f 41fe 7a3f 360b 7b3f f0ee 7a3f
00000060: bc43 7b3f 9016 7b3f 520c 7b3f f1df 7a3f
00000070: 0774 7b3f d617 7b3f 3b1e 7b3f 85f4 7a3f
00000080: 8b0d 7b3f e214 7b3f 6717 7b3f 9ff2 7a3f
00000090: 79df 7a3f 70f6 7a3f 0b28 7b3f 9fdc 7a3f
000000a0: d7d5 7a3f 0972 7b3f 3108 7b3f 6127 7b3f
000000b0: f4f4 7a3f e8aa 7b3f edcc 7a3f bdde 7a3f
000000c0: a216 7b3f 72ed 7a3f bee2 7a3f ac09 7b3f
000000d0: 27d5 7a3f 8c0a 7b3f 3d25 7b3f 0f35 7b3f
000000e0: 5150 7b3f 62df 7a3f 7928 7b3f 2d0b 7b3f
000000f0: baf5 7a3f 5ff8 7a3f 3ef0 7a3f 7730 7b3f
0.9804823 0.9802811 0.98022765 0.9805936 0.98042583 0.97987103 0.98155266 0.98081034
0.98037726 0.98051465 0.98030955 0.9803913 0.9800187 0.97998816 0.9807703 0.9804657
0.97980404 0.9805425 0.97997016 0.9800529 0.9816356 0.9804421 0.9806398 0.9802084
0.9815023 0.980813 0.98065674 0.9799796 0.9822392 0.98083246 0.98093003 0.9802936
0.9806754 0.9807874 0.98082584 0.9802646 0.9799724 0.98032284 0.98107976 0.9799289
0.97982544 0.9822088 0.98059374 0.9810696 0.9803002 0.9830766 0.9796894 0.9799612
0.9808141 0.9801856 0.9800223 0.98061633 0.97981495 0.9806297 0.98103696 0.98127836
0.9816943 0.97997105 0.9810863 0.9806393 0.980312 0.98035234 0.9802283 0.98120826

net.1.bias f4 [64]
00000000: 470a 69bc 7ac0 db3b 361c d8bb fdf4 763b
00000010: 89d0 d03b 2cee d13b 4096 26bc 7f77 39bc
00000020: 9e48 56bc 997b 34bc 8070 3d3c abe7 3cbc
00000030: 3772 eb3b f5f8 603a 1ad3 58bc e8e1 3bbb
00000040: 0a5c e63b ea01 1cbc 89ab 383c e87a 9ebb
00000050: d2d0 24bc 33b0 77bb 2b95 0dbc 7754 f6b9
00000060: 2476 273c b7ba 34bc f434 863b ac2d fdbb
00000070: 74ae 31bc 61e6 e0ba 363c 71bc 7fcd 32bb
00000080: 8bf5 a93b 8a52 f1bb c993 4ebb 3bc3 11bb
00000090: 4335 25bc bd56 25bc 77a4 37bc d462 48bb
000000a0: be73 5e3b 889d fd3a 24b1 1cbc 67b4 28bc
000000b0: 7955 38ba 34b8 02bb 0d4c 643c a2ca 143b
000000c0: 7199 293c 3940 e53a 7102 3f3a f464 52bc
000000d0: b7b7 1a3c 6f4c 70bc 2272 fdbb 49fd 05bc
000000e0: 5708 15bb c378 d63b c13e 8ebb 3c57 66bb
000000f0: e49a 56bc 0549 35bc a3bf 623b 73e8 0fbc
-0.014223642 0.0067062946 -0.00659516 0.0037682645 0.0063725156 0.006406566 -0.010167658 -0.011319994
-0.013078837 -0.011015796 0.011562467 -0.011529843 0.0071852463 0.00085820194 -0.013233924 -0.0028668586
0.007030015 -0.009521941 0.011271366 -0.004836429 -0.010059552 -0.0037794232 -0.008641521 -0.00046983708
0.010221038 -0.011030844 0.004095668 -0.007726392 -0.0108448155 -0.0017158502 -0.014723828 -0.002728313
0.0051867417 -0.0073645758 -0.0031521192 -0.002224161 -0.010083499 -0.010091481 -0.011208645 -0.0030576484
0.00339435 0.0019349316 -0.009563718 -0.0102969175 -0.00070317794 -0.001994622 0.013934148 0.0022703786
0.010351525 0.0017490453 0.00072864356 -0.012841452 0.009443215 -0.014666661 -0.007734553 -0.008178064
-0.0022740567 0.0065451576 -0.004340977 -0.003514721 -0.013098452 -0.0110647725 0.0034599088 -0.008783448

net.1.running_mean f4 [64]
00000000: 580b 8f3d 3897 b4bd 61d0 a3bd c32f 243d
00000010: fe3f 23be 9a19 123e ae9c e73d 5d43 84be
00000020: 1b69 c8bd 3d0a 38bb 7808 8c3d 15ff c13d
00000030: d4cf 8f3d 6df1 423e 27a0 733e ead2 8d3d
00000040: 2e8f 0bbe 597e 11be 31e6 0d3b 470c 2d3d
00000050: eea9 663c 710f ae3c 2875 3dbe cebd df3d
00000060: 94eb c43d 1364 68be 9a94 66bd a41a c03e
00000070: f96d 8d3e 1446 29be 1f07 a1be fe68 533c
00000080: 8154 043e 4958 74be ae6e 3cbe 8772 2a3e
00000090: 5e1a fb3c 7206 a3bc 1b15 363e f165 4cbd
000000a0: 1c2b 6abd 8164 1f3e 9e56 613e 9097 0abe
000000b0: 8f83 893d e4a1 69bd 7988 c33d b070 1dbe
000000c0: 1be2 103d d61b 243d cb35 37be 9849 e93d
000000d0: 390e 03bd 0fa4 313e 30cc 593e c707 163e
000000e0: 11e4 5a3d 984e 823b ac48 90bc 7348 c73d
000000f0: 0567 b13e cc61 ec3d 3856 093d ffaf a33d
0.069845855 -0.08817905 -0.079987295 0.04008461 -0.1594238 0.14267579 0.11309181 -0.25832644
-0.09785672 -0.0028082274 0.06837553 0.09472481 0.07022062 0.19037409 0.23791562 0.06924994
-0.13628837 -0.14208354 0.0021652097 0.042248037 0.0140786 0.021247597 -0.18501723 0.10924874
0.096152455 -0.22694425 -0.05629406 0.37520325 0.27622965 -0.16530639 -0.31450745 0.01290345
0.1292286 -0.23861803 -0.18401596 0.16645251 0.030652221 -0.019900534 0.17781489 -0.049901906
-0.05717002 0.15565683 0.22005698 -0.13534379 0.06714546 -0.057039157 0.095475145 -0.15375018
0.03537188 0.04006561 -0.17891614 0.1139099 -0.031995986 0.1734774 0.21269298 0.14651404
0.053440157 0.0039766543 -0.017612778 0.097306155 0.3464891 0.11542091 0.03352949 0.07992553

net.1.running_var f4 [64]
00000000: db58 a13d 9877 e43d 99cb 0a3e fa09 043e
00000010: 2ddf d53d a9e9 e33d 8cac 1d3e 2f6a 053e
00000020: 77c1 bb3d 37af f73d 8b35 243e da1e e33d
00000030: 4f8f ba3d a851 ed3d 4239 1a3e 2f46 f73d
00000040: 3f52 fa3d f821 e73d 8f56 a23d 7f9d 053e
00000050: cdc7 213e ea26 d73d 5647 f33d f144 023e
00000060: 42b5 213e 7604 0b3e 62a0 e63d 5529 183e
00000070: f392 b33d 3989 013e c7c2 f63d f407 df3d
00000080: 36bf fb3d 3825 e83d 3753 643e 83cd eb3d
00000090: 58c0 163e eef8 f53d 8a82 fb3d 24e4 e93d
000000a0: 42a4 e53d 83ea ae3d 4cab 023e f51c 1d3e
000000b0: e21d 9b3d ab3f 073e 7eb4 b23d cef7 b63d
000000c0: 0b4e b73d 1b95 ec3d e40a ae3d 8b6f de3d
000000d0: 057f e83d dfb7 203e fb7b e93d d4b8 0a3e
000000e0: 2c75 cf3d fbbf e13d 9aa3 273e bd16 df3d
000000f0: a530 213e 6343 183e cd8b d33d 55ca d83d
0.07878276 0.11155623 0.13554229 0.12894431 0.10442958 0.111285515 0.15397853 0.13028787
0.0916776 0.120939665 0.1603605 0.11089869 0.09109365 0.1158784 0.15060905 0.12073933
0.122227184 0.11285776 0.07926666 0.13048361 0.15798874 0.10505469 0.118788406 0.12721612
0.157918 0.1357592 0.11261059 0.14859517 0.08768263 0.12650003 0.120488696 0.10890189
0.1229233 0.11335224 0.22297369 0.115138076 0.14721811 0.1201037 0.12280758 0.114204675
0.1121297 0.08540823 0.12760657 0.15343077 0.07574059 0.13207881 0.087258324 0.08933984
0.089504324 0.11551877 0.08498171 0.10861119 0.11352352 0.15695141 0.114006005 0.13547069
0.10129771 0.110229455 0.16371003 0.10893009 0.15741213 0.14869456 0.10329399 0.10585467
