bestclf/german/g05.pth (torch, 46462 bytes, 23 tensors)

fc1.weight f4 [64, 45]
000000 1c ee a1 3d 19 6f ff bd 87 ef 50 bd 65 4f ff 3d
       0.07906744 -0.12472362 -0.05100968 0.12466315
000010 45 6e f5 bd e8 01 17 bd 98 01 f3 3d 1f b3 28 bd
       -0.11983923 -0.036867052 0.11865538 -0.04118645
000020 28 87 b2 3c b1 c5 30 bd 2e 4d 60 bc 55 ef a5 bd
       0.021792963 -0.043157283 -0.013690276 -0.081022896
000030 2b 21 32 3d c0 bd 4f bd 78 42 58 3b 55 11 1e be
       0.043488663 -0.05071807 0.0032998603 -0.15436299
000040 6c 38 64 3d 13 58 04 3e 75 f5 d8 bc 93 a4 c0 bd
       0.05571787 0.12924223 -0.02648423 -0.0940639
000050 ec 2e f5 ba e4 5a 1a 3c 58 a7 06 3e 26 03 b6 3d
       -0.0018706 0.009421084 0.13149774 0.08887319
000060 cc 87 1a bd 45 70 7f 3d a1 3f b8 bd 56 6c 19 3e
       -0.037727162 0.062362928 -0.08996511 0.14982733
000070 98 bf c3 bd 12 8d 4c 3d 61 16 ca bc 11 10 e5 3d
       -0.09558028 0.049939223 -0.024668874 0.11184705
000080 eb 7c 83 bd 32 b4 9d bd 25 50 ce bd 72 73 b3 bd
       -0.064203106 -0.07700385 -0.1007388 -0.08762254
000090 82 85 cb 3d f3 96 f0 bd f5 2a e2 bc 88 df e9 bd
       0.09937574 -0.11747541 -0.027608374 -0.11419588
0000a0 1a 0b 0c 3e 99 ad 11 3c ef b2 da bd 02 11 f4 3d
       0.1367611 0.008891487 -0.1067866 0.119173065
0000b0 7c f5 d7 3b 9c ac 77 bc 07 4d f6 3c 3c d5 00 be
       0.0065905433 -0.015116837 0.030066026 -0.12581342
0000c0 2e 5e f0 bd a7 aa c5 3c be df 0c 3e 09 9e f5 bd
       -0.11736713 0.024129225 0.13757226 -0.119930334
0000d0 69 2f 48 3d 45 f8 23 bd 62 69 09 be 9d f5 c0 3d
       0.04887334 -0.04003169 -0.13419107 0.09421847
0000e0 f7 26 69 3d 18 9b 64 3d ce dd ff bd be 03 18 3e
       0.056921925 0.05581197 -0.12493478 0.14845178
0000f0 d4 34 20 be 0f c5 fd 3b d9 ea b4 bd 13 23 73 bd
       -0.15645152 0.0077444385 -0.08833856 -0.05935962
000100 8c 79 03 3e 81 38 32 bd 32 7e d1 bd 0d e6 90 bd
       0.12839335 -0.043510918 -0.10229148 -0.07075129
000110 62 9a e1 3d d9 82 19 be d4 79 fe bd 5c 06 d6 3c
       0.11015774 -0.1499132 -0.124255806 0.02612608
000120 7f 9a bf 3d 87 8d b2 3d 91 06 c9 3d 43 40 f5 3d
       0.0935564 0.087184004 0.098157056 0.119751476
000130 9a cf 92 3c 1d 29 08 be 5a a7 c7 bd 87 74 07 be
       0.017921258 -0.13296933 -0.09748717 -0.13228045
000140 9f 7b e3 3d 7a b0 78 bd cd bf 0a 3e 87 fd 0b 3e
       0.11107563 -0.060715176 0.13549729 0.13670932
000150 a7 3b 11 3d 9e 9e c7 bd db 6b 6c 3c 5f a7 99 3c
       0.03545728 -0.09747051 0.014430012 0.018756567
000160 a7 59 87 3d 86 5a e6 bd ef 52 78 bd d4 e8 d3 3d
       0.06608897 -0.11247735 -0.060625967 0.10347143
000170 29 0a c6 bd 64 e9 ea bd cf 1e 83 bc 4b 88 e9 3d
       -0.09669907 -0.11470297 -0.016005902 0.11402949
000180 2f 29 20 be ba e6 73 bc 04 b0 d3 bd 4a 37 a7 bd
       -0.1564071 -0.0148865525 -0.10336307 -0.081648424
000190 46 36 96 bb d4 ee 7d 3a 91 9f cd bd 6e 44 02 bd
       -0.0045841066 0.0009686772 -0.100402005 -0.03180354
0001a0 21 08 84 bd 88 a6 b7 bd ba 05 22 bd e2 89 ae 3c
       -0.06446863 -0.0896731 -0.039556243 0.021305982
0001b0 59 5c ac bd 29 c8 a0 3c 0d 83 c8 bd 5c dd d3 3d
       -0.084160514 0.019626694 -0.09790621 0.10344955
0001c0 ac b0 a9 bb 68 19 aa 3d 9f b4 fc 3d 48 1d 10 3d
       -0.0051785316 0.08305627 0.12339138 0.035184175
0001d0 d0 0b d6 bd 39 0c b0 bd 8c 1a d0 bb 83 70 f7 3d
       -0.10451472 -0.08596081 -0.006350821 0.12082007
0001e0 46 25 b5 bc cb 0b 5b 3d db 42 6b bd 97 17 d1 bd
       -0.0221125 0.053478044 -0.057436805 -0.102095775
0001f0 f2 eb 55 3d 85 91 b5 bd e5 88 81 3d 1a c8 ef 3c
       0.052226968 -0.08865646 0.06324939 0.02927022
000200 a3 8f ee bd cf 5c 1c bd 8b e7 0d be b9 ec ae 3d
       -0.1164849 -0.038174447 -0.13857858 0.08541245
000210 f3 6b fc 3d 25 84 1f 3e 2e df 13 3e bd 7f a1 bc
       0.12325277 0.15577753 0.14440605 -0.01971423
000220 13 17 b8 bd 59 cf 0a 3e e1 73 ad 3d 68 cc 83 bd
       -0.08988776 0.1355566 0.08469368 -0.06435472
000230 12 d6 e0 bd 4b 5f 72 3d 49 8e 21 bd c3 f7 04 bc
       -0.10978331 0.05917291 -0.039442334 -0.008115712
000240 0b 50 eb bc 08 11 9b bd 60 cb 61 bd 01 4f 26 3d
       -0.02872469 -0.07571608 -0.055125594 0.040602688
000250 46 81 76 3d 10 34 4b bd b3 23 f4 bd ac 6d c2 bd
       0.06018188 -0.049610198 -0.119208716 -0.094935745
000260 0e 07 ff bc 6b a2 9b bd ec 2c e4 3d db d7 c2 bd
       -0.031131294 -0.07599338 0.11141381 -0.095138274
000270 e9 17 01 be 51 84 a4 bd 86 80 cd 3d e9 0e ce bd
       -0.12606777 -0.0803305 0.100342795 -0.10061438
000280 b7 ed 36 bb c4 ed 8a bc fa 65 1f be f5 eb 81 bd
       -0.0027912685 -0.016959079 -0.15566245 -0.06343833
000290 39 29 22 3e b2 51 86 3d 8c c1 85 bd ee 0d fa bd
       0.15836038 0.06558551 -0.06531057 -0.12209688
0002a0 97 42 c0 bd e3 16 b0 bd 8f 2d f4 bd 28 4d c1 bd
       -0.09387701 -0.08598115 -0.11922752 -0.094385445
0002b0 6f eb 1a 3e 4a c5 08 3e 09 8d a6 bd 6e 4e bd bd
       0.15128873 0.1335651 -0.08132369 -0.09243475
0002c0 50 20 b6 3d 87 53 b2 bd 19 9f af bd 02 d6 e3 bd
       0.08892882 -0.08707338 -0.08575267 -0.11124803
0002d0 a2 4d 82 bd f6 f9 d9 bd 72 76 3e bd 3e 0d e8 bd
       -0.063624635 -0.106433794 -0.046499677 -0.11330651
0002e0 58 f4 96 bd d0 b2 d9 bb a6 29 52 bd e5 08 aa 3d
       -0.073708236 -0.0066436306 -0.05130925 0.08302478
0002f0 d3 fd 0b be 0d 4b e2 bd bd 40 c4 bd ae 54 95 3d
       -0.13671045 -0.11049471 -0.0958266 0.07291542
000300 b6 5b 05 3e 7c da fd 3d 04 ce 40 bd 9e cd 5a 3d
       0.13023266 0.12395188 -0.04707147 0.053418748
000310 7d 43 40 3d 88 bb cd bd ce 0a 23 3e 7c 6c 73 3d
       0.04693936 -0.10045534 0.1592209 0.05942963
000320 19 fd f4 3d b1 ea 6b bd 8c 2a 1e 3c d5 b5 22 3d
       0.11962337 -0.057596866 0.009653699 0.03972419
000330 da 0a 5e bd 10 b8 c7 bd 6a ee b0 3b fa 56 80 bc
       -0.054209568 -0.09751904 0.005399515 -0.015666474
000340 ba 5e ac bc 38 28 c2 3c 90 11 2b 3e 72 3a 47 3d
       -0.021041263 0.023700818 0.16705918 0.048639722
000350 ba cb c5 bd d3 55 87 3d fa 08 e6 bd 2e 6b d3 3d
       -0.096579984 0.066081665 -0.11232181 0.10323177
000360 6d 80 73 3d f0 7a 01 3e fd f6 75 bd 82 96 87 3d
       0.05944865 0.12644553 -0.06005 0.06620504
000370 48 26 e1 3d e7 bf 09 3e 3b ba d5 bd 6b bd 27 3e
       0.1099363 0.13452111 -0.10435911 0.16380851
000380 66 55 c2 3c a7 52 87 bc 82 37 b7 bd 24 89 ff 3d
       0.023722362 -0.016518904 -0.08946134 0.124773294
000390 80 03 10 3e 7f 30 93 bd 46 0e 21 be 3a 13 fa 3d
       0.14063835 -0.07186984 -0.15728101 0.122106984
0003a0 43 1a 00 3d fc ad de bd bd 35 b6 3d 1b 2b 26 3d
       0.031275045 -0.10873029 0.088969685 0.040568452
0003b0 ce 7f 02 3e bd 86 f6 3d 3e 94 15 bd 69 3e 97 bd
       0.12744066 0.12037418 -0.036518328 -0.07384951
0003c0 b0 cd 07 be d4 9d d1 bd 4e dd 1c bd 93 6b db 3d
       -0.13262057 -0.102351815 -0.03829699 0.107138775
0003d0 39 88 99 3d 8b 57 df 3d 31 e0 02 bd 04 46 c9 bd
       0.074966855 0.10905369 -0.031952087 -0.098278075
0003e0 50 a2 86 bd 22 55 4e bd a2 f9 8d 3d ff 9d 96 3b
       -0.065739274 -0.050374158 0.06932379 0.0045964713
0003f0 8f 20 fc 3d 46 63 46 3d 8e 8a 8b 3c c9 5d c6 bd
       0.123108976 0.04843452 0.017033841 -0.09685857

fc1.bias f4 [64]
000000 c8 2a ba ba 04 96 f7 38 27 8b 8f bc e6 e1 48 b9
       -0.0014203424 0.000118058204 -0.017522408 -0.0001915764
000010 12 4b 00 3d df 84 94 3d f4 c9 57 bd 6b 2b c0 bc
       0.031321593 0.07251906 -0.052682832 -0.023458203
000020 19 9d ce bd 28 65 1b bd 30 3a b5 3c 21 f9 62 3b
       -0.10088558 -0.037938267 0.022122473 0.0034633356
000030 5a 01 5c 3a e6 04 68 bb 14 71 d5 bd 3e a7 15 3c
       0.00083925354 -0.003540331 -0.104219586 0.009134112
000040 c6 b3 63 bd 47 2a c4 ba 1c 29 af bd 10 b5 80 3c
       -0.055591367 -0.0014966213 -0.08552763 0.015711337
000050 89 4b a2 3c 55 24 df ba dc 33 c1 3d f5 d4 0c bb
       0.019811409 -0.0017024378 0.094337195 -0.0021489237
000060 11 3e fd bc 69 e6 a4 bd 7d bb 4d 3b e7 7d 96 3d
       -0.030913385 -0.0805176 0.003139227 0.07348233
000070 52 5f a6 3b 08 46 98 bd ee 07 c8 bd 05 ee 9c bd
       0.005077281 -0.074352324 -0.097671375 -0.07662586
000080 93 da e0 3a d1 f7 59 3d 1c fa 49 3d 88 69 e5 3a
       0.0017154984 0.05321485 0.04931079 0.0017502764
000090 5c d1 0e 3d 42 eb 9e 3b fc 8a 79 3b f7 5f fa bc
       0.03486763 0.0048498223 0.0038077226 -0.030563338
0000a0 28 1a 39 38 4f df a7 bb a5 ee 63 3d 77 de 4c ba
       4.4131797e-05 -0.005123056 0.05564751 -0.0007815132
0000b0 21 1e 1b 3d d9 2c 74 3a 5c 72 c3 3d aa a1 bf bd
       0.03787053 0.0009314544 0.09543297 -0.09357007
0000c0 a6 76 9b bd 53 d0 89 bd ba fd 43 bc 41 a5 c2 ba
       -0.0759099 -0.06729188 -0.011962349 -0.0014850275
0000d0 0a b3 bb 3c df 97 b5 bb 6f 76 d2 3d 0d 7b 78 3d
       0.02291252 -0.005541786 0.10276496 0.060664225
0000e0 5c 48 7f 3c 6d e9 25 3c d5 6e a6 3c 47 13 8a bb
       0.015581217 0.010126454 0.02031652 -0.004213724
0000f0 77 49 8d 3d b1 50 5f 3d ac e3 0a 3d b8 cb 3b 3b
       0.06898778 0.054520313 0.03390853 0.0028655361

fc2.weight f4 [64, 64]
000000 0f c0 18 bd 19 ca 91 bc b4 04 0f 3c e3 8b c8 3a
       -0.037292536 -0.017796563 0.008729149 0.0015300479
000010 76 41 1d 3d 18 16 84 bd 6a b8 03 3d 70 63 18 3d
       0.038392507 -0.064495265 0.032158293 0.037204206
000020 c8 f2 8d 3c 80 ea a6 3d 85 5c be 3d 18 8b 37 3d
       0.017327681 0.08150196 0.092949905 0.044810385
000030 23 79 e9 3c 7a 99 64 3c 3e a8 50 bd e9 cc 32 3d
       0.028500145 0.013952607 -0.0509417 0.04365245
000040 1b 70 1c 3c 0e 66 bb bd 88 8f 74 3d 0d a9 e4 3d
       0.009548212 -0.09150325 0.059707195 0.111650564
000050 91 43 ab bd 5a cb cd 3c f8 81 98 bd ee af ca 3d
       -0.08362497 0.02512138 -0.074466646 0.09896837
000060 a9 b1 65 bd 2d b7 0d bd 21 b8 8c 3d 6e 46 85 bd
       -0.056077633 -0.03459852 0.06871057 -0.06507574
000070 62 86 aa bc c5 34 94 3d 5a 6d 3a bc 74 31 0a bd
       -0.020816032 0.072366275 -0.0113786105 -0.03373857
000080 28 d1 95 bd 47 d1 f6 3d 62 06 d7 bc 9f 5c e2 bc
       -0.07315284 0.12051635 -0.02624816 -0.027632056
000090 6c 27 7b bd d7 e7 23 bc a9 51 a8 bd e6 32 d1 3d
       -0.061316893 -0.010004005 -0.082187004 0.10214786
0000a0 fb 47 2f bd ce 0a ed bc 2b 4e ca 3d 6f a5 ff 3b
       -0.042793255 -0.028935816 0.098781906 0.0078017036
0000b0 ab 35 7c bd 85 04 5c 3b 48 b2 76 bd 56 ca 6b 3d
       -0.06157462 0.003357203 -0.060228616 0.05756601
0000c0 a1 37 18 3d 3e d7 dd 3b 3d 6f 64 bc 66 12 43 bd
       0.037162427 0.0067700436 -0.013942537 -0.047624968
0000d0 d9 e9 a5 3c 3a 50 b7 bc cb 4c 8b bd 6d 45 a3 3d
       0.020253109 -0.022377122 -0.068017565 0.07972226
0000e0 4e bf 94 bd d2 29 cc bd f1 95 b0 3c b2 2c 1b bd
       -0.07263051 -0.09968914 0.021555873 -0.03788442
0000f0 88 67 6b bd fb b3 5b bd 14 c6 5d 3d 43 0c 1e bd
       -0.057471782 -0.05363844 0.05414398 -0.038585912
000100 8e 5e 75 bd 42 71 8e bb c8 68 47 3d b2 b9 87 3b
       -0.059904628 -0.0043469975 0.04868391 0.0041420097
000110 ea d7 68 3d 28 2c be bc 5e 62 37 3d 6a 74 d0 3d
       0.056846537 -0.023214415 0.044771545 0.10178454
000120 89 8b 8f bc 02 3b a4 bd cc d7 80 3d f4 d6 76 bd
       -0.01752259 -0.08019067 0.0629116 -0.06026359
000130 dd a8 a6 bd 7c 68 d3 bc 39 f3 71 bd 0d c4 95 3d
       -0.08137677 -0.025806658 -0.059069846 0.07312784
000140 2e c7 95 3d 0d d9 20 3d e3 7e a4 bc 11 d5 8c 3d
       0.07313381 0.039269496 -0.020080036 0.06876577
000150 63 13 8f 3d 96 b9 40 bd d2 6f e3 3d cb 32 c1 3b
       0.069861196 -0.04705199 0.111053124 0.0058959476
000160 96 8e b3 bd c0 3c ae bc 01 f2 4f 3d cd 2e 4f 3d
       -0.087674305 -0.021269202 0.050767902 0.050581742
000170 9b 64 a5 bd 31 48 73 3d 1c b3 6c 3d e8 cc ad 3d
       -0.080758296 0.05939502 0.057788 0.084863484
000180 95 95 73 bc 9e e3 24 bd 42 bd 08 3e 6a cd 8f bd
       -0.014867206 -0.040256135 0.13353446 -0.070216015
000190 d8 6a 8a bd 02 1a 2f bd 5c e5 64 3d fa 3b 05 be
       -0.0675866 -0.042749412 0.055882797 -0.1301116
0001a0 a6 3a 12 3e e4 42 33 3c 84 d1 6d bd c1 74 b4 bd
       0.14280185 0.010941241 -0.058061138 -0.088113315
0001b0 ef 35 eb 3d 8f 9f 1b bd 34 da 7f bd 81 b3 ac bc
       0.114848964 -0.037993964 -0.062463954 -0.021081688
0001c0 94 ba 77 3d a1 45 9c 3d 14 04 69 3d ac 8f 65 bc
       0.06048067 0.07630468 0.056888655 -0.014011305
0001d0 16 8f 08 bc 8b c6 ab bd 2c 9f 8f bc 92 72 cb bc
       -0.008334896 -0.083874784 -0.017531954 -0.024834905
0001e0 69 ec 32 3d 14 c4 13 3e 8e a8 d4 bd 0d 26 d7 3d
       0.04368249 0.14430267 -0.10383712 0.105053045
0001f0 fd 09 ec 3d 96 b6 de 3c c5 39 51 3d 23 0d 4a 3d
       0.115253426 0.027186673 0.051080484 0.049328934
000200 cc 7a b6 bd a9 27 79 bc f7 99 d8 bd 15 2c 0c 3a
       -0.089101404 -0.01520721 -0.105762415 0.0005347145
000210 9d 9b d2 3d 9b 1b ab 3b d2 12 0d 3c d6 dc db bd
       0.10283587 0.0052217967 0.008610444 -0.107354805
000220 37 43 e4 3d 35 8e 9f 3d da d0 14 3b a5 28 bd bd
       0.11145633 0.07790796 0.0022707493 -0.09236268
000230 70 cb cd bd 76 8c 9a bd 2e 11 e1 3d e4 0d eb bc
       -0.10048568 -0.07546322 0.10989605 -0.028693147
000240 3b a9 87 bc 4e ae 91 3c b2 26 a0 bc fe 00 76 bd
       -0.016560188 0.01778331 -0.019549701 -0.06005954
000250 19 e0 ae 3d c5 39 bd bd 99 f2 8c bc 5b 5e 98 3d
       0.08538837 -0.09239534 -0.017205523 0.07439872
000260 e7 c4 30 3d e2 a4 54 3d 2c 50 74 bd c8 b3 d2 bd
       0.04315653 0.051915057 -0.05964677 -0.10288197
000270 7d d7 99 3d e0 fc fa 3b 54 71 8e 3d b6 20 a7 bc
       0.07511804 0.0076595396 0.069552094 -0.02040134
000280 ca a1 73 3d 6d 5e 8f 3d cd 27 11 3e 3e 04 d3 bd
       0.059480466 0.07000432 0.14175339 -0.103035435
000290 c3 ce 52 bd df a3 ea 3c 8b b6 1d 3d 98 5e 91 bd
       -0.051466715 0.028642593 0.038504165 -0.070981205
0002a0 33 63 b8 bd f9 0b ac bd a6 7e 7c bc 34 3b 8d ba
       -0.09003296 -0.08400721 -0.015411055 -0.001077509
0002b0 ea 1d b6 bd cc fb 9e 3b 22 e2 a0 bc a2 e4 eb bd
       -0.088924244 0.004851794 -0.019639079 -0.115182176
0002c0 55 65 80 bd fa ec e4 3b 25 0d f3 bd 0c 47 5b 3b
       -0.062693276 0.0069862576 -0.118677415 0.0033459095
0002d0 17 5b b3 bd 78 a1 df bc 5f 90 9f bd 16 0a b1 3d
       -0.087576084 -0.027298674 -0.077912085 0.08644502
0002e0 92 4e cd 3d 64 19 e3 bd ff 29 ab bd f8 ab 96 3d
       0.10024752 -0.11088827 -0.083576195 0.07357019
0002f0 8f 67 06 3e 98 a0 b8 3d 07 22 ed 3d d7 08 51 3d
       0.13125442 0.09015006 0.11578756 0.05103382
000300 e0 40 ff bb 04 a0 c0 bc 99 b6 d2 3d 69 b3 52 bd
       -0.007789716 -0.023513801 0.10288734 -0.05144063
000310 16 bb 31 3d db 19 47 bc 04 d2 9e bd d8 17 0b 3d
       0.04339131 -0.0121521605 -0.07754901 0.033958286
000320 52 70 a9 bc 1e 9e e8 3d 26 5f 35 bd 07 b9 41 bc
       -0.020683441 0.113582835 -0.044280194 -0.011823899
000330 fa ca 92 bd f3 7b c3 3d 9b a1 0a bc 74 bb 04 be
       -0.07167621 0.09545126 -0.008461381 -0.12962133
000340 77 77 ae bd ea 93 0b 3d 09 d6 01 be 39 bb 46 bc
       -0.0851888 0.03407661 -0.12679304 -0.012129598
000350 ba e8 ef bd e1 8f 10 bc 07 f1 97 3d 0a 65 85 3d
       -0.11714311 -0.008823366 0.07419019 0.06513412
000360 75 f8 16 3d 63 e7 df bb f7 dd 00 3d d7 5e 9f 3c
       0.03685804 -0.0068330034 0.031461682 0.019454403
000370 0b b8 d4 bd 94 ec ba bd 2a 6d bc 3d 05 63 7b 3d
       -0.10386666 -0.09127155 0.09200509 0.06137373
000380 0c 75 07 3e 11 f2 10 bd 2b 67 a9 bc de 8e a0 3d
       0.13228244 -0.035387103 -0.020679077 0.0783975
000390 8e 3c 40 3b f3 06 e7 bc ad 7e 6f 3d c4 b2 cb 3d
       0.0029332968 -0.028201556 0.058470417 0.09946206
0003a0 cc 5c b2 3c 93 32 1f 3d 5e 49 b7 3d 96 68 8b bc
       0.021772765 0.03886659 0.089495406 -0.017017644
0003b0 e2 a8 bd bd 09 cd a4 3d 15 9e c5 bd 7a 57 db bd
       -0.092607275 0.0804692 -0.096492924 -0.10710044
0003c0 eb 87 e5 3d 5e fc a7 bd 37 7a bc bd 84 97 67 3d
       0.11207565 -0.08202432 -0.09202998 0.05654098
0003d0 41 e2 bc bd 62 38 04 3e 0d ed 9a 3d 3a 61 f6 3d
       -0.09222842 0.12912133 0.07564745 0.12030263
0003e0 af 14 71 3d 80 3c c3 3d 88 ed 8d 3d 01 10 bf 3d
       0.058857616 0.09533024 0.06930071 0.093292244
0003f0 21 bf 88 bc 6b c7 ce 3d 71 5b ba 3d 48 ec a4 3d
       -0.0166927 0.1009663 0.09099472 0.080528796

fc2.bias f4 [64]
000000 f9 05 65 3d b1 5c 52 bd 4d b0 be 3b 51 50 41 3d
       0.0559139 -0.05135793 0.0058193565 0.047195736
000010 eb f9 6a ba 14 2f 58 bd e6 db dd bc 0e fa 11 3d
       -0.0008963632 -0.052779272 -0.027082395 0.03563886
000020 96 d6 24 bc e4 aa 6c bc 5e 45 93 3d ae d2 24 ba
       -0.010060927 -0.01444504 0.07190965 -0.0006287497
000030 fd ea 53 3c 01 d8 84 bb 3b 76 8b 3c fc 9c c6 3a
       0.012934444 -0.00405407 0.01702415 0.0015152986
000040 3a ef a9 bb f7 85 8a 3d 2b 82 25 3c 99 c8 1d 3d
       -0.0051859887 0.06763833 0.010101835 0.038521383
000050 58 46 33 3b c0 45 5e bc 89 27 70 3d b6 83 29 3b
       0.002735516 -0.013566434 0.058631454 0.002586586
000060 52 24 b3 3a 88 58 a3 bd 66 08 7f 3d c2 5e 85 3d
       0.001366744 -0.0797587 0.06226387 0.06512214
000070 b6 5d fa 3c f5 d8 f0 bc a0 7b 46 3d 21 f2 9b bd
       0.030562263 -0.029400328 0.04845774 -0.07614542
000080 61 f7 8a 3a c5 8a 85 bd ca a5 72 3b 7f 7f 8f 3b
       0.0010602289 -0.06520609 0.0037025088 0.0043792124
000090 fe bc 49 3b c7 3d 75 bd 04 86 91 3a 42 aa 99 bc
       0.0030782814 -0.05987337 0.0011102562 -0.018757943
0000a0 f0 5d 4b 3b ce 2a 47 bd a8 e2 7c 3d e8 06 e1 3c
       0.0031031333 -0.048624806 0.061739594 0.027469113
0000b0 29 44 5b bd b6 d3 92 bb 94 da 10 bd fb 3e 2b 39
       -0.0535318 -0.0044808043 -0.035364702 0.00016331293
0000c0 39 3a 57 bc 82 83 69 bc 67 56 39 3c 70 21 0d bd
       -0.01313644 -0.014252545 0.011312104 -0.034455717
0000d0 db aa ad bb 57 89 85 3c 76 9d 12 bb e0 21 8a 38
       -0.0052999086 0.01630084 -0.0022371686 6.5866625e-05
0000e0 ef 8e d9 bc 7a 0d 37 bd fd 01 c1 b9 36 0e 6a 3d
       -0.026557414 -0.044690587 -0.0003681331 0.05714246
0000f0 96 b3 ad 3b 75 b2 06 bd 84 fe 87 39 4b f9 7d 3b
       0.0053009493 -0.032885034 0.00025938835 0.0038753327

out.weight f4 [1, 64]
000000 ce f8 b1 3c 7e 30 8e bd 6d 28 03 bd 3f dc 3a bd
       0.021725085 -0.06942843 -0.032020975 -0.0456202
000010 81 4e 5b bc 9b 09 78 3d 30 28 d6 3d 47 77 ad bd
       -0.013385416 0.060556035 0.10456884 -0.08470016
000020 dc 78 b8 3c 9e 10 6b bd 2c 8f 2b bd a1 69 06 3c
       0.022518568 -0.057388894 -0.041884586 0.008203895
000030 c7 37 b2 3b 17 c8 44 3d e2 9d 5e bd 8e 90 57 3d
       0.005438778 0.048042383 -0.054349788 0.052628092
000040 cc 15 bf bc fa b0 e4 3c c5 2e e5 3c 7d 87 99 3d
       -0.023325823 0.02791642 0.027976403 0.074965455
000050 96 4e c1 bd 56 e0 07 bd 11 ab 77 bd 5d c2 7c 3a
       -0.09438817 -0.033172928 -0.060465876 0.00096419995
000060 23 11 0b 3d 17 cd 3a bd d4 28 84 bd d9 a5 9e 3d
       0.03395189 -0.045605745 -0.064531 0.07746477
000070 95 38 df 3d a1 b8 c7 bd 69 d5 98 3d d5 df 68 3d
       0.10899464 -0.09752012 0.0746258 0.056854088
000080 98 79 cb bc 12 97 3f bd 9a 79 ab 3d ac 3f 0d 3d
       -0.024838254 -0.04677493 0.08372803 0.03448455
000090 1a 6b 74 bd ac 08 68 bd 3c d9 2e 3d 93 1f 54 bd
       -0.059672453 -0.056648895 0.04268764 -0.051787924
0000a0 58 3d 57 bc b4 6a ae 3d dc f8 91 3d ba b3 c8 3d
       -0.013137184 0.08516446 0.07127544 0.09799905
0000b0 7b 52 0d 3c da c9 ed 3d c6 2b 49 3c 1e 08 16 bb
       0.008625622 0.11610766 0.012278503 -0.0022893022
0000c0 ae 95 0c 3b 02 c5 11 bc 0c be e8 bc 4a e3 a8 3d
       0.002145152 -0.008897068 -0.028410934 0.08246477
0000d0 2c f5 b4 bb 17 65 d3 3d c6 5e 7e 3d b5 92 98 bd
       -0.005522391 0.10322016 0.0621021 -0.07449857
0000e0 a1 c8 b5 bd 61 eb 94 3c 93 76 d9 3d 3b 89 26 bd
       -0.088761576 0.018178644 0.10618319 -0.040658217
0000f0 7b 64 59 bd 39 6d 68 3d 8f 45 e4 bc 56 a1 d4 bd
       -0.05307434 0.056744788 -0.0278652 -0.10382335

sep_conn.weight f4 [64, 45]
000000 f6 a5 03 be 8b 46 a0 bc 84 3a 1f bd f5 9a 91 ba
       -0.12856278 -0.019564888 -0.038874164 -0.0011108803
000010 a4 d6 f6 3d 38 54 e0 bd 8b 42 ef 3d 93 e8 f1 bd
       0.12052658 -0.109535635 0.11682614 -0.11811938
000020 78 a1 c9 bd 8f 85 1e 3d 72 42 91 bd 39 3a 41 3d
       -0.09845251 0.03870159 -0.070927516 0.047174666
000030 d0 02 40 3d 1e 51 24 bd 86 3d 85 3d ab f7 eb 3d
       0.046877682 -0.040116422 0.06505875 0.11521848
000040 db 4a 33 3d ec 9f 10 bd 8c 17 be bc 73 fc 15 be
       0.04377256 -0.035308763 -0.023204587 -0.14647083
000050 6e 32 0a 3e 00 30 0a be 8b 39 1d bd 08 d3 ad bd
       0.134958 -0.13494873 -0.038384955 -0.08487517
000060 bb 82 39 3d 93 c7 58 3d b8 ce 09 3e 47 4e 6d bd
       0.04529069 0.052924704 0.13457763 -0.05793598
000070 b4 e9 a5 bd f1 a4 7a 3c 48 d9 fd bc ec bf dc bc
       -0.08101216 0.015298114 -0.030987397 -0.026946984
000080 c3 a3 71 bd 1c 71 ef bc fd 84 ac 3c 50 8a 4d bd
       -0.058994066 -0.02922874 0.021059508 -0.050180733
000090 dd 38 c2 bd 39 fd ed 3d ef 4a 12 bc 7a 7d c3 3c
       -0.09483502 0.11620564 -0.008928998 0.023863543
0000a0 8d 23 87 bd dc b6 d2 3d 08 bf aa bc 69 9b a5 bd
       -0.06598578 0.10288784 -0.020843044 -0.08086283
0000b0 58 5e a8 bd 22 09 c7 bb 5b 0d bd 3d a6 8e 04 3e
       -0.0822112 -0.0060740868 0.09231063 0.12945041
0000c0 e3 ee df bd bf c3 63 bd 90 22 68 3d bc 44 ea 3d
       -0.10934236 -0.0556066 0.056673586 0.11438891
0000d0 09 b4 8a bd 6f b2 0c 3c 93 e2 91 3d 1b 74 83 bd
       -0.0677262 0.008587464 0.07123294 -0.0641863
0000e0 29 b3 91 bd b7 a1 ea 3d c1 92 08 3e e7 a5 5d bd
       -0.0711425 0.11456626 0.13337232 -0.054113295
0000f0 2c 3e 41 3b be a2 57 bd c6 c8 a3 bc ad 84 fa 3d
       0.002948652 -0.052645437 -0.019993197 0.12232337
000100 b4 df 0f 3e be 41 e5 3d e8 56 10 3e 92 2e 80 3d
       0.1405018 0.1119418 0.14095652 0.062588826
000110 ee 5e ca bd dd 15 44 3c 2c 9c d0 3d 69 dc fe bd
       -0.09881388 0.011968103 0.101860374 -0.12444384
000120 94 51 01 be cb c3 e7 3c ba 18 9d bc 58 8e 72 3d
       -0.12628776 0.028291604 -0.01917683 0.05921778
000130 69 a1 e6 3d 7b 73 53 bd 89 9c 10 3e f6 d7 8f bd
       0.11261255 -0.051623803 0.14122213 -0.07023613
000140 97 aa 77 3c 1b 29 84 bd 0d 63 00 be a9 54 12 bd
       0.015116355 -0.06453153 -0.12537785 -0.03572527
000150 9f 93 06 be 99 cd b7 bd 98 bd 8f bd 5f c0 c3 bb
       -0.1314225 -0.089747615 -0.07018584 -0.00597386
000160 ee a8 25 bd 29 1f c9 3d 7b 3e 04 be 6e 0a 7f bd
       -0.040444307 0.098203965 -0.1291446 -0.062265806
000170 91 66 fc bd 6b 7a 1e bd a6 04 32 bd 16 d5 d8 bd
       -0.123242505 -0.038690966 -0.043461464 -0.10587518
000180 62 3b 01 3e 9a c5 f8 bb 32 44 7a bd 2a 0e 17 be
       0.12620309 -0.0075919153 -0.061100192 -0.14751497
000190 02 6d ef 3b 84 f9 bb bd b6 72 cc 3d 5d dc f8 bd
       0.007306696 -0.09178451 0.09982817 -0.12151406
0001a0 02 d1 89 bd c5 30 f0 3d 60 d8 87 bb f3 10 e4 3d
       -0.06729318 0.11728052 -0.004145667 0.11136045
0001b0 cd a1 10 be 53 aa 19 bd 3a a0 b4 bd 72 d8 43 3d
       -0.14124222 -0.03751595 -0.08819623 0.04781384
0001c0 f6 dd fa 3b 87 fe bb bd 97 29 0f be 2f a9 8c 3d
       0.0076558543 -0.091794066 -0.13980709 0.06868207
0001d0 62 45 89 bd 6f 51 a9 bd e0 fe c0 3d ac 43 c3 3d
       -0.06702687 -0.08267485 0.094236135 0.09534392
0001e0 39 ea 0d be 0d a3 96 bd 19 bb 11 be 95 38 0a bc
       -0.1385888 -0.07355318 -0.14231528 -0.008436342
0001f0 0f 30 ea bd 22 0d dc 3d 0f 71 87 3d e0 20 d2 3d
       -0.11434948 0.107446924 0.06613361 0.10260177
000200 5b 11 b0 bc 37 ea 21 bc 69 40 c2 3d 19 d3 f1 3d
       -0.02149265 -0.009882501 0.094849415 0.11807842
000210 30 af 01 3e 3e 1d 30 3d 89 5f fd 3d 05 37 90 bd
       0.12664485 0.042996638 0.123717375 -0.07041744
000220 b2 dd d5 3d cf a5 90 bc 62 3c a8 bc 6c e0 95 3d
       0.10442676 -0.017657189 -0.020536605 0.07318196
000230 3a 1e cc 3a a7 b7 f1 3d 2e 98 92 3d dc b3 f7 bd
       0.0015572973 0.11802607 0.07157932 -0.12094852
000240 ea d7 be bd 4f 14 11 3d 44 f2 5d bd bf c0 16 ba
       -0.09318526 0.03541976 -0.05418612 -0.00057507673
000250 2e f1 79 3d 31 5f e5 3d 56 c7 df 3d 52 e8 e6 bc
       0.061021022 0.11199797 0.10926692 -0.02818695
000260 fa 50 d2 bc f2 e3 3e bd 09 ef 68 3d 09 40 1c bd
       -0.025673378 -0.046604104 0.056868587 -0.038147006
000270 f3 cd 14 3e ee 4b 8d bd 38 a7 e3 3d 11 57 a8 3c
       0.14531688 -0.06899248 0.11115879 0.020549329
000280 b1 2a c7 bd 00 de 39 bd 19 fa c3 3d 42 60 66 bd
       -0.097249396 -0.04537773 0.09569187 -0.056244142
000290 84 e8 ea bc f6 0d 53 3c 5b c4 0e 3e 93 f1 06 bd
       -0.028675325 0.0128817465 0.13942091 -0.032945227
0002a0 e9 f6 e6 bd 03 3b 11 3e 28 52 9d 3c 66 31 98 bb
       -0.11277563 0.14182667 0.019204214 -0.0046445606
0002b0 54 86 d3 bd 19 c6 f3 bd 8b 2c 64 3d f3 6c ab bd
       -0.103283554 -0.119030185 0.055706542 -0.0837039
0002c0 95 c4 11 3e fb f5 a0 3d 1e ff 06 3e d4 a3 98 3d
       0.14235146 0.07859417 0.13183257 0.07453123
0002d0 24 6d 02 3e 7c f5 24 3b 70 87 71 3d b1 06 cb bd
       0.12736946 0.0025170734 0.058967054 -0.09913386
0002e0 1e 3a c0 bc c8 d1 79 3c c4 c0 ab 3d d5 8f 4f bb
       -0.023465212 0.01524777 0.083863765 -0.0031671424
0002f0 5e 6a f5 bd b2 97 18 be 2d 21 7d 3d ea 95 c7 bd
       -0.119831786 -0.14901617 0.061799217 -0.09745391
000300 60 2a f0 bd 1c bc 16 be 73 9e 04 be 45 5c 6b bc
       -0.117268324 -0.14720196 -0.12951069 -0.0143652605
000310 30 8c d3 bc cf 23 d7 3d ad db 16 be 45 60 bf bd
       -0.025823683 0.10504877 -0.14732237 -0.09344534
000320 93 43 b5 bd 8a 97 0d 3e 58 39 6e bd 95 fd 80 3c
       -0.088507794 0.13827339 -0.058160156 0.015745917
000330 f1 38 3e 3d d9 cc 07 3e 59 4d 98 3d ce 7e 09 be
       0.046441022 0.13261737 0.07436628 -0.13427278
000340 8a a1 da bd 64 1b 4a bd dd 8f 41 bc bb 51 bd 3d
       -0.106753424 -0.049342528 -0.011814085 0.092441045
000350 50 27 cd 3c 51 a3 5f bd 93 ac 11 be a1 8d 94 bc
       0.02504316 -0.05459911 -0.14225988 -0.01813394
000360 9f 64 9d bd 43 75 d4 bc 5f 82 c6 ba 2d 96 06 bd
       -0.076852076 -0.025934821 -0.0015145055 -0.032858063
000370 6f d7 c9 bc 67 37 62 bd 27 92 e2 bd b0 e6 13 3d
       -0.02463886 -0.055228617 -0.110630326 0.036108673
000380 df fd 74 bd d1 a4 93 bd e7 f3 02 3e 6e b6 bd 3c
       -0.059812423 -0.072091706 0.12788354 0.023158278
000390 1f c7 f3 3d 78 ea 13 3c 70 74 5c 3d 52 1f 07 bd
       0.11903214 0.00902807 0.05382198 -0.032988854
0003a0 af 26 84 3d dd 92 c6 bd 5c cc 60 bd a0 c3 b5 3d
       0.06452691 -0.09695981 -0.054882392 0.08875203
0003b0 13 9c 43 3c 27 0c 17 be a9 65 80 3d 7e 10 cb bd
       0.011939066 -0.1475073 0.0626939 -0.09915255
0003c0 90 7c 2f 3d 98 bb 4e bd 98 01 b7 bd be de db bd
       0.0428434 -0.050471872 -0.08935851 -0.10735844
0003d0 79 f6 80 bd a0 03 32 bd d9 58 65 3d 99 01 f5 bd
       -0.06297011 -0.04346049 0.055992935 -0.11963195
0003e0 a8 59 5f bd af 80 d3 bd e4 cf 00 be 55 ab b2 3c
       -0.054528862 -0.10327279 -0.12579304 0.021810213
0003f0 f0 35 bc bd 44 fb 3a bd b1 ae e3 3c 4a 6b 1b 3d
       -0.09189975 -0.04564978 0.02779326 0.037944116

sep_conn.bias f4 [64]
000000 de e0 06 be 52 ce 62 3d b1 ac b2 bd 74 78 09 be
       -0.13171718 0.055372544 -0.087243445 -0.13424855
000010 6f 45 bd 3d 56 76 14 be 6a 90 b8 3c ce a6 7f bd
       0.09241759 -0.14498267 0.0225298 -0.062414937
000020 f5 94 b5 3d 2c 8a c2 3d ee e1 be 3d b4 99 04 be
       0.08866302 0.094990104 0.093204364 -0.12949258
000030 2b 9a ca bd 52 46 c3 3d 3e cc aa bd a8 45 a8 3d
       -0.098926865 0.09534897 -0.08339737 0.08216411
000040 96 9e 12 3e 0a b1 0e bd 4e 38 11 3e 0e 0f 68 bd
       0.14318308 -0.034836806 0.14181635 -0.056654982
000050 93 7b e6 3b 63 66 bd 3d 5b 8d 04 3e 72 24 aa 3c
       0.007033774 0.09248044 0.12944548 0.020769332
000060 ac 10 8a bc aa a2 12 3c aa d1 7f 3b d9 40 07 be
       -0.016853653 0.008949915 0.0039034882 -0.13208331
000070 bb c6 54 3d 56 0a e7 3d 86 9f d5 3d 68 a1 88 bd
       0.051947337 0.11281268 0.10430817 -0.06671411
000080 8b 9c ef 3d 6c 5b c7 3b 2e 3e 1d 3d d3 97 9b 3d
       0.1169978 0.0060838964 0.038389377 0.075973175
000090 b6 51 ac bc 80 d0 6c 3d 49 78 6f 3d 94 5c 1f bd
       -0.021035057 0.05781603 0.058464322 -0.03890665
0000a0 13 55 05 be f5 64 82 3d a3 7d 10 3e 3a 5e fa 3d
       -0.13020734 0.06366912 0.14110427 0.122250035
0000b0 a2 f5 85 bd 3f d7 c4 bd 62 2a 14 be 42 89 f8 bd
       -0.06540991 -0.096113674 -0.14469293 -0.12135555
0000c0 6d 53 93 bc cf 2f aa 3d fa ea 90 bd 64 a9 5f bd
       -0.017984116 0.083099 -0.07076068 -0.054604903
0000d0 31 a6 e6 bd 3c b6 16 bd 99 4a be 3d 34 d4 04 be
       -0.11262167 -0.036794886 0.09291572 -0.12971574
0000e0 50 f7 a9 bc a3 87 13 be 9d 00 89 3c 2d 81 17 be
       -0.02074781 -0.1440721 0.016723925 -0.1479537
0000f0 89 4b 14 bd 4d 95 ce 3d a2 28 c7 bd 3e 86 9a bc
       -0.03620485 0.100870706 -0.09724547 -0.01886284

bn.weight f4 [64]
000000 92 54 77 3f 97 b6 7a 3f 93 66 78 3f 0e 6d 78 3f
       0.9661342 0.9793486 0.97031516 0.97041404
000010 b0 dc 7d 3f cb 62 79 3f 43 9e 79 3f 46 10 78 3f
       0.9916487 0.9741637 0.97507113 0.9689983
000020 fa 95 77 3f ee 2d 78 3f 8b 03 79 3f 33 82 79 3f
       0.9671322 0.96945083 0.9727103 0.97464293
000030 22 af 79 3f ce 7e 7d 3f ee 13 78 3f e7 a3 78 3f
       0.97532856 0.99021614 0.9690541 0.97125095
000040 4a 59 7a 3f ba d8 76 3f d3 79 79 3f 33 ad 77 3f
       0.97792494 0.9642445 0.97451514 0.96748656
000050 d1 03 7b 3f 51 28 79 3f c3 b1 77 3f 48 44 79 3f
       0.980527 0.9732714 0.9675562 0.97369814
000060 33 a3 7e 3f 24 32 7b 3f e9 59 77 3f 9c 96 78 3f
       0.9946777 0.98123384 0.96621567 0.9710481
000070 d9 3b 79 3f 7f 91 77 3f 49 05 7a 3f d8 ef 79 3f
       0.97356945 0.96706384 0.97664315 0.976316
000080 75 b3 76 3f fc ba 7b 3f 01 88 78 3f 69 4b 7a 3f
       0.9636758 0.9833219 0.97082525 0.97771317
000090 aa b4 77 3f 44 cd 79 3f ce 5f 78 3f 6d e0 79 3f
       0.96760046 0.97578835 0.97021186 0.9760807
0000a0 bc 1d 77 3f 85 e7 7a 3f dd 2a 78 3f b5 6c 77 3f
       0.96529746 0.9800952 0.96940404 0.9665025
0000b0 c2 19 78 3f 3b 71 7e 3f 02 1d 76 3f 5b ff 78 3f
       0.96914303 0.99391526 0.9613801 0.9726464
0000c0 07 76 77 3f 0f 0c 77 3f e9 eb 76 3f e7 29 78 3f
       0.9666447 0.96502775 0.9645372 0.9693894
0000d0 dc f9 75 3f 53 fc 7a 3f 40 1a 78 3f f1 93 79 3f
       0.9608438 0.98041266 0.96915054 0.97491366
0000e0 f3 b1 7c 3f 68 c7 77 3f e1 3a 7c 3f eb 76 78 3f
       0.9870903 0.96788645 0.9852734 0.97056454
0000f0 af 78 76 3f 93 47 7b 3f 32 40 79 3f ef ac 79 3f
       0.962779 0.9815609 0.9736358 0.975295

bn.bias f4 [64]
000000 c6 44 b4 bc ab 38 eb bb 9e e2 9c bc 78 16 c1 bc
       -0.02200545 -0.007178386 -0.019151028 -0.023570284
000010 88 42 36 bc 4d 31 a6 bb 48 9a 40 bb ed 67 ba bc
       -0.011124261 -0.005071795 -0.0029388834 -0.022754634
000020 fc d5 e8 bc eb 69 9d bc a7 8c a3 bb 9a cb 6d 39
       -0.028422348 -0.019215545 -0.0049911323 0.00022677929
000030 ed ad 7b 3c 84 e9 f6 3b cc 86 ab bc f5 02 ce 3b
       0.015361291 0.0075351615 -0.0209383 0.0062869736
000040 8d 62 0f 3c 7d a6 9d bc ba 77 0f 3c 50 fc fa bb
       0.008751524 -0.019244427 0.008756572 -0.0076594725
000050 ff f0 4e bc ae 58 5f bc f4 8d a4 bc 4f 57 58 bc
       -0.0126307 -0.013631983 -0.02008722 -0.01320441
000060 cb a9 92 3c 9e 0b f4 bc 1f 84 2b bb b6 6e 07 bc
       0.01790323 -0.029790696 -0.002617128 -0.008266142
000070 5e 96 3e bb ea 1c a8 bc 25 c8 93 bc 4f b4 ad 3a
       -0.0029081325 -0.0205216 -0.018039772 0.0013252589
000080 cc af 49 bc 61 4b e0 bc 9b a5 1f 3c 0d 4d bc bb
       -0.01230998 -0.027379693 0.009744073 -0.00574649
000090 2e 3f b1 bc 4c 9e 78 bc dd aa e7 bc ac 5f b7 bc
       -0.021636572 -0.01517446 -0.028279716 -0.022384487
0000a0 27 a1 5b bb b6 b8 29 3a 51 56 b1 bb 8e 51 ab bc
       -0.0033512802 0.00064743625 -0.005411901 -0.020912912
0000b0 fa 9f 9c ba 54 d4 97 3c 42 ec 80 3a 21 50 a7 3c
       -0.0011949532 0.018533863 0.0009836035 0.02042395
0000c0 70 fc 51 bc 6f ec 96 bc 73 da ec 3b c0 2f a1 bc
       -0.012816533 -0.018423287 0.0072281896 -0.01967609
0000d0 a0 1b 9c bc fa 36 8f bc e3 dc e1 bc ac 62 9b bc
       -0.019056141 -0.01748227 -0.027571147 -0.018967949
0000e0 d3 f7 52 bc f3 b8 3d 3c 34 88 67 3b 27 3e ea bb
       -0.012876469 0.01157974 0.0035328986 -0.0071485224
0000f0 06 05 c8 bc 85 6b d5 bc 6b d0 b0 3b 2a 3a 58 bc
       -0.024416458 -0.026052246 0.005395939 -0.013197461

bn.running_mean f4 [64]
000000 56 83 65 3d 75 eb 83 bd 39 dd 7e bd 8c 12 52 3d
       0.056033455 -0.06441394 -0.062222693 0.05128722
000010 92 70 08 be bb 9f 10 3e 92 b4 bd 3d c0 b2 6d be
       -0.13324192 0.14123432 0.09262957 -0.23212719
000020 69 43 d0 bd ef fe 42 3c 75 50 75 3d 0b 66 c3 3d
       -0.101691075 0.011901601 0.059891183 0.095409475
000030 64 34 2b 3d c1 a3 2f 3e 75 27 86 3e b9 f8 50 3d
       0.04179801 0.17152311 0.26201978 0.05101845
000040 b6 e7 0c be 16 b6 35 be e7 77 94 bc 00 87 85 bb
       -0.13760266 -0.17745242 -0.01812358 -0.004074931
000050 70 7d 8f 3c 1c 37 64 3d 38 95 46 be 72 27 13 3e
       0.017515868 0.05571662 -0.1939286 0.14370516
000060 4e 03 91 3d 6c b2 52 be 1a f3 0b bd b8 09 b5 3e
       0.070807084 -0.20575875 -0.034167387 0.35358977
000070 f3 50 83 3e 80 68 0f be 6c 89 aa be a5 f4 4e 3d
       0.25647697 -0.14004707 -0.3330797 0.05052628
000080 e3 12 e6 3d fa f4 6f be cb d8 51 be 48 99 f9 3d
       0.11234071 -0.23433295 -0.20492856 0.12187439
000090 ae 1b 30 3c 1b a0 a5 bc a7 1f 25 3e b6 2f 8f bc
       0.010748787 -0.020217946 0.16125356 -0.017478805
0000a0 52 f2 5e bd 23 64 16 3e 24 e4 32 3e 15 72 31 be
       -0.054430313 0.14686637 0.17469841 -0.17328675
0000b0 de b0 9f 3d 61 9c e1 bd 8a 30 fa 3d 7e b8 b6 bd
       0.077974066 -0.11016155 0.12216289 -0.08921908
0000c0 85 2b 86 3d 9a 2f 89 3d 61 11 23 be 60 3c d2 3d
       0.065512694 0.066985324 -0.15924598 0.10265422
0000d0 81 62 34 bd f2 b9 26 3e de c5 17 3e 8b 75 23 3e
       -0.044039253 0.1628187 0.14821574 0.15962808
0000e0 d9 cd ad 3d 6e d8 11 3c a9 7f 18 bd ae 16 bf 3d
       0.08486528 0.0089016985 -0.03723112 0.09330498
0000f0 ac a3 ba 3e f4 74 da 3d 28 61 fb 3c d1 b5 3f 3d
       0.36452997 0.10666838 0.030685976 0.046804253

bn.running_var f4 [64]
000000 58 53 a6 3d 78 82 e5 3d be a9 0b 3e 97 5b 05 3e
       0.08121365 0.112065256 0.1363897 0.1302322
000010 3f dd d7 3d aa 8d ef 3d b5 df 1a 3e f0 31 ff 3d
       0.10540246 0.11696942 0.151244 0.12460697
000020 5c f0 c9 3d 24 48 ef 3d dc 90 25 3e 6f d9 d2 3d
       0.09860298 0.116836816 0.1616854 0.102953784
000030 13 da bd 3d b1 bb ff 3d 05 a0 11 3e 99 df 04 3e
       0.0927011 0.12486971 0.14221199 0.1297592
000040 09 11 e0 3d cc d4 f4 3d fe 04 bb 3d f9 d2 fe 3d
       0.10940749 0.1195465 0.091318116 0.124425836
000050 c8 bb 1a 3e 11 17 db 3d 21 ef ed 3d 3f 84 0b 3e
       0.15110695 0.10697759 0.11617876 0.13624667
000060 00 a2 32 3e 44 58 0b 3e 62 47 df 3d 5e 24 1d 3e
       0.1744461 0.1360789 0.10902287 0.15345904
000070 ad 10 be 3d 56 c2 0b 3e 5a 7a f8 3d e0 a7 ea 3d
       0.092805244 0.13648352 0.12132712 0.11457801
000080 46 84 01 3e 06 4d ee 3d 97 ec 57 3e 62 ab f0 3d
       0.12648115 0.11635785 0.21086346 0.11751439
000090 29 c3 1a 3e a0 68 f7 3d ed 42 f2 3d 59 7d dd 3d
       0.1511351 0.120805025 0.11829171 0.10814924
0000a0 13 a4 ef 3d 06 38 bd 3d de 4e ee 3d ab a8 25 3e
       0.117012165 0.09239201 0.116361365 0.16177623
0000b0 ac b7 97 3d 6b 03 31 3e 89 44 97 3d 00 5f 8f 3d
       0.074080795 0.1728646 0.07386119 0.07000542
0000c0 09 8b 97 3d ea ba ea 3d 12 79 96 3d 3e 96 d7 3d
       0.07399566 0.11461432 0.07347311 0.10526703
0000d0 9f 19 f2 3d db f1 32 3e ce 01 f0 3d 92 dc 0a 3e
       0.11821293 0.17475073 0.11719094 0.13560703
0000e0 a3 07 d6 3d b5 07 f9 3d fc f0 34 3e 91 3a e7 3d
       0.10450675 0.12159673 0.17670053 0.112904675
0000f0 1a b3 24 3e 27 a5 24 3e dc b5 e0 3d 77 a0 ec 3d
       0.16083947 0.16078626 0.10972187 0.11554044

net.0.weight f4 [64, 45]
000000 1c ee a1 3d 19 6f ff bd 87 ef 50 bd 65 4f ff 3d
       0.07906744 -0.12472362 -0.05100968 0.12466315
000010 45 6e f5 bd e8 01 17 bd 98 01 f3 3d 1f b3 28 bd
       -0.11983923 -0.036867052 0.11865538 -0.04118645
000020 28 87 b2 3c b1 c5 30 bd 2e 4d 60 bc 55 ef a5 bd
       0.021792963 -0.043157283 -0.013690276 -0.081022896
000030 2b 21 32 3d c0 bd 4f bd 78 42 58 3b 55 11 1e be
       0.043488663 -0.05071807 0.0032998603 -0.15436299
000040 6c 38 64 3d 13 58 04 3e 75 f5 d8 bc 93 a4 c0 bd
       0.05571787 0.12924223 -0.02648423 -0.0940639
000050 ec 2e f5 ba e4 5a 1a 3c 58 a7 06 3e 26 03 b6 3d
       -0.0018706 0.009421084 0.13149774 0.08887319
000060 cc 87 1a bd 45 70 7f 3d a1 3f b8 bd 56 6c 19 3e
       -0.037727162 0.062362928 -0.08996511 0.14982733
000070 98 bf c3 bd 12 8d 4c 3d 61 16 ca bc 11 10 e5 3d
       -0.09558028 0.049939223 -0.024668874 0.11184705
000080 eb 7c 83 bd 32 b4 9d bd 25 50 ce bd 72 73 b3 bd
       -0.064203106 -0.07700385 -0.1007388 -0.08762254
000090 82 85 cb 3d f3 96 f0 bd f5 2a e2 bc 88 df e9 bd
       0.09937574 -0.11747541 -0.027608374 -0.11419588
0000a0 1a 0b 0c 3e 99 ad 11 3c ef b2 da bd 02 11 f4 3d
       0.1367611 0.008891487 -0.1067866 0.119173065
0000b0 7c f5 d7 3b 9c ac 77 bc 07 4d f6 3c 3c d5 00 be
       0.0065905433 -0.015116837 0.030066026 -0.12581342
0000c0 2e 5e f0 bd a7 aa c5 3c be df 0c 3e 09 9e f5 bd
       -0.11736713 0.024129225 0.13757226 -0.119930334
0000d0 69 2f 48 3d 45 f8 23 bd 62 69 09 be 9d f5 c0 3d
       0.04887334 -0.04003169 -0.13419107 0.09421847
0000e0 f7 26 69 3d 18 9b 64 3d ce dd ff bd be 03 18 3e
       0.056921925 0.05581197 -0.12493478 0.14845178
0000f0 d4 34 20 be 0f c5 fd 3b d9 ea b4 bd 13 23 73 bd
       -0.15645152 0.0077444385 -0.08833856 -0.05935962
000100 8c 79 03 3e 81 38 32 bd 32 7e d1 bd 0d e6 90 bd
       0.12839335 -0.043510918 -0.10229148 -0.07075129
000110 62 9a e1 3d d9 82 19 be d4 79 fe bd 5c 06 d6 3c
       0.11015774 -0.1499132 -0.124255806 0.02612608
000120 7f 9a bf 3d 87 8d b2 3d 91 06 c9 3d 43 40 f5 3d
       0.0935564 0.087184004 0.098157056 0.119751476
000130 9a cf 92 3c 1d 29 08 be 5a a7 c7 bd 87 74 07 be
       0.017921258 -0.13296933 -0.09748717 -0.13228045
000140 9f 7b e3 3d 7a b0 78 bd cd bf 0a 3e 87 fd 0b 3e
       0.11107563 -0.060715176 0.13549729 0.13670932
000150 a7 3b 11 3d 9e 9e c7 bd db 6b 6c 3c 5f a7 99 3c
       0.03545728 -0.09747051 0.014430012 0.018756567
000160 a7 59 87 3d 86 5a e6 bd ef 52 78 bd d4 e8 d3 3d
       0.06608897 -0.11247735 -0.060625967 0.10347143
000170 29 0a c6 bd 64 e9 ea bd cf 1e 83 bc 4b 88 e9 3d
       -0.09669907 -0.11470297 -0.016005902 0.11402949
000180 2f 29 20 be ba e6 73 bc 04 b0 d3 bd 4a 37 a7 bd
       -0.1564071 -0.0148865525 -0.10336307 -0.081648424
000190 46 36 96 bb d4 ee 7d 3a 91 9f cd bd 6e 44 02 bd
       -0.0045841066 0.0009686772 -0.100402005 -0.03180354
0001a0 21 08 84 bd 88 a6 b7 bd ba 05 22 bd e2 89 ae 3c
       -0.06446863 -0.0896731 -0.039556243 0.021305982
0001b0 59 5c ac bd 29 c8 a0 3c 0d 83 c8 bd 5c dd d3 3d
       -0.084160514 0.019626694 -0.09790621 0.10344955
0001c0 ac b0 a9 bb 68 19 aa 3d 9f b4 fc 3d 48 1d 10 3d
       -0.0051785316 0.08305627 0.12339138 0.035184175
0001d0 d0 0b d6 bd 39 0c b0 bd 8c 1a d0 bb 83 70 f7 3d
       -0.10451472 -0.08596081 -0.006350821 0.12082007
0001e0 46 25 b5 bc cb 0b 5b 3d db 42 6b bd 97 17 d1 bd
       -0.0221125 0.053478044 -0.057436805 -0.102095775
0001f0 f2 eb 55 3d 85 91 b5 bd e5 88 81 3d 1a c8 ef 3c
       0.052226968 -0.08865646 0.06324939 0.02927022
000200 a3 8f ee bd cf 5c 1c bd 8b e7 0d be b9 ec ae 3d
       -0.1164849 -0.038174447 -0.13857858 0.08541245
000210 f3 6b fc 3d 25 84 1f 3e 2e df 13 3e bd 7f a1 bc
       0.12325277 0.15577753 0.14440605 -0.01971423
000220 13 17 b8 bd 59 cf 0a 3e e1 73 ad 3d 68 cc 83 bd
       -0.08988776 0.1355566 0.08469368 -0.06435472
000230 12 d6 e0 bd 4b 5f 72 3d 49 8e 21 bd c3 f7 04 bc
       -0.10978331 0.05917291 -0.039442334 -0.008115712
000240 0b 50 eb bc 08 11 9b bd 60 cb 61 bd 01 4f 26 3d
       -0.02872469 -0.07571608 -0.055125594 0.040602688
000250 46 81 76 3d 10 34 4b bd b3 23 f4 bd ac 6d c2 bd
       0.06018188 -0.049610198 -0.119208716 -0.094935745
000260 0e 07 ff bc 6b a2 9b bd ec 2c e4 3d db d7 c2 bd
       -0.031131294 -0.07599338 0.11141381 -0.095138274
000270 e9 17 01 be 51 84 a4 bd 86 80 cd 3d e9 0e ce bd
       -0.12606777 -0.0803305 0.100342795 -0.10061438
000280 b7 ed 36 bb c4 ed 8a bc fa 65 1f be f5 eb 81 bd
       -0.0027912685 -0.016959079 -0.15566245 -0.06343833
000290 39 29 22 3e b2 51 86 3d 8c c1 85 bd ee 0d fa bd
       0.15836038 0.06558551 -0.06531057 -0.12209688
0002a0 97 42 c0 bd e3 16 b0 bd 8f 2d f4 bd 28 4d c1 bd
       -0.09387701 -0.08598115 -0.11922752 -0.094385445
0002b0 6f eb 1a 3e 4a c5 08 3e 09 8d a6 bd 6e 4e bd bd
       0.15128873 0.1335651 -0.08132369 -0.09243475
0002c0 50 20 b6 3d 87 53 b2 bd 19 9f af bd 02 d6 e3 bd
       0.08892882 -0.08707338 -0.08575267 -0.11124803
0002d0 a2 4d 82 bd f6 f9 d9 bd 72 76 3e bd 3e 0d e8 bd
       -0.063624635 -0.106433794 -0.046499677 -0.11330651
0002e0 58 f4 96 bd d0 b2 d9 bb a6 29 52 bd e5 08 aa 3d
       -0.073708236 -0.0066436306 -0.05130925 0.08302478
0002f0 d3 fd 0b be 0d 4b e2 bd bd 40 c4 bd ae 54 95 3d
       -0.13671045 -0.11049471 -0.0958266 0.07291542
000300 b6 5b 05 3e 7c da fd 3d 04 ce 40 bd 9e cd 5a 3d
       0.13023266 0.12395188 -0.04707147 0.053418748
000310 7d 43 40 3d 88 bb cd bd ce 0a 23 3e 7c 6c 73 3d
       0.04693936 -0.10045534 0.1592209 0.05942963
000320 19 fd f4 3d b1 ea 6b bd 8c 2a 1e 3c d5 b5 22 3d
       0.11962337 -0.057596866 0.009653699 0.03972419
000330 da 0a 5e bd 10 b8 c7 bd 6a ee b0 3b fa 56 80 bc
       -0.054209568 -0.09751904 0.005399515 -0.015666474
000340 ba 5e ac bc 38 28 c2 3c 90 11 2b 3e 72 3a 47 3d
       -0.021041263 0.023700818 0.16705918 0.048639722
000350 ba cb c5 bd d3 55 87 3d fa 08 e6 bd 2e 6b d3 3d
       -0.096579984 0.066081665 -0.11232181 0.10323177
000360 6d 80 73 3d f0 7a 01 3e fd f6 75 bd 82 96 87 3d
       0.05944865 0.12644553 -0.06005 0.06620504
000370 48 26 e1 3d e7 bf 09 3e 3b ba d5 bd 6b bd 27 3e
       0.1099363 0.13452111 -0.10435911 0.16380851
000380 66 55 c2 3c a7 52 87 bc 82 37 b7 bd 24 89 ff 3d
       0.023722362 -0.016518904 -0.08946134 0.124773294
000390 80 03 10 3e 7f 30 93 bd 46 0e 21 be 3a 13 fa 3d
       0.14063835 -0.07186984 -0.15728101 0.122106984
0003a0 43 1a 00 3d fc ad de bd bd 35 b6 3d 1b 2b 26 3d
       0.031275045 -0.10873029 0.088969685 0.040568452
0003b0 ce 7f 02 3e bd 86 f6 3d 3e 94 15 bd 69 3e 97 bd
       0.12744066 0.12037418 -0.036518328 -0.07384951
0003c0 b0 cd 07 be d4 9d d1 bd 4e dd 1c bd 93 6b db 3d
       -0.13262057 -0.102351815 -0.03829699 0.107138775
0003d0 39 88 99 3d 8b 57 df 3d 31 e0 02 bd 04 46 c9 bd
       0.074966855 0.10905369 -0.031952087 -0.098278075
0003e0 50 a2 86 bd 22 55 4e bd a2 f9 8d 3d ff 9d 96 3b
       -0.065739274 -0.050374158 0.06932379 0.0045964713
0003f0 8f 20 fc 3d 46 63 46 3d 8e 8a 8b 3c c9 5d c6 bd
       0.123108976 0.04843452 0.017033841 -0.09685857

net.0.bias f4 [64]
000000 c8 2a ba ba 04 96 f7 38 27 8b 8f bc e6 e1 48 b9
       -0.0014203424 0.000118058204 -0.017522408 -0.0001915764
000010 12 4b 00 3d df 84 94 3d f4 c9 57 bd 6b 2b c0 bc
       0.031321593 0.07251906 -0.052682832 -0.023458203
000020 19 9d ce bd 28 65 1b bd 30 3a b5 3c 21 f9 62 3b
       -0.10088558 -0.037938267 0.022122473 0.0034633356
000030 5a 01 5c 3a e6 04 68 bb 14 71 d5 bd 3e a7 15 3c
       0.00083925354 -0.003540331 -0.104219586 0.009134112
000040 c6 b3 63 bd 47 2a c4 ba 1c 29 af bd 10 b5 80 3c
       -0.055591367 -0.0014966213 -0.08552763 0.015711337
000050 89 4b a2 3c 55 24 df ba dc 33 c1 3d f5 d4 0c bb
       0.019811409 -0.0017024378 0.094337195 -0.0021489237
000060 11 3e fd bc 69 e6 a4 bd 7d bb 4d 3b e7 7d 96 3d
       -0.030913385 -0.0805176 0.003139227 0.07348233
000070 52 5f a6 3b 08 46 98 bd ee 07 c8 bd 05 ee 9c bd
       0.005077281 -0.074352324 -0.097671375 -0.07662586
000080 93 da e0 3a d1 f7 59 3d 1c fa 49 3d 88 69 e5 3a
       0.0017154984 0.05321485 0.04931079 0.0017502764
000090 5c d1 0e 3d 42 eb 9e 3b fc 8a 79 3b f7 5f fa bc
       0.03486763 0.0048498223 0.0038077226 -0.030563338
0000a0 28 1a 39 38 4f df a7 bb a5 ee 63 3d 77 de 4c ba
       4.4131797e-05 -0.005123056 0.05564751 -0.0007815132
0000b0 21 1e 1b 3d d9 2c 74 3a 5c 72 c3 3d aa a1 bf bd
       0.03787053 0.0009314544 0.09543297 -0.09357007
0000c0 a6 76 9b bd 53 d0 89 bd ba fd 43 bc 41 a5 c2 ba
       -0.0759099 -0.06729188 -0.011962349 -0.0014850275
0000d0 0a b3 bb 3c df 97 b5 bb 6f 76 d2 3d 0d 7b 78 3d
       0.02291252 -0.005541786 0.10276496 0.060664225
0000e0 5c 48 7f 3c 6d e9 25 3c d5 6e a6 3c 47 13 8a bb
       0.015581217 0.010126454 0.02031652 -0.004213724
0000f0 77 49 8d 3d b1 50 5f 3d ac e3 0a 3d b8 cb 3b 3b
       0.06898778 0.054520313 0.03390853 0.0028655361

net.1.weight f4 [64]
000000 92 54 77 3f 97 b6 7a 3f 93 66 78 3f 0e 6d 78 3f
       0.9661342 0.9793486 0.97031516 0.97041404
000010 b0 dc 7d 3f cb 62 79 3f 43 9e 79 3f 46 10 78 3f
       0.9916487 0.9741637 0.97507113 0.9689983
000020 fa 95 77 3f ee 2d 78 3f 8b 03 79 3f 33 82 79 3f
       0.9671322 0.96945083 0.9727103 0.97464293
000030 22 af 79 3f ce 7e 7d 3f ee 13 78 3f e7 a3 78 3f
       0.97532856 0.99021614 0.9690541 0.97125095
000040 4a 59 7a 3f ba d8 76 3f d3 79 79 3f 33 ad 77 3f
       0.97792494 0.9642445 0.97451514 0.96748656
000050 d1 03 7b 3f 51 28 79 3f c3 b1 77 3f 48 44 79 3f
       0.980527 0.9732714 0.9675562 0.97369814
000060 33 a3 7e 3f 24 32 7b 3f e9 59 77 3f 9c 96 78 3f
       0.9946777 0.98123384 0.96621567 0.9710481
000070 d9 3b 79 3f 7f 91 77 3f 49 05 7a 3f d8 ef 79 3f
       0.97356945 0.96706384 0.97664315 0.976316
000080 75 b3 76 3f fc ba 7b 3f 01 88 78 3f 69 4b 7a 3f
       0.9636758 0.9833219 0.97082525 0.97771317
000090 aa b4 77 3f 44 cd 79 3f ce 5f 78 3f 6d e0 79 3f
       0.96760046 0.97578835 0.97021186 0.9760807
0000a0 bc 1d 77 3f 85 e7 7a 3f dd 2a 78 3f b5 6c 77 3f
       0.96529746 0.9800952 0.96940404 0.9665025
0000b0 c2 19 78 3f 3b 71 7e 3f 02 1d 76 3f 5b ff 78 3f
       0.96914303 0.99391526 0.9613801 0.9726464
0000c0 07 76 77 3f 0f 0c 77 3f e9 eb 76 3f e7 29 78 3f
       0.9666447 0.96502775 0.9645372 0.9693894
0000d0 dc f9 75 3f 53 fc 7a 3f 40 1a 78 3f f1 93 79 3f
       0.9608438 0.98041266 0.96915054 0.97491366
0000e0 f3 b1 7c 3f 68 c7 77 3f e1 3a 7c 3f eb 76 78 3f
       0.9870903 0.96788645 0.9852734 0.97056454
0000f0 af 78 76 3f 93 47 7b 3f 32 40 79 3f ef ac 79 3f
       0.962779 0.9815609 0.9736358 0.975295

net.1.bias f4 [64]
000000 c6 44 b4 bc ab 38 eb bb 9e e2 9c bc 78 16 c1 bc
       -0.02200545 -0.007178386 -0.019151028 -0.023570284
000010 88 42 36 bc 4d 31 a6 bb 48 9a 40 bb ed 67 ba bc
       -0.011124261 -0.005071795 -0.0029388834 -0.022754634
000020 fc d5 e8 bc eb 69 9d bc a7 8c a3 bb 9a cb 6d 39
       -0.028422348 -0.019215545 -0.0049911323 0.00022677929
000030 ed ad 7b 3c 84 e9 f6 3b cc 86 ab bc f5 02 ce 3b
       0.015361291 0.0075351615 -0.0209383 0.0062869736
000040 8d 62 0f 3c 7d a6 9d bc ba 77 0f 3c 50 fc fa bb
       0.008751524 -0.019244427 0.008756572 -0.0076594725
000050 ff f0 4e bc ae 58 5f bc f4 8d a4 bc 4f 57 58 bc
       -0.0126307 -0.013631983 -0.02008722 -0.01320441
000060 cb a9 92 3c 9e 0b f4 bc 1f 84 2b bb b6 6e 07 bc
       0.01790323 -0.029790696 -0.002617128 -0.008266142
000070 5e 96 3e bb ea 1c a8 bc 25 c8 93 bc 4f b4 ad 3a
       -0.0029081325 -0.0205216 -0.018039772 0.0013252589
000080 cc af 49 bc 61 4b e0 bc 9b a5 1f 3c 0d 4d bc bb
       -0.01230998 -0.027379693 0.009744073 -0.00574649
000090 2e 3f b1 bc 4c 9e 78 bc dd aa e7 bc ac 5f b7 bc
       -0.021636572 -0.01517446 -0.028279716 -0.022384487
0000a0 27 a1 5b bb b6 b8 29 3a 51 56 b1 bb 8e 51 ab bc
       -0.0033512802 0.00064743625 -0.005411901 -0.020912912
0000b0 fa 9f 9c ba 54 d4 97 3c 42 ec 80 3a 21 50 a7 3c
       -0.0011949532 0.018533863 0.0009836035 0.02042395
0000c0 70 fc 51 bc 6f ec 96 bc 73 da ec 3b c0 2f a1 bc
       -0.012816533 -0.018423287 0.0072281896 -0.01967609
0000d0 a0 1b 9c bc fa 36 8f bc e3 dc e1 bc ac 62 9b bc
       -0.019056141 -0.01748227 -0.027571147 -0.018967949
0000e0 d3 f7 52 bc f3 b8 3d 3c 34 88 67 3b 27 3e ea bb
       -0.012876469 0.01157974 0.0035328986 -0.0071485224
0000f0 06 05 c8 bc 85 6b d5 bc 6b d0 b0 3b 2a 3a 58 bc
       -0.024416458 -0.026052246 0.005395939 -0.013197461

net.1.running_mean f4 [64]
000000 56 83 65 3d 75 eb 83 bd 39 dd 7e bd 8c 12 52 3d
       0.056033455 -0.06441394 -0.062222693 0.05128722
000010 92 70 08 be bb 9f 10 3e 92 b4 bd 3d c0 b2 6d be
       -0.13324192 0.14123432 0.09262957 -0.23212719
000020 69 43 d0 bd ef fe 42 3c 75 50 75 3d 0b 66 c3 3d
       -0.101691075 0.011901601 0.059891183 0.095409475
000030 64 34 2b 3d c1 a3 2f 3e 75 27 86 3e b9 f8 50 3d
       0.04179801 0.17152311 0.26201978 0.05101845
000040 b6 e7 0c be 16 b6 35 be e7 77 94 bc 00 87 85 bb
       -0.13760266 -0.17745242 -0.01812358 -0.004074931
000050 70 7d 8f 3c 1c 37 64 3d 38 95 46 be 72 27 13 3e
       0.017515868 0.05571662 -0.1939286 0.14370516
000060 4e 03 91 3d 6c b2 52 be 1a f3 0b bd b8 09 b5 3e
       0.070807084 -0.20575875 -0.034167387 0.35358977
000070 f3 50 83 3e 80 68 0f be 6c 89 aa be a5 f4 4e 3d
       0.25647697 -0.14004707 -0.3330797 0.05052628
000080 e3 12 e6 3d fa f4 6f be cb d8 51 be 48 99 f9 3d
       0.11234071 -0.23433295 -0.20492856 0.12187439
000090 ae 1b 30 3c 1b a0 a5 bc a7 1f 25 3e b6 2f 8f bc
       0.010748787 -0.020217946 0.16125356 -0.017478805
0000a0 52 f2 5e bd 23 64 16 3e 24 e4 32 3e 15 72 31 be
       -0.054430313 0.14686637 0.17469841 -0.17328675
0000b0 de b0 9f 3d 61 9c e1 bd 8a 30 fa 3d 7e b8 b6 bd
       0.077974066 -0.11016155 0.12216289 -0.08921908
0000c0 85 2b 86 3d 9a 2f 89 3d 61 11 23 be 60 3c d2 3d
       0.065512694 0.066985324 -0.15924598 0.10265422
0000d0 81 62 34 bd f2 b9 26 3e de c5 17 3e 8b 75 23 3e
       -0.044039253 0.1628187 0.14821574 0.15962808
0000e0 d9 cd ad 3d 6e d8 11 3c a9 7f 18 bd ae 16 bf 3d
       0.08486528 0.0089016985 -0.03723112 0.09330498
0000f0 ac a3 ba 3e f4 74 da 3d 28 61 fb 3c d1 b5 3f 3d
       0.36452997 0.10666838 0.030685976 0.046804253
