bestclf/bestclf_adult_0005.pth (torch, 18552 bytes, 19 tensors)

fc1.weight f4 [15, 95]
000000 ac 3e 5e be 01 86 cf 3b 66 6e ab bd 49 98 fa bd
       -0.21703595 0.006333113 -0.08370666 -0.12236077
000010 35 34 6e be bf 27 36 3d c8 a5 fb 3d 88 50 14 3d
       -0.23262103 0.0444715 0.1228748 0.036209613
000020 99 97 11 3d bb e5 20 3d c3 94 a6 bb ba a9 db bb
       0.035544965 0.039281588 -0.0050836517 -0.0067035826
000030 d8 aa eb 3d 40 00 10 be 26 b5 a1 3c 52 ba 0b 3c
       0.11507195 -0.14062595 0.019739699 0.008528309
000040 ec 2b cc 3d 94 84 26 3e 68 df 4c bc 2b 30 eb bc
       0.09969315 0.16261512 -0.012504436 -0.028709492
000050 38 96 28 be d1 0a 80 bc 5b c0 04 3e e2 6c 7e be
       -0.16463554 -0.015630158 0.12964003 -0.24846223
000060 52 38 c1 bc 50 32 02 3e f3 e2 15 3e 66 71 1a bc
       -0.023586426 0.12714505 0.14637356 -0.00942645
000070 58 99 06 be db 28 73 bc 50 b0 40 3e d2 55 27 3e
       -0.13144433 -0.014841284 0.18817258 0.16341332
000080 08 62 92 3e e2 77 4d ba 8f 93 0c 3d b7 5a 95 bd
       0.28590417 -0.00078379933 0.03432041 -0.07292693
000090 eb 8e 4d 3e 5f 5e 05 3e 46 ea ca 3d 84 e8 7e 3e
       0.2007405 0.13024281 0.09907965 0.24893385
0000a0 67 34 3f 3d 86 c6 bf bb d2 0e 81 3c 25 bf 08 3e
       0.046680834 -0.0058525233 0.015754137 0.13354166
0000b0 51 cc a2 bc 7b c3 d6 bd 96 e5 35 3d 90 6b 39 3e
       -0.019872816 -0.10486504 0.044408403 0.18107438
0000c0 d2 4d 9a 3e c5 01 44 3e ae 09 0e bd 68 a9 93 3d
       0.30137497 0.191413 -0.0346772 0.07210046
0000d0 40 f1 9a 3d f2 32 9f 3d 96 61 87 3d 40 a8 99 ba
       0.07565546 0.07773389 0.0661041 -0.0011723116
0000e0 48 e9 e7 3d 9a 70 60 bb d4 0d b6 3c 68 60 9e 3c
       0.11323792 -0.0034246803 0.02222339 0.01933308
0000f0 3a bc 85 bb c9 6c a6 bb d2 e1 0f 3e 6c ba d6 3c
       -0.0040812762 -0.005078886 0.14050987 0.02621194
000100 5b bc a5 3d 30 a9 b8 3b bf fd d6 3c a4 90 db 3c
       0.080925666 0.005635403 0.026244042 0.026802368
000110 23 1a d4 3c ce 5c ef ba 94 36 91 3b 63 fb ee 3b
       0.02589137 -0.0018261911 0.004431555 0.007293151
000120 73 14 d4 3c c7 6b 7d bb 5b 9f f2 ba 8a e2 89 3b
       0.025888657 -0.0038668977 -0.0018510626 0.0042079138
000130 fc 04 d3 3c af 56 1a 3c 8a 14 0e bc 4a fc 2b 3e
       0.025759213 0.009420081 -0.008671889 0.1679546
000140 cc 63 d8 bc 70 07 08 3b 96 84 da bc 0c 19 05 bd
       -0.026414774 0.0020756386 -0.02667455 -0.03249459
000150 1c ac ae 3c af 51 39 bb 67 63 0d bb ca ff 66 bc
       0.021322303 -0.0028277447 -0.002157414 -0.014099071
000160 4e de cc 3d 78 15 be bb cd 69 da bc fd 92 83 bc
       0.10003339 -0.005800899 -0.026661778 -0.0160613
000170 0d fd e7 3b d9 9e db 38 3e d8 b7 bd 55 5b 45 3e
       0.0070797266 0.000104723214 -0.08976792 0.19273122
000180 bc 49 28 3e 3e 92 4b 3e 69 56 69 3e 1c 88 50 3e
       0.16434377 0.19880006 0.22786869 0.20364422
000190 d2 43 12 3e d3 93 a8 bd 0f 1b 00 3e c5 b2 d8 3b
       0.14283684 -0.0823132 0.12510322 0.006613108
0001a0 7d dd 2b bd 1d 3f 58 3b b3 eb 51 3c 03 70 87 be
       -0.041959275 0.0032996603 0.012812543 -0.26452646
0001b0 e5 e6 1e 3e c6 c9 97 3b a6 02 7d 3b e8 31 3c be
       0.15517767 0.0046322076 0.0038606315 -0.18378413
0001c0 a2 4a 20 be ea 8c 9a 3d 03 3f cb 3c a6 d3 38 3e
       -0.1565347 0.075464085 0.02481032 0.18049487
0001d0 9e 92 8a 3a 6d 48 ca bd 5e 5e 16 3e bf 4e 97 bc
       0.001057226 -0.09877095 0.14684436 -0.018470166
0001e0 59 e0 7b bd ee ae 08 3e 63 32 81 bc bc 6d 7b 3e
       -0.06149325 0.1334798 -0.015771097 0.24553579
0001f0 98 d7 01 3c 1b bb 86 be 4f 15 f4 bd 4d a0 40 be
       0.007924937 -0.26314625 -0.11918127 -0.1881115
000200 82 ce a6 3c 1c ea b8 3d 32 cf 75 3e e7 92 3b be
       0.020362142 0.09029028 0.2400482 -0.18317758
000210 b8 db 40 bd 91 04 75 bd ed 7a a2 bd 3c a1 2d bc
       -0.04708454 -0.059818808 -0.079336025 -0.010597523
000220 58 59 e2 3d 1f 2b ad 3c f4 08 0d 3c 49 f1 73 3d
       0.11052197 0.021138726 0.008608092 0.05955628
000230 d6 57 02 3e 36 02 90 bd 1a 66 14 be c1 9d 9b be
       0.12728819 -0.07031672 -0.14492074 -0.30393794
000240 6d 48 45 be 65 74 13 bd 41 1b ac bc a7 5c c5 3c
       -0.1926591 -0.035999674 -0.02100909 0.024092032
000250 55 7b 14 bd e0 63 b2 3d 78 ab ad 3c 3a 21 c9 bd
       -0.03625043 0.08710456 0.021199927 -0.098207906
000260 03 12 cf bc ff 80 c6 3c df 82 2c 3b 22 6e 7a bb
       -0.025277143 0.024231432 0.0026323122 -0.0038212617
000270 24 7d 17 bc 55 60 06 be 3a 52 0e 3c 09 4e d0 bd
       -0.009246144 -0.13122685 0.0086865965 -0.10171134
000280 0c 41 ca bc a3 d5 47 bb fd 04 dd bb 27 11 0e 3b
       -0.02468922 -0.0030492328 -0.0067449794 0.0021677704
000290 ab 41 98 3c a1 3e 12 bb 49 65 9e ba 0b 0d 93 bc
       0.018586 -0.0022315162 -0.0012084629 -0.017950555
0002a0 bf b2 d2 39 8e 0c 37 bb 45 39 9a bb dd fe 9a ba
       0.00040187498 -0.0027931067 -0.004706534 -0.0011825223
0002b0 30 ad be bc 61 5a 37 3b 63 a1 e1 bd c9 62 80 3a
       -0.023275942 0.0027977454 -0.1101711 0.0009795065
0002c0 f3 b4 52 ba f3 c1 53 3a 59 88 e9 3d 65 b7 59 3b
       -0.0008037828 0.0008077912 0.114029594 0.0033220884
0002d0 14 b3 a3 bc 71 7a 5c b9 55 dd b5 bc 9a 6a 68 bd
       -0.019982852 -0.00021026448 -0.022200266 -0.05674229
0002e0 c3 ea d2 bc c0 77 f3 39 1b f4 05 bc 4a 46 00 bc
       -0.025746709 0.00046437792 -0.008175875 -0.007829258
0002f0 f4 51 16 3c 89 9c 39 3e 80 e1 3e be fd da fe bc
       0.009174813 0.1812612 -0.18640709 -0.031110281
000300 32 0b 09 be de 7b 42 be 93 63 76 be 23 46 4d 3d
       -0.13383177 -0.18992564 -0.24061422 0.050115716
000310 3c b0 08 3e 24 b0 de 3d 78 42 9b 3d 90 a2 cb 3d
       0.13348478 0.1087344 0.07581037 0.09943116
000320 91 b4 27 3e a3 8d f8 bb 91 a4 06 3e be f1 c3 bd
       0.16377474 -0.007585244 0.13148715 -0.09567593
000330 f0 9c b9 bb 85 47 03 bb 48 0f 64 3d 25 60 66 3e
       -0.0056644604 -0.0020031643 0.055678636 0.22497614
000340 e5 11 c5 3c b4 bd 60 ba 16 d8 de bd 29 b8 cd 3b
       0.024056384 -0.000857319 -0.10881059 0.006278057
000350 aa f0 11 3e 35 91 07 be 74 6e 9d b8 31 fb 42 3e
       0.14251962 -0.13238986 -7.506917e-05 0.19041134
000360 02 61 02 3e 9f a4 c0 ba 64 97 2f be d6 7d 4b bb
       0.12732318 -0.0014697498 -0.17147595 -0.0031050346
000370 e4 3b 8b 3e ee 64 30 3e 19 2c 2b 3e cd fe 0f 3c
       0.2719413 0.17226002 0.1671604 0.008788777
000380 3f 29 d3 3d ea 37 b9 bd 6d 0e 7e 3e 68 bc 01 3e
       0.103106014 -0.09043868 0.2481019 0.12669528
000390 fb 62 59 3e d2 40 56 3e 61 52 3e 3e a2 fa d4 bd
       0.21229164 0.20923164 0.18586113 -0.10399367
0003a0 b2 a2 93 bd b4 bd 41 3e 84 f5 82 bd fc 26 3a be
       -0.07208766 0.18920022 -0.06394485 -0.18178934
0003b0 25 57 39 3d af 40 17 3e 45 52 7b 3e 63 c8 90 3e
       0.045249123 0.14770769 0.24543102 0.28277883
0003c0 44 a4 ae bd 79 8c 1f 3d 77 e1 9d 3d b6 1b 2d 3e
       -0.08527425 0.038952325 0.0770902 0.16905102
0003d0 b7 75 75 3d 5e 77 c2 bc 36 0d ff 3d 98 73 24 3c
       0.059926715 -0.02373856 0.12453692 0.010037325
0003e0 53 32 91 ba a5 4c db 3b b1 44 b2 3c dc dd 68 3c
       -0.001107762 0.0066924863 0.02176127 0.014213052
0003f0 86 00 1b 3e 13 7c 04 3b 2f 20 51 3e c6 12 f0 ba
       0.15136918 0.0020215556 0.20422433 -0.0018316142

fc1.bias f4 [15]
000000 4d 00 e7 3d d8 7d ab 3d 53 3a d6 3d 9f c6 73 3d
       0.11279354 0.08373612 0.10460343 0.05951559
000010 af 55 b8 3c 2d 55 57 bd 74 0f 95 3d 29 72 43 bb
       0.022501795 -0.052571464 0.07278338 -0.0029822683
000020 e2 38 b9 3c 6d dc b7 bc 0f 42 01 3c 64 cd a2 bd
       0.022610132 -0.022443974 0.007889285 -0.079493314
000030 38 a1 1a 3c 27 9a 16 3e db 08 0e 3d
       0.009437852 0.14707242 0.034676414

fc2.weight f4 [15, 15]
000000 d7 fe ef 3c e2 c9 17 be 50 aa d2 bd 9d 61 37 be
       0.029296322 -0.14823106 -0.10286391 -0.1790833
000010 64 57 89 3e 5b b4 0e bd d4 a0 33 3d a4 a5 17 be
       0.26824486 -0.03483997 0.04385455 -0.1480928
000020 6e 5d 24 be 0a 33 e3 bc 44 39 9e 3c 65 12 33 bd
       -0.16051266 -0.027734298 0.019314416 -0.043718714
000030 62 5d 26 3e 79 f3 47 bd 4f 2a c8 bd e5 7d b8 3c
       0.1624656 -0.048816178 -0.09773695 0.022520969
000040 bc 2a 6b bd 1d 61 c3 3d 5b f3 22 3e 57 5b 9f 3e
       -0.0574138 0.09540007 0.15913145 0.31124374
000050 ee 6f 2e 3d 31 97 24 be 53 f3 1b 3e 27 ed 83 bc
       0.042587213 -0.160733 0.1522954 -0.016104294
000060 73 57 16 3d 1e 3e 25 be 9b 00 d4 3d 16 cb 7d 3e
       0.03670449 -0.16136977 0.10351678 0.24784502
000070 0c d8 05 3e 3c f4 6b be 0f c9 97 be 6a 63 84 3e
       0.13070697 -0.23042387 -0.29645583 0.25857097
000080 3a ce 76 be d9 c9 ae bd 04 38 2e be 66 97 7e 3d
       -0.24102107 -0.08534593 -0.17013556 0.062156104
000090 8a 9a 9d 3c a8 5a bd bd 8e f6 44 3e 80 92 03 3d
       0.019238729 -0.09245807 0.19234678 0.032122135
0000a0 9e 4a c3 bd e2 b9 74 bb 92 ee 73 bd ce ae 1a be
       -0.095357165 -0.003734224 -0.05955369 -0.15105745
0000b0 bb bd d7 3d 65 5b 97 3e 7a 4d 2d be 75 bb e4 3e
       0.10534235 0.29561916 -0.16924086 0.44674268
0000c0 d3 c2 2d 3e cf 7b d4 3e 53 ba a8 bc 3c 55 35 bc
       0.16968851 0.41500708 -0.020596659 -0.011067685
0000d0 e5 63 dd 3d 7d 80 da bd ca 34 03 3e 8f ec 9b 3e
       0.10810069 -0.106690384 0.12813106 0.30453917
0000e0 83 ed 18 bd 6e 6c 40 3e b7 a5 b1 3e 7a d6 3e bd
       -0.037335884 0.18791363 0.34696743 -0.04659126
0000f0 53 8a c9 be 36 6f 07 3e 43 1f a7 be fb aa 7b be
       -0.39363346 0.13226017 -0.32641038 -0.24576943
000100 9c a9 67 be b2 09 83 3d 25 85 8f bc 4f ad c1 3c
       -0.22623295 0.063983336 -0.017519543 0.02364221
000110 9c 31 1c 3e 67 27 c8 bd b3 98 cd bd 7c d5 b4 bd
       0.152533 -0.097731404 -0.10038891 -0.088297814
000120 3b da 04 be 83 53 5a bd d5 6c 34 3e 6a 63 90 bc
       -0.12973873 -0.0533023 0.17619641 -0.01762553
000130 1c fd 3e be f7 f2 51 3e 7c 49 9c bd d8 e6 82 3e
       -0.18651241 0.2050284 -0.076312035 0.25566745
000140 ac 7e b0 bc f1 43 8c 3d c1 1c 46 bd 7b bb f7 bd
       -0.021544777 0.06848896 -0.048367266 -0.12096306
000150 fd 80 ed 3d fd 15 b0 3e 7f b1 09 be 6a 5e 12 3e
       0.11596868 0.34391776 -0.13446616 0.14293829
000160 8b 6c cb bd a6 48 25 be 81 55 a9 3c f3 84 7f be
       -0.09932812 -0.16140994 0.020670654 -0.2495306
000170 bc 90 a6 3e 3c 5b d0 3e dd 71 da 3e bf 9e 10 be
       0.325323 0.40694606 0.42664996 -0.14123057
000180 f2 68 2e 3e c7 1b 90 bd d9 c4 31 be 65 5d 98 3c
       0.17032221 -0.07036548 -0.17360248 0.018599221
000190 57 74 21 bd a4 28 fe bb d5 0d 82 3e 34 79 f8 3d
       -0.03941759 -0.0077563096 0.25401178 0.12132493
0001a0 bc 87 09 be 00 c6 6e 3e ea a1 7c be 85 39 b7 3e
       -0.13430685 0.23317719 -0.2467114 0.3578607
0001b0 40 3b 8a 3e 87 64 b1 3e aa 99 8c be 30 a0 93 3e
       0.2699833 0.3464701 -0.27460986 0.2883315
0001c0 ff 67 e9 3d 23 66 20 be 43 7d 59 3d 19 70 85 3e
       0.11396789 -0.15663962 0.053097975 0.26062086
0001d0 d1 99 50 bc 4e a6 18 3d 9b d9 7c 3e 91 6a 86 be
       -0.012731985 0.037267976 0.24692385 -0.2625318
0001e0 1a 5a 4a bd f7 ec 01 bc 34 41 a1 3d 53 61 9a 3d
       -0.049402334 -0.007930032 0.07873765 0.07538094
0001f0 0c 82 5f bd 33 89 8d 3c 2b 6b 0b be 65 5b fe bd
       -0.05456738 0.017277336 -0.136151 -0.12419776
000200 70 54 62 bc f6 fa 07 3d d0 94 20 be 9e 53 cc bd
       -0.013814077 0.03319832 -0.15681767 -0.09976886
000210 f3 c3 e7 3b e3 61 25 be 8d 18 2b 3d 91 96 35 3d
       0.0070729195 -0.16150622 0.04177146 0.044333044
000220 6a 0e 35 3d 6b d1 d3 3d bf bd 1d 3e 42 b4 02 3e
       0.0442032 0.10342678 0.15404414 0.12764075
000230 b1 4b f0 bc 8f 96 08 bc 28 80 78 bd 7c a6 ed bc
       -0.029332967 -0.008336677 -0.060669094 -0.02901005
000240 61 f5 46 3c 02 9d 30 bd d6 65 92 3d 5f 15 83 bb
       0.012143464 -0.043118484 0.0714833 -0.0040003504
000250 8c 43 fe bd a4 46 b4 3c 7b 28 ae 3e 74 2b 0b be
       -0.12415227 0.02200634 0.3401526 -0.13590795
000260 b9 a5 8a 3e 46 54 87 3e cf ed b1 3e 78 cd 4e bd
       0.2707956 0.26431483 0.34751746 -0.05048892
000270 2b 88 85 3e 23 7b 6d 3e 07 ea 2d be 56 5e 0e 3e
       0.2608045 0.23191504 -0.16983806 0.13903174
000280 85 1e c5 bd c3 b9 d8 bc e8 46 8d 3e 12 65 ef 3d
       -0.09624962 -0.026455766 0.2759316 0.116891995
000290 af c2 a4 be 28 86 d8 bd 28 f4 74 3e 56 76 1d be
       -0.32179782 -0.10572463 0.23921263 -0.15377173
0002a0 c9 d4 c5 bd ff cd 9a bd d6 90 61 bc 28 c2 be bd
       -0.09659726 -0.07558822 -0.013767442 -0.09314376
0002b0 cf ee ee 3c af 5e 49 3e 88 e4 da bd db 11 d7 3d
       0.029166607 0.19665025 -0.1068812 0.105014525
0002c0 ea 16 3e bd e7 85 e2 bd 55 73 03 bd 22 73 43 3d
       -0.04640857 -0.11060696 -0.03209241 0.04771722
0002d0 06 1c 9b be 11 0e 9a 3e 6a 38 a7 be 74 4c 03 3d
       -0.30294818 0.30088857 -0.32660228 0.032055333
0002e0 d5 7a 78 bd e9 26 f7 3d be e8 30 be ba 68 7d bd
       -0.060664017 0.120679684 -0.17276284 -0.061867453
0002f0 87 31 17 3e c7 a3 5e 3c 58 88 09 be b6 d7 f7 bb
       0.14764987 0.013588852 -0.13430917 -0.0075635565
000300 c3 d9 31 bc 8b 6b 5b be 3f 6d 36 3e b0 a3 7d 3a
       -0.010855141 -0.21427743 0.17815112 0.00096755754
000310 23 b1 af be c5 1c 9f 3e 7d 41 74 bc 31 3e a0 3e
       -0.34314832 0.31076637 -0.014908192 0.31297448
000320 8d 2c 9f be 47 b7 74 3e f1 51 41 3e cb 2b f3 bd
       -0.31088677 0.2389804 0.18878914 -0.11873587
000330 c5 47 15 bc a5 a8 83 3e d2 d6 04 be cb 90 65 3e
       -0.0091113495 0.25714603 -0.12972572 0.22418515
000340 45 de 40 3e ea 87 2d be f8 e1 ac 3e 12 dd 43 be
       0.18834789 -0.16946378 0.3376615 -0.191273
000350 2d 33 67 3e fe a8 a2 3d 97 86 3e bd cd 22 47 be
       0.22578116 0.07942389 -0.046515074 -0.19446869
000360 b4 0b 84 3d 14 06 87 3d 0d 45 a7 bd 81 e3 ed 3d
       0.06447545 0.06592956 -0.08167467 0.116156586
000370 99 15 8c 3e b4 d0 87 3d a2 36 6a 3e e7 2f 81 3e
       0.27360228 0.06631604 0.22872403 0.2523186
000380 93 10 81 bd
       -0.063019894

fc2.bias f4 [15]
000000 03 88 0b 3e f9 99 b2 3d d8 bf 24 be f4 a2 d4 3d
       0.13626103 0.08720774 -0.16088808 0.10382643
000010 66 9a 8c be cf 15 6f 3e c5 72 d4 3d db 42 98 3c
       -0.27461547 0.23348163 0.10373453 0.018586567
000020 53 90 99 3c a8 7b bc bd a8 ac 80 3e 32 b0 c0 3d
       0.018745577 -0.09203273 0.25131726 0.094086066
000030 76 c2 0c be 81 e9 f1 3d 9b 79 1e 3e
       -0.13746056 0.118121155 0.15476076

out.weight f4 [1, 15]
000000 29 ce c3 3e ef a1 cd be b2 f4 ee bd ee d3 b3 3e
       0.38243225 -0.40162608 -0.11667766 0.35122627
000010 2b b7 84 be 76 88 e1 3d fa b8 87 be 3a 19 d0 3d
       -0.25920996 0.11012356 -0.26508313 0.101610616
000020 b5 60 b7 be d3 96 3f 3e b9 f7 b8 3c 34 54 ba 3e
       -0.3581597 0.18709879 0.02257906 0.36392367
000030 62 cd 74 be 76 fc 37 3e aa f6 b8 be
       -0.23906472 0.179674 -0.3612569

sep_conn.weight f4 [15, 95]
000000 39 08 a3 bd 58 93 82 3d da 0d d2 bd 74 e9 88 bd
       -0.07960553 0.0637576 -0.10256548 -0.06685153
000010 10 87 ec 3c a7 39 57 bd 68 6a 21 bc 27 b4 4c bd
       0.028872997 -0.052545216 -0.009852029 -0.049976494
000020 f7 3a 26 3d 21 dd 39 3c f8 ec 0d bb 44 7c 42 bd
       0.040583577 0.011344225 -0.0021656137 -0.04748179
000030 93 ca c2 bd 77 0e 26 3d 7e 4a e7 bc 37 25 bf bd
       -0.09511294 0.04054114 -0.028233763 -0.0933327
000040 39 da ed 3c 5c 04 46 bb d7 27 d0 3d 4b e0 61 3d
       0.02903472 -0.0030215 0.10163849 0.055145543
000050 35 51 9d 3d bc 02 5c bd 0a 2d c1 3d 1a 4b c8 3d
       0.07681505 -0.053713545 0.09432419 0.097799495
000060 a5 65 cd bd 28 c9 cb 3d 44 ea 24 3d d3 8f c4 bc
       -0.10029153 0.09950477 0.040262476 -0.023994362
000070 54 97 bb 3c 8b 67 a5 3d 97 e6 bc bd 8f 12 b9 bd
       0.022899307 0.0807639 -0.09223669 -0.09036743
000080 41 7f 04 bb ec 66 80 3d e2 02 f6 bc eb fa e1 bc
       -0.002021745 0.06269631 -0.030030672 -0.027585467
000090 72 a0 8f bd 59 e0 83 3d ee 3f 74 bd 94 4f da bc
       -0.070130244 0.06439275 -0.05963128 -0.026649274
0000a0 98 9f bc 3c c4 be 6d bd 07 8b 24 bc 9a 39 42 3d
       0.023025319 -0.058043256 -0.010042912 0.047418214
0000b0 70 d8 39 3d d9 c1 9e bc ec 67 43 3d 08 97 12 3d
       0.045372427 -0.019379543 0.04770653 0.035788566
0000c0 97 e1 15 3c 01 6b 1d bd 89 8a e3 ba e7 50 bd 3d
       0.009148023 -0.038432125 -0.0017360012 0.092439465
0000d0 81 0d b7 bd 6a be 57 bd 09 d2 b5 bd 04 28 6a bc
       -0.089381225 -0.052671827 -0.08877952 -0.014291767
0000e0 6b c1 cd bd 17 68 a0 bc 7c 13 9f 3d 2b 4a ac 3c
       -0.10046657 -0.019580884 0.07767388 0.02103146
0000f0 46 e8 2e bd e1 80 a6 bd a1 ac 93 bd 1d 76 b1 bc
       -0.042701982 -0.081300505 -0.07210661 -0.021662766
000100 95 ac 6f 3d d5 23 78 3d 43 bc a3 bd cf 86 77 bd
       0.058514196 0.060581047 -0.079948924 -0.060431298
000110 e2 1d 8c 3d 20 9e e9 3b 8c fb cd 3d 08 0e bb 3d
       0.06841637 0.0071294457 0.100577444 0.091335356
000120 b5 20 fc 3c f1 bc 96 bd 08 4c c3 bd 2f ee 6a bd
       0.030777315 -0.073602565 -0.09535986 -0.057356056
000130 74 47 93 bd 1d be 2f bd ab 3e b2 3c 6b fa 78 3d
       -0.07191363 -0.042905916 0.021758398 0.060785692
000140 7d da 0b 3d 34 d5 a7 3d 9a 01 aa bd 2a 41 a3 bd
       0.034143914 0.08194962 -0.08301087 -0.079714134
000150 9e d9 60 3d e1 b7 a8 3d f5 74 16 3d 03 f8 7e 3d
       0.054895036 0.08238197 0.036732633 0.06224824
000160 21 f6 3b bc 9b 23 ad 3d be c5 99 3d b2 6b c0 bd
       -0.011472256 0.08454057 0.075084195 -0.09395541
000170 79 9d c4 3b c7 80 10 3d 26 e6 5b 3c b1 90 81 bd
       0.0060002175 0.03527906 0.013421571 -0.06326426
000180 8e f8 a8 3c d5 76 be bd bd 6e 8f bd e3 3a 04 3d
       0.020626333 -0.09300009 -0.070035435 0.03228272
000190 e3 79 4a 3d 96 47 31 3c 36 33 87 bd 06 76 28 bc
       0.049432646 0.01082029 -0.066015646 -0.010282045
0001a0 f5 51 6e 3c 3a 57 9b bd 1e 5c cf bc f9 07 1b 3d
       0.014545907 -0.075849965 -0.02531248 0.0378494
0001b0 9f b7 6b 3d 30 d5 ba bd b5 5a fd 3c d7 f6 78 bd
       0.05754816 -0.091226935 0.030927042 -0.06078228
0001c0 61 04 b3 bd e3 9d 8c 3c 70 cd 01 3d 63 1b 04 bd
       -0.087410696 0.01716513 0.03169006 -0.03225268
0001d0 b2 a6 5f 3d 7c c6 a3 3d d8 05 46 bc d0 3e e6 3c
       0.054602332 0.07996842 -0.012086354 0.028106123
0001e0 e9 3f 40 3d 81 38 58 bd d6 ea 23 bd 68 d6 9c 3d
       0.04693595 -0.05278826 -0.04001888 0.07658082
0001f0 67 86 b1 bc fc 1c b8 3d a7 f2 04 bd 12 24 52 bd
       -0.021670533 0.08989903 -0.032457974 -0.05130393
000200 f8 00 94 bd 14 29 a2 bd 3d 68 b1 3c 5c 40 47 bc
       -0.07226747 -0.07917991 0.02165615 -0.012161341
000210 d0 da 11 bd 7d 19 9f bd 9c 88 2a 3a df b4 07 3d
       -0.035609066 -0.077685334 0.0006505342 0.033131476
000220 a3 df d1 3d c8 8c 10 bc 92 52 a2 bd 63 21 02 3d
       0.102477334 -0.008822627 -0.07925905 0.03177012
000230 8d ab ab 3c 4b 07 cc 3d df 42 09 3d ca 37 17 bd
       0.020955825 0.099623285 0.03351104 -0.03691844
000240 c6 3c 0d 3d 7a 0d 97 bd a1 e6 bc 3d db ce a2 3c
       0.034481786 -0.07375617 0.092236765 0.019874027
000250 a9 6e 9d 3c 6e 7d bc bd 95 24 b9 3c 01 8d 4b bd
       0.019217806 -0.09203611 0.022600451 -0.04969502
000260 bc 53 cb bd 86 49 fd 3c 79 88 b7 bd a9 4a c9 bc
       -0.099280804 0.030918848 -0.08961577 -0.024571734
000270 74 80 8a 3c 3b 29 7f bd a0 15 73 bd 3a 34 98 bd
       0.016906954 -0.06229518 -0.059346795 -0.074318364
000280 31 c3 c6 3c 66 ad e4 bb ce 03 bd 3b e0 f5 9a 3d
       0.024262996 -0.0069786785 0.005768276 0.07566428
000290 cd ba 69 bd 2f 33 da ba bf 64 c2 bd ac 9f 0e bd
       -0.057062913 -0.0016647334 -0.09491872 -0.034820244
0002a0 10 0a b5 bd 1c 27 95 bd 26 0e 73 3c 84 ff 1f 3a
       -0.0883981 -0.0728285 0.014834916 0.00061034434
0002b0 87 68 60 3d 83 12 94 3d 37 fb dc 3b 9d 13 29 3d
       0.054787185 0.07230093 0.0067438143 0.04127847
0002c0 42 a8 6b 3d 62 4b c9 3d 62 ad 8a bd aa af 0e 3d
       0.05753351 0.09828831 -0.067713514 0.034835495
0002d0 59 5d ad 3d 56 0a c2 bd f7 a3 21 bd e3 c3 43 bd
       0.0846507 -0.09474628 -0.03946301 -0.047794234
0002e0 62 ae 84 bd e9 e6 c0 bd 46 d0 8c bd a8 e3 50 3d
       -0.064785734 -0.094190426 -0.068756625 0.05099836
0002f0 8c 73 62 3d 07 32 1a 3d 10 b1 b6 bd 3e ba 87 bd
       0.055285975 0.037645366 -0.08920491 -0.0662732
000300 50 80 93 bc ff c3 d2 3c ec 69 d3 3c 45 5c 52 bd
       -0.01800552 0.025728224 0.025807343 -0.051357526
000310 82 31 60 3d b4 7f 93 3d 98 8f 94 bd 43 02 81 3d
       0.054734714 0.07202092 -0.07253951 0.062992595
000320 bd bc d6 3a 16 2a 87 bd e8 d2 cc bc 6f bb 0a bd
       0.0016383153 -0.06599824 -0.025002912 -0.033870157
000330 40 ce 09 bd 0d 6c b6 3d dc 73 aa 3d bd 6f 64 bc
       -0.03364396 0.08907328 0.0832288 -0.013942656
000340 2b 97 4e bd 95 04 b4 3d 46 ac bf bd ac c9 1e 3b
       -0.050437134 0.087899365 -0.093590304 0.0024229093
000350 73 44 a6 bd 09 39 65 3d ad 66 23 bc c7 62 25 3d
       -0.081185244 0.055962596 -0.00997321 0.040377405
000360 d1 0a 4e bd cc 59 cf bd e8 50 8b bc c9 27 cd 3d
       -0.050303284 -0.10124549 -0.017006353 0.10017354
000370 42 70 c5 3c ab 90 b6 bd 8f 0e 1c 3d 85 9a eb 3c
       0.02410138 -0.08914312 0.03809982 0.028760204
000380 a2 d9 18 bd ae 74 41 3d 54 0f 90 3c 50 bc d7 3b
       -0.037316926 0.047230415 0.017585434 0.006583728
000390 25 84 83 bc b2 6c 02 3d fb 1b 89 3d 84 2b c3 bd
       -0.016054222 0.03184194 0.0669479 -0.09529784
0003a0 e8 24 c4 bd 32 f7 23 3d b5 0c 44 bc e2 8c c6 3d
       -0.09577352 0.040030666 -0.01196592 0.0969484
0003b0 5d 1b c1 3d aa 27 af bb aa 17 1e 3d 56 f0 1a bd
       0.09429047 -0.0053453045 0.038596787 -0.03782686
0003c0 be 32 cb ba af 9d 65 bc 99 d3 9d bd 04 c9 68 3d
       -0.0015502793 -0.0140146455 -0.07706375 0.05683233
0003d0 f3 26 b1 bd 03 2b 9a 3d 0d 00 13 bd 45 e6 c4 3d
       -0.08650007 0.07527735 -0.03588872 0.09614233
0003e0 b3 60 13 3d 24 43 37 3d 89 3b 89 bd c0 05 ce 3b
       0.03598089 0.044741765 -0.067008086 0.0062873065
0003f0 66 79 41 bd b3 db 36 3c fd 95 cd 3d ec a6 2d bd
       -0.047234915 0.011160779 0.100383736 -0.042395517

sep_conn.bias f4 [15]
000000 a4 48 87 3c 7c 4e 81 3d 10 87 47 bd ea 27 f5 bc
       0.01651413 0.06313798 -0.04871279 -0.02992626
000010 7e 8d bd 3a 99 2a 1b ba 71 86 1a 3b 0c b1 71 bd
       0.0014461724 -0.00059191283 0.0023578668 -0.059006736
000020 28 57 93 3d 20 b4 6c bc c4 7f 4e 3d 53 b0 76 3d
       0.07194358 -0.014447242 0.050414816 0.06022675
000030 77 b2 bb 3b 7c d7 47 3c fd c9 84 3d
       0.005728062 0.012197372 0.06483839

bn.weight f4 [15]
000000 00 00 80 3f 00 00 80 3f 00 00 80 3f 00 00 80 3f
       1.0 1.0 1.0 1.0
000010 00 00 80 3f 00 00 80 3f 00 00 80 3f 00 00 80 3f
       1.0 1.0 1.0 1.0
000020 00 00 80 3f 00 00 80 3f 00 00 80 3f 00 00 80 3f
       1.0 1.0 1.0 1.0
000030 00 00 80 3f 00 00 80 3f 00 00 80 3f
       1.0 1.0 1.0

bn.bias f4 [15]
000000 00 00 00 00 00 00 00 00 00 00 00 00 00 00 00 00
       0.0 0.0 0.0 0.0
000010 00 00 00 00 00 00 00 00 00 00 00 00 00 00 00 00
       0.0 0.0 0.0 0.0
000020 00 00 00 00 00 00 00 00 00 00 00 00 00 00 00 00
       0.0 0.0 0.0 0.0
000030 00 00 00 00 00 00 00 00 00 00 00 00
       0.0 0.0 0.0

bn.running_mean f4 [15]
000000 00 00 00 00 00 00 00 00 00 00 00 00 00 00 00 00
       0.0 0.0 0.0 0.0
000010 00 00 00 00 00 00 00 00 00 00 00 00 00 00 00 00
       0.0 0.0 0.0 0.0
000020 00 00 00 00 00 00 00 00 00 00 00 00 00 00 00 00
       0.0 0.0 0.0 0.0
000030 00 00 00 00 00 00 00 00 00 00 00 00
       0.0 0.0 0.0

bn.running_var f4 [15]
000000 00 00 80 3f 00 00 80 3f 00 00 80 3f 00 00 80 3f
       1.0 1.0 1.0 1.0
000010 00 00 80 3f 00 00 80 3f 00 00 80 3f 00 00 80 3f
       1.0 1.0 1.0 1.0
000020 00 00 80 3f 00 00 80 3f 00 00 80 3f 00 00 80 3f
       1.0 1.0 1.0 1.0
000030 00 00 80 3f 00 00 80 3f 00 00 80 3f
       1.0 1.0 1.0

fc3.weight f4 [15, 15]
000000 37 c1 11 be 67 13 95 bd 7e 8c 00 bd 61 1d c9 be
       -0.14233862 -0.07279091 -0.031383984 -0.39280227
000010 2a 9e f0 3d af dd 7a bd 3b 35 f3 bd e3 11 85 be
       0.117489174 -0.06124657 -0.11875387 -0.2599021
000020 88 8c 83 3d b8 d6 55 bd 86 c8 83 be 04 d7 d6 3d
       0.064232886 -0.052206725 -0.25738925 0.1049023
000030 60 c7 3d 3d 0a 76 56 be 57 ff 80 be 2d ec 75 3d
       0.046332717 -0.20943466 -0.2519481 0.060039688
000040 65 3a fe 3d 37 f3 8b bd 7f da aa 3e 09 16 28 3c
       0.124134816 -0.06833499 0.33369824 0.01025916
000050 db 7b a6 3e e2 d7 a1 3e 80 31 aa 3e 19 94 f3 3d
       0.3251637 0.31610018 0.3324089 0.11893482
000060 23 ab 3c 3e 71 ec a7 3e 63 02 01 bd 7f f8 c4 be
       0.18424658 0.32797578 -0.031496417 -0.38470837
000070 f5 83 f1 3c f9 20 6b 3e f8 ae 8f 3d a8 db 57 3e
       0.029481867 0.22961797 0.070157945 0.21079886
000080 e8 f1 e4 bd 07 36 33 bd 41 e6 aa bd 81 5c 1e 3e
       -0.111789525 -0.043752696 -0.08344699 0.15464975
000090 b3 ce 2d 3d 40 e5 05 3d e7 6b cd bc fc 16 5f 3d
       0.04243345 0.032689333 -0.025075866 0.05446528
0000a0 45 15 64 3e da 60 69 bd 50 6d e2 bd f2 31 8d 3e
       0.22273739 -0.05697713 -0.11056006 0.27577168
0000b0 37 0e 6a 3d d4 4e 00 be 0d 21 25 be 85 71 19 3e
       0.057142463 -0.1253007 -0.16125889 0.1498471
0000c0 0f ba d9 be 1d 10 06 3e 44 f6 ae bc be f6 81 be
       -0.42524764 0.13092084 -0.021357663 -0.25383562
0000d0 68 d6 88 be 77 d6 c1 3d 79 fe 9e bd ae a1 ac be
       -0.2672608 0.09464734 -0.077633806 -0.33717102
0000e0 42 29 62 3d 12 6f 08 3e d9 be de bd 33 0e 97 be
       0.055215128 0.1332362 -0.10876245 -0.2950302
0000f0 95 37 0e 3e 24 ad 9e bd f9 56 ac be e2 99 cc 3d
       0.1388839 -0.07747868 -0.33660105 0.09990288
000100 df 49 20 bd 64 25 1f 3d a1 5b 6c 3e 08 3c 14 3e
       -0.03913295 0.038854018 0.23081829 0.14476025
000110 1f 8b 6d bd d3 69 00 be 82 44 72 3e eb 47 7a bc
       -0.057994004 -0.12540369 0.23658946 -0.015275936
000120 ce 6c bc be d6 59 97 3e c1 c0 11 bd d7 bc a3 be
       -0.3680176 0.29560727 -0.035584215 -0.3198001
000130 23 3d 33 3e d8 33 97 3e fe 11 a6 be fc e4 6b 3e
       0.1750379 0.2953174 -0.32435602 0.2303657
000140 f6 6f 01 3c f4 1c ed bd 7a e9 dc bd 8b e9 a7 3d
       0.007900229 -0.11577788 -0.107867196 0.08198842
000150 c9 db fb bc 32 7e eb 3d 41 7c 73 3e 37 3f 43 3e
       -0.03074445 0.11498679 0.23777868 0.19067083
000160 85 96 81 be 93 cb d6 bc af 74 ea bd 87 c2 c7 bb
       -0.2531015 -0.026220119 -0.11448037 -0.0060961875
000170 f3 67 a5 be 13 79 90 3c 2a a2 aa be 1f a8 6a 3e
       -0.3230587 0.017635858 -0.33326846 0.22915696
000180 43 50 19 3e 33 25 9e 3e 42 8b da bd 2a 18 a9 bd
       0.14972024 0.30887756 -0.106710926 -0.08256562
000190 55 e4 a6 3d a9 5b 81 be 37 c6 25 be 26 e5 99 3d
       0.0814902 -0.25265244 -0.16188894 0.0751441
0001a0 6c d7 2b 3d 29 65 2d bd 4e 89 77 bd 53 ab 7f 3d
       0.04195349 -0.042332802 -0.06043368 0.062419247
0001b0 34 82 d4 bd b2 b5 13 bd ff 83 e0 bd 84 51 86 3c
       -0.10376397 -0.03606195 -0.10962676 0.016396292
0001c0 c9 35 69 3d ef 6f 51 3d 98 00 30 bd 6e 68 24 3d
       0.05693606 0.05113214 -0.042969316 0.040138654
0001d0 bb ff d4 3d 79 21 9a 3d f4 45 f8 bd fe 01 55 be
       0.10400339 0.07525916 -0.121227175 -0.20801541
0001e0 3f 6b b8 bd 27 2a a7 3e 1d a8 31 be 00 a9 72 3d
       -0.090048306 0.32649347 -0.17349286 0.059243202
0001f0 50 a7 b1 be 3b 33 08 bd ab 4e 8f 3d 2b 71 57 3e
       -0.34697962 -0.033251982 0.069974266 0.21039264
000200 f7 06 a2 3d d8 d1 54 3e 60 78 80 3e 4e 0e 3c be
       0.07911485 0.20783174 0.2509184 -0.18364832
000210 85 04 08 be b5 18 84 3e 47 1a 54 3e c3 54 ed 3c
       -0.13282974 0.258001 0.20713149 0.028971082
000220 bc 53 23 3d 47 6a 31 3e 55 0f b0 be da b3 0e 3e
       0.039874777 0.17325698 -0.34386697 0.13935795
000230 ad e5 35 be 6f cf 23 be 7a 29 00 be 09 e6 30 be
       -0.17763396 -0.15997098 -0.12515822 -0.17275251
000240 56 a6 91 bd cd a5 9a 3c 31 e7 7e 3d 0c 07 d5 3d
       -0.07111804 0.018877888 0.0622322 0.10401735
000250 57 d4 76 be 0a 04 46 be 01 16 07 bc bd 44 37 bd
       -0.24104439 -0.19337478 -0.008244992 -0.04474329
000260 97 bd e3 bc 2a eb 70 3d f2 ee 6e 3d 6f 8f ae bd
       -0.027800364 0.05881802 0.058333345 -0.085234515
000270 cf 0d 0e be 05 6d 80 3d ba 73 7a 3c a5 7e 89 bc
       -0.13872455 0.06270794 0.01528638 -0.016784022
000280 48 5c 0e be 54 70 8e 3d 5c ca 6a 3d 7f 66 12 be
       -0.1390239 0.06955019 0.05732189 -0.14296912
000290 39 09 ea bd d9 e8 4f 3d 1d 0f 8e bd 45 49 05 3e
       -0.1142754 0.05075917 -0.069364764 0.13016231
0002a0 2d 07 f0 bd bc 74 9c bc ec 4e 37 be c0 fb 86 be
       -0.11720119 -0.019098632 -0.179012 -0.26363945
0002b0 05 9a 8e be 6c 7d 5e 3d c5 f0 27 bd fb 1d 3a be
       -0.27851883 0.05431883 -0.0410011 -0.18175499
0002c0 eb 7e 00 3e 13 74 15 3e 6d fc 89 be a1 b3 2a be
       0.12548415 0.1459506 -0.26950398 -0.16670085
0002d0 65 13 39 3e 4b 3b 44 3e 14 a1 18 bd 64 e6 07 3e
       0.18073805 0.19163243 -0.03726299 0.13271481
0002e0 76 26 b5 bd 1b 6b f3 3d 46 30 60 3e 29 d7 65 3c
       -0.088452265 0.11885663 0.21893415 0.014028349
0002f0 08 f9 e6 bd b5 a8 b0 3d 8d 88 0b 3d ea cf cd bd
       -0.11277968 0.08625928 0.03406577 -0.10049422
000300 3e 4b 36 be 31 c9 9e 3e a5 8a 66 3e 68 7b 5e 39
       -0.1780214 0.31012872 0.22513826 0.00021217542
000310 27 5b 69 bd 7b 74 83 3d 57 d1 a2 be d1 64 6b 3c
       -0.056971695 0.06418701 -0.3180034 0.014367298
000320 8b 11 7e bd 49 3a 57 be 2e 55 94 bd bb e8 51 3d
       -0.06202845 -0.21018328 -0.07242809 0.05124734
000330 3c fa 24 bc 02 8a ef bd 7c 05 e6 3d 99 38 9d 3d
       -0.010069426 -0.11696245 0.11231515 0.07676811
000340 fc 69 91 bd 93 12 34 be 94 0c 22 3e 74 47 25 3e
       -0.07100293 -0.1758521 0.1582511 0.16140538
000350 da 8d f4 bd 54 32 f0 3d a7 bb b2 be f2 03 6c 3e
       -0.119411185 0.11728349 -0.34908792 0.2304838
000360 f3 04 cd 3e b4 4c 88 3e 57 70 a0 bd b9 46 bc bd
       0.40042838 0.2662102 -0.07833927 -0.09193177
000370 fb 25 5f 3e dd e4 ad be 5d 83 ca be 91 1d be 3e
       0.21791832 -0.3396367 -0.39553347 0.37131932
000380 80 0a ae 3e
       0.33992386

fc3.bias f4 [15]
000000 df c1 76 be c6 fd eb 3d cb 1e b9 bc 8c 04 5c bb
       -0.24097393 0.11523013 -0.022597691 -0.0033572046
000010 5b 12 83 3e c7 c7 da 3d f7 f8 b4 3e 4e 92 ac be
       0.25599942 0.10682636 0.35346195 -0.33705372
000020 7c e4 b6 3d e8 98 28 bd 55 ae 8a be e2 49 0c be
       0.08930299 -0.041161448 -0.2708613 -0.13700059
000030 d5 97 37 bc db 08 8b be 59 78 8c 3e
       -0.011205633 -0.27155194 0.27435568

net.0.weight f4 [15, 95]
000000 ac 3e 5e be 01 86 cf 3b 66 6e ab bd 49 98 fa bd
       -0.21703595 0.006333113 -0.08370666 -0.12236077
000010 35 34 6e be bf 27 36 3d c8 a5 fb 3d 88 50 14 3d
       -0.23262103 0.0444715 0.1228748 0.036209613
000020 99 97 11 3d bb e5 20 3d c3 94 a6 bb ba a9 db bb
       0.035544965 0.039281588 -0.0050836517 -0.0067035826
000030 d8 aa eb 3d 40 00 10 be 26 b5 a1 3c 52 ba 0b 3c
       0.11507195 -0.14062595 0.019739699 0.008528309
000040 ec 2b cc 3d 94 84 26 3e 68 df 4c bc 2b 30 eb bc
       0.09969315 0.16261512 -0.012504436 -0.028709492
000050 38 96 28 be d1 0a 80 bc 5b c0 04 3e e2 6c 7e be
       -0.16463554 -0.015630158 0.12964003 -0.24846223
000060 52 38 c1 bc 50 32 02 3e f3 e2 15 3e 66 71 1a bc
       -0.023586426 0.12714505 0.14637356 -0.00942645
000070 58 99 06 be db 28 73 bc 50 b0 40 3e d2 55 27 3e
       -0.13144433 -0.014841284 0.18817258 0.16341332
000080 08 62 92 3e e2 77 4d ba 8f 93 0c 3d b7 5a 95 bd
       0.28590417 -0.00078379933 0.03432041 -0.07292693
000090 eb 8e 4d 3e 5f 5e 05 3e 46 ea ca 3d 84 e8 7e 3e
       0.2007405 0.13024281 0.09907965 0.24893385
0000a0 67 34 3f 3d 86 c6 bf bb d2 0e 81 3c 25 bf 08 3e
       0.046680834 -0.0058525233 0.015754137 0.13354166
0000b0 51 cc a2 bc 7b c3 d6 bd 96 e5 35 3d 90 6b 39 3e
       -0.019872816 -0.10486504 0.044408403 0.18107438
0000c0 d2 4d 9a 3e c5 01 44 3e ae 09 0e bd 68 a9 93 3d
       0.30137497 0.191413 -0.0346772 0.07210046
0000d0 40 f1 9a 3d f2 32 9f 3d 96 61 87 3d 40 a8 99 ba
       0.07565546 0.07773389 0.0661041 -0.0011723116
0000e0 48 e9 e7 3d 9a 70 60 bb d4 0d b6 3c 68 60 9e 3c
       0.11323792 -0.0034246803 0.02222339 0.01933308
0000f0 3a bc 85 bb c9 6c a6 bb d2 e1 0f 3e 6c ba d6 3c
       -0.0040812762 -0.005078886 0.14050987 0.02621194
000100 5b bc a5 3d 30 a9 b8 3b bf fd d6 3c a4 90 db 3c
       0.080925666 0.005635403 0.026244042 0.026802368
000110 23 1a d4 3c ce 5c ef ba 94 36 91 3b 63 fb ee 3b
       0.02589137 -0.0018261911 0.004431555 0.007293151
000120 73 14 d4 3c c7 6b 7d bb 5b 9f f2 ba 8a e2 89 3b
       0.025888657 -0.0038668977 -0.0018510626 0.0042079138
000130 fc 04 d3 3c af 56 1a 3c 8a 14 0e bc 4a fc 2b 3e
       0.025759213 0.009420081 -0.008671889 0.1679546
000140 cc 63 d8 bc 70 07 08 3b 96 84 da bc 0c 19 05 bd
       -0.026414774 0.0020756386 -0.02667455 -0.03249459
000150 1c ac ae 3c af 51 39 bb 67 63 0d bb ca ff 66 bc
       0.021322303 -0.0028277447 -0.002157414 -0.014099071
000160 4e de cc 3d 78 15 be bb cd 69 da bc fd 92 83 bc
       0.10003339 -0.005800899 -0.026661778 -0.0160613
000170 0d fd e7 3b d9 9e db 38 3e d8 b7 bd 55 5b 45 3e
       0.0070797266 0.000104723214 -0.08976792 0.19273122
000180 bc 49 28 3e 3e 92 4b 3e 69 56 69 3e 1c 88 50 3e
       0.16434377 0.19880006 0.22786869 0.20364422
000190 d2 43 12 3e d3 93 a8 bd 0f 1b 00 3e c5 b2 d8 3b
       0.14283684 -0.0823132 0.12510322 0.006613108
0001a0 7d dd 2b bd 1d 3f 58 3b b3 eb 51 3c 03 70 87 be
       -0.041959275 0.0032996603 0.012812543 -0.26452646
0001b0 e5 e6 1e 3e c6 c9 97 3b a6 02 7d 3b e8 31 3c be
       0.15517767 0.0046322076 0.0038606315 -0.18378413
0001c0 a2 4a 20 be ea 8c 9a 3d 03 3f cb 3c a6 d3 38 3e
       -0.1565347 0.075464085 0.02481032 0.18049487
0001d0 9e 92 8a 3a 6d 48 ca bd 5e 5e 16 3e bf 4e 97 bc
       0.001057226 -0.09877095 0.14684436 -0.018470166
0001e0 59 e0 7b bd ee ae 08 3e 63 32 81 bc bc 6d 7b 3e
       -0.06149325 0.1334798 -0.015771097 0.24553579
0001f0 98 d7 01 3c 1b bb 86 be 4f 15 f4 bd 4d a0 40 be
       0.007924937 -0.26314625 -0.11918127 -0.1881115
000200 82 ce a6 3c 1c ea b8 3d 32 cf 75 3e e7 92 3b be
       0.020362142 0.09029028 0.2400482 -0.18317758
000210 b8 db 40 bd 91 04 75 bd ed 7a a2 bd 3c a1 2d bc
       -0.04708454 -0.059818808 -0.079336025 -0.010597523
000220 58 59 e2 3d 1f 2b ad 3c f4 08 0d 3c 49 f1 73 3d
       0.11052197 0.021138726 0.008608092 0.05955628
000230 d6 57 02 3e 36 02 90 bd 1a 66 14 be c1 9d 9b be
       0.12728819 -0.07031672 -0.14492074 -0.30393794
000240 6d 48 45 be 65 74 13 bd 41 1b ac bc a7 5c c5 3c
       -0.1926591 -0.035999674 -0.02100909 0.024092032
000250 55 7b 14 bd e0 63 b2 3d 78 ab ad 3c 3a 21 c9 bd
       -0.03625043 0.08710456 0.021199927 -0.098207906
000260 03 12 cf bc ff 80 c6 3c df 82 2c 3b 22 6e 7a bb
       -0.025277143 0.024231432 0.0026323122 -0.0038212617
000270 24 7d 17 bc 55 60 06 be 3a 52 0e 3c 09 4e d0 bd
       -0.009246144 -0.13122685 0.0086865965 -0.10171134
000280 0c 41 ca bc a3 d5 47 bb fd 04 dd bb 27 11 0e 3b
       -0.02468922 -0.0030492328 -0.0067449794 0.0021677704
000290 ab 41 98 3c a1 3e 12 bb 49 65 9e ba 0b 0d 93 bc
       0.018586 -0.0022315162 -0.0012084629 -0.017950555
0002a0 bf b2 d2 39 8e 0c 37 bb 45 39 9a bb dd fe 9a ba
       0.00040187498 -0.0027931067 -0.004706534 -0.0011825223
0002b0 30 ad be bc 61 5a 37 3b 63 a1 e1 bd c9 62 80 3a
       -0.023275942 0.0027977454 -0.1101711 0.0009795065
0002c0 f3 b4 52 ba f3 c1 53 3a 59 88 e9 3d 65 b7 59 3b
       -0.0008037828 0.0008077912 0.114029594 0.0033220884
0002d0 14 b3 a3 bc 71 7a 5c b9 55 dd b5 bc 9a 6a 68 bd
       -0.019982852 -0.00021026448 -0.022200266 -0.05674229
0002e0 c3 ea d2 bc c0 77 f3 39 1b f4 05 bc 4a 46 00 bc
       -0.025746709 0.00046437792 -0.008175875 -0.007829258
0002f0 f4 51 16 3c 89 9c 39 3e 80 e1 3e be fd da fe bc
       0.009174813 0.1812612 -0.18640709 -0.031110281
000300 32 0b 09 be de 7b 42 be 93 63 76 be 23 46 4d 3d
       -0.13383177 -0.18992564 -0.24061422 0.050115716
000310 3c b0 08 3e 24 b0 de 3d 78 42 9b 3d 90 a2 cb 3d
       0.13348478 0.1087344 0.07581037 0.09943116
000320 91 b4 27 3e a3 8d f8 bb 91 a4 06 3e be f1 c3 bd
       0.16377474 -0.007585244 0.13148715 -0.09567593
000330 f0 9c b9 bb 85 47 03 bb 48 0f 64 3d 25 60 66 3e
       -0.0056644604 -0.0020031643 0.055678636 0.22497614
000340 e5 11 c5 3c b4 bd 60 ba 16 d8 de bd 29 b8 cd 3b
       0.024056384 -0.000857319 -0.10881059 0.006278057
000350 aa f0 11 3e 35 91 07 be 74 6e 9d b8 31 fb 42 3e
       0.14251962 -0.13238986 -7.506917e-05 0.19041134
000360 02 61 02 3e 9f a4 c0 ba 64 97 2f be d6 7d 4b bb
       0.12732318 -0.0014697498 -0.17147595 -0.0031050346
000370 e4 3b 8b 3e ee 64 30 3e 19 2c 2b 3e cd fe 0f 3c
       0.2719413 0.17226002 0.1671604 0.008788777
000380 3f 29 d3 3d ea 37 b9 bd 6d 0e 7e 3e 68 bc 01 3e
       0.103106014 -0.09043868 0.2481019 0.12669528
000390 fb 62 59 3e d2 40 56 3e 61 52 3e 3e a2 fa d4 bd
       0.21229164 0.20923164 0.18586113 -0.10399367
0003a0 b2 a2 93 bd b4 bd 41 3e 84 f5 82 bd fc 26 3a be
       -0.07208766 0.18920022 -0.06394485 -0.18178934
0003b0 25 57 39 3d af 40 17 3e 45 52 7b 3e 63 c8 90 3e
       0.045249123 0.14770769 0.24543102 0.28277883
0003c0 44 a4 ae bd 79 8c 1f 3d 77 e1 9d 3d b6 1b 2d 3e
       -0.08527425 0.038952325 0.0770902 0.16905102
0003d0 b7 75 75 3d 5e 77 c2 bc 36 0d ff 3d 98 73 24 3c
       0.059926715 -0.02373856 0.12453692 0.010037325
0003e0 53 32 91 ba a5 4c db 3b b1 44 b2 3c dc dd 68 3c
       -0.001107762 0.0066924863 0.02176127 0.014213052
0003f0 86 00 1b 3e 13 7c 04 3b 2f 20 51 3e c6 12 f0 ba
       0.15136918 0.0020215556 0.20422433 -0.0018316142

net.0.bias f4 [15]
000000 4d 00 e7 3d d8 7d ab 3d 53 3a d6 3d 9f c6 73 3d
       0.11279354 0.08373612 0.10460343 0.05951559
000010 af 55 b8 3c 2d 55 57 bd 74 0f 95 3d 29 72 43 bb
       0.022501795 -0.052571464 0.07278338 -0.0029822683
000020 e2 38 b9 3c 6d dc b7 bc 0f 42 01 3c 64 cd a2 bd
       0.022610132 -0.022443974 0.007889285 -0.079493314
000030 38 a1 1a 3c 27 9a 16 3e db 08 0e 3d
       0.009437852 0.14707242 0.034676414

net.3.weight f4 [15, 15]
000000 d7 fe ef 3c e2 c9 17 be 50 aa d2 bd 9d 61 37 be
       0.029296322 -0.14823106 -0.10286391 -0.1790833
000010 64 57 89 3e 5b b4 0e bd d4 a0 33 3d a4 a5 17 be
       0.26824486 -0.03483997 0.04385455 -0.1480928
000020 6e 5d 24 be 0a 33 e3 bc 44 39 9e 3c 65 12 33 bd
       -0.16051266 -0.027734298 0.019314416 -0.043718714
000030 62 5d 26 3e 79 f3 47 bd 4f 2a c8 bd e5 7d b8 3c
       0.1624656 -0.048816178 -0.09773695 0.022520969
000040 bc 2a 6b bd 1d 61 c3 3d 5b f3 22 3e 57 5b 9f 3e
       -0.0574138 0.09540007 0.15913145 0.31124374
000050 ee 6f 2e 3d 31 97 24 be 53 f3 1b 3e 27 ed 83 bc
       0.042587213 -0.160733 0.1522954 -0.016104294
000060 73 57 16 3d 1e 3e 25 be 9b 00 d4 3d 16 cb 7d 3e
       0.03670449 -0.16136977 0.10351678 0.24784502
000070 0c d8 05 3e 3c f4 6b be 0f c9 97 be 6a 63 84 3e
       0.13070697 -0.23042387 -0.29645583 0.25857097
000080 3a ce 76 be d9 c9 ae bd 04 38 2e be 66 97 7e 3d
       -0.24102107 -0.08534593 -0.17013556 0.062156104
000090 8a 9a 9d 3c a8 5a bd bd 8e f6 44 3e 80 92 03 3d
       0.019238729 -0.09245807 0.19234678 0.032122135
0000a0 9e 4a c3 bd e2 b9 74 bb 92 ee 73 bd ce ae 1a be
       -0.095357165 -0.003734224 -0.05955369 -0.15105745
0000b0 bb bd d7 3d 65 5b 97 3e 7a 4d 2d be 75 bb e4 3e
       0.10534235 0.29561916 -0.16924086 0.44674268
0000c0 d3 c2 2d 3e cf 7b d4 3e 53 ba a8 bc 3c 55 35 bc
       0.16968851 0.41500708 -0.020596659 -0.011067685
0000d0 e5 63 dd 3d 7d 80 da bd ca 34 03 3e 8f ec 9b 3e
       0.10810069 -0.106690384 0.12813106 0.30453917
0000e0 83 ed 18 bd 6e 6c 40 3e b7 a5 b1 3e 7a d6 3e bd
       -0.037335884 0.18791363 0.34696743 -0.04659126
0000f0 53 8a c9 be 36 6f 07 3e 43 1f a7 be fb aa 7b be
       -0.39363346 0.13226017 -0.32641038 -0.24576943
000100 9c a9 67 be b2 09 83 3d 25 85 8f bc 4f ad c1 3c
       -0.22623295 0.063983336 -0.017519543 0.02364221
000110 9c 31 1c 3e 67 27 c8 bd b3 98 cd bd 7c d5 b4 bd
       0.152533 -0.097731404 -0.10038891 -0.088297814
000120 3b da 04 be 83 53 5a bd d5 6c 34 3e 6a 63 90 bc
       -0.12973873 -0.0533023 0.17619641 -0.01762553
000130 1c fd 3e be f7 f2 51 3e 7c 49 9c bd d8 e6 82 3e
       -0.18651241 0.2050284 -0.076312035 0.25566745
000140 ac 7e b0 bc f1 43 8c 3d c1 1c 46 bd 7b bb f7 bd
       -0.021544777 0.06848896 -0.048367266 -0.12096306
000150 fd 80 ed 3d fd 15 b0 3e 7f b1 09 be 6a 5e 12 3e
       0.11596868 0.34391776 -0.13446616 0.14293829
000160 8b 6c cb bd a6 48 25 be 81 55 a9 3c f3 84 7f be
       -0.09932812 -0.16140994 0.020670654 -0.2495306
000170 bc 90 a6 3e 3c 5b d0 3e dd 71 da 3e bf 9e 10 be
       0.325323 0.40694606 0.42664996 -0.14123057
000180 f2 68 2e 3e c7 1b 90 bd d9 c4 31 be 65 5d 98 3c
       0.17032221 -0.07036548 -0.17360248 0.018599221
000190 57 74 21 bd a4 28 fe bb d5 0d 82 3e 34 79 f8 3d
       -0.03941759 -0.0077563096 0.25401178 0.12132493
0001a0 bc 87 09 be 00 c6 6e 3e ea a1 7c be 85 39 b7 3e
       -0.13430685 0.23317719 -0.2467114 0.3578607
0001b0 40 3b 8a 3e 87 64 b1 3e aa 99 8c be 30 a0 93 3e
       0.2699833 0.3464701 -0.27460986 0.2883315
0001c0 ff 67 e9 3d 23 66 20 be 43 7d 59 3d 19 70 85 3e
       0.11396789 -0.15663962 0.053097975 0.26062086
0001d0 d1 99 50 bc 4e a6 18 3d 9b d9 7c 3e 91 6a 86 be
       -0.012731985 0.037267976 0.24692385 -0.2625318
0001e0 1a 5a 4a bd f7 ec 01 bc 34 41 a1 3d 53 61 9a 3d
       -0.049402334 -0.007930032 0.07873765 0.07538094
0001f0 0c 82 5f bd 33 89 8d 3c 2b 6b 0b be 65 5b fe bd
       -0.05456738 0.017277336 -0.136151 -0.12419776
000200 70 54 62 bc f6 fa 07 3d d0 94 20 be 9e 53 cc bd
       -0.013814077 0.03319832 -0.15681767 -0.09976886
000210 f3 c3 e7 3b e3 61 25 be 8d 18 2b 3d 91 96 35 3d
       0.0070729195 -0.16150622 0.04177146 0.044333044
000220 6a 0e 35 3d 6b d1 d3 3d bf bd 1d 3e 42 b4 02 3e
       0.0442032 0.10342678 0.15404414 0.12764075
000230 b1 4b f0 bc 8f 96 08 bc 28 80 78 bd 7c a6 ed bc
       -0.029332967 -0.008336677 -0.060669094 -0.02901005
000240 61 f5 46 3c 02 9d 30 bd d6 65 92 3d 5f 15 83 bb
       0.012143464 -0.043118484 0.0714833 -0.0040003504
000250 8c 43 fe bd a4 46 b4 3c 7b 28 ae 3e 74 2b 0b be
       -0.12415227 0.02200634 0.3401526 -0.13590795
000260 b9 a5 8a 3e 46 54 87 3e cf ed b1 3e 78 cd 4e bd
       0.2707956 0.26431483 0.34751746 -0.05048892
000270 2b 88 85 3e 23 7b 6d 3e 07 ea 2d be 56 5e 0e 3e
       0.2608045 0.23191504 -0.16983806 0.13903174
000280 85 1e c5 bd c3 b9 d8 bc e8 46 8d 3e 12 65 ef 3d
       -0.09624962 -0.026455766 0.2759316 0.116891995
000290 af c2 a4 be 28 86 d8 bd 28 f4 74 3e 56 76 1d be
       -0.32179782 -0.10572463 0.23921263 -0.15377173
0002a0 c9 d4 c5 bd ff cd 9a bd d6 90 61 bc 28 c2 be bd
       -0.09659726 -0.07558822 -0.013767442 -0.09314376
0002b0 cf ee ee 3c af 5e 49 3e 88 e4 da bd db 11 d7 3d
       0.029166607 0.19665025 -0.1068812 0.105014525
0002c0 ea 16 3e bd e7 85 e2 bd 55 73 03 bd 22 73 43 3d
       -0.04640857 -0.11060696 -0.03209241 0.04771722
0002d0 06 1c 9b be 11 0e 9a 3e 6a 38 a7 be 74 4c 03 3d
       -0.30294818 0.30088857 -0.32660228 0.032055333
0002e0 d5 7a 78 bd e9 26 f7 3d be e8 30 be ba 68 7d bd
       -0.060664017 0.120679684 -0.17276284 -0.061867453
0002f0 87 31 17 3e c7 a3 5e 3c 58 88 09 be b6 d7 f7 bb
       0.14764987 0.013588852 -0.13430917 -0.0075635565
000300 c3 d9 31 bc 8b 6b 5b be 3f 6d 36 3e b0 a3 7d 3a
       -0.010855141 -0.21427743 0.17815112 0.00096755754
000310 23 b1 af be c5 1c 9f 3e 7d 41 74 bc 31 3e a0 3e
       -0.34314832 0.31076637 -0.014908192 0.31297448
000320 8d 2c 9f be 47 b7 74 3e f1 51 41 3e cb 2b f3 bd
       -0.31088677 0.2389804 0.18878914 -0.11873587
000330 c5 47 15 bc a5 a8 83 3e d2 d6 04 be cb 90 65 3e
       -0.0091113495 0.25714603 -0.12972572 0.22418515
000340 45 de 40 3e ea 87 2d be f8 e1 ac 3e 12 dd 43 be
       0.18834789 -0.16946378 0.3376615 -0.191273
000350 2d 33 67 3e fe a8 a2 3d 97 86 3e bd cd 22 47 be
       0.22578116 0.07942389 -0.046515074 -0.19446869
000360 b4 0b 84 3d 14 06 87 3d 0d 45 a7 bd 81 e3 ed 3d
       0.06447545 0.06592956 -0.08167467 0.116156586
000370 99 15 8c 3e b4 d0 87 3d a2 36 6a 3e e7 2f 81 3e
       0.27360228 0.06631604 0.22872403 0.2523186
000380 93 10 81 bd
       -0.063019894

net.3.bias f4 [15]
000000 03 88 0b 3e f9 99 b2 3d d8 bf 24 be f4 a2 d4 3d
       0.13626103 0.08720774 -0.16088808 0.10382643
000010 66 9a 8c be cf 15 6f 3e c5 72 d4 3d db 42 98 3c
       -0.27461547 0.23348163 0.10373453 0.018586567
000020 53 90 99 3c a8 7b bc bd a8 ac 80 3e 32 b0 c0 3d
       0.018745577 -0.09203273 0.25131726 0.094086066
000030 76 c2 0c be 81 e9 f1 3d 9b 79 1e 3e
       -0.13746056 0.118121155 0.15476076

net.6.weight f4 [15, 15]
000000 37 c1 11 be 67 13 95 bd 7e 8c 00 bd 61 1d c9 be
       -0.14233862 -0.07279091 -0.031383984 -0.39280227
000010 2a 9e f0 3d af dd 7a bd 3b 35 f3 bd e3 11 85 be
       0.117489174 -0.06124657 -0.11875387 -0.2599021
000020 88 8c 83 3d b8 d6 55 bd 86 c8 83 be 04 d7 d6 3d
       0.064232886 -0.052206725 -0.25738925 0.1049023
000030 60 c7 3d 3d 0a 76 56 be 57 ff 80 be 2d ec 75 3d
       0.046332717 -0.20943466 -0.2519481 0.060039688
000040 65 3a fe 3d 37 f3 8b bd 7f da aa 3e 09 16 28 3c
       0.124134816 -0.06833499 0.33369824 0.01025916
000050 db 7b a6 3e e2 d7 a1 3e 80 31 aa 3e 19 94 f3 3d
       0.3251637 0.31610018 0.3324089 0.11893482
000060 23 ab 3c 3e 71 ec a7 3e 63 02 01 bd 7f f8 c4 be
       0.18424658 0.32797578 -0.031496417 -0.38470837
000070 f5 83 f1 3c f9 20 6b 3e f8 ae 8f 3d a8 db 57 3e
       0.029481867 0.22961797 0.070157945 0.21079886
000080 e8 f1 e4 bd 07 36 33 bd 41 e6 aa bd 81 5c 1e 3e
       -0.111789525 -0.043752696 -0.08344699 0.15464975
000090 b3 ce 2d 3d 40 e5 05 3d e7 6b cd bc fc 16 5f 3d
       0.04243345 0.032689333 -0.025075866 0.05446528
0000a0 45 15 64 3e da 60 69 bd 50 6d e2 bd f2 31 8d 3e
       0.22273739 -0.05697713 -0.11056006 0.27577168
0000b0 37 0e 6a 3d d4 4e 00 be 0d 21 25 be 85 71 19 3e
       0.057142463 -0.1253007 -0.16125889 0.1498471
0000c0 0f ba d9 be 1d 10 06 3e 44 f6 ae bc be f6 81 be
       -0.42524764 0.13092084 -0.021357663 -0.25383562
0000d0 68 d6 88 be 77 d6 c1 3d 79 fe 9e bd ae a1 ac be
       -0.2672608 0.09464734 -0.077633806 -0.33717102
0000e0 42 29 62 3d 12 6f 08 3e d9 be de bd 33 0e 97 be
       0.055215128 0.1332362 -0.10876245 -0.2950302
0000f0 95 37 0e 3e 24 ad 9e bd f9 56 ac be e2 99 cc 3d
       0.1388839 -0.07747868 -0.33660105 0.09990288
000100 df 49 20 bd 64 25 1f 3d a1 5b 6c 3e 08 3c 14 3e
       -0.03913295 0.038854018 0.23081829 0.14476025
000110 1f 8b 6d bd d3 69 00 be 82 44 72 3e eb 47 7a bc
       -0.057994004 -0.12540369 0.23658946 -0.015275936
000120 ce 6c bc be d6 59 97 3e c1 c0 11 bd d7 bc a3 be
       -0.3680176 0.29560727 -0.035584215 -0.3198001
000130 23 3d 33 3e d8 33 97 3e fe 11 a6 be fc e4 6b 3e
       0.1750379 0.2953174 -0.32435602 0.2303657
000140 f6 6f 01 3c f4 1c ed bd 7a e9 dc bd 8b e9 a7 3d
       0.007900229 -0.11577788 -0.107867196 0.08198842
000150 c9 db fb bc 32 7e eb 3d 41 7c 73 3e 37 3f 43 3e
       -0.03074445 0.11498679 0.23777868 0.19067083
000160 85 96 81 be 93 cb d6 bc af 74 ea bd 87 c2 c7 bb
       -0.2531015 -0.026220119 -0.11448037 -0.0060961875
000170 f3 67 a5 be 13 79 90 3c 2a a2 aa be 1f a8 6a 3e
       -0.3230587 0.017635858 -0.33326846 0.22915696
000180 43 50 19 3e 33 25 9e 3e 42 8b da bd 2a 18 a9 bd
       0.14972024 0.30887756 -0.106710926 -0.08256562
000190 55 e4 a6 3d a9 5b 81 be 37 c6 25 be 26 e5 99 3d
       0.0814902 -0.25265244 -0.16188894 0.0751441
0001a0 6c d7 2b 3d 29 65 2d bd 4e 89 77 bd 53 ab 7f 3d
       0.04195349 -0.042332802 -0.06043368 0.062419247
0001b0 34 82 d4 bd b2 b5 13 bd ff 83 e0 bd 84 51 86 3c
       -0.10376397 -0.03606195 -0.10962676 0.016396292
0001c0 c9 35 69 3d ef 6f 51 3d 98 00 30 bd 6e 68 24 3d
       0.05693606 0.05113214 -0.042969316 0.040138654
0001d0 bb ff d4 3d 79 21 9a 3d f4 45 f8 bd fe 01 55 be
       0.10400339 0.07525916 -0.121227175 -0.20801541
0001e0 3f 6b b8 bd 27 2a a7 3e 1d a8 31 be 00 a9 72 3d
       -0.090048306 0.32649347 -0.17349286 0.059243202
0001f0 50 a7 b1 be 3b 33 08 bd ab 4e 8f 3d 2b 71 57 3e
       -0.34697962 -0.033251982 0.069974266 0.21039264
000200 f7 06 a2 3d d8 d1 54 3e 60 78 80 3e 4e 0e 3c be
       0.07911485 0.20783174 0.2509184 -0.18364832
000210 85 04 08 be b5 18 84 3e 47 1a 54 3e c3 54 ed 3c
       -0.13282974 0.258001 0.20713149 0.028971082
000220 bc 53 23 3d 47 6a 31 3e 55 0f b0 be da b3 0e 3e
       0.039874777 0.17325698 -0.34386697 0.13935795
000230 ad e5 35 be 6f cf 23 be 7a 29 00 be 09 e6 30 be
       -0.17763396 -0.15997098 -0.12515822 -0.17275251
000240 56 a6 91 bd cd a5 9a 3c 31 e7 7e 3d 0c 07 d5 3d
       -0.07111804 0.018877888 0.0622322 0.10401735
000250 57 d4 76 be 0a 04 46 be 01 16 07 bc bd 44 37 bd
       -0.24104439 -0.19337478 -0.008244992 -0.04474329
000260 97 bd e3 bc 2a eb 70 3d f2 ee 6e 3d 6f 8f ae bd
       -0.027800364 0.05881802 0.058333345 -0.085234515
000270 cf 0d 0e be 05 6d 80 3d ba 73 7a 3c a5 7e 89 bc
       -0.13872455 0.06270794 0.01528638 -0.016784022
000280 48 5c 0e be 54 70 8e 3d 5c ca 6a 3d 7f 66 12 be
       -0.1390239 0.06955019 0.05732189 -0.14296912
000290 39 09 ea bd d9 e8 4f 3d 1d 0f 8e bd 45 49 05 3e
       -0.1142754 0.05075917 -0.069364764 0.13016231
0002a0 2d 07 f0 bd bc 74 9c bc ec 4e 37 be c0 fb 86 be
       -0.11720119 -0.019098632 -0.179012 -0.26363945
0002b0 05 9a 8e be 6c 7d 5e 3d c5 f0 27 bd fb 1d 3a be
       -0.27851883 0.05431883 -0.0410011 -0.18175499
0002c0 eb 7e 00 3e 13 74 15 3e 6d fc 89 be a1 b3 2a be
       0.12548415 0.1459506 -0.26950398 -0.16670085
0002d0 65 13 39 3e 4b 3b 44 3e 14 a1 18 bd 64 e6 07 3e
       0.18073805 0.19163243 -0.03726299 0.13271481
0002e0 76 26 b5 bd 1b 6b f3 3d 46 30 60 3e 29 d7 65 3c
       -0.088452265 0.11885663 0.21893415 0.014028349
0002f0 08 f9 e6 bd b5 a8 b0 3d 8d 88 0b 3d ea cf cd bd
       -0.11277968 0.08625928 0.03406577 -0.10049422
000300 3e 4b 36 be 31 c9 9e 3e a5 8a 66 3e 68 7b 5e 39
       -0.1780214 0.31012872 0.22513826 0.00021217542
000310 27 5b 69 bd 7b 74 83 3d 57 d1 a2 be d1 64 6b 3c
       -0.056971695 0.06418701 -0.3180034 0.014367298
000320 8b 11 7e bd 49 3a 57 be 2e 55 94 bd bb e8 51 3d
       -0.06202845 -0.21018328 -0.07242809 0.05124734
000330 3c fa 24 bc 02 8a ef bd 7c 05 e6 3d 99 38 9d 3d
       -0.010069426 -0.11696245 0.11231515 0.07676811
000340 fc 69 91 bd 93 12 34 be 94 0c 22 3e 74 47 25 3e
       -0.07100293 -0.1758521 0.1582511 0.16140538
000350 da 8d f4 bd 54 32 f0 3d a7 bb b2 be f2 03 6c 3e
       -0.119411185 0.11728349 -0.34908792 0.2304838
000360 f3 04 cd 3e b4 4c 88 3e 57 70 a0 bd b9 46 bc bd
       0.40042838 0.2662102 -0.07833927 -0.09193177
000370 fb 25 5f 3e dd e4 ad be 5d 83 ca be 91 1d be 3e
       0.21791832 -0.3396367 -0.39553347 0.37131932
000380 80 0a ae 3e
       0.33992386
