bestclf/bestclf_yaleb_n08.pth (torch, 343163 bytes, 16 tensors)

fc1.weight f4 [75, 504]
0	0x3ca80651	0.020510824
1	0xbd8187f9	-0.06324763
2	0xbd2b23db	-0.04178224
3	0x3c8de299	0.017319964
4	0xbcac9160	-0.021065414
5	0x3cbed06e	0.023292746
6	0x3c25f9f7	0.010130397
7	0xbbdd3651	-0.00675086
8	0x3ba68f49	0.005082999
9	0xbc99eb58	-0.018788978
10	0x3ca889e6	0.020573568
11	0x3cb557f8	0.022136673
12	0xbc997a6f	-0.018735139
13	0xbcb2a7f9	-0.021808611
14	0xbd96f621	-0.07371164
15	0xbd11ebc5	-0.035625238
16	0xbd13f766	-0.03612461
17	0x3c88770e	0.016658332
18	0xbd7be125	-0.06149401
19	0xbd96d67d	-0.07365129
20	0xbca2de27	-0.019881321
21	0x3cfd5518	0.030924365
22	0xbcacc88a	-0.021091718
23	0xbb27be71	-0.002559569
24	0x3db08070	0.086182475
25	0x3d7c3575	0.061574418
26	0x3d96d9e7	0.0736578
27	0x3d456f0a	0.0482016
28	0x3cd5687d	0.0260508
29	0xbc5c1b5e	-0.013434259
30	0xbd10cc43	-0.03535105
31	0xbbc958f5	-0.0061446377
32	0x3c45d412	0.012074487
33	0x3c1a62ef	0.009423002
34	0x3bb6df24	0.0055807997
35	0x3cd96760	0.02653855
36	0x3c5b56c3	0.013387385
37	0xbb1e6274	-0.002416757
38	0xbd0869f5	-0.033304173
39	0xbda107b3	-0.07862797
40	0xbe03846e	-0.12843487
41	0xbde1e649	-0.110302515
42	0x3d4f58e2	0.050621875
43	0x3c375efe	0.0111920815
44	0x3b808db3	0.003923142
45	0x3d2c7769	0.042106066
46	0x3d9687bb	0.07350107
47	0x3db5f349	0.088842936
48	0x3dbcc2b0	0.09216821
49	0x3dd06459	0.1017539
50	0x3cddeafc	0.027089588
51	0xbb93155f	-0.0044886316
52	0xbc480415	-0.0122080045
53	0x3d50b226	0.050951146
54	0x3d08185d	0.03322636
55	0x3d66749f	0.056263562
56	0x3da2f81e	0.07957481
57	0x3da575ed	0.08079133
58	0x3d383500	0.04497242
59	0xbb8d1cdd	-0.0043064193
60	0xbd110bb7	-0.035411563
61	0x39158756	0.00014260164
62	0xbce24202	-0.027619366
63	0x3d9afb6c	0.07567486
64	0x3ce399b9	0.027783262
65	0xbc0dd316	-0.008656284
66	0xbc58487e	-0.013200877
67	0xbd30ef18	-0.043196768
68	0xbca442d7	-0.020051403
69	0xbcc712f6	-0.024301033
70	0x3cffb4c9	0.031214135
71	0x3d8c77dd	0.068587996
72	0xbbf00d5c	-0.0073258113
73	0x3d28afd0	0.041183293
74	0x3dad66aa	0.08466847
75	0x3d7e9bce	0.062160306
76	0x3d858b58	0.06520718
77	0x3ae5c991	0.0017531385
78	0x3cd5fa4d	0.02612033
79	0x3bede4ef	0.007259957
80	0xbb419a15	-0.0029541303
81	0xbcaba064	-0.020950504
82	0x3b3ed782	0.0029120152
83	0x3c085c47	0.008322782
84	0x3db61976	0.08891575
85	0x3c090305	0.008362536
86	0xbbd51ec8	-0.0065039136
87	0x3d1ecdce	0.03877049
88	0x3c170672	0.009217845
89	0xbb836f84	-0.0040110964
90	0x3ce881d0	0.028382212
91	0x3cf59366	0.029977512
92	0x3d1cf1f0	0.038316667
93	0xbce1e684	-0.027575739
94	0x3d75ced7	0.06001171
95	0x3e3a303e	0.18182465
96	0x3db1e9e7	0.086871915
97	0xbc9829af	-0.018574564
98	0xbd875e8d	-0.06609831
99	0x3bd718ca	0.0065642344
100	0x3c8102c5	0.01574839
101	0xbb283e41	-0.0025671872
102	0x3c1680c4	0.009185974
103	0xbd2dcea5	-0.0424334
104	0xbd7a12fd	-0.061053265
105	0x3dde5a16	0.10857026
106	0x3d8ed34c	0.069738954
107	0xbc0b5676	-0.008504501
108	0x3ce7ce6b	0.02829667
109	0x3dbde4f5	0.09272186
110	0x3d4a9f47	0.049468305
111	0x3cc68675	0.024234036
112	0x3c8c6e02	0.0171423
113	0xbd0a9db6	-0.03384181
114	0xbce95d46	-0.028486859
115	0xbc56792b	-0.013090412
116	0x3d9a5ed5	0.07537619
117	0x3d5b08a2	0.05347503
118	0xbc2f0edc	-0.010684695
119	0x3d18794b	0.03722505
120	0x3d59c609	0.053167377
121	0x3d97c3e8	0.07410413
122	0x3dac5ac7	0.08415752
123	0x3dd683cd	0.10474358
124	0x3d416a86	0.04722073
125	0x39cd4c4b	0.0003915749
126	0x3ccf9ba8	0.025342777
127	0xbd4eb21b	-0.050462823
128	0xbcefc00b	-0.029266378
129	0xbc9658f5	-0.018352965
130	0xbcf637c0	-0.03005588
131	0xbd1d151a	-0.038350202
132	0xbc34ed67	-0.011042929
133	0x3d03c67b	0.032171708
134	0x3d8a58de	0.06755231
135	0x3d62d707	0.055380847
136	0xbd704ef6	-0.058669053
137	0xbcce50d1	-0.02518502
138	0xbc9350cf	-0.017982868
139	0x3be0e7f3	0.006863588
140	0xbd4b7f85	-0.04968216
141	0x3c4cb447	0.012494153
142	0xbcd373cf	-0.025812058
143	0xbd95ef1b	-0.073209964
144	0xbcb90ec6	-0.022590052
145	0xbcc2a029	-0.023758011
146	0xbc977524	-0.018488474
147	0x3cf67bfa	0.030088414
148	0xbd88df6e	-0.06683241
149	0xbd48e8c8	-0.049050122
150	0xbc4fa2e4	-0.0126731135
151	0xbd9a8c2f	-0.07546269
152	0xbd854666	-0.06507568
153	0xbd563abe	-0.052302115
154	0x3cd65772	0.026164744
155	0xbc0d7ef5	-0.008636226
156	0x3ccb4355	0.02481238
157	0xbe12ce64	-0.14336544
158	0xbe38d0e3	-0.18048434
159	0xbcfaa537	-0.030596359
160	0x3d1fde6e	0.039030485
161	0xbd15540a	-0.0364571
162	0x3c323bae	0.010878487
163	0xbc2456b1	-0.0100304345
164	0xbd835a50	-0.0641371
165	0x3c84566a	0.016154487
166	0xbd5ad95b	-0.053429943
167	0xbdd98da9	-0.10622723
168	0x3d220fef	0.039565977
169	0xbac8a027	-0.0015306518
170	0xbe0432cc	-0.12910002
171	0xbcbfe3db	-0.02342408
172	0xbcc5e9de	-0.024159368
173	0xbcae5ef4	-0.021285512
174	0xbc5f58d3	-0.013632017
175	0x3d645b80	0.055751324
176	0x3c89a497	0.016802115
177	0x3ca284b0	0.019838661
178	0xbcd664ad	-0.026171053
179	0xbda1a1ba	-0.07892175
180	0xbc3572bc	-0.011074718
181	0xbbcd93bc	-0.006273715
182	0x3c6a998c	0.014318835
183	0x3a21c462	0.0006170926
184	0x3d5785fe	0.05261802
185	0x3c5082ce	0.012726499
186	0xbd33b3bc	-0.04387258
187	0xbd389677	-0.04506537
188	0x3d512be4	0.051067248
189	0x3ce2b7be	0.027675506
190	0xbd4a63c7	-0.04941156
191	0xbd64d5ca	-0.055867948
192	0xbcf14fce	-0.029457
193	0xbd3b454a	-0.045720376
194	0xbd139684	-0.036032215
195	0xbb11abd2	-0.0022227657
196	0x3c5ecdf8	0.013598911
197	0xbcf7d73c	-0.030253999
198	0x3cf07a21	0.02935511
199	0xbd5526d7	-0.052038994
200	0xbcb76a97	-0.022389693
201	0xbd56c1d9	-0.05243096
202	0x3d2d5c84	0.042324558
203	0x3c99b4d0	0.018762976
204	0xbcb468f8	-0.02202271
205	0xbd37689f	-0.04477751
206	0xbc957b1d	-0.018247182
207	0xbcb104a9	-0.021608667
208	0x3d116f93	0.035506796
209	0x3e3cd380	0.18440056
210	0xbdb0fb19	-0.08641643
211	0xbd792aba	-0.060831763
212	0xbcf79674	-0.030223109
213	0x3b6b6061	0.00359156
214	0xbd0f88bb	-0.035042506
215	0x3d149367	0.036273386
216	0xbc08c5da	-0.008347953
217	0xbd966ece	-0.07345353
218	0xbcac5e46	-0.021041047
219	0xbd689853	-0.056785893
220	0xbe0d2435	-0.13783343
221	0x3dad2f89	0.08456332
222	0x3dd813c0	0.10550642
223	0xb95b7175	-0.00020927734
224	0x3ce3b05e	0.02779406
225	0xbd734e0a	-0.059400596
226	0xbd3e6326	-0.046481274
227	0xbda852e4	-0.08218935
228	0xbd9bf091	-0.07614244
229	0x3d6c020a	0.057619132
230	0x3df300df	0.118654005
231	0xbcd9feb5	-0.026610712
232	0xbd0429a5	-0.032266278
233	0xbb33aa5a	-0.002741477
234	0xbba3e019	-0.0050010798
235	0xb9f26cea	-0.00046238984
236	0xbc5ea471	-0.013589011
237	0xbc5c1279	-0.013432139
238	0x3db0b9b6	0.086291716
239	0x3d0026e9	0.031287108
240	0x3cce5435	0.025186637
241	0x3d81ceff	0.063383095
242	0x3e1ad091	0.15118624
243	0x3e45a1fe	0.19300076
244	0xbd7e2b53	-0.062053036
245	0x3d8182f3	0.06323805
246	0x3d4ace9e	0.04951345
247	0x3b74cf22	0.0037354906
248	0xbd69b56d	-0.057057787
249	0xbd0e7a78	-0.034784764
250	0x3c7f5e77	0.015586487
251	0x3cb19529	0.02167757
252	0x3c8d9e57	0.017287416
253	0xbb08dae2	-0.0020882417
254	0xbdc3ef63	-0.09567144
255	0xbd531525	-0.051533837

fc1.bias f4 [75]
0	0x3dbb05e9	0.09131987
1	0x3df3ec31	0.11910284
2	0x3d014bcb	0.031566422
3	0xbd261cca	-0.0405548
4	0x3d1f6507	0.038914707
5	0xbb2dd795	-0.0026526202
6	0xbd2a87bd	-0.041633356
7	0x3dbe03a8	0.09278041
8	0x3d1837d0	0.037162602
9	0x3ddab54f	0.10679113
10	0x3c955076	0.018226843
11	0x3d496444	0.049167886
12	0x3e374f28	0.1790129
13	0x3c6ef64b	0.014585088
14	0x3e8177be	0.2528667
15	0xbe185985	-0.14877899
16	0xbd054e2f	-0.032545265
17	0x3da69e48	0.081356585
18	0xbcc7bb3f	-0.024381278
19	0x3e69f996	0.22849116
20	0x3d727cb8	0.059200972
21	0x3e79e136	0.24402317
22	0xbd11eee2	-0.035628207
23	0x3cba453b	0.02273809
24	0x3cf66d11	0.030081304
25	0xbd8bf630	-0.06834066
26	0x3dabe009	0.08392341
27	0xbd20e765	-0.039283175
28	0x3ebd474a	0.36968452
29	0xbe17e362	-0.14832833
30	0x3e21efeb	0.15814178
31	0x3e5b1547	0.21394835
32	0x3dfdbe49	0.1238981
33	0x3dda8cbe	0.10671376
34	0x3e7c7b69	0.24656452
35	0x3e4b3ba7	0.19846974
36	0xbd592b41	-0.053019766
37	0x3d9261ad	0.071475364
38	0xbdcda665	-0.10041503
39	0x3e08a66d	0.13344736
40	0x3e378a0f	0.17923759
41	0x3d665a90	0.05623871
42	0x3d5d9290	0.05409485
43	0x3d66450c	0.056218192
44	0x3d8b64a4	0.06806305
45	0x3d2848a5	0.041084904
46	0xbd93cd98	-0.07216948
47	0xbdfaba9c	-0.12242624
48	0x3d58eafd	0.052958477
49	0xbbf14150	-0.007362522
50	0x3ddd4a01	0.10805131
51	0x3e316c11	0.1732638
52	0x3d7b1058	0.061294883
53	0xbe1ffd19	-0.15623893
54	0x3e67579a	0.22592011
55	0x3c9eeb41	0.019399287
56	0x3e4c00a9	0.19922127
57	0x3dfcc972	0.1234311
58	0xbdbe3abe	-0.09288548
59	0x3e4dda41	0.20102789
60	0xbd0eee11	-0.034895007
61	0x3d6c1d8f	0.057645377
62	0x3e054c97	0.13017498
63	0xbdcd4035	-0.10022012
64	0xbc884913	-0.016636407
65	0x3c4fbe65	0.012679671
66	0x3d8f0a8b	0.06984433
67	0xbdf34365	-0.11878089
68	0xbbce44be	-0.006294816
69	0x3e86f8e0	0.26361752
70	0x3cfc86ee	0.030826058
71	0xbd5d0cfc	-0.05396746
72	0x3d912dcc	0.07088813
73	0x3e7b4067	0.24536286
74	0x3c53b837	0.012922338

fc2.weight f4 [75, 75]
0	0xbe459e2d	-0.1929862
1	0xbd87072c	-0.06593165
2	0x3c46c537	0.012131981
3	0x3e177ede	0.1479449
4	0x3d9b9243	0.075962566
5	0xbded5af2	-0.11589612
6	0xbbf95826	-0.007609385
7	0xbbdc8a98	-0.006730389
8	0xbe1e9f69	-0.15490498
9	0x3e36ad58	0.17839563
10	0x3e926e0a	0.28599578
11	0xbdc4a9fd	-0.09602735
12	0x3cbdb6e0	0.02315849
13	0x3d938a5d	0.07204125
14	0xbbd2d706	-0.006434324
15	0xbbb11fc2	-0.005405397
16	0x3cc4fc8b	0.024046203
17	0xbd08fcb0	-0.033444107
18	0xbd9a20b5	-0.075257696
19	0xbda16577	-0.07880681
20	0x3d49e2f7	0.049288716
21	0x3e049364	0.1294685
22	0x3d7aee65	0.061262507
23	0xbe8867b3	-0.26641616
24	0x3e15a4a5	0.14613588
25	0x3d5a3904	0.05327703
26	0x3cf904ab	0.030397734
27	0x3d7fb77d	0.062430847
28	0xbcf504a5	-0.029909441
29	0xbd8c7722	-0.0685866
30	0x3ca5f89e	0.020260151
31	0x3db8d28b	0.09024533
32	0x3de03aae	0.10948692
33	0x3dbd811c	0.09253141
34	0xbe1d338c	-0.15351695
35	0x3b03a0dc	0.0020084893
36	0xbdbf6d05	-0.09346966
37	0x3e0b5154	0.13605243
38	0xbe36a5d1	-0.17836691
39	0x3d9512b4	0.07278958
40	0x3b5f615e	0.0034085135
41	0x3eaf83ee	0.34280342
42	0xbd23091b	-0.039803606
43	0x3d257093	0.040390562
44	0x3df0491b	0.11732694
45	0xbd8b03e1	-0.06787849
46	0xbd94cac1	-0.07265235
47	0xbe3949c5	-0.18094547
48	0xbe123061	-0.14276268
49	0x3e34547b	0.17610352
50	0x3e933903	0.28754434
51	0x3d9b30d1	0.0757767
52	0x3cc1ea0f	0.023671178
53	0xbde7adbf	-0.11312436
54	0x3e4085d6	0.18801054
55	0x3defea48	0.117146075
56	0xbdb7f78c	-0.08982763
57	0xbda4d891	-0.08049119
58	0xbe82dc67	-0.2555878
59	0x3e02bc26	0.12767085
60	0x3e49558b	0.19661538
61	0x3db94805	0.0904694
62	0x3e04f929	0.12985672
63	0x3d017723	0.03160776
64	0xbd02ae2b	-0.03190438
65	0xbd4fdb10	-0.050746024
66	0x3e14cf63	0.14532237
67	0xbc8ad84c	-0.016948842
68	0x3de8650d	0.11347399
69	0xbca5ab59	-0.020223306
70	0xbbf11910	-0.007357724
71	0xbd639358	-0.05556044
72	0x3d7dd0d5	0.061966736
73	0xbd3c8ee0	-0.046034694
74	0xbce96149	-0.028488772
75	0x3b5cf09f	0.0033712757
76	0xbe1c28a6	-0.15249881
77	0xbc47fc07	-0.012206084
78	0xbda3b8a5	-0.079942025
79	0xbd768be0	-0.06019199
80	0x3d706151	0.05868656
81	0xbc11176e	-0.008855684
82	0x3db2cf9e	0.08731006
83	0xbdb67116	-0.08908288
84	0x3e021657	0.12703834
85	0x3d22de6a	0.03976289
86	0xbdfc3028	-0.123138726
87	0x3dc81308	0.09769255
88	0xbde0393c	-0.109484166
89	0x3dce7716	0.100813076
90	0x3d4d7bf7	0.05016705
91	0x3e4b634a	0.19862095
92	0x3d333dd9	0.043760154
93	0xbcb58f60	-0.022163093
94	0x3d9f715f	0.07785296
95	0x3d72880c	0.059211776
96	0xbd80ca7b	-0.0628862
97	0xbae7a48e	-0.0017672942
98	0xbd9f7f5c	-0.07787964
99	0x3cf71ec9	0.030166047
100	0x3d81c408	0.06336218
101	0xbe09f9f7	-0.1347426
102	0xbdab3a50	-0.083607316
103	0x3e0a29d8	0.13492525
104	0x3b03da47	0.0020119117
105	0x3d9378c4	0.072007686
106	0x3e6b529e	0.22980735
107	0x3dd1f142	0.102510944
108	0xbda59255	-0.08084551
109	0x3d598bb8	0.05311176
110	0x3d947d9a	0.07250519
111	0x3c8093e0	0.015695512
112	0xbde69efc	-0.112607926
113	0x3cbc7a6e	0.023007598
114	0x3d68f621	0.05687535
115	0xbe0572be	-0.13032052
116	0xbc262935	-0.01014166
117	0x3d0af023	0.03392042
118	0xbd4397ba	-0.04775212
119	0xbe1f6bdc	-0.15568489
120	0x3d264e8f	0.040602263
121	0x3d12b871	0.03582043
122	0xbce9eaaf	-0.028554289
123	0x3e197290	0.14985108
124	0x3b8749da	0.004128677
125	0xbb477862	-0.0030436744
126	0x3e6e61d5	0.23279507
127	0x3e5794c3	0.21052842
128	0xbd87dc6c	-0.06633839
129	0xbd0c485a	-0.034248687
130	0xbc149267	-0.009068108
131	0x3c4bf519	0.012448573
132	0x3e1ed0a6	0.1550928
133	0xbea364bb	-0.3191279
134	0x3e87d008	0.26525903
135	0x3e1e553a	0.15462199
136	0x3e11b0c4	0.14227587
137	0xbd9bd78b	-0.07609471
138	0xbcce1fb9	-0.02516161
139	0xbdf3b344	-0.118994266
140	0xbcb5d89c	-0.022198014
141	0x3e1e0986	0.1543332
142	0x3bf94076	0.0076065613
143	0x3d4b77db	0.04967485
144	0x3d902e04	0.07040027
145	0xbc874877	-0.016514046
146	0xbe29d81f	-0.1658635
147	0xbb565653	-0.0032705262
148	0xbdd7aaa4	-0.10530594
149	0x3dac4f6e	0.084135875
150	0xbe0532c4	-0.13007647
151	0xbd01c329	-0.03168026
152	0x3b1c2ade	0.0023829262
153	0xbe3a6954	-0.18204242
154	0x3d64219f	0.055696126
155	0x3c050ad8	0.008120261
156	0xbb868b00	-0.0041059256
157	0xbc34e940	-0.011041939
158	0xbcfd6e52	-0.030936394
159	0xbc0a9c8d	-0.008460176
160	0x3e063272	0.13105181
161	0xbc4c8d3d	-0.012484846
162	0xbd471589	-0.048604522
163	0xbde85276	-0.11343853
164	0x3e2bd91f	0.16782044
165	0xbc5a8d20	-0.013339311
166	0x3e0f8c09	0.14018263
167	0x3e29e0f2	0.16589716
168	0x3d1309eb	0.03589813
169	0x3db668d9	0.08906717
170	0x3dd0ea66	0.10200958
171	0xbddc6234	-0.10760918
172	0x3d8d98ce	0.06913911
173	0x399e7416	0.000302226
174	0x3af52e72	0.0018705858
175	0x3e87a903	0.26496133
176	0xbd364da1	-0.044507626
177	0xbdb54ccc	-0.088525385
178	0xbe184413	-0.14869718
179	0x3c921a67	0.017834855
180	0xbe225611	-0.15853144
181	0x3e83ddab	0.25755057
182	0xbe0b9ef9	-0.13634862
183	0x3d99c554	0.075083405
184	0x3da92fc3	0.08261063
185	0xbcf297bc	-0.029613368
186	0x3c4199e9	0.01181648
187	0x3e32c0df	0.17456387
188	0xbd199af7	-0.0375013
189	0x3cad88a5	0.021183321
190	0xbe3a973a	-0.18221751
191	0x3e866ced	0.2625498
192	0x3e61ccf5	0.22050841
193	0x3c9ba5e4	0.019000001
194	0x3dbe9831	0.09306372
195	0x3dcbba4b	0.09947642
196	0x3e1c07df	0.15237378
197	0x3ca5705d	0.02019518
198	0xbdd0d9e0	-0.10197806
199	0x3d349ec2	0.044096716
200	0x3d938de9	0.072048016
201	0xbe15796f	-0.14597104
202	0xbcb09dc4	-0.021559604
203	0x3dd1aa61	0.10237575
204	0xbd636f06	-0.055525802
205	0xbe1805b4	-0.14845926
206	0xbd65d4fc	-0.05611132
207	0x3e4b175e	0.19833133
208	0xbd37eaf5	-0.044901807
209	0xbda50755	-0.08058039
210	0x3e144de0	0.14482832
211	0x3dc0ed31	0.09420241
212	0x3ad07c02	0.0015906098
213	0x3d4f0173	0.05053849
214	0x3e0f33b1	0.13984562
215	0x3e0f3abf	0.13987254
216	0xbd997e24	-0.074947625
217	0x3e084717	0.13308369
218	0xbdcafae6	-0.09911136
219	0xbd11ebca	-0.035625257
220	0xbe271627	-0.16317044
221	0xbc4a8868	-0.012361623
222	0x3e458008	0.19287121
223	0xbdb4d135	-0.088289656
224	0x3d3890e4	0.045060053
225	0xbe3369ef	-0.17520879
226	0xbd603ed9	-0.054747436
227	0xbd3ef7db	-0.046623092
228	0x3d72c0c8	0.05926588
229	0x3d9318a7	0.071824364
230	0xbe0c5fe2	-0.13708451
231	0x3df5658f	0.119822614
232	0x3d3289ff	0.043588635
233	0x3d968baa	0.073508576
234	0x3db3d322	0.08780505
235	0xbda6b594	-0.08140102
236	0xbd06b289	-0.03288511
237	0x3e0b2c8d	0.13591214
238	0x3cea44e1	0.028597297
239	0xbe0e6093	-0.13904028
240	0x3ddbfd92	0.10741724
241	0x3da1f7b9	0.079085775
242	0x3d328d98	0.043592066
243	0xbd5654d7	-0.052327003
244	0x3d0b76a3	0.034048688
245	0xbd3d1a67	-0.046167757
246	0x3d94d14f	0.07266485
247	0x3d48a80f	0.0489884
248	0x3cc729de	0.024311956
249	0x3c7443ac	0.014908712
250	0x3d7578c0	0.05992961
251	0xbd8200bc	-0.06347796
252	0xbd3994c2	-0.045307882
253	0x3e173296	0.14765391
254	0x3d41a901	0.047280315
255	0xbca8778d	-0.020564819

fc2.bias f4 [75]
0	0xbd3d1909	-0.046166454
1	0x3caf9ab4	0.021436073
2	0xbcba250e	-0.022722747
3	0xbdc55fa2	-0.09637381
4	0x3dee19a1	0.11625982
5	0x3dad6175	0.08465854
6	0x3d817ce7	0.06322651
7	0xbdd9ea41	-0.106403835
8	0x3dee506e	0.116364345
9	0x3d5585f9	0.05212972
10	0x3da8252c	0.08210215
11	0x3e0162aa	0.12635294
12	0x3e725b87	0.23667727
13	0xbdbc5d96	-0.091975376
14	0x3c2fc06d	0.01072703
15	0xbe0265a9	-0.12734093
16	0x3d0ef1b6	0.034898482
17	0x3e0109eb	0.1260144
18	0xbd388608	-0.045049697
19	0xbc77c1df	-0.015121906
20	0x3e394537	0.1809281
21	0x3e0c2fae	0.13690063
22	0x3e5eb87c	0.21750063
23	0xbddc2b75	-0.10750476
24	0xbdda1fb5	-0.10650579
25	0x3e4bcc30	0.1990211
26	0x3e2d804c	0.16943473
27	0x3db1c2a2	0.086797014
28	0xbd1e8aeb	-0.0387067
29	0xbd3b3e64	-0.045713797
30	0x3e1b7f9f	0.15185402
31	0x3cbc3701	0.022975447
32	0x3e06bce4	0.13157994
33	0x3e0d36b1	0.13790394
34	0x3dd5c8f3	0.10438719
35	0x3e0a6839	0.1351632
36	0x3b8c98aa	0.00429066
37	0x3e124e50	0.14287686
38	0x3be4020a	0.006958251
39	0x3e4de39f	0.20106362
40	0x3dcb9863	0.09941175
41	0xbc1975a6	-0.0093664285
42	0x3c1b9e4a	0.009498188
43	0x3e20e783	0.15713315
44	0x3cca97df	0.02473062
45	0x3e12f244	0.1435023
46	0x3b8f8c6c	0.0043807533
47	0x3e1e3867	0.15451203
48	0x3ddb6924	0.10713413
49	0x3e1d73f8	0.1537627
50	0x3de2540f	0.11051189
51	0xbc108ed6	-0.008823117
52	0xbd2780ea	-0.040894426
53	0x3d446885	0.04795124
54	0x3ce5bc91	0.028044017
55	0x3b85e43e	0.0040860465
56	0x3df10436	0.11768381
57	0xbe1eacd8	-0.15495622
58	0x3d93552c	0.071939796
59	0xbcd6dfe9	-0.026229816
60	0x3e6bbdb3	0.23021583
61	0x3d8ea042	0.069641605
62	0x3e800a7d	0.25008002
63	0x3d322fa8	0.04350248
64	0x3e2dacd9	0.16960467
65	0x3e3f6aec	0.18693131
66	0x3d9faa93	0.07796206
67	0x3e912447	0.2834799
68	0x3e356ab8	0.17716491
69	0x3e979c6d	0.2961153
70	0x3e25eb7a	0.16203108
71	0xbd1d4cde	-0.038403384
72	0xbd3d7e58	-0.04626307
73	0x3e007b7f	0.1254711
74	0x3de03f18	0.10949534

out.weight f4 [38, 75]
0	0xbea83e5a	-0.3286007
1	0xbce97600	-0.02849865
2	0x3e096880	0.1341877
3	0xbe105a0b	-0.14096849
4	0xbea60e68	-0.32432866
5	0xbeb8400b	-0.3598636
6	0xbc21df32	-0.009879874
7	0xbe933c0d	-0.28756753
8	0x3f0bf175	0.5466531
9	0xbd215723	-0.03938974
10	0xbe586281	-0.21131326
11	0x3e65a0a2	0.22424558
12	0x3e294354	0.1652959
13	0x3e7fd3c1	0.24983121
14	0xbd6dc0f5	-0.058045346
15	0x3df8752e	0.12131725
16	0x3dc63cff	0.09679603
17	0xbc4447d3	-0.011980015
18	0xbe97f2ee	-0.29677528
19	0xbd406074	-0.046966985
20	0xbdee5297	-0.116368465
21	0x3ec5206d	0.385013
22	0x3d240541	0.040044073
23	0x3e3f0485	0.18654068
24	0xbeb0e4cd	-0.3454956
25	0xbe1d7cd4	-0.1537965
26	0x3e57f717	0.21090351
27	0xbe80f897	-0.2518966
28	0xbe188186	-0.1489316
29	0x3c93ab8d	0.018026138
30	0x3e903dbe	0.28172106
31	0x3ea80da5	0.3282291
32	0xbdb29670	-0.087201
33	0x3f0bd3de	0.5462016
34	0x3e8f975d	0.2804517
35	0xbd8a9e8f	-0.06768524
36	0x3e8d9df7	0.2765958
37	0x3dad9b7f	0.08476924
38	0x3e778805	0.24172981
39	0x3e86dc45	0.26339927
40	0xbe94e75e	-0.2908277
41	0xbe771092	-0.24127415
42	0x3e923931	0.2855926
43	0x3ecc2fcc	0.39880216
44	0xbe31da43	-0.17368416
45	0xbe5874a6	-0.21138248
46	0x3e0b3b93	0.13596945
47	0x3e8e5c7e	0.2780494
48	0x3ea0c1de	0.3139791
49	0xbeddf31a	-0.43349534
50	0xbd8d112f	-0.06888043
51	0xbeeb0beb	-0.4590753
52	0xbf04c7c7	-0.51867336
53	0x3cf695c9	0.03010072
54	0xbc27c160	-0.010238975
55	0x3df06cf6	0.11739533
56	0xbddaed0a	-0.10689743
57	0xbf0d3d61	-0.5517178
58	0x3e0501f5	0.12989028
59	0x3ded6086	0.11590676
60	0xbf011975	-0.5042947
61	0xbd88ad20	-0.06673646
62	0xbebcde04	-0.36888134
63	0xb7d0731c	-2.4849134e-05
64	0xbdd1bc47	-0.10240989
65	0x3ca99d6e	0.020704951
66	0x3d71329e	0.058886163
67	0xbdc8e4bc	-0.098092526
68	0x3e9eb010	0.309937
69	0x3e245591	0.16048266
70	0xbd2286c7	-0.039679315
71	0x3e7bbda1	0.24584056
72	0xbe95fc87	-0.29294226
73	0xbe2f793b	-0.1713609
74	0xbe784dbf	-0.24248408
75	0xbe8caf4d	-0.27477494
76	0xbeb34d09	-0.3501971
77	0xbcabf706	-0.020991813
78	0x3e89cbad	0.26913205
79	0xbf0fc16b	-0.5615451
80	0xbe3d0bc7	-0.18461524
81	0x3dc6fb4f	0.09715902
82	0x3ef1c261	0.47218612
83	0x3ea5f8b7	0.32416317
84	0xbe91b630	-0.2845931
85	0xbea6ee74	-0.326038
86	0xbe4f0d18	-0.20219839
87	0x3ebb3b71	0.36568788
88	0xbea7ac4d	-0.32748643
89	0xbeadc860	-0.33941936
90	0x3e945c85	0.28976837
91	0xbe70656f	-0.23476194
92	0x3f0fbe01	0.561493
93	0x3e6f1d34	0.23350984
94	0xbe52507b	-0.20538513
95	0x3e5d9119	0.21637382
96	0x3e6eb72e	0.23312065
97	0xbe515303	-0.20441823
98	0xbcd29ffa	-0.025711048
99	0x3e137ec3	0.14403825
100	0x3ecd1859	0.40057638
101	0xbcb3d3e9	-0.021951633
102	0xbe28884a	-0.1645824
103	0xbe092fbb	-0.13397114
104	0xbeff50db	-0.49866375
105	0xbea15242	-0.3150807
106	0x3da55ec2	0.08074714
107	0x3f0cf015	0.55053836
108	0x3d34814d	0.044068623
109	0xbf05d5f1	-0.52279574
110	0x3f124dfd	0.5715025
111	0x3e8eb3cb	0.27871546
112	0xbdbabbe8	-0.091178715
113	0x3ea62a2a	0.32454044
114	0x3ed460b9	0.41480044
115	0x3e545295	0.20734628
116	0xbe350bfd	-0.17680354
117	0x3eb3f806	0.35150164
118	0x3e778b6c	0.24174279
119	0x3e1aa1bb	0.15100758
120	0x3f05dd4a	0.52290785
121	0x3d99029d	0.074712016
122	0xbbadba76	-0.005301769
123	0xbd1ad51a	-0.037800886
124	0x3dfe32fd	0.12412069
125	0xbec53f4c	-0.38524854
126	0x3ea7414d	0.32667008
127	0x3cbab14a	0.022789616
128	0x3e44ccea	0.19218794
129	0xbeeb7a75	-0.45991865
130	0xbe8412c3	-0.25795564
131	0xbe26fcb6	-0.16307339
132	0xbef769fe	-0.48323053
133	0xbe4044f0	-0.18776298
134	0x3d2d1158	0.04225287
135	0x3dbae4f7	0.09125703
136	0xbec3ddd1	-0.3825517
137	0x3e087a54	0.13327914
138	0x3e80fd7f	0.25193402
139	0x3e578f26	0.210507
140	0xbee0033c	-0.43752468
141	0xbe7fb070	-0.2496965
142	0x3e03f0f4	0.12884885
143	0x3ede44bd	0.43411818
144	0xbe26bc44	-0.16282755
145	0xbeda52b1	-0.42641214
146	0xbe4f0e69	-0.20220341
147	0xbe72dd27	-0.23717175
148	0xbe5fafb9	-0.21844377
149	0x3ed0fce2	0.40817934
150	0x3e82fb0d	0.25582162
151	0x3edf05a8	0.43559003
152	0x3e88eed6	0.26744717
153	0x3e36d281	0.17853738
154	0x3dbe2200	0.09283829
155	0xbe3a5663	-0.18197016
156	0x3da04bea	0.078269795
157	0x3e8810df	0.26575372
158	0xbea0f563	-0.31437215
159	0x3e8fb40c	0.28067052
160	0xbe98e357	-0.29860947
161	0xbebf8bc8	-0.37411332
162	0xbe7b2427	-0.2452551
163	0xbc70cefa	-0.014697785
164	0xbe7effde	-0.24902293
165	0x3ef13509	0.47110775
166	0x3da4f4f8	0.080545366
167	0x3e63be80	0.22240639
168	0xbe35776c	-0.17721337
169	0x3eef4abb	0.46736702
170	0xbd3a25b5	-0.045446116
171	0xbe820c38	-0.25399947
172	0xbe232f1c	-0.1593594
173	0x3d83850c	0.06421861
174	0x3eaea832	0.34112698
175	0x3ea230c7	0.3167784
176	0xbf109f6c	-0.5649326
177	0x3e5f8cca	0.2183105
178	0x3eb0a1f4	0.3449856
179	0xbdc546e8	-0.09632665
180	0xbe53d22a	-0.2068564
181	0x3db79280	0.089634895
182	0xbe7dc7aa	-0.24783197
183	0xbe49a029	-0.19690003
184	0xbee7d4d4	-0.45279562
185	0xbe3f5ea9	-0.18688454
186	0xbdceaed8	-0.100919425
187	0x3bbe7974	0.005812818
188	0xbe6d61a7	-0.23181783
189	0xbd84e705	-0.06489376
190	0xbed5c8a0	-0.41754627
191	0xbbaa960f	-0.0052058767
192	0x3ebe2515	0.37137666
193	0xbd964be9	-0.073386975
194	0x3e2cc7b1	0.16873051
195	0x3e3b5cdc	0.18297142
196	0xbea17be8	-0.31539845
197	0x3e417e5d	0.1889586
198	0xbe9573c0	-0.29189873
199	0xbdec4c78	-0.11538023
200	0xbe913807	-0.28363058
201	0x3e39d6ef	0.18148397
202	0x3edba149	0.42896488
203	0xbe6c63fa	-0.23085013
204	0x3e01c1ba	0.12671557
205	0x3b259c94	0.002527033
206	0x3ec7484e	0.38922352
207	0x3eab0900	0.33405304
208	0xbe431d89	-0.19054236
209	0xbe2afef8	-0.16698825
210	0x3e900be2	0.28134066
211	0xbde8003a	-0.11328168
212	0xbd606d9f	-0.054792043
213	0xbe2da873	-0.1695879
214	0xbdac6fb5	-0.08419744
215	0xbe6ab147	-0.22919188
216	0x3eba98c2	0.3644467
217	0x3d17e561	0.037083987
218	0x3e577686	0.21041307
219	0xbea6c3a4	-0.32571137
220	0xbd99f5d5	-0.07517592
221	0xbe38919d	-0.18024297
222	0x3c5f34bf	0.0136234155
223	0xbe9c83c2	-0.30569273
224	0xbde39f7b	-0.11114403
225	0xbe9ff211	-0.3123937
226	0x3c9aaf30	0.018882364
227	0xbed489ec	-0.41511476
228	0xbe5d52c0	-0.21613598
229	0x3e3cfdee	0.18456241
230	0x3e3da73e	0.18520829
231	0x3d68433f	0.056704756
232	0xbe770ea6	-0.24126682
233	0xbe66f730	-0.22555232
234	0x3eea48d7	0.45758697
235	0x3e5cb205	0.21552284
236	0x3e3e243a	0.18568507
237	0xbe81a0bc	-0.25317943
238	0x3ec266ab	0.37968954
239	0x3d7c4ae7	0.06159487
240	0x3df5b6d5	0.11997763
241	0x3ea0be06	0.31394976
242	0xbee5ed25	-0.4490749
243	0xbee03faa	-0.43798572
244	0x3de2e9cc	0.110797495
245	0x3ee579b3	0.44819412
246	0x3e09843a	0.13429347
247	0xbcebc3a0	-0.028779805
248	0x3e648b6a	0.22318807
249	0xbe2712ad	-0.16315718
250	0x3e109c76	0.14122185
251	0xbdbc85d0	-0.0920521
252	0xbf08d5d5	-0.5345128
253	0x3e676345	0.22596462
254	0x3e5d8bbe	0.21635339
255	0x3ec0c479	0.37649897

out.bias f4 [38]
0	0x3d379e9d	0.044829
1	0x3e21e315	0.15809281
2	0xbe630628	-0.22170317
3	0xbc521d04	-0.012824301
4	0xbdc2e864	-0.09516981
5	0xbe6a0ade	-0.22855708
6	0xbdc30823	-0.09523036
7	0xbdd2e958	-0.10298413
8	0xbd0c518d	-0.03425746
9	0xbdbedc66	-0.093193814
10	0xbe126a2a	-0.14298311
11	0x3e3b634e	0.182996
12	0x3d663045	0.056198377
13	0xbded33e2	-0.115821615
14	0xbe255a43	-0.16147713
15	0x3d203fe8	0.039123446
16	0x3d86d5d0	0.0658375
17	0x3b6dcddb	0.003628603
18	0x3d83b4dc	0.064309806
19	0x3e9e2cee	0.30893654
20	0xbd394a9e	-0.045237176
21	0xbd3e9bcc	-0.0465353
22	0xbdae3d15	-0.08507744
23	0xbcd5a680	-0.02608037
24	0x3d75c412	0.06000144
25	0xbe45823e	-0.19287965
26	0x3eb93cb9	0.3617914
27	0xbda9db71	-0.08293808
28	0x3e3d0938	0.18460548
29	0x3b7643ae	0.0037576961
30	0x3e0dc97d	0.13846393
31	0x3e2d432a	0.16920152
32	0x3e1b6b14	0.15177566
33	0xbe81f2e9	-0.25380638
34	0xbe19f7d1	-0.1503594
35	0xbccd6adb	-0.025075367
36	0x3d5c4031	0.053772155
37	0xbe2ee376	-0.17078957

sep_conn.weight f4 [75, 504]
0	0xbd695586	-0.056966327
1	0xbc986bc2	-0.01860607
2	0xbde3a9a8	-0.11116344
3	0xbd8b0359	-0.06787748
4	0xbda26465	-0.07929305
5	0xbdffa515	-0.12482659
6	0xbd9d46ad	-0.07679496
7	0x3d6dcbb1	0.058055583
8	0x3e18c583	0.14919095
9	0x3d21c0d6	0.039490543
10	0xbc9090f0	-0.017647237
11	0xbd5eb417	-0.054370966
12	0xbceb4779	-0.028720604
13	0x3d1b3193	0.037889075
14	0x3d938f24	0.07205036
15	0x3d172ccf	0.036907967
16	0x3da1958c	0.07889852
17	0x3c45d7cd	0.012075377
18	0xbd05e9ae	-0.032693557
19	0xbd433769	-0.047660265
20	0xbd622d6c	-0.0552191
21	0xbdcfef22	-0.10153033
22	0xbd85b639	-0.06528897
23	0xbd78258e	-0.06058269
24	0xbdb44e4b	-0.08803996
25	0xbe14d9a1	-0.14536144
26	0xbe4e92f8	-0.20173252
27	0xbde24b32	-0.110494986
28	0x3d090de1	0.0334605
29	0x3e215e07	0.15758525
30	0x3e0869fd	0.13321681
31	0x3dec2655	0.11530749
32	0xbd76f761	-0.060294513
33	0x3d649ea2	0.055815347
34	0x3e146b91	0.14494158
35	0x3d2133db	0.039356094
36	0x3d9515b3	0.072795294
37	0x3d9c7463	0.076393865
38	0x3c8aeccc	0.016958617
39	0xbde1dbd8	-0.1102826
40	0xbe39db39	-0.18150033
41	0xbdbd409f	-0.09240841
42	0xbd165e91	-0.03671128
43	0xbc633f15	-0.01387002
44	0xbbd69c37	-0.006549384
45	0xbc9d9f80	-0.019241095
46	0xbe1c57b5	-0.15267833
47	0xbe68365b	-0.22676985
48	0xbe12159b	-0.14266054
49	0xbc841a28	-0.016125754
50	0x3db6695a	0.08906813
51	0x3d90ee58	0.070767105
52	0x3ca72dfe	0.020407673
53	0xbddc5780	-0.10758877
54	0x3d076b23	0.033061158
55	0x3db5c241	0.088749416
56	0x3dd01442	0.10160114
57	0x3e0bc1c2	0.13648131
58	0x3dfc5aba	0.12321992
59	0x3c995ab1	0.018720003
60	0xbd59499d	-0.05304872
61	0xbe28fd98	-0.16502988
62	0xbe85172b	-0.25994238
63	0x3dffecdc	0.12496349
64	0x3e697e1e	0.22802016
65	0x3e2ef86a	0.1708695
66	0x3df9778c	0.12181005
67	0x3daea481	0.085274704
68	0x3d44dee0	0.048064113
69	0x3d5a7c48	0.05334118
70	0x3d84d5e5	0.0648611
71	0x3dd98b68	0.10622293
72	0x3c941e27	0.018080784
73	0xbde0cdbc	-0.10976741
74	0xbdfa3c90	-0.12218583
75	0xbd28b895	-0.041191656
76	0x3d7b05bd	0.06128477
77	0x3e37811a	0.17920342
78	0x3c496de4	0.012294266
79	0x3cb75a90	0.02238205
80	0x3dc222b5	0.09479276
81	0x3dfa4904	0.12220958
82	0x3e045b89	0.12925543
83	0x3cffa258	0.031205341
84	0xbd86cbeb	-0.06581863
85	0x3da24113	0.07922568
86	0xbcb575ef	-0.022150962
87	0xbe111604	-0.14168555
88	0xbd2fa0c5	-0.04287793
89	0xbc67fca6	-0.014159357
90	0xbde5230d	-0.11188326
91	0xbd7afc1e	-0.061275594
92	0x3db5a766	0.08869819
93	0x3cd90a93	0.0264943
94	0xbe18b6ee	-0.14913532
95	0xbe672eb7	-0.22576414
96	0x3d576be7	0.052593138
97	0x3dfa5ec3	0.122251056
98	0xbc69e8b7	-0.014276675
99	0xbdac8b16	-0.08424966
100	0xbd2056ce	-0.039145283
101	0x3c175d6a	0.00923858
102	0x3b2cbab2	0.0026356396
103	0x3e1e49ed	0.15457888
104	0x3e22f581	0.15913965
105	0xbdcb4445	-0.09925131
106	0x3d2db03f	0.04240441
107	0x3dc9178e	0.09818946
108	0xbe3047e9	-0.17214932
109	0xbdfec00d	-0.124389745
110	0x3c92c3f3	0.017915701
111	0xbd8204d5	-0.06348578
112	0xbe6ba373	-0.2301157
113	0xbe3f9afd	-0.18711467
114	0x3c893177	0.01674722
115	0xbdd5fd56	-0.104487106
116	0xbd55fdcd	-0.052243996
117	0x3d94e7c3	0.072707675
118	0x3bad481a	0.005288136
119	0xbca96bb0	-0.020681232
120	0x3d0033fd	0.03129958
121	0xbd73adb5	-0.05949183
122	0xbdbe2d48	-0.092859805
123	0xbda4b698	-0.080426395
124	0x3d83a2c7	0.06427532
125	0x3d2f5415	0.042804796
126	0x3c550ab8	0.013003044
127	0xbcb7e4e7	-0.022448016
128	0xbc5e991e	-0.013586311
129	0x3a405865	0.00073373906
130	0xbd54a377	-0.051913705
131	0x3e2d968d	0.16951962
132	0x3e100f90	0.14068437
133	0xbd85081a	-0.06495686
134	0xbde2b78b	-0.11070164
135	0xbe7c2f1b	-0.24627344
136	0xbd56660a	-0.052343406
137	0xbd5ebd5c	-0.054379806
138	0xbe08c22f	-0.13355325
139	0x3dad8979	0.084734865
140	0x3cbd308b	0.023094436
141	0x3e36e3e3	0.1786037
142	0x3ccdabfd	0.025106424
143	0xbc69a3ea	-0.014260272
144	0x3d401231	0.04689235
145	0x3e4605a0	0.19338083
146	0xba2ed815	-0.0006669772
147	0x3d8c78ba	0.06858964
148	0x3d91b871	0.071152575
149	0x3d136d34	0.035992816
150	0xbe15877d	-0.14602466
151	0x3dfff810	0.12498486
152	0x3c2a3425	0.010388409
153	0x3d5a2d50	0.05326587
154	0x3d50f6f2	0.051016755
155	0x3da9299b	0.08259889
156	0xbe717e0a	-0.23583236
157	0xbe0a586f	-0.13510297
158	0x3df6f4d2	0.120584145
159	0xbd758d42	-0.059949167
160	0xbd654818	-0.055976957
161	0x3de9b0fd	0.11410711
162	0x3dd384fb	0.103280984
163	0x3df8d97b	0.12150856
164	0x3e07e7e9	0.1327206
165	0x3e85d587	0.2613947
166	0x3d35f688	0.044424564
167	0x3ce61b84	0.028089292
168	0x3e2b4145	0.16724117
169	0x3e83f7a1	0.25774863
170	0x3e2880bf	0.16455363
171	0x3d9df8d6	0.07713477
172	0xbb1b22e4	-0.002367192
173	0xbb18f833	-0.0023341298
174	0x3d396625	0.04526343
175	0x3d99cfea	0.075103596
176	0xbd47439d	-0.048648465
177	0xbe5d9e57	-0.21642433
178	0xbe338698	-0.17531812
179	0x3e5029e1	0.20328476
180	0xbbb7fbc6	-0.0056147305
181	0x3cccd3ee	0.0250034
182	0x3da57497	0.080788784
183	0x3d9cedd6	0.07662551
184	0x3c1d77df	0.009611099
185	0xbd905562	-0.070475355
186	0xbe28baa2	-0.16477445
187	0xbd55c356	-0.05218824
188	0xbe7905aa	-0.24318567
189	0x3e2ed57e	0.17073628
190	0x3e7c7279	0.24653043
191	0x3e47a5a7	0.19496785
192	0xbd230715	-0.039801676
193	0xbd0cc8a4	-0.034371033
194	0xbdddad5d	-0.10824082
195	0xbbdb2a3f	-0.0066883857
196	0xbd2d2718	-0.04227361
197	0xbdfae1ec	-0.122501224
198	0xbe2ab3f8	-0.16670215
199	0xbdfda82c	-0.12385592
200	0x3e34db19	0.17661704
201	0x3c3e45c3	0.011613312
202	0x3de1b930	0.1102165
203	0xbd509b71	-0.05092949
204	0x3c06978d	0.008214843
205	0x3d5ef21b	0.05443011
206	0x3cce34e0	0.025171697
207	0xbdafa520	-0.08576417
208	0xbdd1976a	-0.10233958
209	0xbda9e322	-0.08295275
210	0x3e2b5b9e	0.16734168
211	0x3e599411	0.21247889
212	0x3e3b2c47	0.18278609
213	0x3df88a53	0.12135758
214	0x3d2e88bd	0.042610873
215	0xbc706c55	-0.014674266
216	0xbc9896d9	-0.018626617
217	0xbd0cde15	-0.03439148
218	0xbe3c95db	-0.1841654
219	0xbddcfbd9	-0.10790224
220	0xbdcc588c	-0.099778265
221	0x3dc1222c	0.09430346
222	0x3d8065d8	0.06269425
223	0x3e089955	0.13339742
224	0x3d72a794	0.059241846
225	0xbdc16fc0	-0.09445143
226	0x3c9ce49b	0.019151976
227	0x3cfec822	0.03110129
228	0x3d7eae0a	0.062177695
229	0x3d5fc766	0.05463352
230	0x3c0d52f4	0.008625735
231	0x3d6a4f0e	0.0572043
232	0x3d1520f3	0.036408376
233	0x3dc63af2	0.09679212
234	0x3e1753dc	0.14778084
235	0x3db0348e	0.08603774
236	0x3dd7de23	0.10540416
237	0x3da84203	0.08215716
238	0xbdeee073	-0.11663904
239	0x3e334657	0.17507301
240	0xbd071f77	-0.03298899
241	0xbe881b81	-0.26583484
242	0xbc8b2f9a	-0.016990472
243	0xbdb6752b	-0.08909067
244	0x3d6616fc	0.056174263
245	0x3db0158e	0.08597861
246	0xbc9f5136	-0.019447904
247	0xbda44d7e	-0.08022593
248	0x3d69dfaf	0.057098087
249	0x3d5b9693	0.053610396
250	0x3d909d98	0.070613086
251	0x3cdaeeb2	0.026725147
252	0xbd0f8277	-0.03503653
253	0x3d4a96b9	0.049460147
254	0x3e50b356	0.20380911
255	0x3e2ff5a9	0.17183556

sep_conn.bias f4 [75]
0	0xbdbcd87d	-0.09220979
1	0xbd0cfc2c	-0.034420177
2	0xbe873ba9	-0.26412705
3	0xbe7f30b7	-0.24920927
4	0x3c7046a6	0.014665281
5	0x3d5015f9	0.050802205
6	0x3da4e508	0.08051497
7	0x3bdafa8a	0.0066826986
8	0x3e5d6176	0.2161921
9	0xbdb66ea8	-0.08907825
10	0x3cc4d26d	0.02402612
11	0x3eb07b9a	0.344693
12	0x3ea8b298	0.32948756
13	0xbe8fda46	-0.28096217
14	0xbdec32ad	-0.11533103
15	0xbe9d2ccc	-0.3069824
16	0x3dc1fafc	0.094716996
17	0x3e080136	0.13281712
18	0xbe34f45f	-0.17671345
19	0xbe71b904	-0.23605734
20	0x3e8ed2f2	0.27895314
21	0x3e71a460	0.2359786
22	0x3e8604b4	0.26175463
23	0xbe3361cf	-0.1751778
24	0xbe9aa8b7	-0.30206844
25	0x3e869043	0.26281938
26	0x3eb9ca02	0.36286932
27	0xbde9137b	-0.11380669
28	0xbe5ed408	-0.21760571
29	0xbea6c1f3	-0.32569847
30	0x3e07aee6	0.13250312
31	0xbdef25bd	-0.1167712
32	0x3debdee6	0.11517124
33	0xbbb72d26	-0.005590099
34	0x3db46282	0.088078514
35	0x3e778c1a	0.24174538
36	0x3dae365b	0.08506461
37	0x3e8d3a1c	0.27583396
38	0xbe4c0fce	-0.19927904
39	0x3e4a2919	0.1974224
40	0x3e0e81da	0.13916722
41	0xbe163526	-0.14668712
42	0xbe2f4171	-0.17114808
43	0x3dc246eb	0.09486183
44	0xbc9c7e71	-0.01910326
45	0x3ea630cc	0.32459104
46	0xbe5f5812	-0.2181094
47	0xbd3d37f0	-0.046195924
48	0x3daa5e87	0.08318811
49	0x3e83cec1	0.25743678
50	0x3d90d1dd	0.07071278
51	0xbe23e5d7	-0.16005646
52	0xbe613ac3	-0.21995072
53	0xbca471bd	-0.020073766
54	0xbe2491f0	-0.16071296
55	0xbc198606	-0.009370333
56	0xbc1e1c04	-0.009650234
57	0xbe88e99f	-0.2674074
58	0x3e1ee186	0.15515718
59	0xbc97f816	-0.018550914
60	0x3e5028ba	0.20328036
61	0x3da153c9	0.07877309
62	0x3eb5b9d3	0.35493335
63	0xbd0e6158	-0.034760803
64	0x3e0ec872	0.13943651
65	0x3e8b1df9	0.27171305
66	0x3d6eee8e	0.058332972
67	0x3eb1a0dd	0.3469304
68	0x3e88b2c0	0.26698875
69	0x3ed72b91	0.42025426
70	0x3dad79af	0.08470475
71	0xbe20998d	-0.15683575
72	0xbe16816d	-0.1469781
73	0x3e00373b	0.12521069
74	0x3e808b5b	0.2510632

bn.weight f4 [75]
0	0x3f800000	1.0
1	0x3f800000	1.0
2	0x3f800000	1.0
3	0x3f800000	1.0
4	0x3f800000	1.0
5	0x3f800000	1.0
6	0x3f800000	1.0
7	0x3f800000	1.0
8	0x3f800000	1.0
9	0x3f800000	1.0
10	0x3f800000	1.0
11	0x3f800000	1.0
12	0x3f800000	1.0
13	0x3f800000	1.0
14	0x3f800000	1.0
15	0x3f800000	1.0
16	0x3f800000	1.0
17	0x3f800000	1.0
18	0x3f800000	1.0
19	0x3f800000	1.0
20	0x3f800000	1.0
21	0x3f800000	1.0
22	0x3f800000	1.0
23	0x3f800000	1.0
24	0x3f800000	1.0
25	0x3f800000	1.0
26	0x3f800000	1.0
27	0x3f800000	1.0
28	0x3f800000	1.0
29	0x3f800000	1.0
30	0x3f800000	1.0
31	0x3f800000	1.0
32	0x3f800000	1.0
33	0x3f800000	1.0
34	0x3f800000	1.0
35	0x3f800000	1.0
36	0x3f800000	1.0
37	0x3f800000	1.0
38	0x3f800000	1.0
39	0x3f800000	1.0
40	0x3f800000	1.0
41	0x3f800000	1.0
42	0x3f800000	1.0
43	0x3f800000	1.0
44	0x3f800000	1.0
45	0x3f800000	1.0
46	0x3f800000	1.0
47	0x3f800000	1.0
48	0x3f800000	1.0
49	0x3f800000	1.0
50	0x3f800000	1.0
51	0x3f800000	1.0
52	0x3f800000	1.0
53	0x3f800000	1.0
54	0x3f800000	1.0
55	0x3f800000	1.0
56	0x3f800000	1.0
57	0x3f800000	1.0
58	0x3f800000	1.0
59	0x3f800000	1.0
60	0x3f800000	1.0
61	0x3f800000	1.0
62	0x3f800000	1.0
63	0x3f800000	1.0
64	0x3f800000	1.0
65	0x3f800000	1.0
66	0x3f800000	1.0
67	0x3f800000	1.0
68	0x3f800000	1.0
69	0x3f800000	1.0
70	0x3f800000	1.0
71	0x3f800000	1.0
72	0x3f800000	1.0
73	0x3f800000	1.0
74	0x3f800000	1.0

bn.bias f4 [75]
0	0x00000000	0.0
1	0x00000000	0.0
2	0x00000000	0.0
3	0x00000000	0.0
4	0x00000000	0.0
5	0x00000000	0.0
6	0x00000000	0.0
7	0x00000000	0.0
8	0x00000000	0.0
9	0x00000000	0.0
10	0x00000000	0.0
11	0x00000000	0.0
12	0x00000000	0.0
13	0x00000000	0.0
14	0x00000000	0.0
15	0x00000000	0.0
16	0x00000000	0.0
17	0x00000000	0.0
18	0x00000000	0.0
19	0x00000000	0.0
20	0x00000000	0.0
21	0x00000000	0.0
22	0x00000000	0.0
23	0x00000000	0.0
24	0x00000000	0.0
25	0x00000000	0.0
26	0x00000000	0.0
27	0x00000000	0.0
28	0x00000000	0.0
29	0x00000000	0.0
30	0x00000000	0.0
31	0x00000000	0.0
32	0x00000000	0.0
33	0x00000000	0.0
34	0x00000000	0.0
35	0x00000000	0.0
36	0x00000000	0.0
37	0x00000000	0.0
38	0x00000000	0.0
39	0x00000000	0.0
40	0x00000000	0.0
41	0x00000000	0.0
42	0x00000000	0.0
43	0x00000000	0.0
44	0x00000000	0.0
45	0x00000000	0.0
46	0x00000000	0.0
47	0x00000000	0.0
48	0x00000000	0.0
49	0x00000000	0.0
50	0x00000000	0.0
51	0x00000000	0.0
52	0x00000000	0.0
53	0x00000000	0.0
54	0x00000000	0.0
55	0x00000000	0.0
56	0x00000000	0.0
57	0x00000000	0.0
58	0x00000000	0.0
59	0x00000000	0.0
60	0x00000000	0.0
61	0x00000000	0.0
62	0x00000000	0.0
63	0x00000000	0.0
64	0x00000000	0.0
65	0x00000000	0.0
66	0x00000000	0.0
67	0x00000000	0.0
68	0x00000000	0.0
69	0x00000000	0.0
70	0x00000000	0.0
71	0x00000000	0.0
72	0x00000000	0.0
73	0x00000000	0.0
74	0x00000000	0.0

bn.running_mean f4 [75]
0	0x00000000	0.0
1	0x00000000	0.0
2	0x00000000	0.0
3	0x00000000	0.0
4	0x00000000	0.0
5	0x00000000	0.0
6	0x00000000	0.0
7	0x00000000	0.0
8	0x00000000	0.0
9	0x00000000	0.0
10	0x00000000	0.0
11	0x00000000	0.0
12	0x00000000	0.0
13	0x00000000	0.0
14	0x00000000	0.0
15	0x00000000	0.0
16	0x00000000	0.0
17	0x00000000	0.0
18	0x00000000	0.0
19	0x00000000	0.0
20	0x00000000	0.0
21	0x00000000	0.0
22	0x00000000	0.0
23	0x00000000	0.0
24	0x00000000	0.0
25	0x00000000	0.0
26	0x00000000	0.0
27	0x00000000	0.0
28	0x00000000	0.0
29	0x00000000	0.0
30	0x00000000	0.0
31	0x00000000	0.0
32	0x00000000	0.0
33	0x00000000	0.0
34	0x00000000	0.0
35	0x00000000	0.0
36	0x00000000	0.0
37	0x00000000	0.0
38	0x00000000	0.0
39	0x00000000	0.0
40	0x00000000	0.0
41	0x00000000	0.0
42	0x00000000	0.0
43	0x00000000	0.0
44	0x00000000	0.0
45	0x00000000	0.0
46	0x00000000	0.0
47	0x00000000	0.0
48	0x00000000	0.0
49	0x00000000	0.0
50	0x00000000	0.0
51	0x00000000	0.0
52	0x00000000	0.0
53	0x00000000	0.0
54	0x00000000	0.0
55	0x00000000	0.0
56	0x00000000	0.0
57	0x00000000	0.0
58	0x00000000	0.0
59	0x00000000	0.0
60	0x00000000	0.0
61	0x00000000	0.0
62	0x00000000	0.0
63	0x00000000	0.0
64	0x00000000	0.0
65	0x00000000	0.0
66	0x00000000	0.0
67	0x00000000	0.0
68	0x00000000	0.0
69	0x00000000	0.0
70	0x00000000	0.0
71	0x00000000	0.0
72	0x00000000	0.0
73	0x00000000	0.0
74	0x00000000	0.0

bn.running_var f4 [75]
0	0x3f800000	1.0
1	0x3f800000	1.0
2	0x3f800000	1.0
3	0x3f800000	1.0
4	0x3f800000	1.0
5	0x3f800000	1.0
6	0x3f800000	1.0
7	0x3f800000	1.0
8	0x3f800000	1.0
9	0x3f800000	1.0
10	0x3f800000	1.0
11	0x3f800000	1.0
12	0x3f800000	1.0
13	0x3f800000	1.0
14	0x3f800000	1.0
15	0x3f800000	1.0
16	0x3f800000	1.0
17	0x3f800000	1.0
18	0x3f800000	1.0
19	0x3f800000	1.0
20	0x3f800000	1.0
21	0x3f800000	1.0
22	0x3f800000	1.0
23	0x3f800000	1.0
24	0x3f800000	1.0
25	0x3f800000	1.0
26	0x3f800000	1.0
27	0x3f800000	1.0
28	0x3f800000	1.0
29	0x3f800000	1.0
30	0x3f800000	1.0
31	0x3f800000	1.0
32	0x3f800000	1.0
33	0x3f800000	1.0
34	0x3f800000	1.0
35	0x3f800000	1.0
36	0x3f800000	1.0
37	0x3f800000	1.0
38	0x3f800000	1.0
39	0x3f800000	1.0
40	0x3f800000	1.0
41	0x3f800000	1.0
42	0x3f800000	1.0
43	0x3f800000	1.0
44	0x3f800000	1.0
45	0x3f800000	1.0
46	0x3f800000	1.0
47	0x3f800000	1.0
48	0x3f800000	1.0
49	0x3f800000	1.0
50	0x3f800000	1.0
51	0x3f800000	1.0
52	0x3f800000	1.0
53	0x3f800000	1.0
54	0x3f800000	1.0
55	0x3f800000	1.0
56	0x3f800000	1.0
57	0x3f800000	1.0
58	0x3f800000	1.0
59	0x3f800000	1.0
60	0x3f800000	1.0
61	0x3f800000	1.0
62	0x3f800000	1.0
63	0x3f800000	1.0
64	0x3f800000	1.0
65	0x3f800000	1.0
66	0x3f800000	1.0
67	0x3f800000	1.0
68	0x3f800000	1.0
69	0x3f800000	1.0
70	0x3f800000	1.0
71	0x3f800000	1.0
72	0x3f800000	1.0
73	0x3f800000	1.0
74	0x3f800000	1.0

net.0.weight f4 [75, 504]
0	0x3ca80651	0.020510824
1	0xbd8187f9	-0.06324763
2	0xbd2b23db	-0.04178224
3	0x3c8de299	0.017319964
4	0xbcac9160	-0.021065414
5	0x3cbed06e	0.023292746
6	0x3c25f9f7	0.010130397
7	0xbbdd3651	-0.00675086
8	0x3ba68f49	0.005082999
9	0xbc99eb58	-0.018788978
10	0x3ca889e6	0.020573568
11	0x3cb557f8	0.022136673
12	0xbc997a6f	-0.018735139
13	0xbcb2a7f9	-0.021808611
14	0xbd96f621	-0.07371164
15	0xbd11ebc5	-0.035625238
16	0xbd13f766	-0.03612461
17	0x3c88770e	0.016658332
18	0xbd7be125	-0.06149401
19	0xbd96d67d	-0.07365129
20	0xbca2de27	-0.019881321
21	0x3cfd5518	0.030924365
22	0xbcacc88a	-0.021091718
23	0xbb27be71	-0.002559569
24	0x3db08070	0.086182475
25	0x3d7c3575	0.061574418
26	0x3d96d9e7	0.0736578
27	0x3d456f0a	0.0482016
28	0x3cd5687d	0.0260508
29	0xbc5c1b5e	-0.013434259
30	0xbd10cc43	-0.03535105
31	0xbbc958f5	-0.0061446377
32	0x3c45d412	0.012074487
33	0x3c1a62ef	0.009423002
34	0x3bb6df24	0.0055807997
35	0x3cd96760	0.02653855
36	0x3c5b56c3	0.013387385
37	0xbb1e6274	-0.002416757
38	0xbd0869f5	-0.033304173
39	0xbda107b3	-0.07862797
40	0xbe03846e	-0.12843487
41	0xbde1e649	-0.110302515
42	0x3d4f58e2	0.050621875
43	0x3c375efe	0.0111920815
44	0x3b808db3	0.003923142
45	0x3d2c7769	0.042106066
46	0x3d9687bb	0.07350107
47	0x3db5f349	0.088842936
48	0x3dbcc2b0	0.09216821
49	0x3dd06459	0.1017539
50	0x3cddeafc	0.027089588
51	0xbb93155f	-0.0044886316
52	0xbc480415	-0.0122080045
53	0x3d50b226	0.050951146
54	0x3d08185d	0.03322636
55	0x3d66749f	0.056263562
56	0x3da2f81e	0.07957481
57	0x3da575ed	0.08079133
58	0x3d383500	0.04497242
59	0xbb8d1cdd	-0.0043064193
60	0xbd110bb7	-0.035411563
61	0x39158756	0.00014260164
62	0xbce24202	-0.027619366
63	0x3d9afb6c	0.07567486
64	0x3ce399b9	0.027783262
65	0xbc0dd316	-0.008656284
66	0xbc58487e	-0.013200877
67	0xbd30ef18	-0.043196768
68	0xbca442d7	-0.020051403
69	0xbcc712f6	-0.024301033
70	0x3cffb4c9	0.031214135
71	0x3d8c77dd	0.068587996
72	0xbbf00d5c	-0.0073258113
73	0x3d28afd0	0.041183293
74	0x3dad66aa	0.08466847
75	0x3d7e9bce	0.062160306
76	0x3d858b58	0.06520718
77	0x3ae5c991	0.0017531385
78	0x3cd5fa4d	0.02612033
79	0x3bede4ef	0.007259957
80	0xbb419a15	-0.0029541303
81	0xbcaba064	-0.020950504
82	0x3b3ed782	0.0029120152
83	0x3c085c47	0.008322782
84	0x3db61976	0.08891575
85	0x3c090305	0.008362536
86	0xbbd51ec8	-0.0065039136
87	0x3d1ecdce	0.03877049
88	0x3c170672	0.009217845
89	0xbb836f84	-0.0040110964
90	0x3ce881d0	0.028382212
91	0x3cf59366	0.029977512
92	0x3d1cf1f0	0.038316667
93	0xbce1e684	-0.027575739
94	0x3d75ced7	0.06001171
95	0x3e3a303e	0.18182465
96	0x3db1e9e7	0.086871915
97	0xbc9829af	-0.018574564
98	0xbd875e8d	-0.06609831
99	0x3bd718ca	0.0065642344
100	0x3c8102c5	0.01574839
101	0xbb283e41	-0.0025671872
102	0x3c1680c4	0.009185974
103	0xbd2dcea5	-0.0424334
104	0xbd7a12fd	-0.061053265
105	0x3dde5a16	0.10857026
106	0x3d8ed34c	0.069738954
107	0xbc0b5676	-0.008504501
108	0x3ce7ce6b	0.02829667
109	0x3dbde4f5	0.09272186
110	0x3d4a9f47	0.049468305
111	0x3cc68675	0.024234036
112	0x3c8c6e02	0.0171423
113	0xbd0a9db6	-0.03384181
114	0xbce95d46	-0.028486859
115	0xbc56792b	-0.013090412
116	0x3d9a5ed5	0.07537619
117	0x3d5b08a2	0.05347503
118	0xbc2f0edc	-0.010684695
119	0x3d18794b	0.03722505
120	0x3d59c609	0.053167377
121	0x3d97c3e8	0.07410413
122	0x3dac5ac7	0.08415752
123	0x3dd683cd	0.10474358
124	0x3d416a86	0.04722073
125	0x39cd4c4b	0.0003915749
126	0x3ccf9ba8	0.025342777
127	0xbd4eb21b	-0.050462823
128	0xbcefc00b	-0.029266378
129	0xbc9658f5	-0.018352965
130	0xbcf637c0	-0.03005588
131	0xbd1d151a	-0.038350202
132	0xbc34ed67	-0.011042929
133	0x3d03c67b	0.032171708
134	0x3d8a58de	0.06755231
135	0x3d62d707	0.055380847
136	0xbd704ef6	-0.058669053
137	0xbcce50d1	-0.02518502
138	0xbc9350cf	-0.017982868
139	0x3be0e7f3	0.006863588
140	0xbd4b7f85	-0.04968216
141	0x3c4cb447	0.012494153
142	0xbcd373cf	-0.025812058
143	0xbd95ef1b	-0.073209964
144	0xbcb90ec6	-0.022590052
145	0xbcc2a029	-0.023758011
146	0xbc977524	-0.018488474
147	0x3cf67bfa	0.030088414
148	0xbd88df6e	-0.06683241
149	0xbd48e8c8	-0.049050122
150	0xbc4fa2e4	-0.0126731135
151	0xbd9a8c2f	-0.07546269
152	0xbd854666	-0.06507568
153	0xbd563abe	-0.052302115
154	0x3cd65772	0.026164744
155	0xbc0d7ef5	-0.008636226
156	0x3ccb4355	0.02481238
157	0xbe12ce64	-0.14336544
158	0xbe38d0e3	-0.18048434
159	0xbcfaa537	-0.030596359
160	0x3d1fde6e	0.039030485
161	0xbd15540a	-0.0364571
162	0x3c323bae	0.010878487
163	0xbc2456b1	-0.0100304345
164	0xbd835a50	-0.0641371
165	0x3c84566a	0.016154487
166	0xbd5ad95b	-0.053429943
167	0xbdd98da9	-0.10622723
168	0x3d220fef	0.039565977
169	0xbac8a027	-0.0015306518
170	0xbe0432cc	-0.12910002
171	0xbcbfe3db	-0.02342408
172	0xbcc5e9de	-0.024159368
173	0xbcae5ef4	-0.021285512
174	0xbc5f58d3	-0.013632017
175	0x3d645b80	0.055751324
176	0x3c89a497	0.016802115
177	0x3ca284b0	0.019838661
178	0xbcd664ad	-0.026171053
179	0xbda1a1ba	-0.07892175
180	0xbc3572bc	-0.011074718
181	0xbbcd93bc	-0.006273715
182	0x3c6a998c	0.014318835
183	0x3a21c462	0.0006170926
184	0x3d5785fe	0.05261802
185	0x3c5082ce	0.012726499
186	0xbd33b3bc	-0.04387258
187	0xbd389677	-0.04506537
188	0x3d512be4	0.051067248
189	0x3ce2b7be	0.027675506
190	0xbd4a63c7	-0.04941156
191	0xbd64d5ca	-0.055867948
192	0xbcf14fce	-0.029457
193	0xbd3b454a	-0.045720376
194	0xbd139684	-0.036032215
195	0xbb11abd2	-0.0022227657
196	0x3c5ecdf8	0.013598911
197	0xbcf7d73c	-0.030253999
198	0x3cf07a21	0.02935511
199	0xbd5526d7	-0.052038994
200	0xbcb76a97	-0.022389693
201	0xbd56c1d9	-0.05243096
202	0x3d2d5c84	0.042324558
203	0x3c99b4d0	0.018762976
204	0xbcb468f8	-0.02202271
205	0xbd37689f	-0.04477751
206	0xbc957b1d	-0.018247182
207	0xbcb104a9	-0.021608667
208	0x3d116f93	0.035506796
209	0x3e3cd380	0.18440056
210	0xbdb0fb19	-0.08641643
211	0xbd792aba	-0.060831763
212	0xbcf79674	-0.030223109
213	0x3b6b6061	0.00359156
214	0xbd0f88bb	-0.035042506
215	0x3d149367	0.036273386
216	0xbc08c5da	-0.008347953
217	0xbd966ece	-0.07345353
218	0xbcac5e46	-0.021041047
219	0xbd689853	-0.056785893
220	0xbe0d2435	-0.13783343
221	0x3dad2f89	0.08456332
222	0x3dd813c0	0.10550642
223	0xb95b7175	-0.00020927734
224	0x3ce3b05e	0.02779406
225	0xbd734e0a	-0.059400596
226	0xbd3e6326	-0.046481274
227	0xbda852e4	-0.08218935
228	0xbd9bf091	-0.07614244
229	0x3d6c020a	0.057619132
230	0x3df300df	0.118654005
231	0xbcd9feb5	-0.026610712
232	0xbd0429a5	-0.032266278
233	0xbb33aa5a	-0.002741477
234	0xbba3e019	-0.0050010798
235	0xb9f26cea	-0.00046238984
236	0xbc5ea471	-0.013589011
237	0xbc5c1279	-0.013432139
238	0x3db0b9b6	0.086291716
239	0x3d0026e9	0.031287108
240	0x3cce5435	0.025186637
241	0x3d81ceff	0.063383095
242	0x3e1ad091	0.15118624
243	0x3e45a1fe	0.19300076
244	0xbd7e2b53	-0.062053036
245	0x3d8182f3	0.06323805
246	0x3d4ace9e	0.04951345
247	0x3b74cf22	0.0037354906
248	0xbd69b56d	-0.057057787
249	0xbd0e7a78	-0.034784764
250	0x3c7f5e77	0.015586487
251	0x3cb19529	0.02167757
252	0x3c8d9e57	0.017287416
253	0xbb08dae2	-0.0020882417
254	0xbdc3ef63	-0.09567144
255	0xbd531525	-0.051533837

net.0.bias f4 [75]
0	0x3dbb05e9	0.09131987
1	0x3df3ec31	0.11910284
2	0x3d014bcb	0.031566422
3	0xbd261cca	-0.0405548
4	0x3d1f6507	0.038914707
5	0xbb2dd795	-0.0026526202
6	0xbd2a87bd	-0.041633356
7	0x3dbe03a8	0.09278041
8	0x3d1837d0	0.037162602
9	0x3ddab54f	0.10679113
10	0x3c955076	0.018226843
11	0x3d496444	0.049167886
12	0x3e374f28	0.1790129
13	0x3c6ef64b	0.014585088
14	0x3e8177be	0.2528667
15	0xbe185985	-0.14877899
16	0xbd054e2f	-0.032545265
17	0x3da69e48	0.081356585
18	0xbcc7bb3f	-0.024381278
19	0x3e69f996	0.22849116
20	0x3d727cb8	0.059200972
21	0x3e79e136	0.24402317
22	0xbd11eee2	-0.035628207
23	0x3cba453b	0.02273809
24	0x3cf66d11	0.030081304
25	0xbd8bf630	-0.06834066
26	0x3dabe009	0.08392341
27	0xbd20e765	-0.039283175
28	0x3ebd474a	0.36968452
29	0xbe17e362	-0.14832833
30	0x3e21efeb	0.15814178
31	0x3e5b1547	0.21394835
32	0x3dfdbe49	0.1238981
33	0x3dda8cbe	0.10671376
34	0x3e7c7b69	0.24656452
35	0x3e4b3ba7	0.19846974
36	0xbd592b41	-0.053019766
37	0x3d9261ad	0.071475364
38	0xbdcda665	-0.10041503
39	0x3e08a66d	0.13344736
40	0x3e378a0f	0.17923759
41	0x3d665a90	0.05623871
42	0x3d5d9290	0.05409485
43	0x3d66450c	0.056218192
44	0x3d8b64a4	0.06806305
45	0x3d2848a5	0.041084904
46	0xbd93cd98	-0.07216948
47	0xbdfaba9c	-0.12242624
48	0x3d58eafd	0.052958477
49	0xbbf14150	-0.007362522
50	0x3ddd4a01	0.10805131
51	0x3e316c11	0.1732638
52	0x3d7b1058	0.061294883
53	0xbe1ffd19	-0.15623893
54	0x3e67579a	0.22592011
55	0x3c9eeb41	0.019399287
56	0x3e4c00a9	0.19922127
57	0x3dfcc972	0.1234311
58	0xbdbe3abe	-0.09288548
59	0x3e4dda41	0.20102789
60	0xbd0eee11	-0.034895007
61	0x3d6c1d8f	0.057645377
62	0x3e054c97	0.13017498
63	0xbdcd4035	-0.10022012
64	0xbc884913	-0.016636407
65	0x3c4fbe65	0.012679671
66	0x3d8f0a8b	0.06984433
67	0xbdf34365	-0.11878089
68	0xbbce44be	-0.006294816
69	0x3e86f8e0	0.26361752
70	0x3cfc86ee	0.030826058
71	0xbd5d0cfc	-0.05396746
72	0x3d912dcc	0.07088813
73	0x3e7b4067	0.24536286
74	0x3c53b837	0.012922338
