bestclf/bestclf_german.pth (torch, 46462 bytes, 23 tensors)

fc1.weight f4 [64, 45]
000000 32 49 30 3b 60 60 8c 3c ba 82 1c 3d 09 5f 80 bc
       0.0026899097 0.017135799 0.038210608 -0.015670316
000010 b7 6c f6 3b 8a fc 3d bc 45 54 0d 3c 6c cb 42 3c
       0.007520284 -0.011595855 0.008626048 0.01188932
000020 be 10 06 bc 90 e6 fa 3c 64 b4 e2 bb 0c 72 17 3d
       -0.008182703 0.030627519 -0.006918477 0.036973998
000030 37 45 01 3c 08 92 20 bd 5c 55 08 3b 8f 2c 8a bc
       0.007890037 -0.039201766 0.0020802831 -0.01686695
000040 e5 e9 c9 b9 49 9e f2 3c 8d 0c 46 3b 91 92 80 3c
       -0.00038511973 0.029616492 0.0030219883 0.015694888
000050 8f ef 1e bc b6 9c aa 3c 85 67 da bc 05 83 d1 3c
       -0.00970067 0.020826679 -0.02666069 0.02557517
000060 46 6d 0f 3c 8f 97 e9 3c 70 2c d2 3c 35 92 5d 3c
       0.00875408 0.028514652 0.025655955 0.013523628
000070 c3 92 d2 bc 60 06 da 3b 68 45 22 bb 3a 9c e1 3c
       -0.025704747 0.006653592 -0.0024760608 0.027540315
000080 8c 30 b3 3b 13 28 05 bc 82 3b 19 3c 4d e7 21 3c
       0.0054684337 -0.00812723 0.009352567 0.009881807
000090 59 f5 08 bc 6b 53 e5 bc b0 72 03 3c 9b 54 1f bd
       -0.008359277 -0.027993878 0.008022949 -0.038899045
0000a0 c4 18 46 ba b1 e5 98 bb 6a 87 b4 bc cc 79 2c 3d
       -0.0007556791 -0.004666053 -0.022037227 0.042108342
0000b0 58 95 74 bc 2d c1 1f 39 1c 48 71 bc 01 80 2a bd
       -0.014928184 0.00015235385 -0.014726665 -0.04162598
0000c0 d1 e3 cd 3c 0e 57 ff 3b 07 25 55 bc 6a 24 21 bb
       0.025133045 0.00779236 -0.013009316 -0.0024588355
0000d0 34 d6 f4 bb b8 da a0 bc 28 5d b5 3c 9d a4 2d bc
       -0.007471824 -0.019635543 0.022139147 -0.010598329
0000e0 5a d7 18 3c 2c 26 52 ba 1d 2e 1c bb 56 46 b3 3c
       0.009328688 -0.00080165523 -0.0023831197 0.021884125
0000f0 27 c8 0f bd 24 15 87 bc 63 15 e0 ba 64 0a 27 bc
       -0.03510299 -0.016489573 -0.0017096217 -0.010195348
000100 94 c9 2e 3c 72 4b da 3c 8f 36 88 3a 61 cc f4 3c
       0.010668177 0.026647303 0.0010392236 0.029882612
000110 e3 85 0d 3b 07 04 40 3b 96 d5 d6 3c b2 0d 22 3d
       0.0021594695 0.0029299275 0.026224893 0.039563842
000120 2d ff 16 bc 0c 20 46 bb 9d 1d 3a 3c 29 76 d0 3b
       -0.009216112 -0.0030231504 0.011359599 0.006361742
000130 77 e0 c0 3c 66 98 5b 3c 41 d8 5f bc ef 09 d2 3b
       0.023544533 0.013403034 -0.013662399 0.0064098756
000140 43 a5 c9 3b 95 19 35 bc af de d2 bc 3c b9 10 3c
       0.006153734 -0.0110534625 -0.02574095 0.008833226
000150 a0 cf 91 3c 2d 10 d3 bc a8 d3 d3 3c 81 59 97 3c
       0.017799199 -0.02576455 0.025857762 0.018475296
000160 5f 18 95 bc b3 9b 63 bd ac c7 1a bd df b2 45 bb
       -0.018200098 -0.05556841 -0.03778808 -0.003016643
000170 91 e7 52 39 9f f4 10 3d d7 a9 67 3c c9 b7 0d bc
       0.00020113426 0.03538954 0.014139614 -0.008649775
000180 54 02 a9 3b ef 97 d6 bb 15 fd c3 bc b0 10 be bc
       0.0051577482 -0.0065488736 -0.02392439 -0.023201317
000190 76 c2 a7 3c 5e 6b be bb d3 d4 77 3c bf db df 3c
       0.020478468 -0.005811139 0.015126425 0.027326463
0001a0 ed 0b ec 39 6a 22 e1 bb 60 49 44 bb 9e 4d 9e 3c
       0.00045022313 -0.0068705576 -0.0029950961 0.01932412
0001b0 ad 93 c2 3c 0d f9 ff bb b2 ef 87 3c 66 19 c4 3c
       0.023752058 -0.0078116716 0.016593788 0.023937892
0001c0 be 8b 61 3d 9d 93 54 3c 57 9a 3f 3a 40 19 00 3c
       0.05506491 0.012974647 0.000730907 0.00781852
0001d0 64 4d 83 bb 7e ac 97 bc 86 09 4c 3d 23 1d fe 3c
       -0.0040070284 -0.018514868 0.04981377 0.031019753
0001e0 0b b8 f3 3a ea 4a 80 bc 42 cd ca 3c 1a ae 08 3d
       0.0018594278 -0.015660722 0.024756078 0.03336916
0001f0 d9 52 33 3d d3 27 f0 bb 85 c4 c5 bb 7e 27 45 3d
       0.04378018 -0.007328966 -0.00603539 0.048133366
000200 f1 bc 6a 3c b2 dd f1 3a 70 8f da bc 60 0e 5f 3b
       0.014327274 0.0018452911 -0.026679724 0.0034035668
000210 c4 b5 ee bc 1b db b1 3c 64 40 ce ba a2 c3 63 bc
       -0.029139407 0.021710923 -0.0015735743 -0.013901623
000220 ce bc 86 3a 05 5e db bb d1 86 26 ba a6 5c fa 3b
       0.0010279657 -0.0066945576 -0.00063524867 0.007640439
000230 3a f6 9b bb 3e 28 88 bb db 76 18 bb bc 7e 98 b9
       -0.004759577 -0.004155188 -0.0023264203 -0.00029086124
000240 49 dd 7b bc e5 b9 8e 3c 95 7c 94 bb 1f 20 6c 3a
       -0.015372583 0.017422626 -0.004531453 0.0009007472
000250 b8 a6 f5 bb 52 60 46 3c fb 1f 26 bb 50 6d 47 bb
       -0.007496681 0.0121079255 -0.0025348652 -0.0030430146
000260 2b 45 91 3c 3e e8 c1 ba f8 1c 20 bb 3a 29 3f bc
       0.017733177 -0.0014793945 -0.002443133 -0.011667544
000270 bb be 8c bb e6 7d c2 3b 81 09 a4 bb 96 07 2e 3b
       -0.004295198 0.0059354184 -0.0050060158 0.0026554815
000280 2e 9c ae 3c b2 41 35 3c f3 53 2c 3b cc 18 54 3c
       0.021314707 0.011063026 0.0026295155 0.012945365
000290 35 a2 dc 3a a0 8b e4 bb 53 30 8e bb 40 ef 75 bb
       0.001683301 -0.0069746524 -0.004339257 -0.0037526637
0002a0 f9 ed 31 ba f4 42 cc 39 78 1b 5a bc 98 25 e7 bb
       -0.0006787475 0.00038959796 -0.013312213 -0.007054042
0002b0 d3 fb 95 bb d2 59 ff bb 36 91 63 ba ff 78 69 3b
       -0.004577139 -0.00779269 -0.0008681001 0.0035625098
0002c0 89 a8 08 3d 49 92 81 3b 83 00 4b bb 45 16 8c bb
       0.033363853 0.003954206 -0.0030975647 -0.0042751157
0002d0 52 78 3c bc 95 f3 ce 3b 57 05 e2 3c 34 89 09 bd
       -0.011503296 0.0063156583 0.027590437 -0.033578113
0002e0 f9 28 49 bc 02 50 91 39 c4 25 c4 3c 7b b5 8e 3b
       -0.012277835 0.00027716166 0.02394379 0.0043551303
0002f0 f8 68 9f 3b 24 e0 e2 b9 36 ca 89 bc 47 0b ce bb
       0.004864808 -0.00043273077 -0.016820055 -0.0062879655
000300 0b bf 5a bb f6 d7 bc ba 73 a7 21 bc c2 9b 0f 3c
       -0.003337803 -0.0014407623 -0.009866583 0.008765163
000310 89 44 43 3c b7 ae be bc 8d 3e ec ba 10 58 03 3d
       0.0119181955 -0.02327667 -0.0018024013 0.032066405
000320 c8 77 47 bc a5 d3 3f bb 21 36 8c 3c f6 bb 9b 3c
       -0.012174554 -0.0029270437 0.017115654 0.019010525
000330 51 0c f7 bc 26 e5 3b 3c 24 15 c9 3c 17 ff af 3c
       -0.03015724 0.011468207 0.024546213 0.021483941
000340 dd d0 bd bc 32 7a 47 3b 0f 5c 17 bd 4b a4 28 3c
       -0.023170883 0.0030437824 -0.03695303 0.010293077
000350 b9 6e d3 3b 45 ca 63 bb 1e a2 e2 3c 1b 3b 00 bd
       0.006452408 -0.0034758013 0.027665194 -0.031306367
000360 ad 0f 3b bc 82 1f ce 3b 1b 5e fb bc e1 e0 49 bc
       -0.011417312 0.006290377 -0.030684521 -0.012321682
000370 35 18 c0 bc 84 ca c3 bc a7 90 20 bc 44 41 17 bd
       -0.023449043 -0.023900278 -0.009800113 -0.036927477
000380 a5 94 e2 3b c9 b3 b5 3c be 69 e6 3c 8b 32 06 3d
       0.0069146925 0.022180455 0.028126594 0.032763045
000390 21 d4 6a 3c 2c 55 1e 3c 3d 6d 7a bc a0 04 af 3c
       0.014332802 0.009663861 -0.0152848335 0.02136451
0003a0 c7 da 81 3c 6c e7 c6 3a ba ab 2f 3b 67 41 0e bc
       0.015851391 0.001517517 0.0026805238 -0.008682585
0003b0 10 b0 4d 3c 72 45 1b 3d 72 44 09 3d 23 ee a8 bb
       0.012554184 0.037908025 0.03351254 -0.0051553412
0003c0 1d 42 f7 3b be c1 90 3b 81 19 86 3b 09 f6 80 3c
       0.007545723 0.004417627 0.004092396 0.015742319
0003d0 5c 1f 81 bc f2 bb 02 3d bd 53 34 bc fa ee d1 3c
       -0.015762024 0.03191752 -0.011006293 0.025626648
0003e0 bc 24 7c 39 92 22 ca bc 58 89 eb bb 2d 05 ce bc
       0.00024046277 -0.024674688 -0.0071880035 -0.025148952
0003f0 c2 c3 a8 bc ce f9 69 3c fe ca 94 3c 89 29 1b 3c
       -0.020601157 0.0142807495 0.0181632 0.009470352

fc1.bias f4 [64]
000000 9d 9d cf 33 99 a8 f4 34 8a ed 59 b4 44 3d da 32
       9.667858e-08 4.5571213e-07 -2.0296116e-07 2.54064e-08
000010 41 0b f8 b2 ac 2e 35 b4 57 51 4b 34 8e 0b 9b b4
       -2.8876117e-08 -1.6873918e-07 1.893544e-07 -2.8879407e-07
000020 5b d8 b2 b3 72 de 4b 32 fe aa 42 b3 ba df 67 b4
       -8.328126e-08 1.1866733e-08 -4.532466e-08 -2.1594943e-07
000030 43 e0 da b3 9e 5b 39 35 83 bd 98 b2 ec 3f 1c 35
       -1.0192209e-07 6.905119e-07 -1.7781309e-08 5.820755e-07
000040 8d 8c 74 31 01 68 3d 35 86 84 12 33 7b cc ad b2
       3.5586567e-09 7.055933e-07 3.4113803e-08 -2.0232838e-08
000050 1a fc bd b4 19 35 56 35 5b 6a 00 34 ce cd 56 33
       -3.538742e-07 7.979848e-07 1.1959621e-07 5.0012936e-08
000060 01 cd 89 b3 f3 60 de 33 90 b0 6f b4 ef f8 40 33
       -6.4168496e-08 1.03553155e-07 -2.2322843e-07 4.4929887e-08
000070 2d d3 25 b3 98 a1 8a 32 c4 fe 25 b4 72 f2 50 b4
       -3.860912e-08 1.6138799e-08 -1.5459506e-07 -1.945971e-07
000080 f3 43 6a b5 e1 25 f2 34 76 bc 65 b4 ff 1e 02 b5
       -8.727067e-07 4.5103573e-07 -2.1395849e-07 -4.847388e-07
000090 7e 61 8c 34 d4 15 b4 35 16 d8 91 34 c0 9c 0e b4
       2.6147967e-07 1.3417398e-06 2.7165578e-07 -1.3281806e-07
0000a0 58 72 88 35 13 b8 5d b6 3f 18 b2 33 b0 e3 fc 34
       1.0166068e-06 -3.3038712e-06 8.293181e-08 4.7104322e-07
0000b0 da b9 3e b4 ce f2 cd b5 78 59 f9 b3 7d 0a 85 33
       -1.7762741e-07 -1.5344356e-06 -1.161124e-07 6.195203e-08
0000c0 6f c2 3d b4 bc b5 63 34 29 3d 0c 33 0f a1 60 34
       -1.7672731e-07 2.1207137e-07 3.2651915e-08 2.0920218e-07
0000d0 b5 f6 8e 34 0f a1 fb 32 1a 00 d0 33 0f 54 a5 31
       2.6629064e-07 2.9293487e-08 9.685773e-08 4.8116884e-09
0000e0 ed c7 0c 35 5e 26 82 b3 8b d7 5d b5 c2 80 81 b2
       5.2444994e-07 -6.060576e-08 -8.264257e-07 -1.5076129e-08
0000f0 82 1d 98 34 c0 cf 9d b3 b8 7b fa b1 2f ad 94 b4
       2.8333676e-07 -7.348672e-08 -7.290023e-09 -2.7693156e-07

fc2.weight f4 [64, 64]
000000 ea 6b 14 b9 75 09 c9 b7 e8 9a bb 38 55 33 83 3b
       -0.00014154581 -2.3965471e-05 8.9457084e-05 0.004003922
000010 80 aa 79 38 0a 05 ce b8 73 c8 22 b7 93 93 78 38
       5.9525017e-05 -9.823784e-05 -9.702623e-06 5.9265247e-05
000020 b5 c8 5f 38 f9 78 64 38 11 84 bf 37 ce 68 b9 37
       5.3354266e-05 5.44721e-05 2.2830473e-05 2.2102522e-05
000030 b7 01 8f 38 9b 1b 1b b7 03 22 5e 3a 11 aa 3f b9
       6.819091e-05 -9.245147e-06 0.0008473696 -0.00018278534
000040 c8 4c 0d 3b 08 dc b0 b8 17 66 b8 38 0f 30 f6 3a
       0.0021560658 -8.433318e-05 8.7928194e-05 0.0018782633
000050 c7 b8 c5 38 2e 0a 20 38 c0 34 b1 b8 b7 18 f8 3a
       9.4281095e-05 3.8156453e-05 -8.449843e-05 0.0018928264
000060 2d 7d e6 37 73 1a de b7 dd 20 36 b9 1a a8 9f 3a
       2.7476426e-05 -2.6476779e-05 -0.00017369115 0.0012180835
000070 04 8b 10 3b c2 0b 1e 3b 9e b2 41 b9 1d 50 50 b9
       0.0022055516 0.0024115895 -0.00018472454 -0.0001986627
000080 1c 84 62 b7 73 d3 fe b8 50 8a 7d 3a c7 12 84 38
       -1.3501409e-05 -0.00012151049 0.0009671794 6.297748e-05
000090 8e 0d 42 38 0c 3e 02 39 a3 ad 0c b9 df 05 22 38
       4.6265828e-05 0.0001242088 -0.00013416125 3.8629278e-05
0000a0 c6 c3 79 38 80 ae f5 b8 c9 ef c3 38 11 42 ac 3a
       5.9548554e-05 -0.000117150135 9.342988e-05 0.0013142248
0000b0 0e e7 c5 b8 cf 36 f0 b9 1a 3f e9 b8 8d ce 06 38
       -9.436729e-05 -0.00045817203 -0.000111220594 3.2140455e-05
0000c0 04 35 5f 38 eb bb 38 38 2b 86 c0 35 93 19 db 37
       5.3216718e-05 4.404403e-05 1.4344163e-06 2.6118743e-05
0000d0 41 5a 08 b9 f2 e6 71 38 8a d3 3c 3a b4 27 f3 3a
       -0.00013003593 5.7673962e-05 0.00072031526 0.0018551261
0000e0 f7 e8 1e 38 e3 33 b6 b8 09 d2 40 b9 46 9b 0f 37
       3.78871e-05 -8.688101e-05 -0.00018388791 8.559617e-06
0000f0 06 57 82 38 f5 82 58 39 3f e0 50 3b f5 a8 0a 38
       6.2150924e-05 0.0002064815 0.0031871942 3.3059117e-05
000100 0b 55 a4 b9 61 e3 7d b7 ea 95 6a 39 ab 8f a5 3b
       -0.0003134388 -1.5132916e-05 0.00022371826 0.005052527
000110 c9 3e 92 38 b6 37 02 b9 e0 d2 bc 36 c3 de ab 38
       6.973517e-05 -0.0001241852 5.6273857e-06 8.195408e-05
000120 ea 23 e0 38 ef 50 d2 38 e9 38 27 38 a3 ef 65 38
       0.00010687842 0.000100286554 3.9868904e-05 5.4821034e-05
000130 ce 9b f2 38 97 33 66 37 be 22 e9 39 93 8b 71 b9
       0.0001156848 1.372108e-05 0.00044467108 -0.00023035546
000140 79 aa 17 3b c2 45 80 b9 70 ce cf 38 4e ef fb 3a
       0.002314238 -0.00024466036 9.908981e-05 0.0019221099
000150 a9 68 27 39 29 01 bf 38 c3 82 a2 b8 9b ea f1 3a
       0.0001596535 9.107806e-05 -7.749118e-05 0.0018456759
000160 9f 6a 72 38 9b a1 68 38 14 d4 b7 b9 a5 28 62 3a
       5.7796595e-05 5.5463617e-05 -0.0003506249 0.00086272723
000170 c5 c6 79 3b 84 30 57 3b d2 51 a6 b9 34 3b be b9
       0.003811286 0.0032835314 -0.00031722948 -0.00036283734
000180 80 f8 d6 b8 ed 8f 7b b9 8f 14 4e 3a 3a a9 45 38
       -0.00010250602 -0.00023990842 0.000786134 4.7126065e-05
000190 fa 06 94 38 e1 bb fb 38 e3 fd 9a b9 8c 42 3b 39
       7.0584894e-05 0.00012003608 -0.0002956233 0.000178585
0001a0 af e5 ff 38 0d cb 3b b9 b7 e7 df 38 ef 51 f7 3a
       0.000122021294 -0.00017909352 0.00010676629 0.0018869023
0001b0 a1 4f 3a b9 a0 a3 69 ba 76 e9 43 b9 45 8b 4b 37
       -0.00017768006 -0.00089126267 -0.0001868362 1.2132169e-05
0001c0 37 9b 20 39 d2 d1 37 36 c2 c4 04 38 c7 1d 88 38
       0.00015316611 2.7391256e-06 3.1654497e-05 6.490532e-05
0001d0 b0 db 48 b9 62 97 d4 38 c4 c5 b1 3a 9d 4f a0 3a
       -0.00019155326 0.00010137145 0.0013562967 0.0012230758
0001e0 b9 f2 d8 37 1c 0e 41 b9 b1 00 02 ba 50 18 6c 38
       2.5862233e-05 -0.0001841117 -0.00049592095 5.6289427e-05
0001f0 e4 f5 fe 37 5b 3e 65 37 6b 75 ba 3b 43 64 ca 37
       3.0393661e-05 1.3663982e-05 0.005690267 2.4126964e-05
000200 1e 01 aa b9 a0 ca 47 39 c0 bc 8d 39 1b e1 01 3c
       -0.0003242576 0.00019053603 0.00027034245 0.0079272045
000210 0c 55 bc 38 6c ec 0c b9 ca eb 5b b8 8b 62 7a 38
       8.98038e-05 -0.00013439514 -5.2433264e-05 5.969642e-05
000220 70 30 a3 38 e8 92 a2 38 05 b7 d5 38 d3 fa 52 b8
       7.781468e-05 7.7521254e-05 0.000101907215 -5.03015e-05
000230 f6 73 26 39 dc 16 05 38 61 87 3b 39 23 e2 9a b9
       0.00015874192 3.173096e-05 0.00017884142 -0.00029541654
000240 b7 c4 08 3b 12 ac 8b b9 53 ef 31 39 91 9b d7 3a
       0.0020869204 -0.00026640348 0.0001696919 0.0016449561
000250 48 f9 20 39 ba 56 9d b7 63 03 8d b8 b1 86 3e 3b
       0.00015351654 -1.8756244e-05 -6.724035e-05 0.0029071982
000260 52 0b 40 39 5d 22 0f 39 7b 52 ee b9 61 8e d1 39
       0.00018314764 0.00013650344 -0.0004545635 0.00039969667
000270 28 3f 73 3b d5 f4 1d 3b b4 62 d6 b9 3b df d5 b9
       0.0037116501 0.002410223 -0.000408908 -0.00040792846
000280 23 3f 51 b7 ce 52 8a b9 43 0c 85 3a 71 bf ff 38
       -1.2472071e-05 -0.00026383105 0.0010150749 0.00012195006
000290 65 48 0a 39 0c ac 68 39 21 b2 bb b9 59 21 b2 38
       0.00013187675 0.00022189337 -0.00035800136 8.493913e-05
0002a0 71 8c d2 38 4a 3c 6a b9 9b fd 8f 39 c9 17 05 3b
       0.000100397396 -0.00022338438 0.00027464036 0.0020308367
0002b0 93 d6 2f b9 da c6 ec ba 48 18 55 b9 9d ae a0 38
       -0.00016769236 -0.0018064633 -0.00020322308 7.661919e-05
0002c0 a4 43 57 b7 91 e5 44 38 ea 09 8f 38 29 1e 50 38
       -1.2830747e-05 4.6943842e-05 6.820618e-05 4.9619153e-05
0002d0 58 92 c1 b9 d6 51 4c 38 23 af 0c 3b fb 4c 31 3b
       -0.00036920863 4.8713606e-05 0.0021466694 0.002705394
0002e0 4e 5f 19 b8 c6 e6 20 b9 b8 7b e3 b9 78 ce f8 38
       -3.6566802e-05 -0.00015344759 -0.00043388992 0.00011864019
0002f0 b0 66 24 39 ff 82 df b9 a4 ca 0e 3b 72 c7 57 b8
       0.00015678513 -0.00042631474 0.0021788264 -5.1445742e-05
000300 4d e7 f6 bc 2e 74 cc 3c c0 8a f0 3c e5 c9 5b ba
       -0.03013959 0.024957743 0.029363036 -0.00083842716
000310 42 63 f6 3c 74 0f da bc 16 e4 cb 3c 10 89 03 3d
       0.030076627 -0.026618697 0.024889033 0.032113135
000320 44 a8 02 3d 13 0a c0 3c 54 24 f6 3c 05 0d fd 3c
       0.03189875 0.023442304 0.03004662 0.030889997
000330 99 ce d1 3c 31 3f ec 3c 5b 95 56 ba 9f 56 00 bd
       0.025611209 0.028838726 -0.0008185708 -0.03133261
000340 79 03 04 3a 69 f4 d7 bc a1 3a e0 3c eb ac 55 3b
       0.0005035918 -0.026361661 0.027371706 0.0032604288
000350 41 fd db 3c 28 f2 00 3d d5 e8 d3 bc ea eb f5 39
       0.02685416 0.03148094 -0.025867859 0.0004690581
000360 38 0f e6 3c 08 83 d7 3c 07 3a f7 bc 7f 00 ba 3a
       0.028083429 0.026307598 -0.030179037 0.0014190822
000370 d2 32 63 3a 41 cc 60 37 85 72 d4 bc c9 09 db bc
       0.00086669356 1.3398997e-05 -0.025933513 -0.026738064
000380 4e 6f d8 bc a1 0b f6 bc 96 d7 c1 3a fe 4b e3 3c
       -0.026420262 -0.030034842 0.0014788981 0.027746197
000390 c7 9b f5 3c d2 6c e8 3c fc 89 a4 bc 2b eb fa 3c
       0.029981507 0.028372202 -0.020085327 0.030629715
0003a0 ba 28 c4 3c f0 ad 0a bd eb 96 e4 3c 34 55 e1 3a
       0.023945201 -0.033857286 0.027903995 0.001719153
0003b0 b9 87 fa bc 5d b0 15 bb 2d fc e4 bc e3 1d c6 3c
       -0.030582296 -0.0022840716 -0.027952278 0.024184173
0003c0 18 81 cd 3c 3a 7b ea 3c f5 2c ba 3c 46 50 e9 3c
       0.02508597 0.028623212 0.022726515 0.02848066
0003d0 bf 13 de bc 75 f5 ea 3c 85 58 37 3a 3b 28 80 b8
       -0.027109025 0.028681496 0.00069940864 -6.111009e-05
0003e0 67 65 f4 3c 4e 94 f3 bc 13 7f d6 bc b8 82 c2 3c
       0.029833509 -0.029733803 -0.02618364 0.023743972
0003f0 19 39 d4 3c 75 7a a1 39 91 b7 fd 36 87 1b f6 3c
       0.025906133 0.0003079955 7.5613575e-06 0.030042423

fc2.bias f4 [64]
000000 a3 aa 7d b1 14 b4 b8 b1 17 15 ed b1 33 fd 7f b4
       -3.6913341e-09 -5.3755773e-09 -6.9000055e-09 -2.3840839e-07
000010 c3 0d 99 b1 5c 43 32 31 0f e4 2b b0 35 05 4c b1
       -4.4544506e-09 2.5940698e-09 -6.253353e-10 -2.9688867e-09
000020 fa 46 fd 2f 4d 5f dd b1 7b bf a9 b1 d8 b6 0c 32
       4.6070864e-10 -6.442781e-09 -4.940316e-09 8.190646e-09
000030 ab a2 65 b1 8a b5 0d b1 98 e8 88 b5 a3 6b 74 b0
       -3.3416352e-09 -2.0621393e-09 -1.0200483e-06 -8.8919644e-10
000040 9b 1d b8 b4 7b 4d 88 b1 94 b9 b0 b0 45 0c d0 35
       -3.4294212e-07 -3.9669295e-09 -1.285843e-09 1.5500779e-06
000050 41 d6 3f b1 b0 f1 bd b1 2e 33 9d b1 49 ec 49 36
       -2.7915947e-09 -5.5281006e-09 -4.57512e-09 3.008887e-06
000060 6b 39 a1 b1 8d 82 15 b2 43 3f 71 b1 7e c0 1b 35
       -4.6922444e-09 -8.702625e-09 -3.5106076e-09 5.802211e-07
000070 5b e7 5b 35 40 bc 58 b5 0d 98 36 b1 bc 7d 2d b1
       8.1920524e-07 -8.074021e-07 -2.6570917e-09 -2.5246285e-09
000080 c6 68 1a af cb 47 bc b1 d5 65 ea 35 15 7b 30 31
       -1.4043441e-10 -5.479682e-09 1.7463996e-06 2.5681335e-09
000090 9c e8 d2 b0 39 91 3f b2 2a 0c 8a b2 be fd a5 2f
       -1.5345623e-09 -1.1150683e-08 -1.6070846e-08 3.019362e-10
0000a0 bd ad cb 2f 0b 21 9f 30 56 79 4e 31 cf 5a 9b 35
       3.7048933e-10 1.1578164e-09 3.0045917e-09 1.1574829e-06
0000b0 65 3a 93 b1 55 1a ba b5 d6 f6 a3 b0 f9 c0 45 32
       -4.2849018e-09 -1.3865744e-06 -1.1929966e-09 1.1510786e-08
0000c0 ca da 01 af 6b b9 56 b1 d4 eb 0d b2 56 da cd 31
       -1.1810211e-10 -3.1246497e-09 -8.260901e-09 5.991107e-09
0000d0 c5 48 e7 b1 b3 97 9e 31 a2 9a 6b 36 19 9e 83 36
       -6.7312578e-09 4.6156514e-09 3.5107737e-06 3.922509e-06
0000e0 74 88 b2 b1 ef 1b e8 b0 29 00 a7 31 98 fa 2a b1
       -5.1959947e-09 -1.6888161e-09 4.860358e-09 -2.4880702e-09
0000f0 3a 37 62 b2 61 3e d3 35 45 7e 0b 36 98 45 18 b1
       -1.3167488e-08 1.573888e-06 2.0786113e-06 -2.215847e-09

out.weight f4 [1, 64]
000000 14 8f 29 bc 96 ad 8e bc 4f 33 9f bc ea 18 1c bf
       -0.010349054 -0.017416757 -0.019433646 -0.60975516
000010 f9 86 28 bc e0 4d 42 3c 76 b4 84 3c 1d a0 3a bc
       -0.010286086 0.011859387 0.016199332 -0.011390713
000020 13 d2 82 bc 26 15 33 bc a0 b0 88 bc 1a 44 85 bc
       -0.015969312 -0.010930335 -0.016685784 -0.016267825
000030 80 39 a8 bc 7b 58 a0 bc 3b d5 19 bf d8 d0 4a bc
       -0.02053523 -0.01957344 -0.6009099 -0.012378894
000040 f8 44 1b bf b4 02 37 bc 6b 26 82 bc eb 64 ff 3e
       -0.6065211 -0.011170078 -0.01588746 0.49881682
000050 f4 dd 6b bc 7d c1 73 bc 4a 6a 58 bc 23 19 1c bf
       -0.0143961795 -0.014877674 -0.013208935 -0.60975856
000060 52 fe 8a bc f1 cc b4 bc bf c6 39 bc d8 28 05 3f
       -0.016966973 -0.02207038 -0.011338889 0.5201545
000070 91 5b fb 3e ec 0f 1e bf 46 52 07 bc e6 d6 1a bc
       0.49093297 -0.61743045 -0.008259362 -0.00945065
000080 0e 6b 2f bc 4f 41 69 bc ef fe 01 3f 42 8c 7c bc
       -0.010706676 -0.014236762 0.5077962 -0.015414299
000090 c8 8d 5c bc 6f 4c aa bc 36 62 3b bc 51 a1 75 bc
       -0.013461538 -0.0207884 -0.0114369895 -0.014992074
0000a0 b4 ce 89 bc 2e 67 3a 3c 0f 69 74 3c ac 8e fe 3e
       -0.016822197 0.011377139 0.014917626 0.49718225
0000b0 a6 1c 62 bc f4 b2 dc 3e 59 22 40 bc b9 a9 7b bc
       -0.013800776 0.4310528 -0.011726939 -0.015360289
0000c0 6c fc 88 bc 89 cd 61 bc d9 86 a9 bc 18 b1 6b 3c
       -0.016721927 -0.013781914 -0.020694183 0.014385484
0000d0 b6 c5 69 bc 3a 8a 56 3c 97 06 f7 3e 76 3e 1c bf
       -0.014268329 0.013094479 0.48247215 -0.6103281
0000e0 fb f7 89 bc 31 3a 55 bc 99 11 4d 3c 7c 07 9f bc
       -0.01684188 -0.013014362 0.012516403 -0.019412749
0000f0 44 d7 8b bc cb 64 02 3f 24 36 1c bf d6 24 76 bc
       -0.01707042 0.5093505 -0.6102011 -0.015023431

sep_conn.weight f4 [64, 45]
000000 f6 a5 03 be 8b 46 a0 bc 84 3a 1f bd f5 9a 91 ba
       -0.12856278 -0.019564888 -0.038874164 -0.0011108803
000010 a4 d6 f6 3d 38 54 e0 bd 8b 42 ef 3d 93 e8 f1 bd
       0.12052658 -0.109535635 0.11682614 -0.11811938
000020 78 a1 c9 bd 8f 85 1e 3d 72 42 91 bd 39 3a 41 3d
       -0.09845251 0.03870159 -0.070927516 0.047174666
000030 d0 02 40 3d 1e 51 24 bd 86 3d 85 3d ab f7 eb 3d
       0.046877682 -0.040116422 0.06505875 0.11521848
000040 db 4a 33 3d ec 9f 10 bd 8c 17 be bc 73 fc 15 be
       0.04377256 -0.035308763 -0.023204587 -0.14647083
000050 6e 32 0a 3e 00 30 0a be 8b 39 1d bd 08 d3 ad bd
       0.134958 -0.13494873 -0.038384955 -0.08487517
000060 bb 82 39 3d 93 c7 58 3d b8 ce 09 3e 47 4e 6d bd
       0.04529069 0.052924704 0.13457763 -0.05793598
000070 b4 e9 a5 bd f1 a4 7a 3c 48 d9 fd bc ec bf dc bc
       -0.08101216 0.015298114 -0.030987397 -0.026946984
000080 c3 a3 71 bd 1c 71 ef bc fd 84 ac 3c 50 8a 4d bd
       -0.058994066 -0.02922874 0.021059508 -0.050180733
000090 dd 38 c2 bd 39 fd ed 3d ef 4a 12 bc 7a 7d c3 3c
       -0.09483502 0.11620564 -0.008928998 0.023863543
0000a0 8d 23 87 bd dc b6 d2 3d 08 bf aa bc 69 9b a5 bd
       -0.06598578 0.10288784 -0.020843044 -0.08086283
0000b0 58 5e a8 bd 22 09 c7 bb 5b 0d bd 3d a6 8e 04 3e
       -0.0822112 -0.0060740868 0.09231063 0.12945041
0000c0 e3 ee df bd bf c3 63 bd 90 22 68 3d bc 44 ea 3d
       -0.10934236 -0.0556066 0.056673586 0.11438891
0000d0 09 b4 8a bd 6f b2 0c 3c 93 e2 91 3d 1b 74 83 bd
       -0.0677262 0.008587464 0.07123294 -0.0641863
0000e0 29 b3 91 bd b7 a1 ea 3d c1 92 08 3e e7 a5 5d bd
       -0.0711425 0.11456626 0.13337232 -0.054113295
0000f0 2c 3e 41 3b be a2 57 bd c6 c8 a3 bc ad 84 fa 3d
       0.002948652 -0.052645437 -0.019993197 0.12232337
000100 b4 df 0f 3e be 41 e5 3d e8 56 10 3e 92 2e 80 3d
       0.1405018 0.1119418 0.14095652 0.062588826
000110 ee 5e ca bd dd 15 44 3c 2c 9c d0 3d 69 dc fe bd
       -0.09881388 0.011968103 0.101860374 -0.12444384
000120 94 51 01 be cb c3 e7 3c ba 18 9d bc 58 8e 72 3d
       -0.12628776 0.028291604 -0.01917683 0.05921778
000130 69 a1 e6 3d 7b 73 53 bd 89 9c 10 3e f6 d7 8f bd
       0.11261255 -0.051623803 0.14122213 -0.07023613
000140 97 aa 77 3c 1b 29 84 bd 0d 63 00 be a9 54 12 bd
       0.015116355 -0.06453153 -0.12537785 -0.03572527
000150 9f 93 06 be 99 cd b7 bd 98 bd 8f bd 5f c0 c3 bb
       -0.1314225 -0.089747615 -0.07018584 -0.00597386
000160 ee a8 25 bd 29 1f c9 3d 7b 3e 04 be 6e 0a 7f bd
       -0.040444307 0.098203965 -0.1291446 -0.062265806
000170 91 66 fc bd 6b 7a 1e bd a6 04 32 bd 16 d5 d8 bd
       -0.123242505 -0.038690966 -0.043461464 -0.10587518
000180 62 3b 01 3e 9a c5 f8 bb 32 44 7a bd 2a 0e 17 be
       0.12620309 -0.0075919153 -0.061100192 -0.14751497
000190 02 6d ef 3b 84 f9 bb bd b6 72 cc 3d 5d dc f8 bd
       0.007306696 -0.09178451 0.09982817 -0.12151406
0001a0 02 d1 89 bd c5 30 f0 3d 60 d8 87 bb f3 10 e4 3d
       -0.06729318 0.11728052 -0.004145667 0.11136045
0001b0 cd a1 10 be 53 aa 19 bd 3a a0 b4 bd 72 d8 43 3d
       -0.14124222 -0.03751595 -0.08819623 0.04781384
0001c0 f6 dd fa 3b 87 fe bb bd 97 29 0f be 2f a9 8c 3d
       0.0076558543 -0.091794066 -0.13980709 0.06868207
0001d0 62 45 89 bd 6f 51 a9 bd e0 fe c0 3d ac 43 c3 3d
       -0.06702687 -0.08267485 0.094236135 0.09534392
0001e0 39 ea 0d be 0d a3 96 bd 19 bb 11 be 95 38 0a bc
       -0.1385888 -0.07355318 -0.14231528 -0.008436342
0001f0 0f 30 ea bd 22 0d dc 3d 0f 71 87 3d e0 20 d2 3d
       -0.11434948 0.107446924 0.06613361 0.10260177
000200 5b 11 b0 bc 37 ea 21 bc 69 40 c2 3d 19 d3 f1 3d
       -0.02149265 -0.009882501 0.094849415 0.11807842
000210 30 af 01 3e 3e 1d 30 3d 89 5f fd 3d 05 37 90 bd
       0.12664485 0.042996638 0.123717375 -0.07041744
000220 b2 dd d5 3d cf a5 90 bc 62 3c a8 bc 6c e0 95 3d
       0.10442676 -0.017657189 -0.020536605 0.07318196
000230 3a 1e cc 3a a7 b7 f1 3d 2e 98 92 3d dc b3 f7 bd
       0.0015572973 0.11802607 0.07157932 -0.12094852
000240 ea d7 be bd 4f 14 11 3d 44 f2 5d bd bf c0 16 ba
       -0.09318526 0.03541976 -0.05418612 -0.00057507673
000250 2e f1 79 3d 31 5f e5 3d 56 c7 df 3d 52 e8 e6 bc
       0.061021022 0.11199797 0.10926692 -0.02818695
000260 fa 50 d2 bc f2 e3 3e bd 09 ef 68 3d 09 40 1c bd
       -0.025673378 -0.046604104 0.056868587 -0.038147006
000270 f3 cd 14 3e ee 4b 8d bd 38 a7 e3 3d 11 57 a8 3c
       0.14531688 -0.06899248 0.11115879 0.020549329
000280 b1 2a c7 bd 00 de 39 bd 19 fa c3 3d 42 60 66 bd
       -0.097249396 -0.04537773 0.09569187 -0.056244142
000290 84 e8 ea bc f6 0d 53 3c 5b c4 0e 3e 93 f1 06 bd
       -0.028675325 0.0128817465 0.13942091 -0.032945227
0002a0 e9 f6 e6 bd 03 3b 11 3e 28 52 9d 3c 66 31 98 bb
       -0.11277563 0.14182667 0.019204214 -0.0046445606
0002b0 54 86 d3 bd 19 c6 f3 bd 8b 2c 64 3d f3 6c ab bd
       -0.103283554 -0.119030185 0.055706542 -0.0837039
0002c0 95 c4 11 3e fb f5 a0 3d 1e ff 06 3e d4 a3 98 3d
       0.14235146 0.07859417 0.13183257 0.07453123
0002d0 24 6d 02 3e 7c f5 24 3b 70 87 71 3d b1 06 cb bd
       0.12736946 0.0025170734 0.058967054 -0.09913386
0002e0 1e 3a c0 bc c8 d1 79 3c c4 c0 ab 3d d5 8f 4f bb
       -0.023465212 0.01524777 0.083863765 -0.0031671424
0002f0 5e 6a f5 bd b2 97 18 be 2d 21 7d 3d ea 95 c7 bd
       -0.119831786 -0.14901617 0.061799217 -0.09745391
000300 60 2a f0 bd 1c bc 16 be 73 9e 04 be 45 5c 6b bc
       -0.117268324 -0.14720196 -0.12951069 -0.0143652605
000310 30 8c d3 bc cf 23 d7 3d ad db 16 be 45 60 bf bd
       -0.025823683 0.10504877 -0.14732237 -0.09344534
000320 93 43 b5 bd 8a 97 0d 3e 58 39 6e bd 95 fd 80 3c
       -0.088507794 0.13827339 -0.058160156 0.015745917
000330 f1 38 3e 3d d9 cc 07 3e 59 4d 98 3d ce 7e 09 be
       0.046441022 0.13261737 0.07436628 -0.13427278
000340 8a a1 da bd 64 1b 4a bd dd 8f 41 bc bb 51 bd 3d
       -0.106753424 -0.049342528 -0.011814085 0.092441045
000350 50 27 cd 3c 51 a3 5f bd 93 ac 11 be a1 8d 94 bc
       0.02504316 -0.05459911 -0.14225988 -0.01813394
000360 9f 64 9d bd 43 75 d4 bc 5f 82 c6 ba 2d 96 06 bd
       -0.076852076 -0.025934821 -0.0015145055 -0.032858063
000370 6f d7 c9 bc 67 37 62 bd 27 92 e2 bd b0 e6 13 3d
       -0.02463886 -0.055228617 -0.110630326 0.036108673
000380 df fd 74 bd d1 a4 93 bd e7 f3 02 3e 6e b6 bd 3c
       -0.059812423 -0.072091706 0.12788354 0.023158278
000390 1f c7 f3 3d 78 ea 13 3c 70 74 5c 3d 52 1f 07 bd
       0.11903214 0.00902807 0.05382198 -0.032988854
0003a0 af 26 84 3d dd 92 c6 bd 5c cc 60 bd a0 c3 b5 3d
       0.06452691 -0.09695981 -0.054882392 0.08875203
0003b0 13 9c 43 3c 27 0c 17 be a9 65 80 3d 7e 10 cb bd
       0.011939066 -0.1475073 0.0626939 -0.09915255
0003c0 90 7c 2f 3d 98 bb 4e bd 98 01 b7 bd be de db bd
       0.0428434 -0.050471872 -0.08935851 -0.10735844
0003d0 79 f6 80 bd a0 03 32 bd d9 58 65 3d 99 01 f5 bd
       -0.06297011 -0.04346049 0.055992935 -0.11963195
0003e0 a8 59 5f bd af 80 d3 bd e4 cf 00 be 55 ab b2 3c
       -0.054528862 -0.10327279 -0.12579304 0.021810213
0003f0 f0 35 bc bd 44 fb 3a bd b1 ae e3 3c 4a 6b 1b 3d
       -0.09189975 -0.04564978 0.02779326 0.037944116

sep_conn.bias f4 [64]
000000 de e0 06 be 52 ce 62 3d b1 ac b2 bd 74 78 09 be
       -0.13171718 0.055372544 -0.087243445 -0.13424855
000010 6f 45 bd 3d 56 76 14 be 6a 90 b8 3c ce a6 7f bd
       0.09241759 -0.14498267 0.0225298 -0.062414937
000020 f5 94 b5 3d 2c 8a c2 3d ee e1 be 3d b4 99 04 be
       0.08866302 0.094990104 0.093204364 -0.12949258
000030 2b 9a ca bd 52 46 c3 3d 3e cc aa bd a8 45 a8 3d
       -0.098926865 0.09534897 -0.08339737 0.08216411
000040 96 9e 12 3e 0a b1 0e bd 4e 38 11 3e 0e 0f 68 bd
       0.14318308 -0.034836806 0.14181635 -0.056654982
000050 93 7b e6 3b 63 66 bd 3d 5b 8d 04 3e 72 24 aa 3c
       0.007033774 0.09248044 0.12944548 0.020769332
000060 ac 10 8a bc aa a2 12 3c aa d1 7f 3b d9 40 07 be
       -0.016853653 0.008949915 0.0039034882 -0.13208331
000070 bb c6 54 3d 56 0a e7 3d 86 9f d5 3d 68 a1 88 bd
       0.051947337 0.11281268 0.10430817 -0.06671411
000080 8b 9c ef 3d 6c 5b c7 3b 2e 3e 1d 3d d3 97 9b 3d
       0.1169978 0.0060838964 0.038389377 0.075973175
000090 b6 51 ac bc 80 d0 6c 3d 49 78 6f 3d 94 5c 1f bd
       -0.021035057 0.05781603 0.058464322 -0.03890665
0000a0 13 55 05 be f5 64 82 3d a3 7d 10 3e 3a 5e fa 3d
       -0.13020734 0.06366912 0.14110427 0.122250035
0000b0 a2 f5 85 bd 3f d7 c4 bd 62 2a 14 be 42 89 f8 bd
       -0.06540991 -0.096113674 -0.14469293 -0.12135555
0000c0 6d 53 93 bc cf 2f aa 3d fa ea 90 bd 64 a9 5f bd
       -0.017984116 0.083099 -0.07076068 -0.054604903
0000d0 31 a6 e6 bd 3c b6 16 bd 99 4a be 3d 34 d4 04 be
       -0.11262167 -0.036794886 0.09291572 -0.12971574
0000e0 50 f7 a9 bc a3 87 13 be 9d 00 89 3c 2d 81 17 be
       -0.02074781 -0.1440721 0.016723925 -0.1479537
0000f0 89 4b 14 bd 4d 95 ce 3d a2 28 c7 bd 3e 86 9a bc
       -0.03620485 0.100870706 -0.09724547 -0.01886284

bn.weight f4 [64]
000000 65 94 aa 3d 85 c2 b4 3d 24 87 be 3d fa be da 3e
       0.08329085 0.08826164 0.0930312 0.4272383
000010 10 f1 a2 3d cf 59 af 3d 0b 49 a9 3d 4e e8 b2 3d
       0.07956135 0.085620515 0.08265885 0.08735715
000020 52 72 b4 3d ba 19 ad 3d 05 04 b2 3d 97 fd ac 3d
       0.08810867 0.084521726 0.08692173 0.08446806
000030 8e a6 af 3d 65 79 bb 3d 34 99 d6 3e 41 36 b7 3d
       0.0857669 0.091540135 0.4191376 0.08945895
000040 9a 67 da 3e 14 61 a7 3d b7 4c b7 3d 34 c4 f8 3e
       0.42657167 0.08172813 0.08950179 0.4858719
000050 cf af a7 3d 2a ae a8 3d a3 d2 b0 3d fe 47 dc 3e
       0.0818783 0.08236344 0.08633926 0.43023676
000060 1e 19 a8 3d c4 9e b3 3d 3e e1 ab 3d cd 63 01 3f
       0.08207916 0.087705165 0.08392571 0.5054291
000070 0c e2 f2 3e e0 7b db 3e 91 0a 9a 3d 95 28 a8 3d
       0.47438085 0.42867947 0.07521547 0.082108654
000080 ea a6 b7 3d 0a 31 b5 3d bf 7b fc 3e 5d 03 af 3d
       0.08967383 0.08847244 0.4931316 0.08545563
000090 c4 fd b3 3d fd 69 b9 3d 3b 1a 9f 3d f8 46 af 3d
       0.08788636 0.09053419 0.07768675 0.08558458
0000a0 70 c5 ac 3d e5 6a aa 3d d8 06 b1 3d f1 ac f6 3e
       0.08436096 0.0832117 0.086438835 0.4817882
0000b0 7c ae b8 3d ae 8f d2 3e e8 e9 ab 3d fd 7e b9 3d
       0.09017655 0.41125244 0.083942235 0.09057424
0000c0 f8 55 ae 3d 2b ec c2 3d e3 aa ac 3d 1e 3c ba 3d
       0.08512491 0.09517702 0.084310316 0.09093498
0000d0 1d 0f b9 3d f6 ae ac 3d b5 e6 ef 3e ee a1 da 3e
       0.09036086 0.08431809 0.46855703 0.42701668
0000e0 be ba bc 3d 07 39 b6 3d c7 7c af 3d 0a e6 b5 3d
       0.09215306 0.08897596 0.08568721 0.08881767
0000f0 b8 d5 c4 3d e8 52 fd 3e 7f fd d9 3e ab cb c5 3d
       0.09611076 0.49477315 0.42576215 0.09657987

bn.bias f4 [64]
000000 03 3b b4 bd 54 8f 7f bd a5 16 84 bd 2d 84 d6 3e
       -0.08800318 -0.062392548 -0.064496316 0.41897717
000010 7b d3 9f bd 23 f0 bc bd c6 83 84 bd 62 07 b5 bd
       -0.078040086 -0.0922549 -0.06470446 -0.08839299
000020 f8 30 9e bd ac b6 a2 bd c8 7b 88 bd f7 fe 95 bd
       -0.07724184 -0.07944998 -0.066642344 -0.07324021
000030 bf 02 7b bd 62 a3 92 bd c8 15 d4 3e f0 2f c7 bd
       -0.061281916 -0.07160069 0.41422868 -0.0972594
000040 19 f4 d2 3e c4 e5 92 bd 06 b6 a1 bd 7c b2 38 3d
       0.41201857 -0.071727306 -0.07896046 0.04509209
000050 46 00 86 bd 4b 5b 7f bd 14 3a b3 bd df a8 d5 3e
       -0.06543021 -0.062342923 -0.08751312 0.417304
000060 96 59 83 bd 30 ed 56 bd 90 20 af bd fb c8 5f 3d
       -0.064135715 -0.052472293 -0.08551133 0.05463503
000070 67 73 49 3d 54 9c d9 3e 5b c9 b1 bd aa 15 ae bd
       0.049182322 0.4250208 -0.08680984 -0.08500226
000080 10 4a c3 bd 29 e8 aa bd e0 1d 46 3d 82 11 93 bd
       -0.09535611 -0.08345062 0.048368335 -0.07181074
000090 ad f7 a3 bd bd 5b 8f bd 68 cd 9d bd a6 f4 8d bd
       -0.08006225 -0.069999196 -0.07705194 -0.069314286
0000a0 8c 8c 85 bd dd 86 c9 bd 59 b3 87 bd 2e c5 44 3d
       -0.06520948 -0.09840176 -0.06626005 0.048039608
0000b0 a4 79 b7 bd 0a 41 3a 3d 37 25 af bd 1c df a5 bd
       -0.08958748 0.045472182 -0.0855202 -0.08099195
0000c0 c6 e2 82 bd 2e 35 b6 bd a1 18 6c bd 0f b1 a5 bd
       -0.0639091 -0.08896862 -0.057640675 -0.08090412
0000d0 7d 00 b0 bd 0e 91 a8 bd 1a 74 1d 3d 46 7e d4 3e
       -0.08593843 -0.08230792 0.0384408 0.4150259
0000e0 f1 5d 9f bd f1 a9 b4 bd 75 12 bf bd 45 aa 8b bd
       -0.0778159 -0.08821476 -0.09329692 -0.06819586
0000f0 f8 86 a5 bd 36 16 23 3d 61 c6 d2 3e a4 44 bb bd
       -0.08082384 0.039816104 0.41166976 -0.091439515

bn.running_mean f4 [64]
000000 07 e5 e4 3c 0a a9 3b 3c 37 e7 8e 3d 82 c0 25 3c
       0.02794124 0.011453876 0.069776945 0.010116698
000010 ba e8 43 bc c0 e3 ac 3c 0e f9 65 3c e3 7b 1c 3d
       -0.011957342 0.021104693 0.01403643 0.038204085
000020 2a 13 bf bc a5 16 20 ba 5e e8 dd 3c e0 50 5c bc
       -0.023324568 -0.000610689 0.02708834 -0.0134470165
000030 b8 0f 75 bc f6 63 f6 bb 9e 58 a9 3b 0c 81 1d 3d
       -0.014957361 -0.0075192405 0.0051680347 0.038453147
000040 8b c2 18 3b d5 d8 60 3c 8c 86 98 bb 1a 6b 09 3d
       0.0023309316 0.013723572 -0.004654711 0.033549406
000050 eb 58 37 3d ee 6d 7d 3c 09 55 2d bd 64 b4 7c 3c
       0.044762533 0.015468104 -0.042317424 0.015423868
000060 cf c3 e5 bc 74 ff 03 3c 80 c3 1d 3d 99 14 d7 3c
       -0.02804747 0.00805651 0.03851652 0.026254939
000070 89 fa 4c 3c 48 31 ee 3b 15 23 fa 3c bc d7 47 3d
       0.012510904 0.0072690584 0.030534307 0.048789725
000080 98 73 3c 3d 5e 33 da bc fa 8f cd bc 65 3c a4 3c
       0.046008676 -0.026635822 -0.025093067 0.02004833
000090 2f 43 54 bc fe 75 e5 bc c6 3d 12 3d 2a 40 21 3d
       -0.012955471 -0.028010365 0.035703443 0.039367832
0000a0 9d ae 49 bc 39 6b fa bc a8 32 4f bd d6 82 e9 3c
       -0.012309697 -0.030568706 -0.05058542 0.02850477
0000b0 17 72 dd 3c d6 17 e9 bc 73 df ab 3c 5d 6c 76 bd
       0.027031941 -0.028453749 0.020980572 -0.060161937
0000c0 99 43 68 3c 21 23 21 bd 64 0b f6 3c e9 ea 00 bb
       0.014176273 -0.039340142 0.030034728 -0.0019671267
0000d0 7b 5c 8d bb fc 42 26 bd de ac 83 38 79 58 2a 3c
       -0.004314003 -0.040591225 6.278766e-05 0.01039707
0000e0 4f 27 a3 bc e1 a3 00 ba 35 27 86 3d 09 e7 02 3d
       -0.019916205 -0.00049072324 0.06550447 0.031958614
0000f0 7c 38 a5 bc cd bf 02 3d e4 52 e0 3c 74 78 c9 bc
       -0.020168535 0.031921197 0.027383275 -0.02459357

bn.running_var f4 [64]
000000 41 23 78 3a e8 d4 8b 3a 05 7b 7d 3a 5e 4b 1f 3a
       0.00094657025 0.0010668309 0.00096695154 0.0006076599
000010 34 b0 7d 3a 75 33 5b 3a 32 65 71 3a b1 de a0 3a
       0.00096774404 0.00083618547 0.00092084997 0.0012273398
000020 5a 84 6a 3a 08 29 72 3a c6 82 93 3a f5 2f 8e 3a
       0.00089461135 0.00092376815 0.0011254183 0.0010848033
000030 95 22 be 3a f2 6f 51 3a 73 ee 00 3a bc ad 88 3a
       0.0014506156 0.00079893984 0.0004918344 0.0010427753
000040 75 a2 5c 3a ff d7 3a 3a 38 e0 93 3a 7b 05 71 3a
       0.0008416542 0.0007127523 0.0011282032 0.0009194237
000050 b6 52 9a 3a 67 d6 75 3a 3f 8c 93 3a 22 df 24 3a
       0.0011773917 0.0009377957 0.0011257007 0.0006289353
000060 e2 03 86 3a 26 df 92 3a 7e a8 8c 3a 0e 07 5a 3a
       0.0010224546 0.001120542 0.0010731367 0.0008317091
000070 96 27 63 3a 1b 89 41 3a b9 f1 3e 3a 14 74 81 3a
       0.00086652616 0.0007382796 0.0007283944 0.0009876513
000080 57 65 55 3a 57 06 75 3a a4 f4 58 3a cd df 70 3a
       0.0008140406 0.0009346953 0.00082762004 0.00091886224
000090 ba d7 78 3a c9 cf 88 3a 53 e5 52 3a d9 39 81 3a
       0.0009492595 0.0010437901 0.0008045036 0.0009859159
0000a0 15 64 6c 3a 50 35 61 3a e4 e4 68 3a 99 23 5d 3a
       0.0009017599 0.0008591013 0.0008884205 0.00084357854
0000b0 c1 d9 59 3a 84 c4 17 3a 2e 1e 7d 3a 35 d5 94 3a
       0.0008310341 0.0005789476 0.0009655681 0.0011355045
0000c0 ba 10 85 3a e0 c5 b2 3a a9 6d 9c 3a 9f ef 71 3a
       0.001015208 0.0013639294 0.0011934537 0.0009229127
0000d0 b5 58 94 3a 6b 33 69 3a d0 bb 31 3a 7e 78 4d 3a
       0.0011317941 0.00088959065 0.00067800004 0.0007838084
0000e0 25 f8 6d 3a 90 71 57 3a ee 7d 61 3a 19 51 94 3a
       0.0009077809 0.0008218521 0.0008601834 0.0011315673
0000f0 eb c4 9f 3a 3a 7d 5c 3a 7d 00 9f 3a ac de 8e 3a
       0.0012189423 0.0008410994 0.0012130883 0.0010900102

net.0.weight f4 [64, 45]
000000 32 49 30 3b 60 60 8c 3c ba 82 1c 3d 09 5f 80 bc
       0.0026899097 0.017135799 0.038210608 -0.015670316
000010 b7 6c f6 3b 8a fc 3d bc 45 54 0d 3c 6c cb 42 3c
       0.007520284 -0.011595855 0.008626048 0.01188932
000020 be 10 06 bc 90 e6 fa 3c 64 b4 e2 bb 0c 72 17 3d
       -0.008182703 0.030627519 -0.006918477 0.036973998
000030 37 45 01 3c 08 92 20 bd 5c 55 08 3b 8f 2c 8a bc
       0.007890037 -0.039201766 0.0020802831 -0.01686695
000040 e5 e9 c9 b9 49 9e f2 3c 8d 0c 46 3b 91 92 80 3c
       -0.00038511973 0.029616492 0.0030219883 0.015694888
000050 8f ef 1e bc b6 9c aa 3c 85 67 da bc 05 83 d1 3c
       -0.00970067 0.020826679 -0.02666069 0.02557517
000060 46 6d 0f 3c 8f 97 e9 3c 70 2c d2 3c 35 92 5d 3c
       0.00875408 0.028514652 0.025655955 0.013523628
000070 c3 92 d2 bc 60 06 da 3b 68 45 22 bb 3a 9c e1 3c
       -0.025704747 0.006653592 -0.0024760608 0.027540315
000080 8c 30 b3 3b 13 28 05 bc 82 3b 19 3c 4d e7 21 3c
       0.0054684337 -0.00812723 0.009352567 0.009881807
000090 59 f5 08 bc 6b 53 e5 bc b0 72 03 3c 9b 54 1f bd
       -0.008359277 -0.027993878 0.008022949 -0.038899045
0000a0 c4 18 46 ba b1 e5 98 bb 6a 87 b4 bc cc 79 2c 3d
       -0.0007556791 -0.004666053 -0.022037227 0.042108342
0000b0 58 95 74 bc 2d c1 1f 39 1c 48 71 bc 01 80 2a bd
       -0.014928184 0.00015235385 -0.014726665 -0.04162598
0000c0 d1 e3 cd 3c 0e 57 ff 3b 07 25 55 bc 6a 24 21 bb
       0.025133045 0.00779236 -0.013009316 -0.0024588355
0000d0 34 d6 f4 bb b8 da a0 bc 28 5d b5 3c 9d a4 2d bc
       -0.007471824 -0.019635543 0.022139147 -0.010598329
0000e0 5a d7 18 3c 2c 26 52 ba 1d 2e 1c bb 56 46 b3 3c
       0.009328688 -0.00080165523 -0.0023831197 0.021884125
0000f0 27 c8 0f bd 24 15 87 bc 63 15 e0 ba 64 0a 27 bc
       -0.03510299 -0.016489573 -0.0017096217 -0.010195348
000100 94 c9 2e 3c 72 4b da 3c 8f 36 88 3a 61 cc f4 3c
       0.010668177 0.026647303 0.0010392236 0.029882612
000110 e3 85 0d 3b 07 04 40 3b 96 d5 d6 3c b2 0d 22 3d
       0.0021594695 0.0029299275 0.026224893 0.039563842
000120 2d ff 16 bc 0c 20 46 bb 9d 1d 3a 3c 29 76 d0 3b
       -0.009216112 -0.0030231504 0.011359599 0.006361742
000130 77 e0 c0 3c 66 98 5b 3c 41 d8 5f bc ef 09 d2 3b
       0.023544533 0.013403034 -0.013662399 0.0064098756
000140 43 a5 c9 3b 95 19 35 bc af de d2 bc 3c b9 10 3c
       0.006153734 -0.0110534625 -0.02574095 0.008833226
000150 a0 cf 91 3c 2d 10 d3 bc a8 d3 d3 3c 81 59 97 3c
       0.017799199 -0.02576455 0.025857762 0.018475296
000160 5f 18 95 bc b3 9b 63 bd ac c7 1a bd df b2 45 bb
       -0.018200098 -0.05556841 -0.03778808 -0.003016643
000170 91 e7 52 39 9f f4 10 3d d7 a9 67 3c c9 b7 0d bc
       0.00020113426 0.03538954 0.014139614 -0.008649775
000180 54 02 a9 3b ef 97 d6 bb 15 fd c3 bc b0 10 be bc
       0.0051577482 -0.0065488736 -0.02392439 -0.023201317
000190 76 c2 a7 3c 5e 6b be bb d3 d4 77 3c bf db df 3c
       0.020478468 -0.005811139 0.015126425 0.027326463
0001a0 ed 0b ec 39 6a 22 e1 bb 60 49 44 bb 9e 4d 9e 3c
       0.00045022313 -0.0068705576 -0.0029950961 0.01932412
0001b0 ad 93 c2 3c 0d f9 ff bb b2 ef 87 3c 66 19 c4 3c
       0.023752058 -0.0078116716 0.016593788 0.023937892
0001c0 be 8b 61 3d 9d 93 54 3c 57 9a 3f 3a 40 19 00 3c
       0.05506491 0.012974647 0.000730907 0.00781852
0001d0 64 4d 83 bb 7e ac 97 bc 86 09 4c 3d 23 1d fe 3c
       -0.0040070284 -0.018514868 0.04981377 0.031019753
0001e0 0b b8 f3 3a ea 4a 80 bc 42 cd ca 3c 1a ae 08 3d
       0.0018594278 -0.015660722 0.024756078 0.03336916
0001f0 d9 52 33 3d d3 27 f0 bb 85 c4 c5 bb 7e 27 45 3d
       0.04378018 -0.007328966 -0.00603539 0.048133366
000200 f1 bc 6a 3c b2 dd f1 3a 70 8f da bc 60 0e 5f 3b
       0.014327274 0.0018452911 -0.026679724 0.0034035668
000210 c4 b5 ee bc 1b db b1 3c 64 40 ce ba a2 c3 63 bc
       -0.029139407 0.021710923 -0.0015735743 -0.013901623
000220 ce bc 86 3a 05 5e db bb d1 86 26 ba a6 5c fa 3b
       0.0010279657 -0.0066945576 -0.00063524867 0.007640439
000230 3a f6 9b bb 3e 28 88 bb db 76 18 bb bc 7e 98 b9
       -0.004759577 -0.004155188 -0.0023264203 -0.00029086124
000240 49 dd 7b bc e5 b9 8e 3c 95 7c 94 bb 1f 20 6c 3a
       -0.015372583 0.017422626 -0.004531453 0.0009007472
000250 b8 a6 f5 bb 52 60 46 3c fb 1f 26 bb 50 6d 47 bb
       -0.007496681 0.0121079255 -0.0025348652 -0.0030430146
000260 2b 45 91 3c 3e e8 c1 ba f8 1c 20 bb 3a 29 3f bc
       0.017733177 -0.0014793945 -0.002443133 -0.011667544
000270 bb be 8c bb e6 7d c2 3b 81 09 a4 bb 96 07 2e 3b
       -0.004295198 0.0059354184 -0.0050060158 0.0026554815
000280 2e 9c ae 3c b2 41 35 3c f3 53 2c 3b cc 18 54 3c
       0.021314707 0.011063026 0.0026295155 0.012945365
000290 35 a2 dc 3a a0 8b e4 bb 53 30 8e bb 40 ef 75 bb
       0.001683301 -0.0069746524 -0.004339257 -0.0037526637
0002a0 f9 ed 31 ba f4 42 cc 39 78 1b 5a bc 98 25 e7 bb
       -0.0006787475 0.00038959796 -0.013312213 -0.007054042
0002b0 d3 fb 95 bb d2 59 ff bb 36 91 63 ba ff 78 69 3b
       -0.004577139 -0.00779269 -0.0008681001 0.0035625098
0002c0 89 a8 08 3d 49 92 81 3b 83 00 4b bb 45 16 8c bb
       0.033363853 0.003954206 -0.0030975647 -0.0042751157
0002d0 52 78 3c bc 95 f3 ce 3b 57 05 e2 3c 34 89 09 bd
       -0.011503296 0.0063156583 0.027590437 -0.033578113
0002e0 f9 28 49 bc 02 50 91 39 c4 25 c4 3c 7b b5 8e 3b
       -0.012277835 0.00027716166 0.02394379 0.0043551303
0002f0 f8 68 9f 3b 24 e0 e2 b9 36 ca 89 bc 47 0b ce bb
       0.004864808 -0.00043273077 -0.016820055 -0.0062879655
000300 0b bf 5a bb f6 d7 bc ba 73 a7 21 bc c2 9b 0f 3c
       -0.003337803 -0.0014407623 -0.009866583 0.008765163
000310 89 44 43 3c b7 ae be bc 8d 3e ec ba 10 58 03 3d
       0.0119181955 -0.02327667 -0.0018024013 0.032066405
000320 c8 77 47 bc a5 d3 3f bb 21 36 8c 3c f6 bb 9b 3c
       -0.012174554 -0.0029270437 0.017115654 0.019010525
000330 51 0c f7 bc 26 e5 3b 3c 24 15 c9 3c 17 ff af 3c
       -0.03015724 0.011468207 0.024546213 0.021483941
000340 dd d0 bd bc 32 7a 47 3b 0f 5c 17 bd 4b a4 28 3c
       -0.023170883 0.0030437824 -0.03695303 0.010293077
000350 b9 6e d3 3b 45 ca 63 bb 1e a2 e2 3c 1b 3b 00 bd
       0.006452408 -0.0034758013 0.027665194 -0.031306367
000360 ad 0f 3b bc 82 1f ce 3b 1b 5e fb bc e1 e0 49 bc
       -0.011417312 0.006290377 -0.030684521 -0.012321682
000370 35 18 c0 bc 84 ca c3 bc a7 90 20 bc 44 41 17 bd
       -0.023449043 -0.023900278 -0.009800113 -0.036927477
000380 a5 94 e2 3b c9 b3 b5 3c be 69 e6 3c 8b 32 06 3d
       0.0069146925 0.022180455 0.028126594 0.032763045
000390 21 d4 6a 3c 2c 55 1e 3c 3d 6d 7a bc a0 04 af 3c
       0.014332802 0.009663861 -0.0152848335 0.02136451
0003a0 c7 da 81 3c 6c e7 c6 3a ba ab 2f 3b 67 41 0e bc
       0.015851391 0.001517517 0.0026805238 -0.008682585
0003b0 10 b0 4d 3c 72 45 1b 3d 72 44 09 3d 23 ee a8 bb
       0.012554184 0.037908025 0.03351254 -0.0051553412
0003c0 1d 42 f7 3b be c1 90 3b 81 19 86 3b 09 f6 80 3c
       0.007545723 0.004417627 0.004092396 0.015742319
0003d0 5c 1f 81 bc f2 bb 02 3d bd 53 34 bc fa ee d1 3c
       -0.015762024 0.03191752 -0.011006293 0.025626648
0003e0 bc 24 7c 39 92 22 ca bc 58 89 eb bb 2d 05 ce bc
       0.00024046277 -0.024674688 -0.0071880035 -0.025148952
0003f0 c2 c3 a8 bc ce f9 69 3c fe ca 94 3c 89 29 1b 3c
       -0.020601157 0.0142807495 0.0181632 0.009470352

net.0.bias f4 [64]
000000 9d 9d cf 33 99 a8 f4 34 8a ed 59 b4 44 3d da 32
       9.667858e-08 4.5571213e-07 -2.0296116e-07 2.54064e-08
000010 41 0b f8 b2 ac 2e 35 b4 57 51 4b 34 8e 0b 9b b4
       -2.8876117e-08 -1.6873918e-07 1.893544e-07 -2.8879407e-07
000020 5b d8 b2 b3 72 de 4b 32 fe aa 42 b3 ba df 67 b4
       -8.328126e-08 1.1866733e-08 -4.532466e-08 -2.1594943e-07
000030 43 e0 da b3 9e 5b 39 35 83 bd 98 b2 ec 3f 1c 35
       -1.0192209e-07 6.905119e-07 -1.7781309e-08 5.820755e-07
000040 8d 8c 74 31 01 68 3d 35 86 84 12 33 7b cc ad b2
       3.5586567e-09 7.055933e-07 3.4113803e-08 -2.0232838e-08
000050 1a fc bd b4 19 35 56 35 5b 6a 00 34 ce cd 56 33
       -3.538742e-07 7.979848e-07 1.1959621e-07 5.0012936e-08
000060 01 cd 89 b3 f3 60 de 33 90 b0 6f b4 ef f8 40 33
       -6.4168496e-08 1.03553155e-07 -2.2322843e-07 4.4929887e-08
000070 2d d3 25 b3 98 a1 8a 32 c4 fe 25 b4 72 f2 50 b4
       -3.860912e-08 1.6138799e-08 -1.5459506e-07 -1.945971e-07
000080 f3 43 6a b5 e1 25 f2 34 76 bc 65 b4 ff 1e 02 b5
       -8.727067e-07 4.5103573e-07 -2.1395849e-07 -4.847388e-07
000090 7e 61 8c 34 d4 15 b4 35 16 d8 91 34 c0 9c 0e b4
       2.6147967e-07 1.3417398e-06 2.7165578e-07 -1.3281806e-07
0000a0 58 72 88 35 13 b8 5d b6 3f 18 b2 33 b0 e3 fc 34
       1.0166068e-06 -3.3038712e-06 8.293181e-08 4.7104322e-07
0000b0 da b9 3e b4 ce f2 cd b5 78 59 f9 b3 7d 0a 85 33
       -1.7762741e-07 -1.5344356e-06 -1.161124e-07 6.195203e-08
0000c0 6f c2 3d b4 bc b5 63 34 29 3d 0c 33 0f a1 60 34
       -1.7672731e-07 2.1207137e-07 3.2651915e-08 2.0920218e-07
0000d0 b5 f6 8e 34 0f a1 fb 32 1a 00 d0 33 0f 54 a5 31
       2.6629064e-07 2.9293487e-08 9.685773e-08 4.8116884e-09
0000e0 ed c7 0c 35 5e 26 82 b3 8b d7 5d b5 c2 80 81 b2
       5.2444994e-07 -6.060576e-08 -8.264257e-07 -1.5076129e-08
0000f0 82 1d 98 34 c0 cf 9d b3 b8 7b fa b1 2f ad 94 b4
       2.8333676e-07 -7.348672e-08 -7.290023e-09 -2.7693156e-07

net.1.weight f4 [64]
000000 65 94 aa 3d 85 c2 b4 3d 24 87 be 3d fa be da 3e
       0.08329085 0.08826164 0.0930312 0.4272383
000010 10 f1 a2 3d cf 59 af 3d 0b 49 a9 3d 4e e8 b2 3d
       0.07956135 0.085620515 0.08265885 0.08735715
000020 52 72 b4 3d ba 19 ad 3d 05 04 b2 3d 97 fd ac 3d
       0.08810867 0.084521726 0.08692173 0.08446806
000030 8e a6 af 3d 65 79 bb 3d 34 99 d6 3e 41 36 b7 3d
       0.0857669 0.091540135 0.4191376 0.08945895
000040 9a 67 da 3e 14 61 a7 3d b7 4c b7 3d 34 c4 f8 3e
       0.42657167 0.08172813 0.08950179 0.4858719
000050 cf af a7 3d 2a ae a8 3d a3 d2 b0 3d fe 47 dc 3e
       0.0818783 0.08236344 0.08633926 0.43023676
000060 1e 19 a8 3d c4 9e b3 3d 3e e1 ab 3d cd 63 01 3f
       0.08207916 0.087705165 0.08392571 0.5054291
000070 0c e2 f2 3e e0 7b db 3e 91 0a 9a 3d 95 28 a8 3d
       0.47438085 0.42867947 0.07521547 0.082108654
000080 ea a6 b7 3d 0a 31 b5 3d bf 7b fc 3e 5d 03 af 3d
       0.08967383 0.08847244 0.4931316 0.08545563
000090 c4 fd b3 3d fd 69 b9 3d 3b 1a 9f 3d f8 46 af 3d
       0.08788636 0.09053419 0.07768675 0.08558458
0000a0 70 c5 ac 3d e5 6a aa 3d d8 06 b1 3d f1 ac f6 3e
       0.08436096 0.0832117 0.086438835 0.4817882
0000b0 7c ae b8 3d ae 8f d2 3e e8 e9 ab 3d fd 7e b9 3d
       0.09017655 0.41125244 0.083942235 0.09057424
0000c0 f8 55 ae 3d 2b ec c2 3d e3 aa ac 3d 1e 3c ba 3d
       0.08512491 0.09517702 0.084310316 0.09093498
0000d0 1d 0f b9 3d f6 ae ac 3d b5 e6 ef 3e ee a1 da 3e
       0.09036086 0.08431809 0.46855703 0.42701668
0000e0 be ba bc 3d 07 39 b6 3d c7 7c af 3d 0a e6 b5 3d
       0.09215306 0.08897596 0.08568721 0.08881767
0000f0 b8 d5 c4 3d e8 52 fd 3e 7f fd d9 3e ab cb c5 3d
       0.09611076 0.49477315 0.42576215 0.09657987

net.1.bias f4 [64]
000000 03 3b b4 bd 54 8f 7f bd a5 16 84 bd 2d 84 d6 3e
       -0.08800318 -0.062392548 -0.064496316 0.41897717
000010 7b d3 9f bd 23 f0 bc bd c6 83 84 bd 62 07 b5 bd
       -0.078040086 -0.0922549 -0.06470446 -0.08839299
000020 f8 30 9e bd ac b6 a2 bd c8 7b 88 bd f7 fe 95 bd
       -0.07724184 -0.07944998 -0.066642344 -0.07324021
000030 bf 02 7b bd 62 a3 92 bd c8 15 d4 3e f0 2f c7 bd
       -0.061281916 -0.07160069 0.41422868 -0.0972594
000040 19 f4 d2 3e c4 e5 92 bd 06 b6 a1 bd 7c b2 38 3d
       0.41201857 -0.071727306 -0.07896046 0.04509209
000050 46 00 86 bd 4b 5b 7f bd 14 3a b3 bd df a8 d5 3e
       -0.06543021 -0.062342923 -0.08751312 0.417304
000060 96 59 83 bd 30 ed 56 bd 90 20 af bd fb c8 5f 3d
       -0.064135715 -0.052472293 -0.08551133 0.05463503
000070 67 73 49 3d 54 9c d9 3e 5b c9 b1 bd aa 15 ae bd
       0.049182322 0.4250208 -0.08680984 -0.08500226
000080 10 4a c3 bd 29 e8 aa bd e0 1d 46 3d 82 11 93 bd
       -0.09535611 -0.08345062 0.048368335 -0.07181074
000090 ad f7 a3 bd bd 5b 8f bd 68 cd 9d bd a6 f4 8d bd
       -0.08006225 -0.069999196 -0.07705194 -0.069314286
0000a0 8c 8c 85 bd dd 86 c9 bd 59 b3 87 bd 2e c5 44 3d
       -0.06520948 -0.09840176 -0.06626005 0.048039608
0000b0 a4 79 b7 bd 0a 41 3a 3d 37 25 af bd 1c df a5 bd
       -0.08958748 0.045472182 -0.0855202 -0.08099195
0000c0 c6 e2 82 bd 2e 35 b6 bd a1 18 6c bd 0f b1 a5 bd
       -0.0639091 -0.08896862 -0.057640675 -0.08090412
0000d0 7d 00 b0 bd 0e 91 a8 bd 1a 74 1d 3d 46 7e d4 3e
       -0.08593843 -0.08230792 0.0384408 0.4150259
0000e0 f1 5d 9f bd f1 a9 b4 bd 75 12 bf bd 45 aa 8b bd
       -0.0778159 -0.08821476 -0.09329692 -0.06819586
0000f0 f8 86 a5 bd 36 16 23 3d 61 c6 d2 3e a4 44 bb bd
       -0.08082384 0.039816104 0.41166976 -0.091439515
