bestclf/bestclf_yaleb_n05.pth (torch, 343163 bytes, 16 tensors)

fc1.weight f4 [75, 504]
0.0157391 -0.021338787 -0.018569339 -0.017820405 -0.017424777 0.0043457067 0.0031065033 -0.0005719864
-0.017671138 -0.021904582 -0.019077102 -0.010994672 -0.03484422 -0.038768686 -0.03889817 -0.05835475
-0.05601856 -0.07549275 -0.045764815 -0.036590878 -0.034382697 -0.004226562 -0.020517526 -0.028863342
-0.00071681594 0.018796174 0.016750446 0.016311213 0.011045021 -0.010143833 0.005968378 -0.021651134
-0.011029178 -0.02854921 -0.044508107 -0.009803886 -0.009209365 0.00097429816 -0.005290799 -0.02710487
-0.043407287 -0.045849204 0.0015259112 -0.006617839 -0.021526739 -0.00429035 -0.012205196 0.0019301206
0.015027077 0.010129247 0.007091656 0.0037576447 -0.02332081 -0.02088261 -0.0070365975 0.02636558
0.019404843 -0.0011843239 0.017411694 0.022559587 0.037771083 0.049862236 -0.012429904 0.020993413
0.030858425 0.029827122 -0.0077997027 -0.016287481 -0.017456595 -0.0075887507 0.0058448887 0.028001068
0.002943431 -0.031240659 -0.037900638 -0.010385901 -0.011797208 0.016683578 0.008657558 0.018073855
0.056497592 0.03892762 0.027309773 0.13443516 0.0073510245 0.034457464 0.021581752 0.011940559
0.017919267 0.014961391 -0.0027574308 0.0017094543 0.029573977 0.030076653 0.013884787 -0.0033303883
0.00065720594 0.047117636 0.032319568 0.022445766 0.06622309 0.09023009 0.024417996 7.5132175e-06
0.025308296 0.012940503 0.017726352 0.005505901 0.012659718 0.05709452 0.09306448 0.02855597
0.01350428 -0.00888865 -0.008907281 0.022838682 0.017466435 0.042868555 0.06280784 -0.0030080904
0.027537165 0.08679887 0.0747187 0.03459403 0.025059419 -0.022377403 -0.019324107 -0.015279315
-0.0075447178 -0.023671873 -0.009297168 0.027287317 -0.004983472 0.023360498 0.0065121036 0.004182991
0.009171425 0.029480474 0.08470277 0.025589246 -0.01269014 -0.001438473 0.019417293 0.04480949
-0.1790062 0.022522524 0.02785863 -0.008440707 -0.014209378 -0.057354525 -0.035311293 -0.0064032464
-0.0037815135 0.010263031 0.040988773 0.020052494 0.031861752 0.039023962 -0.053967897 0.025347117
0.0014607211 -0.027634138 0.023373947 0.0067868195 0.04724177 -0.028044581 0.005399363 0.0776707
0.01394218 0.018335456 -0.020966621 0.008800288 0.015712943 0.020384803 0.019484244 0.021558944
0.021381244 -0.011225513 0.0149405375 -0.091883175 0.07772385 -0.043849405 -0.03177007 0.0074529857
0.049772035 0.028393114 -0.026786067 0.0874511 0.093717225 0.04731095 0.027437275 0.018913139
-0.021608457 -0.03368041 -0.016340572 0.0030478188 0.0063501718 0.005723541 0.007328936 0.014260766
-0.054264974 -0.006193004 0.04612598 -0.013793476 -0.02882701 0.0063082958 0.015567444 0.051422305
0.08285887 0.059186727 0.029469987 0.019480715 0.0072724572 -0.0061322907 -0.0099823065 -0.004499826
0.015755087 -0.0016892286 0.018664176 0.0018703125 -0.0017171686 0.059545282 0.011764237 0.037929
0.028637987 -0.050000582 -0.052534804 -0.009891115 0.07441004 0.060217377 -0.0029024181 0.016169716
-0.0047276584 -0.024823079 -0.019735515 -0.0056392974 0.0017226127 0.017639056 0.03890232 -0.009996594
-0.017870592 -0.0070975493 0.05381438 0.054641336 -0.008399285 0.019627478 0.046643227 0.008097195
-0.003816939 -0.010460872 -0.002428741 -0.007975114 0.007973701 -0.003146622 -0.028835546 -0.025284117
00000000: 49ef 803c aece aebc ba1e 98bc 19fc 91bc
00000010: 68be 8ebc 6e66 8e3b 7a96 4b3b 5cf1 15ba
00000020: 10c3 90bc 3d71 b3bc 9547 9cbc ff22 34bc
00000030: d0b8 0ebd eacb 1ebd b053 1fbd 6405 6fbd
00000040: b873 65bd f19b 9abd e373 3bbd 51e0 15bd
00000050: dfd4 0cbd f97e 8abb 5f14 a8bc d172 ecbc
00000060: b4e8 3bba 6ffa 993c 3b38 893c 189f 853c
00000070: 2df6 343c 5232 26bc 6292 c33b b85d b1bc
00000080: bab3 34bc 08e0 e9bc 224e 36bd 7aa0 20bc
00000090: e0e2 16bc 0b68 7f3a 705e adbb 080b debc
000000a0: d7cb 31bd 60cc 3bbd 1501 c83a 75da d8bb
000000b0: d858 b0bc 1096 8cbb 4df8 47bc 1afc fc3a
000000c0: 2134 763c 24f5 253c 1f61 e83b d142 763b
000000d0: 490b bfbc 0212 abbc 4293 e6bb a1fc d73c
000000e0: e8f6 9e3c 513b 9bba f8a2 8e3c e2ce b83c
000000f0: dab5 1a3d 583c 4c3d cca6 4bbc 61fa ab3c
00000100: cfca fc3c 0258 f43c a694 ffbb 536d 85bc
00000110: 2201 8fbc 0eab f8bb 7b86 bf3b 7f62 e53c
00000120: 94e6 403b 69ec ffbc b33d 1bbd a029 2abc
00000130: 1449 41bc 00ac 883c 6ed8 0d3c 9f0f 943c
00000140: 056a 673d 9172 1f3d bfb8 df3c 5fa9 093e
00000150: dde0 f03b 4523 0d3d 37cc b03c 56a2 433c
00000160: 6dcb 923c 9f20 753c 03b6 34bb c50f e03a
00000170: 2045 f23c 5063 f63c 057d 633c a542 5abb
00000180: 5848 2c3a 6cfe 403d 8661 043d 2fe0 b73c
00000190: f99f 873d 8eca b83d 4008 c83c 0c1a fc36
000001a0: 5853 cf3c 6704 543c db36 913c d86a b43b
000001b0: b56a 4f3c f2db 693d 9798 be3d 36ee e93c
000001c0: 0e41 5d3c b3a1 11bc d8ef 11bc 3018 bb3c
000001d0: c515 8f3c f096 2f3d 66a1 803d 6223 45bb
000001e0: 9f95 e13c 9bc3 b13d 1e06 993d 78b2 0d3d
000001f0: 6949 cd3c d150 b7bc 974d 9ebc 1856 7abc
00000200: ae39 f7bb 84eb c1bc 2653 18bc a789 df3c
00000210: 654c a3bb 845e bf3c 7c63 d53b 7911 893b
00000220: bf43 163c 0981 f13c a578 ad3d 8aa0 d13c
00000230: 4eea 4fbc 258b bcba 0411 9f3c 288a 373d
00000240: 674d 37be 2881 b83c c837 e43c e44a 0abc
00000250: 73ce 68bc 94ec 6abd 93a2 10bd 53d2 d1bb
00000260: 45d3 77bb 4626 283c d8e3 273d 2145 a43c
00000270: 7881 023d 97d7 1f3d 710d 5dbd c2a4 cf3c
00000280: ab75 bf3a fd60 e2bc b87a bf3c f863 de3b
00000290: 9680 413d c0bd e5bc 24ed b03b d111 9f3d
000002a0: be6d 643c 3d34 963c 31c2 abbc 152f 103c
000002b0: 6eb8 803c 08fe a63c 6c9d 9f3c 629c b03c
000002c0: b827 af3c 37eb 37bc 28c9 743c 3f2d bcbd
000002d0: af2d 9f3d 6f9b 33bd 5521 02bd 2d38 f43b
000002e0: c3dd 4b3d ad98 e83c 746e dbbc 9019 b33d
000002f0: d1ee bf3d 20c9 413d 23c4 e03c baef 9a3c
00000300: 3804 b1bc 78f4 09bd aadc 85bc eabd 473b
00000310: 1a15 d03b 8b8c bb3b 9227 f03b fda5 693c
00000320: f344 5ebd afee cabb 98ee 3c3d 08fe 61bc
00000330: 9f26 ecbc d2b5 ce3b 980e 7f3c 32a0 523d
00000340: e9b1 a93d c86d 723d 0b6b f13c 0596 9f3c
00000350: cb4d ee3b 62f1 c8bb d48c 23bc 4773 93bb
00000360: d010 813c 1b69 ddba 9de5 983c 4625 f53a
00000370: 9e12 e1ba c1e5 733d c9be 403c 705b 1b3d
00000380: 369a ea3c 69cd 4cbd bc2e 57bd 580e 22bc
00000390: 4b64 983d 7fa6 763d 7f36 3ebb 5a76 843c
000003a0: 79ea 9abb c559 cbbc 60ac a1bc dbc9 b8bb
000003b0: 4ac9 e13a c87f 903c 0a58 1f3d c1c8 23bc
000003c0: 5965 92bc 8f92 e8bb 786c 5c3d 98cf 5f3d
000003d0: 289d 09bc cec9 a03c f80c 3f3d 19aa 043c
000003e0: 9c25 7abb 1464 2bbc 832b 1fbb 0daa 02bc
000003f0: 20a4 023c 8f37 4ebb 8638 ecbc a320 cfbc

fc1.bias f4 [75]
-0.007083874 0.026268372 0.0069102035 0.07107384 0.1078826 -0.101721674 0.20939389 -0.006349353
0.09794966 0.053966973 0.08919624 7.779691e-05 0.122598164 0.10186591 0.25113755 0.008130096
0.00079949904 0.12898731 -0.007041432 0.13575305 0.020526694 0.32942158 -0.026324093 0.07973427
0.15523195 -0.01119696 0.018911786 -0.04571788 0.24359363 -0.01302687 0.012118141 0.09126562
0.17825839 0.11284465 0.22218572 0.0010820453 -0.102547236 0.06644156 0.23406886 0.25642547
0.2530509 0.0816629 0.14743783 0.08621651 -0.021870747 0.04334034 0.077703334 0.10199373
0.2125884 0.15875822 0.108560234 0.12575926 -0.005996103 0.056773152 0.12401422 0.15606122
0.067506075 0.06639422 -0.06243259 0.22297055 0.09404603 0.19489995 0.027495738 0.10437681
0.033503674 0.032008473 0.19240625 0.07232578 0.19357482 0.022570169 0.13409325 -0.04011692
0.002580608 0.2040359 0.104772754
00000000: d81f e8bb c530 d73c fd6e e23b 298f 913d
00000010: 8df1 dc3d 7453 d0bd 5a6b 563e 3c0e d0bb
00000020: d599 c83d 790c 5d3d 85ac b63d e626 a338
00000030: bf14 fb3d 139f d03d 1a95 803e 1834 053c
00000040: 7995 513a 4015 043e d0bb e6bb d902 0b3e
00000050: 9927 a83c f2a9 a83e a0a5 d7bc b94b a33d
00000060: 20f5 1e3e 7473 37bc e4ec 9a3c ac42 3bbd
00000070: 9c70 793e a76e 55bc 2b8b 463c 78e9 ba3d
00000080: 5e89 363e 191b e73d a784 633e 6ad3 8d3a
00000090: 4904 d2bd 8312 883d bfaf 6f3e 334a 833e
000000a0: e38f 813e e13e a73d f1f9 163e 4892 b03d
000000b0: 482a b3bc a485 313d ed22 9f3d 17e2 d03d
000000c0: c6b0 593e 8491 223e d454 de3d 09c7 003e
000000d0: f57a c4bb f78a 683d 2bfb fd3d 83ce 1f3e
000000e0: a040 8a3d b1f9 873d 51b9 7fbd 6452 643e
000000f0: 349b c03d da93 473e be3e e13c 82c3 d53d
00000100: 263b 093d 511b 033d 2506 453e 8a1f 943d
00000110: 7a38 463e 13e5 b83c be4f 093e a451 24bd
00000120: 6b1f 293b c9ee 503e 1993 d63d

fc2.weight f4 [75, 75]
-0.058229372 -0.073866256 0.023795549 0.093850285 0.06131394 -0.107553154 0.027036551 -0.025617117
-0.0924547 0.043117583 0.033536356 -0.029724626 0.06801356 0.01875383 0.1482069 -0.036730576
-0.0699248 0.013157163 -0.026580742 0.037773184 -0.13320169 0.07643258 0.012285771 -0.05654545
0.04800701 0.063930556 -0.1080044 0.014572382 -0.04480142 0.02573146 -0.0398079 -0.02649484
0.2513279 -0.009635645 -0.14649653 -0.049238943 0.020522522 -0.065454155 -0.08267514 0.0477564
0.0935049 -0.018696923 0.14861733 -0.027884815 0.011123312 -0.013884958 0.047024094 0.07959259
0.09100781 0.1364995 -0.025536042 -0.029346358 -0.033824265 -0.052734084 0.12565146 0.1850066
-0.11188733 -0.06812773 -0.06421829 -0.05869093 -0.062465884 0.21725263 0.095885836 -0.06781849
0.05906898 -0.004019692 -0.027519232 0.02927619 0.04323718 0.026305383 0.048354313 0.05558963
-0.051842544 -0.15475602 -0.049260676 -0.10233511 -0.19930951 -0.10870441 0.0025192348 0.09316318
0.015467361 -0.005963369 -0.009846436 0.08718437 0.115033545 0.11853438 -0.24849492 0.037234943
0.036350004 0.10772742 0.0096279755 0.06615813 -0.014111541 -0.037912756 0.11225484 0.061782725
0.08720353 -0.11036734 0.058976352 0.043981075 -0.03528424 -0.13265124 -0.029551605 -0.035200987
-0.031935003 0.0071580857 0.037279647 0.09552111 -0.11298169 0.16881391 -0.08766229 0.113619745
-0.06953139 0.113095745 0.12576036 0.07450866 0.100154236 -0.035252765 -0.11387104 -0.10355179
-0.00059157755 0.085157625 0.15297192 0.11745187 0.029615622 0.05425542 0.0711276 0.06574562
-0.020222073 -0.08318768 -0.011180894 0.024191637 0.044765323 0.06110918 0.2124728 0.06072899
0.26467675 -0.18839243 0.021754142 -0.12236711 0.012130495 0.13902217 -0.09446524 0.081452176
0.009288081 0.058343712 0.00019037597 -0.025983047 0.035566464 -0.048109252 -0.033058666 -0.13748161
0.06009632 -0.022003325 -0.037535306 0.060014926 0.13108614 -0.007212531 0.08091458 0.035550423
0.08571756 0.216271 0.06825925 0.075217165 0.102963686 -0.0024030204 0.16308996 -0.09600601
0.103073284 0.018237242 -0.012871685 0.04150337 -0.0032054896 0.026037917 0.056794964 -0.013909257
-0.055337086 0.0703281 -0.05277254 -0.031888485 -0.070327125 0.10850294 -0.028947378 0.15856946
-0.13326718 -0.0779868 0.07966469 -0.020341655 -0.10654529 0.07073989 -0.043711733 0.10965349
0.10552308 0.030862736 -0.079726964 0.032685615 0.12134278 -0.08139212 -0.027275007 -0.118981995
0.0101175625 0.017063743 0.099196844 0.07340681 0.11340242 -0.2609049 -0.080255054 0.01685156
0.07441438 -0.10017574 0.17705533 0.008048024 -0.02173229 -0.09791392 0.095642075 0.20182472
-0.04529547 0.13555883 -0.15662807 0.014979987 0.0030144677 0.09603701 -0.03746104 0.005655573
0.048649903 -0.09784905 -0.23550612 -0.07998482 0.051026918 -0.04798203 0.054544695 -0.026174303
0.018938811 0.13593993 0.011509297 -0.08967397 0.0032094093 0.02206223 0.17947946 0.012859814
0.14297405 0.056152403 0.050117653 0.0610677 0.05361442 0.07819491 0.0826343 0.09507758
-0.039838545 0.063588984 0.10612734 0.023448795 -0.08337268 -0.10320343 0.14031966 -0.1053582
00000000: ec81 6ebd 3147 97bd e2ee c23c 9434 c03d
00000010: 5324 7b3d d444 dcbd c27b dd3c fdda d1bc
00000020: e458 bdbd 109c 303d 6b5d 093d 0f81 f3bc
00000030: b14a 8b3d a2a1 993c 8dc3 173e cd72 16bd
00000040: bc34 8fbd 2491 573c dbbf d9bc 0eb8 1a3d
00000050: 0666 08be af88 9c3d 424a 493c 349c 67bd
00000060: 00a3 443d 06ee 823d 6931 ddbd 00c1 6e3c
00000070: b281 37bd c8ca d23c 9c0d 23bd b50b d9bc
00000080: 0dae 803e d3de 1dbc 3003 16be c6ae 49bd
00000090: d91e a83c d40c 86bd 9551 a9bd 379c 433d
000000a0: 7f7f bf3d 4a2a 99bc 242f 183e b26e e4bc
000000b0: 8d3e 363c bc7d 63bc 569c 403d 7101 a33d
000000c0: 4d62 ba3d 86c6 0b3e f630 d1bc c667 f0bc
000000d0: 508b 0abd b2ff 57bd c7aa 003e 5f72 3d3e
000000e0: 2f25 e5bd 8d86 8bbd e184 83bd e765 70bd
000000f0: 3adc 7fbd 7977 5e3e cb5f c43d 6ce4 8abd
00000100: 51f2 713d 9fb7 83bb 0370 e1bc 9fd4 ef3c
00000110: 7819 313d 637e d73c 2c0f 463d f4b1 633d
00000120: d958 54bd 5d78 1ebe 90c5 49bd 1295 d1bd
00000130: cb17 4cbe 6ba0 debd bf19 253b 56cc be3d
00000140: d06a 7d3c 5d68 c3bb f252 21bc b88d b23d
00000150: b596 eb3d 27c2 f23d 7475 7ebe ab83 183d
00000160: bee3 143d 32a0 dc3d a8be 1d3c ea7d 873d
00000170: 1834 67bc 684a 1bbd dee5 e53d e20f 7d3d
00000180: c497 b23d 4608 e2bd 3091 713d 8025 343d
00000190: 3586 10bd bad5 07be 3516 f2bc e92e 10bd
000001a0: 47ce 02bd 608e ea3b 8bb2 183d 92a0 c33d
000001b0: f262 e7bd 8edd 2c3e 4988 b3bd 78b1 e83d
000001c0: 7966 8ebd be9e e73d 53c7 003e ff97 983d
000001d0: aa1d cd3d 3465 10bd 3835 e9bd f612 d4bd
000001e0: 1914 1bba 1f67 ae3d aca4 1c3e 9b8a f03d
000001f0: 769c f23c ee3a 5e3d 59ab 913d a4a5 863d
00000200: c3a8 a5bc 4d5e aabd 1230 37bc 8a2d c63c
00000210: d85b 373d 9f4d 7a3d 7892 593e f6be 783d
00000220: b683 873e f2e9 40be be35 b23c 9b9b fabd
00000230: fcbe 463c d45b 0e3e fe76 c1bd 66d0 a63d
00000240: 092d 183c d1f9 6e3d a99f 4739 66da d4bc
00000250: 24ae 113d 350e 45bd 8668 07bd fbc7 0cbe
00000260: 8f27 763d 5140 b4bc 9fbe 19bd 36d2 753d
00000270: 723b 063e 1857 ecbb 8bb6 a53d 529d 113d
00000280: b08c af3d 2576 5d3e 81cb 8b3d 750b 9a3d
00000290: a0de d23d fe7b 1dbb 0e01 273e cd9e c4bd
000002a0: 1618 d33d 4566 953c c3e3 52bc 70ff 293d
000002b0: 3113 52bb 784d d53c d6a1 683d a7e3 63bc
000002c0: 24a9 62bd 2e08 903d 0528 58bd 809d 02bd
000002d0: ab07 90bd ca36 de3d 0d23 edbc 0860 223e
000002e0: 3177 08be 8bb7 9fbd 3e27 a33d 8ba3 a6bc
000002f0: 6b34 dabd 13e0 903d 130b 33bd 0292 e03d
00000300: 7c1c d83d d9d3 fc3c e447 a3bd 5ae1 053d
00000310: 9082 f83d e9b0 a6bd d66f dfbc d5ac f3bd
00000320: 22c4 253c 43c9 8b3c b727 cb3d 4f56 963d
00000330: 873f e83d 5495 85be c35c a4bd 480c 8a3c
00000340: 9166 983d f028 cdbd fe4d 353e dcdb 033c
00000350: ea07 b2bc 1887 c8bd fedf c33d 24ab 4e3e
00000360: be87 39bd efcf 0a3e 1c63 20be 9f6e 753c
00000370: 608e 453b 0daf c43d bf70 19bd 6352 b93b
00000380: 1f45 473d 1565 c8bd 8428 71be 15cf a3bd
00000390: 9a01 513d ce88 44bd 426a 5f3d 7e6b d6bc
000003a0: 9125 9b3c d633 0b3e 7e91 3c3c fda6 b7bd
000003b0: f454 523b dabb b43c 77c9 373e f8b1 523c
000003c0: ca67 123e 1000 663d 2b48 4d3d 2022 7a3d
000003d0: cb9a 5b3d a724 a03d 2c3c a93d 09b8 c23d
000003e0: be2d 23bd f13a 823d 4a59 d93d b017 c03c
000003f0: 4cbf aabd 525c d3bd f5af 0f3e 0ac6 d7bd

fc2.bias f4 [75]
0.07398025 0.13261475 -0.026848845 -0.10325416 0.31750274 0.1636899 0.06863692 -0.12317031
0.08931953 -0.0031053848 0.026085727 0.015467654 0.17078659 0.06821757 0.08731995 -0.031635676
0.08153916 0.029821737 0.14463897 -0.13232319 0.10966347 0.24857399 0.09024512 -0.009186776
-0.10531446 0.1280836 0.049904652 0.12669083 0.18075849 -0.01769902 0.1954693 0.041091304
0.12142858 0.1331726 0.07441098 0.08256714 0.010297809 -0.021727102 -0.039352342 0.24944413
-0.0050002257 0.053643443 0.04175145 0.23430015 0.028810052 0.18926601 0.021146756 0.12121376
0.03952358 0.23137192 0.11509457 -0.013457339 -0.0504519 0.10132494 0.1731562 0.13252738
0.025250236 -0.051082518 0.13946961 -0.07823575 -0.062648214 0.106647424 -0.012912931 -0.011836809
0.15923502 0.20639604 0.06039794 0.23423725 0.20121992 0.291302 0.15193263 -0.005092978
0.12324257 0.049455762 0.17756717
00000000: f582 973d 29cc 073e 1cf2 dbbc eb76 d3bd
00000010: b88f a23e 539e 273e 8391 8c3d b740 fcbd
00000020: 28ed b63d b683 4bbb bcb1 d53c 0b6c 7d3c
00000030: aee2 2e3e a7b5 8b3d cdd4 b23d 6994 01bd
00000040: 01fe a63d b74c f43c 3d1c 143e bb7f 07be
00000050: 3e97 e03d 2e8a 7e3e 6fd2 b83d 2284 16bc
00000060: 1caf d7bd 5928 033e d268 4c3d 3ebb 013e
00000070: c118 393e 89fd 90bc 1b29 483e 5b4f 283d
00000080: 8caf f83d 665e 083e c964 983d f618 a93d
00000090: 24b8 283c 09fd b1bc ec2f 21bd 486e 7f3e
000000a0: efd8 a3bb 3ab9 5b3d 9203 2b3d 61ec 6f3e
000000b0: 0f03 ec3c f3ce 413e f63b ad3c eb3e f83d
000000c0: 7ae3 213d c3ec 6c3e b4b6 eb3d 2c7c 5cbc
000000d0: a7a6 4ebd 7383 cf3d dc4f 313e 42b5 073e
000000e0: 95d9 ce3c e73b 51bd 1fd1 0e3e 113a a0bd
000000f0: b54d 80bd f769 da3d c290 53bc 2def 41bc
00000100: 810e 233e 7c59 533e d563 773d e4db 6f3e
00000110: 980c 4e3e 8925 953e 3a94 1b3e ffe2 a6bb
00000120: 9a66 fc3d 2092 4a3d 2bd4 353e

out.weight f4 [38, 75]
0.05858918 -0.040604237 0.3119766 -0.17238638 -0.036078382 -0.34339735 0.11169273 -0.37465876
0.46974358 0.12911816 -0.3083295 0.25761458 0.066498026 0.15027918 -0.1264196 0.17831808
-0.038872898 -0.06772058 -0.19705899 0.3832488 -0.051506106 0.31671634 -0.12264692 0.2485865
-0.35751384 -0.1572723 0.098421864 -0.4827582 0.30824167 -0.07211032 0.0988895 0.06419789
-0.3325972 0.44517457 0.1413697 0.05339447 0.09246424 0.22776608 0.021749489 0.31112584
-0.63876027 0.13692781 0.023677813 0.42019665 0.02948366 -0.06308865 -0.035485785 0.52300835
0.10499984 -0.42749974 -0.05010795 -0.20319493 -0.711366 -0.051973775 -0.043740507 0.27699673
0.30746803 -0.16004725 0.18217734 0.23582971 -0.7874835 -0.14707278 -0.6432378 -0.295186
-0.4184932 -0.030770546 0.0396769 -0.074749574 0.29115278 0.10088074 -0.09347123 0.13982424
-0.26339835 -0.22247326 -0.14996962 -0.26451412 -0.06364525 -0.31006154 0.1096439 -0.38891354
0.019487975 -0.21255201 0.3217898 -0.26891494 -0.059015784 -0.16191848 -0.3375315 0.18580703
0.06829149 -0.3357846 0.32949394 -0.2922622 0.26384017 0.10072318 -0.03655714 0.15375282
0.15974538 -0.013933443 -0.03903184 0.14710261 0.21672468 -0.11745423 0.15924479 -0.080272414
-0.23528352 0.036490705 -0.15676354 0.36756715 0.061602186 -0.2945296 0.35782593 0.05598189
-0.37732255 0.08024135 0.018722259 0.07717874 -0.009033488 0.051847875 -0.07703671 0.25943047
0.0151187815 0.040445242 -0.2391102 0.0086100735 0.12639043 -0.3242525 0.17605239 0.3472583
0.23062727 -0.1503408 -0.18017529 0.07319253 0.13606782 -0.39504603 -0.2421964 0.20901465
-0.15322332 -0.17907217 0.30559418 0.44196403 -0.14397137 -0.16303661 -0.2967163 0.07044785
-0.4213179 -0.18896134 -0.2756384 -0.17868777 -0.16834229 0.07524326 0.21451013 0.11294062
0.18447036 0.27659804 0.09516971 -0.2004102 0.09491827 0.5811214 -0.23151109 0.069241755
-0.14103383 -0.025365872 -0.14294586 0.21290961 -0.15936552 0.39262828 0.11806541 0.16858602
-0.20202018 0.3763174 0.0025848036 -0.11970844 -0.018367417 0.049222548 0.50341785 0.11614834
-0.18835115 0.099314645 0.15228155 -0.023422433 -0.2826332 -0.038938884 -0.18493985 -0.056952406
-0.22154386 -0.13978924 0.06856208 -0.063872986 -0.533577 -0.33236772 -0.25292346 -0.10462753
0.32344756 -0.26737583 -0.028451474 0.02471384 -0.12492595 0.15190582 -0.10597676 -0.33858794
-0.1084037 0.065296344 0.5991594 -0.27628788 0.10064894 -0.03697594 0.3593118 0.107069425
-0.15985934 0.27206516 0.50643027 -0.19872835 0.025070919 -0.5324852 -0.13242413 -0.114811234
0.1645229 -0.09085693 0.16401629 -0.5379357 -0.043207694 -0.022602871 -0.032116733 -0.05310918
0.06346127 -0.0149300005 0.30594537 -0.2254076 -0.18029653 0.106304295 -0.04722301 -0.03731399
-0.3610582 -0.4692626 0.42283484 0.06810875 0.30705062 -0.09229199 0.06721373 0.061823852
0.17075375 -0.007821333 -0.44737446 -0.26634243 0.1629535 -0.033248533 0.07126369 0.25355074
0.37133476 -0.453822 0.3244783 0.24083251 -0.3099298 0.18797612 0.28477663 0.18045509
00000000: 35fb 6f3d a150 26bd 66bb 9f3e 0e86 30be
00000010: edc6 13bd c7d1 afbe 28bf e43d 46d3 bfbe
00000020: 3b82 f03e 8d37 043e 5ddd 9dbe 0fe6 833e
00000030: 1e30 883d c9e2 193e 2474 01be 0499 363e
00000040: 3039 1fbd 16b1 8abd d5c9 49be 3039 c43e
00000050: 11f8 52bd a528 a23e 4f2e fbbd 768d 7e3e
00000060: 0e0c b7be fd0b 21be 6791 c93d 152c f7be
00000070: dad1 9d3e 93ae 93bd 9486 ca3d 2f7a 833d
00000080: 2e4a aabe eced e33e 38c3 103e 29b4 5a3d
00000090: e45d bd3d 833b 693e fc2b b23c e34b 9f3e
000000a0: cb85 23bf ce36 0c3e f9f7 c13c 0424 d73e
000000b0: b787 f13c 9f34 81bd 8b59 11bd e0e3 053f
000000c0: 280a d73d 3fe1 dabe fe3d 4dbd 5512 50be
000000d0: 151c 36bf 74e2 54bd 3f29 33bd 84d2 8d3e
000000e0: 736c 9d3e 6de3 23be b28c 3a3e 587d 713e
000000f0: 8598 49bf 3f9a 16be 3cab 24bf 9f22 97be
00000100: be44 d6be 8312 fcbc 3f84 223d 4e16 99bd
00000110: fa11 953e 909a ce3d d86d bfbd 162e 0f3e
00000120: 26dc 86be 08d0 63be a391 19be 656e 87be
00000130: 7158 82bd 63c0 9ebe fb8c e03d ad1f c7be
00000140: 3fa5 9f3c 3ca7 59be a2c1 a43e 38af 89be
00000150: 89ba 71bd f5cd 25be eed0 acbe 3344 3e3e
00000160: 69dc 8b3d f6eb abbe 6eb3 a83e 64a3 95be
00000170: 0f16 873e f447 ce3d f1bc 15bd 6171 1d3e
00000180: 4b94 233e 1949 64bc dadf 1fbd 11a2 163e
00000190: 13ed 5d3e d88b f0bd 1111 233e dd65 a4bd
000001a0: 2aee 70be 4777 153d 9f86 20be c331 bc3e
000001b0: 9352 7c3d 95cc 96be f634 b73e 444d 653d
000001c0: 6c30 c1be 9455 a43d 6c5f 993c e30f 9e3d
000001d0: 3201 14bc 705e 543d 6cc5 9dbd 12d4 843e
000001e0: c4b4 773c e9a9 253d 4ed9 74be 4411 0d3c
000001f0: 7e6c 013e 6c04 a6be 1447 343e d7cb b13e
00000200: 8e29 6c3e f0f2 19be df7f 38be f7e5 953d
00000210: 5d55 0b3e 7943 cabe 5502 78be f007 563e
00000220: 93e6 1cbe b25e 37be d776 9c3e 1c49 e23e
00000230: 3b6d 13be 12f3 26be 33eb 97be f646 903d
00000240: fbb6 d7be 157f 41be 7a20 8dbe edf9 36be
00000250: ec61 2cbe 2319 9a3d 8ba8 5b3e 694d e73d
00000260: cce5 3c3e 429e 8d3e 56e8 c23d 5538 4dbe
00000270: 8364 c23d 5fc4 143f 3e11 6dbe 9fce 8d3d
00000280: 2c6b 10be 17cc cfbc 6660 12be fa04 5a3e
00000290: b730 23be 9306 c93e 47cc f13d d0a1 2c3e
000002a0: 61de 4ebe adac c03e cf65 293b b329 f5bd
000002b0: 4477 96bc 959d 493d fedf 003f 2edf ed3d
000002c0: 20df 40be 7a65 cb3d b2ef 1b3e 67e0 bfbc
000002d0: 4cb5 90be 617e 1fbd df60 3dbe ed46 69bd
000002e0: 65dc 62be e924 0fbe 476a 8c3d d7cf 82bd
000002f0: 8198 08bf 1a2c aabe 2f7f 81be f546 d6bd
00000300: eb9a a53e 7ce5 88be 1113 e9bc ae74 ca3c
00000310: 2dd9 ffbd 338d 1b3e 580a d9bd 665b adbe
00000320: c202 debd 17ba 853d 8362 193f 9b75 8dbe
00000330: 0821 ce3d 1574 17bd b7f7 b73e 3747 db3d
00000340: 2bb2 23be 204c 8b3e 6aa5 013f 727f 4bbe
00000350: 8761 cd3c f350 08bf 319a 07be 2722 ebbd
00000360: b178 283e 3313 babd e3f3 273e 27b6 09bf
00000370: 8dfa 30bd a829 b9bc d68c 03bd 0389 59bd
00000380: fbf7 813d f69c 74bc dfa4 9c3e 40d1 66be
00000390: a79f 38be 11b6 d93d ea6c 41bd 8ed6 18bd
000003a0: 9fdc b8be 3043 f0be cf7d d83e 9a7c 8b3d
000003b0: bd35 9d3e 9503 bdbd 5aa7 893d 023b 7d3d
000003c0: 12da 2e3e 0c25 00bc 440e e5be 095e 88be
000003d0: 48dd 263e 9d2f 08bd b3f2 913d 67d1 813e
000003e0: 971f be3e 5b5b e8be 0522 a63e cc9c 763e
000003f0: 1eaf 9ebe d07c 403e 3ece 913e 38c9 383e

out.bias f4 [38]
-0.05119123 -0.042730723 -0.2070747 -0.10675189 -0.122498654 -0.25802022 -0.23364505 0.0139642395
0.018361272 -0.06823794 -0.15470557 0.25240588 0.020059956 0.021939022 -0.09330004 -0.09236844
0.2828117 -0.08971287 0.0570836 0.26426542 0.000557923 0.0611348 -0.12938909 -0.039559126
0.10904098 0.07578549 0.3347804 -0.12319775 0.2062852 0.06680542 0.14871441 0.009672905
0.14641173 0.30184108 -0.1337978 0.022470566 0.105105154 -0.10811634
00000000: e5ad 51bd 6906 2fbd 640b 54be bca0 dabd
00000010: 93e0 fabd 3a1b 84be a640 6fbe 44ca 643c
00000020: 616a 963c 55c0 8bbd 236b 1ebe 583b 813e
00000030: c754 a43c 77b9 b33c 1714 bfbd aa2b bdbd
00000040: b2cc 903e 62bb b7bd 7ed0 693d cc4d 873e
00000050: 9441 123a 7c68 7a3d 937e 04be c008 22bd
00000060: e150 df3d 6c35 9b3d 5668 ab3e 1a4f fcbd
00000070: 6d3c 533e 48d1 883d 9748 183e 1b7b 1e3c
00000080: f5ec 153e ea8a 9a3e 4a02 09be 3114 b83c
00000090: 5f41 d73d 1a6c ddbd

sep_conn.weight f4 [75, 504]
-0.101359464 -0.08570391 -0.06481658 0.035166748 0.07994738 0.051087 -0.019406334 -0.05197229
-0.0016899637 -0.07302279 -0.04025846 -0.027832733 0.013385859 0.043258913 0.03041796 -0.0027435138
0.036078878 0.08565564 0.053961877 0.044875357 0.07694981 -0.056632414 -0.045321673 0.01495521
0.020545462 0.016552607 -0.05835052 -0.04158515 -0.0073483987 0.032345373 0.038324464 0.059950687
-0.018670004 0.040397204 0.05363193 -0.04118101 -0.014626295 0.009986715 -0.036995776 -0.03245893
-0.015925221 0.014613885 -0.026989482 -0.12049138 0.013582187 0.12636581 0.06583075 0.050946623
0.030517893 0.024037236 0.06310642 0.016342113 0.060631737 -0.01194384 0.08435634 0.058716055
0.07771259 0.101486936 0.13857004 0.10395836 0.0661401 0.041981596 0.020009633 -0.06148385
0.05778841 0.081832275 0.107136466 0.14675912 0.16653797 0.11538443 0.12113513 0.06940538
0.042477988 0.01167453 0.0037638375 0.072935835 0.13937686 0.14664699 0.092432454 0.04180439
-0.036390424 0.005818991 0.03631924 0.034837708 -0.030395795 -0.023160044 0.036034964 0.022140717
-0.0034832223 0.007032766 -0.00042546046 -0.021541642 0.036186375 0.027639337 -0.027456477 -0.092699364
0.019801438 0.03447774 0.018810408 -0.036124222 -0.108169764 -0.11774735 -0.057843048 -0.10633519
-0.045807518 -0.010271596 0.039614256 0.05001038 0.09563556 -0.059462294 -0.046193477 0.09199491
-0.071593575 -0.031399857 0.13430694 -0.02644217 -0.04980468 -0.024719859 0.018809432 0.08701926
0.21156713 -0.04425385 -0.0035478086 0.15576053 0.11618667 -0.01860046 0.07019053 0.0260412
0.06291793 -0.0048131403 0.068437055 0.12821443 0.15285376 0.0050512324 -0.045289703 -0.01901435
0.058559574 -0.12119279 -0.17181414 0.100039154 0.080424175 0.18136361 0.072485365 0.0136434585
0.20344031 0.08079014 0.08844322 0.036299013 0.07470215 -0.005324745 0.018607838 0.1407025
0.10692559 0.10803199 0.019033212 -0.049574018 -0.012843072 0.04476221 0.06898508 -0.16226888
-0.007067267 0.10749674 0.10438467 0.086696565 0.09891955 0.082867265 -0.011259256 0.20798571
-0.013763869 0.023991669 -0.027828591 -0.0063723773 0.03139622 0.07225608 0.07894583 0.03206019
-0.034847584 -0.049815144 0.13321327 0.26832828 -0.21929714 -0.030609965 0.07295578 0.06809619
-0.015083356 0.045809947 -0.015387395 -0.08258555 -0.08189543 -0.10734219 -0.03531742 0.02356131
-0.0021594407 0.03580839 0.016514352 0.033039734 -0.017400555 0.03481273 -0.040226154 -0.18893322
0.1525881 0.011866468 -0.09144752 -0.076834716 -0.011947699 -0.023540195 -0.033692643 -0.061968636
-0.08433041 -0.08585129 -0.05421683 -0.035454903 0.08025534 0.109923996 0.08590988 0.043648712
0.03282557 0.076871745 -0.06474606 -0.07921597 -0.048603393 0.21496332 0.02950797 0.02077636
-0.032914296 -0.007230413 0.063148454 0.021924378 -0.014975843 -0.057908047 -0.08919298 -0.025033768
0.0007784338 0.078513086 0.078629695 0.026421998 0.04106325 0.088787496 0.0835703 0.0293947
-0.104555264 0.0021876504 0.025293872 -0.12741686 0.031950943 -0.022797817 -0.04727654 -0.0551778
0.07750085 0.05585941 -0.04532167 -0.12647441 -0.025468513 0.003639846 0.05828113 0.072804
00000000: 8d95 cfbd 8885 afbd 8ebe 84bd 020b 103d
00000010: 74bb a33d 9a40 513d 08fa 9ebc e5e0 54bd
00000020: c681 ddba f98c 95bd 0ee6 24bd 7901 e4bc
00000030: 5d50 5b3c 4230 313d 162f f93c 86cc 33bb
00000040: 72c7 133d 396c af3d 2107 5d3d 39cf 373d
00000050: dd97 9d3d 64f7 67bd 38a3 39bd b206 753c
00000060: f54e a83c 5599 873c f400 6fbd 3155 2abd
00000070: d6ca f0bb 957c 043d 1dfa 1c3d da8e 753d
00000080: d6f1 98bc 8a77 253d 28ad 5b3d 6bad 28bd
00000090: 21a3 6fbc 529f 233c e288 17bd a8f3 04bd
000000a0: 9c75 82bc 146f 6f3c 0c19 ddbc 2fc4 f6bd
000000b0: d287 5e3c 0a66 013e 46d2 863d 68ad 503d
000000c0: a900 fa3c bde9 c43c f03d 813d e5df 853c
000000d0: fc58 783d 19b0 43bc 04c3 ac3d 3f80 703d
000000e0: c727 9f3d 62d8 cf3d 4ee5 0d3e 1fe8 d43d
000000f0: 7674 873d e5f4 2b3d 3eeb a33c 7dd6 7bbd
00000100: 8ab3 6c3d ae97 a73d 5d6a db3d 0648 163e
00000110: ee88 2a3e ac4e ec3d b215 f83d 6824 8e3d
00000120: 66fd 2d3d 8746 3f3c b7aa 763b 625f 953d
00000130: cfb8 0e3e a12a 163e 3a4d bd3d 143b 2b3d
00000140: 200e 15bd 3cad be3b 7cc3 143d fcb1 0e3d
00000150: 9a00 f9bc 22ba bdbc 6699 133d 7360 b53c
00000160: c646 64bb 1e73 e63b 5610 dfb9 1978 b0bc
00000170: 2a38 143d e46b e23c 68ec e0bc 2ad9 bdbd
00000180: a036 a23c 8838 0d3d 4918 9a3c fef6 13bd
00000190: 1c88 ddbd 8625 f1bd d5ec 6cbd 44c6 d9bd
000001a0: aaa0 3bbd 324a 28bc 8f42 223d afd7 4c3d
000001b0: 94dc c33d bc8e 73bd 5f35 3dbd d467 bc3d
000001c0: a79f 92bd 239d 00bd c287 093e 409d d8bc
000001d0: feff 4bbd 4d81 cabc 3d16 9a3c 2737 b23d
000001e0: 0ea5 583e 8643 35bd 5a82 68bb b07f 1f3e
000001f0: 47f3 ed3d fe5f 98bc 0dc0 8f3d 5b54 d53c
00000200: 1edb 803d 8cb7 9dbb ba28 8c3d a54a 033e
00000210: b285 1c3e cf84 a53b b281 39bd fbc3 9bbc
00000220: 2adc 6f3d ed33 f8bd 0cf0 2fbe 54e1 cc3d
00000230: 6eb5 a43d 62b7 393e 3573 943d d088 5f3c
00000240: a852 503e 4d75 a53d b821 b53d 46ae 143d
00000250: 71fd 983d 337b aebb 776f 983c 5114 103e
00000260: cefb da3d e03f dd3d 8aeb 9b3c 200e 4bbd
00000270: c06b 52bc 9458 373d 0d48 8d3d d029 26be
00000280: 8894 e7bb 4027 dc3d a1c7 d53d f88d b13d
00000290: 5596 ca3d 50b6 a93d be78 38bc 35fa 543e
000002a0: da81 61bc 2d8a c43c c9f8 e3bc 60cf d0bb
000002b0: 5399 003d fffa 933d 5aae a13d 8c51 033d
000002c0: 57bc 0ebd f70a 4cbd 0f69 083e 5362 893e
000002d0: 6e8f 60be c0c1 fabc d769 953d 0476 8b3d
000002e0: 2e20 77bc 36a3 3b3d 6a1b 7cbc 9d22 a9bd
000002f0: cbb8 a7bd 39d6 dbbd 00a9 10bd a603 c13c
00000300: 6785 0dbb d1ab 123d 1b49 873c ac54 073d
00000310: 9c8b 8ebc cb97 0e3d 2ec4 24bd b677 41be
00000320: 0e40 1c3e 936b 423c d648 bbbd 855b 9dbd
00000330: 48c0 43bc 5ed7 c0bc 4c01 0abd d3d2 7dbd
00000340: 6cb5 acbd cdd2 afbd 7712 5ebd 2939 11bd
00000350: e95c a43d d51f e13d 85f1 af3d fec8 323d
00000360: 1b74 063d ef6e 9d3d 9599 84bd fc3b a2bd
00000370: 5a14 47bd 581f 5c3e b3ba f13c 2f33 aa3c
00000380: 24d1 06bd 1aed ecbb fa53 813d c19a b33c
00000390: 3d5d 75bc fd30 6dbd cfaa b6bd 9e13 cdbc
000003a0: cf0f 4c3a 78cb a03d 9b08 a13d f272 d83c
000003b0: f031 283d 38d6 b53d e826 ab3d 27cd f03c
000003c0: 1221 d6bd af5e 0f3b 1835 cf3c 9179 02be
000003d0: fede 023d 7dc2 babc 0ca5 41bd 1e02 62bd
000003e0: c4b8 9e3d d6cc 643d 37a3 39bd 8282 01be
000003f0: 58a3 d0bc 7c8a 6e3b 32b8 6e3d 431a 953d

sep_conn.bias f4 [75]
0.032513145 0.16112381 -0.31991157 -0.46008712 0.25881338 0.13583598 -0.0013684884 -0.48184618
0.036429435 -0.29903176 -0.024756767 -0.12818365 0.13569765 -0.17728747 -0.07994543 -0.21609473
0.1059644 0.0713005 0.1680723 -0.22403036 0.13297328 0.21174835 -0.13779047 -0.25927618
-0.3167601 0.030425493 -0.057671387 0.20854451 0.1611447 -0.3003301 0.13607922 -0.004260389
0.04825962 0.11554924 -0.04914473 0.08089511 -0.075358555 -0.30854714 -0.17863671 0.31291288
-0.050760053 -0.15086555 -0.046168253 0.21111798 -0.103154734 0.29387778 -0.20904325 0.18754391
-0.059187837 0.3485272 -0.03873981 -0.17958106 -0.32245776 0.17318057 0.052966077 -0.031219073
-0.27479315 -0.19967473 0.16274692 -0.22785337 -0.37190768 0.057694864 -0.0030209413 -0.20591658
0.1530152 0.25993586 0.16132885 0.29392445 0.21097276 0.42990038 0.35394278 -0.2907329
0.074367665 -0.09982475 0.15251404
00000000: 812c 053d a4fd 243e 73cb a3be 8a90 ebbe
00000010: 3083 843e 9618 0b3e da5e b3ba 8bb4 f6be
00000020: 0837 153d b11a 99be b4ce cabc 9342 03be
00000030: 53f4 0a3e d98a 35be 6eba a3bd f047 5dbe
00000040: dd03 d93d ff05 923d 251b 2c3e 3768 65be
00000050: 262a 083e 8fd4 583e f218 0dbe d9bf 84be
00000060: 612e a2be e23e f93c d538 6cbd b18c 553e
00000070: 1e03 253e dec4 99be 5a58 0b3e bc9a 8bbb
00000080: e1ab 453d 14a5 ec3d fc4b 49bd 56ac a53d
00000090: 9655 9abd e4f9 9dbe 8bec 36be 1e36 a03e
000000a0: c6e9 4fbd 807c 1abe ec1a 3dbd 502f 583e
000000b0: ca42 d3bd 2677 963e 6f0f 56be 830b 403e
000000c0: f26e 72bd 2872 b23e a3ad 1ebd 19e4 37be
000000d0: 2f19 a5be 3f56 313e f5f2 583d 24bf ffbc
000000e0: b0b1 8cbe 8877 4cbe 21a7 263e 6552 69be
000000f0: af6a bebe 7351 6c3d fcfa 45bb ccdb 52be
00000100: 04b0 1c3e 5016 853e 6433 253e 447d 963e
00000110: 3e09 583e e71b dc3e fd37 b53e f1da 94be
00000120: 134e 983d eb70 ccbd a42c 1c3e

bn.weight f4 [75]
1.0 1.0 1.0 1.0 1.0 1.0 1.0 1.0
1.0 1.0 1.0 1.0 1.0 1.0 1.0 1.0
1.0 1.0 1.0 1.0 1.0 1.0 1.0 1.0
1.0 1.0 1.0 1.0 1.0 1.0 1.0 1.0
1.0 1.0 1.0 1.0 1.0 1.0 1.0 1.0
1.0 1.0 1.0 1.0 1.0 1.0 1.0 1.0
1.0 1.0 1.0 1.0 1.0 1.0 1.0 1.0
1.0 1.0 1.0 1.0 1.0 1.0 1.0 1.0
1.0 1.0 1.0 1.0 1.0 1.0 1.0 1.0
1.0 1.0 1.0
00000000: 0000 803f 0000 803f 0000 803f 0000 803f
00000010: 0000 803f 0000 803f 0000 803f 0000 803f
00000020: 0000 803f 0000 803f 0000 803f 0000 803f
00000030: 0000 803f 0000 803f 0000 803f 0000 803f
00000040: 0000 803f 0000 803f 0000 803f 0000 803f
00000050: 0000 803f 0000 803f 0000 803f 0000 803f
00000060: 0000 803f 0000 803f 0000 803f 0000 803f
00000070: 0000 803f 0000 803f 0000 803f 0000 803f
00000080: 0000 803f 0000 803f 0000 803f 0000 803f
00000090: 0000 803f 0000 803f 0000 803f 0000 803f
000000a0: 0000 803f 0000 803f 0000 803f 0000 803f
000000b0: 0000 803f 0000 803f 0000 803f 0000 803f
000000c0: 0000 803f 0000 803f 0000 803f 0000 803f
000000d0: 0000 803f 0000 803f 0000 803f 0000 803f
000000e0: 0000 803f 0000 803f 0000 803f 0000 803f
000000f0: 0000 803f 0000 803f 0000 803f 0000 803f
00000100: 0000 803f 0000 803f 0000 803f 0000 803f
00000110: 0000 803f 0000 803f 0000 803f 0000 803f
00000120: 0000 803f 0000 803f 0000 803f

bn.bias f4 [75]
0.0 0.0 0.0 0.0 0.0 0.0 0.0 0.0
0.0 0.0 0.0 0.0 0.0 0.0 0.0 0.0
0.0 0.0 0.0 0.0 0.0 0.0 0.0 0.0
0.0 0.0 0.0 0.0 0.0 0.0 0.0 0.0
0.0 0.0 0.0 0.0 0.0 0.0 0.0 0.0
0.0 0.0 0.0 0.0 0.0 0.0 0.0 0.0
0.0 0.0 0.0 0.0 0.0 0.0 0.0 0.0
0.0 0.0 0.0 0.0 0.0 0.0 0.0 0.0
0.0 0.0 0.0 0.0 0.0 0.0 0.0 0.0
0.0 0.0 0.0
00000000: 0000 0000 0000 0000 0000 0000 0000 0000
00000010: 0000 0000 0000 0000 0000 0000 0000 0000
00000020: 0000 0000 0000 0000 0000 0000 0000 0000
00000030: 0000 0000 0000 0000 0000 0000 0000 0000
00000040: 0000 0000 0000 0000 0000 0000 0000 0000
00000050: 0000 0000 0000 0000 0000 0000 0000 0000
00000060: 0000 0000 0000 0000 0000 0000 0000 0000
00000070: 0000 0000 0000 0000 0000 0000 0000 0000
00000080: 0000 0000 0000 0000 0000 0000 0000 0000
00000090: 0000 0000 0000 0000 0000 0000 0000 0000
000000a0: 0000 0000 0000 0000 0000 0000 0000 0000
000000b0: 0000 0000 0000 0000 0000 0000 0000 0000
000000c0: 0000 0000 0000 0000 0000 0000 0000 0000
000000d0: 0000 0000 0000 0000 0000 0000 0000 0000
000000e0: 0000 0000 0000 0000 0000 0000 0000 0000
000000f0: 0000 0000 0000 0000 0000 0000 0000 0000
00000100: 0000 0000 0000 0000 0000 0000 0000 0000
00000110: 0000 0000 0000 0000 0000 0000 0000 0000
00000120: 0000 0000 0000 0000 0000 0000

bn.running_mean f4 [75]
0.0 0.0 0.0 0.0 0.0 0.0 0.0 0.0
0.0 0.0 0.0 0.0 0.0 0.0 0.0 0.0
0.0 0.0 0.0 0.0 0.0 0.0 0.0 0.0
0.0 0.0 0.0 0.0 0.0 0.0 0.0 0.0
0.0 0.0 0.0 0.0 0.0 0.0 0.0 0.0
0.0 0.0 0.0 0.0 0.0 0.0 0.0 0.0
0.0 0.0 0.0 0.0 0.0 0.0 0.0 0.0
0.0 0.0 0.0 0.0 0.0 0.0 0.0 0.0
0.0 0.0 0.0 0.0 0.0 0.0 0.0 0.0
0.0 0.0 0.0
00000000: 0000 0000 0000 0000 0000 0000 0000 0000
00000010: 0000 0000 0000 0000 0000 0000 0000 0000
00000020: 0000 0000 0000 0000 0000 0000 0000 0000
00000030: 0000 0000 0000 0000 0000 0000 0000 0000
00000040: 0000 0000 0000 0000 0000 0000 0000 0000
00000050: 0000 0000 0000 0000 0000 0000 0000 0000
00000060: 0000 0000 0000 0000 0000 0000 0000 0000
00000070: 0000 0000 0000 0000 0000 0000 0000 0000
00000080: 0000 0000 0000 0000 0000 0000 0000 0000
00000090: 0000 0000 0000 0000 0000 0000 0000 0000
000000a0: 0000 0000 0000 0000 0000 0000 0000 0000
000000b0: 0000 0000 0000 0000 0000 0000 0000 0000
000000c0: 0000 0000 0000 0000 0000 0000 0000 0000
000000d0: 0000 0000 0000 0000 0000 0000 0000 0000
000000e0: 0000 0000 0000 0000 0000 0000 0000 0000
000000f0: 0000 0000 0000 0000 0000 0000 0000 0000
00000100: 0000 0000 0000 0000 0000 0000 0000 0000
00000110: 0000 0000 0000 0000 0000 0000 0000 0000
00000120: 0000 0000 0000 0000 0000 0000

bn.running_var f4 [75]
1.0 1.0 1.0 1.0 1.0 1.0 1.0 1.0
1.0 1.0 1.0 1.0 1.0 1.0 1.0 1.0
1.0 1.0 1.0 1.0 1.0 1.0 1.0 1.0
1.0 1.0 1.0 1.0 1.0 1.0 1.0 1.0
1.0 1.0 1.0 1.0 1.0 1.0 1.0 1.0
1.0 1.0 1.0 1.0 1.0 1.0 1.0 1.0
1.0 1.0 1.0 1.0 1.0 1.0 1.0 1.0
1.0 1.0 1.0 1.0 1.0 1.0 1.0 1.0
1.0 1.0 1.0 1.0 1.0 1.0 1.0 1.0
1.0 1.0 1.0
00000000: 0000 803f 0000 803f 0000 803f 0000 803f
00000010: 0000 803f 0000 803f 0000 803f 0000 803f
00000020: 0000 803f 0000 803f 0000 803f 0000 803f
00000030: 0000 803f 0000 803f 0000 803f 0000 803f
00000040: 0000 803f 0000 803f 0000 803f 0000 803f
00000050: 0000 803f 0000 803f 0000 803f 0000 803f
00000060: 0000 803f 0000 803f 0000 803f 0000 803f
00000070: 0000 803f 0000 803f 0000 803f 0000 803f
00000080: 0000 803f 0000 803f 0000 803f 0000 803f
00000090: 0000 803f 0000 803f 0000 803f 0000 803f
000000a0: 0000 803f 0000 803f 0000 803f 0000 803f
000000b0: 0000 803f 0000 803f 0000 803f 0000 803f
000000c0: 0000 803f 0000 803f 0000 803f 0000 803f
000000d0: 0000 803f 0000 803f 0000 803f 0000 803f
000000e0: 0000 803f 0000 803f 0000 803f 0000 803f
000000f0: 0000 803f 0000 803f 0000 803f 0000 803f
00000100: 0000 803f 0000 803f 0000 803f 0000 803f
00000110: 0000 803f 0000 803f 0000 803f 0000 803f
00000120: 0000 803f 0000 803f 0000 803f

net.0.weight f4 [75, 504]
0.0157391 -0.021338787 -0.018569339 -0.017820405 -0.017424777 0.0043457067 0.0031065033 -0.0005719864
-0.017671138 -0.021904582 -0.019077102 -0.010994672 -0.03484422 -0.038768686 -0.03889817 -0.05835475
-0.05601856 -0.07549275 -0.045764815 -0.036590878 -0.034382697 -0.004226562 -0.020517526 -0.028863342
-0.00071681594 0.018796174 0.016750446 0.016311213 0.011045021 -0.010143833 0.005968378 -0.021651134
-0.011029178 -0.02854921 -0.044508107 -0.009803886 -0.009209365 0.00097429816 -0.005290799 -0.02710487
-0.043407287 -0.045849204 0.0015259112 -0.006617839 -0.021526739 -0.00429035 -0.012205196 0.0019301206
0.015027077 0.010129247 0.007091656 0.0037576447 -0.02332081 -0.02088261 -0.0070365975 0.02636558
0.019404843 -0.0011843239 0.017411694 0.022559587 0.037771083 0.049862236 -0.012429904 0.020993413
0.030858425 0.029827122 -0.0077997027 -0.016287481 -0.017456595 -0.0075887507 0.0058448887 0.028001068
0.002943431 -0.031240659 -0.037900638 -0.010385901 -0.011797208 0.016683578 0.008657558 0.018073855
0.056497592 0.03892762 0.027309773 0.13443516 0.0073510245 0.034457464 0.021581752 0.011940559
0.017919267 0.014961391 -0.0027574308 0.0017094543 0.029573977 0.030076653 0.013884787 -0.0033303883
0.00065720594 0.047117636 0.032319568 0.022445766 0.06622309 0.09023009 0.024417996 7.5132175e-06
0.025308296 0.012940503 0.017726352 0.005505901 0.012659718 0.05709452 0.09306448 0.02855597
0.01350428 -0.00888865 -0.008907281 0.022838682 0.017466435 0.042868555 0.06280784 -0.0030080904
0.027537165 0.08679887 0.0747187 0.03459403 0.025059419 -0.022377403 -0.019324107 -0.015279315
-0.0075447178 -0.023671873 -0.009297168 0.027287317 -0.004983472 0.023360498 0.0065121036 0.004182991
0.009171425 0.029480474 0.08470277 0.025589246 -0.01269014 -0.001438473 0.019417293 0.04480949
-0.1790062 0.022522524 0.02785863 -0.008440707 -0.014209378 -0.057354525 -0.035311293 -0.0064032464
-0.0037815135 0.010263031 0.040988773 0.020052494 0.031861752 0.039023962 -0.053967897 0.025347117
0.0014607211 -0.027634138 0.023373947 0.0067868195 0.04724177 -0.028044581 0.005399363 0.0776707
0.01394218 0.018335456 -0.020966621 0.008800288 0.015712943 0.020384803 0.019484244 0.021558944
0.021381244 -0.011225513 0.0149405375 -0.091883175 0.07772385 -0.043849405 -0.03177007 0.0074529857
0.049772035 0.028393114 -0.026786067 0.0874511 0.093717225 0.04731095 0.027437275 0.018913139
-0.021608457 -0.03368041 -0.016340572 0.0030478188 0.0063501718 0.005723541 0.007328936 0.014260766
-0.054264974 -0.006193004 0.04612598 -0.013793476 -0.02882701 0.0063082958 0.015567444 0.051422305
0.08285887 0.059186727 0.029469987 0.019480715 0.0072724572 -0.0061322907 -0.0099823065 -0.004499826
0.015755087 -0.0016892286 0.018664176 0.0018703125 -0.0017171686 0.059545282 0.011764237 0.037929
0.028637987 -0.050000582 -0.052534804 -0.009891115 0.07441004 0.060217377 -0.0029024181 0.016169716
-0.0047276584 -0.024823079 -0.019735515 -0.0056392974 0.0017226127 0.017639056 0.03890232 -0.009996594
-0.017870592 -0.0070975493 0.05381438 0.054641336 -0.008399285 0.019627478 0.046643227 0.008097195
-0.003816939 -0.010460872 -0.002428741 -0.007975114 0.007973701 -0.003146622 -0.028835546 -0.025284117
00000000: 49ef 803c aece aebc ba1e 98bc 19fc 91bc
00000010: 68be 8ebc 6e66 8e3b 7a96 4b3b 5cf1 15ba
00000020: 10c3 90bc 3d71 b3bc 9547 9cbc ff22 34bc
00000030: d0b8 0ebd eacb 1ebd b053 1fbd 6405 6fbd
00000040: b873 65bd f19b 9abd e373 3bbd 51e0 15bd
00000050: dfd4 0cbd f97e 8abb 5f14 a8bc d172 ecbc
00000060: b4e8 3bba 6ffa 993c 3b38 893c 189f 853c
00000070: 2df6 343c 5232 26bc 6292 c33b b85d b1bc
00000080: bab3 34bc 08e0 e9bc 224e 36bd 7aa0 20bc
00000090: e0e2 16bc 0b68 7f3a 705e adbb 080b debc
000000a0: d7cb 31bd 60cc 3bbd 1501 c83a 75da d8bb
000000b0: d858 b0bc 1096 8cbb 4df8 47bc 1afc fc3a
000000c0: 2134 763c 24f5 253c 1f61 e83b d142 763b
000000d0: 490b bfbc 0212 abbc 4293 e6bb a1fc d73c
000000e0: e8f6 9e3c 513b 9bba f8a2 8e3c e2ce b83c
000000f0: dab5 1a3d 583c 4c3d cca6 4bbc 61fa ab3c
00000100: cfca fc3c 0258 f43c a694 ffbb 536d 85bc
00000110: 2201 8fbc 0eab f8bb 7b86 bf3b 7f62 e53c
00000120: 94e6 403b 69ec ffbc b33d 1bbd a029 2abc
00000130: 1449 41bc 00ac 883c 6ed8 0d3c 9f0f 943c
00000140: 056a 673d 9172 1f3d bfb8 df3c 5fa9 093e
00000150: dde0 f03b 4523 0d3d 37cc b03c 56a2 433c
00000160: 6dcb 923c 9f20 753c 03b6 34bb c50f e03a
00000170: 2045 f23c 5063 f63c 057d 633c a542 5abb
00000180: 5848 2c3a 6cfe 403d 8661 043d 2fe0 b73c
00000190: f99f 873d 8eca b83d 4008 c83c 0c1a fc36
000001a0: 5853 cf3c 6704 543c db36 913c d86a b43b
000001b0: b56a 4f3c f2db 693d 9798 be3d 36ee e93c
000001c0: 0e41 5d3c b3a1 11bc d8ef 11bc 3018 bb3c
000001d0: c515 8f3c f096 2f3d 66a1 803d 6223 45bb
000001e0: 9f95 e13c 9bc3 b13d 1e06 993d 78b2 0d3d
000001f0: 6949 cd3c d150 b7bc 974d 9ebc 1856 7abc
00000200: ae39 f7bb 84eb c1bc 2653 18bc a789 df3c
00000210: 654c a3bb 845e bf3c 7c63 d53b 7911 893b
00000220: bf43 163c 0981 f13c a578 ad3d 8aa0 d13c
00000230: 4eea 4fbc 258b bcba 0411 9f3c 288a 373d
00000240: 674d 37be 2881 b83c c837 e43c e44a 0abc
00000250: 73ce 68bc 94ec 6abd 93a2 10bd 53d2 d1bb
00000260: 45d3 77bb 4626 283c d8e3 273d 2145 a43c
00000270: 7881 023d 97d7 1f3d 710d 5dbd c2a4 cf3c
00000280: ab75 bf3a fd60 e2bc b87a bf3c f863 de3b
00000290: 9680 413d c0bd e5bc 24ed b03b d111 9f3d
000002a0: be6d 643c 3d34 963c 31c2 abbc 152f 103c
000002b0: 6eb8 803c 08fe a63c 6c9d 9f3c 629c b03c
000002c0: b827 af3c 37eb 37bc 28c9 743c 3f2d bcbd
000002d0: af2d 9f3d 6f9b 33bd 5521 02bd 2d38 f43b
000002e0: c3dd 4b3d ad98 e83c 746e dbbc 9019 b33d
000002f0: d1ee bf3d 20c9 413d 23c4 e03c baef 9a3c
00000300: 3804 b1bc 78f4 09bd aadc 85bc eabd 473b
00000310: 1a15 d03b 8b8c bb3b 9227 f03b fda5 693c
00000320: f344 5ebd afee cabb 98ee 3c3d 08fe 61bc
00000330: 9f26 ecbc d2b5 ce3b 980e 7f3c 32a0 523d
00000340: e9b1 a93d c86d 723d 0b6b f13c 0596 9f3c
00000350: cb4d ee3b 62f1 c8bb d48c 23bc 4773 93bb
00000360: d010 813c 1b69 ddba 9de5 983c 4625 f53a
00000370: 9e12 e1ba c1e5 733d c9be 403c 705b 1b3d
00000380: 369a ea3c 69cd 4cbd bc2e 57bd 580e 22bc
00000390: 4b64 983d 7fa6 763d 7f36 3ebb 5a76 843c
000003a0: 79ea 9abb c559 cbbc 60ac a1bc dbc9 b8bb
000003b0: 4ac9 e13a c87f 903c 0a58 1f3d c1c8 23bc
000003c0: 5965 92bc 8f92 e8bb 786c 5c3d 98cf 5f3d
000003d0: 289d 09bc cec9 a03c f80c 3f3d 19aa 043c
000003e0: 9c25 7abb 1464 2bbc 832b 1fbb 0daa 02bc
000003f0: 20a4 023c 8f37 4ebb 8638 ecbc a320 cfbc

net.0.bias f4 [75]
-0.007083874 0.026268372 0.0069102035 0.07107384 0.1078826 -0.101721674 0.20939389 -0.006349353
0.09794966 0.053966973 0.08919624 7.779691e-05 0.122598164 0.10186591 0.25113755 0.008130096
0.00079949904 0.12898731 -0.007041432 0.13575305 0.020526694 0.32942158 -0.026324093 0.07973427
0.15523195 -0.01119696 0.018911786 -0.04571788 0.24359363 -0.01302687 0.012118141 0.09126562
0.17825839 0.11284465 0.22218572 0.0010820453 -0.102547236 0.06644156 0.23406886 0.25642547
0.2530509 0.0816629 0.14743783 0.08621651 -0.021870747 0.04334034 0.077703334 0.10199373
0.2125884 0.15875822 0.108560234 0.12575926 -0.005996103 0.056773152 0.12401422 0.15606122
0.067506075 0.06639422 -0.06243259 0.22297055 0.09404603 0.19489995 0.027495738 0.10437681
0.033503674 0.032008473 0.19240625 0.07232578 0.19357482 0.022570169 0.13409325 -0.04011692
0.002580608 0.2040359 0.104772754
00000000: d81f e8bb c530 d73c fd6e e23b 298f 913d
00000010: 8df1 dc3d 7453 d0bd 5a6b 563e 3c0e d0bb
00000020: d599 c83d 790c 5d3d 85ac b63d e626 a338
00000030: bf14 fb3d 139f d03d 1a95 803e 1834 053c
00000040: 7995 513a 4015 043e d0bb e6bb d902 0b3e
00000050: 9927 a83c f2a9 a83e a0a5 d7bc b94b a33d
00000060: 20f5 1e3e 7473 37bc e4ec 9a3c ac42 3bbd
00000070: 9c70 793e a76e 55bc 2b8b 463c 78e9 ba3d
00000080: 5e89 363e 191b e73d a784 633e 6ad3 8d3a
00000090: 4904 d2bd 8312 883d bfaf 6f3e 334a 833e
000000a0: e38f 813e e13e a73d f1f9 163e 4892 b03d
000000b0: 482a b3bc a485 313d ed22 9f3d 17e2 d03d
000000c0: c6b0 593e 8491 223e d454 de3d 09c7 003e
000000d0: f57a c4bb f78a 683d 2bfb fd3d 83ce 1f3e
000000e0: a040 8a3d b1f9 873d 51b9 7fbd 6452 643e
000000f0: 349b c03d da93 473e be3e e13c 82c3 d53d
00000100: 263b 093d 511b 033d 2506 453e 8a1f 943d
00000110: 7a38 463e 13e5 b83c be4f 093e a451 24bd
00000120: 6b1f 293b c9ee 503e 1993 d63d
