bestclf/bestclf_adult_n02.pth (torch, 71230 bytes, 15 tensors)

fc1.weight f4 [64, 95]
0.05491615 0.012568779 0.0826036 0.10693907 0.06775322 0.048240382 -0.030692747 -0.049085476
-0.01765464 0.020000052 -0.025105398 -0.03773661 0.032860547 -0.0107178865 -0.0045923144 -0.01908825
-0.06050601 -0.019890726 -0.03869443 0.00032012395 -0.0042378884 0.067648776 0.072676465 0.005264354
-0.006261042 0.079101615 0.023401901 0.01288497 0.044688493 -0.01223311 0.008580193 -0.036916777
-0.058766074 0.03331263 -0.018279009 -0.0077713896 -0.059549868 -0.037622664 -0.021830443 -0.07920111
-0.012284911 0.07776529 0.043323334 -0.032544278 0.033418737 -0.03825373 -0.019500101 -0.060320534
-0.08177598 -0.056835644 0.043786846 0.026835501 0.018772691 -0.051650684 0.009876163 0.012026147
-0.017164025 -0.011670654 -0.0037858128 0.0055485135 -0.028341265 -0.0058670016 0.028753081 0.012453124
0.03161226 -0.031404514 -0.012197303 -0.0034935316 -0.00017647145 0.00061030756 0.0075967745 -0.036465533
0.009020505 0.020665275 0.0058592977 0.027298661 0.010839179 0.0153029235 -0.010282702 -0.007508191
0.0043655806 -0.014167168 0.0069889994 0.04558993 -0.000662608 -0.013315146 0.0063996855 -0.016780682
-0.011295867 0.0074736746 -0.014038507 -0.02037082 -0.012311123 -0.026465721 0.008469924 0.03508401
-0.016813533 -0.016126588 -0.12416362 -0.022843149 0.011233281 0.061335865 -0.01981459 0.0054659145
0.04704932 0.03321697 0.024338733 0.017116042 0.0091854315 0.019308913 -0.008085914 0.02224768
-0.018859968 0.026159223 0.011679744 0.026248923 -0.06718393 -0.040808417 0.03226067 -0.004255562
-0.058843054 -0.031212838 -0.019921672 -0.07610641 -0.008586583 -0.042427577 -0.00020270962 0.004598444
-0.013567977 0.006808616 -0.044333518 0.02922581 0.036442384 0.053448625 0.0740164 -0.0065897643
-0.016944299 -0.11242031 -0.04221598 -0.00033866114 0.013774421 0.056151327 0.08304061 0.0552928
0.031153217 -0.01409063 -0.0022519385 0.019207474 -0.022330798 -0.007493455 -0.0041798605 0.0068837996
-0.0051065036 0.018022489 0.015744511 -0.009538137 -0.00018421093 0.009913761 0.0025142918 0.008461492
0.020130603 -0.01710521 -0.0062783817 0.0012143028 0.0021132934 0.0065836804 -0.0035732305 0.01867311
0.0071265227 0.007047737 4.954025e-05 -0.011802362 -0.009851613 -0.00017275868 -0.011922074 0.0022143677
0.0070737186 -0.010654716 0.0285041 0.016561698 -0.0049693296 -0.007834659 0.0025275804 0.01581087
0.0051196534 0.023935445 0.003064431 0.05838682 0.013012979 -0.0058484245 -0.02040344 0.049130525
0.035426717 -0.07589622 0.009373986 -0.04610707 0.030944219 -0.05495397 0.06731702 -0.061785232
0.102972865 0.0068518585 -0.059151735 0.07032464 0.022620616 0.032203306 -0.020742672 0.0012977149
-0.024040746 -0.05275208 0.09931646 -0.10731931 -0.0033503026 0.07948937 0.01576043 0.0010412199
0.021947034 -0.022665292 -0.052889667 0.029093068 0.08241816 -0.03923303 -0.07046282 -0.02365419
0.06429016 -0.07593697 0.056587696 0.037465975 0.012222431 -0.077478856 0.03553529 -0.026556
-0.08111174 -0.098905526 0.05020509 -0.01069688 0.021599099 0.051075976 0.050627436 0.049171973
-0.07499036 0.023378983 0.031686287 -0.0069708424 0.038092565 0.032134917 0.0076013734 0.023413727
0.02866359 0.005934399 0.0059763435 0.00983479 -0.024760969 0.0078681605 0.05294888 0.012578347
00000000: c2ef 603d 48ed 4d3c 142c a93d df02 db3d
00000010: 33c2 8a3d b597 453d 5b6f fbbc da0d 49bd
00000020: 77a0 90bc 26d7 a33c d6a9 cdbc b491 1abd
00000030: c898 063d 139a 2fbc 207b 96bb f65e 9cbc
00000040: 26d5 77bd e0f1 a2bc 0d7e 1ebd 4fd6 a739
00000050: fcdd 8abb 718b 8a3d 66d7 943d 9a80 ac3b
00000060: 6d29 cdbb 0700 a23d 58b5 bf3c 7b1b 533c
00000070: 480b 373d 626d 48bc f093 0c3c 0c36 17bd
00000080: b2b4 70bd d372 083d dcbd 95bc 24a7 febb
00000090: 90ea 73bd 391a 1abd c2d5 b2bc 3134 a2bd
000000a0: a746 49bc 6943 9f3d cf73 313d 264d 05bd
000000b0: 16e2 083d f1af 1cbd adbe 9fbc aa12 77bd
000000c0: 2a7a a7bd 7ecc 68bd d659 333d 20d6 db3c
000000d0: 30c9 993c ab8f 53bd a1cf 213c 5109 453c
000000e0: 929b 8cbc 4536 3fbc 661b 78bb 4ed0 b53b
000000f0: f12b e8bc fa3f c0bb 958b eb3c 3008 4c3c
00000100: db7b 013d 05a2 00bd 32d7 47bc bcf3 64bb
00000110: 320b 39b9 0cfd 1f3a 5dee f83b e25c 15bd
00000120: bdca 133c 394a a93c 5aff bf3b 71a1 df3c
00000130: d096 313c 1db9 7a3c c778 28bc 4507 f6bb
00000140: 250d 8f3b 691d 68bc fa03 e53b 82bc 3a3d
00000150: dfb2 2dba c527 5abc 74b4 d13b a477 89bc
00000160: 4d12 39bc bae5 f43b c401 66bc b5e0 a6bc
00000170: 98b4 49bc a4ce d8bc 70c5 0a3c 40b4 0f3d
00000180: 89bc 89bc e81b 84bc 7f49 febd 8e21 bbbc
00000190: cc0b 383c 513b 7b3d 3552 a2bc 6a1b b33b
000001a0: cab6 403d 840e 083d 0662 c73c f136 8c3c
000001b0: 7e7e 163c ba2d 9e3c c87a 04bc c440 b63c
000001c0: 3880 9abc de4b d63c 665c 3f3c fb07 d73c
000001d0: ba97 89bd ba26 27bd c423 043d 3e72 8bbb
000001e0: 6a05 71bd 11b2 ffbc c632 a3bc addd 9bbd
000001f0: bdae 0cbc 8ac8 2dbd 738e 54b9 8bae 963b
00000200: 384c 5ebc d01a df3b 1097 35bd f76a ef3c
00000210: 9c44 153d f2ec 5a3d e995 973d f3ee d7bb
00000220: c5ce 8abc 9f3c e6bd aaea 2cbd 548e b1b9
00000230: 1cae 613c effe 653d 3211 aa3d b47a 623d
00000240: 0835 ff3c 63dc 66bc 4295 13bb fe58 9d3c
00000250: 14ef b6bc a88b f5bb 36f7 88bb 7f91 e13b
00000260: 7554 a7bb e6a3 933c a2fa 803c d945 1cbc
00000270: bf28 41b9 546d 223c d1c6 243b 12a2 0a3c
00000280: efe8 a43c 3a20 8cbc e2ba cdbb 3e29 9f3a
00000290: 2e7f 0a3b eabb d73b dc2c 6abb 5af8 983c
000002a0: 9b85 e93b b4f0 e63b 70c9 4f38 b25e 41bc
000002b0: a968 21bc 8e26 35b9 cd54 43bc ed1e 113b
000002c0: a7ca e73b 1e91 2ebc 6e81 e93c 66ac 873c
000002d0: c2d5 a2bb f15c 00bc c3a5 253b cc85 813c
000002e0: c4c2 a73b 4414 c43c 9fd4 483b 0527 6f3d
000002f0: 6434 553c 24a4 bfbb 1d25 a7bc 173d 493d
00000300: 9b1b 113d 7a6f 9bbd 5995 193c c4da 3cbd
00000310: bb7e fd3c 6a17 61bd 81dd 893d 8312 7dbd
00000320: 70e3 d23d 8e85 e03b 1749 72bd 5d06 903d
00000330: df4e b93c 9de7 033d 89ec a9bc 1618 aa3a
00000340: 19f1 c4bc 9112 58bd 6e66 cb3d 3aca dbbd
00000350: c090 5bbb 53cb a23d 041c 813c 8b79 883a
00000360: 44ca b33c 90ac b9bc d6a2 58bd 9654 ee3c
00000370: daca a83d d0b2 20bd d04e 90bd 6fc6 c1bc
00000380: 8faa 833d d884 9bbd 80c8 673d ec75 193d
00000390: 9740 483c 3cad 9ebd 748d 113d f88b d9bc
000003a0: e91d a6bd fb8e cabd daa3 4d3d f741 2fbc
000003b0: 98f0 b03c 0b35 513d b75e 4f3d 8d68 493d
000003c0: 8c94 99bd 4885 bf3c 7bc9 013d aa6b e4bb
000003d0: f306 1c3d e79f 033d f114 f93b 25ce bf3c
000003e0: e8cf ea3c 5975 c23b 34d5 c33b 1922 213c
000003f0: 84d7 cabc 75e9 003c ede0 583d 6915 4e3c

fc1.bias f4 [64]
-0.048692565 0.06593038 0.0093096355 0.038363885 -0.029841814 -0.06767115 -0.10562119 -0.015249565
-0.0059644287 0.005152474 0.021988891 0.07855548 0.09693365 0.09923637 0.106195636 0.031142488
0.024763152 0.059498366 0.07087255 -0.04786473 0.10974249 -0.119644485 0.07244435 0.07273717
0.032718718 0.0562424 -0.013586633 -0.034994125 0.034705278 -0.11012985 -0.024861999 0.018274782
0.009512606 0.06906584 -0.1039454 0.033069182 0.12328353 0.06684958 -0.030786956 0.040978476
0.08811647 -0.06828321 -0.058844056 -0.0036071013 0.06789251 0.04295029 0.06672361 0.04084135
-0.067903675 0.06737115 -0.019412607 0.046316992 -0.098664775 -0.08830901 0.112737596 0.07818442
0.08772488 0.04712235 -0.07329111 0.020823816 0.112682864 -0.0013745159 0.03604413 0.09009027
00000000: db71 47bd 8206 873d 7187 183c 7323 1d3d
00000010: d276 f4bc 2c97 8abd ec4f d8bd 50d9 79bc
00000020: 4171 c3bb 16d6 a83b 0c22 b43c b2e1 a03d
00000030: 2685 c63d 703c cb3d 197d d93d 881e ff3c
00000040: 18dc ca3c 8fb4 733d a125 913d cf0d 44bd
00000050: acc0 e03d 2b08 f5bd b45d 943d 3af7 943d
00000060: 1004 063d 6e5e 663d 789a 5ebc 0056 0fbd
00000070: 1f27 0e3d c28b e1bd 64ab cbbc ffb4 953c
00000080: c3da 1b3c 6472 8d3d 53e1 d4bd 8d73 073d
00000090: 137c fc3d 6fe8 883d ed34 fcbc 0cd9 273d
000000a0: 6876 b43d 11d8 8bbd 7706 71bd 1e65 6cbb
000000b0: 3a0b 8b3d a5ec 2f3d 63a6 883d 4249 273d
000000c0: 1511 8bbd e3f9 893d 3007 9fbc e3b6 3d3d
000000d0: c210 cabd 5bdb b4bd f8e2 e63d 271f a03d
000000e0: 1aa9 b33d 5e03 413d a619 96bd b596 aa3c
000000f0: 46c6 e63d 1a29 b4ba 02a3 133d 3f81 b83d

fc2.weight f4 [64, 64]
-0.05345746 0.025594005 0.05949662 0.04296379 -0.0013840911 -0.07433066 -0.040185668 0.043784212
-0.049209032 0.03840999 0.03289337 0.064223714 0.039114654 0.024841482 0.040760312 0.03946178
0.031297076 0.028354725 0.025959568 -0.0011066318 0.029312415 -0.050477266 0.04007738 0.019134568
0.06555619 0.034399208 -0.00038999686 0.036066927 0.032050285 -0.044899162 0.027673356 0.0016992381
0.028964417 0.038781617 -0.06112116 0.041830644 0.036674388 0.033214133 -0.047695503 0.04983366
0.050467808 -0.049774 -0.010174543 -0.0008804146 0.0275327 0.017648142 0.031813424 0.06250719
-0.05982145 0.010534353 -0.0010155272 0.024099575 -0.043911353 -0.047981676 0.026716726 0.03334219
0.037172906 0.01793383 -0.03932651 0.016534269 0.030845338 -0.053242106 0.046304412 0.030945731
-0.056378324 0.03189433 0.07438374 0.009086806 -0.0010196872 -0.054186877 -0.055664074 0.024576351
-0.04985956 0.04606666 0.031302333 0.07805325 0.035569362 0.035645407 0.03405902 0.041761663
0.05193811 0.013812808 0.000945323 -0.00050815265 0.010482016 -0.061109323 0.018760907 0.018626109
0.084529206 0.049730554 -0.00013511181 0.03837736 0.021927072 -0.051499896 0.036449917 0.02300136
0.024682058 0.041644376 -0.04746207 0.040707484 0.033272598 0.03982288 -0.053888604 0.071603216
0.035855122 -0.057441365 -0.04917013 -0.00015088882 0.018175941 0.013832156 0.027237536 0.041043125
-0.07454684 0.029336179 0.00520456 0.019162506 -0.054433923 -0.053846367 0.019753525 0.03194852
0.028805494 0.030933829 -0.055026162 0.023251384 0.022035342 -0.062419977 0.06038178 0.03456985
0.04354524 -0.037345517 -0.053648204 -0.030103235 -0.002347726 0.06406356 0.058166176 0.018956095
0.060835373 -0.024425097 -0.0050981366 -0.04532517 -0.032073863 -0.027250208 -0.03898908 -0.027143404
-0.02768411 -0.012530232 -0.0047698556 -0.0045822538 -0.021181792 0.052739754 -0.00244256 0.03772393
-0.0473165 -0.02816902 -0.00070516695 -0.03240268 0.037219517 0.038349353 -0.01700396 -0.015711429
-0.013415146 -0.03607084 0.065887 -0.03968272 -0.03260609 -0.024238892 0.05913873 -0.03925298
-0.036497887 0.04402571 0.05359453 -0.0012594349 0.041728247 0.04257055 -0.012613225 -0.0074345283
0.08816903 -0.0076872893 -0.026493955 0.038604837 0.063064285 0.057685092 -0.0248321 -0.036205724
-0.02238403 -0.021466875 0.04507737 -0.011870927 -0.025073087 0.072938606 -0.049432967 -0.046684317
0.04444052 -0.026037004 -0.022516327 -0.014409956 -0.00028380667 0.02008917 0.03765054 -0.009965835
0.046004206 -0.029368013 -0.014340558 -0.034620617 -0.030294836 0.019400075 -0.034363933 -0.0034092683
-0.005073792 0.022520589 -0.07978516 -0.0008539945 -0.06796563 0.038174998 -0.074101806 0.026994014
-0.03258436 0.024594093 -0.0004370789 -0.014673881 0.020027345 0.049510982 -0.013299121 -0.0842953
-0.021147864 -0.019305164 0.09239554 -0.0076132417 -0.032339923 -0.029687602 0.048722956 -0.01848636
-0.04091974 0.019306736 0.05180247 -0.000504682 0.032297343 0.018171154 -0.026180832 -0.030072244
0.068207845 0.052779254 -0.07530606 0.014170012 0.04352189 0.03838481 -0.040576875 -0.030184403
-0.020771354 0.018601533 0.023588078 0.027711984 -0.04801846 0.060916714 -0.03291694 -0.035695244
00000000: 36f6 5abd 85aa d13c bab2 733d cdfa 2f3d
00000010: 646a b5ba ac3a 98bd ba99 24bd 1357 333d
00000020: 698f 49bd cb53 1d3d 33bb 063d b987 833d
00000030: b036 203d 5d80 cb3c 49f4 263d ada2 213d
00000040: 5d31 003d 2b48 e83c 29a9 d43c 670c 91ba
00000050: 9720 f03c 40c1 4ebd 2e28 243d 19c0 9c3c
00000060: 5342 863d 2fe6 0c3d 7e78 ccb9 eaba 133d
00000070: 2947 033d 2fe8 37bd 3cb3 e23c f8b8 de3a
00000080: c946 ed3c 79d9 1e3d 2e5a 7abd 9c56 2b3d
00000090: e237 163d 8b0b 083d 5c5c 43bd 611e 4c3d
000000a0: 55b7 4e3d d2df 4bbd 20b3 26bc a0cb 66ba
000000b0: 428c e13c d692 903c cb4e 023d c503 803d
000000c0: 5607 75bd 4798 2c3c 701b 85ba 796c c53c
000000d0: 64dc 33bd 6f88 44bd 09dd da3c d291 083d
000000e0: 9e42 183d f8e9 923c d614 21bd e072 873c
000000f0: 5daf fc3c 6514 5abd b2a9 3d3d e781 fd3c
00000100: f5ec 66bd a1a3 023d 8156 983d d4e0 143c
00000110: 06a7 85ba 0ff3 5dbd 0300 64bd 5854 c93c
00000120: 8a39 4cbd 65b0 3c3d e036 003d 62da 9f3d
00000130: 2eb1 113d eb00 123d 7981 0b3d 470e 2b3d
00000140: 0ebd 543d 1e4f 623c 8dcf 773a 8c35 05ba
00000150: c3bc 2b3c c54d 7abd 79b0 993c c895 983c
00000160: a61d ad3d 44b2 4b3d cdac 0db9 9431 1d3d
00000170: 67a0 b33c 8ef1 52bd 824c 153d 596d bc3c
00000180: 0732 ca3c 4b93 2a3d 9667 42bd e4bc 263d
00000190: d948 083d 511d 233d 4cba 5cbd b5a4 923d
000001a0: d2dc 123d a347 6bbd 9e66 49bd e937 1eb9
000001b0: b6e5 943c 44a0 623c 4121 df3c d61c 283d
000001c0: 03ac 98bd 6d52 f03c 038b aa3b b0fa 9c3c
000001d0: 1bf6 5ebd 028e 5cbd 25d2 a13c 74dc 023d
000001e0: 80f9 eb3c f168 fd3c 1d63 61bd b079 be3c
000001f0: 7683 b43c 17ac 7fbd e352 773d 1d99 0d3d
00000200: 7e5c 323d 9df7 18bd 38be 5bbd 0f9b f6bc
00000210: 4edc 19bb c133 833d a83f 6e3d d049 9b3c
00000220: 832e 793d 2417 c8bc 450e a7bb e3a6 39bd
00000230: e25f 03bd d43b dfbc 03b3 1fbd d85b debc
00000240: c9c9 e2bc 9a4b 4dbc 734c 9cbb bb26 96bb
00000250: 7085 adbc a405 583d 5b13 20bb 6884 1a3d
00000260: f2ce 41bd b7c2 e6bc f4da 38ba acb8 04bd
00000270: 7e73 183d 3614 1d3d e44b 8bbc 41b5 80bc
00000280: 33cb 5bbc 04bf 13bd c3ef 863d 598a 22bd
00000290: f78d 05bd a490 c6bc 743b 723d bcc7 20bd
000002a0: cf7e 15bd 4e54 343d f085 5b3d 9f13 a5ba
000002b0: 3deb 2a3d 755e 2e3d b3a7 4ebc 589d f3bb
000002c0: f791 b43d a8e5 fbbb da09 d9bc 1b20 1e3d
000002d0: d927 813d 3447 6c3d b06c cbbc 744c 14bd
000002e0: b75e b7bc 4ddb afbc 0ca3 383d 477e 42bc
000002f0: 1366 cdbc d660 953d 397a 4abd 0e38 3fbd
00000300: 4307 363d 8e4b d5bc 2974 b8bc bc17 6cbc
00000310: e3cb 94b9 0b92 a43c 7437 1a3d be47 23bc
00000320: e86e 3c3d 3095 f0bc a9f4 6abc 59ce 0dbd
00000330: e02c f8bc e8ec 9e3c 32c1 0cbd 086e 5fbb
00000340: 0d42 a6bb 197d b83c 6766 a3bd 9ade 5fba
00000350: 9031 8bbd 635d 1c3d b0c2 97bd 8d22 dd3c
00000360: 2e77 05bd 8d79 c93c bd27 e5b9 b86a 70bc
00000370: 6310 a43c 07cc 4a3d 8ee4 59bc 04a3 acbd
00000380: 493e adbc dd25 9ebc df39 bd3d 8078 f9bb
00000390: de76 04bd 6a33 f3bc b991 473d b570 97bc
000003a0: 759b 27bd 2929 9e3c d42e 543d a34c 04ba
000003b0: 384a 043d acdb 943c 2f79 d6bc 115a f6bc
000003c0: 8eb0 8b3d 0f2f 583d 103a 9abd 5729 683c
000003d0: 0244 323d 6439 1d3d f033 26bd 4845 f7bc
000003e0: b028 aabc 3e62 983c c93b c13c 3e04 e33c
000003f0: 01af 44bd ce83 793d ead3 06bd 2d35 12bd

fc2.bias f4 [64]
0.09093087 0.099212155 0.013002289 0.035798874 -0.029784085 0.13707414 0.0711368 0.09587472
-0.06710294 0.10931538 0.050746936 0.13703996 0.043999013 0.084411055 0.06471923 0.04605437
0.042309202 -0.053046793 0.014654956 0.044858985 0.026143992 0.07823276 0.06302669 0.109508775
0.043077387 0.024056396 0.10272273 0.034025792 0.09743882 0.016559096 0.07347273 0.07090982
0.035347585 0.009193831 0.08729516 0.006978466 0.047231812 0.0036086442 0.06858553 0.08319672
0.065648735 -0.086846374 0.061073814 -0.015989888 0.00089735794 0.07568871 0.06661764 0.03259097
3.5743135e-05 0.004158462 0.1500374 0.08231433 0.1192756 0.08967083 0.06847534 0.03896457
-0.02611193 0.035545032 0.055923894 -0.0012542598 0.061939064 0.047952928 0.07446382 0.073861845
00000000: f739 ba3d be2f cb3d 8e07 553c d7a1 123d
00000010: c1fd f3bc 2a5d 0c3e 2cb0 913d f759 c43d
00000020: 446d 89bd bee0 df3d 05dc 4f3d 3454 0c3e
00000030: 4f38 343d b4df ac3d 848b 843d 82a3 3c3d
00000040: 6a4c 2d3d 9847 59bd 571b 703c 0ebe 373d
00000050: ed2b d63c 7f38 a03d 2314 813d 2346 e03d
00000060: ea71 303d eb11 c53c 4b60 d23d a15e 0b3d
00000070: 018e c73d f1a6 873c df78 963d 2b39 913d
00000080: a1c8 103d b9a1 163c cec7 b23d 9eab e43b
00000090: 2576 413d 017f 6c3b 9276 8c3d 0b63 aa3d
000000a0: d872 863d 83dc b1bd 8928 7a3d 3afd 82bc
000000b0: ac3c 6b3a af02 9b3d d46e 883d 1c7e 053d
000000c0: e6ea 1538 b543 883b 67a3 193e 6a94 a83d
000000d0: c446 f43d 57a5 b73d cd3c 8c3d 5099 1f3d
000000e0: b0e8 d5bc ab97 113d 7410 653d fa65 a4ba
000000f0: d1b3 7d3d 4a6a 443d 7d80 983d e144 973d

out.weight f4 [1, 64]
-0.12546621 -0.15979566 0.21527821 0.14035897 0.2154501 -0.09571453 0.091867566 -0.14430682
0.040491655 -0.09355127 0.086145096 -0.11829001 -0.17366649 -0.16551208 -0.12187013 0.14547093
0.20503165 0.068641305 0.07069765 0.16525413 0.09453042 -0.16053735 0.19705498 -0.10041352
-0.11674061 -0.16379796 -0.11920111 0.14391138 -0.15751065 0.20788273 0.1084188 -0.10153028
-0.13541916 0.1835088 -0.15919301 -0.15002847 0.22876036 0.0738506 -0.121064425 -0.08513035
-0.11825435 0.031883884 -0.09462102 0.23377897 0.17707916 0.046858415 -0.0100689 0.21687143
0.2230554 0.043163855 -0.13647544 -0.10404413 -0.09353671 -0.15652138 -0.14696981 0.0512082
0.21684842 0.1841062 -0.18490972 0.22040157 -0.0070723784 -0.066558 -0.16007367 -0.17170395
00000000: 377a 00be 79a1 23be e471 5c3e 43ba 0f3e
00000010: f39e 5c3e fb05 c4bd 1025 bc3d 2bc5 13be
00000020: 94da 253d cf97 bfbd d76c b03d 0842 f2bd
00000030: a1d5 31be 007c 29be 0c97 f9bd 55f6 143e
00000040: d1f3 513e d093 8c3d eec9 903d 6138 293e
00000050: 2a99 c13d e763 24be c8c8 493e 9ba5 cdbd
00000060: b315 efbd a7ba 27be b61f f4bd 815d 133e
00000070: 794a 21be 36df 543e ad0a de3d 1cef cfbd
00000080: 52ab 0abe bbe9 3b3e 7e03 23be 10a1 19be
00000090: 2840 6a3e fc3e 973d a0f0 f7bd d258 aebd
000000a0: 562f f2bd ad98 023d aac8 c1bd c163 6f3e
000000b0: 3d54 353e 9cee 3f3d 07f8 24bc 8b13 5e3e
000000c0: a368 643e 95cc 303d 38c0 0bbe 1715 d5bd
000000d0: 2d90 bfbd 2447 20be 417f 16be b1bf 513d
000000e0: 830d 5e3e 5686 3c3e f958 3dbe f3b0 613e
000000f0: 69bf e7bb 904f 88bd 5aea 23be 29d3 2fbe

sep_conn.weight f4 [64, 95]
0.07446218 -0.09099482 0.0015445921 -0.033991702 0.00012825022 0.024486694 0.04994473 0.04030862
-0.008686708 -0.058952063 -0.050087158 0.08487445 -0.08748638 0.02562792 0.0652858 0.101150304
0.06318161 0.07247937 -0.09298475 -0.054414213 0.018381562 0.05106389 -0.07890811 -0.07891085
0.08012952 0.052073333 0.0721048 -0.08740043 0.049911402 -0.06345053 -0.071062915 0.08691046
0.02803126 0.01549702 -0.09836073 0.0355992 -0.08699121 0.06720737 0.023640592 -0.073021576
-0.09131926 -0.04926597 -0.013335871 0.03993204 -0.07827203 0.07564339 -0.010149307 -0.03148752
-0.027313838 -0.0114086075 -0.020203056 -0.030531809 -0.09752776 0.060800586 0.09100355 0.09848689
-0.060385615 0.027608987 0.012467301 -0.09042171 0.01402646 -0.06816496 -0.085581645 0.013091149
-0.026476981 0.051023066 -0.010202437 -0.09367672 0.049638733 -0.034685608 0.10191835 -0.06680621
-0.02562731 0.026592487 0.084646314 -0.069215775 -0.020864977 0.02162001 -0.070094004 -0.027939163
0.06437159 0.009399472 0.032463487 -0.079890035 0.06431714 0.0896274 -0.07233243 0.04841346
-0.039739102 -0.040452197 -0.056899864 0.03312087 -0.023641925 -0.03992266 -0.025581663 0.04583698
0.060331654 -0.02386506 -0.06280787 0.08192383 -0.0009097987 0.089818746 0.06959155 -0.06536376
-0.046237815 0.077289864 0.052503865 -0.040820654 0.022782492 -0.09544394 0.06240385 -0.08353549
0.020249361 -0.056901123 -0.024294563 -0.05654996 -0.049422067 -0.07151674 -0.01921711 0.04884225
0.08680004 0.0004012131 -0.06967115 -0.052087486 0.075243756 -0.06482258 -0.027816344 0.016090022
-0.014449591 -0.0631836 -0.101488136 0.028465226 -0.032534584 -0.05405363 -0.03631316 -0.044550627
0.00037391434 -0.013604358 -0.064369686 0.02545279 0.010345522 -0.0064651887 -0.020042358 -0.0013940576
0.0030397114 0.086186 -0.052972164 -0.061114118 0.030638363 -0.07435086 -0.0723491 0.03161701
0.0749488 0.08078247 -0.048444815 0.01303479 -0.08406937 0.039251246 -0.09681335 0.093538
-0.058850344 -0.06408809 0.019445626 0.017826965 0.033005416 0.014364099 -0.09669374 0.07451612
0.046463225 -0.04138614 -0.09705531 -0.09847487 0.035084326 -0.03819883 0.10200886 0.09596029
-0.03294814 -0.015589019 -0.015334341 -0.046558756 0.035625752 0.099644735 0.09333235 0.08625377
0.06343407 0.063956305 -0.05894843 -0.03229736 0.06261161 0.01542113 -0.044089984 0.10126795
0.06661814 -0.071348414 -0.027674261 -0.025682028 0.052175596 0.03320858 0.10177407 -0.047263656
-0.035378594 -0.012155874 -0.09869317 0.03772697 -0.08112268 0.0585349 -0.08832405 -0.096575394
0.04231339 -0.0087106805 -0.0021930104 0.017264199 -0.10020149 0.012122827 -0.055578288 0.07291013
-0.08894671 -0.07388283 0.012665657 0.060724355 -0.0007634472 -0.08555398 -0.010183112 0.023722917
0.047902867 -0.0022777808 -0.101949185 -0.08036291 0.025031226 -0.004541007 -0.02256179 -0.0935116
-0.049633585 0.080339655 0.034084655 0.007961005 0.060507163 0.062961906 0.07719942 0.09752159
-0.043926496 0.09247042 -0.058505904 -0.07362812 -0.07264669 -0.003734667 0.020504087 -0.065633506
-0.045363214 -0.05256843 -0.07261733 -0.0132932225 0.017888227 -0.030523406 -0.033731706 -0.01399954
00000000: a17f 983d 7e5b babd e973 ca3a e23a 0bbd
00000010: e87a 0639 5298 c83c d892 4c3d a71a 253d
00000020: b252 0ebc b877 71bd 3128 4dbd a8d2 ad3d
00000030: 0f2c b3bd a5f1 d13c 90b4 853d e427 cf3d
00000040: 5c65 813d 1070 943d ca6e bebd 70e1 5ebd
00000050: ee94 963c 5f28 513d 939a a1bd 039c a1bd
00000060: f21a a43d d94a 553d aeab 933d fffe b2bd
00000070: e66f 4c3d 5af2 81bd 6f89 91bd 1cfe b13d
00000080: d0a1 e53c 37e7 7d3c 5a71 c9bd 77d0 113d
00000090: 7328 b2bd 05a4 893d eaa9 c13c 568c 95bd
000000a0: 9805 bbbd 1dcb 49bd b27e 5abc c78f 233d
000000b0: 164d a0bd ecea 9a3d 4749 26bc 0ff9 00bd
000000c0: 45c1 dfbc 2beb 3abc e180 a5bc d81d fabc
000000d0: a2bc c7bd 090a 793d 1260 ba3d 7fb3 c93d
000000e0: e856 77bd 3e2c e23c a743 4c3c 042f b9bd
000000f0: 3dcf 653c 129a 8bbd 6e45 afbd 427c 563c
00000100: 41e6 d8bc 90fd 503d 1f28 27bc 95d9 bfbd
00000110: fc51 4b3d 7f12 0ebd 91ba d03d b2d1 88bd
00000120: 5df0 d1bc 7dd8 d93c 0c5b ad3d 00c1 8dbd
00000130: 07ed aabc 721c b13c 728d 8fbd ace0 e4bc
00000140: 41d5 833d 3e00 1a3c 6ff8 043d 639d a3bd
00000150: b4b8 833d 928e b73d 0623 94bd 314d 463d
00000160: 78c5 22bd 34b1 25bd d50f 69bd c0a9 073d
00000170: b6ac c1bc f185 23bd a390 d1bc 8fbf 3b3d
00000180: 531e 773d a980 c3bc 6aa1 80bd aec7 a73d
00000190: 8f7f 6eba e4f2 b73d 0486 8e3d 6fdd 85bd
000001a0: dd63 3dbd 264a 9e3d 4b0e 573d 8f33 27bd
000001b0: 59a2 ba3c 1d78 c3bd 2e9b 7f3d a814 abbd
000001c0: fde1 a53c 2711 69bd 6405 c7bc eea0 67bd
000001d0: cb6e 4abd 5e77 92bd 336d 9dbc d00e 483d
000001e0: 38c4 b13d e959 d239 bfaf 8ebd b059 55bd
000001f0: 6619 9a3d b3c1 84bd 1adf e3bc 39cf 833c
00000200: fabd 6cbc 6766 81bd 03d9 cfbd e82f e93c
00000210: fc42 05bd 5767 5dbd 1cbd 14bd b87a 36bd
00000220: ef09 c439 d0e4 5ebc 41d4 83bd 5f82 d03c
00000230: 4480 293c efd9 d3bb df2f a4bc d0b8 b6ba
00000240: e535 473b 4982 b03d 57f9 58bd cc52 7abd
00000250: 4efd fa3c 4445 98bd c42b 94bd d680 013d
00000260: c27e 993d 4871 a53d 126e 46bd df8f 553c
00000270: 902c acbd eac5 203d 1446 c6bd da90 bf3d
00000280: 0f0d 71bd 9e40 83bd 6f4c 9f3c db09 923c
00000290: b030 073d 6657 6b3c 5e07 c6bd e89b 983d
000002a0: 3950 3e3d 8384 29bd efc4 c6bd 31ad c9bd
000002b0: 95b4 0f3d 6076 1cbd 05ea d03d d486 c43d
000002c0: a1f4 06bd 1669 7fbc e33c 7bbc 65b4 3ebd
000002d0: 4fec 113d 8a12 cc3d 0825 bf3d d1a5 b03d
000002e0: b9e9 813d 86fb 823d e973 71bd 3d4a 04bd
000002f0: 843a 803d e8a8 7c3c b397 34bd 9265 cf3d
00000300: 176f 883d 1e1f 92bd 22b5 e2bc 1e63 d2bc
00000310: 14b6 553d b805 083d ec6e d03d 8997 41bd
00000320: 25e9 10bd 6e29 47bc a51f cabd 9887 1a3d
00000330: a623 a6bd 4bc2 6f3d 3de3 b4bd 52c9 c5bd
00000340: ce50 2d3d 3eb7 0ebc 9cb8 0fbb a66d 8d3c
00000350: 7036 cdbd d29e 463c 0fa6 63bd e851 953d
00000360: b129 b6bd e24f 97bd 9e83 4f3c 1aba 783d
00000370: 1322 48ba ed36 afbd 11d7 26bc 9056 c23c
00000380: cc35 443d d246 15bb bcca d0bd 4f95 a4bd
00000390: 490e cd3c bacc 94bb 81d3 b8bc 0283 bfbd
000003a0: 964c 4bbd 1e89 a43d 5a9c 0b3d e06e 023c
000003b0: 5cd6 773d 2cf2 803d bb1a 9e3d 66b9 c73d
000003c0: 45ec 33bd 2261 bd3d e3a3 6fbd 57ca 96bd
000003d0: cac7 94bd 51c1 74bb 30f8 a73c dc6a 86bd
000003e0: c7ce 39bd fe51 57bd 65b8 94bd d1cb 59bc
000003f0: 558a 923c 390c fabc 422a 0abd 545e 65bc

sep_conn.bias f4 [64]
-0.057752877 0.009705629 0.04620269 -0.032844767 0.01862654 0.09862345 -0.06345277 -0.08034888
-0.0015197151 -0.092161655 -0.05749799 0.10054057 -0.060824044 -0.009140746 -0.016598156 -0.07646044
0.025310047 0.012889136 -0.0033851406 -0.048361268 0.03698916 -0.029473115 -0.08598373 -0.0904684
0.04471355 0.06344368 -0.06315563 -0.0606058 0.07663598 0.020514876 0.039802935 0.055529986
-0.05998499 -0.026112191 -0.059159778 0.05351591 1.4640046e-05 0.033327155 -0.039224427 -0.09739696
0.047630783 0.011549908 0.053946428 0.03696564 0.0015294506 -0.02652155 -0.018172381 -0.061014123
-0.0642188 -0.06970242 -0.0069652493 -0.056454916 0.031625237 0.093961746 0.022286002 -0.0052924803
0.0019352135 0.005562863 -0.08789329 -0.0022332491 -0.09975816 0.06522528 0.016652727 0.020238549
00000000: 488e 6cbd 5c04 1f3c 083f 3d3d 3c88 06bd
00000010: b096 983c 17fb c93d 87f3 81bd f48d a4bd
00000020: 2d31 c7ba 40bf bcbd 0383 6bbd 37e8 cd3d
00000030: a222 79bd 11c3 15bc dbf8 87bc 4b97 9cbd
00000040: 0457 cf3c f42c 533c 3cd9 5dbb 7716 46bd
00000050: f281 173d 9a71 f1bc 3d18 b0bd 7f47 b9bd
00000060: 8e25 373d c3ee 813d bd57 81bd ca3d 78bd
00000070: 53f3 9c3d d00e a83c 6708 233d 6973 633d
00000080: d2b2 75bd 3ce9 d5bc 8651 72bd 8033 5b3d
00000090: 859e 7537 0e82 083d cba9 20bd 0f78 c7bd
000000a0: 7f18 433d d33b 3d3c eef6 5c3d 4869 173d
000000b0: d977 c83a b943 d9bc 3fde 94bc f2e9 79bd
000000c0: 2585 83bd 24c0 8ebd bf3c e4bb 453d 67bd
000000d0: 7789 013d 046f c03d 2291 b63c 8b6c adbb
000000e0: fda6 fd3a ad48 b63b 6601 b4bd b45b 12bb
000000f0: 024e ccbd d594 853d 4d6b 883c 50cb a53c

bn.weight f4 [64]
1.0 1.0 1.0 1.0 1.0 1.0 1.0 1.0
1.0 1.0 1.0 1.0 1.0 1.0 1.0 1.0
1.0 1.0 1.0 1.0 1.0 1.0 1.0 1.0
1.0 1.0 1.0 1.0 1.0 1.0 1.0 1.0
1.0 1.0 1.0 1.0 1.0 1.0 1.0 1.0
1.0 1.0 1.0 1.0 1.0 1.0 1.0 1.0
1.0 1.0 1.0 1.0 1.0 1.0 1.0 1.0
1.0 1.0 1.0 1.0 1.0 1.0 1.0 1.0
00000000: 0000 803f 0000 803f 0000 803f 0000 803f
00000010: 0000 803f 0000 803f 0000 803f 0000 803f
00000020: 0000 803f 0000 803f 0000 803f 0000 803f
00000030: 0000 803f 0000 803f 0000 803f 0000 803f
00000040: 0000 803f 0000 803f 0000 803f 0000 803f
00000050: 0000 803f 0000 803f 0000 803f 0000 803f
00000060: 0000 803f 0000 803f 0000 803f 0000 803f
00000070: 0000 803f 0000 803f 0000 803f 0000 803f
00000080: 0000 803f 0000 803f 0000 803f 0000 803f
00000090: 0000 803f 0000 803f 0000 803f 0000 803f
000000a0: 0000 803f 0000 803f 0000 803f 0000 803f
000000b0: 0000 803f 0000 803f 0000 803f 0000 803f
000000c0: 0000 803f 0000 803f 0000 803f 0000 803f
000000d0: 0000 803f 0000 803f 0000 803f 0000 803f
000000e0: 0000 803f 0000 803f 0000 803f 0000 803f
000000f0: 0000 803f 0000 803f 0000 803f 0000 803f

bn.bias f4 [64]
0.0 0.0 0.0 0.0 0.0 0.0 0.0 0.0
0.0 0.0 0.0 0.0 0.0 0.0 0.0 0.0
0.0 0.0 0.0 0.0 0.0 0.0 0.0 0.0
0.0 0.0 0.0 0.0 0.0 0.0 0.0 0.0
0.0 0.0 0.0 0.0 0.0 0.0 0.0 0.0
0.0 0.0 0.0 0.0 0.0 0.0 0.0 0.0
0.0 0.0 0.0 0.0 0.0 0.0 0.0 0.0
0.0 0.0 0.0 0.0 0.0 0.0 0.0 0.0
00000000: 0000 0000 0000 0000 0000 0000 0000 0000
00000010: 0000 0000 0000 0000 0000 0000 0000 0000
00000020: 0000 0000 0000 0000 0000 0000 0000 0000
00000030: 0000 0000 0000 0000 0000 0000 0000 0000
00000040: 0000 0000 0000 0000 0000 0000 0000 0000
00000050: 0000 0000 0000 0000 0000 0000 0000 0000
00000060: 0000 0000 0000 0000 0000 0000 0000 0000
00000070: 0000 0000 0000 0000 0000 0000 0000 0000
00000080: 0000 0000 0000 0000 0000 0000 0000 0000
00000090: 0000 0000 0000 0000 0000 0000 0000 0000
000000a0: 0000 0000 0000 0000 0000 0000 0000 0000
000000b0: 0000 0000 0000 0000 0000 0000 0000 0000
000000c0: 0000 0000 0000 0000 0000 0000 0000 0000
000000d0: 0000 0000 0000 0000 0000 0000 0000 0000
000000e0: 0000 0000 0000 0000 0000 0000 0000 0000
000000f0: 0000 0000 0000 0000 0000 0000 0000 0000

bn.running_mean f4 [64]
0.0 0.0 0.0 0.0 0.0 0.0 0.0 0.0
0.0 0.0 0.0 0.0 0.0 0.0 0.0 0.0
0.0 0.0 0.0 0.0 0.0 0.0 0.0 0.0
0.0 0.0 0.0 0.0 0.0 0.0 0.0 0.0
0.0 0.0 0.0 0.0 0.0 0.0 0.0 0.0
0.0 0.0 0.0 0.0 0.0 0.0 0.0 0.0
0.0 0.0 0.0 0.0 0.0 0.0 0.0 0.0
0.0 0.0 0.0 0.0 0.0 0.0 0.0 0.0
00000000: 0000 0000 0000 0000 0000 0000 0000 0000
00000010: 0000 0000 0000 0000 0000 0000 0000 0000
00000020: 0000 0000 0000 0000 0000 0000 0000 0000
00000030: 0000 0000 0000 0000 0000 0000 0000 0000
00000040: 0000 0000 0000 0000 0000 0000 0000 0000
00000050: 0000 0000 0000 0000 0000 0000 0000 0000
00000060: 0000 0000 0000 0000 0000 0000 0000 0000
00000070: 0000 0000 0000 0000 0000 0000 0000 0000
00000080: 0000 0000 0000 0000 0000 0000 0000 0000
00000090: 0000 0000 0000 0000 0000 0000 0000 0000
000000a0: 0000 0000 0000 0000 0000 0000 0000 0000
000000b0: 0000 0000 0000 0000 0000 0000 0000 0000
000000c0: 0000 0000 0000 0000 0000 0000 0000 0000
000000d0: 0000 0000 0000 0000 0000 0000 0000 0000
000000e0: 0000 0000 0000 0000 0000 0000 0000 0000
000000f0: 0000 0000 0000 0000 0000 0000 0000 0000

bn.running_var f4 [64]
1.0 1.0 1.0 1.0 1.0 1.0 1.0 1.0
1.0 1.0 1.0 1.0 1.0 1.0 1.0 1.0
1.0 1.0 1.0 1.0 1.0 1.0 1.0 1.0
1.0 1.0 1.0 1.0 1.0 1.0 1.0 1.0
1.0 1.0 1.0 1.0 1.0 1.0 1.0 1.0
1.0 1.0 1.0 1.0 1.0 1.0 1.0 1.0
1.0 1.0 1.0 1.0 1.0 1.0 1.0 1.0
1.0 1.0 1.0 1.0 1.0 1.0 1.0 1.0
00000000: 0000 803f 0000 803f 0000 803f 0000 803f
00000010: 0000 803f 0000 803f 0000 803f 0000 803f
00000020: 0000 803f 0000 803f 0000 803f 0000 803f
00000030: 0000 803f 0000 803f 0000 803f 0000 803f
00000040: 0000 803f 0000 803f 0000 803f 0000 803f
00000050: 0000 803f 0000 803f 0000 803f 0000 803f
00000060: 0000 803f 0000 803f 0000 803f 0000 803f
00000070: 0000 803f 0000 803f 0000 803f 0000 803f
00000080: 0000 803f 0000 803f 0000 803f 0000 803f
00000090: 0000 803f 0000 803f 0000 803f 0000 803f
000000a0: 0000 803f 0000 803f 0000 803f 0000 803f
000000b0: 0000 803f 0000 803f 0000 803f 0000 803f
000000c0: 0000 803f 0000 803f 0000 803f 0000 803f
000000d0: 0000 803f 0000 803f 0000 803f 0000 803f
000000e0: 0000 803f 0000 803f 0000 803f 0000 803f
000000f0: 0000 803f 0000 803f 0000 803f 0000 803f

net.0.weight f4 [64, 95]
0.05491615 0.012568779 0.0826036 0.10693907 0.06775322 0.048240382 -0.030692747 -0.049085476
-0.01765464 0.020000052 -0.025105398 -0.03773661 0.032860547 -0.0107178865 -0.0045923144 -0.01908825
-0.06050601 -0.019890726 -0.03869443 0.00032012395 -0.0042378884 0.067648776 0.072676465 0.005264354
-0.006261042 0.079101615 0.023401901 0.01288497 0.044688493 -0.01223311 0.008580193 -0.036916777
-0.058766074 0.03331263 -0.018279009 -0.0077713896 -0.059549868 -0.037622664 -0.021830443 -0.07920111
-0.012284911 0.07776529 0.043323334 -0.032544278 0.033418737 -0.03825373 -0.019500101 -0.060320534
-0.08177598 -0.056835644 0.043786846 0.026835501 0.018772691 -0.051650684 0.009876163 0.012026147
-0.017164025 -0.011670654 -0.0037858128 0.0055485135 -0.028341265 -0.0058670016 0.028753081 0.012453124
0.03161226 -0.031404514 -0.012197303 -0.0034935316 -0.00017647145 0.00061030756 0.0075967745 -0.036465533
0.009020505 0.020665275 0.0058592977 0.027298661 0.010839179 0.0153029235 -0.010282702 -0.007508191
0.0043655806 -0.014167168 0.0069889994 0.04558993 -0.000662608 -0.013315146 0.0063996855 -0.016780682
-0.011295867 0.0074736746 -0.014038507 -0.02037082 -0.012311123 -0.026465721 0.008469924 0.03508401
-0.016813533 -0.016126588 -0.12416362 -0.022843149 0.011233281 0.061335865 -0.01981459 0.0054659145
0.04704932 0.03321697 0.024338733 0.017116042 0.0091854315 0.019308913 -0.008085914 0.02224768
-0.018859968 0.026159223 0.011679744 0.026248923 -0.06718393 -0.040808417 0.03226067 -0.004255562
-0.058843054 -0.031212838 -0.019921672 -0.07610641 -0.008586583 -0.042427577 -0.00020270962 0.004598444
-0.013567977 0.006808616 -0.044333518 0.02922581 0.036442384 0.053448625 0.0740164 -0.0065897643
-0.016944299 -0.11242031 -0.04221598 -0.00033866114 0.013774421 0.056151327 0.08304061 0.0552928
0.031153217 -0.01409063 -0.0022519385 0.019207474 -0.022330798 -0.007493455 -0.0041798605 0.0068837996
-0.0051065036 0.018022489 0.015744511 -0.009538137 -0.00018421093 0.009913761 0.0025142918 0.008461492
0.020130603 -0.01710521 -0.0062783817 0.0012143028 0.0021132934 0.0065836804 -0.0035732305 0.01867311
0.0071265227 0.007047737 4.954025e-05 -0.011802362 -0.009851613 -0.00017275868 -0.011922074 0.0022143677
0.0070737186 -0.010654716 0.0285041 0.016561698 -0.0049693296 -0.007834659 0.0025275804 0.01581087
0.0051196534 0.023935445 0.003064431 0.05838682 0.013012979 -0.0058484245 -0.02040344 0.049130525
0.035426717 -0.07589622 0.009373986 -0.04610707 0.030944219 -0.05495397 0.06731702 -0.061785232
0.102972865 0.0068518585 -0.059151735 0.07032464 0.022620616 0.032203306 -0.020742672 0.0012977149
-0.024040746 -0.05275208 0.09931646 -0.10731931 -0.0033503026 0.07948937 0.01576043 0.0010412199
0.021947034 -0.022665292 -0.052889667 0.029093068 0.08241816 -0.03923303 -0.07046282 -0.02365419
0.06429016 -0.07593697 0.056587696 0.037465975 0.012222431 -0.077478856 0.03553529 -0.026556
-0.08111174 -0.098905526 0.05020509 -0.01069688 0.021599099 0.051075976 0.050627436 0.049171973
-0.07499036 0.023378983 0.031686287 -0.0069708424 0.038092565 0.032134917 0.0076013734 0.023413727
0.02866359 0.005934399 0.0059763435 0.00983479 -0.024760969 0.0078681605 0.05294888 0.012578347
00000000: c2ef 603d 48ed 4d3c 142c a93d df02 db3d
00000010: 33c2 8a3d b597 453d 5b6f fbbc da0d 49bd
00000020: 77a0 90bc 26d7 a33c d6a9 cdbc b491 1abd
00000030: c898 063d 139a 2fbc 207b 96bb f65e 9cbc
00000040: 26d5 77bd e0f1 a2bc 0d7e 1ebd 4fd6 a739
00000050: fcdd 8abb 718b 8a3d 66d7 943d 9a80 ac3b
00000060: 6d29 cdbb 0700 a23d 58b5 bf3c 7b1b 533c
00000070: 480b 373d 626d 48bc f093 0c3c 0c36 17bd
00000080: b2b4 70bd d372 083d dcbd 95bc 24a7 febb
00000090: 90ea 73bd 391a 1abd c2d5 b2bc 3134 a2bd
000000a0: a746 49bc 6943 9f3d cf73 313d 264d 05bd
000000b0: 16e2 083d f1af 1cbd adbe 9fbc aa12 77bd
000000c0: 2a7a a7bd 7ecc 68bd d659 333d 20d6 db3c
000000d0: 30c9 993c ab8f 53bd a1cf 213c 5109 453c
000000e0: 929b 8cbc 4536 3fbc 661b 78bb 4ed0 b53b
000000f0: f12b e8bc fa3f c0bb 958b eb3c 3008 4c3c
00000100: db7b 013d 05a2 00bd 32d7 47bc bcf3 64bb
00000110: 320b 39b9 0cfd 1f3a 5dee f83b e25c 15bd
00000120: bdca 133c 394a a93c 5aff bf3b 71a1 df3c
00000130: d096 313c 1db9 7a3c c778 28bc 4507 f6bb
00000140: 250d 8f3b 691d 68bc fa03 e53b 82bc 3a3d
00000150: dfb2 2dba c527 5abc 74b4 d13b a477 89bc
00000160: 4d12 39bc bae5 f43b c401 66bc b5e0 a6bc
00000170: 98b4 49bc a4ce d8bc 70c5 0a3c 40b4 0f3d
00000180: 89bc 89bc e81b 84bc 7f49 febd 8e21 bbbc
00000190: cc0b 383c 513b 7b3d 3552 a2bc 6a1b b33b
000001a0: cab6 403d 840e 083d 0662 c73c f136 8c3c
000001b0: 7e7e 163c ba2d 9e3c c87a 04bc c440 b63c
000001c0: 3880 9abc de4b d63c 665c 3f3c fb07 d73c
000001d0: ba97 89bd ba26 27bd c423 043d 3e72 8bbb
000001e0: 6a05 71bd 11b2 ffbc c632 a3bc addd 9bbd
000001f0: bdae 0cbc 8ac8 2dbd 738e 54b9 8bae 963b
00000200: 384c 5ebc d01a df3b 1097 35bd f76a ef3c
00000210: 9c44 153d f2ec 5a3d e995 973d f3ee d7bb
00000220: c5ce 8abc 9f3c e6bd aaea 2cbd 548e b1b9
00000230: 1cae 613c effe 653d 3211 aa3d b47a 623d
00000240: 0835 ff3c 63dc 66bc 4295 13bb fe58 9d3c
00000250: 14ef b6bc a88b f5bb 36f7 88bb 7f91 e13b
00000260: 7554 a7bb e6a3 933c a2fa 803c d945 1cbc
00000270: bf28 41b9 546d 223c d1c6 243b 12a2 0a3c
00000280: efe8 a43c 3a20 8cbc e2ba cdbb 3e29 9f3a
00000290: 2e7f 0a3b eabb d73b dc2c 6abb 5af8 983c
000002a0: 9b85 e93b b4f0 e63b 70c9 4f38 b25e 41bc
000002b0: a968 21bc 8e26 35b9 cd54 43bc ed1e 113b
000002c0: a7ca e73b 1e91 2ebc 6e81 e93c 66ac 873c
000002d0: c2d5 a2bb f15c 00bc c3a5 253b cc85 813c
000002e0: c4c2 a73b 4414 c43c 9fd4 483b 0527 6f3d
000002f0: 6434 553c 24a4 bfbb 1d25 a7bc 173d 493d
00000300: 9b1b 113d 7a6f 9bbd 5995 193c c4da 3cbd
00000310: bb7e fd3c 6a17 61bd 81dd 893d 8312 7dbd
00000320: 70e3 d23d 8e85 e03b 1749 72bd 5d06 903d
00000330: df4e b93c 9de7 033d 89ec a9bc 1618 aa3a
00000340: 19f1 c4bc 9112 58bd 6e66 cb3d 3aca dbbd
00000350: c090 5bbb 53cb a23d 041c 813c 8b79 883a
00000360: 44ca b33c 90ac b9bc d6a2 58bd 9654 ee3c
00000370: daca a83d d0b2 20bd d04e 90bd 6fc6 c1bc
00000380: 8faa 833d d884 9bbd 80c8 673d ec75 193d
00000390: 9740 483c 3cad 9ebd 748d 113d f88b d9bc
000003a0: e91d a6bd fb8e cabd daa3 4d3d f741 2fbc
000003b0: 98f0 b03c 0b35 513d b75e 4f3d 8d68 493d
000003c0: 8c94 99bd 4885 bf3c 7bc9 013d aa6b e4bb
000003d0: f306 1c3d e79f 033d f114 f93b 25ce bf3c
000003e0: e8cf ea3c 5975 c23b 34d5 c33b 1922 213c
000003f0: 84d7 cabc 75e9 003c ede0 583d 6915 4e3c

net.0.bias f4 [64]
-0.048692565 0.06593038 0.0093096355 0.038363885 -0.029841814 -0.06767115 -0.10562119 -0.015249565
-0.0059644287 0.005152474 0.021988891 0.07855548 0.09693365 0.09923637 0.106195636 0.031142488
0.024763152 0.059498366 0.07087255 -0.04786473 0.10974249 -0.119644485 0.07244435 0.07273717
0.032718718 0.0562424 -0.013586633 -0.034994125 0.034705278 -0.11012985 -0.024861999 0.018274782
0.009512606 0.06906584 -0.1039454 0.033069182 0.12328353 0.06684958 -0.030786956 0.040978476
0.08811647 -0.06828321 -0.058844056 -0.0036071013 0.06789251 0.04295029 0.06672361 0.04084135
-0.067903675 0.06737115 -0.019412607 0.046316992 -0.098664775 -0.08830901 0.112737596 0.07818442
0.08772488 0.04712235 -0.07329111 0.020823816 0.112682864 -0.0013745159 0.03604413 0.09009027
00000000: db71 47bd 8206 873d 7187 183c 7323 1d3d
00000010: d276 f4bc 2c97 8abd ec4f d8bd 50d9 79bc
00000020: 4171 c3bb 16d6 a83b 0c22 b43c b2e1 a03d
00000030: 2685 c63d 703c cb3d 197d d93d 881e ff3c
00000040: 18dc ca3c 8fb4 733d a125 913d cf0d 44bd
00000050: acc0 e03d 2b08 f5bd b45d 943d 3af7 943d
00000060: 1004 063d 6e5e 663d 789a 5ebc 0056 0fbd
00000070: 1f27 0e3d c28b e1bd 64ab cbbc ffb4 953c
00000080: c3da 1b3c 6472 8d3d 53e1 d4bd 8d73 073d
00000090: 137c fc3d 6fe8 883d ed34 fcbc 0cd9 273d
000000a0: 6876 b43d 11d8 8bbd 7706 71bd 1e65 6cbb
000000b0: 3a0b 8b3d a5ec 2f3d 63a6 883d 4249 273d
000000c0: 1511 8bbd e3f9 893d 3007 9fbc e3b6 3d3d
000000d0: c210 cabd 5bdb b4bd f8e2 e63d 271f a03d
000000e0: 1aa9 b33d 5e03 413d a619 96bd b596 aa3c
000000f0: 46c6 e63d 1a29 b4ba 02a3 133d 3f81 b83d

net.3.weight f4 [64, 64]
-0.05345746 0.025594005 0.05949662 0.04296379 -0.0013840911 -0.07433066 -0.040185668 0.043784212
-0.049209032 0.03840999 0.03289337 0.064223714 0.039114654 0.024841482 0.040760312 0.03946178
0.031297076 0.028354725 0.025959568 -0.0011066318 0.029312415 -0.050477266 0.04007738 0.019134568
0.06555619 0.034399208 -0.00038999686 0.036066927 0.032050285 -0.044899162 0.027673356 0.0016992381
0.028964417 0.038781617 -0.06112116 0.041830644 0.036674388 0.033214133 -0.047695503 0.04983366
0.050467808 -0.049774 -0.010174543 -0.0008804146 0.0275327 0.017648142 0.031813424 0.06250719
-0.05982145 0.010534353 -0.0010155272 0.024099575 -0.043911353 -0.047981676 0.026716726 0.03334219
0.037172906 0.01793383 -0.03932651 0.016534269 0.030845338 -0.053242106 0.046304412 0.030945731
-0.056378324 0.03189433 0.07438374 0.009086806 -0.0010196872 -0.054186877 -0.055664074 0.024576351
-0.04985956 0.04606666 0.031302333 0.07805325 0.035569362 0.035645407 0.03405902 0.041761663
0.05193811 0.013812808 0.000945323 -0.00050815265 0.010482016 -0.061109323 0.018760907 0.018626109
0.084529206 0.049730554 -0.00013511181 0.03837736 0.021927072 -0.051499896 0.036449917 0.02300136
0.024682058 0.041644376 -0.04746207 0.040707484 0.033272598 0.03982288 -0.053888604 0.071603216
0.035855122 -0.057441365 -0.04917013 -0.00015088882 0.018175941 0.013832156 0.027237536 0.041043125
-0.07454684 0.029336179 0.00520456 0.019162506 -0.054433923 -0.053846367 0.019753525 0.03194852
0.028805494 0.030933829 -0.055026162 0.023251384 0.022035342 -0.062419977 0.06038178 0.03456985
0.04354524 -0.037345517 -0.053648204 -0.030103235 -0.002347726 0.06406356 0.058166176 0.018956095
0.060835373 -0.024425097 -0.0050981366 -0.04532517 -0.032073863 -0.027250208 -0.03898908 -0.027143404
-0.02768411 -0.012530232 -0.0047698556 -0.0045822538 -0.021181792 0.052739754 -0.00244256 0.03772393
-0.0473165 -0.02816902 -0.00070516695 -0.03240268 0.037219517 0.038349353 -0.01700396 -0.015711429
-0.013415146 -0.03607084 0.065887 -0.03968272 -0.03260609 -0.024238892 0.05913873 -0.03925298
-0.036497887 0.04402571 0.05359453 -0.0012594349 0.041728247 0.04257055 -0.012613225 -0.0074345283
0.08816903 -0.0076872893 -0.026493955 0.038604837 0.063064285 0.057685092 -0.0248321 -0.036205724
-0.02238403 -0.021466875 0.04507737 -0.011870927 -0.025073087 0.072938606 -0.049432967 -0.046684317
0.04444052 -0.026037004 -0.022516327 -0.014409956 -0.00028380667 0.02008917 0.03765054 -0.009965835
0.046004206 -0.029368013 -0.014340558 -0.034620617 -0.030294836 0.019400075 -0.034363933 -0.0034092683
-0.005073792 0.022520589 -0.07978516 -0.0008539945 -0.06796563 0.038174998 -0.074101806 0.026994014
-0.03258436 0.024594093 -0.0004370789 -0.014673881 0.020027345 0.049510982 -0.013299121 -0.0842953
-0.021147864 -0.019305164 0.09239554 -0.0076132417 -0.032339923 -0.029687602 0.048722956 -0.01848636
-0.04091974 0.019306736 0.05180247 -0.000504682 0.032297343 0.018171154 -0.026180832 -0.030072244
0.068207845 0.052779254 -0.07530606 0.014170012 0.04352189 0.03838481 -0.040576875 -0.030184403
-0.020771354 0.018601533 0.023588078 0.027711984 -0.04801846 0.060916714 -0.03291694 -0.035695244
00000000: 36f6 5abd 85aa d13c bab2 733d cdfa 2f3d
00000010: 646a b5ba ac3a 98bd ba99 24bd 1357 333d
00000020: 698f 49bd cb53 1d3d 33bb 063d b987 833d
00000030: b036 203d 5d80 cb3c 49f4 263d ada2 213d
00000040: 5d31 003d 2b48 e83c 29a9 d43c 670c 91ba
00000050: 9720 f03c 40c1 4ebd 2e28 243d 19c0 9c3c
00000060: 5342 863d 2fe6 0c3d 7e78 ccb9 eaba 133d
00000070: 2947 033d 2fe8 37bd 3cb3 e23c f8b8 de3a
00000080: c946 ed3c 79d9 1e3d 2e5a 7abd 9c56 2b3d
00000090: e237 163d 8b0b 083d 5c5c 43bd 611e 4c3d
000000a0: 55b7 4e3d d2df 4bbd 20b3 26bc a0cb 66ba
000000b0: 428c e13c d692 903c cb4e 023d c503 803d
000000c0: 5607 75bd 4798 2c3c 701b 85ba 796c c53c
000000d0: 64dc 33bd 6f88 44bd 09dd da3c d291 083d
000000e0: 9e42 183d f8e9 923c d614 21bd e072 873c
000000f0: 5daf fc3c 6514 5abd b2a9 3d3d e781 fd3c
00000100: f5ec 66bd a1a3 023d 8156 983d d4e0 143c
00000110: 06a7 85ba 0ff3 5dbd 0300 64bd 5854 c93c
00000120: 8a39 4cbd 65b0 3c3d e036 003d 62da 9f3d
00000130: 2eb1 113d eb00 123d 7981 0b3d 470e 2b3d
00000140: 0ebd 543d 1e4f 623c 8dcf 773a 8c35 05ba
00000150: c3bc 2b3c c54d 7abd 79b0 993c c895 983c
00000160: a61d ad3d 44b2 4b3d cdac 0db9 9431 1d3d
00000170: 67a0 b33c 8ef1 52bd 824c 153d 596d bc3c
00000180: 0732 ca3c 4b93 2a3d 9667 42bd e4bc 263d
00000190: d948 083d 511d 233d 4cba 5cbd b5a4 923d
000001a0: d2dc 123d a347 6bbd 9e66 49bd e937 1eb9
000001b0: b6e5 943c 44a0 623c 4121 df3c d61c 283d
000001c0: 03ac 98bd 6d52 f03c 038b aa3b b0fa 9c3c
000001d0: 1bf6 5ebd 028e 5cbd 25d2 a13c 74dc 023d
000001e0: 80f9 eb3c f168 fd3c 1d63 61bd b079 be3c
000001f0: 7683 b43c 17ac 7fbd e352 773d 1d99 0d3d
00000200: 7e5c 323d 9df7 18bd 38be 5bbd 0f9b f6bc
00000210: 4edc 19bb c133 833d a83f 6e3d d049 9b3c
00000220: 832e 793d 2417 c8bc 450e a7bb e3a6 39bd
00000230: e25f 03bd d43b dfbc 03b3 1fbd d85b debc
00000240: c9c9 e2bc 9a4b 4dbc 734c 9cbb bb26 96bb
00000250: 7085 adbc a405 583d 5b13 20bb 6884 1a3d
00000260: f2ce 41bd b7c2 e6bc f4da 38ba acb8 04bd
00000270: 7e73 183d 3614 1d3d e44b 8bbc 41b5 80bc
00000280: 33cb 5bbc 04bf 13bd c3ef 863d 598a 22bd
00000290: f78d 05bd a490 c6bc 743b 723d bcc7 20bd
000002a0: cf7e 15bd 4e54 343d f085 5b3d 9f13 a5ba
000002b0: 3deb 2a3d 755e 2e3d b3a7 4ebc 589d f3bb
000002c0: f791 b43d a8e5 fbbb da09 d9bc 1b20 1e3d
000002d0: d927 813d 3447 6c3d b06c cbbc 744c 14bd
000002e0: b75e b7bc 4ddb afbc 0ca3 383d 477e 42bc
000002f0: 1366 cdbc d660 953d 397a 4abd 0e38 3fbd
00000300: 4307 363d 8e4b d5bc 2974 b8bc bc17 6cbc
00000310: e3cb 94b9 0b92 a43c 7437 1a3d be47 23bc
00000320: e86e 3c3d 3095 f0bc a9f4 6abc 59ce 0dbd
00000330: e02c f8bc e8ec 9e3c 32c1 0cbd 086e 5fbb
00000340: 0d42 a6bb 197d b83c 6766 a3bd 9ade 5fba
00000350: 9031 8bbd 635d 1c3d b0c2 97bd 8d22 dd3c
00000360: 2e77 05bd 8d79 c93c bd27 e5b9 b86a 70bc
00000370: 6310 a43c 07cc 4a3d 8ee4 59bc 04a3 acbd
00000380: 493e adbc dd25 9ebc df39 bd3d 8078 f9bb
00000390: de76 04bd 6a33 f3bc b991 473d b570 97bc
000003a0: 759b 27bd 2929 9e3c d42e 543d a34c 04ba
000003b0: 384a 043d acdb 943c 2f79 d6bc 115a f6bc
000003c0: 8eb0 8b3d 0f2f 583d 103a 9abd 5729 683c
000003d0: 0244 323d 6439 1d3d f033 26bd 4845 f7bc
000003e0: b028 aabc 3e62 983c c93b c13c 3e04 e33c
000003f0: 01af 44bd ce83 793d ead3 06bd 2d35 12bd

net.3.bias f4 [64]
0.09093087 0.099212155 0.013002289 0.035798874 -0.029784085 0.13707414 0.0711368 0.09587472
-0.06710294 0.10931538 0.050746936 0.13703996 0.043999013 0.084411055 0.06471923 0.04605437
0.042309202 -0.053046793 0.014654956 0.044858985 0.026143992 0.07823276 0.06302669 0.109508775
0.043077387 0.024056396 0.10272273 0.034025792 0.09743882 0.016559096 0.07347273 0.07090982
0.035347585 0.009193831 0.08729516 0.006978466 0.047231812 0.0036086442 0.06858553 0.08319672
0.065648735 -0.086846374 0.061073814 -0.015989888 0.00089735794 0.07568871 0.06661764 0.03259097
3.5743135e-05 0.004158462 0.1500374 0.08231433 0.1192756 0.08967083 0.06847534 0.03896457
-0.02611193 0.035545032 0.055923894 -0.0012542598 0.061939064 0.047952928 0.07446382 0.073861845
00000000: f739 ba3d be2f cb3d 8e07 553c d7a1 123d
00000010: c1fd f3bc 2a5d 0c3e 2cb0 913d f759 c43d
00000020: 446d 89bd bee0 df3d 05dc 4f3d 3454 0c3e
00000030: 4f38 343d b4df ac3d 848b 843d 82a3 3c3d
00000040: 6a4c 2d3d 9847 59bd 571b 703c 0ebe 373d
00000050: ed2b d63c 7f38 a03d 2314 813d 2346 e03d
00000060: ea71 303d eb11 c53c 4b60 d23d a15e 0b3d
00000070: 018e c73d f1a6 873c df78 963d 2b39 913d
00000080: a1c8 103d b9a1 163c cec7 b23d 9eab e43b
00000090: 2576 413d 017f 6c3b 9276 8c3d 0b63 aa3d
000000a0: d872 863d 83dc b1bd 8928 7a3d 3afd 82bc
000000b0: ac3c 6b3a af02 9b3d d46e 883d 1c7e 053d
000000c0: e6ea 1538 b543 883b 67a3 193e 6a94 a83d
000000d0: c446 f43d 57a5 b73d cd3c 8c3d 5099 1f3d
000000e0: b0e8 d5bc ab97 113d 7410 653d fa65 a4ba
000000f0: d1b3 7d3d 4a6a 443d 7d80 983d e144 973d
