bestclf/bestclf_adult_010.pth (torch, 30389 bytes, 19 tensors)

fc1.weight f4 [25, 95]
000000 3b ad 4e be 42 1b cb bc c2 ba bf bd 79 78 8e be
       -0.2018327 -0.024793271 -0.09361793 -0.27826288
000010 e8 46 30 be 58 30 da bd e4 67 4d bd b0 67 66 3d
       -0.17214549 -0.10653752 -0.050147906 0.056251228
000020 d2 8d b3 bd ff 7b 88 3c e8 4b aa 3d e6 16 c1 3c
       -0.087672845 0.016660688 0.08315259 0.02357049
000030 8c 74 d6 3d db 2c 93 3d a0 12 89 3d e0 b9 08 3d
       0.10471448 0.0718629 0.066930056 0.03338039
000040 fe 9e 21 3e a9 f3 d8 3d 54 95 82 3d 6a f1 7e bd
       0.15783307 0.105933495 0.06376138 -0.06224195
000050 00 26 17 be 16 80 17 be 6a 5c 5d 3c 5d 71 55 be
       -0.1476059 -0.14794955 0.013510803 -0.20844026
000060 7d bc 80 ba a5 29 17 be 54 d8 1a 3e 6a 23 e2 bd
       -0.0009821799 -0.1476198 0.15121585 -0.11041911
000070 e8 d9 1d be b5 0a 36 3d 7c b7 59 3e 51 44 a7 3d
       -0.15415156 0.044443805 0.212614 0.08167327
000080 0f 91 6b 3d f1 16 2b 3b f7 e2 65 3d eb 22 25 be
       0.057511386 0.0026106203 0.056124654 -0.16126601
000090 94 aa 2d 3e 4b 72 2c 3e 71 5a 96 bb 82 1d 86 3e
       0.16959602 0.16840474 -0.004588418 0.26194388
0000a0 e2 f5 44 3d 71 fd 07 be 49 06 0d be bc 75 94 bd
       0.048086055 -0.13280274 -0.13771929 -0.072490185
0000b0 cb 4e 4a be a7 64 0d 3d 19 17 ee 3d 5d 94 28 3d
       -0.1975662 0.034519818 0.11625499 0.041157115
0000c0 4d f2 db 3e ec 41 89 3e 0b d3 2e be 70 6f 71 bd
       0.42958298 0.26808107 -0.17072694 -0.058944166
0000d0 f7 0c aa 3d 03 f6 d0 3c 5d 87 4a 3d 8d 5e 50 bd
       0.08303254 0.025507933 0.0494455 -0.05087142
0000e0 44 6e 2c 3d 21 e2 23 3d a5 d6 e3 bb 5a 51 47 bc
       0.042097345 0.040010575 -0.006953078 -0.012165392
0000f0 44 37 1f 3b 97 aa ff 3c c7 09 fb bc d0 da 5f bc
       0.0024294415 0.031209273 -0.03064431 -0.013663009
000100 e5 aa 17 bc 67 ec 9a 3d 98 3f ee bd fa a3 86 3c
       -0.009257053 0.075646214 -0.11633223 0.016435612
000110 60 25 bf bb 4f f0 45 ba 9a 72 1c bc 21 91 ff 3c
       -0.005833313 -0.00075507624 -0.0095488075 0.031197133
000120 87 38 ec bd 77 20 1e 3d 73 7e 49 3a 6f 25 64 bc
       -0.11534219 0.03860518 0.0007686384 -0.0139249405
000130 3e 68 bd bb dc 72 cc bd 05 df 0d bc f7 53 95 3e
       -0.005780249 -0.09982845 -0.008659129 0.29165623
000140 86 98 9e 3b b0 27 ee 3c 73 c6 68 3c 5f 68 98 bc
       0.0048399596 0.029071659 0.01420747 -0.018604456
000150 8e 27 c5 3c c7 75 e0 3c 33 61 50 3d c6 81 7b bb
       0.024066713 0.02739991 0.050873946 -0.0038376912
000160 a6 05 a7 3c 85 12 0f 3d c8 57 d1 3b 17 91 d9 3a
       0.020388436 0.03492977 0.006388638 0.0016599026
000170 4b 6e e5 bc 6f 3c 24 3d 34 d1 28 bb cb 44 31 be
       -0.028006693 0.040096696 -0.002575946 -0.17311399
000180 08 98 22 ba da 16 ae bd bf 2a 34 be d8 a9 02 3d
       -0.0006202464 -0.08500452 -0.17594431 0.031900257
000190 78 58 08 be 66 87 8c 3b 15 d7 fe 3c 4e cf 4b 3d
       -0.13314998 0.0042886017 0.031108418 0.049758248
0001a0 53 d2 30 3e 0b 2a 87 3b 0c b5 84 3c ed 0e e0 bc
       0.17267732 0.004124885 0.016199611 -0.027350867
0001b0 b2 89 2c 3d 87 c2 9b 3c 3f cf 00 3d 98 21 5c 3c
       0.042123504 0.019013656 0.031447645 0.013435744
0001c0 ba 9a c6 3c c4 22 2c 3c ca 9b 5a bb f8 be b1 bc
       0.024243701 0.010506336 -0.0033357018 -0.021697506
0001d0 df f8 f4 bc 65 e9 58 bd 87 73 8d 3c a7 f5 d9 bb
       -0.029903827 -0.052956957 0.017267002 -0.0066515985
0001e0 fc 84 5e bd 67 e2 22 3c ce ad 42 39 e1 15 e4 bd
       -0.054326043 0.009941674 0.00018566029 -0.111369856
0001f0 7f 2b ba 3c ba 50 45 3d b5 ae c4 bc 04 25 86 bc
       0.022725819 0.04817269 -0.024009088 -0.016375072
000200 3e 1c 9b 3b 2a 19 10 bd b0 7d f6 3b a4 c3 5d 3d
       0.0047335913 -0.03518025 0.0075223073 0.054141656
000210 46 aa 9d bc eb 5e bc bc af c5 db 3c 45 cb 15 3b
       -0.019246232 -0.02299448 0.026827661 0.0022856754
000220 7d 98 e3 bc b0 6b 82 bc 2d d3 a4 bd 05 9e 31 bd
       -0.027782673 -0.01592049 -0.08048091 -0.04336359
000230 cb 82 98 bc c3 91 d5 3c ff 60 de bc 43 f4 71 3e
       -0.018617054 0.026070481 -0.02714586 0.23628335
000240 1b f2 c8 3d ea 79 07 3d 84 d6 31 3c 42 8f 36 bd
       0.09811803 0.03307525 0.010854367 -0.044570215
000250 64 e3 be 3a 95 98 c8 bb d1 f7 76 bc 64 75 8b 3c
       0.0014563617 -0.006121705 -0.0150737325 0.01702375
000260 9c 03 ba 3b 63 61 f7 bb 89 30 01 bb 2b dc 82 3b
       0.0056767 -0.007549451 -0.0019712767 0.003993531
000270 49 54 2f 3b 26 21 59 3b f0 c8 52 3b 95 f0 9c bc
       0.0026753119 0.003313133 0.0032163225 -0.019157687
000280 89 bc 17 3c bd 17 0a 3d 19 a8 1b bc 9d 26 58 ba
       0.009261259 0.033714045 -0.009500527 -0.00082455
000290 bf 1f ff 3b 66 24 a2 bb 02 7e 04 3c 05 30 23 3a
       0.007785767 -0.0049481867 0.008086683 0.0006225112
0002a0 55 2e 43 3c 24 1b a7 ba a5 d3 57 bc d9 25 be 3c
       0.011912902 -0.0012749177 -0.013173019 0.023211407
0002b0 18 e6 96 3c a5 ed 91 3a 86 bc 2a 3d d7 d3 ec 3a
       0.018420264 0.0011133446 0.041683696 0.0018068504
0002c0 af 4e 94 3a e7 2c a6 3b db 97 11 3d 4a c8 33 bc
       0.0011314953 0.0050712707 0.03554521 -0.010973046
0002d0 59 5e 31 bb 8e b2 0b bb 07 41 16 bb 38 6e a3 3b
       -0.0027064292 -0.0021316144 -0.0022926943 0.0049875043
0002e0 30 13 69 3c ac 3e ee bb ac 5d 70 bb 97 9f c8 bd
       0.014225766 -0.0072706547 -0.0036676927 -0.09796064
0002f0 78 9b b3 3c 4c 5d 7a 3a 72 64 28 be d9 a5 83 bd
       0.02192472 0.00095506455 -0.16444567 -0.06428117
000300 c9 b0 0a be 92 a0 97 be 0d 6d 3c be c3 05 11 be
       -0.13544 -0.29614693 -0.18400975 -0.14162354
000310 32 92 31 bc ce 25 c1 3d 38 b4 61 bc 64 83 64 3d
       -0.010838078 0.09431039 -0.013775878 0.055789366
000320 ba 66 bf 3d 5f a8 f0 3b f2 77 cb 3d 33 2b a1 3d
       0.093457654 0.00734429 0.09934987 0.07869568
000330 af ab 02 3e 97 1b e5 3c be a9 27 3e 9a 04 80 3e
       0.12760805 0.027967257 0.16373345 0.2500351
000340 9b a1 b7 3d 36 0b 49 bb 45 2e d8 bd d9 ee 1a be
       0.08966371 -0.0030676848 -0.105557 -0.15130176
000350 94 e5 26 bd ce 84 38 be 1d 12 8a 3a 16 6d cc bd
       -0.040746287 -0.18019411 0.0010533963 -0.09981744
000360 94 86 86 3d e7 3f 28 be fd 9e 46 be 73 a2 8e 3d
       0.065686375 -0.16430627 -0.19396587 0.069645785
000370 52 de 75 3e 61 27 ea 3d e0 73 f4 3d 83 4d 5f 3c
       0.2401059 0.11433292 0.11936164 0.01362932
000380 4c e6 ad 3d d6 cb 0b be 31 eb 37 3e 62 79 db 3d
       0.08491191 -0.13651976 0.17960812 0.10716511
000390 9f 9c ee 3c 9e b8 36 3e 9c 26 93 3d 55 80 25 be
       0.029127417 0.17843863 0.071850985 -0.16162236
0003a0 c8 13 a9 bd a4 d9 8d bd 8d a4 3f be 7e 4e cc bc
       -0.08255726 -0.06926277 -0.18715115 -0.024939772
0003b0 ab 87 69 3d 3e d1 29 3d df a2 db 3e e6 95 a4 3e
       0.05701415 0.041459315 0.42897698 0.32145613
0003c0 65 44 14 be 6f 2b 08 be 89 97 8a 3d 8f 8c 8a 3d
       -0.14479215 -0.13297819 0.06767184 0.06765091
0003d0 82 1d 42 3d 30 8d 7d bc 9c 7d e6 3c d5 67 cf 3c
       0.047391422 -0.015475556 0.028136067 0.025318066
0003e0 62 29 04 3b 36 ba 08 3d d7 ce a1 3c a2 a6 ad 3c
       0.0020166268 0.03338071 0.01975195 0.02119762
0003f0 19 45 8c 3d 00 eb 40 3c a2 4f 50 3d db 0a ec 3c
       0.06849117 0.011774778 0.050857194 0.02881377

fc1.bias f4 [25]
000000 31 4b 0e 3d 7d d5 72 3d 6e 3c f7 3c bf 99 bc 3d
       0.034739677 0.05928563 0.030180182 0.09209012
000010 8a ef 51 3d c3 7c 9b bd 6b 5d 07 bc 1c 23 9b 3b
       0.051253833 -0.07592156 -0.008262019 0.00473441
000020 a9 53 06 be df 95 d4 bd 85 a8 87 bd 3a 2f 92 3d
       -0.13117851 -0.10380148 -0.066239394 0.07137914
000030 be b0 82 bd f5 1f 76 3d 0a d4 b7 bd 1c 29 2a be
       -0.06381367 0.06008907 -0.0897599 -0.16617244
000040 41 bd 10 be 3d 9f c1 bd 5d 6a 99 bb 4d d5 01 be
       -0.14134695 -0.094542004 -0.004681869 -0.12679024
000050 68 66 23 be aa e1 f4 bd b9 c1 3b 3d ef 96 e7 bd
       -0.15957034 -0.119571045 0.045839045 -0.11308085
000060 34 d1 b9 bc
       -0.022682764

fc2.weight f4 [25, 25]
000000 34 da 3a 3e 4b 96 45 3d 1f 54 48 3e f9 0c 17 3e
       0.182473 0.048239034 0.1956334 0.14751042
000010 40 e7 b3 3d a3 94 dc bd 38 4e 5e 3c a6 41 3c 3d
       0.08784342 -0.10770538 0.0135684535 0.045961045
000020 23 55 c2 bd 65 33 c6 bd e5 9b 0b 3d 0b bd 63 3e
       -0.09488895 -0.096777715 0.03408422 0.22240083
000030 92 ef bc bd 8b 77 0f 3e 02 b4 d5 bd 45 68 aa bd
       -0.09225382 0.14010446 -0.104347244 -0.08320669
000040 ab 62 c9 bd 50 a0 9f bd 0d 41 fb 3d 52 8b 94 bd
       -0.098332725 -0.07794249 0.12268267 -0.07253136
000050 e1 96 98 bd ae ca c5 3b c0 c1 39 3d b8 70 8f bd
       -0.07450653 0.006036124 0.04535079 -0.07003921
000060 be c7 12 3e f8 16 30 be 7d 1a b2 bd c4 42 0d be
       0.14334008 -0.17196262 -0.086964585 -0.13795
000070 11 7b 1c be 32 0a 26 be 05 ba 19 3e b2 7a 82 bd
       -0.15281321 -0.16214827 0.15012367 -0.063710585
000080 82 dc 1a be 8b ec f5 3d 26 6f bb 3d 03 32 d6 bd
       -0.1512318 0.120080076 0.09152059 -0.10458758
000090 db 0f 51 be 1a 98 89 3d 72 4d 49 bd 3a e8 00 3e
       -0.20416205 0.06718464 -0.049146123 0.12588587
0000a0 5a 02 e7 3d 64 c0 f6 3d b7 b5 15 3e 19 3d 10 be
       0.112797454 0.12048414 0.146201 -0.14085807
0000b0 3f fb f2 3d 6c f9 1d 3e f0 90 f4 3d c7 ef 22 be
       0.11864328 0.15427178 0.11941707 -0.1591178
0000c0 80 8b d3 3d af 99 12 be 0c 92 4d bd 0d fe 74 bb
       0.10329342 -0.14316438 -0.05018811 -0.0037382871
0000d0 32 6e 7b bd 45 ec 46 bd 19 a9 6b bd 80 55 ea 3b
       -0.061384387 -0.048565168 -0.05753431 0.0071513057
0000e0 6d e6 e3 3c de 8f 31 bd e5 46 0c bd b3 69 90 3a
       0.027819837 -0.043350093 -0.034247298 0.0011017829
0000f0 22 74 ce bc 95 4d 58 bd 17 b7 ca bc 71 0e 13 bd
       -0.02520186 -0.052808363 -0.024745507 -0.035902444
000100 65 b0 7a 3c 49 27 0c 3c 8b 37 b9 bb 81 73 a1 bc
       0.015300845 0.008554288 -0.005652373 -0.019708397
000110 b9 a9 4f bd f2 f4 0b 3d 03 d7 60 bc 2c 87 6a bd
       -0.05069897 0.034169145 -0.013723138 -0.057257816
000120 ac 59 18 bd 69 60 4b 3c d9 38 56 bd 76 91 a6 3c
       -0.037194893 0.012413123 -0.052300308 0.020333033
000130 39 27 55 3d 29 f8 87 3d a9 e0 a2 3d 29 29 19 3e
       0.05203936 0.0663913 0.07953007 0.14957108
000140 fc 6a 8a bd 75 19 e4 3d 2f e2 49 3d 4b f1 e9 bd
       -0.06758687 0.11137668 0.04928797 -0.11422976
000150 6b a6 23 be 7b b3 30 3d 30 8c 84 3e 33 1e bb bc
       -0.15981452 0.043139916 0.25888205 -0.022841549
000160 c0 1b d2 3a db 75 59 be 18 cb e0 bd c9 f7 1c be
       0.0016029999 -0.21236365 -0.10976237 -0.15328898
000170 15 40 ec bd a8 d8 d8 3c f5 5d c4 bd c7 fd a0 bd
       -0.1153566 0.026470497 -0.095882334 -0.07860904
000180 0a e1 04 bd ea 27 3b 3e 6a 5c 95 bb 12 01 70 3d
       -0.032441176 0.18276945 -0.0045581358 0.05859477
000190 ef e3 99 bc 9c f4 23 3d 10 7f 3d bc 28 5b bc 3c
       -0.018785445 0.0400282 -0.011565939 0.022992685
0001a0 64 37 69 3c 73 7e cc bb 57 6b 74 3c 49 e4 2c bc
       0.014234398 -0.00624066 0.01491817 -0.010552474
0001b0 ce 98 43 bd 0d 8c eb bc ba 69 51 bc a5 0f ca bc
       -0.047753148 -0.028753305 -0.012781555 -0.024665663
0001c0 fd f5 13 bd dc 2d ae bc 6d 00 c3 3b 4e 65 04 bc
       -0.036123265 -0.021262102 0.0059509785 -0.008080794
0001d0 2c 3e d3 bc c0 55 0a bd a3 64 a4 bc ee 65 f2 bb
       -0.025786482 -0.033773184 -0.020067519 -0.007397405
0001e0 0c 96 16 bd 6e 0d 97 bd d2 cf f8 3c 99 5d 9f bc
       -0.03676419 -0.073756084 0.030372534 -0.01945381
0001f0 e1 61 e5 bc 6d ff 8f 3b 37 97 30 3b bb 2d 90 bc
       -0.028000774 0.004394463 0.00269456 -0.017599931
000200 01 d9 bf bc 89 69 97 3c 91 15 05 bd 58 9c 87 3c
       -0.023418905 0.01848294 -0.03249127 0.016554043
000210 96 c0 46 bc 0d 78 2e bd cc 66 a1 3b dd 7c a5 3c
       -0.012130877 -0.042594958 0.0049255844 0.020201141
000220 d0 f2 09 ba be 39 15 bd 9d 94 98 3b 65 7a 1c bd
       -0.0005262317 -0.03643202 0.004656388 -0.038202662
000230 8c cf c9 bc b8 70 6b bd ec cd 36 bd e7 d3 17 b9
       -0.024635099 -0.057480544 -0.044629976 -0.00014479422
000240 b2 d4 c9 bc 50 31 0f bd b5 8d 5d bd 87 d9 e3 3c
       -0.024637554 -0.034959137 -0.05409022 0.027813686
000250 a9 65 80 bb 2d a0 cc 3c df 65 83 3d 33 50 5d 3c
       -0.003918369 0.024978722 0.06415915 0.0135078905
000260 fe 9c 00 3d cd 17 f3 3d 6b 58 f5 3d c9 88 67 bd
       0.03139972 0.11869774 0.11979755 -0.056526933
000270 2d 0c b1 3c e5 74 8f 3c b8 b0 1a bd 23 c2 b0 bc
       0.021612251 0.017511794 -0.03776619 -0.021576947
000280 93 4e 54 bd c8 bb a4 3d f4 e7 c1 bc fc 7b 94 bd
       -0.051832747 0.08043629 -0.023670174 -0.07250211
000290 61 6a a1 bd 92 a9 1e bd 9d 3c 80 bd 89 8d a9 bc
       -0.07881618 -0.038735934 -0.06261561 -0.020697372
0002a0 ba 32 b9 3c 23 55 47 bd 8e 4f 1a bd 34 bc 8b 3d
       0.022607196 -0.048665177 -0.037673526 0.06823006
0002b0 ad a9 ef 3d 19 05 38 bb 63 b8 ec 3d cb 24 f1 3d
       0.11702285 -0.002807921 0.115586065 0.11774596
0002c0 de 4d 21 3d 08 56 35 3e ab 9c 83 3e 39 7f a3 3d
       0.0393809 0.177086 0.25705466 0.0798325
0002d0 05 8d 9b bc 85 da 50 3c 92 98 2e 3e 2b dc 6a bd
       -0.018988142 0.012747412 0.17050388 -0.057338875
0002e0 88 4e 20 be 2b 7b 31 3e 51 70 5f 3e 04 06 d7 bd
       -0.15654957 0.17332141 0.21820189 -0.10499194
0002f0 e2 39 21 3e 21 7e 09 bd ec ff 80 bd 00 35 0b be
       0.15744737 -0.03356755 -0.06298813 -0.13594437
000300 fc 11 a4 bd 2a e4 e1 3c 3c e7 9d bd bd 7c 0c be
       -0.08011243 0.027574617 -0.0771012 -0.13719459
000310 ae 67 29 3d e2 c4 af 3d c6 68 79 bd bd 67 0f 3e
       0.041358642 0.08582474 -0.060890935 0.14004417
000320 35 7e 1e bd ba ae 1d 3b 28 8e 32 bd 71 26 e3 3b
       -0.03869458 0.0024060444 -0.043592602 0.006932073
000330 96 7a 72 bc 53 22 1c 3d f2 b2 56 bc bf 0e 38 bd
       -0.014799735 0.03811867 -0.013104187 -0.044935938
000340 87 d0 5f 3c b4 c0 2a 3c b6 d0 08 bd 73 a5 55 bd
       0.013660557 0.010421921 -0.033402167 -0.052159738
000350 1d aa bc 3c 89 f0 fc bc 63 6e 61 3c 08 a6 e4 3c
       0.023030335 -0.030876415 0.013759228 0.027911201
000360 d8 94 7d 3c 2d 98 5a 3c 0c 9b d1 bc 42 94 18 3d
       0.015477382 0.013341946 -0.025586627 0.037250765
000370 cc 68 9f 3c 45 2c b6 bb 14 92 1d bd a0 4d a1 3c
       0.01945915 -0.0055594766 -0.03846939 0.019690335
000380 e6 30 4c bc 9a 3c 4d 3e b7 73 3d 3d 39 aa 9b 3d
       -0.01246283 0.20042649 0.046252932 0.07600827
000390 52 ab 95 3d f4 a4 29 3e 10 7a 73 bd 4a 4a 23 3d
       0.073080674 0.16566831 -0.05944258 0.03986577
0003a0 52 74 53 bd 1f 57 e3 bd d9 ee a7 bd b0 bf 1e 3e
       -0.051624604 -0.111006014 -0.081998535 0.1550281
0003b0 39 5e 59 3e 10 e3 c4 bd 08 11 25 3e 77 bc 1f be
       0.2122735 -0.09613621 0.16119778 -0.15599237
0003c0 bc d2 f0 bd 6c 43 b0 bd fa 73 fa bd e1 a3 09 bc
       -0.117589444 -0.0860661 -0.12229152 -0.008400888
0003d0 0a 38 a8 bd 57 9c f7 bd 1e 6d d2 bc 6d 71 35 3e
       -0.082138136 -0.12090366 -0.025686797 0.1771905
0003e0 cb f0 97 bd 0b 88 21 3e a8 95 2e 3e 56 35 9c 3d
       -0.074189745 0.15774553 0.17049277 0.076273605
0003f0 be 76 8b 3d f3 48 6d 3d ee a8 30 3e 7c 6b 39 bc
       0.06809758 0.057930898 0.17251942 -0.01131713

fc2.bias f4 [25]
000000 78 14 ce 3d de 50 69 be d0 43 c2 bd 6f 48 20 3e
       0.10062498 -0.22784755 -0.094855905 0.15652631
000010 bc e7 95 bd 97 d3 47 bd 35 ae 0d 3e 71 b4 83 3d
       -0.073195904 -0.048785772 0.13835986 0.06430901
000020 8e 78 ae bd 8d 7c 0b 3e e4 38 5f 3e e1 2b 4b bd
       -0.08519088 0.13621731 0.21799046 -0.049602393
000030 b7 2a 0e 3e 4f 19 94 3c d6 72 3b be 97 98 03 3d
       0.13883482 0.018078474 -0.18305525 0.032127943
000040 19 8f 23 be 85 7b 29 3e ae 85 ef bd d0 19 0b 3e
       -0.15972556 0.16551025 -0.11695419 0.13584065
000050 93 7e 95 bd b7 07 08 3d 57 d6 ff 3d 2e 07 c8 3d
       -0.07299533 0.033210482 0.12492054 0.097669944
000060 26 49 28 bd
       -0.041085385

out.weight f4 [1, 25]
000000 51 37 3f 3e fe 5e 8d bd 7f 53 8d be 77 ca 17 be
       0.18673445 -0.06902884 -0.27602765 -0.14823328
000010 19 1d 9b 3e 48 a0 14 3e a4 bb 19 be 3e 45 5e 3e
       0.30295637 0.14514267 -0.15012985 0.21706101
000020 e1 55 00 3e 5c c7 80 3e d6 eb 48 be 7b 42 44 bd
       0.1253276 0.251521 -0.19621214 -0.047914963
000030 fc 79 29 bc 4e 6e 1e be c8 fa 86 3e 36 6a 60 3e
       -0.010344025 -0.15471765 0.26363206 0.21915516
000040 64 ec 25 be 7d f6 81 be 07 23 48 3e e3 6d 5c be
       -0.16203457 -0.25383368 0.19544612 -0.21526293
000050 ab 84 5e 3e 69 70 5f be 53 50 55 bd 68 17 27 3e
       0.21730296 -0.21820225 -0.052078556 0.16317523
000060 b5 52 02 3e
       0.12726863

sep_conn.weight f4 [25, 95]
000000 8c 68 78 3d b5 bb e7 3b e3 51 a1 bc a2 2d b5 bd
       0.06064658 0.007071937 -0.019692367 -0.088465944
000010 99 b8 74 bc 60 25 a8 3d 81 2f d0 bd 03 a2 2f bc
       -0.01493659 0.08210254 -0.10165311 -0.010719779
000020 19 b2 ac bd b7 80 81 3d 0f 1d 3d bd dd ff 98 bd
       -0.08432407 0.063233785 -0.04617029 -0.07470677
000030 01 8c 56 bc 01 67 46 3d da 83 84 3d 49 df d2 3c
       -0.013094903 0.048438076 0.06470461 0.025741236
000040 b9 c7 a6 bd 2f ab 89 3d 41 15 2c 3c be d0 c4 bc
       -0.08143563 0.06722104 0.010503114 -0.024025317
000050 29 b8 82 3d f5 26 86 3c 20 96 83 bd de 18 cf 3d
       0.06382782 0.016375998 -0.064251184 0.10112165
000060 8b 87 6d bd dd cb a3 bc 12 13 2c bd 67 1b ad 3d
       -0.057990592 -0.01999467 -0.042010374 0.08452492
000070 cf 54 b0 3d 0d 86 70 bd c7 0b 37 3d 67 80 bb 3d
       0.08609926 -0.05872159 0.044688966 0.0915535
000080 3e 0e 2b bc 43 2e 90 bc 1d 5d 99 bd 18 b1 a5 bd
       -0.010440407 -0.017600184 -0.07488463 -0.080904186
000090 da eb 7c bb 6b 3d 1c 3d a1 9e 2c 3d 1a 3e 2e bd
       -0.0038592727 0.03814451 0.042143468 -0.042539693
0000a0 85 a6 75 bb 15 3d ce bd d7 74 a2 bd cd 4b a4 3c
       -0.0037483287 -0.10070244 -0.07932442 0.020055676
0000b0 f2 78 79 3c a4 48 87 3c 7c 4e 81 3d 10 87 47 bd
       0.0152265895 0.01651413 0.06313798 -0.04871279
0000c0 ea 27 f5 bc 7e 8d bd 3a 99 2a 1b ba 71 86 1a 3b
       -0.02992626 0.0014461724 -0.00059191283 0.0023578668
0000d0 0c b1 71 bd 28 57 93 3d 20 b4 6c bc c4 7f 4e 3d
       -0.059006736 0.07194358 -0.014447242 0.050414816
0000e0 53 b0 76 3d 77 b2 bb 3b 7c d7 47 3c fd c9 84 3d
       0.06022675 0.005728062 0.012197372 0.06483839
0000f0 cd 8e b5 bd ef 4f 64 3b d9 6a c6 bd ef 2e bc bd
       -0.08865128 0.0034837683 -0.09688348 -0.091886394
000100 65 97 ba bb e4 20 34 3d 4e 2e 2d 3d dd dc 04 bd
       -0.005694317 0.04397668 0.042280488 -0.032437194
000110 4b a7 9c 3d 56 74 8f bd d0 1d 4b bd 35 5e 44 bd
       0.07649096 -0.07004611 -0.04958898 -0.047941405
000120 9f 23 84 bd 4e 87 92 bb b0 b4 11 bd ee 86 93 bc
       -0.06452107 -0.004471696 -0.035572708 -0.018008675
000130 15 49 6e 3c d6 bf 53 3d 20 8f 84 3d 20 76 8e 3d
       0.014543791 0.05169662 0.064726114 0.06956124
000140 61 72 a5 3d d6 d5 6b 3d fd 2d 6f 3d 91 12 2b 3d
       0.08078457 0.057576977 0.058393467 0.041765753
000150 8c 1d b1 3d 1c 4a ad 3d c4 5a 6e 3d c1 11 b1 bd
       0.08648214 0.08461401 0.05819203 -0.086459644
000160 78 8f 7d bd c2 3b f0 3c 2c 4d 37 bb 35 b4 ab 3d
       -0.0619044 0.02932537 -0.0027969582 0.08383981
000170 2b aa 88 bc c4 c2 cd bd 07 41 f5 3c 51 ec 24 3d
       -0.016682705 -0.10046914 0.029938234 0.04026443
000180 54 a3 a2 bd 4b 6b 95 bd 63 94 c0 bc 39 08 15 3d
       -0.079413086 -0.07295855 -0.023508256 0.036384795
000190 ee 19 bf 3c 5d 5d 5d bd 7f aa 6e bd 18 db 44 3d
       0.023327794 -0.054044116 -0.058268066 0.048060507
0001a0 2e 39 59 bd 98 88 dd bc fd b7 47 bd be 2a c0 3d
       -0.053033046 -0.027042672 -0.04875945 0.093831524
0001b0 ab fa be bd 39 9b 40 3d e8 f8 75 3d fd 95 09 bd
       -0.09325155 0.04702303 0.06005183 -0.033590306
0001c0 01 41 bd bc b1 22 8e 3d da 9e a0 bd c9 69 99 bd
       -0.023102285 0.069402106 -0.078427985 -0.0749088
0001d0 df 14 7c bd 23 e3 66 3d e4 82 35 3d ab 09 5f bd
       -0.06154334 0.05636896 0.04431428 -0.05445258
0001e0 3e 1f 87 3c f1 fd 98 bd a5 bf 90 bd 5c 74 0c bd
       0.01649439 -0.074703105 -0.07067803 -0.034290656
0001f0 03 4f 4d 3d 7c 1b 63 bd 13 89 ae 3c ff e3 66 bc
       0.05012418 -0.055446133 0.021305596 -0.014092444
000200 d3 0f 0f bd 1d 24 84 bd a2 1e 39 3d 1e 82 9d 3d
       -0.0349272 -0.064522006 0.04519523 0.076908335
000210 93 89 a6 bd 28 51 2e 3d 3a 18 aa bd 17 ef cd bd
       -0.08131709 0.042557865 -0.08305402 -0.100553684
000220 6a 5e ce 3d 26 74 a6 3d 4e 28 9e bd af 86 58 3d
       0.10076602 0.08127622 -0.07722531 0.05286282
000230 00 8f 3e 3d 11 cf 0a 3c ba 1b 83 3c 93 33 83 3d
       0.046523094 0.00847222 0.016004432 0.064063214
000240 cd 13 38 bd 19 f5 c6 3d a0 10 7e 3d 54 f6 25 3c
       -0.04494076 0.097147174 0.062027574 0.01012953
000250 8e 86 3f bd dc fc 2b 3d a9 c0 b3 bd ef 25 1a bd
       -0.04675918 0.041989192 -0.087769814 -0.037633833
000260 a3 3b 68 bd 1c b7 8e bd 87 33 98 bd a9 bd 14 3d
       -0.0566975 -0.06968519 -0.07431703 0.036313687
000270 5a c8 a0 bc 11 91 3b 3d 57 4b 85 bd f3 1d 55 bd
       -0.019626785 0.045792643 -0.065085106 -0.052030515
000280 4b b9 ca bc c2 5a 36 bd b0 49 98 3c ca e0 4f bd
       -0.024746558 -0.044520147 0.018589824 -0.050751485
000290 b9 c0 6e bd 36 96 c3 bd 71 78 b0 bc 41 b3 a5 3d
       -0.058289263 -0.09550135 -0.021541806 0.080908306
0002a0 f2 bc b6 3c 5f 48 ba bd e6 bd c6 bd 24 0b a3 3d
       0.022306893 -0.09095835 -0.09704189 0.07961109
0002b0 f4 a6 bc 3d 94 36 7b bc ce 48 dd 3c 46 48 9b 3d
       0.09211531 -0.015332837 0.027012255 0.075821444
0002c0 33 a9 e5 3c 02 83 35 bd 76 c8 a8 3c 96 fc b3 bd
       0.028034782 -0.044314392 0.0206034 -0.08788411
0002d0 86 ca a4 bd bf d3 be 3d 36 16 1f 3c 96 a7 57 bd
       -0.08046441 0.09317731 0.009709885 -0.052650057
0002e0 e7 f6 a1 bd 34 c1 a0 bd 38 01 48 bd 3f ce 0a 3c
       -0.07908421 -0.078493506 -0.048829287 0.008472024
0002f0 28 11 bf 3c 56 11 c5 3d 09 c8 3d 3d 2c 19 01 bc
       0.02332361 0.09622447 0.046333347 -0.007879537
000300 43 c0 c2 3c 91 66 d7 3c 64 e8 92 3c 03 a4 3f 3d
       0.023773318 0.026294025 0.017933078 0.046787273
000310 c7 a8 3c 3d b9 0f b8 3c cc 01 ad bd ce 37 a2 3c
       0.046059396 0.022468435 -0.08447608 0.019802
000320 c5 ac 50 bd 8f 00 bb 3a eb 9c 2d 3c cd 89 c2 bd
       -0.050946016 0.0014267134 0.010596494 -0.0949894
000330 8c 5c 89 bd bc 1e 50 3d 89 54 04 bd 67 d2 b1 bc
       -0.06707105 0.05081056 -0.03230718 -0.021706773
000340 78 60 1e bd 34 72 0a bd 8f 85 7a 3d 5c 53 3f 3d
       -0.03866622 -0.03380032 0.061162528 0.046710357
000350 ee 19 b7 bd b3 97 c2 3d d0 29 00 bd 15 7a cc bd
       -0.089404926 0.095015906 -0.031289876 -0.09984223
000360 03 ff 19 bd 99 9d c9 3d 02 05 85 bd e7 51 20 3c
       -0.037596714 0.098445125 -0.06495096 0.009785152
000370 9a 8a 57 bc ab af d4 bc 6c 9c 28 bd 11 bf d5 bc
       -0.013155604 -0.025962671 -0.0411648 -0.026092084
000380 4d 6d d2 3b 43 5c 9c 3d 0b db 1f 3c 1a 16 90 bc
       0.006421721 0.07634785 0.009756814 -0.017588664
000390 5a 28 12 3d f5 fa af bd 9e 18 19 bd 62 69 45 bd
       0.035683013 -0.08592788 -0.037376992 -0.048196204
0003a0 3d 9f 22 bd c4 dd 78 bc 8e 23 57 bd 0d 7c 4b bc
       -0.039702643 -0.015189592 -0.052524142 -0.012419713
0003b0 fe 85 05 3d ed 29 0c 3d ed 37 cf bc 6f 14 d3 3b
       0.032598488 0.03421967 -0.025295222 0.006441645
0003c0 dc 4f 7f 3d ef 86 e5 3c 4e a9 94 3d b6 9a 04 bd
       0.06233202 0.028018443 0.07258855 -0.032374106
0003d0 45 50 3a 3d 8d 67 47 bb 7b 48 49 3c 3c 46 b2 bd
       0.045486707 -0.0030426711 0.012285347 -0.087048024
0003e0 42 65 8c bd 61 d6 0e 3c 68 d5 2e bd db 9d 04 bd
       -0.06855251 0.008718104 -0.04268399 -0.032377105
0003f0 6f 12 81 bd c0 4f 42 3d a0 9e 84 3c dc 51 88 3d
       -0.06302344 0.047439337 0.01618892 0.066562384

sep_conn.bias f4 [25]
000000 37 c2 a0 bd 65 3d 85 bc 15 e3 8a bd cb ea 8f bd
       -0.078495435 -0.016264627 -0.06781594 -0.07027205
000010 cb bb a5 bb 0a 46 6a bd 89 b4 9e bc 36 64 3a 3d
       -0.005057787 -0.0571957 -0.019373195 0.045505725
000020 c6 46 79 3d a9 09 2e 3d 1c d4 23 bd 2f d7 97 bd
       0.06085851 0.04248968 -0.039997205 -0.0741409
000030 d6 d3 a6 3c 37 05 a4 3c 6d 32 ca 3c 13 3d a0 3c
       0.020364683 0.020022018 0.024682248 0.019560372
000040 f3 f6 81 3d 32 e9 ac bc a1 05 18 bd eb 8e 08 3d
       0.0634593 -0.02110729 -0.037114743 0.033339422
000050 5c ad 42 3d 34 a8 02 3d ba 57 c8 3d 0f 97 5d 3d
       0.04752861 0.031898692 0.097823575 0.05409914
000060 35 1b a7 bd
       -0.08159486

bn.weight f4 [25]
000000 00 00 80 3f 00 00 80 3f 00 00 80 3f 00 00 80 3f
       1.0 1.0 1.0 1.0
000010 00 00 80 3f 00 00 80 3f 00 00 80 3f 00 00 80 3f
       1.0 1.0 1.0 1.0
000020 00 00 80 3f 00 00 80 3f 00 00 80 3f 00 00 80 3f
       1.0 1.0 1.0 1.0
000030 00 00 80 3f 00 00 80 3f 00 00 80 3f 00 00 80 3f
       1.0 1.0 1.0 1.0
000040 00 00 80 3f 00 00 80 3f 00 00 80 3f 00 00 80 3f
       1.0 1.0 1.0 1.0
000050 00 00 80 3f 00 00 80 3f 00 00 80 3f 00 00 80 3f
       1.0 1.0 1.0 1.0
000060 00 00 80 3f
       1.0

bn.bias f4 [25]
000000 00 00 00 00 00 00 00 00 00 00 00 00 00 00 00 00
       0.0 0.0 0.0 0.0
000010 00 00 00 00 00 00 00 00 00 00 00 00 00 00 00 00
       0.0 0.0 0.0 0.0
000020 00 00 00 00 00 00 00 00 00 00 00 00 00 00 00 00
       0.0 0.0 0.0 0.0
000030 00 00 00 00 00 00 00 00 00 00 00 00 00 00 00 00
       0.0 0.0 0.0 0.0
000040 00 00 00 00 00 00 00 00 00 00 00 00 00 00 00 00
       0.0 0.0 0.0 0.0
000050 00 00 00 00 00 00 00 00 00 00 00 00 00 00 00 00
       0.0 0.0 0.0 0.0
000060 00 00 00 00
       0.0

bn.running_mean f4 [25]
000000 00 00 00 00 00 00 00 00 00 00 00 00 00 00 00 00
       0.0 0.0 0.0 0.0
000010 00 00 00 00 00 00 00 00 00 00 00 00 00 00 00 00
       0.0 0.0 0.0 0.0
000020 00 00 00 00 00 00 00 00 00 00 00 00 00 00 00 00
       0.0 0.0 0.0 0.0
000030 00 00 00 00 00 00 00 00 00 00 00 00 00 00 00 00
       0.0 0.0 0.0 0.0
000040 00 00 00 00 00 00 00 00 00 00 00 00 00 00 00 00
       0.0 0.0 0.0 0.0
000050 00 00 00 00 00 00 00 00 00 00 00 00 00 00 00 00
       0.0 0.0 0.0 0.0
000060 00 00 00 00
       0.0

bn.running_var f4 [25]
000000 00 00 80 3f 00 00 80 3f 00 00 80 3f 00 00 80 3f
       1.0 1.0 1.0 1.0
000010 00 00 80 3f 00 00 80 3f 00 00 80 3f 00 00 80 3f
       1.0 1.0 1.0 1.0
000020 00 00 80 3f 00 00 80 3f 00 00 80 3f 00 00 80 3f
       1.0 1.0 1.0 1.0
000030 00 00 80 3f 00 00 80 3f 00 00 80 3f 00 00 80 3f
       1.0 1.0 1.0 1.0
000040 00 00 80 3f 00 00 80 3f 00 00 80 3f 00 00 80 3f
       1.0 1.0 1.0 1.0
000050 00 00 80 3f 00 00 80 3f 00 00 80 3f 00 00 80 3f
       1.0 1.0 1.0 1.0
000060 00 00 80 3f
       1.0

fc3.weight f4 [25, 25]
000000 9c f6 e1 bd 04 bf 6a 3d 59 db be bc 2c a9 56 bd
       -0.11033365 0.057311073 -0.023297952 -0.05240743
000010 d0 92 b2 3b 14 7f 0d bd 40 34 e8 bc 8f 7c f0 bc
       0.0054496303 -0.03454502 -0.028345227 -0.02935627
000020 5f 5c 20 3c cf 0e fe bd e6 46 08 bd 79 9e 2b bc
       0.009787648 -0.12405168 -0.03327074 -0.010474795
000030 1d d1 b8 bd 9e 11 76 bd aa 53 58 3d 02 e0 59 bd
       -0.0902426 -0.060075395 0.052814163 -0.053192146
000040 e2 1d 80 3c a5 3d 87 bd 34 db cc b9 f1 3d 37 bd
       0.01563925 -0.06603555 -0.0003907323 -0.044736806
000050 d4 2f 6c bb 59 dc 82 bd 5f 08 4d bd 71 92 25 bd
       -0.003603925 -0.06389684 -0.05005681 -0.04042286
000060 70 7b a7 bd 6c 53 5e 3d 30 b0 aa bd 15 a7 a6 bc
       -0.08177841 0.054278776 -0.08334386 -0.020343343
000070 b1 19 9b 3c a2 37 2c bd a3 a6 87 3c 14 78 2f 3d
       0.018933149 -0.042045243 0.01655895 0.042839125
000080 91 10 03 3d 78 9f 20 bd e2 6c 27 3d 7f 09 f3 3c
       0.03199822 -0.03921458 0.040875323 0.029667614
000090 31 f4 97 bd e1 dd e4 3c 8c 27 48 3d 7d be 83 bd
       -0.07419623 0.027937831 0.04886584 -0.06432817
0000a0 ed ed 55 3d 33 05 a2 bc 17 f6 85 3c 1a 36 c7 ba
       0.052228857 -0.01977787 0.016352696 -0.0015198619
0000b0 43 69 19 3d 6f 4a 25 3a aa 4f 00 3d 0a f5 18 3d
       0.0374539 0.0006305342 0.031325974 0.037343062
0000c0 6a b7 09 3b 0e 87 33 3d a5 02 9a 3c 47 05 3b be
       0.0021013864 0.04382997 0.01880009 -0.18263732
0000d0 a2 9f 38 3c 6e 27 28 3d 8b 29 0b bc ed 06 28 bc
       0.011268528 0.041053228 -0.008493791 -0.0102555575
0000e0 71 e1 47 3e 4b a6 33 3d ea 47 c0 3b d7 2d 8f 3d
       0.19519593 0.04385976 0.005867948 0.06991165
0000f0 b1 5b 2c 3e 26 c3 26 3c 8a 01 eb 3d 6e 76 58 3c
       0.16831852 0.010178363 0.11474903 0.01321183
000100 34 64 12 be 52 73 af 3d 6d 20 32 bc 69 56 65 3e
       -0.14296037 0.085669175 -0.010871989 0.22396244
000110 7e 18 08 bd 42 06 07 bd 29 50 2a bd a1 f9 bd 3c
       -0.033226483 -0.032964952 -0.041580353 0.023190321
000120 f8 8a 51 3e d5 35 2b 3e 52 6e 15 3e 56 37 03 3e
       0.20463169 0.16719754 0.14592865 0.12814078
000130 a1 e3 cf bd 7d 10 03 3c a8 59 b1 3d 63 23 98 bb
       -0.10150839 0.007999537 0.08659679 -0.0046428903
000140 b5 b9 d3 bc 03 5c 9f 3c b2 0d 25 3d 3b 44 aa bc
       -0.025845388 0.019453054 0.040296264 -0.020784488
000150 1f 51 cd 3d d5 bc f0 3d 1a cc 17 bb ab 3d f2 3d
       0.10025238 0.11754767 -0.0023162425 0.118281685
000160 5e d2 4c 3d 3e 17 cc bd b5 af 11 3d 74 2c 0b bd
       0.05000531 -0.099653706 0.035567958 -0.03397794
000170 8b 39 24 3e 7a a7 3a bc 2c ec 25 3e d0 08 3c 3b
       0.16037576 -0.011392469 0.16203374 0.0028691776
000180 c5 34 72 3d 6b b8 ac 3d 10 7d ee 3c 12 57 09 3d
       0.059132356 0.084336124 0.029112369 0.033530302
000190 5a f6 3c be 86 3f d3 3d 78 40 5e 3d 81 13 1b be
       -0.1845335 0.103148505 0.0542607 -0.15144159
0001a0 8f 92 f2 3c d5 d5 52 bd 98 ca a4 bc 9d bd 12 be
       0.0296109 -0.051473457 -0.020116135 -0.14330144
0001b0 4e da 41 3d 6d 76 09 be e3 56 6b be c4 4f a9 3d
       0.047327332 -0.13424082 -0.22982363 0.08267167
0001c0 86 8f e5 bd 4b 24 ca bd a3 07 27 3e c0 8c 29 be
       -0.112090155 -0.098702036 0.16311507 -0.16557598
0001d0 aa fc 73 3d 4b da ff bd 7e d8 0f 3d 19 13 5c be
       0.05956713 -0.12492808 0.035118572 -0.2149166
0001e0 7e 9e 91 3c 9e d6 8b bd 2b f9 06 be f4 c5 a3 bd
       0.01777577 -0.06828044 -0.13180988 -0.07996741
0001f0 e5 e1 aa bd fa da b4 bd 6d 32 a7 3d 78 5b f0 bb
       -0.08343867 -0.08830829 0.08163915 -0.0073351227
000200 5d 0b 88 bd 67 1c f6 3a d9 62 36 bd 5f d8 50 bd
       -0.066427924 0.0018776775 -0.044527862 -0.050987598
000210 7d 29 fe bd 6e 16 c3 ba 9e fb ac bd c8 9f d3 bd
       -0.12410257 -0.0014884004 -0.0844643 -0.1033321
000220 ac fc 44 3d 4b 30 94 bd 7b 99 5f bd 02 af a7 3d
       0.04809253 -0.07235774 -0.05458973 0.08187677
000230 b4 5c 8e bd 18 f8 0a 3d c2 d9 18 be 99 06 cc 3c
       -0.069512755 0.033928007 -0.14926818 0.02490549
000240 df 3e c8 bd b7 d4 53 bc e8 f3 9d bd 90 9d 12 bd
       -0.09777617 -0.012929133 -0.07712537 -0.035794795
000250 8e 61 74 bd d7 4e 8a bd c6 e5 04 3e d0 cf 04 be
       -0.059663348 -0.06753319 0.12978277 -0.12969899
000260 61 ae af bc 68 df ba 3d 70 50 89 bc 4c 1e 56 bc
       -0.021445455 0.091246426 -0.016761988 -0.013068747
000270 b6 e5 46 3d ae 6a f5 3d a1 0b 19 bd 7f 69 6c 3d
       0.048558913 0.11983238 -0.037364606 0.057717796
000280 c2 43 c9 3d aa cf 95 3c 35 fa f0 3d 39 d7 2b 3e
       0.09827377 0.018287499 0.11766473 0.1678132
000290 80 ae f5 bd 68 e7 2e 3c 30 14 0a bd e6 41 76 3c
       -0.11996174 0.010675289 -0.03371066 0.01503036
0002a0 30 3a 13 bd 62 87 2a 3e 44 29 02 bc d2 40 f8 3d
       -0.035944164 0.16653207 -0.007944409 0.121217385
0002b0 7b 6f ac 3d db fd d2 3d 0f c7 04 3e 51 41 ef bd
       0.08419701 0.10302325 0.1296656 -0.1168238
0002c0 92 ff 05 3e 2c 3e e4 3b 1c cb ba bd 07 de ab 3c
       0.13085774 0.0069654193 -0.09120771 0.020979894
0002d0 d5 eb d8 bc 29 d8 6c bd c9 3b d5 bd 59 45 a4 3c
       -0.026479641 -0.057823334 -0.10411794 0.020052599
0002e0 16 6f 2e be 6a 07 af bd 72 b5 9d 3d 2d 61 7b bd
       -0.17034563 -0.08546336 0.077006236 -0.06137197
0002f0 d7 0a b2 bd a7 8b e6 3d ff 98 e4 bd de d9 1d 3d
       -0.08693474 0.11257105 -0.11161994 0.038537852
000300 a6 8d 52 be c1 31 1b 3d 6b 3f 1e be b7 49 fd 3c
       -0.20561847 0.037889246 -0.1545388 0.030918939
000310 76 59 02 be ea cc cf bd fe 3d a8 bd eb 8d d0 bd
       -0.12729439 -0.10146506 -0.08214949 -0.10183319
000320 4d ed e8 bd 5a 07 02 3e dd 72 ce 3c ca a1 cd bb
       -0.113733865 0.12698117 0.025201255 -0.0062753903
000330 0c 76 85 3c e3 1a 09 bc cf 1d 12 3c 17 bd 1c be
       0.01629164 -0.008368227 0.00891824 -0.15306507
000340 d6 ca 11 bc 97 76 06 be d4 09 0e be b4 ff 3c 3d
       -0.0088984575 -0.13131176 -0.13870937 0.046142295
000350 76 e3 fd bd 88 ab 73 bd a2 44 b1 3d b1 e3 74 bd
       -0.123969 -0.059489757 0.08655669 -0.059787456
000360 e3 63 4c 3c 6a 70 5a be b6 e7 a2 3c f9 fb 25 be
       0.012474987 -0.21331945 0.019885879 -0.16209401
000370 eb 71 90 bc f5 e8 39 be c2 03 d1 bd 9d dc 66 bd
       -0.017632445 -0.18155272 -0.10205795 -0.056362737
000380 91 b8 7e bd 88 56 38 be 85 e4 10 3e 47 74 55 3d
       -0.062187735 -0.18001759 0.14149673 0.052112844
000390 8a f0 d1 bc f2 3d 82 3b 29 85 65 bd 46 69 e8 bc
       -0.025627393 0.0039746696 -0.056035195 -0.02837051
0003a0 25 8c 5a be c8 62 fa 3c 86 78 f1 bd 81 66 19 be
       -0.21342523 0.03056468 -0.11790566 -0.14980508
0003b0 a4 c5 b2 3d 59 d2 22 be 05 0f ee bd 93 1c 1e 3e
       0.08729103 -0.15900554 -0.116239585 0.15440588
0003c0 f9 72 c2 bd 39 61 f0 3c 22 99 da bd 4b 04 23 3c
       -0.094945855 0.029343234 -0.10673739 0.009949754
0003d0 36 c9 66 be 18 89 17 bd 68 71 31 be e2 5c 2b be
       -0.22537693 -0.036995977 -0.17328417 -0.1673465
0003e0 41 43 11 be e0 d6 f3 bd 7c bc 57 3c 4e ac 2a bd
       -0.14185812 -0.119062185 0.013167497 -0.04166823
0003f0 26 c7 f4 bc 61 e0 61 3d 22 35 8e bc 38 b1 b5 bb
       -0.029880118 0.055145625 -0.01735932 -0.0055448078

fc3.bias f4 [25]
000000 ef 9a 86 be b2 88 94 bc f0 b7 91 3e df db 7f 3e
       -0.2629008 -0.018131588 0.28460646 0.24986218
000010 28 45 44 be 84 d1 e6 bd 8d b5 9f 3d 4b 8b ae bd
       -0.19167006 -0.11270431 0.077983 -0.08522662
000020 45 56 c7 3b 9d 2b 28 bd 80 cb 8e 3e 06 af 01 3c
       0.006083282 -0.041057218 0.27889633 0.007915264
000030 85 58 61 3c 86 9e 5c 3e c5 2d fc bd 11 c7 ed bd
       0.013754015 0.21544847 -0.12313417 -0.116102345
000040 10 79 92 bb d9 9e 91 3e 72 98 0d be 97 bd 82 3e
       -0.004469998 0.28441504 -0.13827685 0.2553527
000050 9b 5e 34 be 21 37 4c 3e f5 00 2c 3d 3d 35 93 bc
       -0.17614214 0.19942905 0.0419931 -0.017969722
000060 33 32 e2 bc
       -0.027611827

net.0.weight f4 [25, 95]
000000 3b ad 4e be 42 1b cb bc c2 ba bf bd 79 78 8e be
       -0.2018327 -0.024793271 -0.09361793 -0.27826288
000010 e8 46 30 be 58 30 da bd e4 67 4d bd b0 67 66 3d
       -0.17214549 -0.10653752 -0.050147906 0.056251228
000020 d2 8d b3 bd ff 7b 88 3c e8 4b aa 3d e6 16 c1 3c
       -0.087672845 0.016660688 0.08315259 0.02357049
000030 8c 74 d6 3d db 2c 93 3d a0 12 89 3d e0 b9 08 3d
       0.10471448 0.0718629 0.066930056 0.03338039
000040 fe 9e 21 3e a9 f3 d8 3d 54 95 82 3d 6a f1 7e bd
       0.15783307 0.105933495 0.06376138 -0.06224195
000050 00 26 17 be 16 80 17 be 6a 5c 5d 3c 5d 71 55 be
       -0.1476059 -0.14794955 0.013510803 -0.20844026
000060 7d bc 80 ba a5 29 17 be 54 d8 1a 3e 6a 23 e2 bd
       -0.0009821799 -0.1476198 0.15121585 -0.11041911
000070 e8 d9 1d be b5 0a 36 3d 7c b7 59 3e 51 44 a7 3d
       -0.15415156 0.044443805 0.212614 0.08167327
000080 0f 91 6b 3d f1 16 2b 3b f7 e2 65 3d eb 22 25 be
       0.057511386 0.0026106203 0.056124654 -0.16126601
000090 94 aa 2d 3e 4b 72 2c 3e 71 5a 96 bb 82 1d 86 3e
       0.16959602 0.16840474 -0.004588418 0.26194388
0000a0 e2 f5 44 3d 71 fd 07 be 49 06 0d be bc 75 94 bd
       0.048086055 -0.13280274 -0.13771929 -0.072490185
0000b0 cb 4e 4a be a7 64 0d 3d 19 17 ee 3d 5d 94 28 3d
       -0.1975662 0.034519818 0.11625499 0.041157115
0000c0 4d f2 db 3e ec 41 89 3e 0b d3 2e be 70 6f 71 bd
       0.42958298 0.26808107 -0.17072694 -0.058944166
0000d0 f7 0c aa 3d 03 f6 d0 3c 5d 87 4a 3d 8d 5e 50 bd
       0.08303254 0.025507933 0.0494455 -0.05087142
0000e0 44 6e 2c 3d 21 e2 23 3d a5 d6 e3 bb 5a 51 47 bc
       0.042097345 0.040010575 -0.006953078 -0.012165392
0000f0 44 37 1f 3b 97 aa ff 3c c7 09 fb bc d0 da 5f bc
       0.0024294415 0.031209273 -0.03064431 -0.013663009
000100 e5 aa 17 bc 67 ec 9a 3d 98 3f ee bd fa a3 86 3c
       -0.009257053 0.075646214 -0.11633223 0.016435612
000110 60 25 bf bb 4f f0 45 ba 9a 72 1c bc 21 91 ff 3c
       -0.005833313 -0.00075507624 -0.0095488075 0.031197133
000120 87 38 ec bd 77 20 1e 3d 73 7e 49 3a 6f 25 64 bc
       -0.11534219 0.03860518 0.0007686384 -0.0139249405
000130 3e 68 bd bb dc 72 cc bd 05 df 0d bc f7 53 95 3e
       -0.005780249 -0.09982845 -0.008659129 0.29165623
000140 86 98 9e 3b b0 27 ee 3c 73 c6 68 3c 5f 68 98 bc
       0.0048399596 0.029071659 0.01420747 -0.018604456
000150 8e 27 c5 3c c7 75 e0 3c 33 61 50 3d c6 81 7b bb
       0.024066713 0.02739991 0.050873946 -0.0038376912
000160 a6 05 a7 3c 85 12 0f 3d c8 57 d1 3b 17 91 d9 3a
       0.020388436 0.03492977 0.006388638 0.0016599026
000170 4b 6e e5 bc 6f 3c 24 3d 34 d1 28 bb cb 44 31 be
       -0.028006693 0.040096696 -0.002575946 -0.17311399
000180 08 98 22 ba da 16 ae bd bf 2a 34 be d8 a9 02 3d
       -0.0006202464 -0.08500452 -0.17594431 0.031900257
000190 78 58 08 be 66 87 8c 3b 15 d7 fe 3c 4e cf 4b 3d
       -0.13314998 0.0042886017 0.031108418 0.049758248
0001a0 53 d2 30 3e 0b 2a 87 3b 0c b5 84 3c ed 0e e0 bc
       0.17267732 0.004124885 0.016199611 -0.027350867
0001b0 b2 89 2c 3d 87 c2 9b 3c 3f cf 00 3d 98 21 5c 3c
       0.042123504 0.019013656 0.031447645 0.013435744
0001c0 ba 9a c6 3c c4 22 2c 3c ca 9b 5a bb f8 be b1 bc
       0.024243701 0.010506336 -0.0033357018 -0.021697506
0001d0 df f8 f4 bc 65 e9 58 bd 87 73 8d 3c a7 f5 d9 bb
       -0.029903827 -0.052956957 0.017267002 -0.0066515985
0001e0 fc 84 5e bd 67 e2 22 3c ce ad 42 39 e1 15 e4 bd
       -0.054326043 0.009941674 0.00018566029 -0.111369856
0001f0 7f 2b ba 3c ba 50 45 3d b5 ae c4 bc 04 25 86 bc
       0.022725819 0.04817269 -0.024009088 -0.016375072
000200 3e 1c 9b 3b 2a 19 10 bd b0 7d f6 3b a4 c3 5d 3d
       0.0047335913 -0.03518025 0.0075223073 0.054141656
000210 46 aa 9d bc eb 5e bc bc af c5 db 3c 45 cb 15 3b
       -0.019246232 -0.02299448 0.026827661 0.0022856754
000220 7d 98 e3 bc b0 6b 82 bc 2d d3 a4 bd 05 9e 31 bd
       -0.027782673 -0.01592049 -0.08048091 -0.04336359
000230 cb 82 98 bc c3 91 d5 3c ff 60 de bc 43 f4 71 3e
       -0.018617054 0.026070481 -0.02714586 0.23628335
000240 1b f2 c8 3d ea 79 07 3d 84 d6 31 3c 42 8f 36 bd
       0.09811803 0.03307525 0.010854367 -0.044570215
000250 64 e3 be 3a 95 98 c8 bb d1 f7 76 bc 64 75 8b 3c
       0.0014563617 -0.006121705 -0.0150737325 0.01702375
000260 9c 03 ba 3b 63 61 f7 bb 89 30 01 bb 2b dc 82 3b
       0.0056767 -0.007549451 -0.0019712767 0.003993531
000270 49 54 2f 3b 26 21 59 3b f0 c8 52 3b 95 f0 9c bc
       0.0026753119 0.003313133 0.0032163225 -0.019157687
000280 89 bc 17 3c bd 17 0a 3d 19 a8 1b bc 9d 26 58 ba
       0.009261259 0.033714045 -0.009500527 -0.00082455
000290 bf 1f ff 3b 66 24 a2 bb 02 7e 04 3c 05 30 23 3a
       0.007785767 -0.0049481867 0.008086683 0.0006225112
0002a0 55 2e 43 3c 24 1b a7 ba a5 d3 57 bc d9 25 be 3c
       0.011912902 -0.0012749177 -0.013173019 0.023211407
0002b0 18 e6 96 3c a5 ed 91 3a 86 bc 2a 3d d7 d3 ec 3a
       0.018420264 0.0011133446 0.041683696 0.0018068504
0002c0 af 4e 94 3a e7 2c a6 3b db 97 11 3d 4a c8 33 bc
       0.0011314953 0.0050712707 0.03554521 -0.010973046
0002d0 59 5e 31 bb 8e b2 0b bb 07 41 16 bb 38 6e a3 3b
       -0.0027064292 -0.0021316144 -0.0022926943 0.0049875043
0002e0 30 13 69 3c ac 3e ee bb ac 5d 70 bb 97 9f c8 bd
       0.014225766 -0.0072706547 -0.0036676927 -0.09796064
0002f0 78 9b b3 3c 4c 5d 7a 3a 72 64 28 be d9 a5 83 bd
       0.02192472 0.00095506455 -0.16444567 -0.06428117
000300 c9 b0 0a be 92 a0 97 be 0d 6d 3c be c3 05 11 be
       -0.13544 -0.29614693 -0.18400975 -0.14162354
000310 32 92 31 bc ce 25 c1 3d 38 b4 61 bc 64 83 64 3d
       -0.010838078 0.09431039 -0.013775878 0.055789366
000320 ba 66 bf 3d 5f a8 f0 3b f2 77 cb 3d 33 2b a1 3d
       0.093457654 0.00734429 0.09934987 0.07869568
000330 af ab 02 3e 97 1b e5 3c be a9 27 3e 9a 04 80 3e
       0.12760805 0.027967257 0.16373345 0.2500351
000340 9b a1 b7 3d 36 0b 49 bb 45 2e d8 bd d9 ee 1a be
       0.08966371 -0.0030676848 -0.105557 -0.15130176
000350 94 e5 26 bd ce 84 38 be 1d 12 8a 3a 16 6d cc bd
       -0.040746287 -0.18019411 0.0010533963 -0.09981744
000360 94 86 86 3d e7 3f 28 be fd 9e 46 be 73 a2 8e 3d
       0.065686375 -0.16430627 -0.19396587 0.069645785
000370 52 de 75 3e 61 27 ea 3d e0 73 f4 3d 83 4d 5f 3c
       0.2401059 0.11433292 0.11936164 0.01362932
000380 4c e6 ad 3d d6 cb 0b be 31 eb 37 3e 62 79 db 3d
       0.08491191 -0.13651976 0.17960812 0.10716511
000390 9f 9c ee 3c 9e b8 36 3e 9c 26 93 3d 55 80 25 be
       0.029127417 0.17843863 0.071850985 -0.16162236
0003a0 c8 13 a9 bd a4 d9 8d bd 8d a4 3f be 7e 4e cc bc
       -0.08255726 -0.06926277 -0.18715115 -0.024939772
0003b0 ab 87 69 3d 3e d1 29 3d df a2 db 3e e6 95 a4 3e
       0.05701415 0.041459315 0.42897698 0.32145613
0003c0 65 44 14 be 6f 2b 08 be 89 97 8a 3d 8f 8c 8a 3d
       -0.14479215 -0.13297819 0.06767184 0.06765091
0003d0 82 1d 42 3d 30 8d 7d bc 9c 7d e6 3c d5 67 cf 3c
       0.047391422 -0.015475556 0.028136067 0.025318066
0003e0 62 29 04 3b 36 ba 08 3d d7 ce a1 3c a2 a6 ad 3c
       0.0020166268 0.03338071 0.01975195 0.02119762
0003f0 19 45 8c 3d 00 eb 40 3c a2 4f 50 3d db 0a ec 3c
       0.06849117 0.011774778 0.050857194 0.02881377

net.0.bias f4 [25]
000000 31 4b 0e 3d 7d d5 72 3d 6e 3c f7 3c bf 99 bc 3d
       0.034739677 0.05928563 0.030180182 0.09209012
000010 8a ef 51 3d c3 7c 9b bd 6b 5d 07 bc 1c 23 9b 3b
       0.051253833 -0.07592156 -0.008262019 0.00473441
000020 a9 53 06 be df 95 d4 bd 85 a8 87 bd 3a 2f 92 3d
       -0.13117851 -0.10380148 -0.066239394 0.07137914
000030 be b0 82 bd f5 1f 76 3d 0a d4 b7 bd 1c 29 2a be
       -0.06381367 0.06008907 -0.0897599 -0.16617244
000040 41 bd 10 be 3d 9f c1 bd 5d 6a 99 bb 4d d5 01 be
       -0.14134695 -0.094542004 -0.004681869 -0.12679024
000050 68 66 23 be aa e1 f4 bd b9 c1 3b 3d ef 96 e7 bd
       -0.15957034 -0.119571045 0.045839045 -0.11308085
000060 34 d1 b9 bc
       -0.022682764

net.3.weight f4 [25, 25]
000000 34 da 3a 3e 4b 96 45 3d 1f 54 48 3e f9 0c 17 3e
       0.182473 0.048239034 0.1956334 0.14751042
000010 40 e7 b3 3d a3 94 dc bd 38 4e 5e 3c a6 41 3c 3d
       0.08784342 -0.10770538 0.0135684535 0.045961045
000020 23 55 c2 bd 65 33 c6 bd e5 9b 0b 3d 0b bd 63 3e
       -0.09488895 -0.096777715 0.03408422 0.22240083
000030 92 ef bc bd 8b 77 0f 3e 02 b4 d5 bd 45 68 aa bd
       -0.09225382 0.14010446 -0.104347244 -0.08320669
000040 ab 62 c9 bd 50 a0 9f bd 0d 41 fb 3d 52 8b 94 bd
       -0.098332725 -0.07794249 0.12268267 -0.07253136
000050 e1 96 98 bd ae ca c5 3b c0 c1 39 3d b8 70 8f bd
       -0.07450653 0.006036124 0.04535079 -0.07003921
000060 be c7 12 3e f8 16 30 be 7d 1a b2 bd c4 42 0d be
       0.14334008 -0.17196262 -0.086964585 -0.13795
000070 11 7b 1c be 32 0a 26 be 05 ba 19 3e b2 7a 82 bd
       -0.15281321 -0.16214827 0.15012367 -0.063710585
000080 82 dc 1a be 8b ec f5 3d 26 6f bb 3d 03 32 d6 bd
       -0.1512318 0.120080076 0.09152059 -0.10458758
000090 db 0f 51 be 1a 98 89 3d 72 4d 49 bd 3a e8 00 3e
       -0.20416205 0.06718464 -0.049146123 0.12588587
0000a0 5a 02 e7 3d 64 c0 f6 3d b7 b5 15 3e 19 3d 10 be
       0.112797454 0.12048414 0.146201 -0.14085807
0000b0 3f fb f2 3d 6c f9 1d 3e f0 90 f4 3d c7 ef 22 be
       0.11864328 0.15427178 0.11941707 -0.1591178
0000c0 80 8b d3 3d af 99 12 be 0c 92 4d bd 0d fe 74 bb
       0.10329342 -0.14316438 -0.05018811 -0.0037382871
0000d0 32 6e 7b bd 45 ec 46 bd 19 a9 6b bd 80 55 ea 3b
       -0.061384387 -0.048565168 -0.05753431 0.0071513057
0000e0 6d e6 e3 3c de 8f 31 bd e5 46 0c bd b3 69 90 3a
       0.027819837 -0.043350093 -0.034247298 0.0011017829
0000f0 22 74 ce bc 95 4d 58 bd 17 b7 ca bc 71 0e 13 bd
       -0.02520186 -0.052808363 -0.024745507 -0.035902444
000100 65 b0 7a 3c 49 27 0c 3c 8b 37 b9 bb 81 73 a1 bc
       0.015300845 0.008554288 -0.005652373 -0.019708397
000110 b9 a9 4f bd f2 f4 0b 3d 03 d7 60 bc 2c 87 6a bd
       -0.05069897 0.034169145 -0.013723138 -0.057257816
000120 ac 59 18 bd 69 60 4b 3c d9 38 56 bd 76 91 a6 3c
       -0.037194893 0.012413123 -0.052300308 0.020333033
000130 39 27 55 3d 29 f8 87 3d a9 e0 a2 3d 29 29 19 3e
       0.05203936 0.0663913 0.07953007 0.14957108
000140 fc 6a 8a bd 75 19 e4 3d 2f e2 49 3d 4b f1 e9 bd
       -0.06758687 0.11137668 0.04928797 -0.11422976
000150 6b a6 23 be 7b b3 30 3d 30 8c 84 3e 33 1e bb bc
       -0.15981452 0.043139916 0.25888205 -0.022841549
000160 c0 1b d2 3a db 75 59 be 18 cb e0 bd c9 f7 1c be
       0.0016029999 -0.21236365 -0.10976237 -0.15328898
000170 15 40 ec bd a8 d8 d8 3c f5 5d c4 bd c7 fd a0 bd
       -0.1153566 0.026470497 -0.095882334 -0.07860904
000180 0a e1 04 bd ea 27 3b 3e 6a 5c 95 bb 12 01 70 3d
       -0.032441176 0.18276945 -0.0045581358 0.05859477
000190 ef e3 99 bc 9c f4 23 3d 10 7f 3d bc 28 5b bc 3c
       -0.018785445 0.0400282 -0.011565939 0.022992685
0001a0 64 37 69 3c 73 7e cc bb 57 6b 74 3c 49 e4 2c bc
       0.014234398 -0.00624066 0.01491817 -0.010552474
0001b0 ce 98 43 bd 0d 8c eb bc ba 69 51 bc a5 0f ca bc
       -0.047753148 -0.028753305 -0.012781555 -0.024665663
0001c0 fd f5 13 bd dc 2d ae bc 6d 00 c3 3b 4e 65 04 bc
       -0.036123265 -0.021262102 0.0059509785 -0.008080794
0001d0 2c 3e d3 bc c0 55 0a bd a3 64 a4 bc ee 65 f2 bb
       -0.025786482 -0.033773184 -0.020067519 -0.007397405
0001e0 0c 96 16 bd 6e 0d 97 bd d2 cf f8 3c 99 5d 9f bc
       -0.03676419 -0.073756084 0.030372534 -0.01945381
0001f0 e1 61 e5 bc 6d ff 8f 3b 37 97 30 3b bb 2d 90 bc
       -0.028000774 0.004394463 0.00269456 -0.017599931
000200 01 d9 bf bc 89 69 97 3c 91 15 05 bd 58 9c 87 3c
       -0.023418905 0.01848294 -0.03249127 0.016554043
000210 96 c0 46 bc 0d 78 2e bd cc 66 a1 3b dd 7c a5 3c
       -0.012130877 -0.042594958 0.0049255844 0.020201141
000220 d0 f2 09 ba be 39 15 bd 9d 94 98 3b 65 7a 1c bd
       -0.0005262317 -0.03643202 0.004656388 -0.038202662
000230 8c cf c9 bc b8 70 6b bd ec cd 36 bd e7 d3 17 b9
       -0.024635099 -0.057480544 -0.044629976 -0.00014479422
000240 b2 d4 c9 bc 50 31 0f bd b5 8d 5d bd 87 d9 e3 3c
       -0.024637554 -0.034959137 -0.05409022 0.027813686
000250 a9 65 80 bb 2d a0 cc 3c df 65 83 3d 33 50 5d 3c
       -0.003918369 0.024978722 0.06415915 0.0135078905
000260 fe 9c 00 3d cd 17 f3 3d 6b 58 f5 3d c9 88 67 bd
       0.03139972 0.11869774 0.11979755 -0.056526933
000270 2d 0c b1 3c e5 74 8f 3c b8 b0 1a bd 23 c2 b0 bc
       0.021612251 0.017511794 -0.03776619 -0.021576947
000280 93 4e 54 bd c8 bb a4 3d f4 e7 c1 bc fc 7b 94 bd
       -0.051832747 0.08043629 -0.023670174 -0.07250211
000290 61 6a a1 bd 92 a9 1e bd 9d 3c 80 bd 89 8d a9 bc
       -0.07881618 -0.038735934 -0.06261561 -0.020697372
0002a0 ba 32 b9 3c 23 55 47 bd 8e 4f 1a bd 34 bc 8b 3d
       0.022607196 -0.048665177 -0.037673526 0.06823006
0002b0 ad a9 ef 3d 19 05 38 bb 63 b8 ec 3d cb 24 f1 3d
       0.11702285 -0.002807921 0.115586065 0.11774596
0002c0 de 4d 21 3d 08 56 35 3e ab 9c 83 3e 39 7f a3 3d
       0.0393809 0.177086 0.25705466 0.0798325
0002d0 05 8d 9b bc 85 da 50 3c 92 98 2e 3e 2b dc 6a bd
       -0.018988142 0.012747412 0.17050388 -0.057338875
0002e0 88 4e 20 be 2b 7b 31 3e 51 70 5f 3e 04 06 d7 bd
       -0.15654957 0.17332141 0.21820189 -0.10499194
0002f0 e2 39 21 3e 21 7e 09 bd ec ff 80 bd 00 35 0b be
       0.15744737 -0.03356755 -0.06298813 -0.13594437
000300 fc 11 a4 bd 2a e4 e1 3c 3c e7 9d bd bd 7c 0c be
       -0.08011243 0.027574617 -0.0771012 -0.13719459
000310 ae 67 29 3d e2 c4 af 3d c6 68 79 bd bd 67 0f 3e
       0.041358642 0.08582474 -0.060890935 0.14004417
000320 35 7e 1e bd ba ae 1d 3b 28 8e 32 bd 71 26 e3 3b
       -0.03869458 0.0024060444 -0.043592602 0.006932073
000330 96 7a 72 bc 53 22 1c 3d f2 b2 56 bc bf 0e 38 bd
       -0.014799735 0.03811867 -0.013104187 -0.044935938
000340 87 d0 5f 3c b4 c0 2a 3c b6 d0 08 bd 73 a5 55 bd
       0.013660557 0.010421921 -0.033402167 -0.052159738
000350 1d aa bc 3c 89 f0 fc bc 63 6e 61 3c 08 a6 e4 3c
       0.023030335 -0.030876415 0.013759228 0.027911201
000360 d8 94 7d 3c 2d 98 5a 3c 0c 9b d1 bc 42 94 18 3d
       0.015477382 0.013341946 -0.025586627 0.037250765
000370 cc 68 9f 3c 45 2c b6 bb 14 92 1d bd a0 4d a1 3c
       0.01945915 -0.0055594766 -0.03846939 0.019690335
000380 e6 30 4c bc 9a 3c 4d 3e b7 73 3d 3d 39 aa 9b 3d
       -0.01246283 0.20042649 0.046252932 0.07600827
000390 52 ab 95 3d f4 a4 29 3e 10 7a 73 bd 4a 4a 23 3d
       0.073080674 0.16566831 -0.05944258 0.03986577
0003a0 52 74 53 bd 1f 57 e3 bd d9 ee a7 bd b0 bf 1e 3e
       -0.051624604 -0.111006014 -0.081998535 0.1550281
0003b0 39 5e 59 3e 10 e3 c4 bd 08 11 25 3e 77 bc 1f be
       0.2122735 -0.09613621 0.16119778 -0.15599237
0003c0 bc d2 f0 bd 6c 43 b0 bd fa 73 fa bd e1 a3 09 bc
       -0.117589444 -0.0860661 -0.12229152 -0.008400888
0003d0 0a 38 a8 bd 57 9c f7 bd 1e 6d d2 bc 6d 71 35 3e
       -0.082138136 -0.12090366 -0.025686797 0.1771905
0003e0 cb f0 97 bd 0b 88 21 3e a8 95 2e 3e 56 35 9c 3d
       -0.074189745 0.15774553 0.17049277 0.076273605
0003f0 be 76 8b 3d f3 48 6d 3d ee a8 30 3e 7c 6b 39 bc
       0.06809758 0.057930898 0.17251942 -0.01131713

net.3.bias f4 [25]
000000 78 14 ce 3d de 50 69 be d0 43 c2 bd 6f 48 20 3e
       0.10062498 -0.22784755 -0.094855905 0.15652631
000010 bc e7 95 bd 97 d3 47 bd 35 ae 0d 3e 71 b4 83 3d
       -0.073195904 -0.048785772 0.13835986 0.06430901
000020 8e 78 ae bd 8d 7c 0b 3e e4 38 5f 3e e1 2b 4b bd
       -0.08519088 0.13621731 0.21799046 -0.049602393
000030 b7 2a 0e 3e 4f 19 94 3c d6 72 3b be 97 98 03 3d
       0.13883482 0.018078474 -0.18305525 0.032127943
000040 19 8f 23 be 85 7b 29 3e ae 85 ef bd d0 19 0b 3e
       -0.15972556 0.16551025 -0.11695419 0.13584065
000050 93 7e 95 bd b7 07 08 3d 57 d6 ff 3d 2e 07 c8 3d
       -0.07299533 0.033210482 0.12492054 0.097669944
000060 26 49 28 bd
       -0.041085385
