bestclf/bestclf_german_n08.pth (torch, 46462 bytes, 23 tensors)

fc1.weight f4 [64, 45]
000000 c9 36 6a 3d e9 a5 c0 bd 9e 7c 8d bd bc 0b ef 3d
       0.057181153 -0.09406645 -0.069085345 0.1167216
000010 fd 63 fd bd 35 52 19 bd d5 79 0e 3e f3 31 99 bc
       -0.12372587 -0.037431914 0.13913663 -0.018700575
000020 0f 41 01 3c 6a e3 a2 bc 19 eb fe bc d3 53 8c bd
       0.007889046 -0.01988383 -0.031117963 -0.06851926
000030 4c b9 6d 3d e1 74 16 bd 5a 8d 00 3d 11 39 0a be
       0.05803804 -0.03673256 0.031384803 -0.13498332
000040 b5 1c 15 3d 87 4e fc 3d f4 45 c8 bc 7f 86 a4 bd
       0.03640433 0.123196654 -0.024447419 -0.080334656
000050 66 62 66 3c a8 60 ce 3b f3 01 ed 3d b4 41 bc 3d
       0.014061546 0.0062981434 0.115726374 0.091922194
000060 64 d8 67 bd 61 4b 53 3d 98 26 f7 bd d1 8a 14 3e
       -0.05660285 0.05158556 -0.12067908 0.1450608
000070 68 b6 e8 bd 03 82 63 3d df 6f 96 bc 11 de ca 3d
       -0.11362916 0.05554391 -0.018363891 0.09905637
000080 c5 59 be bd 9f ab 90 bd 1a 9a c0 bd ed d2 e4 bd
       -0.09294466 -0.07063984 -0.094043925 -0.111730434
000090 8d fe e4 3d d4 97 0f be bc c2 08 bc 03 80 09 be
       0.11181364 -0.14022762 -0.00834721 -0.13427739
0000a0 c0 49 01 3e 49 8d 28 bb f1 31 de bd c5 40 d8 3d
       0.1262579 -0.0025718978 -0.10849369 0.10559229
0000b0 dd 7f 7f 3c 8e 51 10 bd 78 70 15 3d 67 ce 0b be
       0.01559445 -0.035234027 0.03648421 -0.13652955
0000c0 14 51 de bd 96 e6 f4 3c 52 7a 11 3e 47 77 cf bd
       -0.10855308 0.029895108 0.14206818 -0.10130172
0000d0 39 9b 11 3d d0 d8 47 bd 1e d4 e0 bd ce 18 ba 3d
       0.035548422 -0.048790753 -0.10977958 0.09086762
0000e0 bf d7 9a 3d f3 dd 00 3d 76 fa 0a be 98 b4 06 3e
       0.075606816 0.031461667 -0.13572106 0.13154829
0000f0 ff 1a 18 be 61 0f f5 3c 69 22 d4 bd 5b 66 a1 bd
       -0.14854048 0.02991456 -0.10358126 -0.07880851
000100 44 ef f8 3d 99 35 0a bd d8 50 d7 bd 66 4a 6a bd
       0.12155011 -0.03374252 -0.105134666 -0.057199858
000110 1a ea 03 3e da 37 14 be b4 08 19 be 2c 81 3f 3d
       0.12882271 -0.1447443 -0.14944726 0.046754047
000120 51 3e f1 3d a9 ed bf 3d 3e 35 ca 3d ae b0 04 3e
       0.11779464 0.09371502 0.098734364 0.12958023
000130 24 c9 9c 3c d2 b5 0d be 37 f0 c2 bd 0b c0 00 be
       0.01913888 -0.1383889 -0.095184736 -0.12573259
000140 ef ea f8 3d 9d 99 9c bd d0 16 d7 3d 55 ae ff 3d
       0.12154185 -0.07646487 0.10502398 0.12484423
000150 ba 0f d5 3c ee b9 e3 bd 45 b0 8a bc 59 51 da 3c
       0.026008476 -0.11119448 -0.016929755 0.026650118
000160 c4 f8 a1 3d 62 7b 0d be 6d ff 91 bd ba fe b7 3d
       0.079087764 -0.13816598 -0.07128797 0.08984132
000170 26 8c dc bd 29 21 cc bd 47 a2 fd bc 86 d5 e1 3d
       -0.10768919 -0.09967262 -0.030961169 0.110270545
000180 61 94 13 be 13 ea 0f bd 45 29 c0 bd 0e e1 9e bd
       -0.14412071 -0.03513534 -0.093828715 -0.077577695
000190 6d 00 52 3c e6 49 19 3c b9 a4 c6 bd ab d7 15 bd
       0.012817484 0.009355998 -0.09699387 -0.03658263
0001a0 eb b3 b5 bd b8 df af bd b1 5a 43 bd af 72 ba 3c
       -0.08872207 -0.08587593 -0.047693912 0.022759764
0001b0 ce 29 a6 bd 88 8d db 3c 08 d3 d1 bd 59 8d d5 3d
       -0.08113442 0.026800886 -0.10245329 0.104273506
0001c0 78 00 22 bd 8a ac db 3d 8d 05 d5 3d f1 2a fe 3c
       -0.03955123 0.107262686 0.10401449 0.031026335
0001d0 6c 5b fc bd 56 03 e3 bd 2b 77 47 bc a2 29 08 3e
       -0.12322125 -0.11084621 -0.012174408 0.13297132
0001e0 5f b4 44 bd a7 46 25 3d e8 6c 29 bd 01 11 de bd
       -0.048023578 0.040350582 -0.041363627 -0.10843087
0001f0 a3 ce 87 3d cb 4a ee bd 4f ba ae 3d 6f a2 c2 3c
       0.0663121 -0.116353594 0.08531629 0.023759095
000200 f3 d1 0a be 8d bf 6e bd d8 fc 15 be 3c c4 ce 3d
       -0.13556652 -0.058288146 -0.14647233 0.100960225
000210 a0 2f ee 3d ea bb 12 3e b2 44 09 3e bc 17 08 3c
       0.116301775 0.14329496 0.13405111 0.00830644
000220 68 c2 d2 bd 8f c5 16 3e e7 f5 ab 3d e0 26 9c bd
       -0.10290986 0.147238 0.083965115 -0.07624602
000230 07 28 dc bd 41 02 87 3d 38 a9 32 bd 1a 59 c9 ba
       -0.10749822 0.06592227 -0.04361841 -0.0015361637
000240 34 39 4f bd c9 a7 94 bd b2 e9 cb bc 6a 79 ab 3c
       -0.050591663 -0.07258565 -0.024891708 0.020931918
000250 f0 e0 fb 3c 27 75 5f bd e1 b7 00 be bd 9b d9 bd
       0.030746907 -0.054555085 -0.12570144 -0.10625408
000260 93 dd 2b bd ab 5d 40 bd 36 71 10 3e d6 72 b6 bd
       -0.041959357 -0.04696433 0.14105687 -0.08908622
000270 4e 36 09 be 7f 1b a8 bd c5 6c c6 3d f4 b1 e2 bd
       -0.13399622 -0.082083695 0.09688715 -0.11069098
000280 cd 8b 35 3c 7f f1 51 3c d2 a5 15 be e1 ee 81 bd
       0.011080694 0.012813925 -0.14614037 -0.06344391
000290 02 84 10 3e 97 6d 6b 3d ec 27 79 bd ab 90 fd bd
       0.14112857 0.05747756 -0.060829088 -0.12381109
0002a0 85 46 0d be 75 db bd bd 43 27 05 be 7d 46 e5 bd
       -0.13796432 -0.09270374 -0.13003258 -0.11195085
0002b0 3d 9e 04 3e 5f e2 ca 3d 85 d7 a5 bd 63 f4 95 bd
       0.12950988 0.09906458 -0.08097748 -0.07322004
0002c0 0d b0 d2 3d 6c 1d 86 bd 18 7f ab bd 63 e3 0b be
       0.10287485 -0.065485805 -0.083738506 -0.1366096
0002d0 96 0d b8 bd 8a 99 c8 bd 19 5d c3 bc 94 5c e1 bd
       -0.08986966 -0.0979491 -0.023848103 -0.11003986
0002e0 5a c1 41 bd 2a 13 1e bd 9d 96 50 bd 9f 06 ca 3d
       -0.047303535 -0.038592495 -0.050924886 0.09864544
0002f0 3d c2 14 be fb e2 e6 bd cf ff aa bd 9b 02 ec 3d
       -0.14527221 -0.11273762 -0.08349573 0.115239345
000300 37 b1 c0 3d 21 44 ad 3d bd 0b b0 bd 63 50 43 3d
       0.09408801 0.0846026 -0.08595989 0.047684085
000310 35 1f a3 3d f4 3c f9 bd 01 18 0b 3e 72 0a 9b 3c
       0.07964937 -0.12169829 0.13583376 0.01892588
000320 d8 8e 00 3e 6b ee d5 bc d5 9f 09 3d f4 4a 83 3d
       0.1255449 -0.026114663 0.033599693 0.064107805
000330 00 22 47 bd d8 15 e7 bd 93 1a 21 3c a8 d8 c6 bc
       -0.04861641 -0.11283463 0.009832996 -0.024273232
000340 ad f4 77 bc 10 1a fb 3c e2 6e 0e 3e aa 1f 83 3d
       -0.015134019 0.030652076 0.13909486 0.06402524
000350 2c 5f bd bd 5b 95 1a 3d cf 1a 0b be 48 f3 08 3e
       -0.09246668 0.037740093 -0.13584445 0.13374054
000360 7a da 3c 3d 13 20 14 3e be 92 60 bd 92 18 89 3d
       0.046106793 0.1446536 -0.054827444 0.066941395
000370 42 4d 14 3e e8 6c da 3d b3 1d b1 bd 55 d0 05 3e
       0.14482597 0.106653035 -0.08648243 0.13067754
000380 1b b3 53 bc c3 0d 42 bd 6e 68 bb bd f5 ea 02 3e
       -0.01292112 -0.047376405 -0.09150778 0.12784941
000390 ac 5f 06 3e ad 58 80 bd 76 65 17 be 05 13 0f 3e
       0.13122433 -0.062669136 -0.14784798 0.13972099
0003a0 73 88 59 3d 89 6b d6 bd c2 d3 d8 3d ec 73 d3 3c
       0.053108644 -0.104697295 0.105872646 0.025812112
0003b0 d4 a6 01 3e c9 8e 0b 3e dc c6 0f bd 70 da 35 bd
       0.12661296 0.13628687 -0.035101756 -0.04439777
0003c0 63 87 02 be 27 81 df bd 81 c7 25 bc 4d 84 dc 3d
       -0.12746958 -0.10913306 -0.010118366 0.10767422
0003d0 b5 74 80 3d 27 a7 b8 3d c8 d2 72 bd cd ed db bd
       0.0627226 0.09016257 -0.059283048 -0.10738716
0003e0 ae 44 b1 bd b8 2f 9c bd 00 f1 79 3d d7 a7 ce bb
       -0.08655678 -0.07626289 0.06102085 -0.006306629
0003f0 84 65 00 3e ef b9 6b 3d bc 60 ea 3c a2 49 0c be
       0.12538725 0.057550367 0.02861058 -0.13699964

fc1.bias f4 [64]
000000 58 8e 1c bd 5a 03 a3 b6 02 2f 6d bd e8 81 ad b8
       -0.038221687 -4.8581687e-06 -0.05790616 -8.27348e-05
000010 a2 58 95 3d b5 d6 ec 3d 10 22 c3 bd d1 02 84 bd
       0.07292296 0.115643896 -0.09527981 -0.0644585
000020 5c f1 13 be 98 ae a3 bd b3 05 81 3d 3b 33 f5 bc
       -0.1444754 -0.079922855 0.06299915 -0.029931655
000030 31 18 19 3d 02 f1 84 3c 2b 66 17 be 49 76 45 3d
       0.037376586 0.016228203 -0.14785068 0.04820851
000040 29 48 c9 bd 7a d5 dd bb 1f fd 03 be c9 d3 64 3d
       -0.098282166 -0.006769833 -0.12889527 0.055866037
000050 2e 9f 77 3d c5 3b 13 bc bc 25 0d 3e 3e c8 20 bd
       0.06045454 -0.008986418 0.13783926 -0.039253466
000060 90 74 94 bd 3b 8a fd bd fc 6e 7f bc 4e da ee 3d
       -0.07248795 -0.12379881 -0.015590426 0.11662732
000070 35 8f cd bc c5 ab f0 bd d2 9b 10 be 8e 6b f5 bd
       -0.0250927 -0.117515124 -0.1412194 -0.11983405
000080 ae 23 ec 3b 3a 42 c4 3d 39 fc bb 3d d1 38 08 bd
       0.007206402 0.09582944 0.09178967 -0.03325731
000090 2d 0d 9d 3d 12 bb d5 bc 7f b9 ee bc d1 b0 93 bd
       0.07668529 -0.026090179 -0.029141186 -0.072114594
0000a0 ec d8 82 3a 99 6e a5 3c 97 66 c9 3d 36 5f 56 3b
       0.0009982861 0.020194339 0.098340206 0.0032710559
0000b0 43 89 a3 3d 21 29 6d bb f9 48 0e 3e c5 59 0c be
       0.07985165 -0.0036187845 0.13895024 -0.1370612
0000c0 cc ec f3 bd d9 e4 e1 bd 53 2f 53 bd d5 2f 5b 3c
       -0.119104 -0.11029977 -0.051558804 0.013378103
0000d0 c3 ca 82 3d 81 43 33 bd 30 e4 15 3e 81 f9 d3 3d
       0.0638633 -0.04376555 0.14637828 0.103503235
0000e0 24 39 64 3d 3b 53 4a 3d b1 e8 79 3d 5f 39 2c bd
       0.055718556 0.04939578 0.061012927 -0.0420469
0000f0 9c 72 e5 3d e1 04 c7 3d 18 f9 9a 3d f6 d5 24 3d
       0.11203501 0.097177275 0.07567042 0.04024311

fc2.weight f4 [64, 64]
000000 2b ad 80 bc ca f3 17 bd 66 8c b7 3c 3b 8a a3 bb
       -0.015707573 -0.03709773 0.022405814 -0.0049908436
000010 af 83 62 3d 16 ef 9e bd 9d 9e 8f 3d 99 56 86 3d
       0.055301365 -0.07760446 0.07012675 0.06559486
000020 6c 7e 0f 3d d2 d8 a7 3d 11 73 77 3d 59 f5 8f 3d
       0.035032675 0.08195652 0.06041247 0.07029218
000030 e1 71 07 3d c4 a2 16 3b 49 b5 4b bd b3 f8 aa 3c
       0.033067588 0.00229852 -0.049733434 0.020870542
000040 ad cf af bc 26 3f e8 bd 38 23 94 3d 3a c5 ce 3d
       -0.021461332 -0.113401696 0.0723328 0.10096212
000050 7d ca bb bd 7e 7c 7d 3c a0 58 c2 bd 92 f8 e2 3d
       -0.09169481 0.015471576 -0.0948956 0.11082567
000060 c8 e3 8e bd d6 13 56 bd e3 08 ce 3d 0d cd a8 bd
       -0.069770396 -0.05226501 0.10060289 -0.08242235
000070 e0 ce db bc 7a 65 d8 3d d1 83 9f ba a2 35 4a bd
       -0.026832044 0.1056623 -0.0012170022 -0.049367554
000080 4c 12 4e bd 27 cf f3 3d f8 28 d1 3b fd 0c 30 bd
       -0.050310418 0.119047455 0.0063830577 -0.042981137
000090 3e 02 7a bd d2 5d 0a bd 19 5d 83 bd 90 d4 e6 3d
       -0.061037295 -0.03378088 -0.06414241 0.11271012
0000a0 1f 70 77 bc 03 61 c1 bb 65 f8 92 3d 30 77 00 bb
       -0.015102415 -0.0059014573 0.07176284 -0.0019602291
0000b0 a8 5e 77 bd 6d 80 e6 bb 4b f4 ae bd 70 0e b7 3d
       -0.060393006 -0.0070343525 -0.08542689 0.089383006
0000c0 e2 de 2d 3d a0 91 d9 3c 06 2f f1 bb e2 0e 4b bd
       0.042448886 0.026558697 -0.007360342 -0.04957474
0000d0 9d 7e 31 3d 4f 8a ad bc c5 29 8b bd 71 54 d7 3d
       0.04333364 -0.021184115 -0.06795076 0.10514153
0000e0 8c 08 c1 bd 5c f1 cf bd 2a b8 3d 3d 50 a2 b9 bc
       -0.09425458 -0.101534575 0.04631821 -0.022660404
0000f0 ef a5 9e bd 31 3b 79 bd f1 e9 5d 3d dd b3 83 bd
       -0.07746493 -0.060847465 0.054178182 -0.064307906
000100 b8 70 9c bd b2 b9 2d 3c ab 3b 76 3d 23 03 bb bb
       -0.07638687 0.010603355 0.060115498 -0.005707161
000110 58 c9 8a 3d 45 e8 19 bd 3d c0 13 3d 4b 4b b9 3d
       0.067766845 -0.037575025 0.036072005 0.09047564
000120 45 c1 f3 bc 89 ad bf bd b3 35 b7 3d a5 10 83 bd
       -0.029755244 -0.09359271 0.08945789 -0.06399659
000130 2b fb a7 bd 01 b8 98 bc c2 fe 90 bd bd b5 d1 3d
       -0.08202203 -0.018642427 -0.07079841 0.10239742
000140 ab dc 9f 3d f8 4c 50 3d 9b 19 b9 bc 67 75 98 3d
       0.07805761 0.050854653 -0.022595217 0.07444268
000150 8a be 89 3d 06 1e 9b bd 5c 07 f4 3d 50 94 c7 3b
       0.067257956 -0.07574086 0.11915466 0.0060906783
000160 3e 18 98 bd 7e f3 58 bb 75 01 9c 3c f9 4c 0f 3d
       -0.07426499 -0.0033104117 0.019043664 0.034985516
000170 e3 06 89 bd e1 0f 20 3d 8e 1f 59 3d 06 fe b3 3d
       -0.06690767 0.039077643 0.05300861 0.087886855
000180 56 87 38 bc 42 23 ec bc 28 9a f9 3d 23 93 b1 bd
       -0.011262735 -0.028825406 0.12187606 -0.08670642
000190 d8 85 97 bd c0 1a d6 bc c1 fb 88 3d ef 7e e4 bd
       -0.073985755 -0.026135802 0.06688643 -0.11157023
0001a0 5a 2e f4 3d 0f 16 83 3b 14 ff d4 bc 2b 9b c4 bd
       0.11922903 0.0040004323 -0.026000537 -0.095999084
0001b0 ab 4b 00 3e d1 b6 b4 bc d9 0e 94 bd a9 04 0e bd
       0.12528865 -0.02205983 -0.072293945 -0.034672413
0001c0 e5 25 90 3d 45 2f a1 3d 0f b1 39 3d e3 77 89 bc
       0.07038478 0.07870344 0.04533487 -0.0167808
0001d0 ad 4d 84 bb cb f9 d1 bd e7 bf d2 bc ac 7a f1 bc
       -0.00403758 -0.10252722 -0.025726272 -0.02947744
0001e0 93 bb 41 3d b4 5f f4 3d 7c 17 cf bd 0d b0 eb 3d
       0.047298025 0.119323164 -0.10111901 0.115081884
0001f0 ce b3 ee 3d fd 64 bc 3c 75 e1 73 3d a3 fb 50 3d
       0.11655389 0.022997374 0.059541184 0.05102123
000200 fa 64 ea bd 6f 42 ef bc b2 e4 e7 bd 52 01 fe bc
       -0.11445041 -0.029206483 -0.11322917 -0.031006489
000210 ea f0 a2 3d 55 78 06 3d 04 2e 25 bc 60 72 e5 bd
       0.07956107 0.0328296 -0.010081772 -0.11203456
000220 a4 62 d9 3d f0 6f bc 3d 56 9b 90 3c 36 5a da bd
       0.10614517 0.09201038 0.017652195 -0.106617376
000230 a6 6f df bd 63 08 ba bd e9 a4 de 3d d2 be c4 ba
       -0.10909967 -0.09083631 0.10871298 -0.0015010482
000240 ae aa 9a bb d2 e6 98 3c 41 87 97 bc fd 77 55 bd
       -0.0047200536 0.018664751 -0.018497111 -0.052116383
000250 78 61 dc 3d 49 81 d6 bd fa d7 14 bd 7f 61 c1 3d
       0.10760778 -0.10473878 -0.036338784 0.09442424
000260 92 ff 72 3d 32 ff 37 3d 26 82 a1 bd 42 e9 e2 bd
       0.059325762 0.044921108 -0.07886152 -0.11079647
000270 06 03 8b 3d c7 6a 34 3c 78 8a 87 3d 60 2c 0a bd
       0.06787686 0.011011786 0.06618208 -0.033733726
000280 94 02 63 3d 72 48 9e 3d 64 33 f3 3d 11 fc cd bd
       0.05542238 0.077286616 0.11875036 -0.100578435
000290 d3 2b 66 bd 82 c6 cf 3c 6c 8d 46 3d 5d 4b af bd
       -0.056194138 0.02536321 0.048474714 -0.08559296
0002a0 98 db e7 bd d3 a9 c5 bd 68 fb 59 3b d9 4a f1 39
       -0.11321181 -0.09651532 0.0033261422 0.00046022868
0002b0 5a 19 d4 bd fa cd 47 bb b7 20 d1 bc 46 b0 e7 bd
       -0.10356398 -0.0030487762 -0.025528295 -0.11312918
0002c0 13 09 88 bd 11 8a bb b9 0a 36 d5 bd b8 82 a2 3b
       -0.06642356 -0.00035770287 -0.10410698 0.0049594305
0002d0 58 1b 9b bd db 29 95 bc a4 5a 9f bd 3a 07 a7 3d
       -0.07573575 -0.018208435 -0.0778096 0.08155675
0002e0 3c 01 a4 3d 5e 58 e6 bd 4c c9 a3 bd 9b c2 90 3d
       0.08008048 -0.112473235 -0.07997379 0.07068368
0002f0 4a 32 fd 3d a7 57 c5 3d c9 02 01 3e 67 14 ea 3c
       0.123631075 0.09635859 0.12598719 0.028574182
000300 73 de c6 bc 68 e8 27 bd a0 bd af 3d 57 db b6 bd
       -0.024275994 -0.040993124 0.0858109 -0.089285545
000310 ed 1a e3 3c 41 81 e9 bb 7a 9d d7 bd f3 e5 54 3d
       0.0277228 -0.007126004 -0.10528083 0.05197711
000320 f7 bd a4 bc e4 e8 f2 3d 24 83 2f bd 98 b8 c4 bb
       -0.020110114 0.118608266 -0.042849675 -0.0060034506
000330 4a ae b7 bd 8d 5b ce 3d 31 82 8f bc 3b 0c c7 bd
       -0.0896879 0.10076056 -0.017518135 -0.0971913
000340 c6 23 99 bd 52 91 e8 3c fe 0d 00 be 79 2a 1b 3c
       -0.07477526 0.028389607 -0.12505338 0.0094705755
000350 de 93 ae bd ed c8 07 bd 80 dc be 3d f7 6d 98 3d
       -0.08524297 -0.033150602 0.09319401 0.07442849
000360 c9 4a 4c 3d a0 9d 55 3c 31 b9 d1 3b f2 4a 2f bb
       0.04987601 0.013038069 0.0064002504 -0.0026747552
000370 f7 c2 de bd 79 5a cf bd a2 fc a9 3d 52 4c 29 3d
       -0.1087703 -0.10124678 0.08300139 0.04133255
000380 dc cc ff 3d 20 d4 f4 bc c3 a2 38 bd d0 35 db 3d
       0.12490246 -0.029886305 -0.045077097 0.10703623
000390 31 61 3f 3c 8f 19 29 bd b8 dc a3 3d 20 63 cb 3d
       0.011680887 -0.04128414 0.08001083 0.09931016
0003a0 91 39 cc 3b 59 94 43 3d bb 6f ce 3d 4d 5c 10 bc
       0.0062324484 0.047748897 0.10079905 -0.008811069
0003b0 70 b3 ec bd 09 c5 b1 3d 8e 81 e6 bd 7e 20 fe bd
       -0.115576625 0.086801596 -0.11255179 -0.12408541
0003c0 bd db e9 3d 4c 7e 73 bd b7 d2 82 bd a2 c3 70 3d
       0.11418865 -0.059446618 -0.06387847 0.05878032
0003d0 e7 26 a6 bd 89 28 eb 3d 7c 56 b2 3d 95 b4 df 3d
       -0.08112889 0.11482341 0.08707902 0.10923115
0003e0 cb fa 39 3d 48 37 98 3d df 31 77 3d 18 af d0 3d
       0.04540519 0.07432419 0.060350295 0.101896465
0003f0 0b a1 40 bd cd 5a e0 3d 8f 6b b7 3d c6 ef 90 3d
       -0.047028583 0.10954819 0.08956062 0.07076983

fc2.bias f4 [64]
000000 79 f6 c9 3d bb 53 c0 bd b9 b5 34 3d 6e 7d b7 3d
       0.09861464 -0.0939097 0.044118617 0.08959471
000010 5f 70 19 bd 4d 56 c3 bd e6 0c 8c bd 57 b8 9e 3d
       -0.03746068 -0.09537945 -0.06838398 0.07750004
000020 79 01 4a bd 1a ed 5e bd 5a 90 eb 3d 9e 07 31 bc
       -0.04931781 -0.054425336 0.11502142 -0.010805039
000030 a7 cf 57 3d 2f b7 e9 3c d1 e4 6a 3d 3c e3 09 bd
       0.052688267 0.028529732 0.057347123 -0.033663973
000040 78 6b c8 3c c4 9e e2 3d 99 34 4a 3d e9 ef a4 3d
       0.024465308 0.110654384 0.049366567 0.08053572
000050 af c8 00 bd 5f cc 5a bd bf b1 cf 3d 78 69 72 bc
       -0.031441387 -0.05341756 0.10141324 -0.0147956535
000060 0f ec 0a bd 1b f5 fb bd c0 56 d7 3d b2 57 dd 3d
       -0.03391653 -0.123026095 0.10514593 0.10807742
000070 26 b0 93 3d 5a 25 91 bd 5d 2c ba 3d bb 6a f4 bd
       0.07211332 -0.07087202 0.09090493 -0.1193442
000080 a0 ce 52 bc d4 84 dd bd bc c2 f0 bc 64 38 92 bc
       -0.012866646 -0.108163506 -0.029389732 -0.017849155
000090 0c 05 26 3d 5c 4f d2 bd 5e e2 25 3c 68 d5 72 bd
       0.040532157 -0.10269043 0.010124771 -0.05928555
0000a0 67 8e 7e bc 49 87 ba bd 9e 3c d6 3d 1a e7 8c 3d
       -0.015536881 -0.09107835 0.104607806 0.068800166
0000b0 e3 ed c4 bd 94 fd df 3c 9d 20 9e bd 85 c0 3a 3c
       -0.09615686 0.027342595 -0.07721064 0.011398439
0000c0 7f c4 58 bd 23 06 5e bd d0 10 50 3d df 28 9c bd
       -0.05292177 -0.05420507 0.050797284 -0.07624983
0000d0 65 92 c0 3c d9 8e 67 3d 75 a6 04 3d 4e 8b 23 3b
       0.023507306 0.056532715 0.03238531 0.0024954858
0000e0 32 e4 8a bd 10 27 b2 bd 68 2c 12 bb 27 8e cc 3d
       -0.06781806 -0.08698857 -0.00223043 0.09988051
0000f0 e9 9f af bc 25 c0 98 bd fe 7c 9d 39 86 5e ed bc
       -0.021438556 -0.07458524 0.000300385 -0.028975736

out.weight f4 [1, 64]
000000 93 38 91 3b 8a 73 41 bd 2e da 1e bd 3e e8 50 bd
       0.004431793 -0.047229327 -0.03878229 -0.051002733
000010 06 9d 76 bc e6 ec 41 3d 1f 68 f9 3d a1 cf ce bd
       -0.015052086 0.047345065 0.12178063 -0.10098196
000020 9d f6 90 3c 59 69 97 bd 26 0c 48 bd 3a 7f 23 3c
       0.01769572 -0.0739314 -0.04883971 0.009979064
000030 16 00 2a bc da 16 22 3d 7d 8f 98 bd f5 71 f5 3c
       -0.010375997 0.039572574 -0.07449243 0.029961566
000040 7b 0c 89 bc d6 27 01 3d ca 94 2c 3c 91 90 a7 3d
       -0.016729584 0.03153213 0.010533521 0.08181871
000050 1d 48 cc bd 7b fd ee bc 53 51 9f bd 26 49 30 bc
       -0.09974692 -0.029173603 -0.07779183 -0.010759627
000060 0a f4 12 3d b6 43 3f bd b9 54 a1 bd 15 11 bb 3d
       0.035877265 -0.046695434 -0.07877488 0.091341175
000070 9f 5a f8 3d 39 3e f3 bd b2 14 3a 3d 53 55 4f 3d
       0.121266596 -0.118771024 0.045429893 0.05061848
000080 93 32 e3 bc bd 38 34 bd 1d 40 e5 3d cd 52 c0 3c
       -0.027734077 -0.043999422 0.11193869 0.023476982
000090 6d 79 b5 bd 7e 44 5f bd 76 9f 1b 3d c2 73 2e bd
       -0.08861051 -0.05450868 0.03799387 -0.042590864
0000a0 a6 8c 7b bc f5 77 c0 3d fd 4f 9c 3d bd ab fe 3d
       -0.015353357 0.0939788 0.07632444 0.124351
0000b0 73 eb f6 3b 65 8a e0 3d 98 1f 6b bb 15 fb fd b8
       0.007535392 0.10963897 -0.0035876986 -0.00012110748
0000c0 18 b6 6b bb a3 f9 af bc a0 9f 4f 3a b7 84 c9 3d
       -0.003596669 -0.02148134 0.00079202093 0.098397665
0000d0 ab b1 c2 bc 07 fe f5 3d 2a 51 7b 3d 27 47 af bd
       -0.02376636 0.120113425 0.0613567 -0.08558493
0000e0 cb 07 db bd 7d 9a c4 3c 51 e8 be 3d 32 72 02 bd
       -0.10694846 0.023999447 0.093216546 -0.031847186
0000f0 59 20 99 bd 25 c2 1a 3d 0e bd 1d bd bd fd f8 bd
       -0.07476873 0.037782807 -0.038510375 -0.12157772

sep_conn.weight f4 [64, 45]
000000 f6 a5 03 be 8b 46 a0 bc 84 3a 1f bd f5 9a 91 ba
       -0.12856278 -0.019564888 -0.038874164 -0.0011108803
000010 a4 d6 f6 3d 38 54 e0 bd 8b 42 ef 3d 93 e8 f1 bd
       0.12052658 -0.109535635 0.11682614 -0.11811938
000020 78 a1 c9 bd 8f 85 1e 3d 72 42 91 bd 39 3a 41 3d
       -0.09845251 0.03870159 -0.070927516 0.047174666
000030 d0 02 40 3d 1e 51 24 bd 86 3d 85 3d ab f7 eb 3d
       0.046877682 -0.040116422 0.06505875 0.11521848
000040 db 4a 33 3d ec 9f 10 bd 8c 17 be bc 73 fc 15 be
       0.04377256 -0.035308763 -0.023204587 -0.14647083
000050 6e 32 0a 3e 00 30 0a be 8b 39 1d bd 08 d3 ad bd
       0.134958 -0.13494873 -0.038384955 -0.08487517
000060 bb 82 39 3d 93 c7 58 3d b8 ce 09 3e 47 4e 6d bd
       0.04529069 0.052924704 0.13457763 -0.05793598
000070 b4 e9 a5 bd f1 a4 7a 3c 48 d9 fd bc ec bf dc bc
       -0.08101216 0.015298114 -0.030987397 -0.026946984
000080 c3 a3 71 bd 1c 71 ef bc fd 84 ac 3c 50 8a 4d bd
       -0.058994066 -0.02922874 0.021059508 -0.050180733
000090 dd 38 c2 bd 39 fd ed 3d ef 4a 12 bc 7a 7d c3 3c
       -0.09483502 0.11620564 -0.008928998 0.023863543
0000a0 8d 23 87 bd dc b6 d2 3d 08 bf aa bc 69 9b a5 bd
       -0.06598578 0.10288784 -0.020843044 -0.08086283
0000b0 58 5e a8 bd 22 09 c7 bb 5b 0d bd 3d a6 8e 04 3e
       -0.0822112 -0.0060740868 0.09231063 0.12945041
0000c0 e3 ee df bd bf c3 63 bd 90 22 68 3d bc 44 ea 3d
       -0.10934236 -0.0556066 0.056673586 0.11438891
0000d0 09 b4 8a bd 6f b2 0c 3c 93 e2 91 3d 1b 74 83 bd
       -0.0677262 0.008587464 0.07123294 -0.0641863
0000e0 29 b3 91 bd b7 a1 ea 3d c1 92 08 3e e7 a5 5d bd
       -0.0711425 0.11456626 0.13337232 -0.054113295
0000f0 2c 3e 41 3b be a2 57 bd c6 c8 a3 bc ad 84 fa 3d
       0.002948652 -0.052645437 -0.019993197 0.12232337
000100 b4 df 0f 3e be 41 e5 3d e8 56 10 3e 92 2e 80 3d
       0.1405018 0.1119418 0.14095652 0.062588826
000110 ee 5e ca bd dd 15 44 3c 2c 9c d0 3d 69 dc fe bd
       -0.09881388 0.011968103 0.101860374 -0.12444384
000120 94 51 01 be cb c3 e7 3c ba 18 9d bc 58 8e 72 3d
       -0.12628776 0.028291604 -0.01917683 0.05921778
000130 69 a1 e6 3d 7b 73 53 bd 89 9c 10 3e f6 d7 8f bd
       0.11261255 -0.051623803 0.14122213 -0.07023613
000140 97 aa 77 3c 1b 29 84 bd 0d 63 00 be a9 54 12 bd
       0.015116355 -0.06453153 -0.12537785 -0.03572527
000150 9f 93 06 be 99 cd b7 bd 98 bd 8f bd 5f c0 c3 bb
       -0.1314225 -0.089747615 -0.07018584 -0.00597386
000160 ee a8 25 bd 29 1f c9 3d 7b 3e 04 be 6e 0a 7f bd
       -0.040444307 0.098203965 -0.1291446 -0.062265806
000170 91 66 fc bd 6b 7a 1e bd a6 04 32 bd 16 d5 d8 bd
       -0.123242505 -0.038690966 -0.043461464 -0.10587518
000180 62 3b 01 3e 9a c5 f8 bb 32 44 7a bd 2a 0e 17 be
       0.12620309 -0.0075919153 -0.061100192 -0.14751497
000190 02 6d ef 3b 84 f9 bb bd b6 72 cc 3d 5d dc f8 bd
       0.007306696 -0.09178451 0.09982817 -0.12151406
0001a0 02 d1 89 bd c5 30 f0 3d 60 d8 87 bb f3 10 e4 3d
       -0.06729318 0.11728052 -0.004145667 0.11136045
0001b0 cd a1 10 be 53 aa 19 bd 3a a0 b4 bd 72 d8 43 3d
       -0.14124222 -0.03751595 -0.08819623 0.04781384
0001c0 f6 dd fa 3b 87 fe bb bd 97 29 0f be 2f a9 8c 3d
       0.0076558543 -0.091794066 -0.13980709 0.06868207
0001d0 62 45 89 bd 6f 51 a9 bd e0 fe c0 3d ac 43 c3 3d
       -0.06702687 -0.08267485 0.094236135 0.09534392
0001e0 39 ea 0d be 0d a3 96 bd 19 bb 11 be 95 38 0a bc
       -0.1385888 -0.07355318 -0.14231528 -0.008436342
0001f0 0f 30 ea bd 22 0d dc 3d 0f 71 87 3d e0 20 d2 3d
       -0.11434948 0.107446924 0.06613361 0.10260177
000200 5b 11 b0 bc 37 ea 21 bc 69 40 c2 3d 19 d3 f1 3d
       -0.02149265 -0.009882501 0.094849415 0.11807842
000210 30 af 01 3e 3e 1d 30 3d 89 5f fd 3d 05 37 90 bd
       0.12664485 0.042996638 0.123717375 -0.07041744
000220 b2 dd d5 3d cf a5 90 bc 62 3c a8 bc 6c e0 95 3d
       0.10442676 -0.017657189 -0.020536605 0.07318196
000230 3a 1e cc 3a a7 b7 f1 3d 2e 98 92 3d dc b3 f7 bd
       0.0015572973 0.11802607 0.07157932 -0.12094852
000240 ea d7 be bd 4f 14 11 3d 44 f2 5d bd bf c0 16 ba
       -0.09318526 0.03541976 -0.05418612 -0.00057507673
000250 2e f1 79 3d 31 5f e5 3d 56 c7 df 3d 52 e8 e6 bc
       0.061021022 0.11199797 0.10926692 -0.02818695
000260 fa 50 d2 bc f2 e3 3e bd 09 ef 68 3d 09 40 1c bd
       -0.025673378 -0.046604104 0.056868587 -0.038147006
000270 f3 cd 14 3e ee 4b 8d bd 38 a7 e3 3d 11 57 a8 3c
       0.14531688 -0.06899248 0.11115879 0.020549329
000280 b1 2a c7 bd 00 de 39 bd 19 fa c3 3d 42 60 66 bd
       -0.097249396 -0.04537773 0.09569187 -0.056244142
000290 84 e8 ea bc f6 0d 53 3c 5b c4 0e 3e 93 f1 06 bd
       -0.028675325 0.0128817465 0.13942091 -0.032945227
0002a0 e9 f6 e6 bd 03 3b 11 3e 28 52 9d 3c 66 31 98 bb
       -0.11277563 0.14182667 0.019204214 -0.0046445606
0002b0 54 86 d3 bd 19 c6 f3 bd 8b 2c 64 3d f3 6c ab bd
       -0.103283554 -0.119030185 0.055706542 -0.0837039
0002c0 95 c4 11 3e fb f5 a0 3d 1e ff 06 3e d4 a3 98 3d
       0.14235146 0.07859417 0.13183257 0.07453123
0002d0 24 6d 02 3e 7c f5 24 3b 70 87 71 3d b1 06 cb bd
       0.12736946 0.0025170734 0.058967054 -0.09913386
0002e0 1e 3a c0 bc c8 d1 79 3c c4 c0 ab 3d d5 8f 4f bb
       -0.023465212 0.01524777 0.083863765 -0.0031671424
0002f0 5e 6a f5 bd b2 97 18 be 2d 21 7d 3d ea 95 c7 bd
       -0.119831786 -0.14901617 0.061799217 -0.09745391
000300 60 2a f0 bd 1c bc 16 be 73 9e 04 be 45 5c 6b bc
       -0.117268324 -0.14720196 -0.12951069 -0.0143652605
000310 30 8c d3 bc cf 23 d7 3d ad db 16 be 45 60 bf bd
       -0.025823683 0.10504877 -0.14732237 -0.09344534
000320 93 43 b5 bd 8a 97 0d 3e 58 39 6e bd 95 fd 80 3c
       -0.088507794 0.13827339 -0.058160156 0.015745917
000330 f1 38 3e 3d d9 cc 07 3e 59 4d 98 3d ce 7e 09 be
       0.046441022 0.13261737 0.07436628 -0.13427278
000340 8a a1 da bd 64 1b 4a bd dd 8f 41 bc bb 51 bd 3d
       -0.106753424 -0.049342528 -0.011814085 0.092441045
000350 50 27 cd 3c 51 a3 5f bd 93 ac 11 be a1 8d 94 bc
       0.02504316 -0.05459911 -0.14225988 -0.01813394
000360 9f 64 9d bd 43 75 d4 bc 5f 82 c6 ba 2d 96 06 bd
       -0.076852076 -0.025934821 -0.0015145055 -0.032858063
000370 6f d7 c9 bc 67 37 62 bd 27 92 e2 bd b0 e6 13 3d
       -0.02463886 -0.055228617 -0.110630326 0.036108673
000380 df fd 74 bd d1 a4 93 bd e7 f3 02 3e 6e b6 bd 3c
       -0.059812423 -0.072091706 0.12788354 0.023158278
000390 1f c7 f3 3d 78 ea 13 3c 70 74 5c 3d 52 1f 07 bd
       0.11903214 0.00902807 0.05382198 -0.032988854
0003a0 af 26 84 3d dd 92 c6 bd 5c cc 60 bd a0 c3 b5 3d
       0.06452691 -0.09695981 -0.054882392 0.08875203
0003b0 13 9c 43 3c 27 0c 17 be a9 65 80 3d 7e 10 cb bd
       0.011939066 -0.1475073 0.0626939 -0.09915255
0003c0 90 7c 2f 3d 98 bb 4e bd 98 01 b7 bd be de db bd
       0.0428434 -0.050471872 -0.08935851 -0.10735844
0003d0 79 f6 80 bd a0 03 32 bd d9 58 65 3d 99 01 f5 bd
       -0.06297011 -0.04346049 0.055992935 -0.11963195
0003e0 a8 59 5f bd af 80 d3 bd e4 cf 00 be 55 ab b2 3c
       -0.054528862 -0.10327279 -0.12579304 0.021810213
0003f0 f0 35 bc bd 44 fb 3a bd b1 ae e3 3c 4a 6b 1b 3d
       -0.09189975 -0.04564978 0.02779326 0.037944116

sep_conn.bias f4 [64]
000000 de e0 06 be 52 ce 62 3d b1 ac b2 bd 74 78 09 be
       -0.13171718 0.055372544 -0.087243445 -0.13424855
000010 6f 45 bd 3d 56 76 14 be 6a 90 b8 3c ce a6 7f bd
       0.09241759 -0.14498267 0.0225298 -0.062414937
000020 f5 94 b5 3d 2c 8a c2 3d ee e1 be 3d b4 99 04 be
       0.08866302 0.094990104 0.093204364 -0.12949258
000030 2b 9a ca bd 52 46 c3 3d 3e cc aa bd a8 45 a8 3d
       -0.098926865 0.09534897 -0.08339737 0.08216411
000040 96 9e 12 3e 0a b1 0e bd 4e 38 11 3e 0e 0f 68 bd
       0.14318308 -0.034836806 0.14181635 -0.056654982
000050 93 7b e6 3b 63 66 bd 3d 5b 8d 04 3e 72 24 aa 3c
       0.007033774 0.09248044 0.12944548 0.020769332
000060 ac 10 8a bc aa a2 12 3c aa d1 7f 3b d9 40 07 be
       -0.016853653 0.008949915 0.0039034882 -0.13208331
000070 bb c6 54 3d 56 0a e7 3d 86 9f d5 3d 68 a1 88 bd
       0.051947337 0.11281268 0.10430817 -0.06671411
000080 8b 9c ef 3d 6c 5b c7 3b 2e 3e 1d 3d d3 97 9b 3d
       0.1169978 0.0060838964 0.038389377 0.075973175
000090 b6 51 ac bc 80 d0 6c 3d 49 78 6f 3d 94 5c 1f bd
       -0.021035057 0.05781603 0.058464322 -0.03890665
0000a0 13 55 05 be f5 64 82 3d a3 7d 10 3e 3a 5e fa 3d
       -0.13020734 0.06366912 0.14110427 0.122250035
0000b0 a2 f5 85 bd 3f d7 c4 bd 62 2a 14 be 42 89 f8 bd
       -0.06540991 -0.096113674 -0.14469293 -0.12135555
0000c0 6d 53 93 bc cf 2f aa 3d fa ea 90 bd 64 a9 5f bd
       -0.017984116 0.083099 -0.07076068 -0.054604903
0000d0 31 a6 e6 bd 3c b6 16 bd 99 4a be 3d 34 d4 04 be
       -0.11262167 -0.036794886 0.09291572 -0.12971574
0000e0 50 f7 a9 bc a3 87 13 be 9d 00 89 3c 2d 81 17 be
       -0.02074781 -0.1440721 0.016723925 -0.1479537
0000f0 89 4b 14 bd 4d 95 ce 3d a2 28 c7 bd 3e 86 9a bc
       -0.03620485 0.100870706 -0.09724547 -0.01886284

bn.weight f4 [64]
000000 5b b1 7f 3f 5b b1 7f 3f 5b b1 7f 3f 5b b1 7f 3f
       0.9988 0.9988 0.9988 0.9988
000010 5b b1 7f 3f 5c b1 7f 3f 52 27 80 3f 5b b1 7f 3f
       0.9988 0.99880004 1.0012 0.9988
000020 5b b1 7f 3f 5b b1 7f 3f 5b b1 7f 3f 52 27 80 3f
       0.9988 0.9988 0.9988 1.0012
000030 5b b1 7f 3f 52 27 80 3f 5b b1 7f 3f 52 27 80 3f
       0.9988 1.0012 0.9988 1.0012
000040 5b b1 7f 3f 5c b1 7f 3f 5c b1 7f 3f 5b b1 7f 3f
       0.9988 0.99880004 0.99880004 0.9988
000050 5b b1 7f 3f 5c b1 7f 3f 5b b1 7f 3f 5b b1 7f 3f
       0.9988 0.99880004 0.9988 0.9988
000060 52 27 80 3f 5b b1 7f 3f 5b b1 7f 3f 5b b1 7f 3f
       1.0012 0.9988 0.9988 0.9988
000070 52 27 80 3f 5b b1 7f 3f 5b b1 7f 3f 5c b1 7f 3f
       1.0012 0.9988 0.9988 0.99880004
000080 5b b1 7f 3f 5b b1 7f 3f 5b b1 7f 3f 52 27 80 3f
       0.9988 0.9988 0.9988 1.0012
000090 5b b1 7f 3f 5b b1 7f 3f 52 27 80 3f 5b b1 7f 3f
       0.9988 0.9988 1.0012 0.9988
0000a0 5b b1 7f 3f 5b b1 7f 3f 5b b1 7f 3f 52 27 80 3f
       0.9988 0.9988 0.9988 1.0012
0000b0 5b b1 7f 3f 5b b1 7f 3f 5b b1 7f 3f 5b b1 7f 3f
       0.9988 0.9988 0.9988 0.9988
0000c0 5b b1 7f 3f 5b b1 7f 3f 5b b1 7f 3f 5b b1 7f 3f
       0.9988 0.9988 0.9988 0.9988
0000d0 5b b1 7f 3f 52 27 80 3f 5c b1 7f 3f 5b b1 7f 3f
       0.9988 1.0012 0.99880004 0.9988
0000e0 5b b1 7f 3f 5b b1 7f 3f 52 27 80 3f 5b b1 7f 3f
       0.9988 0.9988 1.0012 0.9988
0000f0 5b b1 7f 3f 5b b1 7f 3f 5b b1 7f 3f 5b b1 7f 3f
       0.9988 0.9988 0.9988 0.9988

bn.bias f4 [64]
000000 a4 48 9d 3a 3c 49 9d ba 1f 49 9d ba 38 49 9d ba
       0.0011999798 -0.0011999975 -0.0011999941 -0.001199997
000010 2d 49 9d ba 39 49 9d 3a 41 49 9d 3a 45 49 9d ba
       -0.0011999957 0.0011999971 0.0011999981 -0.0011999985
000020 53 46 9d 3a 43 49 9d ba 35 49 9d ba 2f 49 9d 3a
       0.0011999108 -0.0011999983 -0.0011999967 0.001199996
000030 a7 48 9d ba 36 49 9d 3a 43 49 9d ba 37 49 9d 3a
       -0.0011999801 0.0011999968 -0.0011999983 0.0011999969
000040 00 49 9d ba 28 49 9d 3a d9 48 9d 3a 17 49 9d 3a
       -0.0011999905 0.0011999952 0.001199986 0.0011999932
000050 44 49 9d ba 0a 48 9d ba 44 49 9d ba 03 49 9d ba
       -0.0011999984 -0.0011999619 -0.0011999984 -0.0011999909
000060 27 49 9d 3a 14 49 9d ba 3d 49 9d ba 35 49 9d 3a
       0.001199995 -0.0011999928 -0.0011999976 0.0011999967
000070 46 49 9d 3a 45 49 9d ba 2b 49 9d 3a 27 49 9d 3a
       0.0011999987 -0.0011999985 0.0011999955 0.001199995
000080 21 49 9d ba 32 49 9d ba 32 49 9d 3a 2e 49 9d 3a
       -0.0011999944 -0.0011999963 0.0011999963 0.0011999959
000090 3b 49 9d ba 3c 49 9d ba 35 49 9d 3a 34 49 9d ba
       -0.0011999974 -0.0011999975 0.0011999967 -0.0011999966
0000a0 0b 49 9d ba 27 49 9d 3a e8 48 9d 3a 45 49 9d 3a
       -0.0011999918 0.001199995 0.0011999877 0.0011999985
0000b0 27 47 9d 3a 31 49 9d 3a 1b 48 9d ba d7 47 9d ba
       0.0011999354 0.0011999962 -0.0011999639 -0.0011999559
0000c0 ff 48 9d ba 17 49 9d ba 17 46 9d ba 0d 49 9d 3a
       -0.0011999904 -0.0011999932 -0.0011999038 0.001199992
0000d0 28 49 9d ba 44 49 9d 3a 2b 49 9d 3a 3f 49 9d ba
       -0.0011999952 0.0011999984 0.0011999955 -0.0011999978
0000e0 45 49 9d ba 01 49 9d 3a 45 49 9d 3a 28 49 9d ba
       -0.0011999985 0.0011999906 0.0011999985 -0.0011999952
0000f0 3c 49 9d ba 23 49 9d 3a 35 49 9d ba 49 49 9d ba
       -0.0011999975 0.0011999946 -0.0011999967 -0.001199999

bn.running_mean f4 [64]
000000 7a 0b 31 3c b2 9e 97 bc 0b 49 84 bc 54 17 19 3c
       0.010805959 -0.018508289 -0.01614811 0.009343941
000010 93 3f 0b bd c3 be ca 3c d3 31 8a 3c ea 79 47 bd
       -0.033996176 0.024749165 0.016869461 -0.04870025
000020 6e da f9 bc 6a 7c 47 bb ab cc 70 3c 78 f5 77 3c
       -0.030499663 -0.0030439147 0.014697234 0.015134208
000030 be 34 98 3c 7e eb 18 3d 66 da 3f 3d 29 35 1d 3c
       0.018579837 0.037333958 0.04683914 0.009595194
000040 2e be a8 bc fb 09 01 bd 78 8d 3c 3b bf 7c c9 3b
       -0.020598497 -0.03150366 0.0028770845 0.006148904
000050 84 17 2f 3b 50 86 63 bb bb 01 f8 bc 0a 14 8e 3c
       0.0026716897 -0.0034717508 -0.030274263 0.01734354
000060 59 e1 90 3c 5a f5 2b bd 50 61 bc bb 83 c7 95 3d
       0.01768558 -0.041982032 -0.0057489052 0.073134445
000070 b9 a7 60 3d 8c 94 ef bc 83 5a 83 bd 78 5a 13 bc
       0.054847453 -0.029245637 -0.06413748 -0.008993737
000080 a9 e6 fd 3c f1 e4 39 bd 1e ad 12 bd ca b1 0d 3d
       0.030993776 -0.04538435 -0.03580963 0.03459338
000090 a4 04 46 3c ba d6 d8 bb 5a e4 03 3d 79 e7 39 bc
       0.012086067 -0.0066173943 0.032200195 -0.011346691
0000a0 2f 51 1f bc 66 f9 e6 3c 9d c7 32 3d 4c 8d c6 bc
       -0.0097239455 0.028195094 0.043647397 -0.024237297
0000b0 17 f0 65 3c 7c 31 28 bc f0 d6 78 3c b4 5b 11 bd
       0.014034293 -0.010265704 0.015187964 -0.035487846
0000c0 5d 56 28 3b 4e 8c d9 3b 1f d9 23 bd 86 20 91 3c
       0.0025686242 0.00663904 -0.040001985 0.017715704
0000d0 df 73 db ba 73 01 01 3d 8a b1 2a 3d 80 77 05 3d
       -0.0016742906 0.031495523 0.04167322 0.032584667
0000e0 2d 1a 41 3c 62 16 10 bb db a0 a0 bb 6f 96 9a 3c
       0.011786026 -0.0021985997 -0.004901988 0.01887056
0000f0 ae 2d 8d 3d 19 15 9e 3c d9 1f 2a 3c 7c 92 96 3c
       0.06893478 0.01929717 0.01038357 0.018380396

bn.running_var f4 [64]
000000 f5 79 54 3f 93 44 55 3f 5c d9 56 3f a3 44 56 3f
       0.8299859 0.8330776 0.83925414 0.8369848
000010 53 9f 55 3f 7f 68 55 3f 60 41 57 3f 17 1b 56 3f
       0.83446234 0.83362573 0.8408413 0.83635086
000020 dd 94 54 3f 9f 4d 56 3f 09 d1 57 3f b5 31 56 3f
       0.8303965 0.8371219 0.8430334 0.83669597
000030 96 be 54 3f 94 68 55 3f 63 1b 57 3f 28 18 56 3f
       0.8310331 0.833627 0.84026164 0.8363061
000040 90 22 56 3f cc 12 55 3f ce 2b 54 3f 68 f5 55 3f
       0.8364649 0.83231807 0.8287934 0.83577585
000050 d1 6d 57 3f c7 dd 54 3f 68 5d 55 3f 91 dc 56 3f
       0.8415194 0.83150905 0.8334565 0.8393031
000060 8e 36 58 3f d4 80 56 3f 29 df 54 3f 0f d4 56 3f
       0.84458244 0.83790326 0.83153015 0.83917326
000070 22 e7 53 3f 2e 2b 55 3f 57 97 55 3f 2d 1d 55 3f
       0.82774556 0.8326901 0.8343405 0.83247644
000080 65 e3 55 3f e7 4e 55 3f 18 f5 5a 3f a5 4a 55 3f
       0.835501 0.8332352 0.85530233 0.83317024
000090 52 9f 56 3f 2a 4a 55 3f 41 3d 56 3f 3d 87 55 3f
       0.83836854 0.8331629 0.83687216 0.8340948
0000a0 09 b8 55 3f f5 0c 54 3f 72 95 56 3f 8a 64 57 3f
       0.8348394 0.8283227 0.83821785 0.84137785
0000b0 cf 47 54 3f 76 d8 55 3f 1c d0 54 3f 7b 39 55 3f
       0.8292207 0.8353342 0.8313005 0.83290833
0000c0 c8 65 55 3f 37 cd 55 3f af 4b 55 3f 0a cf 54 3f
       0.8335843 0.8351626 0.8331861 0.83128417
0000d0 5c af 55 3f cd be 56 3f 6b 0d 55 3f 02 26 56 3f
       0.834707 0.8388489 0.832236 0.83651745
0000e0 d6 cb 54 3f 99 42 55 3f 13 26 57 3f 49 ff 54 3f
       0.8312353 0.83304745 0.8404247 0.83202034
0000f0 e2 5b 57 3f ca 78 57 3f 02 bf 54 3f 13 6b 54 3f
       0.8412458 0.84168684 0.83103955 0.8297588

net.0.weight f4 [64, 45]
000000 c9 36 6a 3d e9 a5 c0 bd 9e 7c 8d bd bc 0b ef 3d
       0.057181153 -0.09406645 -0.069085345 0.1167216
000010 fd 63 fd bd 35 52 19 bd d5 79 0e 3e f3 31 99 bc
       -0.12372587 -0.037431914 0.13913663 -0.018700575
000020 0f 41 01 3c 6a e3 a2 bc 19 eb fe bc d3 53 8c bd
       0.007889046 -0.01988383 -0.031117963 -0.06851926
000030 4c b9 6d 3d e1 74 16 bd 5a 8d 00 3d 11 39 0a be
       0.05803804 -0.03673256 0.031384803 -0.13498332
000040 b5 1c 15 3d 87 4e fc 3d f4 45 c8 bc 7f 86 a4 bd
       0.03640433 0.123196654 -0.024447419 -0.080334656
000050 66 62 66 3c a8 60 ce 3b f3 01 ed 3d b4 41 bc 3d
       0.014061546 0.0062981434 0.115726374 0.091922194
000060 64 d8 67 bd 61 4b 53 3d 98 26 f7 bd d1 8a 14 3e
       -0.05660285 0.05158556 -0.12067908 0.1450608
000070 68 b6 e8 bd 03 82 63 3d df 6f 96 bc 11 de ca 3d
       -0.11362916 0.05554391 -0.018363891 0.09905637
000080 c5 59 be bd 9f ab 90 bd 1a 9a c0 bd ed d2 e4 bd
       -0.09294466 -0.07063984 -0.094043925 -0.111730434
000090 8d fe e4 3d d4 97 0f be bc c2 08 bc 03 80 09 be
       0.11181364 -0.14022762 -0.00834721 -0.13427739
0000a0 c0 49 01 3e 49 8d 28 bb f1 31 de bd c5 40 d8 3d
       0.1262579 -0.0025718978 -0.10849369 0.10559229
0000b0 dd 7f 7f 3c 8e 51 10 bd 78 70 15 3d 67 ce 0b be
       0.01559445 -0.035234027 0.03648421 -0.13652955
0000c0 14 51 de bd 96 e6 f4 3c 52 7a 11 3e 47 77 cf bd
       -0.10855308 0.029895108 0.14206818 -0.10130172
0000d0 39 9b 11 3d d0 d8 47 bd 1e d4 e0 bd ce 18 ba 3d
       0.035548422 -0.048790753 -0.10977958 0.09086762
0000e0 bf d7 9a 3d f3 dd 00 3d 76 fa 0a be 98 b4 06 3e
       0.075606816 0.031461667 -0.13572106 0.13154829
0000f0 ff 1a 18 be 61 0f f5 3c 69 22 d4 bd 5b 66 a1 bd
       -0.14854048 0.02991456 -0.10358126 -0.07880851
000100 44 ef f8 3d 99 35 0a bd d8 50 d7 bd 66 4a 6a bd
       0.12155011 -0.03374252 -0.105134666 -0.057199858
000110 1a ea 03 3e da 37 14 be b4 08 19 be 2c 81 3f 3d
       0.12882271 -0.1447443 -0.14944726 0.046754047
000120 51 3e f1 3d a9 ed bf 3d 3e 35 ca 3d ae b0 04 3e
       0.11779464 0.09371502 0.098734364 0.12958023
000130 24 c9 9c 3c d2 b5 0d be 37 f0 c2 bd 0b c0 00 be
       0.01913888 -0.1383889 -0.095184736 -0.12573259
000140 ef ea f8 3d 9d 99 9c bd d0 16 d7 3d 55 ae ff 3d
       0.12154185 -0.07646487 0.10502398 0.12484423
000150 ba 0f d5 3c ee b9 e3 bd 45 b0 8a bc 59 51 da 3c
       0.026008476 -0.11119448 -0.016929755 0.026650118
000160 c4 f8 a1 3d 62 7b 0d be 6d ff 91 bd ba fe b7 3d
       0.079087764 -0.13816598 -0.07128797 0.08984132
000170 26 8c dc bd 29 21 cc bd 47 a2 fd bc 86 d5 e1 3d
       -0.10768919 -0.09967262 -0.030961169 0.110270545
000180 61 94 13 be 13 ea 0f bd 45 29 c0 bd 0e e1 9e bd
       -0.14412071 -0.03513534 -0.093828715 -0.077577695
000190 6d 00 52 3c e6 49 19 3c b9 a4 c6 bd ab d7 15 bd
       0.012817484 0.009355998 -0.09699387 -0.03658263
0001a0 eb b3 b5 bd b8 df af bd b1 5a 43 bd af 72 ba 3c
       -0.08872207 -0.08587593 -0.047693912 0.022759764
0001b0 ce 29 a6 bd 88 8d db 3c 08 d3 d1 bd 59 8d d5 3d
       -0.08113442 0.026800886 -0.10245329 0.104273506
0001c0 78 00 22 bd 8a ac db 3d 8d 05 d5 3d f1 2a fe 3c
       -0.03955123 0.107262686 0.10401449 0.031026335
0001d0 6c 5b fc bd 56 03 e3 bd 2b 77 47 bc a2 29 08 3e
       -0.12322125 -0.11084621 -0.012174408 0.13297132
0001e0 5f b4 44 bd a7 46 25 3d e8 6c 29 bd 01 11 de bd
       -0.048023578 0.040350582 -0.041363627 -0.10843087
0001f0 a3 ce 87 3d cb 4a ee bd 4f ba ae 3d 6f a2 c2 3c
       0.0663121 -0.116353594 0.08531629 0.023759095
000200 f3 d1 0a be 8d bf 6e bd d8 fc 15 be 3c c4 ce 3d
       -0.13556652 -0.058288146 -0.14647233 0.100960225
000210 a0 2f ee 3d ea bb 12 3e b2 44 09 3e bc 17 08 3c
       0.116301775 0.14329496 0.13405111 0.00830644
000220 68 c2 d2 bd 8f c5 16 3e e7 f5 ab 3d e0 26 9c bd
       -0.10290986 0.147238 0.083965115 -0.07624602
000230 07 28 dc bd 41 02 87 3d 38 a9 32 bd 1a 59 c9 ba
       -0.10749822 0.06592227 -0.04361841 -0.0015361637
000240 34 39 4f bd c9 a7 94 bd b2 e9 cb bc 6a 79 ab 3c
       -0.050591663 -0.07258565 -0.024891708 0.020931918
000250 f0 e0 fb 3c 27 75 5f bd e1 b7 00 be bd 9b d9 bd
       0.030746907 -0.054555085 -0.12570144 -0.10625408
000260 93 dd 2b bd ab 5d 40 bd 36 71 10 3e d6 72 b6 bd
       -0.041959357 -0.04696433 0.14105687 -0.08908622
000270 4e 36 09 be 7f 1b a8 bd c5 6c c6 3d f4 b1 e2 bd
       -0.13399622 -0.082083695 0.09688715 -0.11069098
000280 cd 8b 35 3c 7f f1 51 3c d2 a5 15 be e1 ee 81 bd
       0.011080694 0.012813925 -0.14614037 -0.06344391
000290 02 84 10 3e 97 6d 6b 3d ec 27 79 bd ab 90 fd bd
       0.14112857 0.05747756 -0.060829088 -0.12381109
0002a0 85 46 0d be 75 db bd bd 43 27 05 be 7d 46 e5 bd
       -0.13796432 -0.09270374 -0.13003258 -0.11195085
0002b0 3d 9e 04 3e 5f e2 ca 3d 85 d7 a5 bd 63 f4 95 bd
       0.12950988 0.09906458 -0.08097748 -0.07322004
0002c0 0d b0 d2 3d 6c 1d 86 bd 18 7f ab bd 63 e3 0b be
       0.10287485 -0.065485805 -0.083738506 -0.1366096
0002d0 96 0d b8 bd 8a 99 c8 bd 19 5d c3 bc 94 5c e1 bd
       -0.08986966 -0.0979491 -0.023848103 -0.11003986
0002e0 5a c1 41 bd 2a 13 1e bd 9d 96 50 bd 9f 06 ca 3d
       -0.047303535 -0.038592495 -0.050924886 0.09864544
0002f0 3d c2 14 be fb e2 e6 bd cf ff aa bd 9b 02 ec 3d
       -0.14527221 -0.11273762 -0.08349573 0.115239345
000300 37 b1 c0 3d 21 44 ad 3d bd 0b b0 bd 63 50 43 3d
       0.09408801 0.0846026 -0.08595989 0.047684085
000310 35 1f a3 3d f4 3c f9 bd 01 18 0b 3e 72 0a 9b 3c
       0.07964937 -0.12169829 0.13583376 0.01892588
000320 d8 8e 00 3e 6b ee d5 bc d5 9f 09 3d f4 4a 83 3d
       0.1255449 -0.026114663 0.033599693 0.064107805
000330 00 22 47 bd d8 15 e7 bd 93 1a 21 3c a8 d8 c6 bc
       -0.04861641 -0.11283463 0.009832996 -0.024273232
000340 ad f4 77 bc 10 1a fb 3c e2 6e 0e 3e aa 1f 83 3d
       -0.015134019 0.030652076 0.13909486 0.06402524
000350 2c 5f bd bd 5b 95 1a 3d cf 1a 0b be 48 f3 08 3e
       -0.09246668 0.037740093 -0.13584445 0.13374054
000360 7a da 3c 3d 13 20 14 3e be 92 60 bd 92 18 89 3d
       0.046106793 0.1446536 -0.054827444 0.066941395
000370 42 4d 14 3e e8 6c da 3d b3 1d b1 bd 55 d0 05 3e
       0.14482597 0.106653035 -0.08648243 0.13067754
000380 1b b3 53 bc c3 0d 42 bd 6e 68 bb bd f5 ea 02 3e
       -0.01292112 -0.047376405 -0.09150778 0.12784941
000390 ac 5f 06 3e ad 58 80 bd 76 65 17 be 05 13 0f 3e
       0.13122433 -0.062669136 -0.14784798 0.13972099
0003a0 73 88 59 3d 89 6b d6 bd c2 d3 d8 3d ec 73 d3 3c
       0.053108644 -0.104697295 0.105872646 0.025812112
0003b0 d4 a6 01 3e c9 8e 0b 3e dc c6 0f bd 70 da 35 bd
       0.12661296 0.13628687 -0.035101756 -0.04439777
0003c0 63 87 02 be 27 81 df bd 81 c7 25 bc 4d 84 dc 3d
       -0.12746958 -0.10913306 -0.010118366 0.10767422
0003d0 b5 74 80 3d 27 a7 b8 3d c8 d2 72 bd cd ed db bd
       0.0627226 0.09016257 -0.059283048 -0.10738716
0003e0 ae 44 b1 bd b8 2f 9c bd 00 f1 79 3d d7 a7 ce bb
       -0.08655678 -0.07626289 0.06102085 -0.006306629
0003f0 84 65 00 3e ef b9 6b 3d bc 60 ea 3c a2 49 0c be
       0.12538725 0.057550367 0.02861058 -0.13699964

net.0.bias f4 [64]
000000 58 8e 1c bd 5a 03 a3 b6 02 2f 6d bd e8 81 ad b8
       -0.038221687 -4.8581687e-06 -0.05790616 -8.27348e-05
000010 a2 58 95 3d b5 d6 ec 3d 10 22 c3 bd d1 02 84 bd
       0.07292296 0.115643896 -0.09527981 -0.0644585
000020 5c f1 13 be 98 ae a3 bd b3 05 81 3d 3b 33 f5 bc
       -0.1444754 -0.079922855 0.06299915 -0.029931655
000030 31 18 19 3d 02 f1 84 3c 2b 66 17 be 49 76 45 3d
       0.037376586 0.016228203 -0.14785068 0.04820851
000040 29 48 c9 bd 7a d5 dd bb 1f fd 03 be c9 d3 64 3d
       -0.098282166 -0.006769833 -0.12889527 0.055866037
000050 2e 9f 77 3d c5 3b 13 bc bc 25 0d 3e 3e c8 20 bd
       0.06045454 -0.008986418 0.13783926 -0.039253466
000060 90 74 94 bd 3b 8a fd bd fc 6e 7f bc 4e da ee 3d
       -0.07248795 -0.12379881 -0.015590426 0.11662732
000070 35 8f cd bc c5 ab f0 bd d2 9b 10 be 8e 6b f5 bd
       -0.0250927 -0.117515124 -0.1412194 -0.11983405
000080 ae 23 ec 3b 3a 42 c4 3d 39 fc bb 3d d1 38 08 bd
       0.007206402 0.09582944 0.09178967 -0.03325731
000090 2d 0d 9d 3d 12 bb d5 bc 7f b9 ee bc d1 b0 93 bd
       0.07668529 -0.026090179 -0.029141186 -0.072114594
0000a0 ec d8 82 3a 99 6e a5 3c 97 66 c9 3d 36 5f 56 3b
       0.0009982861 0.020194339 0.098340206 0.0032710559
0000b0 43 89 a3 3d 21 29 6d bb f9 48 0e 3e c5 59 0c be
       0.07985165 -0.0036187845 0.13895024 -0.1370612
0000c0 cc ec f3 bd d9 e4 e1 bd 53 2f 53 bd d5 2f 5b 3c
       -0.119104 -0.11029977 -0.051558804 0.013378103
0000d0 c3 ca 82 3d 81 43 33 bd 30 e4 15 3e 81 f9 d3 3d
       0.0638633 -0.04376555 0.14637828 0.103503235
0000e0 24 39 64 3d 3b 53 4a 3d b1 e8 79 3d 5f 39 2c bd
       0.055718556 0.04939578 0.061012927 -0.0420469
0000f0 9c 72 e5 3d e1 04 c7 3d 18 f9 9a 3d f6 d5 24 3d
       0.11203501 0.097177275 0.07567042 0.04024311

net.1.weight f4 [64]
000000 5b b1 7f 3f 5b b1 7f 3f 5b b1 7f 3f 5b b1 7f 3f
       0.9988 0.9988 0.9988 0.9988
000010 5b b1 7f 3f 5c b1 7f 3f 52 27 80 3f 5b b1 7f 3f
       0.9988 0.99880004 1.0012 0.9988
000020 5b b1 7f 3f 5b b1 7f 3f 5b b1 7f 3f 52 27 80 3f
       0.9988 0.9988 0.9988 1.0012
000030 5b b1 7f 3f 52 27 80 3f 5b b1 7f 3f 52 27 80 3f
       0.9988 1.0012 0.9988 1.0012
000040 5b b1 7f 3f 5c b1 7f 3f 5c b1 7f 3f 5b b1 7f 3f
       0.9988 0.99880004 0.99880004 0.9988
000050 5b b1 7f 3f 5c b1 7f 3f 5b b1 7f 3f 5b b1 7f 3f
       0.9988 0.99880004 0.9988 0.9988
000060 52 27 80 3f 5b b1 7f 3f 5b b1 7f 3f 5b b1 7f 3f
       1.0012 0.9988 0.9988 0.9988
000070 52 27 80 3f 5b b1 7f 3f 5b b1 7f 3f 5c b1 7f 3f
       1.0012 0.9988 0.9988 0.99880004
000080 5b b1 7f 3f 5b b1 7f 3f 5b b1 7f 3f 52 27 80 3f
       0.9988 0.9988 0.9988 1.0012
000090 5b b1 7f 3f 5b b1 7f 3f 52 27 80 3f 5b b1 7f 3f
       0.9988 0.9988 1.0012 0.9988
0000a0 5b b1 7f 3f 5b b1 7f 3f 5b b1 7f 3f 52 27 80 3f
       0.9988 0.9988 0.9988 1.0012
0000b0 5b b1 7f 3f 5b b1 7f 3f 5b b1 7f 3f 5b b1 7f 3f
       0.9988 0.9988 0.9988 0.9988
0000c0 5b b1 7f 3f 5b b1 7f 3f 5b b1 7f 3f 5b b1 7f 3f
       0.9988 0.9988 0.9988 0.9988
0000d0 5b b1 7f 3f 52 27 80 3f 5c b1 7f 3f 5b b1 7f 3f
       0.9988 1.0012 0.99880004 0.9988
0000e0 5b b1 7f 3f 5b b1 7f 3f 52 27 80 3f 5b b1 7f 3f
       0.9988 0.9988 1.0012 0.9988
0000f0 5b b1 7f 3f 5b b1 7f 3f 5b b1 7f 3f 5b b1 7f 3f
       0.9988 0.9988 0.9988 0.9988

net.1.bias f4 [64]
000000 a4 48 9d 3a 3c 49 9d ba 1f 49 9d ba 38 49 9d ba
       0.0011999798 -0.0011999975 -0.0011999941 -0.001199997
000010 2d 49 9d ba 39 49 9d 3a 41 49 9d 3a 45 49 9d ba
       -0.0011999957 0.0011999971 0.0011999981 -0.0011999985
000020 53 46 9d 3a 43 49 9d ba 35 49 9d ba 2f 49 9d 3a
       0.0011999108 -0.0011999983 -0.0011999967 0.001199996
000030 a7 48 9d ba 36 49 9d 3a 43 49 9d ba 37 49 9d 3a
       -0.0011999801 0.0011999968 -0.0011999983 0.0011999969
000040 00 49 9d ba 28 49 9d 3a d9 48 9d 3a 17 49 9d 3a
       -0.0011999905 0.0011999952 0.001199986 0.0011999932
000050 44 49 9d ba 0a 48 9d ba 44 49 9d ba 03 49 9d ba
       -0.0011999984 -0.0011999619 -0.0011999984 -0.0011999909
000060 27 49 9d 3a 14 49 9d ba 3d 49 9d ba 35 49 9d 3a
       0.001199995 -0.0011999928 -0.0011999976 0.0011999967
000070 46 49 9d 3a 45 49 9d ba 2b 49 9d 3a 27 49 9d 3a
       0.0011999987 -0.0011999985 0.0011999955 0.001199995
000080 21 49 9d ba 32 49 9d ba 32 49 9d 3a 2e 49 9d 3a
       -0.0011999944 -0.0011999963 0.0011999963 0.0011999959
000090 3b 49 9d ba 3c 49 9d ba 35 49 9d 3a 34 49 9d ba
       -0.0011999974 -0.0011999975 0.0011999967 -0.0011999966
0000a0 0b 49 9d ba 27 49 9d 3a e8 48 9d 3a 45 49 9d 3a
       -0.0011999918 0.001199995 0.0011999877 0.0011999985
0000b0 27 47 9d 3a 31 49 9d 3a 1b 48 9d ba d7 47 9d ba
       0.0011999354 0.0011999962 -0.0011999639 -0.0011999559
0000c0 ff 48 9d ba 17 49 9d ba 17 46 9d ba 0d 49 9d 3a
       -0.0011999904 -0.0011999932 -0.0011999038 0.001199992
0000d0 28 49 9d ba 44 49 9d 3a 2b 49 9d 3a 3f 49 9d ba
       -0.0011999952 0.0011999984 0.0011999955 -0.0011999978
0000e0 45 49 9d ba 01 49 9d 3a 45 49 9d 3a 28 49 9d ba
       -0.0011999985 0.0011999906 0.0011999985 -0.0011999952
0000f0 3c 49 9d ba 23 49 9d 3a 35 49 9d ba 49 49 9d ba
       -0.0011999975 0.0011999946 -0.0011999967 -0.001199999

net.1.running_mean f4 [64]
000000 7a 0b 31 3c b2 9e 97 bc 0b 49 84 bc 54 17 19 3c
       0.010805959 -0.018508289 -0.01614811 0.009343941
000010 93 3f 0b bd c3 be ca 3c d3 31 8a 3c ea 79 47 bd
       -0.033996176 0.024749165 0.016869461 -0.04870025
000020 6e da f9 bc 6a 7c 47 bb ab cc 70 3c 78 f5 77 3c
       -0.030499663 -0.0030439147 0.014697234 0.015134208
000030 be 34 98 3c 7e eb 18 3d 66 da 3f 3d 29 35 1d 3c
       0.018579837 0.037333958 0.04683914 0.009595194
000040 2e be a8 bc fb 09 01 bd 78 8d 3c 3b bf 7c c9 3b
       -0.020598497 -0.03150366 0.0028770845 0.006148904
000050 84 17 2f 3b 50 86 63 bb bb 01 f8 bc 0a 14 8e 3c
       0.0026716897 -0.0034717508 -0.030274263 0.01734354
000060 59 e1 90 3c 5a f5 2b bd 50 61 bc bb 83 c7 95 3d
       0.01768558 -0.041982032 -0.0057489052 0.073134445
000070 b9 a7 60 3d 8c 94 ef bc 83 5a 83 bd 78 5a 13 bc
       0.054847453 -0.029245637 -0.06413748 -0.008993737
000080 a9 e6 fd 3c f1 e4 39 bd 1e ad 12 bd ca b1 0d 3d
       0.030993776 -0.04538435 -0.03580963 0.03459338
000090 a4 04 46 3c ba d6 d8 bb 5a e4 03 3d 79 e7 39 bc
       0.012086067 -0.0066173943 0.032200195 -0.011346691
0000a0 2f 51 1f bc 66 f9 e6 3c 9d c7 32 3d 4c 8d c6 bc
       -0.0097239455 0.028195094 0.043647397 -0.024237297
0000b0 17 f0 65 3c 7c 31 28 bc f0 d6 78 3c b4 5b 11 bd
       0.014034293 -0.010265704 0.015187964 -0.035487846
0000c0 5d 56 28 3b 4e 8c d9 3b 1f d9 23 bd 86 20 91 3c
       0.0025686242 0.00663904 -0.040001985 0.017715704
0000d0 df 73 db ba 73 01 01 3d 8a b1 2a 3d 80 77 05 3d
       -0.0016742906 0.031495523 0.04167322 0.032584667
0000e0 2d 1a 41 3c 62 16 10 bb db a0 a0 bb 6f 96 9a 3c
       0.011786026 -0.0021985997 -0.004901988 0.01887056
0000f0 ae 2d 8d 3d 19 15 9e 3c d9 1f 2a 3c 7c 92 96 3c
       0.06893478 0.01929717 0.01038357 0.018380396
