bestclf/bestclf_yaleb_n02.pth (torch, 343163 bytes, 16 tensors)

fc1.weight f4 [75, 504]
000000 40 60 a7 bc 49 db 6a bc 3c 91 c9 bc 39 33 9e bc
       -0.020431638 -0.014334508 -0.024605386 -0.019311534
000010 26 1b 48 bc 5b 4a 80 bc 4c b3 c1 bb 0d 18 e9 bb
       -0.012213504 -0.015660455 -0.0059112664 -0.007113463
000020 a8 6b ac ba 21 00 3b ba ff 7f 9e 3b 46 17 2b 3b
       -0.0013154643 -0.0007133503 0.0048370357 0.0026106401
000030 d1 76 ca 3b 69 85 f4 bb 73 d3 d8 bb ff e6 02 3c
       0.006178715 -0.007462193 -0.0066170036 0.007989644
000040 88 20 fa 3b 42 c3 df 3a 38 63 43 3c fc 84 91 3c
       0.0076332726 0.0017071741 0.011925511 0.017763607
000050 c1 da fe 3b c9 b1 93 bc 49 7e 8e bc 21 d4 20 bc
       0.0077775423 -0.01802911 -0.017394202 -0.0098162005
000060 74 b2 e2 3b 29 1f 51 3c 53 5c 32 3c f5 80 4d 3c
       0.006918246 0.012763777 0.01088627 0.012542953
000070 d1 70 65 3c 77 1b 9e 3b ed 34 4a bb e5 05 fe 3a
       0.014003948 0.0048250514 -0.00308543 0.0019380419
000080 51 fc fc b9 1c da b5 b9 b8 9d 36 39 49 5a 53 3b
       -0.00048253176 -0.00034685514 0.00017415627 0.003224986
000090 a9 e4 e2 3b 0f 59 01 3c 96 af e3 3a 4a 49 07 3c
       0.006924231 0.007894768 0.0017371054 0.00825722
0000a0 e1 1f 0e 3c 1a f3 8a 3c 9f 63 fd bb e1 2f 46 3c
       0.008674593 0.016961623 -0.007732823 0.012096376
0000b0 0b a3 42 bc 74 8b ca bc d9 c0 00 bd ff 90 18 bc
       -0.011879693 -0.0247247 -0.031433914 -0.0093119135
0000c0 fe fb 06 3c 56 12 7a 3c 40 81 3b 3c b4 f7 78 bb
       0.008238791 0.015263161 0.01144439 -0.003798944
0000d0 f1 c9 c0 bb 98 bf d7 bb 6e e3 64 ba 2e 78 a7 3a
       -0.0058834483 -0.006584119 -0.00087313994 0.0012776905
0000e0 f9 70 d7 bb f8 2c 9d bc 3d 27 8b bc 3f 2c 46 bc
       -0.0065747467 -0.019186482 -0.016986484 -0.01209551
0000f0 f4 39 cf bb da d8 3e 3c fb 2d b3 3c 7c d3 3d 3c
       -0.006324047 0.011648381 0.021872511 0.011586066
000100 d4 70 1d 3c f7 e5 1b bb 66 09 4c bc 8e 6a 8b bc
       0.00960942 -0.0023788193 -0.012453413 -0.017018583
000110 a0 5a 99 bc c8 3e e4 bb 16 39 4b 3a b2 e9 55 3c
       -0.018719971 -0.006965492 0.0007752342 0.013056206
000120 21 e9 98 3b ce 33 8e 3b e8 f1 30 3b 81 6b 60 3c
       0.004666463 0.0043396717 0.0026999656 0.013697506
000130 2d ac 9d ba ca c4 a9 bc db e8 7d bc 96 c7 78 bc
       -0.0012029462 -0.02072372 -0.015497412 -0.015184304
000140 c6 96 89 bc 5a 52 54 bc 37 27 9a bc ec 97 43 3c
       -0.016795527 -0.012959087 -0.018817527 0.0119380765
000150 c8 a5 03 3d b4 57 2f 3d 5e 1b 86 3c 93 b8 a6 3c
       0.032140523 0.04280825 0.016370472 0.020351684
000160 c5 5d b1 3c e5 c4 a6 3c b8 09 f6 3c bb 79 e6 3c
       0.021651158 0.020357559 0.030033931 0.028134217
000170 f5 31 96 3c 54 1a b9 bb c5 8b 80 3b ef b1 a9 3c
       0.018334368 -0.0056488905 0.003922912 0.020714728
000180 3e a0 ac 3c 07 41 88 bc db 9a a8 3a ad 92 2b 3c
       0.021072503 -0.01663257 0.0012863533 0.010471982
000190 a8 48 9b 3c 00 df 62 3c f1 f5 ba 3c e8 34 f1 3c
       0.018955544 0.013847113 0.022822352 0.029444173
0001a0 db 1c f9 3c b9 07 20 3d ec 61 b8 3c 25 71 89 3c
       0.030409267 0.039069865 0.02250763 0.016777584
0001b0 4f c3 85 3c 38 ae 85 3c 56 e8 18 3d cb 64 52 3c
       0.016328482 0.016318426 0.037330948 0.012841414
0001c0 d7 84 3b 3c 66 6b 8f 3c c1 61 f8 bb 1f d0 09 bc
       0.011445246 0.017507266 -0.0075800125 -0.008411436
0001d0 51 4a 53 3c e5 38 68 bc 63 0f 0d bc 8a 46 91 3c
       0.012896136 -0.014173721 -0.0086096255 0.017733831
0001e0 53 cd 99 3c d7 f0 94 3b fa 44 3e 3d 68 de 07 3d
       0.018774664 0.004545312 0.0464525 0.033171088
0001f0 c3 3e 08 bb 95 cd 4e 3c 50 68 0d 3c b1 cb 0b bc
       -0.0020789362 0.012622257 0.008630827 -0.008532451
000200 87 60 09 3b 71 07 1d bb b9 8c e0 3b ef 5d 81 3b
       0.0020962076 -0.0023960734 0.006852713 0.0039479653
000210 b7 a9 d3 bc 3d f9 ce 3c c9 57 3b 3c 1c 22 bf 3a
       -0.025837762 0.02526533 0.011434504 0.0014582309
000220 71 a8 90 bb 15 54 00 ba 8c a2 e8 bb 40 8a 73 bc
       -0.004414611 -0.00048953417 -0.007099455 -0.014864504
000230 54 23 18 3b fc 1c 08 bc 88 9e 63 3c 90 4d 0e 3d
       0.0023214417 -0.008307692 0.013892777 0.034741938
000240 f4 6b af bc fb 70 99 3c c9 07 f6 bb d8 4b bd 3b
       -0.02141378 0.018730631 -0.0075082523 0.0057768635
000250 77 07 af 3c 5c 55 f8 3c 2e 4b 55 3c 73 29 28 3c
       0.021365864 0.03031414 0.0130184125 0.0102637885
000260 77 8b 62 3b 0c ca fa bb 89 e1 d6 3c c0 d1 16 3c
       0.003456799 -0.0076534804 0.02623059 0.009205282
000270 1c 6b 8f ba da 33 d2 3b 95 81 5b bc c9 fb 64 3b
       -0.0010941955 0.0064148726 -0.013397594 0.0034940115
000280 1e 9a b1 bc c3 2f 87 bc 72 5d b4 3c 96 1d 2d 3c
       -0.021679934 -0.016502267 0.022017214 0.010566136
000290 26 bf 18 3d 8d 4a 25 3b a9 d3 c0 3c 2f d6 c6 3c
       0.03729167 0.0025221438 0.023538427 0.024272053
0002a0 c6 b7 b2 3c 53 bc 90 3c 0d 76 a2 bb 46 5c 9d 3b
       0.021816146 0.017667925 -0.0049579204 0.0048022596
0002b0 9c 3c 02 3c 8b 0a ab 3b 23 48 27 3b ac c1 22 3c
       0.007949021 0.0052197627 0.0025525175 0.00993387
0002c0 89 49 18 3c d5 68 93 3b fd 53 24 bc 87 c0 b0 bc
       0.009294876 0.004498581 -0.01002979 -0.02157618
0002d0 92 51 71 3b 3a 06 21 3c 65 e0 4a bb f5 94 c6 3b
       0.0036822301 0.009828145 -0.0030956503 0.0060602375
0002e0 e7 aa 0b 3c d0 84 6c 3c 25 59 01 b7 3c e7 8f 3c
       0.008524633 0.014435962 -7.709755e-06 0.017566316
0002f0 0d ad 1f 3d 74 5f a3 3c 44 37 b0 3c 76 6e 1e 3c
       0.038983393 0.019942977 0.021510728 0.009669891
000300 64 33 74 bb 8b c0 a0 ba ba 4b de ba 43 75 ba 39
       -0.0037262077 -0.0012264414 -0.0016959824 0.0003556405
000310 81 da ed b9 ce 10 24 3c 31 47 47 bc 0a 7f cb bc
       -0.0004536696 0.010013772 -0.012162969 -0.02484085
000320 f1 6f 37 bc e8 d8 a7 bc e9 bc 31 3a ef 30 38 3c
       -0.0111961225 -0.020489171 0.0006780164 0.011242135
000330 31 44 7f ba c3 86 fd 3b fa 4d e1 3b 78 81 3e 3b
       -0.00097376393 0.007737012 0.0068757506 0.0029068869
000340 8c 95 9a 3c fe a3 ab 3c 28 00 b0 3c b5 83 ba 3c
       0.018870138 0.020952221 0.02148445 0.022767881
000350 61 30 98 3c 7d 5e 50 3b 64 42 89 bb 99 bb 79 bc
       0.018577756 0.00317946 -0.0041888226 -0.015242481
000360 c3 96 8c 3a 4a e0 a2 bb 4d 3e 19 3b c3 9c fd bc
       0.0010726083 -0.004970585 0.0023383081 -0.030958539
000370 03 ad 72 bc 33 e4 84 bc 65 10 ac bc 14 7e d8 3b
       -0.014811757 -0.016222095 -0.021003911 0.0066068266
000380 73 2e 31 bc cd 84 8a bc f0 4b 1e bc 73 98 a6 bb
       -0.010814297 -0.016909027 -0.00966166 -0.0050840913
000390 c1 44 34 3c ad c7 15 3c 49 91 19 bc 0a c5 76 3c
       0.01100272 0.009141845 -0.009373018 0.015061626
0003a0 a9 f6 43 3c 87 46 48 3c da 44 84 3a f6 d1 b4 bc
       0.011960664 0.012223846 0.001009132 -0.022072773
0003b0 d7 5c 24 bc 67 fa cb 3a 57 f2 8f 3b f5 f2 47 3b
       -0.0100319 0.0015562297 0.004392903 0.0030509804
0003c0 cc 8b 17 bc da 6d be bb e7 63 b5 ba 4c 84 8e bc
       -0.009249639 -0.005811435 -0.0013838977 -0.017397068
0003d0 3b 21 68 3c 86 bf ae bb 33 e5 28 bc 10 36 89 bc
       0.014168079 -0.00533289 -0.010308552 -0.016749412
0003e0 8c b6 8a 3b fc 71 23 3b 51 b6 48 3b d1 1e 9d bb
       0.004233187 0.0024939766 0.0030626247 -0.0047949334
0003f0 24 a1 06 3c 0c 75 07 3b 4d 25 cc bb 8a a1 04 bc
       0.00821713 0.002066913 -0.0062300325 -0.008095155

fc1.bias f4 [75]
000000 85 49 c2 3d 23 99 b4 3d 27 8b 70 bd 9d 5f e7 3c
       0.09486679 0.08818271 -0.058726456 0.028243834
000010 81 e7 4d 3c f9 00 bb bd 4e 87 55 3e e7 4c 04 bc
       0.012567402 -0.09131045 0.20852396 -0.008074976
000020 20 71 88 bd 26 fe 33 3e 50 2a eb bc 53 4e 4a 3d
       -0.06662202 0.17577419 -0.0287067 0.049391102
000030 9d 5b f0 3d f3 f2 1b 3e 05 d5 34 3e 6e 61 0b 3d
       0.11736224 0.15229397 0.17659386 0.034028463
000040 37 dd fe 3d 1b be a1 3e 4d 6f eb 3a 4f f6 66 3d
       0.12444537 0.3159035 0.0017962247 0.056387242
000050 bf a4 56 3d d7 d3 8f 3e bf af 0b 3e a3 8c 00 3d
       0.052403208 0.28091308 0.1364126 0.03138412
000060 85 10 17 bd 75 12 8e bc cb 18 48 3e 2c 86 62 be
       -0.03688099 -0.017342785 0.19540708 -0.22121495
000070 68 4e 22 3e 9f 36 af 3b 84 cc 26 3e fd a5 83 3c
       0.15850222 0.0053470875 0.16288954 0.01607036
000080 bd 17 a7 3d d1 f2 0b 3e f7 9c 21 3e 68 4a 28 bc
       0.081588246 0.13666846 0.15782534 -0.010271646
000090 d3 40 35 bd 09 e6 ae 3d dc 4c d8 3c b1 6a ea 3d
       -0.044251274 0.085399695 0.026403837 0.11446131
0000a0 89 90 64 3e 64 de 77 3e 8f 61 68 3d e0 89 19 3d
       0.22320761 0.24205929 0.056733664 0.037485003
0000b0 10 c5 20 3d 12 e5 2a 3e d6 9d dc 3d 35 c8 30 3d
       0.039250433 0.16688946 0.10772292 0.043159682
0000c0 af 4c e5 3d 35 4c 5a 3e 55 1a 06 3c a6 f1 1d 3e
       0.11196267 0.21318133 0.008184989 0.15424213
0000d0 84 51 ee bc 1c 30 ba 3c d2 81 a6 3e 6b 55 1f 3e
       -0.029091604 0.022728018 0.3252092 0.15559928
0000e0 70 f4 cd 3d 81 f6 8d bb 8c 7c 9a bd da c6 dd 3d
       0.100563884 -0.004332364 -0.07543287 0.108289436
0000f0 f6 ae 00 3e 68 57 bd 3d b7 6a f4 bc 2c 8a da 3a
       0.12566742 0.09245187 -0.029836042 0.0016673259
000100 ee 54 b6 bc df 8b 35 3e 9a 48 ac 3d bb 9e 9d 3d
       -0.022257295 0.17729138 0.08412285 0.07696291
000110 b6 81 cb 3d af 4e 08 3e ed 61 a1 3d 35 e5 22 3e
       0.0993685 0.13311265 0.07880006 0.15907748
000120 06 4e 14 3d 3b 93 cb 3d 5a 11 48 3d
       0.03620722 0.09940191 0.048844673

fc2.weight f4 [75, 75]
000000 e5 6e c9 bc cf a7 36 bd 09 0f 88 3d 1a b9 d9 3d
       -0.024589011 -0.04459363 0.06643493 0.106310084
000010 8f a8 ca 3c 8a a6 4c 3d 01 22 08 3d 87 d7 df bd
       0.024738578 0.04996351 0.033235554 -0.109297805
000020 1a e7 bc 3d f3 31 85 bd 7a 26 d6 3c 8b 24 78 3c
       0.092237666 -0.06503668 0.026141394 0.015145431
000030 d7 0f 33 3e 2d 0b 4e 3d eb 58 4f 3d c9 7a 9c 3e
       0.17486511 0.050303627 0.05062191 0.30562428
000040 8b 91 b3 bd 67 59 e9 bc d5 e1 f5 bc b9 aa 6b bd
       -0.087679945 -0.028485013 -0.030014912 -0.05753586
000050 1c 44 02 3d c5 74 aa bd f4 2a b1 3c 3b be 4e bd
       0.031803235 -0.08323053 0.021626927 -0.050474387
000060 2a c5 0c 3e 34 ba cc 3d 7b b5 16 3e 4f b5 41 3e
       0.13747087 0.09996453 0.14717667 0.1891682
000070 75 3b 16 bd b0 37 0e 3d 44 29 4c be 79 58 3c 3e
       -0.036677796 0.034721076 -0.19937617 0.18393125
000080 4d c7 a3 3d 2f 99 11 3e c4 b3 93 bd 7d 30 f3 3c
       0.07996998 0.14218591 -0.07212022 0.029686207
000090 2b aa f6 bc b8 c0 2b 3d 01 d1 93 3c fb 15 2b 3d
       -0.03011044 0.041931838 0.018043997 0.04176901
0000a0 e7 00 c8 3b 6d 40 64 3b a1 2c 07 3e 14 13 c0 3c
       0.006103623 0.003482844 0.13200618 0.023446597
0000b0 4b d8 e2 3e a7 1c a9 3d 81 14 a0 bd 6a 11 dc bd
       0.44305643 0.08257418 -0.07816411 -0.10745509
0000c0 b5 5f 0b 3d 86 9d 9e 3d 11 c5 11 3d 31 d0 22 bd
       0.03402682 0.07744889 0.035588328 -0.039749328
0000d0 46 2b 7e 3e cc a3 3a 3c eb 0f 91 bc e3 ce 09 3e
       0.24821195 0.011391591 -0.017707786 0.13457827
0000e0 16 43 a2 bd 60 cb fb bd dc 9a 6b 3c 1e d4 06 3e
       -0.07922952 -0.1229465 0.014380183 0.13166854
0000f0 6c 80 26 be ac 47 41 3e 74 a2 2f 3c e1 9d 5e 3d
       -0.16259927 0.18874997 0.010719884 0.054349784
000100 75 7c 28 3d 29 c0 87 bd 7b 9c c0 3d c6 dd a3 bd
       0.041134316 -0.066284485 0.09404846 -0.08001284
000110 cf 40 b0 bd af a0 b1 bd 52 d4 1e 3e d1 39 e0 3d
       -0.08606111 -0.08673226 0.15510681 0.109485276
000120 f4 63 1b 3b 65 85 84 ba 9c 5d 23 3c 26 82 90 3b
       0.00237107 -0.0010110555 0.009971049 0.004410046
000130 58 d6 0f be 8e fa 00 be e8 28 f3 bc e8 bd 37 3c
       -0.1404661 -0.12595579 -0.029682592 0.011214711
000140 f3 df 16 3d 8a 22 2f be 0b 82 0f bd 75 db f2 3c
       0.03683467 -0.1710302 -0.035036128 0.02964566
000150 2a d8 ff 3e d5 90 3c 3d b2 c0 e5 3c 3d 89 10 3e
       0.49969608 0.04603656 0.028045986 0.14114852
000160 8c 0c 34 bd 53 b9 09 3e 8e ce f5 3c 05 c5 7b bd
       -0.043957278 0.13449602 0.03000572 -0.06146719
000170 60 d9 1f 3c c4 26 8a bb 75 7e d5 bd 00 e5 0b 3d
       0.009756416 -0.004216047 -0.104245104 0.03415394
000180 49 6a 62 bd cd f1 13 be a1 1d ec bd d7 7f fc 3d
       -0.055277143 -0.14447708 -0.11529089 0.12329071
000190 c6 7e f6 3d 53 f6 e2 bd 3d be 14 3d 35 cb 2b be
       0.12035899 -0.11082139 0.036314238 -0.16776736
0001a0 20 6a 12 3c a1 fb 8d bd 08 48 b5 3d 94 bb 30 3d
       0.008936435 -0.0693276 0.088516295 0.04314764
0001b0 83 39 1b be 4b 44 a8 3d 87 08 8b 3d 40 2b 07 bd
       -0.15158658 0.08216151 0.06788736 -0.03300023
0001c0 23 74 76 bd a6 49 e6 3c a7 58 d3 3d 45 21 24 bd
       -0.06016935 0.02811129 0.103196435 -0.04007079
0001d0 26 ce 8e 3d fd 0b fc 3d 87 dc ad 3c 5f 57 c6 bd
       0.069729134 0.12306974 0.02122332 -0.096846335
0001e0 fd 27 4a 3e 95 be 78 3d 65 33 c3 bb 35 c8 c1 3d
       0.19741817 0.06072863 -0.0059570544 0.094620146
0001f0 9f b1 36 3d 1a 12 b0 bc 74 22 fa 3d de 4d 10 3e
       0.044602986 -0.021493006 0.12213603 0.14092204
000200 d7 dc 1a 3d aa 06 94 bd 78 aa 2c 3b 65 97 0c bd
       0.037808266 -0.072278336 0.0026346724 -0.03432407
000210 6e 70 33 bd ad 3b a1 bd 97 ec c9 3c 5c 79 c6 3d
       -0.043808393 -0.078727104 0.024648948 0.09691116
000220 a1 ca d6 3e 4f 0b d0 bc 5c 3d d9 bd 76 ff ea 3d
       0.4195147 -0.025396017 -0.106074065 0.114745066
000230 38 94 a0 bd e3 41 14 3e 07 b0 59 bd 0f 33 ff 3d
       -0.078407705 0.14478259 -0.05314639 0.124609105
000240 14 e9 28 bd ba 14 e8 bd 31 8f ab bb ef df b4 bc
       -0.041237906 -0.11332078 -0.0052355756 -0.022079436
000250 c6 82 1d be 20 49 38 3b ea a1 8c bc 0d e2 3d be
       -0.15381917 0.0028119758 -0.01716705 -0.18543263
000260 fa 60 d4 bc 12 f1 4a 3c 8e 04 95 3c 1d b1 17 3e
       -0.025925148 0.012386577 0.018190648 0.14813657
000270 da b0 13 be f8 06 50 3d 62 90 b3 bc c2 d0 12 3e
       -0.14422932 0.050787896 -0.021919433 0.14337447
000280 0a e0 1a bc 14 1b 0e 3e 53 ab 16 3e a5 3e fa 3d
       -0.009452829 0.13877517 0.14713793 0.1221898
000290 0e 81 8a 3d 80 41 b0 3d e0 f3 9c bd d4 f1 26 be
       0.067628965 0.08606243 -0.07663703 -0.16303188
0002a0 33 0a 05 bc 90 da ca bd 9f 54 46 3d ee a1 c8 bd
       -0.008120107 -0.09904969 0.048420545 -0.09796511
0002b0 a0 8e 25 be 93 73 d1 bc 8c fd a7 3e df 37 4b 3e
       -0.16167688 -0.025567805 0.32810628 0.19845532
0002c0 fb 14 8a bb 11 28 6f 3e 15 27 ba 3c 77 9d ba 3d
       -0.004213927 0.23355128 0.022723714 0.09112065
0002d0 18 24 14 be fa 19 d0 3d 97 c4 1f 3e 6b 49 66 3e
       -0.14466894 0.10161205 0.15602337 0.22488944
0002e0 25 9c 3b bc d4 07 b7 3b 23 d1 b3 3c b9 01 66 3d
       -0.011450802 0.00558565 0.02195031 0.056153987
0002f0 8f 35 69 3c b7 ed db 3d 7e aa 86 3c 12 58 07 3e
       0.014233961 0.107387 0.016438719 0.1321719
000300 cc 9e f3 3d bb 54 9b bc 07 70 e1 3d b3 a3 4b 3d
       0.118955225 -0.018961301 0.11007696 0.049716663
000310 de c4 bd 3d b7 5b 0a be ca eb a1 bd e8 fc 6e bb
       0.09266065 -0.13511549 -0.07906301 -0.0036466662
000320 bc cb c6 3a da df 4d bd 1d 50 94 3e 04 ee b2 3c
       0.0015166919 -0.05026231 0.28967372 0.02184201
000330 75 57 a6 bc 0f b0 d6 bd f2 a2 d9 bc ff 36 27 bd
       -0.020305375 -0.10482799 -0.026566956 -0.040823933
000340 29 c0 e1 3d d6 39 ea bd aa 40 f6 3d 8b 57 5a 3e
       0.1102298 -0.114368126 0.120240524 0.21322457
000350 4c 9a bf bc a7 6c 15 be 8e d0 57 3e 68 e2 21 3e
       -0.023389004 -0.14592229 0.21075651 0.15809023
000360 2f b8 7c bd 98 bb ba 3a d5 b1 1f 3d 7f 64 58 bd
       -0.06169909 0.0014246581 0.038987953 -0.052830216
000370 ba c0 74 be 60 07 8e 3e 64 25 c0 3b ff 82 3e 3d
       -0.23901644 0.27740002 0.0058638323 0.046511646
000380 e7 7c 04 3e 78 66 88 bd f9 94 07 be 7c d8 a8 3c
       0.12938271 -0.06660169 -0.13240422 0.02061104
000390 98 e6 e3 bd 99 62 57 3d 7f 53 cd 3c 62 1b c8 3c
       -0.11127967 0.052584264 0.025064228 0.02442712
0003a0 2a f0 7c 3d eb d9 d1 3e 7e b5 ea bb 93 d5 16 bd
       0.061752476 0.4098657 -0.007162749 -0.036824774
0003b0 e2 74 99 bc b8 6f 83 3e 3f 86 bc 3d e1 83 e2 bd
       -0.018732492 0.25671172 0.09205293 -0.1106031
0003c0 5e 5f 53 3e 77 4e 07 3d 91 a9 06 3e 78 54 ff 3b
       0.20641848 0.033033814 0.13150622 0.007792052
0003d0 df a1 d2 3d 02 e3 10 3c 33 37 8c bc 72 8e 40 3e
       0.10284781 0.008843185 -0.017116165 0.18804339
0003e0 39 7f 86 3d 50 de 33 bd 19 b4 54 bc 92 1e c1 3d
       0.065672345 -0.043913186 -0.012982392 0.09429659
0003f0 cc 1c e6 3c 1f df cc bd 85 0b a9 3c f6 fb d6 3d
       0.028089903 -0.100034945 0.020635376 0.104972765

fc2.bias f4 [75]
000000 e0 c3 15 bd 3f 96 16 3e 6b 2e 88 bd fd dc b0 bd
       -0.036563754 0.14705752 -0.066494785 -0.086359
000010 5e 1e 53 3e fc 8c 1b 3e 84 90 23 3e 92 6b 06 3a
       0.20617053 0.151905 0.15973097 0.00051277236
000020 1a d5 ce 3c d9 34 1e 3d 07 14 1b 3e 94 3a 06 bc
       0.0252481 0.03862462 0.15144359 -0.008192677
000030 95 3a 52 3e a3 eb 0a bd 37 af 2e bc 92 93 e3 bc
       0.2053016 -0.033916127 -0.010661892 -0.027780328
000040 e7 8e d3 3c 77 bf 72 3d 3d 43 50 3d 2f 8f 20 3d
       0.025824977 0.059264626 0.050845373 0.03919905
000050 32 31 4a 3d b7 50 27 3d bd a4 b0 bc 2c d4 10 3c
       0.049363323 0.04084846 -0.021562928 0.008839648
000060 c1 02 86 bb 2f 38 f8 3d 21 1c 44 3e 04 04 7e 3e
       -0.0040896838 0.12120091 0.19151355 0.2480622
000070 3a a7 28 3e e1 63 19 bd 8f bf e9 3d 35 67 cf 3d
       0.16470042 -0.037448768 0.1141349 0.10127107
000080 04 fd 2c 3d 22 39 63 3e 2d 93 f8 3c 9b 0e 76 3e
       0.042233482 0.22189763 0.030343616 0.24029009
000090 69 f1 04 3e bb e0 ce 3b 3f b0 bd bc 33 75 fa 3d
       0.12982716 0.006313411 -0.02315533 0.12229385
0000a0 4b 1f bf ba 63 ba b1 3d 62 e7 82 3d e9 4c 7b 3e
       -0.001458147 0.086781286 0.06391789 0.24541058
0000b0 da a7 67 bd 61 1e 51 3e a4 f2 84 bd d2 68 22 3e
       -0.05655656 0.20421745 -0.064915925 0.15860298
0000c0 ae ef 7a 3d f5 50 41 3e ca 2e 8a 3d 31 d2 9d 3d
       0.061263733 0.18878539 0.067472056 0.077061065
0000d0 cc c3 ec 3c 55 5a db 3c d0 06 52 3e 45 d9 9d 3d
       0.028901957 0.026776472 0.20510411 0.077074565
0000e0 b7 63 be 3c d4 4e 24 bb aa 0b 2f 3e ef 8a c3 3d
       0.023240907 -0.00250714 0.17094293 0.09547984
0000f0 74 9d f1 3c 71 60 e2 3c e5 6f 67 3c 54 6d 09 3d
       0.029494025 0.027633877 0.014125799 0.03355153
000100 d4 ba 94 3e c8 4e 16 3e 58 a9 ae 3d f6 d5 52 3e
       0.2904879 0.1467849 0.085283935 0.20589432
000110 a7 70 fd 3d 42 0e 85 3e b3 36 d0 3d 71 ad 23 3d
       0.12375002 0.2598744 0.10166683 0.03996033
000120 e3 87 09 bc de d5 90 3c 29 00 69 3e
       -0.008394214 0.017680105 0.22753967

out.weight f4 [38, 75]
000000 88 7a ba bd ef 9a 46 3e 5f 62 7b 3e 89 4d 62 3e
       -0.09105402 0.1939504 0.24549244 0.2209989
000010 a4 4c c6 bc 96 9e a6 bd f6 97 02 3e 3b 2e 58 3e
       -0.024206467 -0.081357166 0.12753281 0.21111386
000020 ac 16 ed 3e a3 b1 25 3f b1 26 1f be 6c 5b 30 3e
       0.4630636 0.6472418 -0.15542103 0.17222375
000030 c9 93 41 3d 23 2f 2b 3e fa 66 51 be fd e9 94 3d
       0.04726008 0.167172 -0.20449439 0.07271192
000040 8e 26 dd bd cb 28 17 3e b5 07 08 bf 54 f3 dd bd
       -0.10798369 0.14761655 -0.5313676 -0.10837427
000050 b3 da c6 3d 67 fe 2e 3e 9d 6e 04 3e c6 7a 08 3f
       0.09709682 0.17089234 0.1293282 0.5331234
000060 17 8d 9c be 3d 83 e6 bd 3d 8e b9 3e 99 be cf be
       -0.30576393 -0.112555005 0.36241332 -0.40575102
000070 1c ec 95 be 45 61 34 be 6a 94 12 3c a6 f8 0a bd
       -0.292817 -0.1761523 0.0089465175 -0.033928536
000080 7d 3a 8f be a4 82 b1 3e c0 fe f1 3e 97 ab d0 3d
       -0.2797431 0.34669983 0.4726467 0.10188978
000090 d4 a4 15 3e 21 2b c7 3d e7 76 73 3d d0 37 a8 3d
       0.14613658 0.09725023 0.059439566 0.082137704
0000a0 52 4b 2c bf cc 82 97 3d 9d 6b a7 3e 19 e9 f0 3e
       -0.6730243 0.073979944 0.3269929 0.4705284
0000b0 63 61 50 3d e4 4b b1 bd 92 bc 24 3e 8d bc 28 3e
       0.050874125 -0.08657053 0.16087559 0.16478176
0000c0 31 9e 9a 3e 97 6c 10 bf 06 9d 24 be cf ae 09 be
       0.30198815 -0.56415695 -0.16075525 -0.1344559
0000d0 11 80 11 bc 2b bd 6f be e4 31 ca 3d 2f b7 9f 3d
       -0.008880631 -0.23412006 0.09872797 0.077986114
0000e0 70 e5 2a bd 05 28 d0 bd bc 96 c0 3e e5 df 0e 3f
       -0.041722715 -0.10163883 0.37615 0.55810386
0000f0 ce 3f 78 be a3 f4 17 bd 93 76 e9 be 81 97 b6 3c
       -0.2424309 -0.037098538 -0.45598277 0.02228904
000100 f3 f9 26 bf 25 1a 42 be 15 1e b6 bd ee 7f 93 bc
       -0.6522514 -0.18955286 -0.088924564 -0.018005338
000110 b7 ab ba 3e 51 36 72 3e 94 89 21 be 4a 74 41 be
       0.36459133 0.23653533 -0.15775138 -0.18892017
000120 44 4d ed bb da 49 94 be d5 43 88 be 6a 3e c2 bd
       -0.007241877 -0.28962594 -0.26614252 -0.09484561
000130 7f e9 5b bd 03 41 41 be c0 bb d5 3e 3a 49 e4 be
       -0.053689476 -0.18872456 0.41744804 -0.44587117
000140 42 9d 4a be 4e f0 70 be f6 9c 92 3e 50 bb c6 bd
       -0.19786552 -0.23529169 0.28635377 -0.09703696
000150 cd 81 00 3d 22 06 ba be 93 2e e3 bd 8f 57 e9 3d
       0.031373788 -0.36332804 -0.11092868 0.113936536
000160 e5 23 ea bd e6 f1 73 be 87 db cd 3e 31 4e 21 be
       -0.114326276 -0.23822746 0.4020655 -0.15752484
000170 49 3a e5 3e f9 1f 28 be e4 86 3f be 69 ea 90 39
       0.4477103 -0.16418447 -0.187038 0.0002764047
000180 1f 85 bc bc 6c 77 08 be a9 d6 0a 3e fc 0d e2 3a
       -0.023012696 -0.13326806 0.13558449 0.0017246599
000190 e0 7c 30 3e bf 9d d5 3c b4 ba 13 3d 31 dc 20 be
       0.17235136 0.026076196 0.036066726 -0.15708996
0001a0 aa 9d bc bd c9 a3 0d be 45 66 79 3e 86 4d 12 3e
       -0.092097595 -0.1383201 0.24355419 0.14287385
0001b0 20 b1 85 be d4 e5 09 bf a3 3d 1b 3e 83 26 67 3e
       -0.26111698 -0.53866315 0.15160231 0.22573285
0001c0 c4 fb 15 be a3 9f e6 3c dc 4b 32 3d ee 2b 96 3e
       -0.14646822 0.028152293 0.043529376 0.2933039
0001d0 2b 87 b4 be b1 b8 54 3e f6 4d 3f bd cb 80 5b 3d
       -0.35259375 0.20773579 -0.04670521 0.053589623
0001e0 b4 ff e9 3e cf ab 9a 3d 0f 89 d1 3c a6 4d b1 bd
       0.45702899 0.07552301 0.02557805 -0.086573884
0001f0 ed d0 5a 3e 61 0d 32 be f8 4b eb 3c 19 50 99 3e
       0.21368761 -0.17387916 0.028722748 0.29943922
000200 bb 68 48 3d 67 62 87 be 0c 76 ee bb 27 61 82 3c
       0.048928004 -0.26442263 -0.007277256 0.015915466
000210 90 ee 67 3d a2 9a 08 bf 52 0b de bd f6 d3 b5 3e
       0.056623995 -0.5336095 -0.10842003 0.35513276
000220 36 d0 c8 be a2 01 9c be c7 53 3e 3e 0e 2c d1 3e
       -0.39221352 -0.30469996 0.18586646 0.40853924
000230 95 90 0c be 96 bf 3f be e7 5e b9 be 75 73 24 3e
       -0.13727029 -0.18725428 -0.36205217 0.16059668
000240 80 ca dc be e3 00 13 bf 1f e9 97 be 45 01 02 be
       -0.43123245 -0.5742323 -0.29670045 -0.12695797
000250 8b bc af be 25 e6 4f 3e 47 ef c1 3e 2d 4c f5 3d
       -0.34323534 0.20302637 0.37877867 0.1197742
000260 51 c5 de 3e da 44 fb 3d 13 cd b0 bd 21 85 31 be
       0.43509915 0.12268992 -0.08632865 -0.17335941
000270 03 7f 44 bc 9f 38 0e 3f fa 37 64 ba 05 cc 9e be
       -0.011993173 0.55555147 -0.0008705851 -0.3101503
000280 ef 3c 34 be 2b a7 f2 bd b6 ba 3e be 6d d1 ee 3d
       -0.1760137 -0.11848291 -0.18625912 0.116610385
000290 5b 11 0c 3d c0 c7 e0 3e c8 f2 85 3e b7 a2 a7 3e
       0.03419624 0.43902397 0.2616179 0.3274133
0002a0 55 29 da 3d c0 81 ce 3e 72 6a 8b 3e 3d bb f2 3d
       0.10652415 0.40333366 0.2722965 0.11852119
0002b0 ee 79 a7 3d d9 ea b9 bc 89 95 0b 3e b5 4c ab 3e
       0.08177553 -0.022694992 0.13631262 0.3345696
0002c0 d8 83 fb be f6 93 00 3e 8e 63 db 3d f1 c9 61 bd
       -0.49124026 0.12556443 0.10712348 -0.055124227
0002d0 b1 d8 3d be b4 5c 1b bc 69 51 e1 3c fe b4 3c be
       -0.18539692 -0.009482551 0.02750464 -0.18428418
0002e0 67 77 81 be ec 32 c6 be 75 a3 c4 3c bb 21 79 be
       -0.2528641 -0.38710725 0.024003724 -0.24329273
0002f0 fc 2c e3 be 0d da cf bd c3 3b bf be a5 19 80 be
       -0.44370258 -0.10149012 -0.37350282 -0.25019565
000300 9e 93 df 3e ca 2c cc bd 8e e6 a2 bd 44 6c bc bd
       0.4366731 -0.0996948 -0.07954131 -0.092003375
000310 6f 54 dc bd df 01 9c bd 0d 75 37 be 7d 5a 99 be
       -0.10758292 -0.076175444 -0.17915745 -0.2995185
000320 bb 3f 2d be ed f3 8f 3d a7 52 9b 3e d8 67 07 be
       -0.16918842 0.07028947 0.30336496 -0.13223207
000330 41 50 42 bd 5b 9f af bd 42 71 ee 3e bd e6 fc bd
       -0.047439817 -0.085753165 0.46570784 -0.12348697
000340 fb f5 c8 be 56 7d 25 be 41 f1 63 3e 1d 27 45 3e
       -0.39250168 -0.16161093 0.2226 0.19253202
000350 ec b5 50 3e 45 53 f1 be 49 4f 9a bd c3 da 0a bd
       0.20381898 -0.47133842 -0.07534654 -0.033900034
000360 81 ca a5 3e f9 1f 00 be 12 d1 04 3f 87 71 fc be
       0.3238106 -0.12512197 0.51881516 -0.49305364
000370 7b 0b 01 3e 5b e8 00 be ab ce 35 be 57 56 11 bd
       0.12602036 -0.12588637 -0.17754619 -0.03548273
000380 91 07 d5 bd fe 01 95 be e0 57 7c 3d 57 1e bb be
       -0.10401834 -0.29103082 0.06160724 -0.36546585
000390 3a 7c 9d 3e 05 69 6f 3c 5d 04 c5 3d 4c f3 d2 bd
       0.3075884 0.014612441 0.09619973 -0.103003114
0003a0 7f e3 1a bd 76 11 8d be d7 31 e7 3e 50 fc 57 3c
       -0.037814613 -0.27552384 0.45155212 0.013182715
0003b0 14 4d 81 3e 5c a6 5e bd 28 25 3e bc 53 48 93 bd
       0.25254118 -0.05435787 -0.011605538 -0.07191529
0003c0 af 8f 86 3d 24 3e fe bd 7b d1 ab be bd 21 c0 bc
       0.06570374 -0.12414196 -0.33558258 -0.023453588
0003d0 f5 64 f3 3d ce de 57 bd 2e 27 57 3e 1f ef 7b 3e
       0.118844904 -0.052702717 0.2101104 0.24602936
0003e0 8e 96 cb 3e 1b 0c b5 be d4 fc 9b 3e 04 d3 71 3d
       0.39763302 -0.35360798 0.3046633 0.05903913
0003f0 b1 fb 91 be 0f 33 be bd 1f a2 8a 3d a6 f5 6e 3b
       -0.28512338 -0.092870824 0.067692034 0.0036462336

out.bias f4 [38]
000000 96 61 bc 3c c6 f9 94 3c 1a 0f ab bd 03 9e 92 bd
       0.022995751 0.018185508 -0.0835249 -0.071590446
000010 f5 19 10 bd d5 46 32 be ff 48 28 be fe 0a 97 bc
       -0.035181005 -0.17409833 -0.16434096 -0.018437859
000020 6a 77 b9 bc 45 4f 92 bd 90 f6 e7 bd 29 9a 0e 3e
       -0.022639949 -0.07144026 -0.11326325 0.13925995
000030 c7 c4 cd bc f4 85 24 3d 3c a9 b7 bd 24 98 c6 bd
       -0.025118245 0.04016681 -0.08967826 -0.09696987
000040 ae ef 05 3e da 18 1c be 28 f1 05 3e 18 b5 8e 3e
       0.13079712 -0.15243855 0.13080275 0.2787254
000050 d0 ad b0 bc 7d 83 67 3d 68 d5 84 bd f2 62 38 3d
       -0.021567255 0.05652188 -0.064860165 0.045016237
000060 e3 2a 3c 3d 6e c8 df bc e1 e4 6d 3e a7 76 8c bd
       0.045939337 -0.027317252 0.23231842 -0.06858569
000070 34 b8 b2 3d 6d 75 15 3d 2d 87 9f 3d 39 83 a8 3d
       0.0872654 0.03648894 0.077894546 0.08228154
000080 90 a3 21 3e f7 75 ef 3d a7 e8 55 bd 9e 44 89 bc
       0.1578505 0.11692422 -0.052223828 -0.016756352
000090 99 6d f8 3c 8e 94 14 be
       0.030325698 -0.14509794

sep_conn.weight f4 [75, 504]
000000 c4 e2 87 3c e6 9c 43 3d 20 11 38 3d 66 99 08 3e
       0.016587622 0.047757052 0.044938207 0.13339767
000010 4c a8 f1 3d 1b 80 2e 3d d1 2e 42 bb 85 c3 2c bd
       0.11799678 0.04260264 -0.0029629956 -0.04217865
000020 8b 4e bc bc bd 38 3e bc ba 9e d0 3c 34 a8 76 3d
       -0.022986671 -0.011610207 0.025466312 0.060219005
000030 79 6e 16 3d af 6f 78 3d 24 54 a7 3d 43 04 0a bd
       0.03672645 0.060653385 0.081703454 -0.03369547
000040 5b 0d 43 bd 8c 4a 7a 3d 54 49 1d 3d 40 b0 0f 3d
       -0.04762016 0.06110625 0.03840001 0.035080194
000050 32 14 a7 3d dd b2 95 3d 74 1a 4d bc 85 8b 3a 3d
       0.08158149 0.07309506 -0.012518514 0.045543212
000060 84 30 00 3d d4 ef 64 3b ef 3a 11 bd 56 fd 88 bc
       0.031296268 0.0034932988 -0.035456594 -0.016722362
000070 a9 d2 d7 bc 06 43 7c bc 71 e1 91 3c 2d f6 2c 3d
       -0.026345568 -0.015396839 0.017807694 0.04222696
000080 25 a9 db 3c ea 2c 06 3d b0 21 aa 3d 07 1e 9a 3c
       0.026814053 0.032757677 0.08307207 0.018813146
000090 91 13 ac bb 55 de 0a bd 82 13 c9 bc 70 44 f1 3c
       -0.005251356 -0.03390344 -0.024545435 0.029451579
0000a0 92 c4 1f 3c ce c4 49 3d 43 e9 a7 bb 7b 1e 4b bd
       0.009751456 0.049259953 -0.0051242425 -0.049589615
0000b0 19 7a db bc 12 e7 d8 3c 05 d8 1f bc cc ac 0b bd
       -0.02679162 0.02647737 -0.009756093 -0.03410034
0000c0 db 45 38 bd 27 61 13 3a 48 bd b9 3c 5d f0 9e 3c
       -0.044988494 0.0005622082 0.022673264 0.019401724
0000d0 47 74 04 3d 0b 15 28 3d f1 1e 73 3d e7 e2 66 3d
       0.032337453 0.041035693 0.05935568 0.056368735
0000e0 a1 c9 92 3d 0e 4a 84 3d 48 27 e0 3d 31 94 b1 3d
       0.07167364 0.06459437 0.10944992 0.086708434
0000f0 84 98 62 3d ce e1 cf 3c f0 c5 87 3d 02 c2 91 3c
       0.05532123 0.025376227 0.066295505 0.017792705
000100 13 c6 e5 3c c9 41 af 3d 41 45 28 3d 4c e3 87 3d
       0.02804855 0.085574694 0.04108167 0.0663515
000110 e3 7f e7 3d 19 f5 ae 3d 82 38 75 3d 1e 90 de 3c
       0.11303689 0.085428424 0.059868343 0.02716833
000120 7c 6e 1f 3d 5d df 07 3d 9a b0 ad 3c 05 ea 5e 3d
       0.038923725 0.033172 0.021202374 0.054422397
000130 39 5e bc 3d fb 77 04 3e d1 b3 80 3d 4b d5 3c 3d
       0.09197659 0.12936394 0.06284297 0.04610185
000140 ec b3 0a 3d a7 16 a7 3d eb 05 1e 3e ce 4c 07 3e
       0.033862993 0.081586175 0.15431945 0.13212892
000150 ac 3f 80 3d 3e 0e 16 3c 23 0c a5 3c 21 58 0e 3d
       0.062621444 0.009158669 0.020147389 0.034752015
000160 d3 18 a5 3c 20 54 fc 3b 6c 58 bf 3b d3 b1 18 3c
       0.020153439 0.007700458 0.005839398 0.00931974
000170 7e f6 7f 3c e2 1f fa 3c c9 7b 90 3a aa dc 23 bd
       0.015622733 0.030532781 0.0011023219 -0.040005364
000180 b0 15 0d 3d 8b e4 44 3d 33 94 04 ba 77 f7 69 bd
       0.03444451 0.048069518 -0.0005057484 -0.057120766
000190 b2 79 83 bd f8 b4 40 bd 60 be f4 bc b7 34 42 bd
       -0.06419696 -0.047047585 -0.029875934 -0.047413554
0001a0 2b 40 a7 3d dc 90 8e 3d d8 24 5a 3d 8e 8c a4 bd
       0.08166536 0.069612235 0.053257793 -0.08034621
0001b0 13 85 18 3d ad 0b 3a bd b5 79 23 bd 91 17 3a 3b
       0.037236284 -0.04542129 -0.03991099 0.0028395394
0001c0 16 c0 47 bd d6 9e 28 bd 3a aa 38 3d ca 25 37 bd
       -0.04876717 -0.041167103 0.045084216 -0.044713773
0001d0 3f 93 a3 bc c4 c3 08 bd 3b f0 b5 bc 67 87 5b 3c
       -0.019967673 -0.03338982 -0.022209277 0.013398982
0001e0 02 3b a6 3b 9a 3e 40 bc 44 02 3d 3c 41 09 a6 bc
       0.0050729522 -0.011733675 0.011536185 -0.020268084
0001f0 e7 4b 18 3e d3 2d 9b 3d 08 f3 28 3d 03 cf 6f bc
       0.14872704 0.075771 0.041247398 -0.014636758
000200 55 5c 2d 3d c3 e0 e5 bc 71 45 88 3c fd e4 f0 3c
       0.042324383 -0.028061276 0.016634675 0.029406065
000210 9f 5c b9 3d 88 a6 25 3b 52 f8 b9 bc e1 4f cc bd
       0.09050869 0.0025276262 -0.022701416 -0.09976173
000220 9d a6 17 bd c0 c1 a7 bd ef 49 0b be ee 80 25 3d
       -0.03702413 -0.08191252 -0.13602422 0.04040616
000230 3b c5 e4 3c 2e 4f b5 3d 1c f4 9b 3c 9a 0b a3 bd
       0.027926078 0.08852993 0.019037299 -0.07961197
000240 e8 95 b4 3d 5d dd ad 3d 97 e6 1e 3d be bc 4e 3c
       0.08817655 0.08489487 0.038794126 0.012618242
000250 0a 5f b6 bb d9 ad c3 bc de 8a 81 3d dd f4 85 3d
       -0.0055655288 -0.023886608 0.06325315 0.065408446
000260 ea d0 98 3d 53 27 8c 3d 08 ae 85 3b aa 64 bd bd
       0.07461722 0.06843438 0.004079584 -0.09247716
000270 35 90 30 be 0d c2 1e 3d 04 71 82 3d 1d 41 34 be
       -0.1724251 0.03875928 0.06369212 -0.17602964
000280 f5 80 f7 3c 40 5f 6e 3d 58 30 85 3d c0 62 09 3d
       0.030212859 0.058196306 0.065033615 0.03354144
000290 2a 39 0c 3d 71 a3 c5 3d cd 0e 35 3d 33 a1 d3 3d
       0.034234203 0.096503146 0.04420357 0.10333481
0002a0 05 45 e6 3c f9 67 6b 3d 0d 92 26 bd 9a 0d 81 bd
       0.028109083 0.057472203 -0.04066663 -0.063014224
0002b0 7e 42 5b bd 60 57 0a bc 33 c9 81 3c f1 82 80 b8
       -0.05353021 -0.008443683 0.01584301 -6.127905e-05
0002c0 a4 73 9c bd c4 d3 2a bd 63 94 0d 3e 26 6b 35 3e
       -0.07639244 -0.04170586 0.13826136 0.17716655
0002d0 75 16 5c be 07 02 6f bd 84 6d 65 3c 36 99 9d ba
       -0.21492942 -0.058351543 0.014003161 -0.001202381
0002e0 28 e4 05 bd ab 7c f7 bc 11 1b 16 bd d3 b2 01 bd
       -0.03268829 -0.030210814 -0.036646906 -0.03166468
0002f0 b1 92 d6 bc 7f 80 dd bc b6 af cb bb b1 cb df 3c
       -0.026192995 -0.02703881 -0.0062160147 0.027318807
000300 d4 f6 02 bd 35 65 43 bd 33 10 79 bd 5e 18 89 bc
       -0.031973675 -0.04770394 -0.060806464 -0.016735252
000310 8e 08 0b bd af 40 42 bc 44 84 fc 3c 55 19 98 3c
       -0.033943705 -0.011856242 0.030824788 0.018566767
000320 47 3c a8 3d 95 38 c5 bc 73 db c8 bd 60 d1 8b bd
       0.08214622 -0.024074832 -0.098074816 -0.068270445
000330 7f fa 37 bd 32 46 2a bd 84 8f 70 bd 22 d7 68 bd
       -0.044916626 -0.04157085 -0.058730617 -0.05684579
000340 bc ab a7 bc f4 8b b0 3d fd c5 e5 bc 1b 58 a1 3b
       -0.020467632 0.08620444 -0.02804851 0.004923833
000350 c3 d0 84 3d 45 2b 3d 3d 34 9b 27 bc 11 7f 40 3b
       0.06485131 0.046183843 -0.010229874 0.0029372612
000360 51 b2 18 3b 7a 54 43 3d bf 40 0b bc 4f 13 83 3c
       0.0023299644 0.047687985 -0.008499323 0.016000418
000370 66 21 4f 3c 52 7a 72 3e 91 57 24 3d ee 37 4c bd
       0.01264224 0.23679474 0.040122572 -0.049858026
000380 03 85 45 bd 5e f2 2b bd 74 10 f9 bc a0 61 14 bd
       -0.048222553 -0.041979186 -0.030403353 -0.036225915
000390 5b 25 70 3b 75 75 ae 3c 05 1e 0d 3d 95 55 5e bc
       0.003664336 0.021296242 0.034452457 -0.013570209
0003a0 b4 1a 8e ba 43 39 5b 3d 17 f6 4c 3d 75 a9 13 3d
       -0.0010841698 0.053521406 0.050039377 0.03605028
0003b0 91 c5 06 3d 5c b2 08 3d c8 56 c6 3d 01 e6 97 3d
       0.032903258 0.03337322 0.09684521 0.07416917
0003c0 05 8c e0 ba 57 9f 1a bd f1 76 81 3d 27 a0 01 3c
       -0.0017131573 -0.037749615 0.063215144 0.007911718
0003d0 d7 3b 40 bc 56 dd a8 bd 36 14 72 bd 8e 9a 53 bd
       -0.011733017 -0.082453415 -0.059101306 -0.051661067
0003e0 d9 a2 c0 bc ec 3f c4 bc d7 e9 91 bc cd c6 8d bd
       -0.023515152 -0.023956262 -0.017811699 -0.06922684
0003f0 9a e5 fc bc 72 66 6a bc e3 7b 55 bb 76 21 1a 3d
       -0.030871201 -0.014306651 -0.0032575063 0.037629567

sep_conn.bias f4 [75]
000000 7c ba f1 bd 00 9b 78 3c 36 b0 8f be 56 a6 d9 be
       -0.11803147 0.015173674 -0.28064126 -0.42509717
000010 67 8f 97 3e 3e 30 e7 3d 0a 01 7b 3d f9 3e b4 be
       0.29601595 0.11288498 0.061280288 -0.35204294
000020 76 74 11 be 67 dc 5e be fc fc 05 3d cd 58 a6 be
       -0.14204583 -0.21763764 0.032711968 -0.32489625
000030 f1 b0 66 3e 55 b2 50 be d7 41 ea be 76 33 79 bd
       0.22528435 -0.20380528 -0.45753357 -0.060840093
000040 44 5a 65 3d ef b5 26 3d dc 11 92 bd 0c 56 05 be
       0.055994287 0.04070085 -0.07132313 -0.13021106
000050 50 58 4e bd 7c 2f 01 be bd 3d 83 be 24 bf 48 be
       -0.05037719 -0.1261577 -0.2563304 -0.19604164
000060 d5 be 4d be 61 97 14 3d 0b 33 94 3e c1 cc d0 3e
       -0.20092328 0.03627718 0.28945193 0.40781215
000070 36 21 e8 3d c2 46 5b be fc 83 94 3d 6f b3 34 bb
       0.113344595 -0.2141371 0.072517365 -0.002757277
000080 ba e4 21 be 88 87 fc 3d 87 9d 38 bd 11 17 c9 3e
       -0.15809909 0.12330538 -0.045072105 0.3927541
000090 a2 7d 80 3d fe d7 9b 3c b0 24 46 be 71 71 1a 3e
       0.062739626 0.019023892 -0.19349933 0.15082337
0000a0 11 2e 27 be 7e 93 f4 3c 55 55 7b bd 62 fb a2 3d
       -0.16326167 0.029855486 -0.061360676 0.07958104
0000b0 31 8d 31 be 65 7c 96 3e e3 0b a7 be 77 57 16 3e
       -0.17339016 0.2939178 -0.32626256 0.14681803
0000c0 39 97 e5 bd 03 70 6d 3e e4 ad 1c bd 13 bb 8e bc
       -0.11210484 0.2318726 -0.038251773 -0.017423188
0000d0 c2 2b dc bd 4a f5 a7 bc dd 71 0f 3e 24 e7 03 be
       -0.10750534 -0.020502705 0.14008279 -0.12881142
0000e0 fb 04 ab be ea 6a bf bd da c1 fa 3d 09 0a de 3d
       -0.33402237 -0.09346564 0.122440055 0.10841758
0000f0 4a 84 0c be 1d 49 50 bd fa c4 05 be 14 ea 18 be
       -0.1372234 -0.050850976 -0.13063422 -0.14933044
000100 c3 35 72 3e 15 ee 89 3e ea 6f fa 3d 8e 51 8a 3e
       0.23653321 0.26939455 0.12228377 0.27015346
000110 66 68 73 3e 14 cb ca 3e 32 f5 d2 3d 7e 0a 83 be
       0.23770294 0.3960806 0.103006735 -0.25593942
000120 c3 2c 41 be 0c 80 e5 bd 10 ff 99 3e
       -0.18864731 -0.11206064 0.3007741

bn.weight f4 [75]
000000 00 00 80 3f 00 00 80 3f 00 00 80 3f 00 00 80 3f
       1.0 1.0 1.0 1.0
000010 00 00 80 3f 00 00 80 3f 00 00 80 3f 00 00 80 3f
       1.0 1.0 1.0 1.0
000020 00 00 80 3f 00 00 80 3f 00 00 80 3f 00 00 80 3f
       1.0 1.0 1.0 1.0
000030 00 00 80 3f 00 00 80 3f 00 00 80 3f 00 00 80 3f
       1.0 1.0 1.0 1.0
000040 00 00 80 3f 00 00 80 3f 00 00 80 3f 00 00 80 3f
       1.0 1.0 1.0 1.0
000050 00 00 80 3f 00 00 80 3f 00 00 80 3f 00 00 80 3f
       1.0 1.0 1.0 1.0
000060 00 00 80 3f 00 00 80 3f 00 00 80 3f 00 00 80 3f
       1.0 1.0 1.0 1.0
000070 00 00 80 3f 00 00 80 3f 00 00 80 3f 00 00 80 3f
       1.0 1.0 1.0 1.0
000080 00 00 80 3f 00 00 80 3f 00 00 80 3f 00 00 80 3f
       1.0 1.0 1.0 1.0
000090 00 00 80 3f 00 00 80 3f 00 00 80 3f 00 00 80 3f
       1.0 1.0 1.0 1.0
0000a0 00 00 80 3f 00 00 80 3f 00 00 80 3f 00 00 80 3f
       1.0 1.0 1.0 1.0
0000b0 00 00 80 3f 00 00 80 3f 00 00 80 3f 00 00 80 3f
       1.0 1.0 1.0 1.0
0000c0 00 00 80 3f 00 00 80 3f 00 00 80 3f 00 00 80 3f
       1.0 1.0 1.0 1.0
0000d0 00 00 80 3f 00 00 80 3f 00 00 80 3f 00 00 80 3f
       1.0 1.0 1.0 1.0
0000e0 00 00 80 3f 00 00 80 3f 00 00 80 3f 00 00 80 3f
       1.0 1.0 1.0 1.0
0000f0 00 00 80 3f 00 00 80 3f 00 00 80 3f 00 00 80 3f
       1.0 1.0 1.0 1.0
000100 00 00 80 3f 00 00 80 3f 00 00 80 3f 00 00 80 3f
       1.0 1.0 1.0 1.0
000110 00 00 80 3f 00 00 80 3f 00 00 80 3f 00 00 80 3f
       1.0 1.0 1.0 1.0
000120 00 00 80 3f 00 00 80 3f 00 00 80 3f
       1.0 1.0 1.0

bn.bias f4 [75]
000000 00 00 00 00 00 00 00 00 00 00 00 00 00 00 00 00
       0.0 0.0 0.0 0.0
000010 00 00 00 00 00 00 00 00 00 00 00 00 00 00 00 00
       0.0 0.0 0.0 0.0
000020 00 00 00 00 00 00 00 00 00 00 00 00 00 00 00 00
       0.0 0.0 0.0 0.0
000030 00 00 00 00 00 00 00 00 00 00 00 00 00 00 00 00
       0.0 0.0 0.0 0.0
000040 00 00 00 00 00 00 00 00 00 00 00 00 00 00 00 00
       0.0 0.0 0.0 0.0
000050 00 00 00 00 00 00 00 00 00 00 00 00 00 00 00 00
       0.0 0.0 0.0 0.0
000060 00 00 00 00 00 00 00 00 00 00 00 00 00 00 00 00
       0.0 0.0 0.0 0.0
000070 00 00 00 00 00 00 00 00 00 00 00 00 00 00 00 00
       0.0 0.0 0.0 0.0
000080 00 00 00 00 00 00 00 00 00 00 00 00 00 00 00 00
       0.0 0.0 0.0 0.0
000090 00 00 00 00 00 00 00 00 00 00 00 00 00 00 00 00
       0.0 0.0 0.0 0.0
0000a0 00 00 00 00 00 00 00 00 00 00 00 00 00 00 00 00
       0.0 0.0 0.0 0.0
0000b0 00 00 00 00 00 00 00 00 00 00 00 00 00 00 00 00
       0.0 0.0 0.0 0.0
0000c0 00 00 00 00 00 00 00 00 00 00 00 00 00 00 00 00
       0.0 0.0 0.0 0.0
0000d0 00 00 00 00 00 00 00 00 00 00 00 00 00 00 00 00
       0.0 0.0 0.0 0.0
0000e0 00 00 00 00 00 00 00 00 00 00 00 00 00 00 00 00
       0.0 0.0 0.0 0.0
0000f0 00 00 00 00 00 00 00 00 00 00 00 00 00 00 00 00
       0.0 0.0 0.0 0.0
000100 00 00 00 00 00 00 00 00 00 00 00 00 00 00 00 00
       0.0 0.0 0.0 0.0
000110 00 00 00 00 00 00 00 00 00 00 00 00 00 00 00 00
       0.0 0.0 0.0 0.0
000120 00 00 00 00 00 00 00 00 00 00 00 00
       0.0 0.0 0.0

bn.running_mean f4 [75]
000000 00 00 00 00 00 00 00 00 00 00 00 00 00 00 00 00
       0.0 0.0 0.0 0.0
000010 00 00 00 00 00 00 00 00 00 00 00 00 00 00 00 00
       0.0 0.0 0.0 0.0
000020 00 00 00 00 00 00 00 00 00 00 00 00 00 00 00 00
       0.0 0.0 0.0 0.0
000030 00 00 00 00 00 00 00 00 00 00 00 00 00 00 00 00
       0.0 0.0 0.0 0.0
000040 00 00 00 00 00 00 00 00 00 00 00 00 00 00 00 00
       0.0 0.0 0.0 0.0
000050 00 00 00 00 00 00 00 00 00 00 00 00 00 00 00 00
       0.0 0.0 0.0 0.0
000060 00 00 00 00 00 00 00 00 00 00 00 00 00 00 00 00
       0.0 0.0 0.0 0.0
000070 00 00 00 00 00 00 00 00 00 00 00 00 00 00 00 00
       0.0 0.0 0.0 0.0
000080 00 00 00 00 00 00 00 00 00 00 00 00 00 00 00 00
       0.0 0.0 0.0 0.0
000090 00 00 00 00 00 00 00 00 00 00 00 00 00 00 00 00
       0.0 0.0 0.0 0.0
0000a0 00 00 00 00 00 00 00 00 00 00 00 00 00 00 00 00
       0.0 0.0 0.0 0.0
0000b0 00 00 00 00 00 00 00 00 00 00 00 00 00 00 00 00
       0.0 0.0 0.0 0.0
0000c0 00 00 00 00 00 00 00 00 00 00 00 00 00 00 00 00
       0.0 0.0 0.0 0.0
0000d0 00 00 00 00 00 00 00 00 00 00 00 00 00 00 00 00
       0.0 0.0 0.0 0.0
0000e0 00 00 00 00 00 00 00 00 00 00 00 00 00 00 00 00
       0.0 0.0 0.0 0.0
0000f0 00 00 00 00 00 00 00 00 00 00 00 00 00 00 00 00
       0.0 0.0 0.0 0.0
000100 00 00 00 00 00 00 00 00 00 00 00 00 00 00 00 00
       0.0 0.0 0.0 0.0
000110 00 00 00 00 00 00 00 00 00 00 00 00 00 00 00 00
       0.0 0.0 0.0 0.0
000120 00 00 00 00 00 00 00 00 00 00 00 00
       0.0 0.0 0.0

bn.running_var f4 [75]
000000 00 00 80 3f 00 00 80 3f 00 00 80 3f 00 00 80 3f
       1.0 1.0 1.0 1.0
000010 00 00 80 3f 00 00 80 3f 00 00 80 3f 00 00 80 3f
       1.0 1.0 1.0 1.0
000020 00 00 80 3f 00 00 80 3f 00 00 80 3f 00 00 80 3f
       1.0 1.0 1.0 1.0
000030 00 00 80 3f 00 00 80 3f 00 00 80 3f 00 00 80 3f
       1.0 1.0 1.0 1.0
000040 00 00 80 3f 00 00 80 3f 00 00 80 3f 00 00 80 3f
       1.0 1.0 1.0 1.0
000050 00 00 80 3f 00 00 80 3f 00 00 80 3f 00 00 80 3f
       1.0 1.0 1.0 1.0
000060 00 00 80 3f 00 00 80 3f 00 00 80 3f 00 00 80 3f
       1.0 1.0 1.0 1.0
000070 00 00 80 3f 00 00 80 3f 00 00 80 3f 00 00 80 3f
       1.0 1.0 1.0 1.0
000080 00 00 80 3f 00 00 80 3f 00 00 80 3f 00 00 80 3f
       1.0 1.0 1.0 1.0
000090 00 00 80 3f 00 00 80 3f 00 00 80 3f 00 00 80 3f
       1.0 1.0 1.0 1.0
0000a0 00 00 80 3f 00 00 80 3f 00 00 80 3f 00 00 80 3f
       1.0 1.0 1.0 1.0
0000b0 00 00 80 3f 00 00 80 3f 00 00 80 3f 00 00 80 3f
       1.0 1.0 1.0 1.0
0000c0 00 00 80 3f 00 00 80 3f 00 00 80 3f 00 00 80 3f
       1.0 1.0 1.0 1.0
0000d0 00 00 80 3f 00 00 80 3f 00 00 80 3f 00 00 80 3f
       1.0 1.0 1.0 1.0
0000e0 00 00 80 3f 00 00 80 3f 00 00 80 3f 00 00 80 3f
       1.0 1.0 1.0 1.0
0000f0 00 00 80 3f 00 00 80 3f 00 00 80 3f 00 00 80 3f
       1.0 1.0 1.0 1.0
000100 00 00 80 3f 00 00 80 3f 00 00 80 3f 00 00 80 3f
       1.0 1.0 1.0 1.0
000110 00 00 80 3f 00 00 80 3f 00 00 80 3f 00 00 80 3f
       1.0 1.0 1.0 1.0
000120 00 00 80 3f 00 00 80 3f 00 00 80 3f
       1.0 1.0 1.0

net.0.weight f4 [75, 504]
000000 40 60 a7 bc 49 db 6a bc 3c 91 c9 bc 39 33 9e bc
       -0.020431638 -0.014334508 -0.024605386 -0.019311534
000010 26 1b 48 bc 5b 4a 80 bc 4c b3 c1 bb 0d 18 e9 bb
       -0.012213504 -0.015660455 -0.0059112664 -0.007113463
000020 a8 6b ac ba 21 00 3b ba ff 7f 9e 3b 46 17 2b 3b
       -0.0013154643 -0.0007133503 0.0048370357 0.0026106401
000030 d1 76 ca 3b 69 85 f4 bb 73 d3 d8 bb ff e6 02 3c
       0.006178715 -0.007462193 -0.0066170036 0.007989644
000040 88 20 fa 3b 42 c3 df 3a 38 63 43 3c fc 84 91 3c
       0.0076332726 0.0017071741 0.011925511 0.017763607
000050 c1 da fe 3b c9 b1 93 bc 49 7e 8e bc 21 d4 20 bc
       0.0077775423 -0.01802911 -0.017394202 -0.0098162005
000060 74 b2 e2 3b 29 1f 51 3c 53 5c 32 3c f5 80 4d 3c
       0.006918246 0.012763777 0.01088627 0.012542953
000070 d1 70 65 3c 77 1b 9e 3b ed 34 4a bb e5 05 fe 3a
       0.014003948 0.0048250514 -0.00308543 0.0019380419
000080 51 fc fc b9 1c da b5 b9 b8 9d 36 39 49 5a 53 3b
       -0.00048253176 -0.00034685514 0.00017415627 0.003224986
000090 a9 e4 e2 3b 0f 59 01 3c 96 af e3 3a 4a 49 07 3c
       0.006924231 0.007894768 0.0017371054 0.00825722
0000a0 e1 1f 0e 3c 1a f3 8a 3c 9f 63 fd bb e1 2f 46 3c
       0.008674593 0.016961623 -0.007732823 0.012096376
0000b0 0b a3 42 bc 74 8b ca bc d9 c0 00 bd ff 90 18 bc
       -0.011879693 -0.0247247 -0.031433914 -0.0093119135
0000c0 fe fb 06 3c 56 12 7a 3c 40 81 3b 3c b4 f7 78 bb
       0.008238791 0.015263161 0.01144439 -0.003798944
0000d0 f1 c9 c0 bb 98 bf d7 bb 6e e3 64 ba 2e 78 a7 3a
       -0.0058834483 -0.006584119 -0.00087313994 0.0012776905
0000e0 f9 70 d7 bb f8 2c 9d bc 3d 27 8b bc 3f 2c 46 bc
       -0.0065747467 -0.019186482 -0.016986484 -0.01209551
0000f0 f4 39 cf bb da d8 3e 3c fb 2d b3 3c 7c d3 3d 3c
       -0.006324047 0.011648381 0.021872511 0.011586066
000100 d4 70 1d 3c f7 e5 1b bb 66 09 4c bc 8e 6a 8b bc
       0.00960942 -0.0023788193 -0.012453413 -0.017018583
000110 a0 5a 99 bc c8 3e e4 bb 16 39 4b 3a b2 e9 55 3c
       -0.018719971 -0.006965492 0.0007752342 0.013056206
000120 21 e9 98 3b ce 33 8e 3b e8 f1 30 3b 81 6b 60 3c
       0.004666463 0.0043396717 0.0026999656 0.013697506
000130 2d ac 9d ba ca c4 a9 bc db e8 7d bc 96 c7 78 bc
       -0.0012029462 -0.02072372 -0.015497412 -0.015184304
000140 c6 96 89 bc 5a 52 54 bc 37 27 9a bc ec 97 43 3c
       -0.016795527 -0.012959087 -0.018817527 0.0119380765
000150 c8 a5 03 3d b4 57 2f 3d 5e 1b 86 3c 93 b8 a6 3c
       0.032140523 0.04280825 0.016370472 0.020351684
000160 c5 5d b1 3c e5 c4 a6 3c b8 09 f6 3c bb 79 e6 3c
       0.021651158 0.020357559 0.030033931 0.028134217
000170 f5 31 96 3c 54 1a b9 bb c5 8b 80 3b ef b1 a9 3c
       0.018334368 -0.0056488905 0.003922912 0.020714728
000180 3e a0 ac 3c 07 41 88 bc db 9a a8 3a ad 92 2b 3c
       0.021072503 -0.01663257 0.0012863533 0.010471982
000190 a8 48 9b 3c 00 df 62 3c f1 f5 ba 3c e8 34 f1 3c
       0.018955544 0.013847113 0.022822352 0.029444173
0001a0 db 1c f9 3c b9 07 20 3d ec 61 b8 3c 25 71 89 3c
       0.030409267 0.039069865 0.02250763 0.016777584
0001b0 4f c3 85 3c 38 ae 85 3c 56 e8 18 3d cb 64 52 3c
       0.016328482 0.016318426 0.037330948 0.012841414
0001c0 d7 84 3b 3c 66 6b 8f 3c c1 61 f8 bb 1f d0 09 bc
       0.011445246 0.017507266 -0.0075800125 -0.008411436
0001d0 51 4a 53 3c e5 38 68 bc 63 0f 0d bc 8a 46 91 3c
       0.012896136 -0.014173721 -0.0086096255 0.017733831
0001e0 53 cd 99 3c d7 f0 94 3b fa 44 3e 3d 68 de 07 3d
       0.018774664 0.004545312 0.0464525 0.033171088
0001f0 c3 3e 08 bb 95 cd 4e 3c 50 68 0d 3c b1 cb 0b bc
       -0.0020789362 0.012622257 0.008630827 -0.008532451
000200 87 60 09 3b 71 07 1d bb b9 8c e0 3b ef 5d 81 3b
       0.0020962076 -0.0023960734 0.006852713 0.0039479653
000210 b7 a9 d3 bc 3d f9 ce 3c c9 57 3b 3c 1c 22 bf 3a
       -0.025837762 0.02526533 0.011434504 0.0014582309
000220 71 a8 90 bb 15 54 00 ba 8c a2 e8 bb 40 8a 73 bc
       -0.004414611 -0.00048953417 -0.007099455 -0.014864504
000230 54 23 18 3b fc 1c 08 bc 88 9e 63 3c 90 4d 0e 3d
       0.0023214417 -0.008307692 0.013892777 0.034741938
000240 f4 6b af bc fb 70 99 3c c9 07 f6 bb d8 4b bd 3b
       -0.02141378 0.018730631 -0.0075082523 0.0057768635
000250 77 07 af 3c 5c 55 f8 3c 2e 4b 55 3c 73 29 28 3c
       0.021365864 0.03031414 0.0130184125 0.0102637885
000260 77 8b 62 3b 0c ca fa bb 89 e1 d6 3c c0 d1 16 3c
       0.003456799 -0.0076534804 0.02623059 0.009205282
000270 1c 6b 8f ba da 33 d2 3b 95 81 5b bc c9 fb 64 3b
       -0.0010941955 0.0064148726 -0.013397594 0.0034940115
000280 1e 9a b1 bc c3 2f 87 bc 72 5d b4 3c 96 1d 2d 3c
       -0.021679934 -0.016502267 0.022017214 0.010566136
000290 26 bf 18 3d 8d 4a 25 3b a9 d3 c0 3c 2f d6 c6 3c
       0.03729167 0.0025221438 0.023538427 0.024272053
0002a0 c6 b7 b2 3c 53 bc 90 3c 0d 76 a2 bb 46 5c 9d 3b
       0.021816146 0.017667925 -0.0049579204 0.0048022596
0002b0 9c 3c 02 3c 8b 0a ab 3b 23 48 27 3b ac c1 22 3c
       0.007949021 0.0052197627 0.0025525175 0.00993387
0002c0 89 49 18 3c d5 68 93 3b fd 53 24 bc 87 c0 b0 bc
       0.009294876 0.004498581 -0.01002979 -0.02157618
0002d0 92 51 71 3b 3a 06 21 3c 65 e0 4a bb f5 94 c6 3b
       0.0036822301 0.009828145 -0.0030956503 0.0060602375
0002e0 e7 aa 0b 3c d0 84 6c 3c 25 59 01 b7 3c e7 8f 3c
       0.008524633 0.014435962 -7.709755e-06 0.017566316
0002f0 0d ad 1f 3d 74 5f a3 3c 44 37 b0 3c 76 6e 1e 3c
       0.038983393 0.019942977 0.021510728 0.009669891
000300 64 33 74 bb 8b c0 a0 ba ba 4b de ba 43 75 ba 39
       -0.0037262077 -0.0012264414 -0.0016959824 0.0003556405
000310 81 da ed b9 ce 10 24 3c 31 47 47 bc 0a 7f cb bc
       -0.0004536696 0.010013772 -0.012162969 -0.02484085
000320 f1 6f 37 bc e8 d8 a7 bc e9 bc 31 3a ef 30 38 3c
       -0.0111961225 -0.020489171 0.0006780164 0.011242135
000330 31 44 7f ba c3 86 fd 3b fa 4d e1 3b 78 81 3e 3b
       -0.00097376393 0.007737012 0.0068757506 0.0029068869
000340 8c 95 9a 3c fe a3 ab 3c 28 00 b0 3c b5 83 ba 3c
       0.018870138 0.020952221 0.02148445 0.022767881
000350 61 30 98 3c 7d 5e 50 3b 64 42 89 bb 99 bb 79 bc
       0.018577756 0.00317946 -0.0041888226 -0.015242481
000360 c3 96 8c 3a 4a e0 a2 bb 4d 3e 19 3b c3 9c fd bc
       0.0010726083 -0.004970585 0.0023383081 -0.030958539
000370 03 ad 72 bc 33 e4 84 bc 65 10 ac bc 14 7e d8 3b
       -0.014811757 -0.016222095 -0.021003911 0.0066068266
000380 73 2e 31 bc cd 84 8a bc f0 4b 1e bc 73 98 a6 bb
       -0.010814297 -0.016909027 -0.00966166 -0.0050840913
000390 c1 44 34 3c ad c7 15 3c 49 91 19 bc 0a c5 76 3c
       0.01100272 0.009141845 -0.009373018 0.015061626
0003a0 a9 f6 43 3c 87 46 48 3c da 44 84 3a f6 d1 b4 bc
       0.011960664 0.012223846 0.001009132 -0.022072773
0003b0 d7 5c 24 bc 67 fa cb 3a 57 f2 8f 3b f5 f2 47 3b
       -0.0100319 0.0015562297 0.004392903 0.0030509804
0003c0 cc 8b 17 bc da 6d be bb e7 63 b5 ba 4c 84 8e bc
       -0.009249639 -0.005811435 -0.0013838977 -0.017397068
0003d0 3b 21 68 3c 86 bf ae bb 33 e5 28 bc 10 36 89 bc
       0.014168079 -0.00533289 -0.010308552 -0.016749412
0003e0 8c b6 8a 3b fc 71 23 3b 51 b6 48 3b d1 1e 9d bb
       0.004233187 0.0024939766 0.0030626247 -0.0047949334
0003f0 24 a1 06 3c 0c 75 07 3b 4d 25 cc bb 8a a1 04 bc
       0.00821713 0.002066913 -0.0062300325 -0.008095155
