bestclf/bestclf_adult_n08.pth (torch, 71230 bytes, 15 tensors)

fc1.weight f4 [64, 95]
0.038980708 -0.0643669 -0.045521952 0.079959236 -0.083128124 -0.0253884 0.09373452 -0.010851412
0.0050559114 -0.011659287 -0.021042846 -0.04678413 0.037918717 -0.02325531 0.021226507 -0.09087606
0.024681076 0.08441566 -0.016451899 -0.054916035 0.0076522697 0.0039610774 0.07762248 0.061239332
-0.038582705 0.033477787 -0.08103117 0.0994636 -0.077830866 0.036202118 -0.012265029 0.067801185
-0.061943084 -0.046592023 -0.06269961 -0.07487229 0.07658135 -0.09448543 -0.0037233236 -0.09204195
0.08652256 -0.0013964756 -0.0742964 0.07229952 0.008707195 -0.02222393 0.023084352 -0.09359199
-0.074337274 0.018549452 0.097403936 -0.06769477 0.022440296 -0.031554785 -0.07518141 0.062165312
0.0516621 0.021279367 -0.09303554 0.088512026 -0.1002067 0.018562872 -0.06926365 -0.05221389
0.08328244 -0.022849184 -0.07198456 -0.038993567 0.088287786 -0.09924577 -0.100830786 0.030152522
0.079046614 0.064125024 0.06757957 0.087157376 0.01114659 -0.094871685 -0.065136544 -0.08450924
0.083276756 -0.050600883 0.070256725 0.0855496 0.017526275 -0.07450344 -0.00962619 0.017967835
0.052406084 -0.09471824 -0.048689667 0.06145896 -0.07374269 -0.06657354 -0.02093494 0.07386752
-0.0988166 -0.023807852 -0.06420328 -0.051366787 0.0067958096 0.006065188 -0.06878122 -0.023152107
-0.05903688 -0.057078067 -0.032451045 0.013638547 -0.053814735 0.018071627 -0.06848733 0.07139187
-0.025195286 0.07179738 0.0712136 0.020979762 -0.082780816 -0.07426438 -0.00800516 0.09114305
-0.031026386 0.027397094 -0.02809436 -0.07260151 0.045265038 -0.07970596 0.056692842 0.015978087
-0.09292917 -0.038090877 -0.100435086 0.06745973 0.07967026 0.09824824 0.09188621 0.003691421
-0.07045333 0.09931027 0.055762902 -0.052102033 -0.07361127 0.044996735 -0.02799448 -0.0030830547
-0.03279584 -0.04793103 -0.016757693 0.014032276 0.020787427 -0.037921455 -0.084487826 -0.07110323
-0.026852602 -0.03029725 0.095056124 -0.060939267 -0.09184839 -0.05446803 0.06465646 -0.07415699
0.0072524366 0.008445279 -0.10020657 -0.041639328 0.09675723 0.03918463 -0.03983963 -0.08318678
-0.09457945 -0.06342902 -0.08912047 -0.076675765 0.08710898 0.0678068 -0.05535838 -0.04836766
0.070429236 -0.044696353 -0.057258725 -0.093647085 -0.05982672 -0.067039125 -0.016039424 -0.07536055
-0.030530715 -0.024535375 -0.034674868 0.06586656 -0.09960911 -0.077217266 -0.055439826 0.08133903
0.06678163 0.056201737 -0.058787584 0.03319249 0.052792676 -0.081732616 0.09311311 0.015051065
0.08438008 -0.017599367 0.021099482 0.043747973 -0.031434286 -0.07563225 0.0063940715 -0.01468021
-0.008390156 0.021468334 0.09370584 0.043691125 -0.06326584 0.023948837 -0.0914687 0.09002067
0.033758733 0.09918334 -0.035709027 0.045698173 0.10170193 0.073029585 -0.05914721 0.08791257
-0.006867087 -0.030580921 -0.060954243 0.08596616 0.08994072 -0.042757776 -0.10138187 0.09578851
0.03617784 -0.071683526 0.07249245 0.01739151 0.08916688 0.09342497 -0.022132866 -0.030182572
-0.0873565 -0.074736424 -0.0065898844 0.07373235 0.04519454 0.061680064 -0.038775552 -0.07188305
-0.057546604 -0.05046187 0.04162338 -0.002315003 0.084271565 0.037583046 0.017665409 -0.092263915
00000000: 3caa 1f3d cbd2 83bd 3a75 3abd abc1 a33d
00000010: 143f aabd 55fb cfbc e2f7 bf3d 1fca 31bc
00000020: 0fac a53b 9806 3fbc 0c62 acbc b7a0 3fbd
00000030: a850 1b3d eb81 bebc 36e3 ad3c 3a1d babd
00000040: f82f ca3c 1ee2 ac3d 22c6 86bc a3ef 60bd
00000050: e4bf fa3b edcb 813b 89f8 9e3d 18d6 7a3d
00000060: e608 1ebd 0120 093d acf3 a5bd 92b3 cb3d
00000070: ca65 9fbd ac48 143d 43f3 48bc 59db 8a3d
00000080: 08b8 7dbd 47d7 3ebd a768 80bd a556 99bd
00000090: afd6 9c3d 9481 c1bd 0103 74bb 7d80 bcbd
000000a0: bd32 b13d f209 b7ba b628 98bd c511 943d
000000b0: 9fa8 0e3c f60e b6bc 651b bd3c 28ad bfbd
000000c0: 243e 98bd 05f5 973c b77b c73d 8ea3 8abd
000000d0: b6d4 b73c 973f 01bd b6f8 99bd 0ea1 7e3d
000000e0: a39b 533d 1152 ae3c 6b89 bebd cb45 b53d
000000f0: 2c39 cdbd 2a11 983c 1ada 8dbd 3bde 55bd
00000100: fc8f aa3d 362e bbbc a46c 93bd b8b7 1fbd
00000110: 3ad0 b43d 5e41 cbbd 5f80 cebd 6c02 f73c
00000120: 31e3 a13d fb53 833d 2867 8a3d 917f b23d
00000130: 30a0 363c 164c c2bd 4f66 85bd 2e13 adbd
00000140: 018d aa3d df42 4fbd c2e2 8f3d a134 af3d
00000150: 4393 8f3c 4295 98bd 2bb7 1dbc 4831 933c
00000160: c3a7 563d a3fb c1bd d16e 47bd 64bc 7b3d
00000170: 6806 97bd b557 88bd c07f abbc db47 973d
00000180: 5c60 cabd af08 c3bc 027d 83bd fb65 52bd
00000190: 62af de3b 7cbe c63b 2bdd 8cbd 7da9 bdbc
000001a0: a8d0 71bd b1ca 69bd 63eb 04bd 3674 5f3c
000001b0: d76c 5cbd f30a 943c 1643 8cbd e735 923d
000001c0: 5866 cebc 810a 933d 70d8 913d c0dd ab3c
000001d0: fd88 a9bd ec17 98bd 1328 03bc 35a9 ba3d
000001e0: 0c2b febc df6f e03c 2526 e6bc 1ab0 94bd
000001f0: d567 393d e13c a3bd c136 683d 7ae4 823c
00000200: a651 bebd 2e05 1cbd e9b0 cdbd 5428 8a3d
00000210: 292a a33d 6036 c93d d62e bc3d c4eb 713b
00000220: d649 90bd 2f63 cb3d a467 643d f168 55bd
00000230: 81c1 96bd 7f4e 383d ae54 e5bc 130d 4abb
00000240: ee54 06bd 5453 44bd 6e47 89bc a2e7 653c
00000250: 654a aa3c 8753 1bbd f407 adbd 929e 91bd
00000260: fdf9 dbbc f031 f8bc c9ac c23d 749b 79bd
00000270: 021b bcbd de19 5fbd 9b6a 843d 9fdf 97bd
00000280: d9a5 ed3b 115e 0a3c 1a39 cdbd 008e 2abd
00000290: a828 c63d 1080 203d e12e 23bd d55d aabd
000002a0: dfb2 c1bd 13e7 81bd cb84 b6bd 2f08 9dbd
000002b0: 3166 b23d 4bde 8a3d 78bf 62bd 2b1d 46bd
000002c0: 343d 903d 8613 37bd 2088 6abd 0bca bfbd
000002d0: dd0c 75bd cf4b 89bd 1c65 83bc a256 9abd
000002e0: 8d1b fabc 69fe c8bc 3c07 0ebd 0ce5 863d
000002f0: dcff cbbd 1624 9ebd df14 63bd 1495 a63d
00000300: cfc4 883d cb33 663d 40cb 70bd d9f4 073d
00000310: 223d 583d 6e63 a7bd 16b2 be3d be98 763c
00000320: 77cf ac3d 8c2c 90bc d2d8 ac3c 1331 333d
00000330: 3dc1 00bd 15e5 9abd 5c85 d13b 4385 70bc
00000340: dd76 09bc 5cde af3c d9e8 bf3d 77f5 323d
00000350: 8591 81bd 5a30 c43c f153 bbbd c25c b83d
00000360: 9946 0a3d a320 cb3d a143 12bd 022e 3b3d
00000370: 1a49 d03d 8990 953d 5844 72bd 810b b43d
00000380: 4d05 e1bb d784 fabc 28ab 79bd 070f b03d
00000390: d732 b83d c722 2fbd 4ca1 cfbd c42c c43d
000003a0: 372f 143d d0ce 92bd ec76 943d a478 8e3c
000003b0: 209d b63d 9755 bf3d fc4f b5bc 7141 f7bc
000003c0: f7e7 b2bd 690f 99bd f5ef d7bb fc00 973d
000003d0: e91d 393d 3ca4 7c3d 1dd3 1ebd 6c37 93bd
000003e0: fdb5 6bbd 1bb1 4ebd 477d 2a3d 4eb7 17bb
000003f0: 9296 ac3d aef0 193d 0cb7 903c ddf4 bcbd

fc1.bias f4 [64]
-0.031454276 0.01373334 -0.057520118 -0.013744686 -0.023616608 -0.019744165 -0.06099574 -0.075276166
0.07937784 -0.07510833 -0.020683983 0.039203674 0.035688624 0.092919685 0.062451556 -0.00013719045
0.04819211 0.03950041 0.066528924 -0.07341616 0.08553132 -0.0859334 0.06388741 0.10082756
-0.016265986 0.0780905 -0.059297424 -0.068457216 -0.061746284 -0.08490805 -0.07447324 -0.011159655
-0.072959125 0.041082986 -0.08853807 -0.007773601 0.079073474 0.012779673 0.009090564 0.037813365
0.06878742 -0.08489473 -0.023105284 0.02285219 0.052983467 -0.048489008 -0.0007052678 0.041408453
-0.009179 0.0920322 -0.051098935 0.015798071 -0.054984476 -0.07485258 0.09078058 0.034723353
0.09886807 0.07222188 -0.027631331 0.049616795 0.09986174 0.02305378 -0.0015449361 0.022724262
00000000: 33d6 00bd ce01 613c 379a 6bbd 6431 61bc
00000010: 9e77 c1bc 84be a1bc abd6 79bd 642a 9abd
00000020: d990 a23d 65d2 99bd 7571 a9bc 0894 203d
00000030: 3c2e 123d ad4c be3d 34cd 7f3d c8da 0fb9
00000040: 1765 453d 2fcb 213d 5140 883d 365b 96bd
00000050: 0b2b af3d dafd afbd 67d7 823d ae7e ce3d
00000060: 3f40 85bc e9ed 9f3d dbe1 72bd 4c33 8cbd
00000070: ace9 7cbd 46e4 adbd 6d85 98bd fcd6 36bc
00000080: 986b 95bd a246 283d 7353 b5bd b1b9 febb
00000090: 46f1 a13d d561 513c 97f0 143c 30e2 1a3d
000000a0: 6be0 8c3d 4add adbd 4b47 bdbc 8434 bb3c
000000b0: 3105 593d 699c 46bd b9e1 38ba e99b 293d
000000c0: 8463 16bc 617b bc3d 1e4d 51bd f56a 813c
000000d0: 6737 61bd 4f4c 99bd 2beb b93d 133a 0e3d
000000e0: 587b ca3d 11e9 933d 1a5b e2bc fb3a 4b3d
000000f0: 5084 cc3d 48db bc3c 747f caba 3b28 ba3c

fc2.weight f4 [64, 64]
0.019457424 -0.05449543 0.05472743 0.057985667 -0.10820842 -0.09496023 0.12186652 0.1178124
-0.08883482 0.07395489 -0.018790556 -0.05741917 0.123361506 -0.11498961 0.0671825 -0.06777203
-0.09582457 -0.019190444 0.005787685 -0.066995054 -0.006375846 -0.040848255 0.04358396 -0.017319152
0.05395142 0.031533327 -0.028579952 0.012517177 0.08144034 0.006040162 0.12349323 -0.07217447
-0.09292771 0.0033230784 -0.037097305 0.008438385 -0.011811246 -0.1172609 -0.07158209 -0.01025331
0.08582237 -0.021898743 0.11795346 0.00854099 0.09407033 -0.11944299 -0.042181633 0.11621873
-0.03066547 -0.10462708 -0.05723386 0.058145463 0.016134761 0.047972877 -0.037671957 -0.05237417
0.026100945 -0.06638102 0.07531755 -0.058672138 3.8621743e-05 -0.08394116 -0.06283593 -0.087312594
0.10252896 -0.030586237 0.017030008 -0.06565142 -0.081006266 -0.08677829 0.02238687 -0.11928537
0.045422003 0.036643755 0.10803698 0.0279525 -0.07517157 -0.037375234 0.07577626 -0.06253139
0.004790617 0.052304156 -0.03744 -0.032840166 -0.028419109 0.039497618 -0.002723625 -0.09004539
-0.036223985 -0.02516682 0.023927089 0.09596214 -0.03799865 -0.017366968 0.11723357 0.10951706
-0.059656948 -0.04324365 -0.06361878 -0.103351966 0.023998598 0.073910944 0.028055571 -0.09628031
-0.071829535 0.063063666 -0.0025863762 -0.10624775 0.019344172 0.014921167 0.06257728 -0.04881307
-0.040319998 0.043392505 0.023566695 -0.06502555 0.008786753 0.08820638 -0.10168369 0.09817122
-0.05597146 -0.03255264 0.013303435 0.024773136 0.061983295 -0.006048083 -0.07485149 0.02826127
-0.006803036 0.07102452 -0.015705453 0.02362144 -0.06296141 -0.04327419 -0.05308708 0.010579775
-0.057457756 0.0045708613 0.051581614 0.089283116 -0.10184294 -0.04066059 -0.11206455 -0.004514202
0.09634336 0.10573492 -0.10565087 -0.016062738 -0.0849236 0.06983903 -0.09877881 -0.083947554
0.109721966 0.08539621 0.09386079 -0.011994115 0.09443444 -0.117909275 0.074477896 -0.069304384
0.063724175 0.08345399 0.066424765 -0.0042997 0.121970885 -0.07941656 0.040913973 -0.0034938806
-0.12232409 -0.014065135 0.00030916012 -0.0935674 -0.023223018 -0.0059687532 0.070315674 0.07145689
0.07612472 0.11672309 -0.121837676 0.09484042 -0.04045615 -0.061137922 -0.051570848 0.03357887
-0.0004886867 -0.08825866 -0.096545264 0.10485189 0.020479616 -0.006502061 0.018430209 -0.02264928
-0.010162981 -0.008498384 0.10725161 0.05062659 -0.0438182 -0.088355124 -0.043500505 -0.00499005
0.031189712 -0.088181145 0.08406415 -0.037403185 0.106653206 0.11381236 -0.07383951 0.09333199
0.03829894 0.08737267 -0.10726962 0.09639878 -0.07386493 -0.07630908 -0.110411935 -0.08242132
-0.074062124 0.11177087 0.07723295 0.05640367 0.028080637 0.057444606 0.0067490647 -0.109833725
0.07049376 0.05743639 0.12063468 0.12287008 -0.059592538 0.018853748 0.026059726 -0.0002325375
-0.09897125 -0.12141215 0.022955228 0.07663869 -0.043336 0.0786932 -0.09655223 -0.013504588
-0.10612517 0.11892011 -0.08692791 0.092612855 -0.0033274395 0.115537904 -0.025526045 -0.010012659
0.009747525 0.09994851 -0.07585803 0.124423206 -0.037704688 0.11256126 -0.043919288 0.06206831
00000000: 2d65 9f3c 9a36 5fbd df29 603d 6182 6d3d
00000010: 609c ddbd 827a c2bd 2795 f93d a147 f13d
00000020: 08ef b5bd a975 973d a7ee 99bc 5d30 6bbd
00000030: f5a4 fc3d ac7f ebbd fb96 893d 10cc 8abd
00000040: ac3f c4bd 4735 9dbc 9fa6 bd3b b434 89bd
00000050: 79ec d0bb 8050 27bd 1885 323d e5e0 8dbc
00000060: 2afc 5c3d 1729 013d 8120 eabc d814 4d3c
00000070: 31ca a63d 8dec c53b 05ea fc3d 35d0 93bd
00000080: e250 bebd 01c8 593b 58f3 17bd 2741 0a3c
00000090: f583 41bc 7c26 f0bd a199 92bd 80fd 27bc
000000a0: a4c3 af3d fe64 b3bc 9591 f13d 82ef 0b3c
000000b0: f2a7 c03d 879e f4bd a6c6 2cbd 1604 ee3d
000000c0: 2736 fbbc b946 d6bd 0d6e 6abd f029 6e3d
000000d0: 0c2d 843c 357f 443d e94d 1abd 4c86 56bd
000000e0: a6d1 d53c c6f2 87bd 1640 9a3d 3252 70bd
000000f0: c8fd 2138 58e9 abbd 20b0 80bd f2d0 b2bd
00000100: b4fa d13d fd8f fabc 8482 8b3c 4074 86bd
00000110: 9de6 a5bd d1b8 b1bd ab64 b73c e34b f4bd
00000120: 6c0c 3a3d c317 163d 7e42 dd3d a4fc e43c
00000130: 8df3 99bd c616 19bd 9530 9b3d 7510 80bd
00000140: 9cfa 9c3b e23c 563d af5a 19bd 6983 06bd
00000150: 31cf e8bc 41c8 213d d87e 32bb b869 b8bd
00000160: 9a5f 14bd a62a cebc be02 c43c cc87 c43d
00000170: 79a4 1bbd 2c45 8ebc 2718 f03d 7b4a e03d
00000180: d85a 74bd 4120 31bd 904a 82bd 32aa d3bd
00000190: b598 c43c 9f5e 973d ccd4 e53c 9c2e c5bd
000001a0: 5d1b 93bd 8627 813d 3180 29bb 6c98 d9bd
000001b0: ab77 9e3c e977 743c 8428 803d 37f0 47bd
000001c0: 9526 25bd 57bc 313d f10e c13c 1e2c 85bd
000001d0: 50f6 0f3c 8ca5 b43d 8a3f d0bd fe0d c93d
000001e0: 5442 65bd eb55 05bd a7f6 593c 08f1 ca3c
000001f0: 32e2 7d3d ff2e c6bb bd4b 99bd 2e84 e73c
00000200: 01ec debb 4e75 913d b9a8 80bc c081 c13c
00000210: e9f1 80bd 4740 31bd d771 59bd cb56 2d3c
00000220: d358 6bbd 2ac7 953b 3e47 533d 11da b63d
00000230: 0893 d0bd b88b 26bd 1982 e5bd dfeb 93bb
00000240: ab4f c53d 8d8b d83d 7c5f d8bd 0196 83bc
00000250: 6dec adbd c407 8f3d 8b4c cabd b2ec abbd
00000260: e9b5 e03d 35e4 ae3d 163a c03d f782 44bc
00000270: d866 c13d 6b7a f1bd de87 983d 75ef 8dbd
00000280: d281 823d ede9 aa3d b509 883d 7fe4 8cbb
00000290: dfcb f93d 26a5 a2bd 6995 273d 97f9 64bb
000002a0: 0d85 fabd 7471 66bc c516 a239 44a0 bfbd
000002b0: 333e bebc 8895 c3bb aa01 903d fd57 923d
000002c0: 47e7 9b3d 840c ef3d 0886 f9bd b23b c23d
000002d0: 59b5 25bd c26b 7abd f43b 53bd ff89 093d
000002e0: 361b 00ba f5c0 b4bd 86b9 c5bd 96bc d63d
000002f0: dec4 a73c 3e0f d5bb f3fa 963c fc8a b9bc
00000300: a282 26bc ce3c 0bbc bba6 db3d d45d 4f3d
00000310: b67a 33bd 88f3 b4bd 962d 32bd 9383 a3bb
00000320: 9181 ff3c 5198 b4bd d329 ac3d 1534 19bd
00000330: ff6c da3d 7416 e93d 2b39 97bd d824 bf3d
00000340: 59df 1c3d 71f0 b23d 2db0 dbbd b96c c53d
00000350: 7f46 97bd ef47 9cbd a71f e2bd 82cc a8bd
00000360: e2ad 97bd 20e8 e43d 4f2c 9e3d 8907 673d
00000370: 5d09 e63c 094b 6b3d 4227 dd3b 81f0 e0bd
00000380: 085f 903d 6c42 6b3d 510f f73d 4fa3 fb3d
00000390: 4e17 74bd 2d73 9a3c 357b d53c 4fd5 73b9
000003a0: 70b1 cabd efa6 f8bd 9a0c bc3c bff4 9c3d
000003b0: 1781 31bd e729 a13d 2dbd c5bd 5942 5dbc
000003c0: 2758 d9bd 638c f33d 4307 b2bd cfab bd3d
000003d0: 2c11 5abb 239f ec3d ff1b d1bc 230c 24bc
000003e0: 15b4 1f3c ceb1 cc3d 745b 9bbd 98d1 fe3d
000003f0: 3b70 1abd 8586 e63d b6e4 33bd 573b 7e3d

fc2.bias f4 [64]
0.030381097 -0.08117902 -0.06339396 0.05739119 -0.06311316 0.11022612 0.10959079 0.03008984
-0.11854264 0.073512636 0.08735388 0.102754004 -0.02042558 -0.06433001 -0.012767377 -0.122288994
0.04780703 -0.09863834 0.041690014 -0.06489214 0.04797084 0.009861554 0.087259404 0.07127359
-0.10719129 -0.057984687 0.06346267 0.038565822 -0.10620517 -0.09230536 0.105430715 0.011451715
-0.06030503 0.006838956 0.04931859 -0.10294431 0.0500255 0.026725344 -0.0020499988 0.033875536
-0.011124071 -0.09497655 -0.0020584378 -0.12065429 0.011512988 0.12542567 0.12029245 -0.019303197
-0.06732864 0.016271314 0.120253034 0.022499824 0.082678206 -0.055921726 -0.06774261 0.10331919
-0.09087136 0.036369912 -0.020669196 -0.09047417 0.1257959 0.06261518 -0.078768656 -0.036177084
00000000: c7e1 f83c 3041 a6bd b1d4 81bd 0613 6b3d
00000010: 7941 81bd 3bbe e13d 2371 e03d f87e f63c
00000020: 7cc6 f2bd cb8d 963d 97e6 b23d b170 d23d
00000030: 8c53 a7bc 74bf 83bd 432e 51bc a772 fabd
00000040: 4ed1 433d e602 cabd 26c3 2a3d 2ce6 84bd
00000050: 127d 443d 5b92 213c 0fb5 b23d e3f7 913d
00000060: 1b87 dbbd 5a81 6dbd b7f8 813d 32f7 1d3d
00000070: 1982 d9bd 980a bdbd 0fec d73d f99f 3b3c
00000080: 6802 77bd 5219 e03b 4a02 4a3d 77d4 d2bd
00000090: 8ae7 4c3d 1cef da3c 4659 06bb 13c1 0a3d
000000a0: bc41 36bc 1183 c2bd dbe6 06bb 9919 f7bd
000000b0: f9a0 3c3c 966f 003e e35b f63d bd21 9ebc
000000c0: 99e3 89bd 6b4b 853c 3947 f63d 8d51 b83c
000000d0: 3153 a93d 2e0e 65bd a3bc 8abd 0399 d33d
000000e0: c31a babd 9ef8 143d 7252 a9bc 864a b9bd
000000f0: a4d0 003e 633c 803d 7651 a1bd 6c2e 14bd

out.weight f4 [1, 64]
-0.018428724 -0.026895227 0.090377405 0.11136428 0.10276631 -0.033729427 0.07846362 -0.009551698
0.03216621 -0.011146299 0.04621371 -0.048746847 -0.09091381 0.012919084 -0.020508641 -0.016409969
0.12178785 0.04075448 0.0570065 0.008441817 0.059302144 -0.07331091 0.09591522 -0.03186535
-0.030512407 -0.09518639 -0.06373323 0.044667356 -0.02861834 0.07768155 0.08025374 -0.025293594
-0.056946818 0.0964253 -0.11870494 -0.10936504 0.058141142 0.0736512 -0.020954069 0.00070243364
-0.03622269 0.05195852 -0.023881426 0.0912926 0.12440219 0.05485671 0.03410942 0.052385893
0.0868787 0.03087554 -0.07045262 -0.02080064 -0.01114603 -0.03134494 -0.039934143 0.023168586
0.096978925 0.08083605 -0.12444267 0.103181385 0.025715614 0.019754954 -0.050763883 -0.037406232
00000000: d6f7 96bc 6153 dcbc ca17 b93d f512 e43d
00000010: 2577 d23d de27 0abd 89b1 a03d ba7e 1cbc
00000020: b7c0 033d f79e 36bc 964a 3d3d c6aa 47bd
00000030: 0531 babd 91aa 533c bd01 a8bc 336e 86bc
00000040: e96b f93d 2bee 263d a67f 693d 8c4f 0a3c
00000050: cee6 723d 0824 96bd 336f c43d 3e85 02bd
00000060: 28f5 f9bc 15f1 c2bd 9186 82bd 1ef5 363d
00000070: 0271 eabc 8117 9f3d 135c a43d 8334 cfbc
00000080: 1141 69bd a17a c53d 931b f3bd c7fa dfbd
00000090: 6825 6e3d 71d6 963d dea7 abbc 8623 383a
000000a0: 3e5e 14bd 75d2 543d fba2 c3bc 9df7 ba3d
000000b0: 93c6 fe3d 6eb1 603d 52b6 0b3d 9792 563d
000000c0: 76ed b13d b3ee fc3c 7749 90bd 1b66 aabc
000000d0: d79d 36bc 8d63 00bd fc91 23bd 0ccc bd3c
000000e0: e39c c63d 5f8d a53d ccdb febd c350 d33d
000000f0: 8da9 d23c 24d5 a13c caed 4fbd 4737 19bd

sep_conn.weight f4 [64, 95]
0.07446218 -0.09099482 0.0015445921 -0.033991702 0.00012825022 0.024486694 0.04994473 0.04030862
-0.008686708 -0.058952063 -0.050087158 0.08487445 -0.08748638 0.02562792 0.0652858 0.101150304
0.06318161 0.07247937 -0.09298475 -0.054414213 0.018381562 0.05106389 -0.07890811 -0.07891085
0.08012952 0.052073333 0.0721048 -0.08740043 0.049911402 -0.06345053 -0.071062915 0.08691046
0.02803126 0.01549702 -0.09836073 0.0355992 -0.08699121 0.06720737 0.023640592 -0.073021576
-0.09131926 -0.04926597 -0.013335871 0.03993204 -0.07827203 0.07564339 -0.010149307 -0.03148752
-0.027313838 -0.0114086075 -0.020203056 -0.030531809 -0.09752776 0.060800586 0.09100355 0.09848689
-0.060385615 0.027608987 0.012467301 -0.09042171 0.01402646 -0.06816496 -0.085581645 0.013091149
-0.026476981 0.051023066 -0.010202437 -0.09367672 0.049638733 -0.034685608 0.10191835 -0.06680621
-0.02562731 0.026592487 0.084646314 -0.069215775 -0.020864977 0.02162001 -0.070094004 -0.027939163
0.06437159 0.009399472 0.032463487 -0.079890035 0.06431714 0.0896274 -0.07233243 0.04841346
-0.039739102 -0.040452197 -0.056899864 0.03312087 -0.023641925 -0.03992266 -0.025581663 0.04583698
0.060331654 -0.02386506 -0.06280787 0.08192383 -0.0009097987 0.089818746 0.06959155 -0.06536376
-0.046237815 0.077289864 0.052503865 -0.040820654 0.022782492 -0.09544394 0.06240385 -0.08353549
0.020249361 -0.056901123 -0.024294563 -0.05654996 -0.049422067 -0.07151674 -0.01921711 0.04884225
0.08680004 0.0004012131 -0.06967115 -0.052087486 0.075243756 -0.06482258 -0.027816344 0.016090022
-0.014449591 -0.0631836 -0.101488136 0.028465226 -0.032534584 -0.05405363 -0.03631316 -0.044550627
0.00037391434 -0.013604358 -0.064369686 0.02545279 0.010345522 -0.0064651887 -0.020042358 -0.0013940576
0.0030397114 0.086186 -0.052972164 -0.061114118 0.030638363 -0.07435086 -0.0723491 0.03161701
0.0749488 0.08078247 -0.048444815 0.01303479 -0.08406937 0.039251246 -0.09681335 0.093538
-0.058850344 -0.06408809 0.019445626 0.017826965 0.033005416 0.014364099 -0.09669374 0.07451612
0.046463225 -0.04138614 -0.09705531 -0.09847487 0.035084326 -0.03819883 0.10200886 0.09596029
-0.03294814 -0.015589019 -0.015334341 -0.046558756 0.035625752 0.099644735 0.09333235 0.08625377
0.06343407 0.063956305 -0.05894843 -0.03229736 0.06261161 0.01542113 -0.044089984 0.10126795
0.06661814 -0.071348414 -0.027674261 -0.025682028 0.052175596 0.03320858 0.10177407 -0.047263656
-0.035378594 -0.012155874 -0.09869317 0.03772697 -0.08112268 0.0585349 -0.08832405 -0.096575394
0.04231339 -0.0087106805 -0.0021930104 0.017264199 -0.10020149 0.012122827 -0.055578288 0.07291013
-0.08894671 -0.07388283 0.012665657 0.060724355 -0.0007634472 -0.08555398 -0.010183112 0.023722917
0.047902867 -0.0022777808 -0.101949185 -0.08036291 0.025031226 -0.004541007 -0.02256179 -0.0935116
-0.049633585 0.080339655 0.034084655 0.007961005 0.060507163 0.062961906 0.07719942 0.09752159
-0.043926496 0.09247042 -0.058505904 -0.07362812 -0.07264669 -0.003734667 0.020504087 -0.065633506
-0.045363214 -0.05256843 -0.07261733 -0.0132932225 0.017888227 -0.030523406 -0.033731706 -0.01399954
00000000: a17f 983d 7e5b babd e973 ca3a e23a 0bbd
00000010: e87a 0639 5298 c83c d892 4c3d a71a 253d
00000020: b252 0ebc b877 71bd 3128 4dbd a8d2 ad3d
00000030: 0f2c b3bd a5f1 d13c 90b4 853d e427 cf3d
00000040: 5c65 813d 1070 943d ca6e bebd 70e1 5ebd
00000050: ee94 963c 5f28 513d 939a a1bd 039c a1bd
00000060: f21a a43d d94a 553d aeab 933d fffe b2bd
00000070: e66f 4c3d 5af2 81bd 6f89 91bd 1cfe b13d
00000080: d0a1 e53c 37e7 7d3c 5a71 c9bd 77d0 113d
00000090: 7328 b2bd 05a4 893d eaa9 c13c 568c 95bd
000000a0: 9805 bbbd 1dcb 49bd b27e 5abc c78f 233d
000000b0: 164d a0bd ecea 9a3d 4749 26bc 0ff9 00bd
000000c0: 45c1 dfbc 2beb 3abc e180 a5bc d81d fabc
000000d0: a2bc c7bd 090a 793d 1260 ba3d 7fb3 c93d
000000e0: e856 77bd 3e2c e23c a743 4c3c 042f b9bd
000000f0: 3dcf 653c 129a 8bbd 6e45 afbd 427c 563c
00000100: 41e6 d8bc 90fd 503d 1f28 27bc 95d9 bfbd
00000110: fc51 4b3d 7f12 0ebd 91ba d03d b2d1 88bd
00000120: 5df0 d1bc 7dd8 d93c 0c5b ad3d 00c1 8dbd
00000130: 07ed aabc 721c b13c 728d 8fbd ace0 e4bc
00000140: 41d5 833d 3e00 1a3c 6ff8 043d 639d a3bd
00000150: b4b8 833d 928e b73d 0623 94bd 314d 463d
00000160: 78c5 22bd 34b1 25bd d50f 69bd c0a9 073d
00000170: b6ac c1bc f185 23bd a390 d1bc 8fbf 3b3d
00000180: 531e 773d a980 c3bc 6aa1 80bd aec7 a73d
00000190: 8f7f 6eba e4f2 b73d 0486 8e3d 6fdd 85bd
000001a0: dd63 3dbd 264a 9e3d 4b0e 573d 8f33 27bd
000001b0: 59a2 ba3c 1d78 c3bd 2e9b 7f3d a814 abbd
000001c0: fde1 a53c 2711 69bd 6405 c7bc eea0 67bd
000001d0: cb6e 4abd 5e77 92bd 336d 9dbc d00e 483d
000001e0: 38c4 b13d e959 d239 bfaf 8ebd b059 55bd
000001f0: 6619 9a3d b3c1 84bd 1adf e3bc 39cf 833c
00000200: fabd 6cbc 6766 81bd 03d9 cfbd e82f e93c
00000210: fc42 05bd 5767 5dbd 1cbd 14bd b87a 36bd
00000220: ef09 c439 d0e4 5ebc 41d4 83bd 5f82 d03c
00000230: 4480 293c efd9 d3bb df2f a4bc d0b8 b6ba
00000240: e535 473b 4982 b03d 57f9 58bd cc52 7abd
00000250: 4efd fa3c 4445 98bd c42b 94bd d680 013d
00000260: c27e 993d 4871 a53d 126e 46bd df8f 553c
00000270: 902c acbd eac5 203d 1446 c6bd da90 bf3d
00000280: 0f0d 71bd 9e40 83bd 6f4c 9f3c db09 923c
00000290: b030 073d 6657 6b3c 5e07 c6bd e89b 983d
000002a0: 3950 3e3d 8384 29bd efc4 c6bd 31ad c9bd
000002b0: 95b4 0f3d 6076 1cbd 05ea d03d d486 c43d
000002c0: a1f4 06bd 1669 7fbc e33c 7bbc 65b4 3ebd
000002d0: 4fec 113d 8a12 cc3d 0825 bf3d d1a5 b03d
000002e0: b9e9 813d 86fb 823d e973 71bd 3d4a 04bd
000002f0: 843a 803d e8a8 7c3c b397 34bd 9265 cf3d
00000300: 176f 883d 1e1f 92bd 22b5 e2bc 1e63 d2bc
00000310: 14b6 553d b805 083d ec6e d03d 8997 41bd
00000320: 25e9 10bd 6e29 47bc a51f cabd 9887 1a3d
00000330: a623 a6bd 4bc2 6f3d 3de3 b4bd 52c9 c5bd
00000340: ce50 2d3d 3eb7 0ebc 9cb8 0fbb a66d 8d3c
00000350: 7036 cdbd d29e 463c 0fa6 63bd e851 953d
00000360: b129 b6bd e24f 97bd 9e83 4f3c 1aba 783d
00000370: 1322 48ba ed36 afbd 11d7 26bc 9056 c23c
00000380: cc35 443d d246 15bb bcca d0bd 4f95 a4bd
00000390: 490e cd3c bacc 94bb 81d3 b8bc 0283 bfbd
000003a0: 964c 4bbd 1e89 a43d 5a9c 0b3d e06e 023c
000003b0: 5cd6 773d 2cf2 803d bb1a 9e3d 66b9 c73d
000003c0: 45ec 33bd 2261 bd3d e3a3 6fbd 57ca 96bd
000003d0: cac7 94bd 51c1 74bb 30f8 a73c dc6a 86bd
000003e0: c7ce 39bd fe51 57bd 65b8 94bd d1cb 59bc
000003f0: 558a 923c 390c fabc 422a 0abd 545e 65bc

sep_conn.bias f4 [64]
-0.057752877 0.009705629 0.04620269 -0.032844767 0.01862654 0.09862345 -0.06345277 -0.08034888
-0.0015197151 -0.092161655 -0.05749799 0.10054057 -0.060824044 -0.009140746 -0.016598156 -0.07646044
0.025310047 0.012889136 -0.0033851406 -0.048361268 0.03698916 -0.029473115 -0.08598373 -0.0904684
0.04471355 0.06344368 -0.06315563 -0.0606058 0.07663598 0.020514876 0.039802935 0.055529986
-0.05998499 -0.026112191 -0.059159778 0.05351591 1.4640046e-05 0.033327155 -0.039224427 -0.09739696
0.047630783 0.011549908 0.053946428 0.03696564 0.0015294506 -0.02652155 -0.018172381 -0.061014123
-0.0642188 -0.06970242 -0.0069652493 -0.056454916 0.031625237 0.093961746 0.022286002 -0.0052924803
0.0019352135 0.005562863 -0.08789329 -0.0022332491 -0.09975816 0.06522528 0.016652727 0.020238549
00000000: 488e 6cbd 5c04 1f3c 083f 3d3d 3c88 06bd
00000010: b096 983c 17fb c93d 87f3 81bd f48d a4bd
00000020: 2d31 c7ba 40bf bcbd 0383 6bbd 37e8 cd3d
00000030: a222 79bd 11c3 15bc dbf8 87bc 4b97 9cbd
00000040: 0457 cf3c f42c 533c 3cd9 5dbb 7716 46bd
00000050: f281 173d 9a71 f1bc 3d18 b0bd 7f47 b9bd
00000060: 8e25 373d c3ee 813d bd57 81bd ca3d 78bd
00000070: 53f3 9c3d d00e a83c 6708 233d 6973 633d
00000080: d2b2 75bd 3ce9 d5bc 8651 72bd 8033 5b3d
00000090: 859e 7537 0e82 083d cba9 20bd 0f78 c7bd
000000a0: 7f18 433d d33b 3d3c eef6 5c3d 4869 173d
000000b0: d977 c83a b943 d9bc 3fde 94bc f2e9 79bd
000000c0: 2585 83bd 24c0 8ebd bf3c e4bb 453d 67bd
000000d0: 7789 013d 046f c03d 2291 b63c 8b6c adbb
000000e0: fda6 fd3a ad48 b63b 6601 b4bd b45b 12bb
000000f0: 024e ccbd d594 853d 4d6b 883c 50cb a53c

bn.weight f4 [64]
1.0 1.0 1.0 1.0 1.0 1.0 1.0 1.0
1.0 1.0 1.0 1.0 1.0 1.0 1.0 1.0
1.0 1.0 1.0 1.0 1.0 1.0 1.0 1.0
1.0 1.0 1.0 1.0 1.0 1.0 1.0 1.0
1.0 1.0 1.0 1.0 1.0 1.0 1.0 1.0
1.0 1.0 1.0 1.0 1.0 1.0 1.0 1.0
1.0 1.0 1.0 1.0 1.0 1.0 1.0 1.0
1.0 1.0 1.0 1.0 1.0 1.0 1.0 1.0
00000000: 0000 803f 0000 803f 0000 803f 0000 803f
00000010: 0000 803f 0000 803f 0000 803f 0000 803f
00000020: 0000 803f 0000 803f 0000 803f 0000 803f
00000030: 0000 803f 0000 803f 0000 803f 0000 803f
00000040: 0000 803f 0000 803f 0000 803f 0000 803f
00000050: 0000 803f 0000 803f 0000 803f 0000 803f
00000060: 0000 803f 0000 803f 0000 803f 0000 803f
00000070: 0000 803f 0000 803f 0000 803f 0000 803f
00000080: 0000 803f 0000 803f 0000 803f 0000 803f
00000090: 0000 803f 0000 803f 0000 803f 0000 803f
000000a0: 0000 803f 0000 803f 0000 803f 0000 803f
000000b0: 0000 803f 0000 803f 0000 803f 0000 803f
000000c0: 0000 803f 0000 803f 0000 803f 0000 803f
000000d0: 0000 803f 0000 803f 0000 803f 0000 803f
000000e0: 0000 803f 0000 803f 0000 803f 0000 803f
000000f0: 0000 803f 0000 803f 0000 803f 0000 803f

bn.bias f4 [64]
0.0 0.0 0.0 0.0 0.0 0.0 0.0 0.0
0.0 0.0 0.0 0.0 0.0 0.0 0.0 0.0
0.0 0.0 0.0 0.0 0.0 0.0 0.0 0.0
0.0 0.0 0.0 0.0 0.0 0.0 0.0 0.0
0.0 0.0 0.0 0.0 0.0 0.0 0.0 0.0
0.0 0.0 0.0 0.0 0.0 0.0 0.0 0.0
0.0 0.0 0.0 0.0 0.0 0.0 0.0 0.0
0.0 0.0 0.0 0.0 0.0 0.0 0.0 0.0
00000000: 0000 0000 0000 0000 0000 0000 0000 0000
00000010: 0000 0000 0000 0000 0000 0000 0000 0000
00000020: 0000 0000 0000 0000 0000 0000 0000 0000
00000030: 0000 0000 0000 0000 0000 0000 0000 0000
00000040: 0000 0000 0000 0000 0000 0000 0000 0000
00000050: 0000 0000 0000 0000 0000 0000 0000 0000
00000060: 0000 0000 0000 0000 0000 0000 0000 0000
00000070: 0000 0000 0000 0000 0000 0000 0000 0000
00000080: 0000 0000 0000 0000 0000 0000 0000 0000
00000090: 0000 0000 0000 0000 0000 0000 0000 0000
000000a0: 0000 0000 0000 0000 0000 0000 0000 0000
000000b0: 0000 0000 0000 0000 0000 0000 0000 0000
000000c0: 0000 0000 0000 0000 0000 0000 0000 0000
000000d0: 0000 0000 0000 0000 0000 0000 0000 0000
000000e0: 0000 0000 0000 0000 0000 0000 0000 0000
000000f0: 0000 0000 0000 0000 0000 0000 0000 0000

bn.running_mean f4 [64]
0.0 0.0 0.0 0.0 0.0 0.0 0.0 0.0
0.0 0.0 0.0 0.0 0.0 0.0 0.0 0.0
0.0 0.0 0.0 0.0 0.0 0.0 0.0 0.0
0.0 0.0 0.0 0.0 0.0 0.0 0.0 0.0
0.0 0.0 0.0 0.0 0.0 0.0 0.0 0.0
0.0 0.0 0.0 0.0 0.0 0.0 0.0 0.0
0.0 0.0 0.0 0.0 0.0 0.0 0.0 0.0
0.0 0.0 0.0 0.0 0.0 0.0 0.0 0.0
00000000: 0000 0000 0000 0000 0000 0000 0000 0000
00000010: 0000 0000 0000 0000 0000 0000 0000 0000
00000020: 0000 0000 0000 0000 0000 0000 0000 0000
00000030: 0000 0000 0000 0000 0000 0000 0000 0000
00000040: 0000 0000 0000 0000 0000 0000 0000 0000
00000050: 0000 0000 0000 0000 0000 0000 0000 0000
00000060: 0000 0000 0000 0000 0000 0000 0000 0000
00000070: 0000 0000 0000 0000 0000 0000 0000 0000
00000080: 0000 0000 0000 0000 0000 0000 0000 0000
00000090: 0000 0000 0000 0000 0000 0000 0000 0000
000000a0: 0000 0000 0000 0000 0000 0000 0000 0000
000000b0: 0000 0000 0000 0000 0000 0000 0000 0000
000000c0: 0000 0000 0000 0000 0000 0000 0000 0000
000000d0: 0000 0000 0000 0000 0000 0000 0000 0000
000000e0: 0000 0000 0000 0000 0000 0000 0000 0000
000000f0: 0000 0000 0000 0000 0000 0000 0000 0000

bn.running_var f4 [64]
1.0 1.0 1.0 1.0 1.0 1.0 1.0 1.0
1.0 1.0 1.0 1.0 1.0 1.0 1.0 1.0
1.0 1.0 1.0 1.0 1.0 1.0 1.0 1.0
1.0 1.0 1.0 1.0 1.0 1.0 1.0 1.0
1.0 1.0 1.0 1.0 1.0 1.0 1.0 1.0
1.0 1.0 1.0 1.0 1.0 1.0 1.0 1.0
1.0 1.0 1.0 1.0 1.0 1.0 1.0 1.0
1.0 1.0 1.0 1.0 1.0 1.0 1.0 1.0
00000000: 0000 803f 0000 803f 0000 803f 0000 803f
00000010: 0000 803f 0000 803f 0000 803f 0000 803f
00000020: 0000 803f 0000 803f 0000 803f 0000 803f
00000030: 0000 803f 0000 803f 0000 803f 0000 803f
00000040: 0000 803f 0000 803f 0000 803f 0000 803f
00000050: 0000 803f 0000 803f 0000 803f 0000 803f
00000060: 0000 803f 0000 803f 0000 803f 0000 803f
00000070: 0000 803f 0000 803f 0000 803f 0000 803f
00000080: 0000 803f 0000 803f 0000 803f 0000 803f
00000090: 0000 803f 0000 803f 0000 803f 0000 803f
000000a0: 0000 803f 0000 803f 0000 803f 0000 803f
000000b0: 0000 803f 0000 803f 0000 803f 0000 803f
000000c0: 0000 803f 0000 803f 0000 803f 0000 803f
000000d0: 0000 803f 0000 803f 0000 803f 0000 803f
000000e0: 0000 803f 0000 803f 0000 803f 0000 803f
000000f0: 0000 803f 0000 803f 0000 803f 0000 803f

net.0.weight f4 [64, 95]
0.038980708 -0.0643669 -0.045521952 0.079959236 -0.083128124 -0.0253884 0.09373452 -0.010851412
0.0050559114 -0.011659287 -0.021042846 -0.04678413 0.037918717 -0.02325531 0.021226507 -0.09087606
0.024681076 0.08441566 -0.016451899 -0.054916035 0.0076522697 0.0039610774 0.07762248 0.061239332
-0.038582705 0.033477787 -0.08103117 0.0994636 -0.077830866 0.036202118 -0.012265029 0.067801185
-0.061943084 -0.046592023 -0.06269961 -0.07487229 0.07658135 -0.09448543 -0.0037233236 -0.09204195
0.08652256 -0.0013964756 -0.0742964 0.07229952 0.008707195 -0.02222393 0.023084352 -0.09359199
-0.074337274 0.018549452 0.097403936 -0.06769477 0.022440296 -0.031554785 -0.07518141 0.062165312
0.0516621 0.021279367 -0.09303554 0.088512026 -0.1002067 0.018562872 -0.06926365 -0.05221389
0.08328244 -0.022849184 -0.07198456 -0.038993567 0.088287786 -0.09924577 -0.100830786 0.030152522
0.079046614 0.064125024 0.06757957 0.087157376 0.01114659 -0.094871685 -0.065136544 -0.08450924
0.083276756 -0.050600883 0.070256725 0.0855496 0.017526275 -0.07450344 -0.00962619 0.017967835
0.052406084 -0.09471824 -0.048689667 0.06145896 -0.07374269 -0.06657354 -0.02093494 0.07386752
-0.0988166 -0.023807852 -0.06420328 -0.051366787 0.0067958096 0.006065188 -0.06878122 -0.023152107
-0.05903688 -0.057078067 -0.032451045 0.013638547 -0.053814735 0.018071627 -0.06848733 0.07139187
-0.025195286 0.07179738 0.0712136 0.020979762 -0.082780816 -0.07426438 -0.00800516 0.09114305
-0.031026386 0.027397094 -0.02809436 -0.07260151 0.045265038 -0.07970596 0.056692842 0.015978087
-0.09292917 -0.038090877 -0.100435086 0.06745973 0.07967026 0.09824824 0.09188621 0.003691421
-0.07045333 0.09931027 0.055762902 -0.052102033 -0.07361127 0.044996735 -0.02799448 -0.0030830547
-0.03279584 -0.04793103 -0.016757693 0.014032276 0.020787427 -0.037921455 -0.084487826 -0.07110323
-0.026852602 -0.03029725 0.095056124 -0.060939267 -0.09184839 -0.05446803 0.06465646 -0.07415699
0.0072524366 0.008445279 -0.10020657 -0.041639328 0.09675723 0.03918463 -0.03983963 -0.08318678
-0.09457945 -0.06342902 -0.08912047 -0.076675765 0.08710898 0.0678068 -0.05535838 -0.04836766
0.070429236 -0.044696353 -0.057258725 -0.093647085 -0.05982672 -0.067039125 -0.016039424 -0.07536055
-0.030530715 -0.024535375 -0.034674868 0.06586656 -0.09960911 -0.077217266 -0.055439826 0.08133903
0.06678163 0.056201737 -0.058787584 0.03319249 0.052792676 -0.081732616 0.09311311 0.015051065
0.08438008 -0.017599367 0.021099482 0.043747973 -0.031434286 -0.07563225 0.0063940715 -0.01468021
-0.008390156 0.021468334 0.09370584 0.043691125 -0.06326584 0.023948837 -0.0914687 0.09002067
0.033758733 0.09918334 -0.035709027 0.045698173 0.10170193 0.073029585 -0.05914721 0.08791257
-0.006867087 -0.030580921 -0.060954243 0.08596616 0.08994072 -0.042757776 -0.10138187 0.09578851
0.03617784 -0.071683526 0.07249245 0.01739151 0.08916688 0.09342497 -0.022132866 -0.030182572
-0.0873565 -0.074736424 -0.0065898844 0.07373235 0.04519454 0.061680064 -0.038775552 -0.07188305
-0.057546604 -0.05046187 0.04162338 -0.002315003 0.084271565 0.037583046 0.017665409 -0.092263915
00000000: 3caa 1f3d cbd2 83bd 3a75 3abd abc1 a33d
00000010: 143f aabd 55fb cfbc e2f7 bf3d 1fca 31bc
00000020: 0fac a53b 9806 3fbc 0c62 acbc b7a0 3fbd
00000030: a850 1b3d eb81 bebc 36e3 ad3c 3a1d babd
00000040: f82f ca3c 1ee2 ac3d 22c6 86bc a3ef 60bd
00000050: e4bf fa3b edcb 813b 89f8 9e3d 18d6 7a3d
00000060: e608 1ebd 0120 093d acf3 a5bd 92b3 cb3d
00000070: ca65 9fbd ac48 143d 43f3 48bc 59db 8a3d
00000080: 08b8 7dbd 47d7 3ebd a768 80bd a556 99bd
00000090: afd6 9c3d 9481 c1bd 0103 74bb 7d80 bcbd
000000a0: bd32 b13d f209 b7ba b628 98bd c511 943d
000000b0: 9fa8 0e3c f60e b6bc 651b bd3c 28ad bfbd
000000c0: 243e 98bd 05f5 973c b77b c73d 8ea3 8abd
000000d0: b6d4 b73c 973f 01bd b6f8 99bd 0ea1 7e3d
000000e0: a39b 533d 1152 ae3c 6b89 bebd cb45 b53d
000000f0: 2c39 cdbd 2a11 983c 1ada 8dbd 3bde 55bd
00000100: fc8f aa3d 362e bbbc a46c 93bd b8b7 1fbd
00000110: 3ad0 b43d 5e41 cbbd 5f80 cebd 6c02 f73c
00000120: 31e3 a13d fb53 833d 2867 8a3d 917f b23d
00000130: 30a0 363c 164c c2bd 4f66 85bd 2e13 adbd
00000140: 018d aa3d df42 4fbd c2e2 8f3d a134 af3d
00000150: 4393 8f3c 4295 98bd 2bb7 1dbc 4831 933c
00000160: c3a7 563d a3fb c1bd d16e 47bd 64bc 7b3d
00000170: 6806 97bd b557 88bd c07f abbc db47 973d
00000180: 5c60 cabd af08 c3bc 027d 83bd fb65 52bd
00000190: 62af de3b 7cbe c63b 2bdd 8cbd 7da9 bdbc
000001a0: a8d0 71bd b1ca 69bd 63eb 04bd 3674 5f3c
000001b0: d76c 5cbd f30a 943c 1643 8cbd e735 923d
000001c0: 5866 cebc 810a 933d 70d8 913d c0dd ab3c
000001d0: fd88 a9bd ec17 98bd 1328 03bc 35a9 ba3d
000001e0: 0c2b febc df6f e03c 2526 e6bc 1ab0 94bd
000001f0: d567 393d e13c a3bd c136 683d 7ae4 823c
00000200: a651 bebd 2e05 1cbd e9b0 cdbd 5428 8a3d
00000210: 292a a33d 6036 c93d d62e bc3d c4eb 713b
00000220: d649 90bd 2f63 cb3d a467 643d f168 55bd
00000230: 81c1 96bd 7f4e 383d ae54 e5bc 130d 4abb
00000240: ee54 06bd 5453 44bd 6e47 89bc a2e7 653c
00000250: 654a aa3c 8753 1bbd f407 adbd 929e 91bd
00000260: fdf9 dbbc f031 f8bc c9ac c23d 749b 79bd
00000270: 021b bcbd de19 5fbd 9b6a 843d 9fdf 97bd
00000280: d9a5 ed3b 115e 0a3c 1a39 cdbd 008e 2abd
00000290: a828 c63d 1080 203d e12e 23bd d55d aabd
000002a0: dfb2 c1bd 13e7 81bd cb84 b6bd 2f08 9dbd
000002b0: 3166 b23d 4bde 8a3d 78bf 62bd 2b1d 46bd
000002c0: 343d 903d 8613 37bd 2088 6abd 0bca bfbd
000002d0: dd0c 75bd cf4b 89bd 1c65 83bc a256 9abd
000002e0: 8d1b fabc 69fe c8bc 3c07 0ebd 0ce5 863d
000002f0: dcff cbbd 1624 9ebd df14 63bd 1495 a63d
00000300: cfc4 883d cb33 663d 40cb 70bd d9f4 073d
00000310: 223d 583d 6e63 a7bd 16b2 be3d be98 763c
00000320: 77cf ac3d 8c2c 90bc d2d8 ac3c 1331 333d
00000330: 3dc1 00bd 15e5 9abd 5c85 d13b 4385 70bc
00000340: dd76 09bc 5cde af3c d9e8 bf3d 77f5 323d
00000350: 8591 81bd 5a30 c43c f153 bbbd c25c b83d
00000360: 9946 0a3d a320 cb3d a143 12bd 022e 3b3d
00000370: 1a49 d03d 8990 953d 5844 72bd 810b b43d
00000380: 4d05 e1bb d784 fabc 28ab 79bd 070f b03d
00000390: d732 b83d c722 2fbd 4ca1 cfbd c42c c43d
000003a0: 372f 143d d0ce 92bd ec76 943d a478 8e3c
000003b0: 209d b63d 9755 bf3d fc4f b5bc 7141 f7bc
000003c0: f7e7 b2bd 690f 99bd f5ef d7bb fc00 973d
000003d0: e91d 393d 3ca4 7c3d 1dd3 1ebd 6c37 93bd
000003e0: fdb5 6bbd 1bb1 4ebd 477d 2a3d 4eb7 17bb
000003f0: 9296 ac3d aef0 193d 0cb7 903c ddf4 bcbd

net.0.bias f4 [64]
-0.031454276 0.01373334 -0.057520118 -0.013744686 -0.023616608 -0.019744165 -0.06099574 -0.075276166
0.07937784 -0.07510833 -0.020683983 0.039203674 0.035688624 0.092919685 0.062451556 -0.00013719045
0.04819211 0.03950041 0.066528924 -0.07341616 0.08553132 -0.0859334 0.06388741 0.10082756
-0.016265986 0.0780905 -0.059297424 -0.068457216 -0.061746284 -0.08490805 -0.07447324 -0.011159655
-0.072959125 0.041082986 -0.08853807 -0.007773601 0.079073474 0.012779673 0.009090564 0.037813365
0.06878742 -0.08489473 -0.023105284 0.02285219 0.052983467 -0.048489008 -0.0007052678 0.041408453
-0.009179 0.0920322 -0.051098935 0.015798071 -0.054984476 -0.07485258 0.09078058 0.034723353
0.09886807 0.07222188 -0.027631331 0.049616795 0.09986174 0.02305378 -0.0015449361 0.022724262
00000000: 33d6 00bd ce01 613c 379a 6bbd 6431 61bc
00000010: 9e77 c1bc 84be a1bc abd6 79bd 642a 9abd
00000020: d990 a23d 65d2 99bd 7571 a9bc 0894 203d
00000030: 3c2e 123d ad4c be3d 34cd 7f3d c8da 0fb9
00000040: 1765 453d 2fcb 213d 5140 883d 365b 96bd
00000050: 0b2b af3d dafd afbd 67d7 823d ae7e ce3d
00000060: 3f40 85bc e9ed 9f3d dbe1 72bd 4c33 8cbd
00000070: ace9 7cbd 46e4 adbd 6d85 98bd fcd6 36bc
00000080: 986b 95bd a246 283d 7353 b5bd b1b9 febb
00000090: 46f1 a13d d561 513c 97f0 143c 30e2 1a3d
000000a0: 6be0 8c3d 4add adbd 4b47 bdbc 8434 bb3c
000000b0: 3105 593d 699c 46bd b9e1 38ba e99b 293d
000000c0: 8463 16bc 617b bc3d 1e4d 51bd f56a 813c
000000d0: 6737 61bd 4f4c 99bd 2beb b93d 133a 0e3d
000000e0: 587b ca3d 11e9 933d 1a5b e2bc fb3a 4b3d
000000f0: 5084 cc3d 48db bc3c 747f caba 3b28 ba3c

net.3.weight f4 [64, 64]
0.019457424 -0.05449543 0.05472743 0.057985667 -0.10820842 -0.09496023 0.12186652 0.1178124
-0.08883482 0.07395489 -0.018790556 -0.05741917 0.123361506 -0.11498961 0.0671825 -0.06777203
-0.09582457 -0.019190444 0.005787685 -0.066995054 -0.006375846 -0.040848255 0.04358396 -0.017319152
0.05395142 0.031533327 -0.028579952 0.012517177 0.08144034 0.006040162 0.12349323 -0.07217447
-0.09292771 0.0033230784 -0.037097305 0.008438385 -0.011811246 -0.1172609 -0.07158209 -0.01025331
0.08582237 -0.021898743 0.11795346 0.00854099 0.09407033 -0.11944299 -0.042181633 0.11621873
-0.03066547 -0.10462708 -0.05723386 0.058145463 0.016134761 0.047972877 -0.037671957 -0.05237417
0.026100945 -0.06638102 0.07531755 -0.058672138 3.8621743e-05 -0.08394116 -0.06283593 -0.087312594
0.10252896 -0.030586237 0.017030008 -0.06565142 -0.081006266 -0.08677829 0.02238687 -0.11928537
0.045422003 0.036643755 0.10803698 0.0279525 -0.07517157 -0.037375234 0.07577626 -0.06253139
0.004790617 0.052304156 -0.03744 -0.032840166 -0.028419109 0.039497618 -0.002723625 -0.09004539
-0.036223985 -0.02516682 0.023927089 0.09596214 -0.03799865 -0.017366968 0.11723357 0.10951706
-0.059656948 -0.04324365 -0.06361878 -0.103351966 0.023998598 0.073910944 0.028055571 -0.09628031
-0.071829535 0.063063666 -0.0025863762 -0.10624775 0.019344172 0.014921167 0.06257728 -0.04881307
-0.040319998 0.043392505 0.023566695 -0.06502555 0.008786753 0.08820638 -0.10168369 0.09817122
-0.05597146 -0.03255264 0.013303435 0.024773136 0.061983295 -0.006048083 -0.07485149 0.02826127
-0.006803036 0.07102452 -0.015705453 0.02362144 -0.06296141 -0.04327419 -0.05308708 0.010579775
-0.057457756 0.0045708613 0.051581614 0.089283116 -0.10184294 -0.04066059 -0.11206455 -0.004514202
0.09634336 0.10573492 -0.10565087 -0.016062738 -0.0849236 0.06983903 -0.09877881 -0.083947554
0.109721966 0.08539621 0.09386079 -0.011994115 0.09443444 -0.117909275 0.074477896 -0.069304384
0.063724175 0.08345399 0.066424765 -0.0042997 0.121970885 -0.07941656 0.040913973 -0.0034938806
-0.12232409 -0.014065135 0.00030916012 -0.0935674 -0.023223018 -0.0059687532 0.070315674 0.07145689
0.07612472 0.11672309 -0.121837676 0.09484042 -0.04045615 -0.061137922 -0.051570848 0.03357887
-0.0004886867 -0.08825866 -0.096545264 0.10485189 0.020479616 -0.006502061 0.018430209 -0.02264928
-0.010162981 -0.008498384 0.10725161 0.05062659 -0.0438182 -0.088355124 -0.043500505 -0.00499005
0.031189712 -0.088181145 0.08406415 -0.037403185 0.106653206 0.11381236 -0.07383951 0.09333199
0.03829894 0.08737267 -0.10726962 0.09639878 -0.07386493 -0.07630908 -0.110411935 -0.08242132
-0.074062124 0.11177087 0.07723295 0.05640367 0.028080637 0.057444606 0.0067490647 -0.109833725
0.07049376 0.05743639 0.12063468 0.12287008 -0.059592538 0.018853748 0.026059726 -0.0002325375
-0.09897125 -0.12141215 0.022955228 0.07663869 -0.043336 0.0786932 -0.09655223 -0.013504588
-0.10612517 0.11892011 -0.08692791 0.092612855 -0.0033274395 0.115537904 -0.025526045 -0.010012659
0.009747525 0.09994851 -0.07585803 0.124423206 -0.037704688 0.11256126 -0.043919288 0.06206831
00000000: 2d65 9f3c 9a36 5fbd df29 603d 6182 6d3d
00000010: 609c ddbd 827a c2bd 2795 f93d a147 f13d
00000020: 08ef b5bd a975 973d a7ee 99bc 5d30 6bbd
00000030: f5a4 fc3d ac7f ebbd fb96 893d 10cc 8abd
00000040: ac3f c4bd 4735 9dbc 9fa6 bd3b b434 89bd
00000050: 79ec d0bb 8050 27bd 1885 323d e5e0 8dbc
00000060: 2afc 5c3d 1729 013d 8120 eabc d814 4d3c
00000070: 31ca a63d 8dec c53b 05ea fc3d 35d0 93bd
00000080: e250 bebd 01c8 593b 58f3 17bd 2741 0a3c
00000090: f583 41bc 7c26 f0bd a199 92bd 80fd 27bc
000000a0: a4c3 af3d fe64 b3bc 9591 f13d 82ef 0b3c
000000b0: f2a7 c03d 879e f4bd a6c6 2cbd 1604 ee3d
000000c0: 2736 fbbc b946 d6bd 0d6e 6abd f029 6e3d
000000d0: 0c2d 843c 357f 443d e94d 1abd 4c86 56bd
000000e0: a6d1 d53c c6f2 87bd 1640 9a3d 3252 70bd
000000f0: c8fd 2138 58e9 abbd 20b0 80bd f2d0 b2bd
00000100: b4fa d13d fd8f fabc 8482 8b3c 4074 86bd
00000110: 9de6 a5bd d1b8 b1bd ab64 b73c e34b f4bd
00000120: 6c0c 3a3d c317 163d 7e42 dd3d a4fc e43c
00000130: 8df3 99bd c616 19bd 9530 9b3d 7510 80bd
00000140: 9cfa 9c3b e23c 563d af5a 19bd 6983 06bd
00000150: 31cf e8bc 41c8 213d d87e 32bb b869 b8bd
00000160: 9a5f 14bd a62a cebc be02 c43c cc87 c43d
00000170: 79a4 1bbd 2c45 8ebc 2718 f03d 7b4a e03d
00000180: d85a 74bd 4120 31bd 904a 82bd 32aa d3bd
00000190: b598 c43c 9f5e 973d ccd4 e53c 9c2e c5bd
000001a0: 5d1b 93bd 8627 813d 3180 29bb 6c98 d9bd
000001b0: ab77 9e3c e977 743c 8428 803d 37f0 47bd
000001c0: 9526 25bd 57bc 313d f10e c13c 1e2c 85bd
000001d0: 50f6 0f3c 8ca5 b43d 8a3f d0bd fe0d c93d
000001e0: 5442 65bd eb55 05bd a7f6 593c 08f1 ca3c
000001f0: 32e2 7d3d ff2e c6bb bd4b 99bd 2e84 e73c
00000200: 01ec debb 4e75 913d b9a8 80bc c081 c13c
00000210: e9f1 80bd 4740 31bd d771 59bd cb56 2d3c
00000220: d358 6bbd 2ac7 953b 3e47 533d 11da b63d
00000230: 0893 d0bd b88b 26bd 1982 e5bd dfeb 93bb
00000240: ab4f c53d 8d8b d83d 7c5f d8bd 0196 83bc
00000250: 6dec adbd c407 8f3d 8b4c cabd b2ec abbd
00000260: e9b5 e03d 35e4 ae3d 163a c03d f782 44bc
00000270: d866 c13d 6b7a f1bd de87 983d 75ef 8dbd
00000280: d281 823d ede9 aa3d b509 883d 7fe4 8cbb
00000290: dfcb f93d 26a5 a2bd 6995 273d 97f9 64bb
000002a0: 0d85 fabd 7471 66bc c516 a239 44a0 bfbd
000002b0: 333e bebc 8895 c3bb aa01 903d fd57 923d
000002c0: 47e7 9b3d 840c ef3d 0886 f9bd b23b c23d
000002d0: 59b5 25bd c26b 7abd f43b 53bd ff89 093d
000002e0: 361b 00ba f5c0 b4bd 86b9 c5bd 96bc d63d
000002f0: dec4 a73c 3e0f d5bb f3fa 963c fc8a b9bc
00000300: a282 26bc ce3c 0bbc bba6 db3d d45d 4f3d
00000310: b67a 33bd 88f3 b4bd 962d 32bd 9383 a3bb
00000320: 9181 ff3c 5198 b4bd d329 ac3d 1534 19bd
00000330: ff6c da3d 7416 e93d 2b39 97bd d824 bf3d
00000340: 59df 1c3d 71f0 b23d 2db0 dbbd b96c c53d
00000350: 7f46 97bd ef47 9cbd a71f e2bd 82cc a8bd
00000360: e2ad 97bd 20e8 e43d 4f2c 9e3d 8907 673d
00000370: 5d09 e63c 094b 6b3d 4227 dd3b 81f0 e0bd
00000380: 085f 903d 6c42 6b3d 510f f73d 4fa3 fb3d
00000390: 4e17 74bd 2d73 9a3c 357b d53c 4fd5 73b9
000003a0: 70b1 cabd efa6 f8bd 9a0c bc3c bff4 9c3d
000003b0: 1781 31bd e729 a13d 2dbd c5bd 5942 5dbc
000003c0: 2758 d9bd 638c f33d 4307 b2bd cfab bd3d
000003d0: 2c11 5abb 239f ec3d ff1b d1bc 230c 24bc
000003e0: 15b4 1f3c ceb1 cc3d 745b 9bbd 98d1 fe3d
000003f0: 3b70 1abd 8586 e63d b6e4 33bd 573b 7e3d

net.3.bias f4 [64]
0.030381097 -0.08117902 -0.06339396 0.05739119 -0.06311316 0.11022612 0.10959079 0.03008984
-0.11854264 0.073512636 0.08735388 0.102754004 -0.02042558 -0.06433001 -0.012767377 -0.122288994
0.04780703 -0.09863834 0.041690014 -0.06489214 0.04797084 0.009861554 0.087259404 0.07127359
-0.10719129 -0.057984687 0.06346267 0.038565822 -0.10620517 -0.09230536 0.105430715 0.011451715
-0.06030503 0.006838956 0.04931859 -0.10294431 0.0500255 0.026725344 -0.0020499988 0.033875536
-0.011124071 -0.09497655 -0.0020584378 -0.12065429 0.011512988 0.12542567 0.12029245 -0.019303197
-0.06732864 0.016271314 0.120253034 0.022499824 0.082678206 -0.055921726 -0.06774261 0.10331919
-0.09087136 0.036369912 -0.020669196 -0.09047417 0.1257959 0.06261518 -0.078768656 -0.036177084
00000000: c7e1 f83c 3041 a6bd b1d4 81bd 0613 6b3d
00000010: 7941 81bd 3bbe e13d 2371 e03d f87e f63c
00000020: 7cc6 f2bd cb8d 963d 97e6 b23d b170 d23d
00000030: 8c53 a7bc 74bf 83bd 432e 51bc a772 fabd
00000040: 4ed1 433d e602 cabd 26c3 2a3d 2ce6 84bd
00000050: 127d 443d 5b92 213c 0fb5 b23d e3f7 913d
00000060: 1b87 dbbd 5a81 6dbd b7f8 813d 32f7 1d3d
00000070: 1982 d9bd 980a bdbd 0fec d73d f99f 3b3c
00000080: 6802 77bd 5219 e03b 4a02 4a3d 77d4 d2bd
00000090: 8ae7 4c3d 1cef da3c 4659 06bb 13c1 0a3d
000000a0: bc41 36bc 1183 c2bd dbe6 06bb 9919 f7bd
000000b0: f9a0 3c3c 966f 003e e35b f63d bd21 9ebc
000000c0: 99e3 89bd 6b4b 853c 3947 f63d 8d51 b83c
000000d0: 3153 a93d 2e0e 65bd a3bc 8abd 0399 d33d
000000e0: c31a babd 9ef8 143d 7252 a9bc 864a b9bd
000000f0: a4d0 003e 633c 803d 7651 a1bd 6c2e 14bd
