bestclf/bestclf_adult_001.pth (torch, 18552 bytes, 19 tensors)

fc1.weight f4 [15, 95]
000000 39 e3 57 be 38 d9 4b 3c 4e 9c d4 bd 54 24 f7 bd
       -0.21082772 0.012441926 -0.10381375 -0.12067476
000010 fd cc 65 be ff 12 d7 3c 5c 6f a6 3d 73 9d e6 3c
       -0.22441478 0.026254175 0.08126709 0.02815125
000020 69 9d 23 3d d6 e3 5d bc 01 c8 dc 3d be 1a a7 bb
       0.03994504 -0.01354309 0.10780335 -0.0050996235
000030 f6 45 fe 3d 1e 47 00 be 63 a5 ae 3c 16 ea ff 3d
       0.12415688 -0.12527129 0.021319097 0.1249582
000040 c4 07 31 3e 57 8b 1c 3e b7 0b a3 bd fc b3 a0 bc
       0.17288119 0.15287529 -0.07961219 -0.019617073
000050 5c f3 18 be 01 0a 79 bd 74 9f 0a 3e 50 83 5e be
       -0.14936584 -0.060800556 0.13537389 -0.21729779
000060 ed 84 c9 bc 95 5c aa bd 35 bf ef 3d 3a 1f 40 bc
       -0.024599517 -0.0831844 0.11706392 -0.011726195
000070 39 36 14 be 5d ec cb 3d 55 e3 48 3e 9d b6 2f 3e
       -0.1447381 0.09957192 0.1961797 0.17159505
000080 06 d1 92 3e 15 76 4a bb 19 38 8c 3d b9 1e be bd
       0.28675097 -0.0030893136 0.06846637 -0.09283204
000090 38 6c 47 3e 68 0f 2a 3e 37 ad bb 3d b4 63 6e 3e
       0.19474876 0.1660744 0.091638975 0.23280221
0000a0 a9 f5 4f 3d 1e c3 9f bd 78 af 37 3c 1f f9 c6 3d
       0.05077139 -0.078008875 0.011211269 0.09715485
0000b0 a8 79 57 bd 83 d4 37 bd 32 b7 d1 3d 1d d4 34 3e
       -0.052606255 -0.0448804 0.1024002 0.1765904
0000c0 f7 36 97 3e 63 98 2a 3e ee 13 d2 bd cd 51 91 3d
       0.29534122 0.16659693 -0.102577075 0.070956804
0000d0 0a 2a 85 bb 3e 09 95 3c 90 e4 99 3d b3 9e 88 3a
       -0.0040638493 0.018192884 0.07514298 0.0010423273
0000e0 39 c8 87 3c 00 7c bb 3d a8 2d 7d bd c8 d6 67 3d
       0.016574966 0.091545105 -0.06181112 0.056601316
0000f0 41 7a fa 3d 29 30 87 3d 2a ed 06 3d c6 81 d9 3c
       0.12230349 0.06600983 0.03294102 0.026551139
000100 ba 89 c3 3d 7e 4f 7c 3b 24 ab d9 3c fb 15 dc 3c
       0.09547754 0.003849953 0.026570864 0.02686595
000110 4b cf d7 3c e8 ed 5e bb b4 1e 23 3b be 83 be 3b
       0.026343962 -0.0034016315 0.0024890127 0.0058140447
000120 7c cb d7 3c 30 a9 3a bb 39 b4 d4 ba b5 d2 12 3b
       0.026342146 -0.0028482191 -0.0016228027 0.0022403423
000130 3a 13 d7 3c 30 24 13 3c bd 1f 34 bc 96 a8 39 3e
       0.026254285 0.008980796 -0.010993895 0.18130717
000140 a9 5d 3e 3d 1b d1 4a 3b 77 9f db bc 4b e1 32 bd
       0.04647604 0.003094739 -0.026809437 -0.043671887
000150 d6 f6 b9 3c cc b1 8e bb dd 3c 4f bb 3b 81 84 bc
       0.022700708 -0.004354691 -0.003162197 -0.016174903
000160 5b b7 34 3d ee 66 84 bb 9c 92 db bc f4 6c 93 bc
       0.044120174 -0.0040405905 -0.026803307 -0.017996289
000170 fd 23 b1 3b 78 45 dd 3a 3f 63 9c bd 58 e6 3b 3e
       0.0054059015 0.0016881665 -0.07636117 0.18349588
000180 3a 59 15 3e 7d f1 40 3e 6e 6a 77 3e 03 4a 49 3e
       0.14584818 0.1884212 0.24161693 0.1965714
000190 cb 43 16 3e 05 28 5b bb 18 8d 11 3e 23 1c 51 3d
       0.14674298 -0.0033440602 0.14213979 0.051052224
0001a0 a6 85 e9 bc 3e 79 b8 bd 0e 30 75 3c 16 9c 74 be
       -0.028506111 -0.090075 0.01496507 -0.23887667
0001b0 02 1f 22 3e 01 98 e5 3b ab f6 2e be 68 d0 79 be
       0.15832141 0.0070066457 -0.17086284 -0.24395907
0001c0 bd b5 25 be 57 f5 a3 3d cf 2e 8c 3d 3a d5 3c 3e
       -0.16182609 0.08005779 0.068448655 0.18440714
0001d0 ad f9 3b 3e a4 a3 19 be a5 49 0f 3e 99 60 a5 bc
       0.18356963 -0.1500383 0.13992937 -0.020187663
0001e0 f9 b3 04 3e 53 fc 0b 3e 00 3c 91 bc 0e 75 81 3e
       0.12959279 0.13670473 -0.017728806 0.25284618
0001f0 66 16 19 be 9f 89 98 be a2 87 02 be 49 eb 39 be
       -0.1494995 -0.29792497 -0.12747052 -0.1815616
000200 cf 21 b3 3c 1b 70 ca 3d 40 e0 75 3e de 13 2d be
       0.021866707 0.09884664 0.24011326 -0.1690211
000210 50 c5 d5 bd 8a b9 41 bd f5 1d 89 bd 41 7a 99 3b
       -0.10438025 -0.047296084 -0.06695167 0.0046837633
000220 5c 04 2b 3e c8 be f4 3d 06 f8 99 3d 80 35 0e 3e
       0.16700882 0.11950451 0.0751801 0.13887596
000230 18 33 b3 bd ef 85 42 be 49 ac 23 be f1 e7 98 be
       -0.0874998 -0.18996404 -0.1598369 -0.29864457
000240 9a 91 7a be 91 91 6a 3d 95 1e aa bd 27 cf bf 3d
       -0.24469605 0.05726773 -0.08306614 0.09365683
000250 b2 31 0e bd 40 7f b2 3d 8a 19 b9 3c 13 36 b8 bc
       -0.034715362 0.08715677 0.022595186 -0.022486722
000260 2f 37 da bd a8 12 b1 3d c5 78 c6 bd 66 4f 01 be
       -0.10655057 0.086461365 -0.09691004 -0.12627944
000270 c4 0a 90 bc 2d b3 dd bd c9 70 fa 3b f4 1d c7 bd
       -0.017583258 -0.10825191 0.0076428396 -0.0972251
000280 bb a9 d0 bc 17 77 95 bb ca 1d fe bb c9 7b 46 3a
       -0.025471559 -0.0045613158 -0.007755016 0.0007571546
000290 9f 3a a6 3c 18 06 96 bb 18 8f 19 bb 00 8b a1 bc
       0.020291625 -0.004578363 -0.0023431238 -0.0197196
0002a0 e4 3d 94 3a 07 1d 22 bb b0 cf 8f bb aa ed a7 ba
       0.0011309949 -0.002473654 -0.004388772 -0.0012811918
0002b0 23 72 c7 bc 2e ef 27 3b b8 5e 07 be 12 44 a8 3b
       -0.024346417 0.002562474 -0.13219726 0.0051350677
0002c0 a4 1f 7d ba ee 16 4c 3b 48 a8 d1 3d 24 ec a5 3a
       -0.0009655899 0.0031141597 0.10237175 0.0012658876
0002d0 5e 67 b0 bc b7 6a 23 bb 7d 1a c0 bc 3d e0 18 bd
       -0.021533664 -0.0024935433 -0.02345013 -0.037323225
0002e0 38 01 d7 bc f7 a5 06 3b 9b 59 e3 bb 09 a0 79 3b
       -0.026245698 0.00205457 -0.006938172 0.0038089773
0002f0 b6 d7 09 3c 3e 57 25 3e 8e b2 2b be 2e da b3 bc
       0.008413246 0.16146562 -0.16767332 -0.021954622
000300 32 ed 0e be db d8 1d be 1f 4d 6a be ed 54 d5 3c
       -0.1395767 -0.15414755 -0.22880982 0.026041472
000310 00 89 ff 3d d9 68 cd 3d 4c 78 0c 3b 86 9d 49 bc
       0.124773026 0.10029764 0.0021434007 -0.012305623
000320 e1 c3 76 3e a3 65 09 bc a6 80 fe 3d 02 86 f7 bd
       0.2409816 -0.0083860485 0.124268815 -0.12086107
000330 e6 7f 7e bb 12 ba 3d 3e bb 44 01 3e f0 35 70 3e
       -0.0038833558 0.18528011 0.12623875 0.23458076
000340 8c 03 a1 ba 78 6b b0 3c 64 b8 da bd c3 30 e8 bd
       -0.0012284382 0.02153562 -0.10679701 -0.113374256
000350 31 94 f7 3d 52 16 f0 bd a7 03 1c 3a 9b 64 ef bd
       0.12088812 -0.11723007 0.0005951472 -0.11689111
000360 f9 53 6e 3d 6a 72 e9 ba 58 17 47 be 48 66 59 3e
       0.05818555 -0.0017810587 -0.19442499 0.21230423
000370 6f 65 8a 3e bf c3 39 3e 4a 62 28 3e 9c fc 35 3c
       0.27030513 0.18141077 0.16443744 0.01110759
000380 38 da a6 3d 9c 18 77 bd d1 a3 61 3e fd 0b 0f 3e
       0.08147091 -0.060326204 0.22035147 0.13969417
000390 7e b8 52 3e 25 23 35 3e 4e 3f 47 3e a9 1c 17 be
       0.2057819 0.17689188 0.19457743 -0.14757027
0003a0 47 f9 c1 bd 9f 12 29 3e a5 c1 8f bd b9 7a c8 3c
       -0.09471374 0.1651101 -0.07019357 0.024472581
0003b0 8d b5 c6 3d eb 9e 0a 3e 47 f1 6d 3e c4 89 9e 3e
       0.09702597 0.13537185 0.23236571 0.30964482
0003c0 82 b2 c2 bd 1d 76 37 3e 52 9d b2 3c c5 0e 02 3e
       -0.09506704 0.1791615 0.021803532 0.12700947
0003d0 ae 7d 6d 3d cc 86 ca bc 67 a3 e9 3d a3 ad 09 3e
       0.057981186 -0.02472248 0.1140812 0.13445143
0003e0 12 b0 c4 bd ff 17 e3 3d c1 40 fc 3d 1c 94 b7 3d
       -0.09603895 0.11088561 0.12317038 0.089637965
0003f0 f5 ae 02 3e b4 45 6b 3b b1 96 10 3e bb 41 c6 b9
       0.12762053 0.00358997 0.14119984 -0.00037814476

fc1.bias f4 [15]
000000 98 cb e7 3d 3d 41 ad 3d 7b af d3 3d b7 df 69 3d
       0.11318129 0.08459709 0.103362046 0.057098117
000010 fd 00 8d bb e9 a5 15 bd 87 99 a9 3d d1 0a 9a bc
       -0.0043030963 -0.036535177 0.08281236 -0.018803986
000020 62 61 9a bc 35 da 42 bd 79 0b f1 3c 15 e0 aa bd
       -0.018845264 -0.04757138 0.029424416 -0.083435215
000030 3c 3d 24 3d 41 eb 05 3e 0c ff 6a 3d
       0.04009746 0.13078023 0.057372138

fc2.weight f4 [15, 15]
000000 af cf a5 3c c5 66 46 be b8 99 37 bd 6a bf 0f be
       0.020240633 -0.19375141 -0.044824332 -0.14037862
000010 ee 10 87 3e d9 88 77 bd 45 d8 53 3d 62 57 13 be
       0.26380104 -0.060433242 0.051719923 -0.14388803
000020 3b 8c e0 bd 8e 6f 00 bd 7d f7 39 3d df d8 3e bd
       -0.10964247 -0.031356387 0.04540204 -0.046593543
000030 de 68 36 3e e6 0f af bb 65 f0 ca bd b4 1a 8d 3c
       0.17813441 -0.0053424714 -0.09909133 0.017224647
000040 57 a3 22 bd af b7 b5 3d d2 e0 d4 3d 92 c3 8e 3e
       -0.039706554 0.088729255 0.103944436 0.27883583
000050 44 21 36 3d c2 70 1a be 48 80 19 3e d3 78 26 bc
       0.04446532 -0.15082076 0.14990342 -0.010160643
000060 e7 d9 15 3c b2 02 b6 bd 0d 90 eb 3d 91 5c 8d 3e
       0.00914619 -0.08887233 0.11502085 0.27609685
000070 a9 18 f6 3d 82 0a 7d be 6b 9b 86 be 01 85 8a 3e
       0.12016422 -0.2471104 -0.2629045 0.270546
000080 c7 69 6f be 2b 07 ef bd 99 f0 21 be e1 ea 73 3d
       -0.23380195 -0.11671289 -0.15814437 0.05955017
000090 2f 75 92 3c 9b 56 ad bd fc 1c fc 3d a8 be 38 3d
       0.017878143 -0.08463784 0.12310216 0.0451037
0000a0 76 cc 0b be 01 0f 98 3c af d0 5d bd 28 b7 16 be
       -0.13652214 0.018561842 -0.054154094 -0.14718306
0000b0 c4 03 e7 3d fc ee 88 3e 3a da 31 be 50 9a ce 3e
       0.11280015 0.2674483 -0.17368403 0.40352106
0000c0 d5 b6 1a 3e 93 cf c8 3e 12 46 ae bc d9 d4 c7 bc
       0.15108807 0.39220867 -0.021273647 -0.024393486
0000d0 30 65 c9 3d 60 a9 08 bd 5c 06 e1 3d 3a 80 9f 3e
       0.09833753 -0.033364654 0.10987541 0.31152517
0000e0 92 48 85 bc b6 98 4f 3e f9 be a6 3e 7b a9 4e bd
       -0.016269956 0.20273098 0.32567576 -0.050454598
0000f0 e7 08 b3 be f7 ec 00 3e fe 8e 9f be bb 29 6c be
       -0.3496773 0.12590395 -0.31163782 -0.23062794
000100 e1 a3 71 be ff b5 67 3d a2 d9 7d bc 8d 9e cc 3c
       -0.23597671 0.05657005 -0.015493782 0.024977947
000110 90 b3 98 3d 2f fe be bd 9b 2f dd bd 28 8b d9 bd
       0.07456124 -0.093258254 -0.10800096 -0.10622245
000120 4f 0e 06 be ed cc 11 bd 4a ca 67 3e 29 4f 2e bd
       -0.13091396 -0.035595823 0.22635761 -0.04255596
000130 16 3d 65 be 48 4c 57 3e 5a 06 84 bd b6 9c 9b 3e
       -0.22386584 0.21025193 -0.06446524 0.30392998
000140 9b aa 5b bd 00 26 8b 3d 57 3f 15 bd 05 a0 af bd
       -0.0536295 0.06794357 -0.03643736 -0.08575443
000150 c1 b6 ab 3d 80 bb aa 3e 6e 88 ee bd 45 f2 27 3e
       0.08384467 0.33346176 -0.11647116 0.16401012
000160 87 8b a3 bd 8a aa 3f be 79 fc b4 bc c9 e9 86 be
       -0.07985597 -0.18717399 -0.022093045 -0.2635024
000170 0b 44 97 3e a8 61 ab 3e 60 45 d5 3e ee 4f dd bd
       0.295441 0.33472943 0.4165449 -0.10806261
000180 25 65 11 3e cb da c4 bd 98 30 0b be 46 ca 5f 3c
       0.1419874 -0.09612044 -0.13592756 0.013659066
000190 4d 7d b0 bd e0 4c 75 3d 21 c6 84 3e 71 9d b6 3d
       -0.08617649 0.059887767 0.2593241 0.08916748
0001a0 28 78 f8 bd a5 2f 54 3e bd 04 8b be 8f 72 ad 3e
       -0.12132293 0.207213 -0.27152053 0.33876464
0001b0 a3 2a 79 3e cb 9d a9 3e 00 6f 80 be 4d 1c 8e 3e
       0.24332671 0.331282 -0.25084686 0.27755967
0001c0 0b 16 c5 3d 7f 19 c1 bd ef d5 e1 3c 82 a0 7d 3e
       0.09623345 -0.09428691 0.027567832 0.2476826
0001d0 82 81 a1 3c 13 20 3d 3d b6 e5 63 3e 4a 81 83 be
       0.019715074 0.046173166 0.22255597 -0.25684577
0001e0 5d a4 2e bd b2 9c 4c 3d ab ea 92 3d 4f a7 7b 3d
       -0.042637218 0.049954124 0.071736656 0.061438855
0001f0 c6 15 bc bc 93 e5 fe 3c 82 77 0b be 39 56 f7 bd
       -0.022959601 0.031115329 -0.13619807 -0.120769925
000200 d2 cc 0d 3d dd 2b b2 3c d8 7f 27 be 3d 68 87 bd
       0.03461916 0.021749431 -0.16357362 -0.06611679
000210 39 02 4d bc ec 17 ea bd aa be c9 3d 4d ab 12 bd
       -0.012512737 -0.11430344 0.098508194 -0.035807896
000220 12 d1 58 bc 83 8a a8 3d cb 52 e8 3d 60 e1 8a 3d
       -0.01323344 0.08229544 0.113439165 0.06781268
000230 b2 b1 c8 bb 47 68 60 bd e1 0e 9f bd ea a5 1f bd
       -0.0061246986 -0.054786947 -0.0776651 -0.038976587
000240 7b 72 a4 3c 69 88 2e bd ec 4f dc 3d 83 95 48 bd
       0.02007412 -0.04261056 0.107574314 -0.04897071
000250 02 f8 f8 bd 9e d5 1a 3d bc c2 ab 3e ce 5c 07 be
       -0.12156679 0.037801377 0.33547008 -0.13218996
000260 ef 31 8a 3e fd 74 92 3e 95 f5 bd 3e c7 9b db bd
       0.2699122 0.2860488 0.37101427 -0.107230715
000270 b8 90 96 3e ad af 65 3e 40 c1 c7 bd ec 71 d0 3d
       0.29407287 0.22430296 -0.097536564 0.10177979
000280 da 72 8e bd 66 ec 59 bb 3e 58 a7 3e 87 cf 06 3e
       -0.069555 -0.0033252477 0.3268451 0.13165103
000290 49 4b 96 be 0a f7 0e be a7 30 47 3e 93 81 04 be
       -0.29354313 -0.13961425 0.19452153 -0.12940054
0002a0 08 d8 b2 bd 17 c8 d8 bd 22 50 44 ba f9 30 ee bd
       -0.08732611 -0.10585039 -0.00074887474 -0.116304345
0002b0 65 f9 1f 3c 84 eb db 3d d2 96 9d bd 81 5f 7f 3d
       0.00976405 0.107382804 -0.07694782 0.06234694
0002c0 22 81 60 bd 34 a6 0d be f6 cf 89 bd a9 3a 41 3d
       -0.05481065 -0.13832933 -0.067291185 0.047175083
0002d0 8b 73 96 be 96 9e 96 3e f3 1c 9b be 76 19 27 3d
       -0.29385027 0.29417866 -0.30295524 0.040795766
0002e0 af 45 4d bd 82 ec e7 3d 2d 72 41 be d8 4e 4d bd
       -0.050115284 0.11324407 -0.18891211 -0.05012402
0002f0 8d f9 7e 3d fa 98 d7 3c 4c bc f6 bd 00 d6 16 bc
       0.06224971 0.026318062 -0.120476335 -0.009206295
000300 7d e7 c4 bb 29 cf 4a be 6f bc 43 3e f8 59 82 bb
       -0.006009041 -0.19805588 0.1911485 -0.0039780103
000310 ff 6f ab be 69 b2 a7 3e 6c e3 0f bc f4 76 a7 3e
       -0.33483884 0.32753304 -0.008782249 0.32707942
000320 41 7d af be 93 13 82 3e 45 de 37 3e bf cd e1 bd
       -0.3427525 0.2540556 0.17955883 -0.11025571
000330 a0 ff 05 bd c7 fb 9f 3e 52 91 e1 bd 73 de 7b 3e
       -0.032714486 0.31246778 -0.11014046 0.24596576
000340 0c fc 48 3e 06 33 26 be 53 62 a9 3e e9 5b 49 be
       0.19627398 -0.16230401 0.33082828 -0.19663967
000350 5e c7 63 3e 02 42 a6 3d ac 2d 1f bd 63 55 61 be
       0.22244021 0.08118059 -0.038861915 -0.22005229
000360 e5 cb b0 3d f2 70 96 3d 37 72 38 bd a4 a8 29 3d
       0.0863264 0.07345761 -0.0450308 0.041420594
000370 4b ec 9b 3e 11 d9 c5 3d 44 78 78 3e 98 de 82 3e
       0.30453715 0.09660543 0.24264628 0.2556045
000380 1c 76 55 bd
       -0.05211459

fc2.bias f4 [15]
000000 e4 43 13 3e dd 8a 96 3d 0e 24 24 be 4a 95 ae 3d
       0.14381367 0.07350705 -0.16029379 0.085245684
000010 06 7d 86 be 9f 2b 5e 3e ba 75 74 3d 50 a5 39 3c
       -0.2626726 0.21696328 0.059682585 0.0113309175
000020 6d 82 dc 3c e5 91 00 be 68 b0 84 3e cd de 37 3d
       0.02691766 -0.12555654 0.25915837 0.044890214
000030 b9 59 07 be 49 89 09 3e 84 f4 1f 3e
       -0.1321782 0.13431276 0.15620619

out.weight f4 [1, 15]
000000 e5 f9 c5 3e 32 d9 c5 be 56 45 15 be d1 79 af 3e
       0.38667217 -0.3864227 -0.14577231 0.34272626
000010 88 21 92 be f7 9d d0 3d 43 7c 83 be 64 bb d9 3d
       -0.28541207 0.101863794 -0.25680742 0.10631445
000020 0a 89 ba be fc eb 38 3e c4 00 74 3d 7a 1c b5 3e
       -0.36432678 0.18058771 0.059571043 0.35373288
000030 fb e7 81 be 4c 93 39 3e 7e 08 b5 be
       -0.253723 0.18122596 -0.35358042

sep_conn.weight f4 [15, 95]
000000 39 08 a3 bd 58 93 82 3d da 0d d2 bd 74 e9 88 bd
       -0.07960553 0.0637576 -0.10256548 -0.06685153
000010 10 87 ec 3c a7 39 57 bd 68 6a 21 bc 27 b4 4c bd
       0.028872997 -0.052545216 -0.009852029 -0.049976494
000020 f7 3a 26 3d 21 dd 39 3c f8 ec 0d bb 44 7c 42 bd
       0.040583577 0.011344225 -0.0021656137 -0.04748179
000030 93 ca c2 bd 77 0e 26 3d 7e 4a e7 bc 37 25 bf bd
       -0.09511294 0.04054114 -0.028233763 -0.0933327
000040 39 da ed 3c 5c 04 46 bb d7 27 d0 3d 4b e0 61 3d
       0.02903472 -0.0030215 0.10163849 0.055145543
000050 35 51 9d 3d bc 02 5c bd 0a 2d c1 3d 1a 4b c8 3d
       0.07681505 -0.053713545 0.09432419 0.097799495
000060 a5 65 cd bd 28 c9 cb 3d 44 ea 24 3d d3 8f c4 bc
       -0.10029153 0.09950477 0.040262476 -0.023994362
000070 54 97 bb 3c 8b 67 a5 3d 97 e6 bc bd 8f 12 b9 bd
       0.022899307 0.0807639 -0.09223669 -0.09036743
000080 41 7f 04 bb ec 66 80 3d e2 02 f6 bc eb fa e1 bc
       -0.002021745 0.06269631 -0.030030672 -0.027585467
000090 72 a0 8f bd 59 e0 83 3d ee 3f 74 bd 94 4f da bc
       -0.070130244 0.06439275 -0.05963128 -0.026649274
0000a0 98 9f bc 3c c4 be 6d bd 07 8b 24 bc 9a 39 42 3d
       0.023025319 -0.058043256 -0.010042912 0.047418214
0000b0 70 d8 39 3d d9 c1 9e bc ec 67 43 3d 08 97 12 3d
       0.045372427 -0.019379543 0.04770653 0.035788566
0000c0 97 e1 15 3c 01 6b 1d bd 89 8a e3 ba e7 50 bd 3d
       0.009148023 -0.038432125 -0.0017360012 0.092439465
0000d0 81 0d b7 bd 6a be 57 bd 09 d2 b5 bd 04 28 6a bc
       -0.089381225 -0.052671827 -0.08877952 -0.014291767
0000e0 6b c1 cd bd 17 68 a0 bc 7c 13 9f 3d 2b 4a ac 3c
       -0.10046657 -0.019580884 0.07767388 0.02103146
0000f0 46 e8 2e bd e1 80 a6 bd a1 ac 93 bd 1d 76 b1 bc
       -0.042701982 -0.081300505 -0.07210661 -0.021662766
000100 95 ac 6f 3d d5 23 78 3d 43 bc a3 bd cf 86 77 bd
       0.058514196 0.060581047 -0.079948924 -0.060431298
000110 e2 1d 8c 3d 20 9e e9 3b 8c fb cd 3d 08 0e bb 3d
       0.06841637 0.0071294457 0.100577444 0.091335356
000120 b5 20 fc 3c f1 bc 96 bd 08 4c c3 bd 2f ee 6a bd
       0.030777315 -0.073602565 -0.09535986 -0.057356056
000130 74 47 93 bd 1d be 2f bd ab 3e b2 3c 6b fa 78 3d
       -0.07191363 -0.042905916 0.021758398 0.060785692
000140 7d da 0b 3d 34 d5 a7 3d 9a 01 aa bd 2a 41 a3 bd
       0.034143914 0.08194962 -0.08301087 -0.079714134
000150 9e d9 60 3d e1 b7 a8 3d f5 74 16 3d 03 f8 7e 3d
       0.054895036 0.08238197 0.036732633 0.06224824
000160 21 f6 3b bc 9b 23 ad 3d be c5 99 3d b2 6b c0 bd
       -0.011472256 0.08454057 0.075084195 -0.09395541
000170 79 9d c4 3b c7 80 10 3d 26 e6 5b 3c b1 90 81 bd
       0.0060002175 0.03527906 0.013421571 -0.06326426
000180 8e f8 a8 3c d5 76 be bd bd 6e 8f bd e3 3a 04 3d
       0.020626333 -0.09300009 -0.070035435 0.03228272
000190 e3 79 4a 3d 96 47 31 3c 36 33 87 bd 06 76 28 bc
       0.049432646 0.01082029 -0.066015646 -0.010282045
0001a0 f5 51 6e 3c 3a 57 9b bd 1e 5c cf bc f9 07 1b 3d
       0.014545907 -0.075849965 -0.02531248 0.0378494
0001b0 9f b7 6b 3d 30 d5 ba bd b5 5a fd 3c d7 f6 78 bd
       0.05754816 -0.091226935 0.030927042 -0.06078228
0001c0 61 04 b3 bd e3 9d 8c 3c 70 cd 01 3d 63 1b 04 bd
       -0.087410696 0.01716513 0.03169006 -0.03225268
0001d0 b2 a6 5f 3d 7c c6 a3 3d d8 05 46 bc d0 3e e6 3c
       0.054602332 0.07996842 -0.012086354 0.028106123
0001e0 e9 3f 40 3d 81 38 58 bd d6 ea 23 bd 68 d6 9c 3d
       0.04693595 -0.05278826 -0.04001888 0.07658082
0001f0 67 86 b1 bc fc 1c b8 3d a7 f2 04 bd 12 24 52 bd
       -0.021670533 0.08989903 -0.032457974 -0.05130393
000200 f8 00 94 bd 14 29 a2 bd 3d 68 b1 3c 5c 40 47 bc
       -0.07226747 -0.07917991 0.02165615 -0.012161341
000210 d0 da 11 bd 7d 19 9f bd 9c 88 2a 3a df b4 07 3d
       -0.035609066 -0.077685334 0.0006505342 0.033131476
000220 a3 df d1 3d c8 8c 10 bc 92 52 a2 bd 63 21 02 3d
       0.102477334 -0.008822627 -0.07925905 0.03177012
000230 8d ab ab 3c 4b 07 cc 3d df 42 09 3d ca 37 17 bd
       0.020955825 0.099623285 0.03351104 -0.03691844
000240 c6 3c 0d 3d 7a 0d 97 bd a1 e6 bc 3d db ce a2 3c
       0.034481786 -0.07375617 0.092236765 0.019874027
000250 a9 6e 9d 3c 6e 7d bc bd 95 24 b9 3c 01 8d 4b bd
       0.019217806 -0.09203611 0.022600451 -0.04969502
000260 bc 53 cb bd 86 49 fd 3c 79 88 b7 bd a9 4a c9 bc
       -0.099280804 0.030918848 -0.08961577 -0.024571734
000270 74 80 8a 3c 3b 29 7f bd a0 15 73 bd 3a 34 98 bd
       0.016906954 -0.06229518 -0.059346795 -0.074318364
000280 31 c3 c6 3c 66 ad e4 bb ce 03 bd 3b e0 f5 9a 3d
       0.024262996 -0.0069786785 0.005768276 0.07566428
000290 cd ba 69 bd 2f 33 da ba bf 64 c2 bd ac 9f 0e bd
       -0.057062913 -0.0016647334 -0.09491872 -0.034820244
0002a0 10 0a b5 bd 1c 27 95 bd 26 0e 73 3c 84 ff 1f 3a
       -0.0883981 -0.0728285 0.014834916 0.00061034434
0002b0 87 68 60 3d 83 12 94 3d 37 fb dc 3b 9d 13 29 3d
       0.054787185 0.07230093 0.0067438143 0.04127847
0002c0 42 a8 6b 3d 62 4b c9 3d 62 ad 8a bd aa af 0e 3d
       0.05753351 0.09828831 -0.067713514 0.034835495
0002d0 59 5d ad 3d 56 0a c2 bd f7 a3 21 bd e3 c3 43 bd
       0.0846507 -0.09474628 -0.03946301 -0.047794234
0002e0 62 ae 84 bd e9 e6 c0 bd 46 d0 8c bd a8 e3 50 3d
       -0.064785734 -0.094190426 -0.068756625 0.05099836
0002f0 8c 73 62 3d 07 32 1a 3d 10 b1 b6 bd 3e ba 87 bd
       0.055285975 0.037645366 -0.08920491 -0.0662732
000300 50 80 93 bc ff c3 d2 3c ec 69 d3 3c 45 5c 52 bd
       -0.01800552 0.025728224 0.025807343 -0.051357526
000310 82 31 60 3d b4 7f 93 3d 98 8f 94 bd 43 02 81 3d
       0.054734714 0.07202092 -0.07253951 0.062992595
000320 bd bc d6 3a 16 2a 87 bd e8 d2 cc bc 6f bb 0a bd
       0.0016383153 -0.06599824 -0.025002912 -0.033870157
000330 40 ce 09 bd 0d 6c b6 3d dc 73 aa 3d bd 6f 64 bc
       -0.03364396 0.08907328 0.0832288 -0.013942656
000340 2b 97 4e bd 95 04 b4 3d 46 ac bf bd ac c9 1e 3b
       -0.050437134 0.087899365 -0.093590304 0.0024229093
000350 73 44 a6 bd 09 39 65 3d ad 66 23 bc c7 62 25 3d
       -0.081185244 0.055962596 -0.00997321 0.040377405
000360 d1 0a 4e bd cc 59 cf bd e8 50 8b bc c9 27 cd 3d
       -0.050303284 -0.10124549 -0.017006353 0.10017354
000370 42 70 c5 3c ab 90 b6 bd 8f 0e 1c 3d 85 9a eb 3c
       0.02410138 -0.08914312 0.03809982 0.028760204
000380 a2 d9 18 bd ae 74 41 3d 54 0f 90 3c 50 bc d7 3b
       -0.037316926 0.047230415 0.017585434 0.006583728
000390 25 84 83 bc b2 6c 02 3d fb 1b 89 3d 84 2b c3 bd
       -0.016054222 0.03184194 0.0669479 -0.09529784
0003a0 e8 24 c4 bd 32 f7 23 3d b5 0c 44 bc e2 8c c6 3d
       -0.09577352 0.040030666 -0.01196592 0.0969484
0003b0 5d 1b c1 3d aa 27 af bb aa 17 1e 3d 56 f0 1a bd
       0.09429047 -0.0053453045 0.038596787 -0.03782686
0003c0 be 32 cb ba af 9d 65 bc 99 d3 9d bd 04 c9 68 3d
       -0.0015502793 -0.0140146455 -0.07706375 0.05683233
0003d0 f3 26 b1 bd 03 2b 9a 3d 0d 00 13 bd 45 e6 c4 3d
       -0.08650007 0.07527735 -0.03588872 0.09614233
0003e0 b3 60 13 3d 24 43 37 3d 89 3b 89 bd c0 05 ce 3b
       0.03598089 0.044741765 -0.067008086 0.0062873065
0003f0 66 79 41 bd b3 db 36 3c fd 95 cd 3d ec a6 2d bd
       -0.047234915 0.011160779 0.100383736 -0.042395517

sep_conn.bias f4 [15]
000000 a4 48 87 3c 7c 4e 81 3d 10 87 47 bd ea 27 f5 bc
       0.01651413 0.06313798 -0.04871279 -0.02992626
000010 7e 8d bd 3a 99 2a 1b ba 71 86 1a 3b 0c b1 71 bd
       0.0014461724 -0.00059191283 0.0023578668 -0.059006736
000020 28 57 93 3d 20 b4 6c bc c4 7f 4e 3d 53 b0 76 3d
       0.07194358 -0.014447242 0.050414816 0.06022675
000030 77 b2 bb 3b 7c d7 47 3c fd c9 84 3d
       0.005728062 0.012197372 0.06483839

bn.weight f4 [15]
000000 00 00 80 3f 00 00 80 3f 00 00 80 3f 00 00 80 3f
       1.0 1.0 1.0 1.0
000010 00 00 80 3f 00 00 80 3f 00 00 80 3f 00 00 80 3f
       1.0 1.0 1.0 1.0
000020 00 00 80 3f 00 00 80 3f 00 00 80 3f 00 00 80 3f
       1.0 1.0 1.0 1.0
000030 00 00 80 3f 00 00 80 3f 00 00 80 3f
       1.0 1.0 1.0

bn.bias f4 [15]
000000 00 00 00 00 00 00 00 00 00 00 00 00 00 00 00 00
       0.0 0.0 0.0 0.0
000010 00 00 00 00 00 00 00 00 00 00 00 00 00 00 00 00
       0.0 0.0 0.0 0.0
000020 00 00 00 00 00 00 00 00 00 00 00 00 00 00 00 00
       0.0 0.0 0.0 0.0
000030 00 00 00 00 00 00 00 00 00 00 00 00
       0.0 0.0 0.0

bn.running_mean f4 [15]
000000 00 00 00 00 00 00 00 00 00 00 00 00 00 00 00 00
       0.0 0.0 0.0 0.0
000010 00 00 00 00 00 00 00 00 00 00 00 00 00 00 00 00
       0.0 0.0 0.0 0.0
000020 00 00 00 00 00 00 00 00 00 00 00 00 00 00 00 00
       0.0 0.0 0.0 0.0
000030 00 00 00 00 00 00 00 00 00 00 00 00
       0.0 0.0 0.0

bn.running_var f4 [15]
000000 00 00 80 3f 00 00 80 3f 00 00 80 3f 00 00 80 3f
       1.0 1.0 1.0 1.0
000010 00 00 80 3f 00 00 80 3f 00 00 80 3f 00 00 80 3f
       1.0 1.0 1.0 1.0
000020 00 00 80 3f 00 00 80 3f 00 00 80 3f 00 00 80 3f
       1.0 1.0 1.0 1.0
000030 00 00 80 3f 00 00 80 3f 00 00 80 3f
       1.0 1.0 1.0

fc3.weight f4 [15, 15]
000000 08 bd 15 be 92 91 96 bd a3 45 10 bd c0 6d cb be
       -0.14622891 -0.07351984 -0.03522266 -0.3973217
000010 f9 30 e9 3d 21 cd a7 bd 9d 32 d9 bd 0d 35 80 be
       0.11386294 -0.08193422 -0.10605357 -0.25040475
000020 c3 76 aa 3d 93 cc 5a bd ab 9a 89 be f9 58 b3 3d
       0.08323433 -0.053417753 -0.26875815 0.087572046
000030 c0 f2 38 3d d6 40 5f be 1f 1d 8b be 83 36 53 3d
       0.04515338 -0.21802077 -0.27170655 0.05156566
000040 88 88 e6 3d a7 9a 5f bd ab d8 9d 3e 24 ff cb 3c
       0.1125651 -0.054590847 0.30829367 0.024901934
000050 70 cb ae 3e 71 19 9b 3e eb 29 9c 3e ea 83 b1 3d
       0.34139585 0.30292848 0.3050073 0.08667739
000060 38 4f 29 3e de 99 ab 3e d6 04 cc bc 32 09 bf be
       0.16534126 0.3351583 -0.02490465 -0.37311703
000070 28 7f ee 3c 82 dc 63 3e a2 ff d3 3d 5a a8 57 3e
       0.029113367 0.22252086 0.103514925 0.21060315
000080 c2 d5 c6 bd 02 2a db bc aa e2 ca bd ce cf 54 3e
       -0.0970874 -0.02675343 -0.09906514 0.20782396
000090 db 0b a4 3c 5d a4 08 3d 0a 91 ea bc ba db e4 3c
       0.020025184 0.033359874 -0.028633613 0.027936805
0000a0 26 78 78 3e f2 67 aa bd b7 d1 e7 bd 99 d2 a0 3e
       0.24264583 -0.08320607 -0.11319297 0.31410673
0000b0 47 15 a5 3d 30 0e ff bd 47 35 25 be 04 7f 13 3e
       0.08060699 -0.12453878 -0.16133605 0.14403921
0000c0 96 ec cf be db 56 ec 3d cc 7f 16 bd 01 8a 6a be
       -0.40610188 0.11540004 -0.03674297 -0.22904207
0000d0 91 57 82 be 5e 7a fc 3d 20 06 a1 bd 27 bf a7 be
       -0.25457433 0.12328027 -0.078624964 -0.32763025
0000e0 48 95 3f 3d 74 b2 d5 3d 88 76 cc bd 82 a5 97 be
       0.046773225 0.10434428 -0.099835455 -0.2961846
0000f0 18 32 0e 3e bd 8d b8 bd ba ed af be 49 f9 e4 3d
       0.13886297 -0.090114094 -0.34361058 0.1118036
000100 da a5 67 bd 1a c8 8d 3d 78 e9 7f 3e 0a b5 27 3e
       -0.056554653 0.06922932 0.24991405 0.16377655
000110 88 f3 b9 bd 35 94 fb bd 85 66 8b 3e ff bc 6c ba
       -0.09079653 -0.122841276 0.27226654 -0.0009030848
000120 54 82 c5 be dd 93 a6 3e eb 36 b2 bb 9f fb 9e be
       -0.38575995 0.32534686 -0.0054386756 -0.31051347
000130 66 16 2e 3e c1 9b 92 3e 8a 02 9f be 47 bd 66 3e
       0.17000732 0.28634456 -0.31056625 0.22533141
000140 ee a8 cb 3b c8 d6 f0 bd 5a da d3 bd 44 92 bf 3d
       0.0062152063 -0.11759716 -0.10344382 0.0935407
000150 6c 9c 0b bd 82 32 ec 3d a0 0d 4d 3e 50 c5 3e 3e
       -0.034084722 0.11533071 0.20024729 0.18629956
000160 6b e1 82 be 50 23 f4 bc 6f f7 e2 bd 8d a7 fb bb
       -0.25562605 -0.029801995 -0.110823505 -0.0076798857
000170 9c 82 98 be df 89 fa 3b ee ed a6 be 7a c3 81 3e
       -0.29787147 0.00764583 -0.326034 0.2534445
000180 0d 8e 18 3e 3f 59 9e 3e 85 36 0c be 90 05 d0 bd
       0.14897938 0.30927464 -0.13692673 -0.10157311
000190 54 79 9b 3d 90 27 78 be 90 3b 1d be e5 76 aa 3d
       0.07591501 -0.24233842 -0.15354753 0.083234586
0001a0 85 44 2e 3d 71 92 3b bd 6a 93 87 bd 51 04 66 3d
       0.042545814 -0.045793954 -0.06619914 0.05615646
0001b0 13 54 c9 bd 66 04 11 bd c3 35 df bd 8d ae fd 3b
       -0.09830489 -0.035404585 -0.10898926 0.0077417553
0001c0 cd cd 44 3d 60 24 96 3d 10 4e 6c bd 17 ff 9e 3c
       0.04804783 0.07331157 -0.057691634 0.019408746
0001d0 2d 1b 93 3d c6 1c a5 3d b8 4d 05 be 1d 60 78 be
       0.07182918 0.08062129 -0.13017929 -0.24255414
0001e0 64 d3 ba bd 7a 09 9d 3e b7 53 22 be 84 55 33 3d
       -0.09122351 0.30671293 -0.15852247 0.043782726
0001f0 bd c6 ad be 71 54 87 bc ef 67 76 3d ba 19 51 3e
       -0.33940688 -0.016519757 0.060157713 0.2041997
000200 c7 14 2f 3d fc 09 44 3e e3 7a 82 3e b1 5e 24 be
       0.042744424 0.19144434 0.2548438 -0.16051747
000210 83 66 0f be 00 49 86 3e 9e 74 6a 3e ee e1 13 3d
       -0.14003949 0.2622757 0.22896048 0.036104135
000220 97 61 2e 3d 32 cb 26 3e 9e 01 ad be 9c 9b 0f 3e
       0.042573538 0.1628845 -0.33790296 0.14024204
000230 dd 0a 45 be 64 27 19 be e9 85 f0 bd a2 c8 3a be
       -0.19242425 -0.14956433 -0.11744291 -0.18240598
000240 80 99 90 bd 7e 73 b6 3c 3f 40 fb 3c 2e f6 c9 3d
       -0.07060528 0.022271868 0.030670283 0.09861408
000250 68 14 70 be ce c7 4c be 35 4c 46 bc 89 b0 26 bd
       -0.23445284 -0.19998094 -0.01210313 -0.0406957
000260 9e c6 ef bc a8 b8 68 3d fe 13 83 3d bc 9a ce bd
       -0.029269513 0.056816727 0.064002976 -0.10088107
000270 a8 b2 16 be e1 8f 80 3d 74 8a a8 3c 53 d9 50 bc
       -0.1471659 0.06277443 0.020573832 -0.012747127
000280 9f af 17 be ae 22 8b 3d 28 41 92 3d b8 6f 17 be
       -0.14813088 0.06793724 0.07141334 -0.14788711
000290 22 97 0d be 41 e6 53 3d dc 90 5d bd 87 24 e6 3d
       -0.13827184 0.05173326 -0.054093227 0.11237436
0002a0 80 89 d6 bd 30 2b c7 bc 29 c8 42 be 34 a0 7d be
       -0.10475445 -0.024312586 -0.19021668 -0.24768144
0002b0 20 10 8a be 4f e7 58 3d 87 de 09 bd df 2c 34 be
       -0.26965427 0.052954968 -0.033659484 -0.17595242
0002c0 6b 5d a8 3d dd 9d ec 3d de 3a 8a be d2 14 39 be
       0.08220943 0.115535475 -0.26998037 -0.18074349
0002d0 8f 4e 41 3e 35 d5 37 3e 1a d3 fa bc ff f2 f7 3d
       0.18877624 0.17952426 -0.03061824 0.12106895
0002e0 3c 23 b5 bd 4c a9 3d 3e 7e 2d 51 3e b8 1a 26 bc
       -0.08844611 0.18521613 0.2042751 -0.010138206
0002f0 79 5c ee bd ab 2a 4b 3d bb 74 9e 3d 08 23 0d be
       -0.116387315 0.04960124 0.07737108 -0.13782895
000300 7d 22 43 be 6c c8 a3 3e de c0 7a 3e 1c ec 05 3b
       -0.19056125 0.31988847 0.24487635 0.0020434922
000310 2a 05 35 bd d5 43 89 3d 09 0e 9f be 39 39 38 3c
       -0.044194378 0.06702391 -0.31065395 0.011244112
000320 57 c0 9c bd 17 d5 43 be 2e fc 86 bd 81 38 77 3d
       -0.076538734 -0.19124256 -0.06591068 0.06035662
000330 ba 89 03 3b f0 e8 12 be eb d6 c0 3d e5 81 a8 3d
       0.0020071105 -0.14346671 0.09415992 0.082279004
000340 12 1b 8c bd 48 88 61 be 12 10 1d 3e 80 45 09 3e
       -0.06841101 -0.22024643 0.15338162 0.13405418
000350 8d 48 e3 bd 29 54 c4 3d 85 64 a7 be 31 4e 7c 3e
       -0.11097822 0.09586365 -0.32693878 0.24639203
000360 a8 3e c3 3e 47 82 84 3e 2c 2c da bd be e7 d3 bd
       0.3813374 0.25880644 -0.10652956 -0.10346936
000370 d7 28 69 3e fe 22 92 be ef 8b ca be d8 b5 ca 3e
       0.22769485 -0.28542322 -0.39559886 0.3959186
000380 cf 38 ac 3e
       0.33637092

fc3.bias f4 [15]
000000 37 ad 77 be fb 89 df 3d ec 2f 81 bc 85 87 ad ba
       -0.2418717 0.109149896 -0.015769921 -0.001323924
000010 47 5a 86 3e 4c e6 d9 3d d6 80 b3 3e 44 3f b1 be
       0.2624075 0.10639629 0.35059232 -0.3461858
000020 94 5c a7 3d 53 fc 25 bd 04 e9 8b be 7a 5a 14 be
       0.08171955 -0.04052384 -0.27326214 -0.14487639
000030 e7 c1 cd bc 3b 16 8d be 4c 7c 8a 3e
       -0.025116874 -0.27556023 0.27047956

net.0.weight f4 [15, 95]
000000 39 e3 57 be 38 d9 4b 3c 4e 9c d4 bd 54 24 f7 bd
       -0.21082772 0.012441926 -0.10381375 -0.12067476
000010 fd cc 65 be ff 12 d7 3c 5c 6f a6 3d 73 9d e6 3c
       -0.22441478 0.026254175 0.08126709 0.02815125
000020 69 9d 23 3d d6 e3 5d bc 01 c8 dc 3d be 1a a7 bb
       0.03994504 -0.01354309 0.10780335 -0.0050996235
000030 f6 45 fe 3d 1e 47 00 be 63 a5 ae 3c 16 ea ff 3d
       0.12415688 -0.12527129 0.021319097 0.1249582
000040 c4 07 31 3e 57 8b 1c 3e b7 0b a3 bd fc b3 a0 bc
       0.17288119 0.15287529 -0.07961219 -0.019617073
000050 5c f3 18 be 01 0a 79 bd 74 9f 0a 3e 50 83 5e be
       -0.14936584 -0.060800556 0.13537389 -0.21729779
000060 ed 84 c9 bc 95 5c aa bd 35 bf ef 3d 3a 1f 40 bc
       -0.024599517 -0.0831844 0.11706392 -0.011726195
000070 39 36 14 be 5d ec cb 3d 55 e3 48 3e 9d b6 2f 3e
       -0.1447381 0.09957192 0.1961797 0.17159505
000080 06 d1 92 3e 15 76 4a bb 19 38 8c 3d b9 1e be bd
       0.28675097 -0.0030893136 0.06846637 -0.09283204
000090 38 6c 47 3e 68 0f 2a 3e 37 ad bb 3d b4 63 6e 3e
       0.19474876 0.1660744 0.091638975 0.23280221
0000a0 a9 f5 4f 3d 1e c3 9f bd 78 af 37 3c 1f f9 c6 3d
       0.05077139 -0.078008875 0.011211269 0.09715485
0000b0 a8 79 57 bd 83 d4 37 bd 32 b7 d1 3d 1d d4 34 3e
       -0.052606255 -0.0448804 0.1024002 0.1765904
0000c0 f7 36 97 3e 63 98 2a 3e ee 13 d2 bd cd 51 91 3d
       0.29534122 0.16659693 -0.102577075 0.070956804
0000d0 0a 2a 85 bb 3e 09 95 3c 90 e4 99 3d b3 9e 88 3a
       -0.0040638493 0.018192884 0.07514298 0.0010423273
0000e0 39 c8 87 3c 00 7c bb 3d a8 2d 7d bd c8 d6 67 3d
       0.016574966 0.091545105 -0.06181112 0.056601316
0000f0 41 7a fa 3d 29 30 87 3d 2a ed 06 3d c6 81 d9 3c
       0.12230349 0.06600983 0.03294102 0.026551139
000100 ba 89 c3 3d 7e 4f 7c 3b 24 ab d9 3c fb 15 dc 3c
       0.09547754 0.003849953 0.026570864 0.02686595
000110 4b cf d7 3c e8 ed 5e bb b4 1e 23 3b be 83 be 3b
       0.026343962 -0.0034016315 0.0024890127 0.0058140447
000120 7c cb d7 3c 30 a9 3a bb 39 b4 d4 ba b5 d2 12 3b
       0.026342146 -0.0028482191 -0.0016228027 0.0022403423
000130 3a 13 d7 3c 30 24 13 3c bd 1f 34 bc 96 a8 39 3e
       0.026254285 0.008980796 -0.010993895 0.18130717
000140 a9 5d 3e 3d 1b d1 4a 3b 77 9f db bc 4b e1 32 bd
       0.04647604 0.003094739 -0.026809437 -0.043671887
000150 d6 f6 b9 3c cc b1 8e bb dd 3c 4f bb 3b 81 84 bc
       0.022700708 -0.004354691 -0.003162197 -0.016174903
000160 5b b7 34 3d ee 66 84 bb 9c 92 db bc f4 6c 93 bc
       0.044120174 -0.0040405905 -0.026803307 -0.017996289
000170 fd 23 b1 3b 78 45 dd 3a 3f 63 9c bd 58 e6 3b 3e
       0.0054059015 0.0016881665 -0.07636117 0.18349588
000180 3a 59 15 3e 7d f1 40 3e 6e 6a 77 3e 03 4a 49 3e
       0.14584818 0.1884212 0.24161693 0.1965714
000190 cb 43 16 3e 05 28 5b bb 18 8d 11 3e 23 1c 51 3d
       0.14674298 -0.0033440602 0.14213979 0.051052224
0001a0 a6 85 e9 bc 3e 79 b8 bd 0e 30 75 3c 16 9c 74 be
       -0.028506111 -0.090075 0.01496507 -0.23887667
0001b0 02 1f 22 3e 01 98 e5 3b ab f6 2e be 68 d0 79 be
       0.15832141 0.0070066457 -0.17086284 -0.24395907
0001c0 bd b5 25 be 57 f5 a3 3d cf 2e 8c 3d 3a d5 3c 3e
       -0.16182609 0.08005779 0.068448655 0.18440714
0001d0 ad f9 3b 3e a4 a3 19 be a5 49 0f 3e 99 60 a5 bc
       0.18356963 -0.1500383 0.13992937 -0.020187663
0001e0 f9 b3 04 3e 53 fc 0b 3e 00 3c 91 bc 0e 75 81 3e
       0.12959279 0.13670473 -0.017728806 0.25284618
0001f0 66 16 19 be 9f 89 98 be a2 87 02 be 49 eb 39 be
       -0.1494995 -0.29792497 -0.12747052 -0.1815616
000200 cf 21 b3 3c 1b 70 ca 3d 40 e0 75 3e de 13 2d be
       0.021866707 0.09884664 0.24011326 -0.1690211
000210 50 c5 d5 bd 8a b9 41 bd f5 1d 89 bd 41 7a 99 3b
       -0.10438025 -0.047296084 -0.06695167 0.0046837633
000220 5c 04 2b 3e c8 be f4 3d 06 f8 99 3d 80 35 0e 3e
       0.16700882 0.11950451 0.0751801 0.13887596
000230 18 33 b3 bd ef 85 42 be 49 ac 23 be f1 e7 98 be
       -0.0874998 -0.18996404 -0.1598369 -0.29864457
000240 9a 91 7a be 91 91 6a 3d 95 1e aa bd 27 cf bf 3d
       -0.24469605 0.05726773 -0.08306614 0.09365683
000250 b2 31 0e bd 40 7f b2 3d 8a 19 b9 3c 13 36 b8 bc
       -0.034715362 0.08715677 0.022595186 -0.022486722
000260 2f 37 da bd a8 12 b1 3d c5 78 c6 bd 66 4f 01 be
       -0.10655057 0.086461365 -0.09691004 -0.12627944
000270 c4 0a 90 bc 2d b3 dd bd c9 70 fa 3b f4 1d c7 bd
       -0.017583258 -0.10825191 0.0076428396 -0.0972251
000280 bb a9 d0 bc 17 77 95 bb ca 1d fe bb c9 7b 46 3a
       -0.025471559 -0.0045613158 -0.007755016 0.0007571546
000290 9f 3a a6 3c 18 06 96 bb 18 8f 19 bb 00 8b a1 bc
       0.020291625 -0.004578363 -0.0023431238 -0.0197196
0002a0 e4 3d 94 3a 07 1d 22 bb b0 cf 8f bb aa ed a7 ba
       0.0011309949 -0.002473654 -0.004388772 -0.0012811918
0002b0 23 72 c7 bc 2e ef 27 3b b8 5e 07 be 12 44 a8 3b
       -0.024346417 0.002562474 -0.13219726 0.0051350677
0002c0 a4 1f 7d ba ee 16 4c 3b 48 a8 d1 3d 24 ec a5 3a
       -0.0009655899 0.0031141597 0.10237175 0.0012658876
0002d0 5e 67 b0 bc b7 6a 23 bb 7d 1a c0 bc 3d e0 18 bd
       -0.021533664 -0.0024935433 -0.02345013 -0.037323225
0002e0 38 01 d7 bc f7 a5 06 3b 9b 59 e3 bb 09 a0 79 3b
       -0.026245698 0.00205457 -0.006938172 0.0038089773
0002f0 b6 d7 09 3c 3e 57 25 3e 8e b2 2b be 2e da b3 bc
       0.008413246 0.16146562 -0.16767332 -0.021954622
000300 32 ed 0e be db d8 1d be 1f 4d 6a be ed 54 d5 3c
       -0.1395767 -0.15414755 -0.22880982 0.026041472
000310 00 89 ff 3d d9 68 cd 3d 4c 78 0c 3b 86 9d 49 bc
       0.124773026 0.10029764 0.0021434007 -0.012305623
000320 e1 c3 76 3e a3 65 09 bc a6 80 fe 3d 02 86 f7 bd
       0.2409816 -0.0083860485 0.124268815 -0.12086107
000330 e6 7f 7e bb 12 ba 3d 3e bb 44 01 3e f0 35 70 3e
       -0.0038833558 0.18528011 0.12623875 0.23458076
000340 8c 03 a1 ba 78 6b b0 3c 64 b8 da bd c3 30 e8 bd
       -0.0012284382 0.02153562 -0.10679701 -0.113374256
000350 31 94 f7 3d 52 16 f0 bd a7 03 1c 3a 9b 64 ef bd
       0.12088812 -0.11723007 0.0005951472 -0.11689111
000360 f9 53 6e 3d 6a 72 e9 ba 58 17 47 be 48 66 59 3e
       0.05818555 -0.0017810587 -0.19442499 0.21230423
000370 6f 65 8a 3e bf c3 39 3e 4a 62 28 3e 9c fc 35 3c
       0.27030513 0.18141077 0.16443744 0.01110759
000380 38 da a6 3d 9c 18 77 bd d1 a3 61 3e fd 0b 0f 3e
       0.08147091 -0.060326204 0.22035147 0.13969417
000390 7e b8 52 3e 25 23 35 3e 4e 3f 47 3e a9 1c 17 be
       0.2057819 0.17689188 0.19457743 -0.14757027
0003a0 47 f9 c1 bd 9f 12 29 3e a5 c1 8f bd b9 7a c8 3c
       -0.09471374 0.1651101 -0.07019357 0.024472581
0003b0 8d b5 c6 3d eb 9e 0a 3e 47 f1 6d 3e c4 89 9e 3e
       0.09702597 0.13537185 0.23236571 0.30964482
0003c0 82 b2 c2 bd 1d 76 37 3e 52 9d b2 3c c5 0e 02 3e
       -0.09506704 0.1791615 0.021803532 0.12700947
0003d0 ae 7d 6d 3d cc 86 ca bc 67 a3 e9 3d a3 ad 09 3e
       0.057981186 -0.02472248 0.1140812 0.13445143
0003e0 12 b0 c4 bd ff 17 e3 3d c1 40 fc 3d 1c 94 b7 3d
       -0.09603895 0.11088561 0.12317038 0.089637965
0003f0 f5 ae 02 3e b4 45 6b 3b b1 96 10 3e bb 41 c6 b9
       0.12762053 0.00358997 0.14119984 -0.00037814476

net.0.bias f4 [15]
000000 98 cb e7 3d 3d 41 ad 3d 7b af d3 3d b7 df 69 3d
       0.11318129 0.08459709 0.103362046 0.057098117
000010 fd 00 8d bb e9 a5 15 bd 87 99 a9 3d d1 0a 9a bc
       -0.0043030963 -0.036535177 0.08281236 -0.018803986
000020 62 61 9a bc 35 da 42 bd 79 0b f1 3c 15 e0 aa bd
       -0.018845264 -0.04757138 0.029424416 -0.083435215
000030 3c 3d 24 3d 41 eb 05 3e 0c ff 6a 3d
       0.04009746 0.13078023 0.057372138

net.3.weight f4 [15, 15]
000000 af cf a5 3c c5 66 46 be b8 99 37 bd 6a bf 0f be
       0.020240633 -0.19375141 -0.044824332 -0.14037862
000010 ee 10 87 3e d9 88 77 bd 45 d8 53 3d 62 57 13 be
       0.26380104 -0.060433242 0.051719923 -0.14388803
000020 3b 8c e0 bd 8e 6f 00 bd 7d f7 39 3d df d8 3e bd
       -0.10964247 -0.031356387 0.04540204 -0.046593543
000030 de 68 36 3e e6 0f af bb 65 f0 ca bd b4 1a 8d 3c
       0.17813441 -0.0053424714 -0.09909133 0.017224647
000040 57 a3 22 bd af b7 b5 3d d2 e0 d4 3d 92 c3 8e 3e
       -0.039706554 0.088729255 0.103944436 0.27883583
000050 44 21 36 3d c2 70 1a be 48 80 19 3e d3 78 26 bc
       0.04446532 -0.15082076 0.14990342 -0.010160643
000060 e7 d9 15 3c b2 02 b6 bd 0d 90 eb 3d 91 5c 8d 3e
       0.00914619 -0.08887233 0.11502085 0.27609685
000070 a9 18 f6 3d 82 0a 7d be 6b 9b 86 be 01 85 8a 3e
       0.12016422 -0.2471104 -0.2629045 0.270546
000080 c7 69 6f be 2b 07 ef bd 99 f0 21 be e1 ea 73 3d
       -0.23380195 -0.11671289 -0.15814437 0.05955017
000090 2f 75 92 3c 9b 56 ad bd fc 1c fc 3d a8 be 38 3d
       0.017878143 -0.08463784 0.12310216 0.0451037
0000a0 76 cc 0b be 01 0f 98 3c af d0 5d bd 28 b7 16 be
       -0.13652214 0.018561842 -0.054154094 -0.14718306
0000b0 c4 03 e7 3d fc ee 88 3e 3a da 31 be 50 9a ce 3e
       0.11280015 0.2674483 -0.17368403 0.40352106
0000c0 d5 b6 1a 3e 93 cf c8 3e 12 46 ae bc d9 d4 c7 bc
       0.15108807 0.39220867 -0.021273647 -0.024393486
0000d0 30 65 c9 3d 60 a9 08 bd 5c 06 e1 3d 3a 80 9f 3e
       0.09833753 -0.033364654 0.10987541 0.31152517
0000e0 92 48 85 bc b6 98 4f 3e f9 be a6 3e 7b a9 4e bd
       -0.016269956 0.20273098 0.32567576 -0.050454598
0000f0 e7 08 b3 be f7 ec 00 3e fe 8e 9f be bb 29 6c be
       -0.3496773 0.12590395 -0.31163782 -0.23062794
000100 e1 a3 71 be ff b5 67 3d a2 d9 7d bc 8d 9e cc 3c
       -0.23597671 0.05657005 -0.015493782 0.024977947
000110 90 b3 98 3d 2f fe be bd 9b 2f dd bd 28 8b d9 bd
       0.07456124 -0.093258254 -0.10800096 -0.10622245
000120 4f 0e 06 be ed cc 11 bd 4a ca 67 3e 29 4f 2e bd
       -0.13091396 -0.035595823 0.22635761 -0.04255596
000130 16 3d 65 be 48 4c 57 3e 5a 06 84 bd b6 9c 9b 3e
       -0.22386584 0.21025193 -0.06446524 0.30392998
000140 9b aa 5b bd 00 26 8b 3d 57 3f 15 bd 05 a0 af bd
       -0.0536295 0.06794357 -0.03643736 -0.08575443
000150 c1 b6 ab 3d 80 bb aa 3e 6e 88 ee bd 45 f2 27 3e
       0.08384467 0.33346176 -0.11647116 0.16401012
000160 87 8b a3 bd 8a aa 3f be 79 fc b4 bc c9 e9 86 be
       -0.07985597 -0.18717399 -0.022093045 -0.2635024
000170 0b 44 97 3e a8 61 ab 3e 60 45 d5 3e ee 4f dd bd
       0.295441 0.33472943 0.4165449 -0.10806261
000180 25 65 11 3e cb da c4 bd 98 30 0b be 46 ca 5f 3c
       0.1419874 -0.09612044 -0.13592756 0.013659066
000190 4d 7d b0 bd e0 4c 75 3d 21 c6 84 3e 71 9d b6 3d
       -0.08617649 0.059887767 0.2593241 0.08916748
0001a0 28 78 f8 bd a5 2f 54 3e bd 04 8b be 8f 72 ad 3e
       -0.12132293 0.207213 -0.27152053 0.33876464
0001b0 a3 2a 79 3e cb 9d a9 3e 00 6f 80 be 4d 1c 8e 3e
       0.24332671 0.331282 -0.25084686 0.27755967
0001c0 0b 16 c5 3d 7f 19 c1 bd ef d5 e1 3c 82 a0 7d 3e
       0.09623345 -0.09428691 0.027567832 0.2476826
0001d0 82 81 a1 3c 13 20 3d 3d b6 e5 63 3e 4a 81 83 be
       0.019715074 0.046173166 0.22255597 -0.25684577
0001e0 5d a4 2e bd b2 9c 4c 3d ab ea 92 3d 4f a7 7b 3d
       -0.042637218 0.049954124 0.071736656 0.061438855
0001f0 c6 15 bc bc 93 e5 fe 3c 82 77 0b be 39 56 f7 bd
       -0.022959601 0.031115329 -0.13619807 -0.120769925
000200 d2 cc 0d 3d dd 2b b2 3c d8 7f 27 be 3d 68 87 bd
       0.03461916 0.021749431 -0.16357362 -0.06611679
000210 39 02 4d bc ec 17 ea bd aa be c9 3d 4d ab 12 bd
       -0.012512737 -0.11430344 0.098508194 -0.035807896
000220 12 d1 58 bc 83 8a a8 3d cb 52 e8 3d 60 e1 8a 3d
       -0.01323344 0.08229544 0.113439165 0.06781268
000230 b2 b1 c8 bb 47 68 60 bd e1 0e 9f bd ea a5 1f bd
       -0.0061246986 -0.054786947 -0.0776651 -0.038976587
000240 7b 72 a4 3c 69 88 2e bd ec 4f dc 3d 83 95 48 bd
       0.02007412 -0.04261056 0.107574314 -0.04897071
000250 02 f8 f8 bd 9e d5 1a 3d bc c2 ab 3e ce 5c 07 be
       -0.12156679 0.037801377 0.33547008 -0.13218996
000260 ef 31 8a 3e fd 74 92 3e 95 f5 bd 3e c7 9b db bd
       0.2699122 0.2860488 0.37101427 -0.107230715
000270 b8 90 96 3e ad af 65 3e 40 c1 c7 bd ec 71 d0 3d
       0.29407287 0.22430296 -0.097536564 0.10177979
000280 da 72 8e bd 66 ec 59 bb 3e 58 a7 3e 87 cf 06 3e
       -0.069555 -0.0033252477 0.3268451 0.13165103
000290 49 4b 96 be 0a f7 0e be a7 30 47 3e 93 81 04 be
       -0.29354313 -0.13961425 0.19452153 -0.12940054
0002a0 08 d8 b2 bd 17 c8 d8 bd 22 50 44 ba f9 30 ee bd
       -0.08732611 -0.10585039 -0.00074887474 -0.116304345
0002b0 65 f9 1f 3c 84 eb db 3d d2 96 9d bd 81 5f 7f 3d
       0.00976405 0.107382804 -0.07694782 0.06234694
0002c0 22 81 60 bd 34 a6 0d be f6 cf 89 bd a9 3a 41 3d
       -0.05481065 -0.13832933 -0.067291185 0.047175083
0002d0 8b 73 96 be 96 9e 96 3e f3 1c 9b be 76 19 27 3d
       -0.29385027 0.29417866 -0.30295524 0.040795766
0002e0 af 45 4d bd 82 ec e7 3d 2d 72 41 be d8 4e 4d bd
       -0.050115284 0.11324407 -0.18891211 -0.05012402
0002f0 8d f9 7e 3d fa 98 d7 3c 4c bc f6 bd 00 d6 16 bc
       0.06224971 0.026318062 -0.120476335 -0.009206295
000300 7d e7 c4 bb 29 cf 4a be 6f bc 43 3e f8 59 82 bb
       -0.006009041 -0.19805588 0.1911485 -0.0039780103
000310 ff 6f ab be 69 b2 a7 3e 6c e3 0f bc f4 76 a7 3e
       -0.33483884 0.32753304 -0.008782249 0.32707942
000320 41 7d af be 93 13 82 3e 45 de 37 3e bf cd e1 bd
       -0.3427525 0.2540556 0.17955883 -0.11025571
000330 a0 ff 05 bd c7 fb 9f 3e 52 91 e1 bd 73 de 7b 3e
       -0.032714486 0.31246778 -0.11014046 0.24596576
000340 0c fc 48 3e 06 33 26 be 53 62 a9 3e e9 5b 49 be
       0.19627398 -0.16230401 0.33082828 -0.19663967
000350 5e c7 63 3e 02 42 a6 3d ac 2d 1f bd 63 55 61 be
       0.22244021 0.08118059 -0.038861915 -0.22005229
000360 e5 cb b0 3d f2 70 96 3d 37 72 38 bd a4 a8 29 3d
       0.0863264 0.07345761 -0.0450308 0.041420594
000370 4b ec 9b 3e 11 d9 c5 3d 44 78 78 3e 98 de 82 3e
       0.30453715 0.09660543 0.24264628 0.2556045
000380 1c 76 55 bd
       -0.05211459

net.3.bias f4 [15]
000000 e4 43 13 3e dd 8a 96 3d 0e 24 24 be 4a 95 ae 3d
       0.14381367 0.07350705 -0.16029379 0.085245684
000010 06 7d 86 be 9f 2b 5e 3e ba 75 74 3d 50 a5 39 3c
       -0.2626726 0.21696328 0.059682585 0.0113309175
000020 6d 82 dc 3c e5 91 00 be 68 b0 84 3e cd de 37 3d
       0.02691766 -0.12555654 0.25915837 0.044890214
000030 b9 59 07 be 49 89 09 3e 84 f4 1f 3e
       -0.1321782 0.13431276 0.15620619

net.6.weight f4 [15, 15]
000000 08 bd 15 be 92 91 96 bd a3 45 10 bd c0 6d cb be
       -0.14622891 -0.07351984 -0.03522266 -0.3973217
000010 f9 30 e9 3d 21 cd a7 bd 9d 32 d9 bd 0d 35 80 be
       0.11386294 -0.08193422 -0.10605357 -0.25040475
000020 c3 76 aa 3d 93 cc 5a bd ab 9a 89 be f9 58 b3 3d
       0.08323433 -0.053417753 -0.26875815 0.087572046
000030 c0 f2 38 3d d6 40 5f be 1f 1d 8b be 83 36 53 3d
       0.04515338 -0.21802077 -0.27170655 0.05156566
000040 88 88 e6 3d a7 9a 5f bd ab d8 9d 3e 24 ff cb 3c
       0.1125651 -0.054590847 0.30829367 0.024901934
000050 70 cb ae 3e 71 19 9b 3e eb 29 9c 3e ea 83 b1 3d
       0.34139585 0.30292848 0.3050073 0.08667739
000060 38 4f 29 3e de 99 ab 3e d6 04 cc bc 32 09 bf be
       0.16534126 0.3351583 -0.02490465 -0.37311703
000070 28 7f ee 3c 82 dc 63 3e a2 ff d3 3d 5a a8 57 3e
       0.029113367 0.22252086 0.103514925 0.21060315
000080 c2 d5 c6 bd 02 2a db bc aa e2 ca bd ce cf 54 3e
       -0.0970874 -0.02675343 -0.09906514 0.20782396
000090 db 0b a4 3c 5d a4 08 3d 0a 91 ea bc ba db e4 3c
       0.020025184 0.033359874 -0.028633613 0.027936805
0000a0 26 78 78 3e f2 67 aa bd b7 d1 e7 bd 99 d2 a0 3e
       0.24264583 -0.08320607 -0.11319297 0.31410673
0000b0 47 15 a5 3d 30 0e ff bd 47 35 25 be 04 7f 13 3e
       0.08060699 -0.12453878 -0.16133605 0.14403921
0000c0 96 ec cf be db 56 ec 3d cc 7f 16 bd 01 8a 6a be
       -0.40610188 0.11540004 -0.03674297 -0.22904207
0000d0 91 57 82 be 5e 7a fc 3d 20 06 a1 bd 27 bf a7 be
       -0.25457433 0.12328027 -0.078624964 -0.32763025
0000e0 48 95 3f 3d 74 b2 d5 3d 88 76 cc bd 82 a5 97 be
       0.046773225 0.10434428 -0.099835455 -0.2961846
0000f0 18 32 0e 3e bd 8d b8 bd ba ed af be 49 f9 e4 3d
       0.13886297 -0.090114094 -0.34361058 0.1118036
000100 da a5 67 bd 1a c8 8d 3d 78 e9 7f 3e 0a b5 27 3e
       -0.056554653 0.06922932 0.24991405 0.16377655
000110 88 f3 b9 bd 35 94 fb bd 85 66 8b 3e ff bc 6c ba
       -0.09079653 -0.122841276 0.27226654 -0.0009030848
000120 54 82 c5 be dd 93 a6 3e eb 36 b2 bb 9f fb 9e be
       -0.38575995 0.32534686 -0.0054386756 -0.31051347
000130 66 16 2e 3e c1 9b 92 3e 8a 02 9f be 47 bd 66 3e
       0.17000732 0.28634456 -0.31056625 0.22533141
000140 ee a8 cb 3b c8 d6 f0 bd 5a da d3 bd 44 92 bf 3d
       0.0062152063 -0.11759716 -0.10344382 0.0935407
000150 6c 9c 0b bd 82 32 ec 3d a0 0d 4d 3e 50 c5 3e 3e
       -0.034084722 0.11533071 0.20024729 0.18629956
000160 6b e1 82 be 50 23 f4 bc 6f f7 e2 bd 8d a7 fb bb
       -0.25562605 -0.029801995 -0.110823505 -0.0076798857
000170 9c 82 98 be df 89 fa 3b ee ed a6 be 7a c3 81 3e
       -0.29787147 0.00764583 -0.326034 0.2534445
000180 0d 8e 18 3e 3f 59 9e 3e 85 36 0c be 90 05 d0 bd
       0.14897938 0.30927464 -0.13692673 -0.10157311
000190 54 79 9b 3d 90 27 78 be 90 3b 1d be e5 76 aa 3d
       0.07591501 -0.24233842 -0.15354753 0.083234586
0001a0 85 44 2e 3d 71 92 3b bd 6a 93 87 bd 51 04 66 3d
       0.042545814 -0.045793954 -0.06619914 0.05615646
0001b0 13 54 c9 bd 66 04 11 bd c3 35 df bd 8d ae fd 3b
       -0.09830489 -0.035404585 -0.10898926 0.0077417553
0001c0 cd cd 44 3d 60 24 96 3d 10 4e 6c bd 17 ff 9e 3c
       0.04804783 0.07331157 -0.057691634 0.019408746
0001d0 2d 1b 93 3d c6 1c a5 3d b8 4d 05 be 1d 60 78 be
       0.07182918 0.08062129 -0.13017929 -0.24255414
0001e0 64 d3 ba bd 7a 09 9d 3e b7 53 22 be 84 55 33 3d
       -0.09122351 0.30671293 -0.15852247 0.043782726
0001f0 bd c6 ad be 71 54 87 bc ef 67 76 3d ba 19 51 3e
       -0.33940688 -0.016519757 0.060157713 0.2041997
000200 c7 14 2f 3d fc 09 44 3e e3 7a 82 3e b1 5e 24 be
       0.042744424 0.19144434 0.2548438 -0.16051747
000210 83 66 0f be 00 49 86 3e 9e 74 6a 3e ee e1 13 3d
       -0.14003949 0.2622757 0.22896048 0.036104135
000220 97 61 2e 3d 32 cb 26 3e 9e 01 ad be 9c 9b 0f 3e
       0.042573538 0.1628845 -0.33790296 0.14024204
000230 dd 0a 45 be 64 27 19 be e9 85 f0 bd a2 c8 3a be
       -0.19242425 -0.14956433 -0.11744291 -0.18240598
000240 80 99 90 bd 7e 73 b6 3c 3f 40 fb 3c 2e f6 c9 3d
       -0.07060528 0.022271868 0.030670283 0.09861408
000250 68 14 70 be ce c7 4c be 35 4c 46 bc 89 b0 26 bd
       -0.23445284 -0.19998094 -0.01210313 -0.0406957
000260 9e c6 ef bc a8 b8 68 3d fe 13 83 3d bc 9a ce bd
       -0.029269513 0.056816727 0.064002976 -0.10088107
000270 a8 b2 16 be e1 8f 80 3d 74 8a a8 3c 53 d9 50 bc
       -0.1471659 0.06277443 0.020573832 -0.012747127
000280 9f af 17 be ae 22 8b 3d 28 41 92 3d b8 6f 17 be
       -0.14813088 0.06793724 0.07141334 -0.14788711
000290 22 97 0d be 41 e6 53 3d dc 90 5d bd 87 24 e6 3d
       -0.13827184 0.05173326 -0.054093227 0.11237436
0002a0 80 89 d6 bd 30 2b c7 bc 29 c8 42 be 34 a0 7d be
       -0.10475445 -0.024312586 -0.19021668 -0.24768144
0002b0 20 10 8a be 4f e7 58 3d 87 de 09 bd df 2c 34 be
       -0.26965427 0.052954968 -0.033659484 -0.17595242
0002c0 6b 5d a8 3d dd 9d ec 3d de 3a 8a be d2 14 39 be
       0.08220943 0.115535475 -0.26998037 -0.18074349
0002d0 8f 4e 41 3e 35 d5 37 3e 1a d3 fa bc ff f2 f7 3d
       0.18877624 0.17952426 -0.03061824 0.12106895
0002e0 3c 23 b5 bd 4c a9 3d 3e 7e 2d 51 3e b8 1a 26 bc
       -0.08844611 0.18521613 0.2042751 -0.010138206
0002f0 79 5c ee bd ab 2a 4b 3d bb 74 9e 3d 08 23 0d be
       -0.116387315 0.04960124 0.07737108 -0.13782895
000300 7d 22 43 be 6c c8 a3 3e de c0 7a 3e 1c ec 05 3b
       -0.19056125 0.31988847 0.24487635 0.0020434922
000310 2a 05 35 bd d5 43 89 3d 09 0e 9f be 39 39 38 3c
       -0.044194378 0.06702391 -0.31065395 0.011244112
000320 57 c0 9c bd 17 d5 43 be 2e fc 86 bd 81 38 77 3d
       -0.076538734 -0.19124256 -0.06591068 0.06035662
000330 ba 89 03 3b f0 e8 12 be eb d6 c0 3d e5 81 a8 3d
       0.0020071105 -0.14346671 0.09415992 0.082279004
000340 12 1b 8c bd 48 88 61 be 12 10 1d 3e 80 45 09 3e
       -0.06841101 -0.22024643 0.15338162 0.13405418
000350 8d 48 e3 bd 29 54 c4 3d 85 64 a7 be 31 4e 7c 3e
       -0.11097822 0.09586365 -0.32693878 0.24639203
000360 a8 3e c3 3e 47 82 84 3e 2c 2c da bd be e7 d3 bd
       0.3813374 0.25880644 -0.10652956 -0.10346936
000370 d7 28 69 3e fe 22 92 be ef 8b ca be d8 b5 ca 3e
       0.22769485 -0.28542322 -0.39559886 0.3959186
000380 cf 38 ac 3e
       0.33637092
