bestclf/bestclf_german_005.pth (torch, 27134 bytes, 23 tensors)

fc1.weight f4 [40, 45]
0.03999205 -0.096232414 -0.047369495 0.08570113 -0.12374341 -0.028836543 0.121732496 0.0121339625
0.016859539 -0.014571718 -0.051565625 -0.073566176 0.06292296 -0.032525793 0.040754896 -0.14967239
0.013713081 0.111369535 -0.045675978 -0.08932835 0.0340716 0.014807466 0.11397465 0.07423955
-0.07281361 0.05491132 -0.13677293 0.17311154 -0.13068861 0.032883104 -0.008372024 0.12375331
-0.08586445 -0.054542363 -0.08492822 -0.08697588 0.12523316 -0.13038605 -0.0304009 -0.14192106
0.10776346 -0.018659009 -0.11251265 0.12972915 -0.0002639995 -0.028139742 0.029069774 -0.15569992
-0.083569564 0.04579334 0.11240226 -0.10299591 0.0108166905 -0.05361397 -0.09757754 0.093981035
0.05825305 0.005883331 -0.15832922 0.11361678 -0.14278921 0.015040303 -0.11136314 -0.087457694
0.096562594 -0.041929156 -0.11907686 -0.056028508 0.1507171 -0.14075772 -0.16441649 0.05332038
0.13220954 0.10153745 0.12276735 0.14395317 0.0046094074 -0.15689546 -0.081327684 -0.14668414
0.10235932 -0.085998476 0.09812551 0.107172385 0.03311424 -0.1003701 -0.0015508708 0.009624532
0.099335715 -0.14463077 -0.09080887 0.10922078 -0.12795572 -0.08015322 -0.018041907 0.085135706
-0.1716106 -0.054006554 -0.08279065 -0.09787533 0.025108913 0.0057811467 -0.07863827 -0.018441187
-0.108854234 -0.057315487 -0.031421874 0.034789823 -0.054099023 0.02256639 -0.11820464 0.078681424
-0.018480288 0.12725121 0.08908874 0.03529014 -0.10925029 -0.13362797 0.009113273 0.14002651
-0.064061515 0.017345915 -0.07112963 -0.13167804 0.03781208 -0.14267156 0.07765226 0.0038508286
-0.14184621 -0.031056944 -0.16835919 0.124844775 0.1089799 0.12210646 0.12284761 0.011759247
-0.10798021 0.1682866 0.10500165 -0.07757498 -0.11893432 0.081649534 -0.038752835 0.0019303799
-0.0577425 -0.068508916 -0.01907495 0.018546047 0.021992465 -0.07086623 -0.14785835 -0.119742535
-0.042420212 -0.05330359 0.14265515 -0.08563072 -0.12766956 -0.081100695 0.09580392 -0.10601165
0.0064524612 0.005169195 -0.12286234 -0.08025429 0.13195705 0.075953685 -0.05129335 -0.11759646
-0.12170435 -0.08868506 -0.11536475 -0.112556666 0.13548242 0.09638753 -0.07946271 -0.053782728
0.097734444 -0.057933386 -0.086432666 -0.13146532 -0.08735098 -0.10297824 -0.04888592 -0.08194495
-0.037267476 -0.045519702 -0.08031406 0.074213535 -0.13831718 -0.13339788 -0.06288374 0.094064645
0.12022973 0.10763978 -0.06718935 0.05946181 0.073908776 -0.09552905 0.15103254 0.030220447
0.09687731 -0.043122467 0.049424537 0.04350129 -0.072313346 -0.12156375 -0.013929263 -0.02851126
0.0014275331 0.0043723723 0.113103524 0.092227705 -0.07817586 0.011750256 -0.16168196 0.14770609
0.064610496 0.15178117 -0.07741268 0.08553374 0.13505161 0.111220285 -0.10718732 0.117179446
-0.014588862 -0.05895236 -0.072265305 0.12090833 0.11676259 -0.043936376 -0.1365272 0.16420373
0.06698735 -0.10684633 0.09397415 0.009934691 0.11945541 0.12191283 -0.034997106 -0.047734868
-0.10387328 -0.12763283 -0.019668467 0.0896626 0.04579478 0.11441486 -0.050586425 -0.1121697
-0.08102407 -0.088635944 0.086141326 -0.0017695521 0.14695877 0.060808297 0.024869297 -0.10482877
00000000: b4ce 233d 8015 c5bd 8406 42bd 1384 af3d
00000010: 2f6d fdbd 9d3a ecbc e34e f93d 87cd 463c
00000020: 041d 8a3c 37be 6ebc 7a36 53bd dda9 96bd
00000030: c1dd 803d c439 05bd 9bee 263d b843 19be
00000040: d5ac 603c b615 e43d bc16 3bbd c8f1 b6bd
00000050: a98e 0b3d 049b 723c 8b6b e93d e80a 983d
00000060: 4d1f 95bd b1ea 603d 340e 0cbe 2744 313e
00000070: 3cd3 05be 6fb0 063d d02a 09bc 6072 fd3d
00000080: b3d9 afbd d067 5fbd d9ee adbd 6920 b2bd
00000090: 1f3d 003e ec83 05be 4f0b f9bc c153 11be
000000a0: 17b3 dc3d c7da 98bc 086d e6bd b8d7 043e
000000b0: 6a69 8ab9 5185 e6bc bc23 ee3c cd6f 1fbe
000000c0: 8526 abbd cc91 3b3d 2833 e63d 85ef d2bd
000000d0: 7d38 313c 529a 5bbd bcd6 c7bd 2179 c03d
000000e0: c09a 6e3d f5c8 c03b 0e21 22be eaaf e83d
000000f0: 5637 12be 9a6b 763c 5c12 e4bd 051d b3bd
00000100: 9cc2 c53d e8bd 2bbd 92de f3bd 267e 65bd
00000110: 9555 1a3e cb22 10be cc5c 28be 7966 5a3d
00000120: f061 073e def2 cf3d 736d fb3d 7668 133e
00000130: 830a 973b 34a9 20be 218f a6bd 5e34 16be
00000140: c3a1 d13d f81f b0bd 07f6 c83d 327d db3d
00000150: cca2 073d d78e cdbd 9746 cbba 37b0 1d3c
00000160: 8670 cb3d 171a 14be 00fa b9bd 25af df3d
00000170: d306 03be 5f27 a4bd 9fcc 93bc a15b ae3d
00000180: b0ba 2fbe fa35 5dbd 258e a9bd dc72 c8bd
00000190: 35b1 cd3c c66f bd3b 1a0d a1bd f911 97bc
000001a0: f8ee debd a5c3 6abd 39b4 00bd c67f 0e3d
000001b0: f096 5dbd 26dd b83c 4615 f2bd ba23 a13d
000001c0: f963 97bc 244e 023e 2874 b63d 658c 103d
000001d0: 9ebe dfbd c5d5 08be d64f 153c 1c63 0f3e
000001e0: af32 83bd 0519 8e3c 69ac 91bd 9cd6 06be
000001f0: d7e0 1a3d 7e18 12be 2608 9f3d 2f5e 7c3b
00000200: 2240 11be 226b febc 5a66 2cbe 9eae ff3d
00000210: db30 df3d f412 fa3d 8797 fb3d dba9 403c
00000220: ba24 ddbd 5353 2c3e 1b0b d73d a2df 9ebd
00000230: d693 f3bd df37 a73d 4bbb 1ebd cd04 fd3a
00000240: 6683 6cbd 674e 8cbd 1243 9cbc e1ed 973c
00000250: 8b29 b43c 5022 91bd 2e68 17be 933b f5bd
00000260: d1c0 2dbd dd54 5abd 3114 123e 295f afbd
00000270: cfbb 02be 1f18 a6bd d834 c43d a31c d9bd
00000280: 2b6f d33b 5a62 a93b 409f fbbd 5c5c a4bd
00000290: c01f 073e 9b8d 9b3d fa18 52bd 6ad6 f0bd
000002a0: 2140 f9bd 83a0 b5bd 5b44 ecbd 1c84 e6bd
000002b0: e7bb 0a3e d366 c53d 58bd a2bd 474b 5cbd
000002c0: ff28 c83d 8f4b 6dbd 9c03 b1bd d89e 06be
000002d0: 12e5 b2bd 41e6 d2bd 9a3c 48bd c1d2 a7bd
000002e0: c8a5 18bd de72 3abd b37b a4bd 44fd 973d
000002f0: 05a3 0dbe 7499 08be 31c9 80bd f7a4 c03d
00000300: 013b f63d 3f72 dc3d 929a 89bd 3a8e 733d
00000310: 7c5d 973d bca4 c3bd 46a8 1a3e df90 f73c
00000320: 9c67 c63d 2fa1 30bd 6271 4a3d 692e 323d
00000330: 0519 94bd 6af6 f8bd 9037 64bc 7290 e9bc
00000340: 101c bb3a 1e46 8f3b d2a2 e73d e1e1 bc3d
00000350: aa1a a0bd 2584 403c f58f 25be 4440 173e
00000360: 8252 843d 866c 1b3e 8a8a 9ebd 502c af3d
00000370: f84a 0a3e 76c7 e33d 0785 dbbd c7fb ef3d
00000380: 1f06 6fbc 0878 71bd d5ff 93bd c99e f73d
00000390: 3a21 ef3d a1f6 33bd c9cd 0bbe 0625 283e
000003a0: aa30 893d 40d2 dabd 8575 c03d 1dc5 223c
000003b0: 0aa5 f43d 6fad f93d 2059 0fbd a385 43bd
000003c0: 84bb d4bd 2eb2 02be c41f a1bc 06a1 b73d
000003d0: 4f93 3b3d 5752 ea3d b633 4fbd 3ab9 e5bd
000003e0: f3ef a5bd c386 b5bd dd6a b03d 51f0 e7ba
000003f0: 5c7c 163e 1f12 793d b2ba cb3c 77b0 d6bd

fc1.bias f4 [40]
0.029024888 -0.08101317 -0.008152452 -0.053509057 0.06791098 -0.0609964 0.027613692 0.039798237
-0.018267615 -0.051047996 0.11039058 0.048225034 0.00091461523 -0.10043178 0.0026798956 0.0020913132
0.067853235 -0.082352854 0.030484915 0.09687675 -0.006023329 -0.07066177 0.026188899 0.0056299376
0.07846357 0.087764114 0.062338445 -0.04538261 -0.04226261 0.0750526 -0.057196192 -0.032747358
-0.048236772 -0.03778998 -0.007953896 0.041861534 0.09956618 -0.0084315585 -0.0031468377 0.06751876
00000000: 9ac5 ed3c 3cea a5bd dd91 05bc 502c 5bbd
00000010: e914 8b3d 5cd7 79bd 1c36 e23c 7a03 233d
00000020: f7a5 95bc b417 51bd 7514 e23d 9d87 453d
00000030: cac2 6f3a 2daf cdbd 30a1 2f3b 6a0e 093b
00000040: a3f6 8a3d 9da8 a8bd 80bb f93c 5167 c63d
00000050: 595f c5bb 1eb7 90bd 1a8a d63c 577b b83b
00000060: 82b1 a03d acbd b33d 9956 7f3d 1ee3 39bd
00000070: 8f1b 2dbd 2db5 993d 8e46 6abd 1822 06bd
00000080: ec93 45bd abc9 1abd 0f51 02bc 0077 2b3d
00000090: 5ae9 cb3d 8524 0abc 2d3b 4ebb 4747 8a3d

fc2.weight f4 [40, 40]
-0.09086328 0.1356687 0.027716042 0.12109218 0.05382755 0.016496649 0.09728698 -0.08156291
0.037908442 0.11890666 -0.12809265 0.088440426 0.15283495 -0.08008388 0.103671804 0.042455785
0.083330415 -0.10910237 0.004155374 0.002928438 0.02372959 0.09176775 0.023474092 -0.13934705
0.010248748 0.15829417 0.12766679 0.0065949233 -0.11221673 -0.12755807 -0.071153246 -0.066811234
0.0016096254 -0.107215956 0.10823784 -0.099326104 0.090925395 -0.06211573 0.033161867 0.11308566
0.052770533 0.13205421 -0.13540068 0.18627699 0.034812808 -0.11621783 0.071135536 -0.07667135
0.12472527 -0.04780962 -0.03677329 -0.10765978 0.13249509 0.050126262 0.055123784 0.12036378
0.07923272 -0.123284906 -0.13127457 -0.029723099 -0.0841176 0.065678574 -0.04243806 0.07772187
-0.029094566 -0.108490944 0.13324629 0.12421228 -0.007127954 0.022182662 -0.06462581 -0.05435009
0.002178178 0.08222037 -0.14835131 0.116504304 -0.06998923 0.0075052343 0.12202088 0.120575435
0.049439285 0.12025446 0.008442183 -0.1311368 -0.0046111573 0.0017919174 -0.002065014 0.11260047
-0.031959843 0.10759028 0.13800319 -0.07365064 -0.02550859 -0.13593191 0.113257036 -0.0461669
0.007923448 -0.09883233 0.017287528 -0.033418603 0.10776291 -0.1415363 -0.10998876 -0.028346594
0.07168636 -0.1473917 -0.09303617 0.033538226 -0.121608585 0.07867147 0.13626505 -0.074773684
0.054121938 0.01887555 -0.06854162 0.029260725 -0.11735343 -0.17233028 0.055995267 -0.082635045
0.0466562 -0.057448126 -0.045469135 0.07565953 0.05827871 -0.005281575 0.10028292 0.03835491
0.07668238 0.06831365 0.12235667 -0.060031552 -0.037479855 -0.107348435 -0.12674491 -0.06948663
0.056714565 -0.10914459 -0.06577251 -0.10644159 0.13107087 0.05960278 0.102645494 0.11042774
0.17311737 0.06668086 0.1462346 0.12279552 -0.12704284 -0.08035592 -0.034097005 0.03710143
0.05103971 0.16614218 0.031001205 -0.04400358 -0.114305764 -0.106022775 0.070301235 0.093048245
-0.0077486187 -0.14776888 0.0871787 0.10281884 0.009435158 -0.099383295 -0.12478123 -0.10288347
-0.055432204 -0.14593208 0.12972774 -0.0026348673 -0.029093482 0.11748089 -0.16090396 0.13877384
0.0074014296 -0.012865974 0.049999613 -0.082222775 -0.1166574 -0.056584165 -0.013220024 0.08094035
0.09877246 0.16072603 0.09426214 0.038323324 0.11043891 -0.06508007 0.04051351 0.0064729787
-0.03915027 0.1039617 -0.1416191 0.11068759 -0.09273314 -0.05111798 0.058659036 0.04102307
0.09463727 0.09830012 0.04225319 -0.09161321 0.1205371 0.12619251 -0.047608312 0.10583254
-0.047571443 -0.11782109 -0.13326472 0.0450386 0.054670814 -0.076153085 -0.14210376 -0.065865666
0.06864624 -0.105651446 0.07447256 -0.11710775 -0.110000156 0.011646071 -0.13229609 0.12621477
-0.050079398 0.036705706 0.03258735 -0.036611233 0.0027725336 -0.16429263 -0.1763647 -0.02786654
-0.029660594 0.13808301 -0.10369791 0.152824 0.01835986 -0.01866608 -0.08429425 0.11243759
-0.067977406 -0.08942823 0.044899154 0.09427722 0.030860286 -0.17427182 0.061888654 0.09071853
0.09987356 -0.005470423 0.1396552 0.15742193 -0.036168046 0.17569777 -0.1045819 -0.046647232
00000000: 8716 babd bcec 0a3e c10c e33c 2dff f73d
00000010: 477a 5c3d fb23 873c 653e c73d 740a a7bd
00000020: e245 1b3d 5685 f33d b82a 03be 4120 b53d
00000030: c480 1c3e 0403 a4bd e251 d43d 1ee6 2d3d
00000040: 23a9 aa3d 1071 dfbd ce29 883b 09eb 3f3b
00000050: 8f64 c23c bbf0 bb3d bd4c c03c feb0 0ebe
00000060: 5dea 273c de17 223e 15bb 023e 3a1a d83b
00000070: e3d1 e5bd 959e 02be cbb8 91bd 54d4 88bd
00000080: 11fa d23a 0a94 dbbd cdab dd3d 7c6b cbbd
00000090: 1837 ba3d 106d 7ebd bdd4 073d 7499 e73d
000000a0: ea25 583d 3839 073e 7aa6 0abe 65bf 3e3e
000000b0: e097 0e3d 9d03 eebd 82af 913d de05 9dbd
000000c0: f66f ff3d 05d4 43bd 979f 16bd bb7c dcbd
000000d0: cbac 073e 3251 4d3d 7ac9 613d 4981 f63d
000000e0: c444 a23d cc7c fcbd d76c 06be db7d f3bc
000000f0: d945 acbd 7d82 863d 88d3 2dbd a52c 9f3d
00000100: ba57 eebc 8030 debd b771 083e 0263 fe3d
00000110: 9d91 e9bb 6ab8 b53c 895a 84bd 339e 5ebd
00000120: c3bf 0e3b 2763 a83d 68e9 17be cf99 ee3d
00000130: 8356 8fbd 78ee f53b 15e6 f93d 41f0 f63d
00000140: d980 4a3d f847 f63d 1551 0a3c ba48 06be
00000150: 3119 97bb c5de ea3a 3055 07bb 139b e63d
00000160: 53e8 02bd 4b58 dc3d b550 0d3e 26d6 96bd
00000170: 64f7 d0bc bc31 0bbe 4ef3 e73d 8119 3dbd
00000180: 5ad1 013c 9b68 cabd 939e 8d3c f2e1 08bd
00000190: cdb2 dc3d e4ee 10be c941 e1bd 1e37 e8bc
000001a0: 4cd0 923d daed 16be bf89 bebd 615f 093d
000001b0: ec0d f9bd 821e a13d 1189 0b3e f222 99bd
000001c0: f7ae 5d3d e6a0 9a3c 8d5f 8cbd 30b4 ef3c
000001d0: ff56 f0bd 5977 30be 4b5b 653d 903c a9bd
000001e0: 921a 3f3d ba4e 6bbd d83d 3abd 62f3 9a3d
000001f0: a8b5 6e3d 1011 adbb 2261 cd3d 0a1a 1d3d
00000200: a70b 9d3d 07e8 8b3d 2296 fa3d a5e3 75bd
00000210: 7a84 19bd 7fd9 dbbd 6bc9 01be 024f 8ebd
00000220: 884d 683d 3387 dfbd bdb3 86bd 0cfe d9bd
00000230: 7137 063e 0b22 743d cd37 d23d f027 e23d
00000240: ae45 313e fa8f 883d 86be 153e 387c fb3d
00000250: 8517 02be a591 a4bd 4da9 0bbd abf7 173d
00000260: 040f 513d 2d21 2a3e 3df6 fd3c 193d 34bd
00000270: 2419 eabd 7822 d9bd 18fa 8f3d 1490 be3d
00000280: 20e8 fdbb ba50 17be bf8a b23d af92 d23d
00000290: ec95 1a3c 7889 cbbd 4d8d ffbd 92b4 d2bd
000002a0: e10c 63bd 386f 15be 59d7 043e bdad 2cbb
000002b0: 7455 eebc d299 f03d 02c4 24be bb1a 0e3e
000002c0: b187 f23b cecb 52bc 65cc 4c3d 6a64 a8bd
000002d0: 13ea eebd ccc4 67bd cd98 58bc 0ec4 a53d
000002e0: 3749 ca3d 5d95 243e 820c c13d ebf8 1c3d
000002f0: cc2d e23d b348 85bd 7ff1 253d 481b d43b
00000300: 095c 20bd dfe9 d43d 9904 11be 2db0 e23d
00000310: dfea bdbd 1661 51bd 7544 703d cf07 283d
00000320: 2fd1 c13d 9351 c93d ae11 2d3d b59f bbbd
00000330: 28dc f63d 9c38 013e ef00 43bd bbbe d83d
00000340: 46da 42bd 2f4c f1bd 8c76 08be 657a 383d
00000350: 81ee 5f3d 26f6 9bbd a683 11be 94e4 86bd
00000360: 6696 8c3d c95f d8bd 1285 983d 30d6 efbd
00000370: c347 e1bd 2acf 3e3c a078 07be 723e 013e
00000380: 0e20 4dbd b958 163d 507a 053d a9f5 15bd
00000390: 65b3 353b 543c 28be f398 34be 5f48 e4bc
000003a0: c6fa f2bc a265 0d3e 925f d4bd e57d 1c3e
000003b0: 6b67 963c 9be9 98bc 77a2 acbd ae45 e63d
000003c0: bd37 8bbd 2626 b7bd 2de8 373d 6a14 c13d
000003d0: b6ce fc3c 5074 32be f57e 7d3d a3ca b93d
000003e0: 828a cc3d 3c41 b3bb c601 0f3e 3733 213e
000003f0: f224 14bd 1eea 333e 092f d6bd 2b11 3fbd

fc2.bias f4 [40]
-0.07728752 -0.10627882 -0.0875551 -0.113158196 -0.09143827 -0.006507065 0.08017824 0.0443963
-0.084891394 0.09583589 -0.050088357 0.0016436452 -0.02496238 -0.018865144 -0.083659776 -0.095901184
0.0739149 0.06655481 0.0012359145 -0.036829177 0.050631024 -0.04681747 -0.046907607 0.05588275
-0.065481886 -0.00736507 -0.025060445 -0.05067693 -0.0073175956 -0.04064572 0.01675141 -0.04305744
0.008486546 0.10836781 0.09038843 -0.041734595 0.005460509 -0.0019181275 -0.015812574 0.0011115464
00000000: eb48 9ebd b6a8 d9bd 1750 b3bd 7cbf e7bd
00000010: fd43 bbbd 3839 d5bb 7d34 a43d e5d8 353d
00000020: 8adb adbd 9b45 c43d 7329 4dbd 956f d73a
00000030: e87d ccbc 138b 9abc d155 abbd d767 c4bd
00000040: b260 973d e34d 883d 69fe a13a 31da 16bd
00000050: 7a62 4f3d adc3 3fbd 3122 40bd 4fe5 643d
00000060: 5e1b 86bd af56 f1bb 904b cdbc 9d92 4fbd
00000070: 71c8 efbb 207c 26bd 413a 893c 005d 30bd
00000080: 270b 0b3c f1ef dd3d 921d b93d e5f1 2abd
00000090: 12ee b23b ae69 fbba 5f89 81bc 4fb1 913a

out.weight f4 [1, 40]
-0.08834336 -0.054075178 0.14196798 0.003931716 -0.12850232 -0.13335156 -0.15801334 -0.0796785
-0.14215782 -0.05069894 -0.08358805 0.01471715 0.11889846 0.05157093 -0.058891512 -0.10045449
0.004822125 0.09428217 -0.085974805 -0.061028074 -0.06963815 -0.11256191 -0.18252094 0.07027913
0.15404901 -0.17488009 0.093156435 -0.1273068 0.09947594 0.123363174 -0.0369185 -0.099917
-0.13246852 -0.076246485 -0.10006761 -0.14882036 0.07941593 0.13993166 0.024188783 -0.15216886
00000000: 5ded b4bd ef7d 5dbd 0e60 113e a0d5 803b
00000010: 1d96 03be 508d 08be 40ce 21be 7b2e a3bd
00000020: d291 11be b1a9 4fbd 3630 abbd 3320 713c
00000030: 0981 f33d 0a3c 533d 3a38 71bd 15bb cdbd
00000040: eb02 9e3b 0317 c13d 8f13 b0bd 93f8 79bd
00000050: 729e 8ebd dc86 e6bd c5e6 3abe 81ee 8f3d
00000060: 06bf 1d3e c413 33be cdc8 be3d b75c 02be
00000070: 0bba cb3d d5a5 fc3d da37 17bd 49a1 ccbd
00000080: d4a5 07be 1e27 9cbd 3ff0 ccbd 5d64 18be
00000090: d2a4 a23d 3f4a 0f3e 8e27 c63c 27d2 1bbe

sep_conn.weight f4 [40, 45]
0.060654573 -0.062305823 -0.103726774 -0.06900971 0.028434835 0.09923449 -0.019832851 -0.053066477
0.097100034 -0.005031517 -0.14621729 0.14016394 0.111286275 0.002632032 -0.112173386 0.14606066
-0.009768076 0.041733854 0.08382737 -0.08045835 0.13677463 -0.13460326 0.045108344 -0.02143884
0.13130338 -0.02409202 -0.09066348 0.14734182 0.043567166 0.135112 -0.11686088 0.07380814
-0.08950705 0.04424942 -0.109540895 0.14053868 -0.14193887 -0.10065413 -0.068560675 -0.12340577
-0.018945917 0.13268599 -0.01339141 -0.14135423 -0.12603803 0.015842447 0.029737141 0.037414905
-0.023419969 0.059263807 -0.119004555 0.02356162 -0.00968969 0.121195 -0.0807454 0.13854246
0.029511685 0.0044011557 0.11963837 -0.06711194 -0.07097464 -0.0787424 0.12363382 0.07517423
-0.03339285 0.019477082 -0.08035306 0.09836673 -0.11614838 0.13834113 0.045156058 0.055686515
-0.13638017 0.016726663 -0.116735935 -0.0001413657 0.10890767 0.13671203 -0.10085507 0.081638984
0.021724753 0.010611117 -0.082637094 0.06571207 -0.12155029 0.08653736 -0.1211507 0.14734727
0.04662015 -0.06069644 -0.12575877 0.059318237 0.11565411 0.06310926 -0.10301744 0.119778775
-0.113529965 -0.10354429 0.051089704 -0.078550994 0.031322286 -0.12828647 -0.03622404 -0.13264145
-0.075508684 0.14820963 0.14102046 0.002479222 -0.14717324 0.0150818275 -0.08740905 -0.030767076
0.10322655 -0.08333164 0.05917753 0.08919941 0.0076269237 -0.08574749 0.14368318 -0.017998261
-0.0031846822 -0.03509951 0.06642229 -0.035018157 0.14166947 0.10464592 0.037247114 -0.06566685
-0.034797996 -0.124496065 -0.13501485 0.07696357 0.12916623 -0.04400873 -0.076137096 -0.11062263
0.09781365 -0.12985906 -0.049940832 0.08158619 -0.09357729 -0.0008519438 0.00020853884 -0.0579502
0.13787195 -0.11221728 0.07574365 0.059757955 0.07352118 -0.097528294 -0.07113643 0.021106085
0.12937786 0.0023404686 0.07372439 0.120755024 0.09676067 0.09622913 -0.06361129 -0.11009674
-0.00040822788 0.08488435 -0.14378376 0.021729747 -0.06760994 -0.048540715 -0.03629656 -0.0745554
0.03934425 -0.11499947 -0.14793524 0.002033267 0.047098964 -0.07681421 0.052252673 0.13189606
0.12695959 0.1289844 -0.037329108 0.11988719 -0.07235393 -0.14725919 0.14554474 0.063378945
0.040816266 0.047230873 0.02863902 0.049605124 -0.09299556 0.10480225 0.12314578 0.114352725
0.11986467 0.06886 -0.05511421 -0.030558305 0.08438621 -0.090762325 0.11677881 0.075282164
0.13261761 0.05866941 -0.018934527 -0.09004398 -0.08100393 -0.037412614 -0.0059387987 0.018311149
0.075994305 -0.029892083 0.07327765 -0.037479788 -0.094735526 0.065683246 0.04819127 0.052886926
-0.10039033 -0.074945696 0.0013572706 0.03852305 0.13157059 -0.1274055 -0.11183742 -0.13103493
-0.036025114 0.10562839 0.03403583 -0.10252524 0.002441566 0.0435369 -0.09513785 0.028860087
-0.1320389 0.050549407 -0.08384832 -0.12772688 -0.07652384 0.12479936 -0.11577589 0.11125238
-0.025635278 0.08189431 0.14796574 -0.0396418 0.0066546015 -0.010844197 -0.1247554 0.09735154
-0.09121839 -0.028294394 0.042766687 0.117145784 -0.1358556 0.120246515 -0.09244433 0.04621992
00000000: ee70 783d 6434 7fbd b46e d4bd f654 8dbd
00000010: 2cf0 e83c 743b cb3d 8178 a2bc 3c5c 59bd
00000020: 62dc c63d 6cdf a4bb fcb9 15be 2387 0f3e
00000030: 0fea e33d 2b7e 2c3b 29bb e5bd ed90 153e
00000040: 480a 20bc 1ef1 2a3d afad ab3d 59c7 a4bd
00000050: a60e 0c3e 70d5 09be 87c3 383d 82a0 afbc
00000060: 6574 063e a15c c5bc c6ad b9bd c6e0 163e
00000070: 7c73 323d cd5a 0a3e c254 efbd b928 973d
00000080: 794f b7bd e13e 353d fa56 e0bd 5fe9 0f3e
00000090: 6c58 11be c123 cebd 8a69 8cbd 2abc fcbd
000000a0: 7834 9bbc d6de 073e a567 5bbc 2abf 10be
000000b0: 1d10 01be 05c8 813c 4e9b f33c 5f40 193d
000000c0: 3cdb bfbc 9bbe 723d a9b8 f3bd 4c04 c13c
000000d0: 81c1 1ebc 1635 f83d d85d a5bd 13de 0d3e
000000e0: 7dc2 f13c 9237 903b f604 f53d fc71 89bd
000000f0: 275b 91bd b243 a1bd ba33 fd3d f2f4 993d
00000100: f1c6 08bd 678e 9f3c 2590 a4bd 7f74 c93d
00000110: 34df edbd 4ca9 0d3e 8ff5 383d 8b17 643d
00000120: 3ea7 0bbe 5b06 893c 4013 efbd 913b 14b9
00000130: fc0a df3d 3dfe 0b3e 1a8d cebd 5732 a73d
00000140: 1cf8 b13c 40da 2d3c a33d a9bd 0d94 863d
00000150: 5cef f8bd 803a b13d dc1d f8bd 34e2 163e
00000160: c5f4 3e3d d59c 78bd e8c6 00be aef7 723d
00000170: 10dc ec3d 6d3f 813d cffa d2bd 934e f53d
00000180: 6682 e8bd 070f d4bd 7043 513d 58df a0bd
00000190: cc4b 003d 875d 03be a95f 14bd 29d3 07be
000001a0: 4ca4 9abd 44c4 173e ab67 103e 717a 223b
000001b0: 95b4 16be c519 773c 8403 b3bd 3c0b fcbc
000001c0: 7168 d33d c7a9 aabd 2364 723d 2eae b63d
000001d0: 46eb f93b 619c afbd af21 133e 1771 93bc
000001e0: 1ab6 50bb 81c4 0fbd 6908 883d 336f 0fbd
000001f0: cd11 113e 9a50 d63d 6e90 183d 577c 86bd
00000200: 5888 0ebd cbf7 febd 5541 0abe 149f 9d3d
00000210: 2744 043e 8042 34bd c4ed 9bbd 1e8e e2bd
00000220: 8652 c83d c6f9 04be c28e 4cbd a916 a73d
00000230: 73a5 bfbd fb54 5fba 38ab 5a39 305d 6dbd
00000240: 4e2e 0d3e 2cd2 e5bd 7d1f 9b3d c2c4 743d
00000250: 4692 963d eabc c7bd faaf 91bd abe6 ac3c
00000260: a17b 043e 8c62 193b d0fc 963d 694e f73d
00000270: 752a c63d c713 c53d a346 82bd 667a e1bd
00000280: 6b07 d6b9 d9d7 ad3d 0d3c 13be 9502 b23c
00000290: 1577 8abd a1d2 46bd b4ab 14bd 80b0 98bd
000002a0: 7027 213d d884 ebbd 567c 17be 8f40 053b
000002b0: d8ea 403d c550 9dbd e606 563d c30f 073e
000002c0: b201 023e 7d14 043e 68e6 18bd 6a87 f53d
000002d0: 4c2e 94bd 1dcb 16be ae09 153e d2cc 813d
000002e0: f52e 273d 2975 413d 619c ea3c be2e 4b3d
000002f0: 7574 bebd 90a2 d63d db33 fc3d c331 ea3d
00000300: 9c7b f53d 7906 8d3d 70bf 61bd 6955 fabc
00000310: add2 ac3d 99e1 b9bd bb29 ef3d 892d 9a3d
00000320: e9cc 073e 564f 703d 951c 9bbc fa68 b8bd
00000330: 63e5 a5bd f83d 19bd 419a c2bb 4301 963c
00000340: e7a2 9b3d 3ee0 f4bc 9812 963d 6884 19bd
00000350: b304 c2bd f084 863d 3664 453d f69f 583d
00000360: 7299 cdbd 217d 99bd 72e6 b13a 58ca 1d3d
00000370: 71ba 063e 9676 02be 040b e5bd 052e 06be
00000380: 128f 13bd b353 d83d 2869 0b3d c1f8 d1bd
00000390: ae02 203b c053 323d a2d7 c2bd fd6b ec3c
000003a0: 3535 07be e50c 4f3d abb8 abbd d6ca 02be
000003b0: 88b8 9cbd cf96 ff3d e91b edbd 4ad8 e33d
000003c0: 1301 d2bc 34b8 a73d 5584 173e 715f 22bd
000003d0: d80e da3b dcab 31bc c27f ffbd 3f60 c73d
000003e0: b5d0 babd a5c9 e7bc 1f2c 2f3d 21ea ef3d
000003f0: bb1d 0bbe ce43 f63d 7453 bdbd 1951 3d3d

sep_conn.bias f4 [40]
0.07761874 0.113603964 0.062655285 0.10511909 0.08020756 -0.14863776 -0.10367978 0.10590579
0.015611607 -0.03501183 0.013193 0.0017836778 -0.06889269 -0.048863787 0.011255695 -0.007484172
-0.03214608 -0.13162054 -0.10508744 0.018199887 -0.1469435 0.117350675 0.06775911 0.12558046
-0.026209768 0.044786908 0.025255289 -0.09622879 -0.0070798 0.02792025 0.08913234 0.14818108
-0.060809515 0.053291205 -0.05803347 0.04030902 -0.13103712 -0.054660525 0.03831691 0.0011704831
00000000: 93f6 9e3d 32a9 e83d 6a51 803d ad48 d73d
00000010: dc43 a43d 7f34 18be 1156 d4bd 23e5 d83d
00000020: d3c7 7f3c 9168 0fbd 7427 583c 4cca e93a
00000030: 9c17 8dbd 6525 48bd ce69 383c c93d f5bb
00000040: 9cab 03bd 89c7 06be 1538 d7bd ee17 953c
00000050: 5b78 16be 8d55 f03d 4ac5 8a3d 2a98 003e
00000060: deb5 d6bc 7a72 373d 2ee4 ce3c 9a13 c5bd
00000070: abfd e7bb 02b9 e43c 048b b63d c8bc 173e
00000080: 6613 79bd e147 5a3d 81b4 6dbd 121b 253d
00000090: 982e 06be b7e3 5fbd 31f2 1c3d e56a 993a

bn.weight f4 [40]
1.0280932 1.0155313 0.9963274 0.9693471 1.0318533 1.020607 1.0328224 0.976295
1.0210109 1.0148546 1.0077496 1.0246518 1.0054015 0.9756403 0.97376364 1.0024203
1.0040498 0.9771288 0.9846424 1.0206792 1.0038781 1.0313073 1.007123 0.9823309
1.0234741 1.0294234 1.0030812 1.0139166 0.9731371 0.9773333 1.0173662 1.0261214
1.0297501 1.0165864 0.99890137 1.0350827 0.9788478 0.98722816 1.0309887 1.0151892
00000000: 8f98 833f eefc 813f 500f 7f3f 2227 783f
00000010: c513 843f 40a3 823f 8633 843f 78ee 793f
00000020: 7cb0 823f c1e6 813f f0fd 803f ca27 833f
00000030: ffb0 803f 90c3 793f 9348 793f 4f4f 803f
00000040: b484 803f 1d25 7a3f 8611 7c3f 9ea5 823f
00000050: 147f 803f e101 843f 68e9 803f 0a7a 7b3f
00000060: 3301 833f 25c4 833f f764 803f 05c8 813f
00000070: 831f 793f 8432 7a3f 0e39 823f f257 833f
00000080: dace 833f 811f 823f 00b8 7f3f 977d 843f
00000090: c595 7a3f fcba 7c3f 70f7 833f b8f1 813f

bn.bias f4 [40]
0.032603517 0.027018417 -0.024880938 -0.027739016 0.03350355 0.028319124 0.032329593 -0.017270356
0.025431838 0.015135569 0.009924002 0.019497901 -0.01838006 -0.026468033 0.0028404424 0.022789262
0.0076888874 -0.030391073 0.02475731 0.018377567 0.020593992 0.0334099 0.030983606 -0.03124445
-0.027091729 0.033834264 -0.022393985 0.030930767 -0.028034097 -0.02964524 0.016885886 0.030231552
0.031978745 0.030068088 0.022593122 0.03503766 -0.030010363 -0.031623628 0.0030344285 0.028558115
00000000: 448b 053d ba55 dd3c 1cd3 cbbc ef3c e3bc
00000010: 053b 093d 82fd e73c 096c 043d 907a 8dbc
00000020: 6e56 d03c 2dfb 773c 4898 223c 10ba 9f3c
00000030: c891 96bc 7dd3 d8bc b726 3a3b 8cb0 ba3c
00000040: 10f3 fb3b b3f6 f8bc d8cf ca3c 8d8c 963c
00000050: bbb4 a83c d2d8 083d 55d1 fd3c 5cf4 ffbc
00000060: 79ef ddbc cc95 0a3d 9773 b7bc 8562 fd3c
00000070: c3a7 e5bc 93da f2bc 4554 8a3c 29a8 f73c
00000080: 25fc 023d 5a51 f63c 3615 b93c a683 0f3d
00000090: 4bd8 f5bc c787 01bd 43dd 463b b5f2 e93c

bn.running_mean f4 [40]
0.0834923 -0.15775141 -0.09956266 -0.099657044 -0.075216666 -0.09434052 0.40912768 0.0371466
0.19315036 0.23590937 -0.2190071 0.00040249436 0.06724541 -0.1994711 0.2195387 0.0790957
0.020598326 -0.15788816 -0.17102568 0.1068779 0.08482179 0.060251422 -0.056713987 0.107487716
0.030572904 -0.07171801 -0.034108113 0.17629813 0.018230941 -0.02048468 -0.13611953 0.12882634
-0.014922354 0.15398109 -0.17724152 0.04242334 0.085882485 -0.09466923 0.031634122 -0.10034865
00000000: 03fe aa3d 9689 21be 82e7 cbbd fe18 ccbd
00000010: 320b 9abd 9a35 c1bd 2f79 d13e 0927 183d
00000020: 35c9 453e 3a92 713e 6643 60be e105 d339
00000030: f6b7 893d 2742 4cbe c1ce 603e edfc a13d
00000040: d2bd a83c 6fad 21be 5b21 2fbe cde2 da3d
00000050: 0cb7 ad3d 32ca 763d ed4c 68bd 8522 dc3d
00000060: 0774 fa3c e4e0 92bd f3b4 0bbd 7f87 343e
00000070: 0e59 953c 7dcf a7bc eb62 0bbe 0deb 033e
00000080: e47c 74bc 38ad 1d3e cd7e 35be 19c4 2d3d
00000090: 28e3 af3d f1e1 c1bd c892 013d 9883 cdbd

bn.running_var f4 [40]
0.1470143 0.22860065 0.23763381 0.1813742 0.19094908 0.1758003 0.18715736 0.2137801
0.20918521 0.1482686 0.15151975 0.17583238 0.15477757 0.14532882 0.1946409 0.12900029
0.15277085 0.13601804 0.22449039 0.22945714 0.23589534 0.18449265 0.15088867 0.16399197
0.16233288 0.15246303 0.15653816 0.14091852 0.1943603 0.13981535 0.17269686 0.20544092
0.22502288 0.2243898 0.16977707 0.18836279 0.16362773 0.20483422 0.17420375 0.1963894
00000000: eb8a 163e 4a16 6a3e 4756 733e 29ba 393e
00000010: 2888 433e fe04 343e 2ea6 3f3e 2ce9 5a3e
00000020: a634 563e b9d3 173e fe27 1b3e 670d 343e
00000030: 037e 1e3e 14d1 143e f24f 473e a718 043e
00000040: f66f 1c3e 5048 0b3e cfe0 653e d0f6 6a3e
00000050: 8c8e 713e a4eb 3c3e 8f82 1a3e 83ed 273e
00000060: 973a 263e 451f 1c3e 8a4b 203e f24c 103e
00000070: 6306 473e c12b 0f3e 72d7 303e 1b5f 523e
00000080: 666c 663e 71c6 653e 0ada 2d3e 2de2 403e
00000090: 078e 273e 10c0 513e 7862 323e 4e1a 493e

net.0.weight f4 [40, 45]
0.03999205 -0.096232414 -0.047369495 0.08570113 -0.12374341 -0.028836543 0.121732496 0.0121339625
0.016859539 -0.014571718 -0.051565625 -0.073566176 0.06292296 -0.032525793 0.040754896 -0.14967239
0.013713081 0.111369535 -0.045675978 -0.08932835 0.0340716 0.014807466 0.11397465 0.07423955
-0.07281361 0.05491132 -0.13677293 0.17311154 -0.13068861 0.032883104 -0.008372024 0.12375331
-0.08586445 -0.054542363 -0.08492822 -0.08697588 0.12523316 -0.13038605 -0.0304009 -0.14192106
0.10776346 -0.018659009 -0.11251265 0.12972915 -0.0002639995 -0.028139742 0.029069774 -0.15569992
-0.083569564 0.04579334 0.11240226 -0.10299591 0.0108166905 -0.05361397 -0.09757754 0.093981035
0.05825305 0.005883331 -0.15832922 0.11361678 -0.14278921 0.015040303 -0.11136314 -0.087457694
0.096562594 -0.041929156 -0.11907686 -0.056028508 0.1507171 -0.14075772 -0.16441649 0.05332038
0.13220954 0.10153745 0.12276735 0.14395317 0.0046094074 -0.15689546 -0.081327684 -0.14668414
0.10235932 -0.085998476 0.09812551 0.107172385 0.03311424 -0.1003701 -0.0015508708 0.009624532
0.099335715 -0.14463077 -0.09080887 0.10922078 -0.12795572 -0.08015322 -0.018041907 0.085135706
-0.1716106 -0.054006554 -0.08279065 -0.09787533 0.025108913 0.0057811467 -0.07863827 -0.018441187
-0.108854234 -0.057315487 -0.031421874 0.034789823 -0.054099023 0.02256639 -0.11820464 0.078681424
-0.018480288 0.12725121 0.08908874 0.03529014 -0.10925029 -0.13362797 0.009113273 0.14002651
-0.064061515 0.017345915 -0.07112963 -0.13167804 0.03781208 -0.14267156 0.07765226 0.0038508286
-0.14184621 -0.031056944 -0.16835919 0.124844775 0.1089799 0.12210646 0.12284761 0.011759247
-0.10798021 0.1682866 0.10500165 -0.07757498 -0.11893432 0.081649534 -0.038752835 0.0019303799
-0.0577425 -0.068508916 -0.01907495 0.018546047 0.021992465 -0.07086623 -0.14785835 -0.119742535
-0.042420212 -0.05330359 0.14265515 -0.08563072 -0.12766956 -0.081100695 0.09580392 -0.10601165
0.0064524612 0.005169195 -0.12286234 -0.08025429 0.13195705 0.075953685 -0.05129335 -0.11759646
-0.12170435 -0.08868506 -0.11536475 -0.112556666 0.13548242 0.09638753 -0.07946271 -0.053782728
0.097734444 -0.057933386 -0.086432666 -0.13146532 -0.08735098 -0.10297824 -0.04888592 -0.08194495
-0.037267476 -0.045519702 -0.08031406 0.074213535 -0.13831718 -0.13339788 -0.06288374 0.094064645
0.12022973 0.10763978 -0.06718935 0.05946181 0.073908776 -0.09552905 0.15103254 0.030220447
0.09687731 -0.043122467 0.049424537 0.04350129 -0.072313346 -0.12156375 -0.013929263 -0.02851126
0.0014275331 0.0043723723 0.113103524 0.092227705 -0.07817586 0.011750256 -0.16168196 0.14770609
0.064610496 0.15178117 -0.07741268 0.08553374 0.13505161 0.111220285 -0.10718732 0.117179446
-0.014588862 -0.05895236 -0.072265305 0.12090833 0.11676259 -0.043936376 -0.1365272 0.16420373
0.06698735 -0.10684633 0.09397415 0.009934691 0.11945541 0.12191283 -0.034997106 -0.047734868
-0.10387328 -0.12763283 -0.019668467 0.0896626 0.04579478 0.11441486 -0.050586425 -0.1121697
-0.08102407 -0.088635944 0.086141326 -0.0017695521 0.14695877 0.060808297 0.024869297 -0.10482877
00000000: b4ce 233d 8015 c5bd 8406 42bd 1384 af3d
00000010: 2f6d fdbd 9d3a ecbc e34e f93d 87cd 463c
00000020: 041d 8a3c 37be 6ebc 7a36 53bd dda9 96bd
00000030: c1dd 803d c439 05bd 9bee 263d b843 19be
00000040: d5ac 603c b615 e43d bc16 3bbd c8f1 b6bd
00000050: a98e 0b3d 049b 723c 8b6b e93d e80a 983d
00000060: 4d1f 95bd b1ea 603d 340e 0cbe 2744 313e
00000070: 3cd3 05be 6fb0 063d d02a 09bc 6072 fd3d
00000080: b3d9 afbd d067 5fbd d9ee adbd 6920 b2bd
00000090: 1f3d 003e ec83 05be 4f0b f9bc c153 11be
000000a0: 17b3 dc3d c7da 98bc 086d e6bd b8d7 043e
000000b0: 6a69 8ab9 5185 e6bc bc23 ee3c cd6f 1fbe
000000c0: 8526 abbd cc91 3b3d 2833 e63d 85ef d2bd
000000d0: 7d38 313c 529a 5bbd bcd6 c7bd 2179 c03d
000000e0: c09a 6e3d f5c8 c03b 0e21 22be eaaf e83d
000000f0: 5637 12be 9a6b 763c 5c12 e4bd 051d b3bd
00000100: 9cc2 c53d e8bd 2bbd 92de f3bd 267e 65bd
00000110: 9555 1a3e cb22 10be cc5c 28be 7966 5a3d
00000120: f061 073e def2 cf3d 736d fb3d 7668 133e
00000130: 830a 973b 34a9 20be 218f a6bd 5e34 16be
00000140: c3a1 d13d f81f b0bd 07f6 c83d 327d db3d
00000150: cca2 073d d78e cdbd 9746 cbba 37b0 1d3c
00000160: 8670 cb3d 171a 14be 00fa b9bd 25af df3d
00000170: d306 03be 5f27 a4bd 9fcc 93bc a15b ae3d
00000180: b0ba 2fbe fa35 5dbd 258e a9bd dc72 c8bd
00000190: 35b1 cd3c c66f bd3b 1a0d a1bd f911 97bc
000001a0: f8ee debd a5c3 6abd 39b4 00bd c67f 0e3d
000001b0: f096 5dbd 26dd b83c 4615 f2bd ba23 a13d
000001c0: f963 97bc 244e 023e 2874 b63d 658c 103d
000001d0: 9ebe dfbd c5d5 08be d64f 153c 1c63 0f3e
000001e0: af32 83bd 0519 8e3c 69ac 91bd 9cd6 06be
000001f0: d7e0 1a3d 7e18 12be 2608 9f3d 2f5e 7c3b
00000200: 2240 11be 226b febc 5a66 2cbe 9eae ff3d
00000210: db30 df3d f412 fa3d 8797 fb3d dba9 403c
00000220: ba24 ddbd 5353 2c3e 1b0b d73d a2df 9ebd
00000230: d693 f3bd df37 a73d 4bbb 1ebd cd04 fd3a
00000240: 6683 6cbd 674e 8cbd 1243 9cbc e1ed 973c
00000250: 8b29 b43c 5022 91bd 2e68 17be 933b f5bd
00000260: d1c0 2dbd dd54 5abd 3114 123e 295f afbd
00000270: cfbb 02be 1f18 a6bd d834 c43d a31c d9bd
00000280: 2b6f d33b 5a62 a93b 409f fbbd 5c5c a4bd
00000290: c01f 073e 9b8d 9b3d fa18 52bd 6ad6 f0bd
000002a0: 2140 f9bd 83a0 b5bd 5b44 ecbd 1c84 e6bd
000002b0: e7bb 0a3e d366 c53d 58bd a2bd 474b 5cbd
000002c0: ff28 c83d 8f4b 6dbd 9c03 b1bd d89e 06be
000002d0: 12e5 b2bd 41e6 d2bd 9a3c 48bd c1d2 a7bd
000002e0: c8a5 18bd de72 3abd b37b a4bd 44fd 973d
000002f0: 05a3 0dbe 7499 08be 31c9 80bd f7a4 c03d
00000300: 013b f63d 3f72 dc3d 929a 89bd 3a8e 733d
00000310: 7c5d 973d bca4 c3bd 46a8 1a3e df90 f73c
00000320: 9c67 c63d 2fa1 30bd 6271 4a3d 692e 323d
00000330: 0519 94bd 6af6 f8bd 9037 64bc 7290 e9bc
00000340: 101c bb3a 1e46 8f3b d2a2 e73d e1e1 bc3d
00000350: aa1a a0bd 2584 403c f58f 25be 4440 173e
00000360: 8252 843d 866c 1b3e 8a8a 9ebd 502c af3d
00000370: f84a 0a3e 76c7 e33d 0785 dbbd c7fb ef3d
00000380: 1f06 6fbc 0878 71bd d5ff 93bd c99e f73d
00000390: 3a21 ef3d a1f6 33bd c9cd 0bbe 0625 283e
000003a0: aa30 893d 40d2 dabd 8575 c03d 1dc5 223c
000003b0: 0aa5 f43d 6fad f93d 2059 0fbd a385 43bd
000003c0: 84bb d4bd 2eb2 02be c41f a1bc 06a1 b73d
000003d0: 4f93 3b3d 5752 ea3d b633 4fbd 3ab9 e5bd
000003e0: f3ef a5bd c386 b5bd dd6a b03d 51f0 e7ba
000003f0: 5c7c 163e 1f12 793d b2ba cb3c 77b0 d6bd

net.0.bias f4 [40]
0.029024888 -0.08101317 -0.008152452 -0.053509057 0.06791098 -0.0609964 0.027613692 0.039798237
-0.018267615 -0.051047996 0.11039058 0.048225034 0.00091461523 -0.10043178 0.0026798956 0.0020913132
0.067853235 -0.082352854 0.030484915 0.09687675 -0.006023329 -0.07066177 0.026188899 0.0056299376
0.07846357 0.087764114 0.062338445 -0.04538261 -0.04226261 0.0750526 -0.057196192 -0.032747358
-0.048236772 -0.03778998 -0.007953896 0.041861534 0.09956618 -0.0084315585 -0.0031468377 0.06751876
00000000: 9ac5 ed3c 3cea a5bd dd91 05bc 502c 5bbd
00000010: e914 8b3d 5cd7 79bd 1c36 e23c 7a03 233d
00000020: f7a5 95bc b417 51bd 7514 e23d 9d87 453d
00000030: cac2 6f3a 2daf cdbd 30a1 2f3b 6a0e 093b
00000040: a3f6 8a3d 9da8 a8bd 80bb f93c 5167 c63d
00000050: 595f c5bb 1eb7 90bd 1a8a d63c 577b b83b
00000060: 82b1 a03d acbd b33d 9956 7f3d 1ee3 39bd
00000070: 8f1b 2dbd 2db5 993d 8e46 6abd 1822 06bd
00000080: ec93 45bd abc9 1abd 0f51 02bc 0077 2b3d
00000090: 5ae9 cb3d 8524 0abc 2d3b 4ebb 4747 8a3d

net.1.weight f4 [40]
1.0280932 1.0155313 0.9963274 0.9693471 1.0318533 1.020607 1.0328224 0.976295
1.0210109 1.0148546 1.0077496 1.0246518 1.0054015 0.9756403 0.97376364 1.0024203
1.0040498 0.9771288 0.9846424 1.0206792 1.0038781 1.0313073 1.007123 0.9823309
1.0234741 1.0294234 1.0030812 1.0139166 0.9731371 0.9773333 1.0173662 1.0261214
1.0297501 1.0165864 0.99890137 1.0350827 0.9788478 0.98722816 1.0309887 1.0151892
00000000: 8f98 833f eefc 813f 500f 7f3f 2227 783f
00000010: c513 843f 40a3 823f 8633 843f 78ee 793f
00000020: 7cb0 823f c1e6 813f f0fd 803f ca27 833f
00000030: ffb0 803f 90c3 793f 9348 793f 4f4f 803f
00000040: b484 803f 1d25 7a3f 8611 7c3f 9ea5 823f
00000050: 147f 803f e101 843f 68e9 803f 0a7a 7b3f
00000060: 3301 833f 25c4 833f f764 803f 05c8 813f
00000070: 831f 793f 8432 7a3f 0e39 823f f257 833f
00000080: dace 833f 811f 823f 00b8 7f3f 977d 843f
00000090: c595 7a3f fcba 7c3f 70f7 833f b8f1 813f

net.1.bias f4 [40]
0.032603517 0.027018417 -0.024880938 -0.027739016 0.03350355 0.028319124 0.032329593 -0.017270356
0.025431838 0.015135569 0.009924002 0.019497901 -0.01838006 -0.026468033 0.0028404424 0.022789262
0.0076888874 -0.030391073 0.02475731 0.018377567 0.020593992 0.0334099 0.030983606 -0.03124445
-0.027091729 0.033834264 -0.022393985 0.030930767 -0.028034097 -0.02964524 0.016885886 0.030231552
0.031978745 0.030068088 0.022593122 0.03503766 -0.030010363 -0.031623628 0.0030344285 0.028558115
00000000: 448b 053d ba55 dd3c 1cd3 cbbc ef3c e3bc
00000010: 053b 093d 82fd e73c 096c 043d 907a 8dbc
00000020: 6e56 d03c 2dfb 773c 4898 223c 10ba 9f3c
00000030: c891 96bc 7dd3 d8bc b726 3a3b 8cb0 ba3c
00000040: 10f3 fb3b b3f6 f8bc d8cf ca3c 8d8c 963c
00000050: bbb4 a83c d2d8 083d 55d1 fd3c 5cf4 ffbc
00000060: 79ef ddbc cc95 0a3d 9773 b7bc 8562 fd3c
00000070: c3a7 e5bc 93da f2bc 4554 8a3c 29a8 f73c
00000080: 25fc 023d 5a51 f63c 3615 b93c a683 0f3d
00000090: 4bd8 f5bc c787 01bd 43dd 463b b5f2 e93c

net.1.running_mean f4 [40]
0.0834923 -0.15775141 -0.09956266 -0.099657044 -0.075216666 -0.09434052 0.40912768 0.0371466
0.19315036 0.23590937 -0.2190071 0.00040249436 0.06724541 -0.1994711 0.2195387 0.0790957
0.020598326 -0.15788816 -0.17102568 0.1068779 0.08482179 0.060251422 -0.056713987 0.107487716
0.030572904 -0.07171801 -0.034108113 0.17629813 0.018230941 -0.02048468 -0.13611953 0.12882634
-0.014922354 0.15398109 -0.17724152 0.04242334 0.085882485 -0.09466923 0.031634122 -0.10034865
00000000: 03fe aa3d 9689 21be 82e7 cbbd fe18 ccbd
00000010: 320b 9abd 9a35 c1bd 2f79 d13e 0927 183d
00000020: 35c9 453e 3a92 713e 6643 60be e105 d339
00000030: f6b7 893d 2742 4cbe c1ce 603e edfc a13d
00000040: d2bd a83c 6fad 21be 5b21 2fbe cde2 da3d
00000050: 0cb7 ad3d 32ca 763d ed4c 68bd 8522 dc3d
00000060: 0774 fa3c e4e0 92bd f3b4 0bbd 7f87 343e
00000070: 0e59 953c 7dcf a7bc eb62 0bbe 0deb 033e
00000080: e47c 74bc 38ad 1d3e cd7e 35be 19c4 2d3d
00000090: 28e3 af3d f1e1 c1bd c892 013d 9883 cdbd

net.1.running_var f4 [40]
0.1470143 0.22860065 0.23763381 0.1813742 0.19094908 0.1758003 0.18715736 0.2137801
0.20918521 0.1482686 0.15151975 0.17583238 0.15477757 0.14532882 0.1946409 0.12900029
0.15277085 0.13601804 0.22449039 0.22945714 0.23589534 0.18449265 0.15088867 0.16399197
0.16233288 0.15246303 0.15653816 0.14091852 0.1943603 0.13981535 0.17269686 0.20544092
0.22502288 0.2243898 0.16977707 0.18836279 0.16362773 0.20483422 0.17420375 0.1963894
00000000: eb8a 163e 4a16 6a3e 4756 733e 29ba 393e
00000010: 2888 433e fe04 343e 2ea6 3f3e 2ce9 5a3e
00000020: a634 563e b9d3 173e fe27 1b3e 670d 343e
00000030: 037e 1e3e 14d1 143e f24f 473e a718 043e
00000040: f66f 1c3e 5048 0b3e cfe0 653e d0f6 6a3e
00000050: 8c8e 713e a4eb 3c3e 8f82 1a3e 83ed 273e
00000060: 973a 263e 451f 1c3e 8a4b 203e f24c 103e
00000070: 6306 473e c12b 0f3e 72d7 303e 1b5f 523e
00000080: 666c 663e 71c6 653e 0ada 2d3e 2de2 403e
00000090: 078e 273e 10c0 513e 7862 323e 4e1a 493e

net.4.weight f4 [40, 40]
-0.09086328 0.1356687 0.027716042 0.12109218 0.05382755 0.016496649 0.09728698 -0.08156291
0.037908442 0.11890666 -0.12809265 0.088440426 0.15283495 -0.08008388 0.103671804 0.042455785
0.083330415 -0.10910237 0.004155374 0.002928438 0.02372959 0.09176775 0.023474092 -0.13934705
0.010248748 0.15829417 0.12766679 0.0065949233 -0.11221673 -0.12755807 -0.071153246 -0.066811234
0.0016096254 -0.107215956 0.10823784 -0.099326104 0.090925395 -0.06211573 0.033161867 0.11308566
0.052770533 0.13205421 -0.13540068 0.18627699 0.034812808 -0.11621783 0.071135536 -0.07667135
0.12472527 -0.04780962 -0.03677329 -0.10765978 0.13249509 0.050126262 0.055123784 0.12036378
0.07923272 -0.123284906 -0.13127457 -0.029723099 -0.0841176 0.065678574 -0.04243806 0.07772187
-0.029094566 -0.108490944 0.13324629 0.12421228 -0.007127954 0.022182662 -0.06462581 -0.05435009
0.002178178 0.08222037 -0.14835131 0.116504304 -0.06998923 0.0075052343 0.12202088 0.120575435
0.049439285 0.12025446 0.008442183 -0.1311368 -0.0046111573 0.0017919174 -0.002065014 0.11260047
-0.031959843 0.10759028 0.13800319 -0.07365064 -0.02550859 -0.13593191 0.113257036 -0.0461669
0.007923448 -0.09883233 0.017287528 -0.033418603 0.10776291 -0.1415363 -0.10998876 -0.028346594
0.07168636 -0.1473917 -0.09303617 0.033538226 -0.121608585 0.07867147 0.13626505 -0.074773684
0.054121938 0.01887555 -0.06854162 0.029260725 -0.11735343 -0.17233028 0.055995267 -0.082635045
0.0466562 -0.057448126 -0.045469135 0.07565953 0.05827871 -0.005281575 0.10028292 0.03835491
0.07668238 0.06831365 0.12235667 -0.060031552 -0.037479855 -0.107348435 -0.12674491 -0.06948663
0.056714565 -0.10914459 -0.06577251 -0.10644159 0.13107087 0.05960278 0.102645494 0.11042774
0.17311737 0.06668086 0.1462346 0.12279552 -0.12704284 -0.08035592 -0.034097005 0.03710143
0.05103971 0.16614218 0.031001205 -0.04400358 -0.114305764 -0.106022775 0.070301235 0.093048245
-0.0077486187 -0.14776888 0.0871787 0.10281884 0.009435158 -0.099383295 -0.12478123 -0.10288347
-0.055432204 -0.14593208 0.12972774 -0.0026348673 -0.029093482 0.11748089 -0.16090396 0.13877384
0.0074014296 -0.012865974 0.049999613 -0.082222775 -0.1166574 -0.056584165 -0.013220024 0.08094035
0.09877246 0.16072603 0.09426214 0.038323324 0.11043891 -0.06508007 0.04051351 0.0064729787
-0.03915027 0.1039617 -0.1416191 0.11068759 -0.09273314 -0.05111798 0.058659036 0.04102307
0.09463727 0.09830012 0.04225319 -0.09161321 0.1205371 0.12619251 -0.047608312 0.10583254
-0.047571443 -0.11782109 -0.13326472 0.0450386 0.054670814 -0.076153085 -0.14210376 -0.065865666
0.06864624 -0.105651446 0.07447256 -0.11710775 -0.110000156 0.011646071 -0.13229609 0.12621477
-0.050079398 0.036705706 0.03258735 -0.036611233 0.0027725336 -0.16429263 -0.1763647 -0.02786654
-0.029660594 0.13808301 -0.10369791 0.152824 0.01835986 -0.01866608 -0.08429425 0.11243759
-0.067977406 -0.08942823 0.044899154 0.09427722 0.030860286 -0.17427182 0.061888654 0.09071853
0.09987356 -0.005470423 0.1396552 0.15742193 -0.036168046 0.17569777 -0.1045819 -0.046647232
00000000: 8716 babd bcec 0a3e c10c e33c 2dff f73d
00000010: 477a 5c3d fb23 873c 653e c73d 740a a7bd
00000020: e245 1b3d 5685 f33d b82a 03be 4120 b53d
00000030: c480 1c3e 0403 a4bd e251 d43d 1ee6 2d3d
00000040: 23a9 aa3d 1071 dfbd ce29 883b 09eb 3f3b
00000050: 8f64 c23c bbf0 bb3d bd4c c03c feb0 0ebe
00000060: 5dea 273c de17 223e 15bb 023e 3a1a d83b
00000070: e3d1 e5bd 959e 02be cbb8 91bd 54d4 88bd
00000080: 11fa d23a 0a94 dbbd cdab dd3d 7c6b cbbd
00000090: 1837 ba3d 106d 7ebd bdd4 073d 7499 e73d
000000a0: ea25 583d 3839 073e 7aa6 0abe 65bf 3e3e
000000b0: e097 0e3d 9d03 eebd 82af 913d de05 9dbd
000000c0: f66f ff3d 05d4 43bd 979f 16bd bb7c dcbd
000000d0: cbac 073e 3251 4d3d 7ac9 613d 4981 f63d
000000e0: c444 a23d cc7c fcbd d76c 06be db7d f3bc
000000f0: d945 acbd 7d82 863d 88d3 2dbd a52c 9f3d
00000100: ba57 eebc 8030 debd b771 083e 0263 fe3d
00000110: 9d91 e9bb 6ab8 b53c 895a 84bd 339e 5ebd
00000120: c3bf 0e3b 2763 a83d 68e9 17be cf99 ee3d
00000130: 8356 8fbd 78ee f53b 15e6 f93d 41f0 f63d
00000140: d980 4a3d f847 f63d 1551 0a3c ba48 06be
00000150: 3119 97bb c5de ea3a 3055 07bb 139b e63d
00000160: 53e8 02bd 4b58 dc3d b550 0d3e 26d6 96bd
00000170: 64f7 d0bc bc31 0bbe 4ef3 e73d 8119 3dbd
00000180: 5ad1 013c 9b68 cabd 939e 8d3c f2e1 08bd
00000190: cdb2 dc3d e4ee 10be c941 e1bd 1e37 e8bc
000001a0: 4cd0 923d daed 16be bf89 bebd 615f 093d
000001b0: ec0d f9bd 821e a13d 1189 0b3e f222 99bd
000001c0: f7ae 5d3d e6a0 9a3c 8d5f 8cbd 30b4 ef3c
000001d0: ff56 f0bd 5977 30be 4b5b 653d 903c a9bd
000001e0: 921a 3f3d ba4e 6bbd d83d 3abd 62f3 9a3d
000001f0: a8b5 6e3d 1011 adbb 2261 cd3d 0a1a 1d3d
00000200: a70b 9d3d 07e8 8b3d 2296 fa3d a5e3 75bd
00000210: 7a84 19bd 7fd9 dbbd 6bc9 01be 024f 8ebd
00000220: 884d 683d 3387 dfbd bdb3 86bd 0cfe d9bd
00000230: 7137 063e 0b22 743d cd37 d23d f027 e23d
00000240: ae45 313e fa8f 883d 86be 153e 387c fb3d
00000250: 8517 02be a591 a4bd 4da9 0bbd abf7 173d
00000260: 040f 513d 2d21 2a3e 3df6 fd3c 193d 34bd
00000270: 2419 eabd 7822 d9bd 18fa 8f3d 1490 be3d
00000280: 20e8 fdbb ba50 17be bf8a b23d af92 d23d
00000290: ec95 1a3c 7889 cbbd 4d8d ffbd 92b4 d2bd
000002a0: e10c 63bd 386f 15be 59d7 043e bdad 2cbb
000002b0: 7455 eebc d299 f03d 02c4 24be bb1a 0e3e
000002c0: b187 f23b cecb 52bc 65cc 4c3d 6a64 a8bd
000002d0: 13ea eebd ccc4 67bd cd98 58bc 0ec4 a53d
000002e0: 3749 ca3d 5d95 243e 820c c13d ebf8 1c3d
000002f0: cc2d e23d b348 85bd 7ff1 253d 481b d43b
00000300: 095c 20bd dfe9 d43d 9904 11be 2db0 e23d
00000310: dfea bdbd 1661 51bd 7544 703d cf07 283d
00000320: 2fd1 c13d 9351 c93d ae11 2d3d b59f bbbd
00000330: 28dc f63d 9c38 013e ef00 43bd bbbe d83d
00000340: 46da 42bd 2f4c f1bd 8c76 08be 657a 383d
00000350: 81ee 5f3d 26f6 9bbd a683 11be 94e4 86bd
00000360: 6696 8c3d c95f d8bd 1285 983d 30d6 efbd
00000370: c347 e1bd 2acf 3e3c a078 07be 723e 013e
00000380: 0e20 4dbd b958 163d 507a 053d a9f5 15bd
00000390: 65b3 353b 543c 28be f398 34be 5f48 e4bc
000003a0: c6fa f2bc a265 0d3e 925f d4bd e57d 1c3e
000003b0: 6b67 963c 9be9 98bc 77a2 acbd ae45 e63d
000003c0: bd37 8bbd 2626 b7bd 2de8 373d 6a14 c13d
000003d0: b6ce fc3c 5074 32be f57e 7d3d a3ca b93d
000003e0: 828a cc3d 3c41 b3bb c601 0f3e 3733 213e
000003f0: f224 14bd 1eea 333e 092f d6bd 2b11 3fbd

net.4.bias f4 [40]
-0.07728752 -0.10627882 -0.0875551 -0.113158196 -0.09143827 -0.006507065 0.08017824 0.0443963
-0.084891394 0.09583589 -0.050088357 0.0016436452 -0.02496238 -0.018865144 -0.083659776 -0.095901184
0.0739149 0.06655481 0.0012359145 -0.036829177 0.050631024 -0.04681747 -0.046907607 0.05588275
-0.065481886 -0.00736507 -0.025060445 -0.05067693 -0.0073175956 -0.04064572 0.01675141 -0.04305744
0.008486546 0.10836781 0.09038843 -0.041734595 0.005460509 -0.0019181275 -0.015812574 0.0011115464
00000000: eb48 9ebd b6a8 d9bd 1750 b3bd 7cbf e7bd
00000010: fd43 bbbd 3839 d5bb 7d34 a43d e5d8 353d
00000020: 8adb adbd 9b45 c43d 7329 4dbd 956f d73a
00000030: e87d ccbc 138b 9abc d155 abbd d767 c4bd
00000040: b260 973d e34d 883d 69fe a13a 31da 16bd
00000050: 7a62 4f3d adc3 3fbd 3122 40bd 4fe5 643d
00000060: 5e1b 86bd af56 f1bb 904b cdbc 9d92 4fbd
00000070: 71c8 efbb 207c 26bd 413a 893c 005d 30bd
00000080: 270b 0b3c f1ef dd3d 921d b93d e5f1 2abd
00000090: 12ee b23b ae69 fbba 5f89 81bc 4fb1 913a

net.5.weight f4 [40]
1.0280932 1.0155313 0.9963274 0.9693471 1.0318533 1.020607 1.0328224 0.976295
1.0210109 1.0148546 1.0077496 1.0246518 1.0054015 0.9756403 0.97376364 1.0024203
1.0040498 0.9771288 0.9846424 1.0206792 1.0038781 1.0313073 1.007123 0.9823309
1.0234741 1.0294234 1.0030812 1.0139166 0.9731371 0.9773333 1.0173662 1.0261214
1.0297501 1.0165864 0.99890137 1.0350827 0.9788478 0.98722816 1.0309887 1.0151892
00000000: 8f98 833f eefc 813f 500f 7f3f 2227 783f
00000010: c513 843f 40a3 823f 8633 843f 78ee 793f
00000020: 7cb0 823f c1e6 813f f0fd 803f ca27 833f
00000030: ffb0 803f 90c3 793f 9348 793f 4f4f 803f
00000040: b484 803f 1d25 7a3f 8611 7c3f 9ea5 823f
00000050: 147f 803f e101 843f 68e9 803f 0a7a 7b3f
00000060: 3301 833f 25c4 833f f764 803f 05c8 813f
00000070: 831f 793f 8432 7a3f 0e39 823f f257 833f
00000080: dace 833f 811f 823f 00b8 7f3f 977d 843f
00000090: c595 7a3f fcba 7c3f 70f7 833f b8f1 813f

net.5.bias f4 [40]
0.032603517 0.027018417 -0.024880938 -0.027739016 0.03350355 0.028319124 0.032329593 -0.017270356
0.025431838 0.015135569 0.009924002 0.019497901 -0.01838006 -0.026468033 0.0028404424 0.022789262
0.0076888874 -0.030391073 0.02475731 0.018377567 0.020593992 0.0334099 0.030983606 -0.03124445
-0.027091729 0.033834264 -0.022393985 0.030930767 -0.028034097 -0.02964524 0.016885886 0.030231552
0.031978745 0.030068088 0.022593122 0.03503766 -0.030010363 -0.031623628 0.0030344285 0.028558115
00000000: 448b 053d ba55 dd3c 1cd3 cbbc ef3c e3bc
00000010: 053b 093d 82fd e73c 096c 043d 907a 8dbc
00000020: 6e56 d03c 2dfb 773c 4898 223c 10ba 9f3c
00000030: c891 96bc 7dd3 d8bc b726 3a3b 8cb0 ba3c
00000040: 10f3 fb3b b3f6 f8bc d8cf ca3c 8d8c 963c
00000050: bbb4 a83c d2d8 083d 55d1 fd3c 5cf4 ffbc
00000060: 79ef ddbc cc95 0a3d 9773 b7bc 8562 fd3c
00000070: c3a7 e5bc 93da f2bc 4554 8a3c 29a8 f73c
00000080: 25fc 023d 5a51 f63c 3615 b93c a683 0f3d
00000090: 4bd8 f5bc c787 01bd 43dd 463b b5f2 e93c

net.5.running_mean f4 [40]
0.0834923 -0.15775141 -0.09956266 -0.099657044 -0.075216666 -0.09434052 0.40912768 0.0371466
0.19315036 0.23590937 -0.2190071 0.00040249436 0.06724541 -0.1994711 0.2195387 0.0790957
0.020598326 -0.15788816 -0.17102568 0.1068779 0.08482179 0.060251422 -0.056713987 0.107487716
0.030572904 -0.07171801 -0.034108113 0.17629813 0.018230941 -0.02048468 -0.13611953 0.12882634
-0.014922354 0.15398109 -0.17724152 0.04242334 0.085882485 -0.09466923 0.031634122 -0.10034865
00000000: 03fe aa3d 9689 21be 82e7 cbbd fe18 ccbd
00000010: 320b 9abd 9a35 c1bd 2f79 d13e 0927 183d
00000020: 35c9 453e 3a92 713e 6643 60be e105 d339
00000030: f6b7 893d 2742 4cbe c1ce 603e edfc a13d
00000040: d2bd a83c 6fad 21be 5b21 2fbe cde2 da3d
00000050: 0cb7 ad3d 32ca 763d ed4c 68bd 8522 dc3d
00000060: 0774 fa3c e4e0 92bd f3b4 0bbd 7f87 343e
00000070: 0e59 953c 7dcf a7bc eb62 0bbe 0deb 033e
00000080: e47c 74bc 38ad 1d3e cd7e 35be 19c4 2d3d
00000090: 28e3 af3d f1e1 c1bd c892 013d 9883 cdbd

net.5.running_var f4 [40]
0.1470143 0.22860065 0.23763381 0.1813742 0.19094908 0.1758003 0.18715736 0.2137801
0.20918521 0.1482686 0.15151975 0.17583238 0.15477757 0.14532882 0.1946409 0.12900029
0.15277085 0.13601804 0.22449039 0.22945714 0.23589534 0.18449265 0.15088867 0.16399197
0.16233288 0.15246303 0.15653816 0.14091852 0.1943603 0.13981535 0.17269686 0.20544092
0.22502288 0.2243898 0.16977707 0.18836279 0.16362773 0.20483422 0.17420375 0.1963894
00000000: eb8a 163e 4a16 6a3e 4756 733e 29ba 393e
00000010: 2888 433e fe04 343e 2ea6 3f3e 2ce9 5a3e
00000020: a634 563e b9d3 173e fe27 1b3e 670d 343e
00000030: 037e 1e3e 14d1 143e f24f 473e a718 043e
00000040: f66f 1c3e 5048 0b3e cfe0 653e d0f6 6a3e
00000050: 8c8e 713e a4eb 3c3e 8f82 1a3e 83ed 273e
00000060: 973a 263e 451f 1c3e 8a4b 203e f24c 103e
00000070: 6306 473e c12b 0f3e 72d7 303e 1b5f 523e
00000080: 666c 663e 71c6 653e 0ada 2d3e 2de2 403e
00000090: 078e 273e 10c0 513e 7862 323e 4e1a 493e
