bestclf/bestclf_german_n05.pth (torch, 46462 bytes, 23 tensors)

fc1.weight f4 [64, 45]
000000 b9 72 b4 3e ca 08 b9 3e 18 6a 19 3e c4 39 45 3d
       0.35243776 0.36139518 0.14981878 0.048150793
000010 4e c9 41 3e ac b4 19 3e 5a f7 e1 bd 2d 84 24 be
       0.18924448 0.15010327 -0.11033507 -0.16066046
000020 59 61 fe bd 9c 3d 7a bd 06 7b 8c 3e f3 cd 9e bd
       -0.12420911 -0.06109391 0.2743761 -0.077541254
000030 79 7e 89 3e cb 39 2d 3d a2 ab 35 be 6b 5d df bd
       0.26854303 0.042291444 -0.17741254 -0.1090649
000040 f8 44 33 be c4 ea e2 3d b7 6e b0 bd ec 50 7f be
       -0.17506778 0.11079934 -0.08614867 -0.24933213
000050 cf 81 49 3e db 9e 25 3e 89 79 bf bd 36 32 20 be
       0.19678424 0.1617388 -0.09349353 -0.15644154
000060 32 4e f7 bb 7c 3b 1f bd ec 78 00 3f e9 ef 46 bc
       -0.0075471634 -0.038875088 0.5018451 -0.01214216
000070 cf f1 00 3e 07 d3 3f 3e b5 5f df 3c 00 18 42 bd
       0.12592243 0.18732844 0.027267316 -0.04738617
000080 9b b8 64 b9 93 15 08 3c 7c 6b 52 bd bc a4 bf bd
       -0.00021812545 0.008305925 -0.051372036 -0.093575925
000090 80 d0 8d 3e 2a 69 86 bc 39 e7 d7 3d 65 db b9 bd
       0.27698135 -0.016407568 0.10542149 -0.09075049
0000a0 c7 de f8 3d c8 92 29 3c 7f 55 b8 3b 4c 9a 7b bb
       0.121518664 0.010349937 0.0056254263 -0.0038391529
0000b0 b5 fb 10 be eb b9 cf 3d d9 50 b7 be 3a fa 45 be
       -0.14158519 0.10142883 -0.3580387 -0.19333735
0000c0 0e d1 5a bd 67 f6 94 bd c7 a2 32 be 11 a8 e8 3d
       -0.053422026 -0.0727356 -0.17444907 0.11360181
0000d0 ec 1c 6f 3b e9 5f ba bd d5 d8 5f 3e 00 7e cd bb
       0.0036485745 -0.09100325 0.21860059 -0.006271124
0000e0 13 f6 35 bd d7 ef 7c 3e a9 59 bc bd 00 a1 90 3e
       -0.044424128 0.24700867 -0.09196789 0.28247833
0000f0 35 91 09 3d bb 0d cc bc e9 9a e0 bd 1c b4 54 bc
       0.033585746 -0.024908891 -0.10967047 -0.012982395
000100 de 1c d5 3d a5 3e 31 be 88 fe 59 be ee bd ac bd
       0.104058966 -0.17309053 -0.21288502 -0.08434664
000110 c0 75 7f bc b0 f7 b4 be 79 3d 2f 3e 7f ac 49 bd
       -0.015592039 -0.3534522 0.17113294 -0.04923677
000120 bf 73 9c 3e 7c 81 7e 3e 7e d1 19 bd 16 f4 cc 3e
       0.30557057 0.24854082 -0.037553303 0.40029973
000130 e5 21 ca 3e 7e 35 2d 3e 96 03 06 bd 12 3e c0 3d
       0.39478984 0.16914937 -0.032718264 0.09386839
000140 8f cb 2d be 41 80 82 3d 70 f3 9d bd 7e e1 0e bd
       -0.16972183 0.06372119 -0.07712448 -0.034883015
000150 74 b3 76 3d 39 2c 45 bc 9b c0 dc 3c 87 4e 67 3e
       0.060229734 -0.012034469 0.02694731 0.2258855
000160 f6 d6 1f 3d cd e4 9d bd f6 08 55 be 2d 6d af 3e
       0.039023362 -0.07709656 -0.208042 0.34262982
000170 c8 05 d6 3e 6a 1a b8 3c 25 ab 2f 3e 7f 27 6b bd
       0.41801286 0.022473533 0.1715513 -0.057410713
000180 a8 1d 41 3e 5c 46 16 3d 5c 82 d4 3d 36 ca 91 3c
       0.18858969 0.036688194 0.103764266 0.017796617
000190 95 4d 2e 3e 81 f1 69 3e 53 9b 69 3d 7f f6 95 3d
       0.17021783 0.22846033 0.057032894 0.07322406
0001a0 49 e7 82 be 77 f8 b8 3d f2 49 59 be 2c f3 c7 3d
       -0.25567082 0.09031766 -0.21219614 0.09763178
0001b0 8f d2 00 3e 08 65 9f 3d 1c f9 ac ba 0f e0 7f 3d
       0.12580322 0.07782942 -0.0013196799 0.06246954
0001c0 ba ae aa 3e e9 a0 8c be 50 49 1b be 12 20 3a 3e
       0.3333643 -0.27466515 -0.15164685 0.18176296
0001d0 5d da 41 3e ff 42 25 3e 70 37 3f be 51 10 13 3e
       0.18930955 0.16138838 -0.18673491 0.14361693
0001e0 7b cb e6 3d 39 c2 4e 3e ef b3 64 be 3e 60 f7 3d
       0.112692796 0.20191278 -0.22334264 0.120789036
0001f0 15 a7 ac 3d 76 05 3c 3e e0 45 26 3d 2c 5f 59 bd
       0.08430306 0.18361458 0.04059398 -0.05306928
000200 34 ea 38 3e c2 16 0e bd 6b 84 b7 bd 4d 1b 60 3d
       0.18058091 -0.034689672 -0.089608036 0.054713536
000210 c8 e0 47 be f8 4b 0c 3e b1 73 99 bd 95 32 31 be
       -0.19519341 0.13700855 -0.074927695 -0.17304452
000220 c9 e7 07 be 82 39 90 3c c5 07 42 3e cf 83 8c bd
       -0.13272013 0.017605547 0.18948276 -0.06861078
000230 67 87 a7 3d be 77 18 be 6d a8 a9 3d d5 c8 5d 3d
       0.08180123 -0.14889428 0.08284078 0.054146606
000240 c7 d1 ee bd 3c 0c 90 be 6b 41 8b be 9a b6 2d 3d
       -0.116611056 -0.28134334 -0.27198347 0.04241047
000250 8d 1a 7e 3e 7f 42 3c be 99 c4 04 bd 3e 59 09 3b
       0.24814816 -0.18384741 -0.032414053 0.0020957734
000260 cc d5 6d be b9 27 56 3d 22 5b a9 3c 4e 88 10 bc
       -0.23226088 0.052283976 0.020673338 -0.00882156
000270 b5 ed 8b bd e2 d8 a8 be 2e fd 35 3b 5d 14 9d bd
       -0.068324484 -0.32977968 0.0027769315 -0.076698996
000280 05 88 1f bd 68 63 bf bc 04 07 d2 bc 08 1c 00 3d
       -0.038948078 -0.02336283 -0.025638111 0.031276733
000290 7c 67 2c be a8 08 44 be 33 7d ff 3d 34 aa c0 bc
       -0.16836351 -0.19143927 0.12475052 -0.02351866
0002a0 3c eb d3 3d f3 4d 03 bd 32 27 20 3e d0 9e 7c 3c
       0.10347602 -0.03205676 0.15639952 0.015418723
0002b0 1e c2 ba 3d 48 b1 df bc ad 98 08 3e ba 1f be 3d
       0.09119056 -0.027306214 0.13339491 0.09283395
0002c0 2e 34 59 3e 23 8f 91 3d 72 e4 82 3b 8e 2e d5 bd
       0.21211311 0.07107379 0.003994518 -0.1040927
0002d0 ee ed 92 3d 6c 02 83 3e 17 aa 77 be 1c 94 05 be
       0.07174288 0.25587785 -0.24185978 -0.1304478
0002e0 b8 41 dd 3d 09 ae 07 3e 57 3c b9 bd 70 09 68 3e
       0.108035505 0.13249983 -0.09044712 0.2265985
0002f0 71 42 fb 3d de ac 63 3e b7 ab 6f be 19 6a ea bc
       0.12268532 0.22233912 -0.23405348 -0.028615044
000300 fe 74 de bd 5e 8e 56 be 2d 00 0c be 79 eb c0 bd
       -0.10862158 -0.20952746 -0.13671942 -0.09419913
000310 29 5b 9d bd a5 ae d2 3d 79 91 02 bd 0a d8 9c bd
       -0.07683403 0.10287217 -0.031877015 -0.07658394
000320 19 33 08 3e be 53 96 be 8c 72 d8 3c 8d ab 66 bc
       0.13300742 -0.29360765 0.026421808 -0.014078987
000330 14 bd 50 be f0 48 0b bc e4 e3 16 be 1d bb 64 3e
       -0.20384628 -0.008501276 -0.14735371 0.22337003
000340 cf e5 8f bb 5d e6 20 bd 43 11 20 be 13 cc 63 3e
       -0.004391409 -0.03928219 -0.15631585 0.22245817
000350 09 c6 39 bd e0 2f 4f 3b 28 f9 06 be ff 5f 8b bd
       -0.045354877 0.003161423 -0.13180983 -0.06805419
000360 af f1 3c be 8e 4a d0 3d 74 25 b4 bd 38 64 12 3e
       -0.1845157 0.1017047 -0.08796206 0.14296043
000370 2c 53 36 be 28 79 81 3d 88 c7 97 bd 7d 34 60 be
       -0.17805165 0.06321937 -0.074111044 -0.21895023
000380 c9 37 e2 bc 30 75 a7 3d 85 1e 99 bd c1 e7 07 be
       -0.027614491 0.081766486 -0.07476524 -0.13272001
000390 b7 6c 00 3e 02 48 1a 3e 69 16 04 3e e3 6d 17 3d
       0.12541471 0.15066531 0.12899174 0.03697003
0003a0 0b c7 95 be 3c bd 01 bd 54 95 a0 3e 4e b2 8e bd
       -0.2925342 -0.03167461 0.31363928 -0.06967603
0003b0 ba f9 a4 3e 3d 4e 26 3d 0e 6c ce 3d 0e fc 98 3d
       0.32221776 0.040601958 0.100792035 0.074699506
0003c0 a1 33 18 be b7 54 2a 3c d0 12 6b be 1b 6d 6f 3e
       -0.14863445 0.010396174 -0.22956395 0.23381464
0003d0 2b 0d 8d 3d c4 41 03 bd 80 97 0f 3e cf 44 9a be
       0.06887277 -0.03204514 0.14022636 -0.30130622
0003e0 0c d9 1b be 73 81 9c 3c a4 c3 8f 3d 7b b2 d0 3d
       -0.15219516 0.019104695 0.07019737 0.101902924
0003f0 b7 52 0a bd d8 d9 eb 3d 35 fd a9 3d 51 d7 24 3e
       -0.03377029 0.1151616 0.083002485 0.16097762

fc1.bias f4 [64]
000000 1e c0 57 b6 b1 f6 15 b4 f7 d5 28 37 ce 0c 3a b4
       -3.2149323e-06 -1.3966452e-07 1.0063398e-05 -1.7327258e-07
000010 74 5c 62 b6 eb 61 fd b5 7c ba 86 b6 0f 97 34 37
       -3.373044e-06 -1.8878467e-06 -4.015221e-06 1.0764007e-05
000020 e6 b5 bd 35 cb ab 03 36 8d 27 16 36 cf ca 0a b4
       1.4134537e-06 1.9620518e-06 2.2374763e-06 -1.2926033e-07
000030 be bf 37 b5 9f 85 b5 b6 34 c6 07 37 2a eb 58 36
       -6.8451834e-07 -5.409776e-06 8.092775e-06 3.2323392e-06
000040 40 ea 00 36 f1 b4 14 35 10 97 f7 34 8d cd 57 36
       1.9209838e-06 5.53976e-07 4.6117248e-07 3.2157143e-06
000050 45 1f c4 34 2e d8 f9 36 cd d3 c3 b5 86 95 72 34
       3.6530597e-07 7.445945e-06 -1.4590274e-06 2.2592403e-07
000060 c4 ba 50 b5 2a b6 24 b5 68 3d 1f b7 37 82 f4 b6
       -7.775782e-07 -6.1359844e-07 -9.491436e-06 -7.2869257e-06
000070 09 92 a6 35 cf db 4a b5 95 e6 ed b6 c1 50 2c b4
       1.2410466e-06 -7.557073e-07 -7.0899937e-06 -1.6048126e-07
000080 b3 64 f1 35 53 ec 32 b5 d9 c3 4a 36 e9 a3 97 b6
       1.7985207e-06 -6.6654064e-07 3.0214344e-06 -4.5192323e-06
000090 c1 23 b1 35 0d c4 e3 b6 b1 b3 0d 37 06 94 db b5
       1.3197933e-06 -6.7879505e-06 8.446093e-06 -1.6359852e-06
0000a0 ec 44 3e 36 8b 17 56 b4 28 d5 f6 b5 12 cb 67 b6
       2.8352324e-06 -1.9938868e-07 -1.8390465e-06 -3.4539885e-06
0000b0 f6 3c 8d 35 a0 4c 2c 33 04 09 c4 36 72 88 ca 34
       1.0523061e-06 4.011656e-08 5.8423047e-06 3.772471e-07
0000c0 56 a9 a4 36 18 e1 4e b5 31 26 81 b6 2d 45 bb 36
       4.907294e-06 -7.7068535e-07 -3.8489457e-06 5.5810874e-06
0000d0 53 24 35 b5 c8 10 8a b7 59 58 04 b7 6f 17 9a b5
       -6.7480613e-07 -1.6458696e-05 -7.888383e-06 -1.1480714e-06
0000e0 0e 37 7a b6 d8 c1 87 b6 97 b1 18 35 50 f2 12 b6
       -3.728495e-06 -4.04588e-06 5.688284e-07 -2.189674e-06
0000f0 48 4e e5 36 45 39 2f b6 71 5e d0 b6 0f 1a 3f b7
       6.833845e-06 -2.6110367e-06 -6.2098775e-06 -1.1390554e-05

fc2.weight f4 [64, 64]
000000 47 51 a3 bd f7 2d b2 bd 16 7e 6d bc 0a 9e c3 ba
       -0.07974487 -0.08700173 -0.014495393 -0.0014924419
000010 d7 70 b0 3c 4c 2d 35 bd f6 07 07 be e6 01 89 bd
       0.021538181 -0.04423265 -0.1318663 -0.06689815
000020 6e d7 0f bd 48 df e1 bd 76 c9 40 bc d2 4a 4f ba
       -0.03511756 -0.11028916 -0.011766782 -0.00079075724
000030 4a c4 aa 3c 2b 3e 3d 3d a3 13 f1 3b 81 75 69 3c
       0.020845551 0.046201866 0.007357077 0.0142492065
000040 25 5d 8d bd 2f 2a 01 3a 87 a5 05 3d fd 18 6f bd
       -0.069025315 0.00049272453 0.032628562 -0.05837344
000050 ab a3 ad 3d bb 96 9b 3d b5 f9 e8 bd de 3f 99 bc
       0.08478483 0.07597109 -0.11375753 -0.018707212
000060 cf 69 2d bd ab b5 a6 3e b0 a4 63 bc 81 8c c8 bd
       -0.042337235 0.32560477 -0.013894245 -0.09792424
000070 b7 c5 41 bd c5 82 cb bc 87 dc b3 bb c3 ea 75 bd
       -0.047307696 -0.02484263 -0.0054889354 -0.06003834
000080 f3 38 a6 bd 62 17 45 bd 94 09 84 bd fd 7c 9a bc
       -0.08116331 -0.048118003 -0.064471394 -0.018858427
000090 28 b9 6f bc ea bf 25 bd d2 90 1b 3d 35 d0 86 3d
       -0.014631547 -0.040466227 0.03797991 0.06582681
0000a0 c5 7f 23 3c 94 4a 13 bd 24 23 4c bc be 71 26 3a
       0.009979193 -0.035959795 -0.01245955 0.00063493464
0000b0 2b 69 a0 bd 0e 5c c1 bc 42 a8 95 3c 46 99 c7 3d
       -0.07832559 -0.023603465 0.018268708 0.097460315
0000c0 06 7a 73 bd 73 ad da bb b5 28 3b 3d 9e 41 4e bd
       -0.059442542 -0.006673509 0.045693118 -0.050355546
0000d0 1d 52 b5 bd f7 4a 8c bc b4 90 6a 3c 9d c5 ba bc
       -0.088535525 -0.01712559 0.0143167265 -0.022799307
0000e0 f6 de 9a bd 43 86 94 3c 06 13 4b 3e e4 65 1d 3c
       -0.07562058 0.018130427 0.19831476 0.009606812
0000f0 86 41 66 bd 36 e7 1a bd 71 14 e1 bc d4 d6 8d 3d
       -0.05621483 -0.037818156 -0.027475568 0.06925741
000100 8f 97 a9 3e 72 24 ca bc 82 44 59 bd 13 ec bf 3b
       0.33123443 -0.024675582 -0.05304385 0.0058569997
000110 f1 87 7f bc 2e ba 85 3c 31 f2 a2 3d b7 a7 22 3c
       -0.015596376 0.016324129 0.079563506 0.009927682
000120 34 a3 27 bd f0 ce 58 3e 49 dd c1 bb 5f 88 ee bc
       -0.040927127 0.2117269 -0.005916272 -0.029117761
000130 81 64 4e bd 78 4c 3e 3d 91 6b 1f bd a0 67 78 3d
       -0.050388817 0.046459645 -0.038920943 0.0606457
000140 6a 1d d1 bd b0 81 28 bd 03 5e 89 bd 24 3a 94 bc
       -0.102106884 -0.041139305 -0.067073844 -0.01809413
000150 8e 93 15 bd 70 00 6f bd 72 aa 7a bb 2d ca 8e bd
       -0.036517672 -0.058350027 -0.0038248566 -0.06972156
000160 e1 1e f2 bc 9c cb 77 bc e4 11 51 bc 79 28 6a 3d
       -0.02955574 -0.015124228 -0.012760613 0.057167504
000170 91 b5 86 ba b1 06 93 3e 32 ce 30 bd 5a 0f 94 bd
       -0.00102775 0.28716043 -0.043165393 -0.072294906
000180 38 02 dc 3c 34 7c 46 bc 6e 80 95 ba 66 b1 29 bd
       0.026856527 -0.012114573 -0.0011406073 -0.041428946
000190 8a 49 d3 3c 09 7c 43 3c 30 6f 97 bd 88 4e 06 bd
       0.025791902 0.011931428 -0.07394254 -0.032789737
0001a0 be 27 51 bd 66 37 a1 3d 69 a0 fe bb 58 d3 82 bd
       -0.05106329 0.078718945 -0.007770587 -0.06387967
0001b0 35 a6 fd bc 17 6b 83 bd d2 8e a3 3e c1 4b 0a bd
       -0.030963043 -0.0641691 0.319449 -0.03376365
0001c0 cc 13 57 3e bb 45 75 bd 9b 59 55 bd 9c 98 85 bd
       0.21003646 -0.059880953 -0.052087408 -0.065232486
0001d0 c4 96 8c bd 4b 91 e9 3c 49 cb b0 bc 15 d5 63 bd
       -0.06864694 0.028511664 -0.021581309 -0.055623133
0001e0 76 44 56 3c 10 a7 90 bd f2 ba 06 bd c5 42 89 bd
       0.013077846 -0.07063115 -0.03289313 -0.067021884
0001f0 51 a3 a8 bd b3 7c df bb 6f 0f 7a bd cf f1 c9 bc
       -0.08234275 -0.006820285 -0.061049875 -0.024651436
000200 f7 3c 67 bd 45 b7 05 3c 28 72 73 3c 8e 46 51 3d
       -0.056454625 0.008161371 0.01485876 0.051092677
000210 62 53 aa bc ec d3 4c 3d 39 06 09 3d 3d 10 c2 3c
       -0.020791713 0.050006792 0.0334532 0.023689384
000220 e7 4d c9 3e e3 60 db ba 54 39 da bc 53 87 28 3d
       0.39317247 -0.0016737249 -0.026638664 0.04114468
000230 0c 86 ed bc 7b a4 54 3d e5 33 4a bd 2a 9b f6 bc
       -0.028994583 0.051914673 -0.049365897 -0.030103285
000240 e2 d0 7e bd c5 87 71 3a d0 15 91 bd 03 6c b1 bc
       -0.062210925 0.00092136516 -0.070842385 -0.02165795
000250 38 f4 01 bd d1 94 98 bd 17 29 57 ba 13 0d 22 3c
       -0.031727046 -0.074502595 -0.0008207722 0.009890812
000260 d8 0f 0b bc ad 8f da bc d9 1f a4 3e 46 b2 cc 3b
       -0.008487664 -0.026679838 0.32055548 0.006246838
000270 66 d1 9b bd f1 d2 ad 3e a2 63 0d 3c 07 a9 3a bd
       -0.07608299 0.33949998 0.008629711 -0.045571353
000280 25 1d 8b bd d3 81 8d bc 80 3a a3 3d 2b 17 f3 bb
       -0.06792668 -0.01727382 0.07970142 -0.0074185333
000290 c6 15 86 bc 89 72 40 3c dd d6 b4 bb 9f 51 75 bd
       -0.016367804 0.011746057 -0.0055187778 -0.059892293
0002a0 1b 57 95 3a 87 33 88 ba 28 e4 1b 3c 6b 4a 68 bd
       0.0011393757 -0.0010391333 0.009514846 -0.056711596
0002b0 2e 38 3c bc 0f 15 17 bc a1 78 b5 3b 81 47 83 bd
       -0.011488004 -0.009221329 0.0055380617 -0.06410123
0002c0 36 87 45 3d 4c 79 62 bd 06 95 70 bd 97 6e c8 bc
       0.04822465 -0.05529146 -0.05873587 -0.024466796
0002d0 ba 10 81 bb 19 bb bc bd ec 42 f5 bc 21 33 71 bc
       -0.0039387615 -0.092153735 -0.029939137 -0.014721663
0002e0 ad 1f 32 bc 96 1c 68 bc a1 56 3f bd f8 d4 b4 3d
       -0.01087181 -0.014166972 -0.046713475 0.08829683
0002f0 f6 7f 82 bc 83 2f e7 3c 84 7b 3a bc 06 eb 93 bd
       -0.015930157 0.028220898 -0.0113819875 -0.072225615
000300 e4 33 d2 bd 60 f0 ce bd 1b 3b c5 3d 70 70 06 3d
       -0.102638036 -0.10104442 0.09630414 0.032822073
000310 84 dd 01 3c 16 48 c6 bd bf b3 cd bd 82 55 ae bc
       0.007926349 -0.09681718 -0.100440495 -0.021281008
000320 39 06 a4 bb 47 ce f8 bd bf 50 dd bd 5f a9 e5 bd
       -0.0050056246 -0.12148719 -0.10806417 -0.112139456
000330 2b bf 11 3e ef a4 15 bd cd 73 e0 bc f6 65 ad bc
       0.14233081 -0.036534246 -0.027398968 -0.021166783
000340 6f 2b 4b 3d f5 75 05 3e 5c 95 54 3e 3b eb c0 bd
       0.04960197 0.13033278 0.20760101 -0.09419867
000350 91 c2 35 3e 96 dd db 3b b4 aa 48 bd 25 ab f6 bd
       0.17750002 0.0067097647 -0.04899092 -0.12044362
000360 0a 29 8d bc ac 96 38 be 45 95 42 bd 60 f7 9c bd
       -0.017231483 -0.18026227 -0.047505636 -0.076643705
000370 3f 78 8d bd 62 72 85 3b b5 82 e8 3c d1 48 d0 bd
       -0.06907701 0.0040724734 0.028382638 -0.101701386
000380 69 e8 db bb 96 b1 79 be 76 03 bc bd d8 51 20 bd
       -0.006711055 -0.2438415 -0.091803476 -0.039140552
000390 a0 12 c7 bd d7 83 15 be 35 da 8e bc 5c dc 3c be
       -0.09720349 -0.14601074 -0.017438034 -0.18443435
0003a0 36 18 09 bd 58 20 b7 bd f0 00 d3 bd dc d0 da bd
       -0.033470355 -0.08941716 -0.10302913 -0.10684368
0003b0 ee 1f cf bd c6 6d cf 3d f1 6b e2 bd 62 61 d0 bc
       -0.10113512 0.101283595 -0.110557444 -0.02543706
0003c0 ca 5c bb bd 89 d3 21 3e 41 6e f2 bd 22 ce 16 bd
       -0.091485575 0.1580335 -0.118374355 -0.036817677
0003d0 db 18 02 bd 0c 2d ed bc f9 77 92 bd ca 39 07 be
       -0.031761985 -0.028952144 -0.07151789 -0.13205639
0003e0 b1 a9 bb bd 08 6c 07 3e b5 b6 8c 3d f2 03 03 bd
       -0.091632254 0.13224804 0.06870786 -0.031986184
0003f0 a5 92 18 be 03 ef 13 be 79 8a fe bc 45 11 60 be
       -0.1489969 -0.14446644 -0.031071888 -0.21881588

fc2.bias f4 [64]
000000 d8 80 92 35 95 05 ef 36 aa 33 b2 b5 f7 d5 1a b6
       1.0915346e-06 7.123405e-06 -1.327707e-06 -2.3072332e-06
000010 c5 19 95 b5 a6 e2 3f 36 00 78 8b b4 b1 a2 21 b6
       -1.1108865e-06 2.8593145e-06 -2.597808e-07 -2.4085568e-06
000020 17 c4 87 b4 b7 91 f6 35 35 be f1 35 38 66 8f 34
       -2.5288384e-07 1.8370837e-06 1.8011257e-06 2.67102e-07
000030 5b cc c7 35 4d 1f 9c b5 f9 ee 08 35 07 2a 8d 34
       1.4886131e-06 -1.1632015e-06 5.10117e-07 2.6293876e-07
000040 65 da a0 b5 87 ed 88 b6 55 ad c7 b5 43 5d 99 b4
       -1.198449e-06 -4.0807677e-06 -1.4877102e-06 -2.8566328e-07
000050 f8 46 60 36 9e dd c8 b5 84 41 1b 36 a4 c4 21 36
       3.341991e-06 -1.496566e-06 2.3134935e-06 2.410533e-06
000060 dd a3 c6 36 60 cc 2a b6 1c a7 90 35 7f 58 d3 35
       5.919936e-06 -2.5450936e-06 1.0777471e-06 1.5746481e-06
000070 14 fc 02 b5 b7 71 e8 b4 54 52 d7 b5 2f 32 ea b5
       -4.8795596e-07 -4.3296106e-07 -1.6042709e-06 -1.7448964e-06
000080 27 45 db 34 21 c5 d5 b6 53 9a 26 b4 68 23 c2 b6
       4.0842244e-07 -6.3708435e-06 -1.5516098e-07 -5.7857724e-06
000090 57 fe c6 b5 84 c9 7a 35 8f 54 51 35 4a 7e 86 34
       -1.4826172e-06 9.34255e-07 7.7981616e-07 2.5051332e-07
0000a0 21 93 32 b6 25 79 32 b6 49 30 82 36 a8 c3 81 36
       -2.6609707e-06 -2.6594582e-06 3.879923e-06 3.867277e-06
0000b0 52 e8 a8 35 ac e1 db 35 19 d3 ec b5 38 dc e7 35
       1.258459e-06 1.6382451e-06 -1.7644808e-06 1.7274933e-06
0000c0 76 70 76 b5 3f 5f 9d 36 8f 7b bb 35 16 c3 e5 33
       -9.1805794e-07 4.6900527e-06 1.3968546e-06 1.06991294e-07
0000d0 72 3e 30 b5 17 cc ca b5 26 b1 cf 35 3e 19 b5 33
       -6.565598e-07 -1.5109571e-06 1.5474259e-06 8.433061e-08
0000e0 89 0b dc b2 40 5b 81 b6 ef 83 91 b5 9b 34 b4 34
       -2.5616616e-08 -3.8551225e-06 -1.084174e-06 3.3565888e-07
0000f0 0b 98 b8 b5 49 be 5a b6 85 9e 1f 34 63 4b 32 35
       -1.3753319e-06 -3.2595292e-06 1.4865698e-07 6.641987e-07

out.weight f4 [1, 64]
000000 fe 59 3b 3f 9c 2a 55 bf 3d 34 41 bf 4f ed 78 3f
       0.7318419 -0.8326814 -0.75470334 0.97237104
000010 6c 15 8f bf a2 ae 65 bf 64 39 3d 3f b7 a4 2b 3f
       -1.1178412 -0.89719594 0.73915696 0.6704821
000020 e9 0f 3a 3f 78 04 48 bf c6 d5 75 bf 16 75 2a 3f
       0.72680527 -0.7813182 -0.9602932 0.6658491
000030 a0 ce 3e 3f e6 2b 3f 3f a7 9a 3f bf f0 bf 76 3f
       0.74534035 0.7467636 -0.74845356 0.96386623
000040 02 32 36 3f e0 c5 5b bf 0a 46 42 3f ca 1d 36 3f
       0.71170056 -0.8584881 0.7588812 0.71139205
000050 b0 28 5a bf a6 ea 50 bf 3e 2f 30 3f 5f ee 37 bf
       -0.85218334 -0.81608045 0.68822086 -0.718481
000060 6f 9d 84 bf 5a 73 91 bf 30 9a 41 bf e4 bf 3f 3f
       -1.0360545 -1.1363328 -0.75625896 0.74902177
000070 29 a5 74 3f 67 14 47 3f a4 c3 3f bf d2 1c 50 bf
       0.95564514 0.77765507 -0.749079 -0.81293976
000080 d3 72 22 3f de 1b 5d 3f 2d b1 58 bf 0d 1c 56 3f
       0.6345646 0.86370647 -0.8464535 0.8363655
000090 6e a8 82 bf 34 bd 44 3f d3 f1 8d bf 63 54 5f bf
       -1.0207651 0.768512 -1.1089424 -0.8723814
0000a0 2c 0d 2b 3f da ac 4d bf 92 ae 49 3f ed de 89 bf
       0.66816974 -0.80341876 0.78782 -1.0771157
0000b0 4a 44 45 3f d4 2c 4e 3f b9 66 52 bf da f5 7c bf
       0.77057326 0.8053715 -0.8218799 -0.9881264
0000c0 b5 35 3a bf cf f8 48 3f dd 78 4f bf 1a a6 43 3f
       -0.727382 0.7850465 -0.810438 0.76425326
0000d0 05 65 58 bf ce 19 6e 3f c5 a6 42 3f 9f 77 6e bf
       -0.84529144 0.93008125 0.7603572 -0.9315128
0000e0 32 6a 43 bf 0f 22 41 3f dd 00 3e bf f2 f3 42 bf
       -0.76333916 0.75442594 -0.7422007 -0.7615348
0000f0 c9 bf 8a bf 1d 17 97 bf 76 bc 32 bf 81 5e 24 3f
       -1.0839778 -1.1803929 -0.6981882 0.642067

sep_conn.weight f4 [64, 45]
000000 5c 8f e8 3d 81 2f 8d bc 28 04 b8 bd c4 e3 9f 3d
       0.11355469 -0.017234566 -0.08985168 0.07807115
000010 62 21 f4 3d fa 04 a9 bd dd cf 56 bd 26 72 8c bc
       0.1192043 -0.08252902 -0.052444328 -0.017144274
000020 34 81 87 bc 8c 7b 67 3d d0 a3 f4 bd 39 04 55 3d
       -0.016541101 0.056514308 -0.11945307 0.05200598
000030 7d e4 fe bb d4 3b 18 be ee 21 ed 3c 34 3b 8f 3d
       -0.007778703 -0.14866573 0.028946843 0.06993714
000040 d4 47 d7 3d 11 15 da 3d 02 e1 e5 bd d9 55 c1 3d
       0.10511747 0.10648549 -0.112245575 0.09440202
000050 fa d4 10 3e ad bb 2f 3c 65 27 79 bb f7 f7 aa bd
       0.14143744 0.010725898 -0.0038017866 -0.08348077
000060 a7 5f 03 be 7a 17 4f bd d3 ac 25 3d a7 f1 cb bd
       -0.12829457 -0.0505595 0.04044802 -0.09958201
000070 bd 4b 00 3d 64 df 14 3e c3 e0 09 3d 5a 01 04 3e
       0.03132223 0.14538342 0.033661615 0.1289114
000080 f2 60 28 3d ab d5 8f bc cb 8e 3d bd 9c 71 09 be
       0.04110808 -0.01755794 -0.046278756 -0.13422245
000090 7b a4 5e ba 87 f0 13 3e e9 8d 70 3c 06 4f c0 3d
       -0.00084931374 0.14447223 0.0146822715 0.093900725
0000a0 8f 76 df 3d 4e 5d 3a bd 62 3d cc 3d 59 2f a2 bd
       0.10911285 -0.04549914 0.09972645 -0.07919187
0000b0 6c 29 f3 3d 97 cf cf bd eb dd 9c 3c 0e 75 e8 3d
       0.11873135 -0.101470165 0.019148787 0.113504514
0000c0 8a c3 11 3e 93 57 07 3e 21 90 16 3e dc f7 05 be
       0.14234748 0.13217 0.14703418 -0.13082832
0000d0 1e 00 6c 3d 37 95 b3 3d 0e 44 0f 3e fa 7b 0b bd
       0.0576173 0.08768695 0.13990805 -0.03405378
0000e0 ef b4 d0 3d 39 02 a5 bd 58 88 f8 3d 97 c9 d0 bc
       0.1019076 -0.080570646 0.121353805 -0.02548675
0000f0 cb a1 16 bd 5d 49 89 bd 26 6e 9b bd 45 22 cb 3d
       -0.03677539 -0.06703446 -0.075893685 0.09918646
000100 d5 75 4b 3d 2f c3 13 3e b9 03 34 bd e6 8f f2 bd
       0.04967292 0.14429925 -0.043948863 -0.11843853
000110 48 7f fe 3d 19 a6 b3 3d 32 fc 9a bb 91 84 96 3d
       0.12426621 0.08771915 -0.004729771 0.07349504
000120 78 f4 c7 3d 39 c5 ae 3d de dc ca 3c 21 78 10 be
       0.097634256 0.08533711 0.02476352 -0.14108326
000130 38 e8 10 be 88 3d 04 bd 9c a1 10 3e 51 cf 10 3e
       -0.14151084 -0.032285243 0.14124149 0.14141585
000140 bb 5f 12 be 64 7d fb bc e1 cc f2 bb 62 f4 0e be
       -0.14294331 -0.03069944 -0.0074096774 -0.13960412
000150 6c d8 35 3d 63 69 cc 3d 55 64 97 3d 00 76 93 bd
       0.04439585 0.099810384 0.07392184 -0.07200241
000160 fc 18 5c 3d 20 f6 e9 bd d3 db bb bd f8 84 c5 3d
       0.053734764 -0.11423898 -0.091727875 0.096445024
000170 da 7e 4b 3d 00 17 d3 bd 61 4c 89 bc 05 69 03 be
       0.049681522 -0.10307121 -0.016760053 -0.1283303
000180 42 1a b3 3d 4f 91 db bc 48 78 a2 bd de a6 8e b9
       0.08745243 -0.026802687 -0.07933098 -0.00027208676
000190 72 6c af 3b fe f1 52 3d 44 23 b2 bd c0 50 07 be
       0.005353504 0.051500313 -0.08698133 -0.13214397
0001a0 7b 62 fe bd 62 fa 72 bd 41 f0 0d 3c 6c bc 43 3c
       -0.124211274 -0.059320815 0.008663238 0.011946779
0001b0 d0 2c 83 3d 0a 3c ea bc be b8 f6 bd aa 27 f5 bd
       0.06405032 -0.028593082 -0.120469555 -0.11970456
0001c0 c6 93 88 3d bf 67 fe 3d 08 39 00 3e b5 6b 01 be
       0.066688105 0.12422132 0.12521756 -0.12638743
0001d0 ae be a7 bd 96 d6 0b 3e cc 76 b0 bd 10 fc c2 3d
       -0.08190666 0.13656077 -0.08616409 0.09520733
0001e0 1b 7a bf bd e1 e5 db bd 4a 41 f6 bd 80 d7 40 3d
       -0.09349462 -0.10737205 -0.12024172 0.047080517
0001f0 11 c8 70 bd 5e be 00 3e 98 2c 86 bd a8 b1 13 3d
       -0.05878455 0.1257262 -0.06551474 0.036058098
000200 a4 9e b1 bd 2b b9 ae 3d 09 b3 7e 3d 58 27 0b be
       -0.086728364 0.08531412 0.06218246 -0.13589227
000210 5e 25 9c 3c 82 e0 d4 3d 30 02 96 bd b4 5a f9 3d
       0.019060787 0.10394384 -0.07324636 0.121755034
000220 22 7e de 3c dc c4 1e bb 4b 03 7a 3d c2 d0 03 3e
       0.027159754 -0.0024226224 0.061038297 0.12872604
000230 28 10 84 3a 8b 70 d6 3d 71 54 9f 3d 2b 21 98 bd
       0.0010075616 0.104706846 0.07779778 -0.07428201
000240 57 6d 3e 3d 6e 10 18 3e cb d3 c0 3d d8 24 af 3d
       0.046490993 0.14850017 0.09415396 0.08551949
000250 ad 8b 52 bd ce 51 8e bd ed 07 12 3c 94 59 9f 3d
       -0.051402736 -0.06949197 0.0089130225 0.077807575
000260 32 72 ce 3d fd f1 fc bd b3 a6 e5 bb 1d 9f 02 3e
       0.10080375 -0.12350843 -0.0070083975 0.1275601
000270 4d 38 ce bd 3c 0d 81 bc f3 99 cd bc 3e 66 ca 3c
       -0.10069332 -0.015753381 -0.025097823 0.024706956
000280 53 6d 27 bd d1 96 eb 3c e5 5f eb 3d 37 b0 b9 bd
       -0.040875744 0.028758438 0.114929 -0.090668134
000290 e9 71 ef 3d 27 e8 da bc 7a 08 fc bc 97 4f 0d be
       0.116916485 -0.026722027 -0.03076576 -0.13799892
0002a0 10 c4 02 be 32 09 df 3d 58 6a ac 3d 4c 9c 48 3c
       -0.12770104 0.10890426 0.08418721 0.012244295
0002b0 9a e7 e5 3d 06 db f8 bd 55 d4 0e bc 58 ef 9d 3d
       0.11225815 -0.121511504 -0.008717616 0.07711667
0002c0 07 e4 0b be d3 37 87 3c 39 05 0b bd 4f b9 86 3d
       -0.13661204 0.016506111 -0.033940528 0.065783136
0002d0 39 1f 13 be ee e2 03 bd cf 67 ca 3b c6 d0 cb bd
       -0.14367379 -0.03219884 0.0061769257 -0.0995193
0002e0 ef 1c 87 bd 1c a5 94 3a ad 4e 1f 3c 0d 65 cf 3d
       -0.065973155 0.001134071 0.009723348 0.10126696
0002f0 a8 c4 cd 3d e3 6e 59 3c 88 85 4c bd 44 fc d9 bd
       0.10047275 0.013271066 -0.049932033 -0.10643819
000300 fb d3 cb 3d eb d7 a0 3d 82 a9 be bd eb dd 0d bd
       0.099525414 0.07853683 -0.09309675 -0.034635466
000310 d9 e7 f1 3d 41 34 10 be cf 55 0d be 9f 8a e1 3d
       0.118117996 -0.14082433 -0.13802265 0.11012768
000320 8d 39 ad bc 28 4a 07 3e 5f 93 0a 3e a6 ad a2 3d
       -0.021145606 0.13211882 0.1353278 0.07943277
000330 c0 74 92 bd ea 77 9b bd df 2e bf bd 0a b4 88 bd
       -0.071511745 -0.07591231 -0.09335112 -0.06674965
000340 82 48 ff bd 2a cb 9d bd d0 a9 a4 3d 75 94 b6 bd
       -0.12465002 -0.07704766 0.08040202 -0.08915035
000350 eb 89 69 bd 23 7e b3 3d 8c f3 56 bd 60 b9 01 bd
       -0.057016294 0.08764293 -0.05247836 -0.031670928
000360 45 0c bc 3c 72 51 04 be 1f 20 cd 3d 96 c7 a1 bd
       0.02295507 -0.12921694 0.10015892 -0.07899396
000370 e4 ad 8e 3d 23 ad e3 3d 78 3c c2 bd c0 b6 30 3d
       0.06966761 0.111170076 -0.0948419 0.043143034
000380 0e bf 6a bd b9 96 15 3e 8b ef 08 3e 87 24 a5 bd
       -0.05731111 0.14608277 0.13372628 -0.08063608
000390 c5 4f 16 3e e4 85 b4 3d 5b 9e 14 3e 61 2f 9a bd
       0.14678867 0.088146 0.14513533 -0.07528568
0003a0 75 ef 1e bd 2a 7b af bd 5f 9a 9c 3d cd 1f 09 be
       -0.038802583 -0.085684136 0.076466314 -0.13391037
0003b0 6b 95 8f bc eb 09 fa 3d bd f4 02 be 85 7b b3 3d
       -0.017527303 0.12208923 -0.12788673 0.08763794
0003c0 72 90 2a 3b 37 17 5e bd a5 fd e0 3c a8 34 77 bd
       0.0026026038 -0.05422136 0.027464697 -0.06035295
0003d0 ba ba 14 3e 14 ce 9c bc 0f 90 18 3d a9 02 0e be
       0.14524356 -0.019141234 0.03724676 -0.13868202
0003e0 b0 a2 2f 3d ac 51 c0 bc 38 ed da 3c 62 58 6a bd
       0.04287976 -0.023476444 0.026724443 -0.057213195
0003f0 ac 13 80 bd 35 00 05 3e 80 52 b1 bd d0 f9 71 bd
       -0.06253752 0.1298836 -0.08658314 -0.05907613

sep_conn.bias f4 [64]
000000 76 2b 0d 3d 69 1f b9 3c 5e fc 50 3d 9f 33 10 bc
       0.034465276 0.022597985 0.051021926 -0.00880137
000010 13 35 4e 3d be e8 9f 3c d3 9d b9 bc 01 82 3e 3d
       0.050343584 0.01952016 -0.022658264 0.0465107
000020 0e 2b 0a bd db 2f c8 3d db 8f 09 3d f9 ff d9 3d
       -0.033732466 0.09774753 0.033584457 0.10644526
000030 d1 67 88 3c af 17 54 bc 43 a1 fa 3d 47 79 de 3d
       0.016651066 -0.0129451 0.122377895 0.108629756
000040 6e 6e 8c 3d 38 45 fb 3d 80 28 64 bd 5a 19 28 bd
       0.06857 0.12269062 -0.055702686 -0.041039802
000050 a0 b6 f1 bd 8b 8a b1 3d 20 f7 d6 bc 20 78 eb bd
       -0.11802411 0.08669003 -0.026240885 -0.114975214
000060 fe 66 38 3d c6 34 0c be d8 a0 52 bd ef ad 0d 3e
       0.045020096 -0.13692006 -0.051422924 0.13835882
000070 fe cd fb bd 65 28 be bc 5b a4 03 3e a6 82 a1 bd
       -0.12295149 -0.023212621 0.12855665 -0.07886247
000080 6d c9 05 3e 3b 37 a3 bd 77 1a 62 3d 00 84 a5 3c
       0.13065119 -0.07969519 0.05520102 0.020204544
000090 5d 1d 3e bb 95 dd 14 3e 68 e5 b9 bd f7 27 b9 bd
       -0.00290092 0.14537652 -0.09076959 -0.09040826
0000a0 13 1b a2 bd 19 1b b4 bd b3 38 01 be 3d 44 0f be
       -0.0791532 -0.08794231 -0.12619285 -0.13990875
0000b0 ce ab 27 bd 0e 02 b9 bd 51 44 dd bd 52 fe 0c be
       -0.04093533 -0.09033595 -0.10804046 -0.1376889
0000c0 4e a8 10 bd 3c 77 07 3e 2a 79 c5 bd 9a fa b4 bd
       -0.035316758 0.13229078 -0.09642251 -0.08836861
0000d0 01 ff 27 bd 03 cf c0 bd 7f be 09 3d 3d 5d 48 3c
       -0.041014675 -0.09414484 0.033628937 0.012229261
0000e0 8a ab 95 3d 33 0e e5 bc dd 52 d9 3c 68 19 fd 3d
       0.07308109 -0.027960872 0.02652877 0.123583615
0000f0 df 42 15 be 29 f3 83 3d 69 42 09 3e 65 ed 5e 3d
       -0.1457629 0.064428635 0.1340424 0.054425616

bn.weight f4 [64]
000000 0a 00 33 3f 0b f1 2c 3f 48 06 2f 3f 6c 9a 12 3f
       0.69921935 0.675553 0.6836896 0.5726688
000010 b7 04 39 3f e7 b7 2b 3f 1f f1 1a 3f 51 c3 11 3f
       0.7227282 0.6707749 0.6052417 0.56938654
000020 5e e1 29 3f aa 14 27 3f 08 e1 32 3f db 73 1b 3f
       0.6635951 0.65265906 0.6987462 0.60723656
000030 54 73 17 3f 67 1d 0f 3f 92 2b 2d 3f be a8 40 3f
       0.5916035 0.5590424 0.6764461 0.7525748
000040 0a 78 20 3f 90 de 36 3f 10 d6 20 3f ab a0 14 3f
       0.62683165 0.71433353 0.62826633 0.5805766
000050 72 bd 34 3f 13 d0 35 3f 10 44 35 3f a3 bd 23 3f
       0.7060157 0.7102062 0.7080698 0.6396124
000060 67 f8 2b 3f 17 1d 44 3f 88 e1 32 3f 68 fd 1c 3f
       0.67175907 0.7660689 0.69875383 0.6132417
000070 bf 64 1c 3f 26 7e 37 3f 1b f8 2e 3f 46 d9 1b 3f
       0.61091226 0.7167686 0.6834733 0.6087841
000080 ec 0d 21 3f 3a 64 10 3f 2e 66 35 3f 5b 9e 29 3f
       0.6291187 0.56402934 0.7085904 0.66257256
000090 7a 4e 26 3f 70 4e 24 3f 30 29 29 3f 2c 46 36 3f
       0.64963496 0.64182186 0.6607847 0.71200824
0000a0 6a 29 1d 3f 21 72 37 3f 48 c2 10 3f 40 65 25 3f
       0.6139132 0.7165852 0.5654645 0.6460762
0000b0 c2 a9 1c 3f d8 19 3c 3f 9d a8 38 3f b0 d2 2b 3f
       0.6119653 0.73476934 0.72132283 0.6711836
0000c0 9c 05 1e 3f 9f d8 27 3f 38 cc 30 3f 5c d1 38 3f
       0.6172731 0.6556491 0.69061613 0.7219446
0000d0 50 53 36 3f a4 6f 29 3f 91 68 32 3f b9 2a 37 3f
       0.71220875 0.66185975 0.69690806 0.71549565
0000e0 bb ac 20 3f 9d 66 1f 3f 07 2d 2c 3f af 4d 2d 3f
       0.62763566 0.6226595 0.67256206 0.6769666
0000f0 0b c3 41 3f b5 8b 59 3f f5 a5 11 3f df 49 2d 3f
       0.75688237 0.849788 0.56893855 0.67690843

bn.bias f4 [64]
000000 8f 03 40 bf 50 eb 0b bf df d3 3c bf 0b 53 6a be
       -0.7500543 -0.54655933 -0.7376079 -0.22883241
000010 8b b2 8d be 92 ef 0a bf f4 a2 0d bf 72 52 29 bf
       -0.2767528 -0.54271805 -0.5532677 -0.66141427
000020 3c 1b 32 bf e4 78 2b bf b2 48 0b bf 8e ef 1c bf
       -0.69572806 -0.6698134 -0.544078 -0.6130303
000030 cc a0 14 bf 48 7a 02 bf 7a f9 23 bf d2 59 c3 be
       -0.58057857 -0.50967836 -0.64052546 -0.38154465
000040 78 80 2d bf ba aa 1a bf 13 c1 06 bf 49 bf 13 bf
       -0.6777415 -0.6041676 -0.5263836 -0.57713753
000050 42 ad 22 bf b5 01 21 bf b7 66 32 bf d3 d9 31 bf
       -0.6354562 -0.6289323 -0.6968798 -0.69473
000060 13 5b f5 be 9e 94 26 be 86 27 41 bf 7f b9 28 bf
       -0.47921047 -0.1626763 -0.7545093 -0.65908045
000070 14 f0 94 be 69 6e 37 bf 55 ef 2b bf 6b d8 28 bf
       -0.29089415 -0.7165285 -0.67162067 -0.6595523
000080 99 9e 2e bf 94 79 c6 be 56 5d 18 bf 44 05 0d bf
       -0.6821075 -0.38764632 -0.5951742 -0.5508616
000090 77 c3 e2 be ed 30 1c bf bb 57 3a be 99 05 11 bf
       -0.44289753 -0.61012155 -0.18197529 -0.56649166
0000a0 37 19 1f bf 15 23 2b bf 78 b5 eb be 31 e7 a2 be
       -0.6214785 -0.66850406 -0.46036887 -0.3181701
0000b0 73 09 18 bf 46 f3 3e bf 06 cc 3e bf 09 de e3 be
       -0.5938942 -0.74589956 -0.74530065 -0.44505337
0000c0 93 ea 42 bf eb 0e 16 bf 9d 48 24 bf bf 10 45 bf
       -0.7613918 -0.58616513 -0.641733 -0.7697868
0000d0 9d 1f 33 bf d6 14 0e bf ce 3c 20 bf 11 e9 0c bf
       -0.69970113 -0.55500543 -0.6259278 -0.5504313
0000e0 7c 01 22 bf 5f 8a 16 bf f1 91 45 bf fd 88 3a bf
       -0.63283515 -0.5880489 -0.77175814 -0.7286528
0000f0 bc 40 b9 be b9 3e 76 be b8 3e 2e bf 24 d7 41 bf
       -0.361822 -0.24047364 -0.6806445 -0.75718904

bn.running_mean f4 [64]
000000 43 53 53 3e 49 da d1 bd 28 cb 82 3e 75 a6 cc bd
       0.2063723 -0.10246713 0.2554562 -0.09992687
000010 20 7c 9d be 2e eb 2d 3e 64 5d 38 be 49 18 1b bd
       -0.30758762 0.16984245 -0.18004376 -0.037864957
000020 82 1c ce bd 9a 3a 37 3e b0 df c1 3b d5 f2 57 bd
       -0.10064031 0.17893448 0.005916558 -0.052721817
000030 09 c7 d6 3d eb 5c 81 3e ae 67 c6 3c 16 ef bb 3e
       0.10487182 0.25266203 0.02421936 0.36705846
000040 8e 85 17 3d f5 2a b2 bd f7 6b e5 bd cc d3 89 3e
       0.036992602 -0.086996 -0.11202233 0.269194
000050 fc 2f dd bd 1c 8b 23 3e f2 73 9a 3d 62 c9 68 bd
       -0.10800168 0.15971035 0.07541646 -0.05683268
000060 9a 30 33 3e 54 91 c9 bd 5e a5 2c be d2 39 62 3e
       0.17499009 -0.09842172 -0.16859958 0.22092369
000070 8c 08 a1 bc 1d 14 9b 3e 68 19 19 3e 51 82 5e be
       -0.019657396 0.30288783 0.14951098 -0.217294
000080 2a c5 5b be 08 c0 02 bc 9e 74 e7 bd b1 74 73 bd
       -0.21461931 -0.007980354 -0.1130154 -0.059437457
000090 b3 0b 0b bd 4e 2f d7 3d 2b 5f af bb 23 95 4e be
       -0.033946704 0.105070695 -0.005351921 -0.20174079
0000a0 54 db 7a 3e 6b 1d f5 3d 83 e2 a8 3d fd 77 5c 3e
       0.2449773 0.11968502 0.08246329 0.21530147
0000b0 0d 8a 73 3e a9 09 64 3d 4f b8 94 be 41 27 d9 bd
       0.23783131 0.055673275 -0.29046866 -0.1060319
0000c0 2f f3 0a 3f 8e a1 18 be 26 bf 25 be ff 26 a2 3e
       0.5427732 -0.14905378 -0.16186199 0.31670377
0000d0 ca 22 7e 3c dd 6d 22 3e 73 ae 4b be 06 fb 02 3e
       0.015511224 0.15862222 -0.19890766 0.1279107
0000e0 9c 34 e8 bc 0d 72 4c bd a3 55 9f 3d 18 80 29 3e
       -0.028345399 -0.049913455 0.07780006 0.1655277
0000f0 da d9 40 3e c7 4b 31 3e 01 cc e8 be fe 68 af 3d
       0.18833104 0.17314063 -0.45468143 0.085649475

bn.running_var f4 [64]
000000 ed 1f ce 3d 69 33 ac 3d fd 67 79 3d cc cb af 3d
       0.10064683 0.08408243 0.060890187 0.08583793
000010 c3 5c c8 3d 9b 2d bb 3d 80 56 90 3d 0d 81 95 3d
       0.09783318 0.09139558 0.070477486 0.07300005
000020 bd 9e ad 3d cc 13 a0 3d 93 de 8a 3d bf b4 8e 3d
       0.084775425 0.07816276 0.06780734 0.06968068
000030 82 57 7f 3d 5b be b6 3d ab b6 d7 3d 79 77 04 3e
       0.062339313 0.08923026 0.10532888 0.129362
000040 0c b9 86 3d 36 a8 b4 3d bd 79 a0 3d 42 df be 3d
       0.06578264 0.08821146 0.0783572 0.09319927
000050 b1 7b b4 3d 27 b2 d3 3d 9f 39 a5 3d 74 0b cd 3d
       0.08812655 0.10336714 0.08067631 0.1001195
000060 cf 27 b6 3d 60 d4 dc 3d 52 6a bb 3d 53 d2 c1 3d
       0.08894312 0.10782695 0.09151138 0.09463944
000070 aa b8 b9 3d 14 f3 a4 3d 8e b7 a3 3d db 68 9c 3d
       0.09068425 0.08054176 0.07993995 0.07637187
000080 e9 ac 9a 3d 60 01 95 3d f6 71 d9 3d 43 f6 ad 3d
       0.07552511 0.07275653 0.106174394 0.08494236
000090 14 43 bb 3d a5 1c b0 3d f9 1f ba 3d b9 28 a3 3d
       0.091436535 0.085992135 0.090881296 0.079667516
0000a0 95 07 a6 3d bc 8b cf 3d c6 30 88 3d b3 8f af 3d
       0.08106915 0.10134074 0.06649928 0.0857233
0000b0 c2 85 a5 3d 34 66 d3 3d 75 e7 b8 3d d2 89 bb 3d
       0.08082153 0.10322228 0.09028522 0.091571465
0000c0 d8 14 9f 3d 83 4a d2 3d a2 b0 b4 3d 33 0b b2 3d
       0.077676475 0.10268118 0.088227525 0.08693542
0000d0 9a 68 b5 3d 47 5a ab 3d b5 37 a6 3d 53 53 aa 3d
       0.08857842 0.083668284 0.08116094 0.08316674
0000e0 e2 1d cc 3d b1 bd a4 3d a3 da a7 3d 9c 19 bc 3d
       0.09966637 0.08043993 0.081959985 0.09184572
0000f0 01 d2 bd 3d 15 c7 07 3e 79 f0 ab 3d ef 46 99 3d
       0.09268571 0.13259538 0.08395476 0.07484233

net.0.weight f4 [64, 45]
000000 b9 72 b4 3e ca 08 b9 3e 18 6a 19 3e c4 39 45 3d
       0.35243776 0.36139518 0.14981878 0.048150793
000010 4e c9 41 3e ac b4 19 3e 5a f7 e1 bd 2d 84 24 be
       0.18924448 0.15010327 -0.11033507 -0.16066046
000020 59 61 fe bd 9c 3d 7a bd 06 7b 8c 3e f3 cd 9e bd
       -0.12420911 -0.06109391 0.2743761 -0.077541254
000030 79 7e 89 3e cb 39 2d 3d a2 ab 35 be 6b 5d df bd
       0.26854303 0.042291444 -0.17741254 -0.1090649
000040 f8 44 33 be c4 ea e2 3d b7 6e b0 bd ec 50 7f be
       -0.17506778 0.11079934 -0.08614867 -0.24933213
000050 cf 81 49 3e db 9e 25 3e 89 79 bf bd 36 32 20 be
       0.19678424 0.1617388 -0.09349353 -0.15644154
000060 32 4e f7 bb 7c 3b 1f bd ec 78 00 3f e9 ef 46 bc
       -0.0075471634 -0.038875088 0.5018451 -0.01214216
000070 cf f1 00 3e 07 d3 3f 3e b5 5f df 3c 00 18 42 bd
       0.12592243 0.18732844 0.027267316 -0.04738617
000080 9b b8 64 b9 93 15 08 3c 7c 6b 52 bd bc a4 bf bd
       -0.00021812545 0.008305925 -0.051372036 -0.093575925
000090 80 d0 8d 3e 2a 69 86 bc 39 e7 d7 3d 65 db b9 bd
       0.27698135 -0.016407568 0.10542149 -0.09075049
0000a0 c7 de f8 3d c8 92 29 3c 7f 55 b8 3b 4c 9a 7b bb
       0.121518664 0.010349937 0.0056254263 -0.0038391529
0000b0 b5 fb 10 be eb b9 cf 3d d9 50 b7 be 3a fa 45 be
       -0.14158519 0.10142883 -0.3580387 -0.19333735
0000c0 0e d1 5a bd 67 f6 94 bd c7 a2 32 be 11 a8 e8 3d
       -0.053422026 -0.0727356 -0.17444907 0.11360181
0000d0 ec 1c 6f 3b e9 5f ba bd d5 d8 5f 3e 00 7e cd bb
       0.0036485745 -0.09100325 0.21860059 -0.006271124
0000e0 13 f6 35 bd d7 ef 7c 3e a9 59 bc bd 00 a1 90 3e
       -0.044424128 0.24700867 -0.09196789 0.28247833
0000f0 35 91 09 3d bb 0d cc bc e9 9a e0 bd 1c b4 54 bc
       0.033585746 -0.024908891 -0.10967047 -0.012982395
000100 de 1c d5 3d a5 3e 31 be 88 fe 59 be ee bd ac bd
       0.104058966 -0.17309053 -0.21288502 -0.08434664
000110 c0 75 7f bc b0 f7 b4 be 79 3d 2f 3e 7f ac 49 bd
       -0.015592039 -0.3534522 0.17113294 -0.04923677
000120 bf 73 9c 3e 7c 81 7e 3e 7e d1 19 bd 16 f4 cc 3e
       0.30557057 0.24854082 -0.037553303 0.40029973
000130 e5 21 ca 3e 7e 35 2d 3e 96 03 06 bd 12 3e c0 3d
       0.39478984 0.16914937 -0.032718264 0.09386839
000140 8f cb 2d be 41 80 82 3d 70 f3 9d bd 7e e1 0e bd
       -0.16972183 0.06372119 -0.07712448 -0.034883015
000150 74 b3 76 3d 39 2c 45 bc 9b c0 dc 3c 87 4e 67 3e
       0.060229734 -0.012034469 0.02694731 0.2258855
000160 f6 d6 1f 3d cd e4 9d bd f6 08 55 be 2d 6d af 3e
       0.039023362 -0.07709656 -0.208042 0.34262982
000170 c8 05 d6 3e 6a 1a b8 3c 25 ab 2f 3e 7f 27 6b bd
       0.41801286 0.022473533 0.1715513 -0.057410713
000180 a8 1d 41 3e 5c 46 16 3d 5c 82 d4 3d 36 ca 91 3c
       0.18858969 0.036688194 0.103764266 0.017796617
000190 95 4d 2e 3e 81 f1 69 3e 53 9b 69 3d 7f f6 95 3d
       0.17021783 0.22846033 0.057032894 0.07322406
0001a0 49 e7 82 be 77 f8 b8 3d f2 49 59 be 2c f3 c7 3d
       -0.25567082 0.09031766 -0.21219614 0.09763178
0001b0 8f d2 00 3e 08 65 9f 3d 1c f9 ac ba 0f e0 7f 3d
       0.12580322 0.07782942 -0.0013196799 0.06246954
0001c0 ba ae aa 3e e9 a0 8c be 50 49 1b be 12 20 3a 3e
       0.3333643 -0.27466515 -0.15164685 0.18176296
0001d0 5d da 41 3e ff 42 25 3e 70 37 3f be 51 10 13 3e
       0.18930955 0.16138838 -0.18673491 0.14361693
0001e0 7b cb e6 3d 39 c2 4e 3e ef b3 64 be 3e 60 f7 3d
       0.112692796 0.20191278 -0.22334264 0.120789036
0001f0 15 a7 ac 3d 76 05 3c 3e e0 45 26 3d 2c 5f 59 bd
       0.08430306 0.18361458 0.04059398 -0.05306928
000200 34 ea 38 3e c2 16 0e bd 6b 84 b7 bd 4d 1b 60 3d
       0.18058091 -0.034689672 -0.089608036 0.054713536
000210 c8 e0 47 be f8 4b 0c 3e b1 73 99 bd 95 32 31 be
       -0.19519341 0.13700855 -0.074927695 -0.17304452
000220 c9 e7 07 be 82 39 90 3c c5 07 42 3e cf 83 8c bd
       -0.13272013 0.017605547 0.18948276 -0.06861078
000230 67 87 a7 3d be 77 18 be 6d a8 a9 3d d5 c8 5d 3d
       0.08180123 -0.14889428 0.08284078 0.054146606
000240 c7 d1 ee bd 3c 0c 90 be 6b 41 8b be 9a b6 2d 3d
       -0.116611056 -0.28134334 -0.27198347 0.04241047
000250 8d 1a 7e 3e 7f 42 3c be 99 c4 04 bd 3e 59 09 3b
       0.24814816 -0.18384741 -0.032414053 0.0020957734
000260 cc d5 6d be b9 27 56 3d 22 5b a9 3c 4e 88 10 bc
       -0.23226088 0.052283976 0.020673338 -0.00882156
000270 b5 ed 8b bd e2 d8 a8 be 2e fd 35 3b 5d 14 9d bd
       -0.068324484 -0.32977968 0.0027769315 -0.076698996
000280 05 88 1f bd 68 63 bf bc 04 07 d2 bc 08 1c 00 3d
       -0.038948078 -0.02336283 -0.025638111 0.031276733
000290 7c 67 2c be a8 08 44 be 33 7d ff 3d 34 aa c0 bc
       -0.16836351 -0.19143927 0.12475052 -0.02351866
0002a0 3c eb d3 3d f3 4d 03 bd 32 27 20 3e d0 9e 7c 3c
       0.10347602 -0.03205676 0.15639952 0.015418723
0002b0 1e c2 ba 3d 48 b1 df bc ad 98 08 3e ba 1f be 3d
       0.09119056 -0.027306214 0.13339491 0.09283395
0002c0 2e 34 59 3e 23 8f 91 3d 72 e4 82 3b 8e 2e d5 bd
       0.21211311 0.07107379 0.003994518 -0.1040927
0002d0 ee ed 92 3d 6c 02 83 3e 17 aa 77 be 1c 94 05 be
       0.07174288 0.25587785 -0.24185978 -0.1304478
0002e0 b8 41 dd 3d 09 ae 07 3e 57 3c b9 bd 70 09 68 3e
       0.108035505 0.13249983 -0.09044712 0.2265985
0002f0 71 42 fb 3d de ac 63 3e b7 ab 6f be 19 6a ea bc
       0.12268532 0.22233912 -0.23405348 -0.028615044
000300 fe 74 de bd 5e 8e 56 be 2d 00 0c be 79 eb c0 bd
       -0.10862158 -0.20952746 -0.13671942 -0.09419913
000310 29 5b 9d bd a5 ae d2 3d 79 91 02 bd 0a d8 9c bd
       -0.07683403 0.10287217 -0.031877015 -0.07658394
000320 19 33 08 3e be 53 96 be 8c 72 d8 3c 8d ab 66 bc
       0.13300742 -0.29360765 0.026421808 -0.014078987
000330 14 bd 50 be f0 48 0b bc e4 e3 16 be 1d bb 64 3e
       -0.20384628 -0.008501276 -0.14735371 0.22337003
000340 cf e5 8f bb 5d e6 20 bd 43 11 20 be 13 cc 63 3e
       -0.004391409 -0.03928219 -0.15631585 0.22245817
000350 09 c6 39 bd e0 2f 4f 3b 28 f9 06 be ff 5f 8b bd
       -0.045354877 0.003161423 -0.13180983 -0.06805419
000360 af f1 3c be 8e 4a d0 3d 74 25 b4 bd 38 64 12 3e
       -0.1845157 0.1017047 -0.08796206 0.14296043
000370 2c 53 36 be 28 79 81 3d 88 c7 97 bd 7d 34 60 be
       -0.17805165 0.06321937 -0.074111044 -0.21895023
000380 c9 37 e2 bc 30 75 a7 3d 85 1e 99 bd c1 e7 07 be
       -0.027614491 0.081766486 -0.07476524 -0.13272001
000390 b7 6c 00 3e 02 48 1a 3e 69 16 04 3e e3 6d 17 3d
       0.12541471 0.15066531 0.12899174 0.03697003
0003a0 0b c7 95 be 3c bd 01 bd 54 95 a0 3e 4e b2 8e bd
       -0.2925342 -0.03167461 0.31363928 -0.06967603
0003b0 ba f9 a4 3e 3d 4e 26 3d 0e 6c ce 3d 0e fc 98 3d
       0.32221776 0.040601958 0.100792035 0.074699506
0003c0 a1 33 18 be b7 54 2a 3c d0 12 6b be 1b 6d 6f 3e
       -0.14863445 0.010396174 -0.22956395 0.23381464
0003d0 2b 0d 8d 3d c4 41 03 bd 80 97 0f 3e cf 44 9a be
       0.06887277 -0.03204514 0.14022636 -0.30130622
0003e0 0c d9 1b be 73 81 9c 3c a4 c3 8f 3d 7b b2 d0 3d
       -0.15219516 0.019104695 0.07019737 0.101902924
0003f0 b7 52 0a bd d8 d9 eb 3d 35 fd a9 3d 51 d7 24 3e
       -0.03377029 0.1151616 0.083002485 0.16097762

net.0.bias f4 [64]
000000 1e c0 57 b6 b1 f6 15 b4 f7 d5 28 37 ce 0c 3a b4
       -3.2149323e-06 -1.3966452e-07 1.0063398e-05 -1.7327258e-07
000010 74 5c 62 b6 eb 61 fd b5 7c ba 86 b6 0f 97 34 37
       -3.373044e-06 -1.8878467e-06 -4.015221e-06 1.0764007e-05
000020 e6 b5 bd 35 cb ab 03 36 8d 27 16 36 cf ca 0a b4
       1.4134537e-06 1.9620518e-06 2.2374763e-06 -1.2926033e-07
000030 be bf 37 b5 9f 85 b5 b6 34 c6 07 37 2a eb 58 36
       -6.8451834e-07 -5.409776e-06 8.092775e-06 3.2323392e-06
000040 40 ea 00 36 f1 b4 14 35 10 97 f7 34 8d cd 57 36
       1.9209838e-06 5.53976e-07 4.6117248e-07 3.2157143e-06
000050 45 1f c4 34 2e d8 f9 36 cd d3 c3 b5 86 95 72 34
       3.6530597e-07 7.445945e-06 -1.4590274e-06 2.2592403e-07
000060 c4 ba 50 b5 2a b6 24 b5 68 3d 1f b7 37 82 f4 b6
       -7.775782e-07 -6.1359844e-07 -9.491436e-06 -7.2869257e-06
000070 09 92 a6 35 cf db 4a b5 95 e6 ed b6 c1 50 2c b4
       1.2410466e-06 -7.557073e-07 -7.0899937e-06 -1.6048126e-07
000080 b3 64 f1 35 53 ec 32 b5 d9 c3 4a 36 e9 a3 97 b6
       1.7985207e-06 -6.6654064e-07 3.0214344e-06 -4.5192323e-06
000090 c1 23 b1 35 0d c4 e3 b6 b1 b3 0d 37 06 94 db b5
       1.3197933e-06 -6.7879505e-06 8.446093e-06 -1.6359852e-06
0000a0 ec 44 3e 36 8b 17 56 b4 28 d5 f6 b5 12 cb 67 b6
       2.8352324e-06 -1.9938868e-07 -1.8390465e-06 -3.4539885e-06
0000b0 f6 3c 8d 35 a0 4c 2c 33 04 09 c4 36 72 88 ca 34
       1.0523061e-06 4.011656e-08 5.8423047e-06 3.772471e-07
0000c0 56 a9 a4 36 18 e1 4e b5 31 26 81 b6 2d 45 bb 36
       4.907294e-06 -7.7068535e-07 -3.8489457e-06 5.5810874e-06
0000d0 53 24 35 b5 c8 10 8a b7 59 58 04 b7 6f 17 9a b5
       -6.7480613e-07 -1.6458696e-05 -7.888383e-06 -1.1480714e-06
0000e0 0e 37 7a b6 d8 c1 87 b6 97 b1 18 35 50 f2 12 b6
       -3.728495e-06 -4.04588e-06 5.688284e-07 -2.189674e-06
0000f0 48 4e e5 36 45 39 2f b6 71 5e d0 b6 0f 1a 3f b7
       6.833845e-06 -2.6110367e-06 -6.2098775e-06 -1.1390554e-05

net.1.weight f4 [64]
000000 0a 00 33 3f 0b f1 2c 3f 48 06 2f 3f 6c 9a 12 3f
       0.69921935 0.675553 0.6836896 0.5726688
000010 b7 04 39 3f e7 b7 2b 3f 1f f1 1a 3f 51 c3 11 3f
       0.7227282 0.6707749 0.6052417 0.56938654
000020 5e e1 29 3f aa 14 27 3f 08 e1 32 3f db 73 1b 3f
       0.6635951 0.65265906 0.6987462 0.60723656
000030 54 73 17 3f 67 1d 0f 3f 92 2b 2d 3f be a8 40 3f
       0.5916035 0.5590424 0.6764461 0.7525748
000040 0a 78 20 3f 90 de 36 3f 10 d6 20 3f ab a0 14 3f
       0.62683165 0.71433353 0.62826633 0.5805766
000050 72 bd 34 3f 13 d0 35 3f 10 44 35 3f a3 bd 23 3f
       0.7060157 0.7102062 0.7080698 0.6396124
000060 67 f8 2b 3f 17 1d 44 3f 88 e1 32 3f 68 fd 1c 3f
       0.67175907 0.7660689 0.69875383 0.6132417
000070 bf 64 1c 3f 26 7e 37 3f 1b f8 2e 3f 46 d9 1b 3f
       0.61091226 0.7167686 0.6834733 0.6087841
000080 ec 0d 21 3f 3a 64 10 3f 2e 66 35 3f 5b 9e 29 3f
       0.6291187 0.56402934 0.7085904 0.66257256
000090 7a 4e 26 3f 70 4e 24 3f 30 29 29 3f 2c 46 36 3f
       0.64963496 0.64182186 0.6607847 0.71200824
0000a0 6a 29 1d 3f 21 72 37 3f 48 c2 10 3f 40 65 25 3f
       0.6139132 0.7165852 0.5654645 0.6460762
0000b0 c2 a9 1c 3f d8 19 3c 3f 9d a8 38 3f b0 d2 2b 3f
       0.6119653 0.73476934 0.72132283 0.6711836
0000c0 9c 05 1e 3f 9f d8 27 3f 38 cc 30 3f 5c d1 38 3f
       0.6172731 0.6556491 0.69061613 0.7219446
0000d0 50 53 36 3f a4 6f 29 3f 91 68 32 3f b9 2a 37 3f
       0.71220875 0.66185975 0.69690806 0.71549565
0000e0 bb ac 20 3f 9d 66 1f 3f 07 2d 2c 3f af 4d 2d 3f
       0.62763566 0.6226595 0.67256206 0.6769666
0000f0 0b c3 41 3f b5 8b 59 3f f5 a5 11 3f df 49 2d 3f
       0.75688237 0.849788 0.56893855 0.67690843

net.1.bias f4 [64]
000000 8f 03 40 bf 50 eb 0b bf df d3 3c bf 0b 53 6a be
       -0.7500543 -0.54655933 -0.7376079 -0.22883241
000010 8b b2 8d be 92 ef 0a bf f4 a2 0d bf 72 52 29 bf
       -0.2767528 -0.54271805 -0.5532677 -0.66141427
000020 3c 1b 32 bf e4 78 2b bf b2 48 0b bf 8e ef 1c bf
       -0.69572806 -0.6698134 -0.544078 -0.6130303
000030 cc a0 14 bf 48 7a 02 bf 7a f9 23 bf d2 59 c3 be
       -0.58057857 -0.50967836 -0.64052546 -0.38154465
000040 78 80 2d bf ba aa 1a bf 13 c1 06 bf 49 bf 13 bf
       -0.6777415 -0.6041676 -0.5263836 -0.57713753
000050 42 ad 22 bf b5 01 21 bf b7 66 32 bf d3 d9 31 bf
       -0.6354562 -0.6289323 -0.6968798 -0.69473
000060 13 5b f5 be 9e 94 26 be 86 27 41 bf 7f b9 28 bf
       -0.47921047 -0.1626763 -0.7545093 -0.65908045
000070 14 f0 94 be 69 6e 37 bf 55 ef 2b bf 6b d8 28 bf
       -0.29089415 -0.7165285 -0.67162067 -0.6595523
000080 99 9e 2e bf 94 79 c6 be 56 5d 18 bf 44 05 0d bf
       -0.6821075 -0.38764632 -0.5951742 -0.5508616
000090 77 c3 e2 be ed 30 1c bf bb 57 3a be 99 05 11 bf
       -0.44289753 -0.61012155 -0.18197529 -0.56649166
0000a0 37 19 1f bf 15 23 2b bf 78 b5 eb be 31 e7 a2 be
       -0.6214785 -0.66850406 -0.46036887 -0.3181701
0000b0 73 09 18 bf 46 f3 3e bf 06 cc 3e bf 09 de e3 be
       -0.5938942 -0.74589956 -0.74530065 -0.44505337
0000c0 93 ea 42 bf eb 0e 16 bf 9d 48 24 bf bf 10 45 bf
       -0.7613918 -0.58616513 -0.641733 -0.7697868
0000d0 9d 1f 33 bf d6 14 0e bf ce 3c 20 bf 11 e9 0c bf
       -0.69970113 -0.55500543 -0.6259278 -0.5504313
0000e0 7c 01 22 bf 5f 8a 16 bf f1 91 45 bf fd 88 3a bf
       -0.63283515 -0.5880489 -0.77175814 -0.7286528
0000f0 bc 40 b9 be b9 3e 76 be b8 3e 2e bf 24 d7 41 bf
       -0.361822 -0.24047364 -0.6806445 -0.75718904

net.1.running_mean f4 [64]
000000 43 53 53 3e 49 da d1 bd 28 cb 82 3e 75 a6 cc bd
       0.2063723 -0.10246713 0.2554562 -0.09992687
000010 20 7c 9d be 2e eb 2d 3e 64 5d 38 be 49 18 1b bd
       -0.30758762 0.16984245 -0.18004376 -0.037864957
000020 82 1c ce bd 9a 3a 37 3e b0 df c1 3b d5 f2 57 bd
       -0.10064031 0.17893448 0.005916558 -0.052721817
000030 09 c7 d6 3d eb 5c 81 3e ae 67 c6 3c 16 ef bb 3e
       0.10487182 0.25266203 0.02421936 0.36705846
000040 8e 85 17 3d f5 2a b2 bd f7 6b e5 bd cc d3 89 3e
       0.036992602 -0.086996 -0.11202233 0.269194
000050 fc 2f dd bd 1c 8b 23 3e f2 73 9a 3d 62 c9 68 bd
       -0.10800168 0.15971035 0.07541646 -0.05683268
000060 9a 30 33 3e 54 91 c9 bd 5e a5 2c be d2 39 62 3e
       0.17499009 -0.09842172 -0.16859958 0.22092369
000070 8c 08 a1 bc 1d 14 9b 3e 68 19 19 3e 51 82 5e be
       -0.019657396 0.30288783 0.14951098 -0.217294
000080 2a c5 5b be 08 c0 02 bc 9e 74 e7 bd b1 74 73 bd
       -0.21461931 -0.007980354 -0.1130154 -0.059437457
000090 b3 0b 0b bd 4e 2f d7 3d 2b 5f af bb 23 95 4e be
       -0.033946704 0.105070695 -0.005351921 -0.20174079
0000a0 54 db 7a 3e 6b 1d f5 3d 83 e2 a8 3d fd 77 5c 3e
       0.2449773 0.11968502 0.08246329 0.21530147
0000b0 0d 8a 73 3e a9 09 64 3d 4f b8 94 be 41 27 d9 bd
       0.23783131 0.055673275 -0.29046866 -0.1060319
0000c0 2f f3 0a 3f 8e a1 18 be 26 bf 25 be ff 26 a2 3e
       0.5427732 -0.14905378 -0.16186199 0.31670377
0000d0 ca 22 7e 3c dd 6d 22 3e 73 ae 4b be 06 fb 02 3e
       0.015511224 0.15862222 -0.19890766 0.1279107
0000e0 9c 34 e8 bc 0d 72 4c bd a3 55 9f 3d 18 80 29 3e
       -0.028345399 -0.049913455 0.07780006 0.1655277
0000f0 da d9 40 3e c7 4b 31 3e 01 cc e8 be fe 68 af 3d
       0.18833104 0.17314063 -0.45468143 0.085649475
