bestclf/bestclf_adult_005.pth (torch, 21039 bytes, 23 tensors)

fc1.weight f4 [15, 95]
0	0xbe077401	-0.13227846
1	0x3cbe5140	0.023232102
2	0xbdf6d717	-0.12052744
3	0xbde326be	-0.11091374
4	0xbb7d8e74	-0.0038689645
5	0xbdfc0bee	-0.12306963
6	0xbb934816	-0.0044946773
7	0x3de49d40	0.111628056
8	0xbaf56125	-0.0018720968
9	0x3e10dece	0.14147493
10	0xbcb1fc17	-0.021726651
11	0x3d8b4f82	0.06802274
12	0x3c9b4578	0.018954024
13	0xbb604cc5	-0.0034225446
14	0x3dcd4f0f	0.10024845
15	0xbd36cf9a	-0.044631578
16	0x3e6b5409	0.22981276
17	0x3e2a54e7	0.1663395
18	0x3e29c919	0.16580619
19	0xbd861c43	-0.06548359
20	0xbd14aede	-0.03629958
21	0xbcf53452	-0.029932175
22	0xbdac4882	-0.08412267
23	0xbdc02575	-0.09382144
24	0x3a34738b	0.00068836723
25	0xbd1bcd3a	-0.038037516
26	0x3d28854a	0.04114274
27	0xbd29d38d	-0.041461516
28	0xbe0dc276	-0.13843712
29	0x3c44f565	0.012021397
30	0x3e173643	0.14766793
31	0x3d7e23a1	0.062045697
32	0x3d891ecf	0.066953294
33	0x3b19de89	0.0023478589
34	0xbc8d2ca7	-0.017233206
35	0xbdb1e4d9	-0.08686227
36	0x3db588b2	0.08863963
37	0xbc253649	-0.010083743
38	0x3d77afc4	0.060470358
39	0x3e4639ba	0.19357958
40	0x3d1dbeb8	0.03851196
41	0xbdb5e600	-0.0888176
42	0x3d2f59e9	0.042810354
43	0xbdbf8f74	-0.093535334
44	0x3c233fa0	0.0099639
45	0xbb94f8b5	-0.0045462498
46	0x3d8363d3	0.06415524
47	0x3dfdfb8d	0.12401495
48	0x3e820dc2	0.2540112
49	0x3dc61e2e	0.09673725
50	0xbe1c069c	-0.15236896
51	0x3d038c46	0.032116197
52	0x3d331b1e	0.043727033
53	0x3af5d318	0.0018754927
54	0x3d436c51	0.04771072
55	0xbc8651ef	-0.01639649
56	0x3cdf5556	0.027262371
57	0x3d372d8f	0.044721182
58	0x3cd1a97c	0.025593512
59	0x3bb2551a	0.005442274
60	0xbc3cb669	-0.011518099
61	0xba743939	-0.0009316388
62	0x3d14c9c3	0.036325227
63	0xbb77898a	-0.0037771189
64	0xbd076589	-0.033055816
65	0x390ce726	0.0001343755
66	0x3a9d947b	0.00120224
67	0xbd37f5fe	-0.04491233
68	0xbb5dc8d8	-0.0033841636
69	0x3c3cf896	0.011533877
70	0x3d4aacfb	0.049481373
71	0x3dacf5c6	0.08445315
72	0x3d315dad	0.043302227
73	0xbc826e9a	-0.01592188
74	0x39998458	0.00029281038
75	0x3c8c7f03	0.017150408
76	0xbc5ff31c	-0.013668802
77	0xbd446c97	-0.04795512
78	0xba598607	-0.00082978647
79	0x3e508586	0.20363435
80	0x3b6d743c	0.0036232611
81	0x3d5619c6	0.052270673
82	0x3b8d8147	0.0043183896
83	0xbcccf0bd	-0.025017137
84	0x3de89e36	0.11358301
85	0x3d76b905	0.060235042
86	0x3caae0e9	0.020859199
87	0xbb47deeb	-0.003049786
88	0xbdc1c27a	-0.094609216
89	0x3da0499a	0.078265384
90	0xbd536470	-0.051609457
91	0x3c037b22	0.008024963
92	0xbd42a5ba	-0.04752133
93	0xbd1b6f63	-0.037948024
94	0xbd1833ef	-0.037158903
95	0xbdf59e0d	-0.119930364
96	0x3d9cddcb	0.07659491
97	0xbe06aa96	-0.13151011
98	0xbdc658f9	-0.09684939
99	0x3c95b434	0.018274404
100	0xbe165aaf	-0.1468303
101	0xbc414314	-0.011795778
102	0x3e3d1c50	0.18467832
103	0x3c28d199	0.010303878
104	0x3db1c42a	0.086799935
105	0x3dfdf1bf	0.12399625
106	0x3dcb7267	0.0993393
107	0x3d638b0e	0.055552535
108	0xbd3abf18	-0.045592397
109	0x3dc5e53a	0.09662862
110	0x3d00dd4e	0.031461053
111	0x3db194d4	0.08670965
112	0x3e0a6f57	0.13519035
113	0x3e29c71d	0.16579862
114	0xbda251f1	-0.07925785
115	0x3d1c5114	0.03816326
116	0xbd72d342	-0.059283502
117	0xbd3480a1	-0.044067983
118	0xbd965f85	-0.07342438
119	0xbb3bcb27	-0.0028655024
120	0xbde5ac6c	-0.112145275
121	0xbc160b8f	-0.009158029
122	0xbd3528a3	-0.044228207
123	0xbe1766e6	-0.14785346
124	0xbc8d4b74	-0.017247893
125	0x3dbe79c3	0.09300568
126	0x3c78859c	0.015168574
127	0x3e04a5b3	0.12953834
128	0x3b02b080	0.0019941628
129	0x3cd61832	0.026134584
130	0x3d4be8a5	0.049782414
131	0x3d4616c2	0.048361547
132	0x3d57da48	0.052698404
133	0xbc977d70	-0.01849243
134	0x3d49b83c	0.049247965
135	0x3d8e9744	0.069624454
136	0xbdba0c83	-0.09084418
137	0xbd4971f8	-0.049180955
138	0xbdb5e640	-0.08881807
139	0x3cdae248	0.026719227
140	0x3c21cc6e	0.0098754
141	0x3ddb6bab	0.107138954
142	0x3e09de89	0.13463797
143	0x3e7fd371	0.24983002
144	0x3e2e6ba8	0.17033255
145	0xbd573a2d	-0.052545715
146	0xbc018353	-0.007904845
147	0x3d9df185	0.07712082
148	0x3b172a8f	0.0023066138
149	0x3d513c53	0.05108292
150	0x3b4be2d9	0.0031110554
151	0x3c9c0a45	0.019047866
152	0x3d523b59	0.05132613
153	0x3cdb8813	0.026798284
154	0x3cd2d793	0.02573756
155	0x3a72a3e3	0.00092559884
156	0xbc20322e	-0.009777589
157	0x3d2a7835	0.041618545
158	0xbaee29b8	-0.0018170392
159	0xbd375b40	-0.044764757
160	0x3afbdba5	0.001921524
161	0x3ca0a398	0.019609258
162	0xbdf28b33	-0.118429564
163	0xba36afad	-0.0006968927
164	0x3c40fd3a	0.011779124
165	0x3d8d7b9d	0.06908343
166	0x3e2a79ca	0.16648021
167	0x3d41598b	0.047204535
168	0xbca26c3c	-0.019827
169	0xb9bb9571	-0.00035778762
170	0x3bee1835	0.0072660693
171	0x3cbc519e	0.022988137
172	0xbd722083	-0.059113037
173	0x397f9b76	0.00024376609
174	0x3e1b0278	0.1513766
175	0x3b98f77f	0.0046681757
176	0x3d572da5	0.052533764
177	0xbb19b881	-0.002345592
178	0x3d37cf18	0.044875234
179	0x3dc1a965	0.094561376
180	0x3d46c43d	0.04852699
181	0x3c793a96	0.015211722
182	0xba295fc2	-0.00064611074
183	0xba50ef97	-0.0007970272
184	0x3d8de4ea	0.069284275
185	0xbc53fb21	-0.012938292
186	0x3c2d69bb	0.01058429
187	0xbdb7ba53	-0.089710854
188	0x3c8bcc28	0.017065123
189	0xbcb15703	-0.021647936
190	0xbe1537b0	-0.14572024
191	0xbc4b8b84	-0.0124234
192	0xbe2e1cff	-0.17003249
193	0xbdd6d36a	-0.10489543
194	0xbc81f76b	-0.015865048
195	0xbe4af93b	-0.19821636
196	0x3d8ab242	0.06772281
197	0x3e1cd119	0.1531414
198	0xbd80c28b	-0.06287106
199	0x3e3fc118	0.18726003
200	0x3d293158	0.041306823
201	0x3d280d7b	0.04102848
202	0xbe055594	-0.13020927
203	0xbd23a2e0	-0.03995025
204	0x3e126e4e	0.1429989
205	0x3d2ac2ad	0.041689564
206	0x3da970f5	0.08273498
207	0x3e50e3a5	0.2039934
208	0x3c53a2bb	0.012917216
209	0xbda4fac3	-0.080556415
210	0xbd898806	-0.067153975
211	0xbd788069	-0.060669336
212	0xbd9a786b	-0.07542499
213	0xbcc81b25	-0.024427006
214	0xb9086fa3	-0.00013011559
215	0xbd2f5a22	-0.042810567
216	0x3df7b06e	0.12094198
217	0xbd226068	-0.03964272
218	0xbe07bac8	-0.13254845
219	0xbc046aae	-0.008082075
220	0x3e250093	0.161135
221	0x3d8850bf	0.06656026
222	0x3dca98d0	0.09892428
223	0x3a69bb4a	0.0008916153
224	0xbc848a40	-0.016179204
225	0xbb5e8576	-0.003395406
226	0x3e2bd832	0.1678169
227	0x3d16607b	0.036713105
228	0xbd1eae33	-0.038740348
229	0x3e555550	0.20833325
230	0x3dbe7ac3	0.09300759
231	0xbd47d67e	-0.04878854
232	0x3d5b8c57	0.053600635
233	0xbe335ade	-0.17515132
234	0x3d949596	0.07255094
235	0x3c628e90	0.013827935
236	0x3c061353	0.008183318
237	0x3de88ed8	0.1135537
238	0x3e87725a	0.2645443
239	0x3e2c4e8c	0.16826838
240	0xbe751ae7	-0.23936044
241	0x3da47a83	0.0803118
242	0x3e60bf87	0.21948062
243	0x3a834907	0.0010016271
244	0xb95e8398	-0.00021220592
245	0xbcd46f20	-0.025931895
246	0x3cf3c94f	0.029759077
247	0x3c07a1bc	0.008278307
248	0xbd24c1c9	-0.04022387
249	0x3c3e464c	0.01161344
250	0x3bde419e	0.0067827245
251	0x3b74b63c	0.0037340065
252	0x3dba46de	0.09095548
253	0xba970944	-0.0011523147
254	0xbdd725f8	-0.10505289
255	0x3a0a863c	0.00052842847

fc1.bias f4 [15]
0	0x3e1ddfa5	0.15417345
1	0x3de57e7d	0.11205766
2	0x3e0f5ce5	0.1400028
3	0x3d9316c0	0.071820736
4	0x3d91f202	0.071262375
5	0xbdf84fee	-0.121246204
6	0xbc9b91ad	-0.018990362
7	0x3dc85f5e	0.09783815
8	0x3de52903	0.11189463
9	0xbe2a2cb9	-0.16618623
10	0x3dc98054	0.0983893
11	0xbe404477	-0.18776117
12	0x3da464ac	0.08027014
13	0x3d595630	0.05306071
14	0xbe246f81	-0.1605816

fc2.weight f4 [15, 15]
0	0xbd9d37e6	-0.076766774
1	0xbd3df42b	-0.046375435
2	0xbd87e840	-0.06636095
3	0xbbc11df0	-0.0058934614
4	0xbdaed61c	-0.08536932
5	0x3e0be6a6	0.13662204
6	0xbe1fe055	-0.1561292
7	0xbdd1b610	-0.10239804
8	0xbddab942	-0.106798664
9	0x3e166ad2	0.14689186
10	0xbd816d5f	-0.06319689
11	0x3e95b7e9	0.29241875
12	0xbdc5b80b	-0.09654244
13	0xbe6d8688	-0.23195851
14	0x3e07c832	0.13259962
15	0x3dfadee4	0.12249544
16	0x3e1fdb2e	0.15610954
17	0x3e524989	0.20535864
18	0x3dc3fdf4	0.09569922
19	0x3e493427	0.19648801
20	0xbdff90c8	-0.12478787
21	0x3d50f340	0.05101323
22	0x3e30de13	0.17272215
23	0x3e4b838e	0.19874403
24	0xbe089cd4	-0.13341075
25	0x3d908818	0.07057208
26	0xbd8f1460	-0.06986308
27	0x3e7c4bb0	0.24638247
28	0x3d97b6a5	0.074078836
29	0xbdfb3d33	-0.12267532
30	0xbd3004dc	-0.042973384
31	0xbd7b4c13	-0.061351847
32	0xbd63203c	-0.055450663
33	0x3d08dbf8	0.033412904
34	0xbd33f997	-0.0439392
35	0x3e2fa596	0.1715301
36	0xbd0aaced	-0.03385632
37	0xbd77c364	-0.060489073
38	0xbca34cbe	-0.019934054
39	0x3e57dab6	0.21079525
40	0xbda0ca3f	-0.078510754
41	0x3e6d5348	0.231763
42	0xbbf24db2	-0.007394516
43	0xbe427d80	-0.18993187
44	0x3e1505e2	0.14553025
45	0x3e46f9ee	0.19431278
46	0x3e24b505	0.16084678
47	0x3e8dad85	0.27671447
48	0x3dffc232	0.12488212
49	0x3e489bcf	0.19590686
50	0xbdf1f144	-0.11813596
51	0x3d103f21	0.035216454
52	0x3e137695	0.14400704
53	0x3e3d39d2	0.18479088
54	0xbda4647a	-0.08026977
55	0x3e1455c5	0.14485843
56	0xbdec2f64	-0.115324765
57	0x3e592655	0.21206029
58	0x3dbad517	0.09122675
59	0xbdacbde9	-0.0843466
60	0x3e05cd5b	0.13066618
61	0x3e12a2a9	0.14319862
62	0x3e4f6d40	0.2025652
63	0x3def1235	0.116733946
64	0x3e1f009a	0.15527573
65	0xbe23853b	-0.15968792
66	0x3d5d375e	0.05400788
67	0x3e66dc1a	0.225449
68	0x3e625acc	0.22104949
69	0xbe025434	-0.12727433
70	0x3e026df4	0.12737256
71	0xbcbcefd7	-0.023063583
72	0x3e5b4e06	0.21416482
73	0x3d306d09	0.043072734
74	0xbdb4951f	-0.08817505
75	0x3d9ef53b	0.07761618
76	0x3d928791	0.071547635
77	0x3dd6cef8	0.10488695
78	0x3b9eb903	0.0048438325
79	0x3da9be93	0.08288302
80	0xbe0c190a	-0.13681427
81	0x3d99e208	0.07513815
82	0x3d119165	0.03553905
83	0x3d95c2e0	0.0731256
84	0xbdcaf9dc	-0.09910938
85	0x3cf3321e	0.029686984
86	0xbdde84b4	-0.10865155
87	0x3dba67c2	0.091018215
88	0x3e41684c	0.18887442
89	0xbdcd1c84	-0.100152045
90	0x3db66310	0.089056134
91	0x3da608f5	0.08107177
92	0x3e0403a1	0.1289201
93	0x3c171085	0.009220247
94	0x3dc5900b	0.09646615
95	0xbe22116c	-0.15826958
96	0x3d12498b	0.035714667
97	0x3de437f5	0.111434855
98	0x3db0ea2f	0.08638417
99	0xbe1f154e	-0.15535471
100	0x3dbe80ae	0.093018875
101	0xbdda27a1	-0.1065209
102	0x3deca15d	0.11554215
103	0x3e4330f0	0.19061637
104	0xbddfd818	-0.109298885
105	0x3e0a9add	0.13535638
106	0x3e01a6f9	0.12661351
107	0x3e1fd8fa	0.15610114
108	0x3d9e72ba	0.07736726
109	0x3df477fc	0.11936948
110	0xbdd28cfe	-0.102807984
111	0x3d70bacf	0.058771905
112	0x3dd67ff3	0.10473623
113	0x3e111fd5	0.14172299
114	0xbd93d555	-0.07218424
115	0x3daf6684	0.08564475
116	0xbd45c7d9	-0.048286293
117	0x3e2f304b	0.17108266
118	0x3db79ed3	0.0896584
119	0xbd790cc1	-0.06080318
120	0x3e4cbac8	0.19993126
121	0x3e11daf7	0.14243685
122	0x3e91315e	0.28357977
123	0x3e34f8f5	0.17673095
124	0x3e2bf736	0.16793522
125	0xbe42a32e	-0.1900756
126	0x3d5e1670	0.054220617
127	0x3da71448	0.08158165
128	0x3e502d24	0.2032972
129	0xbdbae57b	-0.09125801
130	0x3dae3524	0.085062295
131	0xbd80310a	-0.062593535
132	0x3e8e5795	0.27801195
133	0x3dcdb782	0.10044767
134	0xbdd63bd8	-0.10460633
135	0xbd9f4b97	-0.077780895
136	0xbdc36eda	-0.09542628
137	0xbd58c6c1	-0.05292392
138	0x3c970922	0.018436972
139	0xbd5e6529	-0.054295693
140	0x3e5a5c70	0.21324325
141	0xbd8b7893	-0.06810107
142	0xbde9b54b	-0.11411532
143	0xbdadba38	-0.08482784
144	0x3e92879a	0.2861908
145	0xbdaeb78f	-0.08531105
146	0x3eacd526	0.3375637
147	0xbdb7ccd7	-0.08974617
148	0xbe9dc075	-0.30810896
149	0x3e8b7bb0	0.27242804
150	0x3e665bd0	0.22495961
151	0x3e0a1da4	0.1348787
152	0x3e833219	0.2562416
153	0x3e62c445	0.22145183
154	0x3e676938	0.22598732
155	0xbe3f515b	-0.18683378
156	0xbb825ebb	-0.003978578
157	0x3e337f0f	0.17528938
158	0x3e16101a	0.1465458
159	0xbdf227a4	-0.11823967
160	0xbc130a89	-0.00897468
161	0xbda1b35e	-0.0789554
162	0x3e83d13d	0.25745574
163	0x3d9db4cd	0.07700501
164	0xbe3cb104	-0.18426901
165	0x3e232981	0.15933801
166	0x3e2e73d4	0.17036372
167	0x3dc817d8	0.09770173
168	0x3d36e3f8	0.044651
169	0x3e30f517	0.17280994
170	0xbe4670ab	-0.19378917
171	0x3c6a63fb	0.014306064
172	0x3e52141b	0.20515482
173	0x3e98b1a1	0.2982302
174	0xbe3678ca	-0.17819515
175	0x3e319f16	0.17345843
176	0xbd40bd4c	-0.047055528
177	0x3e577bed	0.21043368
178	0x3ddb610f	0.10711872
179	0xbe4f6e22	-0.20256856
180	0xbd944c02	-0.0724106
181	0xbdc5a42e	-0.096504554
182	0xbd8f5925	-0.06999425
183	0xbce0e070	-0.02745077
184	0xbd8aede9	-0.06783659
185	0x3e4aab13	0.19791822
186	0xbde3a712	-0.111158505
187	0xbdf64f3a	-0.1202683
188	0xbdebcea9	-0.11514027
189	0x3e7da53d	0.24770065
190	0xbdb6549d	-0.089028575
191	0x3e8e4f98	0.277951
192	0xbd9075c9	-0.07053716
193	0xbe9dd47e	-0.3082618
194	0x3e4e9e7a	0.20177642
195	0xbd9a86c0	-0.07545233
196	0xbdb9ebc2	-0.0907817
197	0xbded1d7c	-0.11577889
198	0x3c684cc0	0.014178455
199	0xbd1de0e8	-0.038544565
200	0x3e559829	0.20858826
201	0xbdf681ed	-0.120365
202	0xbe01b50e	-0.12666723
203	0xbdae667b	-0.0851564
204	0x3e8d0e19	0.27549818
205	0xbdae9d75	-0.08526126
206	0x3eb7a930	0.35871267
207	0xbda88ada	-0.08229609
208	0xbe8e318a	-0.2777217
209	0x3e89d47e	0.2691993
210	0x3e1f618f	0.1556456
211	0x3deebea5	0.11657456
212	0x3e37329a	0.17890397
213	0x3d8499cd	0.06474648
214	0x3df4f17a	0.119601205
215	0xbe05a7cb	-0.13052289
216	0x3d07ad0a	0.033124007
217	0x3ddfb8c3	0.109239124
218	0x3e2fc4ed	0.17164965
219	0xbe141507	-0.14461146
220	0x3dc1405c	0.09436104
221	0xbd679600	-0.056539536
222	0x3e49bfda	0.19702092
223	0x3daca99d	0.08430789
224	0xbe0b3e1e	-0.13597915

fc2.bias f4 [15]
0	0x3cc14d72	0.0235965
1	0xbc90c8a1	-0.017673792
2	0x398facb0	0.00027403748
3	0x3d91cd99	0.07119293
4	0x3c886a00	0.016652107
5	0x3d65a014	0.056060866
6	0x3df66c0e	0.120323285
7	0x3d9cb260	0.0765121
8	0x3db71e2f	0.08941304
9	0xbd5883e6	-0.052860163
10	0x3e193447	0.14961348
11	0x3dca2cd9	0.09871835
12	0xbcd42e21	-0.025900902
13	0x3cadae7e	0.021201368
14	0x3cac6062	0.021042053

out.weight f4 [1, 15]
0	0x3ea5e56b	0.32401595
1	0xbea0cb7f	-0.31405255
2	0xbe8660a9	-0.2624562
3	0x3e87885c	0.2647122
4	0xbe80c26f	-0.2514834
5	0x3e816426	0.2527172
6	0xbe7f1e87	-0.24913989
7	0x3e37fbb3	0.1796711
8	0xbe8d71d7	-0.27625915
9	0x3ea19091	0.31555608
10	0xbe3d4340	-0.18482685
11	0x3db0e83d	0.08638046
12	0xbeab01e8	-0.33399892
13	0xbe2040da	-0.15649739
14	0xbe9829ee	-0.2971949

sep_conn.weight f4 [15, 95]
0	0xbda30839	-0.07960553
1	0x3d829358	0.0637576
2	0xbdd20dda	-0.10256548
3	0xbd88e974	-0.06685153
4	0x3cec8710	0.028872997
5	0xbd5739a7	-0.052545216
6	0xbc216a68	-0.009852029
7	0xbd4cb427	-0.049976494
8	0x3d263af7	0.040583577
9	0x3c39dd21	0.011344225
10	0xbb0decf8	-0.0021656137
11	0xbd427c44	-0.04748179
12	0xbdc2ca93	-0.09511294
13	0x3d260e77	0.04054114
14	0xbce74a7e	-0.028233763
15	0xbdbf2537	-0.0933327
16	0x3cedda39	0.02903472
17	0xbb46045c	-0.0030215
18	0x3dd027d7	0.10163849
19	0x3d61e04b	0.055145543
20	0x3d9d5135	0.07681505
21	0xbd5c02bc	-0.053713545
22	0x3dc12d0a	0.09432419
23	0x3dc84b1a	0.097799495
24	0xbdcd65a5	-0.10029153
25	0x3dcbc928	0.09950477
26	0x3d24ea44	0.040262476
27	0xbcc48fd3	-0.023994362
28	0x3cbb9754	0.022899307
29	0x3da5678b	0.0807639
30	0xbdbce697	-0.09223669
31	0xbdb9128f	-0.09036743
32	0xbb047f41	-0.002021745
33	0x3d8066ec	0.06269631
34	0xbcf602e2	-0.030030672
35	0xbce1faeb	-0.027585467
36	0xbd8fa072	-0.070130244
37	0x3d83e059	0.06439275
38	0xbd743fee	-0.05963128
39	0xbcda4f94	-0.026649274
40	0x3cbc9f98	0.023025319
41	0xbd6dbec4	-0.058043256
42	0xbc248b07	-0.010042912
43	0x3d42399a	0.047418214
44	0x3d39d870	0.045372427
45	0xbc9ec1d9	-0.019379543
46	0x3d4367ec	0.04770653
47	0x3d129708	0.035788566
48	0x3c15e197	0.009148023
49	0xbd1d6b01	-0.038432125
50	0xbae38a89	-0.0017360012
51	0x3dbd50e7	0.092439465
52	0xbdb70d81	-0.089381225
53	0xbd57be6a	-0.052671827
54	0xbdb5d209	-0.08877952
55	0xbc6a2804	-0.014291767
56	0xbdcdc16b	-0.10046657
57	0xbca06817	-0.019580884
58	0x3d9f137c	0.07767388
59	0x3cac4a2b	0.02103146
60	0xbd2ee846	-0.042701982
61	0xbda680e1	-0.081300505
62	0xbd93aca1	-0.07210661
63	0xbcb1761d	-0.021662766
64	0x3d6fac95	0.058514196
65	0x3d7823d5	0.060581047
66	0xbda3bc43	-0.079948924
67	0xbd7786cf	-0.060431298
68	0x3d8c1de2	0.06841637
69	0x3be99e20	0.0071294457
70	0x3dcdfb8c	0.100577444
71	0x3dbb0e08	0.091335356
72	0x3cfc20b5	0.030777315
73	0xbd96bcf1	-0.073602565
74	0xbdc34c08	-0.09535986
75	0xbd6aee2f	-0.057356056
76	0xbd934774	-0.07191363
77	0xbd2fbe1d	-0.042905916
78	0x3cb23eab	0.021758398
79	0x3d78fa6b	0.060785692
80	0x3d0bda7d	0.034143914
81	0x3da7d534	0.08194962
82	0xbdaa019a	-0.08301087
83	0xbda3412a	-0.079714134
84	0x3d60d99e	0.054895036
85	0x3da8b7e1	0.08238197
86	0x3d1674f5	0.036732633
87	0x3d7ef803	0.06224824
88	0xbc3bf621	-0.011472256
89	0x3dad239b	0.08454057
90	0x3d99c5be	0.075084195
91	0xbdc06bb2	-0.09395541
92	0x3bc49d79	0.0060002175
93	0x3d1080c7	0.03527906
94	0x3c5be626	0.013421571
95	0xbd8190b1	-0.06326426
96	0x3ca8f88e	0.020626333
97	0xbdbe76d5	-0.09300009
98	0xbd8f6ebd	-0.070035435
99	0x3d043ae3	0.03228272
100	0x3d4a79e3	0.049432646
101	0x3c314796	0.01082029
102	0xbd873336	-0.066015646
103	0xbc287606	-0.010282045
104	0x3c6e51f5	0.014545907
105	0xbd9b573a	-0.075849965
106	0xbccf5c1e	-0.02531248
107	0x3d1b07f9	0.0378494
108	0x3d6bb79f	0.05754816
109	0xbdbad530	-0.091226935
110	0x3cfd5ab5	0.030927042
111	0xbd78f6d7	-0.06078228
112	0xbdb30461	-0.087410696
113	0x3c8c9de3	0.01716513
114	0x3d01cd70	0.03169006
115	0xbd041b63	-0.03225268
116	0x3d5fa6b2	0.054602332
117	0x3da3c67c	0.07996842
118	0xbc4605d8	-0.012086354
119	0x3ce63ed0	0.028106123
120	0x3d403fe9	0.04693595
121	0xbd583881	-0.05278826
122	0xbd23ead6	-0.04001888
123	0x3d9cd668	0.07658082
124	0xbcb18667	-0.021670533
125	0x3db81cfc	0.08989903
126	0xbd04f2a7	-0.032457974
127	0xbd522412	-0.05130393
128	0xbd9400f8	-0.07226747
129	0xbda22914	-0.07917991
130	0x3cb1683d	0.02165615
131	0xbc47405c	-0.012161341
132	0xbd11dad0	-0.035609066
133	0xbd9f197d	-0.077685334
134	0x3a2a889c	0.0006505342
135	0x3d07b4df	0.033131476
136	0x3dd1dfa3	0.102477334
137	0xbc108cc8	-0.008822627
138	0xbda25292	-0.07925905
139	0x3d022163	0.03177012
140	0x3cabab8d	0.020955825
141	0x3dcc074b	0.099623285
142	0x3d0942df	0.03351104
143	0xbd1737ca	-0.03691844
144	0x3d0d3cc6	0.034481786
145	0xbd970d7a	-0.07375617
146	0x3dbce6a1	0.092236765
147	0x3ca2cedb	0.019874027
148	0x3c9d6ea9	0.019217806
149	0xbdbc7d6e	-0.09203611
150	0x3cb92495	0.022600451
151	0xbd4b8d01	-0.04969502
152	0xbdcb53bc	-0.099280804
153	0x3cfd4986	0.030918848
154	0xbdb78879	-0.08961577
155	0xbcc94aa9	-0.024571734
156	0x3c8a8074	0.016906954
157	0xbd7f293b	-0.06229518
158	0xbd7315a0	-0.059346795
159	0xbd98343a	-0.074318364
160	0x3cc6c331	0.024262996
161	0xbbe4ad66	-0.0069786785
162	0x3bbd03ce	0.005768276
163	0x3d9af5e0	0.07566428
164	0xbd69bacd	-0.057062913
165	0xbada332f	-0.0016647334
166	0xbdc264bf	-0.09491872
167	0xbd0e9fac	-0.034820244
168	0xbdb50a10	-0.0883981
169	0xbd95271c	-0.0728285
170	0x3c730e26	0.014834916
171	0x3a1fff84	0.00061034434
172	0x3d606887	0.054787185
173	0x3d941283	0.07230093
174	0x3bdcfb37	0.0067438143
175	0x3d29139d	0.04127847
176	0x3d6ba842	0.05753351
177	0x3dc94b62	0.09828831
178	0xbd8aad62	-0.067713514
179	0x3d0eafaa	0.034835495
180	0x3dad5d59	0.0846507
181	0xbdc20a56	-0.09474628
182	0xbd21a3f7	-0.03946301
183	0xbd43c3e3	-0.047794234
184	0xbd84ae62	-0.064785734
185	0xbdc0e6e9	-0.094190426
186	0xbd8cd046	-0.068756625
187	0x3d50e3a8	0.05099836
188	0x3d62738c	0.055285975
189	0x3d1a3207	0.037645366
190	0xbdb6b110	-0.08920491
191	0xbd87ba3e	-0.0662732
192	0xbc938050	-0.01800552
193	0x3cd2c3ff	0.025728224
194	0x3cd369ec	0.025807343
195	0xbd525c45	-0.051357526
196	0x3d603182	0.054734714
197	0x3d937fb4	0.07202092
198	0xbd948f98	-0.07253951
199	0x3d810243	0.062992595
200	0x3ad6bcbd	0.0016383153
201	0xbd872a16	-0.06599824
202	0xbcccd2e8	-0.025002912
203	0xbd0abb6f	-0.033870157
204	0xbd09ce40	-0.03364396
205	0x3db66c0d	0.08907328
206	0x3daa73dc	0.0832288
207	0xbc646fbd	-0.013942656
208	0xbd4e972b	-0.050437134
209	0x3db40495	0.087899365
210	0xbdbfac46	-0.093590304
211	0x3b1ec9ac	0.0024229093
212	0xbda64473	-0.081185244
213	0x3d653909	0.055962596
214	0xbc2366ad	-0.00997321
215	0x3d2562c7	0.040377405
216	0xbd4e0ad1	-0.050303284
217	0xbdcf59cc	-0.10124549
218	0xbc8b50e8	-0.017006353
219	0x3dcd27c9	0.10017354
220	0x3cc57042	0.02410138
221	0xbdb690ab	-0.08914312
222	0x3d1c0e8f	0.03809982
223	0x3ceb9a85	0.028760204
224	0xbd18d9a2	-0.037316926
225	0x3d4174ae	0.047230415
226	0x3c900f54	0.017585434
227	0x3bd7bc50	0.006583728
228	0xbc838425	-0.016054222
229	0x3d026cb2	0.03184194
230	0x3d891bfb	0.0669479
231	0xbdc32b84	-0.09529784
232	0xbdc424e8	-0.09577352
233	0x3d23f732	0.040030666
234	0xbc440cb5	-0.01196592
235	0x3dc68ce2	0.0969484
236	0x3dc11b5d	0.09429047
237	0xbbaf27aa	-0.0053453045
238	0x3d1e17aa	0.038596787
239	0xbd1af056	-0.03782686
240	0xbacb32be	-0.0015502793
241	0xbc659daf	-0.0140146455
242	0xbd9dd399	-0.07706375
243	0x3d68c904	0.05683233
244	0xbdb126f3	-0.08650007
245	0x3d9a2b03	0.07527735
246	0xbd13000d	-0.03588872
247	0x3dc4e645	0.09614233
248	0x3d1360b3	0.03598089
249	0x3d374324	0.044741765
250	0xbd893b89	-0.067008086
251	0x3bce05c0	0.0062873065
252	0xbd417966	-0.047234915
253	0x3c36dbb3	0.011160779
254	0x3dcd95fd	0.100383736
255	0xbd2da6ec	-0.042395517

sep_conn.bias f4 [15]
0	0x3c8748a4	0.01651413
1	0x3d814e7c	0.06313798
2	0xbd478710	-0.04871279
3	0xbcf527ea	-0.02992626
4	0x3abd8d7e	0.0014461724
5	0xba1b2a99	-0.00059191283
6	0x3b1a8671	0.0023578668
7	0xbd71b10c	-0.059006736
8	0x3d935728	0.07194358
9	0xbc6cb420	-0.014447242
10	0x3d4e7fc4	0.050414816
11	0x3d76b053	0.06022675
12	0x3bbbb277	0.005728062
13	0x3c47d77c	0.012197372
14	0x3d84c9fd	0.06483839

bn.weight f4 [15]
0	0x3f800000	1.0
1	0x3f800000	1.0
2	0x3f800000	1.0
3	0x3f800000	1.0
4	0x3f800000	1.0
5	0x3f800000	1.0
6	0x3f800000	1.0
7	0x3f800000	1.0
8	0x3f800000	1.0
9	0x3f800000	1.0
10	0x3f800000	1.0
11	0x3f800000	1.0
12	0x3f800000	1.0
13	0x3f800000	1.0
14	0x3f800000	1.0

bn.bias f4 [15]
0	0x00000000	0.0
1	0x00000000	0.0
2	0x00000000	0.0
3	0x00000000	0.0
4	0x00000000	0.0
5	0x00000000	0.0
6	0x00000000	0.0
7	0x00000000	0.0
8	0x00000000	0.0
9	0x00000000	0.0
10	0x00000000	0.0
11	0x00000000	0.0
12	0x00000000	0.0
13	0x00000000	0.0
14	0x00000000	0.0

bn.running_mean f4 [15]
0	0x00000000	0.0
1	0x00000000	0.0
2	0x00000000	0.0
3	0x00000000	0.0
4	0x00000000	0.0
5	0x00000000	0.0
6	0x00000000	0.0
7	0x00000000	0.0
8	0x00000000	0.0
9	0x00000000	0.0
10	0x00000000	0.0
11	0x00000000	0.0
12	0x00000000	0.0
13	0x00000000	0.0
14	0x00000000	0.0

bn.running_var f4 [15]
0	0x3f800000	1.0
1	0x3f800000	1.0
2	0x3f800000	1.0
3	0x3f800000	1.0
4	0x3f800000	1.0
5	0x3f800000	1.0
6	0x3f800000	1.0
7	0x3f800000	1.0
8	0x3f800000	1.0
9	0x3f800000	1.0
10	0x3f800000	1.0
11	0x3f800000	1.0
12	0x3f800000	1.0
13	0x3f800000	1.0
14	0x3f800000	1.0

fc3.weight f4 [15, 15]
0	0x3dcc1779	0.099654146
1	0xbe3cd3f4	-0.18440229
2	0x3dccb4c1	0.099954136
3	0xbe4ca2d8	-0.19983995
4	0xbe2edfc8	-0.17077553
5	0xbdfba6fe	-0.122877106
6	0xbe20232c	-0.15638417
7	0xbe0b65b2	-0.13613012
8	0xbe21930d	-0.15778752
9	0x3e2d3258	0.16913736
10	0xbe2bfd75	-0.16795905
11	0xbe25e7da	-0.16201726
12	0x3e073d1d	0.13206907
13	0x3e4b9113	0.1987956
14	0xbe24614e	-0.16052744
15	0xbdb0c195	-0.08630673
16	0x3e0473c4	0.12934786
17	0xbd9b61cb	-0.07587012
18	0x3e52d1ca	0.2058784
19	0x3e05552a	0.13020769
20	0x3d9af9db	0.075671874
21	0x3da06718	0.078321636
22	0x3dc32ee2	0.095304266
23	0x3e09d1f6	0.13459
24	0xbd9370fb	-0.07199284
25	0x3e54f8a8	0.2079798
26	0x3e17e55d	0.14833589
27	0xbe3cc0f0	-0.18432975
28	0xbe101ff8	-0.14074695
29	0x3dd0228d	0.1016284
30	0x3e223692	0.1584113
31	0xbe26f33e	-0.16303727
32	0x3e248156	0.16064963
33	0xbe8aa2e0	-0.2707739
34	0xbe2f89fc	-0.1714248
35	0xbdeac60c	-0.11463556
36	0xbdf7d92a	-0.12101968
37	0xbdfafd86	-0.12255387
38	0xbe4dfb62	-0.20115426
39	0x3e6f2d08	0.23357022
40	0xbe163659	-0.1466917
41	0xbe5a1acd	-0.21299286
42	0x3e4c2f34	0.19939882
43	0x3e5e4e2e	0.2170951
44	0xbe3eecf8	-0.18645084
45	0x3da6e07e	0.08148287
46	0xbe5588db	-0.20852987
47	0x3dd851de	0.1056249
48	0xbe69f2e9	-0.22846569
49	0xbdfc08f9	-0.12306399
50	0xbdf239f2	-0.118274584
51	0xbe09d223	-0.13459067
52	0xbdf4d893	-0.11955371
53	0xbe0b8781	-0.1362591
54	0x3e21b56e	0.15791866
55	0xbe7d797f	-0.24753378
56	0xbe573f55	-0.21020253
57	0x3e42dede	0.1903033
58	0x3e338a4e	0.17533228
59	0xbe1d14ff	-0.1534004
60	0xbddb22aa	-0.10699971
61	0x3da82c4c	0.08211574
62	0xbe148fba	-0.14507952
63	0x3e0663de	0.13124034
64	0x3e2c2623	0.16811423
65	0xbc08d4ee	-0.008351548
66	0x3d9c4bb4	0.07631627
67	0x3dd7743a	0.10520215
68	0x3dee9dda	0.116512015
69	0xbe6f26fc	-0.23354715
70	0x3e558204	0.20850378
71	0x3e8ac377	0.27102253
72	0xbe7731e3	-0.24140124
73	0xbe1b5240	-0.15168095
74	0x3c98e5d2	0.018664274
75	0xbe05ca4a	-0.13065448
76	0x3e6089b3	0.21927528
77	0xbd94f6ba	-0.07273622
78	0xbb22b0f7	-0.0024824718
79	0x3df81a94	0.121144444
80	0x3cf09cb8	0.029371604
81	0x3d20863c	0.039190516
82	0x3db47e43	0.08813145
83	0x3e2fc451	0.17164733
84	0xbe2a7e0a	-0.16649643
85	0x3e6d4205	0.23169716
86	0x3e280ff3	0.16412334
87	0xbe19f0b3	-0.15033226
88	0xbdfceda0	-0.12350011
89	0x3dd627b3	0.10456791
90	0x3d8d660e	0.06904231
91	0xbd3e3ad8	-0.046442837
92	0x3c3904c6	0.011292642
93	0xbd81e8a0	-0.06343198
94	0xbd848885	-0.064713515
95	0xbc1355e1	-0.008992643
96	0xbcc0d877	-0.023540718
97	0xbd657854	-0.056022957
98	0xbd965122	-0.073396936
99	0x3d8e9877	0.06962674
100	0xbd6a667f	-0.057226654
101	0xbd4cf604	-0.050039306
102	0x3d538379	0.051639054
103	0x3d27b9ba	0.040948607
104	0xbd3b83fd	-0.04578017
105	0x3e1d6872	0.15371874
106	0xbe3f2e98	-0.18670118
107	0x3e0e25a7	0.1388155
108	0xbe2ab743	-0.16671471
109	0xbe354f48	-0.17706025
110	0xbdbf8e64	-0.09353331
111	0xbdcbe528	-0.099558175
112	0xbe02c5c4	-0.12770754
113	0xbe2dccc1	-0.16972639
114	0x3e763d46	0.24046811
115	0xbdbadbef	-0.0912398
116	0xbe1d1ec0	-0.15343761
117	0x3e358da1	0.17729808
118	0x3e71925f	0.23590992
119	0xbe11d783	-0.14242367
120	0x3e4d7ace	0.20066378
121	0xbdb7ad19	-0.08968563
122	0x3dee7189	0.11642749
123	0xbe266511	-0.16249491
124	0xbe24c1dc	-0.16089576
125	0xbdd73731	-0.10508574
126	0xbe1aabcb	-0.15104596
127	0xbe0d7619	-0.13814582
128	0xbe42c00f	-0.19018577
129	0x3e2e7a05	0.17038734
130	0xbdaf1086	-0.085480735
131	0xbe340788	-0.17580998
132	0x3e36fb46	0.1786929
133	0x3e60d69c	0.21956867
134	0xbe09e1e7	-0.13465081
135	0xbcf6b2cf	-0.03011456
136	0x3d14f26f	0.036364015
137	0xbd14c7d6	-0.03632339
138	0x3ce11784	0.027477033
139	0x3d0f9a55	0.035059292
140	0x3cfa338e	0.030542161
141	0x3d580771	0.05274147
142	0x3d15ccc6	0.03657224
143	0x3d4ea5f7	0.050451245
144	0xbcf2bd04	-0.029631145
145	0x3d4008b5	0.046883304
146	0x3cfc64a6	0.030809712
147	0xbd553b92	-0.052058764
148	0xbd4e3e39	-0.05035231
149	0x3d0474b1	0.032337848
150	0x3e46acc8	0.19401848
151	0xbe3a3830	-0.18185496
152	0x3e0afdcb	0.13573377
153	0xbdfa6ac1	-0.12227393
154	0xbe5478bb	-0.2074918
155	0xbde099ff	-0.109668724
156	0xbe151503	-0.14558797
157	0xbe07325e	-0.13202807
158	0xbe654a19	-0.22391547
159	0x3e5b0ea1	0.21392299
160	0xbe41a0f5	-0.18909056
161	0xbe53be1b	-0.20677988
162	0x3e3aa793	0.18227987
163	0x3e73405b	0.23755018
164	0xbe35ce57	-0.17754494
165	0x3e026fc0	0.12737942
166	0xbe36a16f	-0.1783502
167	0x3e07c6c0	0.13259411
168	0xbe05ca4b	-0.1306545
169	0xbe3035d7	-0.17208038
170	0xbdcc37b3	-0.09971561
171	0xbdef25c1	-0.11677123
172	0xbe1b53d1	-0.15168692
173	0xbe2382d5	-0.15967877
174	0x3e1a4f3a	0.15069285
175	0xbdd70628	-0.10499221
176	0xbe0fd85e	-0.14047381
177	0x3e17f518	0.1483959
178	0x3e388890	0.18020844
179	0xbe2a4ce5	-0.16630895
180	0x3e1d6483	0.15370373
181	0xbe316fb4	-0.17327768
182	0x3e058135	0.1303757
183	0xbe5160d7	-0.20447098
184	0xbe2ab5bc	-0.16670889
185	0xbddf0a21	-0.10890604
186	0xbdb9501f	-0.09048485
187	0xbe06dd5b	-0.13170378
188	0xbe6abb0c	-0.22922915
189	0x3e58aa28	0.2115866
190	0xbe4cb131	-0.19989468
191	0xbe544dba	-0.20732775
192	0x3e1a664e	0.15078089
193	0x3e4a62db	0.19764273
194	0xbe253b1f	-0.16135834
195	0x3e2a8c31	0.16655041
196	0xbe47e7f7	-0.19522081
197	0x3e17398a	0.14768043
198	0xbe653ee3	-0.2238727
199	0xbe3aa994	-0.18228751
200	0xbe01ac6f	-0.12663434
201	0xbded01e8	-0.11572629
202	0xbe172f8f	-0.14764236
203	0xbe4bdd7a	-0.19908705
204	0x3e59a1ed	0.21253176
205	0xbe172ef6	-0.14764008
206	0xbe055279	-0.13019742
207	0x3e47adae	0.19499847
208	0x3e70a187	0.23499118
209	0xbe2bcb8d	-0.16776867
210	0xbd118f73	-0.035537194
211	0x3d679db2	0.056546874
212	0xbce62c35	-0.028097251
213	0x3d988b91	0.07448495
214	0x3d87140e	0.06595622
215	0x3d64ba76	0.055841886
216	0x3de4d0ed	0.11172662
217	0x3da907f5	0.08253471
218	0x3dd00137	0.10156482
219	0xbd6d30a5	-0.05790772
220	0x3d427448	0.047474176
221	0x3daef13f	0.08542108
222	0xbd1d9303	-0.03847028
223	0xbd640a69	-0.05567399
224	0x3d1da04d	0.038482953

fc3.bias f4 [15]
0	0x3d01344c	0.031544015
1	0x3d9e51e5	0.07730464
2	0xbcb565fb	-0.022143355
3	0x3d155c1d	0.0364648
4	0x3e4ac6cd	0.19802399
5	0x3e45be4c	0.19310874
6	0xbdb31cd7	-0.08745735
7	0x3a9ea824	0.0012104553
8	0xbd7ca198	-0.061677545
9	0x3d1952d7	0.037432518
10	0xbd1223d2	-0.035678692
11	0x3e0fa7ff	0.14028929
12	0xbb8db087	-0.004324022
13	0x3d5c83d8	0.053836673
14	0xbbe1c08a	-0.0068894075

fc4.weight f4 [15, 15]
0	0x3e43103f	0.19049166
1	0xbe336aea	-0.17521253
2	0x3de6117f	0.11233806
3	0x3e46bfd1	0.1940911
4	0xbe0f9ff8	-0.14025867
5	0xbe13daf0	-0.14438987
6	0x3d47f322	0.048815854
7	0x3e24e655	0.1610349
8	0x3e1b38dd	0.1515841
9	0xbd3c36eb	-0.04595081
10	0x3e253bb8	0.16136062
11	0x3dfea3f2	0.12433614
12	0x3e6b5bd6	0.22984251
13	0x3e0db37f	0.13838004
14	0xbdb01164	-0.08597067
15	0xbe55a404	-0.20863348
16	0x3e48bcbc	0.19603246
17	0xbd9aad2a	-0.0755256
18	0xbe150fc5	-0.14556797
19	0x3cc350d5	0.023842255
20	0x3e259d2f	0.16173242
21	0x3d73df69	0.059539232
22	0xbd85328f	-0.06503784
23	0xbe1a5aed	-0.15073748
24	0xbd33b881	-0.04387713
25	0xbe2c99db	-0.16855566
26	0xbe366b77	-0.17814432
27	0xbe7e442d	-0.24830694
28	0xbe0f2e01	-0.13982393
29	0xbdbbde4a	-0.09173258
30	0xbe135274	-0.14386922
31	0x3e1766db	0.1478533
32	0xbe2b0320	-0.16700411
33	0xbe2f53e4	-0.17121845
34	0x3e115ea0	0.14196253
35	0xbd091d0d	-0.03347497
36	0xbd9b5edd	-0.07586453
37	0xbe0dd520	-0.13850832
38	0xbe148498	-0.14503706
39	0x3d00c169	0.03143445
40	0xbe4f4762	-0.20242074
41	0xbe113d42	-0.14183524
42	0xbdf4c574	-0.11951724
43	0xbe26de69	-0.1629578
44	0x3bf7e06f	0.0075645964
45	0x3e225576	0.15852913
46	0xbd98ce4c	-0.07461223
47	0x3e3a41ff	0.18189238
48	0x3e2cc193	0.16870718
49	0xbe2c0d0a	-0.16801849
50	0xbd9e05a7	-0.07715922
51	0x3d823382	0.063574806
52	0x3e45c864	0.19314724
53	0x3e142f32	0.14471129
54	0xbcf57ee6	-0.029967736
55	0x3e34a4e3	0.17641024
56	0x3e30b758	0.1725744
57	0x3e27ab54	0.1637395
58	0x3e2ae5b3	0.16689186
59	0xbd4e6eec	-0.050398752
60	0xbe02c28c	-0.12769526
61	0x3e3eb67e	0.18624303
62	0xbe5de5bf	-0.21669672
63	0xbe1b7ef4	-0.15185148
64	0x3e42d888	0.19027913
65	0x3e8beac4	0.2732755
66	0x3ca86872	0.020557616
67	0xbdf7968e	-0.12089263
68	0xbe21a5cc	-0.15785903
69	0x3d8fe72f	0.07026517
70	0xbe32c340	-0.17457294
71	0xbe078a79	-0.13236417
72	0xbda5f1de	-0.08102773
73	0xbe4694e7	-0.19392739
74	0x3d99dcde	0.0751283
75	0x3e09a99d	0.13443609
76	0xbe06750d	-0.13130589
77	0x3e14151c	0.14461178
78	0x3e332a00	0.1749649
79	0xbe4b243e	-0.19838044
80	0xbe390e96	-0.1807197
81	0x3d4528b2	0.048134513
82	0x3e1a583e	0.15072724
83	0x3db172e3	0.08664491
84	0xbd12fa5b	-0.03588329
85	0x3e3ed42f	0.18635629
86	0x3df7abb3	0.12093296
87	0x3e114539	0.14186563
88	0x3e21113b	0.15729229
89	0xbdfc3e94	-0.12316623
90	0xbe08e42b	-0.13368289
91	0x3e67f753	0.2265294
92	0xbe2bc9db	-0.1677622
93	0xbdcf20a1	-0.10113645
94	0x3e10e211	0.14148737
95	0x3e47085e	0.19436786
96	0x3d1313a9	0.03590742
97	0xbe2a2602	-0.16616061
98	0xbe086725	-0.13320597
99	0x3cd3ca2e	0.025853243
100	0xbe4c5ed7	-0.19958054
101	0xbe1ce7da	-0.1532282
102	0xbe0aa882	-0.13540843
103	0xbe440a51	-0.1914456
104	0x3cbc0578	0.022951826
105	0x3e0195d9	0.12654819
106	0xbde4dc4a	-0.11174829
107	0x3e18b994	0.14914542
108	0x3ddd3ca1	0.1080258
109	0xbdcad0be	-0.09903096
110	0xbdeb9d59	-0.11504621
111	0x3d1904e7	0.03735819
112	0x3e02f018	0.12786901
113	0x3dd6e5f7	0.10493081
114	0xbd238c32	-0.039928623
115	0x3e0ebc3a	0.1393899
116	0x3de4f0aa	0.111787155
117	0x3dc3e994	0.09566036
118	0x3e078cfd	0.13237377
119	0xbd8a20da	-0.06744547
120	0xbe43c821	-0.19119312
121	0x3e2c935a	0.16853085
122	0xbe4e158e	-0.2012541
123	0xbe48bf3c	-0.196042
124	0x3e680890	0.22659516
125	0x3e11a7cb	0.14224164
126	0xbda9f73d	-0.0829911
127	0xbe3d0f58	-0.18462884
128	0xbe2d4286	-0.16919908
129	0x3d1c26cd	0.03812294
130	0xbe4dd5cb	-0.20101087
131	0xbe299b70	-0.16563201
132	0xbded91b7	-0.116000585
133	0xbe376248	-0.17908585
134	0x3dc085d2	0.09400524
135	0x3e327676	0.17428002
136	0xbe3672f1	-0.17817284
137	0x3e69a6bf	0.22817515
138	0x3e637b6a	0.22215047
139	0xbe2ca04a	-0.1685802
140	0xbdc2faa5	-0.09520463
141	0x3d13d4bf	0.036091562
142	0x3e396150	0.18103528
143	0x3e234530	0.15944362
144	0xbcaf6e78	-0.02141498
145	0x3e5001c4	0.20313174
146	0x3e573b16	0.21018633
147	0x3e1cfe69	0.15331425
148	0x3e4b607c	0.19861025
149	0x3c97b524	0.018518992
150	0xbe285d65	-0.16441877
151	0x3e1c628d	0.15271969
152	0xbe23019f	-0.15918587
153	0xbe080fd9	-0.13287295
154	0x3dbbec87	0.091759734
155	0x3e01f35d	0.12690492
156	0xbd938fb6	-0.07205145
157	0xbe366f41	-0.17815877
158	0xbe2e149a	-0.17000046
159	0x3d54f7fb	0.051994305
160	0xbe3b6a8c	-0.18302363
161	0xbe00c09f	-0.12573479
162	0xbe389935	-0.18027194
163	0xbe3224c0	-0.17396832
164	0x3db72038	0.08941692
165	0x3d828096	0.06372182
166	0xbd7fc030	-0.062439144
167	0x3d8e593e	0.06950615
168	0x3d1fa29b	0.038973432
169	0x3b9ef5b5	0.004851068
170	0xbde9c074	-0.11413661
171	0xbdb4c1eb	-0.088260494
172	0x3d784809	0.060615573
173	0x3da478d2	0.08030857
174	0xbc5dec9c	-0.013545182
175	0x3d9f0e8f	0.07766449
176	0x3d97458e	0.073863134
177	0x3d98099c	0.07423708
178	0x3d9052e4	0.0704706
179	0xbdb7fa37	-0.089832716
180	0xbe218201	-0.15772249
181	0x3cd76e0e	0.026297595
182	0xbe46074c	-0.19338721
183	0xbe2f7481	-0.17134286
184	0x3d1b3e87	0.037901428
185	0xbd4cd3fb	-0.050006848
186	0xbdc62532	-0.09675063
187	0xbe1c7b44	-0.15281397
188	0xbe2898f7	-0.16464601
189	0x3d459136	0.048234187
190	0xbe55161b	-0.20809214
191	0xbe250e69	-0.16118778
192	0xbe84c92c	-0.25934732
193	0xbe3bf930	-0.18356776
194	0x3c3285b9	0.01089614
195	0xbe1b6378	-0.15174663
196	0x3da7df9f	0.08196949
197	0xbe2f2da6	-0.17107257
198	0xbdf12a65	-0.11775664
199	0x3df07648	0.1174131
200	0x3dbd065c	0.092297286
201	0xbd6b0926	-0.05738177
202	0xbe1846a9	-0.14870705
203	0xbe1aea4b	-0.15128438
204	0x3d54f30d	0.051989604
205	0xbe3939a6	-0.18088397
206	0xbe0a85d4	-0.13527614
207	0xbe0e42a0	-0.13892603
208	0xbe367652	-0.17818573
209	0x3dad5a98	0.08464545
210	0xbe1ef714	-0.1552394
211	0xbcc08196	-0.023499291
212	0xbe565963	-0.20932536
213	0xbdae2b28	-0.08504325
214	0x3e5efff7	0.2177733
215	0x3e113efb	0.14184181
216	0xbdd6aa87	-0.10481744
217	0xbe3b0868	-0.18264925
218	0xbdd5d547	-0.1044107
219	0x3cf6f3e1	0.030145587
220	0xbe2d7874	-0.1694048
221	0xbdf24e3b	-0.118313275
222	0xbe7c217e	-0.24622151
223	0xbe34094b	-0.1758167
224	0x3da53c34	0.080681235

fc4.bias f4 [15]
0	0xbe2d9421	-0.16951038
1	0x3e782fbf	0.24236964
2	0x3e450e52	0.19243744
3	0xbe008a37	-0.12552725
4	0x3dd5256f	0.104075305
5	0x3c6c77c7	0.014432854
6	0x3e67a6c1	0.22622205
7	0xbc80c14e	-0.015717175
8	0x3de375d8	0.11106461
9	0xbe1dd94e	-0.15414926
10	0x3e5bd4b9	0.21467866
11	0x3d85181a	0.06498738
12	0x3e7cd8b3	0.24692039
13	0x3e1113b4	0.14167672
14	0x3db66884	0.089066535

net.0.weight f4 [15, 95]
0	0xbe077401	-0.13227846
1	0x3cbe5140	0.023232102
2	0xbdf6d717	-0.12052744
3	0xbde326be	-0.11091374
4	0xbb7d8e74	-0.0038689645
5	0xbdfc0bee	-0.12306963
6	0xbb934816	-0.0044946773
7	0x3de49d40	0.111628056
8	0xbaf56125	-0.0018720968
9	0x3e10dece	0.14147493
10	0xbcb1fc17	-0.021726651
11	0x3d8b4f82	0.06802274
12	0x3c9b4578	0.018954024
13	0xbb604cc5	-0.0034225446
14	0x3dcd4f0f	0.10024845
15	0xbd36cf9a	-0.044631578
16	0x3e6b5409	0.22981276
17	0x3e2a54e7	0.1663395
18	0x3e29c919	0.16580619
19	0xbd861c43	-0.06548359
20	0xbd14aede	-0.03629958
21	0xbcf53452	-0.029932175
22	0xbdac4882	-0.08412267
23	0xbdc02575	-0.09382144
24	0x3a34738b	0.00068836723
25	0xbd1bcd3a	-0.038037516
26	0x3d28854a	0.04114274
27	0xbd29d38d	-0.041461516
28	0xbe0dc276	-0.13843712
29	0x3c44f565	0.012021397
30	0x3e173643	0.14766793
31	0x3d7e23a1	0.062045697
32	0x3d891ecf	0.066953294
33	0x3b19de89	0.0023478589
34	0xbc8d2ca7	-0.017233206
35	0xbdb1e4d9	-0.08686227
36	0x3db588b2	0.08863963
37	0xbc253649	-0.010083743
38	0x3d77afc4	0.060470358
39	0x3e4639ba	0.19357958
40	0x3d1dbeb8	0.03851196
41	0xbdb5e600	-0.0888176
42	0x3d2f59e9	0.042810354
43	0xbdbf8f74	-0.093535334
44	0x3c233fa0	0.0099639
45	0xbb94f8b5	-0.0045462498
46	0x3d8363d3	0.06415524
47	0x3dfdfb8d	0.12401495
48	0x3e820dc2	0.2540112
49	0x3dc61e2e	0.09673725
50	0xbe1c069c	-0.15236896
51	0x3d038c46	0.032116197
52	0x3d331b1e	0.043727033
53	0x3af5d318	0.0018754927
54	0x3d436c51	0.04771072
55	0xbc8651ef	-0.01639649
56	0x3cdf5556	0.027262371
57	0x3d372d8f	0.044721182
58	0x3cd1a97c	0.025593512
59	0x3bb2551a	0.005442274
60	0xbc3cb669	-0.011518099
61	0xba743939	-0.0009316388
62	0x3d14c9c3	0.036325227
63	0xbb77898a	-0.0037771189
64	0xbd076589	-0.033055816
65	0x390ce726	0.0001343755
66	0x3a9d947b	0.00120224
67	0xbd37f5fe	-0.04491233
68	0xbb5dc8d8	-0.0033841636
69	0x3c3cf896	0.011533877
70	0x3d4aacfb	0.049481373
71	0x3dacf5c6	0.08445315
72	0x3d315dad	0.043302227
73	0xbc826e9a	-0.01592188
74	0x39998458	0.00029281038
75	0x3c8c7f03	0.017150408
76	0xbc5ff31c	-0.013668802
77	0xbd446c97	-0.04795512
78	0xba598607	-0.00082978647
79	0x3e508586	0.20363435
80	0x3b6d743c	0.0036232611
81	0x3d5619c6	0.052270673
82	0x3b8d8147	0.0043183896
83	0xbcccf0bd	-0.025017137
84	0x3de89e36	0.11358301
85	0x3d76b905	0.060235042
86	0x3caae0e9	0.020859199
87	0xbb47deeb	-0.003049786
88	0xbdc1c27a	-0.094609216
89	0x3da0499a	0.078265384
90	0xbd536470	-0.051609457
91	0x3c037b22	0.008024963
92	0xbd42a5ba	-0.04752133
93	0xbd1b6f63	-0.037948024
94	0xbd1833ef	-0.037158903
95	0xbdf59e0d	-0.119930364
96	0x3d9cddcb	0.07659491
97	0xbe06aa96	-0.13151011
98	0xbdc658f9	-0.09684939
99	0x3c95b434	0.018274404
100	0xbe165aaf	-0.1468303
101	0xbc414314	-0.011795778
102	0x3e3d1c50	0.18467832
103	0x3c28d199	0.010303878
104	0x3db1c42a	0.086799935
105	0x3dfdf1bf	0.12399625
106	0x3dcb7267	0.0993393
107	0x3d638b0e	0.055552535
108	0xbd3abf18	-0.045592397
109	0x3dc5e53a	0.09662862
110	0x3d00dd4e	0.031461053
111	0x3db194d4	0.08670965
112	0x3e0a6f57	0.13519035
113	0x3e29c71d	0.16579862
114	0xbda251f1	-0.07925785
115	0x3d1c5114	0.03816326
116	0xbd72d342	-0.059283502
117	0xbd3480a1	-0.044067983
118	0xbd965f85	-0.07342438
119	0xbb3bcb27	-0.0028655024
120	0xbde5ac6c	-0.112145275
121	0xbc160b8f	-0.009158029
122	0xbd3528a3	-0.044228207
123	0xbe1766e6	-0.14785346
124	0xbc8d4b74	-0.017247893
125	0x3dbe79c3	0.09300568
126	0x3c78859c	0.015168574
127	0x3e04a5b3	0.12953834
128	0x3b02b080	0.0019941628
129	0x3cd61832	0.026134584
130	0x3d4be8a5	0.049782414
131	0x3d4616c2	0.048361547
132	0x3d57da48	0.052698404
133	0xbc977d70	-0.01849243
134	0x3d49b83c	0.049247965
135	0x3d8e9744	0.069624454
136	0xbdba0c83	-0.09084418
137	0xbd4971f8	-0.049180955
138	0xbdb5e640	-0.08881807
139	0x3cdae248	0.026719227
140	0x3c21cc6e	0.0098754
141	0x3ddb6bab	0.107138954
142	0x3e09de89	0.13463797
143	0x3e7fd371	0.24983002
144	0x3e2e6ba8	0.17033255
145	0xbd573a2d	-0.052545715
146	0xbc018353	-0.007904845
147	0x3d9df185	0.07712082
148	0x3b172a8f	0.0023066138
149	0x3d513c53	0.05108292
150	0x3b4be2d9	0.0031110554
151	0x3c9c0a45	0.019047866
152	0x3d523b59	0.05132613
153	0x3cdb8813	0.026798284
154	0x3cd2d793	0.02573756
155	0x3a72a3e3	0.00092559884
156	0xbc20322e	-0.009777589
157	0x3d2a7835	0.041618545
158	0xbaee29b8	-0.0018170392
159	0xbd375b40	-0.044764757
160	0x3afbdba5	0.001921524
161	0x3ca0a398	0.019609258
162	0xbdf28b33	-0.118429564
163	0xba36afad	-0.0006968927
164	0x3c40fd3a	0.011779124
165	0x3d8d7b9d	0.06908343
166	0x3e2a79ca	0.16648021
167	0x3d41598b	0.047204535
168	0xbca26c3c	-0.019827
169	0xb9bb9571	-0.00035778762
170	0x3bee1835	0.0072660693
171	0x3cbc519e	0.022988137
172	0xbd722083	-0.059113037
173	0x397f9b76	0.00024376609
174	0x3e1b0278	0.1513766
175	0x3b98f77f	0.0046681757
176	0x3d572da5	0.052533764
177	0xbb19b881	-0.002345592
178	0x3d37cf18	0.044875234
179	0x3dc1a965	0.094561376
180	0x3d46c43d	0.04852699
181	0x3c793a96	0.015211722
182	0xba295fc2	-0.00064611074
183	0xba50ef97	-0.0007970272
184	0x3d8de4ea	0.069284275
185	0xbc53fb21	-0.012938292
186	0x3c2d69bb	0.01058429
187	0xbdb7ba53	-0.089710854
188	0x3c8bcc28	0.017065123
189	0xbcb15703	-0.021647936
190	0xbe1537b0	-0.14572024
191	0xbc4b8b84	-0.0124234
192	0xbe2e1cff	-0.17003249
193	0xbdd6d36a	-0.10489543
194	0xbc81f76b	-0.015865048
195	0xbe4af93b	-0.19821636
196	0x3d8ab242	0.06772281
197	0x3e1cd119	0.1531414
198	0xbd80c28b	-0.06287106
199	0x3e3fc118	0.18726003
200	0x3d293158	0.041306823
201	0x3d280d7b	0.04102848
202	0xbe055594	-0.13020927
203	0xbd23a2e0	-0.03995025
204	0x3e126e4e	0.1429989
205	0x3d2ac2ad	0.041689564
206	0x3da970f5	0.08273498
207	0x3e50e3a5	0.2039934
208	0x3c53a2bb	0.012917216
209	0xbda4fac3	-0.080556415
210	0xbd898806	-0.067153975
211	0xbd788069	-0.060669336
212	0xbd9a786b	-0.07542499
213	0xbcc81b25	-0.024427006
214	0xb9086fa3	-0.00013011559
215	0xbd2f5a22	-0.042810567
216	0x3df7b06e	0.12094198
217	0xbd226068	-0.03964272
218	0xbe07bac8	-0.13254845
219	0xbc046aae	-0.008082075
220	0x3e250093	0.161135
221	0x3d8850bf	0.06656026
222	0x3dca98d0	0.09892428
223	0x3a69bb4a	0.0008916153
224	0xbc848a40	-0.016179204
225	0xbb5e8576	-0.003395406
226	0x3e2bd832	0.1678169
227	0x3d16607b	0.036713105
228	0xbd1eae33	-0.038740348
229	0x3e555550	0.20833325
230	0x3dbe7ac3	0.09300759
231	0xbd47d67e	-0.04878854
232	0x3d5b8c57	0.053600635
233	0xbe335ade	-0.17515132
234	0x3d949596	0.07255094
235	0x3c628e90	0.013827935
236	0x3c061353	0.008183318
237	0x3de88ed8	0.1135537
238	0x3e87725a	0.2645443
239	0x3e2c4e8c	0.16826838
240	0xbe751ae7	-0.23936044
241	0x3da47a83	0.0803118
242	0x3e60bf87	0.21948062
243	0x3a834907	0.0010016271
244	0xb95e8398	-0.00021220592
245	0xbcd46f20	-0.025931895
246	0x3cf3c94f	0.029759077
247	0x3c07a1bc	0.008278307
248	0xbd24c1c9	-0.04022387
249	0x3c3e464c	0.01161344
250	0x3bde419e	0.0067827245
251	0x3b74b63c	0.0037340065
252	0x3dba46de	0.09095548
253	0xba970944	-0.0011523147
254	0xbdd725f8	-0.10505289
255	0x3a0a863c	0.00052842847

net.0.bias f4 [15]
0	0x3e1ddfa5	0.15417345
1	0x3de57e7d	0.11205766
2	0x3e0f5ce5	0.1400028
3	0x3d9316c0	0.071820736
4	0x3d91f202	0.071262375
5	0xbdf84fee	-0.121246204
6	0xbc9b91ad	-0.018990362
7	0x3dc85f5e	0.09783815
8	0x3de52903	0.11189463
9	0xbe2a2cb9	-0.16618623
10	0x3dc98054	0.0983893
11	0xbe404477	-0.18776117
12	0x3da464ac	0.08027014
13	0x3d595630	0.05306071
14	0xbe246f81	-0.1605816

net.3.weight f4 [15, 15]
0	0xbd9d37e6	-0.076766774
1	0xbd3df42b	-0.046375435
2	0xbd87e840	-0.06636095
3	0xbbc11df0	-0.0058934614
4	0xbdaed61c	-0.08536932
5	0x3e0be6a6	0.13662204
6	0xbe1fe055	-0.1561292
7	0xbdd1b610	-0.10239804
8	0xbddab942	-0.106798664
9	0x3e166ad2	0.14689186
10	0xbd816d5f	-0.06319689
11	0x3e95b7e9	0.29241875
12	0xbdc5b80b	-0.09654244
13	0xbe6d8688	-0.23195851
14	0x3e07c832	0.13259962
15	0x3dfadee4	0.12249544
16	0x3e1fdb2e	0.15610954
17	0x3e524989	0.20535864
18	0x3dc3fdf4	0.09569922
19	0x3e493427	0.19648801
20	0xbdff90c8	-0.12478787
21	0x3d50f340	0.05101323
22	0x3e30de13	0.17272215
23	0x3e4b838e	0.19874403
24	0xbe089cd4	-0.13341075
25	0x3d908818	0.07057208
26	0xbd8f1460	-0.06986308
27	0x3e7c4bb0	0.24638247
28	0x3d97b6a5	0.074078836
29	0xbdfb3d33	-0.12267532
30	0xbd3004dc	-0.042973384
31	0xbd7b4c13	-0.061351847
32	0xbd63203c	-0.055450663
33	0x3d08dbf8	0.033412904
34	0xbd33f997	-0.0439392
35	0x3e2fa596	0.1715301
36	0xbd0aaced	-0.03385632
37	0xbd77c364	-0.060489073
38	0xbca34cbe	-0.019934054
39	0x3e57dab6	0.21079525
40	0xbda0ca3f	-0.078510754
41	0x3e6d5348	0.231763
42	0xbbf24db2	-0.007394516
43	0xbe427d80	-0.18993187
44	0x3e1505e2	0.14553025
45	0x3e46f9ee	0.19431278
46	0x3e24b505	0.16084678
47	0x3e8dad85	0.27671447
48	0x3dffc232	0.12488212
49	0x3e489bcf	0.19590686
50	0xbdf1f144	-0.11813596
51	0x3d103f21	0.035216454
52	0x3e137695	0.14400704
53	0x3e3d39d2	0.18479088
54	0xbda4647a	-0.08026977
55	0x3e1455c5	0.14485843
56	0xbdec2f64	-0.115324765
57	0x3e592655	0.21206029
58	0x3dbad517	0.09122675
59	0xbdacbde9	-0.0843466
60	0x3e05cd5b	0.13066618
61	0x3e12a2a9	0.14319862
62	0x3e4f6d40	0.2025652
63	0x3def1235	0.116733946
64	0x3e1f009a	0.15527573
65	0xbe23853b	-0.15968792
66	0x3d5d375e	0.05400788
67	0x3e66dc1a	0.225449
68	0x3e625acc	0.22104949
69	0xbe025434	-0.12727433
70	0x3e026df4	0.12737256
71	0xbcbcefd7	-0.023063583
72	0x3e5b4e06	0.21416482
73	0x3d306d09	0.043072734
74	0xbdb4951f	-0.08817505
75	0x3d9ef53b	0.07761618
76	0x3d928791	0.071547635
77	0x3dd6cef8	0.10488695
78	0x3b9eb903	0.0048438325
79	0x3da9be93	0.08288302
80	0xbe0c190a	-0.13681427
81	0x3d99e208	0.07513815
82	0x3d119165	0.03553905
83	0x3d95c2e0	0.0731256
84	0xbdcaf9dc	-0.09910938
85	0x3cf3321e	0.029686984
86	0xbdde84b4	-0.10865155
87	0x3dba67c2	0.091018215
88	0x3e41684c	0.18887442
89	0xbdcd1c84	-0.100152045
90	0x3db66310	0.089056134
91	0x3da608f5	0.08107177
92	0x3e0403a1	0.1289201
93	0x3c171085	0.009220247
94	0x3dc5900b	0.09646615
95	0xbe22116c	-0.15826958
96	0x3d12498b	0.035714667
97	0x3de437f5	0.111434855
98	0x3db0ea2f	0.08638417
99	0xbe1f154e	-0.15535471
100	0x3dbe80ae	0.093018875
101	0xbdda27a1	-0.1065209
102	0x3deca15d	0.11554215
103	0x3e4330f0	0.19061637
104	0xbddfd818	-0.109298885
105	0x3e0a9add	0.13535638
106	0x3e01a6f9	0.12661351
107	0x3e1fd8fa	0.15610114
108	0x3d9e72ba	0.07736726
109	0x3df477fc	0.11936948
110	0xbdd28cfe	-0.102807984
111	0x3d70bacf	0.058771905
112	0x3dd67ff3	0.10473623
113	0x3e111fd5	0.14172299
114	0xbd93d555	-0.07218424
115	0x3daf6684	0.08564475
116	0xbd45c7d9	-0.048286293
117	0x3e2f304b	0.17108266
118	0x3db79ed3	0.0896584
119	0xbd790cc1	-0.06080318
120	0x3e4cbac8	0.19993126
121	0x3e11daf7	0.14243685
122	0x3e91315e	0.28357977
123	0x3e34f8f5	0.17673095
124	0x3e2bf736	0.16793522
125	0xbe42a32e	-0.1900756
126	0x3d5e1670	0.054220617
127	0x3da71448	0.08158165
128	0x3e502d24	0.2032972
129	0xbdbae57b	-0.09125801
130	0x3dae3524	0.085062295
131	0xbd80310a	-0.062593535
132	0x3e8e5795	0.27801195
133	0x3dcdb782	0.10044767
134	0xbdd63bd8	-0.10460633
135	0xbd9f4b97	-0.077780895
136	0xbdc36eda	-0.09542628
137	0xbd58c6c1	-0.05292392
138	0x3c970922	0.018436972
139	0xbd5e6529	-0.054295693
140	0x3e5a5c70	0.21324325
141	0xbd8b7893	-0.06810107
142	0xbde9b54b	-0.11411532
143	0xbdadba38	-0.08482784
144	0x3e92879a	0.2861908
145	0xbdaeb78f	-0.08531105
146	0x3eacd526	0.3375637
147	0xbdb7ccd7	-0.08974617
148	0xbe9dc075	-0.30810896
149	0x3e8b7bb0	0.27242804
150	0x3e665bd0	0.22495961
151	0x3e0a1da4	0.1348787
152	0x3e833219	0.2562416
153	0x3e62c445	0.22145183
154	0x3e676938	0.22598732
155	0xbe3f515b	-0.18683378
156	0xbb825ebb	-0.003978578
157	0x3e337f0f	0.17528938
158	0x3e16101a	0.1465458
159	0xbdf227a4	-0.11823967
160	0xbc130a89	-0.00897468
161	0xbda1b35e	-0.0789554
162	0x3e83d13d	0.25745574
163	0x3d9db4cd	0.07700501
164	0xbe3cb104	-0.18426901
165	0x3e232981	0.15933801
166	0x3e2e73d4	0.17036372
167	0x3dc817d8	0.09770173
168	0x3d36e3f8	0.044651
169	0x3e30f517	0.17280994
170	0xbe4670ab	-0.19378917
171	0x3c6a63fb	0.014306064
172	0x3e52141b	0.20515482
173	0x3e98b1a1	0.2982302
174	0xbe3678ca	-0.17819515
175	0x3e319f16	0.17345843
176	0xbd40bd4c	-0.047055528
177	0x3e577bed	0.21043368
178	0x3ddb610f	0.10711872
179	0xbe4f6e22	-0.20256856
180	0xbd944c02	-0.0724106
181	0xbdc5a42e	-0.096504554
182	0xbd8f5925	-0.06999425
183	0xbce0e070	-0.02745077
184	0xbd8aede9	-0.06783659
185	0x3e4aab13	0.19791822
186	0xbde3a712	-0.111158505
187	0xbdf64f3a	-0.1202683
188	0xbdebcea9	-0.11514027
189	0x3e7da53d	0.24770065
190	0xbdb6549d	-0.089028575
191	0x3e8e4f98	0.277951
192	0xbd9075c9	-0.07053716
193	0xbe9dd47e	-0.3082618
194	0x3e4e9e7a	0.20177642
195	0xbd9a86c0	-0.07545233
196	0xbdb9ebc2	-0.0907817
197	0xbded1d7c	-0.11577889
198	0x3c684cc0	0.014178455
199	0xbd1de0e8	-0.038544565
200	0x3e559829	0.20858826
201	0xbdf681ed	-0.120365
202	0xbe01b50e	-0.12666723
203	0xbdae667b	-0.0851564
204	0x3e8d0e19	0.27549818
205	0xbdae9d75	-0.08526126
206	0x3eb7a930	0.35871267
207	0xbda88ada	-0.08229609
208	0xbe8e318a	-0.2777217
209	0x3e89d47e	0.2691993
210	0x3e1f618f	0.1556456
211	0x3deebea5	0.11657456
212	0x3e37329a	0.17890397
213	0x3d8499cd	0.06474648
214	0x3df4f17a	0.119601205
215	0xbe05a7cb	-0.13052289
216	0x3d07ad0a	0.033124007
217	0x3ddfb8c3	0.109239124
218	0x3e2fc4ed	0.17164965
219	0xbe141507	-0.14461146
220	0x3dc1405c	0.09436104
221	0xbd679600	-0.056539536
222	0x3e49bfda	0.19702092
223	0x3daca99d	0.08430789
224	0xbe0b3e1e	-0.13597915

net.3.bias f4 [15]
0	0x3cc14d72	0.0235965
1	0xbc90c8a1	-0.017673792
2	0x398facb0	0.00027403748
3	0x3d91cd99	0.07119293
4	0x3c886a00	0.016652107
5	0x3d65a014	0.056060866
6	0x3df66c0e	0.120323285
7	0x3d9cb260	0.0765121
8	0x3db71e2f	0.08941304
9	0xbd5883e6	-0.052860163
10	0x3e193447	0.14961348
11	0x3dca2cd9	0.09871835
12	0xbcd42e21	-0.025900902
13	0x3cadae7e	0.021201368
14	0x3cac6062	0.021042053
