bestclf/bestclf_yaleb.pth (torch, 343163 bytes, 16 tensors)

fc1.weight f4 [75, 504]
0	0xbd8ad39a	-0.06778641
1	0xbd11d14c	-0.03559999
2	0xbc0de3db	-0.008660282
3	0xbd085f3e	-0.033293955
4	0xbce10e97	-0.027472777
5	0xbb910a19	-0.0044262526
6	0x3acc8ce7	0.0015605957
7	0x3cce848a	0.025209684
8	0x3d260b25	0.040537972
9	0x3c925b60	0.017865837
10	0xbc6120d9	-0.013740742
11	0xbac546ea	-0.0015051041
12	0x3a827f50	0.0009956155
13	0x3b109fec	0.0022067977
14	0xbd1755f5	-0.03694721
15	0xbcb9c997	-0.022679133
16	0x3c707083	0.014675262
17	0xbd0a1d5e	-0.033719413
18	0xbd0ade63	-0.03390349
19	0x3c4d6eb6	0.012538603
20	0x3d204ff4	0.03913875
21	0xbd992be4	-0.074790746
22	0x3d383911	0.044976298
23	0x3d9b0819	0.07569904
24	0x3dafa1e4	0.085758
25	0x3dc7e63c	0.097607106
26	0x3d513e7e	0.051084988
27	0x3d3c3cc3	0.045956384
28	0x3d3c68d5	0.045998413
29	0x3d990b73	0.07472887
30	0xbc0dce09	-0.00865508
31	0x3b1689b2	0.0022970256
32	0xbba845c5	-0.0051352703
33	0xbca5b677	-0.020228608
34	0xbc98ecb3	-0.018667554
35	0x3c6ecbbb	0.01457494
36	0x3cc78ab6	0.024358135
37	0x3dd63da9	0.104609795
38	0x3def9184	0.11697677
39	0x3d8e579f	0.06950306
40	0x3cbb1295	0.022836009
41	0x3c7eb7b6	0.01554673
42	0x3cb167d7	0.02165596
43	0x3dc5e533	0.09662857
44	0x3dcff869	0.10154802
45	0x3d86c2d7	0.065801315
46	0x3d6e5c23	0.058193337
47	0x3dce7a3d	0.10081909
48	0x3e02789b	0.1274132
49	0x3de16492	0.110055104
50	0x3dd9dc00	0.10637665
51	0x3d60e867	0.054909136
52	0x3d11236e	0.03543418
53	0x3d4f2cd4	0.05057986
54	0x3d246dba	0.040143706
55	0x3d8add87	0.06780534
56	0x3dc1f9d6	0.094714805
57	0x3d993a74	0.07481852
58	0x3ceca441	0.028886916
59	0x3d57f3cc	0.052722737
60	0x3d82e88c	0.06392011
61	0x3c16dd81	0.009208084
62	0xbd18d121	-0.037308816
63	0x3bd7b5f7	0.006582971
64	0x3d4dfef3	0.050291967
65	0xbd8a3c70	-0.06749809
66	0x3ced4a37	0.028966052
67	0xbc8ea945	-0.017414698
68	0xbd5cd2e9	-0.053912077
69	0xbdac42ce	-0.084111795
70	0xbc1fe96c	-0.009760242
71	0x3dc84e9f	0.09780621
72	0x3d4f1fad	0.050567318
73	0x3d61b6a3	0.055105817
74	0x3d4a0ba1	0.049327496
75	0x3c7addef	0.015311702
76	0x39fdfced	0.00048444365
77	0xbdf3184b	-0.11869868
78	0xbd8cb86e	-0.06871115
79	0x3c07b7e2	0.008283587
80	0xbc1507ca	-0.009096095
81	0xbd0bf7e4	-0.034171954
82	0xbd8cb38f	-0.068701856
83	0xbb63a711	-0.003473703
84	0xbdcff2f7	-0.10153764
85	0xbd737c95	-0.059444983
86	0xbda31d71	-0.079646
87	0xbd482236	-0.04886075
88	0xbcf8b276	-0.030358534
89	0xbd040433	-0.032230567
90	0xbd16a554	-0.036778763
91	0xbd3c9998	-0.046044916
92	0xbbab02d8	-0.005218845
93	0xbb689004	-0.003548623
94	0x3d3a3370	0.04545921
95	0x3c7ac89b	0.015306617
96	0xbd38313d	-0.044968832
97	0xbd4dce38	-0.050245494
98	0xbd8e7b98	-0.069571674
99	0xbc38b59b	-0.011273767
100	0x3ce077d9	0.027400898
101	0xbbd4c692	-0.006493398
102	0xbd0f2aa8	-0.03495279
103	0xbdb5eb44	-0.08882764
104	0xbdbc9992	-0.09208979
105	0xbd5da117	-0.054108705
106	0xbd9d8293	-0.07690921
107	0x3d0a1d6f	0.033719476
108	0xbd8822eb	-0.06647285
109	0x3d9ba24c	0.07599315
110	0x3dc089f0	0.094013095
111	0x3c390c67	0.011294461
112	0xbd002124	-0.031281605
113	0xbcb4e7a5	-0.022083113
114	0x3b9caada	0.0047811093
115	0xbb0b1b62	-0.0021226038
116	0xbb2a476d	-0.0025982514
117	0x3d21c12b	0.03949086
118	0xbcd77691	-0.026301654
119	0xbdb0e32a	-0.08637078
120	0x3d049db4	0.03237696
121	0x3db99732	0.09062041
122	0x3ca75a12	0.020428691
123	0x3df71c25	0.12065915
124	0xbd766f8b	-0.06016497
125	0xbdb6f774	-0.08933917
126	0xbbe9f24f	-0.007139481
127	0xbd31ce5f	-0.0434097
128	0xbe497e36	-0.19677052
129	0x3d78e0dd	0.06076132
130	0xbe2a239f	-0.16615151
131	0xbdb11b82	-0.08647825
132	0xbdad20fa	-0.084535554
133	0xbd7840d0	-0.060608685
134	0x3d16cf99	0.036819074
135	0x3dcf46b8	0.101209104
136	0xbd2f95e8	-0.04286757
137	0x3d305ed2	0.043059178
138	0x3d7b4c2a	0.061351933
139	0xbdb83205	-0.089939155
140	0xbd1576f4	-0.036490396
141	0xbd05ff7e	-0.03271436
142	0xbd718adb	-0.058970314
143	0x3d13597e	0.03597402
144	0xbd99d445	-0.0751119
145	0xbc2d6590	-0.010583296
146	0x3cc0fdd6	0.023558538
147	0xbcc1566c	-0.02360078
148	0xbde32d93	-0.11092677
149	0xbe09fab6	-0.13474545
150	0xbd987418	-0.07444018
151	0xbe4e0b2f	-0.20121454
152	0xbe37ebe1	-0.17961074
153	0xbdb5ede6	-0.08883266
154	0xbdc6b227	-0.097019486
155	0x3cf6d851	0.030132445
156	0x3c947243	0.01812089
157	0xbdf516c7	-0.11967235
158	0xbd8cb9db	-0.068713866
159	0xbb7d71cc	-0.0038672565
160	0xbd4f7480	-0.050648212
161	0xbd711c39	-0.058864806
162	0xbd0c860d	-0.03430753
163	0xbe139b31	-0.1441467
164	0xbe13132a	-0.1436278
165	0xbd8d5783	-0.06901457
166	0xbe1e83cc	-0.15479964
167	0x3c840810	0.016117126
168	0x3d2e82bc	0.042605147
169	0xbdb32d94	-0.08748928
170	0xbd3c9e8b	-0.046049636
171	0xbd3e4491	-0.04645211
172	0xbd9ca7ed	-0.07649217
173	0xbdbbea76	-0.09175579
174	0xbe047ac0	-0.1293745
175	0xbd8f9562	-0.070109144
176	0x3c6f8ccc	0.014620971
177	0xbc8052e0	-0.015664518
178	0xbd6897db	-0.056785446
179	0xbd2b771d	-0.041861642
180	0xbb40de6b	-0.0029429446
181	0xbc2d7ab0	-0.010588333
182	0xbdd9fdfc	-0.10644147
183	0xbd2e099d	-0.042489637
184	0xbcf3ca5b	-0.029759577
185	0x3c606409	0.013695725
186	0x3d881aa7	0.066457085
187	0xbd626504	-0.055272117
188	0xbd294a08	-0.041330367
189	0x3ca54ac2	0.020177249
190	0xbd6fe68d	-0.05856948
191	0xbdb07dc0	-0.08617735
192	0xbd51a2e3	-0.05118073
193	0xbd878a19	-0.06618137
194	0xbd9659ac	-0.07341322
195	0xbd5bb8ec	-0.053643152
196	0x3c99a492	0.018755231
197	0xbb54878e	-0.003242943
198	0xbd53f2b0	-0.051745117
199	0x3c7016d7	0.014653883
200	0xbd257d64	-0.040402785
201	0xbca7fc88	-0.020506158
202	0xbd86bec6	-0.06579356
203	0xbd32fbb9	-0.043697093
204	0xbd91c6cd	-0.07117996
205	0xbca5680b	-0.020191213
206	0xbc4931e9	-0.012279966
207	0x3d1098c4	0.03530194
208	0xbc83839d	-0.016053969
209	0xbddd0ffd	-0.10794065
210	0xbd14e4d4	-0.03635104
211	0xbd057b6b	-0.032588404
212	0xbd547320	-0.051867604
213	0xbd57933f	-0.05263066
214	0xbd4b1dd0	-0.04958898
215	0xbb979f93	-0.004627177
216	0x3c378bfb	0.011202808
217	0xbb8f82a1	-0.004379586
218	0x3c2f40a3	0.010696563
219	0xbc6153c8	-0.013752885
220	0x3c40b839	0.011762672
221	0x3d167e55	0.036741573
222	0x3d2c27b5	0.042030055
223	0xbd983c72	-0.07433404
224	0x3c207586	0.009793645
225	0x3c052afb	0.008127923
226	0xbbb4e9d5	-0.005521039
227	0x3c4bbcaf	0.012435122
228	0xbb875c44	-0.004130872
229	0xbd84a48c	-0.06476697
230	0xbdfad28d	-0.122471906
231	0xbc33110b	-0.010929356
232	0xbd0390ab	-0.032120388
233	0xbce4e3ad	-0.027940596
234	0xbd05c47d	-0.03265809
235	0xbc397e73	-0.011321652
236	0xbd08e4d1	-0.03342134
237	0xbc8fb9f1	-0.017544718
238	0x3cccadd8	0.024985239
239	0x3b63e214	0.0034772204
240	0xbcf2bb2f	-0.029630272
241	0xbd349f36	-0.044097148
242	0xbd8118d2	-0.06303562
243	0xbd6e358a	-0.058156528
244	0xbce028f7	-0.027363284
245	0xbd082a4d	-0.033243466
246	0x3cac8158	0.02105777
247	0x3d103c66	0.03521385
248	0x3ceb1c04	0.028699882
249	0xbb571103	-0.0032816536
250	0xbccce880	-0.025013208
251	0xbd8f4221	-0.06995035
252	0xbd087911	-0.033318583
253	0x3c97e4a1	0.018541636
254	0x3c81b467	0.015833093
255	0xbb637b13	-0.003471081

fc1.bias f4 [75]
0	0xbd848197	-0.0647003
1	0xbe089a2a	-0.13340059
2	0xbe0881a4	-0.13330704
3	0xbd748f07	-0.059706714
4	0xbd907f4e	-0.070555314
5	0x3d518b00	0.05115795
6	0xbe350324	-0.1767698
7	0xbce08e02	-0.027411465
8	0x3c8c1508	0.017099872
9	0xbe18f3e1	-0.14936782
10	0xbc4f8b36	-0.012667468
11	0xbd8565e3	-0.06513574
12	0xbd91bb81	-0.07115842
13	0xbe0d0ade	-0.13773677
14	0xbd9cda89	-0.0765887
15	0xbe3be08f	-0.18347381
16	0x3d6e4a4c	0.058176324
17	0x3e1b256b	0.15150993
18	0x3e444c5a	0.19169751
19	0x3dbcdd70	0.09221923
20	0x3e17d3e5	0.14826925
21	0xbe03cc28	-0.12870848
22	0xbb98e59f	-0.004666045
23	0xbb010cf7	-0.0019691566
24	0x3d69ecf6	0.05711075
25	0xbcc4b66c	-0.024012767
26	0xbe5ac6c6	-0.21364889
27	0xbdfa8b25	-0.12233571
28	0xbe39f75d	-0.18160768
29	0xbd99e0ed	-0.07513604
30	0xbded341f	-0.11582207
31	0x3d373bb1	0.04473466
32	0xbe49fc37	-0.19725119
33	0xbe4b23ec	-0.19837922
34	0x3dbed1f3	0.093173884
35	0x3e05ee5f	0.13079213
36	0x3e5c7b7e	0.21531484
37	0xbd822bec	-0.06356034
38	0xbe2d6f11	-0.169369
39	0xbda9be98	-0.08288306
40	0xbd13941b	-0.036029916
41	0xbe2c48d7	-0.16824661
42	0xbe1f6755	-0.15566762
43	0xbd882cc6	-0.06649165
44	0xbe192c70	-0.14958358
45	0xbdbaa1a2	-0.0911286
46	0x3d842c9d	0.06453822
47	0xbc2dbde5	-0.010604356
48	0x3d9b0d50	0.075708985
49	0x3e29e8ca	0.16592708
50	0x3df566ac	0.11982474
51	0xbd1b65fb	-0.037939053
52	0xbe758e7e	-0.23980138
53	0xbe02cc18	-0.12773168
54	0xbe454bed	-0.19267245
55	0x3e21239c	0.1573624
56	0xbe25fd46	-0.16209897
57	0xbe2105bd	-0.15724845
58	0x3da50a45	0.080585994
59	0xbd760610	-0.060064375
60	0x3d517821	0.051139954
61	0xbdc3f5ff	-0.095684044
62	0xbe0be4bc	-0.13661474
63	0x3d7ae3ac	0.06125228
64	0xbdbd6ae7	-0.09248906
65	0x3e1f1a6e	0.15537426
66	0x3dc7dc5e	0.097588286
67	0xbdc3dad3	-0.09563222
68	0xbd7f5de1	-0.06234539
69	0xbd856935	-0.06514207
70	0xbd95620a	-0.0729409
71	0xbdbc6b3f	-0.09200143
72	0xbe395c61	-0.18101646
73	0x3e59e008	0.21276867
74	0x3e0b0f7e	0.13580129

fc2.weight f4 [75, 75]
0	0x3e69ede5	0.22844656
1	0xbe19cb55	-0.15018971
2	0xbd5a18a2	-0.053246148
3	0x3aab110f	0.0013051349
4	0x3e3882a1	0.18018581
5	0x3df18443	0.11792805
6	0x3b5a5260	0.003331326
7	0x3d726e83	0.059187423
8	0x3d7b54e0	0.06136024
9	0x3d4709c0	0.048593283
10	0x3c87d702	0.016582016
11	0x3e3d21fc	0.18469995
12	0xbd57368b	-0.05254225
13	0x3cdeabbe	0.027181502
14	0xbc9013d9	-0.01758759
15	0xbcbcbf10	-0.023040324
16	0x3e007a37	0.12546621
17	0xbc425689	-0.011861452
18	0x3cb9b274	0.0226681
19	0x3d32d06f	0.04365581
20	0x3d09851a	0.0335742
21	0xbddf70ef	-0.10910212
22	0x3e11fe25	0.14257105
23	0xbd057fb4	-0.03259249
24	0xbd43969a	-0.047751047
25	0xbddfb7b0	-0.109237075
26	0x3d96bbcd	0.07360039
27	0xbc6ac2f7	-0.01432871
28	0xbe10b0e2	-0.14129975
29	0xbdedb787	-0.11607271
30	0xbd18358f	-0.037160452
31	0xbdfaf5ee	-0.122539386
32	0x3a8dc905	0.0010817355
33	0xbd8dbbe6	-0.069206044
34	0xbdba0126	-0.0908225
35	0x3d4d16f2	0.05007071
36	0xbcdf398d	-0.027249122
37	0xbe336d1f	-0.17522095
38	0xbe4af3e4	-0.198196
39	0x3af5c67f	0.0018751173
40	0xbd4010a0	-0.046890855
41	0x3e00c53f	0.12575243
42	0x3b95b970	0.004569225
43	0xbd0df66f	-0.034658846
44	0x3e2e1d2d	0.17003317
45	0x3db4cdad	0.08828292
46	0x3ccbcfcd	0.02487936
47	0xbde7490c	-0.112932295
48	0x3e2a97af	0.16659425
49	0x3cbac8ef	0.02280089
50	0x3d367017	0.04454049
51	0x3dff5901	0.12468148
52	0xba43de68	-0.0007471801
53	0xbd4edbc6	-0.05050256
54	0x3d572897	0.052528944
55	0xba030876	-0.0004998514
56	0x3d7e894b	0.06214265
57	0x3c77e6e8	0.015130736
58	0x3de508ee	0.11183344
59	0x3d6d5b1b	0.057948213
60	0x3d445ac2	0.047938116
61	0x3d2ebe85	0.042662162
62	0xbd40ef42	-0.047103174
63	0x3a49e3a8	0.0007701465
64	0xbe0c7014	-0.1371463
65	0x3e0e21f9	0.13880147
66	0x3d78ac41	0.06071115
67	0xbc550cef	-0.013003572
68	0x3db63677	0.08897107
69	0x3d5aad1d	0.05338775
70	0xbd1779aa	-0.036981262
71	0x3d0fa244	0.035066858
72	0xbde4f2bf	-0.11179113
73	0x3da79431	0.08182562
74	0x3d0e5ca9	0.034756336
75	0x3e08f24c	0.13373679
76	0x3d2c2636	0.04202863
77	0x3c83ecb3	0.016104078
78	0xbdb301dc	-0.08740589
79	0xbd828d21	-0.063745745
80	0xbd73b900	-0.0595026
81	0xbd8cbdd4	-0.06872144
82	0x3dde0831	0.10841406
83	0x3e452059	0.19250621
84	0x3e507d0e	0.20360205
85	0xbcf4283b	-0.02980434
86	0x3d7c68e9	0.061623488
87	0xbd804d9c	-0.06264803
88	0x3e21fed9	0.15819873
89	0xbd5f50be	-0.05452036
90	0x3d6332ea	0.055468477
91	0xbd887bd7	-0.066642456
92	0xbcd1564f	-0.02555385
93	0x3e02b038	0.12762535
94	0x3b29e1a4	0.0025921846
95	0x3dd04e97	0.1017124
96	0xbcddd237	-0.027077777
97	0x3d8ad933	0.06779709
98	0xbe5b4aa7	-0.21415196
99	0xbdd1a9bb	-0.10237452
100	0xbc1f54ab	-0.009724776
101	0x3d91c224	0.071171075
102	0xbd3ac8cb	-0.045601647
103	0x3e3d76e6	0.18502387
104	0xbdbeeaa4	-0.09322098
105	0xbcd9b96d	-0.026577676
106	0x3dfa1523	0.12211063
107	0x3ca348fe	0.019932266
108	0x3e1a0464	0.15040737
109	0xbd8b0e17	-0.06789797
110	0x3db34c58	0.08754796
111	0xbcabfef9	-0.020995604
112	0x3bf28307	0.0074008736
113	0xbd972c28	-0.07381469
114	0x3d89f92e	0.067369804
115	0xbe79c67d	-0.24392124
116	0xbd0219c9	-0.031762872
117	0x3da5132a	0.08060296
118	0xbec22a85	-0.37923065
119	0xbd296432	-0.04135532
120	0x3cad34e1	0.021143379
121	0xbc9f7ac9	-0.019467728
122	0xbd12326a	-0.03569261
123	0x3d84fc16	0.06493394
124	0x3d5347d6	0.05158218
125	0xbbc5506f	-0.0060215513
126	0xbe3dc677	-0.1853274
127	0xbda8576d	-0.082198
128	0xbe1ce907	-0.15323268
129	0x3c89da1b	0.016827634
130	0x3dc48057	0.095947914
131	0xbdf52ff6	-0.119720384
132	0x3e018c02	0.12651065
133	0xbe1acf77	-0.15118204
134	0x3da3a2e3	0.079900526
135	0x3d26e060	0.040741324
136	0xbb7704c2	-0.0037692045
137	0x3c9256f7	0.017863734
138	0x3db8f1be	0.09030484
139	0x3d13e1ed	0.03610413
140	0x3c4919e4	0.012274239
141	0xbd77dd35	-0.060513694
142	0x3c8e06c3	0.017337209
143	0x3e32203e	0.17395112
144	0xbd56c302	-0.052432068
145	0x3ea4703e	0.32116884
146	0xbde226ec	-0.1104258
147	0xbde5d503	-0.112222694
148	0xbb8b4a84	-0.0042508263
149	0x3e6c888d	0.23098965
150	0xbd59381a	-0.05303202
151	0x3d10dfaa	0.035369553
152	0x3e1db2bc	0.15400213
153	0x3d2f241f	0.042759057
154	0x3e11fc0f	0.14256309
155	0x3d3b3091	0.045700613
156	0xbc5011e4	-0.012699578
157	0x3d41c385	0.047305603
158	0xbdb913ba	-0.09036966
159	0x3d8699a6	0.06572275
160	0x3df9183e	0.12162827
161	0xbe2f10b8	-0.17096221
162	0xbdebb826	-0.11509733
163	0xbe28fda4	-0.16503006
164	0x3e55f4ef	0.20894216
165	0xbd9a044e	-0.07520352
166	0x3cb29984	0.021801718
167	0x3d8a72f2	0.06760205
168	0x3d90dc43	0.070732616
169	0xbd3e653c	-0.046483263
170	0x3d9066af	0.07050835
171	0xbdf90093	-0.12158313
172	0x3d9dd3d7	0.07706421
173	0xbd442edb	-0.047896247
174	0x3d8d83a2	0.069098726
175	0x3d79d772	0.06099648
176	0xbe14bd0d	-0.14525242
177	0xbe0b11ec	-0.13581055
178	0xbd6c16e3	-0.057639014
179	0x3e690dbf	0.2275915
180	0x3e4495be	0.19197747
181	0x3e1ad4fb	0.15120308
182	0xbe8ff46e	-0.28116173
183	0xbc8961a5	-0.016770193
184	0x3d9f2c48	0.07772118
185	0x3cba24bf	0.0227226
186	0xbc99ae2e	-0.018759813
187	0x3cd3c10d	0.02584889
188	0xbdb3130c	-0.08743867
189	0xbcb7fde0	-0.022459924
190	0x3e503390	0.2033217
191	0xbb650f01	-0.003495157
192	0x3d5b2735	0.053504188
193	0xbdf84c52	-0.12123932
194	0xbd48b156	-0.048997246
195	0x3df53a3d	0.11973999
196	0xbdacb807	-0.08433538
197	0x3df950b6	0.121735975
198	0xbd2358a3	-0.039879452
199	0x3d89feac	0.06738028
200	0x3e79fa40	0.24411869
201	0xbd22246c	-0.039585516
202	0xbe14c020	-0.14526415
203	0xb9780ae6	-0.00023655183
204	0x3d3a5ed7	0.045500603
205	0x3ddaaf7f	0.106780045
206	0x3e0b071b	0.1357693
207	0xbdb9b232	-0.09067191
208	0xbd13631a	-0.035983182
209	0x3d8d8889	0.06910808
210	0xbdd2c599	-0.10291595
211	0x3d984818	0.07435626
212	0xbcf3afba	-0.029746879
213	0xbd92e7b4	-0.071731
214	0x3dac4f53	0.084135674
215	0x3c862c88	0.016378656
216	0xbde22f67	-0.110441975
217	0xbc9b396b	-0.018948277
218	0xbce7ea7b	-0.028310051
219	0x39a334ac	0.00031129026
220	0xbccc2ec1	-0.024924638
221	0x3d6f34da	0.058400013
222	0xbce8fd15	-0.028440991
223	0xbda30601	-0.079601295
224	0x3da234e4	0.07920244
225	0xbe0d1eb6	-0.13781247
226	0x3da1287b	0.07869049
227	0x3b87f931	0.004149579
228	0xbd94b0ac	-0.0726026
229	0xbe58f8a5	-0.211886
230	0xbe3e2e54	-0.1857236
231	0x3d8b85cb	0.06812628
232	0xbcfa8f86	-0.030586015
233	0x3d47cc76	0.048778974
234	0xbdffcbe3	-0.1249006
235	0x3ca7f162	0.020500842
236	0x3d35e47f	0.044407364
237	0x3e18f5e4	0.1493755
238	0x3da76954	0.081743866
239	0xbe520fda	-0.2051386
240	0x3d9c4067	0.07629471
241	0xbdd011f0	-0.10159671
242	0x3dda4527	0.10657721
243	0x3d48e6fb	0.049048405
244	0x3e164559	0.14674892
245	0xbb2cb6f1	-0.0026354159
246	0x3d8f8d73	0.07009401
247	0xbd3bee86	-0.04588177
248	0x3e827048	0.2547629
249	0x3d9aa8c0	0.07551718
250	0x3d8fe50c	0.07026109
251	0x3e47e311	0.19520213
252	0x3dc1809f	0.09448361
253	0xbd29cff1	-0.041458074
254	0x3d726c48	0.059185296
255	0xbd770aef	-0.06031316

fc2.bias f4 [75]
0	0x3d048bb7	0.032359805
1	0x3d2e50ee	0.04255765
2	0x3ab5ae2c	0.0013861111
3	0x3ca9dedf	0.020736156
4	0xbe001a88	-0.12510121
5	0x3cca4705	0.024692068
6	0x3d4be428	0.049778134
7	0xbd5bb82b	-0.053642433
8	0x3df399e3	0.11894586
9	0x3cfc03b4	0.030763485
10	0xbc9bfcb1	-0.019041391
11	0x3dbc12cb	0.09183272
12	0xbe0f2df2	-0.1398237
13	0xbe125e05	-0.14293678
14	0x3cdeb77e	0.027187105
15	0x3b77107f	0.0037699041
16	0xbdf4e565	-0.11957816
17	0xbda5f5e4	-0.081035405
18	0xbd3e5a44	-0.046472803
19	0x3e2091a6	0.1568056
20	0x3e0bd1fc	0.13654321
21	0xbc81132a	-0.015756208
22	0xbdc7728b	-0.09738644
23	0xbc7ba7ea	-0.015359858
24	0x3d0d3e8c	0.034483477
25	0xbd9fd7d9	-0.078048415
26	0x3c90c32f	0.017671196
27	0x3c041474	0.008061517
28	0xbd6ac101	-0.05731297
29	0x3d49155e	0.049092643
30	0x3dae735a	0.08518095
31	0x3d30ae89	0.0431352
32	0x3cd76478	0.026293024
33	0xbd6b9ca2	-0.057522424
34	0x3e18aa45	0.14908703
35	0xbd1763d1	-0.036960427
36	0x3cd35e08	0.025801674
37	0x3e02ef54	0.12786609
38	0x3cfe9be5	0.031080196
39	0xbdd72aa4	-0.1050618
40	0xbd32e314	-0.04367359
41	0xbc4bf1f3	-0.012447822
42	0x3c976f4e	0.018485691
43	0x3be02fff	0.006841659
44	0x3e073533	0.13203888
45	0x3b451530	0.0030072443
46	0x3e0dba7c	0.1384067
47	0x3d58d444	0.052936807
48	0x3b2cd2f4	0.0026370855
49	0xbd95b410	-0.07309735
50	0x3cbb463a	0.022860635
51	0x3ca4020d	0.02002051
52	0xbc026e26	-0.007960832
53	0x3cea3c3e	0.028593179
54	0x3d8eee58	0.06979054
55	0xbc39f51d	-0.0113499435
56	0xbd7b0696	-0.061285578
57	0xbd1615a5	-0.036641736
58	0x3d0d8e9d	0.034559835
59	0xbd88a123	-0.066713594
60	0x3c3c77a3	0.011503133
61	0xbe092c25	-0.13395746
62	0xbd454b22	-0.048167355
63	0xbd90758e	-0.07053672
64	0xbde4210e	-0.11139117
65	0x3d48610e	0.048920684
66	0xbd94f704	-0.07273677
67	0xbd6e54cd	-0.05818634
68	0xbe04e898	-0.12979352
69	0x3e668b24	0.22514015
70	0xbd61e4b7	-0.05514976
71	0x3e42c6c9	0.19021143
72	0xbe0a0741	-0.1347933
73	0x3d7c9703	0.061667453
74	0x3dbef23c	0.09323546

out.weight f4 [38, 75]
0	0x3e8218aa	0.25409442
1	0x3e83d5df	0.25749108
2	0xbe628a2d	-0.22123022
3	0xbe3fe88e	-0.18741056
4	0x3e22bd98	0.15892637
5	0x3e786aa0	0.24259424
6	0x3d9e4003	0.07727053
7	0x3d99f407	0.07517248
8	0x3d6c69e6	0.05771818
9	0xbe5f0b80	-0.2178173
10	0xbcd526c4	-0.026019461
11	0x3d9efead	0.07763419
12	0x3e60cbef	0.21952794
13	0xbd9d2000	-0.07672119
14	0xbe156963	-0.14590983
15	0xbcb8226d	-0.022477353
16	0xbe1b49f5	-0.15164931
17	0x3e6d9e2c	0.23204869
18	0x3e27c654	0.1638425
19	0x3dd59ced	0.10430322
20	0xbe12ab99	-0.14323272
21	0x3e5927d3	0.21206598
22	0x3cb25177	0.021767361
23	0x3e1c33f3	0.15254192
24	0x3e01467f	0.12624548
25	0x3e287ff4	0.1645506
26	0x3d03ffc2	0.03222633
27	0x3df5ef7b	0.12008568
28	0xbca12374	-0.019670226
29	0x3e19d6fc	0.15023416
30	0xbdb50264	-0.088383466
31	0xbe37bc54	-0.17942935
32	0xbe85e89c	-0.2615403
33	0x3dda9dfa	0.10674663
34	0x3e2b9f0d	0.16759892
35	0xbdd89abe	-0.1057639
36	0x3d80122b	0.06253465
37	0xbe39c951	-0.18143202
38	0xbe257422	-0.16157582
39	0x3da00db6	0.07815115
40	0x3e260913	0.16214399
41	0xbe5bfdc9	-0.2148353
42	0x3e31237d	0.17298694
43	0xbdd53ffd	-0.104125954
44	0x3e210aed	0.15726824
45	0x3e89e112	0.26929528
46	0xbd1d7bed	-0.038448263
47	0xbe81b125	-0.25330463
48	0x3d759815	0.05995949
49	0xbdb9be6b	-0.090695225
50	0xbd0b058d	-0.03394084
51	0xbe23a63f	-0.15981387
52	0xbe1a4f7f	-0.15069388
53	0xbe209721	-0.15682651
54	0x3e1a8424	0.1508947
55	0x3e352d1c	0.17692989
56	0xbe80c4e4	-0.25150216
57	0x3e35323d	0.17694946
58	0xbe538ae3	-0.2065845
59	0xbd762bf3	-0.060100507
60	0x3d83752c	0.06418833
61	0xbe350023	-0.17675833
62	0xbe59959b	-0.21248476
63	0xbd8dcbc3	-0.0692363
64	0xbe0e5207	-0.13898478
65	0xbe543bb8	-0.20725906
66	0xbdf1e39a	-0.1181099
67	0x3e742689	0.23842825
68	0x3de3b04c	0.1111761
69	0x3e47e1ef	0.1951978
70	0xbd97e07a	-0.074158624
71	0x3e0a7720	0.13522005
72	0xbdf1ac53	-0.11800446
73	0xbe07f4c1	-0.1327696
74	0xbe77841b	-0.24171488
75	0x3dd7e176	0.1054105
76	0x3e156f66	0.14593276
77	0xbde81a46	-0.11333136
78	0xbe846127	-0.2585537
79	0xbd33f24e	-0.04393225
80	0x3e123aec	0.1428029
81	0xbd95bf9d	-0.07311938
82	0x3af22ee6	0.0018477112
83	0x3d5648f2	0.05231566
84	0xbe319af2	-0.17344263
85	0x3e05b3b5	0.13056834
86	0xbdb646b1	-0.08900202
87	0xbe29a54c	-0.16566962
88	0xbe3f3a2d	-0.18674536
89	0xbe20d0b6	-0.15704617
90	0xbe2248b1	-0.15848042
91	0x3e343de9	0.17601742
92	0x3e326a56	0.17423376
93	0x3c473d64	0.012160633
94	0xbdefcb70	-0.117087245
95	0xbe7fc85b	-0.24978773
96	0x3e715cf9	0.23570623
97	0x3da9445e	0.08264993
98	0xbb806ff6	-0.003919597
99	0x3da36503	0.07978251
100	0x3dc96857	0.09834354
101	0xbe516b1a	-0.20451012
102	0x3e10f4a6	0.14155826
103	0xbd98ecc1	-0.07467032
104	0xbe4d1fc3	-0.20031647
105	0x3d61ae53	0.05509789
106	0xbdaa485e	-0.08314584
107	0xbe73cf7a	-0.23809615
108	0x3e439b96	0.1910232
109	0x3da54598	0.080699146
110	0xbe66a757	-0.22524773
111	0xbdece4f3	-0.11567106
112	0xbe531b44	-0.2061587
113	0xbdd2e66d	-0.102978565
114	0xbdf3b72f	-0.11900174
115	0xbe2cea26	-0.16886196
116	0xbe3d6ec1	-0.1849928
117	0xbe0e521c	-0.1389851
118	0xbe8364be	-0.25662798
119	0xbe148b43	-0.14506249
120	0x3e686fa0	0.22698832
121	0x3e04092a	0.12894121
122	0xbe3ac3f2	-0.1823881
123	0xbd845f9d	-0.06463549
124	0x3d5b691c	0.053567037
125	0xbe8522ac	-0.26003015
126	0xbe619ef1	-0.22033288
127	0xbd741c81	-0.059597496
128	0xbe5cb816	-0.21554598
129	0x3cce7f99	0.025207328
130	0x3d61eb9c	0.055156335
131	0x3e330cd4	0.17485362
132	0xbe0e1293	-0.13874273
133	0x3da6a947	0.08137756
134	0xbdcf886f	-0.101334445
135	0xbe5879a7	-0.21140157
136	0x3e7e591d	0.24838682
137	0x3dcfe95f	0.10151934
138	0xbd0ef21d	-0.034898866
139	0xbe314c47	-0.17314254
140	0x3d7182ec	0.058962747
141	0xbc8a48a9	-0.01688035
142	0xbd4318d8	-0.047631115
143	0xbe26d877	-0.16293512
144	0x3cb4a750	0.022052437
145	0x3da1a695	0.07893101
146	0xbdb80e9d	-0.08987162
147	0x3de2cbd9	0.11074037
148	0xbe37f37c	-0.17963976
149	0xbe62b74b	-0.22140233
150	0x3d8cb508	0.068704665
151	0xbe7b542a	-0.24543825
152	0xbe1a2fee	-0.15057346
153	0x3cb30cfa	0.021856774
154	0x3ea89c85	0.32931915
155	0x3e3b423d	0.18286987
156	0xbe9e3e13	-0.30906734
157	0x3dba8c64	0.09108809
158	0x3e6eb3b3	0.23310737
159	0xbdf0d6aa	-0.11759694
160	0x3d7742a4	0.060366288
161	0x3de715e6	0.11283474
162	0x3e180b86	0.14848146
163	0xbe53bddf	-0.20677899
164	0xbde7cfd5	-0.11318938
165	0xbe52ce73	-0.20586567
166	0x3e260b2e	0.16215202
167	0x3e707fda	0.23486272
168	0xbcd06972	-0.025440905
169	0x3e2feec0	0.1718092
170	0xbdfed75a	-0.12443419
171	0xbca0a239	-0.019608604
172	0x3e328fff	0.17437743
173	0xbdb11249	-0.08646066
174	0x3d9b226c	0.07574925
175	0x3db357ca	0.08756979
176	0xbe2351a5	-0.15949114
177	0xbc0e6ad4	-0.008692462
178	0xbdba6316	-0.091009304
179	0x3de86f59	0.11349363
180	0x3d9289b5	0.07155172
181	0x3e90d5af	0.28288028
182	0xbe61e2c0	-0.22059155
183	0x3d6be2be	0.057589285
184	0x3dcb319e	0.09921573
185	0x3e639a37	0.22226797
186	0xbe8e9687	-0.27849218
187	0xbd1644c0	-0.03668666
188	0xbdc26021	-0.094909914
189	0xbe145d18	-0.14488637
190	0xbcd5c9f6	-0.026097279
191	0xbe6fb1bf	-0.23407649
192	0x3e08ea10	0.13370538
193	0xbe27d49b	-0.16389696
194	0x3de4e934	0.111772925
195	0x3e51b8b0	0.20480609
196	0xbd841b95	-0.06450573
197	0xbe875fc8	-0.26440263
198	0xbe828d66	-0.25498503
199	0xbd1a660b	-0.037694972
200	0xbdcf3230	-0.101169944
201	0xbb8d465d	-0.0043113665
202	0x3dc72875	0.097245134
203	0x3ccaae3b	0.024741283
204	0xbe6bee93	-0.23040228
205	0xbe1ea483	-0.15492444
206	0x3e75fd1d	0.24022336
207	0x3e7c8113	0.24658613
208	0x3d632748	0.055457383
209	0x3e23345d	0.15937944
210	0xbd44c773	-0.048041772
211	0x3e6bb4a5	0.23018129
212	0xbe24c966	-0.16092452
213	0x3e01114b	0.12604253
214	0x3e5a7053	0.21331911
215	0xbe82c281	-0.2553902
216	0xbe57c6bb	-0.21071903
217	0xbd00e970	-0.031472623
218	0x3d5fec27	0.05466857
219	0x3d731016	0.059341513
220	0xbd88faff	-0.06688499
221	0x3c8224c1	0.015886666
222	0x3dd12e56	0.10213916
223	0xbcef8f5e	-0.029243167
224	0xbe68a31f	-0.22718476
225	0xbdd4a8fb	-0.10383793
226	0xbde6d78b	-0.1127158
227	0xbe5cce6e	-0.21563122
228	0xbd13de0a	-0.036100425
229	0xbdfc6267	-0.12323456
230	0x3e18b926	0.14914379
231	0xbe308b24	-0.17240578
232	0xbdd0cee2	-0.1019571
233	0xbd1a6cfe	-0.0377016
234	0x3cdf47be	0.027255889
235	0x3d0209f7	0.031747784
236	0xbd55b74d	-0.052176762
237	0x3d92769c	0.07151529
238	0xbe020df5	-0.12700637
239	0x3e4653f5	0.19367965
240	0xbe7d3421	-0.24726917
241	0x3e816452	0.2527185
242	0x3d3905ad	0.04517143
243	0x3dc4b942	0.096056476
244	0xbe55dc33	-0.2088478
245	0xbe0c2c1e	-0.13688704
246	0x3e1359ff	0.143898
247	0x3deaed59	0.11471052
248	0x3e47302b	0.19451968
249	0x3e4d4aa3	0.20048003
250	0x3df001ee	0.11719118
251	0xbb104960	-0.002201639
252	0x3ca01060	0.019539058
253	0x3e49cfb6	0.19708142
254	0xbe4fb3c0	-0.20283413
255	0xbe6967c2	-0.22793487

out.bias f4 [38]
0	0x3ab79275	0.001400544
1	0xbd85fc30	-0.065422416
2	0xbc7bf5da	-0.01537844
3	0xbdfecfe8	-0.12441999
4	0xbc4834ce	-0.012219621
5	0xbe51dec0	-0.20495129
6	0xbdbf86d1	-0.09351886
7	0xbdf14e5e	-0.117825255
8	0x3d72d7af	0.059287723
9	0xbc8f6249	-0.01750292
10	0xbd26a617	-0.04068574
11	0x3ddf22f9	0.108953424
12	0xbd6b02a9	-0.057375584
13	0xbc0338e7	-0.008009172
14	0xbd0fe5f9	-0.03513143
15	0xbd394a87	-0.04523709
16	0x3d274d99	0.040845487
17	0xbd09eaca	-0.033671178
18	0x3ca4e0aa	0.02012666
19	0x3bc398dd	0.0059691505
20	0xbd87e5fa	-0.066356614
21	0x3dbad31e	0.09122299
22	0x3d01fe69	0.031736765
23	0x3d5c6ee1	0.05381668
24	0x3e115a2c	0.14194554
25	0xbd80fd6f	-0.062983386
26	0x3ddbf9bb	0.10740992
27	0x3c7c9d72	0.015418397
28	0x3df0d927	0.117601685
29	0x3db3329e	0.08749889
30	0x3d69cb87	0.057078864
31	0x3ca0159d	0.019541556
32	0x3e441a84	0.1915074
33	0xbd3552ff	-0.044268604
34	0xbcf6305c	-0.030052356
35	0xbd1bd36b	-0.03804342
36	0xbd6c03b3	-0.057620715
37	0xbda6a1da	-0.081363395

sep_conn.weight f4 [75, 504]
0	0xbc965207	-0.01834966
1	0xbaebcb80	-0.0017989725
2	0x3c0c424b	0.008560727
3	0x3c8af667	0.016963197
4	0x3c87b7e1	0.016567172
5	0x3bc8c9d3	0.006127575
6	0x3c824d87	0.015906109
7	0x3ca0e2c2	0.019639377
8	0x3ce7ab16	0.028279822
9	0x3c9c5af8	0.019086346
10	0x3c919817	0.017772717
11	0x3c672510	0.0141079575
12	0x3cccbccf	0.024992375
13	0x3c50540b	0.01271535
14	0x3ba0033b	0.0048831976
15	0x3c1b6fa2	0.009487065
16	0x3b717b08	0.0036847014
17	0x3b10cb80	0.0022093952
18	0xbc67fe20	-0.014159709
19	0xbcc39342	-0.023873929
20	0xbca5de64	-0.020247646
21	0xbb899410	-0.0041985586
22	0x3d002c4a	0.031292237
23	0x3d40856e	0.04700225
24	0x3d6ef567	0.058339503
25	0x3d921c18	0.07134265
26	0x3d49db94	0.04928167
27	0x3d3cf388	0.046130687
28	0x3d425e69	0.047453318
29	0x3d30d0b6	0.043167792
30	0x3c2f42b6	0.0106970575
31	0x3c869ede	0.016433176
32	0x3c05e981	0.008173347
33	0x3c764ba9	0.015032687
34	0x3cdf9987	0.027294887
35	0x3cd433e0	0.025903642
36	0x3d388164	0.04504527
37	0x3d51bd45	0.051205892
38	0x3d59368e	0.053030543
39	0x3d415c0c	0.047206923
40	0x3cec21f3	0.028824782
41	0x39bbcf4d	0.0003582187
42	0x3cc8fd57	0.024534864
43	0x3d387ba0	0.045039773
44	0x3d0bfe22	0.034177907
45	0x3cadd503	0.021219736
46	0x3bb03d53	0.005378404
47	0x3c9021b8	0.017594203
48	0x3cb50c02	0.022100452
49	0x3d3d1f9e	0.04617273
50	0x3d01a870	0.031654775
51	0x3b9a8230	0.0047152266
52	0x3c1249a6	0.008928692
53	0x3c5d7456	0.013516506
54	0x3cd042e8	0.025422528
55	0x3cf981f7	0.03045748
56	0x3d1d7f33	0.038451385
57	0x3d230c2a	0.039806522
58	0x3d0208b8	0.031746596
59	0x3d29da05	0.041467685
60	0x3d279e2e	0.040922336
61	0x3ce3a53f	0.027788756
62	0x3c3d3397	0.0115479445
63	0x3ca88e99	0.020575808
64	0x3d1f5acd	0.038904954
65	0xbc2d763d	-0.010587272
66	0xbc9b1048	-0.018928662
67	0xbc8ca119	-0.017166661
68	0xbc95e758	-0.01829879
69	0xbccb3ec0	-0.024810195
70	0xbc698444	-0.014252726
71	0x3c80a399	0.01570301
72	0x3a934e00	0.0011238456
73	0x3acd7e7a	0.0015677952
74	0x3bff7099	0.007795405
75	0x3b735ce2	0.003713422
76	0x3c29fad2	0.010374742
77	0xbcaaf311	-0.020867856
78	0xbccaa790	-0.024738103
79	0xbcb152b5	-0.021645883
80	0xbcb1d7ae	-0.02170929
81	0xbc982617	-0.01857285
82	0xbc6ba65d	-0.014382926
83	0xbc52b9a8	-0.012861647
84	0x3a57314c	0.0008208945
85	0xbcea2577	-0.028582318
86	0xbd6944aa	-0.05695025
87	0xbd2ee954	-0.042702988
88	0xbd072437	-0.03299352
89	0xbd07fdcc	-0.033201024
90	0xbcf2e402	-0.029649738
91	0xbd234e20	-0.039869428
92	0xbd23015a	-0.03979621
93	0xbd1eeb01	-0.038798336
94	0xbc792bf0	-0.015208229
95	0x3a9e8d4a	0.0012096551
96	0xbc658d77	-0.014010779
97	0xbd4b207c	-0.049591526
98	0xbd070c5f	-0.032970782
99	0xbcee2752	-0.029071484
100	0xbc3778ab	-0.011198203
101	0xbcdde505	-0.027086744
102	0xbcf055aa	-0.029337723
103	0xbd2bf304	-0.041979805
104	0xbd185ba8	-0.037196785
105	0xbb7c71c7	-0.0038519965
106	0xbccf44a5	-0.025301287
107	0xbc195d5f	-0.00936064
108	0x3d0b6c31	0.034038726
109	0x3d26df29	0.040740166
110	0x3cc6d1aa	0.024269897
111	0x3c790748	0.01519949
112	0xbca321a2	-0.019913498
113	0xbcbad54e	-0.02280679
114	0xbcfe5795	-0.031047622
115	0xbcef3101	-0.029198172
116	0xbbbd21a5	-0.005771833
117	0xbd1fcc5c	-0.03901325
118	0xbd632c47	-0.055462148
119	0xbcdf1e74	-0.0272362
120	0x3b1e44f9	0.0024149998
121	0x3cf18ced	0.029486144
122	0x3d16565f	0.036703464
123	0x3b6abab2	0.0035816845
124	0xbcdbd6ba	-0.026835788
125	0xbc8dbfb7	-0.01730333
126	0x3c033b0a	0.0080096815
127	0x3c47de0a	0.012198934
128	0xbc433687	-0.011914856
129	0x3c05f781	0.008176685
130	0xbd1acc3d	-0.037792433
131	0xbc9b0100	-0.018921375
132	0xbcc000db	-0.023437908
133	0xbc342fd2	-0.010997729
134	0x3c399181	0.011326195
135	0xbae03fc7	-0.0017108851
136	0xbcbff678	-0.023432955
137	0xbd14b1dc	-0.036302432
138	0xbc8c0c29	-0.017095642
139	0xbcc4bcf4	-0.024015881
140	0x3bf2d325	0.0074104243
141	0xbd4fbcc3	-0.050717127
142	0x3c5497b4	0.012975622
143	0x3cfc037a	0.030763377
144	0xbc82f915	-0.015987912
145	0x3ccb8bfd	0.024847025
146	0x3bde50e8	0.006784547
147	0x3c03b123	0.008037838
148	0xbcc603b5	-0.02417169
149	0xbc8af3db	-0.016961982
150	0xbc3a553b	-0.01137286
151	0xbce92d19	-0.028463887
152	0xbd082aa3	-0.033243787
153	0x3ba50388	0.0050358213
154	0x3b8540fd	0.004066585
155	0x3c078c28	0.008273162
156	0x3c1af7d4	0.009458501
157	0x3c6c8967	0.014437056
158	0xbcf779f3	-0.030209517
159	0xbcf310d6	-0.029671114
160	0xbcf30691	-0.029666217
161	0xbcde9040	-0.027168393
162	0x3a6e2662	0.0009084699
163	0xbcfea049	-0.03108229
164	0xbc4d2921	-0.012522013
165	0x3c719259	0.014744365
166	0xbca0d3f8	-0.019632325
167	0x3c873ad4	0.016507544
168	0x3cbbc4cd	0.02292099
169	0xbcebf781	-0.028804542
170	0xbcce390d	-0.025173688
171	0xbcf1c6c1	-0.029513719
172	0xbccad031	-0.024757477
173	0xbc84040b	-0.01611521
174	0xbce01eab	-0.027358374
175	0xbce5015c	-0.02795475
176	0xbb017824	-0.0019755447
177	0xbafb5225	-0.0019174261
178	0x3c68c2c6	0.014206594
179	0xbcac2f9e	-0.0210188
180	0xbce97a23	-0.028500622
181	0xbce9fa75	-0.02856181
182	0xbc848251	-0.016175421
183	0xbc7c9d73	-0.015418398
184	0xbcd75ab4	-0.026288368
185	0xbbc2b588	-0.0059420504
186	0xbc4ee0cc	-0.012626838
187	0xbccebd70	-0.025236815
188	0xbc65aabd	-0.014017758
189	0x3cd2502d	0.025672996
190	0x3c0f9a2c	0.008764785
191	0xbb729ad2	-0.003701855
192	0xbc91687c	-0.017750017
193	0xbcaaa3b6	-0.020830017
194	0xbd0f80fd	-0.035035122
195	0xbd1f318e	-0.03886562
196	0xbad82cb4	-0.0016492815
197	0x3b458edc	0.0030144965
198	0x3baf3525	0.0053469115
199	0x3c49f431	0.012326286
200	0xbba73a7e	-0.0051034084
201	0xbcf31f87	-0.02967812
202	0xbd1476d6	-0.036246143
203	0xbd070de1	-0.03297222
204	0xbb771775	-0.003770319
205	0xba61ad90	-0.00086089317
206	0xbba82306	-0.0051311282
207	0x3be1627c	0.0068781953
208	0xbba08892	-0.004899093
209	0xbc296e28	-0.010341205
210	0x3c76715e	0.015041677
211	0x3c499fd6	0.012306174
212	0x3bf2c7ab	0.007409056
213	0x3b873db5	0.004127229
214	0xbc40a9e3	-0.011759254
215	0xbcad9652	-0.021189842
216	0x3b890a24	0.004182117
217	0x3c85994c	0.01630845
218	0x3c232a23	0.009958777
219	0x3c022233	0.007942724
220	0x3cf83c40	0.030302167
221	0x3bdc9749	0.006731902
222	0x3b037560	0.0020058975
223	0xbce01e54	-0.027358212
224	0xbca2b086	-0.019859564
225	0xbc5fb735	-0.01365452
226	0xba9054ae	-0.0011011565
227	0x3bacecee	0.0052772677
228	0x3c8bd401	0.017068865
229	0x3a17785b	0.0005778127
230	0xbcc219cc	-0.023693942
231	0x3c8a29c1	0.016865613
232	0x3beb86ee	0.0071877157
233	0x3c3de51e	0.01159027
234	0x3b8d17cf	0.0043058167
235	0x3b8127db	0.0039415187
236	0x3c2e1b3f	0.010626613
237	0x3c98488c	0.01858928
238	0x3c9c9799	0.019115256
239	0x3c1cf875	0.009580721
240	0x3be7f5ed	0.007078877
241	0x3c590ada	0.013247216
242	0x3af9ac98	0.0019048629
243	0xbc9ef8bf	-0.01940572
244	0xbc9189c3	-0.017765885
245	0x3a5c7903	0.0008410366
246	0x3990976b	0.00027578635
247	0x3bcf3921	0.006323949
248	0x3c1a4be1	0.009417505
249	0x3c4510ce	0.012027932
250	0x3c2f1b5b	0.010687674
251	0xbc641a91	-0.01392235
252	0xb9c40707	-0.0003738927
253	0x3c1d70d0	0.009609416
254	0x3bf62d25	0.007512706
255	0x3b7030d5	0.00366502

sep_conn.bias f4 [75]
0	0x3dac1415	0.08402268
1	0x3d5ae09e	0.053436868
2	0x3dbaf65b	0.0912902
3	0x3cda36e0	0.026637495
4	0x3c605a0b	0.013693343
5	0x3d24f6f0	0.04027456
6	0x3d4fb314	0.05070789
7	0x3d3dc6f5	0.04633232
8	0x3e22002b	0.15820377
9	0x3e1a854b	0.1508991
10	0xba1a1d98	-0.00058790436
11	0x3d71ee1c	0.05906497
12	0xbd557821	-0.052116517
13	0xbda3fb1c	-0.0800688
14	0x3ba44b92	0.0050138915
15	0x3d7fab4e	0.06241923
16	0xbe2892c5	-0.16462238
17	0xbde5bd57	-0.11217754
18	0xbd87f93b	-0.06639334
19	0x3e555726	0.20834026
20	0x3e35f8c5	0.1777068
21	0xbd275256	-0.040850006
22	0xbd2382e7	-0.03991976
23	0x3d2197b5	0.03945132
24	0x3d930d5f	0.07180285
25	0xbd1306f1	-0.03589529
26	0x3cbb7c9f	0.022886572
27	0x3d11f5a4	0.03563465
28	0xbca0f2ba	-0.019646991
29	0x3d84e0ee	0.064882144
30	0x3de11669	0.109906025
31	0x3dae492f	0.085100524
32	0xbcb65040	-0.022255063
33	0xbdc58770	-0.09644973
34	0x3db09fa0	0.08624196
35	0xbd9231e1	-0.0713842
36	0xbcfe6e66	-0.031058501
37	0x3e17dc48	0.14830124
38	0x3dabfa65	0.08397368
39	0xbda38511	-0.07984365
40	0xbc197844	-0.0093670525
41	0x3d9dae4b	0.07699259
42	0xbd04989f	-0.032372113
43	0x3d58c572	0.052922674
44	0x3e31f6d5	0.17379315
45	0xbb8d4dcf	-0.004312254
46	0x3e09832c	0.13428944
47	0x3de6a8ae	0.11262642
48	0x3bc4dd9c	0.006007863
49	0xbd45e580	-0.04831457
50	0x3ddc48df	0.107560866
51	0x3c296fc7	0.010341591
52	0x3d56f100	0.05247593
53	0x3df75e64	0.120785505
54	0x3da8c0b0	0.08239877
55	0x3cf3546f	0.029703347
56	0xbd6d5b5e	-0.057948463
57	0x3cf282ec	0.029603444
58	0x3d5e415e	0.054261558
59	0xbd2633b2	-0.040576644
60	0x3d939b15	0.07207314
61	0xbdb79864	-0.08964613
62	0xbb5f014c	-0.0034027873
63	0xbd3f22a8	-0.04666391
64	0xbcfcfb81	-0.030881645
65	0x3df185ed	0.117931224
66	0xbe05f9b0	-0.1308353
67	0xbd9242ff	-0.07141685
68	0xbd8b63e9	-0.06806166
69	0x3e48b1b1	0.19599034
70	0xbcea2346	-0.028581273
71	0x3e606a03	0.2191544
72	0xbdbcbb0b	-0.09215363
73	0x3ddab55c	0.10679123
74	0x3de24963	0.11049154

bn.weight f4 [75]
0	0x3f800000	1.0
1	0x3f800000	1.0
2	0x3f800000	1.0
3	0x3f800000	1.0
4	0x3f800000	1.0
5	0x3f800000	1.0
6	0x3f800000	1.0
7	0x3f800000	1.0
8	0x3f800000	1.0
9	0x3f800000	1.0
10	0x3f800000	1.0
11	0x3f800000	1.0
12	0x3f800000	1.0
13	0x3f800000	1.0
14	0x3f800000	1.0
15	0x3f800000	1.0
16	0x3f800000	1.0
17	0x3f800000	1.0
18	0x3f800000	1.0
19	0x3f800000	1.0
20	0x3f800000	1.0
21	0x3f800000	1.0
22	0x3f800000	1.0
23	0x3f800000	1.0
24	0x3f800000	1.0
25	0x3f800000	1.0
26	0x3f800000	1.0
27	0x3f800000	1.0
28	0x3f800000	1.0
29	0x3f800000	1.0
30	0x3f800000	1.0
31	0x3f800000	1.0
32	0x3f800000	1.0
33	0x3f800000	1.0
34	0x3f800000	1.0
35	0x3f800000	1.0
36	0x3f800000	1.0
37	0x3f800000	1.0
38	0x3f800000	1.0
39	0x3f800000	1.0
40	0x3f800000	1.0
41	0x3f800000	1.0
42	0x3f800000	1.0
43	0x3f800000	1.0
44	0x3f800000	1.0
45	0x3f800000	1.0
46	0x3f800000	1.0
47	0x3f800000	1.0
48	0x3f800000	1.0
49	0x3f800000	1.0
50	0x3f800000	1.0
51	0x3f800000	1.0
52	0x3f800000	1.0
53	0x3f800000	1.0
54	0x3f800000	1.0
55	0x3f800000	1.0
56	0x3f800000	1.0
57	0x3f800000	1.0
58	0x3f800000	1.0
59	0x3f800000	1.0
60	0x3f800000	1.0
61	0x3f800000	1.0
62	0x3f800000	1.0
63	0x3f800000	1.0
64	0x3f800000	1.0
65	0x3f800000	1.0
66	0x3f800000	1.0
67	0x3f800000	1.0
68	0x3f800000	1.0
69	0x3f800000	1.0
70	0x3f800000	1.0
71	0x3f800000	1.0
72	0x3f800000	1.0
73	0x3f800000	1.0
74	0x3f800000	1.0

bn.bias f4 [75]
0	0x00000000	0.0
1	0x00000000	0.0
2	0x00000000	0.0
3	0x00000000	0.0
4	0x00000000	0.0
5	0x00000000	0.0
6	0x00000000	0.0
7	0x00000000	0.0
8	0x00000000	0.0
9	0x00000000	0.0
10	0x00000000	0.0
11	0x00000000	0.0
12	0x00000000	0.0
13	0x00000000	0.0
14	0x00000000	0.0
15	0x00000000	0.0
16	0x00000000	0.0
17	0x00000000	0.0
18	0x00000000	0.0
19	0x00000000	0.0
20	0x00000000	0.0
21	0x00000000	0.0
22	0x00000000	0.0
23	0x00000000	0.0
24	0x00000000	0.0
25	0x00000000	0.0
26	0x00000000	0.0
27	0x00000000	0.0
28	0x00000000	0.0
29	0x00000000	0.0
30	0x00000000	0.0
31	0x00000000	0.0
32	0x00000000	0.0
33	0x00000000	0.0
34	0x00000000	0.0
35	0x00000000	0.0
36	0x00000000	0.0
37	0x00000000	0.0
38	0x00000000	0.0
39	0x00000000	0.0
40	0x00000000	0.0
41	0x00000000	0.0
42	0x00000000	0.0
43	0x00000000	0.0
44	0x00000000	0.0
45	0x00000000	0.0
46	0x00000000	0.0
47	0x00000000	0.0
48	0x00000000	0.0
49	0x00000000	0.0
50	0x00000000	0.0
51	0x00000000	0.0
52	0x00000000	0.0
53	0x00000000	0.0
54	0x00000000	0.0
55	0x00000000	0.0
56	0x00000000	0.0
57	0x00000000	0.0
58	0x00000000	0.0
59	0x00000000	0.0
60	0x00000000	0.0
61	0x00000000	0.0
62	0x00000000	0.0
63	0x00000000	0.0
64	0x00000000	0.0
65	0x00000000	0.0
66	0x00000000	0.0
67	0x00000000	0.0
68	0x00000000	0.0
69	0x00000000	0.0
70	0x00000000	0.0
71	0x00000000	0.0
72	0x00000000	0.0
73	0x00000000	0.0
74	0x00000000	0.0

bn.running_mean f4 [75]
0	0x00000000	0.0
1	0x00000000	0.0
2	0x00000000	0.0
3	0x00000000	0.0
4	0x00000000	0.0
5	0x00000000	0.0
6	0x00000000	0.0
7	0x00000000	0.0
8	0x00000000	0.0
9	0x00000000	0.0
10	0x00000000	0.0
11	0x00000000	0.0
12	0x00000000	0.0
13	0x00000000	0.0
14	0x00000000	0.0
15	0x00000000	0.0
16	0x00000000	0.0
17	0x00000000	0.0
18	0x00000000	0.0
19	0x00000000	0.0
20	0x00000000	0.0
21	0x00000000	0.0
22	0x00000000	0.0
23	0x00000000	0.0
24	0x00000000	0.0
25	0x00000000	0.0
26	0x00000000	0.0
27	0x00000000	0.0
28	0x00000000	0.0
29	0x00000000	0.0
30	0x00000000	0.0
31	0x00000000	0.0
32	0x00000000	0.0
33	0x00000000	0.0
34	0x00000000	0.0
35	0x00000000	0.0
36	0x00000000	0.0
37	0x00000000	0.0
38	0x00000000	0.0
39	0x00000000	0.0
40	0x00000000	0.0
41	0x00000000	0.0
42	0x00000000	0.0
43	0x00000000	0.0
44	0x00000000	0.0
45	0x00000000	0.0
46	0x00000000	0.0
47	0x00000000	0.0
48	0x00000000	0.0
49	0x00000000	0.0
50	0x00000000	0.0
51	0x00000000	0.0
52	0x00000000	0.0
53	0x00000000	0.0
54	0x00000000	0.0
55	0x00000000	0.0
56	0x00000000	0.0
57	0x00000000	0.0
58	0x00000000	0.0
59	0x00000000	0.0
60	0x00000000	0.0
61	0x00000000	0.0
62	0x00000000	0.0
63	0x00000000	0.0
64	0x00000000	0.0
65	0x00000000	0.0
66	0x00000000	0.0
67	0x00000000	0.0
68	0x00000000	0.0
69	0x00000000	0.0
70	0x00000000	0.0
71	0x00000000	0.0
72	0x00000000	0.0
73	0x00000000	0.0
74	0x00000000	0.0

bn.running_var f4 [75]
0	0x3f800000	1.0
1	0x3f800000	1.0
2	0x3f800000	1.0
3	0x3f800000	1.0
4	0x3f800000	1.0
5	0x3f800000	1.0
6	0x3f800000	1.0
7	0x3f800000	1.0
8	0x3f800000	1.0
9	0x3f800000	1.0
10	0x3f800000	1.0
11	0x3f800000	1.0
12	0x3f800000	1.0
13	0x3f800000	1.0
14	0x3f800000	1.0
15	0x3f800000	1.0
16	0x3f800000	1.0
17	0x3f800000	1.0
18	0x3f800000	1.0
19	0x3f800000	1.0
20	0x3f800000	1.0
21	0x3f800000	1.0
22	0x3f800000	1.0
23	0x3f800000	1.0
24	0x3f800000	1.0
25	0x3f800000	1.0
26	0x3f800000	1.0
27	0x3f800000	1.0
28	0x3f800000	1.0
29	0x3f800000	1.0
30	0x3f800000	1.0
31	0x3f800000	1.0
32	0x3f800000	1.0
33	0x3f800000	1.0
34	0x3f800000	1.0
35	0x3f800000	1.0
36	0x3f800000	1.0
37	0x3f800000	1.0
38	0x3f800000	1.0
39	0x3f800000	1.0
40	0x3f800000	1.0
41	0x3f800000	1.0
42	0x3f800000	1.0
43	0x3f800000	1.0
44	0x3f800000	1.0
45	0x3f800000	1.0
46	0x3f800000	1.0
47	0x3f800000	1.0
48	0x3f800000	1.0
49	0x3f800000	1.0
50	0x3f800000	1.0
51	0x3f800000	1.0
52	0x3f800000	1.0
53	0x3f800000	1.0
54	0x3f800000	1.0
55	0x3f800000	1.0
56	0x3f800000	1.0
57	0x3f800000	1.0
58	0x3f800000	1.0
59	0x3f800000	1.0
60	0x3f800000	1.0
61	0x3f800000	1.0
62	0x3f800000	1.0
63	0x3f800000	1.0
64	0x3f800000	1.0
65	0x3f800000	1.0
66	0x3f800000	1.0
67	0x3f800000	1.0
68	0x3f800000	1.0
69	0x3f800000	1.0
70	0x3f800000	1.0
71	0x3f800000	1.0
72	0x3f800000	1.0
73	0x3f800000	1.0
74	0x3f800000	1.0

net.0.weight f4 [75, 504]
0	0xbd8ad39a	-0.06778641
1	0xbd11d14c	-0.03559999
2	0xbc0de3db	-0.008660282
3	0xbd085f3e	-0.033293955
4	0xbce10e97	-0.027472777
5	0xbb910a19	-0.0044262526
6	0x3acc8ce7	0.0015605957
7	0x3cce848a	0.025209684
8	0x3d260b25	0.040537972
9	0x3c925b60	0.017865837
10	0xbc6120d9	-0.013740742
11	0xbac546ea	-0.0015051041
12	0x3a827f50	0.0009956155
13	0x3b109fec	0.0022067977
14	0xbd1755f5	-0.03694721
15	0xbcb9c997	-0.022679133
16	0x3c707083	0.014675262
17	0xbd0a1d5e	-0.033719413
18	0xbd0ade63	-0.03390349
19	0x3c4d6eb6	0.012538603
20	0x3d204ff4	0.03913875
21	0xbd992be4	-0.074790746
22	0x3d383911	0.044976298
23	0x3d9b0819	0.07569904
24	0x3dafa1e4	0.085758
25	0x3dc7e63c	0.097607106
26	0x3d513e7e	0.051084988
27	0x3d3c3cc3	0.045956384
28	0x3d3c68d5	0.045998413
29	0x3d990b73	0.07472887
30	0xbc0dce09	-0.00865508
31	0x3b1689b2	0.0022970256
32	0xbba845c5	-0.0051352703
33	0xbca5b677	-0.020228608
34	0xbc98ecb3	-0.018667554
35	0x3c6ecbbb	0.01457494
36	0x3cc78ab6	0.024358135
37	0x3dd63da9	0.104609795
38	0x3def9184	0.11697677
39	0x3d8e579f	0.06950306
40	0x3cbb1295	0.022836009
41	0x3c7eb7b6	0.01554673
42	0x3cb167d7	0.02165596
43	0x3dc5e533	0.09662857
44	0x3dcff869	0.10154802
45	0x3d86c2d7	0.065801315
46	0x3d6e5c23	0.058193337
47	0x3dce7a3d	0.10081909
48	0x3e02789b	0.1274132
49	0x3de16492	0.110055104
50	0x3dd9dc00	0.10637665
51	0x3d60e867	0.054909136
52	0x3d11236e	0.03543418
53	0x3d4f2cd4	0.05057986
54	0x3d246dba	0.040143706
55	0x3d8add87	0.06780534
56	0x3dc1f9d6	0.094714805
57	0x3d993a74	0.07481852
58	0x3ceca441	0.028886916
59	0x3d57f3cc	0.052722737
60	0x3d82e88c	0.06392011
61	0x3c16dd81	0.009208084
62	0xbd18d121	-0.037308816
63	0x3bd7b5f7	0.006582971
64	0x3d4dfef3	0.050291967
65	0xbd8a3c70	-0.06749809
66	0x3ced4a37	0.028966052
67	0xbc8ea945	-0.017414698
68	0xbd5cd2e9	-0.053912077
69	0xbdac42ce	-0.084111795
70	0xbc1fe96c	-0.009760242
71	0x3dc84e9f	0.09780621
72	0x3d4f1fad	0.050567318
73	0x3d61b6a3	0.055105817
74	0x3d4a0ba1	0.049327496
75	0x3c7addef	0.015311702
76	0x39fdfced	0.00048444365
77	0xbdf3184b	-0.11869868
78	0xbd8cb86e	-0.06871115
79	0x3c07b7e2	0.008283587
80	0xbc1507ca	-0.009096095
81	0xbd0bf7e4	-0.034171954
82	0xbd8cb38f	-0.068701856
83	0xbb63a711	-0.003473703
84	0xbdcff2f7	-0.10153764
85	0xbd737c95	-0.059444983
86	0xbda31d71	-0.079646
87	0xbd482236	-0.04886075
88	0xbcf8b276	-0.030358534
89	0xbd040433	-0.032230567
90	0xbd16a554	-0.036778763
91	0xbd3c9998	-0.046044916
92	0xbbab02d8	-0.005218845
93	0xbb689004	-0.003548623
94	0x3d3a3370	0.04545921
95	0x3c7ac89b	0.015306617
96	0xbd38313d	-0.044968832
97	0xbd4dce38	-0.050245494
98	0xbd8e7b98	-0.069571674
99	0xbc38b59b	-0.011273767
100	0x3ce077d9	0.027400898
101	0xbbd4c692	-0.006493398
102	0xbd0f2aa8	-0.03495279
103	0xbdb5eb44	-0.08882764
104	0xbdbc9992	-0.09208979
105	0xbd5da117	-0.054108705
106	0xbd9d8293	-0.07690921
107	0x3d0a1d6f	0.033719476
108	0xbd8822eb	-0.06647285
109	0x3d9ba24c	0.07599315
110	0x3dc089f0	0.094013095
111	0x3c390c67	0.011294461
112	0xbd002124	-0.031281605
113	0xbcb4e7a5	-0.022083113
114	0x3b9caada	0.0047811093
115	0xbb0b1b62	-0.0021226038
116	0xbb2a476d	-0.0025982514
117	0x3d21c12b	0.03949086
118	0xbcd77691	-0.026301654
119	0xbdb0e32a	-0.08637078
120	0x3d049db4	0.03237696
121	0x3db99732	0.09062041
122	0x3ca75a12	0.020428691
123	0x3df71c25	0.12065915
124	0xbd766f8b	-0.06016497
125	0xbdb6f774	-0.08933917
126	0xbbe9f24f	-0.007139481
127	0xbd31ce5f	-0.0434097
128	0xbe497e36	-0.19677052
129	0x3d78e0dd	0.06076132
130	0xbe2a239f	-0.16615151
131	0xbdb11b82	-0.08647825
132	0xbdad20fa	-0.084535554
133	0xbd7840d0	-0.060608685
134	0x3d16cf99	0.036819074
135	0x3dcf46b8	0.101209104
136	0xbd2f95e8	-0.04286757
137	0x3d305ed2	0.043059178
138	0x3d7b4c2a	0.061351933
139	0xbdb83205	-0.089939155
140	0xbd1576f4	-0.036490396
141	0xbd05ff7e	-0.03271436
142	0xbd718adb	-0.058970314
143	0x3d13597e	0.03597402
144	0xbd99d445	-0.0751119
145	0xbc2d6590	-0.010583296
146	0x3cc0fdd6	0.023558538
147	0xbcc1566c	-0.02360078
148	0xbde32d93	-0.11092677
149	0xbe09fab6	-0.13474545
150	0xbd987418	-0.07444018
151	0xbe4e0b2f	-0.20121454
152	0xbe37ebe1	-0.17961074
153	0xbdb5ede6	-0.08883266
154	0xbdc6b227	-0.097019486
155	0x3cf6d851	0.030132445
156	0x3c947243	0.01812089
157	0xbdf516c7	-0.11967235
158	0xbd8cb9db	-0.068713866
159	0xbb7d71cc	-0.0038672565
160	0xbd4f7480	-0.050648212
161	0xbd711c39	-0.058864806
162	0xbd0c860d	-0.03430753
163	0xbe139b31	-0.1441467
164	0xbe13132a	-0.1436278
165	0xbd8d5783	-0.06901457
166	0xbe1e83cc	-0.15479964
167	0x3c840810	0.016117126
168	0x3d2e82bc	0.042605147
169	0xbdb32d94	-0.08748928
170	0xbd3c9e8b	-0.046049636
171	0xbd3e4491	-0.04645211
172	0xbd9ca7ed	-0.07649217
173	0xbdbbea76	-0.09175579
174	0xbe047ac0	-0.1293745
175	0xbd8f9562	-0.070109144
176	0x3c6f8ccc	0.014620971
177	0xbc8052e0	-0.015664518
178	0xbd6897db	-0.056785446
179	0xbd2b771d	-0.041861642
180	0xbb40de6b	-0.0029429446
181	0xbc2d7ab0	-0.010588333
182	0xbdd9fdfc	-0.10644147
183	0xbd2e099d	-0.042489637
184	0xbcf3ca5b	-0.029759577
185	0x3c606409	0.013695725
186	0x3d881aa7	0.066457085
187	0xbd626504	-0.055272117
188	0xbd294a08	-0.041330367
189	0x3ca54ac2	0.020177249
190	0xbd6fe68d	-0.05856948
191	0xbdb07dc0	-0.08617735
192	0xbd51a2e3	-0.05118073
193	0xbd878a19	-0.06618137
194	0xbd9659ac	-0.07341322
195	0xbd5bb8ec	-0.053643152
196	0x3c99a492	0.018755231
197	0xbb54878e	-0.003242943
198	0xbd53f2b0	-0.051745117
199	0x3c7016d7	0.014653883
200	0xbd257d64	-0.040402785
201	0xbca7fc88	-0.020506158
202	0xbd86bec6	-0.06579356
203	0xbd32fbb9	-0.043697093
204	0xbd91c6cd	-0.07117996
205	0xbca5680b	-0.020191213
206	0xbc4931e9	-0.012279966
207	0x3d1098c4	0.03530194
208	0xbc83839d	-0.016053969
209	0xbddd0ffd	-0.10794065
210	0xbd14e4d4	-0.03635104
211	0xbd057b6b	-0.032588404
212	0xbd547320	-0.051867604
213	0xbd57933f	-0.05263066
214	0xbd4b1dd0	-0.04958898
215	0xbb979f93	-0.004627177
216	0x3c378bfb	0.011202808
217	0xbb8f82a1	-0.004379586
218	0x3c2f40a3	0.010696563
219	0xbc6153c8	-0.013752885
220	0x3c40b839	0.011762672
221	0x3d167e55	0.036741573
222	0x3d2c27b5	0.042030055
223	0xbd983c72	-0.07433404
224	0x3c207586	0.009793645
225	0x3c052afb	0.008127923
226	0xbbb4e9d5	-0.005521039
227	0x3c4bbcaf	0.012435122
228	0xbb875c44	-0.004130872
229	0xbd84a48c	-0.06476697
230	0xbdfad28d	-0.122471906
231	0xbc33110b	-0.010929356
232	0xbd0390ab	-0.032120388
233	0xbce4e3ad	-0.027940596
234	0xbd05c47d	-0.03265809
235	0xbc397e73	-0.011321652
236	0xbd08e4d1	-0.03342134
237	0xbc8fb9f1	-0.017544718
238	0x3cccadd8	0.024985239
239	0x3b63e214	0.0034772204
240	0xbcf2bb2f	-0.029630272
241	0xbd349f36	-0.044097148
242	0xbd8118d2	-0.06303562
243	0xbd6e358a	-0.058156528
244	0xbce028f7	-0.027363284
245	0xbd082a4d	-0.033243466
246	0x3cac8158	0.02105777
247	0x3d103c66	0.03521385
248	0x3ceb1c04	0.028699882
249	0xbb571103	-0.0032816536
250	0xbccce880	-0.025013208
251	0xbd8f4221	-0.06995035
252	0xbd087911	-0.033318583
253	0x3c97e4a1	0.018541636
254	0x3c81b467	0.015833093
255	0xbb637b13	-0.003471081

net.0.bias f4 [75]
0	0xbd848197	-0.0647003
1	0xbe089a2a	-0.13340059
2	0xbe0881a4	-0.13330704
3	0xbd748f07	-0.059706714
4	0xbd907f4e	-0.070555314
5	0x3d518b00	0.05115795
6	0xbe350324	-0.1767698
7	0xbce08e02	-0.027411465
8	0x3c8c1508	0.017099872
9	0xbe18f3e1	-0.14936782
10	0xbc4f8b36	-0.012667468
11	0xbd8565e3	-0.06513574
12	0xbd91bb81	-0.07115842
13	0xbe0d0ade	-0.13773677
14	0xbd9cda89	-0.0765887
15	0xbe3be08f	-0.18347381
16	0x3d6e4a4c	0.058176324
17	0x3e1b256b	0.15150993
18	0x3e444c5a	0.19169751
19	0x3dbcdd70	0.09221923
20	0x3e17d3e5	0.14826925
21	0xbe03cc28	-0.12870848
22	0xbb98e59f	-0.004666045
23	0xbb010cf7	-0.0019691566
24	0x3d69ecf6	0.05711075
25	0xbcc4b66c	-0.024012767
26	0xbe5ac6c6	-0.21364889
27	0xbdfa8b25	-0.12233571
28	0xbe39f75d	-0.18160768
29	0xbd99e0ed	-0.07513604
30	0xbded341f	-0.11582207
31	0x3d373bb1	0.04473466
32	0xbe49fc37	-0.19725119
33	0xbe4b23ec	-0.19837922
34	0x3dbed1f3	0.093173884
35	0x3e05ee5f	0.13079213
36	0x3e5c7b7e	0.21531484
37	0xbd822bec	-0.06356034
38	0xbe2d6f11	-0.169369
39	0xbda9be98	-0.08288306
40	0xbd13941b	-0.036029916
41	0xbe2c48d7	-0.16824661
42	0xbe1f6755	-0.15566762
43	0xbd882cc6	-0.06649165
44	0xbe192c70	-0.14958358
45	0xbdbaa1a2	-0.0911286
46	0x3d842c9d	0.06453822
47	0xbc2dbde5	-0.010604356
48	0x3d9b0d50	0.075708985
49	0x3e29e8ca	0.16592708
50	0x3df566ac	0.11982474
51	0xbd1b65fb	-0.037939053
52	0xbe758e7e	-0.23980138
53	0xbe02cc18	-0.12773168
54	0xbe454bed	-0.19267245
55	0x3e21239c	0.1573624
56	0xbe25fd46	-0.16209897
57	0xbe2105bd	-0.15724845
58	0x3da50a45	0.080585994
59	0xbd760610	-0.060064375
60	0x3d517821	0.051139954
61	0xbdc3f5ff	-0.095684044
62	0xbe0be4bc	-0.13661474
63	0x3d7ae3ac	0.06125228
64	0xbdbd6ae7	-0.09248906
65	0x3e1f1a6e	0.15537426
66	0x3dc7dc5e	0.097588286
67	0xbdc3dad3	-0.09563222
68	0xbd7f5de1	-0.06234539
69	0xbd856935	-0.06514207
70	0xbd95620a	-0.0729409
71	0xbdbc6b3f	-0.09200143
72	0xbe395c61	-0.18101646
73	0x3e59e008	0.21276867
74	0x3e0b0f7e	0.13580129
