bestclf/bestclf_adult.pth (torch, 71230 bytes, 15 tensors)

fc1.weight f4 [64, 95]
0	0x3cd82400	0.026384354
1	0x3c9360da	0.017990518
2	0x3dea8023	0.114502214
3	0x3d4edd95	0.050504286
4	0x3d2c9c24	0.042141095
5	0xbc8a7e87	-0.016906036
6	0x3bf27c3f	0.007400065
7	0xbc93ebbe	-0.018056747
8	0xbbd870a3	-0.006605224
9	0xbe140005	-0.14453132
10	0xbd247c2e	-0.04015749
11	0xbc71ab3b	-0.014750297
12	0xbca6f989	-0.02038266
13	0xbd0c1d8d	-0.03420787
14	0xbb243fac	-0.0025062365
15	0xbc3b0332	-0.011414336
16	0xbd06c492	-0.032902308
17	0xbce9f5b0	-0.028559536
18	0xbd4246cd	-0.047430802
19	0xbcd5a52e	-0.02607974
20	0x3c38faef	0.011290296
21	0x3d8c1877	0.06840604
22	0xbd163d53	-0.036679577
23	0x3d55787e	0.052116863
24	0xbb0a6d31	-0.0021122212
25	0xbc60a50a	-0.013711223
26	0xbce60e81	-0.028083088
27	0x3cd2922c	0.025704466
28	0x3d170e32	0.036878772
29	0xbccdc6cb	-0.025119206
30	0xbd99b138	-0.07504505
31	0x3cfa7eec	0.0305781
32	0xbd539a2d	-0.051660705
33	0xba17da5e	-0.0005792732
34	0xbcdb10ac	-0.026741348
35	0x3dad44b3	0.08460369
36	0xbce59371	-0.028024407
37	0xbd8bf522	-0.06833865
38	0xbd5c8092	-0.05383355
39	0xbd6bda6d	-0.057581354
40	0xbcc800f9	-0.024414526
41	0xbcbc4fb0	-0.022987217
42	0x3af29745	0.0018508217
43	0xbd268b8a	-0.04066042
44	0x3c1b33b8	0.00947278
45	0xbd952220	-0.072818995
46	0xbdaa1797	-0.08305281
47	0xbd1b864f	-0.037969884
48	0xbd6f5c68	-0.058437735
49	0xbdd8a28e	-0.1057788
50	0x3d9b408e	0.07580672
51	0xbcf27a6f	-0.029599397
52	0xbd02ab88	-0.031901866
53	0xbc9b0501	-0.018923284
54	0x3cc18564	0.023623176
55	0xbc480d65	-0.012210225
56	0xbd07f5f9	-0.033193562
57	0xbbd75ce2	-0.006572352
58	0x3c3886a2	0.011262568
59	0xbc23b6db	-0.009992327
60	0xbc27322d	-0.010204834
61	0xbcb017e2	-0.021495763
62	0xbc1ecff9	-0.009693139
63	0x3b37109f	0.002793349
64	0x3c86a033	0.01643381
65	0xbcae7bf3	-0.021299338
66	0x39060969	0.00012782741
67	0xbbadb0e0	-0.005300626
68	0x373e1d12	1.1331651e-05
69	0xb97fdfd8	-0.00024402083
70	0x3ab07dae	0.001346519
71	0x3b1291c6	0.002236472
72	0xbca618fb	-0.020275583
73	0xbcb5d364	-0.022195525
74	0x3c7f0d76	0.015567174
75	0x3cb874c0	0.022516608
76	0xbc922c86	-0.017843496
77	0xbbce7c46	-0.0063014356
78	0x3a219f99	0.00061654445
79	0xbc8a93d7	-0.016916199
80	0xbc40b27b	-0.011761303
81	0x3958c030	0.0002067096
82	0xbbc9a650	-0.006153859
83	0x3cd46281	0.025925877
84	0xbc6801b4	-0.014160562
85	0x3bf485b1	0.0074622263
86	0x3c3f8cdb	0.011691297
87	0x3aa61c6b	0.0012673264
88	0xbd512a53	-0.051065754
89	0xbc36ce87	-0.011157638
90	0x3be41865	0.006960916
91	0xbc57ed66	-0.013179159
92	0x3b7e0e9f	0.003876604
93	0xbc9ebcb4	-0.01937709
94	0x3b1ae920	0.0023637488
95	0xbd237af8	-0.039912194
96	0x3d13cad4	0.036082104
97	0xbd737796	-0.059440218
98	0xbc93be36	-0.018035036
99	0x3b228ac6	0.0024801954
100	0xbd0485d8	-0.032354206
101	0xbc74b06e	-0.014934642
102	0x3d26c1d7	0.040712204
103	0xbbc55da2	-0.006023125
104	0xbc7d8611	-0.015473858
105	0x3b20738a	0.002448293
106	0x3b4a765e	0.0030893306
107	0x3a27be54	0.00063989055
108	0x3b83907e	0.0040150275
109	0x3b81b48a	0.0039582895
110	0xbc0df4fb	-0.008664365
111	0x3b2b1f82	0.002611131
112	0x3bb051e1	0.0053808545
113	0xbbc3a4a3	-0.005970554
114	0x3b449461	0.0029995667
115	0xbc4fa684	-0.012673978
116	0xbb32b93e	-0.0027271057
117	0x3d1d3c6a	0.038387693
118	0xbb4c57a9	-0.003118018
119	0x3bb8360b	0.005621677
120	0xbbf0c5f4	-0.0073478166
121	0xbb4a525b	-0.0030871842
122	0xbbbd38c9	-0.0057745916
123	0xbce3d046	-0.027809273
124	0x3ba90ce1	0.005159006
125	0x3d230394	0.039798334
126	0x3c7f4b69	0.015581944
127	0x3c2e0cad	0.010623139
128	0x3a762f24	0.000939118
129	0x3c009224	0.007847343
130	0xbc9bf50e	-0.01903775
131	0x3b9a0b4a	0.004701053
132	0x3ba85804	0.0051374454
133	0x3c165ca1	0.009177358
134	0x3b6a654c	0.0035765944
135	0x3c020a0d	0.007936967
136	0xbcd5b98e	-0.026089456
137	0x3ae91d24	0.0017785174
138	0x3cdf17db	0.027233055
139	0xbbca0425	-0.006165045
140	0x3be46578	0.006970104
141	0x3d113753	0.035453152
142	0x3bf4c5e3	0.007469879
143	0x3cbfd3df	0.023416458
144	0x3c32d809	0.010915765
145	0x3bd2d80c	0.006434446
146	0x3c2ba065	0.010475253
147	0xb9ecd17b	-0.00045169503
148	0x3c4b3a23	0.012403998
149	0xbc8dbc4a	-0.017301697
150	0xbb9db3bd	-0.0048126862
151	0x3c23ab90	0.009989634
152	0x3c0ab920	0.008466989
153	0xbc38136f	-0.011235102
154	0x3c1a5739	0.00942021
155	0x3ba3447d	0.0049825297
156	0x3c1fbf5b	0.009750213
157	0xbb985da1	-0.0046498333
158	0x3ace591f	0.0015743113
159	0xb9885cc2	-0.0002600905
160	0x3ba217db	0.0049466914
161	0x3c0d4557	0.008622489
162	0x3ad3a4b6	0.001614711
163	0x3825ede7	3.956063e-05
164	0x3a77108c	0.0009424768
165	0xb9d12967	-0.00039894434
166	0x3b7f5b7b	0.0038964439
167	0xbb0bec19	-0.0021350442
168	0xbb37ac0e	-0.0028026137
169	0x3aa8e6ba	0.0012886145
170	0xbc1bc207	-0.009506709
171	0xb9aef804	-0.00033372652
172	0xbbcc41c6	-0.0062334267
173	0x3c1ee9df	0.009699314
174	0x3c30d675	0.010793318
175	0x3bf90c08	0.007600311
176	0x3c26c159	0.010177934
177	0x3ba350e9	0.0049840105
178	0x3a71428f	0.00092033384
179	0x3ba56dc7	0.005048487
180	0xb98523be	-0.00025394367
181	0x3c3c71f2	0.011501776
182	0x3b497527	0.0030739994
183	0x3bba47f4	0.005684847
184	0xbb90b75c	-0.0044163894
185	0x3c161d9e	0.009162335
186	0x3b9f7be2	0.004867063
187	0xbd6a740c	-0.057239577
188	0x3bd47e94	0.006484816
189	0xbb307f88	-0.0026931483
190	0x3b08945e	0.0020840387
191	0xbb4f6d74	-0.0031650933
192	0x3aded9fd	0.0017002221
193	0x3a4fc5e4	0.00079259113
194	0x3a955e9b	0.0011395992
195	0x3b02545f	0.0019886715
196	0x3a627744	0.0008638988
197	0xbb0f3e00	-0.0021857023
198	0x3a78908b	0.0009481988
199	0x3adf3844	0.0017030318
200	0x3a05e3b2	0.00051074766
201	0x384bd68a	4.8598777e-05
202	0x390d3600	0.00013466924
203	0x3823a265	3.901347e-05
204	0x393842e1	0.00017572522
205	0x390b08c7	0.00013259343
206	0x39afadff	0.00033508238
207	0x38a3074e	7.773806e-05
208	0x39993be8	0.00029227068
209	0x3a8a5777	0.0010554631
210	0x3b257274	0.0025245221
211	0x39a81a56	0.0003206308
212	0xbadf3440	-0.0017029122
213	0x3ab8d6b8	0.0014102077
214	0xb530c02e	-6.584477e-07
215	0x3a09d44f	0.00052577717
216	0xba974433	-0.0011540711
217	0xb8da454e	-0.00010407959
218	0x3ba8b1a8	0.0051481314
219	0x3948e7ba	0.00019159811
220	0x3a0de5a2	0.0005412941
221	0x39801d79	0.0002443602
222	0x3918e601	0.00014581533
223	0xb70b4abb	-8.302445e-06
224	0x3aab6aef	0.0013078133
225	0x3b0e94e7	0.0021756233
226	0x392d4ca3	0.00016527115
227	0x3932cd5e	0.00017051908
228	0x39ccd032	0.0003906503
229	0x39ec1280	0.0004502721
230	0x38b5c135	8.66674e-05
231	0x3af7da5c	0.0018909681
232	0x3a09f29b	0.0005262286
233	0x39e06ba0	0.00042804796
234	0x392707ce	0.00015929269
235	0x3ad65d8a	0.0016354781
236	0x3aa5a8d7	0.0012638819
237	0x38f7d041	0.00011816668
238	0xbaf391b7	-0.0018582855
239	0x3a8e736a	0.0010868136
240	0x3a9f4e73	0.0012154117
241	0x3a873d8c	0.0010318025
242	0x3a14486f	0.00056565454
243	0x3959a78e	0.00020757152
244	0xbc1ad69d	-0.009450582
245	0xb8aed25a	-8.3361476e-05
246	0xb850ff01	-4.9828555e-05
247	0x391dbca8	0.00015042967
248	0xb8ff0781	-0.00012160745
249	0x388133b4	6.16083e-05
250	0xb764c1be	-1.3634968e-05
251	0x38e29e9c	0.00010806063
252	0x39161347	0.00014312296
253	0x38601bb2	5.3431555e-05
254	0x383756da	4.3711487e-05
255	0x38612947	5.3682623e-05

fc1.bias f4 [64]
0	0xbdf3606b	-0.11883625
1	0x3d1d1d6f	0.03835815
2	0xbbe9714b	-0.0071241013
3	0x3dd9a087	0.10626321
4	0x3dc9e596	0.09858243
5	0xbddfcbd4	-0.10927549
6	0x3dd91d08	0.106012404
7	0x3bcd6ebf	0.0062693055
8	0x3de4602a	0.11151154
9	0x3df0f66c	0.11765751
10	0x3e0dca18	0.13846624
11	0x3d3ea978	0.046548337
12	0x3bf2d93a	0.0074111493
13	0xbe2c0b5c	-0.16801208
14	0xbe0a8a0a	-0.1352922
15	0xbe2eb036	-0.17059407
16	0xbcd592e9	-0.026071029
17	0x3d0b0146	0.03393676
18	0x3e09f00a	0.13470474
19	0x3d7505ae	0.05981987
20	0x3dc88d80	0.09792614
21	0xbe0ae4ea	-0.13563886
22	0x3df9cfd4	0.12197843
23	0x3e091d1e	0.13390014
24	0x3d6d3bab	0.057918232
25	0xbe0b1ef2	-0.13586023
26	0x3d7bea6e	0.061502866
27	0x3b0f9700	0.0021910071
28	0xbdffeeb3	-0.124967
29	0x3ded7e12	0.11596312
30	0x3e21ceef	0.15801595
31	0x3e142478	0.14467037
32	0x3e0af982	0.13571742
33	0x3e0fc30b	0.14039247
34	0xbd6ec760	-0.058295608
35	0x3d63d294	0.055620745
36	0x3d88c90f	0.06678974
37	0x3ccda587	0.025103344
38	0x3dec0545	0.115244426
39	0xbe19c5d7	-0.15016876
40	0xbd9bd55b	-0.07609054
41	0x3da243cc	0.079230875
42	0x3dd497e0	0.1038053
43	0xbdd57991	-0.104235776
44	0xbb56b5c0	-0.003276214
45	0xbdc30bfc	-0.0952377
46	0x3bac77aa	0.0052632885
47	0x3d467975	0.048455674
48	0x3d192053	0.037384342
49	0xbe052b0b	-0.13004701
50	0x3e140fc3	0.14459138
51	0x3df71016	0.12063615
52	0x3e08ae71	0.13347794
53	0x3d92ced1	0.07168353
54	0x3db7a7fb	0.089675866
55	0x3d9202f0	0.071294665
56	0xbbdfca39	-0.0068295267
57	0x3ab72869	0.0013973835
58	0x3dd71086	0.105011985
59	0x3d9c5667	0.076336674
60	0x3e3333b9	0.175002
61	0x3b89493b	0.004189638
62	0x3cb1baa2	0.021695439
63	0xbdcb961a	-0.09940739

fc2.weight f4 [64, 64]
0	0x3d270ca0	0.040783525
1	0xbc27b3c5	-0.0102357315
2	0xb9d53691	-0.0004066718
3	0xbd04edfd	-0.032453526
4	0xbca45dd8	-0.02006428
5	0x3d69d01a	0.057083227
6	0xbca28bf0	-0.019842118
7	0xbc89ca9e	-0.016820248
8	0xbcb05746	-0.02152599
9	0xbd25a0e2	-0.040436633
10	0xbd1d9b14	-0.038477972
11	0xbcdae370	-0.026719779
12	0xbb10ca08	-0.0022093076
13	0x3cff0ed1	0.031134995
14	0x3d8077f5	0.0627288
15	0x3d6f0cdb	0.05836187
16	0xbaa97c3d	-0.0012930703
17	0xbb8c9c58	-0.0042910986
18	0xbd165f5e	-0.036712043
19	0xbd16603e	-0.036712877
20	0xbcbf2e9c	-0.023337655
21	0x3d315862	0.04329718
22	0xbcbe8c5a	-0.023260284
23	0xbce4b667	-0.027919007
24	0xbceab552	-0.028650913
25	0x3cca5263	0.024697488
26	0xbcb7914b	-0.022408148
27	0xbc351698	-0.01105275
28	0x3cd30ed2	0.025763903
29	0xbcfcb2ad	-0.030846918
30	0xbca40afc	-0.020024769
31	0xbcf3d370	-0.029763907
32	0xbcb9b6e7	-0.022670222
33	0xbc9da2e4	-0.019242711
34	0x3d6e4236	0.058168612
35	0xbce2bee1	-0.027678909
36	0xbcb0166b	-0.021495065
37	0xbcf5e0f9	-0.030014502
38	0xbc893d6d	-0.016752923
39	0x3d7c0453	0.06152756
40	0x3d2d0f1c	0.042250738
41	0xbcc9a87f	-0.024616478
42	0xbcad117b	-0.0211265
43	0x3d588370	0.052859724
44	0xba7019c0	-0.00091591105
45	0x3d723cb4	0.059139922
46	0xbcf55649	-0.02994837
47	0xbc454fee	-0.0120429825
48	0xbd172f36	-0.03691026
49	0x3d1fef09	0.03904632
50	0xbcb7f667	-0.022456361
51	0xbcd188ed	-0.025577987
52	0xbce9e111	-0.028549703
53	0xbcc60d32	-0.024176214
54	0xbd210a18	-0.039316267
55	0xbd19b50e	-0.037526183
56	0xbb18febd	-0.0023345195
57	0xb9928f56	-0.00027954084
58	0xbcee26e2	-0.029071275
59	0xbd2dfdf4	-0.042478517
60	0xbd0f2087	-0.03494313
61	0xbcf65506	-0.03006984
62	0xbcaee74d	-0.021350527
63	0x3d741586	0.05959084
64	0xbba5f380	-0.005064428
65	0x3ca348b5	0.01993213
66	0x3a088ab5	0.0005208657
67	0x3d7f4b94	0.062327936
68	0x3d6eda7f	0.058313843
69	0xbccfae02	-0.025351528
70	0x3d7d094f	0.061776455
71	0x3cfb122a	0.03064831
72	0x3db4a948	0.0882135
73	0x3d88427b	0.06653305
74	0x3d9a59ef	0.07536685
75	0x3d9e2171	0.07721222
76	0x3b3882e4	0.0028154189
77	0xbb9229f9	-0.00446057
78	0xbcbba2c5	-0.022904763
79	0xbd034c0e	-0.032054953
80	0xb92e4d15	-0.00016622648
81	0x3b1f30fc	0.0024290672
82	0x3d6b2639	0.0574095
83	0x3d9795c5	0.07401613
84	0x3d3f7e33	0.046751212
85	0xbc5f4d79	-0.013629311
86	0x3d48ea7f	0.049051758
87	0x3dae9287	0.085240416
88	0x3d44584d	0.047935773
89	0xbca83439	-0.020532714
90	0x3d84ede3	0.06490686
91	0x3d2d4423	0.04230131
92	0xbcc589ab	-0.024113497
93	0x3d54a7c1	0.051917795
94	0x3db432bb	0.087987386
95	0x3d973450	0.07383025
96	0x3d7b7a89	0.061396156
97	0x3d9ae79c	0.07563707
98	0xbce6697a	-0.028126467
99	0x3d8b46ea	0.06800635
100	0x3daa929d	0.083287455
101	0x3d966878	0.073441446
102	0x3d39d3bb	0.045367938
103	0xbcf91e87	-0.030410064
104	0xbc953403	-0.018213278
105	0x3d879f5f	0.066221945
106	0x3d9ea304	0.077459365
107	0xbcaea438	-0.02131854
108	0x3a2fef52	0.0006711382
109	0xbcd29884	-0.02570749
110	0x3d9f58b7	0.07780593
111	0x3d4ecbc0	0.05048728
112	0x3d466aa5	0.048441548
113	0xbcccf529	-0.025019245
114	0x3d839034	0.06423989
115	0x3d6e92d7	0.058245506
116	0x3d9a926f	0.07547461
117	0x3d6f3ddf	0.058408614
118	0x3d85f379	0.06540579
119	0x3da67e65	0.081295766
120	0x3b24d657	0.002515217
121	0x3a6da0d5	0.00090647984
122	0x3db0381b	0.08604451
123	0x3d89ecb4	0.06734601
124	0x3d84df8a	0.06487949
125	0x3da362ac	0.079778045
126	0x3d922d88	0.07137591
127	0xbce69ebf	-0.028151868
128	0x3d18a2db	0.037264686
129	0xbc2eb4e5	-0.010663246
130	0xba782441	-0.00094658515
131	0xbd59a663	-0.053137194
132	0xbd1ad511	-0.037800852
133	0x3d91ead5	0.07124869
134	0xbd4609fb	-0.048349362
135	0xbd0dbd6f	-0.034604486
136	0xbcf9599a	-0.030438233
137	0xbd48139b	-0.048846822
138	0xbd70fde7	-0.05883589
139	0xbd123e00	-0.03570366
140	0xbb1cfe86	-0.0023955419
141	0x3cf1f931	0.029537769
142	0x3d7c0287	0.061525848
143	0x3d9218a0	0.07133603
144	0xb9dd80a0	-0.00042248238
145	0xbb922f0c	-0.004461175
146	0xbd89772b	-0.067121826
147	0xbd70ee81	-0.058821205
148	0xbd158ed9	-0.036513183
149	0x3d14a84d	0.036293317
150	0xbcff939c	-0.031198315
151	0xbd412743	-0.047156584
152	0xbd363b05	-0.04448988
153	0x3ccb1e5f	0.024794756
154	0xbd1a3bc9	-0.03765467
155	0xbc5d8137	-0.013519577
156	0x3cc72822	0.024311129
157	0xbd4a19f5	-0.04934116
158	0xbd04bace	-0.032404713
159	0xbd245250	-0.04011756
160	0xbd31626d	-0.043306757
161	0xbd07f8e8	-0.03319636
162	0x3d91b881	0.071152695
163	0xbd066d86	-0.032819293
164	0xbcfd1304	-0.030892856
165	0xbd3c4809	-0.045967136
166	0xbc84ad19	-0.01619582
167	0x3d9dd2aa	0.077061966
168	0x3d6e8114	0.058228567
169	0xbd48600c	-0.048919722
170	0xbce9168e	-0.028453138
171	0x3d8115b8	0.06302971
172	0xb9c5c501	-0.00037721547
173	0x3d90d06e	0.07071005
174	0xbd3d8d70	-0.046277463
175	0xbc8bd540	-0.017069459
176	0xbd4636be	-0.04839205
177	0x3d5824a0	0.052769303
178	0xbd1aa5ac	-0.037755653
179	0xbd29b948	-0.041436464
180	0xbd190d8b	-0.03736643
181	0xbcf03283	-0.02932096
182	0xbd170180	-0.036866665
183	0xbd89d42a	-0.0672992
184	0xbb2ad1d1	-0.0026065002
185	0xb8bab480	-8.902792e-05
186	0xbd391553	-0.045186352
187	0xbd8bee0f	-0.068325154
188	0xbd64964d	-0.0558074
189	0xbd0e9a30	-0.034815013
190	0xbd102804	-0.035194412
191	0x3d919260	0.07107997
192	0x3ccb0961	0.024784746
193	0xbbb7a23b	-0.005604056
194	0xbaa79145	-0.0012784383
195	0xbca24416	-0.019807857
196	0xbc6cdf1d	-0.014457491
197	0x3d1faad1	0.038981263
198	0xbd03716a	-0.032090582
199	0x3b3edae0	0.002912216
200	0xbcbcda25	-0.023053238
201	0xbcb95b5c	-0.022626571
202	0xbcf29811	-0.029613527
203	0xbc463cad	-0.012099427
204	0xbb2982e1	-0.0025865363
205	0x3c9b4019	0.018951463
206	0x3d2e442c	0.042545483
207	0x3d3d8e52	0.046278305
208	0xbb8fead4	-0.0043920074
209	0xbbc063d9	-0.005871278
210	0xbca6ce69	-0.020362096
211	0xbc98f19b	-0.018669894
212	0xbc768f1c	-0.015048768
213	0x3d12de98	0.035856813
214	0xbc47a57b	-0.01218545
215	0xbd294c67	-0.04133263
216	0xbca11d17	-0.019667191
217	0x3cd56f75	0.026054123
218	0xbd1f3759	-0.038871143
219	0xbc026290	-0.007958069
220	0x3cdf9103	0.027290827
221	0xbcd98605	-0.026553163
222	0xbc4f96e1	-0.01267025
223	0x3aa8153a	0.0012823709
224	0xbd4a7028	-0.049423367
225	0xbd0c1339	-0.03419802
226	0x3d303c57	0.043026295
227	0xbc715d57	-0.014731727
228	0xbc68a5c7	-0.014199681
229	0xbc83051d	-0.01599365
230	0xbc017f6c	-0.007903915
231	0x3d2c0d08	0.042004615
232	0x3d234985	0.039865036
233	0xbc520464	-0.01281843
234	0xbc0a79a5	-0.008451854
235	0x3d223eb7	0.03961059
236	0xbc038de2	-0.008029433
237	0x3d357df3	0.044309568
238	0xbcdedfd3	-0.027206337
239	0xbbbf1545	-0.005831393
240	0xbca36b8f	-0.019948749
241	0x3d142271	0.03616566
242	0x3c70ac12	0.014689462
243	0xbd687664	-0.05675353
244	0xbd08d1f4	-0.033403352
245	0xbc3efa34	-0.011656333
246	0xbc78a497	-0.01517596
247	0xbcca3970	-0.024685591
248	0xbb2d410e	-0.002643648
249	0xb8d00fa6	-9.921128e-05
250	0xbd6867d9	-0.05673966
251	0xbd113c03	-0.035457622
252	0xbd556e2f	-0.052107032
253	0xbca51451	-0.02015129
254	0xbcb1c48a	-0.021700162
255	0x3d24e8f7	0.040261235

fc2.bias f4 [64]
0	0x3d3e61f8	0.04648015
1	0x3daeffbb	0.085448705
2	0x3d865bcb	0.06560477
3	0x3d57ff45	0.05273368
4	0x3d2d7f71	0.042357866
5	0x3da901ea	0.08252318
6	0x3cb5ba5e	0.022183593
7	0x3d8b2243	0.06793644
8	0x3df3bcfa	0.11901279
9	0x3db3786d	0.08763204
10	0x3e0f4215	0.13990052
11	0x3dea5a63	0.11443021
12	0x3d52592c	0.051354572
13	0x3d80d31b	0.06290265
14	0x3d209952	0.039208718
15	0x3da4aaf4	0.08040419
16	0xbc36b365	-0.011151169
17	0x3d3ded68	0.046368986
18	0x3d0c203a	0.03421042
19	0x3df16d41	0.11788417
20	0x3dc53508	0.096292555
21	0x3c4c90aa	0.0124856625
22	0x3de65fe9	0.11248762
23	0x3e10cb1c	0.1413998
24	0xbb40fc53	-0.0029447272
25	0x3d890791	0.06690896
26	0x3d393634	0.045217708
27	0x3d7007d0	0.0586012
28	0x3d860ba0	0.06545186
29	0x3d8ebdd0	0.069697976
30	0x3d74a900	0.059731483
31	0x3d58b670	0.05290836
32	0x3da8733a	0.08225103
33	0x3d622dcd	0.05521946
34	0x3dad20a6	0.08453493
35	0x3d54a647	0.051916387
36	0x3e01c656	0.12673315
37	0x3cc91d80	0.0245502
38	0x3e0c7426	0.13716182
39	0x3d660c17	0.056163874
40	0x3da634db	0.0811555
41	0x3dc2ada8	0.095057786
42	0xbb04ad86	-0.002024503
43	0x3db9a4a7	0.09064608
44	0x3d453cda	0.048153736
45	0x3d341c70	0.043972433
46	0x3dc58901	0.09645272
47	0x3dd60297	0.10449713
48	0x3e150b2b	0.14555041
49	0x3d2145c0	0.03937316
50	0x3dd98a11	0.10622037
51	0x3db0ca5a	0.086323455
52	0x3d816c3d	0.06319473
53	0x3db4f2ba	0.08835359
54	0x3d91cd5d	0.07119248
55	0x3dd48701	0.103773125
56	0x3dad2add	0.08455441
57	0x3d5fcc8b	0.054638427
58	0x3d5c6210	0.053804457
59	0x3df3a236	0.11896174
60	0x3c846f11	0.016166242
61	0x3d2cc859	0.042183254
62	0x3d4e6028	0.05038467
63	0x3d5296a7	0.051413205

out.weight f4 [1, 64]
0	0x3e5a7f62	0.21337655
1	0xbe771824	-0.24130303
2	0x3ea1cb46	0.31600398
3	0x3e1e1bae	0.15440246
4	0x3e9a75c9	0.30167988
5	0x3e63804c	0.2221691
6	0x3e4d0a44	0.20023447
7	0x3e328b81	0.17436029
8	0xbe87e242	-0.2653981
9	0xbe464767	-0.19363175
10	0xbe521ba8	-0.20518363
11	0xbe8780d4	-0.26465476
12	0x3ea1bc28	0.31588864
13	0x3eaa686a	0.33282787
14	0x3e97fad5	0.29683557
15	0x3e9def16	0.3084647
16	0x3bcb680c	0.0062074717
17	0x3e98df26	0.2985775
18	0x3e10d988	0.14145482
19	0xbe711fba	-0.23547259
20	0xbea1414d	-0.31495133
21	0xbcb9e97a	-0.022694338
22	0xbe41307d	-0.18866153
23	0xbe656d12	-0.22404888
24	0xbb578657	-0.003288647
25	0x3e954979	0.29157618
26	0x3e048c55	0.12944157
27	0xbe80035a	-0.25002557
28	0x3e301912	0.17197064
29	0x3e967f16	0.29393834
30	0x3e7bbb55	0.2458318
31	0x3e907b0d	0.2821888
32	0xbe933d01	-0.2875748
33	0x3eae7b5a	0.34078485
34	0x3e8ad8c5	0.27118507
35	0x3e92e6d3	0.2869173
36	0xbe3d84ec	-0.18507737
37	0x3d8225f7	0.063548975
38	0xbe53e0f7	-0.20691286
39	0x3e88d3d7	0.2672412
40	0x3e9095c3	0.2823926
41	0xbe7c3c0b	-0.2463228
42	0x3e3a9d04	0.18223959
43	0xbe8d2151	-0.2756448
44	0x3d671900	0.056420326
45	0x3e5e3b54	0.2170232
46	0xbe78e002	-0.24304202
47	0xbe78ec2b	-0.24308841
48	0xbe765348	-0.24055207
49	0x3e782953	0.24234514
50	0xbe88b8c9	-0.2670348
51	0xbea61918	-0.3244102
52	0x3ea45047	0.32092497
53	0xbe8e44c5	-0.27786842
54	0x3ea0ce24	0.31407273
55	0xbe906f09	-0.28209713
56	0xbe8ab630	-0.27092123
57	0x3ea25c84	0.3171121
58	0xbdc0f193	-0.094210766
59	0xbe4bbe1f	-0.19896744
60	0x3e8cff52	0.27538544
61	0x3e0433ac	0.12910336
62	0xbe94240f	-0.2893376
63	0x3e89d356	0.2691905

sep_conn.weight f4 [64, 95]
0	0xbdb2a943	-0.0872369
1	0xbd8ec744	-0.06971601
2	0xbd4762b4	-0.048678115
3	0xbd3dce35	-0.046339232
4	0x3c996d11	0.018728765
5	0x3d22a5d4	0.039708927
6	0x3d890ebc	0.066922635
7	0x3b98c859	0.004662555
8	0x3dc1e8a4	0.09468201
9	0x3dbfc688	0.09364039
10	0x3d78e8b5	0.0607688
11	0x3b55ac3d	0.0032603883
12	0xbdbf5f88	-0.09344393
13	0x3d4d6822	0.050148137
14	0xbd2ec7a2	-0.042670853
15	0x3d35f81f	0.04442608
16	0xbc0cafd7	-0.008586845
17	0xbc559984	-0.013037089
18	0x3c961187	0.018318905
19	0x3d635a99	0.055506323
20	0xbcd2bf82	-0.025726084
21	0xbd1201b3	-0.03564615
22	0x3d8b3f35	0.06799165
23	0xbb5bf73b	-0.003356411
24	0x3ca67803	0.020320898
25	0xbd8156e3	-0.063154005
26	0xbd40dac2	-0.047083624
27	0x3dd0f6e7	0.10203343
28	0xbc5948da	-0.013261998
29	0xbcdd98e8	-0.02705045
30	0x3d861387	0.06546693
31	0xbca945d0	-0.020663172
32	0x3c81ae46	0.01583017
33	0xbd0a07ae	-0.03369873
34	0xbd3df23e	-0.0463736
35	0x3d66a1ab	0.056306522
36	0x3d913281	0.07089711
37	0xbcf5d9df	-0.030011116
38	0x3c9a05e9	0.018801646
39	0x3da3843e	0.079842076
40	0xbccc1775	-0.024913529
41	0xbd34cd86	-0.044141315
42	0x3da0ab47	0.078451686
43	0xbd3c7ab6	-0.046015464
44	0x3d9732a1	0.073827036
45	0x3d3acff4	0.045608476
46	0x3c8be1ed	0.017075503
47	0xbdbd3aaa	-0.09239705
48	0xbda18681	-0.07886983
49	0xba36f038	-0.00069785444
50	0xbd4be153	-0.049775433
51	0x3d138a9c	0.03602086
52	0x3d39c36e	0.045352392
53	0x3bd8208c	0.0065956768
54	0xbd8ccb53	-0.068747185
55	0x3d4fa58a	0.05069498
56	0x3d1262ab	0.03573863
57	0xbd2ff2b1	-0.042956058
58	0xbd3ffefe	-0.04687404
59	0xbd80c1e2	-0.0628698
60	0xbc4db815	-0.012556096
61	0xbc7affcb	-0.015319775
62	0xbd899fe7	-0.06719952
63	0xbd188f82	-0.037246235
64	0xbd166dd7	-0.036725845
65	0xbda1dc12	-0.07903303
66	0x3da6fba8	0.08153468
67	0xbcdb129e	-0.026742276
68	0xbcb1c7cf	-0.021701721
69	0xbb935aa8	-0.004496891
70	0x3d35c000	0.04437256
71	0x3dce9fac	0.10089049
72	0xbd103d00	-0.035214424
73	0xbd78d092	-0.060745783
74	0x3c27f0c0	0.01025027
75	0x3c4b0451	0.012391166
76	0x3d5addc8	0.053434163
77	0x3c1dc419	0.009629273
78	0xbd06e5ff	-0.032934185
79	0x3d8d146b	0.0688866
80	0xbdb6338c	-0.088965505
81	0x3b65cc92	0.003506456
82	0x3d68801b	0.056762796
83	0xbcda4e7a	-0.026648749
84	0xbd2b85cb	-0.04187564
85	0xbd4d03f2	-0.05005259
86	0xbd0c6c76	-0.034283124
87	0xbd12d924	-0.035851613
88	0x3d1f143c	0.038837656
89	0xbcf954b4	-0.030435897
90	0x3d0ce59a	0.034398653
91	0x3c5c877c	0.013460036
92	0xbd864ac0	-0.06557226
93	0xbbe9bfac	-0.007133445
94	0x3dc2e1a8	0.09515697
95	0xbd15d1da	-0.036577083
96	0xbdcdc83e	-0.10047959
97	0x3dbf9d6a	0.09356196
98	0x3da694b1	0.081338294
99	0xbdb60ebc	-0.08889529
100	0x3da78602	0.08179857
101	0x3d935654	0.071942
102	0xbbc4fdcf	-0.0060117017
103	0xbd4d3704	-0.050101295
104	0x3db28e77	0.08718579
105	0xbd407b3d	-0.04699253
106	0x3dbe0ab8	0.09279388
107	0x3d4bb38e	0.049731784
108	0x3db9bece	0.09069596
109	0x3d444a33	0.047922324
110	0x3db37219	0.08761997
111	0x3c38105d	0.01123437
112	0x3dc9f92a	0.098619774
113	0x3d1198e8	0.035546213
114	0x3db7e6d6	0.08979575
115	0xbd440900	-0.047860146
116	0x3da71cd1	0.08159793
117	0x3d307eba	0.043089606
118	0x3caed53a	0.021341909
119	0xbc6cf747	-0.014463252
120	0x3c9aace4	0.018881269
121	0xbdabbdd8	-0.08385819
122	0x3db8d0f5	0.090242304
123	0xbbff2dc9	-0.0077874404
124	0x3dc4569a	0.095868304
125	0x3da221ce	0.07916604
126	0xbd989fcd	-0.074523546
127	0x3dcfd6fc	0.10148427
128	0x3d088145	0.033326406
129	0xbd0ddeb6	-0.03463622
130	0x3d72bbc0	0.059261084
131	0xbda616b7	-0.08109801
132	0xbcba1575	-0.02271531
133	0xbdacac1f	-0.08431267
134	0x3d93585e	0.07194589
135	0x3d30b2c5	0.043139238
136	0x3dc0fce2	0.094232336
137	0x3b6ef799	0.0036463498
138	0x3d43a826	0.04776778
139	0xbce5e66d	-0.028063977
140	0xbbb63f22	-0.0055617252
141	0xbba261c5	-0.0049555027
142	0x3d82e6e7	0.063916974
143	0x3d1084aa	0.03528277
144	0xbd50c585	-0.05096962
145	0x3d975209	0.07388694
146	0x3db82aa4	0.08992508
147	0xbcb7dce2	-0.022444192
148	0x3ced3f67	0.028960897
149	0xbd90eba4	-0.07076195
150	0x3d4456fc	0.047934517
151	0x3db38e63	0.087673925
152	0xbd6c1f66	-0.05764713
153	0x3ba49fce	0.005023933
154	0xbd8caa03	-0.06868365
155	0xbcb578a8	-0.02215226
156	0xbce4ff0b	-0.027953645
157	0xbda83984	-0.08214095
158	0x3dc8587f	0.09782504
159	0x3b4544e9	0.0030100888
160	0xbd8e6b57	-0.06954067
161	0x3c85a26d	0.016312802
162	0x3d3c57e7	0.045982268
163	0xbdc8186d	-0.09770284
164	0x3c840372	0.016114924
165	0xbdc81008	-0.09768683
166	0x3cbb7323	0.02288205
167	0x3d93680e	0.07197581
168	0x3d30192e	0.042992763
169	0xbd2417b5	-0.04006167
170	0xbda5fba3	-0.081046365
171	0xbd0d6a95	-0.034525473
172	0xbd78a4e7	-0.060704138
173	0xbca6cddc	-0.020361833
174	0xbdc2e2cd	-0.09515915
175	0x3d49bd32	0.049252696
176	0x3cba8408	0.022768036
177	0xbd94d234	-0.072666556
178	0xbda33ab3	-0.0797018
179	0x3d3fd905	0.046837825
180	0xbd78133d	-0.060565222
181	0x3da78bb6	0.081809446
182	0x3cdf7424	0.02727706
183	0x3da220df	0.07916426
184	0x3dbdaae6	0.09261112
185	0x3d7f4a80	0.062326908
186	0x3d12207e	0.03567552
187	0xbd1f9a23	-0.038965356
188	0x3d5dc793	0.054145407
189	0xbd9530f6	-0.07284729
190	0xbd497802	-0.049186714
191	0xbcf4b301	-0.029870512
192	0x3af5c581	0.0018750877
193	0xbdae95b0	-0.085246444
194	0x3ce7477e	0.028232332
195	0x3d24d373	0.040240716
196	0xbd687f5a	-0.056762077
197	0xbbf6da36	-0.007533337
198	0x3d1d5b66	0.038417242
199	0x3bdfba37	0.0068276185
200	0xbd241881	-0.04006243
201	0x3ac27f23	0.0014838915
202	0x3d21189c	0.03933011
203	0xbb4255e5	-0.0029653248
204	0xbd8359e3	-0.06413629
205	0xbcfbb06a	-0.03072377
206	0xbda06cff	-0.07833289
207	0x3cc3b344	0.023889191
208	0xbdb6b869	-0.08921892
209	0xbc3204c7	-0.010865397
210	0xbc7b5969	-0.015341141
211	0x3cdf90ca	0.02729072
212	0x3d5aa16d	0.053376604
213	0xbd80a6e4	-0.06281832
214	0xbc41ff8f	-0.011840715
215	0x3d2335cd	0.03984623
216	0xbd82b00d	-0.06381235
217	0xbd8e000a	-0.06933601
218	0xbd3cf246	-0.046129487
219	0x3c0ec10a	0.008713016
220	0xbcee28d0	-0.029072195
221	0x3c9a85ac	0.018862568
222	0xbd03829b	-0.032106977
223	0x3d81a999	0.06331176
224	0x3d708d4c	0.0587285
225	0x3ce5e53f	0.028063415
226	0x3dcfec18	0.10152453
227	0xbd8efecc	-0.069821924
228	0x3d50e66e	0.051001005
229	0x3c5e67b1	0.013574527
230	0xbd2ee594	-0.04269941
231	0x3d0b3c4c	0.03399305
232	0xbdace7bb	-0.084426366
233	0xbda920a7	-0.08258181
234	0x3d737c05	0.059444446
235	0x3d6a9393	0.057269644
236	0x3dc5c801	0.09657288
237	0xbdaa2050	-0.08306944
238	0xbd4025d7	-0.046911087
239	0x3dacc0ca	0.08435209
240	0xbcbf48c4	-0.023350127
241	0x3dc1392b	0.09434732
242	0x3cc3b7db	0.02389138
243	0xbd170ed7	-0.036879387
244	0x3d9ab70c	0.07554445
245	0x3ba04e84	0.0048921723
246	0xbd5d2686	-0.053991817
247	0xbda62151	-0.08111823
248	0xbd3cda9d	-0.046106923
249	0x3d761ebd	0.060087908
250	0xbdabd538	-0.083902776
251	0x3d94bae5	0.0726221
252	0xbc21f4ea	-0.009885052
253	0xbd1d0c76	-0.03834196
254	0xbdbc503d	-0.09194992
255	0x3b88d2e6	0.0041755317

sep_conn.bias f4 [64]
0	0x3d25cb85	0.040477294
1	0xbc370bb7	-0.011172227
2	0x3d1d4c61	0.03840292
3	0xbc16f058	-0.009212576
4	0x3dc7286a	0.09724505
5	0xbdb969b0	-0.090533614
6	0x3cb3daef	0.021954982
7	0x3d970f8a	0.07376011
8	0xbda57998	-0.08079833
9	0x3d981540	0.07425928
10	0x3c86df18	0.016463801
11	0x3c4b3e98	0.01240506
12	0x3c7e5fd2	0.015525775
13	0x3d9f0c76	0.077660486
14	0xbcef8508	-0.029238239
15	0x3d6bbb0b	0.057551425
16	0xbdcd75c1	-0.100322254
17	0xbda0d486	-0.07853036
18	0xbd2fe606	-0.042943977
19	0xbaab53c1	-0.0013071225
20	0xbd6bbada	-0.057551242
21	0xbcbc5e16	-0.022994082
22	0xbd0fabb8	-0.035075873
23	0x3d31899c	0.043344125
24	0xbd444a85	-0.04792263
25	0xbdb8ecd5	-0.09029547
26	0x3cc3b844	0.023891576
27	0xbd6c0515	-0.057622034
28	0x3dcb1e86	0.09917931
29	0x3dbc62e6	0.09198551
30	0xbc1949ac	-0.009355944
31	0xbdc815ac	-0.097697586
32	0xbd685fd7	-0.056732025
33	0xbd37d596	-0.044881426
34	0x3afb32ae	0.0019164884
35	0xbb83c524	-0.0040213037
36	0xbdaca5d2	-0.08430065
37	0x3d8fa4c3	0.07013848
38	0x3d5ecec7	0.054396417
39	0x3d56f884	0.052483097
40	0xbb18eff3	-0.002333638
41	0xbdcd86eb	-0.10035499
42	0xbda6512a	-0.081209496
43	0x3d892f2d	0.06698451
44	0xbd9161af	-0.0709871
45	0xbb45f69c	-0.0030206805
46	0xbd357607	-0.044302013
47	0xbd860b31	-0.06545103
48	0x3ceede84	0.029158838
49	0x3dbf91d7	0.093539886
50	0xbc19323a	-0.009350354
51	0xbd30a9ad	-0.043130565
52	0x3dbf7007	0.093475394
53	0x3dba2bde	0.09090398
54	0xbd007840	-0.03136468
55	0xbdcf76ac	-0.10130057
56	0xbd85ee1e	-0.06539558
57	0x3be1563f	0.0068767364
58	0xbdce2281	-0.10065175
59	0x3c1c92ec	0.009556513
60	0xbd6517bb	-0.055930834
61	0xbd31cf49	-0.043410573
62	0x3d52203c	0.051300272
63	0x3c7e716a	0.01552997

bn.weight f4 [64]
0	0x3f800000	1.0
1	0x3f800000	1.0
2	0x3f800000	1.0
3	0x3f800000	1.0
4	0x3f800000	1.0
5	0x3f800000	1.0
6	0x3f800000	1.0
7	0x3f800000	1.0
8	0x3f800000	1.0
9	0x3f800000	1.0
10	0x3f800000	1.0
11	0x3f800000	1.0
12	0x3f800000	1.0
13	0x3f800000	1.0
14	0x3f800000	1.0
15	0x3f800000	1.0
16	0x3f800000	1.0
17	0x3f800000	1.0
18	0x3f800000	1.0
19	0x3f800000	1.0
20	0x3f800000	1.0
21	0x3f800000	1.0
22	0x3f800000	1.0
23	0x3f800000	1.0
24	0x3f800000	1.0
25	0x3f800000	1.0
26	0x3f800000	1.0
27	0x3f800000	1.0
28	0x3f800000	1.0
29	0x3f800000	1.0
30	0x3f800000	1.0
31	0x3f800000	1.0
32	0x3f800000	1.0
33	0x3f800000	1.0
34	0x3f800000	1.0
35	0x3f800000	1.0
36	0x3f800000	1.0
37	0x3f800000	1.0
38	0x3f800000	1.0
39	0x3f800000	1.0
40	0x3f800000	1.0
41	0x3f800000	1.0
42	0x3f800000	1.0
43	0x3f800000	1.0
44	0x3f800000	1.0
45	0x3f800000	1.0
46	0x3f800000	1.0
47	0x3f800000	1.0
48	0x3f800000	1.0
49	0x3f800000	1.0
50	0x3f800000	1.0
51	0x3f800000	1.0
52	0x3f800000	1.0
53	0x3f800000	1.0
54	0x3f800000	1.0
55	0x3f800000	1.0
56	0x3f800000	1.0
57	0x3f800000	1.0
58	0x3f800000	1.0
59	0x3f800000	1.0
60	0x3f800000	1.0
61	0x3f800000	1.0
62	0x3f800000	1.0
63	0x3f800000	1.0

bn.bias f4 [64]
0	0x00000000	0.0
1	0x00000000	0.0
2	0x00000000	0.0
3	0x00000000	0.0
4	0x00000000	0.0
5	0x00000000	0.0
6	0x00000000	0.0
7	0x00000000	0.0
8	0x00000000	0.0
9	0x00000000	0.0
10	0x00000000	0.0
11	0x00000000	0.0
12	0x00000000	0.0
13	0x00000000	0.0
14	0x00000000	0.0
15	0x00000000	0.0
16	0x00000000	0.0
17	0x00000000	0.0
18	0x00000000	0.0
19	0x00000000	0.0
20	0x00000000	0.0
21	0x00000000	0.0
22	0x00000000	0.0
23	0x00000000	0.0
24	0x00000000	0.0
25	0x00000000	0.0
26	0x00000000	0.0
27	0x00000000	0.0
28	0x00000000	0.0
29	0x00000000	0.0
30	0x00000000	0.0
31	0x00000000	0.0
32	0x00000000	0.0
33	0x00000000	0.0
34	0x00000000	0.0
35	0x00000000	0.0
36	0x00000000	0.0
37	0x00000000	0.0
38	0x00000000	0.0
39	0x00000000	0.0
40	0x00000000	0.0
41	0x00000000	0.0
42	0x00000000	0.0
43	0x00000000	0.0
44	0x00000000	0.0
45	0x00000000	0.0
46	0x00000000	0.0
47	0x00000000	0.0
48	0x00000000	0.0
49	0x00000000	0.0
50	0x00000000	0.0
51	0x00000000	0.0
52	0x00000000	0.0
53	0x00000000	0.0
54	0x00000000	0.0
55	0x00000000	0.0
56	0x00000000	0.0
57	0x00000000	0.0
58	0x00000000	0.0
59	0x00000000	0.0
60	0x00000000	0.0
61	0x00000000	0.0
62	0x00000000	0.0
63	0x00000000	0.0

bn.running_mean f4 [64]
0	0x00000000	0.0
1	0x00000000	0.0
2	0x00000000	0.0
3	0x00000000	0.0
4	0x00000000	0.0
5	0x00000000	0.0
6	0x00000000	0.0
7	0x00000000	0.0
8	0x00000000	0.0
9	0x00000000	0.0
10	0x00000000	0.0
11	0x00000000	0.0
12	0x00000000	0.0
13	0x00000000	0.0
14	0x00000000	0.0
15	0x00000000	0.0
16	0x00000000	0.0
17	0x00000000	0.0
18	0x00000000	0.0
19	0x00000000	0.0
20	0x00000000	0.0
21	0x00000000	0.0
22	0x00000000	0.0
23	0x00000000	0.0
24	0x00000000	0.0
25	0x00000000	0.0
26	0x00000000	0.0
27	0x00000000	0.0
28	0x00000000	0.0
29	0x00000000	0.0
30	0x00000000	0.0
31	0x00000000	0.0
32	0x00000000	0.0
33	0x00000000	0.0
34	0x00000000	0.0
35	0x00000000	0.0
36	0x00000000	0.0
37	0x00000000	0.0
38	0x00000000	0.0
39	0x00000000	0.0
40	0x00000000	0.0
41	0x00000000	0.0
42	0x00000000	0.0
43	0x00000000	0.0
44	0x00000000	0.0
45	0x00000000	0.0
46	0x00000000	0.0
47	0x00000000	0.0
48	0x00000000	0.0
49	0x00000000	0.0
50	0x00000000	0.0
51	0x00000000	0.0
52	0x00000000	0.0
53	0x00000000	0.0
54	0x00000000	0.0
55	0x00000000	0.0
56	0x00000000	0.0
57	0x00000000	0.0
58	0x00000000	0.0
59	0x00000000	0.0
60	0x00000000	0.0
61	0x00000000	0.0
62	0x00000000	0.0
63	0x00000000	0.0

bn.running_var f4 [64]
0	0x3f800000	1.0
1	0x3f800000	1.0
2	0x3f800000	1.0
3	0x3f800000	1.0
4	0x3f800000	1.0
5	0x3f800000	1.0
6	0x3f800000	1.0
7	0x3f800000	1.0
8	0x3f800000	1.0
9	0x3f800000	1.0
10	0x3f800000	1.0
11	0x3f800000	1.0
12	0x3f800000	1.0
13	0x3f800000	1.0
14	0x3f800000	1.0
15	0x3f800000	1.0
16	0x3f800000	1.0
17	0x3f800000	1.0
18	0x3f800000	1.0
19	0x3f800000	1.0
20	0x3f800000	1.0
21	0x3f800000	1.0
22	0x3f800000	1.0
23	0x3f800000	1.0
24	0x3f800000	1.0
25	0x3f800000	1.0
26	0x3f800000	1.0
27	0x3f800000	1.0
28	0x3f800000	1.0
29	0x3f800000	1.0
30	0x3f800000	1.0
31	0x3f800000	1.0
32	0x3f800000	1.0
33	0x3f800000	1.0
34	0x3f800000	1.0
35	0x3f800000	1.0
36	0x3f800000	1.0
37	0x3f800000	1.0
38	0x3f800000	1.0
39	0x3f800000	1.0
40	0x3f800000	1.0
41	0x3f800000	1.0
42	0x3f800000	1.0
43	0x3f800000	1.0
44	0x3f800000	1.0
45	0x3f800000	1.0
46	0x3f800000	1.0
47	0x3f800000	1.0
48	0x3f800000	1.0
49	0x3f800000	1.0
50	0x3f800000	1.0
51	0x3f800000	1.0
52	0x3f800000	1.0
53	0x3f800000	1.0
54	0x3f800000	1.0
55	0x3f800000	1.0
56	0x3f800000	1.0
57	0x3f800000	1.0
58	0x3f800000	1.0
59	0x3f800000	1.0
60	0x3f800000	1.0
61	0x3f800000	1.0
62	0x3f800000	1.0
63	0x3f800000	1.0

net.0.weight f4 [64, 95]
0	0x3cd82400	0.026384354
1	0x3c9360da	0.017990518
2	0x3dea8023	0.114502214
3	0x3d4edd95	0.050504286
4	0x3d2c9c24	0.042141095
5	0xbc8a7e87	-0.016906036
6	0x3bf27c3f	0.007400065
7	0xbc93ebbe	-0.018056747
8	0xbbd870a3	-0.006605224
9	0xbe140005	-0.14453132
10	0xbd247c2e	-0.04015749
11	0xbc71ab3b	-0.014750297
12	0xbca6f989	-0.02038266
13	0xbd0c1d8d	-0.03420787
14	0xbb243fac	-0.0025062365
15	0xbc3b0332	-0.011414336
16	0xbd06c492	-0.032902308
17	0xbce9f5b0	-0.028559536
18	0xbd4246cd	-0.047430802
19	0xbcd5a52e	-0.02607974
20	0x3c38faef	0.011290296
21	0x3d8c1877	0.06840604
22	0xbd163d53	-0.036679577
23	0x3d55787e	0.052116863
24	0xbb0a6d31	-0.0021122212
25	0xbc60a50a	-0.013711223
26	0xbce60e81	-0.028083088
27	0x3cd2922c	0.025704466
28	0x3d170e32	0.036878772
29	0xbccdc6cb	-0.025119206
30	0xbd99b138	-0.07504505
31	0x3cfa7eec	0.0305781
32	0xbd539a2d	-0.051660705
33	0xba17da5e	-0.0005792732
34	0xbcdb10ac	-0.026741348
35	0x3dad44b3	0.08460369
36	0xbce59371	-0.028024407
37	0xbd8bf522	-0.06833865
38	0xbd5c8092	-0.05383355
39	0xbd6bda6d	-0.057581354
40	0xbcc800f9	-0.024414526
41	0xbcbc4fb0	-0.022987217
42	0x3af29745	0.0018508217
43	0xbd268b8a	-0.04066042
44	0x3c1b33b8	0.00947278
45	0xbd952220	-0.072818995
46	0xbdaa1797	-0.08305281
47	0xbd1b864f	-0.037969884
48	0xbd6f5c68	-0.058437735
49	0xbdd8a28e	-0.1057788
50	0x3d9b408e	0.07580672
51	0xbcf27a6f	-0.029599397
52	0xbd02ab88	-0.031901866
53	0xbc9b0501	-0.018923284
54	0x3cc18564	0.023623176
55	0xbc480d65	-0.012210225
56	0xbd07f5f9	-0.033193562
57	0xbbd75ce2	-0.006572352
58	0x3c3886a2	0.011262568
59	0xbc23b6db	-0.009992327
60	0xbc27322d	-0.010204834
61	0xbcb017e2	-0.021495763
62	0xbc1ecff9	-0.009693139
63	0x3b37109f	0.002793349
64	0x3c86a033	0.01643381
65	0xbcae7bf3	-0.021299338
66	0x39060969	0.00012782741
67	0xbbadb0e0	-0.005300626
68	0x373e1d12	1.1331651e-05
69	0xb97fdfd8	-0.00024402083
70	0x3ab07dae	0.001346519
71	0x3b1291c6	0.002236472
72	0xbca618fb	-0.020275583
73	0xbcb5d364	-0.022195525
74	0x3c7f0d76	0.015567174
75	0x3cb874c0	0.022516608
76	0xbc922c86	-0.017843496
77	0xbbce7c46	-0.0063014356
78	0x3a219f99	0.00061654445
79	0xbc8a93d7	-0.016916199
80	0xbc40b27b	-0.011761303
81	0x3958c030	0.0002067096
82	0xbbc9a650	-0.006153859
83	0x3cd46281	0.025925877
84	0xbc6801b4	-0.014160562
85	0x3bf485b1	0.0074622263
86	0x3c3f8cdb	0.011691297
87	0x3aa61c6b	0.0012673264
88	0xbd512a53	-0.051065754
89	0xbc36ce87	-0.011157638
90	0x3be41865	0.006960916
91	0xbc57ed66	-0.013179159
92	0x3b7e0e9f	0.003876604
93	0xbc9ebcb4	-0.01937709
94	0x3b1ae920	0.0023637488
95	0xbd237af8	-0.039912194
96	0x3d13cad4	0.036082104
97	0xbd737796	-0.059440218
98	0xbc93be36	-0.018035036
99	0x3b228ac6	0.0024801954
100	0xbd0485d8	-0.032354206
101	0xbc74b06e	-0.014934642
102	0x3d26c1d7	0.040712204
103	0xbbc55da2	-0.006023125
104	0xbc7d8611	-0.015473858
105	0x3b20738a	0.002448293
106	0x3b4a765e	0.0030893306
107	0x3a27be54	0.00063989055
108	0x3b83907e	0.0040150275
109	0x3b81b48a	0.0039582895
110	0xbc0df4fb	-0.008664365
111	0x3b2b1f82	0.002611131
112	0x3bb051e1	0.0053808545
113	0xbbc3a4a3	-0.005970554
114	0x3b449461	0.0029995667
115	0xbc4fa684	-0.012673978
116	0xbb32b93e	-0.0027271057
117	0x3d1d3c6a	0.038387693
118	0xbb4c57a9	-0.003118018
119	0x3bb8360b	0.005621677
120	0xbbf0c5f4	-0.0073478166
121	0xbb4a525b	-0.0030871842
122	0xbbbd38c9	-0.0057745916
123	0xbce3d046	-0.027809273
124	0x3ba90ce1	0.005159006
125	0x3d230394	0.039798334
126	0x3c7f4b69	0.015581944
127	0x3c2e0cad	0.010623139
128	0x3a762f24	0.000939118
129	0x3c009224	0.007847343
130	0xbc9bf50e	-0.01903775
131	0x3b9a0b4a	0.004701053
132	0x3ba85804	0.0051374454
133	0x3c165ca1	0.009177358
134	0x3b6a654c	0.0035765944
135	0x3c020a0d	0.007936967
136	0xbcd5b98e	-0.026089456
137	0x3ae91d24	0.0017785174
138	0x3cdf17db	0.027233055
139	0xbbca0425	-0.006165045
140	0x3be46578	0.006970104
141	0x3d113753	0.035453152
142	0x3bf4c5e3	0.007469879
143	0x3cbfd3df	0.023416458
144	0x3c32d809	0.010915765
145	0x3bd2d80c	0.006434446
146	0x3c2ba065	0.010475253
147	0xb9ecd17b	-0.00045169503
148	0x3c4b3a23	0.012403998
149	0xbc8dbc4a	-0.017301697
150	0xbb9db3bd	-0.0048126862
151	0x3c23ab90	0.009989634
152	0x3c0ab920	0.008466989
153	0xbc38136f	-0.011235102
154	0x3c1a5739	0.00942021
155	0x3ba3447d	0.0049825297
156	0x3c1fbf5b	0.009750213
157	0xbb985da1	-0.0046498333
158	0x3ace591f	0.0015743113
159	0xb9885cc2	-0.0002600905
160	0x3ba217db	0.0049466914
161	0x3c0d4557	0.008622489
162	0x3ad3a4b6	0.001614711
163	0x3825ede7	3.956063e-05
164	0x3a77108c	0.0009424768
165	0xb9d12967	-0.00039894434
166	0x3b7f5b7b	0.0038964439
167	0xbb0bec19	-0.0021350442
168	0xbb37ac0e	-0.0028026137
169	0x3aa8e6ba	0.0012886145
170	0xbc1bc207	-0.009506709
171	0xb9aef804	-0.00033372652
172	0xbbcc41c6	-0.0062334267
173	0x3c1ee9df	0.009699314
174	0x3c30d675	0.010793318
175	0x3bf90c08	0.007600311
176	0x3c26c159	0.010177934
177	0x3ba350e9	0.0049840105
178	0x3a71428f	0.00092033384
179	0x3ba56dc7	0.005048487
180	0xb98523be	-0.00025394367
181	0x3c3c71f2	0.011501776
182	0x3b497527	0.0030739994
183	0x3bba47f4	0.005684847
184	0xbb90b75c	-0.0044163894
185	0x3c161d9e	0.009162335
186	0x3b9f7be2	0.004867063
187	0xbd6a740c	-0.057239577
188	0x3bd47e94	0.006484816
189	0xbb307f88	-0.0026931483
190	0x3b08945e	0.0020840387
191	0xbb4f6d74	-0.0031650933
192	0x3aded9fd	0.0017002221
193	0x3a4fc5e4	0.00079259113
194	0x3a955e9b	0.0011395992
195	0x3b02545f	0.0019886715
196	0x3a627744	0.0008638988
197	0xbb0f3e00	-0.0021857023
198	0x3a78908b	0.0009481988
199	0x3adf3844	0.0017030318
200	0x3a05e3b2	0.00051074766
201	0x384bd68a	4.8598777e-05
202	0x390d3600	0.00013466924
203	0x3823a265	3.901347e-05
204	0x393842e1	0.00017572522
205	0x390b08c7	0.00013259343
206	0x39afadff	0.00033508238
207	0x38a3074e	7.773806e-05
208	0x39993be8	0.00029227068
209	0x3a8a5777	0.0010554631
210	0x3b257274	0.0025245221
211	0x39a81a56	0.0003206308
212	0xbadf3440	-0.0017029122
213	0x3ab8d6b8	0.0014102077
214	0xb530c02e	-6.584477e-07
215	0x3a09d44f	0.00052577717
216	0xba974433	-0.0011540711
217	0xb8da454e	-0.00010407959
218	0x3ba8b1a8	0.0051481314
219	0x3948e7ba	0.00019159811
220	0x3a0de5a2	0.0005412941
221	0x39801d79	0.0002443602
222	0x3918e601	0.00014581533
223	0xb70b4abb	-8.302445e-06
224	0x3aab6aef	0.0013078133
225	0x3b0e94e7	0.0021756233
226	0x392d4ca3	0.00016527115
227	0x3932cd5e	0.00017051908
228	0x39ccd032	0.0003906503
229	0x39ec1280	0.0004502721
230	0x38b5c135	8.66674e-05
231	0x3af7da5c	0.0018909681
232	0x3a09f29b	0.0005262286
233	0x39e06ba0	0.00042804796
234	0x392707ce	0.00015929269
235	0x3ad65d8a	0.0016354781
236	0x3aa5a8d7	0.0012638819
237	0x38f7d041	0.00011816668
238	0xbaf391b7	-0.0018582855
239	0x3a8e736a	0.0010868136
240	0x3a9f4e73	0.0012154117
241	0x3a873d8c	0.0010318025
242	0x3a14486f	0.00056565454
243	0x3959a78e	0.00020757152
244	0xbc1ad69d	-0.009450582
245	0xb8aed25a	-8.3361476e-05
246	0xb850ff01	-4.9828555e-05
247	0x391dbca8	0.00015042967
248	0xb8ff0781	-0.00012160745
249	0x388133b4	6.16083e-05
250	0xb764c1be	-1.3634968e-05
251	0x38e29e9c	0.00010806063
252	0x39161347	0.00014312296
253	0x38601bb2	5.3431555e-05
254	0x383756da	4.3711487e-05
255	0x38612947	5.3682623e-05

net.0.bias f4 [64]
0	0xbdf3606b	-0.11883625
1	0x3d1d1d6f	0.03835815
2	0xbbe9714b	-0.0071241013
3	0x3dd9a087	0.10626321
4	0x3dc9e596	0.09858243
5	0xbddfcbd4	-0.10927549
6	0x3dd91d08	0.106012404
7	0x3bcd6ebf	0.0062693055
8	0x3de4602a	0.11151154
9	0x3df0f66c	0.11765751
10	0x3e0dca18	0.13846624
11	0x3d3ea978	0.046548337
12	0x3bf2d93a	0.0074111493
13	0xbe2c0b5c	-0.16801208
14	0xbe0a8a0a	-0.1352922
15	0xbe2eb036	-0.17059407
16	0xbcd592e9	-0.026071029
17	0x3d0b0146	0.03393676
18	0x3e09f00a	0.13470474
19	0x3d7505ae	0.05981987
20	0x3dc88d80	0.09792614
21	0xbe0ae4ea	-0.13563886
22	0x3df9cfd4	0.12197843
23	0x3e091d1e	0.13390014
24	0x3d6d3bab	0.057918232
25	0xbe0b1ef2	-0.13586023
26	0x3d7bea6e	0.061502866
27	0x3b0f9700	0.0021910071
28	0xbdffeeb3	-0.124967
29	0x3ded7e12	0.11596312
30	0x3e21ceef	0.15801595
31	0x3e142478	0.14467037
32	0x3e0af982	0.13571742
33	0x3e0fc30b	0.14039247
34	0xbd6ec760	-0.058295608
35	0x3d63d294	0.055620745
36	0x3d88c90f	0.06678974
37	0x3ccda587	0.025103344
38	0x3dec0545	0.115244426
39	0xbe19c5d7	-0.15016876
40	0xbd9bd55b	-0.07609054
41	0x3da243cc	0.079230875
42	0x3dd497e0	0.1038053
43	0xbdd57991	-0.104235776
44	0xbb56b5c0	-0.003276214
45	0xbdc30bfc	-0.0952377
46	0x3bac77aa	0.0052632885
47	0x3d467975	0.048455674
48	0x3d192053	0.037384342
49	0xbe052b0b	-0.13004701
50	0x3e140fc3	0.14459138
51	0x3df71016	0.12063615
52	0x3e08ae71	0.13347794
53	0x3d92ced1	0.07168353
54	0x3db7a7fb	0.089675866
55	0x3d9202f0	0.071294665
56	0xbbdfca39	-0.0068295267
57	0x3ab72869	0.0013973835
58	0x3dd71086	0.105011985
59	0x3d9c5667	0.076336674
60	0x3e3333b9	0.175002
61	0x3b89493b	0.004189638
62	0x3cb1baa2	0.021695439
63	0xbdcb961a	-0.09940739

net.3.weight f4 [64, 64]
0	0x3d270ca0	0.040783525
1	0xbc27b3c5	-0.0102357315
2	0xb9d53691	-0.0004066718
3	0xbd04edfd	-0.032453526
4	0xbca45dd8	-0.02006428
5	0x3d69d01a	0.057083227
6	0xbca28bf0	-0.019842118
7	0xbc89ca9e	-0.016820248
8	0xbcb05746	-0.02152599
9	0xbd25a0e2	-0.040436633
10	0xbd1d9b14	-0.038477972
11	0xbcdae370	-0.026719779
12	0xbb10ca08	-0.0022093076
13	0x3cff0ed1	0.031134995
14	0x3d8077f5	0.0627288
15	0x3d6f0cdb	0.05836187
16	0xbaa97c3d	-0.0012930703
17	0xbb8c9c58	-0.0042910986
18	0xbd165f5e	-0.036712043
19	0xbd16603e	-0.036712877
20	0xbcbf2e9c	-0.023337655
21	0x3d315862	0.04329718
22	0xbcbe8c5a	-0.023260284
23	0xbce4b667	-0.027919007
24	0xbceab552	-0.028650913
25	0x3cca5263	0.024697488
26	0xbcb7914b	-0.022408148
27	0xbc351698	-0.01105275
28	0x3cd30ed2	0.025763903
29	0xbcfcb2ad	-0.030846918
30	0xbca40afc	-0.020024769
31	0xbcf3d370	-0.029763907
32	0xbcb9b6e7	-0.022670222
33	0xbc9da2e4	-0.019242711
34	0x3d6e4236	0.058168612
35	0xbce2bee1	-0.027678909
36	0xbcb0166b	-0.021495065
37	0xbcf5e0f9	-0.030014502
38	0xbc893d6d	-0.016752923
39	0x3d7c0453	0.06152756
40	0x3d2d0f1c	0.042250738
41	0xbcc9a87f	-0.024616478
42	0xbcad117b	-0.0211265
43	0x3d588370	0.052859724
44	0xba7019c0	-0.00091591105
45	0x3d723cb4	0.059139922
46	0xbcf55649	-0.02994837
47	0xbc454fee	-0.0120429825
48	0xbd172f36	-0.03691026
49	0x3d1fef09	0.03904632
50	0xbcb7f667	-0.022456361
51	0xbcd188ed	-0.025577987
52	0xbce9e111	-0.028549703
53	0xbcc60d32	-0.024176214
54	0xbd210a18	-0.039316267
55	0xbd19b50e	-0.037526183
56	0xbb18febd	-0.0023345195
57	0xb9928f56	-0.00027954084
58	0xbcee26e2	-0.029071275
59	0xbd2dfdf4	-0.042478517
60	0xbd0f2087	-0.03494313
61	0xbcf65506	-0.03006984
62	0xbcaee74d	-0.021350527
63	0x3d741586	0.05959084
64	0xbba5f380	-0.005064428
65	0x3ca348b5	0.01993213
66	0x3a088ab5	0.0005208657
67	0x3d7f4b94	0.062327936
68	0x3d6eda7f	0.058313843
69	0xbccfae02	-0.025351528
70	0x3d7d094f	0.061776455
71	0x3cfb122a	0.03064831
72	0x3db4a948	0.0882135
73	0x3d88427b	0.06653305
74	0x3d9a59ef	0.07536685
75	0x3d9e2171	0.07721222
76	0x3b3882e4	0.0028154189
77	0xbb9229f9	-0.00446057
78	0xbcbba2c5	-0.022904763
79	0xbd034c0e	-0.032054953
80	0xb92e4d15	-0.00016622648
81	0x3b1f30fc	0.0024290672
82	0x3d6b2639	0.0574095
83	0x3d9795c5	0.07401613
84	0x3d3f7e33	0.046751212
85	0xbc5f4d79	-0.013629311
86	0x3d48ea7f	0.049051758
87	0x3dae9287	0.085240416
88	0x3d44584d	0.047935773
89	0xbca83439	-0.020532714
90	0x3d84ede3	0.06490686
91	0x3d2d4423	0.04230131
92	0xbcc589ab	-0.024113497
93	0x3d54a7c1	0.051917795
94	0x3db432bb	0.087987386
95	0x3d973450	0.07383025
96	0x3d7b7a89	0.061396156
97	0x3d9ae79c	0.07563707
98	0xbce6697a	-0.028126467
99	0x3d8b46ea	0.06800635
100	0x3daa929d	0.083287455
101	0x3d966878	0.073441446
102	0x3d39d3bb	0.045367938
103	0xbcf91e87	-0.030410064
104	0xbc953403	-0.018213278
105	0x3d879f5f	0.066221945
106	0x3d9ea304	0.077459365
107	0xbcaea438	-0.02131854
108	0x3a2fef52	0.0006711382
109	0xbcd29884	-0.02570749
110	0x3d9f58b7	0.07780593
111	0x3d4ecbc0	0.05048728
112	0x3d466aa5	0.048441548
113	0xbcccf529	-0.025019245
114	0x3d839034	0.06423989
115	0x3d6e92d7	0.058245506
116	0x3d9a926f	0.07547461
117	0x3d6f3ddf	0.058408614
118	0x3d85f379	0.06540579
119	0x3da67e65	0.081295766
120	0x3b24d657	0.002515217
121	0x3a6da0d5	0.00090647984
122	0x3db0381b	0.08604451
123	0x3d89ecb4	0.06734601
124	0x3d84df8a	0.06487949
125	0x3da362ac	0.079778045
126	0x3d922d88	0.07137591
127	0xbce69ebf	-0.028151868
128	0x3d18a2db	0.037264686
129	0xbc2eb4e5	-0.010663246
130	0xba782441	-0.00094658515
131	0xbd59a663	-0.053137194
132	0xbd1ad511	-0.037800852
133	0x3d91ead5	0.07124869
134	0xbd4609fb	-0.048349362
135	0xbd0dbd6f	-0.034604486
136	0xbcf9599a	-0.030438233
137	0xbd48139b	-0.048846822
138	0xbd70fde7	-0.05883589
139	0xbd123e00	-0.03570366
140	0xbb1cfe86	-0.0023955419
141	0x3cf1f931	0.029537769
142	0x3d7c0287	0.061525848
143	0x3d9218a0	0.07133603
144	0xb9dd80a0	-0.00042248238
145	0xbb922f0c	-0.004461175
146	0xbd89772b	-0.067121826
147	0xbd70ee81	-0.058821205
148	0xbd158ed9	-0.036513183
149	0x3d14a84d	0.036293317
150	0xbcff939c	-0.031198315
151	0xbd412743	-0.047156584
152	0xbd363b05	-0.04448988
153	0x3ccb1e5f	0.024794756
154	0xbd1a3bc9	-0.03765467
155	0xbc5d8137	-0.013519577
156	0x3cc72822	0.024311129
157	0xbd4a19f5	-0.04934116
158	0xbd04bace	-0.032404713
159	0xbd245250	-0.04011756
160	0xbd31626d	-0.043306757
161	0xbd07f8e8	-0.03319636
162	0x3d91b881	0.071152695
163	0xbd066d86	-0.032819293
164	0xbcfd1304	-0.030892856
165	0xbd3c4809	-0.045967136
166	0xbc84ad19	-0.01619582
167	0x3d9dd2aa	0.077061966
168	0x3d6e8114	0.058228567
169	0xbd48600c	-0.048919722
170	0xbce9168e	-0.028453138
171	0x3d8115b8	0.06302971
172	0xb9c5c501	-0.00037721547
173	0x3d90d06e	0.07071005
174	0xbd3d8d70	-0.046277463
175	0xbc8bd540	-0.017069459
176	0xbd4636be	-0.04839205
177	0x3d5824a0	0.052769303
178	0xbd1aa5ac	-0.037755653
179	0xbd29b948	-0.041436464
180	0xbd190d8b	-0.03736643
181	0xbcf03283	-0.02932096
182	0xbd170180	-0.036866665
183	0xbd89d42a	-0.0672992
184	0xbb2ad1d1	-0.0026065002
185	0xb8bab480	-8.902792e-05
186	0xbd391553	-0.045186352
187	0xbd8bee0f	-0.068325154
188	0xbd64964d	-0.0558074
189	0xbd0e9a30	-0.034815013
190	0xbd102804	-0.035194412
191	0x3d919260	0.07107997
192	0x3ccb0961	0.024784746
193	0xbbb7a23b	-0.005604056
194	0xbaa79145	-0.0012784383
195	0xbca24416	-0.019807857
196	0xbc6cdf1d	-0.014457491
197	0x3d1faad1	0.038981263
198	0xbd03716a	-0.032090582
199	0x3b3edae0	0.002912216
200	0xbcbcda25	-0.023053238
201	0xbcb95b5c	-0.022626571
202	0xbcf29811	-0.029613527
203	0xbc463cad	-0.012099427
204	0xbb2982e1	-0.0025865363
205	0x3c9b4019	0.018951463
206	0x3d2e442c	0.042545483
207	0x3d3d8e52	0.046278305
208	0xbb8fead4	-0.0043920074
209	0xbbc063d9	-0.005871278
210	0xbca6ce69	-0.020362096
211	0xbc98f19b	-0.018669894
212	0xbc768f1c	-0.015048768
213	0x3d12de98	0.035856813
214	0xbc47a57b	-0.01218545
215	0xbd294c67	-0.04133263
216	0xbca11d17	-0.019667191
217	0x3cd56f75	0.026054123
218	0xbd1f3759	-0.038871143
219	0xbc026290	-0.007958069
220	0x3cdf9103	0.027290827
221	0xbcd98605	-0.026553163
222	0xbc4f96e1	-0.01267025
223	0x3aa8153a	0.0012823709
224	0xbd4a7028	-0.049423367
225	0xbd0c1339	-0.03419802
226	0x3d303c57	0.043026295
227	0xbc715d57	-0.014731727
228	0xbc68a5c7	-0.014199681
229	0xbc83051d	-0.01599365
230	0xbc017f6c	-0.007903915
231	0x3d2c0d08	0.042004615
232	0x3d234985	0.039865036
233	0xbc520464	-0.01281843
234	0xbc0a79a5	-0.008451854
235	0x3d223eb7	0.03961059
236	0xbc038de2	-0.008029433
237	0x3d357df3	0.044309568
238	0xbcdedfd3	-0.027206337
239	0xbbbf1545	-0.005831393
240	0xbca36b8f	-0.019948749
241	0x3d142271	0.03616566
242	0x3c70ac12	0.014689462
243	0xbd687664	-0.05675353
244	0xbd08d1f4	-0.033403352
245	0xbc3efa34	-0.011656333
246	0xbc78a497	-0.01517596
247	0xbcca3970	-0.024685591
248	0xbb2d410e	-0.002643648
249	0xb8d00fa6	-9.921128e-05
250	0xbd6867d9	-0.05673966
251	0xbd113c03	-0.035457622
252	0xbd556e2f	-0.052107032
253	0xbca51451	-0.02015129
254	0xbcb1c48a	-0.021700162
255	0x3d24e8f7	0.040261235

net.3.bias f4 [64]
0	0x3d3e61f8	0.04648015
1	0x3daeffbb	0.085448705
2	0x3d865bcb	0.06560477
3	0x3d57ff45	0.05273368
4	0x3d2d7f71	0.042357866
5	0x3da901ea	0.08252318
6	0x3cb5ba5e	0.022183593
7	0x3d8b2243	0.06793644
8	0x3df3bcfa	0.11901279
9	0x3db3786d	0.08763204
10	0x3e0f4215	0.13990052
11	0x3dea5a63	0.11443021
12	0x3d52592c	0.051354572
13	0x3d80d31b	0.06290265
14	0x3d209952	0.039208718
15	0x3da4aaf4	0.08040419
16	0xbc36b365	-0.011151169
17	0x3d3ded68	0.046368986
18	0x3d0c203a	0.03421042
19	0x3df16d41	0.11788417
20	0x3dc53508	0.096292555
21	0x3c4c90aa	0.0124856625
22	0x3de65fe9	0.11248762
23	0x3e10cb1c	0.1413998
24	0xbb40fc53	-0.0029447272
25	0x3d890791	0.06690896
26	0x3d393634	0.045217708
27	0x3d7007d0	0.0586012
28	0x3d860ba0	0.06545186
29	0x3d8ebdd0	0.069697976
30	0x3d74a900	0.059731483
31	0x3d58b670	0.05290836
32	0x3da8733a	0.08225103
33	0x3d622dcd	0.05521946
34	0x3dad20a6	0.08453493
35	0x3d54a647	0.051916387
36	0x3e01c656	0.12673315
37	0x3cc91d80	0.0245502
38	0x3e0c7426	0.13716182
39	0x3d660c17	0.056163874
40	0x3da634db	0.0811555
41	0x3dc2ada8	0.095057786
42	0xbb04ad86	-0.002024503
43	0x3db9a4a7	0.09064608
44	0x3d453cda	0.048153736
45	0x3d341c70	0.043972433
46	0x3dc58901	0.09645272
47	0x3dd60297	0.10449713
48	0x3e150b2b	0.14555041
49	0x3d2145c0	0.03937316
50	0x3dd98a11	0.10622037
51	0x3db0ca5a	0.086323455
52	0x3d816c3d	0.06319473
53	0x3db4f2ba	0.08835359
54	0x3d91cd5d	0.07119248
55	0x3dd48701	0.103773125
56	0x3dad2add	0.08455441
57	0x3d5fcc8b	0.054638427
58	0x3d5c6210	0.053804457
59	0x3df3a236	0.11896174
60	0x3c846f11	0.016166242
61	0x3d2cc859	0.042183254
62	0x3d4e6028	0.05038467
63	0x3d5296a7	0.051413205
