bestclf/yaleb/y02.pth (torch, 343163 bytes, 16 tensors)

fc1.weight f4 [75, 504]
-0.0823407 -0.10395479 -0.068323046 -0.021535583 -0.060950924 -0.07601362 -0.013542202 -0.013699708
0.011959602 0.023227548 -0.0076932637 -0.009758608 -0.0031010828 -0.0186186 -0.027817685 0.000826103
0.018709876 -0.018733444 -0.066125855 -0.06173747 -0.12973484 -0.08755122 -0.0670063 -0.09138495
-0.0054749222 -0.0052818954 0.019128101 0.025227752 0.027868904 0.032851804 -0.048012976 -0.02418519
-0.038802266 -0.027467802 -0.048088685 -0.023454895 -0.012283823 -0.0036855012 0.013798028 -0.053912282
-0.07880812 -0.081245996 -0.07651785 0.025903517 0.04284737 0.019466331 0.0601307 0.12026591
0.1545519 0.1512445 0.043364648 -0.0188439 -0.043114036 -0.0442188 -0.036575075 0.02955296
0.083690904 0.095511846 0.09071198 0.061174944 0.05578637 0.023489235 -0.0327228 0.060429912
0.07734891 0.032315694 0.03381808 0.040829144 0.02041706 0.049213476 0.08611053 0.12595183
0.018339682 0.048790824 0.027699292 0.04149566 0.058912266 -0.069603465 0.0013382734 0.015119898
-0.046666402 -0.0043402915 0.019224433 0.014431691 0.05957711 0.0067894463 -0.06314112 0.019549036
0.034682695 -0.0058438512 0.04296527 -0.0049475967 -0.02410111 -0.04941138 0.06180012 0.050649818
-0.061399337 -0.20816512 -0.10878738 -0.017895598 0.013651575 0.0008291116 0.00878544 -0.034547634
0.010557407 0.0744902 0.048008833 0.08176902 -0.07394362 0.031704728 0.08781555 0.014886555
0.05667934 0.03411721 -0.01397092 0.0049911956 0.028672984 -0.13297287 -0.10427423 0.06710685
0.039212015 0.052056104 0.15897378 0.15218021 -0.07027058 0.0155301895 0.05823817 0.019789042
0.03137295 -0.068434 0.014346955 0.04476512 0.014106965 0.095407 0.102157146 0.18578333
-0.017854609 0.05139097 -0.059305143 0.04816116 -0.03915871 -0.08318186 0.105222575 0.101488926
0.07581567 0.07910765 0.028708767 0.0050995336 -0.05080747 -0.012880306 -0.007721774 -0.024905656
0.011475257 -0.060768757 0.06109046 0.102878034 0.060219023 -0.0021277028 -0.02133857 -0.008688648
-0.0473965 -0.047914315 -0.060655814 0.008089227 -0.017890105 0.01953567 0.05584339 0.03329594
0.07259414 0.04125094 -0.058921088 0.0069143786 0.0044308295 0.03627605 0.064934276 0.09426748
0.025977492 0.038481288 -0.045751605 -0.12914205 -0.018999051 -0.048651997 -0.019451695 0.043374944
0.04859692 0.0687334 -0.014611959 0.013511545 0.102549136 0.05167209 0.03860354 -0.011441883
-0.009975061 -0.019487433 -0.045794256 -0.0012402574 0.0084791025 -0.034140795 0.019640582 0.040648423
-0.058963004 -0.11701891 -0.055158336 -0.03824851 -0.015390962 0.03602897 0.052241303 0.019474693
0.049917195 0.06300923 -0.0035345221 -0.016013024 -0.011879893 0.011310733 0.0010403316 -0.0005986354
0.04160041 -0.049964573 0.026468698 -0.010852157 0.07609486 -0.020313548 -0.0265869 -0.08635052
-0.06362113 -0.09942364 -0.043271534 -0.03539275 0.029900532 0.06543151 0.043209963 0.025467727
-0.011300127 -0.008841428 0.028629215 0.017432107 0.023647206 0.03243557 0.044531737 0.010016024
0.0337476 -0.01871623 -0.05500003 -0.08523562 -0.0059435884 0.025336994 0.024729982 -0.03831304
0.028083218 0.02497402 0.06175511 -0.00864678 0.014036863 -0.017105462 -0.05285016 -0.037458636
00000000: 3ea2 a8bd 40e6 d4bd f4ec 8bbd 646b b0bc
00000010: ada7 79bd 07ad 9bbd 1de0 5dbc bd74 60bc
00000020: 35f2 433c b347 be3c c617 fcbb 92e2 1fbc
00000030: 893b 4bbb 0986 98bc eae1 e3bc d58e 583a
00000040: 7445 993c e176 99bc fe6c 87bd 6ee0 7cbd
00000050: 36d9 04be 0e4e b3bd 993a 89bd 0828 bbbd
00000060: fa66 b3bb c013 adbb 89b2 9c3c 6eaa ce3c
00000070: 544d e43c 9d8f 063d 41a9 44bd 0520 c6bc
00000080: 20ef 1ebd 2804 e1bc a4f8 44bd 7b24 c0bc
00000090: 1742 49bc 7388 71bb 2011 623c 20d3 5cbd
000000a0: 2766 a1bd 4d64 a6bd 64b5 9cbd 9d33 d43c
000000b0: b980 2f3d db77 9f3c 9c4b 763d f94d f63d
000000c0: da42 1e3e d7df 1a3e 219f 313d 865e 9abc
000000d0: 5898 30bd c61e 35bd bfcf 15bd 0d19 f23c
000000e0: 2366 ab3d b79b c33d 34c7 b93d 9492 7a3d
000000f0: 4080 643d 7f6c c03c 5808 06bd 5b85 773d
00000100: 1b69 9e3d 765d 043d d484 0a3d 763c 273d
00000110: ae41 a73c 1294 493d b85a b03d 84f9 003e
00000120: 1a3d 963c e3d8 473d a0e9 e23c 5af7 293d
00000130: fd4d 713d 438c 8ebd 0169 af3a 73b9 773c
00000140: 4525 3fbd 0139 8ebb 8f7c 9d3c e672 6c3c
00000150: 2107 743d 017a de3b 2250 81bd 4d25 a03c
00000160: 710f 0e3d c77d bfbb 5afc 2f3d 731f a2bb
00000170: b16f c5bc 9663 4abd 1f22 7d3d 2f76 4f3d
00000180: df7d 7bbd 3d29 55be ebcb debd ca99 92bc
00000190: dbaa 5f3c bd58 593a cef0 0f3c d281 0dbd
000001a0: f9f8 2c3c 518e 983d e9a4 443d 8476 a73d
000001b0: c16f 97bd d1dc 013d a4d8 b33d bde6 733c
000001c0: 9828 683d 7dbe 0b3d 49e6 64bc 2f8d a33b
000001d0: 9be3 ea3c 0a2a 08be ba8d d5bd 516f 893d
000001e0: c79c 203d c838 553d 06ca 223e 21d5 1b3e
000001f0: 06ea 8fbd 5672 7e3c 268b 6e3d a11c a23c
00000200: ec80 003d 2027 8cbd 7e0f 6b3c a15b 373d
00000210: e620 673c bf64 c33d c437 d13d fc3d 3e3e
00000220: d443 92bc 567f 523d f3e9 72bd a344 453d
00000230: e264 20bd 405b aabd ef7e d73d 6dd9 cf3d
00000240: 3f45 9b3d 3103 a23d a62e eb3c fd19 a73b
00000250: 7e1b 50bd eb07 53bc ef06 fdbb f206 ccbc
00000260: b702 3c3c a9e8 78bd fd39 7a3d b8b1 d23d
00000270: 39a8 763d ee70 0bbb 3ace aebc d55a 0ebc
00000280: d522 42bd cd41 44bd 3b72 78bd ad88 043c
00000290: 458e 92bc 4509 a03c 0abc 643d 5361 083d
000002a0: 3dac 943d bff6 283d 3d57 71bd 0392 e23b
000002b0: 7e30 913b 3296 143d 43fc 843d 4f0f c13d
000002c0: c0ce d43c 8e9e 1d3d 0966 3bbd d03d 04be
000002d0: e6a3 9bbc 5147 47bd 2959 9fbc eda9 313d
000002e0: 900d 473d 19c4 8c3d 0067 6fbc 875f 5d3c
000002f0: 4805 d23d 1da6 533d bf1e 1e3d bc76 3bbc
00000300: 706e 23bc 1ca4 9fbc c292 3bbd 2290 a2ba
00000310: efeb 0a3c 38d7 0bbd 49e5 a03c f67e 263d
00000320: 3183 71bd 9ca7 efbd b5ed 61bd 78aa 1cbd
00000330: 602a 7cbc 1d93 133d fafa 553d 6489 9f3c
00000340: f975 4c3d fc0a 813d 71a3 67bb bf2d 83bc
00000350: e2a3 42bc a750 393c bc5b 883a beed 1cba
00000360: 3165 2a3d a7a7 4cbd e2d4 d83c 3fcd 31bc
00000370: 9fd7 9b3d 9968 a6bc c5cc d9bc 8bd8 b0bd
00000380: cc4b 82bd 9f9e cbbd 7e3d 31bd fdf7 10bd
00000390: f6f1 f43c f500 863d eefc 303d b2a1 d03c
000003a0: 2b24 39bc a3db 10bc d187 ea3c c7cd 8e3c
000003b0: c9b7 c13c 29db 043d e966 363d 401a 243c
000003c0: ec3a 0a3d c752 99bc b647 61bd 0390 aebd
000003d0: 6fc2 c2bb 878f cf3c 8896 ca3c 22ee 1cbd
000003e0: c70e e63c 5196 cc3c edf2 7c3d 39ab 0dbc
000003f0: dffa 653c c120 8cbc 6979 58bd 3a6e 19bd

fc1.bias f4 [75]
0.12606011 -0.1065551 -0.0149517525 -0.06611612 -0.1524131 0.0070327995 -0.0029545226 -0.121225104
-0.26912004 -0.0026905956 -0.039520144 -0.050733536 0.021429362 0.13075489 0.06610455 -0.156834
0.09267346 0.09808025 -0.10344521 0.025315095 0.038486302 0.18840608 0.059102003 -0.027870674
-0.115789555 -0.15033269 0.046060707 -0.15604189 0.012952915 -0.14952128 0.12707318 -0.08999612
0.10174528 0.0064160284 -0.026670927 -0.046610553 -0.105327845 -0.015381426 -0.117433235 0.04756612
0.1006107 0.020822495 0.021838464 -0.081409246 -0.11090463 -0.03380985 -0.013622741 -0.12739839
0.0066567003 -0.025570383 0.10099636 0.096682526 -0.11732948 0.024461828 0.15412101 -0.15180448
0.06948124 -0.07968456 -0.23412879 -0.062095325 0.094067656 -0.012801855 -0.09093761 -0.27678603
-0.13789195 -0.0077852756 0.0383657 -0.10743367 0.01408356 0.048864543 -0.07584494 -0.00018554615
0.1524736 -0.0015855955 -0.109034866
00000000: e715 013e 8f39 dabd 32f8 74bc e367 87bd
00000010: 2e12 1cbe 6673 e63b aaa0 41bb de44 f8bd
00000020: 1aca 89be b454 30bb e0df 21bd f8cd 4fbd
00000030: a18c af3c 9ce4 053e d361 873d 1899 20be
00000040: 95cb bd3d 4cde c83d 15db d3bd 9a61 cf3c
00000050: d0a3 1d3d 86ed 403e f114 723d 0a51 e4bc
00000060: 1323 edbd d0f0 19be 27aa 3c3d 72c9 1fbe
00000070: 7738 543c 1b1c 19be 791f 023e e34f b8bd
00000080: d45f d03d 8c3d d23b fd7c dabc b5ea 3ebd
00000090: 20b6 d7bd 6002 7cbc d680 f0bd b1d4 423d
000000a0: fc0c ce3d f093 aa3c 94e6 b23c e4b9 a6bd
000000b0: f721 e3bd 337c 0abd eb31 5fbc b974 02be
000000c0: 7320 da3b fb78 d1bc 2ed7 ce3d 7d01 c63d
000000d0: 704a f0bd 2c64 c83c e6d1 1d3e a272 1bbe
000000e0: 2e4c 8e3d a931 a3bd 75bf 6fbe ab57 7ebd
000000f0: 8ba6 c03d dfbe 51bc 7f3d babd e6b6 8dbe
00000100: 8c33 0dbe a01b ffbb 5a25 1d3d 2f06 dcbd
00000110: bbbe 663c 3026 483d 9854 9bbd 2a8f 42b9
00000120: 0a22 1c3e c2d3 cfba ac4d dfbd

fc2.weight f4 [75, 75]
-0.15283467 0.0012339025 0.109097145 0.21743 0.26979116 0.11499028 -0.11811417 -0.047793366
0.02435007 0.11688757 0.10156068 0.066613644 0.04581657 -0.16232884 -0.12389035 0.16166191
-0.07823687 -0.03372789 0.06444529 -0.092589125 -0.06393222 0.024177698 0.0002037088 -0.042084113
0.051345505 0.20208345 0.014741758 0.21350516 -0.0029613767 -0.043746304 -0.20678805 0.16925554
0.07347316 0.04500346 -0.037145685 0.14990057 -0.0015107931 -0.051451605 -0.067491055 0.09943949
-0.0025238916 0.1597369 0.1829805 -0.0018511041 0.20259216 -0.076720536 0.075920485 -0.09515524
-0.20191556 0.032087263 0.19253868 0.070384786 0.10383145 -0.073906325 0.020125741 0.099784404
-0.17038956 -0.032655347 -0.022183059 -0.06802619 -0.03485682 0.12551814 0.03921146 0.14728333
-0.07606539 0.018546835 0.07622094 0.006916971 -0.022903934 -0.10002348 0.024441672 0.072296925
-0.1812424 0.009041875 -0.022449015 -0.08583798 -0.22550991 0.01196041 0.03380785 0.0246388
-0.03688426 -0.06195646 0.00855066 -0.08758674 0.1970158 0.12203022 0.0010939363 0.020841751
-0.07363175 0.0031114551 -0.007614851 0.10490521 0.07354502 0.030810708 -0.013033976 0.11388299
-0.0054007354 -0.086483225 -0.007166875 0.021658821 0.10995783 -0.12982915 0.123369634 -0.010595232
-0.036808673 0.013757429 0.16016032 0.07406187 -0.14502779 0.034291483 0.059331395 0.1261631
0.027218001 0.11601796 0.03907606 -0.05690018 -0.056819633 -0.04182839 -0.016885297 -0.15773244
0.013857487 0.099819005 0.004276504 -0.018813338 -0.021918297 0.09837529 0.099857114 0.22673136
-0.1573524 -0.108027965 0.1792696 0.047393583 -0.016885452 -0.035435703 -0.0073107975 0.1790793
0.35594973 -0.048011433 -0.10387102 -0.013097084 -0.03551291 0.10714597 -0.06985399 0.14004119
0.15409148 -0.11510203 0.21308538 -0.10484856 -0.13949598 -0.11078618 -0.1981433 -0.1273578
-0.0035252715 0.021619398 0.10842614 -0.08020323 -0.057023287 0.14726003 0.114440165 0.069244474
0.08182245 0.15748478 -0.079571605 -0.08751167 0.10896236 -0.030679733 0.17807156 -0.12103315
0.11652175 -0.05191638 0.116594225 -0.07507997 -0.11657022 -0.105809994 0.060093954 0.3166089
-0.005498617 0.095859274 -0.04085719 0.1213355 -0.19161564 0.21003354 -0.038426135 0.1371813
0.050504647 -0.0065583037 -0.07657698 -0.019450162 0.043928448 0.008141324 -0.0129848495 0.060813114
0.037513632 0.005796728 0.04892685 -0.08092222 0.012535615 -0.041296512 -0.11343791 -0.15314724
0.084911905 0.07498687 0.2563635 -0.13850522 -0.091066666 0.014108649 -0.01871417 0.0356886
0.11941027 -0.18608595 0.05947041 0.08289102 -0.12978746 -0.018058397 0.15363808 0.14718165
-0.07656168 -0.039689373 -0.040997133 -0.057283483 -0.21682069 0.25324646 -0.19987705 0.051407427
0.10830649 -0.13634293 -0.1636164 -0.064122595 -0.024998525 -0.132479 -0.010847215 0.09168551
0.13016908 0.17239924 0.06469335 -0.2663414 -0.0151638705 0.14360234 0.008180236 0.00037206523
0.1604648 0.13102338 0.015713075 0.22962648 0.11355957 0.20973322 0.033255853 -0.015663177
0.008750608 -0.07662024 0.027802547 -0.043290596 -0.11397163 -0.015717976 0.23687916 -0.027814317
00000000: b180 1cbe e6ba a13a 536e df3d f8a5 5e3e
00000010: 1122 8a3e 0680 eb3d d8e5 f1bd fac2 43bd
00000020: cc79 c73c c062 ef3d 0cff cf3d bc6c 883d
00000030: 28aa 3b3d 8839 26be 39ba fdbd b38a 253e
00000040: a73a a0bd 4226 0abd e4fb 833d 5e9f bdbd
00000050: e5ee 82bd 4f10 c63c aa9a 5539 6460 2cbd
00000060: aa4f 523d f7ee 4e3e 6a87 713c 19a1 5a3e
00000070: a813 42bb 532f 33bd 3fc0 53be 5351 2d3e
00000080: 1979 963d 8c55 383d 1326 18bd 897f 193e
00000090: ce05 c6ba ebbe 52bd c038 8abd eea6 cb3d
000000a0: e067 25bb 1292 233e 3d5f 3b3e bfa0 f2ba
000000b0: 5274 4f3e a81f 9dbd 337c 9b3d c0e0 c2bd
000000c0: f4c2 4ebe ef6d 033d dc28 453e e625 903d
000000d0: 95a5 d43d 335c 97bd bdde a43c c45b cc3d
000000e0: 9a7a 2ebe 9dc1 05bd 3fb9 b5bc 5151 8bbd
000000f0: 06c6 0ebd d487 003e 329c 203d 71d1 163e
00000100: 2cc8 9bbd 88ef 973c b919 9c3d c2a7 e23b
00000110: 08a1 bbbc 1cd9 ccbd e739 c83c 6910 943d
00000120: 9c97 39be 5f24 143c ffe6 b7bc d3cb afbd
00000130: 12ec 66be 98f5 433c 1a7a 0a3d 4fd7 c93c
00000140: f313 17bd 0fc6 7dbd 1118 0c3c ad60 b3bd
00000150: 83be 493e fbea f93d 6962 8f3a 52bc aa3c
00000160: 3ecc 96bd 8ee9 4b3b 0086 f9bb 8bd8 d63d
00000170: c59e 963d bd66 fc3c 758c 55bc 7c3b e93d
00000180: a7f8 b0bb 1e1e b1bd 1bd8 eabb d76d b13c
00000190: 9231 e13d eff1 04be 38a9 fc3d a097 2dbc
000001a0: b1c4 16bd d766 613c 1101 243e c0ad 973d
000001b0: 2a82 14be 3a75 0c3d 7a05 733d e630 013e
000001c0: 49f8 de3c d39a ed3d 380e 203d 2a10 69bd
000001d0: b4bb 68bd 3f54 2bbd 0953 8abc 9d84 21be
000001e0: 830a 633c e86d cc3d ea21 8c3b 6e1e 9abc
000001f0: 008e b3bc fc78 c93d e381 cc3d 442c 683e
00000200: fd20 21be c43d ddbd 7392 373e c61f 423d
00000210: 5c53 8abc 0725 11bd 6a8f efbb 9060 373e
00000220: 0b3f b63e a3a7 44bd 54ba d4bd 2795 56bc
00000230: fc75 11bd 596f db3d 9c0f 8fbd f566 0f3e
00000240: 28ca 1d3e 9dba ebbd 0e33 5a3e d8ba d6bd
00000250: 09d8 0ebe dde3 e2bd 14e6 4abe 156a 02be
00000260: 3e08 67bb 2a1b b13c 860e de3d 9741 a4bd
00000270: 4091 69bd 55cb 163e 9b5f ea3d 0cd0 8d3d
00000280: 8792 a73d b143 213e 70f6 a2bd 5239 b3bd
00000290: a827 df3d 1054 fbbc 6458 363e 3ae0 f7bd
000002a0: f5a2 ee3d 45a6 54bd f4c8 ee3d 87c3 99bd
000002b0: 5ebc eebd e9b2 d8bd 1425 763d 901a a23e
000002c0: be2d b4bb de51 c43d de59 27bd bf7e f83d
000002d0: e436 44be 0813 573e b964 1dbd 4179 0c3e
000002e0: f6dd 4e3d 0ae7 d6bb 64d4 9cbd f255 9fbc
000002f0: 51ee 333d 3063 053c 68be 54bc 2c17 793d
00000300: e5a7 193d 7bf2 bd3b 8567 483d 8dba a5bd
00000310: 2e62 4d3c 8826 29bd 2352 e8bd a1d2 1cbe
00000320: 4be6 ad3d b792 993d 1442 833e 50d4 0dbe
00000330: 2981 babd f727 673c 764e 99bc 362e 123d
00000340: 5f8d f43d 518d 3ebe 3f97 733d c4c2 a93d
00000350: 01e7 04be 34ef 93bc 4d53 1d3e c9b6 163e
00000360: 5fcc 9cbd 5391 22bd 9cec 27bd 16a2 6abd
00000370: 3e06 5ebe 85a9 813e 92ac 4cbe 9890 523d
00000380: cbcf dd3d 7b9d 0bbe 0f8b 27be b552 83bd
00000390: b5c9 ccbc 93a8 07be 84b8 31bc 9dc5 bb3d
000003a0: 0b4b 053e 6d89 303e f27d 843d e65d 88be
000003b0: e271 78bc 7e0c 133e 6606 063c c011 c339
000003c0: e250 243e fe2a 063e b5b8 803c 3423 6b3e
000003d0: eb91 e83d 4ec4 563e 4a37 083d 1050 80bc
000003e0: b65e 0f3c 13eb 9cbd 2bc2 e33c 7b51 31bd
000003f0: f569 e9bd fcc2 80bc 7390 723e dada e3bc

fc2.bias f4 [75]
-0.014984001 0.007907532 -0.1155364 -0.109180816 0.12612157 0.16705205 -0.0071463613 -0.16777986
-0.026364116 -0.1666121 0.04749064 -0.06955631 0.18697163 0.0070142173 -0.11108071 -0.14441451
0.0071202004 0.069574416 -0.014093325 -0.02256237 -0.009724796 -0.035322458 -0.06189226 -0.1519582
-0.07653482 0.017547501 0.056406576 0.054990232 0.009985186 -0.04698088 0.06680099 -0.045216586
-0.08298892 0.04640192 0.05710671 0.09730443 0.009171866 0.0027910715 0.021577047 -0.015063342
-0.009352989 -0.05528441 0.029987922 0.03445485 -0.065350555 0.002245963 -0.07359673 0.05479088
0.017775996 0.11211668 -0.0066905064 -0.09012073 -0.01780274 -0.04226211 0.08331841 -0.016197952
-0.048786297 -0.044001766 0.0071607544 0.0017900018 0.0049352082 0.064258434 -0.031410653 -0.03226377
0.10714954 0.073948056 0.022506962 0.09558316 0.081188485 0.13537736 0.051960588 -0.10362427
-0.12860684 0.1201951 0.017915912
00000000: 757f 75bc 988e 013c 599e ecbd 319a dfbd
00000010: 0326 013e b10f 2b3e 062c eabb 7cce 2bbe
00000020: 8ff9 d7bc 5d9c 2abe 8c85 423d 8a73 8ebd
00000030: 7e75 3f3e 85d7 e53b 497e e3bd 66e1 13be
00000040: 9250 e93b 087d 8e3d b0e7 66bc b8d4 b8bc
00000050: c054 1fbc 48ae 10bd bd82 7dbd ee9a 1bbe
00000060: 4abe 9cbd c7bf 8f3c 950a 673d 703d 613d
00000070: e898 233c 066f 40bd f5ce 883d 0735 39bd
00000080: 18f6 a9bd f10f 3e3d bae8 693d 8c47 c73d
00000090: 9845 163c 69ea 363b 59c2 b03c 3ccc 76bc
000000a0: 473d 19bc e871 62bd 3ba9 f53c 8720 0d3d
000000b0: 83d6 85bd 0231 133b e2b9 96bd 676c 603d
000000c0: f79e 913c 6e9d e53d 093c dbbb 3891 b8bd
000000d0: 0dd7 91bc 091b 2dbd d8a2 aa3d 91b1 84bc
000000e0: 24d4 47bd 323b 34bd c3a4 ea3b 7e9e ea3a
000000f0: 87b7 a13b ed99 833d 75a8 00bd 0427 04bd
00000100: 3871 db3d 1472 973d 8560 b83c 1bc1 c33d
00000110: 2646 a63d 5da0 0a3e a0d4 543d f638 d4bd
00000120: 83b1 03be d928 f63d 64c4 923c

out.weight f4 [38, 75]
-0.20875588 0.091228634 -0.09074423 0.1640282 -0.04061722 -0.12225105 -0.050513912 0.12583001
0.2921662 0.2699234 -0.26121998 0.3218146 0.08952737 0.20458816 -0.039802097 -0.1587526
0.18216772 0.11067946 -0.32186884 -0.12092728 0.20510566 0.14714962 0.3059059 0.29164404
-0.2344171 0.027349103 0.16802031 -0.2501514 -0.15572254 0.11280613 0.2539394 -0.08206762
-0.108642384 0.25544137 0.29126614 0.085126676 0.13644245 -0.18308727 0.07677767 0.02634773
-0.3249284 -0.01815845 0.24312468 0.30120638 -0.21195793 -0.29744095 0.032587815 0.009586879
0.22896297 -0.22374189 -0.14297271 -0.25358644 -0.0678105 -0.26855892 0.18630733 0.1767847
0.24253082 -0.088630654 0.16640814 0.2389396 -0.27701727 0.035013027 -0.13991955 0.06812178
-0.31748274 -0.024189867 -0.03312828 -0.097379625 0.13508068 0.067865126 -0.107163124 0.035498735
0.07558614 -0.04107449 -0.21945803 -0.1588806 0.010392356 -0.046899322 0.28030726 -0.28066817
-0.008329054 -0.14775486 0.24405675 -0.20660776 0.0069350298 -0.2278514 -0.1473392 0.08681593
-0.16790806 -0.08823965 0.16503449 -0.23697907 0.27392405 -0.072600886 -0.080852956 0.040180735
0.08543237 -0.19550313 -0.114367776 -0.06944609 0.19327834 -0.07239442 0.080633126 -0.0384331
-0.14046444 -0.22602148 -0.011161604 0.07533235 -0.05172824 -0.27607533 0.11302144 0.26791182
-0.16511524 -0.008112473 -0.08050621 0.15878822 -0.14922422 0.12510744 0.02948151 -0.11039817
0.1502874 0.04622793 -0.070808016 -0.09815971 0.13137652 -0.24723884 -0.069728136 0.14130072
0.1434534 -0.1989117 -0.020540807 0.0854505 -0.123398595 -0.2869431 -0.12812883 0.16120134
-0.054855082 -0.24703273 0.021009464 0.26535633 -0.07136322 -0.16411273 -0.21512577 0.13119656
-0.3465547 -0.27909064 -0.044792768 0.053489417 -0.24454488 0.11310277 0.27418935 0.21312256
0.29614383 -0.0133560775 -0.015299808 -0.22575045 0.06717391 0.29895222 -0.013792978 0.030194376
-0.1710522 -0.12627992 -0.29916215 -0.048948538 -0.039973073 0.33453542 -0.10763611 0.050473586
-0.10994325 0.21148351 0.14993122 -0.0713916 -0.07526494 0.106826976 0.19339468 0.20975323
-0.2305011 0.14630815 0.10393287 -0.05115877 -0.28759483 0.039670553 -0.021322101 -0.026551204
-0.23219188 -0.30997485 0.08233551 -0.18029039 -0.24721536 -0.18951495 -0.26659858 -0.01591919
0.23603898 -0.020781172 0.1532016 -0.08101345 -0.20689407 0.028655719 -0.14994183 -0.2364538
-0.14751236 0.082929164 0.2730375 -0.1787115 -0.14165324 -0.19714814 0.23687749 -0.2594114
-0.2524557 -0.034125317 0.13400051 0.052273713 0.10361814 -0.21780354 -0.034399044 -0.18278323
0.24291807 -0.27619126 0.21718763 -0.23053142 0.07641548 -0.26414695 -0.16767685 -0.20821318
0.010473346 -0.17243463 0.114941254 -0.2287223 0.18346328 0.021405313 -0.07840036 -0.010506196
0.09163917 -0.24594662 0.30813724 0.058467064 0.25591758 0.012088208 -0.09677867 0.06305847
0.21212073 -0.06995174 -0.29319713 0.046528645 -0.078289516 0.085686445 0.12072276 0.25584295
0.2044861 -0.26876402 0.21751794 -0.00080337375 -0.23010828 0.040445447 0.15542188 -0.029990515
00000000: 1ac4 55be 14d6 ba3d 1cd8 b9bd 02f7 273e
00000010: 3e5e 26bd c25e fabd ade7 4ebd 95d9 003e
00000020: cf96 953e 6633 8a3e a0be 85be e2c4 a43e
00000030: 205a b73d 8f7f 513e 8607 23bd 0b90 22be
00000040: 2d8a 3a3e eaab e23d fecb a4be b9a8 f7bd
00000050: 3807 523e 64ae 163e b39f 9c3e 5e52 953e
00000060: 090b 70be 3a0b e03c 840d 2c3e d813 80be
00000070: bb75 1fbe e606 e73d 5804 823e 1113 a8bd
00000080: e67f debd 36c9 823e d620 953e e556 ae3d
00000090: 92b7 0b3e 3b7b 3bbe 9c3d 9d3d 32d7 d73c
000000a0: 045d a6be 08c1 94bc adf5 783e b937 9a3e
000000b0: 800b 59be 2e4a 98be cd7a 053d 4912 1d3c
000000c0: 4575 6a3e 981c 65be 7067 12be 15d6 81be
000000d0: 3be0 8abd 8e80 89be 59c7 3e3e 0c07 353e
000000e0: 005a 783e fd83 b5bd e566 2a3e 95ac 743e
000000f0: 35d5 8dbe d269 0f3d 1247 0fbe 6f83 8b3d
00000100: 198d a2be d429 c6bc 85b1 07bd f86e c7bd
00000110: 9752 0a3e dffc 8a3d 5778 dbbd 1f67 113d
00000120: e8cc 9a3d b93d 28bd 9bb9 60be 99b1 22be
00000130: b344 2a3c 8119 40bd 6f84 8f3e bdb3 8fbe
00000140: 9676 08bc 0d4d 17be 03ea 793e fc90 53be
00000150: 3f3f e33b e151 69be 16e0 16be 8dcc b13d
00000160: 17f0 2bbe fdb6 b4bd cdfe 283e a4aa 72be
00000170: c63f 8c3e c6af 94bd 3c96 a5bd 8e94 243d
00000180: 2bf7 ae3d f931 48be a739 eabd c039 8ebd
00000190: c2ea 453e 8743 94bd fb22 a53d 076c 1dbd
000001a0: e9d5 0fbe 2d72 67be 29df 36bc d947 9a3d
000001b0: fee0 53bd bf59 8dbe c977 e73d bd2b 893e
000001c0: f813 29be 2eea 04bc 71e0 a4bd 6199 223e
000001d0: 3cce 18be 2a1c 003e 3583 f13c 7018 e2bd
000001e0: f1e4 193e 7f59 3d3d cb03 91bd f507 c9bd
000001f0: 9187 063e 2e2c 7dbe a0cd 8ebd 23b1 103e
00000200: 73e5 123e 82af 4bbe 3245 a8bc ac00 af3d
00000210: 67b8 fcbd 35ea 92be 3434 03be f711 253e
00000220: b9af 60bd 26f6 7cbe 0a1c ac3c c9dc 873e
00000230: e126 92bd 2b0d 28be ee49 5cbe 6458 063e
00000240: 9e6f b1be f8e4 8ebe 9f78 37bd b817 5b3d
00000250: f969 7abe 6da2 e73d 8c62 8c3e cd3c 5a3e
00000260: 2aa0 973e 73d3 5abc 0cac 7abc 202b 67be
00000270: 7a92 893d 4410 993e f1fb 61bc 325a f73c
00000280: 4f28 2fbe 864f 01be c82b 99be 437e 48bd
00000290: ceba 23bd 3a48 ab3e 5270 dcbd 64bd 4e3d
000002a0: ed29 e1bd 228f 583e 9287 193e c235 92bd
000002b0: 8124 9abd 1ac8 da3d 4109 463e 8dc9 563e
000002c0: 7b08 6cbe ced1 153e c2da d43d dc8b 51bd
000002d0: a13f 93be 977d 223d b0ab aebc e981 d9bc
000002e0: b5c3 6dbe 06b5 9ebe 859f a83d 0b9e 38be
000002f0: 0626 7dbe 3510 42be 9c7f 88be f668 82bc
00000300: 34b4 713e 473d aabc e1e0 1c3e 61ea a5bd
00000310: 0adc 53be 66bf ea3c 5a8a 19be f220 72be
00000320: 7b0d 17be c4d6 a93d 92cb 8b3e 2600 37be
00000330: 8c0d 11be 34e1 49be 0390 723e 92d1 84be
00000340: e041 81be fdc6 0bbd 6e37 093e f61c 563d
00000350: bf35 d43d e407 5fbe 03e6 0cbd 872b 3bbe
00000360: 84bf 783e f168 8dbe 6f66 5e3e 6e10 6cbe
00000370: b87f 9c3d 453e 87be 7bb3 2bbe d635 55be
00000380: 6698 2b3c b492 30be 5266 eb3d 2e36 6abe
00000390: ccdd 3b3e 325a af3c 5e90 a0bd 2e22 2cbc
000003a0: 51ad bb3d 6ed9 7bbe 2ac4 9d3e 297b 6f3d
000003b0: a107 833e 9f0d 463c e533 c6bd cd24 813d
000003c0: 2d36 593e dc42 8fbd ef1d 96be d294 3e3d
000003d0: 4156 a0bd 607c af3d 7f3d f73d d9fd 823e
000003e0: ce64 513e 709b 89be 06bd 5e3e 8099 52ba
000003f0: 81a1 6bbe 20aa 253d ea26 1f3e abae f5bc

out.bias f4 [38]
-0.011319209 -0.02488903 -0.061829753 -0.009114577 -0.0110085625 -0.16842812 -0.10604279 -0.020044932
-0.015536534 -0.064521305 -0.09729784 0.08919601 -0.053095076 0.07303355 -0.06416379 -0.030174213
0.11696886 -0.053834587 0.027896438 0.14335677 -0.06077813 0.067650795 -0.036565933 0.046367478
0.09350741 -0.024775323 0.14557941 -0.07106623 0.08176429 0.026801322 0.07714888 0.11614528
0.13784838 0.038400654 -0.087755814 -0.04388594 0.039519962 -0.09849185
00000000: 3474 39bc 14e4 cbbc 3241 7dbd 4f55 15bc
00000010: 425d 34bc 6c78 2cbe f62c d9bd 4535 a4bc
00000020: f28c 7ebc bf23 84bd 1744 c7bd 66ac b63d
00000030: 397a 59bd 9d92 953d 4e68 83bd e92f f7bc
00000040: 5f8d ef3d a881 5cbd 1287 e43c 1ecc 123e
00000050: 7df2 78bd 808c 8a3d 29c6 15bd d3eb 3d3d
00000060: d080 bf3d 9ef5 cabc c512 153e 2c8b 91bd
00000070: 0974 a73d 728e db3c 3b00 9e3d 94dd ed3d
00000080: 2028 0d3e 014a 1d3d 52b9 b3bd bec1 33bd
00000090: afdf 213d 18b6 c9bd

sep_conn.weight f4 [75, 504]
0.02880996 0.04069024 0.024883337 0.07549618 0.06618584 0.028291048 0.012814975 0.0015847133
0.0033489643 -0.006828867 0.005346065 0.018790692 0.0020855104 0.022549909 0.018923009 -0.034104586
-0.030599402 0.06008764 0.034633394 0.027325414 0.04287214 0.04731212 0.010499334 0.028038891
0.0026629302 0.004280855 -0.038739026 -0.009242834 -0.0033447018 0.004478825 0.014126696 0.011089752
0.0055557345 0.013677328 0.034928154 0.002291788 -0.0034418367 -0.007616846 -0.0049949666 0.025443485
0.032701746 0.03834739 -0.00046248586 -0.019784072 0.00020283964 0.03248935 0.025398519 0.0003633543
-0.014121114 -0.0018509808 0.009350809 0.010843544 0.009447555 0.0056101833 0.03664661 0.045954093
0.056476157 0.0693564 0.08781879 0.06631246 0.040314246 0.025464049 0.04365955 0.008030322
0.025073988 0.059544526 0.048561733 0.061773926 0.07039955 0.052104473 0.038012363 -0.012824695
-0.004617079 -0.007389472 -0.010964679 0.024910133 0.04879919 0.08944928 0.05280717 0.029087115
0.03603909 0.050817996 0.08119076 0.088216536 0.01639867 0.00147187 0.039417494 0.02473651
0.017413877 0.011952095 -0.008639898 -0.009199629 -0.01796669 -0.0069127567 -0.016518073 -0.057716284
-0.012294299 0.060408123 0.020972354 -0.008670549 -0.030188909 -0.011266198 -0.014489964 -0.045788284
0.045431104 0.017363597 0.04070131 -0.050113875 0.033991285 -0.02967658 -0.034534376 0.021805884
-0.024680812 -0.06034097 -0.0014604332 -0.018908393 -0.02356313 -0.031757094 0.032769643 0.005917617
0.005952749 -0.013411757 -0.0006206983 0.010485189 0.080097176 0.01301946 0.01561342 -0.024885477
5.938519e-05 -0.046631914 0.011917759 0.011655866 0.10596913 0.0013456102 -0.031551175 -0.08173516
-0.030582469 -0.042321734 -0.08212057 0.049613018 0.026008006 0.06207492 -0.0013245087 -0.06853076
0.038217317 0.024775282 0.014642431 -0.0050269635 -0.019821297 -0.034694508 0.030217007 0.0382174
0.05331699 0.05781091 0.004345207 -0.032470785 -0.10544721 -0.038772613 0.0151271 -0.09363987
0.011494833 0.058526326 0.05181227 0.021863477 0.024212535 0.038857806 0.013292489 0.03616512
0.013242471 0.008743426 -0.0243378 -0.039983083 -0.031895112 0.012860801 0.018302178 -5.8687896e-05
-0.03548465 -0.02678417 0.022857908 0.0486406 -0.09572353 -0.049572613 0.011748434 0.028112
0.011761803 -0.020972338 -0.029104067 -0.027440475 -0.01216665 0.01351406 0.02038039 0.014132043
-0.0072342088 -0.004370466 -0.017338092 -0.0021337275 -0.004926222 -0.011305697 0.0012286729 -0.005093113
0.052442737 -0.0037460418 -0.042197883 -0.045116674 -0.0080415085 -0.014150748 -0.023819147 -0.03640781
-0.019367134 0.05340351 -0.0035342209 0.014386054 0.033953883 0.03223122 0.01966715 0.034670666
0.032023955 0.039799113 -0.016862536 0.018533824 -0.021211928 0.12634464 0.04728407 0.0020354087
-0.016554069 -0.020855885 0.0075958283 -0.008294017 -0.0031018555 0.011284856 0.044556167 2.2444334e-05
0.00038049187 0.027956074 0.042634882 0.047074072 0.038490076 0.03426357 0.029969629 0.02312411
0.024451742 -0.0005718021 0.05610728 0.047949333 0.03333676 0.009343311 0.01127034 -0.0047297543
2.193587e-05 -0.0076497737 -0.008005001 -0.02495169 -0.0020204464 5.568527e-05 0.0072847186 0.039023664
00000000: dd02 ec3c cfaa 263d 24d8 cb3c be9d 9a3d
00000010: 718c 873d a1c2 e73c e7f5 513c 28b6 cf3a
00000020: 4c7a 5b3b b0c4 dfbb 0b2e af3b f0ee 993c
00000030: 0fad 083b 96ba b83c 6d04 9b3c 40b1 0bbd
00000040: 99ab fabc 751e 763d bfdb 0d3d 8cd9 df3c
00000050: b29a 2f3d 5bca 413d 6605 2c3c d1b1 e53c
00000060: 8e84 2e3b 6a46 8c3b d0ac 1ebd 416f 17bc
00000070: c932 5bbb 1bc3 923b a873 673c cbb1 353c
00000080: e10c b63b df16 603c d310 0f3d d331 163b
00000090: 7090 61bb bc96 f9bb d1ac a3bb db6e d03c
000000a0: 44f2 053d 2712 1d3d cd79 f2b9 3512 a2bc
000000b0: 5ab1 5439 8d13 053d 8e10 d03c 9780 be39
000000c0: 3f5c 67bc 9c9c f2ba 2334 193c 1fa9 313c
000000d0: ebc9 1a3c a1d5 b73b c11a 163d 5c3a 3c3d
000000e0: 8b53 673d ba0a 8e3d 56da b33d d4ce 873d
000000f0: 8d20 253d fb99 d03c 5bd4 323d 9d91 033c
00000100: f767 cd3c f6e4 733d abe8 463d a806 7d3d
00000110: a42d 903d 806b 553d dab2 1b3d ab1e 52bc
00000120: de4a 97bb 6223 f2bb 32a5 33bc 5610 cc3c
00000130: a9e1 473d 2f31 b73d 554c 583d 1a48 ee3c
00000140: ba9d 133d 8826 503d 5747 a63d dfaa b43d
00000150: 8156 863c c3eb c03a 3d74 213d 39a4 ca3c
00000160: 8ca7 8e3c b8d2 433c 5c8e 0dbc 0aba 16bc
00000170: e12e 93bc 6884 e2bb e950 87bc e967 6cbd
00000180: 076e 49bc 826e 773d 37ce ab3c eb0e 0ebc
00000190: bb4e f7bc dc95 38bc 5067 6dbc 7f8c 3bbd
000001a0: f715 3a3d 1a3e 8e3c 6bb6 263d 3544 4dbd
000001b0: 723a 0b3d 4d1c f3bc eb73 0dbd 41a2 b23c
000001c0: 6a2f cabc 1828 77bd 026c bfba c6e5 9abc
000001d0: 7707 c1bc ba13 02bd 7639 063d 92e8 c13b
000001e0: 470f c33b fcbc 5bbc 5cb6 22ba 12ca 2b3c
000001f0: fd09 a43d 934f 553c 6ecf 7f3c a1dc cbbc
00000200: 5d14 7938 1b01 3fbd b442 433c 3ff8 3e3c
00000210: 5806 d93d 305f b03a ce3b 01bd c364 a7bd
00000220: 1688 fabc 8e59 2dbd d42e a8bd 0537 4b3d
00000230: be0e d53c 4542 7e3d 239b adba db59 8cbd
00000240: c389 1c3d 88f5 ca3c cfe6 6f3c 3ab9 a4bb
00000250: 4660 a2bc d41b 0ebd a889 f73c d989 1c3d
00000260: eb62 5a3d 22cb 6c3d 3d62 8e3b 1600 05bd
00000270: b5f4 d7bd 08d0 1ebd a8d7 773c 43c6 bfbd
00000280: d354 3c3c 4db9 6f3d 1a39 543d 091b b33c
00000290: 5e59 c63c 5d29 1f3d bdc8 593c e021 143d
000002a0: f3f6 583c 9640 0f3c 1160 c7bc 4dc5 23bd
000002b0: 73a4 02bd 1cb6 523c 73ee 953c a627 76b8
000002c0: 5a58 11bd 7a6a dbbc 8240 bb3c 5e3b 473d
000002d0: b30a c4bd a70c 4bbd 817c 403c 234b e63c
000002e0: 94b4 403c 2ece abbc a76b eebc d9ca e0bc
000002f0: a156 47bc 136a 5d3c c7f4 a63c 168a 673c
00000300: f10c edbb 2036 8fbb 9d08 8ebc 02d6 0bbb
00000310: 256c a1bb 883b 39bc 6c0b a13a 21e4 a6bb
00000320: 32ce 563d 2780 75bb b0d7 2cbd 43cc 38bd
00000330: 88c0 03bc 8ad8 67bc 5f20 c3bc 5b20 15bd
00000340: d3a7 9ebc a4bd 5a3d 639e 67bb 7cb3 6b3c
00000350: 3a13 0b3d e204 043d 011d a13c d402 0e3d
00000360: 8d2b 033d 6504 233d 4d23 8abc 3fd4 973c
00000370: a3c4 adbc 7d60 013e f1ac 413d 7e64 053b
00000380: 669c 87bc f6d9 aabc 6de6 f83b a1e3 07bc
00000390: 8048 4bbb 1ee4 383c 8780 363d d746 bc37
000003a0: c17c c739 2304 e53c eaa1 2e3d bed0 403d
000003b0: c5a7 1d3d f557 0c3d de82 f53c c66e bd3c
000003c0: 054f c83c fde4 15ba bfd0 653d 8566 443d
000003d0: 208c 083d b014 193c 3ba7 383c 0efc 9abb
000003e0: ec02 b837 f4aa fabb 6827 03bc 7d67 ccbc
000003f0: 7769 04bb 9a8f 6938 a6b4 ee3b 47d7 1f3d

sep_conn.bias f4 [75]
-0.052343372 -0.028316097 -0.14947915 -0.19292763 0.24029794 0.20291142 0.0132788755 -0.18658605
-0.029839937 -0.19796582 0.08641417 -0.10983088 0.19745328 0.022938933 -0.14421211 -0.101126485
0.103639714 0.1364407 0.019250276 -0.05211008 0.05292062 0.037420142 -0.038531773 -0.17509763
-0.11568398 0.025444556 0.16488646 0.11170586 0.0038730856 -0.104147725 0.14718573 0.028614612
-0.06824117 0.120173484 0.0464709 0.19241309 0.081903696 0.0069901836 -0.051004387 0.09368779
-0.043215916 -0.083215505 0.056220386 0.037105203 -0.107575774 0.08981501 -0.14576417 0.036058478
0.030938106 0.14929159 -0.078967445 -0.08846114 -0.07802314 0.045078047 0.12356788 0.056051522
-0.07918191 -0.022199465 0.046786904 -0.04323019 -0.06958545 0.13919266 0.0037295916 -0.05939532
0.15964067 0.12972414 0.13746518 0.1894498 0.12662011 0.19230674 0.074872606 -0.057126783
-0.109474175 0.17152776 0.10237813
00000000: 0166 56bd 29f7 e7bc 1011 19be d28e 45be
00000010: aa10 763e 03c8 4f3e a48f 593c 6a10 3fbe
00000020: e272 f4bc 8db7 4abe eaf9 b03d 03ef e0bd
00000030: 3131 4a3e 6eea bb3c 57ac 13be 671b cfbd
00000040: 0f41 d43d 1cb7 0b3e c1b2 9d3c 6171 55bd
00000050: 4bc3 583d dd45 193d 7ed3 1dbd cb4c 33be
00000060: b9eb ecbd 1a71 d03c ffd7 283e 0bc6 e43d
00000070: 98d3 7d3b 674b d5bd dbb7 163e 3169 ea3c
00000080: 07c2 8bbd 841d f63d 4558 3e3d f007 453e
00000090: 20bd a73d e90d e53b fae9 50bd 62df bf3d
000000a0: 2c03 31bd e46c aabd 5947 663d a0fb 173d
000000b0: b050 dcbd eff0 b73d 3443 15be 0eb2 133d
000000c0: e971 fd3c e5df 183e afb9 a1bd 1d2b b5bd
000000d0: 99ca 9fbd c2a3 383d 2811 fd3d 4896 653d
000000e0: 202a a2bd a7db b5bc a0a3 3f3d 2412 31bd
000000f0: d182 8ebd 8588 0e3e 2a6c 743b 8248 73bd
00000100: d878 233e 68d6 043e acc3 0c3e 21ff 413e
00000110: b4a8 013e 0fec 443e cf56 993d c6fd 69bd
00000120: ff33 e0bd f9a4 2f3e a0ab d13d

bn.weight f4 [75]
1.0 1.0 1.0 1.0 1.0 1.0 1.0 1.0
1.0 1.0 1.0 1.0 1.0 1.0 1.0 1.0
1.0 1.0 1.0 1.0 1.0 1.0 1.0 1.0
1.0 1.0 1.0 1.0 1.0 1.0 1.0 1.0
1.0 1.0 1.0 1.0 1.0 1.0 1.0 1.0
1.0 1.0 1.0 1.0 1.0 1.0 1.0 1.0
1.0 1.0 1.0 1.0 1.0 1.0 1.0 1.0
1.0 1.0 1.0 1.0 1.0 1.0 1.0 1.0
1.0 1.0 1.0 1.0 1.0 1.0 1.0 1.0
1.0 1.0 1.0
00000000: 0000 803f 0000 803f 0000 803f 0000 803f
00000010: 0000 803f 0000 803f 0000 803f 0000 803f
00000020: 0000 803f 0000 803f 0000 803f 0000 803f
00000030: 0000 803f 0000 803f 0000 803f 0000 803f
00000040: 0000 803f 0000 803f 0000 803f 0000 803f
00000050: 0000 803f 0000 803f 0000 803f 0000 803f
00000060: 0000 803f 0000 803f 0000 803f 0000 803f
00000070: 0000 803f 0000 803f 0000 803f 0000 803f
00000080: 0000 803f 0000 803f 0000 803f 0000 803f
00000090: 0000 803f 0000 803f 0000 803f 0000 803f
000000a0: 0000 803f 0000 803f 0000 803f 0000 803f
000000b0: 0000 803f 0000 803f 0000 803f 0000 803f
000000c0: 0000 803f 0000 803f 0000 803f 0000 803f
000000d0: 0000 803f 0000 803f 0000 803f 0000 803f
000000e0: 0000 803f 0000 803f 0000 803f 0000 803f
000000f0: 0000 803f 0000 803f 0000 803f 0000 803f
00000100: 0000 803f 0000 803f 0000 803f 0000 803f
00000110: 0000 803f 0000 803f 0000 803f 0000 803f
00000120: 0000 803f 0000 803f 0000 803f

bn.bias f4 [75]
0.0 0.0 0.0 0.0 0.0 0.0 0.0 0.0
0.0 0.0 0.0 0.0 0.0 0.0 0.0 0.0
0.0 0.0 0.0 0.0 0.0 0.0 0.0 0.0
0.0 0.0 0.0 0.0 0.0 0.0 0.0 0.0
0.0 0.0 0.0 0.0 0.0 0.0 0.0 0.0
0.0 0.0 0.0 0.0 0.0 0.0 0.0 0.0
0.0 0.0 0.0 0.0 0.0 0.0 0.0 0.0
0.0 0.0 0.0 0.0 0.0 0.0 0.0 0.0
0.0 0.0 0.0 0.0 0.0 0.0 0.0 0.0
0.0 0.0 0.0
00000000: 0000 0000 0000 0000 0000 0000 0000 0000
00000010: 0000 0000 0000 0000 0000 0000 0000 0000
00000020: 0000 0000 0000 0000 0000 0000 0000 0000
00000030: 0000 0000 0000 0000 0000 0000 0000 0000
00000040: 0000 0000 0000 0000 0000 0000 0000 0000
00000050: 0000 0000 0000 0000 0000 0000 0000 0000
00000060: 0000 0000 0000 0000 0000 0000 0000 0000
00000070: 0000 0000 0000 0000 0000 0000 0000 0000
00000080: 0000 0000 0000 0000 0000 0000 0000 0000
00000090: 0000 0000 0000 0000 0000 0000 0000 0000
000000a0: 0000 0000 0000 0000 0000 0000 0000 0000
000000b0: 0000 0000 0000 0000 0000 0000 0000 0000
000000c0: 0000 0000 0000 0000 0000 0000 0000 0000
000000d0: 0000 0000 0000 0000 0000 0000 0000 0000
000000e0: 0000 0000 0000 0000 0000 0000 0000 0000
000000f0: 0000 0000 0000 0000 0000 0000 0000 0000
00000100: 0000 0000 0000 0000 0000 0000 0000 0000
00000110: 0000 0000 0000 0000 0000 0000 0000 0000
00000120: 0000 0000 0000 0000 0000 0000

bn.running_mean f4 [75]
0.0 0.0 0.0 0.0 0.0 0.0 0.0 0.0
0.0 0.0 0.0 0.0 0.0 0.0 0.0 0.0
0.0 0.0 0.0 0.0 0.0 0.0 0.0 0.0
0.0 0.0 0.0 0.0 0.0 0.0 0.0 0.0
0.0 0.0 0.0 0.0 0.0 0.0 0.0 0.0
0.0 0.0 0.0 0.0 0.0 0.0 0.0 0.0
0.0 0.0 0.0 0.0 0.0 0.0 0.0 0.0
0.0 0.0 0.0 0.0 0.0 0.0 0.0 0.0
0.0 0.0 0.0 0.0 0.0 0.0 0.0 0.0
0.0 0.0 0.0
00000000: 0000 0000 0000 0000 0000 0000 0000 0000
00000010: 0000 0000 0000 0000 0000 0000 0000 0000
00000020: 0000 0000 0000 0000 0000 0000 0000 0000
00000030: 0000 0000 0000 0000 0000 0000 0000 0000
00000040: 0000 0000 0000 0000 0000 0000 0000 0000
00000050: 0000 0000 0000 0000 0000 0000 0000 0000
00000060: 0000 0000 0000 0000 0000 0000 0000 0000
00000070: 0000 0000 0000 0000 0000 0000 0000 0000
00000080: 0000 0000 0000 0000 0000 0000 0000 0000
00000090: 0000 0000 0000 0000 0000 0000 0000 0000
000000a0: 0000 0000 0000 0000 0000 0000 0000 0000
000000b0: 0000 0000 0000 0000 0000 0000 0000 0000
000000c0: 0000 0000 0000 0000 0000 0000 0000 0000
000000d0: 0000 0000 0000 0000 0000 0000 0000 0000
000000e0: 0000 0000 0000 0000 0000 0000 0000 0000
000000f0: 0000 0000 0000 0000 0000 0000 0000 0000
00000100: 0000 0000 0000 0000 0000 0000 0000 0000
00000110: 0000 0000 0000 0000 0000 0000 0000 0000
00000120: 0000 0000 0000 0000 0000 0000

bn.running_var f4 [75]
1.0 1.0 1.0 1.0 1.0 1.0 1.0 1.0
1.0 1.0 1.0 1.0 1.0 1.0 1.0 1.0
1.0 1.0 1.0 1.0 1.0 1.0 1.0 1.0
1.0 1.0 1.0 1.0 1.0 1.0 1.0 1.0
1.0 1.0 1.0 1.0 1.0 1.0 1.0 1.0
1.0 1.0 1.0 1.0 1.0 1.0 1.0 1.0
1.0 1.0 1.0 1.0 1.0 1.0 1.0 1.0
1.0 1.0 1.0 1.0 1.0 1.0 1.0 1.0
1.0 1.0 1.0 1.0 1.0 1.0 1.0 1.0
1.0 1.0 1.0
00000000: 0000 803f 0000 803f 0000 803f 0000 803f
00000010: 0000 803f 0000 803f 0000 803f 0000 803f
00000020: 0000 803f 0000 803f 0000 803f 0000 803f
00000030: 0000 803f 0000 803f 0000 803f 0000 803f
00000040: 0000 803f 0000 803f 0000 803f 0000 803f
00000050: 0000 803f 0000 803f 0000 803f 0000 803f
00000060: 0000 803f 0000 803f 0000 803f 0000 803f
00000070: 0000 803f 0000 803f 0000 803f 0000 803f
00000080: 0000 803f 0000 803f 0000 803f 0000 803f
00000090: 0000 803f 0000 803f 0000 803f 0000 803f
000000a0: 0000 803f 0000 803f 0000 803f 0000 803f
000000b0: 0000 803f 0000 803f 0000 803f 0000 803f
000000c0: 0000 803f 0000 803f 0000 803f 0000 803f
000000d0: 0000 803f 0000 803f 0000 803f 0000 803f
000000e0: 0000 803f 0000 803f 0000 803f 0000 803f
000000f0: 0000 803f 0000 803f 0000 803f 0000 803f
00000100: 0000 803f 0000 803f 0000 803f 0000 803f
00000110: 0000 803f 0000 803f 0000 803f 0000 803f
00000120: 0000 803f 0000 803f 0000 803f

net.0.weight f4 [75, 504]
-0.0823407 -0.10395479 -0.068323046 -0.021535583 -0.060950924 -0.07601362 -0.013542202 -0.013699708
0.011959602 0.023227548 -0.0076932637 -0.009758608 -0.0031010828 -0.0186186 -0.027817685 0.000826103
0.018709876 -0.018733444 -0.066125855 -0.06173747 -0.12973484 -0.08755122 -0.0670063 -0.09138495
-0.0054749222 -0.0052818954 0.019128101 0.025227752 0.027868904 0.032851804 -0.048012976 -0.02418519
-0.038802266 -0.027467802 -0.048088685 -0.023454895 -0.012283823 -0.0036855012 0.013798028 -0.053912282
-0.07880812 -0.081245996 -0.07651785 0.025903517 0.04284737 0.019466331 0.0601307 0.12026591
0.1545519 0.1512445 0.043364648 -0.0188439 -0.043114036 -0.0442188 -0.036575075 0.02955296
0.083690904 0.095511846 0.09071198 0.061174944 0.05578637 0.023489235 -0.0327228 0.060429912
0.07734891 0.032315694 0.03381808 0.040829144 0.02041706 0.049213476 0.08611053 0.12595183
0.018339682 0.048790824 0.027699292 0.04149566 0.058912266 -0.069603465 0.0013382734 0.015119898
-0.046666402 -0.0043402915 0.019224433 0.014431691 0.05957711 0.0067894463 -0.06314112 0.019549036
0.034682695 -0.0058438512 0.04296527 -0.0049475967 -0.02410111 -0.04941138 0.06180012 0.050649818
-0.061399337 -0.20816512 -0.10878738 -0.017895598 0.013651575 0.0008291116 0.00878544 -0.034547634
0.010557407 0.0744902 0.048008833 0.08176902 -0.07394362 0.031704728 0.08781555 0.014886555
0.05667934 0.03411721 -0.01397092 0.0049911956 0.028672984 -0.13297287 -0.10427423 0.06710685
0.039212015 0.052056104 0.15897378 0.15218021 -0.07027058 0.0155301895 0.05823817 0.019789042
0.03137295 -0.068434 0.014346955 0.04476512 0.014106965 0.095407 0.102157146 0.18578333
-0.017854609 0.05139097 -0.059305143 0.04816116 -0.03915871 -0.08318186 0.105222575 0.101488926
0.07581567 0.07910765 0.028708767 0.0050995336 -0.05080747 -0.012880306 -0.007721774 -0.024905656
0.011475257 -0.060768757 0.06109046 0.102878034 0.060219023 -0.0021277028 -0.02133857 -0.008688648
-0.0473965 -0.047914315 -0.060655814 0.008089227 -0.017890105 0.01953567 0.05584339 0.03329594
0.07259414 0.04125094 -0.058921088 0.0069143786 0.0044308295 0.03627605 0.064934276 0.09426748
0.025977492 0.038481288 -0.045751605 -0.12914205 -0.018999051 -0.048651997 -0.019451695 0.043374944
0.04859692 0.0687334 -0.014611959 0.013511545 0.102549136 0.05167209 0.03860354 -0.011441883
-0.009975061 -0.019487433 -0.045794256 -0.0012402574 0.0084791025 -0.034140795 0.019640582 0.040648423
-0.058963004 -0.11701891 -0.055158336 -0.03824851 -0.015390962 0.03602897 0.052241303 0.019474693
0.049917195 0.06300923 -0.0035345221 -0.016013024 -0.011879893 0.011310733 0.0010403316 -0.0005986354
0.04160041 -0.049964573 0.026468698 -0.010852157 0.07609486 -0.020313548 -0.0265869 -0.08635052
-0.06362113 -0.09942364 -0.043271534 -0.03539275 0.029900532 0.06543151 0.043209963 0.025467727
-0.011300127 -0.008841428 0.028629215 0.017432107 0.023647206 0.03243557 0.044531737 0.010016024
0.0337476 -0.01871623 -0.05500003 -0.08523562 -0.0059435884 0.025336994 0.024729982 -0.03831304
0.028083218 0.02497402 0.06175511 -0.00864678 0.014036863 -0.017105462 -0.05285016 -0.037458636
00000000: 3ea2 a8bd 40e6 d4bd f4ec 8bbd 646b b0bc
00000010: ada7 79bd 07ad 9bbd 1de0 5dbc bd74 60bc
00000020: 35f2 433c b347 be3c c617 fcbb 92e2 1fbc
00000030: 893b 4bbb 0986 98bc eae1 e3bc d58e 583a
00000040: 7445 993c e176 99bc fe6c 87bd 6ee0 7cbd
00000050: 36d9 04be 0e4e b3bd 993a 89bd 0828 bbbd
00000060: fa66 b3bb c013 adbb 89b2 9c3c 6eaa ce3c
00000070: 544d e43c 9d8f 063d 41a9 44bd 0520 c6bc
00000080: 20ef 1ebd 2804 e1bc a4f8 44bd 7b24 c0bc
00000090: 1742 49bc 7388 71bb 2011 623c 20d3 5cbd
000000a0: 2766 a1bd 4d64 a6bd 64b5 9cbd 9d33 d43c
000000b0: b980 2f3d db77 9f3c 9c4b 763d f94d f63d
000000c0: da42 1e3e d7df 1a3e 219f 313d 865e 9abc
000000d0: 5898 30bd c61e 35bd bfcf 15bd 0d19 f23c
000000e0: 2366 ab3d b79b c33d 34c7 b93d 9492 7a3d
000000f0: 4080 643d 7f6c c03c 5808 06bd 5b85 773d
00000100: 1b69 9e3d 765d 043d d484 0a3d 763c 273d
00000110: ae41 a73c 1294 493d b85a b03d 84f9 003e
00000120: 1a3d 963c e3d8 473d a0e9 e23c 5af7 293d
00000130: fd4d 713d 438c 8ebd 0169 af3a 73b9 773c
00000140: 4525 3fbd 0139 8ebb 8f7c 9d3c e672 6c3c
00000150: 2107 743d 017a de3b 2250 81bd 4d25 a03c
00000160: 710f 0e3d c77d bfbb 5afc 2f3d 731f a2bb
00000170: b16f c5bc 9663 4abd 1f22 7d3d 2f76 4f3d
00000180: df7d 7bbd 3d29 55be ebcb debd ca99 92bc
00000190: dbaa 5f3c bd58 593a cef0 0f3c d281 0dbd
000001a0: f9f8 2c3c 518e 983d e9a4 443d 8476 a73d
000001b0: c16f 97bd d1dc 013d a4d8 b33d bde6 733c
000001c0: 9828 683d 7dbe 0b3d 49e6 64bc 2f8d a33b
000001d0: 9be3 ea3c 0a2a 08be ba8d d5bd 516f 893d
000001e0: c79c 203d c838 553d 06ca 223e 21d5 1b3e
000001f0: 06ea 8fbd 5672 7e3c 268b 6e3d a11c a23c
00000200: ec80 003d 2027 8cbd 7e0f 6b3c a15b 373d
00000210: e620 673c bf64 c33d c437 d13d fc3d 3e3e
00000220: d443 92bc 567f 523d f3e9 72bd a344 453d
00000230: e264 20bd 405b aabd ef7e d73d 6dd9 cf3d
00000240: 3f45 9b3d 3103 a23d a62e eb3c fd19 a73b
00000250: 7e1b 50bd eb07 53bc ef06 fdbb f206 ccbc
00000260: b702 3c3c a9e8 78bd fd39 7a3d b8b1 d23d
00000270: 39a8 763d ee70 0bbb 3ace aebc d55a 0ebc
00000280: d522 42bd cd41 44bd 3b72 78bd ad88 043c
00000290: 458e 92bc 4509 a03c 0abc 643d 5361 083d
000002a0: 3dac 943d bff6 283d 3d57 71bd 0392 e23b
000002b0: 7e30 913b 3296 143d 43fc 843d 4f0f c13d
000002c0: c0ce d43c 8e9e 1d3d 0966 3bbd d03d 04be
000002d0: e6a3 9bbc 5147 47bd 2959 9fbc eda9 313d
000002e0: 900d 473d 19c4 8c3d 0067 6fbc 875f 5d3c
000002f0: 4805 d23d 1da6 533d bf1e 1e3d bc76 3bbc
00000300: 706e 23bc 1ca4 9fbc c292 3bbd 2290 a2ba
00000310: efeb 0a3c 38d7 0bbd 49e5 a03c f67e 263d
00000320: 3183 71bd 9ca7 efbd b5ed 61bd 78aa 1cbd
00000330: 602a 7cbc 1d93 133d fafa 553d 6489 9f3c
00000340: f975 4c3d fc0a 813d 71a3 67bb bf2d 83bc
00000350: e2a3 42bc a750 393c bc5b 883a beed 1cba
00000360: 3165 2a3d a7a7 4cbd e2d4 d83c 3fcd 31bc
00000370: 9fd7 9b3d 9968 a6bc c5cc d9bc 8bd8 b0bd
00000380: cc4b 82bd 9f9e cbbd 7e3d 31bd fdf7 10bd
00000390: f6f1 f43c f500 863d eefc 303d b2a1 d03c
000003a0: 2b24 39bc a3db 10bc d187 ea3c c7cd 8e3c
000003b0: c9b7 c13c 29db 043d e966 363d 401a 243c
000003c0: ec3a 0a3d c752 99bc b647 61bd 0390 aebd
000003d0: 6fc2 c2bb 878f cf3c 8896 ca3c 22ee 1cbd
000003e0: c70e e63c 5196 cc3c edf2 7c3d 39ab 0dbc
000003f0: dffa 653c c120 8cbc 6979 58bd 3a6e 19bd

net.0.bias f4 [75]
0.12606011 -0.1065551 -0.0149517525 -0.06611612 -0.1524131 0.0070327995 -0.0029545226 -0.121225104
-0.26912004 -0.0026905956 -0.039520144 -0.050733536 0.021429362 0.13075489 0.06610455 -0.156834
0.09267346 0.09808025 -0.10344521 0.025315095 0.038486302 0.18840608 0.059102003 -0.027870674
-0.115789555 -0.15033269 0.046060707 -0.15604189 0.012952915 -0.14952128 0.12707318 -0.08999612
0.10174528 0.0064160284 -0.026670927 -0.046610553 -0.105327845 -0.015381426 -0.117433235 0.04756612
0.1006107 0.020822495 0.021838464 -0.081409246 -0.11090463 -0.03380985 -0.013622741 -0.12739839
0.0066567003 -0.025570383 0.10099636 0.096682526 -0.11732948 0.024461828 0.15412101 -0.15180448
0.06948124 -0.07968456 -0.23412879 -0.062095325 0.094067656 -0.012801855 -0.09093761 -0.27678603
-0.13789195 -0.0077852756 0.0383657 -0.10743367 0.01408356 0.048864543 -0.07584494 -0.00018554615
0.1524736 -0.0015855955 -0.109034866
00000000: e715 013e 8f39 dabd 32f8 74bc e367 87bd
00000010: 2e12 1cbe 6673 e63b aaa0 41bb de44 f8bd
00000020: 1aca 89be b454 30bb e0df 21bd f8cd 4fbd
00000030: a18c af3c 9ce4 053e d361 873d 1899 20be
00000040: 95cb bd3d 4cde c83d 15db d3bd 9a61 cf3c
00000050: d0a3 1d3d 86ed 403e f114 723d 0a51 e4bc
00000060: 1323 edbd d0f0 19be 27aa 3c3d 72c9 1fbe
00000070: 7738 543c 1b1c 19be 791f 023e e34f b8bd
00000080: d45f d03d 8c3d d23b fd7c dabc b5ea 3ebd
00000090: 20b6 d7bd 6002 7cbc d680 f0bd b1d4 423d
000000a0: fc0c ce3d f093 aa3c 94e6 b23c e4b9 a6bd
000000b0: f721 e3bd 337c 0abd eb31 5fbc b974 02be
000000c0: 7320 da3b fb78 d1bc 2ed7 ce3d 7d01 c63d
000000d0: 704a f0bd 2c64 c83c e6d1 1d3e a272 1bbe
000000e0: 2e4c 8e3d a931 a3bd 75bf 6fbe ab57 7ebd
000000f0: 8ba6 c03d dfbe 51bc 7f3d babd e6b6 8dbe
00000100: 8c33 0dbe a01b ffbb 5a25 1d3d 2f06 dcbd
00000110: bbbe 663c 3026 483d 9854 9bbd 2a8f 42b9
00000120: 0a22 1c3e c2d3 cfba ac4d dfbd
