bestclf/yaleb/y03.pth (torch, 343163 bytes, 16 tensors)

fc1.weight f4 [75, 504]
000000 6f 84 73 bd 76 8e d8 bd a2 aa 85 bd 3c cf 09 bd
       -0.05945247 -0.10574047 -0.06526686 -0.0336449
000010 d6 d9 4e bd 55 99 84 bd 25 48 a0 bb 1d 4a 7b bc
       -0.050500713 -0.06474558 -0.004891413 -0.015337494
000020 12 6a a2 bc 4a d2 29 3c 96 5b b9 3b 33 06 bf 3b
       -0.019825969 0.010365078 0.00565667 0.0058295964
000030 b2 bc 75 3b 5d 2d 64 bc 11 a7 b6 bc 01 24 c0 3c
       0.0037496504 -0.013926831 -0.02229646 0.023454668
000040 1c fd bc 3c d9 76 35 bd 19 0e 8e bd fc ca 88 bd
       0.02306991 -0.044302795 -0.06936283 -0.06679341
000050 1c 15 c1 bd 4b 47 b3 bd 39 e9 ab bd 3e f7 b5 bd
       -0.094278544 -0.087538324 -0.08394093 -0.08885048
000060 d8 40 41 bb 04 12 52 3c 87 f3 23 3d b2 a3 07 3d
       -0.0029488113 0.012821678 0.040027168 0.033115096
000070 b1 ba df 3c f2 f4 34 ba f2 0f e0 bc a4 cd 7e 3c
       0.027310701 -0.0006902955 -0.027351353 0.015551958
000080 43 3a 04 3b 55 f0 dd bc d2 d4 45 bd 24 98 32 bc
       0.0020176328 -0.027092138 -0.048298664 -0.010900531
000090 42 75 a3 bc 88 b9 d9 bb 5f 12 b0 bc 13 57 1e bd
       -0.019953374 -0.0066444315 -0.021493135 -0.03865726
0000a0 b1 da 91 bd 5f 99 7d bd 1a 4c 95 bd fb 06 9f 3c
       -0.0712179 -0.061913844 -0.07289906 0.019412508
0000b0 f4 59 ec 3c 31 a9 f9 3c 1f 4b 6b 3d 5d 54 d0 3d
       0.028851487 0.030476185 0.057444688 0.10172341
0000c0 17 6d 02 3e f3 b3 01 3e 5a 2c 7f 3c d1 b5 c4 bc
       0.12736927 0.12666301 0.015574539 -0.024012478
0000d0 99 e7 0b bc 31 2c ce bc e9 26 20 bd 36 32 e3 3c
       -0.008539104 -0.025167556 -0.039099608 0.027733903
0000e0 cf 79 6d 3d f0 0d 3b 3d 19 62 56 3d 33 10 5a 3d
       0.057977494 0.04566759 0.052339647 0.053238105
0000f0 f0 69 9f 3d 34 df 3a 3d 0a 1b f0 bb 46 9c 65 3d
       0.07783878 0.04562302 -0.007327442 0.056057237
000100 b9 2f 18 3d d4 84 71 3c b9 df 29 3b 87 89 2e 3c
       0.037154887 0.014741141 0.0025920703 0.010652906
000110 7a 45 54 3b 29 6e 36 3d 9c 4e 99 3d 63 16 fb 3d
       0.0032390044 0.04453865 0.07485697 0.12260129
000120 13 3f 84 3c 15 a7 85 3d 05 c4 34 3d 52 dc 22 3d
       0.016143357 0.06526009 0.04413225 0.039760895
000130 4e 1c 31 3d 68 e8 90 bd df c5 b9 bc 87 b5 74 bb
       0.043239884 -0.07075578 -0.02267736 -0.0037339644
000140 e4 0b c7 bc 07 d6 11 bc 42 32 7a bc 87 41 dc 3c
       -0.024297662 -0.008901126 -0.015270771 0.026886715
000150 30 b9 36 3d bd e4 4a 3d da 75 b7 bc 70 97 61 3c
       0.044610202 0.049534548 -0.022395063 0.013769016
000160 06 59 2c bb 47 58 e7 bc 22 bd 75 3c 64 47 5c 3c
       -0.002629818 -0.028240336 0.014998706 0.013444755
000170 c8 90 7c 3a bd 4c 2c bd dd 96 a6 3d 5b ca 90 3d
       0.0009634611 -0.04206537 0.08134244 0.07069846
000180 57 9b f4 bc f8 2f 18 be 7b 04 a2 bd 6a de 86 3c
       -0.029859228 -0.14862049 -0.07911011 0.016463477
000190 4a 90 c7 3b 74 04 9f bc 56 09 e7 ba 4c 76 05 bd
       0.0060901986 -0.019411303 -0.0017626684 -0.03258352
0001a0 d2 c0 f4 3c a6 ea b9 3d a5 55 0a 3d 28 7e 6d 3d
       0.0298771 0.09077959 0.033773083 0.05798164
0001b0 4d 4c 48 3b ab 48 2d 3d c6 a2 fc 3d 06 11 77 3d
       0.0030563057 0.04230563 0.12335734 0.06031897
0001c0 74 c8 8c 3d 1b e9 5e 3d f2 00 66 bd f1 42 b5 3c
       0.06874171 0.054421525 -0.056153245 0.022126647
0001d0 e6 e6 fa 3c 63 e9 83 bd 3e a2 0f bd 5c d3 75 3d
       0.03062768 -0.06440999 -0.035066836 0.06001602
0001e0 18 5b 94 3d 82 bf c0 3c 76 ed 0b 3e bc b0 35 3e
       0.07243937 0.023528818 0.13664803 0.177432
0001f0 39 cd c1 bd b2 8d 4d bc 38 37 28 3d be 4f b3 ba
       -0.09462971 -0.01254599 0.041068286 -0.0013680381
000200 5b 98 b3 3d 1f df 91 bc fb dd 23 3d aa e7 61 3d
       0.08769294 -0.017806588 0.04000662 0.055152573
000210 67 5f f0 bb 11 04 b4 3d 38 9a 96 3d b1 7d 02 3e
       -0.0073355916 0.08789838 0.07353634 0.1274326
000220 e8 8e bd bc 17 c8 3c 3d 62 7a b6 3c e5 4c 00 3d
       -0.023139432 0.046089258 0.022275154 0.031323332
000230 1e 5b c6 bc f7 29 8f bd 38 ac dd 3d 76 30 e4 3d
       -0.02421337 -0.06990426 0.10823864 0.11142056
000240 21 c2 23 bb a5 e3 c4 3d 33 26 78 3b e0 a8 51 3c
       -0.0024987536 0.09613732 0.0037864565 0.012796611
000250 64 18 1e bc 4c cb c7 bc 25 f3 39 bc 4c 5a e0 bc
       -0.00964937 -0.024388932 -0.011349474 -0.027386807
000260 9c 72 5a 3c 8f 02 67 bd 63 d0 34 3d fb f4 8d 3d
       0.013332989 -0.056398924 0.044144046 0.06931492
000270 ed e8 5b 3d 9c 17 07 3c 7c 95 ef bc a2 d5 31 3d
       0.053688932 0.008245375 -0.029246084 0.043416627
000280 24 5b 8c bc 75 63 68 bd 35 87 c7 ba ea 00 04 3d
       -0.017133303 -0.056735475 -0.001522279 0.032227434
000290 50 77 89 3c b5 72 13 bc 2c b6 63 3d be 2a 54 3d
       0.016780525 -0.008999516 0.055593655 0.051798575
0002a0 bb ba 1d 3d 6d 5b 91 3d 70 02 1e bd 3c a6 3f 3c
       0.03850816 0.07097516 -0.038576543 0.011697348
0002b0 98 d9 de 3c c3 5a 08 3d 6e 07 1a 3d e2 ac aa 3d
       0.027203366 0.033289682 0.03760474 0.08333756
0002c0 34 c6 1b 3d 44 4a 69 3d c6 59 26 bc 9f 77 4e bd
       0.038030818 0.05695559 -0.01015324 -0.05040705
0002d0 35 f3 f1 bb bb fb 70 bc b6 0a 1d bc 44 e1 41 3d
       -0.007383729 -0.014708455 -0.009585073 0.04733397
0002e0 49 58 91 3d ab a3 a7 3d bf 48 ca 3c c8 02 82 3d
       0.07096917 0.08185514 0.024692891 0.06348187
0002f0 52 bf 16 3e 24 0c ec 3c 17 fb e6 3b f8 e9 05 bc
       0.1472142 0.028814383 0.007048975 -0.008173458
000300 e3 4e 5c bc 3c 9a d0 bc 89 b5 04 bd 42 04 3b bc
       -0.013446542 -0.02546417 -0.032399688 -0.011414589
000310 41 31 7e 3c f9 d5 92 bc 44 a2 0a 3d be 67 c1 3c
       0.015514673 -0.017924296 0.033846155 0.023609038
000320 9a 24 37 bd f7 4e 89 bd 76 61 d5 bc 69 39 0e 3c
       -0.04471264 -0.067045145 -0.02604745 0.00868068
000330 4a 3a e3 bb cd 8e 64 3c 53 e5 15 3d 23 8c 2c 3d
       -0.006934439 0.013950062 0.036595654 0.042125832
000340 9d 6f b0 3d 2c c8 9c 3d 38 70 d6 bc 7d 40 bf bc
       0.086150385 0.07655367 -0.026176557 -0.02334618
000350 cc d9 e3 bc a0 59 c8 3b 1c e0 7c 3b 11 a5 81 bb
       -0.027813815 0.0061141998 0.0038585728 -0.003956445
000360 d4 72 36 3d 5c 2b 3d bd 35 a4 2b 3d 02 3f 3b bd
       0.044543102 -0.04618393 0.041904647 -0.045714386
000370 4f a3 b0 38 4a f1 f9 bb 77 ef 12 bd 29 62 36 bd
       8.4227526e-05 -0.007627641 -0.035872903 -0.044527207
000380 77 c5 16 bd 45 3c 4e bd 02 78 1e bd 22 85 00 bd
       -0.03680941 -0.050350446 -0.038688667 -0.031376965
000390 96 b0 e1 3c 65 68 39 3d cf 00 bc 3c 39 95 83 bb
       0.027550023 0.045265574 0.022949604 -0.0040155915
0003a0 00 d9 b3 bc be 54 09 bd 83 43 16 3c fc 7c ab bb
       -0.02195406 -0.033528082 0.0091713695 -0.005233405
0003b0 1d 0b 07 3d 7a bd 07 3d 57 a7 f7 3c 91 c9 42 bb
       0.032969583 0.033139683 0.030231161 -0.0029722194
0003c0 bb fa f9 bb ba f5 cc bc da 52 2e bd 73 9e 2f bd
       -0.0076287664 -0.025019515 -0.042559482 -0.04287572
0003d0 4d 8b c6 38 e7 b5 57 bc 1d 07 ab 3b ad 5b 27 bd
       9.4673225e-05 -0.0131659275 0.005219354 -0.040858913
0003e0 f9 44 8c 3c fc c3 2c 3c 0a b9 34 3d 80 0c bd 3b
       0.017122732 0.010544773 0.04412178 0.0057693124
0003f0 6b c0 39 3c e1 66 c3 bc bd ad 96 bd 8c 08 11 bd
       0.01133738 -0.023852767 -0.07357357 -0.03540854

fc1.bias f4 [75]
000000 69 a7 0e 3e a6 df e8 bd 9c 68 98 3d 9e e4 77 bc
       0.1393105 -0.113707826 0.07441828 -0.01513019
000010 2c 86 dd bd d4 70 76 3c 4c 03 d4 ba 25 19 f3 bd
       -0.10816607 0.015041549 -0.0016175299 -0.1187003
000020 2a b1 99 be 91 da 49 3c 3a 87 60 bd c8 4b 02 be
       -0.30017978 0.012320177 -0.054816462 -0.12724221
000030 fc 9c d3 3c d1 dd 19 bd 06 35 4e 3e 35 99 fc bd
       0.025831692 -0.037565056 0.20137414 -0.123339094
000040 d4 55 7f 3d 10 68 2a 3e 6f 9e c3 bd 10 10 99 bc
       0.06233771 0.16641259 -0.09551703 -0.018684417
000050 25 87 c5 3d b4 39 05 3e 8f 46 78 3d 88 59 2e bc
       0.096449174 0.13010293 0.060614165 -0.010641463
000060 bc 0e 17 be 97 7e 3c be 41 da cd 3d 4b 5f 1b be
       -0.14751714 -0.18407665 0.10051394 -0.1517307
000070 6e 55 5a bc 4c 8b de bd 40 2f fd 3d ae 01 82 bd
       -0.013326032 -0.108664125 0.12362528 -0.063479766
000080 c4 53 d0 3d ee f5 0e 3d fb fc 7c 3d 83 f6 c7 bd
       0.10172227 0.034902506 0.0617647 -0.09763815
000090 ac 33 e6 bd a5 e1 80 bd 91 52 39 be 9c 2b 81 3d
       -0.112403244 -0.06293038 -0.18097903 0.06307146
0000a0 ad 34 94 3d ae eb f0 ba 2a ec 1d 3d 28 ff 74 bd
       0.072366096 -0.0018380785 0.0385553 -0.05981365
0000b0 c4 f6 9c bd 97 df 04 bd cf 6a 09 bd 13 f0 c2 bd
       -0.07664254 -0.032439794 -0.033549126 -0.09518447
0000c0 c6 58 fb bc 2c 9c df 3c 8a 04 ae 3c 60 99 3d 3d
       -0.030681979 0.027296148 0.021242399 0.046288848
0000d0 47 29 b0 bd d7 a3 1e 3d fa 8d 13 3e 3e 68 b0 bd
       -0.08601623 0.03873047 0.14409629 -0.086136326
0000e0 91 97 60 3d 25 79 d4 bd 2d b0 15 be 01 e8 8d bc
       0.054832045 -0.10374669 -0.14617987 -0.017322542
0000f0 48 4a 00 3e 19 4f 30 bd db 75 04 3d e4 df 83 be
       0.12528336 -0.043044183 0.03233896 -0.25756752
000100 21 ca fb bd e2 7b a0 3c cd 35 29 3d 40 07 e8 bc
       -0.122944124 0.019590322 0.041311074 -0.02832377
000110 6e 00 9c bc 04 6a 2f 3d df de 9b bd bc 7e 9f 3d
       -0.019043174 0.042825714 -0.07610869 0.077878445
000120 ac 48 15 3e bb d1 52 3c 93 68 c2 bc
       0.14578503 0.012867386 -0.023731505

fc2.weight f4 [75, 75]
000000 dc 18 d8 bd 8a eb f7 3d b2 95 cf 3d b5 5b d4 3d
       -0.105516165 0.121054724 0.10135974 0.10369054
000010 20 0f 08 3e 6b d1 42 bd 57 b6 12 be 06 d6 ad ba
       0.1328702 -0.047562998 -0.1432737 -0.0013262636
000020 fe e1 90 3d d4 13 8a 3b 18 fc 02 3e b9 28 49 3d
       0.070743546 0.0042137895 0.12791479 0.0491111
000030 25 24 a4 3d 20 27 a0 bd e2 57 15 bd 19 bb 92 3d
       0.080147065 -0.078199625 -0.036460765 0.07164592
000040 fd 1c 4b be f0 67 df 3c cd d9 3c 3c 48 15 a0 3d
       -0.19835277 0.027271241 0.011526537 0.07816559
000050 a7 f8 32 bd 52 0f a6 bd a8 12 93 bd 73 18 b4 bd
       -0.043694165 -0.08108391 -0.07181293 -0.08793726
000060 1d 2a f7 3c d0 a0 30 3e ac ba 8e bd c9 25 28 3e
       0.030171448 0.17248845 -0.069691986 0.16420664
000070 7f 74 45 3d 4a 16 1d bd 8a 51 32 be 6a d4 ec 3d
       0.048206802 -0.038351335 -0.17413917 0.11563952
000080 c0 06 97 3b fe e9 94 3b 7d fe 4a bd 2a ec f8 3d
       0.004608959 0.0045444956 -0.049559105 0.1215442
000090 d3 35 8c 3d 09 83 71 bd f6 c8 87 bb 33 bb 2c 3e
       0.06846204 -0.058962855 -0.0041438295 0.16868286
0000a0 5d ac 52 39 05 c0 01 3e b0 99 2f 3e 70 63 9b 3c
       0.00020091371 0.12670906 0.17148471 0.018968314
0000b0 59 e7 24 3e 2c d1 c1 bd 64 90 ae bb 12 58 9d bd
       0.16103877 -0.094637245 -0.0053272713 -0.07682814
0000c0 a2 10 5d bd 9a 2e 07 3e 92 b0 56 3e 6d 61 01 3e
       -0.05397094 0.13201371 0.20965794 0.12634821
0000d0 fc f8 28 bd 93 be d3 bd a4 2f 7a bd 90 ca bb 3d
       -0.041253075 -0.103390835 -0.06108059 0.09169495
0000e0 ab c1 59 be 89 08 fd bc ce 1e c6 bd 05 3c 45 bd
       -0.21265285 -0.030887859 -0.09673844 -0.048152942
0000f0 40 01 0c bc fe bf a7 3d 75 27 39 bd a8 53 44 3e
       -0.00854522 0.081909165 -0.045203645 0.19172537
000100 d5 c6 9a 3c 31 ce 7c 3b 2e ba 79 3c d1 92 c9 3b
       0.018893639 0.0038575048 0.015242143 0.006151535
000110 63 d8 28 bc 1b 74 95 3d 9b 39 0e 3d 59 98 1d 3d
       -0.010305497 0.07297536 0.034722906 0.03847537
000120 ff d6 11 be db d1 0e 3d a5 14 a7 bd 9d 86 a5 bd
       -0.14242171 0.034868103 -0.081582345 -0.08082316
000130 64 bd 31 be 98 1a 51 3d 22 7f 07 3d 85 c7 63 3d
       -0.17357403 0.051050752 0.033080228 0.0556102
000140 2a 73 20 3d af 26 cb bd 92 3b 2b 3d 0c b4 d4 3c
       0.03917233 -0.09919488 0.041804858 0.02596476
000150 f5 cb 50 3e 66 14 c0 3d bb 17 e0 bc 87 d2 eb bc
       0.20390303 0.09378891 -0.027355066 -0.02878691
000160 9b 59 4e ba 2a d7 b7 bb 84 67 9a 3d 5d 23 17 3d
       -0.00078716286 -0.0056103664 0.07539275 0.03689896
000170 96 7e a6 3d 50 39 9f 3c 82 36 e8 3c 40 55 08 3e
       0.08129613 0.019436508 0.028346304 0.1331377
000180 0b bf 8f bd 3e 89 02 be 28 9b d2 bc 59 ef 3d bd
       -0.070188604 -0.12747666 -0.02570875 -0.046370838
000190 d9 c5 e0 3d 1a ab 5d be 2e b0 93 3d b3 3f 6d 3b
       0.109752364 -0.21647301 0.07211338 0.0036201298
0001a0 f6 21 80 bd 46 ea 94 bc 59 98 bf 3d bd b3 46 3d
       -0.062564775 -0.018178117 0.0935523 0.048511256
0001b0 d0 51 0f be 42 d0 82 3d 8c 5e a8 3d cc 5d 04 3e
       -0.13996053 0.06387378 0.082211584 0.12926406
0001c0 a4 0d 24 3c d4 b0 ef 3d 1a 11 9b 3d 49 18 98 bd
       0.010013018 0.11703649 0.07571621 -0.07426507
0001d0 fd 88 dc 3c 41 04 2d 3d 2d ae 1d bc 49 10 1c be
       0.02692079 0.042240385 -0.009624046 -0.15240587
0001e0 d4 85 d6 3d 67 f9 4d 3d c4 b1 ab bd b5 ec 06 3d
       0.104747444 0.050286677 -0.083835155 0.032940585
0001f0 49 23 87 bd 52 b3 14 3e 32 71 ae 3d 63 7c 29 3e
       -0.06598527 0.1452153 0.08517684 0.16551356
000200 88 1e dd bd dd 86 16 be bd 8f d3 3d 58 3c d3 3c
       -0.10796839 -0.14699884 0.1033015 0.02578561
000210 fe 96 a8 bc 0b 3e 97 bc 89 bb 80 3d 35 16 13 3e
       -0.020579811 -0.018462202 0.062857695 0.1436394
000220 ac 33 9e 3e 21 7d be bd a3 fd e6 bd 5e b7 f3 3b
       0.30898798 -0.0930121 -0.11278846 0.0074376306
000230 a0 16 91 bc c4 25 02 3e 2f 99 90 bd ae 12 cb 3d
       -0.017710984 0.12709719 -0.070604675 0.09915672
000240 e6 86 11 3e f3 56 e8 bc a7 7f 05 3e 29 93 32 be
       0.14211616 -0.028361773 0.13036977 -0.1743895
000250 28 7d f0 bd 1b 77 f6 bd 07 ae 52 be 2e 47 97 bd
       -0.11742622 -0.12034436 -0.20574199 -0.07386623
000260 69 82 38 bd e0 46 af bd 4a 66 fc 3d ea 27 bd bd
       -0.045046244 -0.0855844 0.123241976 -0.09236129
000270 75 98 98 bd 6a 0c ef 3d cc d5 95 3c d9 ee aa 3d
       -0.07450954 0.1167229 0.018290423 0.08346338
000280 bf 0a cb 3d f3 8e fb 3d 1d 81 10 be cf 06 e2 3d
       0.09914159 0.12283125 -0.14111753 0.11036455
000290 0b 5e 0b 3d 34 d7 f9 bd fa 9a 0c 3e 43 d7 95 bd
       0.034025233 -0.1219925 0.13730994 -0.073164485
0002a0 69 ed 8f 3d d0 6c 6a bd 52 94 2f 3e 59 45 91 bd
       0.07027704 -0.057232678 0.17146423 -0.07093305
0002b0 ec 2e dd bd ae 53 64 bd b4 88 9b 3d 1c d1 6a 3e
       -0.10799965 -0.055743866 0.075944334 0.22931331
0002c0 4f 0b 43 bd c0 73 61 3d 8c 52 79 3c 08 28 f2 3d
       -0.047618207 0.05504203 0.015217435 0.118240416
0002d0 a9 17 1d be 77 bd 22 3e c6 06 c6 bc fe dc 18 3e
       -0.15341057 0.15892588 -0.024173152 0.14928052
0002e0 f4 46 ef 3d c2 cb 45 bc 2f 7b 20 bd 00 9b d0 3c
       0.11683455 -0.012072505 -0.039179977 0.025464535
0002f0 9b cb 95 bc a3 a7 c6 3c 5c 3b 04 bd 54 ea 2d 3e
       -0.018285563 0.024249857 -0.032283172 0.1698392
000300 26 09 0d 3e ca 61 5e 3d eb 26 4d 3b 5a 0d c8 bc
       0.13773021 0.054292478 0.0031303714 -0.024420429
000310 85 3b 71 3d 1c 61 f6 bc a0 1a 5c bd eb c5 a5 bd
       0.058894653 -0.030075602 -0.05373633 -0.080943905
000320 2d 98 f6 3d 98 3f 34 bd b2 53 58 3e d5 7f be bc
       0.12040744 -0.04400596 0.21125677 -0.023254314
000330 e9 9f 86 bd 66 5e c0 bd df b0 86 bd bf a2 0a 3d
       -0.06573469 -0.09393005 -0.06576704 0.033846613
000340 30 e8 a8 3d 63 a6 60 be 12 b5 0a 3e af 3b 9e bc
       0.08247411 -0.21938471 0.13545635 -0.019315569
000350 de 06 30 be 5d 74 d7 3d 88 d5 42 3e a2 b9 23 3e
       -0.1719012 0.105202414 0.19026768 0.15988782
000360 d1 04 e0 bd 07 51 eb 3c ed 4a 34 bd 9a 9a af bc
       -0.10938419 0.02872516 -0.044016767 -0.021436024
000370 7d d9 3f be 0e 4a 67 3e a3 eb 52 bd 62 bb 8d 3d
       -0.18735309 0.22586843 -0.051494252 0.06920506
000380 7a 3a 20 3e 89 3c ce bd 26 b8 7d be 4a 82 f2 bd
       0.15647307 -0.1007014 -0.24777278 -0.11841257
000390 04 32 83 bb 6f 5f 5f be 62 05 49 bd 63 5f f9 3c
       -0.004003765 -0.21813749 -0.0490774 0.030440992
0003a0 c9 b2 c1 3d 10 4e 6f 3e 7a 5b 9e bd fa 9c 88 be
       0.09457929 0.23369622 -0.077322915 -0.26682264
0003b0 5d b4 a1 3d 0e 71 f9 3d be 69 e1 3d 07 32 23 bc
       0.0789573 0.121797666 0.11006497 -0.009960658
0003c0 f8 56 f6 3d 08 cd 76 3e 19 90 1c bd 3a 4c 09 3e
       0.12028307 0.2410165 -0.03822336 0.13407984
0003d0 42 53 00 3e c4 3c 2d 3e 4b 11 7b 3d 8e df 18 bc
       0.1253176 0.16917711 0.06129579 -0.009330643
0003e0 2b bc 05 3d c0 2d 9c 3d a3 7b 90 bc 27 17 74 3c
       0.032650154 0.076259136 -0.01763708 0.014898098
0003f0 a6 61 de bd 50 29 97 bc 35 41 23 3e bb 25 5d 3d
       -0.10858469 -0.018452317 0.15942843 0.05399106

fc2.bias f4 [75]
000000 05 96 d3 bc 83 d3 09 3d 21 fb 9c bd 92 f8 d9 bd
       -0.02582837 0.03364898 -0.076650865 -0.10643114
000010 38 b3 3f 3e 8c 15 45 3e 15 18 d2 3d c7 d0 2d be
       0.1872071 0.192465 0.102584995 -0.16974173
000020 27 92 81 3b ca 8e 17 be 06 78 d7 3d 2d 36 b5 bd
       0.0039541903 -0.14800563 0.105209395 -0.08848224
000030 a3 a7 47 3e 62 b7 a3 bb 9b d5 9f bd c2 53 0c be
       0.19497542 -0.004996226 -0.07804414 -0.13703826
000040 ed f2 21 3d 60 6b c5 3d d1 74 9e bb 69 12 5c bd
       0.039538313 0.09639621 -0.004835703 -0.053728495
000050 07 42 4e bd 75 d5 5f 38 92 a3 13 bd e2 ae 21 be
       -0.050355937 5.336614e-05 -0.036044665 -0.15789369
000060 aa f7 67 bd 1e d5 d1 bb 3d d2 a2 3d ec 03 fd 3d
       -0.056632675 -0.0064035794 0.07950256 0.12354264
000070 55 69 47 3d f7 c2 90 bd 54 cf e4 3d 4f a5 4b 3c
       0.048684437 -0.070684366 0.11172357 0.012429549
000080 cf b4 62 bd ef f9 11 3e a1 a2 be 3c 2a 90 c9 3d
       -0.055348214 0.14255498 0.023270907 0.0984195
000090 39 cf 2e 3d 88 09 d1 bc 9d 11 b8 bc cb 60 8a 3d
       0.04267809 -0.02551724 -0.022469336 0.06756743
0000a0 43 ea 92 bc d4 f9 4d bd 2b 4b 39 3d 6d 01 8c bd
       -0.01793397 -0.050287083 0.0452377 -0.068362094
0000b0 9f 75 93 bd 14 68 4d 3d a5 be 5a bd bc a3 ab 3d
       -0.07200169 0.050148085 -0.05340447 0.08380839
0000c0 b3 7b 1b 3d cc f6 da 3d 68 bb bb bc d6 89 c8 bd
       0.037959766 0.10691604 -0.02291651 -0.09791915
0000d0 74 7e 36 bb 2f 08 93 bd d1 62 a3 3d a8 75 91 3c
       -0.0027846368 -0.07179295 0.07977832 0.017756298
0000e0 7d 56 2b 3c 7a e9 f6 bc 2e 23 71 3d 83 9e f0 bb
       0.010457632 -0.030140627 0.05887144 -0.007343115
0000f0 1e c0 d5 bc 85 a3 22 3e 8f 3b 2d bd d1 ec 16 bd
       -0.026092585 0.1588269 -0.042293128 -0.03684694
000100 3e c2 14 3e 90 44 a7 3d 87 c3 a2 3d bc 3b e9 3d
       0.14527223 0.08167374 0.0794745 0.113883466
000110 2e 4e 13 3e 5b 81 eb 3d d1 25 6f 3d ac 61 e1 bd
       0.14385292 0.11499282 0.058385674 -0.110049576
000120 4e e2 a1 bd 27 73 c0 3d 75 a4 ef 3c
       -0.07904492 0.093969636 0.029253224

out.weight f4 [38, 75]
000000 d4 df ab bd 60 e9 43 3d d7 c7 09 3e 9b e7 83 3e
       -0.08392301 0.047829986 0.13455139 0.25762638
000010 f0 18 62 bc 4a bc 6d be ff 5a d9 bd 74 c7 21 bb
       -0.013799891 -0.23216358 -0.10613059 -0.0024685534
000020 37 15 a8 3e 76 f8 8d 3e 19 f0 9c be eb c7 8e 3e
       0.32828686 0.27728623 -0.3065193 0.278869
000030 4c 57 42 3e 12 1f 96 3e 39 da 65 be ad de ff bd
       0.18978614 0.2932058 -0.22446527 -0.12493644
000040 7f 10 5e 3d c2 18 bf 3d ec 4a a2 be 90 44 c5 bd
       0.05421495 0.09330894 -0.31697786 -0.09632218
000050 c4 2f a5 3b 6b 42 47 3e 9d 14 96 3e 22 f1 89 3e
       0.0050410945 0.1945893 0.29312602 0.26941782
000060 04 36 73 be 73 30 e5 bd c6 5c 43 3e be fc a8 be
       -0.23751074 -0.111908816 0.19078359 -0.33005327
000070 98 0c 32 be c7 5d e9 bb fb 32 6b 3e 10 c7 31 be
       -0.17387617 -0.007121775 0.22968666 -0.17361093
000080 f6 7a 8f be 9c 24 97 3e 0e 72 4f 3e 04 7f ac 3b
       -0.280235 0.29520118 0.20258352 0.005264165
000090 c8 00 3a 3e 1e 64 9f 3d 5d 23 a3 3d 02 79 7f 3c
       0.1816436 0.07782768 0.079657294 0.015592815
0000a0 52 00 8c be 23 a1 f2 3d 45 ad 75 3e a4 e7 b4 3e
       -0.27343994 0.11847141 0.23991878 0.35332978
0000b0 c2 33 43 be 56 5d 92 be 95 84 b0 bd b2 41 f1 3d
       -0.19062713 -0.28586835 -0.08619038 0.117801085
0000c0 67 65 48 3e de 18 a3 be c6 dc 45 3d 08 91 65 be
       0.19569932 -0.3185491 0.04830625 -0.22418606
0000d0 60 ef 57 be 94 25 91 be 74 24 ca 3c 26 1f 91 3e
       -0.21087408 -0.28348982 0.024675585 0.28344077
0000e0 98 8b 85 3e 77 2d 7b be bd af 97 3e 5e 00 8e 3e
       0.26083064 -0.24529062 0.29626265 0.27734655
0000f0 56 0d 4e be 14 b8 0f 3d 46 e4 09 be 58 a3 d1 3d
       -0.20122275 0.03508766 -0.13465986 0.102362335
000100 7a 3a af be 38 34 14 3d b3 ff 87 3c dd 03 bc bc
       -0.34224302 0.036182612 0.01660142 -0.02295106
000110 a0 73 39 3e 53 62 a8 bb 16 0f be bd 71 34 25 3e
       0.18110514 -0.0051386743 -0.09280221 0.16133286
000120 53 2c af 3c 47 ee 50 bd 80 56 d4 bd 65 f0 74 be
       0.02138344 -0.05100849 -0.10368061 -0.23919828
000130 b7 05 7d 3d 6b 2a 58 be 3b c6 d1 3d 4f 37 37 be
       0.06177303 -0.21109931 0.102428876 -0.17892192
000140 28 17 6a 3d c4 1d df 3b cb 5e 23 3e 1b 7c 54 be
       0.05715099 0.0068089683 0.1595413 -0.20750467
000150 40 13 69 3c 09 37 ea bd 83 ed 44 be ad 31 4b bd
       0.014225781 -0.114362784 -0.19231229 -0.04960792
000160 79 f4 a1 bd 5f a6 93 bd e3 55 64 3e 15 65 72 be
       -0.079079576 -0.07209467 0.22298388 -0.23671372
000170 72 89 34 3e a4 9a 13 3d f6 d2 08 be e7 2d 4d 3e
       0.17630556 0.03603615 -0.13361725 0.20037042
000180 53 c0 44 3e 5f 83 5d be 4e 82 c5 bd de 61 f0 3b
       0.19213991 -0.21632145 -0.09643994 0.0073358854
000190 4f fc 4b 3e db b6 15 be bf 24 81 3c f1 e2 ce 3c
       0.19920467 -0.14620535 0.015764592 0.025254698
0001a0 60 08 ea bd d1 28 26 bc 25 e7 6c be b3 86 0a 3e
       -0.11427379 -0.010141567 -0.2313505 0.13527946
0001b0 db a1 cf 3c dd 76 87 be 94 83 56 3e 14 7b 19 3e
       0.025345733 -0.26457873 0.2094863 0.14988357
0001c0 14 fb c5 bd ff 60 89 3d f1 07 1a 3d af ee 7b be
       -0.0966703 0.06707954 0.03760523 -0.2460277
0001d0 8c da cd 3c c4 23 00 bd df f3 ff bd 52 a3 1f 3e
       0.025128625 -0.03128411 -0.124976866 0.15589646
0001e0 18 b2 25 bd 74 22 9a bc 42 58 a7 bc 21 ac 26 bd
       -0.040453047 -0.018815257 -0.020427827 -0.0406915
0001f0 ad 2a 2a 3d 75 3a 81 be 56 09 ed 3d c2 97 28 3e
       0.041544605 -0.25239912 0.11574046 0.16464141
000200 30 49 1a 3e 8a 1d a4 bd 6f 71 12 be 7a 55 cd 3d
       0.15066981 -0.08013447 -0.14301084 0.10026069
000210 bc 98 77 3e 32 ec 0e be 34 72 f9 bc 74 08 f3 3d
       0.24179357 -0.13957289 -0.030449964 0.11866847
000220 00 f9 8a bd 0f be a7 bd af aa 03 bd c6 8e 29 3e
       -0.06785774 -0.08190548 -0.0321452 0.1655837
000230 87 a7 2f be 16 00 03 be e2 54 78 be 78 da e5 3d
       -0.1715375 -0.12793002 -0.2425113 0.1122331
000240 e6 06 97 be ee 19 4b be 39 3f 95 ba b7 10 72 bd
       -0.2949745 -0.1983411 -0.001138664 -0.05909797
000250 8a a1 97 be 9e c4 46 3d af 47 9f 3e 04 fd 7b 3e
       -0.29615432 0.048527353 0.31109378 0.24608237
000260 af 12 96 3e 7c ed a4 3c a1 ef 6a bd 03 0f 75 be
       0.2931113 0.020132773 -0.057357434 -0.23931508
000270 a4 ac 11 3d c2 d2 9c 3e 96 2b 0d 3d 2b a5 b9 bc
       0.035565034 0.30629545 0.034465395 -0.022661766
000280 dc 23 02 be 1f e6 5d be 05 49 68 be 15 22 37 3d
       -0.12708992 -0.21669815 -0.22684105 0.044710238
000290 03 6a 0d be d8 f0 8b 3e 94 5a 57 3b 27 2b 1b 3e
       -0.13809972 0.27332187 0.0032860385 0.1515318
0002a0 61 be 71 bd c4 3c a1 3e f7 25 32 3e b3 82 29 bd
       -0.05901945 0.31491673 0.17397295 -0.04138441
0002b0 aa fa 08 bd 3a ed 0a 3e 7a 6d 61 3e b8 2e 43 3e
       -0.033442177 0.13567057 0.22014418 0.1906079
0002c0 8f 43 a3 be 30 69 c2 3d 54 5a 58 3e f6 d6 eb bc
       -0.3188748 0.09492719 0.21128207 -0.028789025
0002d0 19 5c 92 be 71 5d d6 3c 60 74 ef bd 54 25 22 be
       -0.2858589 0.026167603 -0.11692119 -0.15834552
0002e0 62 80 8c be 7c 43 a9 be b8 52 87 3c 4b 5a 15 be
       -0.27441698 -0.330593 0.016518936 -0.14585225
0002f0 6d 38 82 be 80 44 70 be 6d 96 6e be af ea c3 3d
       -0.25433674 -0.2346363 -0.2329957 0.09566247
000300 c2 ac 89 3e c1 6c c5 bd b8 00 af 3d 14 50 0c be
       0.26889616 -0.09639884 0.08545059 -0.13702422
000310 88 3e 37 be 4f 01 da 3d c5 e6 2d be 25 2b 83 be
       -0.17894948 0.10644781 -0.16982563 -0.25618854
000320 e0 a3 05 bd a5 82 4b 3e 26 1d 9d 3e 6f 8d 5f be
       -0.032626987 0.19874056 0.306863 -0.21831296
000330 d9 5f f6 bd 74 e7 57 be 29 b5 6f 3e aa 85 22 bd
       -0.1203 -0.21084386 0.23408951 -0.039678253
000340 be b5 8b be 96 1f bd bc 42 eb 6c 3d 4a 6b ac 3d
       -0.27287096 -0.02308635 0.057841547 0.08418901
000350 33 3f 9b 3c d3 aa 76 be 76 4b 14 be f2 e2 1f be
       0.018951034 -0.24088602 -0.14481911 -0.15613917
000360 2b 09 8e 3e 7a ac 74 be ac 83 92 3e c2 9e 6e be
       0.2774137 -0.2389392 0.28616083 -0.23302749
000370 99 f4 9e 3d d7 e0 9e be d9 15 ad bd fd 4e 82 be
       0.07761497 -0.31030914 -0.08451433 -0.25450888
000380 48 ec 52 bc 06 dc 20 be bc 58 8c 3d 63 e8 62 be
       -0.012873717 -0.15708932 0.06852862 -0.22158961
000390 72 8a 01 3e af a6 a9 3d a0 7d 0c 3d 4c 50 5b 3d
       0.12650469 0.082837455 0.034299493 0.053543374
0003a0 40 63 10 bd a4 3d 83 be ef 3b 95 3e 99 97 27 3d
       -0.035250902 -0.25632966 0.29147288 0.04091606
0003b0 6d 16 95 3e 3d e6 6c bd df f2 14 be b5 eb ad 3d
       0.29118672 -0.05783676 -0.14545773 0.08492223
0003c0 cc f3 53 3e ae a7 f7 bc 73 bc 8d be 8c 07 cb bd
       0.2069847 -0.030231323 -0.27682838 -0.09913549
0003d0 94 c7 8a bd f4 06 33 3e 35 ad 12 3e 1f 5e 10 3e
       -0.06776348 0.17483121 0.14323886 0.14098404
0003e0 ad d0 6e 3e b8 57 74 be 9a f2 77 3e 1f 11 dd 3d
       0.23321791 -0.23861587 0.24213639 0.10794281
0003f0 98 af 84 be d6 78 b5 3d 3c 05 53 3e 34 f9 66 3d
       -0.25915217 0.08860938 0.20607466 0.056390002

out.bias f4 [38]
000000 e0 d3 18 3c da 23 48 bd 0d a0 82 bd 38 b1 ac bc
       0.009327859 -0.048862316 -0.063781835 -0.021080598
000010 4f 8e 27 bd 93 b8 11 be d3 7f 0a be 9c fb 6a bc
       -0.0409072 -0.14230566 -0.13525324 -0.014342215
000020 32 6c 57 bd cd 75 94 bd 5c c0 9c bd 06 ab 1e 3e
       -0.052593417 -0.07249031 -0.07653877 0.15494928
000030 84 c1 91 bd f3 eb 53 bc 85 7e ce bc 55 a1 a6 bd
       -0.07116988 -0.012934673 -0.025206814 -0.081362404
000040 99 2c d9 3d 84 56 60 bd f4 2a 81 3d 70 df 1e 3e
       0.106042095 -0.054770008 0.06307021 0.15514922
000050 02 38 8e bd 27 d7 af 3d ef 1e f1 bd c2 c3 01 3e
       -0.069442764 0.08585959 -0.11773478 0.12672332
000060 84 86 ad 3d ac 9a 84 bb 82 b2 07 3e d6 ee 35 bd
       0.084729224 -0.0040467586 0.13251689 -0.044417225
000070 91 a0 9d 3d 83 7c 9a bc af 42 bb 3d 9f 7d 59 3e
       0.07696641 -0.0188582 0.09143578 0.21239327
000080 21 5b b2 3d 78 56 e2 3d 31 81 ce bd 20 36 35 bc
       0.08708788 0.11051649 -0.10083235 -0.011060268
000090 aa 2f 45 3d e7 c4 8b bd
       0.04814116 -0.068246655

sep_conn.weight f4 [75, 504]
000000 f4 05 82 3c 9f 7b 4a 3d ca 00 27 3d 3c 8a b0 3d
       0.01587198 0.0494343 0.040772237 0.08620116
000010 79 b2 ab 3d 01 83 76 3d ed 9c c5 3c cf d7 7c 3c
       0.0838365 0.06018353 0.02412268 0.015432312
000020 30 0e bd 3b df 1f e8 bb b0 bb be bb a9 36 ca 3c
       0.0057695135 -0.0070838775 -0.005820714 0.024684267
000030 09 17 d4 3c 9d 55 61 3d 42 d3 65 3d 31 f8 80 3c
       0.02588989 0.055013288 0.056109674 0.015743347
000040 47 4f dd 3c 94 f0 88 3d d4 04 1e 3d d3 35 04 3d
       0.027015341 0.06686512 0.038578823 0.032277893
000050 4f ab a9 3d 5b 57 21 3d 93 b0 7d 3c ba 00 33 3d
       0.08284628 0.03938995 0.015483993 0.043701865
000060 c3 dd c1 3c 9a f7 56 ba 53 73 46 bd 48 7f dd bc
       0.023665315 -0.00082003477 -0.048449825 -0.027038231
000070 37 0a 35 bc f1 fd aa 3b c9 42 8a 3c e1 76 02 3d
       -0.011049799 0.0052182605 0.016877549 0.031851653
000080 01 c3 af 3c e8 84 52 3d e9 cc 87 3d 88 8e 84 3c
       0.02145529 0.05139628 0.066308804 0.016181245
000090 04 c3 9f 3c 95 87 3f 3c dd 4b 3b 3b f5 ce ef 3b
       0.01950217 0.01169004 0.0028579154 0.0073183724
0000a0 52 4e dd 3b b0 03 2b 3d 29 df 10 bc 0a e3 16 bd
       0.0067537213 0.041751564 -0.008842268 -0.036837615
0000b0 09 cd bc bb d3 2c 0d 3d ac 69 72 3c e0 ea db bb
       -0.005761747 0.034466576 0.014795702 -0.006711349
0000c0 a8 b5 5a bc 75 cc 97 ba 58 f5 bb 3c 14 5f 79 3c
       -0.013348974 -0.0011581319 0.022944137 0.015220422
0000d0 64 9b e4 3c d5 60 91 3c 65 51 6e 3d 7b 85 61 3d
       0.027906127 0.017746368 0.058183093 0.055058938
0000e0 79 e4 77 3d f9 a2 56 3d a8 3f a3 3d 9e 24 2b 3d
       0.060520623 0.052401517 0.07971126 0.041782968
0000f0 ec e7 e1 3c ba 2e 86 3c d4 8e 38 3d dd 2e 85 bc
       0.02757641 0.016379703 0.045058087 -0.016257698
000100 23 2d a9 38 b5 b0 70 3d 50 77 40 3d 49 80 33 3d
       8.066955e-05 0.05876227 0.046988785 0.043823514
000110 62 1c 5c 3d 45 fc 07 3d cc ce 25 3d 5e e8 f5 3b
       0.053738005 0.033199567 0.04048042 0.007504507
000120 fb 1b d1 3c 1b 64 82 bb 1e 61 91 bc 31 d6 d2 3c
       0.025526037 -0.0039792187 -0.017746504 0.0257369
000130 de 41 1b 3d 77 7f 5e 3d f9 54 39 3c 1b e7 0a 3c
       0.037904613 0.05432078 0.011311763 0.008477951
000140 1b d7 50 3c cb 41 f7 3c 40 e8 41 3d 08 bc a3 3d
       0.012746598 0.03018274 0.04734063 0.079948485
000150 35 c2 d7 3c 03 d9 d7 3c 6d 0e 69 3d cb 9f 13 3d
       0.026337722 0.026348596 0.056898523 0.036041062
000160 fd dd 06 3d fb 44 57 3c 15 b5 94 bb cc 37 62 bc
       0.03292655 0.013139005 -0.004538188 -0.013807248
000170 9a 2c 80 3b cd cc fc 3c d7 d4 d3 bc f8 e9 9a bd
       0.003911567 0.030859375 -0.025858326 -0.07564157
000180 02 7e 1e 3c 33 90 7c 3d d7 31 00 3d 85 6f ea 3a
       0.009673597 0.061660957 0.03129753 0.0017886019
000190 69 c1 4d bc 48 41 bf bb 68 e7 25 bc 71 d2 af bc
       -0.01255832 -0.0058366396 -0.010125972 -0.021462651
0001a0 eb df d9 3c 4b 35 c7 3c 26 32 2f 3d 77 b6 4f bd
       0.02659603 0.024317404 0.042772435 -0.05071112
0001b0 d9 72 41 3d 46 12 04 bd ad 79 0c bd c6 29 4e 3c
       0.047228668 -0.03224399 -0.034295727 0.012583202
0001c0 7d 41 1c bd 6e c7 19 bd 0c 59 52 3d 0e d1 ad bc
       -0.038148392 -0.037543707 0.051354453 -0.02121785
0001d0 4f 20 2e bd c1 65 11 bd 80 26 6c 3c 82 8e 19 bb
       -0.04251128 -0.03549743 0.014413476 -0.0023430889
0001e0 8e 07 18 3d 93 76 54 bc 9a 49 d6 bb 1d b5 5f 3c
       0.03711658 -0.012967723 -0.0065395357 0.013654021
0001f0 2b 70 a6 3d c3 0a 0f 3d 3e ad a3 3c 7a 0f 42 bc
       0.08126863 0.034922373 0.01998007 -0.01184451
000200 00 17 fb 3c 91 69 07 bc d4 16 8a 3c 36 7c e6 3c
       0.030650616 -0.008264915 0.016856588 0.0281354
000210 df 70 86 3d 52 b7 10 bb 97 e8 c1 bc 6f 72 32 bd
       0.06564497 -0.0022081924 -0.023670478 -0.043566164
000220 77 eb 92 3c aa 24 bc bc 74 75 c6 bd 2c fe c2 3c
       0.017934544 -0.022966702 -0.09690371 0.02380284
000230 41 45 3f 3c da 9a aa 3d 7b ce 5f 3c c6 60 25 bd
       0.011674226 0.08330317 0.013660069 -0.040375493
000240 3d 06 4b 3d c5 d6 24 3d d0 89 27 3d 7e 44 41 3c
       0.049566496 0.040243883 0.040902913 0.011796115
000250 e9 82 8e 3a 2b 7c 2d bd 9f 09 6b 3b d7 0d 2e 3d
       0.0010872755 -0.042354744 0.003586389 0.042493667
000260 37 60 f3 3c 49 a4 35 3d 99 72 72 bb ca 08 19 bd
       0.029708965 0.044346128 -0.0036994575 -0.037361898
000270 74 d1 f0 bd 2c 7b de ba 14 74 52 3d a0 fa b8 bd
       -0.117587 -0.0016973964 0.051380232 -0.09032178
000280 22 49 12 bc de fd e5 3c c0 d9 d0 3c ea 2d c9 3c
       -0.008928569 0.028075155 0.025494456 0.024558026
000290 76 ae 05 3d 0f d4 69 3d 8b a7 31 3d 91 eb af 3d
       0.032637082 0.057087 0.043372672 0.085898526
0002a0 41 4c a4 3b 88 e9 f7 3c a4 81 b7 bb 7d 0e ad bc
       0.005013973 0.030262724 -0.005600171 -0.021125073
0002b0 fb 92 a3 bc f4 b5 24 3c b7 0b be 3c b9 06 89 3c
       -0.019967547 0.010053147 0.023198945 0.016726838
0002c0 06 51 14 bd 1b 99 4e bd fb 42 a1 3d c0 89 12 3e
       -0.036210082 -0.05043898 0.07874104 0.1431036
0002d0 30 26 cc bd ee 94 f6 bc 82 67 43 bc db fe 8d bb
       -0.09968221 -0.030100312 -0.011926534 -0.0043333597
0002e0 77 3e c1 bc ec 7e 2c bc f7 2c e2 bc 8f 76 e2 bc
       -0.023589356 -0.010528307 -0.027609332 -0.027644424
0002f0 d4 0b ac bc 89 5e 6e bc f0 a8 b5 3c 19 bb cf 3c
       -0.021001734 -0.014548906 0.022175282 0.02535777
000300 db 3a 98 bc c1 62 14 bc de e1 e9 bc e1 d3 96 3b
       -0.018582752 -0.009056748 -0.028550085 0.0046028947
000310 e6 03 80 bc 8b 61 43 bc e4 f9 da bc 8f 0c 2c bd
       -0.015626859 -0.0119251115 -0.026730485 -0.042004164
000320 71 14 13 3e 6b dd 71 3c 8f 89 26 bd 98 d7 7f bd
       0.14363267 0.014762263 -0.04065853 -0.062461466
000330 9a 17 3d bd 89 d7 0e bd 0f 0d 32 bd 1e 90 6a bd
       -0.046165086 -0.03487352 -0.043469485 -0.057266347
000340 74 9c 3c bd ff 25 e1 3c 7f eb 04 bc 18 4a 16 3c
       -0.046047643 0.027483938 -0.008112787 0.009172939
000350 2a 1e 69 3d 99 ed 32 3d ae ce 7b 3c 6f 98 a8 3c
       0.056913532 0.043683622 0.0153691005 0.020580499
000360 8f 58 2d 3c 40 7c 2c 3d 9b bb ff bc 33 68 9d bc
       0.010580196 0.04211068 -0.031217387 -0.019214725
000370 92 af 20 bd fe d0 56 3e e3 ad fc 3d 67 18 71 3c
       -0.039229937 0.20978162 0.12337854 0.014715291
000380 d3 03 0b bd fd 09 54 bd 0f 9a 2c bc 30 bc d2 bc
       -0.033939194 -0.051767338 -0.010534777 -0.0257245
000390 74 40 e9 bc a2 03 03 bc 6d fe 62 3c 5b e2 76 39
       -0.028473116 -0.007996472 0.013854605 0.00023544712
0003a0 f4 80 27 3b ca 3e 32 3d 43 b2 63 3d 06 62 35 3d
       0.002555904 0.04351691 0.055589925 0.044282936
0003b0 9f b2 dd 3c b5 53 f5 3c f9 0c 56 3d f1 50 8b 3b
       0.027062712 0.029947141 0.052258465 0.0042515923
0003c0 8a 59 a5 3c 2c c1 cf ba bc 1e c6 3d ab 6b b0 3d
       0.020184297 -0.0015850416 0.09673831 0.08614286
0003d0 4b 3c 53 3d e3 48 41 bd 83 a0 29 bd c7 83 66 bd
       0.05157117 -0.04718865 -0.04141284 -0.056278016
0003e0 e8 61 b7 bb 37 26 5b 3b 1b c6 fb bb 6d b4 58 bd
       -0.005596388 0.0033439526 -0.007683528 -0.052906442
0003f0 f8 ea 16 bc 37 8b f0 3b a4 09 fd 3c 05 8f 78 3d
       -0.009211294 0.0073408145 0.030888386 0.06068327

sep_conn.bias f4 [75]
000000 3f 30 d2 bd f4 58 cd bd ed 13 fe bd 2d 65 4a be
       -0.102631085 -0.10026732 -0.12406144 -0.19765158
000010 f1 64 88 3e 81 32 6f 3e 97 75 ae 3d 04 75 80 be
       0.26639512 0.2335911 0.08518522 -0.25089276
000020 68 88 92 3c bb dd 54 be 9f 7d 08 3e df d0 03 be
       0.01788731 -0.20787708 0.1332917 -0.12872647
000030 46 cc 6b 3e 7d 88 a3 3b 98 ff 13 be ae 46 d7 bd
       0.23027143 0.004990636 -0.1445297 -0.10511528
000040 fd 4e 2a 3e 97 c2 09 3e b0 ca 5e 3d e5 88 c3 bd
       0.16631694 0.13453136 0.054392517 -0.09547595
000050 46 08 46 39 5c a5 c8 3d f0 b1 91 bd 14 f5 66 be
       0.00018885834 0.09797165 -0.07114017 -0.22554427
000060 e4 63 eb bd 1c 36 fd 3c a6 9d 37 3e b0 66 4e 3e
       -0.11493662 0.03090959 0.17931232 0.2015636
000070 54 64 b5 3d 55 14 a7 bd f1 f9 17 3e 44 9d 85 3d
       0.08857027 -0.08158175 0.14841439 0.06524137
000080 d6 5c ca bd e9 be 32 3e 8c 71 1e bd 75 1c 3a 3e
       -0.09880988 0.17455639 -0.038682505 0.18174918
000090 77 32 c2 3d a4 6d 50 bd 2d 72 72 bd f3 d7 0b 3e
       0.09482282 -0.05088581 -0.059190918 0.13656597
0000a0 33 6c 8d bd 36 30 3f bd a9 65 ea 3c 1c d2 f7 bc
       -0.06905403 -0.046676837 0.028612928 -0.030251555
0000b0 81 d2 b0 bd ab 8d 29 3e c1 ad 0b be eb bd a5 3d
       -0.086339004 0.16557948 -0.136405 0.080928646
0000c0 35 ab 50 3d 9a f2 10 3e fa d3 b6 bd 57 e2 06 be
       0.050944526 0.14155045 -0.0892715 -0.1317228
0000d0 1f 40 9b bd bc 9b 98 3d ed 2a 53 3e 98 06 89 3d
       -0.075805895 0.07451579 0.20621844 0.06690711
0000e0 19 e9 97 bc b1 bd 47 bd b2 1f ca 3d fc 66 8d bd
       -0.018543767 -0.04876489 0.09869327 -0.06904408
0000f0 64 4f 0b bd d9 86 3e 3e 3b 38 bf 3c 09 20 0d be
       -0.03401126 0.18606128 0.023342242 -0.13781752
000100 fe a8 3f 3e f7 9e 05 3e 8c b2 39 3e fb a2 69 3e
       0.18716809 0.13048922 0.18134516 0.22816078
000110 2b 04 5a 3e 31 9a 42 3e 0a ef 78 3d 0d 8e 08 be
       0.21290652 0.19004132 0.06077484 -0.13335438
000120 db 38 02 be ff fb 1d 3e 73 8d f5 3d
       -0.12717001 0.1542816 0.1198987

bn.weight f4 [75]
000000 00 00 80 3f 00 00 80 3f 00 00 80 3f 00 00 80 3f
       1.0 1.0 1.0 1.0
000010 00 00 80 3f 00 00 80 3f 00 00 80 3f 00 00 80 3f
       1.0 1.0 1.0 1.0
000020 00 00 80 3f 00 00 80 3f 00 00 80 3f 00 00 80 3f
       1.0 1.0 1.0 1.0
000030 00 00 80 3f 00 00 80 3f 00 00 80 3f 00 00 80 3f
       1.0 1.0 1.0 1.0
000040 00 00 80 3f 00 00 80 3f 00 00 80 3f 00 00 80 3f
       1.0 1.0 1.0 1.0
000050 00 00 80 3f 00 00 80 3f 00 00 80 3f 00 00 80 3f
       1.0 1.0 1.0 1.0
000060 00 00 80 3f 00 00 80 3f 00 00 80 3f 00 00 80 3f
       1.0 1.0 1.0 1.0
000070 00 00 80 3f 00 00 80 3f 00 00 80 3f 00 00 80 3f
       1.0 1.0 1.0 1.0
000080 00 00 80 3f 00 00 80 3f 00 00 80 3f 00 00 80 3f
       1.0 1.0 1.0 1.0
000090 00 00 80 3f 00 00 80 3f 00 00 80 3f 00 00 80 3f
       1.0 1.0 1.0 1.0
0000a0 00 00 80 3f 00 00 80 3f 00 00 80 3f 00 00 80 3f
       1.0 1.0 1.0 1.0
0000b0 00 00 80 3f 00 00 80 3f 00 00 80 3f 00 00 80 3f
       1.0 1.0 1.0 1.0
0000c0 00 00 80 3f 00 00 80 3f 00 00 80 3f 00 00 80 3f
       1.0 1.0 1.0 1.0
0000d0 00 00 80 3f 00 00 80 3f 00 00 80 3f 00 00 80 3f
       1.0 1.0 1.0 1.0
0000e0 00 00 80 3f 00 00 80 3f 00 00 80 3f 00 00 80 3f
       1.0 1.0 1.0 1.0
0000f0 00 00 80 3f 00 00 80 3f 00 00 80 3f 00 00 80 3f
       1.0 1.0 1.0 1.0
000100 00 00 80 3f 00 00 80 3f 00 00 80 3f 00 00 80 3f
       1.0 1.0 1.0 1.0
000110 00 00 80 3f 00 00 80 3f 00 00 80 3f 00 00 80 3f
       1.0 1.0 1.0 1.0
000120 00 00 80 3f 00 00 80 3f 00 00 80 3f
       1.0 1.0 1.0

bn.bias f4 [75]
000000 00 00 00 00 00 00 00 00 00 00 00 00 00 00 00 00
       0.0 0.0 0.0 0.0
000010 00 00 00 00 00 00 00 00 00 00 00 00 00 00 00 00
       0.0 0.0 0.0 0.0
000020 00 00 00 00 00 00 00 00 00 00 00 00 00 00 00 00
       0.0 0.0 0.0 0.0
000030 00 00 00 00 00 00 00 00 00 00 00 00 00 00 00 00
       0.0 0.0 0.0 0.0
000040 00 00 00 00 00 00 00 00 00 00 00 00 00 00 00 00
       0.0 0.0 0.0 0.0
000050 00 00 00 00 00 00 00 00 00 00 00 00 00 00 00 00
       0.0 0.0 0.0 0.0
000060 00 00 00 00 00 00 00 00 00 00 00 00 00 00 00 00
       0.0 0.0 0.0 0.0
000070 00 00 00 00 00 00 00 00 00 00 00 00 00 00 00 00
       0.0 0.0 0.0 0.0
000080 00 00 00 00 00 00 00 00 00 00 00 00 00 00 00 00
       0.0 0.0 0.0 0.0
000090 00 00 00 00 00 00 00 00 00 00 00 00 00 00 00 00
       0.0 0.0 0.0 0.0
0000a0 00 00 00 00 00 00 00 00 00 00 00 00 00 00 00 00
       0.0 0.0 0.0 0.0
0000b0 00 00 00 00 00 00 00 00 00 00 00 00 00 00 00 00
       0.0 0.0 0.0 0.0
0000c0 00 00 00 00 00 00 00 00 00 00 00 00 00 00 00 00
       0.0 0.0 0.0 0.0
0000d0 00 00 00 00 00 00 00 00 00 00 00 00 00 00 00 00
       0.0 0.0 0.0 0.0
0000e0 00 00 00 00 00 00 00 00 00 00 00 00 00 00 00 00
       0.0 0.0 0.0 0.0
0000f0 00 00 00 00 00 00 00 00 00 00 00 00 00 00 00 00
       0.0 0.0 0.0 0.0
000100 00 00 00 00 00 00 00 00 00 00 00 00 00 00 00 00
       0.0 0.0 0.0 0.0
000110 00 00 00 00 00 00 00 00 00 00 00 00 00 00 00 00
       0.0 0.0 0.0 0.0
000120 00 00 00 00 00 00 00 00 00 00 00 00
       0.0 0.0 0.0

bn.running_mean f4 [75]
000000 00 00 00 00 00 00 00 00 00 00 00 00 00 00 00 00
       0.0 0.0 0.0 0.0
000010 00 00 00 00 00 00 00 00 00 00 00 00 00 00 00 00
       0.0 0.0 0.0 0.0
000020 00 00 00 00 00 00 00 00 00 00 00 00 00 00 00 00
       0.0 0.0 0.0 0.0
000030 00 00 00 00 00 00 00 00 00 00 00 00 00 00 00 00
       0.0 0.0 0.0 0.0
000040 00 00 00 00 00 00 00 00 00 00 00 00 00 00 00 00
       0.0 0.0 0.0 0.0
000050 00 00 00 00 00 00 00 00 00 00 00 00 00 00 00 00
       0.0 0.0 0.0 0.0
000060 00 00 00 00 00 00 00 00 00 00 00 00 00 00 00 00
       0.0 0.0 0.0 0.0
000070 00 00 00 00 00 00 00 00 00 00 00 00 00 00 00 00
       0.0 0.0 0.0 0.0
000080 00 00 00 00 00 00 00 00 00 00 00 00 00 00 00 00
       0.0 0.0 0.0 0.0
000090 00 00 00 00 00 00 00 00 00 00 00 00 00 00 00 00
       0.0 0.0 0.0 0.0
0000a0 00 00 00 00 00 00 00 00 00 00 00 00 00 00 00 00
       0.0 0.0 0.0 0.0
0000b0 00 00 00 00 00 00 00 00 00 00 00 00 00 00 00 00
       0.0 0.0 0.0 0.0
0000c0 00 00 00 00 00 00 00 00 00 00 00 00 00 00 00 00
       0.0 0.0 0.0 0.0
0000d0 00 00 00 00 00 00 00 00 00 00 00 00 00 00 00 00
       0.0 0.0 0.0 0.0
0000e0 00 00 00 00 00 00 00 00 00 00 00 00 00 00 00 00
       0.0 0.0 0.0 0.0
0000f0 00 00 00 00 00 00 00 00 00 00 00 00 00 00 00 00
       0.0 0.0 0.0 0.0
000100 00 00 00 00 00 00 00 00 00 00 00 00 00 00 00 00
       0.0 0.0 0.0 0.0
000110 00 00 00 00 00 00 00 00 00 00 00 00 00 00 00 00
       0.0 0.0 0.0 0.0
000120 00 00 00 00 00 00 00 00 00 00 00 00
       0.0 0.0 0.0

bn.running_var f4 [75]
000000 00 00 80 3f 00 00 80 3f 00 00 80 3f 00 00 80 3f
       1.0 1.0 1.0 1.0
000010 00 00 80 3f 00 00 80 3f 00 00 80 3f 00 00 80 3f
       1.0 1.0 1.0 1.0
000020 00 00 80 3f 00 00 80 3f 00 00 80 3f 00 00 80 3f
       1.0 1.0 1.0 1.0
000030 00 00 80 3f 00 00 80 3f 00 00 80 3f 00 00 80 3f
       1.0 1.0 1.0 1.0
000040 00 00 80 3f 00 00 80 3f 00 00 80 3f 00 00 80 3f
       1.0 1.0 1.0 1.0
000050 00 00 80 3f 00 00 80 3f 00 00 80 3f 00 00 80 3f
       1.0 1.0 1.0 1.0
000060 00 00 80 3f 00 00 80 3f 00 00 80 3f 00 00 80 3f
       1.0 1.0 1.0 1.0
000070 00 00 80 3f 00 00 80 3f 00 00 80 3f 00 00 80 3f
       1.0 1.0 1.0 1.0
000080 00 00 80 3f 00 00 80 3f 00 00 80 3f 00 00 80 3f
       1.0 1.0 1.0 1.0
000090 00 00 80 3f 00 00 80 3f 00 00 80 3f 00 00 80 3f
       1.0 1.0 1.0 1.0
0000a0 00 00 80 3f 00 00 80 3f 00 00 80 3f 00 00 80 3f
       1.0 1.0 1.0 1.0
0000b0 00 00 80 3f 00 00 80 3f 00 00 80 3f 00 00 80 3f
       1.0 1.0 1.0 1.0
0000c0 00 00 80 3f 00 00 80 3f 00 00 80 3f 00 00 80 3f
       1.0 1.0 1.0 1.0
0000d0 00 00 80 3f 00 00 80 3f 00 00 80 3f 00 00 80 3f
       1.0 1.0 1.0 1.0
0000e0 00 00 80 3f 00 00 80 3f 00 00 80 3f 00 00 80 3f
       1.0 1.0 1.0 1.0
0000f0 00 00 80 3f 00 00 80 3f 00 00 80 3f 00 00 80 3f
       1.0 1.0 1.0 1.0
000100 00 00 80 3f 00 00 80 3f 00 00 80 3f 00 00 80 3f
       1.0 1.0 1.0 1.0
000110 00 00 80 3f 00 00 80 3f 00 00 80 3f 00 00 80 3f
       1.0 1.0 1.0 1.0
000120 00 00 80 3f 00 00 80 3f 00 00 80 3f
       1.0 1.0 1.0

net.0.weight f4 [75, 504]
000000 6f 84 73 bd 76 8e d8 bd a2 aa 85 bd 3c cf 09 bd
       -0.05945247 -0.10574047 -0.06526686 -0.0336449
000010 d6 d9 4e bd 55 99 84 bd 25 48 a0 bb 1d 4a 7b bc
       -0.050500713 -0.06474558 -0.004891413 -0.015337494
000020 12 6a a2 bc 4a d2 29 3c 96 5b b9 3b 33 06 bf 3b
       -0.019825969 0.010365078 0.00565667 0.0058295964
000030 b2 bc 75 3b 5d 2d 64 bc 11 a7 b6 bc 01 24 c0 3c
       0.0037496504 -0.013926831 -0.02229646 0.023454668
000040 1c fd bc 3c d9 76 35 bd 19 0e 8e bd fc ca 88 bd
       0.02306991 -0.044302795 -0.06936283 -0.06679341
000050 1c 15 c1 bd 4b 47 b3 bd 39 e9 ab bd 3e f7 b5 bd
       -0.094278544 -0.087538324 -0.08394093 -0.08885048
000060 d8 40 41 bb 04 12 52 3c 87 f3 23 3d b2 a3 07 3d
       -0.0029488113 0.012821678 0.040027168 0.033115096
000070 b1 ba df 3c f2 f4 34 ba f2 0f e0 bc a4 cd 7e 3c
       0.027310701 -0.0006902955 -0.027351353 0.015551958
000080 43 3a 04 3b 55 f0 dd bc d2 d4 45 bd 24 98 32 bc
       0.0020176328 -0.027092138 -0.048298664 -0.010900531
000090 42 75 a3 bc 88 b9 d9 bb 5f 12 b0 bc 13 57 1e bd
       -0.019953374 -0.0066444315 -0.021493135 -0.03865726
0000a0 b1 da 91 bd 5f 99 7d bd 1a 4c 95 bd fb 06 9f 3c
       -0.0712179 -0.061913844 -0.07289906 0.019412508
0000b0 f4 59 ec 3c 31 a9 f9 3c 1f 4b 6b 3d 5d 54 d0 3d
       0.028851487 0.030476185 0.057444688 0.10172341
0000c0 17 6d 02 3e f3 b3 01 3e 5a 2c 7f 3c d1 b5 c4 bc
       0.12736927 0.12666301 0.015574539 -0.024012478
0000d0 99 e7 0b bc 31 2c ce bc e9 26 20 bd 36 32 e3 3c
       -0.008539104 -0.025167556 -0.039099608 0.027733903
0000e0 cf 79 6d 3d f0 0d 3b 3d 19 62 56 3d 33 10 5a 3d
       0.057977494 0.04566759 0.052339647 0.053238105
0000f0 f0 69 9f 3d 34 df 3a 3d 0a 1b f0 bb 46 9c 65 3d
       0.07783878 0.04562302 -0.007327442 0.056057237
000100 b9 2f 18 3d d4 84 71 3c b9 df 29 3b 87 89 2e 3c
       0.037154887 0.014741141 0.0025920703 0.010652906
000110 7a 45 54 3b 29 6e 36 3d 9c 4e 99 3d 63 16 fb 3d
       0.0032390044 0.04453865 0.07485697 0.12260129
000120 13 3f 84 3c 15 a7 85 3d 05 c4 34 3d 52 dc 22 3d
       0.016143357 0.06526009 0.04413225 0.039760895
000130 4e 1c 31 3d 68 e8 90 bd df c5 b9 bc 87 b5 74 bb
       0.043239884 -0.07075578 -0.02267736 -0.0037339644
000140 e4 0b c7 bc 07 d6 11 bc 42 32 7a bc 87 41 dc 3c
       -0.024297662 -0.008901126 -0.015270771 0.026886715
000150 30 b9 36 3d bd e4 4a 3d da 75 b7 bc 70 97 61 3c
       0.044610202 0.049534548 -0.022395063 0.013769016
000160 06 59 2c bb 47 58 e7 bc 22 bd 75 3c 64 47 5c 3c
       -0.002629818 -0.028240336 0.014998706 0.013444755
000170 c8 90 7c 3a bd 4c 2c bd dd 96 a6 3d 5b ca 90 3d
       0.0009634611 -0.04206537 0.08134244 0.07069846
000180 57 9b f4 bc f8 2f 18 be 7b 04 a2 bd 6a de 86 3c
       -0.029859228 -0.14862049 -0.07911011 0.016463477
000190 4a 90 c7 3b 74 04 9f bc 56 09 e7 ba 4c 76 05 bd
       0.0060901986 -0.019411303 -0.0017626684 -0.03258352
0001a0 d2 c0 f4 3c a6 ea b9 3d a5 55 0a 3d 28 7e 6d 3d
       0.0298771 0.09077959 0.033773083 0.05798164
0001b0 4d 4c 48 3b ab 48 2d 3d c6 a2 fc 3d 06 11 77 3d
       0.0030563057 0.04230563 0.12335734 0.06031897
0001c0 74 c8 8c 3d 1b e9 5e 3d f2 00 66 bd f1 42 b5 3c
       0.06874171 0.054421525 -0.056153245 0.022126647
0001d0 e6 e6 fa 3c 63 e9 83 bd 3e a2 0f bd 5c d3 75 3d
       0.03062768 -0.06440999 -0.035066836 0.06001602
0001e0 18 5b 94 3d 82 bf c0 3c 76 ed 0b 3e bc b0 35 3e
       0.07243937 0.023528818 0.13664803 0.177432
0001f0 39 cd c1 bd b2 8d 4d bc 38 37 28 3d be 4f b3 ba
       -0.09462971 -0.01254599 0.041068286 -0.0013680381
000200 5b 98 b3 3d 1f df 91 bc fb dd 23 3d aa e7 61 3d
       0.08769294 -0.017806588 0.04000662 0.055152573
000210 67 5f f0 bb 11 04 b4 3d 38 9a 96 3d b1 7d 02 3e
       -0.0073355916 0.08789838 0.07353634 0.1274326
000220 e8 8e bd bc 17 c8 3c 3d 62 7a b6 3c e5 4c 00 3d
       -0.023139432 0.046089258 0.022275154 0.031323332
000230 1e 5b c6 bc f7 29 8f bd 38 ac dd 3d 76 30 e4 3d
       -0.02421337 -0.06990426 0.10823864 0.11142056
000240 21 c2 23 bb a5 e3 c4 3d 33 26 78 3b e0 a8 51 3c
       -0.0024987536 0.09613732 0.0037864565 0.012796611
000250 64 18 1e bc 4c cb c7 bc 25 f3 39 bc 4c 5a e0 bc
       -0.00964937 -0.024388932 -0.011349474 -0.027386807
000260 9c 72 5a 3c 8f 02 67 bd 63 d0 34 3d fb f4 8d 3d
       0.013332989 -0.056398924 0.044144046 0.06931492
000270 ed e8 5b 3d 9c 17 07 3c 7c 95 ef bc a2 d5 31 3d
       0.053688932 0.008245375 -0.029246084 0.043416627
000280 24 5b 8c bc 75 63 68 bd 35 87 c7 ba ea 00 04 3d
       -0.017133303 -0.056735475 -0.001522279 0.032227434
000290 50 77 89 3c b5 72 13 bc 2c b6 63 3d be 2a 54 3d
       0.016780525 -0.008999516 0.055593655 0.051798575
0002a0 bb ba 1d 3d 6d 5b 91 3d 70 02 1e bd 3c a6 3f 3c
       0.03850816 0.07097516 -0.038576543 0.011697348
0002b0 98 d9 de 3c c3 5a 08 3d 6e 07 1a 3d e2 ac aa 3d
       0.027203366 0.033289682 0.03760474 0.08333756
0002c0 34 c6 1b 3d 44 4a 69 3d c6 59 26 bc 9f 77 4e bd
       0.038030818 0.05695559 -0.01015324 -0.05040705
0002d0 35 f3 f1 bb bb fb 70 bc b6 0a 1d bc 44 e1 41 3d
       -0.007383729 -0.014708455 -0.009585073 0.04733397
0002e0 49 58 91 3d ab a3 a7 3d bf 48 ca 3c c8 02 82 3d
       0.07096917 0.08185514 0.024692891 0.06348187
0002f0 52 bf 16 3e 24 0c ec 3c 17 fb e6 3b f8 e9 05 bc
       0.1472142 0.028814383 0.007048975 -0.008173458
000300 e3 4e 5c bc 3c 9a d0 bc 89 b5 04 bd 42 04 3b bc
       -0.013446542 -0.02546417 -0.032399688 -0.011414589
000310 41 31 7e 3c f9 d5 92 bc 44 a2 0a 3d be 67 c1 3c
       0.015514673 -0.017924296 0.033846155 0.023609038
000320 9a 24 37 bd f7 4e 89 bd 76 61 d5 bc 69 39 0e 3c
       -0.04471264 -0.067045145 -0.02604745 0.00868068
000330 4a 3a e3 bb cd 8e 64 3c 53 e5 15 3d 23 8c 2c 3d
       -0.006934439 0.013950062 0.036595654 0.042125832
000340 9d 6f b0 3d 2c c8 9c 3d 38 70 d6 bc 7d 40 bf bc
       0.086150385 0.07655367 -0.026176557 -0.02334618
000350 cc d9 e3 bc a0 59 c8 3b 1c e0 7c 3b 11 a5 81 bb
       -0.027813815 0.0061141998 0.0038585728 -0.003956445
000360 d4 72 36 3d 5c 2b 3d bd 35 a4 2b 3d 02 3f 3b bd
       0.044543102 -0.04618393 0.041904647 -0.045714386
000370 4f a3 b0 38 4a f1 f9 bb 77 ef 12 bd 29 62 36 bd
       8.4227526e-05 -0.007627641 -0.035872903 -0.044527207
000380 77 c5 16 bd 45 3c 4e bd 02 78 1e bd 22 85 00 bd
       -0.03680941 -0.050350446 -0.038688667 -0.031376965
000390 96 b0 e1 3c 65 68 39 3d cf 00 bc 3c 39 95 83 bb
       0.027550023 0.045265574 0.022949604 -0.0040155915
0003a0 00 d9 b3 bc be 54 09 bd 83 43 16 3c fc 7c ab bb
       -0.02195406 -0.033528082 0.0091713695 -0.005233405
0003b0 1d 0b 07 3d 7a bd 07 3d 57 a7 f7 3c 91 c9 42 bb
       0.032969583 0.033139683 0.030231161 -0.0029722194
0003c0 bb fa f9 bb ba f5 cc bc da 52 2e bd 73 9e 2f bd
       -0.0076287664 -0.025019515 -0.042559482 -0.04287572
0003d0 4d 8b c6 38 e7 b5 57 bc 1d 07 ab 3b ad 5b 27 bd
       9.4673225e-05 -0.0131659275 0.005219354 -0.040858913
0003e0 f9 44 8c 3c fc c3 2c 3c 0a b9 34 3d 80 0c bd 3b
       0.017122732 0.010544773 0.04412178 0.0057693124
0003f0 6b c0 39 3c e1 66 c3 bc bd ad 96 bd 8c 08 11 bd
       0.01133738 -0.023852767 -0.07357357 -0.03540854
