bestclf/yaleb/y05.pth (torch, 343163 bytes, 16 tensors)

fc1.weight f4 [75, 504]
00000000: 8fc4 0a3c 1ffd a1bd b215 d2bd 6e24 9abd
00000010: 107b a7bd 6ea4 13bd 4fa7 7ebc d858 0bbd
00000020: e393 13bd f104 8ebc d28e dc3b 1a2b 563c
00000030: 0bb7 01bc b1eb 1fbc 1597 d9bc 2db9 a83b
00000040: 62d3 66bc 0e55 3bbc f6db adbc 5da1 aebc
00000050: 85f1 4ebc 166f 743c ed4e 90bd 502c aabd
00000060: 70be 653c 5b8d 0c3d 3390 db3d 1e25 663d
00000070: 1387 c83c 193e 42bc a004 17bd 0324 363c
00000080: 2417 8d3c 854c 2e3c 3bd1 ba3c 65c4 6f3d
00000090: 81f9 463d 01e4 193d 6246 ec3c da4e 463c
000000a0: 666c a4bc b046 aebc 4421 2a3d 7411 463c
000000b0: 06ae 93bc bada dfb8 581a cc3c 443d 3e3d
000000c0: e14c 663d 45fb 163e 41e5 ae3c a43b 87bc
000000d0: edbd 013c 2669 663d 98c9 f03c dcfd aa3d
000000e0: d49f c93d f39e 503d e27c 7d3d 3828 253d
000000f0: 0510 bc3d ee8a ca3d 86ae 793d 7d41 cd3d
00000100: 07ea 8d3d cf0e ca3c dc71 2ebd 8a69 71bd
00000110: 2d1a cebc 6478 ebbc 61fe 333c 6f3a 9f3d
00000120: 6251 163d 836e 913d 44d5 883d eac8 553d
00000130: e185 943d 69ad 0ebd 53e0 1a3b 43d3 143c
00000140: bd59 353b 32bf 483b 1cc5 a9bc 2bc9 2c3d
00000150: e84b 363d 7c19 83bc d44f 7dbd da84 d43c
00000160: 2009 0c3d 46d1 adbc 546e b03c c4ab e43c
00000170: 1cd1 9f3c 4bef 84bc 902f 673d 9298 003e
00000180: ac22 043d b69d cfbd 1ff1 68bd 3d7b 0dbd
00000190: ca4c f13c f1f8 883c 55ac d33b 4198 a6bc
000001a0: 8d21 b7bd e9ae f53c b087 fc3b b3c1 1ebd
000001b0: 9310 a73c 5bec c23d b065 4f3d e822 0a3d
000001c0: 422d a93d 6773 9d3d 0b00 2ebd b635 763b
000001d0: 239c b03d 28e4 db3c 843c 81bc 6b76 a3bc
000001e0: beb2 32bd 2924 8d3d 43a5 b63d 1f48 683d
000001f0: d556 01bd c506 13bc bdf9 0fb9 2208 973d
00000200: fb2f f03b 1d69 883d ba70 ad3c c8aa 013d
00000210: d74f 49bd f948 753d 0ba8 1e3d 6433 c33d
00000220: 1435 15bd c6cd ea3c 3cfe 8b3c f786 c43b
00000230: df90 a0bd 3419 d6bd e471 5d3d 97e4 843d
00000240: cd6b f5bd e1a1 e13a 7d29 e03c 83f8 263d
00000250: adb7 91bd 545c afbc 0152 093d f936 863c
00000260: 241c df3c afe7 46bd b4f7 373d 82b8 fb3b
00000270: 336e 263d 2b66 6c3d 829f b4bd 1fb6 9dbc
00000280: c38b 3c3c 064d a5bd 6cea 24bd 9ed5 de3c
00000290: 9947 0ebc 0fd1 b0bc 43fa 0abc a13f 753d
000002a0: ae7f c23d 9a05 c53c eb71 05be 8e2d 2a3b
000002b0: d11e 1a3d 167b 343d 5565 7d3d ef50 b73d
000002c0: 783b ff3b 4b85 523c 6606 99bc 4cbb 29be
000002d0: b127 2639 9e70 84bd 6abb 4cbc 65c0 30bc
000002e0: e4fb 563d 7e55 6d3d f148 07bc 235c 873d
000002f0: 9943 1e3e 1af0 093d b4cb 11bc c3ee 37bd
00000300: 729e e9bc 3c16 513b 3768 babc 1867 f03a
00000310: 9fab 8d3c 0d76 ecbc d976 053d 1fd1 133d
00000320: 5ae8 93bd 9c82 66bd 866e 0cbd d7d3 e9bc
00000330: 8e43 0abd d7c7 82bc adaf d93b 3f03 713d
00000340: 4921 8e3d f93d 803d e4a1 b1bd b109 83bd
00000350: a538 94bc 5e47 8f3a 3f29 24bd ce31 c53b
00000360: ea8a 173d 67e3 f7bc 93fe 12bd f8c0 dfbc
00000370: 93da 65bc 4af1 96b7 ca6f af3b d94e f9bc
00000380: 5bcd 26bd 3d9b 95bd ec8a 74bd ebb1 92bd
00000390: 583e 94bc ce19 e93b 5323 f63c 4818 9fbd
000003a0: 7d3d 8ebd 33a5 48bc dc55 323c 6dbf 23bd
000003b0: 7221 1bbc 9260 563c 561f c93d 5a7d 34bc
000003c0: d7f7 023c 5e8f 8b3d 786e 9d3d 3296 c33d
000003d0: c3e3 88bd 55b6 96ba c1aa 52bc 4569 00bd
000003e0: dbfd d63b 2923 23bc 9769 2f3d f370 f63c
000003f0: 0947 babc c609 37bd f019 0cbe 5587 8abd
0.008469715 -0.07909607 -0.10258044 -0.0752648 -0.08177769 -0.036045484 -0.015542819 -0.034020275
-0.036029708 -0.01733634 0.0067308927 0.0130718 -0.007917176 -0.009760783 -0.0265613 0.005149028
-0.0140884835 -0.011433853 -0.02122305 -0.021317178 -0.012630825 0.014919063 -0.07046304 -0.08309233
0.014022455 0.034314495 0.10720863 0.05618774 0.02447847 -0.011855626 -0.036869645 0.011116984
0.017222948 0.010638361 0.022804847 0.058536906 0.04857779 0.037570957 0.028842155 0.012103761
-0.02007122 -0.02127394 0.04153563 0.012089122 -0.018027317 -0.000106742096 0.024914905 0.046445146
0.05622566 0.14744289 0.021349551 -0.016507931 0.007918817 0.05625262 0.029393002 0.08349201
0.09844938 0.050932836 0.061886676 0.04032156 0.09182743 0.0988978 0.060957454 0.100222565
0.06929403 0.024665264 -0.042589054 -0.05893854 -0.025158966 -0.02874393 0.010985942 0.07774817
0.036698706 0.071011566 0.06681302 0.05219356 0.07252098 -0.034833346 0.0023632243 0.009083572
0.0027671896 0.003063154 -0.020723872 0.042184036 0.044505984 -0.016003363 -0.06184371 0.025942255
0.03418839 -0.021217953 0.021536984 0.027913935 0.01950889 -0.016227385 0.056441844 0.12558201
0.03225963 -0.10137503 -0.056870576 -0.034541357 0.029455561 0.016720267 0.0064597526 -0.020336272
-0.08941946 0.02999063 0.007706605 -0.038758945 0.020393645 0.095177375 0.050634086 0.033724695
0.08260585 0.07688027 -0.04248051 0.0037568635 0.08623531 0.026842192 -0.015775926 -0.019953927
-0.043627493 0.068916626 0.0891824 0.056709405 -0.03157695 -0.008973782 -0.00013730577 0.07374598
0.0073299385 0.06660674 0.021171916 0.03165701 -0.049148407 0.059884045 0.038734477 0.09531286
-0.036427572 0.028662574 0.017089002 0.0059975344 -0.07840132 -0.10454026 0.054063693 0.064889126
-0.11983452 0.0017214381 0.027363533 0.040764343 -0.071151115 -0.02140633 0.03352547 0.016383635
0.027235098 -0.048560794 0.044913962 0.007681907 0.040632438 0.057714622 -0.08819486 -0.019251881
0.011507931 -0.08071332 -0.040262625 0.02720147 -0.008684062 -0.021584062 -0.008482519 0.059875134
0.09497009 0.024050523 -0.13031738 0.0025967094 0.037627045 0.044062696 0.061864216 0.08950984
0.0077890716 0.012849162 -0.018679809 -0.16575354 0.0001584578 -0.064667925 -0.012495855 -0.010788058
0.052486315 0.05794286 -0.008257137 0.066093706 0.15455474 0.033676244 -0.008898664 -0.044905435
-0.028517935 0.0031904122 -0.022754772 0.0018341271 0.01729375 -0.028864885 0.032584045 0.036088105
-0.07222052 -0.056276903 -0.03428509 -0.028543396 -0.03375583 -0.015964432 0.0066432566 0.058840986
0.069399424 0.0626182 -0.08673456 -0.06398333 -0.018093416 0.0010931303 -0.040078398 0.0060179
0.036997713 -0.030259801 -0.035887312 -0.027313694 -0.014029163 -1.7993752e-05 0.0053539025 -0.030433105
-0.040723186 -0.07305 -0.0597028 -0.071628414 -0.018096134 0.007113672 0.03004614 -0.07768303
-0.06945322 -0.012246418 0.010884728 -0.03997748 -0.009468423 0.013084548 0.0982043 -0.011016214
0.00799366 0.068144545 0.07687086 0.09550132 -0.06684067 -0.0011498431 -0.012858094 -0.031350393
0.0065610236 -0.009957113 0.042825308 0.030083155 -0.02273895 -0.044687055 -0.1368177 -0.06764094

fc1.bias f4 [75]
00000000: 9e3d f63d 63b0 ae3c 2a75 4bbc 219d efbc
00000010: d28d 88bd 468f b9bd 85b7 ff3c 8863 0d3d
00000020: 7d27 e7bd 0dba f23d c4be 57bd 5f19 ccbc
00000030: d827 3a3e c6c6 0cbd 45a5 973d 2363 6ebd
00000040: 1c6d d8bc 4499 3e3d 2f97 a6bc 61c7 303e
00000050: 31a8 ce3c c80c 133e f6d7 68bd d8ba b83b
00000060: c020 cebd c993 28be 2519 823c 67cc b3bd
00000070: 3bfb e53d ecef 01be 3e60 8f3d 4f46 413d
00000080: d752 433d bc89 703d 0166 ce3d 990f d5bd
00000090: 29d4 d1bd 6011 f93b fc05 d1bd 4beb c13d
000000a0: 2334 b83d f44d ccbc b82e 283e 85b3 fdbb
000000b0: d3ef 17be dcc7 0b3b 627a 6ebd 3c59 93bd
000000c0: c7d0 1c3e 9bb2 103d 3ed7 b53d 409c eb3d
000000d0: fe17 b4bd 069b 15bd a5cc db3d ed03 2a3c
000000e0: 6a80 6f3c eb78 053d 2838 58be 2b60 9b3d
000000f0: 36f1 a73d 5da9 ce3d ab43 afbb 6d1a 1dbe
00000100: 5b89 88bd cbb8 97bd 9f63 90bc 9429 26bd
00000110: 6b32 0d3e 16fd 4d3e e89f 0ebc c556 babd
00000120: 4ae6 393e 9227 5a3d c142 cdbd
0.12023471 0.021324342 -0.012418071 -0.02924973 -0.06667675 -0.0906053 0.031215439 0.03451875
-0.11286829 0.118518926 -0.052672163 -0.024914442 0.18179262 -0.034369253 0.074045695 -0.058200013
-0.026419215 0.046532884 -0.020335762 0.17263557 0.025226684 0.14360344 -0.05684658 0.005637508
-0.1006484 -0.16462626 0.01588113 -0.08779221 0.11229559 -0.12689179 0.070007786 0.047186192
0.047686424 0.058725104 0.100780495 -0.10403366 -0.102455445 0.007600948 -0.102062196 0.09468707
0.08994319 -0.024939515 0.16424072 -0.0077423477 -0.1483758 0.0021328842 -0.058222182 -0.071947545
0.15314017 0.03532658 0.08878945 0.11504412 -0.08793639 -0.036524795 0.10732392 0.010376913
0.014618019 0.03258602 -0.21115172 0.07586702 0.08200304 0.10090897 -0.005348643 -0.15342112
-0.066668235 -0.07408293 -0.017625628 -0.040566996 0.13788764 0.20116076 -0.008705117 -0.09098581
0.18154255 0.053260393 -0.10022498

fc2.weight f4 [75, 75]
00000000: 38eb 18be 05a6 e5bb e194 4d3e 932d e73d
00000010: bb68 fe3d 99af 613c 390a 433c b372 cdbd
00000020: b0ea 6ebd 3a42 303d f378 e63d 88e0 b0bc
00000030: 6b34 d33d da13 dcbc c469 5f3e 6258 913b
00000040: 28ef babd 68e4 353d 87a2 71bd 647a 143d
00000050: 6e0f 4cbc f51d 2d3d b365 e33c f202 a9bd
00000060: b476 a63d 7baf 103e 7ea3 b1bc 974f 4b3e
00000070: 684d bdbd 8b5b c0bd 5040 edbc 147b 79bd
00000080: 553e dd3d 46cc 393d 5486 2ebe a4d5 2ebc
00000090: 8d91 623d 919f 35bd 20e5 94bc f3ea 343e
000000a0: bcec 973c e66d ed3d 7f74 0f3e 6a18 27bc
000000b0: 6309 0f3e 43c3 d5bd 78e1 723d 0845 27bd
000000c0: 53ba 06be 6538 c83d 7f94 123e e298 303e
000000d0: 3204 97bd ee39 e1bd 54d7 853d f4f1 8a3d
000000e0: c9e4 79be dca4 76bd 663d a4bd f3e8 27be
000000f0: 93cf 483d f9c4 1f3e e418 a93d 4fe0 bc3d
00000100: 1b88 d63d 4541 eabc 083e 763d e219 063e
00000110: 678f debc d38e d93d 1e4e 81bc f6c1 f03d
00000120: c503 04be 7f0d 44bd 93c6 41bd ed51 0fbd
00000130: 61f3 f6bd 2a89 29bc e612 9e3d 7b84 363d
00000140: 8859 343d 88d3 f7bd 17e4 673d 7d19 fbbc
00000150: 09bf 3b3e 152a 743b bd56 1ebe 200c b23d
00000160: 2df3 84bd 67db 193e a482 e33d 2388 303e
00000170: a719 8c3d f149 5d3d 0b58 903d 6b0d 803e
00000180: 708a bc3c 78b6 7fbd ddb6 71bd eb47 d5bc
00000190: b095 3c3c 8038 32be 46c2 b9ba e947 433d
000001a0: c372 ce3c 83ee d33c d737 fd3c 61f7 b83d
000001b0: d5fa bebd beb7 c93d 2d46 88bd e557 fa3d
000001c0: d5b4 8fbd 5d16 9f3d 095d 153e f3f2 e9bd
000001d0: ac23 153d 32d7 f2bc e20b fbbd 4a05 7bbe
000001e0: 3ac7 e23d b7d6 b13b 7eae 733d ee56 be3d
000001f0: 40db 36bd c383 4dbd b88d 363e 70fd 083e
00000200: 07a6 85bd 1107 37be 5164 b63c cf4a d93c
00000210: 915d ba3b 2aa2 10be e05e 323e 9395 2d3e
00000220: dd9a 7a3e e6be ccbd 2bee 89be 125e 0fbe
00000230: 52d2 f23c a09f 413e 4ba4 cabd 1ea3 e83d
00000240: de8c 153e c9be 3e3c 9aca 843d 1082 ddbd
00000250: 26b2 18be c15b 11bd 6287 26be 55b4 15be
00000260: 9235 93bd 7bee 95bc be9f b03d 1781 98bd
00000270: 493a a4bd dab2 1b3e a3ae cbbd 7113 f73c
00000280: d391 bc3c 9bfe 4d3d 7a92 b8bd 83c5 173e
00000290: 8d70 2f3e a3ec 0dbd 5120 713e 036d b9bd
000002a0: 2e86 fa3c ab5d 14be 08fa 183e 0c9c 02bd
000002b0: 192a 0d3d 51d2 333d 1fc0 703d ce5c 8b3e
000002c0: 5084 a3bd bbe2 0a3c 69ef b43d 6593 223e
000002d0: a157 80be a357 d03d 0bc0 b1bd 6c4b d63d
000002e0: 9906 183e 1ff8 9dbd ad5a c83c d97d 023d
000002f0: 13e2 89b9 7c11 bc3b 3457 63bd d20c 2e3e
00000300: 90bc 0f3e 2811 133c c30f 343d 9909 73bb
00000310: fb81 383e 64da e0bd 1b30 efbd a7b3 20bd
00000320: 6ba2 063e 4560 a8bd e812 10bd 455f ab3d
00000330: 436d c43c c5ec 24be 8595 97bd dccf 2e3d
00000340: 422e b23c 16c7 08be 0f05 1d3e e2ac 1fbd
00000350: 1403 44bd 248e 973d a9b1 573e 4692 2e3e
00000360: 31bd cabd 0733 043e 6c84 e4bc 220b bfbd
00000370: 7577 afbd eb8b 6e3e 5248 51bc cc11 df3a
00000380: d3b2 383e ce76 fdbd d32a 86be 0aab 8bbd
00000390: 9ed7 0d3d 3811 c9bd 92a4 adbc 7593 fc3c
000003a0: cf96 143d 20d6 1f3e c867 693d 44be 61be
000003b0: ebf3 31bc e73c db3c e914 743e c0ef 6e3d
000003c0: 68b2 6f3e cf45 813e d4f2 ec3b 59f4 3e3d
000003d0: ad27 d53d 3ec2 2e3e bebf b3bb 74ad d03d
000003e0: 17bc 96bc 3c61 a2bd 2676 293e 2c22 43bd
000003f0: 6531 56be e422 ddbc 395a 003d a244 6c3c
-0.14933479 -0.0070083165 0.20076324 0.112879895 0.124223195 0.013774776 0.011904293 -0.10031643
-0.058329284 0.04303191 0.11253538 -0.02159144 0.10312732 -0.026864935 0.2181769 0.004435585
-0.09127647 0.04440728 -0.05899289 0.036249533 -0.012454851 0.042264897 0.027758455 -0.08252515
0.081281096 0.1412944 -0.021684404 0.1985458 -0.0924328 -0.093924604 -0.02896133 -0.060908392
0.108029045 0.045360826 -0.1704343 -0.010671053 0.05531459 -0.044341628 -0.018175662 0.17667751
0.018545501 0.11593227 0.14009283 -0.010198692 0.13968424 -0.10437634 0.059297055 -0.040837318
-0.13157015 0.097763814 0.1431446 0.1724582 -0.07373847 -0.10997377 0.06535211 0.0678443
-0.24403681 -0.060215816 -0.08019523 -0.16397457 0.049026083 0.15602483 0.08256701 0.09222471
0.10475179 -0.028595576 0.06011775 0.13095811 -0.027167989 0.10622945 -0.01578432 0.11755745
-0.12892063 -0.047864433 -0.047308516 -0.03499024 -0.120581396 -0.010347644 0.07718448 0.044559937
0.044030696 -0.12100893 0.056614008 -0.030651802 0.18334593 0.0037256528 -0.15462776 0.08693719
-0.064916946 0.15025102 0.11108902 0.17239432 0.0684083 0.054025594 0.07048043 0.25010237
0.02301523 -0.062429875 -0.059012283 -0.02603527 0.011510298 -0.17404366 -0.0014172278 0.047676
0.025201207 0.025870567 0.030910416 0.09031559 -0.09325186 0.09849499 -0.0665401 0.12223796
-0.07016913 0.07767937 0.14586271 -0.11423292 0.036410972 -0.029643629 -0.12258126 -0.24513736
0.11073156 0.0054272073 0.05949258 0.09293924 -0.044642687 -0.050174486 0.17827499 0.13377929
-0.06525808 -0.1787379 0.022264631 0.02652493 0.0056874235 -0.1412436 0.17419004 0.1695159
0.24473138 -0.099973485 -0.2693952 -0.14000729 0.029641304 0.18908548 -0.09894618 0.11359237
0.14604518 0.011642166 0.06483956 -0.10815823 -0.14911708 -0.035487894 -0.16262582 -0.14619572
-0.07187952 -0.018302193 0.086242184 -0.07446497 -0.080189295 0.15204945 -0.09945419 0.030160638
0.023018753 0.05029164 -0.09012313 0.14821438 0.17132778 -0.034649502 0.23547484 -0.090539955
0.03058156 -0.14488856 0.1493913 -0.0318871 0.034463976 0.043901745 0.05877697 0.27219242
-0.07984221 0.008476908 0.08834726 0.15876539 -0.25066856 0.101729654 -0.086792074 0.10463604
0.14846267 -0.07713341 0.0244573 0.0318583 -0.00026299115 0.005739389 -0.055503085 0.16997078
0.14036775 0.008976258 0.043960344 -0.0037084578 0.18018334 -0.10979155 -0.11679097 -0.03923383
0.13147895 -0.08221487 -0.03517428 0.083677806 0.023977881 -0.16105945 -0.074015655 0.0426787
0.021750573 -0.13357195 0.15333961 -0.038983233 -0.047854498 0.07400158 0.21063866 0.17047986
-0.09899367 0.1291009 -0.027895175 -0.09328295 -0.085677065 0.23295562 -0.01277359 0.0017018854
0.18036966 -0.12376176 -0.26204547 -0.068197325 0.034629457 -0.09817737 -0.021196637 0.030832032
0.036276635 0.15609026 0.05698374 -0.22045237 -0.010861377 0.026762439 0.23836102 0.058334112
0.234079 0.25248572 0.007231096 0.046619747 0.10407958 0.17066285 -0.005485504 0.101893336
-0.018400235 -0.07928702 0.16548976 -0.04764001 -0.2091728 -0.026994176 0.031336043 0.01442066

fc2.bias f4 [75]
00000000: 1f3c 73bd 594c 613d 2ce8 05be 0d47 0abe
00000010: d285 4f3e ecec 343e 3613 853d 89cd 44be
00000020: 3733 343d 796f 09bd b722 8b3c 2b5f 813d
00000030: 3921 5e3e a5a6 ccbc 2d55 17b9 de60 01be
00000040: ece4 0d3d ca4d 0e3d b0b6 283d 40a1 77bd
00000050: 3357 ea3d 116c 5b3e 76a5 8fbb b29e f1bd
00000060: 414e 19be 4472 a13d a429 a93c b055 f83d
00000070: 161e c43c 71ec 4cbd e9bc 443e b570 53bd
00000080: f9c2 2f3c 282c 403e 095d a63d d721 043e
00000090: 22d6 5e3b 275e 04bc bbab 54bc 173b 303e
000000a0: 80a5 813d 58bd 153d a2e0 bc3d e5b7 113e
000000b0: 5073 b6bd ba9b cc3d 6961 863b 4349 b33d
000000c0: d7a3 6d3d f40b 2e3e 07dd f83c adb9 9bbd
000000d0: 920f 64bd 918c 213c 47c3 ff3d 2f7d 5d3d
000000e0: 433b a03c e220 b8bd 0d18 c63d 72b0 c33d
000000f0: dc8a c9bc 677b d93d 2f55 583d a808 43bd
00000100: 7c2b b43d 8970 553e 51f3 933d 1112 643e
00000110: 8925 1c3e 4549 603e 0ecc 443e d857 34bd
00000120: bd2f 6b3d 54b4 93bd 76c8 053e
-0.059383508 0.05500445 -0.13076848 -0.13503666 0.20265892 0.17668504 0.06497805 -0.1921903
0.043994155 -0.033553574 0.016984327 0.0631698 0.21692361 -0.024981806 -0.00014432213 -0.12634608
0.034642145 0.034742154 0.04118985 -0.060456514 0.11442413 0.21427943 -0.004383738 -0.11797847
-0.14971258 0.078831226 0.020649739 0.121257186 0.023940127 -0.050030176 0.19212689 -0.051621158
0.010727637 0.18766844 0.08123214 0.12903534 0.0034002145 -0.008079088 -0.012980397 0.17210041
0.06330395 0.036557525 0.09222533 0.14230306 -0.08908713 0.0999064 0.0041009677 0.08754208
0.058017578 0.16996747 0.030378832 -0.07603774 -0.05567891 0.009860174 0.12488418 0.054074463
0.019559508 -0.08990647 0.09672556 0.09555139 -0.024602346 0.1061924 0.052815612 -0.047615677
0.087973565 0.2084371 0.07224143 0.22272517 0.15248694 0.2190295 0.19218466 -0.044029087
0.057418574 -0.07212129 0.13064751

out.weight f4 [38, 75]
00000000: 61ff eabd 1e85 cebb 8737 263e 251b bfbd
00000010: 309a 503d db6e b0be d2a3 eb3c 90f1 5cbe
00000020: 0636 bd3e 7893 f13d 8166 7dbe a78c 9b3e
00000030: fb17 0a3e 7ee3 8a3e 36f3 51be e880 743c
00000040: c993 a9bd cec1 00be eb52 54be eb38 683e
00000050: 85c7 a2bd 7ef0 8d3e ac60 913d ba74 693e
00000060: 2ec0 98be 7b94 96be 03b6 823d e651 c7be
00000070: c32c 293e ce26 5dbd bb6f 093e 3515 e6bc
00000080: f768 88be fac3 8f3e e356 393d 5667 0dbe
00000090: 7d0e d83d 285d 643e 3029 c23d ba0f b3bb
000000a0: dee4 b9be cc74 083e 1cd9 023e 98c1 b43e
000000b0: 9a17 25be 7d57 60be 3bb1 0ebe 8df0 7f3e
000000c0: a033 2e3e 2795 b1be edad 7c3d 7bd2 87be
000000d0: 4136 9abe b561 3bbe dfeb da3d 648a 923e
000000e0: 18c3 c53d ceca 9abe 8078 863e 670b b03e
000000f0: 1a24 bbbe 62cb 9fbd 0eb3 9bbe 1575 89be
00000100: 565e b3be 5947 693c 6ef8 c53d 0ed9 8f3c
00000110: 8b18 313e ab99 bb3d 489d 3fbe 38e9 483e
00000120: 28ff 61bd acaf 8bbe dbfb 9cbd 29f2 39be
00000130: 2e62 833b a6da 30be bacb e23d 1165 9dbe
00000140: abc8 d33c d297 f2bd 3d43 813e 021e 58be
00000150: 793f aabd 4fbd 1cbe 2fd8 6ebe 80ce 073e
00000160: 7d9d f6bc ed04 35be d633 803e 6063 71be
00000170: 85cc 833e ff65 c33d 7da9 bebc 6868 693e
00000180: 6e84 8b3d 5319 ebbd a597 2abe 0e0f 943d
00000190: c04a 613e 0aee 16be 2161 053e 4958 cbbd
000001a0: 4c6e 7ebe fad0 ebbc b9b1 7abe 622d 963e
000001b0: ab30 833d 3282 77be a58c 9f3e ec73 5c3e
000001c0: 6a38 7bbe 1016 023e f3a3 973d 0aa5 023d
000001d0: fbc1 6fbd 2909 c33c 3c14 0cbe 22f8 403e
000001e0: 5869 62bd d40f 0f3d 4a04 dabd 4680 b43c
000001f0: 5859 8d3d 5db0 9fbe 1880 f73d 61f4 683e
00000200: 6684 2f3e 609a 5dbe c633 58be 4d42 903d
00000210: b1ea 403e 7237 7dbe c3c5 e8bd c603 0d3e
00000220: 7989 f4bd b394 44be 57d0 283e d52b 8d3e
00000230: 2ad8 32be af03 67be 321c 1cbe dd57 fb3d
00000240: a1de b8be e73b 1abe e541 23bd 163a 39be
00000250: 9abe b5bd 2e37 273e c458 913e 22e3 513e
00000260: 3442 983e 1537 87bd 6f93 243d 64cc 95be
00000270: 2c3a aa3d 1567 cc3e 1997 61be 4d74 233d
00000280: 950c 6cbe 196f 30be 3288 8fbe 79f5 dd3d
00000290: f3c2 d4bd 2729 9c3e 668e 963c 9ab7 193e
000002a0: 0d01 44be 0c6e 8c3e b9be 90bc f74c 09be
000002b0: 7fff 03be 1a2a 853d e801 803e 3a94 ad3d
000002c0: d882 68be f6c1 6c3e d03d 753e ed45 bdbd
000002d0: a298 afbe c991 913d b6c7 7fbd aa20 5abe
000002e0: 6f83 a1be 80ab 8fbe eaa0 793d ef49 3abe
000002f0: 2694 93be e1e9 4fbe 0508 9abe 0481 59bd
00000300: 46ad ad3d 7040 2ebe 8ec3 b73d 9050 ed3d
00000310: 7d8d 36be e8c6 443e 21e0 25be 42ed 9abe
00000320: 8775 c7bd cde1 0e3e 3f0c 953e a917 56be
00000330: 0bd1 fabb 9de8 48be 6032 893e e2ba 55bc
00000340: b17a 63be 107e 193e e6d5 5c3e d34b 04be
00000350: a99f 91bd 5a9e 8fbe c9b5 84be d5f5 3fbe
00000360: 5d93 483e 5594 1ebe a586 3f3e 15b7 9ebe
00000370: 5ee8 b0bc 26f9 08be 0e6b 2dbe 7fe9 a9bb
00000380: d43d b33b d22d ebbd 61aa 633e bbf9 94be
00000390: 1cf2 f6bd 24f3 883c 5c9f 603a 3bb7 8fbb
000003a0: 34d2 83be 6785 9bbe a393 a53e 9a0b b73d
000003b0: 137b a73e 8050 2abe 20e0 a73b 4beb ca3d
000003c0: a138 133e 3262 54bd 67b3 acbe 7f40 8abe
000003d0: 3a02 fe3d bfe8 8f3e ed5b af3d 9039 f53d
000003e0: f72e 783e 9c21 a9be 2637 9a3e 9513 203e
000003f0: 7272 a0be 9acb cabd 11f1 163e c6bb 773e
-0.11474491 -0.00630249 0.1623212 -0.09331349 0.050928295 -0.34459576 0.028764639 -0.21576524
0.3695528 0.117957056 -0.24746133 0.30380747 0.1348571 0.27126688 -0.20502934 0.014923312
-0.08280141 -0.1257393 -0.20734756 0.22677962 -0.079482116 0.27722543 0.07098517 0.22798434
-0.2983412 -0.29410157 0.06382372 -0.3892967 0.16520981 -0.053992085 0.13421528 -0.028086284
-0.26642582 0.28079206 0.045248877 -0.13808951 0.105496384 0.22301161 0.09480512 -0.0054645212
-0.36307424 0.13325804 0.12778133 0.3530395 -0.16122285 -0.21908374 -0.13934796 0.24994107
0.17011881 -0.34684107 0.061689306 -0.2652777 -0.30119517 -0.18298991 0.1068952 0.2862121
0.09656352 -0.30232853 0.2626381 0.343837 -0.3655098 -0.07802464 -0.30410045 -0.2684714
-0.3503291 0.014238202 0.09666525 0.017559554 0.17294519 0.09160169 -0.18712342 0.19620216
-0.055174977 -0.27282465 -0.07665225 -0.18158783 0.0040095067 -0.17270908 0.11074014 -0.3074117
0.025852522 -0.11845364 0.2524661 -0.21105197 -0.08312888 -0.1530659 -0.23324655 0.13262367
-0.030104393 -0.1767766 0.25039548 -0.23573065 0.25741974 0.095409386 -0.023274178 0.22793734
0.06812368 -0.114794396 -0.1665941 0.07229434 0.22001171 -0.14739242 0.13025333 -0.099289484
-0.24846762 -0.028786171 -0.24481858 0.293315 0.06405767 -0.2417076 0.3116199 0.21528596
-0.24533239 0.12703729 0.07404318 0.031895675 -0.058534604 0.023808079 -0.13679594 0.18844655
-0.055276245 0.034927204 -0.10645349 0.022033822 0.069018066 -0.31189242 0.12084979 0.22749473
0.1714035 -0.2164092 -0.211135 0.07043896 0.18839528 -0.24728182 -0.11365845 0.1377097
-0.11940283 -0.19197349 0.16485725 0.27572504 -0.17465273 -0.22559999 -0.1524513 0.12272618
-0.36107352 -0.15061913 -0.039857764 -0.18088564 -0.08874245 0.16329643 0.28388035 0.204968
0.2973801 -0.06602303 0.040179666 -0.292575 0.08311877 0.39922395 -0.22030295 0.039905835
-0.23051675 -0.1722988 -0.28033596 0.10837836 -0.10388746 0.30500147 0.018378448 0.15011445
-0.19141026 0.2742771 -0.017669069 -0.13408266 -0.12890433 0.06502171 0.25001454 0.084755376
-0.22706163 0.23120865 0.23949361 -0.09241853 -0.34296137 0.071078844 -0.06244632 -0.21301523
-0.31545588 -0.28060532 0.060944475 -0.18192266 -0.28823966 -0.20304061 -0.30084243 -0.053101555
0.08480315 -0.17016768 0.08972846 0.11587632 -0.17827411 0.19216502 -0.1619878 -0.30259138
-0.097392134 0.13953324 0.29110906 -0.20907463 -0.0076543144 -0.19619985 0.26796246 -0.013045045
-0.22214772 0.14989495 0.21565971 -0.1291955 -0.07110531 -0.280505 -0.2591994 -0.18746121
0.19587465 -0.15486272 0.18703707 -0.30999056 -0.021595176 -0.13376293 -0.1693537 -0.0051853056
0.005470017 -0.11483349 0.22232963 -0.2909678 -0.120578974 0.016717501 0.0008568668 -0.0043858564
-0.2574631 -0.30375215 0.323392 0.0893776 0.32711086 -0.16632271 0.0051231533 0.0990816
0.14377071 -0.05185146 -0.33730623 -0.27002332 0.124027684 0.2810726 0.08562455 0.1197387
0.24236666 -0.33033454 0.301202 0.1563247 -0.31337315 -0.09902115 0.14740397 0.24192724

out.bias f4 [38]
00000000: c6b8 8bbd d4ab 6ebc 54eb 0ebe ee3b 5dbd
00000010: 6fa1 e6bd c783 27be ab2b 0dbe 483b 0f3d
00000020: 44bf 2e3c 9c51 a1bd 8bd2 d8bd 60e5 1c3e
00000030: 1673 833c 4ef4 3f3d 71fa 2ebd 6d56 d4bd
00000040: 68ff 363e 3916 10bd 9883 023d d0cd 6a3e
00000050: 22ac 5dbd ff44 8a3d 7c91 f3bd 8abc 39bd
00000060: 74b1 b13d a0c9 703d 34a3 6a3e e140 dcbd
00000070: fc68 193e 26c2 173d 82ef f33d e1c5 15bd
00000080: dc1e 843d 031f 573e 5d68 13be ef62 9cbc
00000090: 8789 c53d 2ec4 dfbd
-0.06822352 -0.014567334 -0.13956958 -0.05401223 -0.1126126 -0.16358863 -0.1378619 0.034968644
0.0106657185 -0.07876894 -0.10587033 0.15321875 0.016046088 0.046863846 -0.04271931 -0.10368047
0.17870867 -0.035177443 0.03186378 0.22930074 -0.054119237 0.06751441 -0.11892983 -0.04534582
0.086764246 0.058786035 0.2291382 -0.10754562 0.14981455 0.03705039 0.11910917 -0.036565665
0.064511985 0.21007924 -0.1439528 -0.019090144 0.09645372 -0.1092609

sep_conn.weight f4 [75, 504]
00000000: 40f7 753c f18b 873c 15f6 a13c 01a1 d13d
00000010: edc1 e63d 2e49 563d 7f67 86ba c184 57bb
00000020: 2103 6f3b c048 66bd 2e5f 51bd f73c d9bc
00000030: 0600 c4bc d14c 533c 77ee ed3b a92a 09bd
00000040: 9215 d63c 300a af3d cd1e 003d c179 c43b
00000050: 4dbc 953d 1703 febb ef44 18bc f2bc 103d
00000060: 753f 773c 00f3 2dbc d724 0abe 4435 d9bd
00000070: 37ee 2fbd d5f8 463c a69b b63c 167d 253d
00000080: 12a3 9abc ca63 213c 3291 a8bb b638 b0bd
00000090: c9e9 57bd 639d 40bc 0f52 f2bc 06f2 e1bc
000000a0: 8525 29bd 4b2d 8c3c 9f3a ebbc d2f8 6dbd
000000b0: a994 9e3c 7bcc c23d 4257 3a3d 7591 7139
000000c0: 9bea abbc 33fe f7bc 29c2 183d aa51 a73b
000000d0: 8b9f b03c b262 4cbd 90ea 6a3c 7f28 5d3c
000000e0: ea4a 333d fe1a 833d 5ee6 e53d 50d9 703d
000000f0: 9a8e 8e3c d916 2bbc a033 f8bb c6ab 07bb
00000100: 2fb2 183d 8c89 b23d e8ba c23d 5a70 dc3d
00000110: f682 d33d f58d b63d 9484 d63d 6d1c 293d
00000120: f7e1 1b3d 856b 64bc 0853 70bd efb2 9d3a
00000130: 653e 8d3d afc1 053e 0780 093d 3e1f fd3b
00000140: 3db4 793c 7da1 563d 9e47 7f3d 662e 783d
00000150: 9d79 163c d506 103d dd2a c93d 5da6 633d
00000160: 5fcd 243d 4832 2f3d e3ec 89bb d8c8 a4bc
00000170: 8e55 5c3d bd49 893d 9da0 adbc 27ac 01be
00000180: d952 403c 8a63 e43d b980 a73d f33f e43c
00000190: bcee d5bc f445 74bc 2188 473c 340b 4bbd
000001a0: d833 043d e18c a23c ef7d 553d b4c8 803d
000001b0: dca9 903d 108e 86bd 2d89 cfbc 4720 aa3d
000001c0: b178 a5bd 8bf5 07bd e44c c43d e69a dcbc
000001d0: 2d71 bdbd 97aa 95bc a8cf 8f3d 607a 7b3d
000001e0: 5509 073e 3992 debc acd5 553c 0004 4d3d
000001f0: 09b1 003e 110b 6ebc db75 863d a9b6 2f3c
00000200: e337 263d 21ca 5bbd 4ab7 7f3d 68a1 c13d
00000210: 5243 293e 9c58 923c b9dd e0bc cd84 25bd
00000220: 7478 383c b9b6 b4bd b753 0dbe a4a6 073e
00000230: 5441 983d 7fbb 183e 8e96 503d dafd f6ba
00000240: a49d f73d 4527 f33d 02ac e33d 8c40 253d
00000250: 9694 c53d 4e17 6e3a f973 b13a 2227 fe3d
00000260: 9891 c43d 8d5d c43d 7aa4 4b3d 029b aa3a
00000270: e49d a5bd 042b 61bc dc05 5c3d ef38 00be
00000280: a8d5 603c 65b1 e43d 43a8 a23d 682a eb3d
00000290: 6ba3 103e 62d2 013e 18c8 823d 4e81 513e
000002a0: 265d b1bb d23d 5b3d 06d6 a83c c352 a63c
000002b0: 2260 f33c fc9e 8b3d e5dc 933d e977 3a3d
000002c0: 96fd 083c e1f5 6cbd 430f ab3d caf4 4c3e
000002d0: a85d 03be 47b5 8ebc 743d 5f3d 8e73 9f3d
000002e0: 7f2b 203d 9b13 843d 7dfc 573b 3a6f c6bc
000002f0: 72fa 80bd c704 17bd 786e 343d bff8 423d
00000300: 8144 5fbc 34a3 453c b279 bf3b 1615 473d
00000310: c295 663c 85c1 ad3c 51b9 41bd 6981 29be
00000320: ed81 2c3e 5300 9e3c 5ee7 43bd b801 a1bd
00000330: 4d86 263b f836 ae3b 1d0a 963b af83 d4bc
00000340: 98bb f3bc 8197 02bc 69e5 553c 082d b53c
00000350: e163 7d3d 3484 a33d 72e8 aa3d 5e30 6f3d
00000360: 6caf 5e3d ad44 953d 24c4 3bbd 3cc8 9cbd
00000370: 1b4a c8bd 95f7 4f3e 94d3 9b3d b5b6 483d
00000380: 5fc7 03bc 4b1a 48bd 5085 153d de11 543c
00000390: 464d 7f3a 8a11 84bb e8da 193b 6bec 053d
000003a0: 95d6 b13c 56c0 823d 488e 8d3d 9206 533d
000003b0: 7168 3c3d 0755 8b3d e53c 2d3d a163 2d3c
000003c0: 32f6 2cbc 91e3 d5bd bf84 a33c d8a2 57bd
000003d0: 9a64 673d c714 613c d7fd 67bc fe94 31bd
000003e0: 9ffa 073d 2f3a 023d b395 6aba ac07 79bd
000003f0: 91e2 eebb 402e 5b3c 0236 893d e4f2 963d
0.015012562 0.016546221 0.019770661 0.10235787 0.11267457 0.052315883 -0.0010254233 -0.0032885524
0.003647037 -0.056221724 -0.05111616 -0.026518328 -0.023925792 0.012896732 0.0072610932 -0.03348795
0.026133332 0.08546865 0.031279374 0.0059959595 0.07311306 -0.007751833 -0.009293779 0.035336442
0.015090813 -0.010617018 -0.13490616 -0.10605863 -0.04295179 0.012144287 0.022291016 0.040402494
-0.018876586 0.009850452 -0.0051442618 -0.08604567 -0.05271319 -0.011756274 -0.029580144 -0.027581226
-0.041295547 0.017111441 -0.028714476 -0.05809862 0.019357996 0.09511658 0.04549337 0.00023037738
-0.020985892 -0.030272579 0.03729454 0.0051061707 0.021560451 -0.04989881 0.014338151 0.013498425
0.043772615 0.06401633 0.1122558 0.058800995 0.017401982 -0.010442459 -0.0075745136 -0.002070175
0.037279304 0.08717641 0.09508306 0.10763617 0.10327713 0.08913795 0.10474506 0.041286875
0.038057294 -0.01394165 -0.058672935 0.0012031476 0.068966664 0.13062166 0.033569362 0.0077246716
0.015240726 0.0524001 0.06232416 0.060591124 0.009184268 0.035162766 0.09822629 0.05557858
0.04023492 0.04277256 -0.0042091473 -0.020115301 0.05379253 0.067035176 -0.02119475 -0.12663327
0.011738502 0.11151798 0.08178849 0.027862525 -0.026114814 -0.014909256 0.012178452 -0.04957123
0.032276005 0.019842567 0.052122053 0.06288281 0.07063648 -0.06570065 -0.025333965 0.08306938
-0.08079661 -0.033193152 0.09584978 -0.02692933 -0.09250102 -0.01826982 0.07022029 0.061396003
0.13187154 -0.027169334 0.013051432 0.050052643 0.12567534 -0.014529006 0.06565448 0.010724702
0.04058064 -0.053659562 0.062430657 0.09454614 0.16529587 0.017864518 -0.027449476 -0.04040985
0.011259187 -0.08823914 -0.13801466 0.13247162 0.07434335 0.14915274 0.05092483 -0.0018843964
0.120906144 0.118727244 0.11116792 0.04034476 0.09647481 0.0009082452 0.0013538591 0.12409808
0.09598082 0.09588156 0.049717404 0.0013016167 -0.08086756 -0.013743166 0.053716525 -0.12521718
0.013722815 0.11166648 0.079422496 0.11482698 0.14124839 0.12677911 0.06385821 0.20459482
-0.0054127155 0.053525753 0.020609867 0.020303136 0.029708926 0.06817433 0.07219867 0.04552451
0.008361241 -0.057851676 0.0835252 0.20015255 -0.12828696 -0.017420424 0.054501966 0.07785712
0.03910398 0.06449052 0.0032956891 -0.024222959 -0.06297769 -0.03686979 0.044050664 0.047600504
-0.013627172 0.012062836 0.0058433646 0.048604093 0.014073791 0.021210441 -0.047295872 -0.16553272
0.16846438 0.019287264 -0.04782807 -0.07861656 0.002540964 0.0053166114 0.0045788423 -0.025941698
-0.029752538 -0.007970692 0.013055184 0.0221162 0.06186283 0.079842 0.08345117 0.058395736
0.054366514 0.072884895 -0.04584135 -0.07655379 -0.097797595 0.20309289 0.07608715 0.049002368
-0.008043139 -0.0488532 0.03650409 0.012943713 0.00097389927 -0.004030411 0.0023476426 0.03269617
0.021708766 0.063843414 0.069119036 0.051519938 0.04599804 0.06803327 0.0422944 0.010582835
-0.010556744 -0.104437955 0.01996076 -0.052645534 0.056492426 0.013737864 -0.014159641 -0.04335498
0.033197995 0.03179377 -0.00089486985 -0.060798332 -0.0072901924 0.013377726 0.06699754 0.073705465

sep_conn.bias f4 [75]
00000000: 9070 f5bd 41f8 2c3c 52f2 8cbe 7497 84be
00000010: 0425 7b3e bf79 423e 60ba 2ebd 21fe 96be
00000020: 4bf3 873d 948b 0fbe 8913 71bc cb4d 703d
00000030: c10c 6e3e 88d3 efbd a177 96bd 1316 50be
00000040: b03b 9e3d 7ca7 8e3d cb9f 8f3d 2617 56be
00000050: e9af 453e 4d11 793e 1efd 11bd df7a 30be
00000060: 5090 65be 876b 0a3d ac97 13bd 4141 523d
00000070: de6a 8bbd 12c2 3bbe 7d48 153e ef3d 5ebd
00000080: 4d5c 0dbe 3b36 6c3e 9fa7 c43c 3470 813e
00000090: daa2 6dbc 35ba f5bd e5b5 fabd 737a 773e
000000a0: 4e88 253d 547c eabd fbf6 6b3c 84dd 613e
000000b0: 8e6b 25be 8eb0 6b3e 9875 0fbe b599 893d
000000c0: 38ef 24bd a073 483e c56f 2ebc bca8 2cbe
000000d0: c3e8 43be 4513 e13d 665f 103e 7ab2 cf3d
000000e0: 785f bbbd 266e 48be 3024 233e 09b0 0d3d
000000f0: 0f4a 2bbe f20c ab3d dff9 393d 1215 48be
00000100: c2fa 0a3e b354 603e 6255 463e 35c7 853e
00000110: f065 1f3e 1dd6 733e 8f87 8a3e e901 d8bd
00000120: 0c0c f33d 6187 0bbe ff2d 613e
-0.1198436 0.010557235 -0.27528626 -0.258968 0.24525839 0.18991755 -0.04265821 -0.2949076
0.06638201 -0.14018089 -0.01471413 0.05866794 0.23247053 -0.11710268 -0.07347036 -0.2032092
0.07726228 0.06965539 0.070129 -0.20907268 0.19305386 0.24323006 -0.035641782 -0.17234372
-0.22418332 0.033793952 -0.036033317 0.051331762 -0.06807493 -0.1833575 0.14578433 -0.054258283
-0.13804741 0.23067562 0.02400571 0.25280917 -0.014504159 -0.11998407 -0.12241725 0.24167804
0.040413193 -0.11449495 0.014402146 0.22057158 -0.1615431 0.23016569 -0.14009702 0.067187704
-0.0402672 0.19575357 -0.010646765 -0.16861242 -0.1913176 0.109900035 0.14098892 0.101414636
-0.091490686 -0.19573268 0.15931773 0.03459171 -0.1672747 0.083520785 0.04540431 -0.19539288
0.13572219 0.2190731 0.19368508 0.26128545 0.1556623 0.23812146 0.27056548 -0.10547239
0.11867532 -0.13625862 0.21990202

bn.weight f4 [75]
00000000: 0000 803f 0000 803f 0000 803f 0000 803f
00000010: 0000 803f 0000 803f 0000 803f 0000 803f
00000020: 0000 803f 0000 803f 0000 803f 0000 803f
00000030: 0000 803f 0000 803f 0000 803f 0000 803f
00000040: 0000 803f 0000 803f 0000 803f 0000 803f
00000050: 0000 803f 0000 803f 0000 803f 0000 803f
00000060: 0000 803f 0000 803f 0000 803f 0000 803f
00000070: 0000 803f 0000 803f 0000 803f 0000 803f
00000080: 0000 803f 0000 803f 0000 803f 0000 803f
00000090: 0000 803f 0000 803f 0000 803f 0000 803f
000000a0: 0000 803f 0000 803f 0000 803f 0000 803f
000000b0: 0000 803f 0000 803f 0000 803f 0000 803f
000000c0: 0000 803f 0000 803f 0000 803f 0000 803f
000000d0: 0000 803f 0000 803f 0000 803f 0000 803f
000000e0: 0000 803f 0000 803f 0000 803f 0000 803f
000000f0: 0000 803f 0000 803f 0000 803f 0000 803f
00000100: 0000 803f 0000 803f 0000 803f 0000 803f
00000110: 0000 803f 0000 803f 0000 803f 0000 803f
00000120: 0000 803f 0000 803f 0000 803f
1.0 1.0 1.0 1.0 1.0 1.0 1.0 1.0
1.0 1.0 1.0 1.0 1.0 1.0 1.0 1.0
1.0 1.0 1.0 1.0 1.0 1.0 1.0 1.0
1.0 1.0 1.0 1.0 1.0 1.0 1.0 1.0
1.0 1.0 1.0 1.0 1.0 1.0 1.0 1.0
1.0 1.0 1.0 1.0 1.0 1.0 1.0 1.0
1.0 1.0 1.0 1.0 1.0 1.0 1.0 1.0
1.0 1.0 1.0 1.0 1.0 1.0 1.0 1.0
1.0 1.0 1.0 1.0 1.0 1.0 1.0 1.0
1.0 1.0 1.0

bn.bias f4 [75]
00000000: 0000 0000 0000 0000 0000 0000 0000 0000
00000010: 0000 0000 0000 0000 0000 0000 0000 0000
00000020: 0000 0000 0000 0000 0000 0000 0000 0000
00000030: 0000 0000 0000 0000 0000 0000 0000 0000
00000040: 0000 0000 0000 0000 0000 0000 0000 0000
00000050: 0000 0000 0000 0000 0000 0000 0000 0000
00000060: 0000 0000 0000 0000 0000 0000 0000 0000
00000070: 0000 0000 0000 0000 0000 0000 0000 0000
00000080: 0000 0000 0000 0000 0000 0000 0000 0000
00000090: 0000 0000 0000 0000 0000 0000 0000 0000
000000a0: 0000 0000 0000 0000 0000 0000 0000 0000
000000b0: 0000 0000 0000 0000 0000 0000 0000 0000
000000c0: 0000 0000 0000 0000 0000 0000 0000 0000
000000d0: 0000 0000 0000 0000 0000 0000 0000 0000
000000e0: 0000 0000 0000 0000 0000 0000 0000 0000
000000f0: 0000 0000 0000 0000 0000 0000 0000 0000
00000100: 0000 0000 0000 0000 0000 0000 0000 0000
00000110: 0000 0000 0000 0000 0000 0000 0000 0000
00000120: 0000 0000 0000 0000 0000 0000
0.0 0.0 0.0 0.0 0.0 0.0 0.0 0.0
0.0 0.0 0.0 0.0 0.0 0.0 0.0 0.0
0.0 0.0 0.0 0.0 0.0 0.0 0.0 0.0
0.0 0.0 0.0 0.0 0.0 0.0 0.0 0.0
0.0 0.0 0.0 0.0 0.0 0.0 0.0 0.0
0.0 0.0 0.0 0.0 0.0 0.0 0.0 0.0
0.0 0.0 0.0 0.0 0.0 0.0 0.0 0.0
0.0 0.0 0.0 0.0 0.0 0.0 0.0 0.0
0.0 0.0 0.0 0.0 0.0 0.0 0.0 0.0
0.0 0.0 0.0

bn.running_mean f4 [75]
00000000: 0000 0000 0000 0000 0000 0000 0000 0000
00000010: 0000 0000 0000 0000 0000 0000 0000 0000
00000020: 0000 0000 0000 0000 0000 0000 0000 0000
00000030: 0000 0000 0000 0000 0000 0000 0000 0000
00000040: 0000 0000 0000 0000 0000 0000 0000 0000
00000050: 0000 0000 0000 0000 0000 0000 0000 0000
00000060: 0000 0000 0000 0000 0000 0000 0000 0000
00000070: 0000 0000 0000 0000 0000 0000 0000 0000
00000080: 0000 0000 0000 0000 0000 0000 0000 0000
00000090: 0000 0000 0000 0000 0000 0000 0000 0000
000000a0: 0000 0000 0000 0000 0000 0000 0000 0000
000000b0: 0000 0000 0000 0000 0000 0000 0000 0000
000000c0: 0000 0000 0000 0000 0000 0000 0000 0000
000000d0: 0000 0000 0000 0000 0000 0000 0000 0000
000000e0: 0000 0000 0000 0000 0000 0000 0000 0000
000000f0: 0000 0000 0000 0000 0000 0000 0000 0000
00000100: 0000 0000 0000 0000 0000 0000 0000 0000
00000110: 0000 0000 0000 0000 0000 0000 0000 0000
00000120: 0000 0000 0000 0000 0000 0000
0.0 0.0 0.0 0.0 0.0 0.0 0.0 0.0
0.0 0.0 0.0 0.0 0.0 0.0 0.0 0.0
0.0 0.0 0.0 0.0 0.0 0.0 0.0 0.0
0.0 0.0 0.0 0.0 0.0 0.0 0.0 0.0
0.0 0.0 0.0 0.0 0.0 0.0 0.0 0.0
0.0 0.0 0.0 0.0 0.0 0.0 0.0 0.0
0.0 0.0 0.0 0.0 0.0 0.0 0.0 0.0
0.0 0.0 0.0 0.0 0.0 0.0 0.0 0.0
0.0 0.0 0.0 0.0 0.0 0.0 0.0 0.0
0.0 0.0 0.0

bn.running_var f4 [75]
00000000: 0000 803f 0000 803f 0000 803f 0000 803f
00000010: 0000 803f 0000 803f 0000 803f 0000 803f
00000020: 0000 803f 0000 803f 0000 803f 0000 803f
00000030: 0000 803f 0000 803f 0000 803f 0000 803f
00000040: 0000 803f 0000 803f 0000 803f 0000 803f
00000050: 0000 803f 0000 803f 0000 803f 0000 803f
00000060: 0000 803f 0000 803f 0000 803f 0000 803f
00000070: 0000 803f 0000 803f 0000 803f 0000 803f
00000080: 0000 803f 0000 803f 0000 803f 0000 803f
00000090: 0000 803f 0000 803f 0000 803f 0000 803f
000000a0: 0000 803f 0000 803f 0000 803f 0000 803f
000000b0: 0000 803f 0000 803f 0000 803f 0000 803f
000000c0: 0000 803f 0000 803f 0000 803f 0000 803f
000000d0: 0000 803f 0000 803f 0000 803f 0000 803f
000000e0: 0000 803f 0000 803f 0000 803f 0000 803f
000000f0: 0000 803f 0000 803f 0000 803f 0000 803f
00000100: 0000 803f 0000 803f 0000 803f 0000 803f
00000110: 0000 803f 0000 803f 0000 803f 0000 803f
00000120: 0000 803f 0000 803f 0000 803f
1.0 1.0 1.0 1.0 1.0 1.0 1.0 1.0
1.0 1.0 1.0 1.0 1.0 1.0 1.0 1.0
1.0 1.0 1.0 1.0 1.0 1.0 1.0 1.0
1.0 1.0 1.0 1.0 1.0 1.0 1.0 1.0
1.0 1.0 1.0 1.0 1.0 1.0 1.0 1.0
1.0 1.0 1.0 1.0 1.0 1.0 1.0 1.0
1.0 1.0 1.0 1.0 1.0 1.0 1.0 1.0
1.0 1.0 1.0 1.0 1.0 1.0 1.0 1.0
1.0 1.0 1.0 1.0 1.0 1.0 1.0 1.0
1.0 1.0 1.0

net.0.weight f4 [75, 504]
00000000: 8fc4 0a3c 1ffd a1bd b215 d2bd 6e24 9abd
00000010: 107b a7bd 6ea4 13bd 4fa7 7ebc d858 0bbd
00000020: e393 13bd f104 8ebc d28e dc3b 1a2b 563c
00000030: 0bb7 01bc b1eb 1fbc 1597 d9bc 2db9 a83b
00000040: 62d3 66bc 0e55 3bbc f6db adbc 5da1 aebc
00000050: 85f1 4ebc 166f 743c ed4e 90bd 502c aabd
00000060: 70be 653c 5b8d 0c3d 3390 db3d 1e25 663d
00000070: 1387 c83c 193e 42bc a004 17bd 0324 363c
00000080: 2417 8d3c 854c 2e3c 3bd1 ba3c 65c4 6f3d
00000090: 81f9 463d 01e4 193d 6246 ec3c da4e 463c
000000a0: 666c a4bc b046 aebc 4421 2a3d 7411 463c
000000b0: 06ae 93bc bada dfb8 581a cc3c 443d 3e3d
000000c0: e14c 663d 45fb 163e 41e5 ae3c a43b 87bc
000000d0: edbd 013c 2669 663d 98c9 f03c dcfd aa3d
000000e0: d49f c93d f39e 503d e27c 7d3d 3828 253d
000000f0: 0510 bc3d ee8a ca3d 86ae 793d 7d41 cd3d
00000100: 07ea 8d3d cf0e ca3c dc71 2ebd 8a69 71bd
00000110: 2d1a cebc 6478 ebbc 61fe 333c 6f3a 9f3d
00000120: 6251 163d 836e 913d 44d5 883d eac8 553d
00000130: e185 943d 69ad 0ebd 53e0 1a3b 43d3 143c
00000140: bd59 353b 32bf 483b 1cc5 a9bc 2bc9 2c3d
00000150: e84b 363d 7c19 83bc d44f 7dbd da84 d43c
00000160: 2009 0c3d 46d1 adbc 546e b03c c4ab e43c
00000170: 1cd1 9f3c 4bef 84bc 902f 673d 9298 003e
00000180: ac22 043d b69d cfbd 1ff1 68bd 3d7b 0dbd
00000190: ca4c f13c f1f8 883c 55ac d33b 4198 a6bc
000001a0: 8d21 b7bd e9ae f53c b087 fc3b b3c1 1ebd
000001b0: 9310 a73c 5bec c23d b065 4f3d e822 0a3d
000001c0: 422d a93d 6773 9d3d 0b00 2ebd b635 763b
000001d0: 239c b03d 28e4 db3c 843c 81bc 6b76 a3bc
000001e0: beb2 32bd 2924 8d3d 43a5 b63d 1f48 683d
000001f0: d556 01bd c506 13bc bdf9 0fb9 2208 973d
00000200: fb2f f03b 1d69 883d ba70 ad3c c8aa 013d
00000210: d74f 49bd f948 753d 0ba8 1e3d 6433 c33d
00000220: 1435 15bd c6cd ea3c 3cfe 8b3c f786 c43b
00000230: df90 a0bd 3419 d6bd e471 5d3d 97e4 843d
00000240: cd6b f5bd e1a1 e13a 7d29 e03c 83f8 263d
00000250: adb7 91bd 545c afbc 0152 093d f936 863c
00000260: 241c df3c afe7 46bd b4f7 373d 82b8 fb3b
00000270: 336e 263d 2b66 6c3d 829f b4bd 1fb6 9dbc
00000280: c38b 3c3c 064d a5bd 6cea 24bd 9ed5 de3c
00000290: 9947 0ebc 0fd1 b0bc 43fa 0abc a13f 753d
000002a0: ae7f c23d 9a05 c53c eb71 05be 8e2d 2a3b
000002b0: d11e 1a3d 167b 343d 5565 7d3d ef50 b73d
000002c0: 783b ff3b 4b85 523c 6606 99bc 4cbb 29be
000002d0: b127 2639 9e70 84bd 6abb 4cbc 65c0 30bc
000002e0: e4fb 563d 7e55 6d3d f148 07bc 235c 873d
000002f0: 9943 1e3e 1af0 093d b4cb 11bc c3ee 37bd
00000300: 729e e9bc 3c16 513b 3768 babc 1867 f03a
00000310: 9fab 8d3c 0d76 ecbc d976 053d 1fd1 133d
00000320: 5ae8 93bd 9c82 66bd 866e 0cbd d7d3 e9bc
00000330: 8e43 0abd d7c7 82bc adaf d93b 3f03 713d
00000340: 4921 8e3d f93d 803d e4a1 b1bd b109 83bd
00000350: a538 94bc 5e47 8f3a 3f29 24bd ce31 c53b
00000360: ea8a 173d 67e3 f7bc 93fe 12bd f8c0 dfbc
00000370: 93da 65bc 4af1 96b7 ca6f af3b d94e f9bc
00000380: 5bcd 26bd 3d9b 95bd ec8a 74bd ebb1 92bd
00000390: 583e 94bc ce19 e93b 5323 f63c 4818 9fbd
000003a0: 7d3d 8ebd 33a5 48bc dc55 323c 6dbf 23bd
000003b0: 7221 1bbc 9260 563c 561f c93d 5a7d 34bc
000003c0: d7f7 023c 5e8f 8b3d 786e 9d3d 3296 c33d
000003d0: c3e3 88bd 55b6 96ba c1aa 52bc 4569 00bd
000003e0: dbfd d63b 2923 23bc 9769 2f3d f370 f63c
000003f0: 0947 babc c609 37bd f019 0cbe 5587 8abd
0.008469715 -0.07909607 -0.10258044 -0.0752648 -0.08177769 -0.036045484 -0.015542819 -0.034020275
-0.036029708 -0.01733634 0.0067308927 0.0130718 -0.007917176 -0.009760783 -0.0265613 0.005149028
-0.0140884835 -0.011433853 -0.02122305 -0.021317178 -0.012630825 0.014919063 -0.07046304 -0.08309233
0.014022455 0.034314495 0.10720863 0.05618774 0.02447847 -0.011855626 -0.036869645 0.011116984
0.017222948 0.010638361 0.022804847 0.058536906 0.04857779 0.037570957 0.028842155 0.012103761
-0.02007122 -0.02127394 0.04153563 0.012089122 -0.018027317 -0.000106742096 0.024914905 0.046445146
0.05622566 0.14744289 0.021349551 -0.016507931 0.007918817 0.05625262 0.029393002 0.08349201
0.09844938 0.050932836 0.061886676 0.04032156 0.09182743 0.0988978 0.060957454 0.100222565
0.06929403 0.024665264 -0.042589054 -0.05893854 -0.025158966 -0.02874393 0.010985942 0.07774817
0.036698706 0.071011566 0.06681302 0.05219356 0.07252098 -0.034833346 0.0023632243 0.009083572
0.0027671896 0.003063154 -0.020723872 0.042184036 0.044505984 -0.016003363 -0.06184371 0.025942255
0.03418839 -0.021217953 0.021536984 0.027913935 0.01950889 -0.016227385 0.056441844 0.12558201
0.03225963 -0.10137503 -0.056870576 -0.034541357 0.029455561 0.016720267 0.0064597526 -0.020336272
-0.08941946 0.02999063 0.007706605 -0.038758945 0.020393645 0.095177375 0.050634086 0.033724695
0.08260585 0.07688027 -0.04248051 0.0037568635 0.08623531 0.026842192 -0.015775926 -0.019953927
-0.043627493 0.068916626 0.0891824 0.056709405 -0.03157695 -0.008973782 -0.00013730577 0.07374598
0.0073299385 0.06660674 0.021171916 0.03165701 -0.049148407 0.059884045 0.038734477 0.09531286
-0.036427572 0.028662574 0.017089002 0.0059975344 -0.07840132 -0.10454026 0.054063693 0.064889126
-0.11983452 0.0017214381 0.027363533 0.040764343 -0.071151115 -0.02140633 0.03352547 0.016383635
0.027235098 -0.048560794 0.044913962 0.007681907 0.040632438 0.057714622 -0.08819486 -0.019251881
0.011507931 -0.08071332 -0.040262625 0.02720147 -0.008684062 -0.021584062 -0.008482519 0.059875134
0.09497009 0.024050523 -0.13031738 0.0025967094 0.037627045 0.044062696 0.061864216 0.08950984
0.0077890716 0.012849162 -0.018679809 -0.16575354 0.0001584578 -0.064667925 -0.012495855 -0.010788058
0.052486315 0.05794286 -0.008257137 0.066093706 0.15455474 0.033676244 -0.008898664 -0.044905435
-0.028517935 0.0031904122 -0.022754772 0.0018341271 0.01729375 -0.028864885 0.032584045 0.036088105
-0.07222052 -0.056276903 -0.03428509 -0.028543396 -0.03375583 -0.015964432 0.0066432566 0.058840986
0.069399424 0.0626182 -0.08673456 -0.06398333 -0.018093416 0.0010931303 -0.040078398 0.0060179
0.036997713 -0.030259801 -0.035887312 -0.027313694 -0.014029163 -1.7993752e-05 0.0053539025 -0.030433105
-0.040723186 -0.07305 -0.0597028 -0.071628414 -0.018096134 0.007113672 0.03004614 -0.07768303
-0.06945322 -0.012246418 0.010884728 -0.03997748 -0.009468423 0.013084548 0.0982043 -0.011016214
0.00799366 0.068144545 0.07687086 0.09550132 -0.06684067 -0.0011498431 -0.012858094 -0.031350393
0.0065610236 -0.009957113 0.042825308 0.030083155 -0.02273895 -0.044687055 -0.1368177 -0.06764094

net.0.bias f4 [75]
00000000: 9e3d f63d 63b0 ae3c 2a75 4bbc 219d efbc
00000010: d28d 88bd 468f b9bd 85b7 ff3c 8863 0d3d
00000020: 7d27 e7bd 0dba f23d c4be 57bd 5f19 ccbc
00000030: d827 3a3e c6c6 0cbd 45a5 973d 2363 6ebd
00000040: 1c6d d8bc 4499 3e3d 2f97 a6bc 61c7 303e
00000050: 31a8 ce3c c80c 133e f6d7 68bd d8ba b83b
00000060: c020 cebd c993 28be 2519 823c 67cc b3bd
00000070: 3bfb e53d ecef 01be 3e60 8f3d 4f46 413d
00000080: d752 433d bc89 703d 0166 ce3d 990f d5bd
00000090: 29d4 d1bd 6011 f93b fc05 d1bd 4beb c13d
000000a0: 2334 b83d f44d ccbc b82e 283e 85b3 fdbb
000000b0: d3ef 17be dcc7 0b3b 627a 6ebd 3c59 93bd
000000c0: c7d0 1c3e 9bb2 103d 3ed7 b53d 409c eb3d
000000d0: fe17 b4bd 069b 15bd a5cc db3d ed03 2a3c
000000e0: 6a80 6f3c eb78 053d 2838 58be 2b60 9b3d
000000f0: 36f1 a73d 5da9 ce3d ab43 afbb 6d1a 1dbe
00000100: 5b89 88bd cbb8 97bd 9f63 90bc 9429 26bd
00000110: 6b32 0d3e 16fd 4d3e e89f 0ebc c556 babd
00000120: 4ae6 393e 9227 5a3d c142 cdbd
0.12023471 0.021324342 -0.012418071 -0.02924973 -0.06667675 -0.0906053 0.031215439 0.03451875
-0.11286829 0.118518926 -0.052672163 -0.024914442 0.18179262 -0.034369253 0.074045695 -0.058200013
-0.026419215 0.046532884 -0.020335762 0.17263557 0.025226684 0.14360344 -0.05684658 0.005637508
-0.1006484 -0.16462626 0.01588113 -0.08779221 0.11229559 -0.12689179 0.070007786 0.047186192
0.047686424 0.058725104 0.100780495 -0.10403366 -0.102455445 0.007600948 -0.102062196 0.09468707
0.08994319 -0.024939515 0.16424072 -0.0077423477 -0.1483758 0.0021328842 -0.058222182 -0.071947545
0.15314017 0.03532658 0.08878945 0.11504412 -0.08793639 -0.036524795 0.10732392 0.010376913
0.014618019 0.03258602 -0.21115172 0.07586702 0.08200304 0.10090897 -0.005348643 -0.15342112
-0.066668235 -0.07408293 -0.017625628 -0.040566996 0.13788764 0.20116076 -0.008705117 -0.09098581
0.18154255 0.053260393 -0.10022498
