bestclf/yaleb/y06.pth (torch, 343163 bytes, 16 tensors)

fc1.weight f4 [75, 504]
00000000: 9206 b6bb 1f93 d2bd 1bc3 a3bd 776c 92bd
00000010: 83c7 cebd 2b4e 91bc 14cc b23c 9c8f 24bd
00000020: 8283 73bd c102 12bd 97a3 d13c 8253 2c3d
00000030: 146f 183c 431f b63b d229 d8bc 6736 3f3d
00000040: 8a92 0f3d 5d06 5bbd 1d19 9abd 55cb a8bd
00000050: 8432 6cbd 9138 c63c 3f31 05bd 48ea 5dbd
00000060: c8f6 dd3b 74f6 23bc 1064 ab3d 48a1 653d
00000070: 7412 e1bc 5476 b5bd 5228 8dbd 3241 51bc
00000080: 3eeb ce3c b496 f1bb ba03 e7bc 860f 933c
00000090: 1c80 ad3c 7b26 143d 30ea 983c 27c3 c1bc
000000a0: 722d a4bd 78eb c8bd d3ff 433d d6a8 6c3c
000000b0: 2d97 a8bc e6a7 823c 4d43 8d3d 23ca 903d
000000c0: 7d3d 8f3d 1614 d03d cdba 42bc e8ef 12bd
000000d0: dd35 a6bc b79f 003d 1c01 893c 6b0d c03c
000000e0: afa0 e13c 77c4 3bbb 5303 ae3b 90e5 acbc
000000f0: 1b5f 1d3d b3ad a23d a8ec e03c 044d 953c
00000100: 6fad 6a3c 5f03 753c edc6 18bd 81af 75bd
00000110: 042d 3fbd 7ab0 40bd 0bfe ceb9 9672 893d
00000120: ee4f c73c 4092 863d c152 883d 81e3 0a3d
00000130: 36ed 203d 7ffb 53bd 61cc 043d 4af4 2b3d
00000140: f60a f4bb ddbe 4bbd a03a c43b 0a50 903d
00000150: 6633 b73d 985a a9bd 551c cebd 980b 99bc
00000160: fd2f 383d 769e 4dbc e97b a73b c33f 343c
00000170: 403c 4a3d 4623 0e3d 061f 893d b300 383e
00000180: 3090 533d a8e4 97bd 40d3 35bd a5cb 353d
00000190: c1de 8b3d 0770 1a3d f3b9 e13c 95a6 9bbd
000001a0: b16a 89bd 12f0 0c3d 3394 1fbc af0a 19bc
000001b0: e861 303d bc19 c83d b5dd 553c 718a ccbb
000001c0: dd7a 713d 5a86 763d 870d b9bb e52c cc3c
000001d0: ffb0 013e b40f a33d 1a84 1abc d12a a53c
000001e0: 1917 75bc a658 8e3d 724b d43d 74e5 013e
000001f0: b188 4ebc ab6c abbc fc41 edba 683b 1e3d
00000200: 358f cbbc 04fc 943c 82b6 5cbc 9030 bdbc
00000210: 5c23 abbd 9f37 d0bb 0c14 863d 9424 153e
00000220: 3b3b 2a3d e1c5 cd3d 9a1d 8f3d f8fa 48bd
00000230: c258 cabd 697f 79bd a096 a1bc a1cf 22bd
00000240: d7fc b0bd a0ac c2bd 792a b2bc 40c4 c23c
00000250: f17d 9fbd 1edd 0ebd 84cb 2cbd 4587 93bd
00000260: 453c 22bd c8ff b5bd 9ded 393c b574 383d
00000270: 80ca 7b3d db33 68bd 4aa1 61bd ffc2 803d
00000280: 301c 403c d077 fdbd 5ae3 89bd fd66 39bd
00000290: e78c a5bd 9cfb 8dbd fc3d 933c 1d33 acbd
000002a0: fe83 373d 3268 20bd d84f c8bd 8536 e53c
000002b0: 6499 133d b570 a83c 2500 1d3d 6d68 ca3d
000002c0: ed4e 2e3d 0af1 8c3d ad63 c9bd 6c52 3ebe
000002d0: 52a5 153d eaac 233c 1023 19bc e048 18bd
000002e0: e90c 4b3c 2733 783d 3d0a 1d3c f220 38bc
000002f0: e715 1f3d 9bfa a33c 12f1 e6bc 2048 8fbd
00000300: 07b7 153c 9192 993c 0ae1 e13b 391c 903c
00000310: f4a4 9e3d 5b15 ab3c dfda 443c 48f8 863b
00000320: b57f 4fbd f363 4ebd d707 183d 6df0 c63c
00000330: 9d38 58bc d57e 50bd d203 d53b ff3d c6b7
00000340: aff3 1e3d d743 9a3d b352 afbd 6ce4 92bd
00000350: f898 acbc 790f a73b 5167 bdbc c42e 423c
00000360: df41 c33c 9bab fa3c 7bf5 393c 8960 04bd
00000370: 170d 19bd 2926 0fbc fdbb db3c 1e13 30bd
00000380: 8434 353c b093 a1bc 6db4 09bd a5b8 aebd
00000390: 324f bcbd 36f8 05bd 43e6 b23d 0d8e a7bd
000003a0: 61d6 58bd d14d 6d39 51a0 d2bb d97f 24bd
000003b0: af7c f6bc 3359 60bb 52f1 f83d 76fa 5dbd
000003c0: 950f 9d3d 59bc ae3d f78e cf3d c329 2a3e
000003d0: 42c8 c1bd aca9 643d ed14 aa3d 33c5 ed3c
000003e0: 386b 3cbd ab47 a6bd b68e 193c ceeb aa3d
000003f0: 8489 e8bc 00da 11bd 99c9 02be 6352 85bd
-0.0055549825 -0.10281967 -0.07996198 -0.07149594 -0.100966476 -0.017737469 0.021825828 -0.04017602
-0.059451587 -0.035647158 0.025590701 0.042071827 0.009303827 0.005557926 -0.026387129 0.04668274
0.03505186 -0.053472865 -0.07524321 -0.082419075 -0.057665363 0.024196895 -0.032517668 -0.054178506
0.0067738034 -0.0100074895 0.08368695 0.056062013 -0.02747462 -0.0886046 -0.06892456 -0.012771891
0.025258657 -0.0073727015 -0.02820002 0.017951738 0.021179251 0.03616951 0.018666357 -0.023652626
-0.080164805 -0.09810537 0.047851395 0.0144445505 -0.020579899 0.0159492 0.06897602 0.070698045
0.0699415 0.10160081 -0.011885357 -0.035873324 -0.020289356 0.031402316 0.016724162 0.023443898
0.02754244 -0.0028651038 0.005310455 -0.021105558 0.038420778 0.07943287 0.027456596 0.0182252
0.014323576 0.014954417 -0.037299085 -0.059981827 -0.04667379 -0.0470433 -0.0003948066 0.06711309
0.024330106 0.06570864 0.06656409 0.03390837 0.039288722 -0.051753517 0.032421473 0.04198102
-0.0074475957 -0.04974257 0.005988434 0.07046516 0.0894535 -0.082692325 -0.10063998 -0.018682286
0.04496764 -0.012549987 0.005111207 0.01100153 0.049373865 0.034701608 0.066953704 0.17969017
0.05165118 -0.074166596 -0.044390917 0.044383664 0.06829596 0.037704494 0.027554488 -0.076001324
-0.06709803 0.034408636 -0.009739923 -0.009340926 0.04306212 0.097705334 0.013053347 -0.0062420894
0.058955062 0.06018672 -0.0056473645 0.024923751 0.12665175 0.079619795 -0.0094309095 0.020162018
-0.01495912 0.06950502 0.103659526 0.12685186 -0.012605832 -0.02092584 -0.001810133 0.038630873
-0.02484856 0.018186577 -0.013471248 -0.023094445 -0.08356354 -0.006354287 0.065467924 0.14564735
0.041560393 0.10047508 0.06988068 -0.049067467 -0.098802105 -0.060912523 -0.019725144 -0.03974879
-0.086419754 -0.09505582 -0.021748768 0.02377522 -0.07787693 -0.034878843 -0.042186275 -0.07203535
-0.03960826 -0.08886677 0.011348155 0.045033175 0.061472416 -0.05669008 -0.055085458 0.062871926
0.01172547 -0.12376368 -0.06732817 -0.045264233 -0.080835156 -0.06932756 0.017973892 -0.084081866
0.044803612 -0.03916187 -0.09780854 0.027980099 0.036034957 0.020561555 0.038330216 0.09883199
0.04255574 0.06881912 -0.09833465 -0.18586129 0.036534615 0.009989956 -0.009346738 -0.037178874
0.012393215 0.060595658 0.0095849605 -0.0112383235 0.038839247 0.020016959 -0.028191123 -0.069961786
0.009137875 0.018746646 0.006893282 0.017591583 0.07746306 0.020884207 0.012015074 0.004118953
-0.0506589 -0.050388288 0.03711685 0.024284566 -0.013197091 -0.050902206 0.0065006996 -2.3632309e-05
0.038806614 0.07532471 -0.085606955 -0.07172474 -0.021069035 0.00509828 -0.023120554 0.01185197
0.02383512 0.030599406 0.011350031 -0.032318626 -0.037366 -0.008737125 0.026823038 -0.04298698
0.011059884 -0.019723743 -0.033619333 -0.08531312 -0.09194793 -0.032707416 0.08735325 -0.08181391
-0.052938823 0.0002263107 -0.0064278026 -0.040160988 -0.03008875 -0.0034232854 0.12155403 -0.054193936
0.07668988 0.08532018 0.1013469 0.16617493 -0.09462024 0.055825874 0.083047725 0.029024696
-0.04600069 -0.08119138 0.009372404 0.083457574 -0.028385885 -0.03560829 -0.12772216 -0.06509855

fc1.bias f4 [75]
00000000: b7ed 9739 65d8 abbb 825b 223d 7624 40bd
00000010: 1777 01be ff80 9fbd 3843 6fbd 0f04 79bc
00000020: fd1a 54be daa4 243d 1981 03be bb84 5fbd
00000030: 2701 343e e045 9dbd 6692 efbc 3ef7 d2bd
00000040: 5ef5 80bc c47d 72bd a2c1 3bbd 9cf1 2e3e
00000050: bc23 903c 9db1 583e 0328 88bd 4a15 39bd
00000060: 2a14 b6bc 6f59 24be 479f 3e3d dfc7 edbd
00000070: ecc1 063e ff0f 17be 401b 743d 0c72 c3bc
00000080: 13af a53d 15f8 c63c 1a71 913d 2f9d 49bd
00000090: c894 11be 92fd 0ebd 2053 3abd e596 d13d
000000a0: 1b79 05bd 853b 42bd 8f2a 133e 4ece c6bd
000000b0: ea1d 5fbd cdb5 c6bd c00b d9bd 1dc6 17be
000000c0: 4fe0 853c 65f6 d5bc 175d bfbd d1e2 ff3d
000000d0: 8209 07be 10fe 28be 137d 853d d289 edbd
000000e0: 90e4 883d c5a3 43bd 3f0f 34be c53d da3d
000000f0: 4fc8 603c 143b 7c3d bdcd c4bc 516c 69be
00000100: e7ad b1bd 0b6d 61bd 3a12 c23b dc8d a0bd
00000110: e525 293c 85d3 4c3e d890 5bbd e234 40bc
00000120: 8370 9b3d 0ff6 2c3d 1014 debd
0.00028978076 -0.005244302 0.03963805 -0.04690977 -0.12643085 -0.07788276 -0.058413714 -0.015198722
-0.2071342 0.040196277 -0.12842216 -0.05456994 0.17578565 -0.07679343 -0.029244613 -0.10301064
-0.015742 -0.05920197 -0.04583896 0.17084354 0.017595164 0.21161504 -0.06648257 -0.04518632
-0.022226412 -0.16049741 0.046538617 -0.11610388 0.13159913 -0.14752196 0.0595963 -0.023858093
0.080900334 0.024288217 0.071016505 -0.049222168 -0.14216912 -0.034909792 -0.04548943 0.10233859
-0.0325862 -0.047420043 0.14371704 -0.09707318 -0.054471888 -0.097026445 -0.10597944 -0.14821668
0.01634231 -0.026118467 -0.09343927 0.12494434 -0.1318722 -0.16503167 0.06517997 -0.11598553
0.0668422 -0.047763605 -0.17583941 0.10656313 0.013719632 0.06157978 -0.024023885 -0.22795226
-0.08675747 -0.055035632 0.005922583 -0.078395575 0.010323976 0.20002563 -0.05360493 -0.011731358
0.07589819 0.042226847 -0.1084367

fc2.weight f4 [75, 75]
00000000: 0254 5cbe 8381 cb3d 502e 333e 887c 053e
00000010: 8ebe 4f3e 9442 f7bc b0c9 2c3c 136e 07be
00000020: f5d8 b6bd 24c9 023e 14ee fa3d ee2f a5bd
00000030: 36bd fe3d be2f 083d c3e4 5b3e be80 1dbb
00000040: 2ab6 0dbe ec5e 023e b5ec 3dbe 8bb2 0cbb
00000050: 578c f8bd 75f6 9ebc 80ce ac3d 4346 b63a
00000060: beb4 463d 57eb 7f3d 73f0 a0bc b502 6a3e
00000070: 69e3 6abd 816b f5bd 95a5 99bd a72c 3abd
00000080: 8048 0e3d 5008 513d 82ec 50be 6001 e73d
00000090: 8cd1 123e a72c ae3c ec05 cfbd 3a8c ac3d
000000a0: 3738 a1bc b99e 1a3e ffda 4b3d 972a 3e3a
000000b0: c59c 0b3e 3271 a5bc b7d9 9d3d cbbe 0cbe
000000c0: 01a3 c4bd 75f7 9c3d c419 523d 518c a53d
000000d0: a679 c4bd 8569 4ebd ba10 3e3d e5f0 ee3c
000000e0: 478a 4cbe f869 323d 554c 32be 12a6 fa3c
000000f0: d715 f23d efa2 813d 881c e73d 9ee2 143d
00000100: e8a5 a93d 9ccd b2bd 46fd a5bb d3a7 e03c
00000110: c10d 4a3c 97ff 7a3d 77d2 363c 00dc 82bc
00000120: 632d a0bd 97fd 05bd 2379 05bd 45c5 58bd
00000130: b70d 33be 2ada 423d c31f 4d3d b6c8 ad3c
00000140: e323 983d 3566 09bb f8ba 463d 3ce0 80bb
00000150: 2232 623e fb79 12bd 8865 36bd 81ea 32bc
00000160: f3c0 54bc 505c f33d 77a1 253a 5f97 e23d
00000170: e281 df3d dea0 243d 1322 093d 4819 2a3d
00000180: c28a 96bb 256a 6fbd 0e96 75bc ea9d 153e
00000190: b703 473d 00b5 cfbd 748f 0dbc 9eee 583d
000001a0: 53d8 3d3d 6188 ed3c 0d60 11bd 04ac be3d
000001b0: f77e 8ebd 16c0 743d 5724 7cbd abf1 f13d
000001c0: cda3 acbd 84a5 193e 5294 f83d 915b 83bd
000001d0: 750e 4b3d 7789 623d 2b08 62bd c87b 98be
000001e0: 6b35 9a3d 0fba 883c cdaf 673d 73c9 293e
000001f0: 11eb e43a 01c5 bf3c b1da 903e f18f 8f3d
00000200: 7f81 32bd cbbd 01be 5726 893d 8616 c4ba
00000210: f9e9 8cbd ccfe 3fbe 7304 0f3e fba7 433e
00000220: 1e9d 4c3e cb1f d1bd c61e 4cbe cc83 e9bd
00000230: a0ab afbd bde1 d73d d177 f6bd c9e4 f23d
00000240: bdbd 003e 1800 85bb 5579 513d 0b59 99bc
00000250: 8e34 fdbd ba28 023b 9622 69be fb18 d2bd
00000260: f608 a0bd 1f72 21bc 30b1 913d 9d08 d1bd
00000270: 9f79 28bd 898b e53d 44ee d5bc 26aa 3b3d
00000280: 8233 933a 7208 4e3d d675 20be c62c 093e
00000290: 8675 903d 7eda 163d a268 283e 3d33 2d3a
000002a0: ef36 383d 00b1 f3bd 82b3 da3d cb8f 44be
000002b0: 456d 013e d940 a63d 9dc7 c33d d7b2 643e
000002c0: 24fd 94bc 355e c5bb 50a1 78bc 9890 ea3d
000002d0: 8bc8 44be 4d0a 013e 827a a6bd d894 283d
000002e0: 9f0d 8e3d 0193 fdbc 8ad1 403d e78e d43d
000002f0: a3e7 28bd 4530 61bd f0a4 51bd 0ef1 193e
00000300: 14df ac3d e83c 523d 4026 963d 8235 3d3c
00000310: 055a 4d3e 404c cebd ba90 bcbd 5c36 a4bc
00000320: 2bcb 9f3d b0b2 01be 324a 833d ddae fc3d
00000330: b5c6 67bc 465c e2bd 5a27 1dbe 6912 013c
00000340: f6a3 01bc 1bb1 01bd 6abc 4c3e 693d 8e3a
00000350: 429f 47bd 04e0 cf3d 511a 1a3e 978e 80bb
00000360: ec8f 0bbe 7419 c53d 89bd 19bd 130f 103d
00000370: f72a 7dbd 1498 1b3d 011d 7e3d dd82 8bbd
00000380: 9d9a f03d 8cde f7bd a67a 3cbe f140 a93d
00000390: 5690 bd3c f2b1 d6bd d601 cfbc f2c4 933a
000003a0: 2402 6c3b 1a46 993d 738a 0a3e 99a0 39be
000003b0: f14f ea3c 0add c63d f54a d83d 5841 193e
000003c0: 492a 203e 59b4 243e 8b98 423e 051c 7e3d
000003d0: 4e0e bc3d 1ed4 403e 4730 1fbd fc30 aa3b
000003e0: 2198 1d3a d4d5 3dbd b30e 2b3d 6fbb 1cbd
000003f0: d192 25be 46b3 6d3c 4a73 813d 7588 6abd
-0.21516421 0.09936812 0.17498136 0.13035786 0.20287535 -0.030183114 0.010546133 -0.13225584
-0.089281 0.12772042 0.12252441 -0.080657825 0.12438433 0.033248655 0.21473984 -0.0024033035
-0.13839021 0.12731522 -0.18547328 -0.0021468725 -0.12136143 -0.01940463 0.08437824 0.0013906438
0.048512213 0.062480297 -0.019645905 0.22852595 -0.05734578 -0.11983395 -0.075022854 -0.04545274
0.03473711 0.051033318 -0.2040272 0.11279559 0.14337748 0.021261526 -0.101085514 0.084251836
-0.019680126 0.1509961 0.049769398 0.0007254271 0.13634022 -0.020195577 0.077075414 -0.13744657
-0.09601403 0.07664386 0.051294103 0.08083404 -0.09593515 -0.0503936 0.04640267 0.029167602
-0.19974624 0.04355809 -0.17411931 0.030596767 0.11820572 0.06329905 0.11284739 0.03634893
0.08283597 -0.08730623 -0.005065593 0.027423775 0.012332381 0.061278906 0.011158577 -0.015974045
-0.07821157 -0.032712545 -0.032586228 -0.052922506 -0.174857 0.04757134 0.05007912 0.02121387
0.0742872 -0.002096546 0.04851815 -0.003932981 0.22089437 -0.03576086 -0.04453042 -0.010920168
-0.012985456 0.118828416 0.00063183106 0.11064028 0.10913445 0.040192477 0.03347976 0.041528016
-0.004594178 -0.058450837 -0.014989389 0.1461102 0.048587527 -0.10141945 -0.008640159 0.052961938
0.04634888 0.028995695 -0.03549199 0.09310153 -0.0695781 0.0597535 -0.061558094 0.11813673
-0.0842968 0.15004545 0.12137665 -0.06413949 0.049574334 0.055306878 -0.05518357 -0.29781938
0.0752972 0.016690282 0.05656414 0.16580753 0.0017465075 0.023409368 0.28291848 0.070098765
-0.04358053 -0.12670057 0.06696766 -0.0014960326 -0.06880564 -0.18749541 0.13966541 0.19107048
0.1998181 -0.10211142 -0.19933614 -0.114020914 -0.08577657 0.10541103 -0.12034572 0.118600436
0.1257238 -0.004058849 0.051141102 -0.018719217 -0.1236354 0.00198607 -0.227671 -0.10258671
-0.07814209 -0.009853869 0.07113874 -0.10206721 -0.041131612 0.11208255 -0.02611459 0.045816563
0.001123056 0.050301023 -0.15669951 0.13395986 0.07053666 0.036829464 0.16446164 0.00066070614
0.044974264 -0.118989944 0.1067877 -0.19195478 0.1263934 0.081178375 0.095595576 0.22333847
-0.018187113 -0.0060231932 -0.015175179 0.1145336 -0.19217126 0.12601586 -0.08128835 0.041157573
0.06936192 -0.030953886 0.047074832 0.10378819 -0.04123653 -0.054977674 -0.051182687 0.15033361
0.08440986 0.051327616 0.07331514 0.011548402 0.20053871 -0.10073137 -0.09207292 -0.020045452
0.07802423 -0.1266582 0.06410636 0.1233804 -0.014146497 -0.11052756 -0.15347043 0.0078779245
-0.0079126265 -0.03166304 0.1999375 0.0010852042 -0.048735864 0.101501495 0.15049101 -0.003923248
-0.1362912 0.096239954 -0.03753427 0.035170626 -0.061808553 0.03798683 0.06203938 -0.068120696
0.1174824 -0.12102994 -0.18406162 0.0826434 0.023140114 -0.10483159 -0.02526943 0.0011273904
0.0036012018 0.07484074 0.13529377 -0.1812767 0.028602572 0.097101286 0.10561172 0.14966333
0.1564113 0.16084422 0.19003503 0.06203844 0.09182416 0.18830916 -0.0388644 0.0051938277
0.00060117437 -0.0463465 0.041762065 -0.038264688 -0.16169287 0.014508074 0.06320818 -0.05725904

fc2.bias f4 [75]
00000000: bfe3 a0bd 0b37 c73d e4c3 00be d86d 5bbd
00000010: 242f ce3d a84d 333e 9178 6a3d 550d 03be
00000020: d5f5 b63c bc80 28bd 81ff 393d 194c 943c
00000030: 9b85 703e e01e 33bd e8e3 f33c 9512 19be
00000040: 9244 b53d fed3 273d b47b b4b9 ffd8 11be
00000050: 49d9 433c ec1d 403d 4d06 8d3c cc7b 39be
00000060: 71f5 03be ad3f 333d 9d25 113e fd10 ad3d
00000070: 2e57 9bbd 08ec 69bd 9dc1 f23d f16c 55bd
00000080: 6c75 913d 7be5 f83d 642c 9d3d c639 133e
00000090: 82fc 1cbd c93c c33d 4f3c e3bc f7d3 943d
000000a0: 00ba 5c3c a84e b0bd 99ad ac3c 7b6c 893d
000000b0: 7d34 b7bd d8fc 923d 2ed2 0bbd 89cf bd3c
000000c0: 54d3 9e3d 95d3 f63d c2d2 f0bc ec2b 78bd
000000d0: 3906 07be 76ed 60bd 9767 143d eb56 a0bc
000000e0: a6a1 bc3c 0de6 f0bd 086d c63d 8031 39bd
000000f0: 1e76 df3c 203a 243d 363b 013d 830f d53c
00000100: 5b9c d33d ecfd cf3d 8a7e 923d 2a0f 443e
00000110: 9493 283d c68f 423e f955 133e a919 bcbc
00000120: 1cb2 a5bd 4db2 3a3d cdd6 c93d
-0.07855939 0.097272955 -0.12574726 -0.053571552 0.10067585 0.17510092 0.057243887 -0.12798055
0.022334019 -0.041138396 0.045409683 0.018102692 0.23488466 -0.043730617 0.02977176 -0.14948495
0.088509694 0.040973656 -0.0003442444 -0.14242934 0.01195366 0.046903536 0.017214919 -0.18113631
-0.12886597 0.043761898 0.14174505 0.08450506 -0.075849876 -0.057109863 0.11853335 -0.052105848
0.071024746 0.12153145 0.076744825 0.14377508 -0.038326748 0.09533078 -0.027738718 0.072669916
0.01347208 -0.086087525 0.021078872 0.06710144 -0.08945558 0.07177132 -0.03413599 0.02317025
0.077551514 0.12052075 -0.029397372 -0.060588762 -0.13185968 -0.05491396 0.036231603 -0.019572696
0.023026299 -0.11762629 0.09688765 -0.045213223 0.027278002 0.040094495 0.03155061 0.026008373
0.10332557 0.10155854 0.07153042 0.1914641 0.041156366 0.19000158 0.14388265 -0.022961454
-0.08090612 0.045580197 0.09855423

out.weight f4 [38, 75]
00000000: a429 0bbe 5805 8c3c 2731 0a3d e436 07be
00000010: 485c 83be 86fb acbe abfc 623d c508 9e3d
00000020: 4824 d13e 6b78 a13d decc 8dbe af50 663e
00000030: 442d 7cbc 80ff 803e a921 6ebe 6bae 6d3e
00000040: 295f 3bbc f69e 42bd a56f 90be d3e9 c03d
00000050: 5800 a73d b167 673e 4d49 123d 8614 8d3e
00000060: df9b 54be 726f 58be 9a39 6f3d 971e b2be
00000070: a2eb 7d3c 1064 a6bd 6d4e f13d c3c2 adbb
00000080: edfd f0bd 86d0 623e 89e4 3f3e 7951 c1bd
00000090: bb2b ca3d f20a 463e 1900 2b3e 0a48 00be
000000a0: 1812 87be 5e57 0e3d 5701 b2bb e3cd 953e
000000b0: 2947 cfbd 9b6b 4f3c 1d7f b2bd 9763 6e3e
000000c0: a399 823e f143 7ebe f5ea 8a39 d995 00be
000000d0: 04fc a3be 97e0 04be 7bba 03bd ac7e 5d3e
000000e0: da73 233e 0676 6cbe 534e 423e 0069 673e
000000f0: f584 b5be ce2f f2bd 9722 87be 1e48 acbc
00000100: 208c 86be 3cf8 9bbd b55b bd3d 2815 a0bd
00000110: f9a7 6e3d b8b1 803c daa2 85be 6146 393e
00000120: 425b 1fbe bb5d 73be 73b6 af3c e179 a6bc
00000130: eed4 13be 7ac9 12be a925 533e 94c5 10be
00000140: dcdb d33d 29dc 59be bed5 f13d 7679 17be
00000150: 0138 45be 2a23 8bbc cca3 bfbd b0ea 103e
00000160: f5fa bfbc 9f34 7cbe dd90 113e 368f a2bc
00000170: e63e 1dbe 7def f63d 7e7e 223c 91cc ca3d
00000180: d5f7 9a3d cc62 6c3c 0370 dabd 83a6 d63d
00000190: 40d1 d8bc 68bc 1dbe 83db 863d 7147 30bc
000001a0: 11ac 1a3d 93ea 953d c8c2 25be 2bf6 a53d
000001b0: c040 773d 7291 0f3d e3bc 0f3e f6b8 0ebe
000001c0: 3a5a 44be 7554 dd3d b602 5238 cabe 043e
000001d0: 335b 82bd 4411 a43d 9bc5 86be f432 92bc
000001e0: 3e1a f0bc 9a8f 223e 7c5b 08be 4b0c 453e
000001f0: dcb2 9d3d c46e 99be 3159 2fbd aaa5 903d
00000200: ff60 393e d205 2ebe 9573 ec3b eea3 5dbe
00000210: 1210 783e 0c50 1bbe 90df 4f3d aca8 0bbe
00000220: 9d7c 13bd 9ca5 10be b217 18be 0219 5e3e
00000230: 2b32 533d 780b b0bd ea88 503d 09b9 d93c
00000240: 64af 14be 1b27 a93a 3911 8d3d dc7c 8dbe
00000250: 1289 a4bd 910b f73d 7cba b23e 12f1 493e
00000260: ce11 993e de27 113d 887a d73d e8c5 85be
00000270: 76d1 573d 9dd1 a13e 283b 5abe f4c5 333d
00000280: 816f 34be e793 3cbe d919 9dbe d242 2ebd
00000290: b1fd 07bc 63a7 b43e 978e b6bc ac4e 563d
000002a0: 810b 27be bfe9 9f3e 20ff 583d 39b3 0fbe
000002b0: 5954 30be 072e 113e 7e1c 8c3e c3b3 733d
000002c0: d224 94be 234d 233e da6e 333e fae7 08be
000002d0: ecb6 6cbe 20ea 853d 5ef3 3ebe 2f46 48be
000002e0: aa96 91be 8245 6ebe ff2c 92bd 3824 4dbe
000002f0: ff13 89be e7b3 95bd 24ba a5be 272b b2bc
00000300: de7e 463e a71e cbbd bfb3 02bd cda3 d13d
00000310: a211 55be 5cb3 c23d 6a7c 58be 064b 96be
00000320: c468 febc 5034 f13d 66ab a33e 0339 44be
00000330: f13b 4d3c 2e84 0ebe 3d9a 383e 4c0e db3c
00000340: 25e1 47be 2766 e13d 7a0c e73d 125c 04be
00000350: 2d42 b2bd 3804 92be 4c45 57be 0e70 0dbe
00000360: c856 4a3e d1e9 cfbd ea6e 0e3e 313d 64be
00000370: c4ac ec3d 8abf 11bd 677e 6a3c f52a c4bd
00000380: 52f3 3bbe 1716 10be 0d34 f83b 3aae 7cbe
00000390: c358 8bbd 4774 6f3e c1a9 163d 1b4d 83bd
000003a0: 4567 75be 9c8a 78be 0b2e 6e3e 8d63 b53d
000003b0: 1324 8c3e af54 5bbe a127 7cbb e318 d93d
000003c0: 1acb 433e 99e8 d23c c94a 9fbe 2890 82be
000003d0: 09d5 713e 15ef 473e c3ca 133e 3313 923d
000003e0: 35c8 953e 3701 76be e2c8 6f3e e987 973c
000003f0: 979c 9ebe d47b 11bd 6624 d33d dfdc 583e
-0.13590103 0.017092392 0.03373828 -0.13204533 -0.25656343 -0.33785647 0.055416744 0.077165164
0.40847993 0.07884296 -0.27695364 0.22491716 -0.015391652 0.2519493 -0.23255028 0.23211066
-0.011436262 -0.04751488 -0.28210178 0.094195984 0.081543624 0.22598149 0.035714436 0.2755472
-0.20762585 -0.21136263 0.058404543 -0.34788963 0.015498074 -0.08124554 0.11782537 -0.0053027584
-0.117671825 0.22149858 0.18739523 -0.09439368 0.09871622 0.19340113 0.16699256 -0.1252748
-0.26380992 0.03475129 -0.0054322886 0.29258642 -0.101209946 0.0126599325 -0.08715651 0.23280178
0.2550784 -0.24830605 0.00026496468 -0.12557162 -0.3202821 -0.12976299 -0.032160264 0.21630353
0.15962163 -0.23091897 0.18975191 0.22598648 -0.35453 -0.11825524 -0.26393577 -0.021030482
-0.26278782 -0.07615706 0.09246007 -0.07816535 0.05826566 0.015709743 -0.26100808 0.18093254
-0.15562156 -0.23766224 0.021449303 -0.020321788 -0.14436695 -0.1433467 0.20619835 -0.1413787
0.10344669 -0.2127539 0.11808346 -0.14792427 -0.19259645 -0.016984541 -0.09357414 0.14152026
-0.023435095 -0.24629448 0.14215417 -0.019843679 -0.15356025 0.120573975 0.009917853 0.09902299
0.075668015 0.014427852 -0.10665896 0.10480978 -0.026466966 -0.15403903 0.06584837 -0.01075922
0.03776175 0.07320132 -0.16187584 0.081035934 0.060364485 0.035050817 0.14036898 -0.13937744
-0.19175044 0.108071245 5.0070426e-05 0.12963405 -0.06365051 0.08011106 -0.26322636 -0.017846562
-0.029309388 0.15875092 -0.13316149 0.1924297 0.0770013 -0.2996732 -0.04280967 0.07062848
0.18103407 -0.16994408 0.007215927 -0.21644565 0.2422488 -0.15167254 0.050750315 -0.13638562
-0.036007512 -0.14125675 -0.14852789 0.21689227 0.051561516 -0.085959375 0.05091182 0.02657749
-0.14520031 0.0012905331 0.068880506 -0.27634323 -0.080339566 0.12062753 0.349079 0.19720867
0.29896396 0.03543841 0.10521418 -0.26127553 0.052689992 0.31605235 -0.21311629 0.043889955
-0.1762066 -0.18415795 -0.30683783 -0.042544194 -0.008300231 0.35283956 -0.022284789 0.05232112
-0.16312982 0.31233022 0.05297768 -0.14033212 -0.17219676 0.14177714 0.27365488 0.059497606
-0.28934342 0.15947394 0.17522755 -0.13369742 -0.23116654 0.065387964 -0.18647525 -0.19558023
-0.2843526 -0.23268703 -0.071374886 -0.20033348 -0.26773068 -0.07309704 -0.32368577 -0.021749092
0.19384333 -0.09917956 -0.0319097 0.10236321 -0.20807508 0.09506866 -0.2114121 -0.29354113
-0.031055816 0.11777556 0.31966704 -0.19162373 0.012526498 -0.1391761 0.18027587 0.026740216
-0.1951948 0.11005812 0.112816766 -0.12925747 -0.08704028 -0.28518844 -0.21022528 -0.13812277
0.19759667 -0.10152019 0.13909498 -0.22288968 0.1155639 -0.035583057 0.014312363 -0.09578506
-0.18354538 -0.14070927 0.0075745643 -0.24675837 -0.06804039 0.233842 0.036782984 -0.06411191
-0.23965175 -0.24271625 0.23259751 0.088568784 0.27371272 -0.21419023 -0.003847577 0.1060045
0.19120446 0.025745677 -0.31111744 -0.25500607 0.23616423 0.19524796 0.14432816 0.07132568
0.29254308 -0.24023901 0.23416474 0.018497424 -0.30978844 -0.035518482 0.10309677 0.21178006

out.bias f4 [38]
00000000: 2cf6 3bbd 849c 5db9 fc96 06be 1a2f 47bd
00000010: e0a4 c9bd 5c38 21be 04b2 c2bd 2212 1bbc
00000020: d44f 513d cfc3 68bd 3d68 d1bd dfeb 143e
00000030: 8f01 3ebc fd2e 933c 48ae fbbc 09b7 92bd
00000040: 5452 37bd 6ef2 b43c deef 92bb 70e2 1e3e
00000050: 93df 8dbd 6737 ad3c 93e7 9dbd c475 bbb9
00000060: 6cfe 9a3d 7130 03bc 9462 6e3e 3fc9 97bc
00000070: 4161 fd3d 5407 513c 38e2 d73d 910f 023e
00000080: c6a8 a03c 6e21 2b3e b689 94bd d1b1 1fbd
00000090: a41d c03d 37b4 84bd
-0.045889065 -0.00021134509 -0.13143533 -0.048628904 -0.098459005 -0.15744156 -0.0950661 -0.009464772
0.05110152 -0.056827363 -0.1022496 0.14543103 -0.011597051 0.017966742 -0.030722752 -0.071638174
-0.04475625 0.022088256 -0.004484161 0.15516067 -0.06927409 0.021144582 -0.07710185 -0.00035755162
0.07568058 -0.008007155 0.23279792 -0.018528579 0.12372065 0.012758095 0.10541195 0.1270125
0.019611727 0.16711971 -0.07252829 -0.03898794 0.093806535 -0.06479686

sep_conn.weight f4 [75, 504]
00000000: 09ba ff3c 836e 923c b63c 413c 7048 473d
00000010: 5a0d 3e3d d49e 0c3c b9e1 193b aba2 8c3c
00000020: 4512 2c3d ae19 65bb 9851 66bc 210e 6cbc
00000030: 6f80 63bb 3ce0 393c 0ffd 213a 8271 a1bc
00000040: 32cc 683a d0b5 d53c e7ba 8bbc ae06 15bd
00000050: f834 08bc c009 ad3c cf5f 45bb 9690 62bb
00000060: dbd5 3f3b 68b9 18bc 170a 92bd e4bc 38bd
00000070: e6b2 883c e41d 693d 49e2 eb3c 52bb d83c
00000080: b4a6 1bbc c3f2 3a3c 02a6 a43c 6ee4 07bd
00000090: 602c 52bc edad 13bb beeb a5bc 64b1 72bc
000000a0: 4c7f 0dbd 47f5 08bd e07e 963b 54ab d0bc
000000b0: c939 ed39 1f10 933c 6697 98bc d125 08bd
000000c0: deae c6bc aba2 0f3c 9b63 5c3d 3fd9 e53c
000000d0: 2c9f 813c 06cb 54bc df20 073d 6c10 003d
000000e0: b909 4c3d 6dcd 6f3d d792 913d 7134 333d
000000f0: ba8d 993c 1009 82bc d151 2abd 09e9 0d3c
00000100: cf13 393d 08c4 303d f725 f93c 77ae 3c3d
00000110: 89c2 433d f23c 413d 62c2 883d 125e 5c3d
00000120: b61d 243d e074 37bb 8ac1 093a 672e 913c
00000130: e2a1 4d3d 7c35 a03d 92bc ef3c ed4b 433c
00000140: ee44 213c 5c5c 843c f6ce bc3c ba34 b13c
00000150: c9dc 733b 1b8d b739 5d68 d33c 6496 b93c
00000160: af65 d93b 52d6 4d3c 0eda c3bc 03fe 88bc
00000170: 6cf3 ef3c f091 a43c 189f 52bc 4ec9 3bbd
00000180: 7e37 023d 7182 3b3d 7cc5 703c 8144 76bb
00000190: c995 61bc 694c 3bbb bcd8 3f3c 1046 4bbc
000001a0: 6689 553c 4474 823b 5ca3 ec3c 08da cd3c
000001b0: f36e d13a cf7a 4abb ecbb 3d3a 4a59 3b3d
000001c0: 11af adbc 3796 7bbc 398b 193d 732c 99bc
000001d0: 945d 14bd f47a 2dbc d77a bb3c 6617 803c
000001e0: ea07 a73d b419 b9ba c9eb 2c3c d6f1 f1bb
000001f0: 2bdc a53d e131 b53b 1e92 223d e5b9 203c
00000200: 127c 163c c87e 1cbd 6a67 993c 0869 4a3d
00000210: 718f db3d d992 9e3c ef9f 93bb e13a d0bc
00000220: 5dd6 51bc 5887 5cbd 38b3 98bd c098 623d
00000230: 5da6 363d 6e1e 933d 46ff d73c 6104 51bb
00000240: 80d8 ef3c 7a7b 693d 3603 073d 3102 513d
00000250: 17be 803d bb45 8fbc fdc0 583a 5505 9d3d
00000260: 870f 483d 9571 673d 9172 1b3d ddc0 213c
00000270: f1cd 69bd 4279 5fbd b814 dd3b a8bb 4bbd
00000280: 9246 383c a75f 713d efe5 833d 50da 9b3d
00000290: 1391 bc3d 4a18 ad3d 9f5d da3c fc6b a83d
000002a0: 48c3 8d3d 5c2e 5e3d 0447 623b c9ef 943c
000002b0: 2f30 0b3d bf95 4b3d e5d3 5d3d d885 8e3c
000002c0: e906 a5bc e14c 1bbd 9608 ab3c 7d86 d63d
000002d0: f293 2fbd 93e6 46bb b4a1 323d 840b 6d3d
000002e0: 4b8b 173d 4369 123d 0dc7 5e3b 3b5b 0b3b
000002f0: 528c 84bd 79a1 043d f0c5 803d e9ff d53c
00000300: 8dc2 e0bc a602 3b3c 9601 04bb 3d47 803b
00000310: 4d47 b5bc d148 a539 00d6 1c39 c8a6 42bd
00000320: 368b b93d 4bd8 e93b 14cf 8c3b 7c2a b3bc
00000330: 342f df3c e308 e43c fafa 8b3c 05a9 b7bb
00000340: 8a67 9dbc bba5 aebc bce5 d13c 1f15 4a3d
00000350: 11bc 893d dc9f 683d ef60 433d 3fa2 c63c
00000360: 86d7 bc3c 15cd d23c 7b3b d7bc d47a 093d
00000370: 0a58 18ba 083e e23d 09ba b53c 7212 e43c
00000380: 7985 1c3d 4198 e7ba 3401 3c3d 6026 cc3c
00000390: 7c51 963c 4025 09bb d8bf c9ba 53be 9e3c
000003a0: bc55 9d3c 57a1 7e3d d286 9e3d 5051 503d
000003b0: d03f 2c3d e7db 323d 8302 d33b b87d 843d
000003c0: 5228 513d 493d 07bd ac1c ed3c 7c53 0fbd
000003d0: e40e 4cbb 1b58 d73c 0d0b c53c b217 533b
000003e0: cff8 e43c 69b0 e93c b23f 013c baf2 d9bc
000003f0: 3c11 a2bc 49f6 423c 32f9 8b3d c584 a83d
0.031216638 0.017874962 0.01179426 0.048653066 0.04639945 0.008582789 0.0023480488 0.01716741
0.04200961 -0.0034957933 -0.014057539 -0.0144076655 -0.0034714004 0.011344966 0.0006179371 -0.019707445
0.0008880525 0.026087672 -0.017056895 -0.036383323 -0.00831341 0.021122813 -0.003011692 -0.0034571043
0.0029271755 -0.009321548 -0.07130831 -0.045102015 0.016686868 0.05691327 0.028794425 0.026456509
-0.009500194 0.011410418 0.02009869 -0.033176832 -0.012827963 -0.0022534088 -0.020254012 -0.014812801
-0.034545228 -0.03343704 0.0045927614 -0.02547232 0.00045247216 0.017952023 -0.01862688 -0.03323919
-0.024253305 0.00876681 0.05380593 0.028057693 0.01582297 -0.012987858 0.032990333 0.03126566
0.04981396 0.05854552 0.071080856 0.043751184 0.018744338 -0.015873462 -0.041581932 0.008661517
0.045184907 0.0431557 0.03041361 0.04606482 0.047792945 0.047177263 0.066777006 0.05380065
0.040067397 -0.0027993247 0.0005254975 0.017722322 0.05020321 0.07822701 0.029264722 0.011919958
0.009843094 0.016157322 0.023047905 0.021631587 0.0037210456 0.00035009612 0.0258066 0.02265472
0.006634436 0.012563305 -0.023907688 -0.016722685 0.029290877 0.02008912 -0.012855314 -0.045846276
0.031791203 0.045778695 0.014695521 -0.0037577453 -0.013768622 -0.002857948 0.011709388 -0.012406841
0.013033247 0.003981145 0.02888649 0.02512838 0.00159785 -0.0030895954 0.00072377804 0.04573945
-0.021201642 -0.015355638 0.03748629 -0.018697953 -0.036222056 -0.010588396 0.022885723 0.015636157
0.08155806 -0.001412204 0.010554262 -0.0073835654 0.08098634 0.0055296277 0.03969013 0.009809946
0.009184854 -0.038206846 0.01872607 0.04941657 0.10720719 0.019357132 -0.0045051496 -0.0254187
-0.012807456 -0.05384001 -0.07456058 0.055321455 0.04459225 0.071835384 0.026366841 -0.003189348
0.02927804 0.057002522 0.032962047 0.05102748 0.06286257 -0.017489305 0.00082685036 0.07667033
0.048842933 0.056504805 0.037951056 0.009872642 -0.057081167 -0.054559 0.0067468546 -0.04973951
0.011247294 0.05892911 0.06440341 0.07609999 0.09207358 0.084518984 0.02665597 0.082237214
0.069220126 0.05424343 0.0034527192 0.018180745 0.0339815 0.049703356 0.054157156 0.017397806
-0.020144897 -0.037915114 0.020878118 0.1047487 -0.0428657 -0.0030349835 0.043611243 0.05787231
0.036998075 0.035744917 0.0033993155 0.0021264094 -0.064720765 0.032380555 0.062877536 0.026123004
-0.027436519 0.011414206 -0.0020142547 0.0039147423 -0.022128725 0.00031525505 0.0001495704 -0.047522336
0.090597555 0.00713638 0.0042971466 -0.021870844 0.027244188 0.027836269 0.017087448 -0.0056048655
-0.01921441 -0.02131926 0.025622241 0.04933655 0.06725324 0.05679308 0.047699865 0.024247287
0.023051988 0.025732556 -0.02627348 0.033564404 -0.00058114587 0.11046988 0.022183435 0.027840827
0.038213227 -0.0017669277 0.045899585 0.024920642 0.018349402 -0.0020926744 -0.0015392257 0.019377863
0.01920592 0.062165584 0.07740559 0.050858796 0.042053044 0.043666746 0.0064395084 0.064692914
0.051063843 -0.03301743 0.028944336 -0.034991726 -0.0031136805 0.02628713 0.024053121 0.0032210168
0.027950672 0.028526502 0.007888721 -0.026604999 -0.019783609 0.011899539 0.068346396 0.08228449

sep_conn.bias f4 [75]
00000000: cb7b e4bd 42d7 0f3e 3389 7bbe c44b 04be
00000010: fb0c 173e 7e54 5b3e 0d86 7a3d e6a6 41be
00000020: 82f0 033d 12aa b9bd 3756 733d 8ae0 203d
00000030: 075d 813e 12e3 e0bd 0cff 82bd 6359 23be
00000040: f7fd 5e3e 8fcb 813d 83ca ac3d 1e98 7cbe
00000050: 237e 103e 4275 333e 88b0 a33d 9868 5bbe
00000060: 3e61 53be 6864 f33d a103 443e 10f2 ec3d
00000070: 38f8 22be 1bc1 fabd a37e 043e a3ae 19bd
00000080: 48a7 eb3d c12c 5f3e 3d20 6f3d 3c0a 463e
00000090: b48f a23c ed4c ae3d 10bf 4aba 238b 123e
000000a0: ef45 993d 7181 12be 8f82 c2bb 99c5 d43d
000000b0: 6036 adbd 907a 443e ca55 9dbd 1fef 1a3d
000000c0: c380 d73d 0400 3e3e c65b 99bd ee98 06be
000000d0: 7d55 53be 6316 5e3d 8219 d43c 548b 083d
000000e0: d2e2 2c3c 1b17 08be 8414 3a3e 0521 84bd
000000f0: 6a44 89bc ff7a 693d 39b0 093e d39a 9ebd
00000100: 03de 253e d4b6 293e 292c 503e 8885 7e3e
00000110: 5052 8d3c 5409 7c3e 1447 4b3e b7e9 9d3c
00000120: e7dd c8bd c942 683d fd05 233e
-0.11156424 0.14046958 -0.24564056 -0.12919527 0.14751045 0.2141895 0.061162997 -0.18911323
0.032211788 -0.090656415 0.059408393 0.039276637 0.25266287 -0.1098081 -0.063963026 -0.15952067
0.21776567 0.06337654 0.084370635 -0.24667403 0.14110617 0.17525199 0.07992655 -0.21426618
-0.20642564 0.11884385 0.1914201 0.11569607 -0.15915 -0.12243863 0.12938933 -0.037520062
0.11506516 0.21794416 0.058380354 0.19339842 0.019843914 0.08510766 -0.0007734159 0.14310889
0.07484042 -0.1430719 -0.005935974 0.10389251 -0.08457637 0.19187379 -0.076823786 0.0378257
0.10522606 0.18554693 -0.074882075 -0.13144276 -0.2063808 0.05422057 0.02589107 0.033336
0.010552125 -0.13290064 0.18171889 -0.064516105 -0.016756255 0.057002064 0.1344613 -0.07744374
0.16197972 0.1657365 0.20329346 0.24855626 0.017251164 0.24612933 0.19851333 0.019276483
-0.098079495 0.056704316 0.15920253

bn.weight f4 [75]
00000000: 0000 803f 0000 803f 0000 803f 0000 803f
00000010: 0000 803f 0000 803f 0000 803f 0000 803f
00000020: 0000 803f 0000 803f 0000 803f 0000 803f
00000030: 0000 803f 0000 803f 0000 803f 0000 803f
00000040: 0000 803f 0000 803f 0000 803f 0000 803f
00000050: 0000 803f 0000 803f 0000 803f 0000 803f
00000060: 0000 803f 0000 803f 0000 803f 0000 803f
00000070: 0000 803f 0000 803f 0000 803f 0000 803f
00000080: 0000 803f 0000 803f 0000 803f 0000 803f
00000090: 0000 803f 0000 803f 0000 803f 0000 803f
000000a0: 0000 803f 0000 803f 0000 803f 0000 803f
000000b0: 0000 803f 0000 803f 0000 803f 0000 803f
000000c0: 0000 803f 0000 803f 0000 803f 0000 803f
000000d0: 0000 803f 0000 803f 0000 803f 0000 803f
000000e0: 0000 803f 0000 803f 0000 803f 0000 803f
000000f0: 0000 803f 0000 803f 0000 803f 0000 803f
00000100: 0000 803f 0000 803f 0000 803f 0000 803f
00000110: 0000 803f 0000 803f 0000 803f 0000 803f
00000120: 0000 803f 0000 803f 0000 803f
1.0 1.0 1.0 1.0 1.0 1.0 1.0 1.0
1.0 1.0 1.0 1.0 1.0 1.0 1.0 1.0
1.0 1.0 1.0 1.0 1.0 1.0 1.0 1.0
1.0 1.0 1.0 1.0 1.0 1.0 1.0 1.0
1.0 1.0 1.0 1.0 1.0 1.0 1.0 1.0
1.0 1.0 1.0 1.0 1.0 1.0 1.0 1.0
1.0 1.0 1.0 1.0 1.0 1.0 1.0 1.0
1.0 1.0 1.0 1.0 1.0 1.0 1.0 1.0
1.0 1.0 1.0 1.0 1.0 1.0 1.0 1.0
1.0 1.0 1.0

bn.bias f4 [75]
00000000: 0000 0000 0000 0000 0000 0000 0000 0000
00000010: 0000 0000 0000 0000 0000 0000 0000 0000
00000020: 0000 0000 0000 0000 0000 0000 0000 0000
00000030: 0000 0000 0000 0000 0000 0000 0000 0000
00000040: 0000 0000 0000 0000 0000 0000 0000 0000
00000050: 0000 0000 0000 0000 0000 0000 0000 0000
00000060: 0000 0000 0000 0000 0000 0000 0000 0000
00000070: 0000 0000 0000 0000 0000 0000 0000 0000
00000080: 0000 0000 0000 0000 0000 0000 0000 0000
00000090: 0000 0000 0000 0000 0000 0000 0000 0000
000000a0: 0000 0000 0000 0000 0000 0000 0000 0000
000000b0: 0000 0000 0000 0000 0000 0000 0000 0000
000000c0: 0000 0000 0000 0000 0000 0000 0000 0000
000000d0: 0000 0000 0000 0000 0000 0000 0000 0000
000000e0: 0000 0000 0000 0000 0000 0000 0000 0000
000000f0: 0000 0000 0000 0000 0000 0000 0000 0000
00000100: 0000 0000 0000 0000 0000 0000 0000 0000
00000110: 0000 0000 0000 0000 0000 0000 0000 0000
00000120: 0000 0000 0000 0000 0000 0000
0.0 0.0 0.0 0.0 0.0 0.0 0.0 0.0
0.0 0.0 0.0 0.0 0.0 0.0 0.0 0.0
0.0 0.0 0.0 0.0 0.0 0.0 0.0 0.0
0.0 0.0 0.0 0.0 0.0 0.0 0.0 0.0
0.0 0.0 0.0 0.0 0.0 0.0 0.0 0.0
0.0 0.0 0.0 0.0 0.0 0.0 0.0 0.0
0.0 0.0 0.0 0.0 0.0 0.0 0.0 0.0
0.0 0.0 0.0 0.0 0.0 0.0 0.0 0.0
0.0 0.0 0.0 0.0 0.0 0.0 0.0 0.0
0.0 0.0 0.0

bn.running_mean f4 [75]
00000000: 0000 0000 0000 0000 0000 0000 0000 0000
00000010: 0000 0000 0000 0000 0000 0000 0000 0000
00000020: 0000 0000 0000 0000 0000 0000 0000 0000
00000030: 0000 0000 0000 0000 0000 0000 0000 0000
00000040: 0000 0000 0000 0000 0000 0000 0000 0000
00000050: 0000 0000 0000 0000 0000 0000 0000 0000
00000060: 0000 0000 0000 0000 0000 0000 0000 0000
00000070: 0000 0000 0000 0000 0000 0000 0000 0000
00000080: 0000 0000 0000 0000 0000 0000 0000 0000
00000090: 0000 0000 0000 0000 0000 0000 0000 0000
000000a0: 0000 0000 0000 0000 0000 0000 0000 0000
000000b0: 0000 0000 0000 0000 0000 0000 0000 0000
000000c0: 0000 0000 0000 0000 0000 0000 0000 0000
000000d0: 0000 0000 0000 0000 0000 0000 0000 0000
000000e0: 0000 0000 0000 0000 0000 0000 0000 0000
000000f0: 0000 0000 0000 0000 0000 0000 0000 0000
00000100: 0000 0000 0000 0000 0000 0000 0000 0000
00000110: 0000 0000 0000 0000 0000 0000 0000 0000
00000120: 0000 0000 0000 0000 0000 0000
0.0 0.0 0.0 0.0 0.0 0.0 0.0 0.0
0.0 0.0 0.0 0.0 0.0 0.0 0.0 0.0
0.0 0.0 0.0 0.0 0.0 0.0 0.0 0.0
0.0 0.0 0.0 0.0 0.0 0.0 0.0 0.0
0.0 0.0 0.0 0.0 0.0 0.0 0.0 0.0
0.0 0.0 0.0 0.0 0.0 0.0 0.0 0.0
0.0 0.0 0.0 0.0 0.0 0.0 0.0 0.0
0.0 0.0 0.0 0.0 0.0 0.0 0.0 0.0
0.0 0.0 0.0 0.0 0.0 0.0 0.0 0.0
0.0 0.0 0.0

bn.running_var f4 [75]
00000000: 0000 803f 0000 803f 0000 803f 0000 803f
00000010: 0000 803f 0000 803f 0000 803f 0000 803f
00000020: 0000 803f 0000 803f 0000 803f 0000 803f
00000030: 0000 803f 0000 803f 0000 803f 0000 803f
00000040: 0000 803f 0000 803f 0000 803f 0000 803f
00000050: 0000 803f 0000 803f 0000 803f 0000 803f
00000060: 0000 803f 0000 803f 0000 803f 0000 803f
00000070: 0000 803f 0000 803f 0000 803f 0000 803f
00000080: 0000 803f 0000 803f 0000 803f 0000 803f
00000090: 0000 803f 0000 803f 0000 803f 0000 803f
000000a0: 0000 803f 0000 803f 0000 803f 0000 803f
000000b0: 0000 803f 0000 803f 0000 803f 0000 803f
000000c0: 0000 803f 0000 803f 0000 803f 0000 803f
000000d0: 0000 803f 0000 803f 0000 803f 0000 803f
000000e0: 0000 803f 0000 803f 0000 803f 0000 803f
000000f0: 0000 803f 0000 803f 0000 803f 0000 803f
00000100: 0000 803f 0000 803f 0000 803f 0000 803f
00000110: 0000 803f 0000 803f 0000 803f 0000 803f
00000120: 0000 803f 0000 803f 0000 803f
1.0 1.0 1.0 1.0 1.0 1.0 1.0 1.0
1.0 1.0 1.0 1.0 1.0 1.0 1.0 1.0
1.0 1.0 1.0 1.0 1.0 1.0 1.0 1.0
1.0 1.0 1.0 1.0 1.0 1.0 1.0 1.0
1.0 1.0 1.0 1.0 1.0 1.0 1.0 1.0
1.0 1.0 1.0 1.0 1.0 1.0 1.0 1.0
1.0 1.0 1.0 1.0 1.0 1.0 1.0 1.0
1.0 1.0 1.0 1.0 1.0 1.0 1.0 1.0
1.0 1.0 1.0 1.0 1.0 1.0 1.0 1.0
1.0 1.0 1.0

net.0.weight f4 [75, 504]
00000000: 9206 b6bb 1f93 d2bd 1bc3 a3bd 776c 92bd
00000010: 83c7 cebd 2b4e 91bc 14cc b23c 9c8f 24bd
00000020: 8283 73bd c102 12bd 97a3 d13c 8253 2c3d
00000030: 146f 183c 431f b63b d229 d8bc 6736 3f3d
00000040: 8a92 0f3d 5d06 5bbd 1d19 9abd 55cb a8bd
00000050: 8432 6cbd 9138 c63c 3f31 05bd 48ea 5dbd
00000060: c8f6 dd3b 74f6 23bc 1064 ab3d 48a1 653d
00000070: 7412 e1bc 5476 b5bd 5228 8dbd 3241 51bc
00000080: 3eeb ce3c b496 f1bb ba03 e7bc 860f 933c
00000090: 1c80 ad3c 7b26 143d 30ea 983c 27c3 c1bc
000000a0: 722d a4bd 78eb c8bd d3ff 433d d6a8 6c3c
000000b0: 2d97 a8bc e6a7 823c 4d43 8d3d 23ca 903d
000000c0: 7d3d 8f3d 1614 d03d cdba 42bc e8ef 12bd
000000d0: dd35 a6bc b79f 003d 1c01 893c 6b0d c03c
000000e0: afa0 e13c 77c4 3bbb 5303 ae3b 90e5 acbc
000000f0: 1b5f 1d3d b3ad a23d a8ec e03c 044d 953c
00000100: 6fad 6a3c 5f03 753c edc6 18bd 81af 75bd
00000110: 042d 3fbd 7ab0 40bd 0bfe ceb9 9672 893d
00000120: ee4f c73c 4092 863d c152 883d 81e3 0a3d
00000130: 36ed 203d 7ffb 53bd 61cc 043d 4af4 2b3d
00000140: f60a f4bb ddbe 4bbd a03a c43b 0a50 903d
00000150: 6633 b73d 985a a9bd 551c cebd 980b 99bc
00000160: fd2f 383d 769e 4dbc e97b a73b c33f 343c
00000170: 403c 4a3d 4623 0e3d 061f 893d b300 383e
00000180: 3090 533d a8e4 97bd 40d3 35bd a5cb 353d
00000190: c1de 8b3d 0770 1a3d f3b9 e13c 95a6 9bbd
000001a0: b16a 89bd 12f0 0c3d 3394 1fbc af0a 19bc
000001b0: e861 303d bc19 c83d b5dd 553c 718a ccbb
000001c0: dd7a 713d 5a86 763d 870d b9bb e52c cc3c
000001d0: ffb0 013e b40f a33d 1a84 1abc d12a a53c
000001e0: 1917 75bc a658 8e3d 724b d43d 74e5 013e
000001f0: b188 4ebc ab6c abbc fc41 edba 683b 1e3d
00000200: 358f cbbc 04fc 943c 82b6 5cbc 9030 bdbc
00000210: 5c23 abbd 9f37 d0bb 0c14 863d 9424 153e
00000220: 3b3b 2a3d e1c5 cd3d 9a1d 8f3d f8fa 48bd
00000230: c258 cabd 697f 79bd a096 a1bc a1cf 22bd
00000240: d7fc b0bd a0ac c2bd 792a b2bc 40c4 c23c
00000250: f17d 9fbd 1edd 0ebd 84cb 2cbd 4587 93bd
00000260: 453c 22bd c8ff b5bd 9ded 393c b574 383d
00000270: 80ca 7b3d db33 68bd 4aa1 61bd ffc2 803d
00000280: 301c 403c d077 fdbd 5ae3 89bd fd66 39bd
00000290: e78c a5bd 9cfb 8dbd fc3d 933c 1d33 acbd
000002a0: fe83 373d 3268 20bd d84f c8bd 8536 e53c
000002b0: 6499 133d b570 a83c 2500 1d3d 6d68 ca3d
000002c0: ed4e 2e3d 0af1 8c3d ad63 c9bd 6c52 3ebe
000002d0: 52a5 153d eaac 233c 1023 19bc e048 18bd
000002e0: e90c 4b3c 2733 783d 3d0a 1d3c f220 38bc
000002f0: e715 1f3d 9bfa a33c 12f1 e6bc 2048 8fbd
00000300: 07b7 153c 9192 993c 0ae1 e13b 391c 903c
00000310: f4a4 9e3d 5b15 ab3c dfda 443c 48f8 863b
00000320: b57f 4fbd f363 4ebd d707 183d 6df0 c63c
00000330: 9d38 58bc d57e 50bd d203 d53b ff3d c6b7
00000340: aff3 1e3d d743 9a3d b352 afbd 6ce4 92bd
00000350: f898 acbc 790f a73b 5167 bdbc c42e 423c
00000360: df41 c33c 9bab fa3c 7bf5 393c 8960 04bd
00000370: 170d 19bd 2926 0fbc fdbb db3c 1e13 30bd
00000380: 8434 353c b093 a1bc 6db4 09bd a5b8 aebd
00000390: 324f bcbd 36f8 05bd 43e6 b23d 0d8e a7bd
000003a0: 61d6 58bd d14d 6d39 51a0 d2bb d97f 24bd
000003b0: af7c f6bc 3359 60bb 52f1 f83d 76fa 5dbd
000003c0: 950f 9d3d 59bc ae3d f78e cf3d c329 2a3e
000003d0: 42c8 c1bd aca9 643d ed14 aa3d 33c5 ed3c
000003e0: 386b 3cbd ab47 a6bd b68e 193c ceeb aa3d
000003f0: 8489 e8bc 00da 11bd 99c9 02be 6352 85bd
-0.0055549825 -0.10281967 -0.07996198 -0.07149594 -0.100966476 -0.017737469 0.021825828 -0.04017602
-0.059451587 -0.035647158 0.025590701 0.042071827 0.009303827 0.005557926 -0.026387129 0.04668274
0.03505186 -0.053472865 -0.07524321 -0.082419075 -0.057665363 0.024196895 -0.032517668 -0.054178506
0.0067738034 -0.0100074895 0.08368695 0.056062013 -0.02747462 -0.0886046 -0.06892456 -0.012771891
0.025258657 -0.0073727015 -0.02820002 0.017951738 0.021179251 0.03616951 0.018666357 -0.023652626
-0.080164805 -0.09810537 0.047851395 0.0144445505 -0.020579899 0.0159492 0.06897602 0.070698045
0.0699415 0.10160081 -0.011885357 -0.035873324 -0.020289356 0.031402316 0.016724162 0.023443898
0.02754244 -0.0028651038 0.005310455 -0.021105558 0.038420778 0.07943287 0.027456596 0.0182252
0.014323576 0.014954417 -0.037299085 -0.059981827 -0.04667379 -0.0470433 -0.0003948066 0.06711309
0.024330106 0.06570864 0.06656409 0.03390837 0.039288722 -0.051753517 0.032421473 0.04198102
-0.0074475957 -0.04974257 0.005988434 0.07046516 0.0894535 -0.082692325 -0.10063998 -0.018682286
0.04496764 -0.012549987 0.005111207 0.01100153 0.049373865 0.034701608 0.066953704 0.17969017
0.05165118 -0.074166596 -0.044390917 0.044383664 0.06829596 0.037704494 0.027554488 -0.076001324
-0.06709803 0.034408636 -0.009739923 -0.009340926 0.04306212 0.097705334 0.013053347 -0.0062420894
0.058955062 0.06018672 -0.0056473645 0.024923751 0.12665175 0.079619795 -0.0094309095 0.020162018
-0.01495912 0.06950502 0.103659526 0.12685186 -0.012605832 -0.02092584 -0.001810133 0.038630873
-0.02484856 0.018186577 -0.013471248 -0.023094445 -0.08356354 -0.006354287 0.065467924 0.14564735
0.041560393 0.10047508 0.06988068 -0.049067467 -0.098802105 -0.060912523 -0.019725144 -0.03974879
-0.086419754 -0.09505582 -0.021748768 0.02377522 -0.07787693 -0.034878843 -0.042186275 -0.07203535
-0.03960826 -0.08886677 0.011348155 0.045033175 0.061472416 -0.05669008 -0.055085458 0.062871926
0.01172547 -0.12376368 -0.06732817 -0.045264233 -0.080835156 -0.06932756 0.017973892 -0.084081866
0.044803612 -0.03916187 -0.09780854 0.027980099 0.036034957 0.020561555 0.038330216 0.09883199
0.04255574 0.06881912 -0.09833465 -0.18586129 0.036534615 0.009989956 -0.009346738 -0.037178874
0.012393215 0.060595658 0.0095849605 -0.0112383235 0.038839247 0.020016959 -0.028191123 -0.069961786
0.009137875 0.018746646 0.006893282 0.017591583 0.07746306 0.020884207 0.012015074 0.004118953
-0.0506589 -0.050388288 0.03711685 0.024284566 -0.013197091 -0.050902206 0.0065006996 -2.3632309e-05
0.038806614 0.07532471 -0.085606955 -0.07172474 -0.021069035 0.00509828 -0.023120554 0.01185197
0.02383512 0.030599406 0.011350031 -0.032318626 -0.037366 -0.008737125 0.026823038 -0.04298698
0.011059884 -0.019723743 -0.033619333 -0.08531312 -0.09194793 -0.032707416 0.08735325 -0.08181391
-0.052938823 0.0002263107 -0.0064278026 -0.040160988 -0.03008875 -0.0034232854 0.12155403 -0.054193936
0.07668988 0.08532018 0.1013469 0.16617493 -0.09462024 0.055825874 0.083047725 0.029024696
-0.04600069 -0.08119138 0.009372404 0.083457574 -0.028385885 -0.03560829 -0.12772216 -0.06509855

net.0.bias f4 [75]
00000000: b7ed 9739 65d8 abbb 825b 223d 7624 40bd
00000010: 1777 01be ff80 9fbd 3843 6fbd 0f04 79bc
00000020: fd1a 54be daa4 243d 1981 03be bb84 5fbd
00000030: 2701 343e e045 9dbd 6692 efbc 3ef7 d2bd
00000040: 5ef5 80bc c47d 72bd a2c1 3bbd 9cf1 2e3e
00000050: bc23 903c 9db1 583e 0328 88bd 4a15 39bd
00000060: 2a14 b6bc 6f59 24be 479f 3e3d dfc7 edbd
00000070: ecc1 063e ff0f 17be 401b 743d 0c72 c3bc
00000080: 13af a53d 15f8 c63c 1a71 913d 2f9d 49bd
00000090: c894 11be 92fd 0ebd 2053 3abd e596 d13d
000000a0: 1b79 05bd 853b 42bd 8f2a 133e 4ece c6bd
000000b0: ea1d 5fbd cdb5 c6bd c00b d9bd 1dc6 17be
000000c0: 4fe0 853c 65f6 d5bc 175d bfbd d1e2 ff3d
000000d0: 8209 07be 10fe 28be 137d 853d d289 edbd
000000e0: 90e4 883d c5a3 43bd 3f0f 34be c53d da3d
000000f0: 4fc8 603c 143b 7c3d bdcd c4bc 516c 69be
00000100: e7ad b1bd 0b6d 61bd 3a12 c23b dc8d a0bd
00000110: e525 293c 85d3 4c3e d890 5bbd e234 40bc
00000120: 8370 9b3d 0ff6 2c3d 1014 debd
0.00028978076 -0.005244302 0.03963805 -0.04690977 -0.12643085 -0.07788276 -0.058413714 -0.015198722
-0.2071342 0.040196277 -0.12842216 -0.05456994 0.17578565 -0.07679343 -0.029244613 -0.10301064
-0.015742 -0.05920197 -0.04583896 0.17084354 0.017595164 0.21161504 -0.06648257 -0.04518632
-0.022226412 -0.16049741 0.046538617 -0.11610388 0.13159913 -0.14752196 0.0595963 -0.023858093
0.080900334 0.024288217 0.071016505 -0.049222168 -0.14216912 -0.034909792 -0.04548943 0.10233859
-0.0325862 -0.047420043 0.14371704 -0.09707318 -0.054471888 -0.097026445 -0.10597944 -0.14821668
0.01634231 -0.026118467 -0.09343927 0.12494434 -0.1318722 -0.16503167 0.06517997 -0.11598553
0.0668422 -0.047763605 -0.17583941 0.10656313 0.013719632 0.06157978 -0.024023885 -0.22795226
-0.08675747 -0.055035632 0.005922583 -0.078395575 0.010323976 0.20002563 -0.05360493 -0.011731358
0.07589819 0.042226847 -0.1084367
