bestclf/yaleb/y07.pth (torch, 343163 bytes, 16 tensors)

fc1.weight f4 [75, 504]
0	0xbd423c11	-0.047420565
1	0xbdf16ca5	-0.117883004
2	0xbd1ec435	-0.038761336
3	0xbd086eda	-0.03330884
4	0xbdcb4e9b	-0.09927102
5	0xbd5bf06e	-0.05369609
6	0xbcba62e2	-0.02275223
7	0xbd7dd73a	-0.061972834
8	0xbd2e7694	-0.042593554
9	0xbd08f8e9	-0.033440504
10	0x3cc5577d	0.02408957
11	0x3cca0127	0.024658753
12	0xbc925f2d	-0.017867649
13	0xbb956060	-0.004558608
14	0xbd33f144	-0.04393126
15	0x3b93b047	0.004507098
16	0x3c44484f	0.01198013
17	0xbd34ff8b	-0.044189017
18	0xbd8bdc4c	-0.06829128
19	0xbdbca42b	-0.09211
20	0xbd341cdc	-0.043972835
21	0xbcc61661	-0.024180593
22	0xbd3d4566	-0.04620876
23	0xbd243939	-0.040093634
24	0x3d19579c	0.037437066
25	0xbbed7d05	-0.0072475695
26	0x3c98bd35	0.018644908
27	0x3c082b7e	0.008311151
28	0xbd61a085	-0.055084724
29	0xbdb44b15	-0.08803383
30	0xbd808bdf	-0.06276678
31	0x3c546d55	0.01296552
32	0x3c9c1b5c	0.019056015
33	0xbc49b4d2	-0.012311177
34	0xbc94913a	-0.018135656
35	0x3c1c1397	0.009526155
36	0x3b14aa80	0.0022684634
37	0x3c97d961	0.018536272
38	0x3b63ebbb	0.0034777957
39	0x38595b02	5.182159e-05
40	0xbd0d599f	-0.034509297
41	0xbda89050	-0.082306504
42	0xbb4c5ed3	-0.003118445
43	0x3c1db5f3	0.0096259
44	0xbd067a97	-0.032831755
45	0x3cdfce06	0.02731992
46	0x3d82d08f	0.06387436
47	0x3db085cf	0.08619272
48	0x3dcc4f94	0.09976116
49	0x3ddeb8ba	0.108750775
50	0xbc2b8c6a	-0.010470489
51	0xbd15d7f8	-0.036582917
52	0x3bb7cdc7	0.0056092474
53	0x3d6e1af2	0.058131166
54	0x3ce4c939	0.027927982
55	0x3d230a53	0.039804768
56	0x3d859e16	0.06524293
57	0x3d795447	0.06087139
58	0x3d512275	0.05105825
59	0xbb3e373d	-0.0029024624
60	0x3d41a05e	0.04727208
61	0x3d93ec6c	0.07222828
62	0x3d88a2bf	0.06671666
63	0x3b8e0b81	0.0043348675
64	0xbcd62cd0	-0.026144415
65	0xbcb3c318	-0.021943614
66	0xbd41ca4e	-0.047312073
67	0xbceec234	-0.029145338
68	0x3caa1315	0.020761052
69	0x3c5b6761	0.013391347
70	0x3d1d5fe1	0.038421515
71	0x3d82b621	0.063823946
72	0xbb82c282	-0.0039904723
73	0x3d6d406a	0.05792276
74	0x3da69311	0.081335194
75	0x3d7daa2c	0.061929867
76	0x3d5ce2c3	0.053927194
77	0xbbf3226b	-0.0074198744
78	0x3c51ebe9	0.012812593
79	0x3c812cb9	0.015768396
80	0xbbef7ab7	-0.00730833
81	0xbd6abe61	-0.057310466
82	0xbd3473b7	-0.044055667
83	0x3d314239	0.043276045
84	0x3d577601	0.05260277
85	0xbe0063fe	-0.12538144
86	0xbe0b76d3	-0.13619547
87	0xbd6f8574	-0.05847688
88	0x3c03d854	0.008047182
89	0xbca09704	-0.01960326
90	0x3c0b2310	0.008492246
91	0x3c5207ec	0.012819272
92	0x3cd9a016	0.026565593
93	0xbcb4657a	-0.022021044
94	0x3d1fc5ae	0.03900688
95	0x3e3ef9bd	0.18649955
96	0x3db8d291	0.09024537
97	0xbd35289f	-0.044228192
98	0xbd8c172b	-0.068403564
99	0xbb1f96ac	-0.0024351282
100	0x3d4f66a0	0.05063498
101	0x3d2169f5	0.03940769
102	0x3d2a1498	0.041523546
103	0xbd6fdcf4	-0.058560327
104	0xbd2ba5d8	-0.041906208
105	0xbc13abc3	-0.009013119
106	0xbb932b05	-0.0044912123
107	0xbd229194	-0.039689615
108	0xbc8c0e27	-0.017096592
109	0x3da8e071	0.08245934
110	0x3cf9694d	0.03044572
111	0xbc1f00ce	-0.009704782
112	0x3d8b24b9	0.06794114
113	0x3d2b1b57	0.04177412
114	0x3d2e5f77	0.04257151
115	0x3cab4d95	0.020911017
116	0x3cff3cf8	0.031157002
117	0x3d547260	0.05186689
118	0xbd4889f3	-0.048959684
119	0x3d078693	0.033087324
120	0x3c500f03	0.012698892
121	0x3daf4d13	0.085596226
122	0x3dfd5896	0.12370412
123	0x3dc45937	0.09587329
124	0x3d260ff7	0.04054257
125	0x3d39ab99	0.045329664
126	0xbc88d1d3	-0.016701614
127	0x3d0098c1	0.031395677
128	0xbcaca479	-0.02107452
129	0x3c84afe3	0.01619715
130	0xbd434629	-0.04767433
131	0xbc5f21a0	-0.013618857
132	0xbba1776b	-0.004927566
133	0x3c4f0afd	0.012636897
134	0x3d7f4c24	0.062328473
135	0x3e16ff36	0.14745793
136	0x3d061184	0.032731548
137	0x3cc5f5a3	0.02416498
138	0x3c23867e	0.009980796
139	0xbd0bb1b2	-0.03410501
140	0xbdbc1a15	-0.09184662
141	0xbd0ab9dd	-0.03386866
142	0xbcba08ca	-0.02270927
143	0xbcce8885	-0.025211582
144	0xbdb27bc5	-0.087150134
145	0xbd1b6fb1	-0.037948314
146	0xba8325c8	-0.0010005767
147	0x3d95c5a7	0.0731309
148	0xbd42e598	-0.04758224
149	0xbd898f81	-0.06716824
150	0xbc262c78	-0.010142438
151	0xbd14bdf7	-0.036313977
152	0x3c4b318b	0.012401949
153	0xbd165463	-0.03670157
154	0x3cd555e4	0.026041932
155	0xbbb991e7	-0.005663145
156	0x3d4a2019	0.049347017
157	0xbcd12391	-0.025529655
158	0xbbf945f6	-0.007607217
159	0x3d389b5c	0.045070037
160	0x3d6c7fa3	0.05773891
161	0xbd908482	-0.07056524
162	0xbd3ea1a8	-0.046540886
163	0xbcb43eda	-0.022002626
164	0xbda8c83e	-0.08241318
165	0xbd5a36dd	-0.053274978
166	0x3bbcce4e	0.005761898
167	0xbd6aaf48	-0.057296067
168	0x3dd403b1	0.103522666
169	0xbc6b2c44	-0.0143538155
170	0xbd94f968	-0.07274133
171	0x3d47776d	0.048697878
172	0x3c95c61e	0.018282946
173	0x3ccc5138	0.024941072
174	0x3d3b99fe	0.045801155
175	0x3daa4d98	0.08315581
176	0x3938bceb	0.00017617985
177	0x3d86dda5	0.06585244
178	0xbd94c3cd	-0.072639085
179	0xbdb7a664	-0.08967283
180	0x3cab9db4	0.020949222
181	0x3c84ea2c	0.016224943
182	0xbc86fcac	-0.016477905
183	0xbce8368b	-0.02834632
184	0x3c6e653a	0.0145505015
185	0x3d6e34ba	0.058155753
186	0x3c01e707	0.007928616
187	0x3d3ed63a	0.04659102
188	0x3c1800be	0.009277521
189	0x3d6762be	0.056490652
190	0xbc261204	-0.010136131
191	0xbd6251cb	-0.055253785
192	0xbc35e1c3	-0.011101189
193	0x3c0d3995	0.008619686
194	0xbbd0c8e7	-0.0063716057
195	0xbc0537f6	-0.008131018
196	0x3cd7c5bd	0.026339406
197	0x3c660324	0.014038835
198	0x3d03bc28	0.03216186
199	0x3d26811b	0.04065047
200	0x3cbfe132	0.023422811
201	0xbd1a4ab8	-0.037668914
202	0x3d79b0a5	0.060959477
203	0x3d3207f6	0.043464623
204	0xbd2ae058	-0.041717857
205	0xbd644819	-0.05573282
206	0xbcae1eba	-0.021254886
207	0xbc5122b2	-0.01276462
208	0x3d2eea7d	0.042704094
209	0x3dab52a6	0.08365373
210	0xbd8aab48	-0.067709506
211	0xbd3b8053	-0.045776676
212	0xbc6b3ca6	-0.014357721
213	0x3bda9507	0.0066705975
214	0xbc87d1c8	-0.016579524
215	0xbb2cf54d	-0.0026391328
216	0xbc4d2aa8	-0.012522377
217	0x3c6aa142	0.014320673
218	0x3af60a24	0.0018771333
219	0xbc83ae19	-0.016074227
220	0xbca43473	-0.020044541
221	0x3d1a43f8	0.037662476
222	0x3d948986	0.07252793
223	0x3bf04952	0.007332959
224	0x3d4db964	0.05022563
225	0xbd326630	-0.043554485
226	0xbd287a48	-0.04113224
227	0xbdb054b4	-0.08609906
228	0xbdcb069f	-0.09913372
229	0xbcddafc2	-0.027061347
230	0x3de55829	0.11198456
231	0xbd39f9b6	-0.04540416
232	0xbd488586	-0.048955463
233	0xbbb5452e	-0.0055319285
234	0xbcb15050	-0.021644741
235	0xbd13b0d3	-0.036057305
236	0xbd513e87	-0.05108502
237	0xbc608608	-0.013703831
238	0x3dec1b1b	0.115286075
239	0xbd1d3c88	-0.038387805
240	0x3dc6911a	0.09695645
241	0x3d021e32	0.031767078
242	0x3d3fbcb8	0.046810836
243	0x3e017d9a	0.1264557
244	0xbd700170	-0.05859512
245	0x3d985da6	0.07439737
246	0x3d9533ac	0.07285246
247	0x3c59594a	0.013265917
248	0xbd7a4243	-0.06109835
249	0xbd7eb590	-0.06218487
250	0x3cbe91c6	0.02326287
251	0x3d954bf1	0.07289875
252	0xbd6707a3	-0.056403767
253	0xbc9aed23	-0.018911904
254	0xbd94b227	-0.07260542
255	0xbd067f7b	-0.03283642

fc1.bias f4 [75]
0	0xbd9c2225	-0.076237
1	0x3d3662e7	0.044527914
2	0x3dea3b78	0.11437124
3	0xbd183e28	-0.03716865
4	0xbd774401	-0.060367588
5	0xbda52dc6	-0.08065371
6	0xbd3dc2e6	-0.046328448
7	0xbcdfccdb	-0.027319362
8	0xbe019983	-0.12656216
9	0x3ce4c82b	0.027927479
10	0xbddf485d	-0.10902474
11	0xbd98a3c1	-0.074531086
12	0x3e00312e	0.1251876
13	0xbb8220d8	-0.0039712004
14	0x3ddbcc20	0.10732293
15	0xbe1b8ec7	-0.15191184
16	0xbc955ec0	-0.018233657
17	0xbd7ea769	-0.062171374
18	0xbe207dc7	-0.1567298
19	0x3e1616ed	0.14657183
20	0x3cc07467	0.023493005
21	0x3e77dbbc	0.24204916
22	0xbdd3c33f	-0.103399746
23	0xbd5fd3b0	-0.05464524
24	0x3d33c9a8	0.043893486
25	0xbe1a6c1e	-0.15080306
26	0xbd25072a	-0.040290035
27	0xbd9560e5	-0.07293872
28	0x3ddc3af8	0.10753435
29	0xbdfd38ee	-0.12364374
30	0xbb725804	-0.003697873
31	0xbd7094a0	-0.05873549
32	0x3dc4422a	0.09582932
33	0x3d7da6ab	0.061926525
34	0x3d9e3aa1	0.07726026
35	0xbda40624	-0.08008984
36	0xbdf8262e	-0.12116657
37	0xbd9fdcb7	-0.0780577
38	0xbd3db188	-0.046311885
39	0x3d856872	0.06514062
40	0x3dc687af	0.09693848
41	0x3a117109	0.00055481546
42	0x3e0b9a6a	0.13633123
43	0xbe2a2832	-0.16616896
44	0xbd1e322c	-0.038622066
45	0xbdd8cbb7	-0.105857305
46	0xbd87410f	-0.06604206
47	0xbe07901c	-0.13238567
48	0x3d19ccb7	0.037548747
49	0xbd8b3b3a	-0.06798406
50	0x3cb4fff7	0.02209471
51	0x3dce6aa0	0.10078931
52	0xbdfc1312	-0.12308325
53	0xbe40e113	-0.18835859
54	0x3d3563d8	0.04428467
55	0xbd80c909	-0.062883444
56	0x3c91073c	0.017703645
57	0xbc5654ce	-0.013081742
58	0xbe1b160f	-0.15145133
59	0xba8bf045	-0.0010676464
60	0xbcb87d53	-0.022520697
61	0x3d257ee7	0.040404227
62	0xbd6d6daa	-0.057965912
63	0xbe5242f4	-0.20533353
64	0xbdabde0f	-0.08391964
65	0xbd557d5d	-0.05212151
66	0xbcab5ac0	-0.020917296
67	0xbdb95e9a	-0.09051247
68	0xbbe7bbe4	-0.007071959
69	0x3e25f12a	0.16205278
70	0x3c1f62ba	0.009728128
71	0xbdd40505	-0.1035252
72	0x3d40ee40	0.047102213
73	0x3de065d7	0.109569244
74	0xbe259b4e	-0.16172525

fc2.weight f4 [75, 75]
0	0xbdf4b6af	-0.11948907
1	0x3dec5a03	0.11540606
2	0x3d377017	0.04478463
3	0x3c9f66f3	0.01945827
4	0x3e44d58f	0.19222091
5	0xbcab7570	-0.020930022
6	0x3d6fa384	0.05850555
7	0xbd502f79	-0.050826523
8	0x3d996092	0.074891225
9	0x3dcfc086	0.10144143
10	0x3e549d90	0.2076323
11	0xbd011df9	-0.031522725
12	0x3e1e71c0	0.1547308
13	0xbdbc68e9	-0.091996975
14	0x3da4bcab	0.08043798
15	0xbd3d7aae	-0.046259575
16	0xbe1a75c3	-0.15083985
17	0x3d8e2a24	0.069416314
18	0xbd86eda7	-0.06588297
19	0xbc3e84b0	-0.011628315
20	0xbd3cf28c	-0.04612975
21	0x3c3ca53d	0.011514005
22	0x3db208ec	0.08693108
23	0xbe4257cb	-0.18978803
24	0x3e31a476	0.17347893
25	0xbc390f4d	-0.011295152
26	0x3daa0fd8	0.08303803
27	0x3e53d95e	0.20688388
28	0xbd066688	-0.032812625
29	0xbdfd3d04	-0.123651534
30	0x3c2f0ad4	0.010683734
31	0x3e05ce05	0.13066871
32	0xbc774775	-0.01509272
33	0x3d4c3e72	0.04986424
34	0xbe35c46b	-0.17750709
35	0x3d875f4c	0.06609973
36	0x3e0ddaa3	0.13852935
37	0xbd049f28	-0.032378346
38	0xbdea92c3	-0.11453774
39	0x3da22ba4	0.0791848
40	0x39cdd256	0.0003925736
41	0x3e072e34	0.13201219
42	0xbba4ac8a	-0.005025451
43	0x3c84703d	0.0161668
44	0x3e13542d	0.1438758
45	0xbd92978d	-0.07157812
46	0x3ca0c7e3	0.019626563
47	0xbc42df60	-0.011894077
48	0xbdd82a8b	-0.105549894
49	0x3e19da90	0.15024781
50	0x3e25abc1	0.161788
51	0x3c1045e5	0.008805727
52	0xbd93cba4	-0.07216576
53	0xbdb35430	-0.08756292
54	0x3d9b6046	0.07586722
55	0x3d9b0e60	0.07571101
56	0xbe3654a7	-0.1780573
57	0xbd6010df	-0.05470359
58	0xbdbf44c7	-0.0933929
59	0x3d97fa1f	0.07420754
60	0x3ce61797	0.02808742
61	0x3d92cb89	0.071677275
62	0x3e025fa8	0.12731802
63	0x3cc4935f	0.023996053
64	0x3d9b4b7f	0.07582759
65	0xbe361748	-0.17782319
66	0x3d317758	0.043326706
67	0xbd8b2adb	-0.067952834
68	0x3de309b8	0.11085838
69	0xbd0bf5f6	-0.034170114
70	0x3cafb4a5	0.021448443
71	0x3d1016cb	0.035177987
72	0xbbd89d61	-0.006610558
73	0xbdf13bf7	-0.117790155
74	0x3ce2b77d	0.027675385
75	0xbdca5a70	-0.09880531
76	0xbdb902fd	-0.09033773
77	0x3c088858	0.008333288
78	0x3bec637a	0.007214007
79	0x3dd3c795	0.103408016
80	0x3e1bada0	0.15202951
81	0xbe09e64b	-0.13466756
82	0x3c718c5a	0.014742935
83	0x3d90ffcb	0.07080039
84	0x3e59d399	0.21272124
85	0xbcbf2287	-0.023331894
86	0xbb266791	-0.002539132
87	0xbb73fd1b	-0.003722972
88	0xbd24b587	-0.04021218
89	0x3dc77ab0	0.09740198
90	0x3c867417	0.016412778
91	0x3e38aed5	0.18035443
92	0x3d8c37f6	0.06846611
93	0x3db161b5	0.08661214
94	0x3de101c2	0.109866634
95	0x3dbe732d	0.09299312
96	0x3d0ceedc	0.03440748
97	0xbc976f23	-0.018485611
98	0x3c9c41da	0.01907437
99	0x3dbb56d1	0.09147418
100	0x3c961384	0.018319853
101	0xbe08f860	-0.13375998
102	0xbd0e25d1	-0.034704033
103	0x3dddf4da	0.10837717
104	0x3e294208	0.16529095
105	0xba0e7dc3	-0.000543561
106	0xbc96320a	-0.018334407
107	0x3dfd60f6	0.123720095
108	0xbdd9ca1f	-0.10634255
109	0x3e26bee5	0.16283758
110	0xbdcf338b	-0.10117253
111	0x3d5f4fb0	0.054519355
112	0xbd94536e	-0.072424755
113	0x3e15aba9	0.14616264
114	0x3de2a20b	0.110660635
115	0xbccba998	-0.024861142
116	0x3b6e6985	0.0036378813
117	0x3cdd5fe1	0.027023258
118	0xbdf7dc34	-0.12102547
119	0xbe650d27	-0.22368298
120	0x3ddafb4e	0.10692464
121	0x3d7ae324	0.061251774
122	0x3e0540df	0.13013028
123	0x3e304e6b	0.17217414
124	0xbd10c875	-0.03534742
125	0xbd580fb8	-0.052749366
126	0x3e4ee310	0.20203805
127	0x3ded2ea5	0.11581162
128	0xbd9be374	-0.076117426
129	0xbd9ddd19	-0.07708187
130	0x3dbc1ee7	0.09185582
131	0x3d74e339	0.05978701
132	0x3c75fce7	0.01501391
133	0xbdbdb369	-0.092627354
134	0x3e24bd26	0.1608778
135	0x3b7a8f19	0.0038232266
136	0x3ddfc310	0.10925877
137	0xbe466f37	-0.19378363
138	0xbdb16a47	-0.08662849
139	0xbc7d9fdc	-0.015480008
140	0xbde6b375	-0.112646975
141	0x3e10797a	0.1410884
142	0xbe029fa5	-0.12756212
143	0x3dd7560f	0.10514461
144	0x3de3aaa7	0.11116534
145	0x3de1af6e	0.11019789
146	0x3b7d48db	0.0038648162
147	0xba38b5d5	-0.0007046138
148	0xbe1f6613	-0.15566282
149	0x3cb91cff	0.022596834
150	0xbe1eda5a	-0.15512982
151	0xbe18e14c	-0.14929694
152	0xbe1045d1	-0.14089133
153	0xbd937df1	-0.07201756
154	0x3d0f2f07	0.03495696
155	0xbdc6bd28	-0.097040474
156	0x3d438800	0.04773712
157	0x3e41fdbe	0.18944451
158	0xbe0d4f9b	-0.13799898
159	0x3d937da5	0.07201699
160	0xbd2a954c	-0.041646287
161	0xbbdbe6a3	-0.0067108436
162	0xbd751c64	-0.05984153
163	0x3d8199eb	0.06328186
164	0x3d657b02	0.056025513
165	0x3d2af0e6	0.041733645
166	0x3e2b312b	0.16717975
167	0x3ccf223b	0.025284877
168	0x3dfe286b	0.12410053
169	0xbd03e5a7	-0.032201435
170	0x3e2a529b	0.16633074
171	0xbd7029ec	-0.05863373
172	0x3e08be68	0.13353884
173	0x3c08d139	0.008350664
174	0x3db54218	0.08850497
175	0x3e967ab7	0.293905
176	0x3d21b553	0.039479565
177	0x3d810413	0.06299605
178	0xbd0b35aa	-0.033986725
179	0x3d7e22f9	0.06204507
180	0xbe21d67a	-0.15804473
181	0x3e44df5d	0.19225831
182	0xbe2f1955	-0.17099507
183	0x3d49aee4	0.049239054
184	0x3dbfdc75	0.09368221
185	0xbd981dea	-0.07427581
186	0xbd32acd6	-0.04362186
187	0x3db4cc34	0.08828011
188	0xbdd68a10	-0.10475552
189	0xbcf11e5b	-0.02943342
190	0xbe083618	-0.13301885
191	0x3e2c172a	0.16805711
192	0x3dfe244b	0.12409266
193	0x3d5ee1c1	0.054414514
194	0x3e01ca25	0.12674768
195	0x3dc9dff9	0.098571725
196	0x3dbc7db0	0.092036605
197	0xbc95a211	-0.018265756
198	0xbdcfd42b	-0.1014789
199	0xbc6b872d	-0.01437549
200	0x3d434e96	0.047682367
201	0xbe0eb7e4	-0.13937336
202	0x3d44d0a8	0.048050553
203	0x3d9fdf79	0.07806296
204	0x3b0cf302	0.0021507149
205	0xbe4d17f6	-0.20028672
206	0xbde5f956	-0.11229198
207	0x3d9d1e35	0.07671777
208	0xbd5b28fd	-0.053505886
209	0xbdd8dbfc	-0.10588834
210	0x3de7a07a	0.11309905
211	0xbcf902e9	-0.030396895
212	0x3c1616f0	0.009160742
213	0x3d810b06	0.06300931
214	0x3dfd2f89	0.12362582
215	0x3cc6f1e0	0.024285257
216	0xbe09a1ef	-0.13440679
217	0x3db1451e	0.08655761
218	0xbdac1d20	-0.08403993
219	0x3da1f0a5	0.079072274
220	0xbdf86e6a	-0.12130435
221	0x3d86b1a7	0.06576853
222	0x3dcab2e5	0.09897403
223	0xbd99e156	-0.075136825
224	0x3d65c9ca	0.056100644
225	0xbd810b57	-0.06300991
226	0xbdf2e7c8	-0.11860615
227	0x3cc7c6b9	0.02438675
228	0x3d24ad54	0.04020436
229	0xbe0bb527	-0.13643323
230	0xbd5996cf	-0.053122338
231	0xbd0f2e26	-0.03495612
232	0xbc13b599	-0.009015464
233	0x3df9b06c	0.12191853
234	0xbd680223	-0.056642663
235	0xbe6e8ac9	-0.2329513
236	0x3cd95730	0.026530832
237	0x3d52ad6a	0.05143491
238	0x3e27bc56	0.16380438
239	0x3d507dd3	0.050901245
240	0x3e8a702a	0.270387
241	0x3dcc9366	0.099890515
242	0x3e292aa5	0.16520174
243	0x3d8eef2d	0.06979213
244	0x3d7f29a8	0.062295586
245	0x3e5bb738	0.21456611
246	0x3b1a3092	0.0023527485
247	0xbbe77873	-0.007063919
248	0xbd876a84	-0.06612113
249	0xbdc54355	-0.09631983
250	0xbc11f543	-0.008908573
251	0xbbbdb6c8	-0.0057896115
252	0xbe26de7f	-0.16295813
253	0x3d7c8343	0.06164862
254	0xbd9bf9dc	-0.07616016
255	0x3cbf3303	0.023339754

fc2.bias f4 [75]
0	0xbda7387d	-0.08165071
1	0x3dc56e4b	0.09640177
2	0xbe069118	-0.13141286
3	0xbdca2e40	-0.09872103
4	0x3b82a83a	0.0039873393
5	0x3e17370a	0.1476709
6	0x3d96b2c0	0.073583126
7	0xbd94f409	-0.072731085
8	0x3cc58adc	0.024114065
9	0xbd812140	-0.0630517
10	0x3d5e4a8a	0.054270305
11	0x3d24c67c	0.040228352
12	0x3e437577	0.19087778
13	0xbd7c4200	-0.06158638
14	0xbd04b27f	-0.03239679
15	0xbdaa8e8d	-0.08327971
16	0x3dab6079	0.0836801
17	0x3d16f862	0.03685797
18	0x3d5a3b0c	0.053278968
19	0xbe18a7ff	-0.14907835
20	0xbb824027	-0.0039749327
21	0x3d99e8be	0.07515095
22	0xbc1ce3e0	-0.009575814
23	0xbe480bd8	-0.19535768
24	0xbe2017a4	-0.15634018
25	0x3daf95b6	0.08573477
26	0x3da96f7d	0.08273218
27	0x3e008511	0.12550761
28	0xbd7456b8	-0.059653014
29	0xbd077dd6	-0.03307899
30	0x3decc238	0.11560482
31	0xbd331826	-0.0437242
32	0x3d4bcd1c	0.049756154
33	0x3dbe8450	0.0930258
34	0x3dfb7f70	0.12280166
35	0x3db29b5a	0.08721037
36	0xbcf20289	-0.029542224
37	0x3d82cd29	0.063867874
38	0xbd21f5c7	-0.039541032
39	0x3d96576d	0.07340894
40	0x3b49d137	0.0030794868
41	0xbd654319	-0.055972192
42	0x3c850ee8	0.01624246
43	0x3d5eeadb	0.054423194
44	0xbdaf7408	-0.08567053
45	0xbc5e3d8b	-0.013564478
46	0xbc2aaff6	-0.010417929
47	0x3baec7f9	0.005333897
48	0x3db20c25	0.08693723
49	0x3de6b421	0.112648256
50	0xbd96fec5	-0.07372812
51	0xbdb89db4	-0.090144545
52	0xbd89646f	-0.06708609
53	0xbd32cc20	-0.0436517
54	0x3cbdc2dd	0.023164207
55	0x3c758e64	0.014987562
56	0xbc61e9c6	-0.013788646
57	0xbd79784f	-0.06090575
58	0x3cd65970	0.026165694
59	0xbd196636	-0.03745099
60	0x3c6b1dd9	0.014350378
61	0x3d0bbaa1	0.03411353
62	0x3d70ad60	0.058759093
63	0x3c1ed220	0.009693652
64	0x3de58434	0.11206856
65	0x3d8248c7	0.063615374
66	0x3d87da09	0.06633384
67	0x3e1ba479	0.1519946
68	0x3b0c8065	0.0021438834
69	0x3e490917	0.19632374
70	0x3db98bf5	0.09059898
71	0xbd1d7a81	-0.038446907
72	0xbdb7743b	-0.08957716
73	0x3d8e93d8	0.06961793
74	0x3d9d2056	0.07672183

out.weight f4 [38, 75]
0	0xbe61cc5e	-0.22050616
1	0x3d8a73f7	0.067604
2	0x3dec09e4	0.11525324
3	0xbddc7050	-0.107636094
4	0xbe5510a8	-0.20807135
5	0xbea9f84c	-0.33197248
6	0x3d5abf8d	0.053405333
7	0xbd00e54c	-0.031468675
8	0x3ead0fc8	0.33801103
9	0x3d6d6c20	0.057964444
10	0xbe995a86	-0.29951876
11	0x3e6ab8bd	0.22922035
12	0x3cefbe27	0.029265476
13	0x3e7226b3	0.23647575
14	0xbe43aad5	-0.19108136
15	0x3e6fb170	0.23407531
16	0x3c8a23f8	0.016862854
17	0xbd21e2bb	-0.039522868
18	0xbe828e03	-0.2549897
19	0x3d3f9d9f	0.04678118
20	0xbe7dd918	-0.24789846
21	0x3e9e9da0	0.30979633
22	0x3d84ae9b	0.06478616
23	0x3e54d34a	0.20783725
24	0xbe8c5e98	-0.2741592
25	0xbe52dc6f	-0.20591901
26	0x3bea529f	0.0071509625
27	0xbeb61160	-0.3556013
28	0xbd6d7058	-0.057968467
29	0xbd164e5b	-0.03669582
30	0x3dfb5c42	0.12273456
31	0xbdbba173	-0.09161653
32	0xbe0df223	-0.13861899
33	0x3e359745	0.17733486
34	0x3d9d5a95	0.07683293
35	0xbdd53fab	-0.10412534
36	0x3df53dc8	0.119746745
37	0x3e27d2bf	0.16388987
38	0x3e35f32b	0.17768542
39	0xbd00b6cd	-0.031424332
40	0xbe578bb4	-0.21049386
41	0xbd0eef6d	-0.034896303
42	0x3c93f29c	0.018060021
43	0x3e8d0eec	0.27550447
44	0xbdd3fb65	-0.10350684
45	0xbd9afa50	-0.075672746
46	0xbd9f5364	-0.077795774
47	0x3e342b65	0.17594679
48	0x3e8df33d	0.2772464
49	0xbe67d850	-0.2264111
50	0x3d31db45	0.043422002
51	0xbe2641ec	-0.16236085
52	0xbe9c00e0	-0.30469418
53	0xbd6cef26	-0.057845257
54	0xbd9e6856	-0.07734744
55	0x3e68196a	0.22665945
56	0x3d8cc6b0	0.06873834
57	0xbe88cf90	-0.26720858
58	0x3e31bc12	0.173569
59	0x3e13c0d5	0.14429028
60	0xbeaefb5e	-0.34176153
61	0xbe138dab	-0.14409511
62	0xbe9f5036	-0.31115884
63	0xbd8b706c	-0.06808552
64	0xbe804373	-0.2505146
65	0xbbd5b391	-0.00652165
66	0x3b6fe2a2	0.003660359
67	0xbe0424eb	-0.12904708
68	0x3d00efca	0.03147868
69	0xbc260dab	-0.010135095
70	0xbdc7bca8	-0.0975278
71	0x3e4dad20	0.20085573
72	0xbda80c59	-0.0820548
73	0xbe7fd5ca	-0.24983898
74	0x3cbca025	0.023025582
75	0xbe37b82d	-0.17941351
76	0xbe8ccb36	-0.27498788
77	0xbe394412	-0.18092373
78	0x3e4b7cc7	0.19871818
79	0xbe68d98f	-0.22739242
80	0xbe109823	-0.14120536
81	0x3dc605df	0.096690886
82	0x3e4f8f2d	0.20269461
83	0x3e41959b	0.18904726
84	0xbe9f10ce	-0.31067508
85	0xbe913c60	-0.28366375
86	0xbddf6bec	-0.10909256
87	0x3e7cb1ea	0.24677244
88	0xbe27fe9c	-0.1640572
89	0xbec4973e	-0.3839664
90	0x3d837e15	0.064205326
91	0xbe376fbb	-0.17913716
92	0x3e8fcc77	0.28085682
93	0x3e04cd1b	0.12968867
94	0xbdc5c503	-0.09656718
95	0x3e0e1853	0.13876466
96	0x3e243b03	0.16038136
97	0xbe253fd6	-0.16137633
98	0xbe1e250d	-0.15443821
99	0x3dca0f26	0.098661706
100	0x3dcc5eec	0.099790424
101	0xbe641aa5	-0.22275789
102	0xbd46f553	-0.048573803
103	0xbde49e96	-0.1116306
104	0xbeb5af75	-0.35485426
105	0xbe9e3e9b	-0.3090714
106	0xbe0e163b	-0.13875668
107	0x3dd0e4a0	0.10199857
108	0xbe3c9bd1	-0.18418814
109	0xbe8cfb00	-0.27535248
110	0x3e3619eb	0.17783324
111	0x3e49f6a7	0.19722997
112	0xbd46486f	-0.04840892
113	0xbd5c2661	-0.05374754
114	0x3ddd287a	0.10798736
115	0x3e866fff	0.2625732
116	0xbe1605a4	-0.14650589
117	0xbe1d319d	-0.15350957
118	0xbe1297b0	-0.14315677
119	0x3e05937a	0.13044539
120	0x3ebd2266	0.36940306
121	0xbd20d995	-0.039270002
122	0x3de64bab	0.11244901
123	0x3e3d4fa5	0.18487413
124	0x3c66d8f1	0.014089809
125	0xbe861b04	-0.26192486
126	0x3e425534	0.18977815
127	0x3d9c1fa5	0.07623223
128	0x3e0c0651	0.13674285
129	0xbeb9ee49	-0.3631461
130	0xbe129f25	-0.14318521
131	0xbd670e3b	-0.056410056
132	0xbe94120f	-0.28920028
133	0xbdeec1d5	-0.11658064
134	0x3e13c3e5	0.14430197
135	0x3deee9ae	0.116656646
136	0xbd99f4d8	-0.07517403
137	0x3df55997	0.119799785
138	0xbe09aa19	-0.13443793
139	0x3cff91cb	0.03119745
140	0xbcfc33f4	-0.030786492
141	0xbd4d11dc	-0.05006586
142	0xbd0e0640	-0.03467393
143	0x3eaea89b	0.3411301
144	0xbd7fa8d0	-0.06241685
145	0xbea1c170	-0.31592894
146	0xbe8960e8	-0.26831746
147	0xbe041746	-0.12899503
148	0xbcc6be97	-0.024260802
149	0x3e288cf9	0.16460027
150	0x3e5dfe3c	0.21679014
151	0x3e291e65	0.16515501
152	0x3beaff16	0.007171522
153	0xbd13f338	-0.036120623
154	0x3e257856	0.16159186
155	0xbe3abc0d	-0.18235798
156	0x3ced88b3	0.028995847
157	0x3e836829	0.25665405
158	0xbe5b132b	-0.21394031
159	0x3e09630f	0.13416694
160	0xbe179065	-0.14801176
161	0xbe5b20d9	-0.21399249
162	0xbe8dfbb6	-0.27731103
163	0x3a9c2103	0.0011911694
164	0x3dbd5d2b	0.09246286
165	0x3e9040be	0.28174394
166	0xbd4c77f7	-0.049919095
167	0xba629523	-0.0008643439
168	0xbde96cb7	-0.11397689
169	0x3e86edc3	0.26353273
170	0x3e12501c	0.14288372
171	0xbe03b2ae	-0.1286113
172	0xbd9a439f	-0.07532429
173	0x3e01b632	0.12667158
174	0x3e83c147	0.25733396
175	0x3e32eeb7	0.17473875
176	0xbe90312e	-0.2816252
177	0x3e07187d	0.13192935
178	0x3de341fc	0.1109657
179	0xbe2c1fd7	-0.16809021
180	0xbe44df1b	-0.19225733
181	0x3b9e7880	0.004836142
182	0xbc90b09b	-0.017662337
183	0xbe35214c	-0.17688483
184	0xbe8b1d80	-0.27170944
185	0xbe64060e	-0.22267935
186	0xbd3ac6d4	-0.045599774
187	0xbe83b362	-0.25722796
188	0xbe6b84d0	-0.22999883
189	0xbd0b4447	-0.03400066
190	0xbe9e0059	-0.3085964
191	0x3dec8995	0.11549679
192	0x3e3086dd	0.17238946
193	0xbd0efa66	-0.034906767
194	0x3e32c17b	0.1745662
195	0x3dbd5523	0.09244754
196	0xbe345ce9	-0.17613567
197	0x3dfb0b80	0.12258053
198	0xbe6ee6ae	-0.23330185
199	0xbe7063f1	-0.23475625
200	0xbdc19f53	-0.09454217
201	0x3dca0d40	0.098658085
202	0x3ec09a4a	0.37617713
203	0xbe22ac05	-0.15885933
204	0x3e1af948	0.15134156
205	0xbe40f119	-0.18841971
206	0x3e92d37c	0.28676975
207	0x3e177c14	0.14793426
208	0xbe8897c9	-0.26678303
209	0x3dd42eb1	0.10360468
210	0x3e59742c	0.21235722
211	0xbdbe3719	-0.09287853
212	0xba06e58e	-0.00051459006
213	0xbe808fee	-0.2510981
214	0xbe151384	-0.14558226
215	0xbe4653af	-0.1936786
216	0x3e3f9b0b	0.18711488
217	0xbda1abe7	-0.07894116
218	0x3dea04b6	0.1142668
219	0xbe65e995	-0.22452386
220	0xbd0296d1	-0.03188211
221	0xbdd6ad9b	-0.10482331
222	0x3d282d20	0.04105866
223	0xbd89eb97	-0.06734388
224	0xbe23a587	-0.15981112
225	0xbe45962e	-0.1929557
226	0x3d97d1d2	0.07413067
227	0xbe8349ad	-0.25642148
228	0xbd053934	-0.032525256
229	0x3e0c3cd8	0.13695085
230	0x3dcd7cf8	0.100336015
231	0x3d1b5d54	0.0379308
232	0xbce83f5d	-0.028350526
233	0xbe9307d8	-0.28716922
234	0x3e90fd21	0.28318122
235	0x3e83ccd9	0.25742224
236	0x3e49ac91	0.19694735
237	0xbe599129	-0.2124678
238	0x3e5b821b	0.2143635
239	0x3e0a6431	0.13514782
240	0x3dea3a3f	0.11436891
241	0x3e669a4a	0.22519794
242	0xbea4cd32	-0.32187802
243	0xbe92b390	-0.2865262
244	0x3e430730	0.1904571
245	0x3e7b939a	0.24568024
246	0x3e2135c2	0.15743163
247	0x3e1db5dc	0.15401405
248	0x3e891839	0.26776293
249	0xbdd6b326	-0.104833886
250	0x3e0be0b5	0.13659938
251	0xbe24f6db	-0.16109793
252	0xbea1c997	-0.31599113
253	0x3dbbfcb3	0.09179058
254	0x3e7b19a7	0.24521504
255	0x3e966cb1	0.293798

out.bias f4 [38]
0	0xbd64ea29	-0.055887375
1	0x3d7f02a2	0.06225837
2	0xbe01c5a2	-0.12673047
3	0x3c7a7470	0.01528655
4	0xbdb6e304	-0.089300185
5	0xbe1d0182	-0.15332606
6	0xbd8c4685	-0.06849388
7	0xbca07c1c	-0.01959043
8	0x3d0d16fa	0.03444574
9	0xbd88181b	-0.06645223
10	0xbdad160a	-0.08451469
11	0x3e13d159	0.14435329
12	0xbc0b3ad4	-0.008497912
13	0x3cb57c09	0.022153871
14	0xbd668959	-0.05628333
15	0xbdc21caa	-0.094781235
16	0xbd811603	-0.063030265
17	0x3d035153	0.03205998
18	0x3c7bb83c	0.015363749
19	0x3e32b2e7	0.17451058
20	0xbdc25ea1	-0.09490705
21	0x3cca7b79	0.02471708
22	0xbd582071	-0.052765314
23	0xba85cd18	-0.0010208217
24	0x3d5bbfdd	0.053649772
25	0xbd1082fd	-0.03528117
26	0x3e5666a3	0.2093759
27	0xbcc2d93c	-0.023785226
28	0x3e2da1fd	0.16956325
29	0xbc41a8d1	-0.011820034
30	0x3daf0b06	0.085470244
31	0x3deb9017	0.11502092
32	0x3c130619	0.008973622
33	0x3e10d2d1	0.1414292
34	0xbdb874bd	-0.09006641
35	0xbc2829e1	-0.010263891
36	0x3d9771ed	0.073947765
37	0xbdd48770	-0.10377395

sep_conn.weight f4 [75, 504]
0	0x3c6b6fb9	0.0143698985
1	0x391ca780	0.00014939718
2	0xbc298471	-0.010346518
3	0x3d64cf0d	0.05586152
4	0x3d39e864	0.04538764
5	0x3b21690c	0.0024629263
6	0x3c2db813	0.010602969
7	0x3d69e2c6	0.057101034
8	0x3da4e671	0.08051766
9	0x3c748733	0.014924812
10	0xbcab9b37	-0.020948036
11	0xbcc62fa3	-0.024192637
12	0xbcc132a5	-0.02358372
13	0xb925b21e	-0.0001580198
14	0xbce0fcd3	-0.027464306
15	0xbd202161	-0.039094333
16	0xbce247a5	-0.027622053
17	0xbce7951a	-0.02826934
18	0xbd418a90	-0.047251284
19	0xbd51701a	-0.0511323
20	0xbcce9b8b	-0.025220653
21	0xbc288643	-0.010285917
22	0xbcc5eab9	-0.024159776
23	0xbb8ab7f0	-0.004233353
24	0x3c8ca724	0.017169543
25	0xbb23724e	-0.0024939957
26	0xbd9f8e3a	-0.077907994
27	0xbd58036c	-0.05273764
28	0x3c6a7ac5	0.014311497
29	0x3da6a373	0.08136644
30	0x3d70534b	0.058673184
31	0x3d31e791	0.04343373
32	0xbc902388	-0.017595068
33	0x3cdef0d5	0.027214447
34	0x3c86327b	0.016381493
35	0xbd20ba23	-0.039240014
36	0xbbac15ac	-0.005251607
37	0xbc6172bd	-0.013760266
38	0xbd27a9f4	-0.040933564
39	0xbd735cd0	-0.059414685
40	0xbdc60855	-0.09669558
41	0xbd00dc87	-0.03146031
42	0x3a79371c	0.0009506808
43	0xbc267a4d	-0.010160995
44	0x3d00bba0	0.031428933
45	0x3d2cf8e9	0.042229567
46	0xbc856075	-0.016281346
47	0xbcfcc3ed	-0.030855143
48	0xbca5007e	-0.020141836
49	0x3c97b53e	0.01851904
50	0x3d9ab7f7	0.0755462
51	0x3d29456c	0.04132597
52	0x3b55037c	0.0032503298
53	0xbd383089	-0.04496816
54	0xbb98f8e5	-0.0046683424
55	0x3bc163ea	0.0059018033
56	0x3cfd7728	0.030940607
57	0x3d50dbb6	0.050990783
58	0x3d32c5b6	0.043645583
59	0x39f809d2	0.00047309563
60	0xbd0cad57	-0.034344997
61	0xbd8adf2e	-0.067808494
62	0xbdb9cbc2	-0.09072067
63	0x3d5bf5c9	0.053701196
64	0x3dbc5e1d	0.09197638
65	0x3d9e0a77	0.0771684
66	0x3d5199d2	0.051172085
67	0x3d3274c8	0.043568403
68	0x3d37ed5c	0.044904098
69	0x3d420afd	0.04737376
70	0x3d935991	0.07194818
71	0x3da54680	0.080700874
72	0x3cf341ca	0.029694457
73	0xbcff3ecc	-0.031157874
74	0xbd8a8e10	-0.067653775
75	0xbcf7d328	-0.030252054
76	0x3d3cc3da	0.046085216
77	0x3db84d99	0.089991756
78	0x3cd6f975	0.026241997
79	0x3d07abeb	0.033122938
80	0x3d2b9b89	0.041896377
81	0x3d5fa7f3	0.05460353
82	0x3d7edd8c	0.062223002
83	0x3cb0653f	0.021532653
84	0x3b32474a	0.0027203136
85	0x3c9dce76	0.019263487
86	0x3c0a3ebf	0.008437811
87	0x3c7eb0d9	0.015545093
88	0x3c58024e	0.013184143
89	0x3ba5b612	0.005057105
90	0xbcf7f680	-0.030268908
91	0xbc9f6736	-0.019458394
92	0x3d26dd9e	0.040738694
93	0x3cac357a	0.021021593
94	0xbcfc8c10	-0.030828506
95	0xbddc88f0	-0.10768306
96	0x3d43d4c0	0.047810316
97	0x3d9569a6	0.072955415
98	0x3c1978ed	0.00936721
99	0xba55e6b0	-0.00081596803
100	0x3b9a6b88	0.0047125258
101	0x3cdfb445	0.027307639
102	0x3d1dd776	0.038535558
103	0x3d6b214c	0.0574048
104	0x3d7770a6	0.060410164
105	0x3c1a69e4	0.00942466
106	0x3d1991b8	0.037492484
107	0x3d8e8a5a	0.06959982
108	0xbd5426e1	-0.05179489
109	0xbc81f31c	-0.015862994
110	0xbb3d5e12	-0.0028895182
111	0xbbe995f8	-0.0071284734
112	0xbd9249bf	-0.07142972
113	0xbd22f3af	-0.039783176
114	0x3d7c2299	0.061556432
115	0xbd0c4780	-0.034247875
116	0xbd53fee1	-0.051756743
117	0x3cab83e4	0.020936914
118	0x3d764392	0.060123034
119	0x3c3e7836	0.01162534
120	0x3d29df6d	0.04147284
121	0x3b20891d	0.0024495788
122	0x3ca75645	0.020426879
123	0xbd181aed	-0.037135053
124	0x3dba96eb	0.091108166
125	0x3cbcd265	0.023049543
126	0x3d6e47c6	0.058173917
127	0x3c983226	0.0185786
128	0x3bb50048	0.005523715
129	0xbd7ab015	-0.06120308
130	0xbc23ddc9	-0.010001608
131	0x3c0c4d55	0.008563359
132	0x3db2b4e8	0.087259114
133	0xbc6df63d	-0.01452404
134	0xbb38db43	-0.0028206862
135	0xbd246cfd	-0.040143
136	0xbd37d4da	-0.044880725
137	0xbd28f748	-0.04125145
138	0xbd65cf39	-0.056105826
139	0x3cecef5c	0.02892273
140	0xbc2feb24	-0.010737214
141	0x3d9e06e9	0.07716162
142	0xbc2316aa	-0.009954134
143	0xbba84fa3	-0.0051364466
144	0x3cbb9eda	0.022902895
145	0x3d806684	0.06269553
146	0x3d776124	0.060395375
147	0x3d9cae9d	0.07650492
148	0x3d37a91f	0.04483902
149	0xbd7da630	-0.061926067
150	0xbce28256	-0.02765004
151	0x3d226019	0.039642427
152	0x3c55c102	0.013046505
153	0x3d2e6ddb	0.042585235
154	0x3d24b0cf	0.04020768
155	0x3ce1f7b1	0.027583929
156	0xbd935033	-0.07193031
157	0xbd813f67	-0.06310921
158	0x3c803925	0.015652249
159	0xbccda6ba	-0.025103915
160	0xbc7dfeb5	-0.015502621
161	0x3d5c42b2	0.053774543
162	0x3d604bd7	0.054759827
163	0x3d8d0a43	0.06886723
164	0x3db6d468	0.08927232
165	0x3d982a62	0.07429959
166	0x3ce7fdc2	0.028319243
167	0x3d9aa3e7	0.07550793
168	0x3d95a77f	0.07307338
169	0x3db8f97b	0.090319596
170	0x3c59de10	0.013297573
171	0x3cda0bda	0.02661698
172	0x3c9d7c86	0.019224416
173	0x3cfe5248	0.031045094
174	0x3d1c4281	0.03814936
175	0x3d1b96d3	0.037985634
176	0xbccd7970	-0.02508232
177	0xbddcd333	-0.107824706
178	0x3ce8ba03	0.02840901
179	0x3dce1cc2	0.10064079
180	0xbc4d165b	-0.012517537
181	0x3c877551	0.016535433
182	0x3d0832f5	0.03325172
183	0x3d488e04	0.04896356
184	0x3cc1a7dc	0.023639612
185	0x3cb19fdc	0.021682672
186	0xbc8b1e9b	-0.016982367
187	0xbc94cca3	-0.018163985
188	0xbdf11754	-0.117720276
189	0x3d0aeac4	0.033915296
190	0x3dbccf6a	0.092192486
191	0x3d9cde96	0.076596424
192	0xbd18190a	-0.037133254
193	0xbbafded6	-0.0053671403
194	0xbd29e3f8	-0.041477174
195	0xbbb00e58	-0.0053728037
196	0xbcbd0fa7	-0.023078753
197	0xbd63699c	-0.05552064
198	0xbd3e62b2	-0.046480842
199	0xbd921697	-0.07133215
200	0x3dd9f4ef	0.106424205
201	0x3c2c42b4	0.01051395
202	0x3d26e809	0.04074863
203	0xbcc4c42f	-0.024019329
204	0x3bbd48f4	0.005776519
205	0x3ca15a89	0.01969649
206	0x3c7468c8	0.01491756
207	0xbd00aa82	-0.03141261
208	0xbd514d67	-0.051099207
209	0xbd19940f	-0.037494715
210	0x3d0a9397	0.03383216
211	0x3daea49f	0.08527493
212	0x3dcad430	0.09903753
213	0x3d85821c	0.06518957
214	0x3bab96e1	0.005236492
215	0xbcaafbdf	-0.020872055
216	0xbd105e14	-0.03524597
217	0xbd13e368	-0.036105543
218	0xbd737a23	-0.05944265
219	0xbc84deca	-0.016219515
220	0xbc15cbc7	-0.009142823
221	0x3d8eb75f	0.06968569
222	0x3cbb3815	0.02285389
223	0x3d2c17a6	0.04201474
224	0x3cadf336	0.021234136
225	0xbd57f327	-0.052722123
226	0x3c96c911	0.018406423
227	0x3c02bc37	0.007979444
228	0x3b42e921	0.0029741006
229	0x3c0b6920	0.0085089505
230	0x3be14ab6	0.0068753613
231	0x3c985cea	0.018598992
232	0x3c64c2c9	0.013962456
233	0x3d87033b	0.06592413
234	0x3d90452e	0.07044445
235	0x3d0677d1	0.03282911
236	0x3c81f0e8	0.015861943
237	0x3cca75bd	0.024714345
238	0xbc241e1b	-0.010016943
239	0x3d95e178	0.073183954
240	0xbc3bc661	-0.011460871
241	0xbdb0cc17	-0.08632677
242	0xbcef77af	-0.029231874
243	0xbd3d211e	-0.04617416
244	0xbc06e40a	-0.00823308
245	0x3d158980	0.036508083
246	0xb98c4a03	-0.00026758024
247	0xbd03f4f2	-0.03221602
248	0x3c9ee328	0.019395426
249	0x3cfc4b38	0.030797586
250	0x3d3627ba	0.04447148
251	0x3bdc9473	0.0067315637
252	0xbcf7294c	-0.03017106
253	0x3c2d4b0c	0.010576975
254	0x3db02f27	0.086027436
255	0x3d9650eb	0.07339653

sep_conn.bias f4 [75]
0	0xbd9a2adc	-0.07527706
1	0x3ded10ba	0.11575456
2	0xbe577cc1	-0.21043684
3	0xbe13dce9	-0.1443974
4	0x3d234dd1	0.039869133
5	0x3e15d308	0.14631283
6	0x3d877f73	0.06616106
7	0xbe303147	-0.17206298
8	0x3d512605	0.05106165
9	0xbdf08d2d	-0.11745677
10	0x3d655916	0.055993162
11	0x3dfa40e6	0.1221941
12	0x3e4e437c	0.20142931
13	0xbe1a70f4	-0.1508215
14	0xbdf2e1ba	-0.1185946
15	0xbe124ed2	-0.1428788
16	0x3e57b474	0.21064931
17	0x3d447e15	0.047971804
18	0x3dde252c	0.10846934
19	0xbe4a7da6	-0.19774494
20	0x3dd93652	0.10606064
21	0x3e691f0a	0.22765747
22	0x3d9f3952	0.07774605
23	0xbe623806	-0.22091684
24	0xbe586b75	-0.21134742
25	0x3e257ea1	0.16161586
26	0x3e2fad74	0.17156011
27	0x3e4bea45	0.19913585
28	0xbe1b49c7	-0.15164863
29	0xbe1135d2	-0.14180687
30	0x3e1152a4	0.14191681
31	0xbd9005f6	-0.07032387
32	0x3dba9cd4	0.09111944
33	0x3e8206e4	0.25395882
34	0x3dda5068	0.106598675
35	0x3e2dc82f	0.16970895
36	0x3c9b9ad4	0.018994726
37	0x3da865eb	0.08222564
38	0xbd1141e8	-0.035463244
39	0x3e39e7a7	0.18154775
40	0x3d66f4e3	0.056385886
41	0xbe0dc785	-0.13845642
42	0x3b7504ea	0.0037386962
43	0x3de5b2ad	0.1121572
44	0xbd9d0dea	-0.076686695
45	0x3e3ed16b	0.18634574
46	0xbd86ada1	-0.06576086
47	0xbcb5af70	-0.022178382
48	0x3df28ca9	0.11843235
49	0x3e39d3eb	0.18147247
50	0xbdc5c4eb	-0.096567
51	0xbe087f88	-0.133299
52	0xbe5148aa	-0.20437875
53	0x3d49dba1	0.04928172
54	0xbd399ba7	-0.045314457
55	0x3d892146	0.066957995
56	0xbd31068f	-0.043219145
57	0xbe0d0ce8	-0.13774455
58	0x3da3db70	0.08000839
59	0xbdb12be9	-0.08650953
60	0xbd58424d	-0.052797604
61	0xbb3660c8	-0.0027828682
62	0x3e2defff	0.16986082
63	0xbd4485d2	-0.047979183
64	0x3e1fcf99	0.15606536
65	0x3de9e267	0.11420136
66	0x3e22d2f1	0.1590078
67	0x3e845c07	0.2585146
68	0x3d3a5b12	0.045497008
69	0x3e892a0a	0.26789886
70	0x3e1ddacd	0.15415497
71	0xbbf01e67	-0.007327843
72	0xbe7aefa3	-0.24505477
73	0x3c8caf99	0.017173575
74	0x3e128bc9	0.14311136

bn.weight f4 [75]
0	0x3f800000	1.0
1	0x3f800000	1.0
2	0x3f800000	1.0
3	0x3f800000	1.0
4	0x3f800000	1.0
5	0x3f800000	1.0
6	0x3f800000	1.0
7	0x3f800000	1.0
8	0x3f800000	1.0
9	0x3f800000	1.0
10	0x3f800000	1.0
11	0x3f800000	1.0
12	0x3f800000	1.0
13	0x3f800000	1.0
14	0x3f800000	1.0
15	0x3f800000	1.0
16	0x3f800000	1.0
17	0x3f800000	1.0
18	0x3f800000	1.0
19	0x3f800000	1.0
20	0x3f800000	1.0
21	0x3f800000	1.0
22	0x3f800000	1.0
23	0x3f800000	1.0
24	0x3f800000	1.0
25	0x3f800000	1.0
26	0x3f800000	1.0
27	0x3f800000	1.0
28	0x3f800000	1.0
29	0x3f800000	1.0
30	0x3f800000	1.0
31	0x3f800000	1.0
32	0x3f800000	1.0
33	0x3f800000	1.0
34	0x3f800000	1.0
35	0x3f800000	1.0
36	0x3f800000	1.0
37	0x3f800000	1.0
38	0x3f800000	1.0
39	0x3f800000	1.0
40	0x3f800000	1.0
41	0x3f800000	1.0
42	0x3f800000	1.0
43	0x3f800000	1.0
44	0x3f800000	1.0
45	0x3f800000	1.0
46	0x3f800000	1.0
47	0x3f800000	1.0
48	0x3f800000	1.0
49	0x3f800000	1.0
50	0x3f800000	1.0
51	0x3f800000	1.0
52	0x3f800000	1.0
53	0x3f800000	1.0
54	0x3f800000	1.0
55	0x3f800000	1.0
56	0x3f800000	1.0
57	0x3f800000	1.0
58	0x3f800000	1.0
59	0x3f800000	1.0
60	0x3f800000	1.0
61	0x3f800000	1.0
62	0x3f800000	1.0
63	0x3f800000	1.0
64	0x3f800000	1.0
65	0x3f800000	1.0
66	0x3f800000	1.0
67	0x3f800000	1.0
68	0x3f800000	1.0
69	0x3f800000	1.0
70	0x3f800000	1.0
71	0x3f800000	1.0
72	0x3f800000	1.0
73	0x3f800000	1.0
74	0x3f800000	1.0

bn.bias f4 [75]
0	0x00000000	0.0
1	0x00000000	0.0
2	0x00000000	0.0
3	0x00000000	0.0
4	0x00000000	0.0
5	0x00000000	0.0
6	0x00000000	0.0
7	0x00000000	0.0
8	0x00000000	0.0
9	0x00000000	0.0
10	0x00000000	0.0
11	0x00000000	0.0
12	0x00000000	0.0
13	0x00000000	0.0
14	0x00000000	0.0
15	0x00000000	0.0
16	0x00000000	0.0
17	0x00000000	0.0
18	0x00000000	0.0
19	0x00000000	0.0
20	0x00000000	0.0
21	0x00000000	0.0
22	0x00000000	0.0
23	0x00000000	0.0
24	0x00000000	0.0
25	0x00000000	0.0
26	0x00000000	0.0
27	0x00000000	0.0
28	0x00000000	0.0
29	0x00000000	0.0
30	0x00000000	0.0
31	0x00000000	0.0
32	0x00000000	0.0
33	0x00000000	0.0
34	0x00000000	0.0
35	0x00000000	0.0
36	0x00000000	0.0
37	0x00000000	0.0
38	0x00000000	0.0
39	0x00000000	0.0
40	0x00000000	0.0
41	0x00000000	0.0
42	0x00000000	0.0
43	0x00000000	0.0
44	0x00000000	0.0
45	0x00000000	0.0
46	0x00000000	0.0
47	0x00000000	0.0
48	0x00000000	0.0
49	0x00000000	0.0
50	0x00000000	0.0
51	0x00000000	0.0
52	0x00000000	0.0
53	0x00000000	0.0
54	0x00000000	0.0
55	0x00000000	0.0
56	0x00000000	0.0
57	0x00000000	0.0
58	0x00000000	0.0
59	0x00000000	0.0
60	0x00000000	0.0
61	0x00000000	0.0
62	0x00000000	0.0
63	0x00000000	0.0
64	0x00000000	0.0
65	0x00000000	0.0
66	0x00000000	0.0
67	0x00000000	0.0
68	0x00000000	0.0
69	0x00000000	0.0
70	0x00000000	0.0
71	0x00000000	0.0
72	0x00000000	0.0
73	0x00000000	0.0
74	0x00000000	0.0

bn.running_mean f4 [75]
0	0x00000000	0.0
1	0x00000000	0.0
2	0x00000000	0.0
3	0x00000000	0.0
4	0x00000000	0.0
5	0x00000000	0.0
6	0x00000000	0.0
7	0x00000000	0.0
8	0x00000000	0.0
9	0x00000000	0.0
10	0x00000000	0.0
11	0x00000000	0.0
12	0x00000000	0.0
13	0x00000000	0.0
14	0x00000000	0.0
15	0x00000000	0.0
16	0x00000000	0.0
17	0x00000000	0.0
18	0x00000000	0.0
19	0x00000000	0.0
20	0x00000000	0.0
21	0x00000000	0.0
22	0x00000000	0.0
23	0x00000000	0.0
24	0x00000000	0.0
25	0x00000000	0.0
26	0x00000000	0.0
27	0x00000000	0.0
28	0x00000000	0.0
29	0x00000000	0.0
30	0x00000000	0.0
31	0x00000000	0.0
32	0x00000000	0.0
33	0x00000000	0.0
34	0x00000000	0.0
35	0x00000000	0.0
36	0x00000000	0.0
37	0x00000000	0.0
38	0x00000000	0.0
39	0x00000000	0.0
40	0x00000000	0.0
41	0x00000000	0.0
42	0x00000000	0.0
43	0x00000000	0.0
44	0x00000000	0.0
45	0x00000000	0.0
46	0x00000000	0.0
47	0x00000000	0.0
48	0x00000000	0.0
49	0x00000000	0.0
50	0x00000000	0.0
51	0x00000000	0.0
52	0x00000000	0.0
53	0x00000000	0.0
54	0x00000000	0.0
55	0x00000000	0.0
56	0x00000000	0.0
57	0x00000000	0.0
58	0x00000000	0.0
59	0x00000000	0.0
60	0x00000000	0.0
61	0x00000000	0.0
62	0x00000000	0.0
63	0x00000000	0.0
64	0x00000000	0.0
65	0x00000000	0.0
66	0x00000000	0.0
67	0x00000000	0.0
68	0x00000000	0.0
69	0x00000000	0.0
70	0x00000000	0.0
71	0x00000000	0.0
72	0x00000000	0.0
73	0x00000000	0.0
74	0x00000000	0.0

bn.running_var f4 [75]
0	0x3f800000	1.0
1	0x3f800000	1.0
2	0x3f800000	1.0
3	0x3f800000	1.0
4	0x3f800000	1.0
5	0x3f800000	1.0
6	0x3f800000	1.0
7	0x3f800000	1.0
8	0x3f800000	1.0
9	0x3f800000	1.0
10	0x3f800000	1.0
11	0x3f800000	1.0
12	0x3f800000	1.0
13	0x3f800000	1.0
14	0x3f800000	1.0
15	0x3f800000	1.0
16	0x3f800000	1.0
17	0x3f800000	1.0
18	0x3f800000	1.0
19	0x3f800000	1.0
20	0x3f800000	1.0
21	0x3f800000	1.0
22	0x3f800000	1.0
23	0x3f800000	1.0
24	0x3f800000	1.0
25	0x3f800000	1.0
26	0x3f800000	1.0
27	0x3f800000	1.0
28	0x3f800000	1.0
29	0x3f800000	1.0
30	0x3f800000	1.0
31	0x3f800000	1.0
32	0x3f800000	1.0
33	0x3f800000	1.0
34	0x3f800000	1.0
35	0x3f800000	1.0
36	0x3f800000	1.0
37	0x3f800000	1.0
38	0x3f800000	1.0
39	0x3f800000	1.0
40	0x3f800000	1.0
41	0x3f800000	1.0
42	0x3f800000	1.0
43	0x3f800000	1.0
44	0x3f800000	1.0
45	0x3f800000	1.0
46	0x3f800000	1.0
47	0x3f800000	1.0
48	0x3f800000	1.0
49	0x3f800000	1.0
50	0x3f800000	1.0
51	0x3f800000	1.0
52	0x3f800000	1.0
53	0x3f800000	1.0
54	0x3f800000	1.0
55	0x3f800000	1.0
56	0x3f800000	1.0
57	0x3f800000	1.0
58	0x3f800000	1.0
59	0x3f800000	1.0
60	0x3f800000	1.0
61	0x3f800000	1.0
62	0x3f800000	1.0
63	0x3f800000	1.0
64	0x3f800000	1.0
65	0x3f800000	1.0
66	0x3f800000	1.0
67	0x3f800000	1.0
68	0x3f800000	1.0
69	0x3f800000	1.0
70	0x3f800000	1.0
71	0x3f800000	1.0
72	0x3f800000	1.0
73	0x3f800000	1.0
74	0x3f800000	1.0

net.0.weight f4 [75, 504]
0	0xbd423c11	-0.047420565
1	0xbdf16ca5	-0.117883004
2	0xbd1ec435	-0.038761336
3	0xbd086eda	-0.03330884
4	0xbdcb4e9b	-0.09927102
5	0xbd5bf06e	-0.05369609
6	0xbcba62e2	-0.02275223
7	0xbd7dd73a	-0.061972834
8	0xbd2e7694	-0.042593554
9	0xbd08f8e9	-0.033440504
10	0x3cc5577d	0.02408957
11	0x3cca0127	0.024658753
12	0xbc925f2d	-0.017867649
13	0xbb956060	-0.004558608
14	0xbd33f144	-0.04393126
15	0x3b93b047	0.004507098
16	0x3c44484f	0.01198013
17	0xbd34ff8b	-0.044189017
18	0xbd8bdc4c	-0.06829128
19	0xbdbca42b	-0.09211
20	0xbd341cdc	-0.043972835
21	0xbcc61661	-0.024180593
22	0xbd3d4566	-0.04620876
23	0xbd243939	-0.040093634
24	0x3d19579c	0.037437066
25	0xbbed7d05	-0.0072475695
26	0x3c98bd35	0.018644908
27	0x3c082b7e	0.008311151
28	0xbd61a085	-0.055084724
29	0xbdb44b15	-0.08803383
30	0xbd808bdf	-0.06276678
31	0x3c546d55	0.01296552
32	0x3c9c1b5c	0.019056015
33	0xbc49b4d2	-0.012311177
34	0xbc94913a	-0.018135656
35	0x3c1c1397	0.009526155
36	0x3b14aa80	0.0022684634
37	0x3c97d961	0.018536272
38	0x3b63ebbb	0.0034777957
39	0x38595b02	5.182159e-05
40	0xbd0d599f	-0.034509297
41	0xbda89050	-0.082306504
42	0xbb4c5ed3	-0.003118445
43	0x3c1db5f3	0.0096259
44	0xbd067a97	-0.032831755
45	0x3cdfce06	0.02731992
46	0x3d82d08f	0.06387436
47	0x3db085cf	0.08619272
48	0x3dcc4f94	0.09976116
49	0x3ddeb8ba	0.108750775
50	0xbc2b8c6a	-0.010470489
51	0xbd15d7f8	-0.036582917
52	0x3bb7cdc7	0.0056092474
53	0x3d6e1af2	0.058131166
54	0x3ce4c939	0.027927982
55	0x3d230a53	0.039804768
56	0x3d859e16	0.06524293
57	0x3d795447	0.06087139
58	0x3d512275	0.05105825
59	0xbb3e373d	-0.0029024624
60	0x3d41a05e	0.04727208
61	0x3d93ec6c	0.07222828
62	0x3d88a2bf	0.06671666
63	0x3b8e0b81	0.0043348675
64	0xbcd62cd0	-0.026144415
65	0xbcb3c318	-0.021943614
66	0xbd41ca4e	-0.047312073
67	0xbceec234	-0.029145338
68	0x3caa1315	0.020761052
69	0x3c5b6761	0.013391347
70	0x3d1d5fe1	0.038421515
71	0x3d82b621	0.063823946
72	0xbb82c282	-0.0039904723
73	0x3d6d406a	0.05792276
74	0x3da69311	0.081335194
75	0x3d7daa2c	0.061929867
76	0x3d5ce2c3	0.053927194
77	0xbbf3226b	-0.0074198744
78	0x3c51ebe9	0.012812593
79	0x3c812cb9	0.015768396
80	0xbbef7ab7	-0.00730833
81	0xbd6abe61	-0.057310466
82	0xbd3473b7	-0.044055667
83	0x3d314239	0.043276045
84	0x3d577601	0.05260277
85	0xbe0063fe	-0.12538144
86	0xbe0b76d3	-0.13619547
87	0xbd6f8574	-0.05847688
88	0x3c03d854	0.008047182
89	0xbca09704	-0.01960326
90	0x3c0b2310	0.008492246
91	0x3c5207ec	0.012819272
92	0x3cd9a016	0.026565593
93	0xbcb4657a	-0.022021044
94	0x3d1fc5ae	0.03900688
95	0x3e3ef9bd	0.18649955
96	0x3db8d291	0.09024537
97	0xbd35289f	-0.044228192
98	0xbd8c172b	-0.068403564
99	0xbb1f96ac	-0.0024351282
100	0x3d4f66a0	0.05063498
101	0x3d2169f5	0.03940769
102	0x3d2a1498	0.041523546
103	0xbd6fdcf4	-0.058560327
104	0xbd2ba5d8	-0.041906208
105	0xbc13abc3	-0.009013119
106	0xbb932b05	-0.0044912123
107	0xbd229194	-0.039689615
108	0xbc8c0e27	-0.017096592
109	0x3da8e071	0.08245934
110	0x3cf9694d	0.03044572
111	0xbc1f00ce	-0.009704782
112	0x3d8b24b9	0.06794114
113	0x3d2b1b57	0.04177412
114	0x3d2e5f77	0.04257151
115	0x3cab4d95	0.020911017
116	0x3cff3cf8	0.031157002
117	0x3d547260	0.05186689
118	0xbd4889f3	-0.048959684
119	0x3d078693	0.033087324
120	0x3c500f03	0.012698892
121	0x3daf4d13	0.085596226
122	0x3dfd5896	0.12370412
123	0x3dc45937	0.09587329
124	0x3d260ff7	0.04054257
125	0x3d39ab99	0.045329664
126	0xbc88d1d3	-0.016701614
127	0x3d0098c1	0.031395677
128	0xbcaca479	-0.02107452
129	0x3c84afe3	0.01619715
130	0xbd434629	-0.04767433
131	0xbc5f21a0	-0.013618857
132	0xbba1776b	-0.004927566
133	0x3c4f0afd	0.012636897
134	0x3d7f4c24	0.062328473
135	0x3e16ff36	0.14745793
136	0x3d061184	0.032731548
137	0x3cc5f5a3	0.02416498
138	0x3c23867e	0.009980796
139	0xbd0bb1b2	-0.03410501
140	0xbdbc1a15	-0.09184662
141	0xbd0ab9dd	-0.03386866
142	0xbcba08ca	-0.02270927
143	0xbcce8885	-0.025211582
144	0xbdb27bc5	-0.087150134
145	0xbd1b6fb1	-0.037948314
146	0xba8325c8	-0.0010005767
147	0x3d95c5a7	0.0731309
148	0xbd42e598	-0.04758224
149	0xbd898f81	-0.06716824
150	0xbc262c78	-0.010142438
151	0xbd14bdf7	-0.036313977
152	0x3c4b318b	0.012401949
153	0xbd165463	-0.03670157
154	0x3cd555e4	0.026041932
155	0xbbb991e7	-0.005663145
156	0x3d4a2019	0.049347017
157	0xbcd12391	-0.025529655
158	0xbbf945f6	-0.007607217
159	0x3d389b5c	0.045070037
160	0x3d6c7fa3	0.05773891
161	0xbd908482	-0.07056524
162	0xbd3ea1a8	-0.046540886
163	0xbcb43eda	-0.022002626
164	0xbda8c83e	-0.08241318
165	0xbd5a36dd	-0.053274978
166	0x3bbcce4e	0.005761898
167	0xbd6aaf48	-0.057296067
168	0x3dd403b1	0.103522666
169	0xbc6b2c44	-0.0143538155
170	0xbd94f968	-0.07274133
171	0x3d47776d	0.048697878
172	0x3c95c61e	0.018282946
173	0x3ccc5138	0.024941072
174	0x3d3b99fe	0.045801155
175	0x3daa4d98	0.08315581
176	0x3938bceb	0.00017617985
177	0x3d86dda5	0.06585244
178	0xbd94c3cd	-0.072639085
179	0xbdb7a664	-0.08967283
180	0x3cab9db4	0.020949222
181	0x3c84ea2c	0.016224943
182	0xbc86fcac	-0.016477905
183	0xbce8368b	-0.02834632
184	0x3c6e653a	0.0145505015
185	0x3d6e34ba	0.058155753
186	0x3c01e707	0.007928616
187	0x3d3ed63a	0.04659102
188	0x3c1800be	0.009277521
189	0x3d6762be	0.056490652
190	0xbc261204	-0.010136131
191	0xbd6251cb	-0.055253785
192	0xbc35e1c3	-0.011101189
193	0x3c0d3995	0.008619686
194	0xbbd0c8e7	-0.0063716057
195	0xbc0537f6	-0.008131018
196	0x3cd7c5bd	0.026339406
197	0x3c660324	0.014038835
198	0x3d03bc28	0.03216186
199	0x3d26811b	0.04065047
200	0x3cbfe132	0.023422811
201	0xbd1a4ab8	-0.037668914
202	0x3d79b0a5	0.060959477
203	0x3d3207f6	0.043464623
204	0xbd2ae058	-0.041717857
205	0xbd644819	-0.05573282
206	0xbcae1eba	-0.021254886
207	0xbc5122b2	-0.01276462
208	0x3d2eea7d	0.042704094
209	0x3dab52a6	0.08365373
210	0xbd8aab48	-0.067709506
211	0xbd3b8053	-0.045776676
212	0xbc6b3ca6	-0.014357721
213	0x3bda9507	0.0066705975
214	0xbc87d1c8	-0.016579524
215	0xbb2cf54d	-0.0026391328
216	0xbc4d2aa8	-0.012522377
217	0x3c6aa142	0.014320673
218	0x3af60a24	0.0018771333
219	0xbc83ae19	-0.016074227
220	0xbca43473	-0.020044541
221	0x3d1a43f8	0.037662476
222	0x3d948986	0.07252793
223	0x3bf04952	0.007332959
224	0x3d4db964	0.05022563
225	0xbd326630	-0.043554485
226	0xbd287a48	-0.04113224
227	0xbdb054b4	-0.08609906
228	0xbdcb069f	-0.09913372
229	0xbcddafc2	-0.027061347
230	0x3de55829	0.11198456
231	0xbd39f9b6	-0.04540416
232	0xbd488586	-0.048955463
233	0xbbb5452e	-0.0055319285
234	0xbcb15050	-0.021644741
235	0xbd13b0d3	-0.036057305
236	0xbd513e87	-0.05108502
237	0xbc608608	-0.013703831
238	0x3dec1b1b	0.115286075
239	0xbd1d3c88	-0.038387805
240	0x3dc6911a	0.09695645
241	0x3d021e32	0.031767078
242	0x3d3fbcb8	0.046810836
243	0x3e017d9a	0.1264557
244	0xbd700170	-0.05859512
245	0x3d985da6	0.07439737
246	0x3d9533ac	0.07285246
247	0x3c59594a	0.013265917
248	0xbd7a4243	-0.06109835
249	0xbd7eb590	-0.06218487
250	0x3cbe91c6	0.02326287
251	0x3d954bf1	0.07289875
252	0xbd6707a3	-0.056403767
253	0xbc9aed23	-0.018911904
254	0xbd94b227	-0.07260542
255	0xbd067f7b	-0.03283642

net.0.bias f4 [75]
0	0xbd9c2225	-0.076237
1	0x3d3662e7	0.044527914
2	0x3dea3b78	0.11437124
3	0xbd183e28	-0.03716865
4	0xbd774401	-0.060367588
5	0xbda52dc6	-0.08065371
6	0xbd3dc2e6	-0.046328448
7	0xbcdfccdb	-0.027319362
8	0xbe019983	-0.12656216
9	0x3ce4c82b	0.027927479
10	0xbddf485d	-0.10902474
11	0xbd98a3c1	-0.074531086
12	0x3e00312e	0.1251876
13	0xbb8220d8	-0.0039712004
14	0x3ddbcc20	0.10732293
15	0xbe1b8ec7	-0.15191184
16	0xbc955ec0	-0.018233657
17	0xbd7ea769	-0.062171374
18	0xbe207dc7	-0.1567298
19	0x3e1616ed	0.14657183
20	0x3cc07467	0.023493005
21	0x3e77dbbc	0.24204916
22	0xbdd3c33f	-0.103399746
23	0xbd5fd3b0	-0.05464524
24	0x3d33c9a8	0.043893486
25	0xbe1a6c1e	-0.15080306
26	0xbd25072a	-0.040290035
27	0xbd9560e5	-0.07293872
28	0x3ddc3af8	0.10753435
29	0xbdfd38ee	-0.12364374
30	0xbb725804	-0.003697873
31	0xbd7094a0	-0.05873549
32	0x3dc4422a	0.09582932
33	0x3d7da6ab	0.061926525
34	0x3d9e3aa1	0.07726026
35	0xbda40624	-0.08008984
36	0xbdf8262e	-0.12116657
37	0xbd9fdcb7	-0.0780577
38	0xbd3db188	-0.046311885
39	0x3d856872	0.06514062
40	0x3dc687af	0.09693848
41	0x3a117109	0.00055481546
42	0x3e0b9a6a	0.13633123
43	0xbe2a2832	-0.16616896
44	0xbd1e322c	-0.038622066
45	0xbdd8cbb7	-0.105857305
46	0xbd87410f	-0.06604206
47	0xbe07901c	-0.13238567
48	0x3d19ccb7	0.037548747
49	0xbd8b3b3a	-0.06798406
50	0x3cb4fff7	0.02209471
51	0x3dce6aa0	0.10078931
52	0xbdfc1312	-0.12308325
53	0xbe40e113	-0.18835859
54	0x3d3563d8	0.04428467
55	0xbd80c909	-0.062883444
56	0x3c91073c	0.017703645
57	0xbc5654ce	-0.013081742
58	0xbe1b160f	-0.15145133
59	0xba8bf045	-0.0010676464
60	0xbcb87d53	-0.022520697
61	0x3d257ee7	0.040404227
62	0xbd6d6daa	-0.057965912
63	0xbe5242f4	-0.20533353
64	0xbdabde0f	-0.08391964
65	0xbd557d5d	-0.05212151
66	0xbcab5ac0	-0.020917296
67	0xbdb95e9a	-0.09051247
68	0xbbe7bbe4	-0.007071959
69	0x3e25f12a	0.16205278
70	0x3c1f62ba	0.009728128
71	0xbdd40505	-0.1035252
72	0x3d40ee40	0.047102213
73	0x3de065d7	0.109569244
74	0xbe259b4e	-0.16172525
