bestclf/yaleb/y09.pth (torch, 343163 bytes, 16 tensors)

fc1.weight f4 [75, 504]
-0.026310831 -0.050428778 -0.032568038 0.00077169854 -0.05903057 0.017066408 -0.025121586 -0.06881881
-0.039744306 -0.007857528 0.04703974 0.042479485 -0.027854454 -0.017918497 -0.042545095 -0.00825112
0.03603244 0.089484826 0.0056354026 -0.036504902 0.09567079 0.021088228 0.016109208 -0.0058182767
0.051134534 0.0010885397 0.075096615 0.0041175196 -0.056215495 -0.065145895 -0.043359123 0.013643794
0.024075033 -0.0068765613 -0.028994687 0.030862737 0.034562588 0.01953907 -0.06455139 -0.08247636
-0.1588796 -0.07491714 0.043623436 -0.048793007 0.0039221323 0.009590519 -0.0035885568 0.01939894
0.035241175 0.044753853 0.011077277 -0.020883083 0.0019036437 0.013465188 0.055895817 0.046800744
0.1367792 0.13087837 0.0510511 -0.05619363 -0.0792108 -0.03011091 -0.05378579 0.04755502
0.091056325 0.03932565 -0.028318247 -0.06794055 -0.09018043 -0.06318176 0.013655664 0.063186355
-0.0028413942 0.051457297 0.07104449 0.035040576 0.03550561 0.041626364 0.040870354 0.018817518
0.0015005496 -0.034116767 -0.00833137 0.018476075 0.08068952 0.09122639 0.028507281 0.08259111
0.039812006 -0.03889298 -0.032767594 0.021589873 0.04788846 -0.015956776 0.033092495 0.09637245
0.006394437 -0.104720704 -0.13375978 -0.12823595 -0.08677846 -0.01461018 0.011320314 -0.057802994
-0.038372755 0.13105588 0.07973829 -0.07106159 -0.060363702 0.08419575 0.037018478 -0.04879844
-0.07570757 -0.034836344 -0.059629705 0.006853987 0.08213393 0.02845235 -0.04135248 0.0042838943
-0.14599866 0.012908739 0.084276594 0.06543972 0.037820388 -0.032362625 0.068743855 -0.030017061
-0.080465734 0.037749935 0.009640548 0.0048074843 0.062023897 -0.011275763 0.041141097 0.0013436638
-0.0400209 -0.0034554396 -0.033109374 0.018685272 -0.08984692 0.10086606 0.030015673 -0.03137233
0.07205909 -0.0070666266 -0.04471573 -0.0056752623 -0.030430488 0.020048209 -0.13834152 0.0074633476
-0.03551219 -0.07667822 0.052734494 0.007995963 0.12762107 -0.13075507 -0.15818696 0.0042876615
0.018888291 -0.04378425 0.012874233 0.03324341 -0.087695085 0.0135839805 -0.037468024 -0.12497944
0.03963811 0.13826293 -0.0712385 -0.047086637 -0.058344293 -0.02581794 -0.0086265765 0.09063164
0.067501396 0.013150217 -0.050164975 -0.04593433 -0.024158126 0.05687499 0.049467556 0.009607261
0.073862255 0.048397493 -0.047607426 -0.06886896 -0.016578317 0.051616006 0.030429177 -0.017481774
-0.055219226 -0.073584296 -0.06885696 0.004959958 0.021315336 0.056071408 0.03152409 -0.1226637
0.009898541 -0.090560585 0.050516136 0.019496799 0.01454424 -0.043144047 -0.0144223 -0.0574972
-0.016136792 0.22645406 -0.030910246 0.0064677373 0.007283639 0.018920578 -0.030133363 0.040473413
0.047166746 -0.03753262 -0.004962264 -0.07137614 -0.04645475 0.08016373 0.1121587 0.029829511
0.0061788494 -0.046004247 -0.0007044015 -0.053414743 -0.088255405 0.08670731 0.13484193 0.0030631803
-0.0027112744 0.0039433413 0.005287937 0.027472494 0.021517335 0.013852756 0.10770807 0.036764655
0.050713584 0.05580223 0.109856784 0.18693198 -0.08162991 0.01026876 0.0023787066 -0.036330882
-0.050032493 -0.005665606 0.03196743 0.052693665 0.008328009 -0.024603544 -0.07448468 -0.011848507
00000000: d089 d7bc 688e 4ebd 1066 05bd d04b 4a3a
00000010: 0aca 71bd dace 8b3c c9cb cdbc e0f0 8cbd
00000020: edca 22bd dcbc 00bc beac 403d f8fe 2d3d
00000030: 062f e4bc d0c9 92bc c443 2ebd b52f 07bc
00000040: c096 133d d243 b73d 2fa9 b83b 2a86 15bd
00000050: 0cef c33d 38c1 ac3c 75f7 833c 3ea7 bebb
00000060: 7272 513d 55ad 8e3a 41cc 993d 42ec 863b
00000070: 3842 66bd 366b 85bd 5699 31bd 388a 5f3c
00000080: 0139 c53c c754 e1bb 4486 edbc dad3 fc3c
00000090: 8091 0d3d 6610 a03c 8533 84bd 5ee9 a8bd
000000a0: 55b1 22be 286e 99bd 7dae 323d 2ddb 47bd
000000b0: 3b85 803b 8d21 1d3c fe2d 6bbb 87ea 9e3c
000000c0: 0d59 103d d14f 373d 787d 353c 0013 abbc
000000d0: af83 f93a 189d 5c3c 03f3 643d 23b2 3f3d
000000e0: d90f 0c3e fb04 063e f51a 513d 4b2b 66bd
000000f0: 4639 a2bd 28ab f6bc 7d4e 5cbd 0dc9 423d
00000100: bd7b ba3d ef13 213d abfb e7bc 6a24 8bbd
00000110: 84b0 b8bd 7065 81bd 02bc 5f3c d967 813d
00000120: af36 3abb e3c4 523d c67f 913d b586 0f3d
00000130: 556e 113d 6880 2a3d ac67 273d 3227 9a3c
00000140: 17ae c43a 06be 0bbd 4c80 08bc 235b 973c
00000150: 8c40 a53d e7d4 ba3d 1a88 e93c 8725 a93d
00000160: ea11 233d 3f4e 1fbd 5037 06bd 3fdd b03c
00000170: b126 443d c9b7 82bc ff8b 073d eb5e c53d
00000180: 6d88 d13b cf77 d6bd 53f8 08be 4950 03be
00000190: e8b8 b1bd 895f 6fbc d778 393c d5c2 6cbd
000001a0: c02c 1dbd 8333 063e d44d a33d bd88 91bd
000001b0: ee3f 77bd d26e ac3d b0a0 173d dfe0 47bd
000001c0: 920c 9bbd 8eb0 0ebd 473e 74bd 6997 e03b
000001d0: d535 a83d e714 e93c 3861 29bd e95f 8c3b
000001e0: ac80 15be 2d7f 533c 3599 ac3d 4305 863d
000001f0: 8de9 1a3d ac8e 04bd 94c9 8c3d 57e6 f5bc
00000200: 38cb a4bd ad9f 1a3d 64f3 1d3c 1a88 9d3b
00000210: c50c 7e3d fabd 38bc 9183 283d e01d b03a
00000220: f5ec 23bd a874 62bb b29d 07bd db11 993c
00000230: a901 b8bd dd92 ce3d 6ee3 f53c 4680 00bd
00000240: b793 933d 298f e7bb d727 37bd 8df7 b9bb
00000250: 5c49 f9bc 243c a43c 66a9 0dbe 198f f43b
00000260: 3b75 11bd 7809 9dbd 2000 583d 8001 033c
00000270: 19af 023e a8e4 05be c3fb 21be 837f 8c3b
00000280: 9ebb 9a3c 1d57 33bd 72ee 523c 3e2a 083d
00000290: 7b99 b3bd 588f 5e3c 1278 19bd 38f5 ffbd
000002a0: 925b 223d cc94 0d3e 7ee5 91bd ebdd 40bd
000002b0: 6dfa 6ebd 2580 d3bc 7c56 0dbc 159d b93d
000002c0: 2c3e 8a3d 0274 573c ca79 4dbd a325 3cbd
000002d0: 43e7 c5bc c0f5 683d 7e9e 4a3d c667 1d3c
000002e0: 1845 973d 733c 463d 0100 43bd 2b0b 8dbd
000002f0: 40cf 87bc 4e6b 533d 9c46 f93c f035 8fbc
00000300: 8e2d 62bd 5db3 96bd e104 8dbd 2587 a23b
00000310: 809d ae3c 22ab 653d 671f 013d 1b37 fbbd
00000320: 7d2d 223c d477 b9bd 02ea 4e3d c0b7 9f3c
00000330: f74a 6e3c d0b7 30bd 834b 6cbc 2f82 6bbd
00000340: 4e31 84bc 93e3 673e 7c37 fdbc 50ef d33b
00000350: 98ab ee3b 54ff 9a3c 3eda f6bc 73c7 253d
00000360: eb31 413d cebb 19bd 7d9a a2bb a72d 92bd
00000370: 5647 3ebd e22c a43d 76b3 e53d 055d f43c
00000380: f277 ca3b f36e 3cbd 96a7 38ba 6bc9 5abd
00000390: 40bf b4bd 9a93 b13d 0114 0a3e a3bf 483b
000003a0: a3af 31bb 2537 813b 6e46 ad3b ff0d e13c
000003b0: 1f45 b03c abf6 623c 0c96 dc3d 8996 163d
000003c0: 0cb9 4f3d e190 643d 98fc e03d 196b 3f3e
000003d0: 952d a7bd 4d3e 283c 13e4 1b3b b1cf 14bd
000003e0: dfee 4cbd 8ca6 b9bb 48f0 023d 50d5 573d
000003f0: 3472 083c 5f8d c9bc 6d8b 98bd 3e20 42bc

fc1.bias f4 [75]
-0.057810456 0.19906351 0.0076624015 -0.16064818 -0.014008402 -0.038910598 -0.17430668 0.07447807
0.08108526 0.026861576 0.052747067 -0.018339548 0.09175862 -0.115702964 0.08674329 -0.1481962
-0.08848542 -0.068890356 -0.057763696 0.047430776 -0.06689848 0.12522748 -0.056797702 -0.10880437
0.033113774 -0.10815911 -0.018977046 -0.011957065 0.22893481 -0.16293873 0.05478983 0.121992506
0.06961855 0.058727082 0.15486193 0.06833335 -0.07753531 -0.052040525 -0.104818754 -0.06792875
0.16133937 -0.051444333 0.0032032724 -0.09647625 -0.051347096 -0.028965738 -0.07132875 -0.21660168
0.0028243826 -0.124477625 0.03182598 0.039238606 -0.042752843 -0.16445011 0.13717395 -0.07194495
0.18934739 0.14717953 -0.06342537 0.009896904 -0.16942185 0.009817936 0.006089333 -0.22244518
-0.029954042 -0.030737324 -0.050272234 -0.12559164 0.049873773 0.098178364 -0.00046622453 -0.121904604
0.09450398 0.15505521 0.005697015
00000000: a8ca 6cbd 4ed7 4b3e e214 fb3b f580 24be
00000010: 7f83 65bc b860 1fbd 737d 32be f587 983d
00000020: 0710 a63d cf0c dc3c 4f0d 583d d23c 96bc
00000030: f2eb bb3d adf5 ecbd 77a6 b13d bfc0 17be
00000040: d837 b5bd 6316 8dbd a099 6cbd c646 423d
00000050: 1202 89bd a23b 003e b5a4 68bd d3d4 debd
00000060: 4fa2 073d 8682 ddbd c075 9bbc 91e7 43bc
00000070: e36d 6a3e 69d9 26be 4d6b 603d 35d7 f93d
00000080: 2c94 8e3d cf8b 703d 2094 1e3e 5bf2 8b3d
00000090: d5ca 9ebd 7228 55bd 37ab d6bd 3a1e 8bbd
000000a0: 2636 253e 4bb7 52bd feed 513b 5795 c5bd
000000b0: 5551 52bd 8e49 edbc cf14 92bd d5cc 5dbe
000000c0: 4719 393b 20ee febd f55b 023d a9b8 203d
000000d0: 9b1d 2fbd 9c65 28be 5477 0c3e e057 93bd
000000e0: 48e4 413e 3bb6 163e 29e5 81bd a026 223c
000000f0: ec7c 2dbe 69db 203c 0789 c73b abc8 63be
00000100: 2e62 f5bc d7cc fbbc 42ea 4dbd 189b 00be
00000110: 7148 4c3d bd11 c93d 996f f4b9 1fa9 f9bd
00000120: 4d8b c13d cbc6 1e3e 07ae ba3b

fc2.weight f4 [75, 75]
0.06785976 -0.020166248 0.12529133 0.07387815 0.018104464 0.09805488 -0.26972422 -0.03449277
-0.08633536 0.018559523 0.21570855 -0.019052792 0.068218976 -0.029559864 0.025719408 0.08303732
-0.046256118 0.026168054 -0.12633158 0.06966262 -0.01978471 -0.08815543 -0.10121299 -0.21443613
0.09690516 0.19903219 0.07605073 0.10793991 -0.28936976 -0.010645179 0.09661266 0.06665716
0.04912138 0.07338652 -0.032564268 -0.0041975486 0.06679566 -0.0024719045 0.15681504 0.038654894
-0.058050714 0.19514371 0.009138965 0.23701894 0.03891592 -0.06544519 0.06488555 -0.05437285
-0.14460492 0.1977793 0.17061369 0.21747252 -0.09859988 -0.1271746 0.038452446 0.068240345
-0.110084005 -0.112015635 -0.17499593 -0.013063413 0.038373057 0.09639193 0.07777621 0.09644353
0.10251993 -0.17721273 0.06878326 0.04637877 -0.0074785394 0.100233674 -0.16069444 -0.077908486
0.04164993 -0.19228782 -0.09686702 0.18798333 -0.07829877 0.011758139 0.11520674 0.08909876
0.014253801 -0.097359255 0.043132305 -0.0061831456 0.18323784 0.13591853 0.033300534 -0.09192883
-0.042968184 -0.0701559 0.114001624 0.13079783 -0.018873297 0.056782864 0.08371172 -0.036039278
-0.10751365 -0.059580527 -0.031699892 0.1276803 0.101865105 -0.09970961 -0.027088564 0.024556095
-0.002168837 0.0603381 0.06627583 -0.007548348 -0.22924538 0.04093938 0.09715955 0.14558855
-0.027899567 0.18508127 -0.025986612 -0.14260834 -0.02031133 0.03831446 -0.04829701 -0.1911748
0.26337123 -0.02191837 0.044072676 0.17237428 -0.05134188 -0.06041919 0.120823845 0.04516121
-0.044329274 -0.0474 0.073166 -0.0030243918 0.06294775 -0.2598543 0.13659611 0.18443358
0.051456723 -0.08903909 0.0135847395 -0.03816376 0.001466532 0.19304861 -0.038578443 0.09095637
-0.009685281 0.120049454 -0.07881697 0.005314586 -0.14979035 -0.01073154 -0.1479534 -0.11153698
0.077418394 -0.04658462 0.09057034 -0.1301945 -0.013513531 0.12946323 -0.09179856 -0.018076254
0.04312812 -0.094096996 0.0583173 -0.094766326 0.032514747 0.09704327 0.10429314 -0.05286051
0.16417237 0.09655449 0.20547615 -0.1391391 0.040034447 0.0843492 -0.16117561 0.32548016
0.0011878605 0.0214422 -0.010614263 0.038484253 -0.2755817 0.15031697 -0.13529772 -0.09527914
0.015086602 0.09338183 0.031282905 0.10100406 0.08484129 -0.14263886 -0.0928618 0.22789995
0.17667405 0.07535253 0.20717701 0.02041594 0.245476 0.042117704 -0.15711679 0.1977271
-0.035346888 -0.2878128 -0.031026792 0.085607804 -0.057407975 -0.030307155 -0.00040670775 0.052157402
-0.086988546 -0.037337635 0.12326507 -0.067857526 -0.01097682 0.14318743 0.18109506 0.11308984
-0.08614494 0.15994135 -0.11603301 0.14321434 -0.021161497 0.10645272 0.044573896 0.032187
-0.0039757118 -0.044845574 -0.106798716 0.28237307 0.09658505 -0.012764008 -0.10831025 0.06977274
0.024952237 0.1537181 0.06111291 -0.18903327 -0.046321295 0.0694076 0.038810685 -0.03725507
0.19685921 -0.023271156 0.055362128 -0.08441932 0.038758054 0.10215446 0.13465524 0.050867792
0.007946675 -0.058833323 0.18188779 0.07581672 -0.011301655 0.020984802 -0.011535718 -0.1144711
00000000: 0ffa 8a3d b033 a5bc 5f4c 003e 6d4d 973d
00000010: d04f 943c ffd0 c83d 4b19 8abe 4a48 0dbd
00000020: 98d0 b0bd 240a 983c b4e2 5c3e 9a14 9cbc
00000030: 64b6 8b3d 8727 f2bc 82b1 d23c 780f aa3d
00000040: 0e77 3dbd 635e d63c 115d 01be 47ab 8e3d
00000050: 8b13 a2bc d68a b4bd c248 cfbd 2595 5bbe
00000060: 3676 c63d 18cf 4b3e 7cc0 9b3d 990f dd3d
00000070: 4628 94be 1e69 2ebc dcdc c53d 8d83 883d
00000080: 8033 493d ac4b 963d 1c62 05bd 978b 89bb
00000090: 2acc 883d adff 21bb 1f94 203e 9854 1e3d
000000a0: 96c6 6dbd c1d3 473e 99bb 153c 18b5 723e
000000b0: 4d66 1f3d 2108 86bd b7e2 843d 11b6 5ebd
000000c0: 5013 14be a886 4a3e 5bb5 2e3e 1eb1 5e3e
000000d0: bcee c9bd 0f3a 02be 5080 1d3d 98c1 8b3d
000000e0: b973 e1bd 7468 e5bd 2232 33be ed07 56bc
000000f0: 112d 1d3d 2269 c53d 2249 9f3d 2f84 c53d
00000100: f8f5 d13d 4177 35be 3dde 8c3d aaf7 3d3d
00000110: 890e f5bb 5047 cd3d 158d 24be 7c8e 9fbd
00000120: 1e99 2a3d 19e7 44be 3762 c6bd b47e 403e
00000130: 1b5b a0bd 36a5 403c 83f1 eb3d 6979 b63d
00000140: c688 693c 4a64 c7bd 80ab 303d fc9b cabb
00000150: b3a2 3b3e 3a2e 0b3e 2466 083d 2f45 bcbd
00000160: 68ff 2fbd e6ad 8fbd af79 e93d deef 053e
00000170: 2c9c 9abc 2695 683d 0d71 ab3d ec9d 13bd
00000180: 1e30 dcbd b60a 74bd bfd7 01bd a0be 023e
00000190: a79e d03d 8d34 ccbd d6e8 ddbc dd29 c93c
000001a0: 0c23 0ebb 1525 773d 9fbb 873d 2258 f7bb
000001b0: 4dbf 6abe 0db0 273d 96fb c63d 2a15 153e
000001c0: a28d e4bc f285 3d3e e0e1 d4bc ec07 12be
000001d0: f263 a6bc a0ef 1c3d 16d3 45bd 54c3 43be
000001e0: 98d8 863e 278e b3bc 8d85 343d e282 303e
000001f0: dd4b 52bd 1d7a 77bd 7e72 f73d f6fa 383d
00000200: 9d92 35bd 8126 42bd 0ed8 953d e034 46bb
00000210: c0ea 803d 9f0b 85be dadf 0b3e 28dc 3c3e
00000220: 49c4 523d 205a b6bd 8792 5e3c 9a51 1cbd
00000230: a638 c03a 89ae 453e 6e04 1ebd 5547 ba3d
00000240: 03af 1ebc 7ddc f53d cb6a a1bd fb25 ae3b
00000250: a462 19be 57d3 2fbc 1981 17be 806d e4bd
00000260: 898d 9e3d 84cf 3ebd f17c b93d b551 05be
00000270: db67 5dbc 0292 043e e200 bcbd a714 94bc
00000280: 1da7 303d edb5 c0bd 1fde 6e3d d914 c2bd
00000290: 2f2e 053d 9fbe c63d a497 d53d 4384 58bd
000002a0: cd1c 283e 5cbe c53d 5768 523e 7b7a 0ebe
000002b0: 29fb 233d 46bf ac3d 380b 25be 56a5 a63e
000002c0: fcb1 9b3a 8da7 af3c 72e7 2dbc aaa1 1d3d
000002d0: 0b19 8dbe b1ec 193e 7c8b 0abe b621 c3bd
000002e0: cc2d 773c f93e bf3d 8122 003d 37db ce3d
000002f0: 45c1 ad3d ec0f 12be 542e bebd 9b5e 693e
00000300: 0bea 343e 6d52 9a3d 3626 543e 543f a73c
00000310: 0f5e 7b3e 9d83 2c3d 39e3 20be f978 4a3e
00000320: e6c7 10bd 335c 93be e62b febc 2553 af3d
00000330: a024 6bbd b646 f8bc 643b d5b9 00a3 553d
00000340: 0d27 b2bd 59ef 18bd 6672 fc3d e3f8 8abd
00000350: 1fd8 33bc ba9f 123e fc70 393e a59b e73d
00000360: c26c b0bd aac7 233e b7a2 edbd c8a6 123e
00000370: e05a adbc e203 da3d 1e93 363d 84d6 033d
00000380: b046 82bb feaf 37bd 49b9 dabd 3493 903e
00000390: 62ce c53d 2120 51bc c4d1 ddbd 03e5 8e3d
000003a0: a268 cc3c 4768 1d3e 8851 7a3d f091 41be
000003b0: 66bb 3dbd 9225 8e3d f4f7 1e3d c698 18bd
000003c0: 7695 493e 27a3 bebc 66c3 623d 09e4 acbd
000003d0: c4c0 1e3d 5c36 d13d 10e3 093e bf5a 503d
000003e0: c532 023c 36fb 70bd cb40 3a3e cc45 9b3d
000003f0: 942a 39bc 52e8 ab3c 4f00 3dbc d36f eabd

fc2.bias f4 [75]
-0.079317406 0.015892591 -0.11188927 -0.06299772 0.023254085 0.018353509 0.033756934 -0.060090832
0.07808759 0.015339235 0.04211782 0.13597275 0.14371909 -0.09517566 0.027064819 -0.12050535
0.10671125 0.07799216 -0.05440876 -0.07501679 0.14137495 0.049747054 0.081461534 -0.14350486
-0.15470292 0.14456627 0.20037746 -0.0077530495 -0.057326745 0.0021563582 0.11666652 -0.0100846235
0.029855387 0.13003807 0.07999904 0.13564487 -0.03381464 0.14682063 -0.10485523 0.1029909
0.09451668 0.0055170837 -0.00144416 0.053010788 0.0012472431 0.08472066 -0.009236032 0.07610113
0.06446912 0.15050168 0.06683735 0.031156674 -0.05319266 0.009457485 -0.004433725 -0.035648897
-0.0028243936 -0.07986981 -0.011374087 -0.005134016 0.10313357 -0.036102176 0.15864311 0.03983461
0.0664911 0.08184938 0.013632815 0.16565405 0.1328684 0.24226688 0.041674744 -0.09309733
-0.078894585 0.12066075 0.077800035
00000000: 2a71 a2bd 2e31 823c 3426 e5bd f304 81bd
00000010: 5a7f be3c 195a 963c b644 0a3d ce21 76bd
00000020: 63ec 9f3d 6a51 7b3c bc83 2c3d 713c 0b3e
00000030: 192b 133e 75eb c2bd 0ab7 dd3c 82cb f6bd
00000040: 6e8b da3d 5bba 9f3d b8db 5ebd 67a2 99bd
00000050: 98c4 103e 91c3 4b3d 4ed5 a63d f0f2 12be
00000060: 716a 1ebe 2e09 143e c02f 4d3e 4b0d febb
00000070: 73cf 6abd b051 0d3b dbee ee3d fa39 25bc
00000080: 4993 f43c b328 053e 89d6 a33d 7de6 0a3e
00000090: 3881 0abd 2658 163e 57be d6bd e5ec d23d
000000a0: f691 c13d a7c8 b43b f849 bdba d721 593d
000000b0: 897a a33a 0682 ad3d ba52 17bc e9da 9b3d
000000c0: 6308 843d 1d1d 1a3e 05e2 883d 483c ff3c
000000d0: 8ce0 59bd 91f3 1a3c c848 91bb 9404 12bd
000000e0: 7619 39bb c892 a3bd 615a 3abc 3f3b a8bb
000000f0: b137 d33d e0df 13bd 5773 223e 9e29 233d
00000100: 7c2c 883d a6a0 a73d 2c5c 5f3c 37a1 293e
00000110: a70e 083e cf14 783e 23b3 2a3d d0a9 bebd
00000120: 7c93 a1bd fc1c f73d a055 9f3d

out.weight f4 [38, 75]
-0.18882212 -0.047732055 0.046454307 -0.10851921 -0.22038434 -0.24697499 0.11403442 0.06485848
0.28020898 -0.25436065 -0.21869661 0.24344504 0.31390062 0.14538139 -0.09979615 0.006349763
0.15446253 0.120859966 0.008837403 0.08854325 -0.05788861 0.31776157 0.17869307 -0.021470318
-0.24554999 -0.13147578 0.031191073 -0.13256685 -0.1193594 0.07253175 0.30907473 0.012535187
-0.06609286 0.3594219 0.29646364 0.1199108 0.22850327 0.111932166 0.28569347 0.1725919
-0.32170564 -0.23811926 0.27904573 0.3132277 -0.18204728 -0.14760809 0.17360435 0.056769595
0.23697628 -0.30298692 -0.40321308 -0.36905038 -0.25587112 -0.053809002 0.0728958 0.24793445
-0.15952864 -0.27364147 0.2422633 0.32219586 -0.36500162 -0.17824337 -0.32493916 -0.24204996
-0.19997719 -0.017900461 0.22421473 0.2605383 0.15191442 0.14956783 0.06900294 0.13727576
-0.2846441 -0.1307887 -0.26812622 -0.24820194 -0.25154212 -0.035936963 0.34924802 -0.39560384
-0.0942411 -0.053459026 0.36510828 0.30869982 -0.32119733 -0.17307834 -0.14073804 0.29424757
-0.26068747 -0.23846018 0.18216483 -0.08366839 0.2726396 0.20485516 -0.24581249 0.07895664
0.23060001 -0.16549325 -0.113205515 0.059082218 0.20399487 -0.105578564 0.027258988 -0.30681786
-0.37687126 -0.2321946 -0.094626136 0.39609993 -0.0005337017 -0.360322 0.3899938 0.08961055
-0.17703111 0.294499 0.3849835 0.13910499 -0.10225211 0.25272548 0.19731086 -0.04948539
0.38903657 0.22414282 -0.07080423 0.12802067 0.12932631 -0.33767855 0.14623979 -0.0973836
0.26158082 -0.30298552 -0.17976822 -0.3442252 -0.38189232 -0.2366769 0.04311978 0.06894282
-0.2848815 0.010372198 0.07355001 0.054961555 -0.10738425 -0.2140392 0.2031039 0.3911456
-0.15625119 -0.2301311 -0.1150892 -0.20251249 -0.15441556 0.2034315 0.2773455 0.2954307
0.16925974 0.13247709 0.05623851 -0.10660114 0.008744465 0.29897144 -0.2002535 0.15534352
-0.22119723 -0.31405246 -0.22960965 0.06361133 -0.21719885 0.39236006 -0.0065740976 0.10896226
-0.22723675 0.25843745 0.04426273 -0.2624663 -0.19149785 0.1840439 0.2787119 0.19716598
-0.28828806 0.25484756 0.26260167 -0.18220027 -0.21493489 -0.06044676 -0.09943566 -0.29791757
-0.29270285 -0.07252215 -0.019416181 0.051474806 -0.16926175 -0.058838323 -0.3229397 -0.051105026
0.1834449 -0.059668753 0.08715984 0.19803046 -0.2964146 0.10377065 -0.24297859 -0.10658741
-0.19713521 0.16340798 0.41620716 -0.08463183 0.20526612 -0.12939113 0.33577603 0.30513182
-0.23566869 -0.03276113 0.09629695 -0.12738566 -0.039787173 -0.1510146 -0.20214759 -0.16659863
0.17419735 0.0190638 0.15937072 -0.23276843 -0.08897677 -0.14488783 -0.08228004 -0.22856116
-0.11797898 -0.20359805 -0.18838227 -0.31298003 -0.34314293 0.17308383 0.29442653 -0.254908
-0.30138457 -0.2172625 0.3828438 0.047438387 0.22578105 -0.11796083 0.224519 0.18331926
-0.00663502 0.3430528 -0.37613943 -0.40636128 0.3693336 0.37110606 0.2386991 0.20814995
0.2363288 -0.17374206 0.2372637 -0.018997593 -0.30129677 0.13513939 0.19376257 0.36310658
00000000: 965a 41be b082 43bd df46 3e3d 523f debd
00000010: 6fac 61be 03e7 7cbe e18a e93d 86d4 843d
00000020: 8d77 8f3e 8f3b 82be 01f2 5fbe a849 793e
00000030: 95b7 a03e dcde 143e ed61 ccbd ac11 d03b
00000040: 6d2b 1e3e 6e85 f73d c1ca 103c 2a56 b53d
00000050: 9b1c 6dbd a5b1 a23e 51fb 363e 85e2 afbc
00000060: 7571 7bbe 96a1 06be 6c84 ff3c 9bbf 07be
00000070: b372 f4bd 878b 943d 0b3f 9e3e 6360 4d3c
00000080: b25b 87bd 2606 b83e 15ca 973e cb93 f53d
00000090: c3fc 693e b13c e53d 6a46 923e eebb 303e
000000a0: 9ab6 a4be 89d5 73be 15df 8e3e 625f a03e
000000b0: 9a6a 3abe 9326 17be 57c5 313e 3c87 683d
000000c0: e9a9 723e 1a21 9bbe f271 cebe 2cf4 bcbe
000000d0: 8a01 83be d466 5cbd 654a 953d 87e2 7d3e
000000e0: 7a5b 23be bc1a 8cbe df13 783e dbf6 a43e
000000f0: 7ee1 babe 6e85 36be 6d5e a6be f2db 77be
00000100: d2c6 4cbe fda3 92bc 8c98 653e 4765 853e
00000110: 748f 1b3e 4f28 193e 6a51 8d3d 0492 0c3e
00000120: dfbc 91be 79ed 05be d747 89be a628 7ebe
00000130: 21ca 80be a332 13bd a3d0 b23e 968c cabe
00000140: 7a01 c1bd daf7 5abd 79ef ba3e e70d 9e3e
00000150: fa73 a4be 733b 31be a21d 10be 9ea7 963e
00000160: d478 85be e82e 74be 6b89 3a3e 555a abbd
00000170: 6b97 8b3e 8dc5 513e 45b6 7bbe 05b4 a13d
00000180: 6922 6c3e 1077 29be 4bd8 e7bd 3200 723d
00000190: 08e4 503e 9339 d8bd 3e4e df3c 3b17 9dbe
000001a0: 45f5 c0be 6cc4 6dbe 59cb c1bd 9ccd ca3e
000001b0: 1de8 0bba 207c b8be 44ad c73e bc85 b73d
000001c0: a547 35be 93c8 963e 8f1c c53e 8a71 0e3e
000001d0: 8e69 d1bd 3c65 813e dc0b 4a3e 31b1 4abd
000001e0: cd2f c73e b285 653e cf01 91bd da17 033e
000001f0: 1e6e 043e 34e4 acbe e2bf 153e 0e71 c7bd
00000200: eced 853e eb20 9bbe 2915 38be 493e b0be
00000210: 6487 c3be 6e5b 72be 5e9e 303d e531 8d3d
00000220: fddb 91be 27f0 293c 63a1 963d 5e1f 613d
00000230: 46ec dbbd 182d 5bbe 78fa 4f3e 3c44 c83e
00000240: 5000 20be 7da7 6bbe e3b3 ebbd 6f5f 4fbe
00000250: 1d1f 1ebe 5950 503e 3b00 8e3e b142 973e
00000260: 6d52 2d3e 13a8 073e 5a5a 663d b351 dabd
00000270: f244 0f3c c912 993e 410f 4dbe 5f12 1f3e
00000280: 8781 62be 7ccb a0be cb1e 6bbe a846 823d
00000290: 6069 5ebe 6be3 c83e 876b d7bb 9b27 df3d
000002a0: c0b0 68be ea51 843e d64c 353d fc61 86be
000002b0: 0318 44be 0176 3c3e 53b3 8e3e e1e5 493e
000002c0: 7e9a 93be 617b 823e ba73 863e b592 3abe
000002d0: e417 5cbe 0697 77bd eca4 cbbd a788 98be
000002e0: 26dd 95be 7e86 94bd af0e 9fbc 3fd7 523d
000002f0: f452 2dbe 7400 71bd 5a58 a5be 8153 51bd
00000300: fbd8 3b3e 3967 74bd dc80 b23d 7fc8 4a3e
00000310: a8c3 97be b585 d43d 61cf 78be 804a dabd
00000320: d0dd 49be 6c54 273e 1b19 d53e 7453 adbd
00000330: 4831 523e 1c7f 04be d6ea ab3e 3d3a 9c3e
00000340: 2253 71be 8930 06bd 5637 c53d 6371 02be
00000350: e0f7 22bd 92a3 1abe c7ff 4ebe d598 2abe
00000360: ca60 323e b02b 9c3c 1432 233e d95a 6ebe
00000370: 7439 b6bd 7a5d 14be 7082 a8bd f00b 6abe
00000380: f79e f1bd 027c 50be 48e7 40be eb3e a0be
00000390: 6eb0 afbe e33c 313e 13bf 963e 4d83 82be
000003a0: 144f 9abe 107a 5ebe 1a04 c43e c14e 423d
000003b0: 2633 673e 7395 f1bd 4fe8 653e 0bb8 3b3e
000003c0: 956a d9bb 9ea4 af3e 5995 c0be 960e d0be
000003d0: 4b19 bd3e 9d01 be3e 896d 743e 4325 553e
000003e0: 2d00 723e 70e9 31be 41f5 723e d7a0 9bbc
000003f0: 9243 9abe fb61 0a3e b269 463e 1be9 b93e

out.bias f4 [38]
-0.041896623 0.19871527 -0.11811876 0.16086234 -0.07964663 -0.16666041 -0.022952627 -0.0854206
-0.071142025 -0.02913364 -0.114444286 0.15806499 0.0031128495 0.0035426493 -0.10220399 0.02499379
0.009887844 0.0023354513 0.07114867 0.2025506 -0.062400002 -0.01577557 -0.053618774 0.026040949
0.047745556 -0.11896961 0.2566011 -0.05311485 0.12642878 0.02877613 0.13837993 0.11027495
0.027591037 -0.21737747 -0.057960663 -0.03295923 -0.0003363996 -0.14478734
00000000: cb9b 2bbd 047c 4b3e 40e8 f1bd 19b9 243e
00000010: c61d a3bd 07a9 2abe 2607 bcbc fff0 aebd
00000020: e9b2 91bd aca9 eebc c461 eabd cadb 213e
00000030: f300 4c3b cb2b 683b 5350 d1bd c7bf cc3c
00000040: a000 223c 5f0e 193b 65b6 913d 6d69 4f3e
00000050: 2597 7fbd c53b 81bc 5c9f 5bbd d453 d53c
00000060: d890 433d 57a6 f3bd 3861 833e f58e 59bd
00000070: 8c76 013e ebbb eb3c 78b3 0d3e d5d7 e13d
00000080: 9906 e23c 3398 5ebe 2968 6dbd 4200 07bd
00000090: ca5e b0b9 2243 14be

sep_conn.weight f4 [75, 504]
0.0030823112 0.00902685 -0.0745473 -0.097697794 -0.08690753 -0.090589486 -0.033244845 0.058253776
0.097705185 0.03985628 0.0096481955 -0.027524834 0.010077833 0.042866465 0.022119943 0.031230459
0.05200966 -0.002708148 -0.014539874 -0.020058792 -0.034658518 -0.02126601 -0.02482791 -0.04750733
-0.07375363 -0.09304119 -0.14749485 -0.07110457 0.032102842 0.12494473 0.09977786 0.07957382
-0.021359306 0.06093709 0.092945725 -0.0105497055 0.015168651 0.014088355 -0.004233852 -0.12034485
-0.12530202 -0.053090885 0.038691852 0.063367926 -0.011437788 -0.04933571 -0.10225784 -0.1383672
-0.09888539 0.0037888081 0.06804829 0.05432241 0.030190084 -0.032964908 0.02666326 0.048813153
0.055491243 0.087705106 0.04246123 -0.027916858 -0.08736792 -0.1428062 -0.18858229 0.15824051
0.1423964 0.09892659 0.05929499 0.055224523 0.02934006 0.0129647665 0.011741129 0.05420182
0.03744634 -0.029591668 -0.058471303 -0.030462965 0.034646522 0.07250156 -0.008352872 0.017109158
0.057033617 0.03998118 0.03511511 -0.0076515945 -0.0006097659 0.04551607 -0.036237523 -0.07996455
-0.013787379 -0.0023461203 -0.050206657 -0.039613675 0.038111553 0.027312543 -0.054544248 -0.1269761
-0.024858011 -0.029310727 -0.049302276 -0.08512894 -0.060619615 -0.0024983357 0.011592165 0.10883248
0.110900596 -0.037592884 -0.04074903 0.08433691 -0.111439355 -0.025869343 0.054724034 -0.029858937
-0.11604681 -0.052009985 0.008985688 -0.07494838 -0.019616514 0.018190002 0.046312403 -0.00828573
0.0053460244 -0.052335523 -0.011524286 -0.062128305 0.018939104 0.08646579 0.012472826 -0.006384151
0.0057482147 -0.053134717 0.024800273 0.10273621 0.099587366 0.024638955 -0.024646135 -0.11361476
-0.04844987 -0.11484957 -0.0147742955 0.12413411 0.041357405 0.108437814 0.05290184 -0.031704683
0.05454802 0.09199107 -0.036284607 0.056019384 -0.010378194 -0.058530323 -0.09901272 0.068281114
0.010585035 0.05963825 0.10439841 0.058990072 -0.056539237 -0.049286474 -0.060113493 0.018310914
0.010247673 0.05440674 0.009681465 0.06348577 0.055498984 0.093337975 0.009606507 -0.010980283
0.15147391 0.09530374 0.06245146 0.049886767 0.035692587 0.06543024 0.08836152 0.059288613
0.0037694823 -0.07460851 -0.06772601 0.016391912 0.04814602 0.02316346 0.04524346 0.046188533
-0.0018942491 -0.02023241 -0.10297666 -0.008597696 -0.12295401 0.18313915 0.118703365 0.09045342
0.009157637 0.040948454 0.023251262 0.030914787 -0.01085985 -0.03598622 -0.055666804 -0.0389645
0.16182677 -0.01901689 0.1013013 -0.039004236 -0.01833587 -0.006562094 -0.049412753 -0.09464652
-0.0738753 -0.04721572 0.16546296 0.14488475 0.09509543 0.08737025 0.07176848 0.03244329
0.03252287 -0.0052487743 -0.06723475 -0.05531521 0.020782867 0.045395616 0.043494266 0.045956068
0.040864594 -0.018851742 0.029678255 0.014939035 0.020902447 0.014553334 -0.07123133 0.06862811
0.053848784 0.070227124 0.1113695 0.058041595 0.06311992 0.043620322 -0.076158814 0.08400389
0.09775711 -0.078263395 0.012853529 -0.06741937 -0.04165812 0.027940897 0.018784681 -0.0066789654
0.058407154 0.02601419 0.016219594 -0.013232365 -0.035877015 0.0048402464 0.1137346 0.09272112
00000000: 9a00 4a3b 5ae5 133c 41ac 98bd c815 c8bd
00000010: 93fc b1bd fb86 b9bd bf2b 08bd 839b 6e3d
00000020: a819 c83d 5740 233d 7713 1e3c c37b e1bc
00000030: 7f1d 253c bf94 2f3d e234 b53c 05d7 ff3c
00000040: 1508 553d 2f7b 31bb a738 6ebc 5652 a4bc
00000050: 17f6 0dbd 0e36 aebc e763 cbbc 0c97 42bd
00000060: 250c 97bd 618c bebd e408 17be 469f 91bd
00000070: 457e 033d 06e3 ff3d 5658 cc3d 99f7 a23d
00000080: b6f9 aebc 2c99 793d 545a be3d acd8 2cbc
00000090: ef85 783c d8d2 663c 20bc 8abb 5c77 f6bd
000000a0: 2c4f 00be d475 59bd 597b 1e3d 0bc7 813d
000000b0: 8f65 3bbc 3e14 4abd 8f6c d1bd 22b0 0dbe
000000c0: 6c84 cabd a74d 783b e75c 8b3d 2d81 5e3d
000000d0: 3251 f73c 3606 07bd e96c da3c 4df0 473d
000000e0: c94a 633d bc9e b33d d4eb 2d3d e5b1 e4bc
000000f0: f4ed b2bd ca3b 12be b71b 41be cd09 223e
00000100: 5dd0 113e 069a ca3d 4edf 723d 1c33 623d
00000110: 915a f03c 2c6a 543c dd5d 403c ba02 5e3d
00000120: 5561 193d 3a6a f2bc 9b7f 6fbd 788d f9bc
00000130: 83e9 0d3d b37b 943d 7cda 08bc 8128 8c3c
00000140: 159c 693d 4ec3 233d ddd4 0f3d 3aba fabb
00000150: b2d8 1fba 0f6f 3a3d cc6d 14bd 74c4 a3bd
00000160: 75e4 61bc 5ec1 19bb 7fa5 4dbd f341 22bd
00000170: dc1a 1c3d 8ebe df3c ca69 5fbd 0606 02be
00000180: 07a3 cbbc 0d1d f0bc 2ff1 49bd 1558 aebd
00000190: 464c 78bd 1ebb 23bb 10ed 3d3c 90e3 de3d
000001a0: da1f e33d fffa 19bd 74e8 26bd d4b8 ac3d
000001b0: 513a e4bd f2eb d3bc 4f26 603d bb9a f4bc
000001c0: f3a9 edbd 6c08 55bd b538 133c 897e 99bd
000001d0: d0b2 a0bc 3303 953c 13b2 3d3d dfc0 07bc
000001e0: b42d af3b c65d 56bd 5cd0 3cbc 407a 7ebd
000001f0: 2e26 9b3c fa14 b13d d35a 4c3c 2432 d1bb
00000200: 855b bc3b caa3 59bd f129 cb3c 5d67 d23d
00000210: 76f4 cb3d a2d7 c93c b1e6 c9bc dbae e8bd
00000220: 5f73 46bd 4036 ebbd e30f 72bc 063a fe3d
00000230: 6266 293d a514 de3d 9aaf 583d c5dc 01bd
00000240: bf6d 5f3d d065 bc3d 2b9f 14bd 9574 653d
00000250: 4d09 2abc 7ebd 6fbd 2ec7 cabd f8d6 8b3d
00000260: db6c 2d3c 3d47 743d d5ce d53d 939f 713d
00000270: b095 67bd 9de0 49bd 9139 76bd c500 963c
00000280: dbe5 273c 9ad9 5e3d 029f 1e3c d404 823d
00000290: e752 633d fb27 bf3d 9c64 1d3c a5e6 33bc
000002a0: fa1b 1b3e 9b2e c33d 1acd 7f3d 1156 4c3d
000002b0: 6432 123d 4a00 863d e2f6 b43d 9ed8 723d
000002c0: 6b09 773b 59cc 98bd efb3 8abd 5548 863c
000002d0: c334 453d 4cc1 bd3c 3551 393d 3030 3d3d
000002e0: 7448 f8ba 70be a5bc 6de5 d2bd 5add 0cbc
000002f0: 50cf fbbd d488 3b3e c01a f33d a53f b93d
00000300: ea09 163c 91b9 273d 6e79 be3c 0241 fd3c
00000310: 83ed 31bc 4966 13bd e002 64bd 3d99 1fbd
00000320: ebb5 253e 4fc9 9bbc 0e77 cf3d e8c2 1fbd
00000330: 1b35 96bc d606 d7bb 0765 4abd 09d6 c1bd
00000340: ef4b 97bd 4565 41bd 1f6f 293e ab5c 143e
00000350: 65c1 c23d 2cef b23d 5afb 923d 41e3 043d
00000360: b336 053d e9fd abbb 5fb2 89bd 3492 62bd
00000370: d540 aa3c c1f0 393d 0b27 323d 6e3c 3c3d
00000380: a261 273d f86e 9abc d01f f33c dbc2 743c
00000390: 9c3b ab3c 1b71 6e3c bbe1 91bd e58c 8c3d
000003a0: 8b90 5c3d 3dd3 8f3d b115 e43d 06bd 6d3d
000003b0: 0445 813d 39ab 323d 27f9 9bbd 3b0a ac3d
000003c0: e134 c83d 8f48 a0bd 9c97 523c 2b13 8abd
000003d0: b4a1 2abd 4fe4 e43c 55e2 993c 39db dabb
000003e0: 573c 6f3d b61b d53c f4de 843c 90cc 58bc
000003f0: c7f3 12bd ee9a 9e3b b0ed e83d 92e4 bd3d

sep_conn.bias f4 [75]
-0.10880134 -0.04624545 -0.23060448 -0.23934932 -0.052698627 -0.020705005 0.01129789 -0.12827195
0.10554854 0.027866803 0.10186972 0.16358043 0.17597409 -0.19047256 0.005889935 -0.25676164
0.19917236 0.09507219 -0.11405274 -0.14670591 0.25287035 0.19697618 0.17023711 -0.16958432
-0.17277755 0.24590145 0.28715694 -0.16248828 -0.18264541 -0.20422016 0.11333936 0.03125197
0.024193035 0.083562136 0.0616846 0.23678324 -0.06570763 0.20818736 -0.1475093 0.16740471
0.12445083 -0.03247131 -0.05913667 0.09774649 0.052809235 0.2671457 -0.11542567 0.07982378
0.06863594 0.18943599 0.028826252 -0.04928934 -0.12596463 0.06246955 -0.082197845 -0.03964005
-0.10507062 -0.16665798 -0.007266494 -0.07273203 0.19489668 -0.08414981 0.25863487 0.017043974
0.13953589 0.10372166 0.027194867 0.25316662 0.14719409 0.29767218 0.07358383 -0.15584902
-0.1559352 0.16289651 0.15693815
00000000: 3dd3 debd de6b 3dbd 9523 6cbe fd17 75be
00000010: 84da 57bd 8b9d a9bc c91a 393c b959 03be
00000020: d529 d83d ec48 e43c 12a1 d03d a181 273e
00000030: 8d32 343e 3d0b 43be 5b00 c13b 4376 83be
00000040: d7f3 4b3e 35b5 c23d 7c94 e9bd 133a 16be
00000050: 3978 813e 20b4 493e a352 2e3e 83a7 2dbe
00000060: 99ec 30be 97cd 7b3e 3c06 933e 5463 26be
00000070: 6607 3bbe 171f 51be 771e e83d 1102 003d
00000080: 7930 c63c a022 ab3d fea8 7c3d 4e77 723e
00000090: b991 86bd 112f 553e ae0c 17be 246c 2b3e
000000a0: 14e0 fe3d a300 05bd 4b39 72bd 502f c83d
000000b0: 7f4e 583d 52c7 883e 4b64 ecbd a67a a33d
000000c0: 0091 8c3d 82fb 413e 0825 ec3c 9ee3 49bd
000000d0: dffc 00be 12e0 7f3d 5857 a8bd 9b5d 22bd
000000e0: 442f d7bd 64a8 2abe c51b eebb 88f4 94bd
000000f0: ff92 473e bc56 acbd ca6b 843e ce9f 8b3c
00000100: 7fe2 0e3e 066c d43d c5c7 de3c 0e9f 813e
00000110: 0cba 163e 7d68 983e 1eb3 963d e396 1fbe
00000120: 7aad 1fbe 58ce 263e 65b4 203e

bn.weight f4 [75]
1.0 1.0 1.0 1.0 1.0 1.0 1.0 1.0
1.0 1.0 1.0 1.0 1.0 1.0 1.0 1.0
1.0 1.0 1.0 1.0 1.0 1.0 1.0 1.0
1.0 1.0 1.0 1.0 1.0 1.0 1.0 1.0
1.0 1.0 1.0 1.0 1.0 1.0 1.0 1.0
1.0 1.0 1.0 1.0 1.0 1.0 1.0 1.0
1.0 1.0 1.0 1.0 1.0 1.0 1.0 1.0
1.0 1.0 1.0 1.0 1.0 1.0 1.0 1.0
1.0 1.0 1.0 1.0 1.0 1.0 1.0 1.0
1.0 1.0 1.0
00000000: 0000 803f 0000 803f 0000 803f 0000 803f
00000010: 0000 803f 0000 803f 0000 803f 0000 803f
00000020: 0000 803f 0000 803f 0000 803f 0000 803f
00000030: 0000 803f 0000 803f 0000 803f 0000 803f
00000040: 0000 803f 0000 803f 0000 803f 0000 803f
00000050: 0000 803f 0000 803f 0000 803f 0000 803f
00000060: 0000 803f 0000 803f 0000 803f 0000 803f
00000070: 0000 803f 0000 803f 0000 803f 0000 803f
00000080: 0000 803f 0000 803f 0000 803f 0000 803f
00000090: 0000 803f 0000 803f 0000 803f 0000 803f
000000a0: 0000 803f 0000 803f 0000 803f 0000 803f
000000b0: 0000 803f 0000 803f 0000 803f 0000 803f
000000c0: 0000 803f 0000 803f 0000 803f 0000 803f
000000d0: 0000 803f 0000 803f 0000 803f 0000 803f
000000e0: 0000 803f 0000 803f 0000 803f 0000 803f
000000f0: 0000 803f 0000 803f 0000 803f 0000 803f
00000100: 0000 803f 0000 803f 0000 803f 0000 803f
00000110: 0000 803f 0000 803f 0000 803f 0000 803f
00000120: 0000 803f 0000 803f 0000 803f

bn.bias f4 [75]
0.0 0.0 0.0 0.0 0.0 0.0 0.0 0.0
0.0 0.0 0.0 0.0 0.0 0.0 0.0 0.0
0.0 0.0 0.0 0.0 0.0 0.0 0.0 0.0
0.0 0.0 0.0 0.0 0.0 0.0 0.0 0.0
0.0 0.0 0.0 0.0 0.0 0.0 0.0 0.0
0.0 0.0 0.0 0.0 0.0 0.0 0.0 0.0
0.0 0.0 0.0 0.0 0.0 0.0 0.0 0.0
0.0 0.0 0.0 0.0 0.0 0.0 0.0 0.0
0.0 0.0 0.0 0.0 0.0 0.0 0.0 0.0
0.0 0.0 0.0
00000000: 0000 0000 0000 0000 0000 0000 0000 0000
00000010: 0000 0000 0000 0000 0000 0000 0000 0000
00000020: 0000 0000 0000 0000 0000 0000 0000 0000
00000030: 0000 0000 0000 0000 0000 0000 0000 0000
00000040: 0000 0000 0000 0000 0000 0000 0000 0000
00000050: 0000 0000 0000 0000 0000 0000 0000 0000
00000060: 0000 0000 0000 0000 0000 0000 0000 0000
00000070: 0000 0000 0000 0000 0000 0000 0000 0000
00000080: 0000 0000 0000 0000 0000 0000 0000 0000
00000090: 0000 0000 0000 0000 0000 0000 0000 0000
000000a0: 0000 0000 0000 0000 0000 0000 0000 0000
000000b0: 0000 0000 0000 0000 0000 0000 0000 0000
000000c0: 0000 0000 0000 0000 0000 0000 0000 0000
000000d0: 0000 0000 0000 0000 0000 0000 0000 0000
000000e0: 0000 0000 0000 0000 0000 0000 0000 0000
000000f0: 0000 0000 0000 0000 0000 0000 0000 0000
00000100: 0000 0000 0000 0000 0000 0000 0000 0000
00000110: 0000 0000 0000 0000 0000 0000 0000 0000
00000120: 0000 0000 0000 0000 0000 0000

bn.running_mean f4 [75]
0.0 0.0 0.0 0.0 0.0 0.0 0.0 0.0
0.0 0.0 0.0 0.0 0.0 0.0 0.0 0.0
0.0 0.0 0.0 0.0 0.0 0.0 0.0 0.0
0.0 0.0 0.0 0.0 0.0 0.0 0.0 0.0
0.0 0.0 0.0 0.0 0.0 0.0 0.0 0.0
0.0 0.0 0.0 0.0 0.0 0.0 0.0 0.0
0.0 0.0 0.0 0.0 0.0 0.0 0.0 0.0
0.0 0.0 0.0 0.0 0.0 0.0 0.0 0.0
0.0 0.0 0.0 0.0 0.0 0.0 0.0 0.0
0.0 0.0 0.0
00000000: 0000 0000 0000 0000 0000 0000 0000 0000
00000010: 0000 0000 0000 0000 0000 0000 0000 0000
00000020: 0000 0000 0000 0000 0000 0000 0000 0000
00000030: 0000 0000 0000 0000 0000 0000 0000 0000
00000040: 0000 0000 0000 0000 0000 0000 0000 0000
00000050: 0000 0000 0000 0000 0000 0000 0000 0000
00000060: 0000 0000 0000 0000 0000 0000 0000 0000
00000070: 0000 0000 0000 0000 0000 0000 0000 0000
00000080: 0000 0000 0000 0000 0000 0000 0000 0000
00000090: 0000 0000 0000 0000 0000 0000 0000 0000
000000a0: 0000 0000 0000 0000 0000 0000 0000 0000
000000b0: 0000 0000 0000 0000 0000 0000 0000 0000
000000c0: 0000 0000 0000 0000 0000 0000 0000 0000
000000d0: 0000 0000 0000 0000 0000 0000 0000 0000
000000e0: 0000 0000 0000 0000 0000 0000 0000 0000
000000f0: 0000 0000 0000 0000 0000 0000 0000 0000
00000100: 0000 0000 0000 0000 0000 0000 0000 0000
00000110: 0000 0000 0000 0000 0000 0000 0000 0000
00000120: 0000 0000 0000 0000 0000 0000

bn.running_var f4 [75]
1.0 1.0 1.0 1.0 1.0 1.0 1.0 1.0
1.0 1.0 1.0 1.0 1.0 1.0 1.0 1.0
1.0 1.0 1.0 1.0 1.0 1.0 1.0 1.0
1.0 1.0 1.0 1.0 1.0 1.0 1.0 1.0
1.0 1.0 1.0 1.0 1.0 1.0 1.0 1.0
1.0 1.0 1.0 1.0 1.0 1.0 1.0 1.0
1.0 1.0 1.0 1.0 1.0 1.0 1.0 1.0
1.0 1.0 1.0 1.0 1.0 1.0 1.0 1.0
1.0 1.0 1.0 1.0 1.0 1.0 1.0 1.0
1.0 1.0 1.0
00000000: 0000 803f 0000 803f 0000 803f 0000 803f
00000010: 0000 803f 0000 803f 0000 803f 0000 803f
00000020: 0000 803f 0000 803f 0000 803f 0000 803f
00000030: 0000 803f 0000 803f 0000 803f 0000 803f
00000040: 0000 803f 0000 803f 0000 803f 0000 803f
00000050: 0000 803f 0000 803f 0000 803f 0000 803f
00000060: 0000 803f 0000 803f 0000 803f 0000 803f
00000070: 0000 803f 0000 803f 0000 803f 0000 803f
00000080: 0000 803f 0000 803f 0000 803f 0000 803f
00000090: 0000 803f 0000 803f 0000 803f 0000 803f
000000a0: 0000 803f 0000 803f 0000 803f 0000 803f
000000b0: 0000 803f 0000 803f 0000 803f 0000 803f
000000c0: 0000 803f 0000 803f 0000 803f 0000 803f
000000d0: 0000 803f 0000 803f 0000 803f 0000 803f
000000e0: 0000 803f 0000 803f 0000 803f 0000 803f
000000f0: 0000 803f 0000 803f 0000 803f 0000 803f
00000100: 0000 803f 0000 803f 0000 803f 0000 803f
00000110: 0000 803f 0000 803f 0000 803f 0000 803f
00000120: 0000 803f 0000 803f 0000 803f

net.0.weight f4 [75, 504]
-0.026310831 -0.050428778 -0.032568038 0.00077169854 -0.05903057 0.017066408 -0.025121586 -0.06881881
-0.039744306 -0.007857528 0.04703974 0.042479485 -0.027854454 -0.017918497 -0.042545095 -0.00825112
0.03603244 0.089484826 0.0056354026 -0.036504902 0.09567079 0.021088228 0.016109208 -0.0058182767
0.051134534 0.0010885397 0.075096615 0.0041175196 -0.056215495 -0.065145895 -0.043359123 0.013643794
0.024075033 -0.0068765613 -0.028994687 0.030862737 0.034562588 0.01953907 -0.06455139 -0.08247636
-0.1588796 -0.07491714 0.043623436 -0.048793007 0.0039221323 0.009590519 -0.0035885568 0.01939894
0.035241175 0.044753853 0.011077277 -0.020883083 0.0019036437 0.013465188 0.055895817 0.046800744
0.1367792 0.13087837 0.0510511 -0.05619363 -0.0792108 -0.03011091 -0.05378579 0.04755502
0.091056325 0.03932565 -0.028318247 -0.06794055 -0.09018043 -0.06318176 0.013655664 0.063186355
-0.0028413942 0.051457297 0.07104449 0.035040576 0.03550561 0.041626364 0.040870354 0.018817518
0.0015005496 -0.034116767 -0.00833137 0.018476075 0.08068952 0.09122639 0.028507281 0.08259111
0.039812006 -0.03889298 -0.032767594 0.021589873 0.04788846 -0.015956776 0.033092495 0.09637245
0.006394437 -0.104720704 -0.13375978 -0.12823595 -0.08677846 -0.01461018 0.011320314 -0.057802994
-0.038372755 0.13105588 0.07973829 -0.07106159 -0.060363702 0.08419575 0.037018478 -0.04879844
-0.07570757 -0.034836344 -0.059629705 0.006853987 0.08213393 0.02845235 -0.04135248 0.0042838943
-0.14599866 0.012908739 0.084276594 0.06543972 0.037820388 -0.032362625 0.068743855 -0.030017061
-0.080465734 0.037749935 0.009640548 0.0048074843 0.062023897 -0.011275763 0.041141097 0.0013436638
-0.0400209 -0.0034554396 -0.033109374 0.018685272 -0.08984692 0.10086606 0.030015673 -0.03137233
0.07205909 -0.0070666266 -0.04471573 -0.0056752623 -0.030430488 0.020048209 -0.13834152 0.0074633476
-0.03551219 -0.07667822 0.052734494 0.007995963 0.12762107 -0.13075507 -0.15818696 0.0042876615
0.018888291 -0.04378425 0.012874233 0.03324341 -0.087695085 0.0135839805 -0.037468024 -0.12497944
0.03963811 0.13826293 -0.0712385 -0.047086637 -0.058344293 -0.02581794 -0.0086265765 0.09063164
0.067501396 0.013150217 -0.050164975 -0.04593433 -0.024158126 0.05687499 0.049467556 0.009607261
0.073862255 0.048397493 -0.047607426 -0.06886896 -0.016578317 0.051616006 0.030429177 -0.017481774
-0.055219226 -0.073584296 -0.06885696 0.004959958 0.021315336 0.056071408 0.03152409 -0.1226637
0.009898541 -0.090560585 0.050516136 0.019496799 0.01454424 -0.043144047 -0.0144223 -0.0574972
-0.016136792 0.22645406 -0.030910246 0.0064677373 0.007283639 0.018920578 -0.030133363 0.040473413
0.047166746 -0.03753262 -0.004962264 -0.07137614 -0.04645475 0.08016373 0.1121587 0.029829511
0.0061788494 -0.046004247 -0.0007044015 -0.053414743 -0.088255405 0.08670731 0.13484193 0.0030631803
-0.0027112744 0.0039433413 0.005287937 0.027472494 0.021517335 0.013852756 0.10770807 0.036764655
0.050713584 0.05580223 0.109856784 0.18693198 -0.08162991 0.01026876 0.0023787066 -0.036330882
-0.050032493 -0.005665606 0.03196743 0.052693665 0.008328009 -0.024603544 -0.07448468 -0.011848507
00000000: d089 d7bc 688e 4ebd 1066 05bd d04b 4a3a
00000010: 0aca 71bd dace 8b3c c9cb cdbc e0f0 8cbd
00000020: edca 22bd dcbc 00bc beac 403d f8fe 2d3d
00000030: 062f e4bc d0c9 92bc c443 2ebd b52f 07bc
00000040: c096 133d d243 b73d 2fa9 b83b 2a86 15bd
00000050: 0cef c33d 38c1 ac3c 75f7 833c 3ea7 bebb
00000060: 7272 513d 55ad 8e3a 41cc 993d 42ec 863b
00000070: 3842 66bd 366b 85bd 5699 31bd 388a 5f3c
00000080: 0139 c53c c754 e1bb 4486 edbc dad3 fc3c
00000090: 8091 0d3d 6610 a03c 8533 84bd 5ee9 a8bd
000000a0: 55b1 22be 286e 99bd 7dae 323d 2ddb 47bd
000000b0: 3b85 803b 8d21 1d3c fe2d 6bbb 87ea 9e3c
000000c0: 0d59 103d d14f 373d 787d 353c 0013 abbc
000000d0: af83 f93a 189d 5c3c 03f3 643d 23b2 3f3d
000000e0: d90f 0c3e fb04 063e f51a 513d 4b2b 66bd
000000f0: 4639 a2bd 28ab f6bc 7d4e 5cbd 0dc9 423d
00000100: bd7b ba3d ef13 213d abfb e7bc 6a24 8bbd
00000110: 84b0 b8bd 7065 81bd 02bc 5f3c d967 813d
00000120: af36 3abb e3c4 523d c67f 913d b586 0f3d
00000130: 556e 113d 6880 2a3d ac67 273d 3227 9a3c
00000140: 17ae c43a 06be 0bbd 4c80 08bc 235b 973c
00000150: 8c40 a53d e7d4 ba3d 1a88 e93c 8725 a93d
00000160: ea11 233d 3f4e 1fbd 5037 06bd 3fdd b03c
00000170: b126 443d c9b7 82bc ff8b 073d eb5e c53d
00000180: 6d88 d13b cf77 d6bd 53f8 08be 4950 03be
00000190: e8b8 b1bd 895f 6fbc d778 393c d5c2 6cbd
000001a0: c02c 1dbd 8333 063e d44d a33d bd88 91bd
000001b0: ee3f 77bd d26e ac3d b0a0 173d dfe0 47bd
000001c0: 920c 9bbd 8eb0 0ebd 473e 74bd 6997 e03b
000001d0: d535 a83d e714 e93c 3861 29bd e95f 8c3b
000001e0: ac80 15be 2d7f 533c 3599 ac3d 4305 863d
000001f0: 8de9 1a3d ac8e 04bd 94c9 8c3d 57e6 f5bc
00000200: 38cb a4bd ad9f 1a3d 64f3 1d3c 1a88 9d3b
00000210: c50c 7e3d fabd 38bc 9183 283d e01d b03a
00000220: f5ec 23bd a874 62bb b29d 07bd db11 993c
00000230: a901 b8bd dd92 ce3d 6ee3 f53c 4680 00bd
00000240: b793 933d 298f e7bb d727 37bd 8df7 b9bb
00000250: 5c49 f9bc 243c a43c 66a9 0dbe 198f f43b
00000260: 3b75 11bd 7809 9dbd 2000 583d 8001 033c
00000270: 19af 023e a8e4 05be c3fb 21be 837f 8c3b
00000280: 9ebb 9a3c 1d57 33bd 72ee 523c 3e2a 083d
00000290: 7b99 b3bd 588f 5e3c 1278 19bd 38f5 ffbd
000002a0: 925b 223d cc94 0d3e 7ee5 91bd ebdd 40bd
000002b0: 6dfa 6ebd 2580 d3bc 7c56 0dbc 159d b93d
000002c0: 2c3e 8a3d 0274 573c ca79 4dbd a325 3cbd
000002d0: 43e7 c5bc c0f5 683d 7e9e 4a3d c667 1d3c
000002e0: 1845 973d 733c 463d 0100 43bd 2b0b 8dbd
000002f0: 40cf 87bc 4e6b 533d 9c46 f93c f035 8fbc
00000300: 8e2d 62bd 5db3 96bd e104 8dbd 2587 a23b
00000310: 809d ae3c 22ab 653d 671f 013d 1b37 fbbd
00000320: 7d2d 223c d477 b9bd 02ea 4e3d c0b7 9f3c
00000330: f74a 6e3c d0b7 30bd 834b 6cbc 2f82 6bbd
00000340: 4e31 84bc 93e3 673e 7c37 fdbc 50ef d33b
00000350: 98ab ee3b 54ff 9a3c 3eda f6bc 73c7 253d
00000360: eb31 413d cebb 19bd 7d9a a2bb a72d 92bd
00000370: 5647 3ebd e22c a43d 76b3 e53d 055d f43c
00000380: f277 ca3b f36e 3cbd 96a7 38ba 6bc9 5abd
00000390: 40bf b4bd 9a93 b13d 0114 0a3e a3bf 483b
000003a0: a3af 31bb 2537 813b 6e46 ad3b ff0d e13c
000003b0: 1f45 b03c abf6 623c 0c96 dc3d 8996 163d
000003c0: 0cb9 4f3d e190 643d 98fc e03d 196b 3f3e
000003d0: 952d a7bd 4d3e 283c 13e4 1b3b b1cf 14bd
000003e0: dfee 4cbd 8ca6 b9bb 48f0 023d 50d5 573d
000003f0: 3472 083c 5f8d c9bc 6d8b 98bd 3e20 42bc

net.0.bias f4 [75]
-0.057810456 0.19906351 0.0076624015 -0.16064818 -0.014008402 -0.038910598 -0.17430668 0.07447807
0.08108526 0.026861576 0.052747067 -0.018339548 0.09175862 -0.115702964 0.08674329 -0.1481962
-0.08848542 -0.068890356 -0.057763696 0.047430776 -0.06689848 0.12522748 -0.056797702 -0.10880437
0.033113774 -0.10815911 -0.018977046 -0.011957065 0.22893481 -0.16293873 0.05478983 0.121992506
0.06961855 0.058727082 0.15486193 0.06833335 -0.07753531 -0.052040525 -0.104818754 -0.06792875
0.16133937 -0.051444333 0.0032032724 -0.09647625 -0.051347096 -0.028965738 -0.07132875 -0.21660168
0.0028243826 -0.124477625 0.03182598 0.039238606 -0.042752843 -0.16445011 0.13717395 -0.07194495
0.18934739 0.14717953 -0.06342537 0.009896904 -0.16942185 0.009817936 0.006089333 -0.22244518
-0.029954042 -0.030737324 -0.050272234 -0.12559164 0.049873773 0.098178364 -0.00046622453 -0.121904604
0.09450398 0.15505521 0.005697015
00000000: a8ca 6cbd 4ed7 4b3e e214 fb3b f580 24be
00000010: 7f83 65bc b860 1fbd 737d 32be f587 983d
00000020: 0710 a63d cf0c dc3c 4f0d 583d d23c 96bc
00000030: f2eb bb3d adf5 ecbd 77a6 b13d bfc0 17be
00000040: d837 b5bd 6316 8dbd a099 6cbd c646 423d
00000050: 1202 89bd a23b 003e b5a4 68bd d3d4 debd
00000060: 4fa2 073d 8682 ddbd c075 9bbc 91e7 43bc
00000070: e36d 6a3e 69d9 26be 4d6b 603d 35d7 f93d
00000080: 2c94 8e3d cf8b 703d 2094 1e3e 5bf2 8b3d
00000090: d5ca 9ebd 7228 55bd 37ab d6bd 3a1e 8bbd
000000a0: 2636 253e 4bb7 52bd feed 513b 5795 c5bd
000000b0: 5551 52bd 8e49 edbc cf14 92bd d5cc 5dbe
000000c0: 4719 393b 20ee febd f55b 023d a9b8 203d
000000d0: 9b1d 2fbd 9c65 28be 5477 0c3e e057 93bd
000000e0: 48e4 413e 3bb6 163e 29e5 81bd a026 223c
000000f0: ec7c 2dbe 69db 203c 0789 c73b abc8 63be
00000100: 2e62 f5bc d7cc fbbc 42ea 4dbd 189b 00be
00000110: 7148 4c3d bd11 c93d 996f f4b9 1fa9 f9bd
00000120: 4d8b c13d cbc6 1e3e 07ae ba3b
